models/mpnn_A139_B23_E300_L2/12.pt (torch, 742651 bytes, 9 tensors)

atom_lin.weight f4 [300, 139]
0	0xbe12b596	-0.14327082
1	0xbe69ff72	-0.22851351
2	0x81bc388b	-6.914143e-38
3	0xa7752394	-3.4019867e-15
4	0x28e07231	2.4918518e-14
5	0x9febeb02	-9.991516e-20
6	0x3e10c2b4	0.14136773
7	0x3e37e394	0.17957908
8	0xbd0c53bf	-0.034259554
9	0x3df24424	0.11829403
10	0xaa43bfd0	-1.7386028e-13
11	0x9f867197	-5.6939126e-20
12	0x3d2ec705	0.04267027
13	0x12886e72	8.610034e-28
14	0x28cc92bc	2.2712186e-14
15	0xbdef2d24	-0.11678532
16	0x3e1d4d40	0.153615
17	0x3ddda156	0.10821788
18	0x2a4f4fbc	1.8412957e-13
19	0x9715b5b6	-4.837385e-25
20	0x97ba3be8	-1.2035091e-24
21	0xa5d70af2	-3.7303972e-16
22	0x9023d2c7	-3.230846e-29
23	0x1d5d7585	2.9309863e-21
24	0xa097be87	-2.5706475e-19
25	0xa9974296	-6.717298e-14
26	0xbe319b5a	-0.17344418
27	0x3e0ba671	0.13637711
28	0xa74eadda	-2.8682488e-15
29	0x822ba82a	-1.2611357e-37
30	0x25521ea5	1.8224979e-16
31	0x8035836b	-4.914425e-39
32	0x2a14c9ac	1.321501e-13
33	0x8b13902b	-2.841963e-32
34	0x20dd116b	3.7450383e-19
35	0xbddcd85f	-0.10783457
36	0x8ec28434	-4.7952e-30
37	0xa7e334aa	-6.3062255e-15
38	0x00db2adc	2.0127349e-38
39	0x95f22739	-9.7804904e-26
40	0x0989ea9a	3.320217e-33
41	0x19e3677e	2.351305e-23
42	0x28d3bc46	2.3507356e-14
43	0x2686743e	9.329625e-16
44	0x96ec126a	-3.8139477e-25
45	0x8c6929d5	-1.7962255e-31
46	0xa762269b	-3.1384729e-15
47	0xa7668d16	-3.1995395e-15
48	0x27385957	2.558356e-15
49	0x840c11a8	-1.6465028e-36
50	0xa96cd6c2	-5.25888e-14
51	0x80357e1f	-4.912525e-39
52	0x80356d55	-4.906502e-39
53	0x3cf68690	0.030093461
54	0x80016f0e	-1.31674e-40
55	0x134742d0	2.5150272e-27
56	0x8383620f	-7.722001e-37
57	0x9f77e474	-5.2493256e-20
58	0xa60b76d9	-4.838638e-16
59	0x18efd929	6.1999328e-24
60	0x1ab0e9da	7.31697e-23
61	0x80356abf	-4.905575e-39
62	0xa1c6896c	-1.3453377e-18
63	0x003586d1	4.915644e-39
64	0x8e7d0b3d	-3.1190069e-30
65	0x8bd5906e	-8.226193e-32
66	0x86f9831f	-9.3856055e-35
67	0x1dad0937	4.5802247e-21
68	0x27d9b9ae	6.0430913e-15
69	0xa5768b4c	-2.1384294e-16
70	0x1eaefb0d	1.8526799e-20
71	0xa67e4027	-8.8210895e-16
72	0x0557e3bf	1.0151082e-35
73	0xa1f243c5	-1.6416496e-18
74	0x23267a31	9.024753e-18
75	0xa4d4c018	-9.2265764e-17
76	0xa885ec8a	-1.4868549e-14
77	0x92111356	-4.5777766e-28
78	0x15b5c5cc	7.3417386e-26
79	0x948b25c9	-1.4050317e-26
80	0x851336b0	-6.921951e-36
81	0x003585b2	4.915242e-39
82	0x2983bc80	5.850268e-14
83	0x01638740	4.1790352e-38
84	0xa2b93d54	-5.0209284e-18
85	0x80356889	-4.904781e-39
86	0x929b733d	-9.810284e-28
87	0x1721ac57	5.223943e-25
88	0x1411290a	7.328723e-27
89	0x232a9375	9.246944e-18
90	0xa95d4de2	-4.913941e-14
91	0x9dc83639	-5.2995624e-21
92	0x0889b8e0	8.2888515e-34
93	0x8011a192	-1.619164e-39
94	0x212569ee	5.604437e-19
95	0x8ecc828b	-5.041559e-30
96	0x9e838987	-1.3927044e-20
97	0xaa722ece	-2.1510156e-13
98	0x241e568d	3.43341e-17
99	0x97e286e1	-1.4638956e-24
100	0xa3e772ac	-2.5093636e-17
101	0x94ea3c33	-2.3651706e-26
102	0x25424f06	1.6853592e-16
103	0x262d7dea	6.019208e-16
104	0x80357580	-4.909432e-39
105	0x1d9b9a9b	4.1188017e-21
106	0x2582b4b6	2.267386e-16
107	0xa39d6e72	-1.706875e-17
108	0x0304cd5b	3.902705e-37
109	0x8da3172b	-1.0051228e-30
110	0x00356e93	4.906948e-39
111	0x80358d88	-4.918053e-39
112	0x1d4aff1f	2.6866372e-21
113	0x96a632ed	-2.6850885e-25
114	0x0310343a	4.237775e-37
115	0x8e07abf3	-1.6722825e-30
116	0x0035877e	4.915887e-39
117	0x28218ed0	8.968263e-15
118	0x1e682aab	1.2290801e-20
119	0x3e0fceb8	0.140437
120	0x3e1e0976	0.15433297
121	0x3e54672d	0.20742483
122	0x3e3fd739	0.18734445
123	0xbdcf3cef	-0.10119044
124	0x254ef3e9	1.7950292e-16
125	0x3c90a203	0.017655378
126	0xa2a360c6	-4.42837e-18
127	0x9b7f22e3	-2.1104378e-22
128	0x3c95c963	0.018284505
129	0x3dbefbfa	0.093254045
130	0xbdda70d7	-0.10666054
131	0xbcb40dd2	-0.021979246
132	0xbe0f95ea	-0.14022031
133	0x3c6ce69f	0.014459281
134	0x1757d3c4	6.9737533e-25
135	0xa575143d	-2.125722e-16
136	0x863c5fc9	-3.5429242e-35
137	0x0e88a8ca	3.3689126e-30
138	0x3d8b8282	0.06812002
139	0x3e20cfa3	0.15704207
140	0x3c990879	0.018680798
141	0x801b1538	-2.48717e-39
142	0x9abbf9ee	-7.774517e-23
143	0x12ba46cb	1.1755702e-27
144	0x1eebceb9	2.4967091e-20
145	0x3d6dc7cc	0.05805187
146	0x3e52c5c4	0.20583254
147	0x3d9712ec	0.07376656
148	0x3cc39c7c	0.023878329
149	0x21526c2c	7.129393e-19
150	0x0e37ee21	2.2671146e-30
151	0xbd4e946d	-0.05043452
152	0xa770e34e	-3.3429913e-15
153	0x1a0a1aaf	2.8559286e-23
154	0xbe641298	-0.22272718
155	0xbcd948f4	-0.026524045
156	0x3e131129	0.14362015
157	0x0035895d	4.916558e-39
158	0x283bfcc3	1.0435394e-14
159	0x18a39473	4.2284408e-24
160	0x0b85044e	5.1236213e-32
161	0x1bd0d6e1	3.4549576e-22
162	0xa777a0a9	-3.436523e-15
163	0x979b8a38	-1.0051532e-24
164	0x3e9092e4	0.2823707
165	0x3e9d86cd	0.30766907
166	0xbe49a744	-0.19692713
167	0x23a65de2	1.8037517e-17
168	0xa69acf1c	-1.0742034e-15
169	0x26d2e80c	1.4634574e-15
170	0x05ae849a	1.6411591e-35
171	0x222618a4	2.251024e-18
172	0x9559f0d9	-4.4012796e-26
173	0x15e69147	9.312547e-26
174	0xbc46602d	-0.012107891
175	0x9e7abcbd	-1.327392e-20
176	0x00357a0f	4.911068e-39
177	0x2a116911	1.2915039e-13
178	0x9f8430c6	-5.5984863e-20
179	0x06a8ca3e	6.3491744e-35
180	0x234f46fa	1.1236522e-17
181	0x80357f25	-4.912892e-39
182	0x26299783	5.883899e-16
183	0x803578f5	-4.910673e-39
184	0x002f2ae2	4.331652e-39
185	0x87516c23	-1.5755191e-34
186	0x1e3cc83a	9.994043e-21
187	0x939d6a98	-3.973748e-27
188	0x279b1ab4	4.3050094e-15
189	0x9e911358	-1.5360473e-20
190	0xa6902ad0	-1.0003612e-15
191	0x8dac2a01	-1.06104305e-30
192	0x3e6ebedd	0.23314996
193	0x244d94e2	4.4578398e-17
194	0x0e1f867e	1.9663019e-30
195	0x1701b168	4.1906066e-25
196	0x088b232e	8.374029e-34
197	0x014fdf3a	3.8180053e-38
198	0x2891a56d	1.6169976e-14
199	0x296739dd	5.1342492e-14
200	0x28997791	1.7038266e-14
201	0x95503a31	-4.205117e-26
202	0x85e935ab	-2.1930929e-35
203	0x28002f9e	7.115753e-15
204	0x92d30886	-1.3318073e-27
205	0x12540edd	6.6913725e-28
206	0x2181a33e	8.78459e-19
207	0x258606ef	2.3249993e-16
208	0x9e59bad8	-1.1526523e-20
209	0x98e6550e	-5.953949e-24
210	0x80358a2b	-4.916847e-39
211	0x8e30ce16	-2.1792902e-30
212	0x29ec6ed2	1.04997296e-13
213	0x9fd04883	-8.821139e-20
214	0x1d1c21f5	2.0663983e-21
215	0x2866645b	1.2789326e-14
216	0x00358950	4.91654e-39
217	0x29e485fe	1.0148478e-13
218	0x93f03022	-6.063198e-27
219	0x2543bd1d	1.6977628e-16
220	0xa3c91837	-2.1802719e-17
221	0xa0ba9808	-3.1610231e-19
222	0x9012d6e2	-2.8958963e-29
223	0x80357d31	-4.912192e-39
224	0x00f36b95	2.2354619e-38
225	0xa90eb0f1	-3.1683806e-14
226	0x803587dd	-4.91602e-39
227	0x11bc1a4b	2.9677374e-28
228	0xa26e0b2f	-3.2260935e-18
229	0x2a1681a2	1.3367652e-13
230	0x0d06c7b6	4.153233e-31
231	0x1d8a2c72	3.657425e-21
232	0x1cde72dd	1.4720419e-21
233	0x29de9392	9.88438e-14
234	0x1bc42588	3.2449734e-22
235	0xa946517b	-4.4035505e-14
236	0x86277eca	-3.150236e-35
237	0x860f8eed	-2.7000316e-35
238	0x9c132cde	-4.869621e-22
239	0x99321545	-9.20668e-24
240	0x20888ccd	2.313247e-19
241	0xa0688eed	-1.9698455e-19
242	0x2058bfa8	1.8359325e-19
243	0x8043db2c	-6.231602e-39
244	0xa006b33e	-1.1409548e-19
245	0x80546b23	-7.752615e-39
246	0x1afe4df2	1.05177865e-22
247	0x213842a9	6.242985e-19
248	0x24177cfb	3.2848768e-17
249	0x15fe9866	1.02830225e-25
250	0x25316e51	1.538968e-16
251	0x8b511ced	-4.0273697e-32
252	0x81dd6b7d	-8.1336817e-38
253	0xa209b0ff	-1.8660663e-18
254	0x9b54e5c5	-1.7610472e-22
255	0x94270d88	-8.434014e-27

atom_lin.bias f4 [300]
0	0x3c3120c4	0.010811035
1	0xbb9b15b3	-0.0047328114
2	0xbd426ebe	-0.047468893
3	0xbca26698	-0.019824311
4	0x3d8b02de	0.06787656
5	0x3d8d6258	0.06903523
6	0xbce102c4	-0.027467139
7	0x3d848ed9	0.064725585
8	0x3d1b5852	0.037926026
9	0x3d4835fd	0.048879612
10	0x3dca19f2	0.0986823
11	0x3ca7b953	0.020474112
12	0x3d25fdda	0.040525295
13	0x3dc22047	0.09478813
14	0xbcfab922	-0.030605856
15	0x3c884668	0.016635135
16	0xbc1f9840	-0.009740889
17	0x3dde60f5	0.10858337
18	0x3c98e1f2	0.018662427
19	0x3d911e9c	0.070859164
20	0x3d9e7a74	0.077382
21	0x3c00013a	0.007812792
22	0xbd21baaa	-0.039484657
23	0xbaacab78	-0.001317366
24	0x3baed41e	0.005335345
25	0x3dcfbf81	0.10143948
26	0x3db359f4	0.087573916
27	0xbc34ef43	-0.011043373
28	0xbdf4b75c	-0.119490355
29	0xbdecc673	-0.11561289
30	0x3d540c68	0.051769644
31	0xbd426f65	-0.047469515
32	0x3d8e8796	0.06959455
33	0x3db532cc	0.08847579
34	0xbd374f3c	-0.0447533
35	0x3d7db55c	0.061940536
36	0x3db349a5	0.08754281
37	0x3d5f4bb1	0.054515544
38	0x3d8f91f8	0.07010263
39	0xbd1c23d9	-0.038120124
40	0xbb85a702	-0.004078747
41	0x3ba5d57a	0.005060849
42	0xbce4b006	-0.027915966
43	0x3d97043c	0.073738545
44	0xbd6114df	-0.054951545
45	0x3d437d2e	0.047726803
46	0x3d9c93d6	0.07645385
47	0x3cbd4cf1	0.023107978
48	0x3d308878	0.043098897
49	0xbab340e5	-0.0013675956
50	0x3cf51210	0.02991584
51	0x3cacaad5	0.021077553
52	0xbd8b286d	-0.0679482
53	0xbcd448aa	-0.025913555
54	0x3b67ca44	0.0035368362
55	0xbbe366ce	-0.0069397455
56	0x3dd0a58b	0.10187825
57	0xbd0a0497	-0.033695783
58	0xbcb30c6d	-0.021856511
59	0x3d9d55e7	0.076824
60	0xbc8f47d7	-0.01749031
61	0x3daf8293	0.08569827
62	0xbdb4f89f	-0.08836483
63	0x3d11bbc2	0.03557945
64	0x3dde52f8	0.10855669
65	0xb99e6521	-0.00030211455
66	0xbd0b057e	-0.033940785
67	0xbd17fdaa	-0.037107147
68	0xbcda99b4	-0.02668462
69	0xbd5b558d	-0.053548384
70	0x3d9dd616	0.07706849
71	0x3e04bbba	0.12962237
72	0x3d83549c	0.06412622
73	0x3d8bb650	0.06821883
74	0x3bed7d8c	0.0072476324
75	0x3d7153f5	0.05891796
76	0xbc4306c5	-0.011903469
77	0xbd6cc2ae	-0.05780285
78	0x3dba8eae	0.09109245
79	0x3d873b4b	0.06603106
80	0x3d066b16	0.03281697
81	0x3d962cd4	0.07332769
82	0xbb9d81df	-0.0048067416
83	0xbd24ba29	-0.0402166
84	0x3d004428	0.031315
85	0x3dbda4a5	0.09259919
86	0xbd4df0b0	-0.050278366
87	0xbd81fcc4	-0.06347039
88	0xbd37d30c	-0.044879004
89	0x3b9ab6e5	0.0047215098
90	0xbd366c13	-0.04453666
91	0x3ce2a5e9	0.027667003
92	0x3dd063d3	0.1017529
93	0xbd98ee68	-0.074673474
94	0xbae7d35f	-0.0017686895
95	0xbe1325ed	-0.14369936
96	0xbdcbeed5	-0.09957663
97	0xbd18c44c	-0.03729658
98	0xbd5c0989	-0.05372003
99	0xbcfb23b3	-0.030656671
100	0xbde13ebe	-0.10998295
101	0xbb8407dc	-0.004029257
102	0x3d1fd242	0.039018877
103	0x3d8c9c77	0.06865781
104	0xbdb65cb6	-0.08904402
105	0x3d096db1	0.033551876
106	0xbc795818	-0.015218757
107	0x3e074354	0.13209277
108	0x3dcb80e5	0.09936694
109	0xbd12bbd7	-0.03582367
110	0x3d0cfb7c	0.03441952
111	0x3c2cccfb	0.010546918
112	0xbdee8f7d	-0.11648462
113	0x3d62bf9f	0.055358525
114	0x3c97d54e	0.018534329
115	0x3ba0514c	0.004892504
116	0xbcc58c84	-0.024114855
117	0x3d540029	0.051757965
118	0xbbfa13c3	-0.0076317503
119	0xbc741f02	-0.014899971
120	0x3d244f83	0.04011489
121	0x3b93b502	0.004507662
122	0x3d736b8a	0.05942873
123	0xbcce9d0a	-0.025221366
124	0xbcad1776	-0.021129351
125	0x3db3a6e4	0.08772066
126	0x3c9771d6	0.018486898
127	0xbb1ee0fd	-0.002424299
128	0x3c51403d	0.012771663
129	0x3c58cd8b	0.013232599
130	0x3b2950a2	0.0025835414
131	0x3dcb7b1a	0.09935589
132	0x3ca680c8	0.02032508
133	0xbcb18f9c	-0.021674924
134	0x3cbc3435	0.022974113
135	0x3d24ebba	0.04026387
136	0x3da93dd9	0.0826375
137	0x3d5c9cdb	0.053860527
138	0x3d16b4bf	0.036793467
139	0x3daedbd4	0.08538023
140	0xbd63e265	-0.05563583
141	0x3c718d4b	0.0147431595
142	0x3cf4a9e6	0.02986617
143	0xbd35b7cd	-0.04436474
144	0xbd8ab5e1	-0.06772972
145	0xbd7f51c8	-0.062333852
146	0xbd044a48	-0.032297403
147	0x3d434e6a	0.047682203
148	0xbd1457e5	-0.036216635
149	0x3db10ac8	0.086446345
150	0xbd61c900	-0.05512333
151	0xbd3aab0d	-0.045573283
152	0x3da7a3a1	0.081855066
153	0x3831f324	4.242653e-05
154	0x3dc887ad	0.09791503
155	0x3dbce2ec	0.092229694
156	0x3d2b6490	0.04184395
157	0xbdb0be45	-0.08630041
158	0x3d094c77	0.03352019
159	0x3dc0ac31	0.09407843
160	0x3db9f1de	0.09079336
161	0x3d4aa042	0.04946924
162	0x3d47b8da	0.048760273
163	0xbd86e10e	-0.065858945
164	0x3d5bf541	0.05370069
165	0xbd45475d	-0.04816376
166	0x3dc1f89e	0.09471248
167	0x3de23d0c	0.110468
168	0x3dd507ef	0.10401904
169	0x3aa2ebd0	0.0012429897
170	0x3d6de831	0.058082763
171	0x3d9c2f64	0.076262265
172	0x3dd5e07d	0.10443208
173	0x3bf9753d	0.007612853
174	0xbe16ee34	-0.14739305
175	0x3d04d641	0.03243089
176	0x3dc72e2b	0.09725603
177	0xbce6ec06	-0.028188717
178	0x3ddda94d	0.10823307
179	0x3b5924ed	0.0033133582
180	0xbcc2636e	-0.023729052
181	0x3dac84c5	0.08423761
182	0xbcdd150a	-0.026987571
183	0x3d8b6cf5	0.06807891
184	0x3c3b3fe3	0.011428806
185	0x3dca40d7	0.098756485
186	0x3d4f9941	0.050683264
187	0x3ca9d07d	0.020729298
188	0x3ddc084b	0.10743769
189	0x3dab9024	0.08377102
190	0x3dd0ba43	0.101917766
191	0xbd1402b6	-0.036135398
192	0x3da5f76c	0.081038326
193	0xbb76dc65	-0.0037667986
194	0x3d051d70	0.032498777
195	0xbd058d6b	-0.03260557
196	0x3d6ebd37	0.058285918
197	0xbc8c6252	-0.017136727
198	0x3df442f9	0.119268365
199	0x3ca1476a	0.019687373
200	0xbda204bc	-0.07911059
201	0x3d912b7b	0.07088371
202	0xbd15c231	-0.03656215
203	0x3d447e3a	0.04797194
204	0x3c20dbab	0.009817998
205	0x3cac6526	0.021044325
206	0x3cc7a02d	0.02436837
207	0x3d65a530	0.05606574
208	0x3d9c3b78	0.0762853
209	0x3d63143a	0.05543921
210	0x3d3ca2bd	0.046053637
211	0x3d946a5a	0.072468475
212	0xbaafb284	-0.0013404642
213	0x3c95654c	0.018236779
214	0xbd5a6c6e	-0.053326063
215	0xbc26124d	-0.010136199
216	0x3d82ab8b	0.063803755
217	0x3dd25ba0	0.10271382
218	0x3d04e7e5	0.032447714
219	0x3c27b5a9	0.010236182
220	0x3d886771	0.06660355
221	0xbb814a7f	-0.003945648
222	0xbb137ab8	-0.0022503566
223	0xbce04574	-0.027376868
224	0x3dbc2620	0.09186959
225	0xbc5ac668	-0.013352968
226	0x3d164f98	0.036697
227	0xbd23beea	-0.03997699
228	0x3d3c48f2	0.045968004
229	0x3d820c13	0.06349959
230	0xbbb1f8b9	-0.0054312614
231	0xbb00652f	-0.001959156
232	0xbcf204bf	-0.029543279
233	0x3d43e4cd	0.047825623
234	0x3c0a3f2c	0.008437913
235	0x3dc77316	0.09738748
236	0xbc843ee2	-0.016143266
237	0x3d60771a	0.054801084
238	0xbb899c4e	-0.004199541
239	0x3d2d1264	0.042253867
240	0xbd54b9fd	-0.051935185
241	0x3e142457	0.14466988
242	0x8f01f7c9	-6.407913e-30
243	0x3dc2e6c2	0.0951667
244	0x3c3e714e	0.011623694
245	0x3d9e806e	0.0773934
246	0xbd2b7758	-0.041861862
247	0x3dc02429	0.09381897
248	0xbd69fcf6	-0.057126008
249	0x3d76287b	0.0600972
250	0xbdb084b2	-0.086190596
251	0x3d2663af	0.04062241
252	0x3dcf587c	0.10124299
253	0xbaffd51c	-0.0019518468
254	0xbc0baa85	-0.008524542
255	0x398b0620	0.0002651671

bond_lin.weight f4 [300, 23]
0	0x2e027450	2.9661884e-11
1	0xbeed183a	-0.46307546
2	0x3d6a0b69	0.057139788
3	0x3f0d2d28	0.5514703
4	0x9a38f43c	-3.82476e-23
5	0x2e940a5b	6.7321e-11
6	0x37530c99	1.2579513e-05
7	0xb2ee2515	-2.772371e-08
8	0x20c50d5b	3.3381936e-19
9	0x1f156361	3.163418e-20
10	0xac1ed552	-2.2571567e-12
11	0xb1a4d1a4	-4.7968616e-09
12	0x3eed09f1	0.46296647
13	0x3536abdf	6.805039e-07
14	0xab80e25a	-9.157772e-13
15	0x3a15d25e	0.0005715246
16	0x003589fd	4.916782e-39
17	0xb785133e	-1.5863796e-05
18	0x22946f46	4.0233296e-18
19	0xb740cf41	-1.1492347e-05
20	0xb7255b99	-9.856093e-06
21	0xa05b4c36	-1.8575238e-19
22	0x2e798183	5.6731075e-11
23	0x00d0ad6f	1.9164e-38
24	0x3ef0ddf4	0.47044337
25	0x3f09adea	0.53780997
26	0x3e84a992	0.25910622
27	0x801046b6	-1.494734e-39
28	0x34342704	1.6778e-07
29	0x00357a9a	4.911262e-39
30	0x20e90b50	3.9479221e-19
31	0x2fcbe0b7	3.7085154e-10
32	0x9d5bbee0	-2.9083089e-21
33	0xb7c69562	-2.3673001e-05
34	0x30d22070	1.528873e-09
35	0xbe9dffd9	-0.3085926
36	0x270b3337	1.9317889e-15
37	0x3a8bf288	0.0010677138
38	0x29956532	6.634484e-14
39	0xb39016d7	-6.709677e-08
40	0xb0f4d628	-1.7814203e-09
41	0x8035884b	-4.916174e-39
42	0xb8e7df6a	-0.000110565525
43	0xb0aaec5c	-1.2436305e-09
44	0xa1ae3b9c	-1.1806477e-18
45	0x9f00a957	-2.724513e-20
46	0x06b83a13	6.929844e-35
47	0xbed9f25e	-0.42567724
48	0xbef09f24	-0.46996415
49	0xbf1f3575	-0.62190944
50	0x3a3af4c5	0.00071318104
51	0x21354083	6.1410566e-19
52	0xb5843fa3	-9.853287e-07
53	0xba049d3c	-0.000505883
54	0x36203c84	2.3877083e-06
55	0x3856cc32	5.1211748e-05
56	0xa05e9784	-1.8854264e-19
57	0x33c738cb	9.27699e-08
58	0xbdf4c0cd	-0.11950836
59	0xb64f0dde	-3.0853475e-06
60	0x901f6850	-3.143758e-29
61	0x2a2348a9	1.4502517e-13
62	0xab494b68	-7.151419e-13
63	0x22f90041	6.7491854e-18
64	0xa9a801d8	-7.4610186e-14
65	0x36a07695	4.7821763e-06
66	0x3a1cf72b	0.00059877586
67	0xae11140d	-3.298699e-11
68	0x87981bee	-2.2886834e-34
69	0xa764514d	-3.168543e-15
70	0x3e907b37	0.28219005
71	0x3ea4c670	0.32182646
72	0xbe9ab492	-0.3021589
73	0x38c6b3e8	9.474886e-05
74	0x2e991784	6.961812e-11
75	0x8803338f	-3.9481985e-34
76	0x3a703e72	0.00091645785
77	0x1bdc2b90	3.6424099e-22
78	0xac7493b4	-3.4756477e-12
79	0x08cf866e	1.2489964e-33
80	0x15de449d	8.977334e-26
81	0xbe2b3693	-0.16720037
82	0x38c7a7a0	9.520282e-05
83	0x2e9a22b7	7.009276e-11
84	0xb048893e	-7.295461e-10
85	0xa96b958c	-5.2310193e-14
86	0x2eaf0c2a	7.9602394e-11
87	0xb1cd7143	-5.9791616e-09
88	0x9a96497e	-6.215728e-23
89	0xaec13a40	-8.786971e-11
90	0xb34b2ef6	-4.730733e-08
91	0x9088122c	-5.367054e-29
92	0x80049ff6	-4.24725e-40
93	0x3e447512	0.19185284
94	0x3e65a216	0.22425112
95	0xbf08c5ad	-0.5342663
96	0x2d4b05ad	1.1540474e-11
97	0x30bd9ce9	1.3796156e-09
98	0xaa061614	-1.1909251e-13
99	0x87427489	-1.4629184e-34
100	0x3477b2e9	2.3068755e-07
101	0xad95dc02	-1.7037042e-11
102	0x9c48ba06	-6.641488e-22
103	0x8c753aef	-1.8891848e-31
104	0xbefab5fe	-0.48966974
105	0x3811ea66	3.4788995e-05
106	0xb196577b	-4.37552e-09
107	0xb4e10ba6	-4.191799e-07
108	0xb3431269	-4.541872e-08
109	0x9b9e1928	-2.6155164e-22
110	0xa68ca574	-9.759298e-16
111	0xb57459e1	-9.1027874e-07
112	0x8e73227d	-2.9968668e-30
113	0xaf0f248f	-1.3018762e-10
114	0x37d2e493	2.5140389e-05
115	0x017772c6	4.544908e-38
116	0xbed0f44e	-0.4081139
117	0xbda54ea6	-0.080716416
118	0x3de209d0	0.11037028
119	0x38979400	7.227808e-05
120	0x8035682e	-4.904654e-39
121	0xae39b08e	-4.2220942e-11
122	0x34d783ad	4.0142677e-07
123	0xba204c75	-0.00061149086
124	0x3601993d	1.9311694e-06
125	0xae5f4318	-5.076392e-11
126	0x2f360619	1.655497e-10
127	0xbc298c09	-0.010348328
128	0x32bcff11	2.2002071e-08
129	0x2dedf574	2.7052784e-11
130	0xae19ef03	-3.5000457e-11
131	0xa05bc6e4	-1.8615829e-19
132	0xa3bff553	-2.081216e-17
133	0x2f0cc292	1.2802051e-10
134	0x33904b49	6.719217e-08
135	0x39cc9f20	0.0003902847
136	0x371a6515	9.20265e-06
137	0x90f42b5a	-9.6307824e-29
138	0x34ac9337	3.214461e-07
139	0xbec3deda	-0.3825596
140	0xbf0391f8	-0.51394606
141	0x3cddf2f4	0.027093388
142	0x31de1790	6.463729e-09
143	0x16a4106e	2.6505998e-25
144	0x370daa52	8.443911e-06
145	0x9416661c	-7.593202e-27
146	0x0f7eafdb	1.25570354e-29
147	0xb9b6ec90	-0.00034889998
148	0xb904db92	-0.00012670297
149	0x25c1be0d	3.3608947e-16
150	0xbe5a0c7c	-0.21293825
151	0xb88471cf	-6.315449e-05
152	0xb68d04f4	-4.202704e-06
153	0x307fa7c0	9.3006847e-10
154	0xb84d4e9e	-4.8949027e-05
155	0x8e4ae2e1	-2.500766e-30
156	0xb8ec718b	-0.00011274506
157	0xa3767925	-1.336134e-17
158	0xb34aa660	-4.7183107e-08
159	0x303632ea	6.628357e-10
160	0x9c9c8d8a	-1.0359801e-21
161	0x230c6cec	7.61248e-18
162	0x3ec42108	0.3830645
163	0xbf058ed1	-0.52171046
164	0x3ebfc698	0.37456203
165	0xaa974313	-2.686953e-13
166	0x80357641	-4.909703e-39
167	0xb66ffa32	-3.5759408e-06
168	0xba337425	-0.0006845615
169	0xb9d956fe	-0.0004145428
170	0x38d78dfd	0.00010278446
171	0xb337523a	-4.2682792e-08
172	0x9efe7e80	-2.6945615e-20
173	0x3c674d86	0.014117604
174	0x8d0604d2	-4.129774e-31
175	0xb981e181	-0.0002477281
176	0xba262a48	-0.0006338698
177	0xaabd3518	-3.3609985e-13
178	0x2f9488e2	2.7018304e-10
179	0x803570d0	-4.907751e-39
180	0x15cab840	8.1877846e-26
181	0x965185fb	-1.6925162e-25
182	0xa4cbf37d	-8.84497e-17
183	0xb9ef3277	-0.00045623232
184	0xba4be7ab	-0.00077783567
185	0x3dad643e	0.08466385
186	0xbf11e3b1	-0.56988055
187	0x3e650080	0.22363472
188	0x0c05f2cb	1.031901e-31
189	0x2999a8ed	6.823869e-14
190	0x2231a691	2.4076153e-18
191	0x39cecaa3	0.00039442358
192	0xb3f2b29d	-1.1301493e-07
193	0xac79ddb3	-3.5508096e-12
194	0x121c34a7	4.928982e-28
195	0x9fed8509	-1.0059349e-19
196	0xbedc6c76	-0.430515
197	0xb8ecdd1d	-0.000112945425
198	0x0f3014f1	8.681503e-30
199	0x93ffca2f	-6.457042e-27
200	0x2af4d7bf	4.349281e-13
201	0xb5ffeeaa	-1.9068441e-06
202	0x10ec05af	9.3094344e-29
203	0x2fdaaa52	3.977499e-10
204	0x9af279bd	-1.0028553e-22
205	0xb0d93468	-1.5803723e-09
206	0x385f02e6	5.3170043e-05
207	0x26f20d66	1.6795755e-15
208	0xbe8905fa	-0.26762372
209	0x3ed9c103	0.4253007
210	0x3d350911	0.0441981
211	0x3a245c4c	0.0006269857
212	0x1d8cb7bd	3.7247672e-21
213	0xb6c90b04	-5.991549e-06
214	0x9784b39a	-8.575638e-25
215	0xb993e340	-0.0002820734
216	0x0df9c124	1.5392307e-30
217	0xb37c6503	-5.8765192e-08
218	0x38c8babd	9.571526e-05
219	0x3e985782	0.29754263
220	0x3882b137	6.231892e-05
221	0x31d8e368	6.3122805e-09
222	0xb479e1a8	-2.3272025e-07
223	0xba68f13c	-0.00088860444
224	0x25920e7e	2.5336783e-16
225	0x3952ab89	0.00020091062
226	0xba6833a7	-0.00088577945
227	0x988be416	-3.6160966e-24
228	0xa2067ebc	-1.822748e-18
229	0xb9625419	-0.00021584368
230	0x328ab603	1.6148084e-08
231	0xbe2f58ed	-0.17123766
232	0xbe145ffc	-0.1448974
233	0xbe02d21d	-0.12775464
234	0x80356900	-4.904948e-39
235	0x3909b41a	0.00013132431
236	0xa4d6c947	-9.314868e-17
237	0x0c0c175a	1.0792235e-31
238	0x315e25a1	3.2326641e-09
239	0xa0124bfe	-1.2391825e-19
240	0x24342dd8	3.907011e-17
241	0xa3224c0f	-8.798144e-18
242	0xbea3c4cf	-0.3198609
243	0xb6dd93c1	-6.603514e-06
244	0x827e801b	-1.8697737e-37
245	0x1cb0e3fb	1.1705635e-21
246	0x0e39f788	2.2922193e-30
247	0x0d81756a	7.978505e-31
248	0x1b025395	1.0780355e-22
249	0x3258a8bf	1.2611223e-08
250	0x1a50b37e	4.3158384e-23
251	0x27d3af2e	5.8754195e-15
252	0xb7656a37	-1.3674194e-05
253	0x9b3d4247	-1.5655129e-22
254	0x3e8e443e	0.2778644
255	0x3e68864d	0.22707482

bond_lin.bias f4 [300]
0	0xbd19c799	-0.037543867
1	0xbe0a353f	-0.13496874
2	0x3dc95fd5	0.09832732
3	0xbda61934	-0.08110276
4	0xbe396d27	-0.18108045
5	0xbcecbc45	-0.028898368
6	0xbb4c2bb0	-0.003115397
7	0xbdba1232	-0.09085502
8	0xbd00dc8d	-0.031460334
9	0x3d71f603	0.059072506
10	0xbe66a369	-0.22523274
11	0x3d86912c	0.06570658
12	0x3df31604	0.118694335
13	0x3d909e0d	0.07061396
14	0xbde0248b	-0.1094447
15	0x3cfe75e4	0.031062074
16	0x3dde918e	0.10867606
17	0xbe851fa5	-0.26000705
18	0x3e006811	0.12539698
19	0x3e3832fe	0.17988202
20	0x3d385dce	0.045011334
21	0xbdb956e3	-0.090497755
22	0xbe1a0848	-0.15042222
23	0x3e7b5b63	0.2454658
24	0xbe5f3782	-0.21798518
25	0xbd2d48af	-0.042305645
26	0xbdc257a1	-0.0948937
27	0xbe06d15a	-0.13165799
28	0xbe2aeee2	-0.16692689
29	0x3e3bc9f8	0.18338764
30	0xbdf6a51b	-0.1204321
31	0x3e5d9e10	0.21642327
32	0xbe8438e4	-0.25824654
33	0x3d8965ee	0.06708895
34	0x3e0e7def	0.13915227
35	0xbe3f1a18	-0.18662298
36	0x3dcad609	0.09904105
37	0x3d921514	0.071329266
38	0xbe84e674	-0.25957072
39	0x3d8ee685	0.06977562
40	0x3e100abd	0.14066596
41	0x3e7b9eb5	0.2457226
42	0xbcfe5f1b	-0.03105121
43	0x3e01fd1c	0.1269421
44	0xbe18a27a	-0.1490573
45	0x3e94c50b	0.29056582
46	0x3b7ab409	0.0038254282
47	0x3d6354b5	0.055500705
48	0x3cdb371d	0.026759678
49	0xbe30ce8d	-0.17266293
50	0xbe3b3693	-0.18282537
51	0x3dcc610d	0.099794485
52	0x3df4c05e	0.11950754
53	0xbe1ee43f	-0.15516756
54	0xbe10bf1a	-0.141354
55	0x3d7f1253	0.062273335
56	0x3d33a775	0.04386087
57	0xbe6c63da	-0.23084965
58	0x3e291871	0.1651323
59	0xbe1642ec	-0.14673966
60	0x3df4d670	0.11954963
61	0x3ced58b7	0.028972967
62	0xbd30e7dd	-0.043189872
63	0xbe89a0c9	-0.26880482
64	0x3e02d99d	0.12778325
65	0xbe530c1b	-0.20610087
66	0x3e3a21ec	0.18177003
67	0x3e705ff1	0.23474099
68	0x3e344eda	0.17608204
69	0x3d39f8d8	0.04540333
70	0x3dc49a0c	0.095996946
71	0xbda165c6	-0.0788074
72	0x3d241c5a	0.0400661
73	0x3e23490c	0.15945834
74	0x3d4adc6c	0.049526617
75	0xbd79dd85	-0.061002273
76	0xbc81f8cd	-0.015865708
77	0x3e2cea79	0.16886319
78	0xbd11159f	-0.03542101
79	0xbda33add	-0.07970212
80	0xbe0cd430	-0.13752818
81	0xbe6f0fcd	-0.23345871
82	0xbe9328fc	-0.28742206
83	0x3d2feaa0	0.042948365
84	0x3cee5657	0.029093904
85	0xbe4dbfb8	-0.20092666
86	0xbe0110ec	-0.12604111
87	0xbe083fa3	-0.13305525
88	0x3deae519	0.11469478
89	0xbe0d70bf	-0.1381254
90	0x3e658c5a	0.22416821
91	0xbe084080	-0.13305855
92	0xbe11d8f5	-0.14242919
93	0x3ceadcf9	0.028669821
94	0xbe2080ef	-0.15674184
95	0xbc205dda	-0.009788001
96	0x3cbf4de5	0.023352573
97	0x3e57a5c5	0.2105933
98	0x3b5415d2	0.0032361639
99	0xbc96880f	-0.018375425
100	0xbd84fb7c	-0.06493279
101	0xbde15af6	-0.110036775
102	0xbd801b09	-0.062551565
103	0xbe6aa3a7	-0.22913991
104	0xbe6b23c2	-0.2296286
105	0x3e8858ab	0.26630148
106	0x3da0eb76	0.078574106
107	0xbde75098	-0.11294669
108	0xbe3d5a21	-0.18491413
109	0x3b846ed5	0.0040415325
110	0x3e6f6292	0.23377445
111	0xbdb38ca9	-0.08767063
112	0x3d1b1ab8	0.037867278
113	0x3d2cb600	0.042165756
114	0xbe563761	-0.20919563
115	0xbe477f79	-0.1948222
116	0x3e5e232e	0.21693107
117	0xbca0b26d	-0.01961633
118	0xbe3a4e22	-0.18193868
119	0x3e4869fa	0.19571677
120	0xbe637834	-0.22213823
121	0xbe8016d7	-0.25017425
122	0xbb9ac055	-0.004722635
123	0xbe817e36	-0.25291604
124	0xbe2eae75	-0.17058738
125	0xbe49b4cc	-0.19697875
126	0xbdf4f5cc	-0.119609445
127	0xbe6f3ba7	-0.233626
128	0xbe45b206	-0.19306192
129	0x3d852ae3	0.065023206
130	0x3e001c35	0.1251076
131	0xbe4aba2c	-0.19797581
132	0x3dda22b4	0.1065115
133	0x3cdd8f3b	0.027045837
134	0xbe26db87	-0.1629468
135	0x3dc38b4a	0.09548052
136	0x3e4fe405	0.20301826
137	0xbcc07f28	-0.023498133
138	0x3db7a7a4	0.08967522
139	0xbd86ea80	-0.06587696
140	0xbe2b6108	-0.16736233
141	0x3e38018b	0.17969339
142	0xbe2868e3	-0.16446261
143	0xbda36d28	-0.07979804
144	0x3cd36064	0.025802799
145	0xbcc2a5a7	-0.02376063
146	0x3e3d38ea	0.18478742
147	0x3e861718	0.26189494
148	0x3dc680d0	0.09692538
149	0xbd200561	-0.03906763
150	0xbe5fa881	-0.21841623
151	0x3e081175	0.1328791
152	0xbdcd3ac9	-0.10020978
153	0xbe363be3	-0.17796282
154	0x3de90a1e	0.11378883
155	0xbdb02e5e	-0.08602594
156	0x3d2cd287	0.042192962
157	0xbd7c3710	-0.06157595
158	0xbe46d973	-0.19418888
159	0x3e1d22dc	0.15345329
160	0xbd7f2f3a	-0.062300898
161	0xbe37c2ce	-0.17945406
162	0xbe361d74	-0.17784673
163	0xbe43dba5	-0.19126756
164	0xbbe2ae42	-0.006917746
165	0x3b0fa66e	0.0021919268
166	0x3cc7e0c8	0.024399176
167	0x3d1f8f58	0.038955063
168	0x3d6d8b8a	0.057994403
169	0xbec20f2e	-0.37902206
170	0x3cdec515	0.027193585
171	0x3c23e86e	0.010004146
172	0x3e09959e	0.1343598
173	0x3e156be9	0.14591946
174	0xbe0f7e21	-0.14012958
175	0x3e31e32e	0.17371818
176	0xbe217977	-0.15768991
177	0xbe0f97c5	-0.14022739
178	0xbe2c2570	-0.16811156
179	0xbdaf6362	-0.08563878
180	0xbe8a60de	-0.2702703
181	0x3d693a26	0.05694022
182	0x3e287d1c	0.16453975
183	0xbda1277b	-0.078688584
184	0xbcc910b7	-0.024544103
185	0xbe195cfd	-0.14976878
186	0xbe4f04d9	-0.20216693
187	0xbdc02543	-0.09382107
188	0xbd01583d	-0.03157829
189	0xbdf0ec28	-0.11763793
190	0x3e71849f	0.23585747
191	0xbd6b0f40	-0.05738759
192	0xbc8156c3	-0.015788442
193	0x3d6bbe0e	0.057554297
194	0x3dff662b	0.12470659
195	0xbda59b1f	-0.080862276
196	0xbe7bd275	-0.24592002
197	0xbe1d3d48	-0.15355408
198	0xbe052695	-0.13002999
199	0xbe1d3401	-0.15351869
200	0xbe75e8e4	-0.24014622
201	0x3c94e032	0.01817331
202	0xbe468099	-0.19384994
203	0x3d722765	0.0591196
204	0xbe0b264f	-0.13588832
205	0x3d23779d	0.039908994
206	0xbd8b9a32	-0.0681652
207	0x3aedf581	0.0018154831
208	0xbda1d6a0	-0.079022646
209	0xbc07f936	-0.008299163
210	0xbca6d09e	-0.020363148
211	0xbd204c62	-0.039135344
212	0x3e18af9b	0.14910738
213	0x3cbb3176	0.022850733
214	0xbdb6ada6	-0.089198396
215	0x3e5cf9fb	0.21579735
216	0xbd9cdd75	-0.07659427
217	0x3e052d09	0.13005461
218	0xbdbd39a4	-0.0923951
219	0x3e239edd	0.1597857
220	0xbe0eab84	-0.13932616
221	0xbceff298	-0.029290482
222	0xbe914dc4	-0.28379643
223	0xbdd6751a	-0.10471554
224	0xbddf5f72	-0.109068766
225	0xbcab3f41	-0.020904185
226	0x3e6547aa	0.22390619
227	0x3df865f2	0.121288195
228	0xbe1377b9	-0.1440114
229	0xbe5a9143	-0.21344475
230	0x3e6ab8dc	0.22922081
231	0x3c6c8979	0.014437073
232	0x3dc8b9be	0.098010525
233	0x3baa787d	0.0052023516
234	0x3e429506	0.1900216
235	0x3d4427c8	0.0478895
236	0xbd668a3e	-0.05628418
237	0xbd8f88bc	-0.07008502
238	0x3d87922f	0.06619679
239	0xbdbb4aad	-0.09145103
240	0x3cfc7538	0.030817613
241	0x3e1d18a3	0.1534143
242	0x23c3ba44	2.1220829e-17
243	0xbdc94a49	-0.09828622
244	0xbe7d421c	-0.2473225
245	0x3d8eef36	0.069792196
246	0xbd924a3a	-0.07143064
247	0x3d6ccd18	0.05781278
248	0x3e056a0b	0.13028733
249	0xbc57c86c	-0.013170343
250	0x3c88e1a8	0.016709164
251	0x3d9efb8e	0.07762824
252	0xbe3a3191	-0.1818297
253	0xbcbff82a	-0.023433764
254	0xbdb75989	-0.08952624
255	0xbe538b9e	-0.20658728

energy_lin.1.weight f4 [300, 300]
0	0x3d688228	0.05676475
1	0xbdafbde7	-0.08581143
2	0x3e27cd28	0.16386855
3	0xbd87cbe6	-0.066306874
4	0x3d29b5d1	0.04143316
5	0xbd3776e8	-0.044791132
6	0x3dbd9095	0.092560925
7	0xbde64f22	-0.11245562
8	0x3e0c2603	0.13686375
9	0x3dec94de	0.11551832
10	0x3d7cce83	0.061720382
11	0xbd92699c	-0.0714905
12	0xbde5a5a6	-0.112132356
13	0xbde1bc33	-0.11022224
14	0xbc2576b5	-0.010099103
15	0xbd080e97	-0.03321704
16	0x3de07e17	0.1096155
17	0xbb411acc	-0.0029465435
18	0xbd9957ea	-0.074874714
19	0xbd48f248	-0.049059182
20	0x3e4cb517	0.19990955
21	0x3df771ed	0.120822765
22	0x3bc71bc1	0.0060763066
23	0xbd8af5eb	-0.067851864
24	0xbd94eb28	-0.07271415
25	0xbe76cafd	-0.24100871
26	0xbd0c742d	-0.03429048
27	0x3de069fd	0.10957716
28	0x3bd6c1d5	0.0065538683
29	0xba4d5a8e	-0.0007833623
30	0x3cc4583e	0.023967858
31	0xbd9b7667	-0.07590943
32	0x3e327645	0.17427929
33	0x3d04f7ce	0.032462887
34	0x3de75d23	0.11297061
35	0x3e1316b9	0.14364137
36	0x3dbcb70d	0.09214602
37	0xbdd8e7c6	-0.10591082
38	0x3e11bc96	0.14232096
39	0x3e33da26	0.17563686
40	0x3ded039a	0.115729526
41	0xbd9bb334	-0.0760254
42	0x3d99c86b	0.0750893
43	0x3e2eb4e3	0.1706119
44	0xbc2f7e07	-0.0107112
45	0xbedf2452	-0.43582398
46	0x3dc4afcb	0.09603842
47	0x3de4aac8	0.111653864
48	0x3dc2d68c	0.09513578
49	0x3e10eb80	0.14152336
50	0x3d97719c	0.07394716
51	0x3e1586a4	0.14602143
52	0x3babd40d	0.0052437843
53	0x3cc563b7	0.0240954
54	0xbc9b1fca	-0.018936057
55	0x3d8f6b4b	0.070028864
56	0x3e2183ca	0.1577293
57	0x3ddda91f	0.10823273
58	0xbd88ae10	-0.06673825
59	0x3e2f0731	0.17092587
60	0xbd82f1de	-0.06393789
61	0xbd86c84f	-0.065811746
62	0x3d42f392	0.047595568
63	0xbe11d7ba	-0.1424245
64	0x3e26b24c	0.16278952
65	0xbda4c02f	-0.080444686
66	0xbcbf16df	-0.023326335
67	0x3e15bd5f	0.1462302
68	0x3d3ac0a6	0.04559388
69	0xbc8b3521	-0.016993107
70	0x3d1fbc73	0.03899808
71	0x3d94d6bf	0.07267522
72	0x3c9b8cf9	0.01898812
73	0xbe15fd4d	-0.14647408
74	0x3beb512a	0.0071813064
75	0x3d9da135	0.076967634
76	0xbb602e2c	-0.0034207208
77	0x3e072332	0.1319702
78	0x3dbe6643	0.092968486
79	0x3d93206c	0.07183918
80	0x3c4268c4	0.011865798
81	0xbd8af3ef	-0.06784808
82	0x3e1ccd6b	0.15312736
83	0x3cfbff15	0.030761281
84	0x3d8ca5b3	0.06867542
85	0xbd88de33	-0.06683006
86	0x3dfdb59f	0.12388157
87	0x3dd9c946	0.10634093
88	0x3cfe5baf	0.031049578
89	0x3c5c9447	0.013463086
90	0x3dc78309	0.0974179
91	0xbd65820c	-0.056032225
92	0x3e0065a9	0.1253878
93	0x3e00e5bd	0.12587638
94	0x3e3f7ffa	0.18701163
95	0x3c5e998a	0.013586411
96	0x3c1760f0	0.00923942
97	0x3ca4412a	0.020050604
98	0xbd45699e	-0.048196428
99	0x3e139b90	0.14414811
100	0x3ddd7c37	0.10814708
101	0x3d5d557a	0.054036595
102	0xbe1ab837	-0.15109335
103	0x3e04c4f4	0.12965757
104	0x3e2a2f7c	0.16619676
105	0xbe400330	-0.18751216
106	0xbdb6abab	-0.08919462
107	0x3e2e4498	0.17018354
108	0xbc715293	-0.01472916
109	0x3dbfdc98	0.09368247
110	0x3c893b28	0.01675184
111	0x3decf4fd	0.11570165
112	0xbe06ff99	-0.1318344
113	0xbd98295b	-0.07429763
114	0x3be1399f	0.006873324
115	0x3e1be31f	0.15223359
116	0xbe0441a1	-0.1291566
117	0xbdcb6f53	-0.09933343
118	0xbdd5272f	-0.10407864
119	0x3def2d1f	0.11678528
120	0x3d7c773d	0.061637152
121	0x3e00d5f2	0.12581614
122	0x3d2124ab	0.03934161
123	0x3e17c7f7	0.14822374
124	0x3cd3f639	0.025874244
125	0x3e2410db	0.16022055
126	0xbdcc66dc	-0.09980556
127	0xbd3e51ce	-0.046464734
128	0x3d6d8627	0.057989266
129	0x3dd1048d	0.10205946
130	0x3d4e3fa9	0.05035368
131	0xbd924550	-0.071421266
132	0x3dbb351c	0.09140989
133	0x3d933656	0.07188098
134	0x3e127a30	0.14304423
135	0x3e3c5799	0.18392791
136	0xbd009e1b	-0.03140078
137	0x3dc87d60	0.097895384
138	0x3d9dfdc2	0.07714416
139	0x3e0ef071	0.13958909
140	0x3dc9869d	0.098401286
141	0x3dd99cb5	0.106255926
142	0x3d4cc5fe	0.049993508
143	0x3d84f413	0.06491866
144	0x3da05fe9	0.078307934
145	0xbd246638	-0.040136546
146	0xbd3432aa	-0.04399363
147	0xbe32c37f	-0.17457388
148	0x3ce4363c	0.027857892
149	0x3e1811aa	0.14850488
150	0x3dd962c3	0.106145404
151	0xbcd03cf5	-0.025419692
152	0x3d611313	0.05494983
153	0x3d955df6	0.07293312
154	0x3dbb95af	0.09159409
155	0xbdae6535	-0.085153975
156	0x3d902ba8	0.07039577
157	0x3db3fd69	0.087885685
158	0x3cbb7374	0.0228822
159	0xbd47f6c2	-0.04881931
160	0xbd7a3635	-0.061086852
161	0xbcab7aa9	-0.020932512
162	0xbdd2854e	-0.10279332
163	0x3d90550c	0.070474714
164	0x3d151f9d	0.036407102
165	0xbd5e1048	-0.054214746
166	0xbdd3eca0	-0.10347867
167	0x3dd35127	0.10318213
168	0x3e12b224	0.14325768
169	0xbde1a72c	-0.11018214
170	0x3cf940c4	0.03042639
171	0xbd144a6c	-0.036203787
172	0xbe1a77e9	-0.15084805
173	0xbd89a057	-0.067200355
174	0x3cac6b15	0.021047154
175	0xbdabfbf1	-0.083976634
176	0xbd3bfc41	-0.045894865
177	0xbd2e7b05	-0.04259779
178	0x3daf9ec9	0.08575208
179	0xbd206b96	-0.039165102
180	0xbd626909	-0.05527595
181	0x3e2d5111	0.16925456
182	0x3da59428	0.08084899
183	0xbd88515a	-0.066561416
184	0x3df0f2a6	0.117650315
185	0x3e193605	0.14962013
186	0xbd646aeb	-0.055766027
187	0x3dcf4fb2	0.101226225
188	0xbdf475dc	-0.119365424
189	0x3d98aba3	0.07454612
190	0xbd203e29	-0.03912178
191	0x3c917ccb	0.017759701
192	0xbcd2a215	-0.025712052
193	0x3d897c53	0.06713166
194	0x3e1e2441	0.15443517
195	0x3e391260	0.18073416
196	0x3dcc45b6	0.09974234
197	0x3e1a3f07	0.15063106
198	0x3d7ce1ee	0.0617389
199	0xbd9093c9	-0.07059438
200	0xbd5da74a	-0.054114617
201	0xbddbc07d	-0.107300736
202	0x3ca3e491	0.02000645
203	0x3de708f4	0.112810045
204	0x3ce173ed	0.027521098
205	0xbdca2654	-0.09870592
206	0xbd38d3fb	-0.045124035
207	0xbd8e33b7	-0.069434576
208	0x3d13f971	0.036126558
209	0x3e009c26	0.12559566
210	0x3c49cd46	0.012317007
211	0x3e123e2c	0.14281529
212	0x3e0db619	0.13838996
213	0xbcc179be	-0.023617622
214	0xbbb1fdbb	-0.0054318584
215	0x3e009101	0.12555315
216	0x39d043e8	0.00039723446
217	0x3e1b34ca	0.15156856
218	0x3e15f1c2	0.14643005
219	0x3b15101e	0.0022745202
220	0x3dc9aad1	0.09847034
221	0x3c4a2979	0.012338989
222	0xbdf9f673	-0.122052096
223	0x3dd19684	0.10233787
224	0x3dc1d4e1	0.094644316
225	0x3befad4b	0.0073143593
226	0xbe073d53	-0.13206987
227	0xbdc6dcb0	-0.097100616
228	0xba83248a	-0.0010005396
229	0x3e02c384	0.12769896
230	0x3e1e1311	0.15436961
231	0x3dbda78d	0.092604734
232	0xbcafd668	-0.021464542
233	0xbdd3b3f4	-0.10337058
234	0x3e35738b	0.17719857
235	0x3de346df	0.11097502
236	0x3d629b9f	0.055324193
237	0xbdd25b67	-0.1027134
238	0x3df95822	0.12175013
239	0x3e0e91b7	0.13922773
240	0xbda90c63	-0.08254316
241	0xbd8d85b2	-0.06910266
242	0x80358ed8	-4.918524e-39
243	0x3e2da5df	0.16957806
244	0xbda85452	-0.08219208
245	0x3df98909	0.121843405
246	0x3da9bd3a	0.08288045
247	0x3e2dbf22	0.16967443
248	0xbe245e34	-0.1605156
249	0xbde5d017	-0.112213306
250	0x3e0ce555	0.13759358
251	0x3e2b1c51	0.1671002
252	0x3d300ce9	0.042981062
253	0xbdabf07d	-0.08395479
254	0x3d2a7cb9	0.04162285
255	0x3dccd1ef	0.10000979

energy_lin.1.bias f4 [300]
0	0x3be246a6	0.0069053946
1	0x3c3be9fa	0.011469359
2	0xbcabd56f	-0.020975797
3	0xbc8f8ee2	-0.017524187
4	0x3d5f4ef7	0.054518666
5	0xbc5d9bd3	-0.013525921
6	0x3d288304	0.04114057
7	0x3d023e9a	0.031797983
8	0xbd2a0a1b	-0.041513544
9	0x3c9c5dbb	0.019087663
10	0x3da46bb2	0.08028354
11	0xbc802136	-0.015640836
12	0x3d4328dc	0.04764639
13	0x3d2aadf7	0.041669812
14	0x3db08adb	0.086202346
15	0xbbdf72f4	-0.0068191234
16	0x3b37d89e	0.0028052698
17	0x3df71c87	0.12065988
18	0x3caaf06a	0.020866591
19	0x3ccddb78	0.025129065
20	0x3cb1f966	0.021725368
21	0x3bfa8b7a	0.0076460214
22	0xbcb5a4ae	-0.022173252
23	0x3d5e660d	0.054296542
24	0xbccf2b23	-0.025289124
25	0x3c0171d0	0.00790067
26	0x3d1633af	0.036670383
27	0x3d980be5	0.07424144
28	0x3d25bc61	0.040462855
29	0xbc137a74	-0.009001363
30	0xbd15353e	-0.03642773
31	0x3d3b41f7	0.045717206
32	0x3d3fc5c9	0.046819482
33	0xbd366087	-0.04452565
34	0x3d94bbd6	0.07262389
35	0x3d71e90c	0.05906014
36	0xbd37e380	-0.044894695
37	0x3bd0b296	0.0063689454
38	0x3c8cab27	0.017171456
39	0x3cf2f160	0.029656112
40	0xbcb0fb4c	-0.021604203
41	0xbcee4569	-0.029085832
42	0x3d0fc4eb	0.035099905
43	0x3da638d3	0.08116307
44	0x3c131277	0.00897657
45	0x3bc8648e	0.0061155027
46	0x3d6853cf	0.05672055
47	0x3d8de008	0.06927496
48	0xbcef8a6f	-0.029240815
49	0x3cf325ab	0.029681047
50	0x3d7ad935	0.0612423
51	0x3ca83d9a	0.020537186
52	0x3c0fd297	0.008778236
53	0xbc2887e4	-0.010286305
54	0xbb681d5d	-0.0035417893
55	0x39aa2f61	0.00032460227
56	0x3d2a0b84	0.04151489
57	0x3bf53595	0.007483194
58	0xbc44e33a	-0.012017066
59	0x3c06893f	0.008211433
60	0xbd4c7acc	-0.049921796
61	0x3c8e7eaa	0.017394383
62	0xb72f935e	-1.0465124e-05
63	0x3d0465ff	0.032323834
64	0x3d35dca8	0.044399887
65	0xbcbd7d8b	-0.023131153
66	0xbbaecaad	-0.0053342194
67	0xbd22a1cf	-0.039705094
68	0xbce71e97	-0.028212829
69	0xbcf93225	-0.030419419
70	0x3dc122ca	0.094304636
71	0x3a8413b8	0.0010076677
72	0x3cb6c9d2	0.022313032
73	0xbaf5635a	-0.0018721626
74	0x3d74a0f2	0.059723802
75	0x3b2cc559	0.0026362746
76	0x3cce88fa	0.0252118
77	0x3d18bb9c	0.037288293
78	0xbcdc5741	-0.026897075
79	0x3ccc5d42	0.024946813
80	0x3d9eff8b	0.07763585
81	0xbd23176c	-0.03981726
82	0xbc0edf1f	-0.008720188
83	0x3c9b60d0	0.018967062
84	0x3d02d2e3	0.0319394
85	0xbd0b9fba	-0.034087874
86	0x3d1e29c2	0.038614042
87	0xbd213cfd	-0.039364804
88	0x3cf8e112	0.03038076
89	0x3d1817cc	0.03713207
90	0xbc78de86	-0.0151897725
91	0xbc4bf27f	-0.012447952
92	0xbca472cb	-0.020074269
93	0x3d73fb7b	0.059566002
94	0x3b5e444c	0.003391522
95	0xbc0fef9f	-0.008785157
96	0xba8a47dd	-0.0010549981
97	0x3d9e7c60	0.077385664
98	0xbccd74a0	-0.025080025
99	0x3c9b67dc	0.018970422
100	0xbc9459ea	-0.01810928
101	0x3d1875d7	0.037221756
102	0x3c9945aa	0.018709976
103	0x3b33ea82	0.002745301
104	0xbc20c4a1	-0.009812505
105	0xbcbc2b14	-0.02296976
106	0xbca7352e	-0.0204111
107	0x3d4599f4	0.048242524
108	0x3d77ca5d	0.060495723
109	0x3c149019	0.009067559
110	0xbcd32555	-0.025774637
111	0x3d8b7a29	0.068104096
112	0x3d227625	0.039663453
113	0x3c12fa4a	0.008970806
114	0x3ca9c8ca	0.020725626
115	0x3dacb41e	0.08432792
116	0x3688831a	4.068378e-06
117	0xbc28b069	-0.010295966
118	0x3d57675d	0.05258881
119	0xbc31df01	-0.010856391
120	0x3d7a7a70	0.06115192
121	0x3d783d93	0.060605597
122	0x3d23d195	0.039994795
123	0x3bafeb83	0.0053686514
124	0x3c532f61	0.012889714
125	0x3da1f503	0.079080604
126	0x3d239df4	0.039945558
127	0xbbf5b7d2	-0.0074987197
128	0xbd004fd6	-0.031326137
129	0xbc8dd626	-0.017314028
130	0x3bccf013	0.006254205
131	0x3c94bbe2	0.018155996
132	0x3d0940e8	0.033509165
133	0x3d650d6c	0.055921003
134	0xbc81f725	-0.015864918
135	0x3d9244df	0.07142042
136	0xbcdc974d	-0.026927615
137	0xbd215c76	-0.03939482
138	0xbcff7cee	-0.0311875
139	0xbc13c079	-0.009018057
140	0x3c8f3b23	0.017484253
141	0x3c08b27e	0.008343337
142	0x3d8acdfc	0.0677757
143	0xbcd86245	-0.026414046
144	0xbb8923e9	-0.004185189
145	0x3c043e7f	0.008071541
146	0x3bafb084	0.0053616185
147	0x3d4020e9	0.046906386
148	0x3c34217d	0.010994312
149	0xbd1c9f21	-0.038237695
150	0x3cf621f9	0.030045496
151	0xbd7e570f	-0.062094744
152	0x3c2fd3d8	0.01073166
153	0x3b09eff0	0.0021047555
154	0x3d8e2ae4	0.069417745
155	0x3c826ef7	0.015922053
156	0x3d032f55	0.03202756
157	0xbc8ae098	-0.016952798
158	0x3d0327e1	0.032020453
159	0x3c94f4da	0.01818316
160	0x3b5b32b4	0.003344697
161	0x3d53810e	0.051636748
162	0x3d2bd09e	0.041947
163	0x3d1c7d5d	0.038205493
164	0xbc0fd00e	-0.008777631
165	0xbcc4d642	-0.024027947
166	0xbc9ef4f8	-0.01940392
167	0x3ccd05e6	0.025027227
168	0x3d6ed6d4	0.058310345
169	0x3ba052a2	0.004892663
170	0xbc86adbf	-0.01644027
171	0x3b7c44a5	0.0038493064
172	0x3ba3f3d5	0.0050034323
173	0x3cd21654	0.025645413
174	0x3d696fee	0.05699151
175	0x3dba5ef7	0.09100144
176	0x3c93b83d	0.018032188
177	0xbd304ae0	-0.043040156
178	0xb8c8719a	-9.557903e-05
179	0x3cc97c06	0.024595272
180	0x3d80e085	0.06292824
181	0xbc8dd9e0	-0.017315805
182	0x39ed72d0	0.00045289705
183	0xbc970986	-0.018437158
184	0xb7666337	-1.3732169e-05
185	0xbd0b6608	-0.03403285
186	0x3da13748	0.07871872
187	0x3af5d114	0.0018754327
188	0xbcb0e29a	-0.021592427
189	0x3bba769e	0.00569041
190	0x3d60bdb4	0.054868415
191	0x3d1e20d5	0.03860553
192	0x3d394cce	0.045239262
193	0x3bd9844a	0.0066380845
194	0xbced29d5	-0.028950611
195	0x3d4361ef	0.04770082
196	0x3d91ab42	0.07112743
197	0x3cb76fca	0.022392172
198	0xbcb10c5f	-0.021612344
199	0xbc4d4aed	-0.012530071
200	0x3d061e65	0.03274383
201	0x3d465755	0.04842313
202	0x3d6e6cb1	0.058209125
203	0x3c69ab41	0.0142620215
204	0x3d51ebcb	0.05125026
205	0xbc530359	-0.012879216
206	0x3deea0a0	0.116517305
207	0x3d281878	0.04103896
208	0x3c264888	0.010149129
209	0xbd87ab80	-0.06624508
210	0x3d1e31ca	0.0386217
211	0xbd2f0bd4	-0.04273589
212	0xb9a7f149	-0.00032032494
213	0x3d9fd234	0.07803765
214	0x3cf05b07	0.02934028
215	0xbd4548c6	-0.048165105
216	0x3c8e1178	0.017342314
217	0x3d916978	0.07100195
218	0x3d2937e3	0.041313063
219	0xbcb3e36f	-0.021959035
220	0xbc01b515	-0.0079167085
221	0xbca5ccba	-0.020239223
222	0xbd09bbd6	-0.0336264
223	0x3ca9af36	0.02071343
224	0x3db0c597	0.08631437
225	0xbd01b85d	-0.031669963
226	0xbb66254b	-0.0035117443
227	0x3c0687fc	0.008211132
228	0x3daf91aa	0.08572705
229	0xbcac4b16	-0.021031898
230	0x8d0e4ab4	-4.384705e-31
231	0x3c42d001	0.011890412
232	0xbcb58d47	-0.022162093
233	0xbbd77c53	-0.0065761
234	0xbc5fa0d7	-0.013649187
235	0xbd0f0d99	-0.034925077
236	0x3d3eda02	0.046594627
237	0x3ca56c4b	0.02019324
238	0x3e01d949	0.12680544
239	0xbd166b98	-0.036723703
240	0x3cbb6b9f	0.022878466
241	0xbcca6474	-0.024706103
242	0x3c948c4c	0.018133305
243	0xbb09bb93	-0.0021016344
244	0x3cc551a4	0.02408678
245	0x3d207c1b	0.039180856
246	0xbc612726	-0.013742244
247	0x3d105ec2	0.035246618
248	0xbb2ffcb0	-0.0026853494
249	0xbc631fc6	-0.013862556
250	0x3ce380f2	0.027771447
251	0x3d4c0c6c	0.049816534
252	0x3c2e0316	0.010620853
253	0x3d47dd64	0.04879512
254	0xbc87f9a2	-0.016598526
255	0x3d8ae01d	0.067810275

energy_lin.3.weight f4 [150, 300]
0	0xbdae549a	-0.0851223
1	0x3df4d3ff	0.119544975
2	0x3d24d7a2	0.040244706
3	0xbe7a3cb1	-0.24437214
4	0xbd9ea170	-0.077456355
5	0x3cffc758	0.031222984
6	0x3c5d79ab	0.013517777
7	0x3dcbb47a	0.099465325
8	0x3d0ea8e2	0.034829028
9	0x3e2f5d93	0.1712554
10	0xbd78b539	-0.060719702
11	0x3a66766b	0.00087914494
12	0x3dd31bac	0.10308012
13	0x3ddf9d9b	0.10918733
14	0xbc30c811	-0.010789887
15	0x3e05253d	0.13002487
16	0xbd8045ce	-0.06263314
17	0x3d8afe2e	0.06786762
18	0x3dc76821	0.09736658
19	0x3d707abd	0.058710802
20	0x3e12b57a	0.1432704
21	0xbc922d9f	-0.01784402
22	0x3d573c77	0.0525479
23	0x3e200824	0.15628105
24	0x3dd8c42e	0.10584293
25	0x1fd782f7	9.1272705e-20
26	0xbc4057e0	-0.011739701
27	0x3e4916b5	0.19637568
28	0x3d3f1920	0.04665482
29	0x3d7e8bc1	0.062145
30	0x3c9bb26f	0.019005982
31	0x3c04c1d6	0.008102855
32	0x3e064ebc	0.13115972
33	0x3d7e9c3a	0.062160708
34	0xbd48cf46	-0.049025796
35	0x3d4cc26f	0.049990114
36	0x3dc22b2c	0.09480891
37	0xbd1b237f	-0.03787565
38	0xbc0b2e97	-0.008494995
39	0x3e06d4b2	0.13167074
40	0xbe12b2a5	-0.1432596
41	0xbce3d8e8	-0.02781339
42	0x3de11094	0.1098949
43	0x3e37a971	0.1793573
44	0x3da3ec29	0.08004028
45	0x3b702dd5	0.0036648412
46	0x3d156556	0.036473595
47	0x3e9f6d78	0.31138206
48	0xbe83baf5	-0.25728574
49	0xbc8a3754	-0.016872086
50	0x3dd804de	0.10547803
51	0xbd12293d	-0.03568386
52	0xbdc670c9	-0.09689481
53	0xbdb33182	-0.08749677
54	0x3dd718ee	0.10502802
55	0xbdfeffaa	-0.12451108
56	0x3d92fe2c	0.07177386
57	0x3d520aa8	0.051279694
58	0xbe2c5109	-0.16827787
59	0x3d05ee6c	0.03269808
60	0x3cb91a7b	0.022595635
61	0x3e82736b	0.25478682
62	0xbd8894da	-0.06669016
63	0x3db7d187	0.08975511
64	0x3dce1c13	0.100639485
65	0x3ddc8539	0.10767598
66	0xbbae17a8	-0.0053128786
67	0x3e1494e2	0.1450992
68	0xbbaa35b4	-0.00519439
69	0x3c32c6ae	0.010911627
70	0x3df1882f	0.11793553
71	0xbd615e1e	-0.055021398
72	0xbdda1ff1	-0.106506236
73	0x3e03143d	0.12800689
74	0xbbfdcfc4	-0.007745715
75	0xbdabab15	-0.08382241
76	0x3c79aefa	0.015239472
77	0xbd0bfcab	-0.03417651
78	0x3d07214d	0.032990742
79	0x3cfeb501	0.031092169
80	0x3d9d068b	0.076672636
81	0x3dce3007	0.10067754
82	0xbd958a6e	-0.07301794
83	0x3c6323e0	0.013863534
84	0x3d4b8f28	0.04969707
85	0xbdab7d86	-0.08373551
86	0xbe0f5600	-0.1399765
87	0xbe93c708	-0.28862786
88	0xbb5a7943	-0.0033336438
89	0x3e172fc5	0.14764316
90	0x3d10c86f	0.0353474
91	0xbde58d40	-0.11208582
92	0x3ddf19be	0.10893582
93	0xbda576bc	-0.080792874
94	0xbdf91af2	-0.121633425
95	0xbd8bfb2d	-0.06835017
96	0x3514df70	5.545944e-07
97	0xbe6720f2	-0.22571161
98	0x3e0125de	0.12612101
99	0xbdb84647	-0.08997779
100	0xbd206ca6	-0.039166115
101	0x3ded2d18	0.115808666
102	0xbe027b4d	-0.12742348
103	0xbc7572b8	-0.014980964
104	0xbaa1c91b	-0.0012343259
105	0xbc0cb07b	-0.008586998
106	0x3d915035	0.070953764
107	0x3d2848d9	0.041085098
108	0xbc6ed5ce	-0.014577342
109	0x3dc72cd9	0.09725351
110	0xbd10ad58	-0.035321563
111	0x3b497d83	0.0030744977
112	0xbdfc1e86	-0.123105094
113	0xbe31063a	-0.17287531
114	0xbdf01ee2	-0.117246404
115	0xbdca647c	-0.09882447
116	0xbf1047c4	-0.56359506
117	0x3e30ad5c	0.17253631
118	0x3e11b6e9	0.14229931
119	0xbde1a5b3	-0.11017933
120	0x3d7ce259	0.0617393
121	0x3e1b5567	0.15169297
122	0xbc203ab6	-0.009779623
123	0x3d632b24	0.055461064
124	0x3d910206	0.07080464
125	0x3dde02e6	0.108403966
126	0x3ddec606	0.10877614
127	0x3dc23d10	0.09484303
128	0x3dae1402	0.0849991
129	0x3dc90b3c	0.09816596
130	0xbdd3964c	-0.10331401
131	0xbd20998b	-0.03920893
132	0xbd717db6	-0.058957778
133	0xbd913dce	-0.070918664
134	0x3ca77ab5	0.020444253
135	0xbd39eecd	-0.045393754
136	0x3e254f5f	0.16143559
137	0xbe094193	-0.13403921
138	0xbd9cd17f	-0.07657146
139	0x3e10ee0e	0.1415331
140	0xbdeb23a7	-0.114814095
141	0x3eab6d44	0.334818
142	0xbe171bd3	-0.14756708
143	0x3e10dd8f	0.14147018
144	0xbdc30e99	-0.09524269
145	0xbb983dbb	-0.0046460307
146	0x3dd34b89	0.103171416
147	0x3df5c8a4	0.1200116
148	0xbd5b26ce	-0.053503804
149	0xbd7a6da1	-0.061139707
150	0x3e15d205	0.14630897
151	0xbcc8d912	-0.02451757
152	0x3ddb9956	0.10722606
153	0x3da87e2e	0.08227192
154	0x3e03323a	0.12812129
155	0xbd9c8611	-0.07642759
156	0xbd7f6c44	-0.06235911
157	0x3c23fe31	0.010009334
158	0x3deab671	0.11460579
159	0x3ccc2f44	0.024924882
160	0x3d62322e	0.055223636
161	0xbc865a2c	-0.01640042
162	0xbe1ddbfa	-0.15415946
163	0x3b5dbd35	0.00338347
164	0x3e2429ae	0.16031525
165	0xbd8d7644	-0.06907323
166	0x3c474677	0.012162796
167	0x3e0838a5	0.13302858
168	0x3cc22493	0.02369908
169	0x3e89f775	0.26946607
170	0xbd14c6b7	-0.03632232
171	0xbdcf3e57	-0.10119312
172	0x3cadb541	0.021204593
173	0xbde2c0e1	-0.11071945
174	0x3b81bdb0	0.00395938
175	0x3d100258	0.035158485
176	0x3d589f27	0.052886155
177	0x3d0dbdb2	0.034604736
178	0x3d70e2af	0.058809932
179	0x3ca1b379	0.0197389
180	0xbdabbd4d	-0.08385716
181	0x3e24861f	0.16066788
182	0x3da53f29	0.080686875
183	0x3c4ee2ed	0.0126273455
184	0x95895da4	-5.54816e-26
185	0xbde4236e	-0.1113957
186	0x3ca53f96	0.020171922
187	0xbdd411a5	-0.10354928
188	0x3e27dd36	0.16392979
189	0xbe7121e6	-0.23548087
190	0xbe4aeff7	-0.19818102
191	0xbdec3af7	-0.11534684
192	0xbde04bed	-0.10951982
193	0xbdb23aa1	-0.08702589
194	0xbe40bf33	-0.18822937
195	0xbd3f7441	-0.046741728
196	0x3ce74c42	0.028234605
197	0x3d923557	0.0713908
198	0xbcb02eba	-0.021506656
199	0x3bacda2a	0.0052750306
200	0x3d30c685	0.043158073
201	0xbef9e82c	-0.48809946
202	0xbdb5b915	-0.08873192
203	0x3e37bf0e	0.17943975
204	0xbd60a64e	-0.0548461
205	0xbdea7550	-0.11448157
206	0x3e563bcc	0.20921248
207	0xbd123e3d	-0.035703886
208	0xbe05bc98	-0.13060224
209	0xbd8a98e0	-0.0676744
210	0x3dff3fec	0.12463364
211	0xbe0254e7	-0.127277
212	0x3a80ec24	0.0009836
213	0xbda103d0	-0.07862055
214	0xbd89ff95	-0.067382015
215	0x3dd65341	0.10465098
216	0x3dc9f3ac	0.0986093
217	0x3c9a2f92	0.018821511
218	0xbc821551	-0.015879305
219	0x3cf2df3f	0.029647468
220	0xbde4f0a7	-0.11178713
221	0x3d1c6ea5	0.038191456
222	0xbdb673c4	-0.08908799
223	0xbdac78a4	-0.08421448
224	0x3dfc6019	0.12323017
225	0x3be3b8ca	0.006949519
226	0xbc4e43eb	-0.012589435
227	0xbd990201	-0.07471085
228	0x3ddfc614	0.10926452
229	0x3d27a34d	0.04092722
230	0x1fb71035	7.753033e-20
231	0x3c8ca9d6	0.017170828
232	0x3e2ff193	0.17181997
233	0xbbfe0762	-0.007752345
234	0x3cd429a5	0.025898764
235	0xbd84c9a2	-0.06483771
236	0xbde70b53	-0.11281457
237	0x3e0669e0	0.13126326
238	0xbe0f0ee5	-0.13970526
239	0xbd84ec37	-0.06490367
240	0xbd9d0a7b	-0.076680146
241	0x3dcd35d0	0.100200295
242	0x3cfec4ff	0.031099794
243	0xbd64f81c	-0.055900678
244	0xbe8b5a93	-0.2721754
245	0xbcd8d68d	-0.026469493
246	0x3b0f8932	0.0021901843
247	0x3d891591	0.066935666
248	0x3e0897b1	0.13339116
249	0x3e8f873b	0.2803286
250	0x3dd4fe26	0.104000375
251	0xbd95200e	-0.072815046
252	0x3cbfa45b	0.0233938
253	0xbd202b8b	-0.039104026
254	0x3df344cf	0.118783586
255	0x3e237326	0.15961894
