models/mpnn_A139_B23_E300_L2/15.pt (torch, 742651 bytes, 9 tensors)

atom_lin.weight f4 [300, 139]
00000000: c3e4 f8bc 86a5 b4bd a08e 3500 e4f0 a1a4
00000010: 7e72 3580 16db e622 421b 35bd 613a 893e
00000020: d1c0 d4bd a165 03be 8888 3500 be99 5314
00000030: a52f 1bbd 7f61 1c29 fd79 3500 725c a03d
00000040: 023c 91bd f9cf 74bd 9a34 ea9f 4ce2 639e
00000050: 4e41 2822 524b 1e0e 48e9 3b08 fe31 b30e
00000060: 285a 8c91 eda5 6a3e d8a7 bfbd f1d7 23be
00000070: 9a12 90a5 828e a7a1 ba93 5e03 e04f f10b
00000080: 0316 059c 9a45 668a 7ae4 a228 e31a 483e
00000090: 93b1 c3a7 b483 42a5 4175 eb22 ba7b 3500
000000a0: 77c9 9d08 b401 c894 b05b f31d 1966 d20c
000000b0: 1527 84a8 9515 0b9c bbcd dc90 6388 3580
000000c0: bfe2 402a 6977 dd0f 5983 3580 1362 5316
000000d0: 6b37 3229 99cd 483e 3be6 b613 2e5e 371e
000000e0: c67b 3580 e237 bb93 d113 b823 892e 9b10
000000f0: c0a3 52a8 ca77 3580 c311 d326 074c 0a27
00000100: c9dc bb8d c5e4 a18c 1d3f c6a6 c5fc 0d26
00000110: 221f fa1d 9709 2ca9 458c 3580 15e5 079f
00000120: fec2 d819 817b 3580 7a84 3580 2470 c31a
00000130: cb69 569b 4ec4 0508 17d7 cb21 ffed 3f22
00000140: 4382 9f1e ac71 3580 8280 3580 c1ac 791e
00000150: 4974 8117 46e0 3f23 f52c fa85 14ca b911
00000160: bd85 3580 ab60 b390 0f2b 26aa 7b82 3580
00000170: 026d 40aa d822 4189 06f6 b8a2 07c8 b780
00000180: 3d0c 2a84 9581 3500 60e5 0c9a 5f14 ab99
00000190: 774e 0c21 aaf8 19a8 4853 7814 6d87 a220
000001a0: 5578 3580 f193 04a6 7ffc 681d 8bc5 fb10
000001b0: cc2e cf83 11e8 4c93 12c1 b4a9 cf2f 0420
000001c0: 3a71 5d20 b47f 3580 7637 4ca9 eb28 2c8b
000001d0: 4f0c bc01 dc8d a81b c328 bea2 8932 373d
000001e0: 2a83 db3d 88aa d2bd 9113 ca3d d271 fcbd
000001f0: 59c5 de24 b45c 98bd 0533 7824 5ff9 2198
00000200: c10c 1f3e 2597 81bd 4dd4 62bd a87f 2a3e
00000210: 4612 87be fec4 f23d aa2d 6228 f99c ad24
00000220: ab43 5ca7 a0f0 f49d 21f1 ffbc fd0f b9bd
00000230: 1cc3 35be a1ec 7097 f9f7 08a5 243a ae9e
00000240: 11e0 7527 3be8 133e 1d0a d63d 9e6d 0ebe
00000250: 4949 3d3e fa83 1414 8ac0 d1a1 bbf8 cf3d
00000260: c26f e50d 3183 9807 2627 7d3e 481d 77bd
00000270: 471b aebd 15f0 0429 9377 0321 9784 3500
00000280: aefa 1e13 ae21 7ca7 b5f3 3e8b 26c8 290b
00000290: 120c e33d a979 c7bd de81 babd 0fe9 eb17
000002a0: 5083 8d1f de1f b4a3 eb7d c918 f786 5785
000002b0: e943 2aa0 0bd5 2201 578c 84bd f18e 7b01
000002c0: 16ef be89 cf55 b391 8d28 ad0e 226d 3580
000002d0: 285e 4407 7801 6223 c1fe 8520 7ccd f6a7
000002e0: d382 3580 482f 3b10 9472 3881 c0ad ed26
000002f0: 574b 9aa2 fb77 219a 74dd 4313 739c d21c
00000300: ea1a e23c 6a1d 901d 3f33 1c9f ed59 b723
00000310: 5b4b 0926 b383 fc91 bb36 a3a9 6e86 8fa4
00000320: 7527 2529 cb31 9ca3 c46b 3500 e36d 0b01
00000330: 3a67 0d1c 8b87 f283 58ad 0aa8 9682 3580
00000340: ac34 c511 a582 3500 232c 0aaa 9022 3200
00000350: 5179 3500 323d f288 6174 3580 7ac8 801e
00000360: e3c6 ea17 4344 5c1a ddcd a01b d189 07a9
00000370: c61e 1f92 9671 2128 8f6d 3580 8503 b31d
00000380: 2112 2880 f9ec e327 bd4e 43a8 6fac 510f
00000390: aaac 00a5 9bb6 5a26 8f93 1800 eee7 1ba5
000003a0: 262a 6421 5e91 b194 7980 12a9 669b ac95
000003b0: 1e67 3185 8169 a012 23be c2a5 75d4 201f
000003c0: 3e85 3580 9274 8003 f936 219f 7e76 348e
000003d0: a368 3500 48aa 2d98 2fae a61f 2370 3500
000003e0: d869 088e b5de 889d b46e 038c a112 1f8f
000003f0: f5d9 c328 945a 3324 6b07 e293 d376 1925
-0.03038252 -0.088206336 4.918446e-39 -7.0230705e-17 -4.908353e-39 6.257359e-18 -0.04421545 0.26802352
-0.10388339 -0.12831737 4.91626e-39 1.0683098e-26 -0.037887234 3.4723523e-14 4.911042e-39 0.078301325
-0.07091524 -0.05976865 -9.918988e-20 -1.2064077e-20 2.2802818e-18 1.9511269e-30 5.6547486e-34 4.4175048e-30
-2.2143668e-28 0.22914858 -0.093581855 -0.16000344 -2.4992623e-16 -1.1354082e-18 6.540952e-37 9.2950006e-32
-4.403446e-22 -1.1087188e-32 1.8084699e-14 0.19541506 -5.43159e-15 -1.687144e-16 6.3821025e-18 4.911666e-39
9.496458e-34 -2.0195511e-26 6.4416367e-21 3.241707e-31 -1.4671893e-14 -4.6019136e-22 -8.709168e-29 -4.916208e-39
1.7131694e-13 2.1838278e-29 -4.9144e-39 1.7075391e-25 3.9572007e-14 0.1960968 4.6170284e-27 9.707415e-21
-4.911683e-39 -4.726054e-27 1.9957713e-17 6.120842e-29 -1.1692849e-14 -4.910254e-39 1.464588e-15 1.9192562e-15
-1.1577917e-30 -2.4943663e-31 -1.3756117e-15 4.926177e-16 6.620664e-21 -3.819999e-14 -4.9176e-39 -2.8776854e-20
2.2412633e-23 -4.911586e-39 -4.914805e-39 8.083128e-23 -1.7735849e-22 4.0253987e-34 1.3812749e-18 2.601132e-18
1.6888655e-20 -4.908059e-39 -4.913381e-39 1.3217675e-20 8.365784e-25 1.04016225e-17 -2.3526402e-35 2.9312394e-28
-4.915258e-39 -7.075199e-29 -1.4758701e-13 -4.914089e-39 -1.7090845e-13 -2.3247913e-33 -5.0133787e-18 -1.6877652e-38
-1.9989024e-36 4.913767e-39 -2.913661e-23 -1.7689213e-23 4.753769e-19 -8.5471266e-15 1.2537225e-26 2.7533485e-19
-4.910448e-39 -4.59972e-16 3.0835482e-21 9.9306407e-29 -1.2177111e-36 -2.5862838e-27 -8.027098e-14 1.1196653e-19
1.8756892e-19 -4.913093e-39 -4.5345204e-14 -3.3156778e-32 6.9077955e-38 2.7884943e-22 -5.154276e-18 0.04472593
0.10718377 -0.102864325 0.09867013 -0.12326397 9.661147e-17 -0.07439557 5.3819643e-17 -2.0934663e-24
0.15532209 -0.06327657 -0.055378247 0.1665026 -0.2638113 0.118539795 1.2555422e-14 7.529271e-17
-3.0567816e-15 -6.4835063e-21 -0.031242909 -0.09036253 -0.1775021 -7.784685e-25 -1.1880136e-16 -1.8447013e-20
3.4122047e-15 0.14444058 0.10451148 -0.13909003 0.18484987 7.498118e-27 -1.4213356e-18 0.101548634
1.4140119e-30 2.2947525e-34 0.24721965 -0.06033066 -0.085012965 2.9518126e-14 4.454278e-19 4.914846e-39
2.0065998e-27 -3.4990283e-15 -3.6776014e-32 3.269879e-32 0.110862866 -0.09740002 -0.091068015 1.5245351e-24
5.993306e-20 -1.9529135e-17 5.2084427e-24 -1.01340405e-35 -1.442203e-19 2.9907552e-38 -0.0647208 4.6203975e-38
-4.596567e-33 -2.8294104e-28 4.268684e-30 -4.906431e-39 1.4773071e-34 1.22517956e-17 2.2699658e-19 -6.8501503e-15
-4.914212e-39 3.691567e-29 -3.3877668e-38 1.6492274e-15 -4.1821553e-18 -3.339094e-23 2.4721645e-27 1.3937075e-21
0.027600724 3.8146896e-21 -3.3076675e-20 1.9878985e-17 4.763355e-16 -3.9839756e-28 -7.2481483e-14 -6.22441e-17
3.6671583e-14 -1.6934642e-17 4.90594e-39 2.5609108e-38 4.6786404e-22 -1.4254601e-36 -7.698127e-15 -4.914127e-39
3.1113581e-28 4.914148e-39 -1.2272175e-13 4.604173e-39 4.910801e-39 -1.4579232e-33 -4.90903e-39 1.3635442e-20
1.5172102e-24 4.5550075e-23 2.6602816e-22 -3.009556e-14 -5.0209485e-28 8.961925e-15 -4.906584e-39 4.7384545e-21
-3.679923e-39 6.3262083e-15 -1.0841748e-14 1.0337705e-29 -1.1160731e-16 7.588142e-16 2.256986e-39 -1.3522688e-16
7.730519e-19 -1.792977e-26 -3.2529945e-14 -6.971542e-26 -8.3414396e-36 1.0123428e-27 -3.3782477e-16 3.4057058e-20
-4.91508e-39 7.549927e-37 -3.413855e-20 -2.2243765e-30 4.904818e-39 -2.2445696e-24 7.05919e-20 4.907508e-39
-1.6814256e-30 -3.6229174e-21 -1.0125186e-31 -7.842893e-30 2.1743873e-14 3.889116e-17 -5.7057735e-27 1.3310894e-16

atom_lin.bias f4 [300]
00000000: b369 013d ef64 9ebc ec32 2b3d fda6 12bd
00000010: bd6d dd3c 9901 24bc 8b12 013e 6868 bb3c
00000020: 1571 82ba 5658 883d 63aa 283d a130 313d
00000030: 5516 263c bbc1 763c 4ba2 0abd 9a7c 5b3d
00000040: 06ba 543d 9123 703d 2940 c73d 9675 06be
00000050: a4ff aa3d 5574 be3d ade2 34bd 8092 8d3d
00000060: 7caa 46bd baba 223d a1a6 1a3d 4203 d53d
00000070: a7e8 08bc dcf1 4dbd 7952 373d 0540 df3d
00000080: 482e 8a3d 0a29 0dbd d868 4bbb 8c26 443d
00000090: b6d9 9e3d 549e da3d bf6d 163e 255d 88ba
000000a0: fa9b bb3d d099 d23d 70ce ae3d 519e e7bd
000000b0: 4bfb bc3d 118a 753d b0d3 14bd 6cc6 a83d
000000c0: 86ec e93c ef01 b3bd a6e2 97bd 3707 ea3c
000000d0: 13c5 863c c020 d43d fba5 bd3d a411 39bd
000000e0: cfa4 ba3b 33d1 b93d df7b 0ebd 972c 823d
000000f0: 5999 833c c18a 513d aa6b 6f3c b49e 67bd
00000100: 5d64 ed3c a909 913d c815 633d 233a 3ebd
00000110: 0616 86bd 095d 83bc cb27 a8bd 4fc3 d23c
00000120: 4c79 e3bb a330 41bd 284f 893c 02b7 ba3d
00000130: a609 193d dba3 ed3d 8ad9 273d 391c 3d3d
00000140: 3c4d a7bc 4650 4fbd a4e2 a63d a591 0a3d
00000150: a2c3 893d 124d fcbd 3e28 75bd 8d54 c83b
00000160: 08c0 933d 0782 b2bc 446a 233d 0826 173d
00000170: 69c4 54bd 3f5d 63bc dc23 1b3c 669b 9bbd
00000180: 4400 583d f96b f53b 26ba 6f3d 9ee3 883d
00000190: 0b72 ac3d fc5a 13bc 4cff a7bd 5be7 763d
000001a0: a8a6 603d c6ef 1e3d 7c17 4d3d eba1 993d
000001b0: 8a25 a43d 2c3e 213d 7772 463c d2ff 903d
000001c0: 6323 373d e733 acb9 be4c 143d e075 a33d
000001d0: 96ce 58ba 2fc7 b73d b32e 2d3c 78e2 1abd
000001e0: ca85 9a3c bdfc dabc 9948 353d 1788 23bc
000001f0: b2b8 853c e8ae 3ebd aded 203c e256 2e3d
00000200: cdcc cf3d f346 bb3c dfe0 de3d 56d2 74bb
00000210: d048 b93d c09d da3d d387 07bd 3949 2c3c
00000220: 2a8c 9dbd b5e4 1a3c fe31 a6bc f837 3bbb
00000230: e54e 9bbc dd59 2abd ceff a0bc 5241 a13d
00000240: cbe2 dfbc 9c99 c53d 926b 3ebc 739a f13b
00000250: 02aa a73d 84ce 433d 97c6 f8ba b85e 943d
00000260: a6f5 48bc 2a45 20bd 8af5 c63c 8906 87bd
00000270: f725 143c bcc2 8a3d 27a0 903d 41d8 33bd
00000280: 7e08 b1bc 1362 0ebd c118 933c 096f d53c
00000290: cd5d d0bd 3a60 0aba 6b06 7f3d fb47 6dbc
000002a0: d249 a63d 61d6 8f3d fb68 973c 80f0 d93c
000002b0: 6244 cd3c 0fe5 4c3d 4e4d afbd 0528 e3bc
000002c0: 8de7 993d c08b b63d cdce adbd a485 8f3c
000002d0: 5cee 853d c003 41bd b0b8 82bc 67d7 86bc
000002e0: c2bb e33d 60a2 823d 0ab9 9e3d 5f18 cb3c
000002f0: ce81 ab3d bb05 223b 7f1f c9bb dc83 e33d
00000300: 8935 59bd 1d1e ca3d e55c 5a3d 4f24 9a3d
00000310: 3f9b 1bbd 7d07 233c 79c5 0ebd ed16 0abd
00000320: c457 bebc 063b 183d 8383 86bd c163 443d
00000330: 7eef d9bc d7e9 063d f88c be3d 7e6e 6dbc
00000340: dde1 803d e873 5bbd 9633 c23c 686f efb9
00000350: f74e c03d 1da2 05bd eb14 e7bb 1ea5 f43d
00000360: a96b 773d 5ff2 d3bb 2406 933d eb6b 9dbd
00000370: be4a 973d baba f7ba 4d57 1c3a 967a eb3d
00000380: 448c 063d 47fe f23d fa90 9d3d 550d d53d
00000390: 2691 8abc 0edf 39bc 588a 8a3d 24a1 3ebd
000003a0: 95f7 a13d f0b2 5bbd 96ee a13d 3840 16bd
000003b0: 26c7 ddbd 8e79 cb3d b541 5abc 8e78 923d
000003c0: 6059 39bd ea27 023c e929 6f3d e623 0abd
000003d0: 86dd 23bd d524 493d 3315 4bbd 658c 783d
000003e0: f2ed 563d 275a 073d f8df eebc 42db 143d
000003f0: dc87 9b3d 168e 233d 2674 7f3d 4a7d a5bc
0.031594943 -0.019335238 0.04179661 -0.035803784 0.027029866 -0.010010147 0.1260473 0.022876933
-0.0009951914 0.06657474 0.04117812 0.043259267 0.01013716 0.015060837 -0.03384618 0.053585626
0.05193522 0.05862767 0.097290345 -0.13130793 0.08349541 0.09299532 -0.044161487 0.06912708
-0.04850243 0.039728858 0.037756566 0.10401012 -0.00835625 -0.050279483 0.044756386 0.10900883
0.06747109 -0.034462966 -0.0031037834 0.047888324 0.07756369 0.1067473 0.14690302 -0.0010403736
0.091606095 0.10283244 0.085354686 -0.11309493 0.09227618 0.059946124 -0.036334693 0.08240971
0.028555166 -0.08740603 -0.07416277 0.028567893 0.016451394 0.10357809 0.09260174 -0.04518284
0.0056959162 0.09073105 -0.0347861 0.06356161 0.016064333 0.051157717 0.014613071 -0.056547835
0.028978521 0.07081921 0.055440694 -0.046442162 -0.065471694 -0.016035574 -0.08210715 0.025727896
-0.00694195 -0.047165524 0.016761377 0.09116937 0.037362717 0.116035186 0.040978946 0.046169493
-0.02042257 -0.050613664 0.08148697 0.033830304 0.06726767 -0.123193875 -0.05985283 0.006113595
0.072143614 -0.021790517 0.039896265 0.036901504 -0.051945124 -0.013877212 0.009468999 -0.07597999
0.05273463 0.007489678 0.058527134 0.066840395 0.084201895 -0.00899386 -0.08202991 0.06027923
0.054846436 0.038802885 0.050071225 0.075015865 0.080149725 0.039365932 0.0121122515 0.07080044
0.04471148 -0.00032845067 0.036206 0.07981467 -0.000827053 0.08973538 0.010570216 -0.037813634
0.018862624 -0.026731843 0.044258688 -0.009981177 0.016323421 -0.046553522 0.009822291 0.042563327
0.101464845 0.02286098 0.108827345 -0.0037356815 0.09047091 0.1067462 -0.033088516 0.0105155045
-0.0769275 0.009453942 -0.02028751 -0.0028567296 -0.018958518 -0.041589607 -0.019653227 0.07873787
-0.027329823 0.09648439 -0.011622326 0.007373148 0.08186723 0.04780437 -0.0018980083 0.07244629
-0.012265598 -0.03912846 0.024287004 -0.06593043 0.009042255 0.06775424 0.07061797 -0.043907408
-0.021610495 -0.0347615 0.01795614 0.026053922 -0.10174141 -0.0005278621 0.06226198 -0.0144824935
0.08119549 0.070233114 0.018482676 0.026603937 0.025057022 0.050023135 -0.085596666 -0.027729044
0.07514868 0.08913374 -0.0848671 0.01751978 0.06539604 -0.047122717 -0.015957206 -0.016460134
0.11119796 0.06378627 0.07750137 0.024791894 0.08374368 0.0024722654 -0.006137788 0.111091346
-0.05302957 0.09869025 0.053311247 0.075264566 -0.03798985 0.009950516 -0.034856293 -0.03371327
-0.02323521 0.037165664 -0.065680526 0.047946695 -0.026603457 0.03293785 0.093042314 -0.014491675
0.0629308 -0.053577334 0.023706239 -0.00045668636 0.09390061 -0.032625306 -0.007052054 0.11945556
0.060405407 -0.006468102 0.071789056 -0.07686599 0.07387303 -0.0018900253 0.00059639366 0.11497991
0.03284861 0.11864906 0.07693668 0.104029335 -0.016914915 -0.011344684 0.06764668 -0.046540394
0.07908551 -0.053637445 0.07906835 -0.036682338 -0.10829 0.09935294 -0.01332133 0.071519
-0.04525125 0.007944087 0.058389578 -0.03372564 -0.040006183 0.04910739 -0.049580764 0.060680766
0.052473016 0.03304496 -0.029159531 0.036341913 0.075942725 0.039930426 0.062366627 -0.020201344

bond_lin.weight f4 [300, 23]
00000000: 6961 0139 da0b b33e a854 343e 910c cd3e
00000010: db8f 9ab3 4b15 2538 2ff1 869d 5a7a a138
00000020: 38f8 763a 707e 3580 97ac 1901 f99f bc1e
00000030: 4065 cabc 5973 9b33 f033 b232 15ea 1dad
00000040: 247d d515 de51 7382 e07d b69c 091c 43b7
00000050: d3f4 782f 4fdb e826 1be8 8821 74ce 2a21
00000060: 5add 243e f49f 8e3d c8ef aa3e 3447 7335
00000070: 1cb8 ddb4 e6ce 00ab 771c 13af bd94 3f86
00000080: 7a7d 2826 45e6 4c2a ba1f 11b1 0b85 e93e
00000090: fd38 6898 eea1 0d00 99bd d0b9 21c2 4e1c
000000a0: f4d8 12a4 9a4f 8898 bf15 08a9 8082 b6a8
000000b0: 07f4 1c0c 36f9 d4b4 7c76 1a37 6dac 40bd
000000c0: b521 043f ad33 95bd e707 5e82 34e4 6829
000000d0: c0f9 b835 bc83 b9b7 f168 38aa 1827 549e
000000e0: c0f5 c881 e53f 5d00 136c d63e 2f52 0c36
000000f0: d8f3 76b3 5c60 652c 2423 c886 1ada 809d
00000100: b364 b5b7 c61b 738d 3566 7c33 c8c5 4f2e
00000110: aed5 f29e 549e 9031 5a3d 373e 7f04 9bbe
00000120: 7a60 b23e 61b3 4138 4530 a5b8 b62c aa26
00000130: 6ce5 ccac ac03 0e00 6568 f094 0140 dd26
00000140: f9f6 0995 e861 42be 11fc 1d8c b526 e18b
00000150: 8ebf a03a 0e7c 182f 6957 043a b028 5d14
00000160: 407b bd26 370a 4333 9ef8 75ba 5e81 1912
00000170: 3e6d c139 ac0d 0a3f 5e39 5a3e 79b0 fdbd
00000180: 94b6 5b39 93e1 4437 20bc 1e37 52d6 5123
00000190: 9ce0 1bba 1b22 2911 d656 cfaf 7850 bcb9
000001a0: 40f4 bc3d a83a bc23 bbcb 4aba e6cb 48b8
000001b0: 7e52 c034 aa6a 3580 79d8 d220 74a1 aeb5
000001c0: 0fd2 cd2c 9f38 8ba7 31df 9733 0148 6e04
000001d0: 166c 7cbe 7733 c13e 99f2 88bc e630 c88b
000001e0: 6f98 f10e 1818 ae90 6e28 15b4 c847 3cb9
000001f0: 17f9 65a2 e361 443a ff3b f737 046e 863e
00000200: 196f a434 b467 11ae b76a 3580 8841 df89
00000210: 1981 d127 3477 572a 742f 0924 232c 9930
00000220: 9fc6 2925 16bf e1b9 b444 3da7 082e bc3d
00000230: 7064 bebe 590b 713e 4e11 6bb7 f81b 18b9
00000240: 8279 3fb5 72bf b48d ec86 8bb9 f92c 91b2
00000250: 7912 92b5 029e 32b9 3fcd babe cc0f 5b92
00000260: 45f2 d736 0bd6 6686 4f4d 8f38 243f 5c39
00000270: e961 d0b7 5392 1f99 6ff9 822b 4ad0 c413
00000280: 8ac9 eab7 dfc1 ec0f 1fb3 bdbe 6feb 803e
00000290: 5696 d5be 9b22 6838 8b95 7a20 6f3f dbb7
000002a0: 8073 3580 56b7 9db0 1914 6f32 fb8b f837
000002b0: 8840 671d ed1f f33e c4b5 5329 2edc f9a2
000002c0: f32d 4725 19a2 fca8 5afc 981f d778 c9b4
000002d0: fa0e 4db7 0491 b28c 4816 1d3a 78d9 2735
000002e0: 2b30 1fa8 f444 e43e 49de 47be 6c8d 073f
000002f0: 39cd 9723 5071 4b35 a029 32b6 cccd d82e
00000300: 494f 4431 41d9 879d d704 5bb2 14a7 0aaa
00000310: 2959 9a3e 19a1 95af 96eb 33a2 865e 1b3a
00000320: 00af 4f3a c442 e034 8658 0e3a cc38 3a38
00000330: 6b87 6229 8987 4f1d ebc9 ef05 7f68 353a
00000340: ab24 f8be f7c3 98be 36b9 0c3f b461 80b2
00000350: df8b 851d 8d3e 472b e8bf 0f86 76c1 5839
00000360: 8765 20a6 4d5d 88ab 5046 4533 5278 25be
00000370: 5ec5 6d85 2cc7 23b8 2d0f 9bad bc32 26b6
00000380: 94f8 bea9 4238 2d06 6295 eba4 35e9 4481
00000390: c0c1 1a19 f6c7 e385 4c7e de39 a478 043f
000003a0: 56f9 dc3c 6096 483e 71eb 0b23 427b ef29
000003b0: 20b1 b6b8 86a5 84a4 aa0d f821 31fb 2f16
000003c0: 993a 6d90 7dad 9334 ae6d 5d3e 8d28 b1b9
000003d0: 3308 8cb6 6164 b127 1a48 3498 bba7 f815
000003e0: 130f a7b9 bee5 c335 3d3b 8c33 b261 c8b8
000003f0: 2d27 9bb9 b4fe 62b6 0000 d4be 147a 1abf
0.00012338687 0.3496998 0.17610419 0.4004865 -7.197351e-08 3.9358896e-05 -3.5718883e-21 7.699868e-05
0.0009421143 -4.912639e-39 2.822549e-38 1.9971437e-20 -0.024706483 7.2387316e-08 2.0745546e-08 -8.976393e-12
8.622745e-26 -1.7876315e-37 -1.2076288e-21 -1.1629433e-05 2.2642448e-10 1.6157678e-15 9.277156e-19 5.787148e-19
0.16100064 0.069641024 0.33386064 9.062817e-07 -4.1298415e-07 -4.5761864e-13 -1.3379685e-10 -3.6032383e-35
5.845676e-16 1.819873e-13 -2.1118312e-09 0.45609316 -3.0014069e-24 1.251951e-39 -0.00039814113 6.841059e-22
-3.184247e-17 -3.5235553e-24 -3.0216928e-14 -2.0262654e-14 1.2091237e-31 -3.9669402e-07 9.206702e-06 -0.047039438
0.5161393 -0.07285247 -1.6312252e-37 5.1712283e-14 1.3781755e-06 -2.2115062e-05 -1.6378892e-13 -1.1231271e-20
-7.382103e-38 8.563622e-39 0.4187933 2.0909463e-06 -5.7498113e-08 3.2596347e-12 -7.5283273e-35 -3.410683e-21
-2.1623773e-05 -7.4913587e-31 5.876628e-08 4.7242016e-11 -2.5711123e-20 4.2089514e-09 0.17894498 -0.30276868
0.3483923 4.6181845e-05 -7.876804e-05 1.1808239e-15 -5.8234997e-12 1.287014e-39 -2.4274983e-26 1.5352304e-15
-2.7861757e-26 -0.18982661 -1.2170694e-31 -8.672509e-32 0.0012264119 1.3868393e-10 0.00050484255 1.1165673e-26
1.3147916e-15 4.5411266e-08 -0.0009383055 4.8437745e-28 0.0003689322 0.5392711 0.21310946 -0.12387175
0.00020953483 1.1735031e-05 9.461335e-06 1.1375297e-17 -0.000594625 1.3342259e-28 -3.771478e-10 -0.00035918108
0.092262745 2.0407843e-17 -0.00077360467 -4.787361e-05 3.5822808e-07 -4.905545e-39 3.5718633e-19 -1.3010999e-06
5.8497716e-12 -3.864164e-15 7.072084e-08 2.8009828e-36 -0.24650607 0.37734577 -0.016717242 -7.711077e-32
5.9557875e-30 -6.866802e-29 -1.3891415e-07 -0.00017955818 -3.1167154e-18 0.0007491393 2.9472632e-05 0.2625581
3.0628215e-07 -3.306129e-11 -4.905563e-39 -5.3746922e-33 5.814912e-15 1.9137193e-13 2.9747334e-17 1.114476e-09
1.4725709e-16 -0.00043057714 -2.6266263e-15 0.09188467 -0.37186003 0.23539485 -1.4011121e-05 -0.00014506269
-7.132986e-07 -1.1139445e-30 -0.0002661267 -1.6900673e-08 -1.0883224e-06 -0.00017034265 -0.36484715 -6.9123686e-28
6.435703e-06 -4.3415446e-35 6.833171e-05 0.00021004357 -2.4841125e-05 -8.249657e-24 9.306287e-13 4.9682745e-27
-2.7988823e-05 2.3346073e-29 -0.3705072 0.25179622 -0.4171626 5.534534e-05 2.1225303e-19 -2.6136373e-05
-4.908715e-39 -1.1475361e-09 1.3916201e-08 2.9629087e-05 3.0605957e-21 0.47485295 4.7009068e-14 -6.772471e-18
1.7276067e-16 -2.8047919e-14 6.4791985e-20 -3.752709e-07 -1.2222439e-05 -2.751252e-31 0.0005992395 6.2528807e-07
-8.836718e-15 0.44583857 -0.19518389 0.5295017 1.6458368e-17 7.5788284e-07 -2.6548296e-06 9.8590996e-11
2.8566822e-09 -3.5958838e-21 -1.2748578e-08 -1.2314829e-13 0.3014615 -2.721741e-10 -2.4383742e-18 0.0005926866
0.00079225004 4.177183e-07 0.0005430061 4.4398752e-05 5.0299537e-14 2.7466292e-21 2.2549625e-35 0.0006920173
-0.48465475 -0.2983701 0.5497011 -1.4945591e-08 3.534943e-21 7.078581e-13 -2.70363e-35 0.00020671435
-5.5648746e-16 -9.689277e-13 4.5931586e-08 -0.1615918 -1.1179937e-35 -3.904772e-05 -1.76282e-11 -2.476546e-06
-8.4808164e-14 3.2579015e-35 -1.0216807e-16 -3.6166832e-38 8.000741e-24 -2.1420431e-35 0.00042437238 0.51746583
0.026974361 0.19588614 7.585062e-18 1.0635114e-13 -8.7114284e-05 -5.752628e-17 1.6808751e-18 1.421565e-25
-4.678515e-29 2.7507113e-07 0.2162387 -0.00033790283 -4.1732796e-06 4.92362e-15 -2.3300857e-24 1.00431034e-25
-0.00031863953 1.4595496e-06 6.5300334e-08 -9.55494e-05 -0.00029593092 -3.382488e-06 -0.4140625 -0.60342526

bond_lin.bias f4 [300]
00000000: de38 513e 822e 9bbd e0f3 80bc c7a5 b23d
00000010: fedc d8bd 95ec df3c 16de 39bd c1ba 57be
00000020: 783f c23b 0600 7cbe 1e1f d33d b5b9 a03a
00000030: f313 41be 243a c4bd 1880 803e 0794 80be
00000040: c93a 89bd b1ca 823c 7ec6 cebd cd1b d73d
00000050: 5d1f 92be 0289 53be 6c89 5a3d 7082 863c
00000060: 02f3 a63d 2dc9 103d 4e7d f43d 04dd 463e
00000070: 7c23 493d 264d c23d 11dc 85bd 7e2e 533e
00000080: 437f f3bd 0067 14be 90e9 613e 3137 17be
00000090: c2b4 00be 610b 5a3e 1f61 073e 46b4 963d
000000a0: 39d9 0c3e a79e 0a3e 8ea2 733e 23f3 2cbe
000000b0: 46fa 88be 7ffd 32be 1e21 7ebd 2e58 1ebe
000000c0: 1665 d5bc d7ae e3bd 115e 0abe 8a92 9b3c
000000d0: 978f 0e3e 917b c13c 6c81 99bc 5989 0d3e
000000e0: b21e 2cbe 1314 aebd a218 7e3d c258 363e
000000f0: 97ea 393d 91b6 03be b621 8e3d 8976 95bc
00000100: 6836 0fbd e3c6 7f3e 4b33 633d c613 12be
00000110: 44fd 81be 9429 633e ff7a 193e b716 383e
00000120: 7489 cd3d fd21 e33c a6b9 26be 27c9 4abe
00000130: 6e71 203e 03c4 f83c 807d 213e 2f7f 773d
00000140: 9a65 91be 0987 26be a798 8abc c5fa 2dbe
00000150: 5474 513d dccf 19be e8ad e0bc 543c 7a3e
00000160: 6acb 393e 9544 33bd 58b2 423e c703 083e
00000170: ce05 013e 1be8 1bbe 0ea8 02be aea0 9abd
00000180: 4835 1a3d 4572 93bd 8641 443e d5b9 843d
00000190: 8bd5 d8bd cffa 0c3e 3e80 3fbe 271d 0e3e
000001a0: cf4f 373e 8b50 aebd f6ba 093e 46ea 783e
000001b0: 7946 903d 60d6 873e b685 dc3d 1ed6 043e
000001c0: 21c8 133e 875c 69bb a3e1 1b3e 3f8a fc3c
000001d0: 0b44 0b3e e164 18be 8b10 d2bc fb3a 653e
000001e0: 0669 963d cd18 1b3e cd82 cebd 5e10 8a3e
000001f0: 30eb c93d 6aee f13c 1ad4 24be eddf a43d
00000200: 3622 823d ee60 023e f616 23be 4521 a03d
00000210: c174 c03d ce44 a4bd c617 0dbc d1d6 0a3e
00000220: 7c93 c7be 2b62 c43c aa6c 073e 2a9c 16be
00000230: be4c b13b 85e8 4b3e da86 e63d a32e 5cbe
00000240: 0f64 e43d 473a 31bd 655d b5bd 3ccc 663e
00000250: 7568 12be 5c97 e63d 8989 00be 57a5 2a3e
00000260: 846b 593e 5864 2a3e 4d5c 123c ab06 483e
00000270: 92f5 3f3e ab2e 3f3d 3654 743d b054 2c3e
00000280: 430c 5abc f95c a9be e106 963d 5e40 5bbc
00000290: 9a53 ce3d 3368 333e 9dfb 453e d106 f83d
000002a0: 8289 503e 157f 953d 024b 92be bec4 a6bc
000002b0: c9aa 633e 64f8 cebd b7e0 3dbe 22f3 463e
000002c0: 7b4f c1bd 71de 553e 317c af3d 5fbc da3d
000002d0: edec 28be 1b18 48be 15cd 41bd 2006 17be
000002e0: 76af b9bd e86b 61bc 0e8d 553e 524c 4a3e
000002f0: 5085 53be f394 4f3c 4adc 463e 70ef 6b3e
00000300: 6e7e 35bc 487f 663e 09d4 8a3d d3cb 7cbe
00000310: a816 94bd a575 f9bb 18e9 023e a87a 64bd
00000320: 04d3 be3d e528 c7bd 0f76 6f3b 2b14 e9bd
00000330: 5a2b 703d 9745 72be c647 ac3b 13e6 76be
00000340: 61da c0bd 103f 84bd 73fd 823e 7bcd 12be
00000350: 6fb5 c43b 20d4 20be b63d e1bd 53ee 4bbd
00000360: 181d c4bd c609 c53d d7d7 e83d bdd1 003e
00000370: 47cd 283d 9f5b 8bbb 9095 763d b0b2 8ebd
00000380: f5ca 493d 3225 a9bd 6a68 cbbd aa08 92be
00000390: ed4f 33be 94db 9c3c b248 c6bd 510f 383e
000003a0: 55dd 25be a0b8 debd 4714 123e 787d c7bb
000003b0: 8eb1 043e ed6d 1abe 1558 2c3d 7700 5f3c
000003c0: 4a5a d2bd aae3 11bd f89f cf3c 1736 e7bd
000003d0: e07b 453e b97f abbd 8a25 2b3e 65db 28bd
000003e0: 266d 873e f032 a1bc 38a1 9fbd cf48 163e
000003f0: ee99 473e d6f6 1d3e efee 97bd eca9 003e
0.2043185 -0.0757723 -0.015741289 0.08723026 -0.10589026 0.02733449 -0.045377813 -0.21067335
0.005927976 -0.24609384 0.103086695 0.0012262376 -0.18855266 -0.09581402 0.25097728 -0.25112936
-0.067006655 0.015965791 -0.10096453 0.105033495 -0.28539553 -0.20657733 0.053353712 0.01641962
0.08151819 0.035348106 0.119379625 0.19420248 0.049106106 0.09487371 -0.06536115 0.20623204
-0.118895076 -0.14492416 0.22061753 -0.14767148 -0.12568954 0.21293403 0.13220643 0.07358603
0.13754739 0.13537084 0.23792478 -0.16889624 -0.26753443 -0.17479514 -0.0620433 -0.15463325
-0.026049178 -0.111173324 -0.13512446 0.018990774 0.13921963 0.023618491 -0.018738471 0.13821925
-0.16808584 -0.084999226 0.06203521 0.17807296 0.045389738 -0.12862612 0.069400236 -0.018244999
-0.034963995 0.24978213 0.05546884 -0.14265355 -0.2538854 0.2218383 0.14988326 0.17977415
0.10035983 0.027726168 -0.16281757 -0.19803296 0.1566827 0.030366903 0.1577053 0.060424026
-0.28397828 -0.1626245 -0.016918493 -0.16990192 0.05113633 -0.15020698 -0.027426675 0.24437076
0.18144003 -0.043766577 0.19013345 0.13282691 0.1259987 -0.1522526 -0.1275942 -0.075501785
0.03764847 -0.071995296 0.1916562 0.06480757 -0.10587605 0.13767551 -0.18701264 0.13878308
0.17901538 -0.08511456 0.13450226 0.24308118 0.070446916 0.26530743 0.10767691 0.12972304
0.14431812 -0.003560813 0.15222792 0.03082764 0.13600175 -0.14882232 -0.025642654 0.2238578
0.073442504 0.1514618 -0.10083542 0.26965612 0.098593116 0.02953263 -0.16096535 0.08050523
0.063541815 0.12732288 -0.15926728 0.07818846 0.09397269 -0.08020936 -0.008611625 0.13558508
-0.3897971 0.023972591 0.13225046 -0.1470801 0.0054107597 0.19912918 0.1125619 -0.21502165
0.11151897 -0.04326847 -0.08855704 0.22538847 -0.1429766 0.11259338 -0.12552465 0.16664635
0.2123242 0.1663984 0.008933139 0.19533794 0.18746021 0.046675365 0.059650622 0.1682918
-0.0133085875 -0.33078745 0.07325531 -0.013382046 0.100745395 0.17520218 0.19334264 0.12110675
0.20364955 0.072996296 -0.2857285 -0.020357486 0.22233118 -0.101059705 -0.18542753 0.19428685
-0.09438988 0.20885636 0.085686095 0.1068046 -0.1649663 -0.19540446 -0.047314722 -0.1474843
-0.0906667 -0.013758637 0.2085459 0.19755676 -0.20656323 0.01266979 0.19419971 0.23040557
-0.0110775065 0.22509491 0.06778724 -0.24687128 -0.07230884 -0.0076129013 0.1278423 -0.055781037
0.09317592 -0.09724597 0.0036538874 -0.113808 0.058635093 -0.23659359 0.0052575795 -0.24111204
-0.094166525 -0.06457341 0.2558399 -0.14336197 0.006003074 -0.1570592 -0.109980986 -0.04978783
-0.09575862 0.09621005 0.11369293 0.12580009 0.041211393 -0.0042528654 0.060201228 -0.06967676
0.04926582 -0.082590476 -0.09932025 -0.28522235 -0.17510958 0.019147672 -0.09681834 0.17974593
-0.16197713 -0.10875058 0.14265548 -0.006087955 0.12958357 -0.15080996 0.04207619 0.013610951
-0.102711275 -0.035617508 0.025344834 -0.11289614 0.19285536 -0.083739705 0.16713539 -0.041224856
0.2645046 -0.01967761 -0.07794422 0.14676212 0.19492313 0.15426192 -0.0741862 0.1256482

energy_lin.1.weight f4 [300, 300]
00000000: d05c 04bd 5034 e8bd a6d6 1c3e 9d9b f2bd
00000010: a596 e6bd c5db 13bb 98f5 523d 7560 973d
00000020: 1370 fa3d a957 073e fdcd 893d 4a0f 9e3d
00000030: 4e26 42bd 4d6c 95bc c55a 85bb 93a7 bfbb
00000040: 6215 bd3d da00 71bd 8829 3b3d 2656 d23d
00000050: 08ce d53d cc20 123e da51 f63d e772 cf3d
00000060: 12da 103e efd3 8e3d e9fb bbbd cde9 883c
00000070: 620d 993d e856 483d 27e3 8e3d c82c 83bd
00000080: d4d4 a63d addd febd 3cc6 d33d 53dd 0d3d
00000090: 8bf1 90bd 77ac 083d e3dd b63d f55c ce3d
000000a0: 496f 753e bb4b e7bd cdd9 f53d f5fd 9e3d
000000b0: a271 f8bc c08f 513c d8dc fcbd db2f 953d
000000c0: 94ba b6bc a956 853d bfc6 943d 259b 8f3e
000000d0: b32f edbd d502 9bbd 26aa a33d aca6 b33d
000000e0: bd6e ca3d d8eb 9e3d de3d f43d 380b cebd
000000f0: 7fbe bcbd b506 4d3d 2e31 d53d ad56 25bd
00000100: 4b62 253e 4f17 193d 7dcb 99bd 2ada aa3d
00000110: 9bef 95bd badd bbbd 57fa 03be 102f 533d
00000120: f586 fb3d 9c1e fb3d e988 003e 5e62 123e
00000130: 4a24 a03d d48c 433d a286 c5bc 1f64 933d
00000140: 2a25 e0bd d7f3 45bd 4711 223e 7860 423d
00000150: deae e83c bd63 f33d b8cd dabd 11bd 523b
00000160: 1436 07bd fc2c 2b3e 1b2f 3d39 8e2f 80bc
00000170: 1186 b53d b4e2 2fbb 16ec 96bd 2581 bcbd
00000180: cd26 97bb e430 5bbc 10cc 1b3e d1e1 0bbe
00000190: 6462 e33d dac4 fcbc 6908 bb3d c629 95bd
000001a0: 691b 003e 9cc4 e9bd b87b 02bd b841 dd3d
000001b0: bd9e ee3d 0983 29be 7adc 9c3c 721c e23c
000001c0: c148 643c e5d1 ff3d a091 553d a5dd ffbc
000001d0: 9e16 89bd be8d 2b3e 2e14 423d 5a35 b53a
000001e0: 658f 1a3d 11c4 723d 47b9 5c3d 5d03 b2bc
000001f0: 1c56 e73c 36a0 00be 07fe 5e3d 1396 033e
00000200: 30c7 5a3d 806d 15be 7692 cc3d 5a7f 1b3e
00000210: 94ac f0bd 22a5 173e 2522 afbd 549d d73d
00000220: 0d04 0dbd 89ae 4c3d 8442 1f3e 3b3d 1c3c
00000230: 31d7 6ebd 5264 47bc 2942 873d cd9f b63d
00000240: 78a7 a53d 8f74 863d 3e07 7bbd df25 c8bd
00000250: c530 aabd a9ed 313c 335d 193e ac55 2f3c
00000260: 49c2 8e3d 775b a03d 987e a0bd 5c59 eebc
00000270: 84b4 e33c d136 693d e90e e83b 1a21 dd3d
00000280: 776f d23d a64b 913d 4f1d cbbc 338f 993d
00000290: 3bd9 a53d a6dd 39bc 452f 383c 3413 833d
000002a0: eb91 61bd 3c30 a1bd 8d44 01bd 72f6 94bd
000002b0: cb30 d23d a672 623c 0def 55bd 06db b5bd
000002c0: 1f4f f63d 17a7 483d a028 c73c fbf6 84bc
000002d0: 1246 f03d a0da 9ebd 544f 1cbc 4662 883b
000002e0: c665 fe3c d545 c0bc 93f4 8c3d 4158 e03d
000002f0: be9e b5bc f1d7 a7bd 7b35 8bbd 3446 cbbc
00000300: 1068 333e 5bbd 10be 9619 1fbd 29f2 dabd
00000310: d0d1 d83d 0396 37bd e56e be3d 11a3 9f3c
00000320: 74d3 bbbd 9d36 f2bd 3cb4 8ebd 4a49 72bc
00000330: 9154 983d 789c dc3c e38b bcbc ff4c dd3d
00000340: ce2f cfba e7d8 083e efe5 12be bf2a 0a3e
00000350: 399f c1ba 61a6 353e d617 6b3d 190d 32bd
00000360: e13d dd3d de6c 10be c2be 3e3e 9561 9ebd
00000370: 4fda 573d 75d1 9f3d 5a53 a93d 1be9 d53d
00000380: c933 c6bb 8882 5ebd c341 ec3c a795 55bd
00000390: b84a a5bc 29c1 2fbd e45f 493d 77e5 9abd
000003a0: 9eee cabd f32b 2f3e b5a8 39ba 37a2 c5bd
000003b0: 8e19 173e dee8 463d 652a 5bb8 cf63 1abc
000003c0: bc35 453c 0b68 abbd 3199 1e3c 1ac5 083c
000003d0: fad8 73bd 7d50 0f3e f839 443d cb9e 613d
000003e0: 9fea ab3c 2e70 b3bd d11a 50bd 0f9c d83c
000003f0: 5c6e 0abd af45 68bd 6783 d13d 7123 9d3d
-0.032315075 -0.11338103 0.15316257 -0.11846087 -0.11259202 -0.0022561413 0.051503748 0.073914446
0.12228408 0.13217033 0.06728742 0.0771776 -0.04739981 -0.018240118 -0.0040696585 -0.005848834
0.09232594 -0.058838703 0.045693904 0.10270338 0.10439688 0.14270324 0.12027331 0.10129338
0.14145687 0.06974017 -0.091789074 0.016713047 0.07473256 0.048911005 0.069769196 -0.06405026
0.081460625 -0.12444625 0.103405446 0.0346349 -0.07077321 0.0333676 0.0892904 0.10076324
0.23968233 -0.11293741 0.12004433 0.07763282 -0.030327622 0.01279062 -0.1234681 0.07284518
-0.022305764 0.0651067 0.0726447 0.28048053 -0.115813635 -0.075688995 0.079914376 0.087720245
0.09884403 0.077598274 0.11925863 -0.100607336 -0.09216022 0.050055224 0.10409771 -0.040365864
0.16150777 0.037375744 -0.075095154 0.08342393 -0.07321092 -0.0917315 -0.12888466 0.051558554
0.122816004 0.12261698 0.12552227 0.14295337 0.078194216 0.047741726 -0.02411205 0.07196831
-0.109445885 -0.048328247 0.15826903 0.04745528 0.028403696 0.11884258 -0.10683769 0.003215615
-0.033010557 0.16716379 0.00018041993 -0.015647676 0.08863462 -0.0026838006 -0.073692486 -0.0920432
-0.0046127797 -0.013378356 0.15214562 -0.13660361 0.11102751 -0.030855585 0.091324635 -0.07283358
0.12510456 -0.114144534 -0.03185627 0.108035505 0.11651371 -0.16553892 0.0191481 0.027601454
0.0139333615 0.12491206 0.052140832 -0.031233618 -0.06693767 0.16753289 0.047382526 0.0013825104
0.037734408 0.059269015 0.05388763 -0.02173012 0.028239302 -0.12561116 0.054441478 0.12850218
0.053412616 -0.14592552 0.09988873 0.151853 -0.11751667 0.14809087 -0.085514344 0.10528055
-0.03442769 0.049971137 0.15552717 0.009536083 -0.05831069 -0.012169914 0.06604416 0.08917198
0.08088583 0.065652005 -0.061286204 -0.09772848 -0.08310083 0.010859885 0.14976959 0.010701578
0.06970651 0.078299455 -0.07836646 -0.029095344 0.027796037 0.056937043 0.0070818556 0.10797329
0.102751665 0.07094507 -0.024794249 0.07498016 0.08098074 -0.011344349 0.011241739 0.06400147
-0.0550708 -0.07870528 -0.031559516 -0.07273568 0.10263213 0.01382128 -0.05222993 -0.08879666
0.1202681 0.048987474 0.024311364 -0.01623105 0.11732115 -0.07756543 -0.009540398 0.0041621057
0.031054389 -0.023470799 0.06882586 0.10954333 -0.02217042 -0.081954844 -0.0679731 -0.024813749
0.17520165 -0.14134733 -0.03884276 -0.1069072 0.105868936 -0.044820797 0.09298495 0.019486936
-0.09171191 -0.11826823 -0.06967971 -0.014787981 0.07438005 0.026930079 -0.023015922 0.108057015
-0.0015807094 0.13363992 -0.14345525 0.13492869 -0.0014772183 0.1773925 0.05739578 -0.043469522
0.10802818 -0.1410403 0.18627456 -0.07733456 0.05269843 0.07803623 0.08267851 0.10444852
-0.0060486537 -0.054323703 0.028839951 -0.052144673 -0.02017723 -0.04290882 0.049163714 -0.07563298
-0.09908794 0.17106609 -0.0007082329 -0.09650081 0.14755842 0.048561923 -5.225315e-05 -0.00942321
0.012036737 -0.08369454 0.009680078 0.008347774 -0.059533097 0.13995548 0.047906846 0.055083077
0.0209859 -0.08761631 -0.050806824 0.026441602 -0.033796653 -0.05670708 0.10230141 0.076727755

energy_lin.1.bias f4 [300]
00000000: 3a18 f13c fca2 7f3d 9bc5 6e3c ba6f 133d
00000010: 4e0a a8bc 9e1a b0bc 44dd 0fbd 5501 8f3d
00000020: e52b 9d3d 225f 8cbc 4f96 6d3c 9d4c f5bb
00000030: c757 9b3c e887 bdbc 67cd a73b 2218 8b3d
00000040: 1870 32bd 22f2 0d3b eb0b c63d 7987 9a3d
00000050: bdf6 333d f5a5 c03c 99c4 573c 5e04 a63c
00000060: 4f9f febb 8835 793b 0f6b 76bc de4c da3d
00000070: 2957 4abd 2e5e 25bc cb8b 0cbc 8136 ad3b
00000080: 7b14 fc3c 3c77 583d 01f3 aa3d 2345 b53d
00000090: 30d6 733d 2d13 19bd 00db 453d b472 903d
000000a0: 295b 553d eb96 55bc 0548 0d3b 6722 c43c
000000b0: 8957 153d 09d3 413c 795d ba3b adad 853d
000000c0: 1003 a3bc 1868 963c 53d7 2c3d d4c5 4b3c
000000d0: 0fc4 653d 76c8 b83a 5a89 b33c ca1e 443d
000000e0: ee37 10bd 2282 a53b 2be1 983d 2aa3 333d
000000f0: c12f 6f3d f447 24bc bace 88bb 9666 173d
00000100: 6a34 793d d2d2 553c bafd debc 813f bd3b
00000110: d73a 613c 71e3 833d 19b9 7b3d 9d70 19bc
00000120: ec92 92bb 491e b73c 822c 733d 6bb2 373c
00000130: 4a12 083d 2461 3f3d 5218 7e3c bcee 933c
00000140: a02e 653d 5875 c03b 6f60 823c e71f 65bb
00000150: 9584 353d 2304 41bb c47f 69bb e892 493c
00000160: 2209 693d ca38 7a3d 595d 52bc 6337 1c3d
00000170: d660 873c d9f1 9abc 0d4c ad3b f593 3abb
00000180: 8b2c 0fbc af44 3f3c 8f53 c33d 2723 0dbd
00000190: 257f ed3c 51b0 233d 2a18 00bb df88 b23d
000001a0: 04a5 3abc 1a3d 563d f32c 0d3d 7856 493d
000001b0: 034c 3d3d 6942 063d 5467 bbbc 8505 a8bb
000001c0: 7a86 70bc f8b1 37bd 7033 f9bb 5f77 8a3d
000001d0: 2aa3 9a3d 462f ba3c 0a63 693d 0d96 2cbc
000001e0: 6fc2 adb9 02bf 26bb e2f9 80bc 5341 a93c
000001f0: b1be 243d 835d 083d a30e 763d 1246 303d
00000200: 92f0 cabc c57c 943d f390 8a3d a386 793d
00000210: 617c 733a 6ed4 07bc ddd1 ad3c 9fae dbbc
00000220: 8426 373b 82d7 483d b280 5abb f1b2 31bc
00000230: 4e82 a1bc 8a13 b3bb 58a2 4bbc a93d 9dbc
00000240: 05ff 51bd 113b bd3b 7a6c b23c dd2a d7bc
00000250: 7f59 e0bc 5502 b23c 7b5d e4bc 20bc 2cbc
00000260: b44f 693d de3c 1e3d 531c 823d ad02 e13c
00000270: 9fba d7bc 00ac 203c fc21 de3c 8c4d 8bbb
00000280: fece 2ebc b8bd e23d 2d7b 6a3c f08e 97bc
00000290: a6dd d03b bd18 893d a5e2 10bd 2c68 e6bc
000002a0: 3eb1 7fbc f6c1 b5bb ecdb cdbc ebb8 38bd
000002b0: 7fbe 983d 0719 d83c 7d75 153d 4864 5dbc
000002c0: 3d20 23bc 0b62 03bd 8754 fbba 0dea 21bd
000002d0: 9f23 e43c 45ec 923d 6261 14bd e0cf f7bc
000002e0: 871d a83c 7fa2 56bc 0177 493d 9cda 3abc
000002f0: 5893 523d 2eca 6a3d cb72 023c ff99 b53d
00000300: dad7 8d3d 0fb4 313d e24b c0bc 6e9d 43bb
00000310: 4b5c c03c 9359 673d deb9 293c a049 923d
00000320: 7227 acbc 8240 533c 4cfc 8a3d fe23 15bd
00000330: 24e6 12bd caf9 813d 0fc0 bfb9 a513 133d
00000340: 0ff6 f9bc 782e 00bd a6bd 34bc 8573 293d
00000350: 37fa a13c 375f 9a3d de13 1a3d 8884 2dbd
00000360: 965a 61bc 01b3 923d 243c 823b ae90 6b3d
00000370: 3ea0 a13c 67da 8c3d bbd5 9dbc 75cd d5bc
00000380: 08ad 663a debc 70ba e1a6 94bc 372f 6a3d
00000390: 44fa f93b 6625 33bc 8466 913d 79a4 f03c
000003a0: 4693 26bd 3c4b fabc 82ef 15bd 797d 3c3d
000003b0: cc84 8e3c 3120 edbc 74d2 3bbd a119 fa3c
000003c0: 5c30 293d 07dd 80bc 19c0 183d aa90 a13c
000003d0: baed 3b3d bc5e 2f3c 5a75 cc3c 42f1 ad3c
000003e0: f1c1 413d c557 273d 45f4 513b 0aad cd3d
000003f0: dd65 8b3c ff3a 093d cb45 fa3c 0b43 013d
0.029430497 0.062411293 0.01457348 0.035995223 -0.020512726 -0.021497067 -0.035123125 0.06982676
0.07674388 -0.017135207 0.014501168 -0.0074859397 0.018962754 -0.023136094 0.0051209214 0.06791712
-0.043563932 0.0021659215 0.09670242 0.075453706 0.04393648 0.023516634 0.013169431 0.020265754
-0.007770456 0.0038026292 -0.015040173 0.106591925 -0.04939953 -0.010093255 -0.008578251 0.0052860384
0.030771485 0.052848086 0.083471306 0.088510774 0.059530437 -0.037371803 0.048304558 0.07053128
0.05208889 -0.01303647 0.002155782 0.023942186 0.036460433 0.0118301 0.0056874123 0.06527267
-0.019898921 0.018360183 0.042197537 0.012437303 0.05609518 0.0014097828 0.02191608 0.047880925
-0.03520959 0.0050509134 0.074648224 0.043856777 0.05839515 -0.010026921 -0.0041750344 0.036963068
0.060841 0.013050752 -0.027220596 0.0057753925 0.013746939 0.064398654 0.06145582 -0.009365228
-0.004473081 0.022353308 0.059368618 0.011211972 0.033220567 0.0467235 0.015508728 0.018058173
0.05595267 0.0058733635 0.015915124 -0.0034961642 0.044315893 -0.0029451929 -0.0035629133 0.012303092
0.056893475 0.061089315 -0.012839639 0.03813876 0.016525667 -0.01891415 0.005288607 -0.0028469537
-0.008738647 0.01167409 0.09537422 -0.034457352 0.028991291 0.03996307 -0.0019545653 0.08717512
-0.011391882 0.052304365 0.034466695 0.04915473 0.04621507 0.032778177 -0.02287642 -0.005127611
-0.014680499 -0.04484746 -0.007605009 0.067610495 0.07550652 0.02272762 0.056979217 -0.010533822
-0.00033141996 -0.002544344 -0.015744153 0.020661032 0.04022092 0.033292305 0.060072552 0.043035574
-0.024772916 0.072503604 0.06765928 0.060919415 0.0009288248 -0.008290393 0.021218235 -0.026816664
0.002794654 0.04903365 -0.0033340869 -0.010845886 -0.019715454 -0.0054649757 -0.0124288425 -0.01919444
-0.051268596 0.0057748635 0.021780241 -0.026265556 -0.027386425 0.021729628 -0.027876606 -0.010542899
0.056960776 0.038632266 0.06353059 0.027467096 -0.026334105 0.009806633 0.027115814 -0.0042511877
-0.010669468 0.11071342 0.014311594 -0.018500775 0.006374079 0.066941716 -0.035372395 -0.028125845
-0.015606223 -0.0055468036 -0.025129281 -0.045098227 0.07458209 0.026379121 0.036489 -0.013512678
-0.009956417 -0.032075923 -0.0019174971 -0.03952985 0.027849017 0.07173971 -0.036225684 -0.03025049
0.020521892 -0.0131002655 0.049185757 -0.01140466 0.05141005 0.05732172 0.007961939 0.08867263
0.06925936 0.043384608 -0.023473684 -0.0029848474 0.023481509 0.05648191 0.010359256 0.07142949
-0.021014903 0.012893798 0.06786403 -0.036411278 -0.03586401 0.063464716 -0.00036573454 0.035907406
-0.030512838 -0.031294316 -0.011031544 0.041369934 0.019772632 0.07537692 0.037616603 -0.04236272
-0.0137545075 0.071630485 0.0039744545 0.057511024 0.01972973 0.068775944 -0.019266954 -0.026098946
0.00087995874 -0.0009183417 -0.01814598 0.057173934 0.007628711 -0.010934209 0.070996314 0.029375302
-0.040667795 -0.030553453 -0.036605366 0.046018098 0.017397307 -0.028946014 -0.045855 0.030529799
0.041305885 -0.015730394 0.037292574 0.019722302 0.04588101 0.010703739 0.024958301 0.021233205
0.047304098 0.040855188 0.0032036465 0.1004277 0.017016346 0.03350353 0.030550858 0.031558078

energy_lin.3.weight f4 [150, 300]
00000000: 51a3 3c3d c2e3 c7bc 3008 aabd 859e 903d
00000010: 09cf 1fbd a9a0 c3bd 035f c63c 061c 6ebb
00000020: 8a3c bebd 3444 fe3d e4eb 0c3e 118a e4bd
00000030: 32b3 af3d 2576 06be d04c ce3d b8f0 bd3d
00000040: b746 c5bd 42e9 b6bd 00e6 3ebd 72c7 f83d
00000050: 82ce 463d fc6a 00bd eacd 1e3d 1c2b db0f
00000060: 3ede d63d e7fc 6a3d 9f9e 8d3d be0d da3d
00000070: a1dd c2bd 1653 533d d86a 2fbd 5522 d6bd
00000080: a8f7 0bbe 50d1 1f3e 58a1 96bd 8926 713d
00000090: c047 8dbc 35e8 12bd 482f a03d fe93 213d
000000a0: fca4 55bd 2174 e9bd bcbe 5c3a c7f5 d23d
000000b0: a601 61bc 492e 253d 2b28 08be 9a93 c3bd
000000c0: c5c8 7c3d b018 9c3d 15ff 66bd 9f25 14be
000000d0: 4258 05be 0ebd 3abd 39a6 a9bc 373d c63c
000000e0: a7a4 f63c 1a5f d33d 28d9 f8bc 1bd4 c6bd
000000f0: 558c cd3d c21f 853c a4c5 c73c aa2d 10bb
00000100: d24a b73d c9b9 063e 5e20 8abd 80f5 68bd
00000110: 22a6 063d a431 8fbc f3fa 7d3c fccd b6bd
00000120: 3a5a 18bd fab0 0c3b a60c 6ebd fec6 ed3d
00000130: 5844 433d d5f6 0ebd 95e0 05bd e0fd 52bb
00000140: 2978 f1bc f780 e33d 468a e4bd 2054 16bd
00000150: ad0e 513c 9e21 463d cda9 eeba 2fc2 af3d
00000160: ef78 173d 3f70 09be 46a5 ffbd 4778 3a3d
00000170: a468 91bd 708f df3d d3fb 4abd d48d 3580
00000180: b846 eabd 9b93 0e3d e2bb 9a3c 2302 d4ba
00000190: e0c5 d6bb 051d bfbc d827 debd c22b cbbd
000001a0: 5653 1b3c a422 debc 2dc6 8739 b3fe 98bd
000001b0: e170 d3bd c323 e83c 1c2f 8ebd e88c 1fbd
000001c0: 3ea0 12be c85e b4bd 2800 283c 2590 f53d
000001d0: 051b f8bb a89c 283d c66a e6bd f44f e3ba
000001e0: 107d dd3d 2462 2bbc 06b4 02be b028 93bd
000001f0: 59a1 0abd 15be c83a 936b 10be 3471 dcbd
00000200: ec54 fb3d 013b c93d 03e3 fe3d 1471 8c3c
00000210: d038 07be a640 06be 1f80 cfbd 4da4 63bd
00000220: 2d3f 9c3d 3629 0ebe 8415 ad3d a916 d6bd
00000230: 6840 db3c 4931 0bbc 3faa 313d 2079 383d
00000240: 1daa 593d e5d6 c5bd 87af 9abd cb89 dcbd
00000250: bfd2 bbbd 927c bf3d a0df e63d b4d5 4f3b
00000260: da1b b23d f263 03be 214e 3abd 444b ecbc
00000270: 028e 333d 7722 303d cbe6 f2bc a337 803c
00000280: 23b3 943d 6dd5 2d3b f4c5 dd3d 21e3 c03d
00000290: 4e93 813d 01ef d2bd 8590 d63d 869a 70bd
000002a0: d4b4 993d 6e5b 71bd a069 963d 443d 023d
000002b0: 7a97 0f3e 1054 b73d d4c9 973c 3360 1ebd
000002c0: 76fa b63d e5f0 87bc 4a13 94bd 0f95 0ebe
000002d0: 73fc febd 11d3 06be d939 36bd 41e6 96af
000002e0: 8591 cf3d 29ac fcbb 9b7f afbb 4c07 f13d
000002f0: 3a1a f3bd 2383 633c 1ba4 c73d 6ca5 613d
00000300: b386 083d 3c6f f4bd 1d5d d0bb 8dfa 29bd
00000310: 71b5 4a3d 27a7 0abe a7ab 15bd 22f0 c53d
00000320: 4261 973d c4f5 1abd 7364 a2bc a467 2dbb
00000330: 6da0 4fbc b381 633d 0858 84bc 1dd4 05be
00000340: f168 013d 67b7 da3d b53f c8bd 673e 733d
00000350: 2f5b aebd ac1b bc3d de9b a13c 3a84 e0bd
00000360: 834f 183d 21e9 cd3d c997 75bc 0bc6 ff3d
00000370: 571e f0bc 6191 d7bd 11fa 4cbc d158 a63d
00000380: 1faa c7bd fe03 a599 3783 ce3d 3b86 5a3d
00000390: 06eb 09be 3bde 1ebd 6df5 b33d ed1b c63d
000003a0: 6196 a93d 03d5 2e3d 16f0 e3bd fa07 59bd
000003b0: 7c85 ad3d cc92 e73d 3ee3 c3bd 0067 ffbd
000003c0: 7c94 fdbc a1a1 043e 9a69 273c b103 793b
000003d0: 4a52 0bbe 8444 96bd ee72 063e 6d04 dc3c
000003e0: a4db 123c b2f7 c7bc 69ae c93d 37be 873b
000003f0: b283 6a3c c8a1 82ba b070 f9bb f355 133d
0.04605419 -0.024400596 -0.08302343 0.07061485 -0.039015803 -0.09552128 0.024215227 -0.0036332621
-0.09288891 0.124153525 0.1376186 -0.111591466 0.08579101 -0.13131006 0.100732446 0.09274429
-0.096326284 -0.08931209 -0.046606064 0.12147416 0.048536785 -0.03135203 0.038770594 2.1611672e-29
0.10491608 0.057370093 0.0691502 0.10647152 -0.095149286 0.05159291 -0.042826504 -0.10455767
-0.13668692 0.1560719 -0.07354993 0.05887464 -0.017246127 -0.03586598 0.07821518 0.039447777
-0.052159294 -0.11399103 0.00084207556 0.103007846 -0.013733303 0.040327344 -0.13296573 -0.09549637
0.061714906 0.07621896 -0.05639561 -0.14467476 -0.13021949 -0.045590453 -0.020709144 0.024199111
0.03010781 0.103208736 -0.030376986 -0.09708425 0.10036532 0.016250495 0.024386235 -0.0021999874
0.08949818 0.13156809 -0.06744455 -0.056874752 0.03287328 -0.017479725 0.0155017255 -0.08926007
-0.03719542 0.002146779 -0.05811753 0.116102204 0.0476726 -0.034903366 -0.03268488 -0.0032194778
-0.029476242 0.111085825 -0.11159186 -0.03670132 0.012759847 0.048371904 -0.0018208564 0.085819595
0.036980566 -0.13421725 -0.12482695 0.04552486 -0.07100037 0.109160304 -0.049556565 -4.91816e-39
-0.1143927 0.034808736 0.018888418 -0.0016174953 -0.0065543503 -0.023329267 -0.10847443 -0.099204555
0.009480318 -0.027116127 0.0002589686 -0.07470455 -0.10324264 0.028337365 -0.06942579 -0.038952738
-0.1431894 -0.088071406 0.0102539435 0.11990384 -0.0075715804 0.041165024 -0.11250834 -0.0017342553
0.108148694 -0.01046041 -0.12763986 -0.07185495 -0.03384528 0.0015315438 -0.14103536 -0.10763779
0.12272057 0.09825707 0.12445643 0.017143764 -0.13205266 -0.13110599 -0.10131859 -0.05557661
0.07629237 -0.13882908 0.084513694 -0.10453541 0.02676411 -0.008495637 0.04337525 0.04503739
0.05314075 -0.096601285 -0.075530104 -0.107684694 -0.09171056 0.09349932 0.11273122 0.003171307
0.086967185 -0.12831095 -0.045484666 -0.028844483 0.0438366 0.04300162 -0.029651066 0.01565153
0.0726073 0.0026524917 0.10828772 0.094183214 0.06326924 -0.102994926 0.10476784 -0.058741115
0.07505193 -0.058925085 0.07344365 0.03179671 0.14022627 0.089515805 0.018528856 -0.03866596
0.089344904 -0.01659436 -0.072302416 -0.13924049 -0.124504946 -0.13166453 -0.04448876 -2.7448446e-10
0.101351775 -0.007710953 -0.005355788 0.1176897 -0.11870237 0.013886246 0.097480975 0.0550894
0.033331584 -0.11935279 -0.006358756 -0.04149871 0.049489442 -0.13540326 -0.036540654 0.09664942
0.07391597 -0.037832037 -0.019823289 -0.002645948 -0.012672526 0.055543613 -0.016155258 -0.13069196
0.03159422 0.106795125 -0.09777776 0.059385683 -0.08513486 0.091849655 0.019727644 -0.1096272
0.037185203 0.100542314 -0.014989802 0.124889456 -0.029311342 -0.10525776 -0.012510792 0.08122409
-0.09749245 -1.7062213e-23 0.10083621 0.05335067 -0.1346856 -0.038786154 0.08787046 0.09673295
0.082806356 0.042683613 -0.11129777 -0.052986123 0.08472726 0.11307296 -0.095648274 -0.124708176
-0.030954592 0.12952282 0.0102180485 0.0037996585 -0.1360561 -0.07337287 0.1312978 0.02685758
0.008963499 -0.024410103 0.09847719 0.0041425484 0.014313625 -0.0009966427 -0.0076123103 0.03597064

energy_lin.3.bias f4 [150]
00000000: 9f65 d63c 8354 ac3d 3040 dfbc 7d6f 0cbd
00000010: e147 863c a6d0 c93c 0c1e d7bc 43a7 dfbc
00000020: 75be 243d c137 6c3b 09f5 b03c fc78 1fbd
00000030: babc 98ba bf89 df9d dbfe 4f3c 2a48 8408
00000040: c339 ab3c 7aa4 06bb 32d0 0d3d 34d8 223c
00000050: 28d0 3a3d bc5a b7bb 402e 363d a317 113d
00000060: 3662 ea3c 48d3 703d 0808 f03c 090d 6abc
00000070: e1f7 e83c cf16 4cbd b992 213d 040f f63b
00000080: 1b36 18bd 7bb5 a83c fbe3 30bd 9903 0d3d
00000090: 33b0 e13c e9cb af3c 7e6b ed3c 2409 f3bc
000000a0: c326 30bd fdb8 273c 98b5 783d 6f54 ae3c
000000b0: 6160 c4bc 8956 06bb 98b0 b63c 9630 94ba
000000c0: cb37 3b3d 2077 5b8b 8d03 993c b8ab dabc
000000d0: f84a 66bd 3eeb ac3a 891d 2e3d 8f92 343d
000000e0: eb92 793d 6db8 083b e24c 063c 7509 823d
000000f0: 4f30 9e3c a20e 1fbd bd4a 55bc aeaf 5bbd
00000100: bccd 20bd 48fb 373d bdd7 ffbc 2e14 2cbd
00000110: be2a 273d a6b5 d63a 41b5 59bd 282b e8bc
00000120: 541a 21bd 1544 3d3d 33ec 1b3d f90d 383d
00000130: 8369 d9bc 0e63 813c 4c81 6bbc ceab 193c
00000140: 9258 423d b615 a8bb 6ee7 d4bc 3246 19bd
00000150: e175 293d 6587 193d 3a2c 7e3d ea17 c13c
00000160: cbeb 923d 2f98 663d e361 8ebc c3d1 473d
00000170: 1657 0f3d 6650 433d f9ba 753d a028 8e3c
00000180: 74ac 31bc f689 5fbd e0bf 5b3d a511 98bc
00000190: 3bf8 453d 63d1 10bd 0601 593d 2808 e83c
000001a0: b914 15bb 9133 09bb 45c1 073d 6503 0f3d
000001b0: 9d4b 713d f33a c0bb 7a88 1fbd 238d 1ebc
000001c0: 13bf 033d 7703 1a3d cc09 b63b 1316 17bc
000001d0: 27e0 2ebd 222b 223d 0224 2dbd 3368 f9bc
000001e0: e753 18bc 496d ccbc ac0d 1f3d adb2 353b
000001f0: 9ad6 0f3c 998f 623d 8a6b cc3c 595f dfbc
00000200: ccd6 3f3b e3b9 313c 9c30 91bc f2cd 27bd
00000210: 9458 613d 3daf 3dbc de40 063d 696a 49bd
00000220: c1b2 2f3d de79 753d 230a bb3c 24dd 0e3c
00000230: 5c6d 63bc 1383 393d a950 cfbb d43f 6d3d
00000240: e20e 97bc 2636 723d 70a0 dc3b 2595 873b
00000250: 0467 00ba 0563 6bbd
0.026171504 0.08414557 -0.027252287 -0.03428601 0.016391696 0.024635624 -0.026259445 -0.027301436
0.040220696 0.0036043974 0.021601217 -0.03893374 -0.0011652925 -5.9170035e-21 0.01269504 7.961427e-34
0.020901566 -0.0020544813 0.03462238 0.009939242 0.04560867 -0.005595533 0.0444777 0.035422932
0.028611284 0.058795244 0.029300705 -0.014285334 0.02843851 -0.04982644 0.039446566 0.007509114
-0.037160974 0.02059435 -0.04318617 0.03442726 0.027549839 0.021459537 0.02898192 -0.029667445
-0.043005716 0.010236976 0.060720056 0.021280495 -0.023971738 -0.0020498356 0.022301003 -0.0011305984
0.045707505 -4.2267485e-32 0.018678451 -0.02669321 -0.05622384 0.0013192666 0.042508636 0.04408508
0.060931128 0.002086188 0.008197041 0.0634946 0.019310145 -0.038832314 -0.013018307 -0.053634338
-0.039258704 0.044917375 -0.031230802 -0.042011432 0.040812247 0.001638104 -0.053151373 -0.028340891
-0.03933175 0.046207506 0.038067054 0.0449352 -0.02653957 0.015794303 -0.0143740885 0.00937934
0.04744775 -0.0051295413 -0.02598926 -0.03742046 0.041372184 0.037482638 0.062053896 0.023570973
0.0717388 0.056297477 -0.01738066 0.04878403 0.03499516 0.047684096 0.059992764 0.017353356
-0.010844339 -0.05457493 0.053649783 -0.018563101 0.048332434 -0.035355937 0.05297949 0.028324202
-0.0022747947 -0.0020935277 0.0331433 0.034915347 0.05891 -0.0058664023 -0.038948514 -0.009677204
0.032164644 0.03760096 0.005555367 -0.0092215715 -0.042694237 0.039591916 -0.042270668 -0.030445194
-0.009297348 -0.024954455 0.038831398 0.0027724907 0.008779192 0.055312727 0.024953622 -0.027267145
0.0029272316 0.0108475415 -0.017723374 -0.04096789 0.055016115 -0.011577425 0.032776706 -0.049173746
0.042895082 0.059930675 0.022831982 0.008719716 -0.013881054 0.045291018 -0.006326754 0.0579222
-0.018439714 0.05913367 0.006732993 0.0041376525 -0.0004898163 -0.05746748
