models/mpnn_A139_B23_E300_L2/18.pt (torch, 742651 bytes, 9 tensors)

atom_lin.weight f4 [300, 139]
0.031172922 -0.09176223 2.7920445e-14 2.7112903e-23 4.904718e-39 -9.957936e-28 -0.083502434 0.0041354685
-0.12611584 0.13909836 -3.380193e-39 7.039741e-36 0.28699824 4.911247e-39 1.1936755e-14 0.25878513
-0.15984404 -0.065435454 4.915992e-39 -2.1289141e-24 -8.83004e-27 5.0174603e-22 -1.6521464e-16 -4.907808e-39
-2.7265098e-31 -0.21203022 0.08622736 0.1295556 4.582792e-34 9.962977e-24 -3.229236e-22 1.4087222e-16
5.755112e-34 1.6955086e-13 1.7485101e-19 -0.23105143 -8.001351e-23 2.0801111e-17 9.58247e-30 1.7347218e-20
5.850312e-24 -2.381666e-34 4.448867e-24 -3.3466666e-30 1.4842166e-19 1.7854429e-21 -1.6229987e-21 4.9292667e-37
-2.4944932e-15 -2.338543e-14 1.5706979e-19 1.0113002e-25 2.1113745e-20 -0.1134128 -2.16836e-18 -1.1851898e-27
-3.647119e-26 5.879576e-18 -5.918001e-17 -4.7607297e-27 -2.9563592e-24 -7.575467e-20 -3.7816266e-27 -2.5599224e-20
8.965601e-26 4.911306e-39 -2.063134e-15 -9.059868e-21 -4.909275e-39 2.9270563e-21 8.3147887e-26 -7.283088e-24
-1.1920088e-16 -5.7218544e-18 -5.95672e-19 -5.470354e-26 -4.914903e-39 -7.1963174e-37 -1.125392e-16 -2.9897253e-22
-6.4375057e-24 3.2182971e-19 4.911054e-39 2.5538903e-34 4.6496585e-37 -3.6772318e-15 -1.1978068e-22 -1.164275e-15
3.4070663e-25 -1.4292282e-16 -4.6092115e-15 -9.470081e-32 -1.5510217e-19 -1.7835858e-29 -3.0184656e-22 1.2312533e-16
4.396695e-18 -6.268805e-27 -3.9610337e-14 -4.1607045e-23 -4.8627315e-26 3.9847322e-15 6.990358e-26 -2.852627e-21
-2.4304177e-19 -4.5029027e-20 4.7868086e-36 1.3901753e-13 1.4029245e-36 1.3437572e-22 -3.2639317e-35 -4.0401714e-16
9.4349897e-26 -8.556759e-16 -1.2185575e-15 1.2404601e-17 -4.907403e-39 6.976799e-23 6.132521e-27 -0.22732429
0.16762498 -0.10513649 0.21046178 0.197663 1.125987e-24 0.14960745 3.1256746e-14 8.2339107e-17
-0.02371558 -0.163388 0.1258479 0.014508642 0.10856544 -0.2308131 -7.1302285e-15 1.0917885e-13
-2.7019263e-25 6.012877e-20 -0.063667506 -0.13294318 0.09150086 3.0783183e-23 -4.915881e-39 3.5920553e-17
2.2034804e-15 -0.07354797 -0.1632052 0.15703659 -0.06859459 2.3091522e-37 4.906944e-39 -2.9953398e-24
2.7029805e-23 -7.968471e-17 0.119721845 -0.0759803 0.0021684784 4.8590277e-25 -6.693048e-22 5.8147883e-14
2.7483721e-18 1.5078952e-18 -4.5599824e-15 2.3181443e-15 5.441602e-31 0.02809126 0.08915255 -2.5374657e-26
3.9353625e-25 -2.543623e-18 -5.8891312e-31 1.0735483e-31 1.1320145e-24 -3.4601784e-22 -0.33458164 -2.3608522e-22
-1.09978195e-13 -3.0374682e-19 6.423779e-23 3.1403664e-19 6.7070197e-38 7.945828e-14 -4.1013732e-18 4.916475e-39
4.130238e-17 1.449903e-17 2.5165499e-23 6.522905e-30 -1.1758391e-24 -6.070822e-17 3.4018035e-19 1.2917725e-16
0.087023094 -1.2390247e-16 1.322707e-34 4.400064e-21 -4.402476e-17 -1.0166098e-27 -9.042385e-17 2.0698837e-37
7.861425e-23 7.202997e-21 -4.16548e-39 1.3072173e-21 -1.9057947e-22 1.1169676e-26 -5.387688e-32 1.7506267e-13
-3.7648017e-26 -3.7522625e-18 -1.2391574e-21 -5.1330437e-14 -1.0837241e-18 -3.7184092e-20 1.2299129e-18 -8.2413414e-17
-4.2056605e-24 4.664494e-39 1.748015e-23 -1.9273415e-23 6.4906204e-29 9.144506e-17 -8.3863504e-35 -2.7466548e-14
4.905936e-39 9.118715e-25 7.201306e-21 4.6530063e-20 1.2735376e-15 -4.912779e-39 -6.75539e-31 1.700854e-14
7.955737e-17 -2.2985062e-18 -2.841438e-22 -3.5046632e-19 -1.1149598e-26 2.7290514e-20 1.544401e-35 -8.833418e-25
8.3611474e-18 -6.4004845e-29 2.9005787e-29 1.104562e-15 4.93669e-21 1.447682e-14 1.620976e-17 2.7531754e-35
-8.4381645e-35 1.6342017e-17 6.734001e-20 -1.6375999e-29 -4.0873118e-27 2.8439382e-23 8.2618007e-26 -1.1038409e-18
00000000: 5b5e ff3c d6ed bbbd 2a7c fb28 261c 031a
00000010: 5c68 3500 30ca 9d92 5303 abbd d382 873b
00000020: 8324 01be cd6f 0e3e 9ace 2480 ffb7 1505
00000030: 6ff1 923e 8f7a 3500 9108 5728 7c7f 843e
00000040: 28ae 23be 0603 86bd c987 3500 7db7 2498
00000050: 9fe5 2e94 b8a4 171c c17a 3ea5 f970 3580
00000060: eaf5 b08c 731e 59be f897 b03d 39aa 043e
00000070: 154a 1808 46b6 4019 0232 c39b 246a 2225
00000080: 143f 3f08 b5e5 3e2a 7a6d 4e20 bf98 6cbe
00000090: f775 c19a 3cdb bf23 075b 420f 00d7 a31e
000000a0: af52 e218 f249 9e87 721b ac18 c6c1 878e
000000b0: b239 2f20 7de7 061d b942 f59c f8bb 2703
000000c0: 47bf 33a7 21a3 d2a8 6e6f 3920 c462 fa15
000000d0: e769 c71e f844 e8bd 2aff 1fa2 03cd bb92
000000e0: ba98 3495 06eb d822 b675 88a4 8997 bc93
000000f0: babc 6498 e3de b29f 40ce 9593 20c7 f19e
00000100: 3ffa dd15 b97a 3500 1baa 14a7 d522 2b9e
00000110: 1075 3580 8129 5d1d 3cdd cd15 1be0 0c99
00000120: e46d 09a5 6319 d3a2 b4cf 2fa1 7d70 8795
00000130: c084 3580 c4e0 7483 b6bf 01a5 c2b7 b49b
00000140: f809 f998 88f9 bd20 057a 3500 31bc a907
00000150: 3d38 1e03 7a7c 84a7 53ce 109b 2aca a7a6
00000160: 1fe3 d216 5fc7 24a5 7910 a6a7 7cdb f58b
00000170: c11c 37a0 89e0 b48f 7e74 b69b 2ff4 0d25
00000180: 9c35 a222 3c55 f893 9c63 32a9 0733 499a
00000190: 72ca 7095 ab90 8f27 a812 ad15 d589 579d
000001a0: 6f77 8fa0 c1a4 549f bb9b cb04 1385 1c2a
000001b0: fbb1 ee03 4573 221b 568a 2d86 68e6 e8a5
000001c0: 5a99 e915 bda1 76a6 d69c afa6 12d3 6423
000001d0: d86f 3580 4bb0 a81a 27ef f213 b3c7 68be
000001e0: e2a5 2b3e cd51 d7bd 4b83 573e 2b68 4a3e
000001f0: f13c ae17 b232 193e 93c4 0c29 6edc bd24
00000200: 2d47 c2bc 2f4f 27be 46de 003e a8b5 6d3c
00000210: 8f57 de3d 455a 6cbe 6072 00a8 52d9 f529
00000220: bb3d a796 9cf9 8d1f 1c64 82bd 4222 08be
00000230: ce64 bb3d bcdb 141a 7a87 3580 81a7 2524
00000240: 0ac7 1e27 51a0 96bd 441f 27be 33ce 203e
00000250: 527b 8cbd 1b27 9d02 906e 3500 d1c0 6798
00000260: 47b5 021a 8dbd b7a4 ba30 f53d 8f9b 9bbd
00000270: 081d 0e3b 2f61 1617 f348 4a9c f9ef 8229
00000280: 48cb 4a22 ac86 de21 6a4a a4a7 370a 2727
00000290: 1097 300d a41f e63c 9d95 b63d 664c fb94
000002a0: 4f96 f316 aeaf 3ba2 fd1c 3f8d c35a 0b0c
000002b0: b72b af17 ab27 d19b 494e abbe 6bb4 8e9b
000002c0: 1da6 f7a9 ec4c b3a0 4451 9b1a e05f b920
000002d0: 1b95 b601 94ec b229 6050 97a2 2289 3500
000002e0: 3e79 3e24 deba 8523 c262 f319 dc4c 040f
000002f0: c9f3 b597 cffb 8ba4 9ace c820 65ee 1425
00000300: 2a39 b23d 8ed9 0ea5 63d1 2f07 cf3a a61d
00000310: 4307 4ba4 9816 a192 d280 d0a4 76de 8c02
00000320: dd13 be1a 8e0f 081e aa5b 2d80 858a c51c
00000330: 7d65 669b fc3c 5d14 54df 8b8b 611a 452a
00000340: 886c 3a95 1e6f 8aa2 9441 bb9c f72b 67a9
00000350: f0ed 9fa1 cf98 2f9f cc80 b521 4b08 bea4
00000360: d8b2 a298 b6ca 3200 c10e a919 aa66 ba99
00000370: 898e a410 a3db d224 8bf2 de86 8c65 f7a8
00000380: c16b 3500 f41a 8d17 6107 081e 65bb 5b1f
00000390: 3f89 b726 d47e 3580 9639 5b8d 0633 9928
000003a0: 6272 b724 8e99 29a2 20c1 ab9b f9e0 cea0
000003b0: 2ed7 5c94 35e0 001f 983a a405 c6b0 8897
000003c0: 673c 1a23 8545 a290 aa13 1310 252f 9f26
000003d0: bc80 ba1d 4665 8228 3782 9523 4862 1206
000003e0: 2c53 e086 7fba 9623 8a00 9f1f 8612 a68f
000003f0: 44ea a193 4086 091a 628d cc15 eee5 a2a1

atom_lin.bias f4 [300]
-0.03880265 0.04891721 -0.11040583 -0.021192823 -0.021200497 0.07572999 0.021054747 0.053388596
0.096978545 0.019272665 -0.04908499 -0.047272157 -0.037389908 -0.0024811947 0.07448791 0.06956984
0.002508725 0.06269405 0.061600097 0.0044873008 -0.007982439 0.073420115 0.024620824 0.07971408
-0.011703639 0.041442998 0.09656092 0.025877718 -0.009125513 -0.07878112 0.01725777 0.0353231
0.08183253 -0.04396998 -0.006731035 0.0049342853 0.09730104 -0.09055281 -0.0310402 -0.018615132
0.026779646 0.02032909 0.003502903 0.10737342 -0.18137418 -0.018280892 0.00042297674 0.014252534
0.014468803 0.073966675 0.047883563 -0.08948046 -0.017704938 -0.054179467 -0.037526228 0.008739554
0.08432744 -0.013123007 0.03801317 0.0188342 0.05413887 0.029769696 0.019800939 0.050390452
0.10761943 -0.05591698 0.0250639 0.0033521457 0.031149011 0.06367273 0.049761184 0.15652186
-0.008176291 0.024471216 -0.0935113 0.09793084 -0.014426272 -0.07193009 0.014211417 -0.03601879
0.03707483 0.007789581 0.046472497 0.114695586 -0.07599413 -0.03543923 0.050121583 -0.061632954
0.06316111 0.005183958 -0.0700841 -0.0006817945 0.017594852 0.07293645 0.0041634096 0.057370406
-0.08391205 0.043159425 0.07335587 0.063387394 0.0671723 -0.0011387514 -0.08664128 0.07988101
-0.044802207 0.004804971 0.039920766 0.08320256 0.037279725 0.04452321 0.078035004 0.047509957
-0.04304066 0.061457515 -0.020075427 0.0050802403 0.066440426 0.0035298965 -0.06634221 -0.054196723
0.1180879 0.08990622 -0.03193815 -0.06360153 -0.04951006 0.075385466 0.01611855 -0.041219674
0.058698688 0.084549695 0.015300037 -0.060474686 0.07434928 -0.055336423 0.0017142275 0.100965135
-0.06474564 -0.0013134918 -0.019639518 -0.013177604 0.083523564 -0.048531216 0.011772338 0.07163736
0.031553257 0.014983247 0.044228103 -0.040624302 0.0494274 0.066073 -0.04367774 -0.06926388
-0.06957504 -0.035620432 0.082907245 0.076153256 0.03638107 0.0034478544 0.07758651 0.056092706
-0.004879841 0.06831298 -0.05867403 -0.003971373 0.10667554 0.03106282 -0.037878476 -0.037924614
-0.03270967 0.07582098 0.088841386 0.101745576 -0.012422696 0.05469642 -0.023031438 -0.019432904
0.072872534 0.03681797 0.03228071 0.15216644 0.056548186 0.010012605 -0.011988419 0.004984863
-0.06720273 0.09465237 -0.057819746 0.06871098 -0.03811128 0.022506468 0.06425438 0.017675417
-0.03260434 -0.01581678 0.10964985 -0.04189221 -0.0062586493 -0.033318426 -0.018327847 -0.0012692966
0.05231183 -0.0022015509 0.07273943 0.04742208 -0.0048307646 0.069686465 -0.022547264 0.082006685
-0.030400123 0.045477886 0.05075529 0.10237899 0.09506807 -0.008732666 0.06756369 -0.057083987
0.018587844 0.03560448 -0.01331373 0.057395834 0.07917013 -0.015357914 0.08796753 0.0049478537
0.0010080613 0.0027352616 -0.017617319 -0.0745736 -0.0045887753 0.06884051 -0.047543846 -0.07903699
0.11328311 0.060067996 -0.09351707 0.087398216 0.102258846 -0.01254818 -0.0074384087 0.07763577
0.060131434 0.028722113 0.04856609 -0.043612182 0.08825265 -0.0052071656 0.059747808 0.03171817
0.04939215 0.046262342 -0.030488998 -0.01666129 -0.019048898 -0.047500856 -0.030127231 -0.06346554
00000000: 87ef 1ebd 6a5d 483d 741c e2bd 929c adbc
00000010: aaac adbc 5318 9b3d 017b ac3c 00ae 5a3d
00000020: b09c c63d b5e1 9d3c 580d 49bd 73a0 41bd
00000030: 2926 19bd 8a9b 22bb 1e8d 983d a27a 8e3d
00000040: 6c69 243b bd65 803d 6250 7c3d 350a 933b
00000050: c7c8 02bc 495d 963d 9cb1 c93c 2341 a33d
00000060: 9fc0 3fbc 22c0 293d bbc1 c53d 82fd d33c
00000070: 2d83 15bc ff57 a1bd 2b60 8d3c f4ae 103d
00000080: d097 a73d de19 34bd 0490 dcbb c9af a13b
00000090: c545 c73d c073 b9bd 0448 febc c37e 98bc
000000a0: fd60 db3c 3189 a63c f690 653b 98e6 db3d
000000b0: 27ba 39be cfc1 95bc fac2 dd39 7683 693c
000000c0: 8f0e 6d3c d77b 973d 8e21 443d 8841 b7bd
000000d0: f209 91bc 4aeb 5dbd 1ab5 19bd 5930 0f3c
000000e0: ddb3 ac3d e101 57bc b3b3 1b3d 2e4a 9a3c
000000f0: b8c0 5d3d 94df f33c 9435 a23c 3866 4e3d
00000100: 9367 dc3d 3409 65bd cf52 cd3c acaf 5b3b
00000110: 362c ff3c d966 823d 62d2 4b3d 4447 203e
00000120: daf5 05bc dc77 c83c da82 bfbd f78f c83d
00000130: 2c5c 6cbc 1550 93bd 01d7 683c 7088 13bd
00000140: c7db 173d be3f ff3b f259 3e3d 85e5 ea3d
00000150: cfa2 9bbd ba28 11bd 4a4c 4d3d d672 7cbd
00000160: 9d5a 813d 31de a93b 4188 8fbd 74ba 32ba
00000170: 1423 903c b55f 953d 366d 883b 3bfd 6a3d
00000180: 15da abbd f0c7 303d 9a3b 963d 40d1 813d
00000190: a191 893d 2842 95ba fc70 b1bd a898 a33d
000001a0: 8582 37bd 0573 9d3b f583 233d 1b66 aa3d
000001b0: a0b2 183d f85d 363d d1d0 9f3d cd99 423d
000001c0: 674b 30bd e0ba 7b3d 3975 a4bc 2578 a63b
000001d0: eb11 883d d655 673b 6dde 87bd 62fd 5dbd
000001e0: 12d8 f13d c120 b83d 94d1 02bd 8541 82bd
000001f0: 10cb 4abd b263 9a3d 0d0b 843c f6d5 28bd
00000200: 096e 703d 6428 ad3d 02ad 7a3c 4eb4 77bd
00000210: 6f44 983d 72a8 62bd eeaf e03a cfc6 ce3d
00000220: 5d99 84bd 7929 acba 0ee3 a0bc e1e6 57bc
00000230: 670e ab3d abc8 46bd c4e0 403c 9cb6 923d
00000240: fd3d 013d 4b7c 753c 8728 353d ab65 26bd
00000250: 6374 4a3d 4851 873d 6ee7 32bd 39da 8dbd
00000260: 5c7d 8ebd bbe6 11bd 46cb a93d 3df6 9b3d
00000270: 5104 153d 66f5 613b ade5 9e3d 77c1 653d
00000280: 13e7 9fbb ade7 8b3d 2e54 70bd 4b22 82bb
00000290: b578 da3d 7577 fe3c 7626 1bbd d756 1bbd
000002a0: 93fa 05bd 0848 9b3d 79f2 b53d fc5f d03d
000002b0: 9088 4bbc 5a09 603d 6dac bcbc c131 9fbc
000002c0: 323e 953d 71ce 163d c738 043d 85d1 1b3e
000002d0: 129f 673d e90b 243c 136b 44bc 1058 a33b
000002e0: 96a1 89bd 1ad9 c13d 66d4 6cbd 58b8 8c3d
000002f0: 931a 1cbd 7c5f b83c cd97 833d 09cc 903c
00000300: 218c 05bd 3192 81bc 1a90 e03d 2a97 2bbd
00000310: 5b15 cdbb e778 08bd 4824 96bc 875e a6ba
00000320: ee44 563d e547 10bb 69f8 943d a83d 423d
00000330: 644b 9ebb c7b7 8e3d 0ab5 b8bc 1ff3 a73d
00000340: ae09 f9bc 0547 3a3d c7e4 4f3d 13ac d13d
00000350: 0cb3 c23d 7513 0fbc d55e 8a3d e6d0 69bd
00000360: 8945 983c 01d6 113d d521 5abc e517 6b3d
00000370: f323 a23d c39f 7bbc 5228 b43d 9b21 a23b
00000380: ed20 843a 1342 333b 3252 90bc 0bba 98bd
00000390: 705d 96bb 41fc 8c3d 56bd 42bd 25de a1bd
000003a0: fa00 e83d dc09 763d e185 bfbd d6fd b23d
000003b0: 166d d13d e296 4dbc e5bd f3bb 81ff 9e3d
000003c0: 614c 763d a34a eb3c 3ded 463d b0a2 32bd
000003d0: cebd b43d dfa0 aabb 1eba 743d e9ea 013d
000003e0: 6c4f 4a3d 957d 3d3d 10c4 f9bc 427d 88bc
000003f0: 6f0c 9cbc 4290 42bd 62cd f6bc 39fa 81bd

bond_lin.weight f4 [300, 23]
4.0043958e-11 0.45213667 0.2903459 0.36410782 -4.353698e-17 -3.029835e-28 4.9511897e-07 4.620458e-11
-1.305087e-13 6.865839e-24 -8.980179e-17 -0.0005516765 -0.53932655 3.1597847e-28 -2.5318649e-24 4.3982172e-06
-1.3286211e-05 -2.34273e-12 -2.1416563e-06 -3.645174e-10 -1.0581406e-06 3.654423e-14 -6.6895376e-07 6.053859e-28
0.22718439 0.31460136 0.027282804 -9.525449e-11 -7.035644e-10 2.9099282e-27 0.000117823154 1.9356276e-22
0.00037572565 -3.857469e-05 -1.6027686e-08 -0.446652 0.00014116034 1.3271201e-12 -1.3666032e-24 6.6575626e-07
5.8656816e-11 -0.0010530752 2.6407015e-08 -8.116597e-08 6.6774692e-09 -2.7562814e-06 2.3703187e-08 -0.5555024
-0.5298335 -0.30373794 -0.0011762072 -4.907863e-39 3.1272148e-08 1.2723963e-06 3.6831427e-13 -5.585264e-22
-8.975903e-36 7.309049e-07 0.3913995 3.410313e-28 4.903144e-05 0.000836008 9.835933e-19 -1.4133417e-08
6.039416e-16 0.0004075411 -2.6291956e-17 9.594271e-09 -1.3717585e-07 4.917113e-39 -0.5062559 0.5222786
-0.16686171 -0.0005813783 -8.963589e-05 1.8380666e-08 1.5391231e-05 -5.101803e-11 4.3729844e-05 3.2428577e-38
2.5799109e-06 0.16654697 -0.0011091331 -8.372265e-09 8.494778e-34 1.0667062e-19 3.3102034e-16 -5.034668e-13
4.431707e-13 -4.3466307e-12 -5.0742216e-23 -4.912584e-39 -0.0008831214 -0.2159703 -0.28686053 0.08451983
2.7052185e-09 0.00052016985 -8.7675374e-11 -8.6896096e-10 6.271696e-25 4.8671125e-05 -4.916551e-39 6.4800835e-05
-0.4109144 -0.00011343838 -1.6293331e-19 -0.0005514576 4.90807e-39 1.5672817e-19 4.3076792e-11 -1.1666321e-24
-0.00057815097 -3.1537427e-05 0.00039779156 -6.074548e-11 0.056028225 -0.027451325 0.11362778 -0.00017624944
-0.001107042 -7.256602e-14 4.5017786e-23 -1.1998046e-20 -6.0798938e-24 -2.4896233e-12 -4.908157e-39 0.4896337
-4.793838e-39 3.1650457e-11 0.00053688476 -1.5982818e-07 -3.7874624e-14 7.883958e-14 -0.00032626707 -6.846252e-10
-2.9459976e-05 -1.3217354e-14 -2.5442912e-21 -0.43760046 -0.21500948 0.16811602 2.2888796e-29 -5.3252583e-11
-5.9675638e-36 7.708037e-34 -3.127718e-08 -6.546809e-06 -0.00015629322 7.172068e-08 0.44264817 2.8108807e-05
-8.282993e-08 -6.216816e-23 -6.257184e-09 8.954585e-06 4.0983078e-10 5.9143734e-10 9.4230616e-36 1.5049669e-28
-9.2280066e-11 -1.495628e-16 0.03186351 0.28758228 0.38326785 -3.5892715e-06 -1.4804385e-33 -1.1244459e-22
-3.329396e-05 4.909331e-39 -2.5891963e-17 3.3908626e-24 1.7292639e-21 0.33351943 -2.5823883e-15 3.76689e-11
0.0006626422 1.107819e-24 -7.0651025e-05 -4.4158824e-07 3.7262405e-06 9.717664e-06 1.2213056e-13 -2.8280734e-08
-2.3492031e-11 0.1008473 -0.36819336 -0.14795099 -9.2773935e-06 -6.3616257e-10 -0.00013187678 0.00062087167
6.8998655e-05 -0.0005441782 -3.213606e-14 1.3855501e-07 0.0012787927 -2.578406e-05 2.7523892e-12 8.2284424e-07
-0.0003032419 0.00015702343 4.910214e-39 0.00047742395 -5.8706973e-26 3.0609744e-20 -1.7252755e-28 -2.7289013e-10
0.47109047 -0.36044258 0.014987733 3.857835e-06 0.00020945755 1.1128522e-17 -1.589758e-18 -6.643848e-21
0.00014146214 1.4818586e-09 0.00024957064 0.03552548 -3.408604e-33 5.181502e-15 -2.9839139e-05 -0.00068274257
-1.693578e-21 1.58006e-05 2.487832e-22 1.2185734e-06 -2.7162097e-05 -5.2024506e-22 -2.0788716e-06 0.2973336
-0.21334472 -0.08812115 5.004909e-12 9.884008e-05 -8.5045263e-16 5.651886e-29 1.8127134e-23 -1.6030591e-15
7.169489e-32 -0.0007538472 -0.31401363 -2.1254323e-06 -5.081463e-35 -1.490392e-33 -1.9001247e-05 -4.153028e-39
2.1031745e-34 1.06152075e-11 -5.6727307e-11 -2.7988262e-28 -1.1968192e-23 3.12265e-15 -0.09049465 -0.37157777
00000000: 7d1d 302e 757e e73e 38a8 943e 576c ba3e
00000010: 65c7 48a4 e209 c091 51e8 0435 bb35 4b2e
00000020: 92f0 12aa fdcd 0419 9f11 cfa4 629e 10ba
00000030: 4e11 0abf 7046 c811 c0e4 4398 6694 9336
00000040: d7e7 5eb7 dfda 24ac 60b9 0fb6 4365 c8af
00000050: 6f05 8eb5 a194 2429 2792 33b5 bdda 3f12
00000060: 06a3 683e 6e13 a13e 3080 df3c 8377 d1ae
00000070: f164 41b0 5b8c 6613 d317 f738 c600 6a1b
00000080: 0bfd c439 42cb 21b8 41ad 89b2 92af e4be
00000090: 7104 1439 8ac6 ba2b bb78 d397 6cb6 3235
000000a0: dafc 802e 5707 8aba a4d5 e232 774d aeb3
000000b0: a46f e531 8ef8 38b6 dc9b cb32 6835 0ebf
000000c0: 2ba3 07bf 8a83 9bbe f72a 9aba 2071 3580
000000d0: 1750 0633 34c7 aa35 ae57 cf2a e3cd 289c
000000e0: 77e5 3e85 6733 4435 8465 c83e 7e27 d811
000000f0: 1ca7 4d38 8c27 5b3a 1b27 9121 6dcf 72b2
00000100: 0613 2e26 3eab d539 2080 f2a3 0dd4 2432
00000110: 9c4a 13b4 e98a 3500 fd99 01bf 0db4 053f
00000120: ccdd 2abe a367 18ba e7fa bbb8 83e3 9d32
00000130: 6b1c 8137 3261 60ae 906a 3738 d78e 3001
00000140: 8822 2d36 4a8b 2a3e 5560 91ba 9cd5 0fb2
00000150: ca24 8d08 6fde fb1f fbd1 be25 9bb6 0dab
00000160: a17b f92a f8ee 98ac d25f 759a 497e 3580
00000170: 4681 67ba 5127 5dbe 62df 92be bc18 ad3d
00000180: b5e6 3931 025c 083a d9cc c0ae b1db 6eb0
00000190: 7f19 4217 3924 4c38 5889 3580 afe5 8738
000001a0: 5f63 d2be c4e5 edb8 925b 40a0 b18f 10ba
000001b0: b471 3500 2f08 3920 2874 3d2e 0f87 b497
000001c0: 0e8f 17ba 0e47 04b8 ae8e d039 aa94 85ae
000001d0: da7d 653d 9ae1 e0bc aeb5 e83d 99cf 38b9
000001e0: 2a1a 91ba 7667 a3a9 52b1 591a fea2 629e
000001f0: 5a34 eb98 1131 2fac f271 3580 45b1 fa3e
00000200: 4533 3480 3f33 0b2e babd 0c3a 3c9d 2bb4
00000210: 7892 2aa9 ec87 b129 d30e abb9 3730 3cb0
00000220: d120 f7b7 491a 6ea8 c03d 409d 2b0d e0be
00000230: 722b 5cbe 9b26 2c3e b61e e80f 1435 6aae
00000240: 04d5 fd84 5d12 8008 a055 06b3 a9ac dbb6
00000250: a4e2 23b9 dc04 9a33 c8a2 e23e 34cb eb37
00000260: 3ce0 b1b3 3a50 969a c6fe d6b1 a63b 1637
00000270: 8e4e e12f b492 2230 0768 4805 f8c6 3e11
00000280: 0fed caae 266f 2ca5 5083 023d fc3d 933e
00000290: af3b c43e 37df 70b6 e4fa f588 eaef 079b
000002a0: 1ea5 0bb8 3875 3500 abcf eea3 7a2d 8318
000002b0: d4a8 021d 0fc3 aa3e a814 3aa7 69ab 252e
000002c0: 2ab5 2d3a 3b6d ab17 7b2a 94b8 6d13 edb4
000002d0: 5310 7a36 0d09 2337 bd81 092a feed f2b2
000002e0: 5aa3 cead 0789 ce3d d783 bcbe 7780 17be
000002f0: 1aa6 1bb7 f6dd 2eb0 6748 0ab9 fec1 223a
00000300: 5fb3 9038 2ea7 0eba 5bba 10a9 b6c5 1434
00000310: 2a9d a73a d94a d8b7 a3ae 412c 6de1 5c35
00000320: 70fc 9eb9 a8a6 2439 ae77 3500 c24e fa39
00000330: f759 9195 e98c 101f 64b4 5a91 df05 96af
00000340: c532 f13e ee8b b8be 1c8f 753c 8d72 8136
00000350: d5a1 5b39 f648 4d23 5c9b eaa1 5bff fa9d
00000360: 7455 1439 44aa cb30 ced8 8239 2a83 113d
00000370: 7f96 8d89 ecae ba27 104f fab7 14fa 32ba
00000380: 20ed ff9c 888b 8437 5661 961b dd8d a335
00000390: 29da e3b7 033c 1d9c be82 0bb6 1c3c 983e
000003a0: 0a77 5abe dd78 b4bd 3618 b02c 5d48 cf38
000003b0: 5420 75a6 d64a 8f10 9c50 af19 7106 e7a6
000003c0: 6d21 ba0b d49d 45ba 65c6 a0be a6a2 0eb6
000003d0: a516 8786 44a2 f788 de64 9fb7 f438 2d80
000003e0: a9c7 8b07 a5be 3a2d 457d 79ae 8d65 b191
000003f0: 9e7f 6799 ba02 6127 4255 b9bd 713f bebe

bond_lin.bias f4 [300]
0.12894082 -0.040858895 -0.021315478 0.018133443 -0.18909138 -0.25038916 0.2161053 -0.080428116
0.12572855 -0.14719784 0.15463306 -0.13860326 0.07346639 -0.22328031 0.20278841 0.102494776
-0.1781904 0.37353233 -0.020802863 0.1236754 -0.10817813 -0.0702558 0.053818155 0.03841127
0.21573447 0.14824928 0.1283991 0.15832289 -0.21502066 -0.093497925 0.026738284 0.17498197
0.12606886 -0.05307888 -0.095962405 0.12162523 0.007653893 0.008825268 0.18324953 -0.31005192
0.16524018 0.15924156 0.032854855 -0.12966865 -0.17373471 -0.080641106 -0.0950424 0.007412738
-0.044391435 0.18693437 -0.058471624 -0.25434238 -0.23698327 -0.2192848 -0.1642801 -0.000881659
0.11082135 -0.022916844 0.14064929 -0.19634281 -0.025737239 0.18933137 0.13598663 0.060708232
-0.15170346 0.15764898 -0.20041054 0.0004971575 -0.017645411 -0.0054160603 -0.11062339 0.40977618
0.108467504 0.08413934 -0.19110422 0.13047542 0.1191649 -0.046142977 -0.0032856658 0.096421875
0.13942116 0.094246455 -0.18137714 0.034271844 0.01869315 0.0015527662 0.16549358 -0.014400951
-0.21892135 0.09838844 0.01907075 0.027930964 0.026577983 -0.20511518 0.1364066 0.14294367
-0.20355949 0.04306612 0.16650797 0.061010204 0.17428926 -0.23911187 0.10187334 -0.22108813
0.23225819 0.18159644 -0.04497362 -0.11133967 -0.2410483 0.023441862 0.26089424 -0.23721555
-0.073842555 -0.13996044 -0.06303847 0.02964091 -0.07577872 0.09034264 -0.18211094 0.19950524
0.15059012 0.12329184 0.10747723 0.013675283 -0.1355359 -0.131837 0.22747469 0.16659631
0.017718388 0.14579627 0.065745905 0.0062406017 -0.08824161 -0.18625009 0.2153309 -0.17088112
-0.12659922 -0.22018856 -0.14435439 0.1522233 0.18847223 0.13863924 0.21448722 -0.122673884
-0.044722024 0.035600215 0.07569625 0.0084231105 -0.09311955 0.016114062 0.014908444 -0.12862788
-0.05600828 -0.01708631 0.05339862 0.032091882 -0.0056746136 -0.26272127 0.19780196 -0.012954876
-0.0702706 0.19242093 -0.18086974 0.13408944 0.010229529 -0.0023056697 -0.08131386 0.123490505
0.030879084 -0.2234679 -0.2123476 0.15333864 0.02171466 0.059690118 0.1986433 0.09903647
0.04273059 -0.04643633 0.13746826 0.062345155 0.02394893 0.14393066 0.19770761 -0.124516144
-0.17057034 -0.20736878 0.16723709 -0.123755395 0.09946069 -0.22419293 -0.11916098 -0.2281028
-0.2913631 0.19316305 0.09250605 0.0830672 -0.075811915 -0.145228 0.015527914 0.04185004
0.013598218 0.05255479 0.08140396 -0.017758641 -0.1922105 0.1720882 0.026341593 0.16992979
0.14967325 0.06407266 0.13536166 0.124738865 -0.000109123845 0.08362743 -0.24724758 -0.14209016
-0.085937165 0.078186154 -0.06752356 0.15056016 0.09220042 -0.021420307 0.17573896 0.23208494
-0.015283369 -0.18645588 -0.1707348 -0.06996441 -0.13201962 0.041293196 0.12641186 -0.088460155
-0.21398096 -0.11702849 -0.14888196 0.16078718 0.0331069 0.003947421 -0.18675636 0.24354175
-0.07472807 -0.06499001 -0.22975068 0.095274456 0.16442059 -0.1242391 0.13462448 0.17088234
-0.2888754 -0.051342417 0.04235862 0.11278497 0.05045636 -0.08906992 -0.10705028 0.015753211
00000000: 1009 043e a85b 27bd cc9d aebc 968c 943c
00000010: 2ca1 41be 0233 80be b54a 5d3e 7fb7 a4bd
00000020: fcbe 003e 08bb 16be 2158 1e3e 03ee 0dbe
00000030: 8c75 963d 98a3 64be c4a7 4f3e c8e8 d13d
00000040: 8b77 36be a13f bf3e c46a aabc 8749 fd3d
00000050: 7f8c ddbd 46e2 8fbd 6d70 5c3d 2355 1d3d
00000060: 7fe9 5c3e a9ce 173e 0e7b 033e 651f 223e
00000070: 602e 5cbe d77b bfbd 3f0a db3c 792e 333e
00000080: 3218 013e 3d69 59bd f087 c4bd a616 f93d
00000090: 82cd fa3b db97 103c c4a5 3b3e 20bf 9ebe
000000a0: b934 293e 3810 233e d092 063d dcc7 04be
000000b0: 83e7 31be 2a27 a5bd 97a5 c2bd 8ee6 f23b
000000c0: cbd3 35bd b96b 3f3e f17f 6fbd 2a39 82be
000000d0: beab 72be 328c 60be 0b39 28be 221f 67ba
000000e0: 4ef6 e23d 1bbc bbbc 5e06 103e 170e 49be
000000f0: e7d6 d2bc 15e0 413e 1440 0b3e 32a9 783d
00000100: 2758 1bbe bc6e 213e 6c38 4dbe ad53 023a
00000110: 1c8d 90bc 3579 b1bb 848e e2bd 2fce d13e
00000120: 3624 de3d 3f51 ac3d d3b0 43be 599b 053e
00000130: ba0c f43d 6b00 3dbd 5354 57bb d578 c53d
00000140: 6cc4 0e3e 4904 c13d eeba 39be a260 0c3d
00000150: 6022 993c 3086 cb3a 2677 293e f7f1 6bbc
00000160: eb2c 60be e17f c93d 433a 9c3c 7acf e43c
00000170: 12ba d93c b709 52be 2cae 0b3e d35f 123e
00000180: e671 50be 1a66 303d 1181 2a3e d6e5 793d
00000190: e278 323e bed9 74be f8a2 d03d ed64 62be
000001a0: 17d5 6d3e 6bf4 393e 4236 38bd 0e06 e4bd
000001b0: 5ed5 76be 2609 c03c ee93 853e a2e8 72be
000001c0: c43a 97bd ca51 0fbe 501a 81bd 7ed1 f23c
000001d0: e031 9bbd 9005 b93d 4a7b 3abe 1a4b 4c3e
000001e0: 4c34 1a3e 6f80 fc3d 061d dc3d 4b0e 603c
000001f0: ecc9 0abe 4700 07be 20ef 683e 3998 2a3e
00000200: 2726 913c 9e4b 153e caa5 863d f67d cc3b
00000210: 04b8 b4bd 58b8 3ebe b47f 5c3e 76fb 2ebe
00000220: 3aa3 01be 1c79 61be a3d1 13be 6de0 1b3e
00000230: ddfe 403e 72f7 0d3e 8aa2 5b3e 723c fbbd
00000240: 712e 37bd 88d1 113d a306 9b3d 1601 0a3c
00000250: 76b5 bebd a301 843c 8c42 743c 07b7 03be
00000260: f068 65bd 97f8 8bbc 83b8 5a3d c772 033d
00000270: 1cf2 b9bb 6783 86be 998c 4a3e b040 54bc
00000280: 08ea 8fbd fe09 453e eb35 39be be4e 093e
00000290: c199 273c b81a 17bb e287 a6bd 97e8 fc3d
000002a0: 22f6 fc3c c5d4 64be a671 59be ce04 1d3e
000002b0: f1e2 b13c a07d 743d 2669 4b3e a2d3 ca3d
000002c0: 4506 2f3d 0534 3ebd 7bc4 0c3e a25d 7f3d
000002d0: 8c30 c43c 8f62 133e dd73 4a3e 5202 ffbd
000002e0: fea9 2ebe 7b58 54be 3340 2b3e 7873 fdbd
000002f0: 0cb2 cb3d d592 65be ac0a f4bd c893 69be
00000300: 8b2d 95be 89cc 453e d073 bd3d 231f aa3d
00000310: 4743 9bbd a6b6 14be cb68 7e3c f36a 2b3d
00000320: 0fcb 5e3c b143 573d 1fb7 a63d 927a 91bc
00000330: d4d2 44be e437 303e 53ca d73c 1302 2e3e
00000340: f243 193e 8738 833d 3f9c 0a3e 1777 ff3d
00000350: 6bd9 e4b8 dc44 ab3d 782e 7dbe 1580 11be
00000360: d3ff afbd 1020 a03d cb49 8abd 712c 1a3e
00000370: 93d3 bc3d a479 afbc eaf4 333e ada7 6d3e
00000380: 1967 7abc 4aee 3ebe 1ad5 2ebe 8049 8fbd
00000390: 2730 07be 0e23 293d 1c72 013e 992a b5bd
000003a0: d31d 5bbe a2ac efbd 8374 18be 65a5 243e
000003b0: 1a9b 073d 5e59 813b 0f3d 3fbe 0263 793e
000003c0: 080b 99bd 7b19 85bd c343 6bbe 411f c33d
000003d0: df5d 283e 1271 febd 00db 093e c8fb 2e3e
000003e0: 7ae7 93be 6d4c 52bd 3b80 2d3d cefb e63d
000003f0: 54ab 4e3d 4a6a b6bd 2d3d dbbd e10c 813c

energy_lin.1.weight f4 [300, 300]
-0.12698683 0.13473 -0.15623188 0.0041898647 0.08693278 0.037203252 0.041603755 -0.03797061
0.017196096 -0.02652431 -0.13966754 -0.08443972 -0.06970196 -0.11075809 -0.08216572 -0.059940957
0.1130814 0.17234956 -0.0066512884 -0.12544933 -0.09586062 -0.13075753 0.11762804 -0.14007504
0.044262413 0.019672876 0.0641283 -0.09753881 0.033371385 0.15076083 0.14933082 -0.07488942
-0.049153745 0.12851468 -0.10862858 0.051425226 -0.033259086 0.03948758 0.1230562 -0.11840111
-0.0871914 -0.01358529 -0.09399325 0.08828208 0.061618254 -0.13712199 0.10941469 0.032378428
-0.11551775 0.0744082 0.017808959 0.08591129 0.0023573642 -0.0743756 -0.020799432 0.08067981
-0.09328358 0.13225885 -0.0016223122 0.012881781 0.0065306337 0.08101401 0.002563751 -0.027771585
-0.04985301 -0.11306247 0.08917105 0.12586284 0.102790706 0.053793084 0.054184675 0.19930975
-0.040655635 0.080424935 0.090323225 -0.08099476 0.029370869 -0.12681511 -0.09018578 0.06688803
0.13538815 0.10372942 -0.11491908 0.047444895 0.15955238 -0.06589178 -0.022991184 -0.02757222
0.003836572 0.04601766 -0.031418514 0.09596655 0.07984179 -0.07345903 0.10109933 0.10840985
0.122974694 0.12077001 0.064087436 0.14339422 0.017396888 0.062239222 -0.011114973 0.097135216
0.00866197 0.12512183 -0.086441174 0.1252868 0.032463085 -0.043507967 0.07950035 -0.037069645
0.11798177 -0.01851443 -0.0923332 -0.079865 -0.08872717 0.11705427 0.058062617 0.072431065
0.12803437 -0.11729101 -0.10350874 0.11369193 -0.04603123 -0.0032040735 0.069455765 -0.004384782
-0.03747455 0.082243696 -0.13197276 -0.0037722182 0.059113592 0.039336126 -0.08749762 -0.02551897
-0.044641335 -0.049620558 0.037827082 0.12774 -0.14775082 -0.10047014 0.10564171 -0.08015631
0.037241828 0.023882225 0.16673934 -0.010978033 -0.025000177 0.018635767 0.076089315 -0.1433876
0.0846735 0.033163264 -0.13127603 -0.14238252 -0.07802583 0.0524578 0.04908796 0.03684045
-0.0319631 -0.0060490374 0.11913492 0.030542627 -0.040751483 0.00672339 -0.14088887 -0.039240215
-0.12010221 0.09689069 0.043115854 0.11958619 -0.14704329 -0.13852876 -0.04884511 0.0812572
-0.10555356 -0.14823504 -0.122139625 0.07092355 -0.13715501 -0.110837236 -0.03457431 0.054056097
-0.13573705 -0.04321803 -0.06952824 0.0055116634 0.09584299 -0.080615096 0.09591877 -0.0001592908
-0.04258361 -0.03152228 -0.20133461 0.10513795 -0.06370352 0.08839739 0.04116721 -0.028496698
0.005296795 -0.031248994 -0.044777583 -0.0033236165 0.07886224 0.087252475 0.032492686 0.12765661
-0.008423109 0.096597336 -0.09117372 -0.11034333 -0.005545899 -0.08511426 0.065420315 0.019909339
0.057246666 -0.075139634 0.038867842 0.08982873 0.05132216 -0.020715702 0.19262338 0.11207843
0.117471024 -0.09008635 0.017389987 -0.066742964 -0.03379151 -0.014090183 0.01704001 0.12319574
0.072978966 0.12184426 0.07556293 0.004883376 -0.041020133 -0.08376512 -0.06824272 -0.08658152
-0.13669907 0.1459947 0.050463956 0.08302861 0.0617826 0.08981812 0.07463187 -0.09038385
-0.023047147 -0.042745326 -0.09054613 -0.011965549 -0.043338113 0.1454593 0.118408136 -0.06763931
00000000: d608 02be a9f6 093e 40fb 1fbe 224b 893b
00000010: d009 b23d 7062 183d b368 2a3d 1287 1bbd
00000020: d4de 8c3c 8249 d9bc 0205 0fbe bbee acbd
00000030: e7bf 8ebd 23d5 e2bd 8046 a8bd a684 75bd
00000040: 3997 e73d 677c 303e 0df3 d9bb ca75 00be
00000050: 9352 c4bd 4de5 05be f8e6 f03d d56f 0fbe
00000060: 814c 353d 0329 a13c b355 833d 6dc2 c7bd
00000070: 6fb0 083d 0c61 1a3e 2eea 183e a05f 99bd
00000080: 7055 49bd 5a99 033e a978 debd 42a3 523d
00000090: ae3a 08bd bbbd 213d e404 fc3d 487c f2bd
000000a0: 6891 b2bd d694 5ebc 887f c0bd 3ccd b43d
000000b0: 6c63 7c3d b569 0cbe cf14 e03d 3e9f 043d
000000c0: 9294 ecbd 5463 983d 18e4 913c 42f2 af3d
000000d0: 027e 1a3b 3c52 98bd 9263 aabc 753b a53d
000000e0: 760b bfbd dd6e 073e c4a3 d4ba 1b0e 533c
000000f0: edfe d53b acea a53d 9b04 283b 3c81 e3bc
00000100: ab32 4cbd 4c8d e7bd 509f b63d 30e2 003e
00000110: ef83 d23d 2356 5c3d c0f0 5d3d db17 4c3e
00000120: 8686 26bd d4b5 a43d 62fb b83d 95e0 a5bd
00000130: 2d9b f03c d2db 01be 52b3 b8bd 97fc 883d
00000140: 31a3 0a3e 1770 d43d b25a ebbd 9455 423d
00000150: b361 233e 45f2 86bd 0258 bcbc 23df e1bc
00000160: ff6e 7b3b 047d 3c3d b3b0 00bd 1c8a c43d
00000170: 1884 a33d b071 96bd 2a0d cf3d fc05 de3d
00000180: 28da fb3d 4456 f73d 4640 833d efd5 123e
00000190: eb83 8e3c 8eee 7e3d 931b 36bc d4ee c63d
000001a0: efea 0d3c f01f 003e 1208 b1bd 2f4b 003e
000001b0: 03f8 043d 6935 32bd 14d1 a23d 57d6 17bd
000001c0: 6da0 f13d 93ab 97bc 3019 bdbd 4390 a3bd
000001d0: 97b6 b5bd 26ba ef3d 11d3 6d3d bd56 943d
000001e0: 711b 033e 4536 f0bd 64fc d3bd 51d7 e83d
000001f0: 3e8b 3cbd 6ffb 51bb d33e 8e3d 38ae 8fbb
00000200: ea7e 19bd 626f a83d de23 07be 5237 77bb
00000210: 1821 723d eb1e 213d f431 b3bd 290d d1bc
00000220: d5d9 36bd ed3e 4bbd 92f0 1a3d 46ce 023e
00000230: fe4b 17be 4ac3 cdbd ae5a d83d fe28 a4bd
00000240: e38a 183d a8a4 c33c b8bd 2a3e 35dd 33bc
00000250: 2ccd ccbc 09aa 983c b7d4 9b3d 33d4 12be
00000260: 4d69 ad3d 34d6 073d 396d 06be b9cc 11be
00000270: 02cc 9fbd fddd 563d 7510 493d 03e6 163d
00000280: bdeb 02bd 0137 c6bb 02fd f33d 8834 fa3c
00000290: 07eb 26bd e24f dc3b 2c45 10be 59ba 20bd
000002a0: 26f8 f5bd a06e c63d 409a 303d 9be9 f43d
000002b0: 8492 16be 7cda 0dbe cf11 48bd 2d6a a63d
000002c0: 772c d8bd edca 17be 5724 fabd 5e40 913d
000002d0: 5d72 0cbe a2fe e2bd cb9d 0dbd ed69 5d3d
000002e0: a7fe 0abe 6405 31bd d264 8ebd 2f9b b43b
000002f0: 5449 c43d 8719 a5bd 0f71 c43d 4c07 27b9
00000300: 276c 2ebd 821d 01bd a92a 4ebe 9152 d73d
00000310: fe76 82bd b109 b53d f39e 283d e871 e9bc
00000320: bd90 ad3b e4fd ffbc b368 37bd 08d1 59bb
00000330: 8782 a13d 6db1 b23d 0d17 053d 6ab8 023e
00000340: 1401 0abc d3d4 c53d 4ab9 babd affb e1bd
00000350: 5fba b5bb 6350 aebd 16fb 853d e918 a33c
00000360: 7b7b 6a3d cfe2 99bd e333 1f3d 20f8 b73d
00000370: 2f37 523d fab3 a9bc 103f 453e 6089 e53d
00000380: a694 f03d 317f b8bd 7275 8e3c 89b0 88bd
00000390: f768 0abd 83da 66bc 7e97 8b3c 0c4e fc3d
000003a0: ff75 953d 7c89 f93d bdc0 9a3d ba04 a03b
000003b0: ba04 28bd 0c8d abbd d7c2 8bbd a751 b1bd
000003c0: d7fa 0bbe a27f 153e 4bb3 4e3d e70a aa3d
000003d0: c00f 7d3d 90f2 b73d 98d8 983d 2b1b b9bd
000003e0: 5fcd bcbc b915 2fbd 4070 b9bd 260b 44bc
000003f0: 4e83 31bd 48f3 143e f77f f23d 7b86 8abd

energy_lin.1.bias f4 [300]
0.013748581 -0.019573187 -0.008166628 0.039902695 -0.026172686 0.07094229 -4.3761385e-19 0.054815974
0.032967854 0.081905976 0.014890119 0.014899889 0.035995126 -0.025991322 0.004365351 0.021352027
-0.021402124 0.063158244 -0.013561877 0.0287968 0.041649524 0.021453712 0.055572424 -0.055371966
0.02102753 0.05466889 0.00056216115 0.0069986014 0.042268023 0.010136028 0.0021181335 -0.0655627
-0.0042317146 0.061786894 0.028857721 -0.02022111 -0.031711973 0.017014477 -0.014941217 0.035721492
-0.018981127 0.061377544 -0.0017945612 0.05322662 -0.029415505 0.083867624 -0.009028191 -0.023348246
0.028826708 0.029327026 -0.004294701 -0.020945774 0.008178148 0.046569392 0.077110164 0.040833756
0.032253586 -0.0397011 0.035794493 0.06389432 0.0032366894 -0.0007055139 0.067662664 0.024723556
0.014353147 0.04494797 -0.022089507 0.036730547 -7.535423e-24 0.020203682 0.045683146 0.008207997
0.058653243 -0.032317437 0.051745173 0.002936644 0.05887409 -0.0033730122 0.031665344 0.053904098
0.038577586 0.031582765 0.055194583 0.06816181 0.054424793 -0.00035237847 0.07017143 -0.014366313
-0.023175439 -0.038642358 0.013089461 0.006733723 0.009728288 0.00066655676 0.03364482 -0.067522764
0.02245895 0.0038791636 0.050737478 0.047716 0.03692365 0.065999515 0.05672982 0.07301047
0.024835095 0.09805746 0.0098125525 -0.032960113 0.07700976 0.00035352696 0.02528603 0.027911821
0.01371268 0.07192418 -0.01888383 0.06250454 0.044202015 0.070445284 0.01986815 -0.0044337683
-0.012439248 0.027153693 0.031447258 0.029190373 0.0048301476 -0.013785355 0.02421013 0.023133438
0.035642058 -0.0013339493 -0.04714448 0.051389325 -0.040982828 -0.011137029 -0.005138268 0.08683303
0.00530891 -0.02543872 0.0751725 0.023920877 0.069153704 -0.020130727 -0.03611757 -0.0032041457
-0.031613056 0.040554635 0.04344006 0.060171515 -0.023963105 -0.03073089 0.09417879 0.021632731
-0.012811306 -0.04257636 0.04722582 0.010511688 0.03893001 0.010959115 -0.005304676 0.059621174
0.04890785 0.033298045 -0.00090777245 0.06823331 0.081289195 -0.0041391957 -0.0093037225 0.024755714
0.019023018 0.02025982 -0.018189443 0.0013551133 -0.024660343 0.044187337 -0.013815128 0.0047534886
0.06966822 -0.020838168 0.014345157 -0.014225778 0.033052973 -0.029607587 0.006388974 -0.044822518
0.049155787 -0.035638794 0.005304688 -0.0018411321 0.01679928 0.014752769 0.02430942 0.078057766
0.046528615 0.01734922 -0.0392793 0.01923886 -0.05864424 -2.4980494e-07 0.0075362567 -0.0091224825
0.03474813 0.011644074 0.076358534 0.019488178 -0.023028666 0.048040945 0.022589916 0.02811601
0.07184153 0.06191638 -2.5984837e-21 -0.038276017 -0.013265352 0.062375333 -0.011513422 0.00936016
0.06981148 0.006468858 0.053321127 -0.022946496 0.02335136 -0.02678421 -0.033477567 0.013407368
0.058997415 -0.013999377 0.029172383 0.0014563763 0.07154773 0.057992075 0.021319015 0.05297774
0.029826876 -0.029166779 0.0877285 0.023507671 0.013831611 -0.00059943285 0.0017082177 -2.901076e-13
-0.026002249 -0.002693969 -0.008816512 0.024519276 -0.013205395 0.0013391387 -0.0041453415 -0.003712337
0.02915653 0.060209006 -0.007069551 -0.03457043 0.059244074 0.06254665 -0.025575021 -0.017335782
00000000: ba41 613c f357 a0bc 52cd 05bc 0271 233d
00000010: 1a68 d6bc 314a 913d 2b29 01a1 b786 603d
00000020: 4d09 073d 52be a73d b0f5 733c aa1e 743c
00000030: a06f 133d c1eb d4bc 380b 8f3b 72ea ae3c
00000040: 8253 afbc 1c59 813d a332 5ebc 44e7 eb3c
00000050: b198 2a3d b2bf af3c e99f 633d b7cd 62bd
00000060: ed41 ac3c 7cec 5f3d ff5d 133a 8654 e53b
00000070: 3c21 2d3d 9511 263c 62d0 0a3b bd45 86bd
00000080: 32aa 8abb 4114 7d3d 0767 ec3c bea6 a5bc
00000090: 6ae4 01bd f261 8b3c 02cc 74bc b350 123d
000000a0: 4f7e 9bbc 0567 7b3d 7b37 ebba 2804 5a3d
000000b0: c9f8 f0bc cac2 ab3d faea 13bc d244 bfbc
000000c0: fd25 ec3c 3b3f f03c 90ba 8cbb 7996 abbc
000000d0: a4fd 053c 8cbf 3e3d efeb 9d3d 4c41 273d
000000e0: 561c 043d 9f9d 22bd 3f9d 123d 06db 823d
000000f0: a31e 543b 3df2 38ba b992 8a3d 0e89 ca3c
00000100: 7629 6b3c 5d1b 383d 0ef5 b4bc c572 163d
00000110: 9bc1 1199 3182 a53c 401e 3b3d d67a 063c
00000120: 623e 703d 4a5f 04bd bff2 533d b674 403b
00000130: f525 713d c10d 5dbb 85b3 013d 8bca 5c3d
00000140: 8803 1e3d ee5c 013d b713 623d 6b98 8b3d
00000150: 88ec 5e3d 70bf b8b9 0ab6 8f3d af60 6bbc
00000160: 6bda bdbc 7347 1ebd 2e75 563c 90a6 dc3b
00000170: 6663 1f3c debb 2e3a 27cf 093d 6049 8abd
00000180: d5fb b73c 9139 7e3b 1ad2 4f3d da71 433d
00000190: 413d 173d c12a 873d 875d 683d 8386 953d
000001a0: f872 cb3c 59d2 c83d d4c4 203c 2f01 07bd
000001b0: 4bb7 9d3d 9659 b939 a624 cf3c 55a7 e43c
000001c0: 26ab 603c fc4c 933d 43b2 9abc 6102 803d
000001d0: 2c0d 353d 9e45 903d 88c2 a23c 2549 91bb
000001e0: fdcd 4bbc 6c71 de3c d7ce 003d a620 ef3c
000001f0: 3746 9e3b f8db 61bc 5354 c63c 5682 bd3c
00000200: 68fd 113d e9d7 aeba 921a 41bd 9d7d 523d
00000210: 9cdd 27bd 1678 36bc eb5e a8bb 84d5 b13d
00000220: 5df6 ad3b dd64 d0bc 0af4 993d b7f5 c33c
00000230: 75a0 8d3d 32e9 a4bc 04f0 13bd a5fc 51bb
00000240: b17c 01bd 9e1c 263d 34ee 313d 6876 763d
00000250: 464e c4bc 59bf fbbc cfe0 c03d 2037 b13c
00000260: 83e6 51bc 8d64 2ebd dd6f 413d 3739 2c3c
00000270: 1375 1f3d dc8d 333c d9d2 adbb 5535 743d
00000280: 9953 483d 8863 083d 94f7 6dba e8bd 8b3d
00000290: f37a a63d 17a2 87bb a46e 18bc 7fcc ca3c
000002a0: 29d6 9b3c ecf7 a53c 0702 95bc 0f9e b13a
000002b0: 7d04 cabc c8fd 343d d958 62bc 27c3 9b3b
000002c0: 36ae 8e3d ceb4 aabc f307 6b3c 3d13 69bc
000002d0: 8e62 073d 9c8b f2bc 995a d13b d197 37bd
000002e0: 9457 493d fcf9 11bd f3d2 ad3b 2452 f1ba
000002f0: a59e 893c 99b5 713c 8c24 c73c c0dc 9f3d
00000300: ca94 3e3d f41f 8e3c 55e3 20bd d09a 9d3c
00000310: f134 70bd ee1c 86b4 b4f2 f63b 7776 15bc
00000320: 0e54 0e3d c9c6 3e3c dd61 9c3d aca5 9f3c
00000330: 9da6 bcbc 95c6 443d 7d0e b93c 8c53 e63c
00000340: a721 933d 089c 7d3d fc55 449d 50c7 1cbd
00000350: eb56 59bc 477d 7f3d cba2 3cbc 5b5b 193c
00000360: 52f9 8e3d b7f8 d33b 4167 5a3d 4afa bbbc
00000370: 5a4b bf3c 8f6a dbbc c61f 09bd 94aa 5b3c
00000380: 46a7 713d a55d 65bc ecfa ee3c e1e3 be3a
00000390: 9e87 923d 1989 6d3d 37a5 ae3c 30ff 583d
000003a0: 7e57 f43c 2bef eebc 00ab b33d 2993 c03c
000003b0: fb9d 623c 4223 1dba 46e6 df3a e950 a3aa
000003c0: ab02 d5bc 4d8d 30bb 2273 10bc a6dc c83c
000003d0: 715b 58bc 0a86 af3a a5d5 87bb ae4a 73bb
000003e0: add9 ee3c b89d 763d b1a7 e7bb b999 0dbd
000003f0: eaa9 723d 7518 803d b582 d1bc c503 8ebc

energy_lin.3.weight f4 [150, 300]
0.036305275 0.004974309 -0.11939006 0.07942608 -0.050293826 -0.08355117 -1.7362215e-19 0.030712992
-0.03539745 -0.08245229 0.08264102 -0.12541144 -0.09469557 0.04447099 0.12115801 0.10249625
-0.106556535 0.05612747 0.08056964 0.10629187 0.35860547 -0.023786208 0.046310183 -0.13334091
0.08054632 0.15141124 -0.1021037 -0.021809235 0.056005403 -0.077441044 0.088417195 -0.13637057
-0.020768799 0.1726717 -0.118534446 0.11018729 -0.014131864 -0.054761555 0.009927883 0.08597589
0.1054601 0.0031744966 0.012845337 0.11372283 -0.03641475 0.03291591 0.022740513 0.11124285
0.07094446 -0.0141048785 -0.013600468 0.08049598 -0.009764337 0.055331986 0.03646477 -0.016589312
0.021418072 0.07761993 -0.12721968 0.09828489 0.12033445 0.086999014 -0.008899169 0.03501161
-0.06523498 -0.06799392 0.07913823 0.092020266 1.6237079e-19 -0.1312423 0.12068237 -0.08242912
0.11466772 0.083326384 -0.0875173 0.053861707 0.058839038 -0.08922706 -0.0007218369 -0.057103537
-0.079773955 0.074665494 -0.08387309 0.028195791 0.020841727 0.09342153 0.006187132 -0.012204136
0.14987828 -0.010582645 0.13644363 0.044815525 -0.08275753 -0.28003797 0.14541239 0.10923166
0.14256041 -0.043165334 -0.11289694 -0.1141924 -0.005639744 0.104891345 -0.119312726 0.05817796
-0.086498864 -0.1467326 -0.08898928 -0.13218644 0.047681417 0.1909587 0.0069256634 -0.12661822
-0.026626615 0.17797332 0.0271845 -0.008879735 -0.065268174 -0.0061227046 -0.09614743 0.12855113
0.13897526 0.024054212 -0.19855365 0.07485633 -0.07319695 0.012786951 -0.059578802 -0.09093927
0.06325965 -0.11592978 -0.10014417 0.13353634 0.21322699 -0.010986594 0.0018880835 0.033078976
0.06513974 0.12731835 0.08269025 0.08003572 -0.040357422 -0.0032104945 -0.01968495 -0.08395086
-0.11845833 -0.039798558 -0.00926954 -0.058952313 0.053887922 -0.019696446 0.008203673 0.12588543
0.035616092 0.09314941 0.060867634 0.110527635 0.02269879 -0.025727913 0.0693039 0.050335176
0.054075494 0.041365393 3.5892634e-05 -0.025658097 0.0742332 -0.06452952 -0.0906747 0.094685815
-0.008257573 0.11534423 0.13229628 0.16887915 -0.116328545 0.1980824 -0.11642457 0.15934001
-0.2870512 0.11705821 0.04685782 0.02444514 -0.013035013 0.16827653 0.2516017 0.14083587
0.05706754 0.106183 -0.016806282 0.09105763 0.06280688 0.08006061 -0.09628241 -0.02689293
0.027566664 0.030110355 -0.038593017 -0.0023957528 -0.087741226 1.4644534e-23 0.06212934 -0.03167123
-0.089498624 0.037432633 0.05524171 0.13869043 0.10808807 -0.13983008 0.08185705 0.053697117
-0.028609091 -0.06310565 -7.015482e-19 -0.057977982 -0.036139596 0.18530986 -0.10095785 0.08567924
-0.043354046 0.027697759 0.12382658 -0.021495907 0.094748035 0.032930605 0.12333813 -0.07720171
-0.016616 -0.10354249 0.01508712 -0.04011777 0.052101344 -0.0012731866 -0.059822243 0.14583303
-0.079163045 0.09346152 0.3201671 -0.08735738 0.10065841 0.009449414 -0.13237552 -0.0011611297
-0.09271331 0.00058644445 -0.06685494 0.11698404 -0.09700967 -0.31377003 0.15165609 0.04798834
0.046001147 0.126355 0.046812866 -0.07223755 -0.09737708 0.14038898 -0.02029836 0.0377304
00000000: d7b4 143d 87ff a23b c782 f4bd 24aa a23d
00000010: e600 4ebd e01c abbd 13fa 4ca0 d099 fb3c
00000020: ebfc 10bd bfdc a8bd b23f a93d db6b 00be
00000030: c0ef c1bd 3627 363d b121 f83d 8ee9 d13d
00000040: 503a dabd ebe5 653d b201 a53d 8daf d93d
00000050: 239b b73e 4bdb c2bc bfaf 3d3d 858a 08be
00000060: 78f5 a43d 8c0b 1b3e bf1b d1bd 48a9 b2bc
00000070: ec65 653d 6999 9ebd 1314 b53d baa4 0bbe
00000080: 5423 aabc dad0 303e 30c2 f2bd e0a9 e13d
00000090: 5589 67bc a74d 60bd 8fa8 223c 2114 b03d
000000a0: 77fb d73d 370b 503b 4075 523c 84e7 e83d
000000b0: a227 15bd d5d2 063d 504a ba3c 4bd3 e33d
000000c0: 544b 913d 2618 67bc 7fd4 5ebc 14db a43d
000000d0: 99fa 1fbc cba3 623d 155c 153d 4fe6 87bc
000000e0: f474 af3c 33f7 9e3d e045 02be 9749 c93d
000000f0: e871 f63d 8a2c b23d d2cd 11bc 5568 0f3d
00000100: eb99 85bd 6540 8bbd 3913 a23d 1f75 bc3d
00000110: 8fb1 3f20 6264 06be 5228 f73d 99d0 a8bd
00000120: e9d6 ea3d 06a7 aa3d 453c b3bd 189e 5c3d
00000130: 3401 713d adbc b6bd a839 3dba 66e5 69bd
00000140: 8760 a3bd 39ea 983d a8c5 abbd dcfa e63c
00000150: 45bc aa3c ca53 bf3d 6dbd ca3b dbf3 47bc
00000160: b179 193e d562 2dbc e1b7 0b3e 7c90 373d
00000170: c87c a9bd 2361 8fbe fce6 143e d9b4 df3d
00000180: 5bfb 113e 22ce 30bd 8336 e7bd b4dd e9bd
00000190: 9acd b8bb 46d1 d63d 3b5a f4bd 034c 6e3d
000001a0: 5126 b1bd 1241 16be 0340 b6bd e25b 07be
000001b0: 974d 433d ad8a 433e adf0 e23b 35a8 01be
000001c0: 0f20 dabc a33e 363e 07b2 de3c 4f7c 11bc
000001d0: 52ab 85bd f8a0 c8bb f2e8 c4bd e8a2 033e
000001e0: 884f 0e3e 570d c53c a651 4bbe 474e 993d
000001f0: 48e8 95bd 5c80 513c e708 74bd 5e3e babd
00000200: 468e 813d 986c edbd 6318 cdbd c0bd 083e
00000210: 2d58 5a3e 1d01 34bc 9279 f73a d27d 073d
00000220: fc67 853d be5f 023e 8159 a93d c4e9 a33d
00000230: d34d 25bd 2967 52bb 5542 a1bc 6eee abbd
00000240: 489a f2bd d003 23bd 45df 17bc fb77 71bd
00000250: 95b9 5c3d 715a a1bc b368 063c 1ce8 003e
00000260: 2ee2 113d 1ec5 be3d 5750 793d 505c e23d
00000270: d0f2 b93c 58c3 d2bc 34ef 8d3d 422c 4e3d
00000280: 447e 5d3d c26e 293d 6c8b 1638 ee30 d2bc
00000290: 9307 983d 0e28 84bd a8b3 b9bd a3ea c13d
000002a0: c54a 07bc 9839 ec3d ad78 073e a8ee 2c3e
000002b0: a93d eebd 1dd6 4a3e 0170 eebd 072a 233e
000002c0: 60f8 92be 37bc ef3d fced 3f3d 2d41 c83c
000002d0: cf90 55bc af50 2c3e f0d1 803e 4737 103e
000002e0: a7bf 693d 7976 d93d 54ad 89bc 6c7c ba3d
000002f0: e5a0 803d d1f6 a33d b62f c5bd 904e dcbc
00000300: 7cd3 e13c fea9 f63c b613 1ebd 1002 1dbb
00000310: acb1 b3bd 1ca2 8d19 567b 7e3d b1b9 01bd
00000320: 0e4b b7bd f652 193d 2245 623d dd04 0e3e
00000330: 475d dd3d 9e2f 0fbe aba4 a73d 82f1 5b3d
00000340: 9d5d eabc 893d 81bd 7c0f 4fa1 527a 6dbd
00000350: 1d07 14bd dec1 3d3e fdc2 cebd 9978 af3d
00000360: 0394 31bd 69e6 e23c ca98 fd3d 2f18 b0bc
00000370: 420b c23d 3ee2 063d b498 fc3d ee1b 9ebd
00000380: 471e 88bc 160e d4bd f82f 773c 8852 24bd
00000390: 3868 553d 0ee1 a6ba 2b08 75bd 4155 153e
000003a0: 3c20 a2bd c168 bf3d f1ec a33e 6de8 b2bd
000003b0: ff25 ce3d b7d1 1a3c 738d 07be 0c31 98ba
000003c0: 7ae0 bdbd 9fbb 193a 3eeb 88bd 5495 ef3d
000003d0: 02ad c6bd 77a6 a0be bc4b 1b3e 6c8f 443d
000003e0: b36b 3c3d 3563 013e d9be 3f3d 48f1 93bd
000003f0: a26d c7bd 21c2 0f3e bf48 a6bc 318b 1a3d

energy_lin.3.bias f4 [150]
0.019263418 0.03363282 0.0033465764 0.0234781 0.0065602814 -0.03940967 0.058913693 0.03435976
0.06586792 -0.041554835 -4.917648e-39 -0.032567736 0.063479714 -0.013347416 -0.0014026964 0.040393837
0.008435798 -0.0065993387 -0.042436145 -0.03187964 -0.02392793 0.018455897 -0.037478816 -0.017563188
0.046027318 0.025276795 0.082934074 0.04115737 0.04529904 0.050041616 0.007143538 0.035307392
-0.01097609 -0.030957831 0.0026455852 -0.00060923985 -0.008136923 0.034559917 0.020577688 -0.050314493
-0.026990306 -0.023674961 0.0014984123 0.03543443 -0.04780473 -0.013792877 0.03855336 0.037490487
0.033443723 0.048563838 -0.026937917 -0.015958555 0.025380451 -0.015039518 -0.049886417 -0.025533738
-0.0027368115 -0.048326027 -0.025849856 0.051839218 0.03555067 0.06926106 -0.0020073964 0.0029888125
0.015494585 0.034371983 -0.042739872 -0.033924613 0.041014202 0.031378623 -0.0583318 0.040542156
3.4608202e-31 -0.016986176 0.031171013 -0.04237399 0.030722022 0.058630284 -0.023519129 0.0086259395
0.018153453 0.03946683 0.06875795 0.038484346 0.058900822 0.030178336 0.054084238 -0.014614919
0.047546018 -0.025102459 -0.0018915301 -0.006009112 0.01576756 -0.02465162 0.031171914 0.024370309
0.022318926 0.042803816 0.024723783 0.033428915 0.050844967 -0.009869697 0.037937924 0.00027905227
0.058691256 -0.014200742 0.03865998 0.02795919 0.003308721 0.015743341 -0.05271605 0.04710464
0.045906715 -0.054487057 0.03224045 -0.012188979 0.0037020629 -0.032586217 -0.010306898 0.030958703
0.007525226 -0.017552193 0.04945704 0.04397754 3.62844e-39 0.029657925 0.015219401 -0.030108824
0.07211705 -0.043853227 -0.0012105751 -0.0033938051 -0.022196187 -0.030985352 -0.034731578 -0.0083078295
0.016037004 0.046824485 -0.03912742 0.06569223 -0.031134767 0.011221556 0.0031807674 0.06823746
-0.011805527 0.037893284 -0.042790752 0.07481051 0.04646126 0.028472908
00000000: 51ce 9d3c 91c2 093d 3c52 5b3b 2555 c03c
00000010: a1f7 d63b 096c 21bd 7c4f 713d d2bc 0c3d
00000020: c3e5 863d 6735 2abd 678c 3580 bf65 05bd
00000030: a701 823d 1faf 5abc aeda b7ba 0274 253d
00000040: 4d36 0a3c 443f d8bb 86d1 2dbd 3a94 02bd
00000050: 8204 c4bc d230 973c 6383 19bd ade0 8fbc
00000060: 2487 3c3d 4811 cf3c 57d9 a93d a194 283d
00000070: 7c8b 393d 70f8 4c3d 5714 ea3b 7c9e 103d
00000080: 0fd5 33bc 479b fdbc 8e61 2d3b 65b5 1fba
00000090: bb50 05bc b38e 0d3d 8a92 a83c 9216 4ebd
000000a0: c61a ddbc fef1 c1bc 6066 c43a b123 113d
000000b0: e4ce 43bd 85fb 61bc 21ea 1d3d a08f 193d
000000c0: 49fc 083d e0ea 463d e8ac dcbc 84bb 82bc
000000d0: aaea cf3c 4f68 76bc b355 4cbd 212c d1bc
000000e0: 145c 33bb 83f1 45bd 14c3 d3bc 5c55 543d
000000f0: 949d 113d bed8 8d3d 868e 03bb f4df 433b
00000100: 00dd 7d3c a3c9 0c3d 0110 2fbd 89f4 0abd
00000110: 82fe 273d df86 003d 53ed 6ebd 880f 263d
00000120: bd9e e00c 9826 8bbc 5a5a ff3c 5990 2dbd
00000130: c0ac fb3c 4f26 703d 30ab c0bc d053 0d3c
00000140: 8db6 943c f9a7 213d f8d0 8c3d c3a1 1d3d
00000150: fd41 713d 8f38 f73c 6f87 5d3d 6a73 6fbc
00000160: 9dbf 423d aca3 cdbc 38ed f7ba 16e8 c4bb
00000170: f82a 813c 32f2 c9bc 3e5c ff3c 3ea4 c73c
00000180: 2ed6 b63c 0e53 2f3d 8889 ca3c c2ec 083d
00000190: d042 503d 82b4 21bc cc64 1b3d c34d 9239
000001a0: 3e66 703d 3baa 68bc ed59 1e3d ac0a e53c
000001b0: 20d7 583b 2ef8 803c c9ec 57bd ccf0 403d
000001c0: ae08 3c3d d22d 5fbd 900e 043d 49b4 47bc
000001d0: 4f9e 723b 2079 05bd 43de 28bc 1b9d fd3c
000001e0: 2c96 f63b 9ec9 8fbc 7793 4a3d cb21 343d
000001f0: 9d82 2700 2df5 f23c cb5a 793c c8a6 f6bc
00000200: 1bb2 933d 719f 33bd 29ac 9eba 9a6a 5ebb
00000210: c7d4 b5bc fed4 fdbc b342 0ebd 901d 08bc
00000220: 0960 833c 08cb 3f3d 1344 20bd a689 863d
00000230: 570e ffbc 9eda 373c 6c74 503b 15c0 8b3d
00000240: f86b 41bc fd35 1b3d 5b45 2fbd 4136 993d
00000250: 2a4e 3e3d 0440 e93c
