models/mpnn_A139_B23_E300_L2/19.pt (torch, 742651 bytes, 9 tensors)

atom_lin.weight f4 [300, 139]
0	0x3e6b62d8	0.22986925
1	0x3e27ce2d	0.16387244
2	0x2611a95b	5.05365e-16
3	0x28c1d9ad	2.1521706e-14
4	0x1edf3ae6	2.3635403e-20
5	0x26054f12	4.6250805e-16
6	0xbdee3fec	-0.11633286
7	0xbdfe412a	-0.12414773
8	0x3e49e4b2	0.19716147
9	0xbeec7f61	-0.46190932
10	0xa94e6513	-4.5828857e-14
11	0x919ba285	-2.4554848e-28
12	0x3e870b42	0.26375777
13	0x241dea7f	3.4242574e-17
14	0x2580e7b2	2.2361463e-16
15	0xbd833109	-0.06405837
16	0x3e3cf0d7	0.18451248
17	0x3e383173	0.17987613
18	0x869457aa	-5.5800223e-35
19	0xa86ec7cb	-1.3254977e-14
20	0x165640b8	1.7307204e-25
21	0x213cae78	6.3927785e-19
22	0x2009a650	1.165938e-19
23	0x28fe3c10	2.8225713e-14
24	0x18c145f7	4.9959977e-24
25	0x3d876e6c	0.06612858
26	0xbe6c4536	-0.23073277
27	0x3e4bec70	0.19914412
28	0x0023ca7c	3.28688e-39
29	0x2261b874	3.0590835e-18
30	0x26066f73	4.664163e-16
31	0x80356ea3	-4.90697e-39
32	0x128825a4	8.592086e-28
33	0xa834f0b3	-1.00442005e-14
34	0xa217f421	-2.0593557e-18
35	0xbd7025f9	-0.058629964
36	0x2437e554	3.9876048e-17
37	0x9f09c53d	-2.917403e-20
38	0x2846c290	1.1033397e-14
39	0x25020db2	1.1280343e-16
40	0xa814b1c5	-8.254198e-15
41	0x0425771d	1.9450351e-36
42	0x18742134	3.1553024e-24
43	0x052cd9a1	8.127373e-36
44	0x033ccd8b	5.5484186e-37
45	0x92ed9c39	-1.4995315e-27
46	0x9f360914	-3.8547508e-20
47	0x1543d9a1	3.9551615e-26
48	0x003588b2	4.916318e-39
49	0x00357cf3	4.912105e-39
50	0x81756510	-4.5071902e-38
51	0xa3619d14	-1.2230537e-17
52	0x9da42dd7	-4.3457836e-21
53	0xbe2ce8bd	-0.16885658
54	0x9c3dfa0b	-6.2858027e-22
55	0x9dad5fda	-4.5891827e-21
56	0x24570f3b	4.6633594e-17
57	0x9733b300	-5.806395e-25
58	0xa3eb5dd4	-2.5518489e-17
59	0x00356a44	4.905402e-39
60	0x9992ec5d	-1.5191513e-23
61	0x25aa8e31	2.9586652e-16
62	0x9d04c2d0	-1.757077e-21
63	0xa6e6b651	-1.6008873e-15
64	0x1822ad61	2.1025543e-24
65	0x04a3bfed	3.8497372e-36
66	0x0b18a00e	2.9394547e-32
67	0x9596dff2	-6.093784e-26
68	0x8d83bd5b	-8.119084e-31
69	0xa446833e	-4.3045572e-17
70	0x1b456115	1.6326827e-22
71	0x80358bf4	-4.917487e-39
72	0x0a9e3936	1.5236367e-32
73	0x98b04cfc	-4.557267e-24
74	0x2829c2bd	9.423612e-15
75	0xa895a7de	-1.6615124e-14
76	0x8c3c1b6b	-1.4491244e-31
77	0x161d96fb	1.273e-25
78	0x276370f6	3.1563815e-15
79	0x243de8bb	4.1179972e-17
80	0x9e692514	-1.2342585e-20
81	0x9c4825ad	-6.6223144e-22
82	0x06df4a0e	8.399209e-35
83	0xa5d91422	-3.7657142e-16
84	0xaa600681	-1.9897453e-13
85	0x80358248	-4.914017e-39
86	0xa94ad546	-4.5037995e-14
87	0x93c5cf7c	-4.9934387e-27
88	0x2241b223	2.6250682e-18
89	0xa80fbf0d	-7.979522e-15
90	0xa68fca92	-9.977525e-16
91	0x00356bfe	4.906022e-39
92	0x9a04a2dc	-2.7428517e-23
93	0x21d6cdc0	1.4555666e-18
94	0x180df200	1.8346002e-24
95	0xa7f284d9	-6.7312527e-15
96	0x151f9439	3.222672e-26
97	0x9d35c03a	-2.405453e-21
98	0x01c0658c	7.0675374e-38
99	0x292303f0	3.6196686e-14
100	0xa5b7079c	-3.1750596e-16
101	0x94d14960	-2.1132548e-26
102	0x88163d6d	-4.521119e-34
103	0x920d0e5f	-4.450947e-28
104	0x80356a99	-4.905521e-39
105	0x20cd5d77	3.47902e-19
106	0x14bc3ccd	1.900713e-26
107	0xa7b21e6b	-4.9437904e-15
108	0x9cfcd30c	-1.6730515e-21
109	0x1341f7f1	2.448227e-27
110	0x1c0cfe68	4.6650927e-22
111	0x2859f84b	1.209976e-14
112	0x29f3baad	1.0823751e-13
113	0x25b49806	3.1328038e-16
114	0x9814b340	-1.921905e-24
115	0x8a96f7d4	-1.4537697e-32
116	0x803574a0	-4.909118e-39
117	0x895c9de2	-2.6555773e-33
118	0xa5e17a80	-3.9114287e-16
119	0xbe44e671	-0.19228531
120	0x3de003a1	0.10938192
121	0xbdab7d18	-0.08373469
122	0x3da47f1c	0.08032057
123	0x3e1fb8b6	0.15597805
124	0x29cf6362	9.209887e-14
125	0x3dbff8e2	0.093736425
126	0x9bbcebb2	-3.1254306e-22
127	0x802eeb7a	-4.308906e-39
128	0x3ded549f	0.11588406
129	0x3da77f1c	0.08178541
130	0xbd11aebe	-0.035567038
131	0xbe546955	-0.20743306
132	0x3ec62208	0.3869784
133	0xbd0f5c81	-0.035000328
134	0x260c5853	4.869196e-16
135	0x150b3d07	2.811897e-26
136	0x00357918	4.910722e-39
137	0x844d578b	-2.4137832e-36
138	0x3dd8d816	0.1058809
139	0x3e17ce8a	0.14824882
140	0xbd9c345f	-0.076271765
141	0x04490bca	2.363285e-36
142	0x80357406	-4.908903e-39
143	0x01197f5a	2.8193032e-38
144	0x0683d9fc	4.959702e-35
145	0x3df7b202	0.12094499
146	0xbe28526f	-0.16437696
147	0x3b720c13	0.0036933466
148	0xbda510f8	-0.08059877
149	0x803569bc	-4.905212e-39
150	0x94365b0c	-9.206608e-27
151	0x003572ef	4.908512e-39
152	0x9f0cff1c	-2.9857175e-20
153	0x8c578dca	-1.6605666e-31
154	0x3e488aad	0.1958415
155	0xbdfdd8a6	-0.12394838
156	0xbdbd02ad	-0.09229026
157	0xa82e2a66	-9.668134e-15
158	0x113c6cfc	1.4864168e-28
159	0x07010b91	9.70828e-35
160	0x17ec1846	1.525727e-24
161	0x80357fe3	-4.913158e-39
162	0xa7732bb7	-3.3746722e-15
163	0x17c3010a	1.2601842e-24
164	0x0c6041d6	1.7276144e-31
165	0x3d8d691c	0.06904814
166	0x3e6a8cea	0.22905317
167	0x15d0471d	8.412273e-26
168	0x259202ea	2.5328937e-16
169	0x806761bc	-9.494117e-39
170	0x205821b7	1.8307067e-19
171	0x80358c26	-4.917557e-39
172	0xa283c693	-3.571787e-18
173	0x0035826c	4.914068e-39
174	0x3df4df45	0.11956648
175	0x8d3be217	-5.789597e-31
176	0x11c1579f	3.0504032e-28
177	0xaa0dd584	-1.2597394e-13
178	0x00356d4f	4.906494e-39
179	0x82eafdcf	-3.4528889e-37
180	0x1758a672	7.000345e-25
181	0xa1fe5047	-1.7232959e-18
182	0x9dd70b6b	-5.6921832e-21
183	0x1ec9ad9a	2.1353503e-20
184	0x8b842496	-5.08996e-32
185	0x17818a2d	8.37131e-25
186	0x86f1a1f8	-9.0892116e-35
187	0x2974797a	5.4284248e-14
188	0x24d4698f	9.211917e-17
189	0xa0a6ca22	-2.8255254e-19
190	0xa4720901	-5.2483012e-17
191	0x89b8fb0e	-4.453248e-33
192	0xbda1af38	-0.078947484
193	0x264d56b5	7.124117e-16
194	0x1ece3140	2.1831468e-20
195	0xa88b537e	-1.5468309e-14
196	0x00357f2b	4.9129e-39
197	0x116e1c76	1.878366e-28
198	0x29d60bc4	9.50555e-14
199	0xa01bf384	-1.3209583e-19
200	0x2962a049	5.0321106e-14
201	0x008107c3	1.1849563e-38
202	0x27b70b22	5.0804774e-15
203	0x97b42f7d	-1.1644215e-24
204	0x1bc45b2a	3.2484393e-22
205	0xa9481372	-4.4425787e-14
206	0x149ce2f7	1.5841496e-26
207	0xa11d89f7	-5.3376264e-19
208	0x80081edd	-7.45756e-40
209	0xa24e7c0e	-2.798388e-18
210	0x08e0a696	1.3520674e-33
211	0x1ba75de8	2.7688518e-22
212	0x1dd35210	5.5936086e-21
213	0x949b3bb3	-1.5674548e-26
214	0xa303976e	-7.133591e-18
215	0x93254daa	-2.086422e-27
216	0x1a88be46	5.6555685e-23
217	0x2201f7a4	1.761386e-18
218	0xa957b6f9	-4.7898294e-14
219	0x803575c2	-4.909525e-39
220	0x00358d0c	4.91788e-39
221	0xa515d438	-1.2995592e-16
222	0x00357a44	4.911142e-39
223	0x1b6af190	1.943408e-22
224	0x096e7871	2.870484e-33
225	0x12cfe452	1.3119822e-27
226	0x91730673	-1.9171307e-28
227	0x1f7caaee	5.3504465e-20
228	0x1c4136d8	6.3929227e-22
229	0xa497b459	-6.579133e-17
230	0x95527416	-4.2500738e-26
231	0x003582eb	4.914246e-39
232	0x825b9350	-1.6131856e-37
233	0xa38de74f	-1.5385214e-17
234	0xa67fc063	-8.873163e-16
235	0x9b171956	-1.2498614e-22
236	0x95be3b7e	-7.683425e-26
237	0xa2d94947	-5.8895553e-18
238	0xa7b97a95	-5.148072e-15
239	0x80358186	-4.913746e-39
240	0xa9269a83	-3.6993422e-14
241	0x1d2c3fa3	2.279691e-21
242	0x00357dfb	4.912475e-39
243	0x996e2299	-1.23112986e-23
244	0x176fd56f	7.7494456e-25
245	0x149f1227	1.6062057e-26
246	0x08a4db9f	9.922024e-34
247	0xa7b74e57	-5.087764e-15
248	0x95bd0eb9	-7.635972e-26
249	0x9c50ac86	-6.904441e-22
250	0x93e3fe47	-5.7553593e-27
251	0x00358867	4.916213e-39
252	0x1abd0227	7.8172045e-23
253	0x1777c8f4	8.0063643e-25
254	0xa89ecabb	-1.7629444e-14
255	0x8f37776c	-9.0455964e-30

atom_lin.bias f4 [300]
0	0xbd3e28e4	-0.046425715
1	0x3d206b75	0.03916498
2	0x3dedcb7b	0.116110764
3	0xbd3ad947	-0.045617368
4	0xbb3c187c	-0.0028701117
5	0x3d71740d	0.058948565
6	0x3cc164a1	0.023607554
7	0x3d18349a	0.03715954
8	0x3cb7224c	0.022355221
9	0x3db8ef9d	0.090300776
10	0x3dc4ba2d	0.09605823
11	0xbd900ba4	-0.0703347
12	0x3da86747	0.082228236
13	0xbd02c6ab	-0.031927746
14	0x3c938b40	0.018010736
15	0xbd6703af	-0.056399997
16	0x3d8d8802	0.06910707
17	0xbd167482	-0.036732204
18	0x3d5616c4	0.052267805
19	0x3d04ce51	0.03242332
20	0x3ba6de44	0.005092414
21	0x3d1f17c1	0.038841013
22	0x3e165d40	0.1468401
23	0xbd61702a	-0.05503861
24	0x3cdd4985	0.027012596
25	0x3da02346	0.07819228
26	0x3d0ee278	0.034883946
27	0x3d968061	0.07348705
28	0xbc729541	-0.014806093
29	0x3cb3fe74	0.021971919
30	0x3c8630b9	0.016380655
31	0x3d552d3d	0.052045096
32	0x3d24d3bb	0.040240984
33	0x3dbee007	0.093200736
34	0xbdc2117e	-0.094759926
35	0xbd46b3fb	-0.048511487
36	0x3d12ca73	0.035837602
37	0x3dc49253	0.09598222
38	0xb7bf3cec	-2.2797343e-05
39	0xbd078602	-0.033086784
40	0x3df3274a	0.11872728
41	0x3bcd6aa5	0.0062688165
42	0xbad59156	-0.0016293924
43	0xbbd59030	-0.0065174326
44	0x3d87602c	0.0661014
45	0x3bd89230	0.006609224
46	0xbdc2877e	-0.09498499
47	0x3d984926	0.07435827
48	0x3c52bf66	0.012863016
49	0x3d0920b9	0.033478472
50	0xbcc67394	-0.024225034
51	0xbd3e2622	-0.046423085
52	0xbd8fe41e	-0.07025932
53	0x3df8ce90	0.12148774
54	0x3de33bf3	0.11095419
55	0xbd621d0c	-0.055203483
56	0xbd8959b3	-0.06706562
57	0xbd4e4c9d	-0.050366033
58	0xbcd8698f	-0.026417522
59	0x3d9d47a2	0.076796785
60	0xbcd6a4ae	-0.026201572
61	0x3cce8da1	0.025214018
62	0x3ca7bf65	0.020477006
63	0x3dfc39d5	0.12315718
64	0x3da94b36	0.082662985
65	0x3c075bc1	0.008261622
66	0x3dcbcdf4	0.09951392
67	0x3ded9488	0.11600596
68	0x3d93cade	0.07216428
69	0xbd8af886	-0.06785683
70	0x3c3f339b	0.011670019
71	0xbcb52455	-0.022112051
72	0xbb76ebf9	-0.0037677272
73	0x3d4f6d5c	0.050641403
74	0x3cc4b4bc	0.024011962
75	0x3cc2cce3	0.023779338
76	0xbd783761	-0.06059969
77	0x3dbcccd0	0.092187524
78	0xbd8c4294	-0.06848636
79	0x3d988910	0.074480176
80	0x3c8c9abe	0.01716363
81	0x3e2511e5	0.16120107
82	0x3d9d44eb	0.07679161
83	0xbd96a85e	-0.07356332
84	0x3d905acc	0.07048568
85	0x3db4a2ee	0.08820139
86	0x3c8aaa0f	0.016926793
87	0x3d8a72dc	0.06760189
88	0x3d48e41d	0.04904567
89	0x3cd7a5d6	0.026324194
90	0x3b770c53	0.0037696555
91	0x3d4b2e02	0.049604423
92	0xbc49ac67	-0.01230917
93	0xbce3b350	-0.027795464
94	0xbd2c15d5	-0.04201301
95	0x3d0db559	0.034596775
96	0x3c82c810	0.015964538
97	0x3db39005	0.08767704
98	0x3cc53651	0.024073752
99	0x3cd56058	0.026046917
100	0xba2caa17	-0.00065866247
101	0x3da01e33	0.0781826
102	0x3dd71387	0.105017714
103	0xbc3697d5	-0.011144598
104	0x3d89d103	0.06729319
105	0xbd85ed42	-0.06539394
106	0xbd35196c	-0.044213697
107	0x3d0aedf9	0.033918355
108	0xbcde36e6	-0.027125787
109	0x3db74845	0.08949331
110	0x3d1a79d7	0.03771385
111	0x3dfc1866	0.12309341
112	0xbce572f0	-0.028008908
113	0x3db17b8c	0.08666143
114	0x3c78a09c	0.015175011
115	0x3dda847d	0.106698014
116	0x3d70dc25	0.058803696
117	0x3d265ee7	0.04061785
118	0x3d4c5859	0.049888942
119	0x3dc28f9d	0.09500048
120	0xbb7b09aa	-0.003830532
121	0xbcf95276	-0.030434828
122	0x3ba53461	0.0050416444
123	0x3cd96209	0.026536005
124	0xbd36bcdb	-0.0446137
125	0xbd6daa81	-0.058023933
126	0x3d07eb02	0.033183105
127	0x3de2dcdc	0.11077282
128	0x3e04cb34	0.12968141
129	0x3d0acfcb	0.033889573
130	0xbd3e9e7d	-0.046537865
131	0xbb0b60a9	-0.002126733
132	0x3be2cfd0	0.006921746
133	0xbc7225c4	-0.014779512
134	0x3d87c47d	0.06629274
135	0x3ced9f8e	0.029006746
136	0x3db9f3bb	0.09079691
137	0x3d7a4aad	0.061106373
138	0x3c77fb79	0.015135639
139	0x3d822607	0.063549094
140	0x3d83893c	0.0642266
141	0x3c144e92	0.009051936
142	0xbc6b41d9	-0.014358961
143	0x3c9e2274	0.019303538
144	0x3b8decaa	0.004331191
145	0x3dadc283	0.08484366
146	0x3c16d790	0.009206668
147	0x3b9a39bd	0.00470659
148	0xbd06e29d	-0.03293096
149	0x3d58734b	0.052844327
150	0x3c62fe12	0.01385452
151	0xbba9f21c	-0.0051863324
152	0x3cc857b9	0.024455892
153	0xbe25d2c1	-0.16193677
154	0x3d602d5b	0.054730754
155	0x3dc4e3b0	0.096137404
156	0x3d4636da	0.048392154
157	0x3e138571	0.14406373
158	0x3d9a775f	0.075422995
159	0x3c7481f1	0.014923559
160	0xbb89bc5c	-0.0042033624
161	0x3da3ae7d	0.079922654
162	0x3e022e45	0.12712963
163	0xbb037bbc	-0.0020062765
164	0x3d49facc	0.049311444
165	0xbd2116a2	-0.039328225
166	0x3ceac8a4	0.028660126
167	0x3addddf9	0.0016927115
168	0x3bb5351e	0.0055300137
169	0x3cc27a1c	0.023739867
170	0xb9754a24	-0.0002339264
171	0x3dbb5010	0.0914613
172	0x3d85dd44	0.06536344
173	0x3af0cea8	0.0018372135
174	0xbd13fca5	-0.036129612
175	0xbc8c410d	-0.017120862
176	0xbc81e0e4	-0.015854307
177	0x3db256ad	0.08707938
178	0x3d846240	0.06464052
179	0xbc02d716	-0.007985851
180	0x3cbdd93a	0.02317487
181	0x3da01bb0	0.07817781
182	0xbde2d671	-0.11076058
183	0xbba4dd5b	-0.0050312704
184	0x3d18a211	0.037263934
185	0x3d45929f	0.048235532
186	0x3d994c6f	0.07485282
187	0xbca102a0	-0.019654572
188	0x3d48967d	0.04897164
189	0xbd06d13a	-0.032914378
190	0x3cf4fcc3	0.029905682
191	0x3c7c7d06	0.015410667
192	0x3d03c439	0.032169554
193	0xbb9188f3	-0.0044413744
194	0x3d435ca6	0.04769578
195	0x3e0c2669	0.13686527
196	0xbc9255ef	-0.017863242
197	0x3db01f05	0.085996665
198	0xbd74f10b	-0.05980019
199	0x3c9e44aa	0.019319851
200	0x3d8acd4d	0.06777439
201	0x3d88a6eb	0.06672462
202	0xbc375d1b	-0.011191632
203	0x3b9d64a3	0.0048032566
204	0xbb872fe2	-0.004125581
205	0xbcb84226	-0.02249248
206	0x3d849ee9	0.06475622
207	0x3d63608b	0.055511992
208	0xbc323b76	-0.010878434
209	0xbd361e21	-0.044462327
210	0xbd321deb	-0.043485563
211	0xbc9b842e	-0.018983927
212	0xbc03159a	-0.008000756
213	0x3c56c338	0.013108067
214	0x3de6e4f3	0.11274137
215	0x3dc4a0a4	0.09600952
216	0x3bd2f966	0.006438422
217	0x3db8d0e7	0.0902422
218	0xbddd7f43	-0.10815289
219	0xbd47c4c8	-0.04877165
220	0xbe0b3e18	-0.13597906
221	0xbc8ff601	-0.017573358
222	0x3d162eb0	0.03666562
223	0x3db5a998	0.08870238
224	0x3d78cc84	0.060741916
225	0x3d0e1b77	0.03469416
226	0x3d5a4a14	0.053293303
227	0x3d9ed286	0.07754998
228	0x3da0a09f	0.07843136
229	0x3dab9e91	0.083798535
230	0x3d0d8d09	0.03455833
231	0x3d190d34	0.037366107
232	0x3d46cc63	0.048534762
233	0x3d3b30a0	0.04570067
234	0x3e06220c	0.13098925
235	0x3d529fef	0.051422056
236	0xbd1a817c	-0.037721142
237	0x3d17ef57	0.037093487
238	0x3d43972a	0.047751583
239	0xbd9ba38d	-0.07599554
240	0x3d5ef19c	0.054429635
241	0x3d40d885	0.04708149
242	0xbca79c98	-0.020460412
243	0x3d9f8a04	0.07789996
244	0xbda665b6	-0.081248686
245	0x3d911d35	0.07085649
246	0xbcdaabb7	-0.026693208
247	0x3c7996d6	0.015233716
248	0xbd77ab76	-0.060466252
249	0x3d3a7cd0	0.045529187
250	0x3d84f34e	0.06491719
251	0x3d928714	0.0715467
252	0xbdbba52d	-0.09162364
253	0xbdc44483	-0.0958338
254	0xbcc8ae85	-0.02449728
255	0x3ca4a103	0.020096308

bond_lin.weight f4 [300, 23]
0	0x012ddccf	3.1933504e-38
1	0x3ea87604	0.3290254
2	0x3efa4d73	0.48887214
3	0x3e54605c	0.20739883
4	0x310df124	2.0655273e-09
5	0xba284d63	-0.0006420223
6	0x93c444d9	-4.9545245e-27
7	0x20604f97	1.8999872e-19
8	0x8035863c	-4.915436e-39
9	0x109d8531	6.2130795e-29
10	0x388a0656	6.581533e-05
11	0xa471286d	-5.2292787e-17
12	0xbe8fbcf6	-0.28073853
13	0xa78580fb	-3.7054756e-15
14	0xa438019b	-3.99e-17
15	0xac0c59cd	-1.9945046e-12
16	0x13a6d659	4.2115654e-27
17	0x1ff0461e	1.0175995e-19
18	0xa6918afa	-1.0099066e-15
19	0xad8d146a	-1.603891e-11
20	0x80357d4a	-4.912227e-39
21	0x39e3748c	0.00043383648
22	0x3808bfa8	3.260342e-05
23	0x37b35f3c	2.138281e-05
24	0x3f1b8f49	0.6076551
25	0x3d5559ee	0.052087717
26	0xbf31ceb3	-0.6945602
27	0x1d08c279	1.809999e-21
28	0xadc894f8	-2.2803523e-11
29	0x320f9151	8.356737e-09
30	0x178a1e77	8.925731e-25
31	0x17388fb6	5.9634995e-25
32	0x1069b6cc	4.609197e-29
33	0x36861224	3.995623e-06
34	0x29a9754c	7.5254554e-14
35	0xbee29d6b	-0.44260725
36	0x114176aa	1.5261582e-28
37	0x05011027	6.0685176e-36
38	0x25afcd3b	3.049673e-16
39	0x000bd154	1.085283e-39
40	0x0690c3eb	5.4454655e-35
41	0x85283285	-7.908601e-36
42	0xb16203ab	-3.2889413e-09
43	0x80279d4a	-3.638009e-39
44	0x2d2af33b	9.717389e-12
45	0x3577c5e6	9.230265e-07
46	0x914343de	-1.5403701e-28
47	0x3e485281	0.19562723
48	0x3dcf7a38	0.10130733
49	0xbe461b53	-0.19346361
50	0x350d42f3	5.2624017e-07
51	0xb4a7a9d0	-3.122973e-07
52	0x2d77ee9c	1.4093306e-11
53	0xb46b00c5	-2.188636e-07
54	0x14ba685e	1.8822366e-26
55	0x80358d8f	-4.918063e-39
56	0x00356e28	4.906798e-39
57	0xb90e4dd4	-0.00013571169
58	0xb8ca3268	-9.6414995e-05
59	0x184847c0	2.5885619e-24
60	0x3697b3f2	4.521099e-06
61	0x37a9bace	2.0233358e-05
62	0x0995c027	3.6051144e-33
63	0xb3e8e58b	-1.08450955e-07
64	0xb1265e0d	-2.420964e-09
65	0x352a2c6c	6.339458e-07
66	0x35f703f0	1.840408e-06
67	0x39c411d1	0.00037397307
68	0xba490cb3	-0.0007669434
69	0xb690f3d6	-4.3199207e-06
70	0xbe1cec4d	-0.15324517
71	0xbda975e0	-0.08274436
72	0xbef7f8db	-0.4843205
73	0xb9f3eb63	-0.0004652395
74	0x2c0bff72	1.9894889e-12
75	0x290f543e	3.1825447e-14
76	0xb8e66d0a	-0.00010987565
77	0x3a9e6d3d	0.0012086999
78	0x211bc59a	5.2777566e-19
79	0x90806bb4	-5.065304e-29
80	0xb809ca56	-3.2851785e-05
81	0xbe7f93c5	-0.24958713
82	0xa795341f	-4.1412317e-15
83	0xa1cae72d	-1.3749244e-18
84	0x305ee085	8.108219e-10
85	0xaf959fe2	-2.7216546e-10
86	0x2fc6a052	3.6129905e-10
87	0x2b45fe91	7.034174e-13
88	0x2e2da024	3.947788e-11
89	0x9db2fddb	-4.737869e-21
90	0xb9bb854c	-0.00035766733
91	0xb33ec575	-4.441741e-08
92	0x21757dfc	8.317597e-19
93	0xbe27ac75	-0.16374381
94	0x3eafa92a	0.3430875
95	0xbe0af534	-0.135701
96	0x36cf191f	6.172005e-06
97	0x28337744	9.962358e-15
98	0x29e23b8c	1.0046746e-13
99	0x2f5c03f9	2.0010295e-10
100	0x98dcb29c	-5.7049016e-24
101	0xb1fc314b	-7.3397692e-09
102	0x1f00ea18	2.7298692e-20
103	0x83bb6dbe	-1.1016068e-36
104	0xbe327af4	-0.17429715
105	0xba7e1d36	-0.0009693684
106	0x9e96d592	-1.5970198e-20
107	0x9583535a	-5.3041984e-26
108	0x3175c328	3.5763126e-09
109	0xab25d4f8	-5.891533e-13
110	0x32c445a1	2.2849067e-08
111	0x33d62cab	9.9732766e-08
112	0xb105f4d0	-1.9493207e-09
113	0xb5a0bfae	-1.1976715e-06
114	0x3a678ad9	0.00088326406
115	0x2750dba3	2.8984864e-15
116	0xbe1264b2	-0.14296225
117	0x3efee989	0.49787548
118	0x3d94b891	0.07261766
119	0x0035851f	4.915036e-39
120	0xb51b3366	-5.7816794e-07
121	0x1a8235df	5.3853773e-23
122	0x2499493b	6.647723e-17
123	0xa0892253	-2.3231417e-19
124	0x96112dee	-1.17275e-25
125	0xb6a587a3	-4.9331734e-06
126	0x19b8dad0	1.9113532e-23
127	0xbec3f524	-0.38272965
128	0x9135e179	-1.4347862e-28
129	0x9ba88bd2	-2.7883625e-22
130	0xb643e015	-2.9187697e-06
131	0x3708531c	8.125582e-06
132	0x8f299877	-8.361707e-30
133	0xb7ca5dc6	-2.4123943e-05
134	0x3940d914	0.00018391415
135	0x2bcabb2d	1.4404915e-12
136	0x323de449	1.1053154e-08
137	0x25765c20	2.1368312e-16
138	0xa2624d3a	-3.0669595e-18
139	0x3f01375c	0.50475097
140	0x3e657bab	0.22410457
141	0x3e89cbfb	0.26913437
142	0x00356ba0	4.90589e-39
143	0x8fc16768	-1.90711e-29
144	0xb38b869a	-6.497176e-08
145	0x37880b55	1.621774e-05
146	0x919bf6fd	-2.4606906e-28
147	0x15369d1b	3.6878542e-26
148	0xb298ecc7	-1.7802803e-08
149	0xa88cbb07	-1.5624233e-14
150	0xbe0541a8	-0.13013327
151	0x22a64091	4.5062752e-18
152	0xb5d82e5c	-1.6106746e-06
153	0xb9f7ab4c	-0.00047239137
154	0x8035806e	-4.913353e-39
155	0xb47c700c	-2.3510091e-07
156	0xabfecf74	-1.8105365e-12
157	0x8875f86a	-7.4019015e-34
158	0x06fbd68e	9.4730966e-35
159	0x0f0cd421	6.9433875e-30
160	0x39bfb157	0.00036562487
161	0x18520df2	2.7148904e-24
162	0xbede5507	-0.43424246
163	0x3e94f251	0.29091123
164	0xbe734a1a	-0.23758736
165	0x3802bc52	3.1169802e-05
166	0xad9298df	-1.6666167e-11
167	0xb6039c8b	-1.9611641e-06
168	0x2222e002	2.2073683e-18
169	0x0f604bd1	1.10586544e-29
170	0x2e415484	4.3958184e-11
171	0xaef79f9a	-1.12606105e-10
172	0xadc40749	-2.2285855e-11
173	0x3eb14700	0.3462448
174	0x089c7cbb	9.4182325e-34
175	0x9117b63c	-1.1967955e-28
176	0x9b3ab4fe	-1.5444041e-22
177	0xb7a5dcf5	-1.9772424e-05
178	0x003507bc	4.870056e-39
179	0x954a0931	-4.0800826e-26
180	0x80358406	-4.914642e-39
181	0x221c797a	2.1206252e-18
182	0xb2410569	-1.1235309e-08
183	0xb37996b6	-5.81119e-08
184	0x369788eb	4.51609e-06
185	0xbd9c283d	-0.07624862
186	0x3dc0c1b6	0.094119474
187	0x3e6a1b9c	0.22862095
188	0x07caaf6b	3.0496683e-34
189	0xb8f0f9a6	-0.000114905924
190	0xba2fd038	-0.0006706747
191	0x0c916990	2.240432e-31
192	0x0c74b1ac	1.8850542e-31
193	0xad583bb1	-1.2291433e-11
194	0x31c162a4	5.6282534e-09
195	0x28a55b43	1.8358258e-14
196	0xbd445561	-0.047932986
197	0x36875a4c	4.0338255e-06
198	0x9b059168	-1.1048485e-22
199	0xb01ad2b9	-5.632433e-10
200	0xb1198c2f	-2.2344115e-09
201	0x21436609	6.620361e-19
202	0x34c76a40	3.7143946e-07
203	0x85793c21	-1.1718968e-35
204	0xb50e5f16	-5.303749e-07
205	0x3a1c35ed	0.00059589633
206	0x2fd7c2fe	3.9246822e-10
207	0xa6a7be90	-1.1639605e-15
208	0x3e97123c	0.295061
209	0x3e4a675b	0.1976599
210	0xbf136139	-0.57570225
211	0xac0cd636	-2.0014108e-12
212	0x374c072d	1.2161018e-05
213	0xacbaae75	-5.3058066e-12
214	0x9acf9a06	-8.586203e-23
215	0xb6858b72	-3.9799424e-06
216	0xab1a64db	-5.4851756e-13
217	0x34ac7e3f	3.2129353e-07
218	0x8f553321	-1.0511558e-29
219	0x3d322fb2	0.043502517
220	0x39c08170	0.00036717532
221	0x3949353f	0.0001918869
222	0xaaa0b317	-2.8545978e-13
223	0x0d051a45	4.101541e-31
224	0x36a71030	4.9788723e-06
225	0xb018aa16	-5.5538985e-10
226	0xa42cdd29	-3.7483885e-17
227	0xb70869aa	-8.1308335e-06
228	0x866f3024	-4.4986272e-35
229	0xb987b953	-0.00025887284
230	0x1ca1b022	1.0699616e-21
231	0x3d99612b	0.074892364
232	0xbf04238e	-0.5161675
233	0x3b1e4517	0.0024150067
234	0x27b1d799	4.936112e-15
235	0x23237de6	8.862908e-18
236	0x931fae92	-2.0154691e-27
237	0x000cbd5a	1.169952e-39
238	0xb87cf1e5	-6.0306764e-05
239	0xb18d3f12	-4.1108104e-09
240	0x873e98f3	-1.4338959e-34
241	0xba284dd0	-0.00064202864
242	0xbcdaa6f1	-0.026690932
243	0x1ec5062e	2.0860742e-20
244	0x399feec2	0.00030504732
245	0x16fc81cc	4.079471e-25
246	0xb33f533c	-4.4546354e-08
247	0x25a15976	2.798967e-16
248	0x301158c8	5.287686e-10
249	0x97706fbf	-7.7689226e-25
250	0x3606b557	2.007311e-06
251	0x1abed1c5	7.892106e-23
252	0xa1438179	-6.6239926e-19
253	0xaf03d5a8	-1.1990287e-10
254	0xbdcd9f30	-0.10040128
255	0xbe08bfd4	-0.13354427

bond_lin.bias f4 [300]
0	0xbd4267df	-0.04746234
1	0x3e9bc94d	0.30427018
2	0xbc12533b	-0.0089309765
3	0x3e5da509	0.21644987
4	0xbdcdcefc	-0.10049245
5	0xbe412a65	-0.18863828
6	0xbd1777e6	-0.03697958
7	0x3c7edf42	0.0155561585
8	0xbe6df7a6	-0.23239002
9	0x3e13ee18	0.14446294
10	0x3cf7484f	0.030185847
11	0x3bc6cb10	0.0060666874
12	0x3e82851a	0.25492173
13	0x3dac9892	0.08427538
14	0xbe494472	-0.19655016
15	0xbd7e9f66	-0.062163733
16	0x3cf3f988	0.029782072
17	0x3d0aff30	0.033934772
18	0x3dfe529e	0.12418102
19	0xbd82f7be	-0.06394909
20	0x3e131e1c	0.14366955
21	0x3d4cfebd	0.050047625
22	0x3e0a495d	0.13504548
23	0x3e179651	0.14803435
24	0x3e309381	0.17243768
25	0x3e3ef8b9	0.18649568
26	0xbd9a635e	-0.07538484
27	0xbde4a148	-0.111635745
28	0x3e016482	0.12635997
29	0x3e66827b	0.22510712
30	0xbe67bb59	-0.22630061
31	0xbe76c6e2	-0.24099305
32	0xbc9857dd	-0.018596584
33	0x3c395a11	0.011312977
34	0xbb90d063	-0.004419373
35	0xbe607b08	-0.21921933
36	0xbdb86dae	-0.09005295
37	0xbe2cd2f8	-0.16877353
38	0xbdf70085	-0.12060646
39	0xbc96915f	-0.018379865
40	0xbe28af52	-0.1647313
41	0x3d115940	0.035485506
42	0x3de32c54	0.11092439
43	0x3c39395b	0.0113051785
44	0x3c11dd04	0.008902792
45	0x3de4817e	0.11157511
46	0xbda75059	-0.08169622
47	0x3d855d7a	0.0651197
48	0x3e098060	0.13427877
49	0x3d99e2aa	0.07513936
50	0x3e543e7f	0.20726965
51	0xbd9c86a0	-0.07642865
52	0x3e186ad6	0.14884505
53	0xbe8253d2	-0.25454575
54	0x3d7478a5	0.059685368
55	0x3e43943a	0.19099513
56	0xbdf0cce9	-0.117578335
57	0x3e5689d8	0.2095102
58	0x3d9c9af7	0.07646745
59	0x3d23a4ac	0.039951965
60	0xbdfe485c	-0.12416145
61	0xbd3c23e3	-0.04593266
62	0xbd813e25	-0.06310681
63	0x3db98bf3	0.09059896
64	0xbe5c1552	-0.21492508
65	0xbc82bcec	-0.015959226
66	0xbda06898	-0.0783245
67	0x3bd409df	0.0064709033
68	0x3d751a4d	0.059839536
69	0xbdde873c	-0.10865638
70	0xbe34be31	-0.17650677
71	0x3e0f5868	0.13998568
72	0xbe1e7ee7	-0.15478097
73	0xbdc73014	-0.09725967
74	0xbe816b35	-0.25277105
75	0xbdc1fbbd	-0.094718434
76	0x3dae84fd	0.08521459
77	0x3e618ad9	0.22025622
78	0xbe05324a	-0.13007465
79	0xbbfffd21	-0.0078121577
80	0xbdcd366a	-0.10020144
81	0xbd83750f	-0.064188115
82	0x3e105a02	0.14096835
83	0xbe57aeb0	-0.21062732
84	0xbd4fc7d3	-0.050727677
85	0x3e085005	0.13311775
86	0x3e18f3b6	0.14936718
87	0x3e8e023c	0.2773608
88	0x3d9497db	0.07255527
89	0x3aef1636	0.0018240872
90	0x3e1d024c	0.15332907
91	0xbe23041b	-0.15919535
92	0x3e6e323c	0.2326135
93	0x3e6a13b2	0.22859076
94	0xbdcf6871	-0.101273425
95	0xbe1e142c	-0.15437382
96	0x3d81b764	0.06333807
97	0xbdece8a9	-0.11567814
98	0xbb6be624	-0.0035995329
99	0xbdc606d9	-0.09669275
100	0x3e16579d	0.1468186
101	0xbe38b181	-0.18036462
102	0x3d32040f	0.0434609
103	0x3ddbb743	0.10728314
104	0xbe02a4fb	-0.12758248
105	0x3dd6f4ec	0.10495934
106	0x3e61363d	0.21993347
107	0x3da8542a	0.08219178
108	0xbd98bff0	-0.07458484
109	0xbe2b6e49	-0.16741289
110	0xbdf01fe5	-0.117248334
111	0xbdc32a98	-0.095296085
112	0x3e82e20d	0.25563088
113	0x3d4fcfd9	0.05073533
114	0xbe77c6f7	-0.24196993
115	0x3e7a0a2f	0.24417947
116	0xbe18000b	-0.14843766
117	0x3e138b09	0.14408506
118	0x3e429111	0.19000651
119	0x3d9193b8	0.07108253
120	0xbcf5e991	-0.0300186
121	0xbcf2dee9	-0.029647307
122	0x3d8f9cdb	0.0701234
123	0xbd6b315d	-0.057420123
124	0x3d89cc38	0.06728405
125	0xbe04012b	-0.1289107
126	0xbc9a235c	-0.018815689
127	0xbdd6fe03	-0.10497668
128	0x3d9a09a3	0.07521369
129	0xbc5492e5	-0.0129744755
130	0x3a146c19	0.000566186
131	0xbe9b5b71	-0.30343202
132	0xbe2719d1	-0.16318442
133	0x3e1c0f97	0.15240322
134	0xbe2b8e71	-0.16753556
135	0xbb4e5af5	-0.003148732
136	0xbae7e732	-0.0017692803
137	0x3e651647	0.2237178
138	0xbe199809	-0.14999403
139	0xbe004268	-0.12525332
140	0xbda2ce1f	-0.07949471
141	0xbe8548b0	-0.2603202
142	0xbe67db99	-0.22642364
143	0xbe366b69	-0.17814411
144	0x3d897606	0.06711964
145	0xbe249689	-0.1607305
146	0x3d496050	0.049164116
147	0x3e27432d	0.1633422
148	0x3e5b74b9	0.21431245
149	0xbde5964c	-0.112103075
150	0x3e55081e	0.20803878
151	0x3e230b18	0.159222
152	0x3e5b37d9	0.21408023
153	0x3d76b435	0.060230453
154	0x3c6e971f	0.014562397
155	0xbdb8c032	-0.09021033
156	0x3e064709	0.13113035
157	0xbb861a83	-0.004092516
158	0xbda1035b	-0.07861968
159	0x3d8adddc	0.067805976
160	0xbe392677	-0.1808108
161	0xbc571c35	-0.013129284
162	0x3d24f13e	0.04026913
163	0xbe8cd455	-0.27505746
164	0x3e386f2f	0.18011163
165	0x3e47f51e	0.19527099
166	0xbc25d26a	-0.010120967
167	0xbd4886a1	-0.048956517
168	0xbc9473c7	-0.018121613
169	0xbe82b79f	-0.25530717
170	0x3e529f4c	0.2056858
171	0x3dc3c85d	0.09559701
172	0x3e08337a	0.13300887
173	0x3e5bfb29	0.21482529
174	0xbe664554	-0.22487384
175	0xbc1580e8	-0.009124972
176	0xbd7b5b7a	-0.061366536
177	0xbc9d9187	-0.019234432
178	0xbb5bcdf9	-0.0033539517
179	0x3e562132	0.209111
180	0x3dc295e6	0.09501247
181	0xbde68e13	-0.11257567
182	0x3c352218	0.011055492
183	0x3d0576c6	0.032583974
184	0xbb810b00	-0.003938079
185	0x3e65bbf7	0.22434984
186	0xbd2830bd	-0.041062105
187	0x3df301bf	0.118655674
188	0x3c74ece6	0.014949059
189	0xbd8895d0	-0.066691995
190	0xbd807e7e	-0.062741265
191	0xbd9ea89c	-0.077470034
192	0xbda507ea	-0.0805815
193	0xbe47d47b	-0.19514649
194	0xbe84fe7d	-0.2597541
195	0xbe15f831	-0.14645459
196	0xbb266d94	-0.0025394903
197	0x3e89281a	0.26788408
198	0x3e1375b7	0.14400373
199	0xbe896261	-0.2683287
200	0x3d837512	0.06418814
201	0xbca7e48d	-0.020494724
202	0xbe294419	-0.16529883
203	0x3e5490e3	0.20758395
204	0xbd6c8d54	-0.05775197
205	0x3d0162ac	0.03158824
206	0xbe463258	-0.19355142
207	0xbd8acf94	-0.06777874
208	0xbd9c9d7e	-0.07647227
209	0x3e8a5416	0.27017277
210	0x3e71bd92	0.23607472
211	0xbdb3c0a9	-0.087769814
212	0x3da70a94	0.081563145
213	0x3d914a5c	0.07094261
214	0x3cad8fcc	0.021186732
215	0x3e23bbb6	0.15989575
216	0xbdb62de7	-0.08895474
217	0xbe3b50cd	-0.18292542
218	0xbe72e4f9	-0.23720159
219	0x3e0d559b	0.13802187
220	0xbda00d61	-0.07815052
221	0xbdc0004b	-0.09375056
222	0xbe64ee41	-0.22356512
223	0x3e8b22d9	0.27175024
224	0xbe15fba3	-0.14646773
225	0xbe6aa099	-0.22912826
226	0x3e0d7583	0.13814358
227	0xbc6f57fb	-0.0146083785
228	0x3ca21ad1	0.019788178
229	0xbde86c5a	-0.113487914
230	0xbe218749	-0.15774263
231	0x3e24b827	0.16085874
232	0x3e7c2fa0	0.24627542
233	0x3d518771	0.051154558
234	0x3f171dff	0.59030145
235	0x3e492428	0.19642699
236	0x3e446c04	0.1918183
237	0x3e60c6b6	0.21950802
238	0x3e4a04da	0.19728413
239	0x3d9cd795	0.076583065
240	0x3e09791a	0.13425103
241	0x3e4a39bb	0.19748585
242	0xbe037d79	-0.12840833
243	0x3d949b17	0.072561435
244	0x3d3c06b6	0.045904838
245	0xbde03f17	-0.109495334
246	0x3c53fc8c	0.01293863
247	0x3e46f1b0	0.19428134
248	0xbb290aaa	-0.002579371
249	0x3e2470d8	0.16058671
250	0x3d2b8e11	0.041883532
251	0xbe497f25	-0.19677408
252	0x3dfb121b	0.12259313
253	0x3c911860	0.017711818
254	0xbe26abff	-0.16276549
255	0x3d51d26f	0.051226076

energy_lin.1.weight f4 [300, 300]
0	0x39df69c0	0.00042612664
1	0x3e779170	0.24176574
2	0x3d813822	0.063095346
3	0x3d894902	0.06703378
4	0xbc037e6f	-0.00802575
5	0x3e194566	0.1496788
6	0xbe3bad94	-0.18327934
7	0xbd684389	-0.05670503
8	0x3d9e8f8e	0.07742225
9	0xbd096b4e	-0.0335496
10	0x3d23f3bd	0.04002737
11	0x3d8376af	0.064191215
12	0x3c779927	0.015112198
13	0x3e0d22fb	0.13782875
14	0x3d95c0ed	0.07312188
15	0xbdea0dea	-0.11428435
16	0xbd659320	-0.056048512
17	0x3de28c22	0.110618845
18	0x3d1c4918	0.038155645
19	0x3e0ed2a7	0.13947545
20	0x3dd42089	0.10357768
21	0x3dbcf538	0.09226459
22	0x3ce4a583	0.027910953
23	0x3a0fd8bc	0.0005487313
24	0x3da059cb	0.07829627
25	0xbd58dc41	-0.052944425
26	0x3bb2f6ef	0.0054615657
27	0x3dc0f700	0.094221115
28	0x3dfd6208	0.123722136
29	0xbc4e99d4	-0.012609918
30	0xbca6a2fd	-0.02034139
31	0xbcdffb66	-0.027341556
32	0x3dcb07cf	0.09913599
33	0xbde156cb	-0.110028826
34	0xbdee3ce4	-0.11632708
35	0xbdbd0887	-0.09230142
36	0x3e1e5585	0.1546231
37	0x3d6b233d	0.057406653
38	0x3e16eea2	0.14739469
39	0xbdfe0aff	-0.12404441
40	0xbd5458b4	-0.051842406
41	0x3c891690	0.016734391
42	0x3e046cde	0.12932155
43	0xbc77f4af	-0.015134021
44	0x3defba95	0.117055096
45	0x3de6b385	0.112647094
46	0xbdd25db2	-0.10271777
47	0xbda241ec	-0.0792273
48	0x3e04b5d6	0.1295999
49	0xbddc1c91	-0.10747636
50	0x3e342ec1	0.1759596
51	0x3d0c654e	0.0342763
52	0x3e48e0ff	0.19617079
53	0xbdbc50ae	-0.09195076
54	0x3d5837cb	0.052787583
55	0xbdbb8713	-0.09156623
56	0xbd941f1a	-0.07232495
57	0x3d4f4725	0.050604958
58	0xbd8c27b9	-0.06843514
59	0xbd944d6c	-0.072413296
60	0x3d5ef1f8	0.054429978
61	0x3dfbe7ad	0.12300048
62	0xbd97b444	-0.0740743
63	0x3e004e6a	0.12529913
64	0xbda9bcf5	-0.08287994
65	0xbd412cda	-0.047161914
66	0x3e06fcaf	0.13182329
67	0xbdf8a416	-0.12140672
68	0x3de56f37	0.11202853
69	0xbd8d8192	-0.06909479
70	0x3b7b0c17	0.0038306767
71	0xbce17d8d	-0.027525688
72	0x3c2d21fa	0.010567183
73	0x3d267cb4	0.04064627
74	0xbdcb28c6	-0.09919886
75	0x3e12f01c	0.14349407
76	0xbd953de0	-0.07287192
77	0x3ce6921d	0.028145844
78	0x3dc4d870	0.09611595
79	0x3e129f5a	0.143186
80	0xbda62c2e	-0.08113895
81	0x3e76537e	0.24055287
82	0xbe1f875d	-0.1557898
83	0xbce9d42d	-0.028543556
84	0xbc53c5da	-0.012925589
85	0x3ccfa0d5	0.025345245
86	0xbdabc458	-0.08387059
87	0x3e81c485	0.25345245
88	0xbd74d40e	-0.059772544
89	0xbd779bac	-0.060451195
90	0x3c7d3b17	0.015455983
91	0xbd7faa1a	-0.06241808
92	0xbcf290c3	-0.029610043
93	0xbdcdbb47	-0.10045486
94	0xbdd77c88	-0.10521799
95	0x3d454e65	0.048170466
96	0x3dcd924a	0.10037668
97	0xbdaa42b2	-0.08313502
98	0x3c9977d3	0.018733894
99	0x3dba6a65	0.091023244
100	0x3d1811f6	0.037126504
101	0x3d1a8a22	0.03772939
102	0x3dea6037	0.11444133
103	0x3e3a573a	0.18197337
104	0x3e0257ec	0.12728852
105	0xbdeb2b7c	-0.11482903
106	0x3e0a9962	0.13535073
107	0x3e334c96	0.17509684
108	0xbc90f158	-0.017693207
109	0x3d071dda	0.032987453
110	0xbd2b425c	-0.041811332
111	0xbd2e3b79	-0.042537186
112	0xbd292db9	-0.04130337
113	0x3c6e0c4c	0.014529299
114	0x3caa8fb7	0.020820482
115	0xbca9b344	-0.020715363
116	0xbdadf7c0	-0.0849452
117	0x3cde6717	0.027148766
118	0x3bdb531e	0.006693258
119	0xbd8e0190	-0.06933892
120	0x3d7a0a71	0.061045114
121	0xbd5274c0	-0.051380873
122	0x3e06242c	0.13099736
123	0xbc89d3dc	-0.016824655
124	0xbd275a0b	-0.040857356
125	0x3d0d8055	0.034546215
126	0x3d54a4bc	0.051914915
127	0x3d2d22b3	0.04226942
128	0xbd9ad6b9	-0.07560486
129	0x3d9ebbb9	0.07750649
130	0xbd061882	-0.032738216
131	0xbdb7d519	-0.08976192
132	0xbdf5e8a4	-0.12007263
133	0xbd87389d	-0.06602595
134	0xbde2003a	-0.110351995
135	0xbd7f18a0	-0.062279344
136	0xbd729fda	-0.059234478
137	0xbdeefdc6	-0.11669497
138	0xbd5a12ae	-0.05324047
139	0x3d787089	0.060654197
140	0xbd900f6c	-0.070341915
141	0xbbfbce86	-0.0076845316
142	0x3c1ef53d	0.009702024
143	0xbb77da8a	-0.0037819468
144	0x3e184aa3	0.14872222
145	0x3da826a3	0.08210494
146	0xbd97daf9	-0.074148126
147	0xbe0a6589	-0.13515295
148	0xbd1b19cc	-0.0378664
149	0x3e0772fd	0.13227458
150	0x3e259266	0.16169128
151	0xbdcf2dc5	-0.10116152
152	0xbdda8697	-0.10670202
153	0x3e442c29	0.19157471
154	0xbb9b6f04	-0.0047434587
155	0x3e2e95a1	0.17049266
156	0xbd0e4279	-0.034731362
157	0x3d8761f6	0.066104814
158	0xbb11db6c	-0.002225603
159	0x3de2fc13	0.110832356
160	0x3e1d4835	0.15359576
161	0x3cb23c80	0.021757364
162	0x3b3f4ab5	0.0029188816
163	0xbda7ae7a	-0.08187576
164	0xbebb18b2	-0.3654228
165	0x3da57890	0.08079636
166	0x3d39fc56	0.045406662
167	0xbd8689ed	-0.06569276
168	0x3e022e38	0.12712944
169	0xbd1d027a	-0.03833244
170	0xbd2fac4d	-0.04288893
171	0x3d9f17bc	0.07768199
172	0xbd386bc9	-0.045024667
173	0x3c64c9e8	0.013964154
174	0x3dab00de	0.08349775
175	0x3c7ab22f	0.015301271
176	0xbd8f62b0	-0.07001245
177	0x3ccf7ad5	0.025327126
178	0xbd8b80b6	-0.06811659
179	0xbe25530a	-0.16144958
180	0xbdc2a211	-0.09503568
181	0x3de99269	0.11404879
182	0xbda5646d	-0.08075795
183	0xbcb4a3f3	-0.022050833
184	0xbdd08998	-0.10182494
185	0xbcb0b264	-0.021569438
186	0x3e09c57f	0.13454245
187	0xbe394fa5	-0.18096788
188	0xbc0d32ac	-0.008618038
189	0xbd28dd43	-0.041226637
190	0x3e1c53fd	0.15266414
191	0x3dbbe32f	0.09174191
192	0xbd85eb95	-0.06539074
193	0xbdafb1cd	-0.08578835
194	0x3ce9b435	0.028528312
195	0x3d9c47c4	0.07630876
196	0x3dfc154f	0.12308752
197	0xba179cc6	-0.0005783554
198	0x3dffff3e	0.124998555
199	0x3bf2bca4	0.0074077416
200	0x3e1086f2	0.14113978
201	0x3d3e9593	0.046529364
202	0x3e03f225	0.1288534
203	0x3d4ce583	0.050023567
204	0xbcd9f076	-0.026603919
205	0x3d7f3fc1	0.06231666
206	0x3de3a8ff	0.11116218
207	0x3d86514d	0.06558476
208	0xbdc0b806	-0.094101
209	0x3ddb4000	0.107055664
210	0x3df5c7de	0.12001012
211	0x3d4d2882	0.05008746
212	0x3d9983d1	0.07495845
213	0x3df0a867	0.1175087
214	0x3e1a1f3d	0.15050979
215	0xbc42a03f	-0.011879026
216	0x3da5358a	0.080668524
217	0x3d31b6fc	0.043387398
218	0xbd07d088	-0.033157855
219	0x3d989efb	0.07452198
220	0xbdb80a31	-0.08986319
221	0x3ce84a16	0.02835564
222	0xbd1bd9f6	-0.03804966
223	0x3e83243d	0.25613585
224	0x3e2d31ef	0.1691358
225	0x3e200966	0.15628585
226	0xbd78e6cc	-0.06076698
227	0x3cf1717d	0.02947306
228	0x3e1d08f4	0.15335447
229	0xbc8cf74c	-0.017207764
230	0xbd806e97	-0.06271093
231	0xbd49150e	-0.049092345
232	0xbdf0d406	-0.1175919
233	0x3c074366	0.008255815
234	0x3ebc73b7	0.36807033
235	0x3dfb415b	0.12268325
236	0x3e0c80df	0.13721035
237	0xbd0e117d	-0.034684647
238	0xbbfc219c	-0.0076944362
239	0x3e63d7e4	0.22250324
240	0x3e2122a1	0.15735866
241	0x3daae354	0.08344141
242	0x3dea9c4f	0.11455595
243	0x3c0c606f	0.008567913
244	0xbd33397d	-0.043755997
245	0x3b82d994	0.0039932225
246	0x3d61517b	0.055009346
247	0xbdb144d7	-0.08655708
248	0xbd4d28dc	-0.050087795
249	0xbdf86e88	-0.12130457
250	0x3e198c27	0.1499487
251	0x3e1eb0ca	0.15497127
252	0xbd639b81	-0.055568222
253	0x3d33fa0a	0.043939628
254	0xbe057278	-0.13031948
255	0x3df9c75c	0.12196228

energy_lin.1.bias f4 [300]
0	0x3d18de66	0.03732147
1	0x3cfb656d	0.030688012
2	0xbd299dc4	-0.041410223
3	0xbc21b0d2	-0.009868817
4	0x3d33a7b6	0.043861113
5	0x3bf7965b	0.0075557656
6	0x3ccee1ff	0.025254248
7	0x3dbc0a24	0.09181622
8	0x3da85034	0.082184225
9	0x3d3169a9	0.043313656
10	0x3cab0a60	0.02087897
11	0x3d4b5cf6	0.0496492
12	0x3d912aeb	0.07088264
13	0x3d82b977	0.06383031
14	0x3b66fe69	0.0035246855
15	0x3d297c48	0.04137829
16	0x3ce12744	0.027484544
17	0x3cd67dde	0.026183065
18	0x3ab4d520	0.0013796426
19	0xbd1f9200	-0.038957596
20	0x3d835212	0.06412138
21	0xbceae67f	-0.028674362
22	0x3d862bf6	0.06551354
23	0xbcae27dd	-0.021259243
24	0x3d2e04de	0.04248511
25	0xbd67ba21	-0.05657399
26	0x3d86ca5d	0.065815665
27	0xbc201008	-0.009769447
28	0x3d4871dd	0.048936713
29	0xbcdd9c61	-0.027052106
30	0x3d560cb6	0.052258216
31	0x3ce32f7b	0.027732601
32	0x3d3a9ead	0.04556148
33	0x3d3b108d	0.04567008
34	0x3c834829	0.01602562
35	0xbcfdf583	-0.031000858
36	0xbc88bb63	-0.016690915
37	0x3d58971f	0.052878495
38	0x3d77c9d9	0.06049523
39	0x3d4c7980	0.04992056
40	0x3a5f20aa	0.0008511642
41	0xbbb67496	-0.0055680973
42	0x3d8a9ef1	0.06768597
43	0x3d1a632c	0.037692234
44	0xbcb88953	-0.022526419
45	0x3ca9d886	0.02073313
46	0x3da7a7e3	0.08186319
47	0x3b234334	0.0024911882
48	0x3b8ab3e7	0.004232872
49	0xbd0f0752	-0.03491909
50	0xbd50b04e	-0.050949387
51	0xbd044c62	-0.032299407
52	0x3d09da40	0.033655405
53	0xbc8691a5	-0.01642687
54	0x3ca53f45	0.02017177
55	0xbafdeec7	-0.0019373529
56	0xbbf68a61	-0.0075238203
57	0x3b751b93	0.0037400469
58	0x3d449bf8	0.048000306
59	0xbb499c3a	-0.0030763284
60	0x3d8309f5	0.063983835
61	0xbd0b86cd	-0.034064103
62	0x3d6d5db5	0.057950694
63	0x3d6876df	0.05675399
64	0x3ce107f2	0.027469609
65	0x3d18c685	0.037298698
66	0xbc5c57e4	-0.013448689
67	0x3d2b3488	0.041798145
68	0x3b15c2d1	0.0022851715
69	0x3d58d9de	0.05294215
70	0xbba1932d	-0.004930875
71	0xbbe8a5eb	-0.007099857
72	0x3b1134d1	0.0022156725
73	0xbc6599d1	-0.0140137235
74	0x3cf04d05	0.0293336
75	0xbc867b99	-0.016416358
76	0xbc3332db	-0.010937418
77	0x3d6fe5ba	0.058568694
78	0x3d2e25ef	0.042516645
79	0x3c9c1de3	0.01905722
80	0xbd4877cd	-0.048942376
81	0x3d5c92e2	0.053851016
82	0x3d3c032f	0.045901474
83	0xbd15a463	-0.036533725
84	0x3b72da1e	0.0037056278
85	0xbaa655e1	-0.0012690389
86	0xbd80ad94	-0.062831074
87	0x3d2cd3e4	0.042194262
88	0x3d48e203	0.049043667
89	0xbcc0c142	-0.023529653
90	0xba400eb0	-0.00073264074
91	0x3db1ab97	0.08675306
92	0xbcb4e80c	-0.022083305
93	0xbbfeec12	-0.0077796066
94	0x3d14e036	0.036346637
95	0x3d82e16d	0.06390653
96	0x3b198eeb	0.0023431133
97	0xbb40f0d5	-0.0029440422
98	0x3c5cac38	0.0134687945
99	0xbd156ce4	-0.0364808
100	0xbc68a3f8	-0.014199249
101	0x3d65d0e8	0.05610743
102	0x3c236f7e	0.009975312
103	0x3d03cc64	0.032177344
104	0x3d39874a	0.045295037
105	0x3be2a909	0.006917123
106	0x3d600b6e	0.0546984
107	0x3d0c9df7	0.034330335
108	0xbbea1d17	-0.007144581
109	0xbd02d28a	-0.031939067
110	0x3d73dc58	0.059536308
111	0xbba95ff7	-0.0051689106
112	0x3d3b575b	0.045737606
113	0x3d9f1f27	0.07769614
114	0x3b14e53d	0.0022719644
115	0x3d770e58	0.060316414
116	0xbd0a5095	-0.033768255
117	0x3d8ae5c0	0.067821026
118	0x3cb3d2dc	0.021951132
119	0x3c587606	0.013211733
120	0x3d91e76b	0.071242176
121	0x3ce4dfb9	0.02793871
122	0x374814b7	1.1925752e-05
123	0x3d559340	0.05214238
124	0x3d82ff40	0.06396341
125	0x3baff5db	0.0053698844
126	0xbc2ad86e	-0.010427577
127	0xbca9f3b2	-0.020746086
128	0x3e09c729	0.1345488
129	0xbcf44725	-0.02981908
130	0xbc575165	-0.013141965
131	0x3c3db4fd	0.0115787955
132	0xbcd038af	-0.025417654
133	0x3d6f3381	0.058398727
134	0x3ce74274	0.02822993
135	0x3d852628	0.06501418
136	0x3d13afc4	0.036056295
137	0x3c9f7af8	0.019467816
138	0x3d08548e	0.033283763
139	0x3cac7ea6	0.021056484
140	0xb9c691f9	-0.0003787426
141	0x3c6fb60b	0.014630805
142	0xbc2f7d0c	-0.010710966
143	0x3d0fc4d1	0.035099808
144	0x3d1dadb8	0.03849575
145	0xbd4c469e	-0.049872033
146	0x3d64d403	0.055866253
147	0x3d06f1d3	0.032945465
148	0x3d5f1925	0.05446734
149	0x3d5548eb	0.052071493
150	0x3db20ce2	0.086938635
151	0x3caea604	0.021319397
152	0x3d43944c	0.04774885
153	0xbcacc790	-0.021091253
154	0x3c2b2987	0.010446913
155	0xbc1d4948	-0.009599991
156	0xbb55dd0d	-0.0032632977
157	0x3d68bda3	0.056821477
158	0x3d8e3002	0.069427505
159	0x3d142253	0.036165547
160	0x3c93c859	0.01803987
161	0x3d31093d	0.0432217
162	0xbb96923f	-0.0045950706
163	0x3d126ef4	0.035750344
164	0x3db16e07	0.08663564
165	0xbc921982	-0.017834429
166	0xbc8acd2d	-0.016943539
167	0x3d266e34	0.04063244
168	0x3d354687	0.044256713
169	0x3d4cf7f7	0.050041165
170	0x3d563084	0.05229236
171	0x3d92feb7	0.07177489
172	0x3d5a2d4f	0.053265866
173	0x3d05c592	0.03265912
174	0x3d2de344	0.042453066
175	0x3c834f7a	0.016029108
176	0xbd3b53ee	-0.04573434
177	0x3d669667	0.05629578
178	0xbbf2d0c8	-0.0074101426
179	0x3d1f7c12	0.038936682
180	0x3da24718	0.07923716
181	0x3ddca690	0.10773957
182	0xbcd3c7b6	-0.025852066
183	0xbbe62b73	-0.0070242225
184	0xbac69064	-0.0015149233
185	0x3c1e5aec	0.009665232
186	0x3b7b05ea	0.0038303086
187	0x3d0abf0a	0.033873595
188	0x3d22a853	0.039711308
189	0x3c7e7809	0.015531548
190	0x3ccc0042	0.024902467
191	0x3d936b27	0.07198172
192	0x3b03f45d	0.0020134666
193	0x3d95c9b8	0.073138654
194	0x3d8458e5	0.06462268
195	0x3b4a5026	0.0030870526
196	0xbc1f2969	-0.009714463
197	0x3d6fd24b	0.05855016
198	0x3bb5f976	0.0055534197
199	0x3cb27a76	0.02178691
200	0xbca115af	-0.01966366
201	0x3d992983	0.07478621
202	0x3d406210	0.04696852
203	0xbc52ee98	-0.012874268
204	0x3cd9af0b	0.026572725
205	0x3da5e84c	0.08100948
206	0xbc28bb96	-0.01029863
207	0x3dc52118	0.09625453
208	0x3b6680e8	0.003517205
209	0x3d683d3c	0.056699023
210	0xbd61a691	-0.05509049
211	0x3ce8c76d	0.028415406
212	0xbb59a708	-0.003321113
213	0x3d7a82de	0.06115996
214	0x3cca1033	0.024665928
215	0x3d816a27	0.06319075
216	0x3d7c19d6	0.061548077
217	0x3d431021	0.047622804
218	0xbaca4f40	-0.0015434995
219	0x3d47e6af	0.04880398
220	0xbb8f3b23	-0.0043710633
221	0x3d04bd0e	0.03240686
222	0x3d777255	0.06041177
223	0x3d41de67	0.04733124
224	0x3ce29823	0.027660435
225	0xbd07f78c	-0.033195063
226	0x3d77b0d7	0.060471382
227	0x3cc5134c	0.024057053
228	0xbbd733bf	-0.006567448
229	0x3d72470d	0.05914979
230	0x3cb14e75	0.021643857
231	0x3b6c7089	0.0036077818
232	0x3c13c322	0.009018691
233	0xbd5c7014	-0.053817824
234	0xbcef9271	-0.029244633
235	0x3d39e67d	0.045385826
236	0xbcd91bb5	-0.02650247
237	0x3d51b2ad	0.05119579
238	0x3cb0a0e2	0.02156109
239	0x3c666d55	0.014064153
240	0x3d9e0635	0.07716028
241	0x3b7ea10a	0.003885331
242	0x3d471abe	0.048609488
243	0xbcc1a0b6	-0.023636203
244	0x3c1f52c8	0.009724326
245	0x3d8794ac	0.06620154
246	0x3d7b3fb0	0.061340034
247	0x3d6923b9	0.056918833
248	0xbc73d592	-0.014882462
249	0xbccf9619	-0.025340127
250	0x3d84a5de	0.06476949
251	0xbba5b6da	-0.005057198
252	0x3ce41bb8	0.027845249
253	0xbbba6563	-0.005688356
254	0x3cbc943a	0.023019899
255	0x3b91535d	0.0044349865

energy_lin.3.weight f4 [150, 300]
0	0xbbafcef3	-0.0053652464
1	0x3b4e4795	0.0031475772
2	0xbd034c11	-0.032054964
3	0xbdb6573b	-0.08903357
4	0xbec511c8	-0.3849013
5	0x3dd20483	0.10254767
6	0x3e0b747e	0.13618657
7	0xbd3cce83	-0.046095382
8	0xbd74822d	-0.059694458
9	0x3cdf1685	0.027232418
10	0x3dabd7bc	0.083907574
11	0xbde9c182	-0.11413862
12	0x3e0ba872	0.13638476
13	0xbda1ff38	-0.07910007
14	0x3e21ce02	0.15801242
15	0xbca114fc	-0.019663326
16	0x3ccbbc80	0.024870157
17	0xbcfe46fa	-0.031039704
18	0x3e1c5265	0.15265806
19	0xbdb68cb6	-0.08913557
20	0xbd54aaee	-0.051920824
21	0x3d7d815e	0.061890952
22	0x3e21bc8b	0.1579458
23	0x3e1ab562	0.15108255
24	0xbd884aea	-0.06654914
25	0x3c807f3f	0.015685676
26	0x3d8c1785	0.068404235
27	0x3c4cf8df	0.012510507
28	0x3d8fb122	0.07016207
29	0xbe1f575d	-0.1556067
30	0x3db11b14	0.08647743
31	0x3cb0240c	0.021501563
32	0x3cf2d5f4	0.029643036
33	0x3e0d9b9d	0.13828893
34	0x3d40f908	0.047112495
35	0xbdedbfd5	-0.11608855
36	0x3bda7284	0.0066664834
37	0x3d23e5d4	0.040014103
38	0x3e093660	0.13399649
39	0xbdb3076c	-0.0874165
40	0x3d612cd5	0.054974396
41	0x3cb11bd2	0.021619711
42	0xbde1ba19	-0.110218234
43	0xbd738cd9	-0.059460495
44	0xbe86ccfc	-0.26328266
45	0x3d4ab72f	0.049491104
46	0xbde668aa	-0.11250432
47	0x3e0e6c4c	0.139085
48	0x3ef117ae	0.4708838
49	0x3dbd94e8	0.09256917
50	0x3d1b6d76	0.037946187
51	0x3b3c5a8a	0.002874049
52	0x3dfa7fb6	0.1223139
53	0xbdd59081	-0.104279526
54	0x3da9c310	0.08289158
55	0xbd950cef	-0.072778575
56	0x3e09ec1e	0.13468978
57	0x3e2a2f6e	0.16619655
58	0xbdcd97f2	-0.10038747
59	0x3e8cd06e	0.2750277
60	0xbd148a57	-0.036264744
61	0x3e4894d0	0.19588017
62	0xbd53b6f2	-0.051688142
63	0xbd1e9a7a	-0.03872154
64	0x3cd0ccb7	0.02548824
65	0xbe03637c	-0.12830919
66	0xbd6e2c38	-0.05814764
67	0xbd3594ed	-0.04433148
68	0xbe3e8377	-0.18604837
69	0xbdd07f98	-0.101805866
70	0xbdb147c3	-0.086562656
71	0xbddc05ee	-0.107433185
72	0x3dfee9ef	0.12446963
73	0x3cb939b2	0.02261052
74	0x3d60364f	0.054739293
75	0xbdfca36b	-0.12335857
76	0xbd24e7e4	-0.04026021
77	0xbd11d11b	-0.03559981
78	0x3da09df6	0.07842629
79	0x3bc37c56	0.0059657497
80	0xbc812ffc	-0.015769951
81	0x3e10658c	0.14101237
82	0xbd8e4eb7	-0.069486074
83	0x3c9189a4	0.017765827
84	0x3e3e704e	0.18597528
85	0xbcabc743	-0.020969039
86	0x3c536192	0.012901681
87	0xbd26fe8c	-0.0407701
88	0x3d75ce69	0.0600113
89	0xbcd5891e	-0.02606636
90	0x3e2552b3	0.16144828
91	0xbe409432	-0.18806532
92	0xbd663a27	-0.056207802
93	0x3e2b74ea	0.16743818
94	0xbdb304ae	-0.08741127
95	0xbd7a2a6b	-0.06107561
96	0x3bef927f	0.007311165
97	0x3d81c33e	0.063360676
98	0x3d1ce1d2	0.038301297
99	0x3de6a117	0.11261194
100	0x3d2a0caa	0.041515984
101	0x3ccf006a	0.025268752
102	0x3e01b1aa	0.1266543
103	0x3df2c205	0.118534125
104	0xbd3e75d0	-0.046499074
105	0x3e15e7d9	0.14639224
106	0xbdac3c50	-0.08409941
107	0x3df21b0d	0.11821566
108	0xbd9aff19	-0.07568187
109	0xbe3a26cf	-0.18178867
110	0x3d9a95bc	0.07548091
111	0x3d8e09b4	0.069354445
112	0xbe22dd91	-0.15904833
113	0x3bd8787d	0.00660616
114	0xbce7b66e	-0.028285231
115	0x3d90055e	0.07032274
116	0x3c9c3a7f	0.019070862
117	0x3dbc4d3d	0.091944195
118	0xbb9d0a9d	-0.004792525
119	0xbc34fd37	-0.011046699
120	0xbbcf1e94	-0.006320784
121	0xbcdafe03	-0.02673245
122	0x3dd50c72	0.104027644
123	0xbe41572d	-0.18880911
124	0x3e85559a	0.2604187
125	0x3dd6d63b	0.1049008
126	0x3e1f641e	0.15565535
127	0x3dae7164	0.08517721
128	0x3e32faa3	0.17478423
129	0x3caff374	0.021478392
130	0x3da715ca	0.08158453
131	0x3d8ca1be	0.068667874
132	0x3d969985	0.073535
133	0x3e0dc109	0.13843168
134	0xbda30ae6	-0.07961063
135	0xbe47ba18	-0.19504583
136	0x3caf6b5c	0.021413498
137	0xbcad8e4a	-0.021186013
138	0x3cf74176	0.030182581
139	0xbd6bbc13	-0.05755241
140	0x99739890	-1.2593615e-23
141	0x3e0b4688	0.13601124
142	0x3b8b6593	0.004254052
143	0x3c9f6be1	0.01946062
144	0xbd786aeb	-0.06064884
145	0x3c85d6a9	0.01633771
146	0x3cfb4ee3	0.030677265
147	0xbca0d02b	-0.019630512
148	0x3dd60362	0.10449864
149	0xbea623fb	-0.32449326
150	0x3d5d9952	0.054101296
151	0xbcd1aeb2	-0.025595997
152	0x3e245113	0.16046552
153	0xbd9c5afa	-0.0763454
154	0xbd5695bb	-0.052388888
155	0xbe094be7	-0.1340786
156	0x3cc80423	0.024416035
157	0x3db830c5	0.08993677
158	0x3e2c14fe	0.16804883
159	0x3dc81cae	0.09771095
160	0xbd1591e3	-0.03651608
161	0xbdb57a8a	-0.08861263
162	0x3d2cfc45	0.04223277
163	0x3e328c9b	0.17436449
164	0x3e25199d	0.16123052
165	0xbd82f3db	-0.06394168
166	0xbdd73b42	-0.105093494
167	0x3e141aa0	0.14463282
168	0x3d70e6bb	0.05881379
169	0xbb4364a3	-0.0029814623
170	0x3ce79eaf	0.028273908
171	0x3d99f879	0.075180955
172	0xbd889abb	-0.066701375
173	0xbe25ceb9	-0.1619214
174	0x3e31e1fb	0.17371361
175	0xbd89a0bb	-0.0672011
176	0xbe01c3e2	-0.1267238
177	0xbd07a051	-0.033111874
178	0xba9bcf08	-0.0011887262
179	0x3cdd8743	0.027042037
180	0xbd6e2a95	-0.05814608
181	0x3c840c61	0.016119184
182	0xbba42557	-0.005009334
183	0x3e11bab2	0.14231375
184	0x3d034900	0.03205204
185	0xbcb5b1f1	-0.022179576
186	0xbd967cc7	-0.07348018
187	0x3df32df3	0.118739985
188	0xbe284627	-0.16433011
189	0xbc358c1e	-0.01108077
190	0xbd461fc4	-0.048370138
191	0xbda52e2a	-0.08065446
192	0xbd17d69a	-0.037069894
193	0x3e09be83	0.1345158
194	0x3e34f60e	0.17671987
195	0xbd8cf115	-0.0688192
196	0xbdac5c26	-0.084160134
197	0xbe55e179	-0.20886792
198	0xbdbaf79e	-0.091292605
199	0xbbfe063b	-0.0077522076
200	0x3e38ba5d	0.18039842
201	0x3d333b37	0.043757644
202	0x3e14cfd0	0.14532399
203	0xbd163271	-0.0366692
204	0xbe90e3fa	-0.28298932
205	0xbe32e2bf	-0.1746931
206	0xbd2211c3	-0.03956772
207	0x3e2dc940	0.16971302
208	0x3d743caa	0.059628166
209	0x3e050960	0.12991858
210	0x3d86f695	0.065900005
211	0x3e005037	0.125306
212	0x3ca6cf4d	0.02036252
213	0xbc1ef8c0	-0.009702861
214	0x3db2a28d	0.0872241
215	0xbe23a459	-0.15980662
216	0xbd3320c0	-0.043732405
217	0xbe3b4adf	-0.1829028
218	0x3e2a3dc6	0.16625127
219	0x3e223382	0.15839961
220	0xbd8f7198	-0.07004088
221	0x3d143182	0.036180027
222	0x3da58a6b	0.08083042
223	0xbd07ee5b	-0.033186298
224	0x3e20f276	0.15717492
225	0xbd308015	-0.0430909
226	0x3d2de47e	0.042454235
227	0x3e2dc059	0.16967906
228	0x3e094242	0.13404182
229	0x3d58e6ac	0.05295436
230	0x3d8fb6e9	0.07017309
231	0x3d795cb1	0.060879413
232	0xbd455cbb	-0.048184138
233	0xbbc62e92	-0.006048032
234	0xbe1835eb	-0.14864318
235	0xbc9253b5	-0.01786218
236	0x3c823482	0.015894178
237	0x3e71cd94	0.23613578
238	0x3e5fb249	0.21845354
239	0x3d618edd	0.055067886
240	0x3dc27025	0.09494046
241	0xbc3c4e25	-0.0114932405
242	0xbc85474a	-0.016269345
243	0xbd7c248e	-0.0615583
244	0xbdb014ce	-0.08597718
245	0x3d2ef9c1	0.042718653
246	0x3deac6ac	0.11463675
247	0x3d453f31	0.048155967
248	0x3cf129be	0.02943885
249	0xbd9b9698	-0.07597083
250	0xbe41dc69	-0.18931736
251	0x3d4f9168	0.05067578
252	0x3d9b6387	0.07587343
253	0xbcd9a990	-0.026570112
254	0x3d3cdc80	0.046108723
255	0xbe28568a	-0.16439262
