models/mpnn_A139_B23_E300_L2/2.pt (torch, 742574 bytes, 9 tensors)

atom_lin.weight f4 [300, 139]
00000000: 91aa 363c 598b 263e 5782 3580 20d9 c229
00000010: 900e 3d98 e085 32a1 2346 9a3d b808 39be
00000020: f28d 34be 2120 17bd 1288 3580 e8c2 cd9f
00000030: 92f0 26be 75b6 98a4 9791 bb8c ecaf 09be
00000040: f498 2dbd d25b 84bc 8ab1 748e cc83 75a2
00000050: 76b9 e727 5a70 a993 aa91 ad1c ae13 a607
00000060: 6440 f00f 73b7 05be 89fc 473e 5793 193e
00000070: 2061 f825 038a 3a21 373d ea09 83bc f596
00000080: 28e7 cca5 8e54 ef0b 6b46 020f 69de 6e3e
00000090: 552a f50f 7150 2800 906a 4aa5 5bb0 8a9a
000000a0: 1976 4ba2 34be 671c edc1 0325 b890 d799
000000b0: 2587 87a9 5bd8 56a1 8ed3 a595 82fe 9e1d
000000c0: 6d1b 3328 2cb9 879c edf2 5d19 fc46 8b95
000000d0: f74d 5c28 b23b f23d bfea 2019 11bb 142a
000000e0: 705e 0283 a68e 3580 6a98 01a1 b8b3 5ba9
000000f0: 9706 ec96 fd82 3580 1408 5a20 2aa9 118f
00000100: 7bd6 da9f ae70 b11d 857f 0909 a2b0 c0a0
00000110: 9073 2a1a 4730 a68c 26d9 9b0e 0488 be11
00000120: 99f1 8ea9 ddb7 899c 8879 ac1c 5780 d5a5
00000130: 4eb8 52a5 abe0 1207 0cd8 eb20 4b41 bc06
00000140: d77b 3580 da23 6f89 f82e 8721 5576 7027
00000150: 51af 8925 c5ee 9229 1dd7 6106 60f0 cd97
00000160: 101e aa24 c513 c320 6504 c396 ce4f 089b
00000170: f16d 3f14 d351 dd9a 1a84 2628 f6b7 4aa3
00000180: f4c0 0d82 1acf 519e 6778 1419 cc4b d821
00000190: 4b8b 8d9d 1f1b 0696 cb1b 360e 23c6 6ba5
000001a0: dd71 2025 ba37 7799 0c6a d413 c568 3580
000001b0: c996 efa3 c020 0eaa 180a 0f2a 1377 3500
000001c0: cd91 3ba3 2bd1 fb8c 0cc5 599c 0a35 2227
000001d0: af24 a3a7 0db5 6904 a7fb a329 2c64 9a3d
000001e0: c5ad 223e 00fe cbbb f360 cabc 62fb 6b3e
000001f0: 65dc cda6 7586 d23d 59d2 3c00 af6d f294
00000200: e6df 44bb 08a5 583e 310b 01bd f487 2f3d
00000210: 1f8f 3e3d c956 7d3e 9f70 7c1b 1878 9128
00000220: f53b 47a3 233d 54a1 a1d5 d8bb d244 a6bd
00000230: 4a27 4c3e 0fc4 3682 2445 1422 a6ae 56a2
00000240: 679d 020f 5bcc a7bc 82d1 d23d 927b c1bd
00000250: 2dc3 a4bc 7dd3 3615 4baf 360f fc63 14be
00000260: 1a5b 2aa3 1dc9 0200 81c3 f0bd f869 a5bd
00000270: be88 63be 1001 b1a5 bd67 9b1e 2183 2f11
00000280: d80b d028 18aa 2b9d 338a 8b22 846a 3580
00000290: 4ec6 a2bd a080 243e 4cbe 873d 1977 3580
000002a0: 69b3 6da9 6781 b09f f2b6 fda0 a650 521c
000002b0: 7c28 7b28 6b4b be01 383f 543d 1fd0 209a
000002c0: acc2 d48c 1a9b 34a9 fbb6 cc25 b3c0 279c
000002d0: f84e 0c16 0d34 9ba5 c043 bc18 3002 bd27
000002e0: 489b 8919 f25f 4fa9 82f8 5327 849a 62a3
000002f0: 489c 0fa8 969c 4b87 89e9 900b 7071 3580
00000300: d98d 833e f2fb b725 4972 088f b07b d919
00000310: b96c ffa8 d1c2 1c10 920e 3599 6507 ac91
00000320: 6197 d507 2e55 46aa 8169 3500 4cf8 b194
00000330: f7c5 7584 06c8 a707 9b82 eda2 abc3 6397
00000340: cfab 7509 7c2f 5888 dcd7 1785 615f c711
00000350: 2d6d c423 ab31 0a98 3ff7 2b00 f6fb 9329
00000360: 007d c3a4 f27b 261d 006d 3580 3594 0b9e
00000370: 3c13 cb9b 66f6 39a2 906b 56a2 3729 6490
00000380: d708 2f93 35e0 b1a4 fe9d c913 cf66 c2a0
00000390: 5166 8595 de63 9b19 8026 1693 8a31 0b15
000003a0: a874 751e 67e5 2f22 2663 82a5 c47d 3580
000003b0: 53fd 2396 fa2c e005 b5e5 de9a 0ed1 0190
000003c0: ce85 3500 412c d31b a53d 3194 0f1a 0f10
000003d0: 310e 3701 432b 85a1 b839 3f9b fab1 8b28
000003e0: fc58 52a6 d4fe 3629 b610 00a8 c7d7 b524
000003f0: 1a7c 3500 f638 e18d 7d5e 2517 65e4 aa23
0.011149065 0.16264094 -4.914038e-39 8.652996e-14 -2.443503e-24 -6.048593e-19 0.07532909 -0.18069732
-0.17632273 -0.036895875 -4.916094e-39 -8.714332e-20 -0.16302708 -6.6228586e-17 -2.8899536e-31 -0.13446015
-0.042382196 -0.016157065 -3.0160804e-30 -3.3273464e-18 6.4316457e-15 -4.2772385e-27 1.1485833e-21 2.498847e-34
2.369063e-29 -0.13058262 0.19529928 0.14997612 4.3086957e-16 6.320191e-19 5.6391017e-33 -3.9700852e-25
-3.5544996e-16 9.2186675e-32 6.423057e-30 0.2332703 2.4175171e-29 3.702277e-39 -1.7556812e-16 -5.736038e-23
-2.757415e-18 7.667732e-22 1.1428143e-16 -2.228893e-23 -6.018648e-14 -7.2792364e-19 -6.6976744e-26 4.2085407e-21
9.942443e-15 -8.981416e-22 1.1474491e-23 -5.6253646e-26 1.2229359e-14 0.11827792 8.319213e-24 1.3209942e-13
-3.8311975e-37 -4.918454e-39 -4.390862e-19 -4.878365e-14 -3.8132015e-25 -4.914271e-39 1.8467991e-19 -7.181632e-30
-9.268142e-20 4.6968018e-21 1.6550735e-33 -3.264295e-19 3.5248527e-23 -2.5605406e-31 3.8419556e-30 3.006054e-28
-6.347977e-14 -9.113427e-22 1.141342e-21 -3.7036576e-16 -1.8277041e-16 1.1049843e-34 3.9953516e-19 7.081368e-35
-4.911707e-39 -2.8785436e-33 9.160388e-19 3.3370839e-15 2.388451e-16 6.5251224e-14 4.2475837e-35 -1.3308494e-24
7.3776676e-17 3.3047367e-19 -3.1506722e-25 -1.1275443e-22 9.664718e-27 -9.153565e-23 9.243496e-15 -1.0989397e-17
-1.0414419e-37 -1.11071955e-20 7.675736e-24 1.4656793e-18 -3.7466415e-21 -1.0832992e-25 2.2446614e-30 -2.0450132e-16
1.3916366e-16 -1.27808546e-23 5.3620894e-27 -4.904866e-39 -2.5976292e-17 -1.2623496e-13 1.2704453e-13 4.909997e-39
-1.0168165e-17 -3.8798562e-31 -7.2053954e-22 2.2510769e-15 -4.528136e-15 2.7472153e-36 7.282309e-14 0.075386375
0.158866 -0.0062253475 -0.024704432 0.23045114 -1.4284471e-15 0.10279552 5.585588e-39 -2.4479018e-26
-0.003004068 0.21156704 -0.031504814 0.042854264 0.04652321 0.24740137 2.0881341e-22 1.6150316e-14
-1.0800508e-17 -7.190931e-19 -0.0066172634 -0.08118595 0.19936863 -1.3427514e-37 2.0094343e-18 -2.9094866e-18
6.4398094e-30 -0.020483186 0.10293867 -0.09447397 -0.020112598 3.6921442e-26 9.007053e-30 -0.14491266
-9.23501e-18 2.55817e-40 -0.117560394 -0.080768526 -0.22220132 -3.0705326e-16 1.6454169e-20 1.3845473e-28
2.3097775e-14 -2.2719598e-21 3.782235e-18 -4.905492e-39 -0.0794798 0.16064692 0.06628093 -4.910005e-39
-5.2780185e-14 -7.475298e-20 -4.298093e-19 6.9587407e-22 1.3942078e-14 6.9903197e-38 0.051818103 -3.3255343e-23
-3.2780936e-31 -4.0102558e-14 3.551235e-16 -5.5504723e-22 1.1334028e-25 -2.6923485e-16 4.866527e-24 5.246041e-15
1.4228186e-23 -4.6046453e-14 2.9416849e-15 -1.22842045e-17 -7.971983e-15 -1.5318039e-34 5.5818167e-32 -4.907975e-39
0.2569416 3.1916164e-16 -6.727328e-30 2.2487231e-23 -2.8357838e-14 3.0915656e-29 -9.360423e-24 -2.7141372e-28
3.213765e-34 -1.7615485e-13 4.905129e-39 -1.7970369e-26 -2.8890513e-36 2.524493e-34 -6.4377263e-18 -7.3594624e-25
2.9571586e-33 -6.5055953e-34 -7.139633e-36 3.1455446e-28 2.12966e-17 -1.7861158e-24 4.037622e-39 6.5718196e-14
-8.477953e-17 2.2033995e-21 -4.906383e-39 -7.389247e-21 -3.3595963e-22 -2.5202617e-18 -2.9059351e-18 -4.4996822e-29
-2.2092464e-27 -7.7141335e-17 5.0895326e-27 -3.2932911e-19 -5.38797e-26 1.606696e-23 -1.8951644e-27 2.8109906e-26
1.2994316e-20 2.3838367e-18 -2.261859e-16 -4.912398e-39 -1.324697e-25 2.108138e-35 -9.218816e-23 -2.5601814e-29
4.915281e-39 3.493562e-22 -8.9483736e-27 2.8221852e-29 3.3621973e-38 -9.023882e-19 -1.58178e-22 1.5509285e-14
-7.297898e-16 4.0633146e-14 -7.109051e-15 7.886178e-17 4.9118e-39 -1.3880408e-30 5.3433636e-25 1.8528166e-17

atom_lin.bias f4 [300]
00000000: 67e0 91bc b751 87bd 595c 47bd 9106 65bd
00000010: ada1 dcbc 3860 5d3d b02a f53d 82a1 d03d
00000020: 6c2f 463d ac80 0ebd a700 773b b30d 863d
00000030: ba9c 353c d2fb 57bd e8e1 39b8 db88 c43a
00000040: 220b 243d 2852 8d3d c1a2 0dbd 644c 503d
00000050: c03b e4bc edcc 89bc 5904 72bc a721 e5bb
00000060: 1fa6 bb3d 808d ea3c 7426 183d fb1c a83b
00000070: e7b2 80bd 05ed d5bd ca06 fc3c a288 4d3d
00000080: b4d6 0dbc cfa9 dd3c 4190 973d c555 61bc
00000090: 4a0d 91bc 4d50 febc eeea a03d 63e1 733d
000000a0: 7b29 6c3c de5d 2cbc 2160 d23d 38d5 1ebd
000000b0: 9e0f 24bd d535 a53d 4b2f ad3d 5693 1abd
000000c0: 0edd a83c 5268 9b3c 49cd 35bc 6110 8ebd
000000d0: 4685 d53d c86a 97bb bd3b 96bb d661 37bd
000000e0: 8240 133d ce21 20bd 1c45 063d 37fe 913d
000000f0: 9a3c 5e3d 3c82 84bd edab c23d 7b85 8bbd
00000100: 7c96 183d 392c 483c 4b27 64bd 7947 f7bd
00000110: 852a da3d 9c96 3ebd 387e 8f3d 6db5 17bd
00000120: c6e2 c93d b998 783c 053e 4d3c e88e 40bc
00000130: 3ff9 a23d 41fe 2d3d 375a 5a3d 01cb 393d
00000140: 1d4b dbb9 1c2b 083e f97b c4bb f81d d23d
00000150: 509b 6f3c 7470 3fbc 4bec 12bd dfb9 49bd
00000160: 9270 5f3d b916 f43d e3f9 62bc 24b7 903d
00000170: 27db 88bd 2bff 9a3c 84c8 2a3d 017f cabd
00000180: 6d18 6a3d 8b9f 35bd e003 753d aa84 bd3d
00000190: 69f5 8c3d b669 b63d 6cc8 903d a66e 9a3c
000001a0: 1f9c ee3d fcf6 2bbc 3781 e9bc 1182 293d
000001b0: 0bd8 fd3c bb16 0e3d ec14 b6bb b031 313d
000001c0: c159 3d3d 07d6 34bd c443 d2bc 85b2 f23d
000001d0: cc6a c83d 18c9 29bd 85be 803d df45 85bc
000001e0: 196b 9abc f992 a53b d0dd 8e3c 87cb 0b3d
000001f0: aa80 adbc 2c62 c6bd 6b41 7cbd 5d81 b23d
00000200: f2c1 823d ffdc 293d 1596 253d b535 f4bd
00000210: 3c34 693d 4018 e5bd 08fb 143e 2af5 16bd
00000220: c9d8 83bc 2c96 fbbc 8919 933c ab88 943d
00000230: 5dc9 293c 95ec 3a3d 1fd5 d6bc 581e 7cbd
00000240: aca2 9d3d 2893 7abb a29a 1a3e 077a 433d
00000250: 8e9f 4dbd 1cc9 cb3d 9b15 dc3c c2cb 86bc
00000260: 0461 bc3d 173b 9e3d 74ba 3bbc 402a c8bc
00000270: 7588 a2bc 140f 5abd 788f cc3d b17f 6bbb
00000280: c58c c33d 0685 b63d f457 af3d 3e67 883c
00000290: c2c0 f83d 73a8 903d c522 0f3d e8d7 83bc
000002a0: 8e5d 853d c840 343d 3636 8abd affd 043d
000002b0: 80ea aa3d e6b0 283d dfa5 5fbc cca1 be3d
000002c0: 8690 b93d 758a 793c 3de1 29bc 214d 5f3d
000002d0: 6c0b 4b3d c274 b03a ff13 0c3b 00af 3ebb
000002e0: e42a 043d 387f a6bc 86f6 143d a1d5 ab3c
000002f0: 7c1b 7dbc 7b63 093e c236 3dbd d61c d73c
00000300: 56ab 10bd 2930 eb3b 7e0e a3bd 71c4 2cbd
00000310: 4e53 da3d 33a0 55bc 31e1 183d a850 e93c
00000320: 5d04 cb3d 5e2c 07bd 2b1e 63bd d881 abbd
00000330: d7a7 14bc a456 7ebc d796 9339 3cc6 603d
00000340: 11a5 9abc 92cd 39bb bcc7 5a3d 4d05 59bd
00000350: 55eb 4f3d fae5 313d 15ad e03d fa69 a93d
00000360: 9951 58bc f96a b73d c366 a73d b125 4c3d
00000370: 30db efbc 446b 39bd 17ac 10b7 ba49 7dbd
00000380: dfcf 40bd 1954 3c3d 1b87 9c3d 7fc6 2bbd
00000390: 4cbf 44bd 9930 60bd 39fd ef3d e08b 033e
000003a0: 0904 e4bc 37c1 b33c a326 ddbc 76cc aebc
000003b0: 2725 ad3d fb98 f7bd d8c3 893d 38d1 f33c
000003c0: 3046 b23c 7c8f 3b3d 6ef5 4abc 8e8f 0a3d
000003d0: 683d 87bc fb74 d93c a77e 9a3d ebe5 733c
000003e0: 3c86 a3bd 848a ed3c c1b2 b4bc ea9e d8bd
000003f0: a1c8 893d 2eff 553d 3dd1 2bbd 4e23 e2bd
-0.017807199 -0.06607383 -0.048672054 -0.055914465 -0.026932562 0.05404684 0.119710326 0.10187055
0.04838507 -0.03479068 0.0037689598 0.06545582 0.01108473 -0.05273039 -4.431783e-05 0.0014994399
0.04004968 0.06900436 -0.034579042 0.0508541 -0.027860522 -0.016821349 -0.014771544 -0.006992537
0.091625445 0.028631926 0.037146047 0.005130408 -0.06284123 -0.104455985 0.030764956 0.05017913
-0.008657146 0.02705851 0.07400561 -0.013753359 -0.017706532 -0.03104415 0.07857309 0.059541117
0.014414187 -0.010520427 0.102722414 -0.03877756 -0.040053956 0.08066908 0.08456286 -0.037738167
0.02061322 0.018970642 -0.011096307 -0.06936718 0.104258105 -0.0046208836 -0.004584758 -0.044771038
0.03595019 -0.03909474 0.03278075 0.07128566 0.054257013 -0.06470153 0.095054485 -0.06812569
0.037252888 0.012217575 -0.055701535 -0.12074179 0.10652641 -0.04653035 0.07006496 -0.037038255
0.09857707 0.015173131 0.012526994 -0.0117528215 0.07957696 0.042478804 0.05330869 0.045359615
-0.000418269 0.13297695 -0.005996224 0.10259622 0.014624432 -0.011684526 -0.035869878 -0.049249526
0.054550715 0.119183965 -0.013853523 0.07066181 -0.06682425 0.018920502 0.041695133 -0.09887505
0.0571522 -0.044341605 0.05981815 0.09253819 0.06882746 0.089068815 0.070694774 0.01885159
0.116508715 -0.010495897 -0.028503997 0.041383807 0.030986806 0.034689646 -0.0055566933 0.043260276
0.046228174 -0.044149425 -0.025667079 0.11850456 0.09785995 -0.041451544 0.06286339 -0.016268669
-0.018849896 0.005052921 0.017439753 0.034129646 -0.021179516 -0.096866935 -0.061585825 0.0871608
0.063846484 0.041470524 0.040426333 -0.11924306 0.05693458 -0.11186266 0.14548886 -0.0368549
-0.016094582 -0.030711256 0.017956512 0.0725263 0.01036295 0.04563578 -0.026224671 -0.061552376
0.07697043 -0.0038234685 0.1509805 0.047723796 -0.05020099 0.09950468 0.026865771 -0.016454581
0.09198192 0.07726114 -0.011458028 -0.024434209 -0.019840458 -0.053237036 0.09988302 -0.0035934264
0.09548334 0.08912091 0.085616976 0.016650792 0.12146141 0.07063379 0.03494527 -0.016094163
0.06511985 0.044007093 -0.06748621 0.032468494 0.083455086 0.04118433 -0.013650387 0.09308204
0.09060769 0.015230765 -0.010368642 0.054516915 0.04957144 0.0013462531 0.0021374223 -0.0029096007
0.032267466 -0.020324335 0.036367916 0.02097589 -0.015448447 0.13416855 -0.0461948 0.026258867
-0.03531965 0.007177372 -0.079617485 -0.04217953 0.1066042 -0.013038683 0.037324134 0.028480843
0.099129416 -0.033001296 -0.055448692 -0.08374375 -0.009073219 -0.015523586 0.0002815041 0.05487655
-0.018877538 -0.002835129 0.053413138 -0.05298357 0.05076154 0.043432213 0.10970513 0.082721666
-0.013203048 0.0895595 0.08173897 0.049840633 -0.029279321 -0.045268312 -8.623137e-06 -0.06183789
-0.04707324 0.04597864 0.07642957 -0.041937348 -0.048033997 -0.054733846 0.1171822 0.12846327
-0.027833955 0.021942718 -0.026995962 -0.021337729 0.08454352 -0.120897256 0.06726807 0.02976285
0.021761984 0.045791134 -0.012387617 0.03382831 -0.016508773 0.026545038 0.07543688 0.01488636
-0.079845876 0.028996713 -0.022057893 -0.105771855 0.0672772 0.05224531 -0.041947592 -0.1104189

bond_lin.weight f4 [300, 23]
00000000: f5fd cc2a 22a1 1e3e 5655 683d 9d39 89be
00000010: af6e 3500 249d e81f bddd c632 76f9 0b2f
00000020: 2fdd 7aa9 9844 a4b7 14e6 01ab 542f 628c
00000030: 16d9 a93e 058f 50a9 fdb5 3536 35e2 ea32
00000040: d10f 7c2c e828 2f36 500f 271f 4344 c00e
00000050: f8c3 51a6 33ac c10a c14b ad34 e283 a3b8
00000060: f589 a93e e23e 1fba e208 fb3e 843d 5b3a
00000070: c91a 2f2c 045b 142a 787a cd29 aa85 61a6
00000080: a5c5 f1b9 be17 2e20 5b96 4fba 515c ed3e
00000090: 981f db89 920a 6a3a 987c 3580 ce8c 0ea3
000000a0: 4929 dc36 d321 c532 4a8d cfa4 18de db2b
000000b0: ac9b ef31 236a af97 cd0f aa2b 18fe 05bf
000000c0: 6ef6 413e be50 353d 178b 4720 466b 9c21
000000d0: 9e91 dd23 0dc2 4d39 1ba9 5921 2e40 012a
000000e0: e11a 5d31 4c98 20b1 590a 6c3d 9ab9 389f
000000f0: 1b2e 0a39 c02b ca36 350c 4238 6392 9137
00000100: b9e7 5191 bdbb 9bba 829a 17b3 b982 45ba
00000110: c91f 81b6 e8dd a495 39fc d8be 3e70 3ebe
00000120: 09b5 e63e 08ea 1294 645c 9036 0c16 10b6
00000130: ea4f 0037 cb60 051e 01ba 2337 f303 8898
00000140: f6ad 8db1 4eb1 bfbd 268b 3500 b7d8 2832
00000150: 1002 c138 f437 25b8 e256 e1a8 edda 15af
00000160: 7629 b628 0e1a cba2 b056 32ba 1958 0835
00000170: 0053 fb2f 18d1 f23e 60f3 e83e 5ce8 9d3e
00000180: 6917 10b6 e1bf 1fb0 1860 e836 09c7 0a26
00000190: 98b9 8f33 307d 6333 56e4 7cab c3b3 5ca3
000001a0: 6477 7bbe 8b72 da23 1de3 8fb4 94a4 cd0c
000001b0: 21a7 c5b6 1dc4 033a 8e86 95b8 052c b897
000001c0: 19de 05a7 635e 7124 633b 351b 718b ecaf
000001d0: a8d5 003e ee10 d43e 35b9 c63e f761 0025
000001e0: b71e b738 0d1e 00ad f113 1720 3aa9 a4b9
000001f0: dfa8 4533 6733 5389 9570 6c26 10ca 56bd
00000200: 2831 ddb5 b403 91a5 5b4d 8daf e70a 2e29
00000210: b27b 0db8 b127 17ba 30df 9f29 7f88 7638
00000220: 3dce a32c 326d 8ab9 0939 d3b7 5473 2cbe
00000230: 28b7 28bf 124e 353f 675d 03a7 00b6 6133
00000240: 0956 c52e 8606 7a34 1093 04b7 fc78 5738
00000250: 1409 1000 88ea 7495 bb51 5ebe f598 f6b8
00000260: 08ff e0b6 bab7 51b2 f33c b325 31b6 3523
00000270: 56fe 8aae d590 40b9 5e2a 2900 7b96 c1a7
00000280: a694 819a 19cd 4fb4 c5a0 063f aefa 323d
00000290: 4a59 013e a0c1 eeb7 6335 5836 97e8 ab0a
000002a0: 264d 9db1 16ef 1f84 dc37 4a19 38d1 2239
000002b0: 199d eab7 6cdc 973e b611 f92e 23a7 45b7
000002c0: 61ff 19ba f55b 40b1 3e1d 9db6 81a1 571d
000002d0: 07b1 57b7 5c25 982b 5453 7139 3060 dca7
000002e0: db4f 8521 ec9b 04bf 723a 02bf 4c89 adbe
000002f0: 216c 15aa 196b d4b6 6464 8630 c4b8 af14
00000300: e9ba 593a e4d1 b7b3 f8cb 9cb6 997a bd37
00000310: c661 b2bc 8078 d5b8 b785 3cb9 2629 d338
00000320: 4bfa 06a7 639c 32a3 fd44 171f fa1a 5539
00000330: fb7e 6b22 75ba 1ca7 594f b737 deb3 f531
00000340: 96c5 983e efd9 d7be 350c 423c efc5 3616
00000350: 3240 c08e 612a 4e33 a179 b8a9 cd8e 9cb0
00000360: 4eac 200c 505c d4ab 5ba0 2038 8cb1 0a3f
00000370: ad69 3580 75d8 1532 dd1b 260a 20cf 3415
00000380: d666 e4b2 99b3 fb2e cd7a 4e3a 0091 801e
00000390: 2448 301b 9ee2 a8ab b719 2a34 3f54 3b3e
000003a0: 0e7e 84be 7f78 aebd e665 8fb7 014e 4424
000003b0: bf2b 9ba1 7193 d439 1789 d827 1328 43a1
000003c0: ea38 2b9e 30d4 8239 3ca5 7dbe 1a0f 29b5
000003d0: c67d 9406 aa2c 2c34 bfd4 3630 22ff a9b7
000003e0: 466e 3c32 47b5 34a0 419b 46b4 1947 c30a
000003f0: ca8f 00ba b93c dcb6 2195 163b e7a6 13bf
3.6413898e-13 0.15491155 0.056722008 -0.26801768 4.906987e-39 9.851579e-20 2.3151069e-08 1.2730603e-10
-5.5702997e-14 -1.9582265e-05 -4.6149304e-13 -1.7424649e-31 0.33173436 -4.6309327e-14 2.7077033e-06 2.7344052e-08
3.5820134e-12 2.6100843e-06 3.5376292e-20 4.7397388e-30 -7.277703e-16 1.8649998e-32 3.227888e-07 -7.797011e-05
0.33113065 -0.0006074739 0.49030215 0.00083633536 2.4883865e-12 1.3176618e-13 9.125074e-14 -7.8243705e-16
-0.0004611436 1.4746229e-19 -0.0007918828 0.46359494 -5.2752043e-33 0.00089279667 -4.911977e-39 -7.727652e-18
6.561317e-06 2.29492e-08 -9.001129e-17 1.5622529e-12 6.9735133e-09 -1.1335903e-24 1.2083612e-12 -0.5234084
0.18941662 0.044266455 1.6901977e-19 1.0599366e-18 2.402254e-17 0.00019622613 7.374627e-19 1.1479768e-13
3.2175012e-09 -2.3369635e-09 0.057627056 -3.911704e-20 0.00013177881 6.0251623e-06 4.6264573e-05 1.7353514e-05
-1.6558598e-28 -0.0011881512 -3.529795e-08 -0.0007534433 -3.8482e-06 -6.658918e-26 -0.4237993 -0.18597504
0.45059994 -7.417271e-27 4.30229e-06 -2.1470505e-06 7.648001e-06 7.060978e-21 9.7588645e-06 -3.5159164e-24
-4.123417e-09 -0.0935999 4.917198e-39 9.828162e-09 9.203341e-05 -3.9391176e-05 -2.5017697e-14 -1.3629249e-10
2.022404e-14 -5.5050847e-18 -0.00068030786 5.0792147e-07 4.571561e-10 0.4742515 0.4549818 0.3084134
-2.1471299e-06 -5.811654e-10 6.9253256e-06 4.814811e-16 6.692716e-08 5.2966413e-08 -8.9845264e-13 -1.196429e-17
-0.24557263 2.3684118e-17 -2.6801072e-07 3.1684303e-31 -5.890514e-06 0.00050264766 -7.1299364e-05 -1.1901833e-24
-1.8577857e-15 5.2338493e-17 1.4991158e-22 -4.302723e-10 0.12581503 0.41419166 0.38813177 1.1135422e-16
8.731841e-05 -7.28263e-12 1.2796796e-19 -0.000314066 4.6021224e-08 -2.542237e-33 8.2031525e-16 -0.052438796
-1.648009e-06 -2.5156e-16 -2.5702715e-10 3.8645218e-14 -3.373222e-05 -0.00057661074 7.099735e-14 5.8778092e-05
4.6556357e-12 -0.00026402768 -2.517972e-05 -0.16840869 -0.65904474 0.7082225 -1.8230536e-15 5.2552423e-08
8.973806e-11 2.3285438e-07 -7.902054e-06 5.137267e-05 1.472625e-39 -4.946042e-26 -0.21710865 -0.000117586846
-6.7054098e-06 -1.2207176e-08 3.109285e-16 9.85061e-18 -6.3206926e-11 -0.00018364501 3.780454e-39 -5.3731412e-15
-5.3593304e-23 -1.9352991e-07 0.52589065 0.043696098 0.12631717 -2.8461975e-05 3.2217583e-06 1.6554192e-32
-4.578072e-09 -1.8800143e-36 1.0454436e-23 0.00015527464 -2.7968128e-05 0.29660356 1.1326355e-10 -1.178103e-05
-0.0005874541 -2.7991949e-09 -4.682369e-06 2.8538509e-21 -1.2856216e-05 1.0810619e-12 0.00023014593 -6.1166553e-15
9.033568e-19 -0.5180042 -0.5087043 -0.33893812 -1.3271373e-13 -6.33056e-06 9.778316e-10 1.7743361e-26
0.0008305745 -8.5597804e-08 -4.6729074e-06 2.2587645e-05 -0.021775138 -0.00010179076 -0.0001797889 0.000100689285
-1.873192e-15 -9.6825155e-18 3.203256e-20 0.00020323312 3.1915662e-18 -2.1750428e-15 2.185225e-05 7.150887e-09
0.29838246 -0.42158458 0.011843731 1.47643e-25 -4.7393472e-30 4.8001656e-08 -8.192341e-14 -1.139108e-09
1.2377803e-31 -1.5089128e-12 3.8296315e-05 0.54177165 -4.90519e-39 8.722158e-09 7.99785e-33 3.6514103e-26
-2.6589458e-08 1.14460615e-10 0.0007876575 1.3612498e-20 1.4581689e-22 -1.2000017e-12 1.5841839e-07 0.18293856
-0.25877422 -0.085190766 -1.7094379e-05 4.2566797e-17 -1.0514788e-18 0.00040545643 6.0100676e-15 -6.612161e-19
-9.064434e-21 0.00024953624 -0.24770063 -6.297938e-07 5.585622e-35 1.6034997e-07 6.6513545e-10 -2.0265175e-05
1.09681135e-08 -1.5306573e-19 -1.8496668e-07 1.8804561e-32 -0.0004904239 -6.56358e-06 0.0022977071 -0.5767655

bond_lin.bias f4 [300]
00000000: 2951 053e 2e61 2f3e e89b 2abd 728a 093e
00000010: 9f45 9ebd 69a2 0a3d fe55 78be 27cb dfbd
00000020: 52cd 8ebd e0e8 2f3e 3301 c8bd b092 fabd
00000030: bb46 81be 56fc d43d 12d6 06be e4ec a1bd
00000040: 1274 c9bc d390 afbd d86a 2e3e dc1e 4abe
00000050: 92b3 a73c 7834 183e 478e 75be f570 253e
00000060: 7947 833c 0822 c3bd 50f6 503d f9e5 8e3d
00000070: 4db1 5c3d bec6 3bbe 14f3 55be 5420 0d3e
00000080: 767e a83d 6352 e8bc fd84 23be 3391 413e
00000090: cac2 68be 1f2e 203e 1239 a4bd 566c 853d
000000a0: 6f97 2dbe 1ff7 1b3e ffe8 b43d 7fb3 ee3d
000000b0: cbbd 6abe 005c f53d 0234 003e da67 453e
000000c0: 7989 243e 5c30 953c 11c1 143d 321e 5cbe
000000d0: 5ea6 e5bd 8f9f c5bb 1504 b63d 4322 a2be
000000e0: 2cfe 82be 5766 16be e857 81bd 6f95 1cbe
000000f0: 7b05 eb3c a302 2abd 955c 53be bfeb 64be
00000100: 5834 ca3d 0e6f 9ebe 1a89 50bd 79db a83d
00000110: 15fd 5d3e f710 213e bd41 163e ad23 4b3d
00000120: b4e0 c03d 6438 b5bd ddac 77bd 1d5d 633e
00000130: 56a7 fc3d 318f 4e3d 6e55 98bd 35e0 2cbe
00000140: d842 4a3d f347 573e c500 0c3b 4c63 543e
00000150: b43a 8b3d 32bb f43d 9754 26bc e3a3 953c
00000160: 8fc8 be3d 570e c8bd d66d 5cbd 530d 803c
00000170: 8dfc 84bd 40cd 673e a02b 4cbe 834c f5bd
00000180: ca69 2a3b 7ad2 3dbe 14cd 72bd ab72 383e
00000190: dde8 f83c 9a41 0e3e 491e d6bd 70c6 bb3d
000001a0: 7a67 363d 84dd 83be 03da ea3d 400b c83d
000001b0: b772 593e ea05 39be 7ea5 38be 12c1 de3d
000001c0: a06b e73d d7bb 4ebe f5c9 c13d 6b37 1cbd
000001d0: 2f2f c4bd fc34 823d fe77 8ebe 3e27 01be
000001e0: 7a71 dcbd 244d febd 0dfe c43d 698b b8bc
000001f0: 2826 ca3d 7346 20be 39e7 19be c61e 35bd
00000200: b771 0dbe 1719 673e 85f0 1d3e b9d5 59be
00000210: 4a92 d43d fc34 593d 48ac d0bd 0de5 a23d
00000220: f9cb 0d3d 1ca8 5b3e 748a 0dbe 3814 d1bd
00000230: 7357 833e f1e2 17be 2211 163e 24f5 e13d
00000240: b736 2dbc 0774 56be 73bd bb3e 3570 f5bc
00000250: 7ccf 71be 6672 0a3e 52f2 fbbc 7f46 31bd
00000260: 0704 b93e d727 ccbd 552f 30be a8f7 4dbe
00000270: b99b a63c 6af1 da3d a252 053d e4c7 a23a
00000280: 1af5 653d eefd 2e3e 90c7 a23d 4c41 b93d
00000290: 0134 0bbe ef7c a03d 6e21 193d 52c1 783d
000002a0: cd46 e2bc d0a3 61bd 94ef 293e f375 093e
000002b0: 7c7e 89be 5989 18be 65ca 99bd fbc9 0a3e
000002c0: a244 623e 888e c23d 9879 81bc c46d f1bd
000002d0: 2aeb 373e 4a66 8a3e 0112 733d 2f7c acbd
000002e0: 6e63 0dbe 069b c0bc d79f 89be 5ef7 c9bd
000002f0: 8a2f 55be 2258 743e 62f7 c7bd 67bb 1d3d
00000300: 00b2 083e f0f0 413e 1452 52be 08b9 2bbe
00000310: 188d 103e 0a20 4a3d d8a1 2cbd 6e65 adbd
00000320: f888 c9bc c5e2 9e3d 3f85 34be 1ad2 803c
00000330: 5ab5 ebbd 2521 0b3d f849 313e 8024 753e
00000340: 171f aebd c128 c2bd 47fc 91be 2bb7 adbd
00000350: 796e 65be 19b1 4ebe aec8 5e3e 2ede 30be
00000360: 190e 8b3d 0224 1d3c 416d 8dbd f699 623d
00000370: e316 9ebd ca23 723e 0543 b03e 17d8 89bd
00000380: a319 0cbd 633a 713e ffb8 203e 1a0a e93c
00000390: 3c74 0a3e 88d8 dc3d cad1 acbc d8a7 9dbd
000003a0: 1d66 593e b777 ddbd ff31 d7bd 4675 2b3e
000003b0: 0bdc 203e a1f2 35be e961 42be ac70 113e
000003c0: 31d0 a0bd bdc6 d33c 4899 48bd b5f6 54be
000003d0: c56c 263e efe3 5d3e 2a86 dbbc 533d bdbd
000003e0: 0068 4e3e af55 4cbe 7fc6 1bbe 78db 1e3e
000003f0: 9076 2c3d 078d 0fbe 3ab2 4bbe 6470 34be
0.13019241 0.17126915 -0.04165259 0.13431719 -0.07728123 0.033846293 -0.24251553 -0.1092742
-0.069727555 0.17178679 -0.09765854 -0.1223501 -0.25249276 0.10399692 -0.13167599 -0.079065114
-0.02459148 -0.08572545 0.17032945 -0.19738334 0.020471368 0.14863765 -0.23980056 0.16156371
0.016025292 -0.09527975 0.051016152 0.069774576 0.053880025 -0.18337533 -0.20893508 0.13781863
0.082272455 -0.028359598 -0.159687 0.18903045 -0.22730556 0.15642594 -0.08018698 0.06514804
-0.16952299 0.15230988 0.08833503 0.1165533 -0.22923963 0.11980438 0.1251984 0.19277897
0.16068067 0.018211536 0.036316935 -0.21495894 -0.11213373 -0.0060309838 0.08887497 -0.31666765
-0.25584543 -0.14687477 -0.06315595 -0.1529138 0.028689137 -0.04150642 -0.20640786 -0.22355555
0.09873265 -0.30944103 -0.050912 0.08244986 0.21678574 0.15729128 0.14673515 0.04959457
0.09417859 -0.08848646 -0.06046759 0.22203489 0.12336604 0.050429527 -0.074381694 -0.16882403
0.049380153 0.2102354 0.0021362763 0.20741004 0.06798306 0.11949767 -0.010152004 0.018266624
0.09315597 -0.0976836 -0.053815685 0.015631353 -0.06493483 0.2263689 -0.19938517 -0.11977484
0.0026002997 -0.18537322 -0.05927761 0.18012492 0.030384475 0.13892213 -0.10454995 0.09168708
0.044532277 -0.2575494 0.11467364 0.09767771 0.21235166 -0.18068662 -0.1803188 0.10876669
0.11299825 -0.20188843 0.09462348 -0.03813879 -0.09579312 0.06357762 -0.27825922 -0.12612626
-0.107638314 -0.12417057 0.09618769 -0.022527413 0.09870559 -0.15651874 -0.1502961 -0.0442188
-0.1381291 0.22568165 0.15423782 -0.21272935 0.10379465 0.053029045 -0.1018911 0.07953844
0.03461835 0.21450847 -0.13822347 -0.102089345 0.25652656 -0.14832665 0.14654973 0.11033085
-0.010572127 -0.20942698 0.36667976 -0.029960731 -0.23614305 0.13520202 -0.030755196 -0.04328012
0.36135885 -0.09968536 -0.17205556 -0.20114005 0.020337926 0.10690577 0.032549508 0.0012419191
0.05614195 0.17089054 0.0794822 0.090456575 -0.13594057 0.07836329 0.037385397 0.06073124
-0.027621651 -0.055087864 0.16595298 0.134239 -0.26854312 -0.14896144 -0.07509307 0.13553612
0.22096494 0.09499842 -0.01580505 -0.11788514 0.17960802 0.27031165 0.05934334 -0.08422124
-0.1380746 -0.023511421 -0.2687976 -0.09861635 -0.20818916 0.23861745 -0.097639814 0.0385088
0.13349152 0.18939567 -0.20539123 -0.16769803 0.14116323 0.04934696 -0.042146534 -0.08466612
-0.024601445 0.077580966 -0.17628954 0.015725184 -0.115091994 0.033967156 0.17313373 0.23939705
-0.08502024 -0.094804294 -0.28512785 -0.08482202 -0.22405423 -0.20184745 0.2175624 -0.17272255
0.06789798 0.009591104 -0.06905604 0.05532261 -0.07719209 0.23646465 0.34426132 -0.06730669
-0.034204137 0.23557429 0.1569557 0.0284472 0.13520902 0.107834876 -0.021096129 -0.07698029
0.2123036 -0.108138494 -0.10507583 0.16743955 0.1570894 -0.17768337 -0.18982662 0.14203137
-0.07852209 0.025851602 -0.048974305 -0.20797236 0.1625243 0.21668981 -0.026797373 -0.09240212
0.2015686 -0.1995456 -0.15212439 0.15513408 0.042105258 -0.14018641 -0.19892207 -0.17620999

energy_lin.1.weight f4 [300, 300]
00000000: 7756 2ebe 30cb e43c 5184 90bd aa12 e53d
00000010: b5ad 5bbd 8673 65bd 1a3d 9dbd c8c8 f1bd
00000020: 1f80 2e39 6ff5 2d3d 7d5b 0c3e 7fe8 79bd
00000030: ef2c 22bd c1e2 c53d d5b5 c6bd 1913 c6bc
00000040: 12f9 f8bd 6482 bdbd c7e8 863d b371 293e
00000050: 54e6 ef3d c583 10be 4284 9c3d d7b3 bf3d
00000060: 849d d23d fede b9bd 5209 803d c426 0fbe
00000070: ea6a a83d 14d0 b5bd 499a ae3d 7fcb a43d
00000080: 7f60 f4bc 4261 183d fafa 04bd c389 123d
00000090: 1dd6 5abd 815c a23d e6a5 653c a021 69bd
000000a0: 922d 0e3e 3e3a 31bd 0774 1b3e 0b06 063e
000000b0: 03bc db3d 8abd 113d cf03 b53d ba12 8ebd
000000c0: 5db7 b03d 26d4 b73d fca6 ccbc dd91 a4bd
000000d0: 2b14 643d 67ad 3abc b80b 2bbe 4e40 e1bd
000000e0: e960 29bd 90ce 2d3d d1bb 1dbb 75e2 f83d
000000f0: 60c4 1dbd c34c 73bd eba8 86bd c745 5bbc
00000100: fadf 15bc 8535 ba3c 445f 693c 1a46 a33d
00000110: 3854 90bb a9c3 093d bbc9 c03d b0a7 cabd
00000120: bfbc d1bd dfa7 b5bd a271 e7bd 6d6c ac3d
00000130: 7da9 8ebc 34e0 c13a 59ec febd d84a 893b
00000140: d996 2ebd 1857 b43e b300 a43d f0ee 14bb
00000150: 1940 d33d 697f 183b b2f3 a2bd 84ad 253d
00000160: 32de d6bd 9d32 5c3d f5e6 bcbd cd90 c1bd
00000170: bf3a af3c 3087 3e3c 6ac8 693c e0f9 de3d
00000180: 7e45 163e bd67 c73c 0284 9cbd cb01 373c
00000190: d851 953d 381e 90bc 0045 56bd e485 01be
000001a0: 3f11 95bd 0e44 1f3e aeb2 fd3d fbda 273c
000001b0: 12d3 b13d 2b25 e5bd 2c95 b1bc b2f7 c83d
000001c0: 1973 74bc 3cf2 c0bd 6c1e f83c 3f0d 353e
000001d0: ef95 253d 98ca c73d aa52 d7bd a962 d53d
000001e0: ccee 573d 6154 d9bd d3c4 263e e942 c1bc
000001f0: 5369 8a3d dcf4 89bd e8d7 2a3e 5a45 1e3e
00000200: d9a8 bd3d 92f8 b83d d353 c1bd ee1a d4bd
00000210: 7200 6f3c 294f f03d 04be 7fbd 1e44 e83d
00000220: 719d c8bc dd76 033e 2ae5 d43c 0d3e 053e
00000230: af3e f83d 7e50 0d3d 24e2 98bd 8a27 a3bd
00000240: 2dab f13d 360f d7bc 572a cc3e b8ad f13b
00000250: a60b 903d ba57 16be afed 983d 8a6b e03d
00000260: db75 a83d e5b1 7d39 5241 0dbd fa71 2fbd
00000270: da7c d8bd 5227 8a3d e11c 243d 9a31 07bc
00000280: 444c d33d e748 f33d a213 aebc 1be1 cb3d
00000290: 82c5 223d 9131 2fbd b9f1 60bc 573c 313d
000002a0: 9903 203e cd42 833b efc7 d4bc 9c2a 863d
000002b0: 475d 96bd f211 8b3d 8e89 25bd 50af 1d3d
000002c0: c687 363b 4c5a 333d fb92 86bd 601c ebbd
000002d0: 6ed4 723d 80ce 053e eb2b be3d 733b 803d
000002e0: a97b b1bb 7fc2 db3d 6b05 2c3e 5ec2 9f3d
000002f0: 4f2d 003e ae0b f43d 25cd 233e bf36 e53d
00000300: db82 debd ae2d 34be 18de c03d d3b3 023e
00000310: 4f06 5ebd 6222 f73d a513 96bd 6dc1 573d
00000320: 95da 793d 8e8c 0e3e 2be3 88bc 2ed1 ed3d
00000330: 767f 923d f392 0a3e d39f de3c 1ae1 8cbd
00000340: 879e 9c3d ada1 97bc f9c1 d93d ff29 debc
00000350: ba5c 363e 240f 36bd 67c7 973d ce00 1f3c
00000360: 80d4 d5bd 48a7 d0bd 16bd 1a3e 274e 373c
00000370: 33be c13b 2e1e 123e db52 76be e443 8cbd
00000380: 4257 19be 79bb 9c3d fd14 e43d 5f42 0f3e
00000390: d673 c93d 94d1 f6bd 5617 1b3e ac58 7dbd
000003a0: 0052 cc3d 2c45 1f3e eb79 ec3d d2b5 d33c
000003b0: 2b01 f6bd 761e ed3d e943 7c3d 96b0 15bd
000003c0: 90e4 483d 2c88 6a3d 6535 793c 951a 363e
000003d0: 4d29 a5bd 5aec cbbc 7dd3 4c3e 192b 27bb
000003e0: e038 ff3d fe13 b63d 1b56 063e 5d0a 10be
000003f0: 5e75 f5bc 847c 82bd 6446 863d 6ca4 0cbe
-0.17025171 0.027928919 -0.07056487 0.111852005 -0.053632457 -0.056018375 -0.0767767 -0.11805874
0.00016641662 0.04247039 0.13706775 -0.06101274 -0.039593633 0.096623905 -0.097026505 -0.024179028
-0.121568814 -0.09253386 0.065873675 0.16547279 0.117138535 -0.14112766 0.07642414 0.093604736
0.1028395 -0.090757355 0.06251778 -0.13979632 0.08223517 -0.088775784 0.08525521 0.08046626
-0.02983117 0.037202127 -0.032465912 0.03577591 -0.05342685 0.079278 0.014016604 -0.056916833
0.13884571 -0.043268435 0.1518098 0.13088243 0.1072922 0.03558115 0.08838617 -0.069371656
0.08628724 0.08976011 -0.024981968 -0.08035634 0.055683296 -0.011393881 -0.16703689 -0.10998593
-0.041352186 0.04243332 -0.0024068246 0.12152568 -0.038517356 -0.059399378 -0.06575187 -0.013383335
-0.009147638 0.022730598 0.0142439045 0.07972355 -0.004404571 0.03363386 0.09413477 -0.09895265
-0.102410786 -0.088699095 -0.113009706 0.08419118 -0.017414803 0.0014791549 -0.124474235 0.0041898303
-0.04262433 0.35222697 0.08007946 -0.0022725426 0.1031496 0.0023269302 -0.079566374 0.04044868
-0.10491599 0.053759206 -0.09223739 -0.09451447 0.021390317 0.011628911 0.014268974 0.108875036
0.14674947 0.024341458 -0.07642366 0.011169861 0.07291001 -0.017592534 -0.052311897 -0.12648731
-0.0727868 0.15553305 0.12387596 0.01024508 0.086828366 -0.1118873 -0.021677576 0.09812869
-0.01492002 -0.094212025 0.030287944 0.17680834 0.04042619 0.097554386 -0.10513814 0.104192086
0.05271797 -0.10611797 0.1628602 -0.023591476 0.0675837 -0.06736156 0.16683924 0.15456143
0.09260721 0.09031786 -0.09439816 -0.10356699 0.0145875085 0.117338486 -0.062437072 0.11341117
-0.024489136 0.12838311 0.02598818 0.13011952 0.12121331 0.03450059 -0.07465008 -0.07966526
0.11800227 -0.02625237 0.39876053 0.007375445 0.07033472 -0.14681903 0.074672095 0.109580114
0.08225604 0.00024194231 -0.034486122 -0.042833306 -0.105706885 0.06745781 0.040066604 -0.008251572
0.10317281 0.118791394 -0.021249596 0.09955045 0.03973914 -0.04277188 -0.013729506 0.043270435
0.15626372 0.004005766 -0.025974242 0.06551096 -0.0734201 0.06790532 -0.040414385 0.03849727
0.0027851923 0.043787286 -0.06571003 -0.114800215 0.05928462 0.13067055 0.092857204 0.06261339
-0.005416353 0.107304566 0.16798942 0.078007445 0.12517284 0.1191629 0.15996225 0.111920826
-0.108648024 -0.1759555 0.09417361 0.1276391 -0.054205235 0.12067105 -0.07327966 0.0526747
0.06099947 0.13920805 -0.016709885 0.116121635 0.071532175 0.13532619 0.02717582 -0.06878872
0.07647424 -0.01850971 0.106327005 -0.027119635 0.1780881 -0.044448033 0.0741108 0.009704782
-0.10440922 -0.10188156 0.15111193 0.011188067 0.005912566 0.14269325 -0.24055044 -0.068488866
-0.14974692 0.07652945 0.11136816 0.13990162 0.09836547 -0.120516926 0.1514562 -0.061852142
0.09976578 0.1555373 0.115466915 0.025843535 -0.120119415 0.115780756 0.0615882 -0.03654536
0.0490461 0.05725877 0.015210484 0.17783578 -0.08064518 -0.024892975 0.20002551 -0.0025507866
0.1246202 0.08890532 0.13118784 -0.14066453 -0.029963192 -0.06371406 0.06556395 -0.13734597

energy_lin.1.bias f4 [300]
00000000: 0f4e 0f3d fda9 9e3d b63f f93b df22 5c3d
00000010: 5fc9 8a3d 0273 263d 7cf5 313d 57e2 9f3c
00000020: 9bf5 993d acf4 8cbc 7c11 0d3d 684b 283d
00000030: 6ba6 14bd e4a3 b9b9 e93e d1bb 2d18 013d
00000040: ab17 1cbd 5502 cbbc a9f0 16bd 452f 8d3c
00000050: 9a24 52bc 8b6e 1b3d 2286 76bd 94df e93c
00000060: a08a b939 4034 7fbc 49e0 9a3c ecab 683d
00000070: 6d11 813d 4ced 45bc c3e0 933d 546a 8b3d
00000080: d4fa 363d e3d0 82bb d7ee 263d 7564 183d
00000090: bca2 4dbc abe2 193d b644 273d 7988 de3c
000000a0: 5273 2f3d e868 8a3b 84d5 f03b 6f80 01bd
000000b0: bed1 3b3d 77cd 863d ab2f be3a daba e6bc
000000c0: 6bdc 603d 9c3c 2a3d 7492 fa3c e0e5 f03c
000000d0: b532 1abd 0a14 1f3d 3527 c0bc 3863 3d3d
000000e0: b88d 3f3d 8588 3580 c10c cd39 535b 103d
000000f0: 7576 703a e202 033d 52a2 01bd 6853 3e3d
00000100: 850d 0e3d c6da 893d e556 813d 804f 54bc
00000110: 4bb1 c0bb b53b c23c fc3e 1b3d 143e 353d
00000120: 6fd5 503d 21f9 edbc da67 e9bc 9f0c f3bc
00000130: e748 f2bc 85b9 963d d864 3a3d e9bf 31bd
00000140: d088 ce3c 30ac 0e3d 69d6 a93c dede 84bc
00000150: 9b91 5e3d 5201 433d b872 33bc bec6 b7bc
00000160: 5ca0 21bc 01dd 043d 6ad7 833c 0ed6 da3b
00000170: 76b3 07bd f852 4e3d ac5c 873c 2a40 c03c
00000180: 80d5 96bc b45c 363c 6d27 32bb 5a78 143d
00000190: 74f6 e6bb 54e0 cd3b 923c 553b 8f1c 393c
000001a0: 5791 0e3d f200 143d 9bdb fa3c c7ff 23bc
000001b0: 46dd 2a3d 936c 4bbd a1eb a4bc e12b 483d
000001c0: e144 643d 66ee ca3c 2b13 e73c 1a94 77bc
000001d0: d80d f23c d455 483d 481a 723d 403f bdbb
000001e0: 5a5c 393c 03e4 0f3d 116a 25bc 6a38 a1bc
000001f0: 0aaf 0a3d d4d7 b23c a4d1 f8bc 7743 5d3d
00000200: 1f65 413c 31ee 6dbc 45e2 933d 32d8 223c
00000210: ebe5 39bd f5f3 0a3d f520 b83d fbb0 803d
00000220: 39be f6bc d36e dcbc 12dd b2bc 3c6f 3ebd
00000230: 153c 033d b6b3 3a3d ed4b 6a3d 7eb1 8ebc
00000240: 0f30 0f3d 492a ce3c 72c4 303d 05b3 debc
00000250: b9d1 353c 5c8a 93bb 1bc4 9e39 bd00 d33c
00000260: 11df 56ba 26c0 ad9d 680e 413d 8f38 463d
00000270: 0221 833d be62 a5bc ca98 393d 836e a7bc
00000280: 7e59 86bb c00a 00bd c670 bd3c 9687 14bd
00000290: c245 f1bc 2c0a d43c bf41 27bd 4d1b 503c
000002a0: 55ee 7339 75a2 afbc 638c 653d 0ca9 79bc
000002b0: 8143 223d a9e6 01bb 5d24 5f3d d2d4 febc
000002c0: 98a8 14bd c7a7 7e3d c3d5 743d 3c36 4c3d
000002d0: 20de 06bc 54f2 2d3d bded 35bd 84bf 1d3d
000002e0: fb5c 103c c323 733c 0d33 073d 2321 643d
000002f0: 5101 94bc e86d 41bd 59a2 0b3d 1e8b 523c
00000300: 9c37 6d3d 77e5 663d 9a52 a2bb f883 f4bc
00000310: b978 7cba f243 1e3c 1a99 33bd 4a5e fcbb
00000320: 2672 713d cee9 fdbc a341 80bd 5df6 53bc
00000330: b7aa 3e3c 486e 86bb ee17 4f3d 29e7 833d
00000340: 1cbe 8d3d 202f babc 4c38 f5ba f3f0 cd3a
00000350: 4e4c 8c99 925f 2d3d d5d2 b9bc 9a90 913d
00000360: aea3 613d be0b 4d3d 6dce 4a3d 98de e73b
00000370: 2e0c 683d f859 153c 70e5 dc3c 0b0d df3c
00000380: 9232 7e3c aeec 913c c73a 92bc 30a6 88bc
00000390: c18a 46b9 a1d2 a33c f0e7 273d 8e5a 893d
000003a0: c559 993c 84bb 94bc 0399 583d b5b9 54ba
000003b0: 4390 8a3d 9e14 453d cc3e 0e3d 9023 743b
000003c0: 3928 593d d4e7 793c 615b 183d c464 793d
000003d0: 2ee4 81bb 896e f3ba 3106 17bd 5855 773d
000003e0: 46c0 aabc fedb 613d f9b6 10bd 27d0 75bd
000003f0: 1a40 4ebd d8eb 713d 0cd7 803d b46f 393d
0.03498655 0.077472664 0.007606472 0.053744193 0.0677669 0.040637024 0.043447003 0.019517107
0.07517549 -0.017206512 0.034440503 0.041087538 -0.03629152 -0.00035408058 -0.0063856733 0.031517196
-0.03810851 -0.024781385 -0.036850605 0.017234454 -0.012826109 0.03794722 -0.060186513 0.028548993
0.00035389233 -0.015576422 0.018905776 0.056804582 0.06302152 -0.012080502 0.07220604 0.0680739
0.044672802 -0.0039921864 0.04075512 0.03720518 -0.012551006 0.037569683 0.040837012 0.027164685
0.042834587 0.0042239316 0.007349672 -0.031616624 0.045854323 0.06582158 0.0014510056 -0.02816527
0.054897707 0.041561708 0.030587412 0.029406488 -0.037646014 0.03883747 -0.023456195 0.0462372
0.046766013 -4.916255e-39 0.0003911015 0.035243344 0.0009172925 0.03198517 -0.03164894 0.04646626
0.034680862 0.06731181 0.06315402 -0.012958407 -0.00588051 0.023710111 0.037901863 0.044248655
0.050984796 -0.029049458 -0.028491903 -0.029669104 -0.029575778 0.07359604 0.04550633 -0.04339591
0.025211722 0.03483218 0.020732122 -0.016219553 0.05433808 0.04760868 -0.010952644 -0.022433635
-0.009864893 0.03243733 0.016093928 0.0066783493 -0.03313013 0.050372094 0.016523682 0.023468096
-0.018412352 0.011130501 -0.0027184144 0.03624759 -0.0070484225 0.0062828455 0.0032537323 0.011298313
0.034806576 0.036133714 0.030622294 -0.010009713 0.04171493 -0.04966409 -0.020131888 0.04886997
0.05572975 0.02477188 0.028207382 -0.015110994 0.029547617 0.048909977 0.059107095 -0.0057753623
0.011313522 0.03512956 -0.010096089 -0.01968022 0.033858337 0.02183143 -0.030373402 0.054019418
0.011803894 -0.014522121 0.07220892 0.00993924 -0.045385282 0.03392406 0.08990661 0.06283756
-0.030120002 -0.026908314 -0.02183393 -0.0464928 0.03203972 0.045581542 0.057201315 -0.01741862
0.03495794 0.025166648 0.043156095 -0.027184973 0.011097365 -0.0045025777 0.00030282218 0.025757188
-0.00081966916 -4.5991396e-21 0.04713288 0.048393782 0.0640278 -0.020188686 0.045311727 -0.020438438
-0.004100024 -0.031260252 0.023125064 -0.036262117 -0.029452208 0.025883757 -0.040834185 0.0127018215
0.00023263071 -0.02143977 0.056042086 -0.015238058 0.039615158 -0.0019821322 0.054478038 -0.03110734
-0.036293596 0.062171724 0.05977417 0.04985641 -0.00823167 0.04246743 -0.044416178 0.03851272
0.008811231 0.014840069 0.03300767 0.055695664 -0.018067034 -0.047223955 0.034090374 0.012850551
0.05791436 0.05637118 -0.0049536945 -0.029848084 -0.0009631026 0.009659754 -0.04384718 -0.00770167
0.05894675 -0.030995276 -0.06262519 -0.012937156 0.011637381 -0.004102502 0.05055993 0.06440575
0.06921026 -0.02272755 -0.0018708794 0.0015712067 -1.450648e-23 0.04232747 -0.02268354 0.07107659
0.055087738 0.050060026 0.04951327 0.007076096 0.05665224 0.0091156885 0.026964873 0.027227899
0.015514987 0.017813053 -0.017850293 -0.016680807 -0.00018934441 0.019997897 0.040992677 0.06706725
0.018719563 -0.01815582 0.0528803 -0.00081148307 0.06765797 0.048115365 0.034727857 0.0037252642
0.053016875 0.015253026 0.03719652 0.060887113 -0.0039639687 -0.0018572371 -0.03687114 0.060384125
-0.020843636 0.05514144 -0.035330746 -0.060012963 -0.0503541 0.05906281 0.06291017 0.045272544

energy_lin.3.weight f4 [150, 300]
00000000: 485b c7bb 8b95 78bd 9778 063e 2b88 6cbc
00000010: a76b a5bd e724 7a3d 6622 b8bd 3c38 c33d
00000020: be90 12bc 3206 2f3e 056c e1be adfd 18be
00000030: edc5 3ebd e1f1 993b 1976 033e 5905 1fbd
00000040: 81d6 773d 772f b83c d67e dfbd 5d17 203e
00000050: 089f fe3d 674a adbd 16cb cfbd de15 8c3d
00000060: 4c90 a2bd 3b72 7abd d37f 31bc 8218 aebd
00000070: 06a8 88bd 989b 213e f713 0ebe 759d 523e
00000080: f756 86bb a4fc cb3d 0576 5b3d 7508 dd3c
00000090: 3455 79bd ba1c 4cbd 49f1 c63d f316 083d
000000a0: f8c7 a13d 0aad a23d 4ce8 02bc e69b fd3d
000000b0: 8b4a 4c38 cfc5 a0bd 15b8 34be 460c 563c
000000c0: 339f 7dbd b449 953d 662c ae3d d49f 963d
000000d0: 4d1b b33c cca2 26bd 58e7 6e3d 1e8b 56bd
000000e0: 2295 053e ba86 c385 aa38 80be 1fe1 c93d
000000f0: 9977 00bd 67c0 18bd 6dc2 cb3e 1613 cdbc
00000100: 6d22 2a3e c4ef 103c ad0a dc3c 2025 a03d
00000110: 5619 a23d e3ec 213c b168 45bd ebfa 03bc
00000120: 53ee aabd 6b71 c1bd bd9d 18be 2097 213e
00000130: 48db 9dbd 5ca5 8ebc b932 9f3c 408c e63d
00000140: 2b80 533e 1c08 2b3e d0f9 c5bd f383 69bd
00000150: f4d6 2d3e 4d04 853d 3d72 013e d499 983a
00000160: 51ce 2a3d 0ac0 1dbe 277b d13d 36d7 36bd
00000170: 0d61 9fbc 0a36 45bd 5a6c ad3c e2bb ab3d
00000180: 3f89 783d b97f aabd 04f6 533d 2611 153d
00000190: 82ab 853d bc0d 113e b3f6 013e a4fd bd3d
000001a0: 455d 0c3e e44e 4bbc 75fa 3dbe eca1 ca3d
000001b0: 01e8 7c3d 0caf 5fbd 3d57 e33b adec d7bd
000001c0: e1f9 3a3d 0e6f acbc 4ea9 aabd 3a24 56bd
000001d0: 0d26 d83c 7b2c 0a3e c997 cc3c aa69 253d
000001e0: f6fe 1bbe 8e05 743c a803 463e 06f4 0cbe
000001f0: e294 f23d 9843 b63d 7b92 a6bd df28 1cbe
00000200: 7ca0 163e aca6 d1bd be38 983d 86af 73be
00000210: 8871 b0bd 17aa 283e 306c 91bc 5014 1a3e
00000220: ea8f b0bd 3ecd 063e 93d3 9d17 73c8 a7be
00000230: b6a8 843d aca3 3b3c f06f 39bc 82da 8ebd
00000240: 0a8f f93d 0a13 7fbd cfd1 1dbe 16d1 943d
00000250: 91eb f4ba 2b46 e33d 08b8 893d a2c2 5e3d
00000260: 3d8f 213d 8952 981d 5936 183e 9603 06be
00000270: 24d2 3bbc c5fd c13d 42ee 7dbd 6375 b3bd
00000280: 715e 2b3c 48d7 013e af79 53bd 55bb ca3d
00000290: 86c1 a3bd ded1 fcbd 13b7 783d b081 ae3d
000002a0: 0cbd f83d f7e0 013e ba2b b0bd 30f8 1abe
000002b0: 2727 a1bd 4ddd 0d3b c15a 39be 3952 733d
000002c0: 0c9f 423d 060c ea3d 9523 26be aab8 b43d
000002d0: 04e2 7bbd 6a65 aabd 6b66 de3d 6eca 00bd
000002e0: 3a10 1c3e a513 43bb 22da c33d 7007 083e
000002f0: 3978 8ebd 7c8c 0ebd f1c3 e83d 0eed 903d
00000300: 7c6f 10bc 5cfe 233e f239 b6bd 7692 72bd
00000310: bf4a 6b3d de77 60bd d1bc 26bc cd1f 03bc
00000320: d31d c73b fa66 383e e7ac 933d db45 fabd
00000330: f398 0dbe 5b03 cbbd ab2c 863d 527b a7bd
00000340: b27f 563d 79b8 c9bd 1bed ae3d 1b15 81bd
00000350: f825 3291 c824 2e3d 2364 833d 52dd d23d
00000360: 8a99 20bc 0c55 8b3d 0b88 5bbd e08c a93b
00000370: c984 cabc a728 eb3d 51a5 d3bc 3191 8cbd
00000380: 75ba 6a3c dcb0 a93d 8f34 68bd 3f53 d2bc
00000390: 42c1 883d ce52 8cbd de7e edbd a1e7 9fbd
000003a0: df9f 6ebd a51a 4dbe 4890 f93d a6c7 0b3e
000003b0: c6ff 283e 3ae7 063e 39a5 673d 5f41 0ebd
000003c0: 84e4 8ebd b11b 2e3c 1a25 dc3c af32 c3bd
000003d0: 17a2 2d3e a17b 9b3b 72b0 15be f9f9 dfbc
000003e0: 75b2 573b 2bbb 493c 7ea6 813d 1f75 3a89
000003f0: 41a8 a0bd 8820 c23c 7dbb 3d3e 501c eb39
-0.0060838796 -0.06068949 0.13131939 -0.014436762 -0.08077174 0.06107035 -0.08990936 0.0953221
-0.008945642 0.17092207 -0.44027725 -0.1494052 -0.046575475 0.0046980237 0.1283802 -0.03882346
0.0605073 0.02248357 -0.10912864 0.15633912 0.124326766 -0.08461457 -0.101461574 0.06840108
-0.07937679 -0.061144095 -0.010833698 -0.08500768 -0.06672673 0.1578201 -0.13874803 0.20567878
-0.0040997225 0.09960297 0.05357935 0.026981572 -0.06087227 -0.049832083 0.0971399 0.03322501
0.07899469 0.07943161 -0.007989954 0.12383251 4.8706814e-05 -0.07850229 -0.17648347 0.01306445
-0.061919402 0.072894484 0.08504562 0.073547035 0.021863604 -0.0406826 0.058326095 -0.052378766
0.13045171 -1.8387203e-35 -0.2504323 0.098573916 -0.031364057 -0.037292864 0.39796773 -0.025033515
0.16614695 0.008846227 0.02686056 0.07819581 0.07914989 0.009883138 -0.048195545 -0.008055429
-0.08346238 -0.09445461 -0.14903922 0.15780306 -0.0770784 -0.017412834 0.019433366 0.11257219
0.20654361 0.16702312 -0.096667886 -0.057010602 0.1697653 0.06494961 0.12641235 0.0011642524
0.041700665 -0.15405288 0.102285676 -0.044638835 -0.019455457 -0.04814724 0.02116983 0.08385445
0.060677763 -0.083251424 0.05174829 0.036393307 0.06526853 0.14165395 0.12691765 0.09276894
0.13707455 -0.012408946 -0.18552573 0.098941654 0.061744694 -0.054610297 0.00693789 -0.10543189
0.04564846 -0.021049049 -0.083330736 -0.052280642 0.026385332 0.1349353 0.02497472 0.040383972
-0.15233979 0.0148939025 0.19337332 -0.13764963 0.118448034 0.08899611 -0.08133408 -0.15249966
0.14709657 -0.10236868 0.07432698 -0.23797426 -0.08615404 0.16471134 -0.017751783 0.15046811
-0.086211994 0.13164231 1.0199296e-24 -0.32770118 0.064774916 0.011452597 -0.011318192 -0.06975271
0.12185486 -0.062274016 -0.15412067 0.072664425 -0.0018685927 0.11097368 0.06724554 0.054384835
0.039443243 4.0319404e-21 0.14864482 -0.13087305 -0.011463676 0.09472231 -0.0619948 -0.08762624
0.010459528 0.1267978 -0.05162972 0.09899012 -0.07995896 -0.123447165 0.06072147 0.0852083
0.12145433 0.12683474 -0.0860209 -0.15133739 -0.07868796 0.0021646798 -0.18101026 0.059404586
0.04751496 0.114280745 -0.16224511 0.088242844 -0.061494842 -0.083201244 0.108593784 -0.031443052
0.15240565 -0.0029766348 0.0956309 0.13284087 -0.069565244 -0.034801945 0.11365498 0.070764646
-0.008815642 0.16014999 -0.08897771 -0.059221707 0.05744433 -0.054801814 -0.010176853 -0.008003187
0.0060765534 0.18008032 0.07210713 -0.12220355 -0.13827877 -0.099127494 0.065514885 -0.08177818
0.052367873 -0.098496385 0.08541318 -0.06302854 -1.4053424e-28 0.042515546 0.06415584 0.1029612
-0.009802232 0.06803331 -0.053596538 0.0051742643 -0.02472152 0.11482363 -0.025835665 -0.068636306
0.014326681 0.082856864 -0.05669075 -0.02567446 0.06677486 -0.06851731 -0.115964636 -0.078078516
-0.058257934 -0.20029695 0.121857226 0.13650379 0.1650382 0.13174143 0.056554053 -0.03473031
-0.0697718 0.010626719 0.02687316 -0.095311515 0.16956364 0.0047449623 -0.1461809 -0.027340876
0.0032912765 0.012312691 0.06330584 -2.2444006e-33 -0.07844592 0.023697153 0.18528552 0.00044843787

energy_lin.3.bias f4 [150]
00000000: 5ee1 7d3d ebf8 883c 25c4 e8bc 2f3a 07bc
00000010: 1863 6f3c 1f74 25bc 8b98 303a bf52 0a3d
00000020: 05f0 4c3d b4b6 47bd 53d3 78bd aaa6 abbc
00000030: 4ec8 18bd eac8 18bc 69bf 283d f80e 5a3d
00000040: 18fe 823d 58ec babc 167e 1ebc 0a8c c93c
00000050: 1b94 153d 2368 3b3d ad52 c53b 01b7 afbc
00000060: be07 ea3c 00c2 94bc 3d7e 83bc 7fd9 8e3c
00000070: 307a 053d 4dd5 2cbc 1868 083d c357 02bd
00000080: a0d2 01bd 182d 70bd 3aa2 c4bc 3187 2cbd
00000090: ab8e cd3b 8320 7582 9b32 02bd 4341 3a3d
000000a0: 8c9d 863d 9928 0fbb 96d9 2f3b 5be0 cb3c
000000b0: 388c 673d 02d2 bbbc a193 653d 86d4 ddbc
000000c0: c63b f8bc 26fa 203d c279 333d 6419 023d
000000d0: 10a5 3a3d f5a4 6ebc 92ea 5fbd 8151 853d
000000e0: b232 113d 6248 dfbb 0187 44bc faf2 f63c
000000f0: 21b9 953d cbb7 40bc c3dd 69bd d239 1a3a
00000100: f815 703d 6313 693d eabc 1dbd c5f4 3d3d
00000110: 72cc 4b3d 3421 3c3d 5c10 39bd 7196 3f3b
00000120: 441a 08bd 6006 fd3c 2ca1 34bd f074 07bd
00000130: 09a8 42bb f89e 133d 413d 413b 098e 263c
00000140: 9e39 17bd b8af 393b bf54 10bd 67fe 8a3c
00000150: e9af 613d ebd9 643d 965e 30bd 6f77 713d
00000160: 16c0 e63c f944 403b 0e8b 3c3d aa10 51bc
00000170: 44e4 36bc 484c 52ba 7283 693d d2f9 c8bb
00000180: 97d3 803c 437b 883d 39ce eebb 43ea 473b
00000190: e682 22bd f228 0cbd c4e6 f5bc 475d 86bc
000001a0: 7673 ea3b 2ece c03c 5ef7 26bd 6cce 0fbd
000001b0: fa47 463d 189c 833d 3f1c 9f3a a07b d2bc
000001c0: 6c50 703d 779a afbc 3440 2e3d 659b c3bc
000001d0: 1c0a 6fbd 085c cabc 7b3d d4b9 9500 a73d
000001e0: f2ea ddbc 35ff cb3c 262b 3fbd a38c a03c
000001f0: a71e 32bd 55cb 073d e0d0 203c f470 a83c
00000200: 0bc2 213d 1334 203d 929f 9abc 6135 2b3d
00000210: 8900 61bb eaa7 f63b ef1d 2dbc 6b9b 9c3c
00000220: 6929 8b3d 394a 453d a733 763c fdfe c53b
00000230: bf4c c2bb c2f7 153d ecf7 543d 7595 293d
00000240: 472f 853d aa36 593c 1099 cdbc 2275 613c
00000250: 140f 15bd 2b36 823d
0.061982505 0.016720256 -0.028413842 -0.008253618 0.014611028 -0.010098486 0.0006736598 0.03377032
0.050033588 -0.048758224 -0.06074841 -0.020953495 -0.0373004 -0.009325245 0.041198168 0.05323693
0.06396121 -0.022817776 -0.009673616 0.024602909 0.036518198 0.04575361 0.0060218186 -0.021449568
0.028568145 -0.018158913 -0.016051406 0.017437695 0.03258723 -0.010548902 0.033302397 -0.031821977
-0.03169501 -0.058636755 -0.024003137 -0.042121116 0.006273111 -1.8009088e-37 -0.031786542 0.045472395
0.065730184 -0.0021844266 0.0026832572 0.024887254 0.056530207 -0.022927288 0.056048993 -0.027078878
-0.03030194 0.03930106 0.04381729 0.031762496 0.045567572 -0.014565696 -0.054667063 0.06509686
0.035448737 -0.0068140486 -0.011995078 0.030145157 0.07310701 -0.01176257 -0.057096254 0.00058832497
0.0586147 0.056903254 -0.03851024 0.04637601 0.04975552 0.045930102 -0.045181617 0.0029233957
-0.033228174 0.030886829 -0.044099018 -0.033070505 -0.0029702208 0.036040276 0.0029485973 0.0101657
-0.036920182 0.0028333496 -0.03523707 0.016967012 0.0550994 0.055871885 -0.043058954 0.05895179
0.028167766 0.0029337986 0.04603105 -0.012760321 -0.011162821 -0.0008022231 0.05701012 -0.0061332965
0.015725894 0.06664135 -0.0072877673 0.003050462 -0.039675616 -0.034218736 -0.030017264 -0.0164019
0.0071548773 0.023535814 -0.04076325 -0.03510897 0.048408486 0.06426257 0.0012139155 -0.025693715
0.058670446 -0.02143596 0.042541698 -0.023877809 -0.05835925 -0.024702087 -0.00040481598 0.08154408
-0.02708957 0.024901966 -0.04667201 0.01959831 -0.043486264 0.033152897 0.009815425 0.020561673
0.039491694 0.03911216 -0.018874917 0.041798953 -0.0034332594 0.007527341 -0.010566219 0.019117078
0.06795008 0.048166487 0.015026963 0.00604236 -0.005929559 0.036613233 0.05199425 0.0414023
0.06503158 0.013257662 -0.0250974 0.013760837 -0.036391333 0.06357988
