models/mpnn_A139_B23_E300_L2/20.pt (torch, 742651 bytes, 9 tensors)

atom_lin.weight f4 [300, 139]
0	0xbdb5b308	-0.08872038
1	0x3c059bfe	0.008154867
2	0x262c0344	5.9678913e-16
3	0xaa114f9a	-1.2906204e-13
4	0xa76c9823	-3.2834053e-15
5	0x21f5b7af	1.6650466e-18
6	0x3d63c830	0.055610836
7	0x3cafe0a8	0.02146943
8	0xbde388ee	-0.11110102
9	0xbe2f2c29	-0.1710669
10	0x11fea061	4.0172975e-28
11	0x930b769f	-1.7602751e-27
12	0x3e1ac3cc	0.15113753
13	0xa3936059	-1.5978577e-17
14	0x1ca7f4ca	1.1114409e-21
15	0xbdc14045	-0.094360866
16	0x3d8a28ae	0.0674604
17	0xbe6127ac	-0.2198779
18	0x92609529	-7.086579e-28
19	0x0035690c	4.904965e-39
20	0x8d9c67ba	-9.639214e-31
21	0x00358d0a	4.917877e-39
22	0x820e1c8c	-1.0440705e-37
23	0x00356fc3	4.907374e-39
24	0xa082e2f4	-2.2173042e-19
25	0x3e55ec07	0.20890819
26	0xbe1306a5	-0.14358003
27	0xbdffa241	-0.12482119
28	0x851ba200	-7.31782e-36
29	0xa9a80355	-7.461277e-14
30	0x951e755a	-3.200042e-26
31	0x00358817	4.916101e-39
32	0x9dc79f3d	-5.283951e-21
33	0xa27dfd93	-3.4422135e-18
34	0x1f600d94	4.7445077e-20
35	0xbda0a323	-0.07843616
36	0x9b4b50c5	-1.6817864e-22
37	0x2a2ec523	1.55227e-13
38	0x0a1ede1c	7.6491974e-33
39	0x8b864f37	-5.173411e-32
40	0xa7109ff7	-2.0070732e-15
41	0x00358be2	4.917462e-39
42	0x1add140a	9.143583e-23
43	0x0e670da0	2.8479508e-30
44	0x270567a8	1.851365e-15
45	0xa9838ecb	-5.842339e-14
46	0xa61ec24f	-5.50806e-16
47	0x0ecc9038	5.042876e-30
48	0x27623244	3.139105e-15
49	0x9214ce60	-4.6954942e-28
50	0x2139c6e1	6.294365e-19
51	0x90b9cb5d	-7.3282964e-29
52	0x8035869c	-4.91557e-39
53	0xbcc58540	-0.02411139
54	0xa826b51a	-9.254121e-15
55	0x8d2d91f2	-5.3485416e-31
56	0xaa141d86	-1.3155284e-13
57	0xa31cafe9	-8.494027e-18
58	0xa19190b6	-9.863887e-19
59	0x9af65596	-1.0188149e-22
60	0x00356d14	4.906411e-39
61	0x16799f5b	2.0164344e-25
62	0x247c829a	5.4754413e-17
63	0xa7095b79	-1.9062157e-15
64	0x248e822f	6.180322e-17
65	0x9ca8a4aa	-1.1159872e-21
66	0x27c3b8f2	5.432389e-15
67	0x9a613f28	-4.6579927e-23
68	0x1a922afd	6.0453636e-23
69	0x80356d06	-4.906392e-39
70	0xa0663598	-1.949949e-19
71	0xa580e906	-2.2362363e-16
72	0x8f2a8910	-8.4080444e-30
73	0xa9b79fe0	-8.1545664e-14
74	0xa43d0986	-4.099091e-17
75	0xa41137b6	-3.1489052e-17
76	0xa9eed5ae	-1.0606391e-13
77	0x00357b0e	4.911425e-39
78	0x1a0e7dbb	2.9466476e-23
79	0xa782cfee	-3.6307686e-15
80	0x1c25117f	5.4616534e-22
81	0x1878ae1f	3.2141157e-24
82	0x19962907	1.5526207e-23
83	0x9ca9657c	-1.1209715e-21
84	0x0730e3ab	1.3307674e-34
85	0x19339c53	9.2856525e-24
86	0x80357f36	-4.912916e-39
87	0x00358e8b	4.918416e-39
88	0xaa5eb7eb	-1.978137e-13
89	0x14a4a79e	1.6625881e-26
90	0x825d3211	-1.6250884e-37
91	0xa2331bc1	-2.4273716e-18
92	0x80358a3e	-4.916873e-39
93	0x1176d52f	1.947167e-28
94	0x290258f6	2.894296e-14
95	0xa9c7631b	-8.854567e-14
96	0x95f185cc	-9.755022e-26
97	0x0b9bd56f	6.002497e-32
98	0x2312ec61	7.964731e-18
99	0xa1227dbf	-5.505416e-19
100	0x19f9ac04	2.5815473e-23
101	0x120a5ece	4.366198e-28
102	0x1c0d8104	4.6819735e-22
103	0x241c3057	3.3868053e-17
104	0x0a539833	1.0187906e-32
105	0x8035680e	-4.904609e-39
106	0x85eb8f26	-2.2151878e-35
107	0x8f8a02d4	-1.360894e-29
108	0x2789daa8	3.8262206e-15
109	0x0e181d23	1.8749475e-30
110	0x1bfc3f10	4.1730656e-22
111	0x95954866	-6.0294845e-26
112	0x286e35ec	1.32233464e-14
113	0xa6bb7156	-1.3006451e-15
114	0x94cdacb7	-2.0767834e-26
115	0xa85a22ec	-1.21090034e-14
116	0xa59afed3	-2.6887417e-16
117	0x09724da0	2.916619e-33
118	0x9dd2ae75	-5.576692e-21
119	0x3e4e575e	0.20150515
120	0x3e62048f	0.22072051
121	0x3e20e941	0.1571398
122	0xbe3b00c5	-0.18262012
123	0x3e11674a	0.14199558
124	0x9f6b840b	-4.987241e-20
125	0xbdf7c8df	-0.1209886
126	0x9b5ffae8	-1.85272e-22
127	0x0d4ed56f	6.373556e-31
128	0x3e42fac0	0.19040966
129	0xbdbb1fcb	-0.091369234
130	0x3dc4f98f	0.09617912
131	0x3e18f423	0.14936881
132	0x3db3fecc	0.08788833
133	0x1b30f54b	1.4637637e-22
134	0x20ad3e30	2.9348492e-19
135	0x8fbebd44	-1.8808349e-29
136	0x19679c46	1.1973979e-23
137	0x14a0b93b	1.6228932e-26
138	0xbdc8b7cd	-0.09800682
139	0x3e644b4d	0.2229435
140	0x3e2abfdc	0.16674751
141	0xa8356acf	-1.0070679e-14
142	0x00358e2b	4.918282e-39
143	0x25a39b8b	2.8381393e-16
144	0x0c613627	1.7349665e-31
145	0xbe883347	-0.26601622
146	0x3c7ba6de	0.015359608
147	0x3d5b9853	0.053612065
148	0x3e895198	0.26820064
149	0x2532e76c	1.5517448e-16
150	0x05f3dc04	2.2932431e-35
151	0xa3e62f02	-2.4956559e-17
152	0x1c5764e8	7.126795e-22
153	0x92c9787c	-1.2714585e-27
154	0xbe5799fc	-0.21054834
155	0xbe04b806	-0.12960824
156	0xbdb7149c	-0.08939478
157	0x88ea3fbf	-1.4098349e-33
158	0x1d3ca359	2.4966042e-21
159	0x003575de	4.909564e-39
160	0x0325e841	4.8755756e-37
161	0x00356995	4.905157e-39
162	0x9bd6bfaa	-3.552719e-22
163	0x00358b01	4.917147e-39
164	0xbd1e262d	-0.038610626
165	0xbc9ccfc0	-0.019142032
166	0x3e877c10	0.2646184
167	0x801fdd3e	-2.926267e-39
168	0xa881c748	-1.4408301e-14
169	0x1e95ef5e	1.5874989e-20
170	0x1ddc9c39	5.8395046e-21
171	0x1b0c60bb	1.1611784e-22
172	0x225c1358	2.98258e-18
173	0x020a6f91	1.0170657e-37
174	0xbe10ce26	-0.1414114
175	0x1e931723	1.55738e-20
176	0x2a71407a	2.142747e-13
177	0x80356f27	-4.907155e-39
178	0x803569fe	-4.905304e-39
179	0x13f9920a	6.3000443e-27
180	0x87e67527	-3.467541e-34
181	0x9ce21acb	-1.4962351e-21
182	0x2835e2f9	1.0096735e-14
183	0x91eb4603	-3.711961e-28
184	0x9b95df1c	-2.4794163e-22
185	0xaa0ae4cd	-1.2336243e-13
186	0x0da70da7	1.0295456e-30
187	0x255344f9	1.8324702e-16
188	0x01c6ef01	7.3076667e-38
189	0xa9143f05	-3.2917262e-14
190	0xa234c8a0	-2.4500759e-18
191	0xa8af30f4	-1.9450133e-14
192	0xbde7d8a7	-0.1132062
193	0x80357313	-4.908562e-39
194	0x96f55394	-3.963463e-25
195	0x95a43d5e	-6.633589e-26
196	0x8f54894a	-1.0478848e-29
197	0x060b3a94	2.618603e-35
198	0x8e2f97de	-2.1643537e-30
199	0x2999a477	6.823095e-14
200	0x24c6abb2	8.6159675e-17
201	0x8622dab1	-3.0629483e-35
202	0x80356b20	-4.90571e-39
203	0x104e4978	4.0682935e-29
204	0xa3f62c36	-2.6690098e-17
205	0x1034e0ac	3.5671822e-29
206	0xa0ca0c63	-3.4228328e-19
207	0x0a69c2f4	1.12552085e-32
208	0x1c232339	5.39777e-22
209	0x8024763c	-3.348492e-39
210	0xa98c894a	-6.241065e-14
211	0x2027acc5	1.4202615e-19
212	0x1294bda3	9.386862e-28
213	0x292980a9	3.7637133e-14
214	0x9c0cb5d4	-4.655712e-22
215	0xa293187d	-3.9870358e-18
216	0x24d32224	9.15645e-17
217	0x1cf4f1fd	1.6209118e-21
218	0x1e07bf49	7.186397e-21
219	0xaa187180	-1.353969e-13
220	0x29e01d75	9.952708e-14
221	0x8b0e2bcd	-2.7381157e-32
222	0x24b30275	7.763304e-17
223	0x2274cfe5	3.3178225e-18
224	0xa93da980	-4.2113448e-14
225	0x138fd7a5	3.6310917e-27
226	0x8d35a173	-5.596927e-31
227	0x002fc2c2	4.386134e-39
228	0xa66bbca2	-8.178765e-16
229	0xa63fc292	-6.653013e-16
230	0x9d27b5f6	-2.2196338e-21
231	0x24380462	3.9902352e-17
232	0x122719b4	5.272759e-28
233	0x13e834ae	5.861698e-27
234	0xa1b96da0	-1.2565105e-18
235	0x1b0a186d	1.1422985e-22
236	0x88b11267	-1.0657126e-33
237	0x275912d7	3.0125013e-15
238	0x17aab96a	1.1032798e-24
239	0x14a23069	1.6376914e-26
240	0x2812e786	8.154832e-15
241	0x09e47426	5.499823e-33
242	0x2918dc0a	3.3941633e-14
243	0xa8665070	-1.2785007e-14
244	0xa430dd5a	-3.835141e-17
245	0xa8966d86	-1.6700844e-14
246	0x00356a7b	4.905479e-39
247	0x0029f3f4	3.852769e-39
248	0xa48f3556	-6.210672e-17
249	0x99bf40a0	-1.9775039e-23
250	0x26e06610	1.5570786e-15
251	0x97181625	-4.91418e-25
252	0x926b3641	-7.42198e-28
253	0x8015620b	-1.963717e-39
254	0x8018efdd	-2.290099e-39
255	0x23227636	8.80707e-18

atom_lin.bias f4 [300]
0	0xbd6d6230	-0.057954967
1	0x3dd2c453	0.10291352
2	0x3d6c1c15	0.05764397
3	0x3d3189b2	0.043344207
4	0x3cad4888	0.02115275
5	0x3aa8ce95	0.0012878949
6	0xbcc54037	-0.024078472
7	0xbd2304c4	-0.039799467
8	0xbe06b313	-0.13154249
9	0x3dc08844	0.094009906
10	0x3d1a08bc	0.037605986
11	0xbd33719d	-0.043809522
12	0x3db813d5	0.08988158
13	0xbd8056f3	-0.06266584
14	0xbd917eb3	-0.07104244
15	0x3dab67ec	0.08369431
16	0x3a89d445	0.0010515532
17	0x3c80eae9	0.015737014
18	0x3cfc8e9a	0.030829716
19	0xbd2b948f	-0.041889723
20	0xbdb8f93d	-0.090319134
21	0x3d8bde52	0.068295136
22	0xbd595502	-0.053059585
23	0x3d0b1421	0.033954743
24	0x3e108c92	0.14116123
25	0x3ddc7c5e	0.10765909
26	0x3c1bfbec	0.009520512
27	0xbd8b82b6	-0.068120405
28	0x3d7be133	0.061494064
29	0xbdc83ce0	-0.09777236
30	0xbb0c8db0	-0.0021446757
31	0x3da4e0a4	0.08050659
32	0x3daeba8c	0.08531675
33	0xbd8e5397	-0.06949537
34	0xbd2c075b	-0.041999202
35	0x3ca7bae7	0.020474864
36	0xbdf932f6	-0.12167923
37	0xbdd0f302	-0.102026
38	0x3dd6ca8e	0.10487853
39	0x3d53104d	0.051529218
40	0x3beb5800	0.0071821213
41	0xbc44676d	-0.011987549
42	0xbc4458af	-0.011984034
43	0xbd173b16	-0.036921583
44	0xbd26a369	-0.040683184
45	0xbc6d9c63	-0.0145026175
46	0x3e742174	0.23840886
47	0xbd8659b3	-0.065600775
48	0x3d591bb5	0.05300494
49	0x3d9b2573	0.07575502
50	0x3d30ab94	0.04313238
51	0x3debfc25	0.11522702
52	0xbdb04078	-0.086060464
53	0x3d3f1e14	0.046659544
54	0x3dfe0a75	0.12404338
55	0x3d2de1d0	0.04245168
56	0x3dd97407	0.106178336
57	0xbccd8cda	-0.025091577
58	0xbb7f6f3b	-0.003897621
59	0x3cd5de37	0.026106937
60	0xbd264be0	-0.040599704
61	0x3c191aa7	0.009344733
62	0x3d8c999d	0.06865237
63	0xbd9df798	-0.077132404
64	0x3ce40436	0.02783404
65	0xbb243abf	-0.002505943
66	0xbd45ad13	-0.04826076
67	0xbcef4eff	-0.029212473
68	0x3e1097b8	0.14120376
69	0x3dbc9cbf	0.092095844
70	0xbc89a15d	-0.016800577
71	0x3d7f75aa	0.062368073
72	0xbcc113f1	-0.02356908
73	0xbd07dadb	-0.0331677
74	0x3c972f31	0.01845512
75	0x3b8b1f01	0.0042456393
76	0x3a640e09	0.0008699601
77	0x3d427121	0.04747117
78	0x3c9f6d65	0.019461343
79	0x3d656b76	0.056010686
80	0x3c5fa1c9	0.013649412
81	0x3dd6f8e2	0.104966894
82	0xbca66e6a	-0.020316321
83	0xbdbacdbc	-0.09121272
84	0xbc4e3142	-0.012584986
85	0x3d592635	0.053014953
86	0xbc375e56	-0.011191925
87	0xbd1ca985	-0.038247604
88	0x3c9cada1	0.019125761
89	0xbd81ca3f	-0.063374035
90	0xbd39ae33	-0.045332145
91	0x3ca55d57	0.02018611
92	0x3db09ee3	0.08624055
93	0x3d841266	0.06448822
94	0x3dbe4257	0.09289997
95	0xbbbfec76	-0.0058570458
96	0xbd0cfe79	-0.03442237
97	0x3cdf7448	0.027277127
98	0x3dc4bcfd	0.09606359
99	0xbd708dc3	-0.058728945
100	0xbd531a45	-0.051538724
101	0x3dc973b8	0.09836525
102	0x3d4f8e89	0.05067304
103	0x3c5d0a51	0.013491229
104	0x3d92d32e	0.071691856
105	0xbc130a43	-0.008974615
106	0x3dd1e86a	0.102494076
107	0x3dab52cc	0.083654016
108	0xbb16343c	-0.0022919318
109	0x3d3ac2e9	0.045596037
110	0x390bea7b	0.00013343424
111	0xbc42963d	-0.01187664
112	0x3dbba340	0.09161997
113	0x3c878043	0.016540652
114	0x3d9b6c2e	0.07588993
115	0x3d4b4c5e	0.049633376
116	0xbd56a777	-0.0524058
117	0x3ce06fcb	0.027397057
118	0x3d09b133	0.033616256
119	0xbc0697bb	-0.008214886
120	0x3c5b7877	0.01339542
121	0x3d073e05	0.03301813
122	0x3d8e0f8a	0.069365576
123	0x3db3a217	0.087711506
124	0xbcfcd39a	-0.030862618
125	0xb9f98dff	-0.00047598776
126	0x3c4cb5c8	0.012494512
127	0xbd8e1690	-0.06937897
128	0xbd18a245	-0.037264127
129	0x3bbbdc98	0.005733084
130	0x3db1f7c2	0.08689834
131	0x3d201a0e	0.039087348
132	0x3d3e41cb	0.046449464
133	0xbd073ed0	-0.033018887
134	0x3cac98ff	0.021069048
135	0x3dfac61c	0.122448176
136	0x3da0eb1b	0.07857343
137	0x3d5e62fd	0.05429362
138	0x3c4eb3fb	0.012616153
139	0x3db9374c	0.0904375
140	0x3dba0fa8	0.090850174
141	0x3d94192f	0.07231366
142	0x3d373dd8	0.044736713
143	0x3baed487	0.005335394
144	0x3b98a79c	0.0046586525
145	0x3dcaf92d	0.09910808
146	0x3d982528	0.07428962
147	0x3c462597	0.012093923
148	0x3d129889	0.03579
149	0x3dc654cc	0.096841425
150	0x3cb3078a	0.02185418
151	0x3bce37e3	0.0062932833
152	0x3d967356	0.07346217
153	0xbb8c0c46	-0.004273924
154	0x3d475e87	0.048674133
155	0x3dd7a66f	0.105297916
156	0xbc96ee17	-0.018424077
157	0x3c5d1fa3	0.013496312
158	0x3da288e7	0.07936268
159	0x3d9c8245	0.076420344
160	0xbd7167d3	-0.058936905
161	0x3c3066c1	0.010766686
162	0xbd71fed9	-0.059080932
163	0xbe0a873f	-0.13528155
164	0x3ccc881e	0.02496725
165	0x3dba3185	0.09091476
166	0xbcac61b0	-0.021042675
167	0xbd8fec1f	-0.070274584
168	0x3d181b54	0.037135437
169	0x3c9adb02	0.01890326
170	0x3df67a2f	0.120350234
171	0x3dfd988b	0.12382611
172	0xbd8e4997	-0.0694763
173	0x3d810c4b	0.06301173
174	0xbbf36171	-0.0074273874
175	0x3d4a8c24	0.049450055
176	0x3c80ab38	0.015706643
177	0x3c538cfc	0.012912031
178	0x3c350d9e	0.01105061
179	0x3d6a931a	0.057269193
180	0xbd3ca632	-0.046056934
181	0x3dc6036c	0.096686214
182	0x3d6d6023	0.05795301
183	0x3bc405a6	0.0059821187
184	0xbcc25032	-0.02371988
185	0x3d95eccb	0.07320555
186	0xbd32db80	-0.043666363
187	0xbdfb914b	-0.12283572
188	0x3da5ee81	0.08102132
189	0xbce891cb	-0.028389832
190	0x3b171947	0.0023055838
191	0x3cc7b0b3	0.024376249
192	0x3d0c5d73	0.034268808
193	0xbc2cd7be	-0.010549484
194	0x3e101895	0.14071877
195	0xbc250f1e	-0.010074405
196	0x3dbd4a16	0.092426464
197	0xbc4c88d1	-0.012483791
198	0x3c7f6647	0.01558835
199	0x3d3a6df6	0.045515023
200	0xbb803f89	-0.003913824
201	0x3ca70641	0.020388724
202	0xbc20067d	-0.009767172
203	0x3de7a186	0.11310105
204	0xbd0f5515	-0.03499325
205	0x3c15080d	0.009096158
206	0x3d795ae5	0.0608777
207	0xbc1bd8c8	-0.009512134
208	0x3d9eda72	0.07756509
209	0xbcdd8575	-0.027041176
210	0x3b801121	0.003908292
211	0xbc848fd3	-0.016181862
212	0x3d5d39e8	0.0540103
213	0x3d37e399	0.04489479
214	0xbd334b2e	-0.04377287
215	0x3d934ae5	0.071920194
216	0x3d694d1b	0.0569583
217	0xbdd073e7	-0.101783566
218	0xbd369364	-0.044574156
219	0x3cdefb6c	0.027219497
220	0xbd426b48	-0.047465593
221	0x3c9af960	0.01891774
222	0x3d6f4943	0.058419477
223	0x3d98595b	0.07438918
224	0x3df1d0c3	0.11807396
225	0xbd187810	-0.037223876
226	0xbd52a79d	-0.05142938
227	0x3d3cb749	0.04607323
228	0x3ac38959	0.0014918252
229	0x3d6b2b94	0.057414606
230	0x3dccd9f7	0.10002511
231	0xba55a132	-0.0008149325
232	0x3d7b9e16	0.06143006
233	0x3ce5f0ba	0.028068889
234	0x3d9e4124	0.07727268
235	0x3d394518	0.04523191
236	0xbd329473	-0.043598603
237	0xbd687a2c	-0.056757137
238	0xbcba898a	-0.022770662
239	0x3d275b77	0.040858712
240	0xbc3268e2	-0.010889264
241	0x3e134379	0.14381208
242	0x3c6c0914	0.014406461
243	0x3d12915c	0.035783157
244	0x3d346ea2	0.04405082
245	0xbce9724c	-0.028496884
246	0x3db21108	0.08694655
247	0x3d609e10	0.05483824
248	0x3d7e06de	0.062018268
249	0x3de4287b	0.111405335
250	0xbcc14dc9	-0.023596661
251	0x3dbd0e46	0.09231238
252	0x3b8128f7	0.003941651
253	0xbcfa103a	-0.030525316
254	0xbcac62cf	-0.02104321
255	0x3d25845c	0.04040943

bond_lin.weight f4 [300, 23]
0	0xa61c9ff8	-5.434017e-16
1	0x3e8c4bb4	0.27401507
2	0xbe3e0aa9	-0.18558754
3	0xbe48a0d1	-0.19592597
4	0x1249cfdb	6.368062e-28
5	0x9b644cec	-1.8884573e-22
6	0x098a06c1	3.3228643e-33
7	0x3453cf7d	1.972639e-07
8	0xb11f984a	-2.3224112e-09
9	0x28d78d73	2.3931139e-14
10	0x31d192ba	6.0993814e-09
11	0x3540a823	7.1770245e-07
12	0x3ece39c2	0.4027844
13	0xa4459e80	-4.285182e-17
14	0x3a1ff0d1	0.0006101253
15	0x1d962be2	3.9750043e-21
16	0x2282e1e4	3.547574e-18
17	0x2fbdb20f	3.4505418e-10
18	0x2a6fd0a2	2.1299848e-13
19	0x3775a654	1.4641864e-05
20	0x0035849a	4.91485e-39
21	0xb2d57c5c	-2.4853016e-08
22	0x1ad2025f	8.6857795e-23
23	0xb3a86103	-7.840756e-08
24	0xbe93158e	-0.28727382
25	0xbf183e49	-0.5947004
26	0x3e815817	0.2526252
27	0xa060c32c	-1.9038115e-19
28	0x058ecc41	1.3428647e-35
29	0x254e9bd4	1.7920448e-16
30	0xb922b236	-0.00015515913
31	0x392a0441	0.00016214048
32	0x25976b5e	2.626708e-16
33	0x813ae898	-3.4329682e-38
34	0xa366feb2	-1.2522259e-17
35	0x3da3c957	0.07997387
36	0x2d615b16	1.2809994e-11
37	0xb8f8449d	-0.00011838342
38	0x1fc0b877	8.1620334e-20
39	0xb80826e6	-3.2461154e-05
40	0x9fb3e1a9	-7.618277e-20
41	0x3080ec99	9.380471e-10
42	0xb758832c	-1.2905144e-05
43	0x2fbfeec3	3.4912348e-10
44	0xa37630b0	-1.3345997e-17
45	0x2a9c661a	2.7782014e-13
46	0x342121e6	1.5006626e-07
47	0xbebd16a2	-0.3693133
48	0xbe0331ab	-0.12811916
49	0xbdd7e472	-0.10541619
50	0x358bf720	1.042823e-06
51	0x379d3048	1.8738341e-05
52	0x158f4592	5.7867e-26
53	0x2e76cb2d	5.611438e-11
54	0x97f233eb	-1.5651989e-24
55	0x25beab80	3.307596e-16
56	0xb7bab412	-2.225678e-05
57	0xb3a32ad0	-7.5980665e-08
58	0x3ec43ac2	0.3832608
59	0x31540c3c	3.0857015e-09
60	0x00e38617	2.089476e-38
61	0xb8faa4ef	-0.0001195165
62	0xb22ff8d7	-1.024292e-08
63	0x369336b7	4.387311e-06
64	0x3a298364	0.0006466417
65	0x2ffafb29	4.5653195e-10
66	0x370f0bea	8.526238e-06
67	0x0bbe44d8	7.328892e-32
68	0xaff6df64	-4.4905868e-10
69	0xb9ead1de	-0.0004478832
70	0x3da32e35	0.07967798
71	0x3dec2a8f	0.11531555
72	0x3e466dcc	0.19377822
73	0x2fbf8997	3.484046e-10
74	0x33611504	5.240601e-08
75	0x93299990	-2.1406511e-27
76	0x34a02c39	2.98345e-07
77	0xa2b2a036	-4.8416627e-18
78	0x29f1f235	1.0744566e-13
79	0x3125ae03	2.4109574e-09
80	0x3a947517	0.0011326399
81	0xbe7a4e79	-0.24443997
82	0x376301ab	1.3530643e-05
83	0x38b9096b	8.823242e-05
84	0x2ab57661	3.22342e-13
85	0xb898348c	-7.2577124e-05
86	0x19464e24	1.02521405e-23
87	0xb5fad75b	-1.8689128e-06
88	0x278406ab	3.664459e-15
89	0x9435b997	-9.174766e-27
90	0x35e7f0ee	1.7280961e-06
91	0x3926b1f0	0.0001589728
92	0xa65b2955	-7.6036904e-16
93	0x3dd6d847	0.104904704
94	0xbe94aeff	-0.2903976
95	0xbeb215a7	-0.34782144
96	0x30b3406b	1.3042273e-09
97	0x316c3d54	3.437738e-09
98	0x1aea7d35	9.6982415e-23
99	0x255de5a4	1.92465e-16
100	0x280ca4ca	7.807294e-15
101	0xba52f027	-0.000804665
102	0xb7afc5ba	-2.09537e-05
103	0xb9462941	-0.0001889812
104	0xbebafb5e	-0.36519903
105	0x1b8e75c1	2.3568026e-22
106	0x0035744d	4.909002e-39
107	0x3642bdc0	2.9018702e-06
108	0xb040d707	-7.0154765e-10
109	0x960a4472	-1.1169149e-25
110	0xaec7ec12	-9.091407e-11
111	0x33a5125a	7.6867494e-08
112	0x2de95250	2.6525587e-11
113	0xa2198fbe	-2.0811463e-18
114	0x38345d4d	4.3002237e-05
115	0x3813cbea	3.523744e-05
116	0xbde01c9e	-0.10942958
117	0x3ef16156	0.47144574
118	0x3c90bf99	0.017669486
119	0x2e9afb9a	7.0478026e-11
120	0x388964aa	6.551419e-05
121	0x3041a855	7.0452205e-10
122	0x39c19a32	0.00036926713
123	0x382a7cb2	4.064729e-05
124	0x32a773e7	1.9494065e-08
125	0xa81c2db9	-8.669654e-15
126	0x8b708e48	-4.632936e-32
127	0xbe932e9f	-0.28746507
128	0x9d031f11	-1.7353767e-21
129	0x35e5fa27	1.7134633e-06
130	0x3a4e260e	0.0007863947
131	0xa889c9df	-1.5297603e-14
132	0xa82c0dd9	-9.550921e-15
133	0xaaadb004	-3.085311e-13
134	0x327cd666	1.4717079e-08
135	0x23914963	1.5752012e-17
136	0x8aac41ab	-1.6587699e-32
137	0xb849888c	-4.8049304e-05
138	0x28b602dd	2.02073e-14
139	0xbef05cf6	-0.46945924
140	0xbeeda597	-0.46415398
141	0xbc3a028e	-0.011353148
142	0x2bc8bfeb	1.4264123e-12
143	0x295ecee4	4.947335e-14
144	0x333e4cb8	4.4307598e-08
145	0x91b7a4dc	-2.8973912e-28
146	0x9cb1de4d	-1.1770341e-21
147	0x364e09a6	3.0702008e-06
148	0x3a29e227	0.00064805377
149	0x2f4c12f5	1.8560427e-10
150	0xbc17e500	-0.009270906
151	0xb086bbe9	-9.80319e-10
152	0x27b99ee4	5.1520084e-15
153	0x398e4d27	0.00027141834
154	0x19f7b3b0	2.5611777e-23
155	0x22cb2749	5.5064855e-18
156	0x21d51896	1.4439949e-18
157	0x8707c99e	-1.0215521e-34
158	0xb95bd1ea	-0.00020963667
159	0x30dee532	1.6217767e-09
160	0x224a30c6	2.7401925e-18
161	0x22161454	2.0339552e-18
162	0xbd98a455	-0.07453219
163	0x3ee56d0e	0.44809765
164	0x3d690988	0.056893855
165	0x360b12a8	2.0723473e-06
166	0xa956e486	-4.7715758e-14
167	0xa11fa690	-5.409174e-19
168	0x10419d05	3.8183502e-29
169	0xb5541f97	-7.9022124e-07
170	0xba020f7a	-0.00049614126
171	0x338748a8	6.2996435e-08
172	0x39057216	0.00012726369
173	0x3dab426c	0.08362278
174	0xa2258c29	-2.243587e-18
175	0x3933581d	0.00017103595
176	0x80356abe	-4.905573e-39
177	0xb0b7889d	-1.335383e-09
178	0xaa5b4a37	-1.9476856e-13
179	0x26fb47c8	1.743608e-15
180	0xaae4383d	-4.053996e-13
181	0x2f8df3da	2.5821018e-10
182	0xb0074afc	-4.9219273e-10
183	0xb66ab013	-3.4971206e-06
184	0xb61318a0	-2.191904e-06
185	0xbef13c61	-0.47116378
186	0x3ead396f	0.3383288
187	0xbe614e71	-0.2200258
188	0x8195dfe5	-5.505523e-38
189	0x98d4b4cb	-5.498327e-24
190	0x395b723a	0.0002092802
191	0x86903a22	-5.42522e-35
192	0x0da5e2e3	1.0223531e-30
193	0xb32bb560	-3.9979e-08
194	0x39c1249d	0.00036839108
195	0x3263768b	1.3240093e-08
196	0xbef95784	-0.48699582
197	0x92938c37	-9.31157e-28
198	0x8d84aa6e	-8.176158e-31
199	0x3235edb5	1.0589635e-08
200	0x328e280c	1.6549187e-08
201	0xb2ef337f	-2.784668e-08
202	0x23eb0d04	2.5484263e-17
203	0xa612ba46	-5.0906373e-16
204	0xa8adea6a	-1.930852e-14
205	0xb807abfc	-3.234668e-05
206	0xb8cdbc8c	-9.810281e-05
207	0xb89c086b	-7.440228e-05
208	0xbedca323	-0.43093213
209	0x3c6b7bda	0.01437279
210	0xbe715dd2	-0.23570946
211	0xa63d0f5f	-6.559338e-16
212	0x0035683b	4.904672e-39
213	0xadecc171	-2.6915999e-11
214	0xb6bd9fae	-5.651228e-06
215	0x294c6932	4.5388342e-14
216	0xba596be2	-0.0008293969
217	0x35bcbf1a	1.4062709e-06
218	0x94879ee2	-1.3694185e-26
219	0x3edca050	0.4309106
220	0x3129e91a	2.472524e-09
221	0x2d5cf264	1.2559374e-11
222	0xb8a0cba9	-7.667329e-05
223	0xb59bc428	-1.1605489e-06
224	0xb69d68ae	-4.691151e-06
225	0x226e0e43	3.2262565e-18
226	0xba956d55	-0.0011400381
227	0xb5aca011	-1.2861584e-06
228	0x1c171321	4.9986433e-22
229	0x3a4b4e8f	0.00077555416
230	0x33885612	6.3486496e-08
231	0x3e9dff24	0.3085872
232	0x3ebc7a1e	0.36811918
233	0x3defd33b	0.11710211
234	0x38bb1dd0	8.922408e-05
235	0x9de775b5	-6.1266897e-21
236	0x0e050de1	1.6400198e-30
237	0x342c5223	1.604863e-07
238	0x331e9ed5	3.69317e-08
239	0x161cfce0	1.2681373e-25
240	0x8f14e274	-7.340577e-30
241	0x184fdaff	2.6864688e-24
242	0xbedc1976	-0.42988175
243	0x3990577f	0.0002753101
244	0x3477a285	2.3062792e-07
245	0x2014592b	1.2565591e-19
246	0x265e056d	7.7029076e-16
247	0x1ff59658	1.0401026e-19
248	0xaedfabf8	-1.0171414e-10
249	0xb9e84488	-0.00044301548
250	0x1e700b64	1.270785e-20
251	0x1f8fc72a	6.0892345e-20
252	0xb3e988fd	-1.0874826e-07
253	0x3720d0ab	9.5853275e-06
254	0x3cf8557a	0.030314196
255	0x3eed38fd	0.4633254

bond_lin.bias f4 [300]
0	0xbd432d27	-0.047650483
1	0xbe809463	-0.2511321
2	0xbe791899	-0.2432579
3	0x3e50d22d	0.20392676
4	0x3dd1b5ed	0.10239778
5	0xbe238392	-0.15968159
6	0xbe05f181	-0.13080408
7	0xbe873d08	-0.2641375
8	0x3d49fcc1	0.04931331
9	0xbe4bb57c	-0.1989345
10	0xbcd25826	-0.025676798
11	0x3e675d60	0.22594213
12	0xbe036e8c	-0.12835139
13	0x3e33278f	0.17495559
14	0xbd536b02	-0.051615722
15	0x3da2b489	0.079445906
16	0x3d95767d	0.072979905
17	0x3e2594bb	0.16170017
18	0x3db594f9	0.08866305
19	0x3e49bbdd	0.1970057
20	0x3dcc215b	0.099672996
21	0xbe1cd6ec	-0.15316361
22	0xbe45a801	-0.1930237
23	0xbdf8e6a4	-0.12153366
24	0x3d221461	0.039570216
25	0xbdc27f2e	-0.09496914
26	0xbc347d46	-0.011016196
27	0xbe43708d	-0.19085903
28	0xbdef3926	-0.11680822
29	0xbe76a161	-0.24084999
30	0xbdd19fd5	-0.10235564
31	0xbe0b0194	-0.13574821
32	0xbe2e04d7	-0.16994034
33	0xbe3ab8e6	-0.18234596
34	0xbc8bdcc1	-0.017073037
35	0xbe4ad463	-0.19807582
36	0xbe0913f9	-0.13386525
37	0x3d9b5d4f	0.075861566
38	0xbdc3a713	-0.09553351
39	0xbdfc0c0d	-0.12306986
40	0x3dd6d0b2	0.10489024
41	0x3e4846e2	0.1955829
42	0xbd984b7f	-0.07436275
43	0xbd5e078a	-0.05420641
44	0x3df4efa1	0.11959768
45	0xbe51b1a4	-0.20477921
46	0x3e38f86f	0.1806352
47	0x3cd3cc46	0.025854241
48	0xbe9d42b7	-0.30714962
49	0x3e668196	0.2251037
50	0x3d6b91da	0.05751214
51	0x3d286f23	0.041121613
52	0xbe811acd	-0.2521576
53	0xbd22f241	-0.039781813
54	0xbdf620e0	-0.12017989
55	0xbd3df5c5	-0.046376962
56	0xbd15a49c	-0.036533937
57	0xbe33d1f4	-0.1756056
58	0xbde4a811	-0.111648686
59	0xbd374f22	-0.0447532
60	0x3cb1cf8c	0.021705411
61	0x3e2ad9db	0.16684668
62	0x3e4c6e57	0.19963966
63	0xbda96d08	-0.08272749
64	0x3e29dd6c	0.16588372
65	0x3de719d1	0.11284221
66	0x3e28b2bb	0.1647443
67	0x3c32d3b4	0.010914732
68	0xbeaf254b	-0.3420814
69	0x3e9fa065	0.3117706
70	0xbcc61c90	-0.024183542
71	0xbe1e099e	-0.15433356
72	0x3e499699	0.19686355
73	0x3d78cef2	0.060744233
74	0x3b8c09bf	0.0042736228
75	0xbe198338	-0.14991462
76	0x3e028e30	0.12749553
77	0x3e3733c2	0.17890838
78	0x3d12578c	0.035728022
79	0x3e2b5b9f	0.1673417
80	0xbcd0f99d	-0.02550965
81	0x3e756e74	0.23967916
82	0x3bef4831	0.007302307
83	0x3cd6495e	0.026158031
84	0x3d2cc2d9	0.04217801
85	0xbe2b3307	-0.16718684
86	0xbe6667c3	-0.2250052
87	0x3deb2f78	0.11483663
88	0xbcfc448b	-0.030794403
89	0x3e04d196	0.12970576
90	0x3e12e7eb	0.14346282
91	0x3e29469d	0.16530843
92	0x3beb2b3c	0.007176785
93	0xbd8e5662	-0.0695007
94	0x3e24c153	0.16089372
95	0xbdc62756	-0.096754715
96	0x3caf52eb	0.021401843
97	0x3db2b14c	0.08725223
98	0xbd93b037	-0.07211345
99	0x3dd15b65	0.1022251
100	0x3d01d2f5	0.031695325
101	0x3e2298f9	0.15878667
102	0x3dc15bb7	0.09441321
103	0xbe54895f	-0.20755528
104	0x3cec0657	0.028811617
105	0x3d57dee3	0.052702796
106	0xbd4f393e	-0.0505917
107	0xbdeadc11	-0.114677556
108	0xbe0260b3	-0.127322
109	0xbe827074	-0.2547642
110	0x3d11b08b	0.035568755
111	0x3dce89f8	0.10084909
112	0xbdae255f	-0.08503222
113	0xbe5073d5	-0.20356686
114	0xbe06666a	-0.13125005
115	0x3dd5f74d	0.104475595
116	0x3e4d7066	0.20062408
117	0x3de0ed31	0.10982741
118	0xbdc54c6a	-0.096337155
119	0xbd9343fe	-0.07190703
120	0xbe0744b3	-0.132098
121	0xbd8b0aab	-0.06789144
122	0xbdd04008	-0.10168463
123	0xbd9ffbc5	-0.07811693
124	0xbe6106aa	-0.21975198
125	0xbe6eb892	-0.23312595
126	0xbe1eabb9	-0.15495194
127	0xbe417e04	-0.18895727
128	0xbe3bd607	-0.18343364
129	0xbe5c6d86	-0.21526155
130	0xbe1f8d13	-0.1558116
131	0x3cc45caa	0.023969967
132	0xbe7a4a85	-0.2444249
133	0x3c302567	0.010751105
134	0xbe15b952	-0.14621475
135	0x3dc4b8e3	0.09605577
136	0xbd51d11a	-0.051224805
137	0xbe390a40	-0.18070316
138	0x3e13917c	0.14410967
139	0xbd5d167b	-0.053976517
140	0x3da59acd	0.080861665
141	0x3cee222d	0.02906903
142	0xbc84153f	-0.016123412
143	0x3d396deb	0.04527084
144	0x3d13fe95	0.03613146
145	0x3db1329a	0.086522296
146	0x3de4561e	0.11149238
147	0x3bf4af1e	0.0074671647
148	0x3d683d13	0.05669887
149	0xbddf1423	-0.10892513
150	0xbe3c02e9	-0.18360485
151	0x3e64d6b7	0.22347532
152	0xbe530d1c	-0.2061047
153	0x3e4ca781	0.19985773
154	0xbe1ab12f	-0.15106653
155	0x3ea15017	0.31506416
156	0x3de4900f	0.111602895
157	0x3d802b99	0.062583156
158	0x3e1293e4	0.14314228
159	0x3dea553d	0.11442039
160	0xbe19c8a0	-0.15017939
161	0x3e3fdb9a	0.18736115
162	0x3d79555c	0.06087242
163	0xbe28df55	-0.16491444
164	0xbe0c77e2	-0.13717607
165	0x3e4ef895	0.20212014
166	0xbe37cac6	-0.17948446
167	0x3db7ebb9	0.089805074
168	0x3e2aeca3	0.16691832
169	0x3e2f4566	0.17116317
170	0x3e60169c	0.21883625
171	0x3d37808f	0.044800337
172	0xbe3c61c2	-0.18396667
173	0xbe204e28	-0.15654814
174	0x3d79e4cd	0.061009217
175	0x3e41468d	0.18874569
176	0x3d37375e	0.044730537
177	0xbdaff792	-0.08592142
178	0xbe0d19ef	-0.13779424
179	0xbe37cc5e	-0.17949054
180	0x3d2f80d5	0.042847473
181	0x3e155951	0.14584853
182	0xbd3563d9	-0.044284675
183	0x3bfb082b	0.007660886
184	0xbde44b20	-0.111471415
185	0x3d36b635	0.04460736
186	0xbcd0c22d	-0.025483215
187	0x3e14ffe8	0.14550745
188	0xbe18631b	-0.14881556
189	0x3df10e80	0.11770344
190	0xbddf7afd	-0.1091213
191	0xbe681be9	-0.22666897
192	0x3db4a01a	0.088195994
193	0x3d754c68	0.05988732
194	0x3e16c5a4	0.14723831
195	0xbdb91855	-0.09037844
196	0x3e201b53	0.15635423
197	0xbe0ebca7	-0.13939153
198	0xbdccd74b	-0.100020014
199	0xbe4c42f7	-0.1994742
200	0xbb9d49de	-0.0048000654
201	0x3d4e0e69	0.05030671
202	0x3e5c7c26	0.21531734
203	0x3e053860	0.13009787
204	0x3e1508ca	0.14554134
205	0xbe6fe29c	-0.23426288
206	0x3e93d0dc	0.28870285
207	0xbc0e1c07	-0.008673674
208	0x3dcee1ce	0.101016626
209	0xbe85db59	-0.2614391
210	0x3e1280e7	0.14306985
211	0xbcee278b	-0.02907159
212	0xbc7ac0a7	-0.015304721
213	0xbe47fdd9	-0.19530429
214	0x3e5d3d4a	0.21605411
215	0x3cdf8a0c	0.027287506
216	0xbe992931	-0.2991424
217	0x3e6431a4	0.22284561
218	0xbea645c6	-0.32475108
219	0xbc9a04a9	-0.01880105
220	0x3e458c5e	0.19291827
221	0xbe821036	-0.25402993
222	0x3db1f0ae	0.08688484
223	0x3e1ddae2	0.15415528
224	0x3daaed80	0.08346081
225	0xbdd80b61	-0.10549045
226	0x3e2b507e	0.16729924
227	0x3e6e4a1d	0.2327046
228	0x3b4c29bc	0.0031152805
229	0x3dc7f8cc	0.09764251
230	0xbc11dfe9	-0.008903482
231	0x3e1f7a89	0.15574087
232	0x3e31a3cc	0.1734764
233	0x3db2da4d	0.08733044
234	0xbcb00037	-0.021484477
235	0x3e1cfebc	0.15331548
236	0x3c11e53c	0.008904751
237	0xbe60400e	-0.21899435
238	0x3d36ea84	0.044657245
239	0x3d73ba64	0.059503928
240	0xbe03a7b2	-0.1285694
241	0x3e015c60	0.12632895
242	0xbdde8f4c	-0.108671755
243	0x3ce0af7a	0.027427424
244	0x3dbbb13d	0.09164665
245	0x3e1f1d0f	0.15538429
246	0x3daeeb6e	0.085409984
247	0x3e37a227	0.1793295
248	0xbe77866a	-0.24172369
249	0x3df085d2	0.11744274
250	0x3de2fdea	0.110835865
251	0x3c99f4e7	0.018793536
252	0xbe50186a	-0.20321813
253	0xbcaa15b6	-0.020762306
254	0x3d9d1230	0.076694846
255	0x3e13b7de	0.14425609

energy_lin.1.weight f4 [300, 300]
0	0x3d8711fe	0.065952286
1	0xbde12126	-0.10992651
2	0xbe1b038e	-0.15138075
3	0xbdfabd3b	-0.12243124
4	0x3c6095de	0.013707606
5	0x3d4cff9e	0.050048463
6	0xbd813557	-0.06309002
7	0x3e15a088	0.14612019
8	0xbde1ae21	-0.110195406
9	0x3c75da67	0.015005684
10	0x3d3f21ba	0.046663024
11	0x3e056b3d	0.1302919
12	0xbc430950	-0.011904076
13	0x3df057b7	0.1173548
14	0xbd7270d3	-0.05918963
15	0x3baa22b2	0.0051921243
16	0xbdc27770	-0.09495437
17	0x3c42a412	0.011879938
18	0xbd58f062	-0.052963622
19	0x3cbfb89c	0.023403458
20	0x3de25e30	0.11053121
21	0x3d394e2d	0.04524057
22	0xbd8569d6	-0.06514327
23	0x3d2a4ff2	0.041580148
24	0xbe268faa	-0.16265741
25	0xbcdbfbdd	-0.026853496
26	0x3c9d5837	0.019207103
27	0xbc1c20cf	-0.009529307
28	0xbc8be769	-0.017078118
29	0xbe374166	-0.17896041
30	0xbd4f5a40	-0.05062318
31	0xbdc81fe3	-0.09771707
32	0x3d714657	0.058904972
33	0xbd2bdd39	-0.04195902
34	0xbe101d2a	-0.14073625
35	0x3d8c2fa6	0.06845026
36	0xbe3301df	-0.17481183
37	0x3e276b86	0.1634961
38	0x3dd2b53f	0.10288476
39	0x3e1ae0fd	0.15124889
40	0xbdd4e3cf	-0.103950135
41	0xbd5eff60	-0.054442763
42	0xbd44597d	-0.047936905
43	0x3cfbde53	0.03074566
44	0x3d6befda	0.057601787
45	0x3dbed811	0.09318555
46	0xbdc4bf48	-0.096067965
47	0xbdd1655d	-0.10224412
48	0xbb0ba166	-0.0021305918
49	0xbd0b81d2	-0.034059353
50	0x3e4a2c83	0.19743542
51	0x3e089cec	0.13341111
52	0x3d8ecd2c	0.06972727
53	0x3d7c04d4	0.061528042
54	0xbb6d6b38	-0.0036227237
55	0xbc421d96	-0.011847874
56	0x3e09d856	0.13461432
57	0x3e1edb8d	0.1551344
58	0xbded8cfc	-0.11599156
59	0x3e042239	0.1290368
60	0xbdbeed76	-0.09322636
61	0x3d91ff17	0.07128733
62	0x3df0b006	0.11752324
63	0x3ba63c64	0.005073117
64	0x3de697e8	0.112594426
65	0x3dca1812	0.09867872
66	0x3b9b0f6e	0.004732064
67	0xbcc41401	-0.02393532
68	0xbb9bf1e1	-0.004759059
69	0x3e4a7ffd	0.19775386
70	0x3b4a1988	0.0030837972
71	0x3de90325	0.11377553
72	0x3e2dd981	0.16977502
73	0xbe133148	-0.14374268
74	0x3e5b1e62	0.21398309
75	0x3c0c9a88	0.008581765
76	0xbdff3f4c	-0.12463245
77	0x3e1bbb88	0.15208256
78	0x3d6a7701	0.057242397
79	0x3d1b0a70	0.03785175
80	0x3d5c5e25	0.05380072
81	0xbd5cb169	-0.05388013
82	0xbe26731f	-0.16254853
83	0xbd8ac879	-0.067765184
84	0x3d8b6ac2	0.06807472
85	0xbd4ba696	-0.049719416
86	0xbe0f2763	-0.13979869
87	0xbe308b51	-0.17240645
88	0x3df53ba9	0.1197427
89	0x3ca64787	0.020297779
90	0x3de54b0c	0.11195955
91	0x3d1d5a68	0.038416296
92	0xbd2f5e06	-0.042814277
93	0x3c13cc64	0.0090208985
94	0x3d4aae2a	0.049482502
95	0xbe056d30	-0.13029933
96	0x3d9feed0	0.07809222
97	0x3c20a4a5	0.009804879
98	0x3d54895d	0.051888812
99	0x3bf84f46	0.0075778095
100	0xbc94c5ac	-0.018160664
101	0xbe369dd8	-0.1783365
102	0xbd31d415	-0.043415148
103	0x3d68f9ee	0.056878977
104	0xbd6fb2aa	-0.058519997
105	0xbc89a1a4	-0.01680071
106	0x3db9bb9f	0.09068989
107	0x3d00f776	0.031485997
108	0x3e1b9d82	0.15196803
109	0x3ccd9d33	0.025099372
110	0x3d71efd6	0.059066616
111	0x3e1f6001	0.15563966
112	0x3b9676a2	0.004591779
113	0x3d5bbf1f	0.053649064
114	0x3d4cafe3	0.049972426
115	0x3c7e7c93	0.0155326305
116	0x3ca65c13	0.020307576
117	0x3cb47c06	0.022031795
118	0xbdbf050c	-0.093271345
119	0xbdaff201	-0.085910805
120	0x3dd9ab3d	0.10628364
121	0x3e14ea8f	0.14542602
122	0xbe187c88	-0.14891255
123	0x3df245ed	0.118297435
124	0xbe003d69	-0.12523426
125	0xbd8c652e	-0.06855236
126	0xbc845fbb	-0.01615893
127	0x3d10814b	0.035279553
128	0x3e386333	0.18006591
129	0xbdc6f68b	-0.09714993
130	0xbda27382	-0.079321876
131	0xbbc73f4f	-0.006080545
132	0x3d801451	0.06253875
133	0x3da7f204	0.08200458
134	0xbd505732	-0.050864406
135	0x3e231a00	0.15927887
136	0xbb96835a	-0.004593295
137	0xbc535cb4	-0.01290052
138	0x3d941916	0.07231347
139	0x3d364658	0.04450068
140	0x3d3b8bab	0.045787495
141	0xbd92e936	-0.07173388
142	0xbdbbd50d	-0.091714956
143	0xbd003e22	-0.031309254
144	0xbddb2c40	-0.107017994
145	0x3d8eeb8b	0.0697852
146	0x3cf324fe	0.029680725
147	0xbd404ead	-0.04695003
148	0xbd77bf38	-0.060485095
149	0xbd844b3b	-0.064596616
150	0x3c51de3b	0.0128093315
151	0xbdf74649	-0.12073953
152	0xbc89dc62	-0.01682872
153	0xbdb97e59	-0.09057302
154	0x3d2ee95d	0.04270302
155	0x3d708484	0.058720127
156	0xbda54c95	-0.080712475
157	0x3d97b3f1	0.07407368
158	0x3ddff644	0.10935643
159	0xbdbc3d4e	-0.091913804
160	0xbc818873	-0.015812134
161	0x3df16a2a	0.11787827
162	0xbbfb47b4	-0.00766846
163	0x3d0c47c9	0.034248147
164	0xbcd17217	-0.025567098
165	0xbcb8434e	-0.02249303
166	0x3c7779e0	0.015104741
167	0xbe0677e0	-0.13131666
168	0x3e01097d	0.12601276
169	0x3daab8f6	0.0833606
170	0xbc1a3fa0	-0.009414583
171	0x3d2f9055	0.042862255
172	0x3d269ab0	0.040674865
173	0xbd1cebb1	-0.03831071
174	0x3d82ca16	0.06386201
175	0x3d6e3bde	0.058162563
176	0x3d28bf1a	0.041197874
177	0x3d780f0f	0.060561236
178	0xbdafd546	-0.085856006
179	0xbe3ce69f	-0.1844735
180	0xbc962c6c	-0.018331729
181	0x3e195598	0.14974058
182	0x3cab5f50	0.020919472
183	0xbe03d742	-0.12875083
184	0x3d62ffb7	0.05541965
185	0x3e232fbf	0.15936182
186	0x3de330e4	0.110933095
187	0x3de35d0d	0.111017324
188	0x3ab08b9b	0.001346934
189	0x3cec9e9b	0.028884223
190	0xbdc17879	-0.094468065
191	0xbd81da3f	-0.06340455
192	0xbd0e3e10	-0.034727156
193	0x3d8618f8	0.06547731
194	0xbe09b143	-0.13446526
195	0x3d99d3d1	0.07511104
196	0x3cd7e0df	0.026352344
197	0x3d565be5	0.05233373
198	0x3dbe6ef8	0.09298509
199	0x3d758d56	0.05994924
200	0x3c6f6305	0.01461101
201	0xbdd9ceef	-0.106351726
202	0x3e1f759d	0.1557221
203	0x3dc1a848	0.09455925
204	0xbd825513	-0.06363883
205	0x3ced365a	0.02895658
206	0x3c769865	0.015050982
207	0x3c0af5ad	0.008481425
208	0xbea38a72	-0.31941563
209	0x3dce4f8a	0.100737646
210	0xbd085a6d	-0.03328936
211	0xbd07ae72	-0.03312535
212	0x3d41987f	0.047264572
213	0x3d1e0712	0.03858096
214	0x3dfa832b	0.122320496
215	0xbd9638be	-0.073350415
216	0x3dc1b50e	0.094583616
217	0x3dfb6131	0.12274397
218	0x3db23998	0.087023914
219	0x3cbc6a90	0.023000032
220	0xbd52509a	-0.0513464
221	0xbc349d44	-0.011023823
222	0x3d737be3	0.05944432
223	0x3ddebc52	0.10875763
224	0xbd9f4ce0	-0.077783346
225	0xbc0258f4	-0.007955778
226	0x3e09b3e0	0.13447523
227	0xbd96ea25	-0.07368878
228	0x3d492811	0.049110476
229	0x3d8a7199	0.06759948
230	0xbd9cb5de	-0.07651876
231	0x3ded118b	0.11575612
232	0x3e0178eb	0.12643783
233	0xbd702c83	-0.0586362
234	0x3e1ea0e9	0.1549107
235	0x3c81c8cd	0.01584282
236	0x3c7c6150	0.0154040605
237	0xbdcd0cb1	-0.10012186
238	0xbdad52cb	-0.08463057
239	0xbe0185d4	-0.12648708
240	0xbc0922e4	-0.008370135
241	0x3e11c63f	0.14235781
242	0xbb810eaa	-0.0039385157
243	0xbdb11f14	-0.08648506
244	0xbdf603b0	-0.12012422
245	0xbd8a5a47	-0.067555
246	0x3b67d9b4	0.0035377564
247	0x3e1c5477	0.15266596
248	0x3d0825c3	0.033239137
249	0xbd5613f6	-0.05226513
250	0x3d0519e2	0.032495387
251	0xbd4b8c5e	-0.04969441
252	0xbe3682d2	-0.17823341
253	0x3c8248c1	0.015903832
254	0xbccb3142	-0.024803761
255	0x3cdbccee	0.026831117

energy_lin.1.bias f4 [300]
0	0x3c4f72fd	0.012661693
1	0xbcdc00c7	-0.02685584
2	0x3d2b6905	0.0418482
3	0x3da66ea2	0.0812657
4	0x3c20c5da	0.0098127965
5	0xbd45c7d3	-0.04828627
6	0x3d697dec	0.057004854
7	0x3d8ee9ea	0.06978209
8	0xbc4a4928	-0.012346543
9	0x3d9190a6	0.071076676
10	0x3d1e7b1f	0.038691636
11	0x3d383809	0.044975314
12	0xbc90046d	-0.017580235
13	0xbd12c503	-0.035832416
14	0x3b6aa6d8	0.0035805013
15	0x3a8a9ea5	0.0010575844
16	0x3d8cac64	0.068688184
17	0x3c1fd7c5	0.009756033
18	0x3d607e3d	0.05480789
19	0xbc34fb1f	-0.0110462
20	0x3d445075	0.047928292
21	0x3d834b0f	0.06410801
22	0x3d37e7be	0.04489874
23	0xbca92180	-0.020645857
24	0x3d599316	0.053118788
25	0x3d2cee28	0.04221931
26	0x3cefd04f	0.029274134
27	0x3d945999	0.07243652
28	0x3d212f0c	0.039351508
29	0x3d8f8801	0.070083626
30	0x3d4eefa0	0.050521493
31	0x3d8a32ba	0.067479566
32	0xbcd03b08	-0.025418773
33	0xbd5dcdda	-0.054151393
34	0x3c49c7f9	0.012315744
35	0x3c166b22	0.009180816
36	0x3d30a309	0.043124232
37	0x3cc360b0	0.023849815
38	0x3c33f309	0.010983237
39	0xbbb1b979	-0.0054237214
40	0x3daeea13	0.0854074
41	0xbc981191	-0.018563064
42	0x3d08b5af	0.033376392
43	0x3c80a8a7	0.01570542
44	0x3d54d59d	0.05196153
45	0x3cfc1ebd	0.030776376
46	0xbd132de2	-0.03593243
47	0xbbe8ad7e	-0.00710076
48	0x3ca57b99	0.020200538
49	0x3d3c43e6	0.04596319
50	0x3d4645e0	0.04840648
51	0x3ca41a8d	0.020032192
52	0xbceb78f6	-0.028744202
53	0x3d85c9b1	0.0653261
54	0x3d151e6d	0.03640597
55	0x3d943188	0.0723601
56	0x3c1599dc	0.009130921
57	0x3d1fa308	0.038973838
58	0xbd350776	-0.04419657
59	0x3c22063b	0.009889181
60	0xbbc28f89	-0.005937521
61	0x3c88ec28	0.01671417
62	0xbcd2d8a4	-0.025738068
63	0x3da1e20d	0.07904444
64	0x3d4a4e81	0.049391273
65	0x3d8c5c79	0.06853575
66	0xbbbb3e65	-0.005714225
67	0x3d0e29c8	0.034707814
68	0x3d871268	0.065953076
69	0x3b93a802	0.004506112
70	0x3daf456f	0.08558165
71	0x3d1adb01	0.037806515
72	0xbcfc7689	-0.03081824
73	0x3d3896ba	0.04506562
74	0xbba6b726	-0.005087751
75	0x3c1a3e51	0.009414271
76	0xbc07b0cf	-0.008281901
77	0xbcf10f89	-0.029426353
78	0x3d74ccb9	0.05976555
79	0x3c8c99b4	0.017163135
80	0x3d8d8eef	0.06912028
81	0x3cc0b7f2	0.023525212
82	0x3cf7d00c	0.030250572
83	0x3ac98fd3	0.0015377946
84	0xbcf8807b	-0.030334702
85	0x3d8f0335	0.069830336
86	0xbc9dd0ad	-0.019264543
87	0x3db9320a	0.09042747
88	0x3d62494d	0.055245686
89	0x3d87dffb	0.06634518
90	0x3d7cef34	0.06175156
91	0xbc3798ee	-0.011205895
92	0x3dbae3e2	0.091254964
93	0x3b9772c7	0.004621837
94	0xbd77f88a	-0.06053976
95	0xbc4c6d14	-0.012477178
96	0xbc0b209b	-0.0084916605
97	0x3d37dd2f	0.04488867
98	0x3ce78de5	0.028265903
99	0x3d8871a2	0.06662299
100	0x3d7aeff7	0.061264005
101	0x3d111352	0.035418816
102	0x3d942a94	0.07234684
103	0x3c8c456b	0.017122945
104	0x39aef4f6	0.00033370376
105	0xbc1a2b9a	-0.0094098095
106	0x3caa29d6	0.020771902
107	0x3d664aed	0.0562238
108	0x3d96c624	0.07362011
109	0xbd50330a	-0.050829925
110	0x3ba5679f	0.005047753
111	0x3c98fd6d	0.01867553
112	0x3c477c77	0.012175671
113	0x3d695302	0.056963928
114	0x3b566abd	0.003271743
115	0x3d23b575	0.039967973
116	0x3cea65de	0.028613027
117	0x3d1672e6	0.03673067
118	0x3d35d70d	0.04439454
119	0x3c8f500a	0.01749422
120	0x3ba47fad	0.005020103
121	0x3cfb846d	0.030702794
122	0x3d16cb2c	0.036814854
123	0x3cf65500	0.030069828
124	0xbd1b4ccc	-0.037915036
125	0x3db20216	0.08691804
126	0x3dbeaa46	0.09309821
127	0x3d3aa818	0.045570463
128	0xbcb98ac9	-0.022649186
129	0x3d484f5b	0.048903804
130	0x3c7271dd	0.014797655
131	0x3d8d4c61	0.06899334
132	0x3c727728	0.014798917
133	0xbbdc3b7b	-0.006720958
134	0x3c8b644b	0.017015597
135	0x3da9cb26	0.082907006
136	0x3d5d6e64	0.054060355
137	0xbd091ab0	-0.033472717
138	0x3da8a871	0.08235253
139	0x3d80298c	0.062579244
140	0x3d17cdd8	0.037061542
141	0xbd322077	-0.043487992
142	0x3d143dd3	0.036191773
143	0xbd4b0bc3	-0.049571764
144	0xbc653a59	-0.013990962
145	0xbc7d36b6	-0.015454939
146	0x3ab2ea76	0.0013650197
147	0x3c5a3ea1	0.013320596
148	0xbbcc5b6f	-0.0062364857
149	0x3c428c0b	0.011874209
150	0xb91d1387	-0.00014979961
151	0x3d6fb732	0.058524318
152	0xbd2df3fb	-0.042469006
153	0xb9cfca89	-0.00039633017
154	0x3bc23540	0.005926758
155	0x3cfd8e74	0.030951716
156	0x3cdc92da	0.026925493
157	0x3c133e7c	0.008987065
158	0x3d0b83f6	0.034061395
159	0xbccc0c14	-0.024908103
160	0xbcdda7c1	-0.02705753
161	0x3d470131	0.04858512
162	0x3da3c18c	0.079959005
163	0x3cd871be	0.026421424
164	0xbc7dc10d	-0.015487921
165	0x3d8f028b	0.06982907
166	0x3d75cf89	0.060012374
167	0x3d2865c7	0.041112687
168	0x3d170ad3	0.036875557
169	0x3d072a38	0.032999247
170	0xba625595	-0.00086339685
171	0xbca885c2	-0.020571593
172	0x3d6a9c37	0.057277884
173	0x3d87e260	0.066349745
174	0x3d8776c2	0.06614448
175	0x3d55dd19	0.05221281
176	0xbca54a6f	-0.020177094
177	0x3c1fa52c	0.00974397
178	0x3ccb7b41	0.024839045
179	0xbbac51d3	-0.0052587776
180	0x3d027c45	0.031856794
181	0xbc97ee87	-0.018546356
182	0x3d2d2d84	0.042279735
183	0xbd1d54f5	-0.0384111
184	0xbc991acb	-0.018689534
185	0x3c013bb5	0.00788777
186	0xbd4d0c8b	-0.05006079
187	0xb928f474	-0.00016112794
188	0x3d01cad4	0.031687573
189	0xbc21f0a4	-0.009884033
190	0xbcf5da10	-0.030011207
191	0x3cbc541c	0.022989325
192	0xbc89edf4	-0.016837098
193	0xbcbeb48c	-0.02327945
194	0x3c9e71ac	0.019341312
195	0xbd2361df	-0.03988826
196	0xbb9dc105	-0.0048142695
197	0xbc735526	-0.014851844
198	0x3d73d109	0.059525523
199	0x3d40d3ed	0.04707711
200	0xbc2015e7	-0.009770847
201	0x3c52c369	0.012863972
202	0xbc9fa1b2	-0.019486282
203	0xbcb0ee1b	-0.021597913
204	0xbc2ac2f3	-0.010422456
205	0x3cf97bd8	0.030454561
206	0xbc0897ba	-0.008336956
207	0xbcbf83ae	-0.02337822
208	0x3c1b6878	0.0094853565
209	0x3d42f73d	0.047599066
210	0x3c178205	0.009247308
211	0x3d620a39	0.05518553
212	0xbd1a2ef6	-0.03764244
213	0x3d8f0fe7	0.06985455
214	0xbd2cb61f	-0.04216587
215	0xbcc75a34	-0.024335004
216	0x3d6c62a0	0.057711244
217	0x3d1b6818	0.03794107
218	0xbc186e8a	-0.009303698
219	0x3d7e8c35	0.06214543
220	0x3c36f175	0.011165966
221	0xbbea2c91	-0.007146426
222	0x3d3cfe3d	0.046140898
223	0xbc8e147c	-0.017343752
224	0x3ddfe739	0.10932774
225	0x3b23ce77	0.0024994889
226	0x3d1c0d45	0.038098592
227	0x3d805ead	0.06268058
228	0x3aad093d	0.0013201606
229	0xbbfb6b3f	-0.007672697
230	0x3d107791	0.035270277
231	0x3c9fd964	0.01951284
232	0x3d89d1b2	0.06729449
233	0x3ca9746b	0.020685395
234	0x3d56492d	0.05231588
235	0xbd46521d	-0.048418153
236	0x3ce835ca	0.028345961
237	0x3d2ef0bf	0.042710062
238	0x3d04c2cc	0.032412335
239	0x3d2680f1	0.04065031
240	0xbd129bb2	-0.035793014
241	0xbc85afc7	-0.016319169
242	0x3da3ee10	0.08004391
243	0x3bb60e1b	0.0055558807
244	0x3cbd4af1	0.023107024
245	0x3bc7d86a	0.0060987966
246	0xbd11cd51	-0.035596196
247	0x3c8cfaf1	0.017209502
248	0x3c0b2240	0.008492053
249	0xbd1907c0	-0.037360907
250	0xbc6d0543	-0.0144665865
251	0x3d03b594	0.03215559
252	0x3db6f143	0.08932736
253	0xbc4f9428	-0.012669601
254	0x3bd9f725	0.0066517764
255	0xbb0eadc1	-0.0021771046

energy_lin.3.weight f4 [150, 300]
0	0x3d0e58c2	0.034752615
1	0x3cae7d02	0.021299843
2	0x3dd8176e	0.10551344
3	0xbd4bcf8c	-0.04975848
4	0xbdf48c63	-0.11940839
5	0xbdee7b13	-0.11644568
6	0xbd92a981	-0.071612366
7	0x3d084b3b	0.03327487
8	0xbd5e8672	-0.054327436
9	0x3dbc6c53	0.09200349
10	0xbda41002	-0.08010866
11	0x3d6c9aed	0.057764936
12	0x3dc6f95f	0.097155325
13	0x3e2415a4	0.1602388
14	0x3db89a3e	0.09013794
15	0x3dc0f834	0.09422341
16	0x3e370563	0.17873149
17	0x3dc2b11d	0.09506438
18	0x3dd2beb8	0.10290283
19	0x3db4b194	0.08822933
20	0x3e07eb8e	0.1327345
21	0x3d41bccf	0.047299203
22	0xbe080369	-0.13282551
23	0x3dfe72f0	0.12424266
24	0xbd8eb4d9	-0.06968088
25	0x3de99e84	0.114071876
26	0xbd72dd62	-0.05929316
27	0x3dedc575	0.116099276
28	0x3dd044e6	0.10169391
29	0x3a8b7c48	0.0010641897
30	0xbb8eb4fa	-0.00435507
31	0x3de461b9	0.111514516
32	0x3dac8b5a	0.08425017
33	0xbd9f2c4a	-0.07772119
34	0xbdcefdd0	-0.10107005
35	0xbda15094	-0.07876697
36	0x3d4a8e2e	0.049452
37	0x3df577a3	0.119857095
38	0x3d98f506	0.074686095
39	0xbdd47d48	-0.10375458
40	0x3da2fcdf	0.079583876
41	0xbca585d2	-0.020205412
42	0x3acc7e1a	0.0015601546
43	0xbd1ee995	-0.03879698
44	0x3d83e967	0.06441002
45	0x3e264572	0.16237429
46	0xbd4f9acf	-0.050684746
47	0x3db7d236	0.089756414
48	0x3c8ad04a	0.016945023
49	0x3dbcf0e9	0.092256375
50	0xbd974856	-0.07386844
51	0xbcf045c5	-0.029330144
52	0xbdfabc27	-0.122429185
53	0x3d96fc42	0.07372333
54	0x3eac1ffb	0.3361815
55	0x3b9b4770	0.0047387406
56	0xbcd38342	-0.025819425
57	0xbda75e1b	-0.08172246
58	0xbe704cd9	-0.23466815
59	0xbcc296db	-0.023753574
60	0x3cc1c738	0.023654565
61	0xbdde58a6	-0.10856752
62	0x3e1d2288	0.15345204
63	0x3e26b340	0.16279316
64	0xbdb37e72	-0.08764352
65	0xbcbe1f56	-0.023208302
66	0x3cbe8c19	0.023260163
67	0x3ce1d5f5	0.027567843
68	0xbd4ea6e3	-0.050452124
69	0xbc7874be	-0.015164552
70	0xbc8327a0	-0.016010106
71	0xbd3c50f5	-0.045975644
72	0x3e16078e	0.1465132
73	0x3c86b9ae	0.01644596
74	0x3b4c7d52	0.0031202626
75	0x3d96e4f9	0.07367892
76	0xbd03fe8b	-0.032225173
77	0xbd9bdd64	-0.07610586
78	0x3e3a48f1	0.18191887
79	0xbe00bc0f	-0.12571739
80	0xbdc389d6	-0.095477745
81	0x3e0b1312	0.13581493
82	0xbd445cae	-0.04793995
83	0xbd6c3b6e	-0.057673864
84	0xbdff4a18	-0.12465304
85	0x3e1157a4	0.14193588
86	0x3e0d049e	0.13771293
87	0x3d995358	0.074866
88	0x3c07e5f7	0.008294574
89	0x3ddfee5f	0.109341376
90	0x3d03264b	0.03201894
91	0xbd4ee038	-0.0505068
92	0x3dfdbc51	0.12389434
93	0xbded18fc	-0.11577031
94	0x3dd7da72	0.10539712
95	0x3e3ce33a	0.18446055
96	0xbd2140aa	-0.03936831
97	0xbc3692ec	-0.011143427
98	0xbdc0fd8e	-0.09423362
99	0x3d3880bd	0.04504465
100	0x3c6f93e4	0.014622662
101	0x3dc0ea26	0.0941966
102	0xbcad269f	-0.02113658
103	0x3db4337c	0.08798882
104	0x3ce9ba55	0.028531233
105	0x3e88deae	0.2673239
106	0xb9136721	-0.00014057431
107	0xbd664748	-0.056220323
108	0xbe0a7863	-0.13522486
109	0x3e0fa0dc	0.14026207
110	0xbd028544	-0.031865373
111	0x3b9584d4	0.0045629535
112	0x3dc1fa9d	0.09471629
113	0x3d726ec1	0.059187654
114	0x3d92eb55	0.07173792
115	0xbb0260a0	-0.0019894019
116	0x3e07bf9c	0.13256687
117	0xbd4d00b1	-0.050049488
118	0xbde008b4	-0.1093916
119	0xbd67884d	-0.05652647
120	0xbc4e512c	-0.012592595
121	0x3e03bf13	0.12865858
122	0x3dc8d73d	0.098066784
123	0x3d98d0a2	0.074616686
124	0x3b0a1512	0.0021069688
125	0x3e11aa86	0.14225206
126	0xbd95011c	-0.07275602
127	0x3d5c8800	0.053840637
128	0x38971919	7.204916e-05
129	0xbbc11c4f	-0.005893267
130	0x3d9d4dc4	0.07680848
131	0x3e0e2d88	0.13884556
132	0xbd340755	-0.043952305
133	0x3f0b16d3	0.543317
134	0xbd864836	-0.06556742
135	0xbd802335	-0.06256715
136	0xbd88c663	-0.06678464
137	0x3dcac64e	0.09901105
138	0x3cc9122d	0.0245448
139	0xbe1afcd1	-0.15135504
140	0xbc52a523	-0.0128567545
141	0x3d0a887a	0.03382156
142	0xbdc7b252	-0.09750809
143	0xbd993bad	-0.074820854
144	0x3cc4b20f	0.024010686
145	0xbde3254a	-0.11091097
146	0x3e072868	0.13199008
147	0x3e26765d	0.1625609
148	0xbcab7133	-0.020928001
149	0x3d5db1cd	0.054124642
150	0x3d829c4c	0.063774675
151	0x3d9248c9	0.07142789
152	0xbd14efa4	-0.03636135
153	0x3dadbf1b	0.08483716
154	0xbd68433c	-0.056704745
155	0x3da09388	0.07840639
156	0x3e06ca33	0.1316307
157	0xbdc3c280	-0.09558582
158	0x3e28850f	0.16457008
159	0x3d528fae	0.051406555
160	0x3d4ed9b1	0.050500575
161	0xbcc570f7	-0.024101717
162	0xbd908373	-0.07056322
163	0x3dee5767	0.116377644
164	0xbd994029	-0.07482941
165	0x3d8745f4	0.066051394
166	0xbded142b	-0.11576112
167	0x3d9fc9a7	0.07802134
168	0x3d49d510	0.049275458
169	0x3c9e5a2c	0.019330107
170	0xbddae3f1	-0.106880076
171	0xbd2f55c2	-0.042806394
172	0xbda11c2f	-0.07866704
173	0x3e2ef3cf	0.17085193
174	0x3ce99a98	0.028516099
175	0xbdd3f641	-0.103497036
176	0xbcb4e104	-0.022079952
177	0x3e03cf58	0.12872064
178	0xbdd2fda5	-0.10302285
179	0x3e09927e	0.13434789
180	0xbdf8a045	-0.12139944
181	0xbd94eec3	-0.07272103
182	0x3def9462	0.11698224
183	0x3df487b0	0.11939943
184	0x3a1291f1	0.0005591205
185	0x3d81f1fd	0.06344984
186	0x3d26d3ef	0.04072946
187	0xbd9fb43e	-0.0779805
188	0x3dd5628e	0.104191884
189	0xbddb206c	-0.10699543
190	0x3da0e343	0.07855847
191	0xbe1e7ef5	-0.15478118
192	0xbd6f7312	-0.05845935
193	0x3ce82ebf	0.028342603
194	0x3d2d62b9	0.042330477
195	0xbbc9155b	-0.006136579
196	0x3da4f207	0.080539756
197	0xbe05b670	-0.13057876
198	0x3d95eb65	0.073202886
199	0xbdd83607	-0.1055718
200	0x3c747a3a	0.014921719
201	0x3dbd88d7	0.09254616
202	0xbdf033c0	-0.117286205
203	0xbe0390c1	-0.12848188
204	0xbea986fd	-0.331108
205	0xbd93595b	-0.071947776
206	0x3e20e325	0.15711649
207	0xbdc17152	-0.09445442
208	0xbc6f0c19	-0.014590287
209	0xbce492da	-0.027902056
210	0xbe12b8f0	-0.1432836
211	0xbcdc101e	-0.026863154
212	0xbdf2b5f2	-0.118511096
213	0xbde76707	-0.11298948
214	0x3de14c20	0.11000848
215	0x3e15a081	0.14612009
216	0xbe06785d	-0.13131852
217	0x3d4e3085	0.05033924
218	0x3dc93979	0.09825415
219	0xbe0497e0	-0.1294856
220	0xbd99a8df	-0.07502913
221	0x3e35d08a	0.17755333
222	0xbdd2909a	-0.10281487
223	0xbda38ac1	-0.079854496
224	0x3dcc4795	0.09974591
225	0x3d12982f	0.035789665
226	0x3d104ae8	0.035227686
227	0x3cec4199	0.028839873
228	0xbde636da	-0.11240931
229	0x3e873468	0.2640717
230	0xbea9ae22	-0.33140665
231	0xbe4253df	-0.18977307
232	0xbd846c21	-0.064659365
233	0x3c36de87	0.011161453
234	0x3d79decb	0.061003488
235	0x3de78a7b	0.1130571
236	0x3e07dd2b	0.13267963
237	0xbdab98bc	-0.08378741
238	0x3dea9061	0.11453319
239	0x3d6a5589	0.05721048
240	0x3d9e6733	0.077345274
241	0xbda57b5f	-0.08080172
242	0x3e1b5e2c	0.15172642
243	0xbdc553e5	-0.09635142
244	0xbd828df9	-0.063747354
245	0xbd468abf	-0.048472162
246	0x3d503f2e	0.050841503
247	0xbdc01de7	-0.093807034
248	0x3c762241	0.015022815
249	0x3d9b2d96	0.07577054
250	0xbb218bae	-0.0024649906
251	0x3e107dcd	0.14110489
252	0x3eca4f0c	0.39513433
253	0x3df0d8a4	0.11760071
254	0x3d7f7f26	0.062377118
255	0x9962a444	-1.1717099e-23
