models/mpnn_A139_B23_E300_L2/22.pt (torch, 742651 bytes, 9 tensors)

atom_lin.weight f4 [300, 139]
00000000: f3b7 523d a146 893d 1d70 3580 8d84 1e28
00000010: c03a 0ca9 4843 7317 a8d0 3fbe f190 423e
00000020: a3fe a23c 1500 8a3d aad8 f515 7244 2e1b
00000030: 4316 413e 25a2 ed1b 8161 4311 eed7 9f3d
00000040: 76b1 b73c 5943 c0bd 0e34 2e1c 0dab 4890
00000050: 60df b724 9670 be88 6faf 8016 04b1 d026
00000060: 6666 9211 7500 583d a4e3 2dbe 1db9 223e
00000070: 3883 8987 d154 7b9d a4e9 378a d265 8fa0
00000080: 9227 1616 fa46 769a 8ad1 a128 bf13 ce3d
00000090: 8f02 601a 7b39 e30d 5cce 4e26 8819 99a1
000000a0: 9c06 79a9 a2db 44a0 520a e795 c709 b725
000000b0: cc14 148e 23b5 37a2 3253 a31f 84b0 502a
000000c0: d183 4026 0cb7 4591 1704 f49a f001 3109
000000d0: 68ef 221d 1070 d13d 87be 3ca5 2fca 25a4
000000e0: 3952 9c15 245a da15 ae16 911a f951 25aa
000000f0: a269 3500 43ba 0599 8e47 4d89 fa6a 3500
00000100: 5760 72aa c3aa 4411 8578 6ea4 6081 f90e
00000110: ac66 2e12 186c 3580 e623 f7a8 bc63 12a2
00000120: 706e 3500 5035 601e 1185 3580 1c2e 4593
00000130: d7ea e9a4 8566 881c aacc 0095 cc30 649c
00000140: 9360 9525 10eb 8c00 aa82 b419 7482 589e
00000150: e2ef 511a af01 4ca9 2362 1711 9464 6e25
00000160: 0c48 8d0e ff0f 258e 2703 90a7 70a6 1781
00000170: 2770 2b18 3604 0ba4 5cf0 0809 4920 7827
00000180: 51a3 d793 42dc 4717 7e71 0328 c068 3500
00000190: c291 789f 1d29 f924 a257 648b c698 b4a7
000001a0: 1a1e 6402 54a9 c5a6 dd55 2e19 bf90 2d27
000001b0: e516 8c24 69c2 3827 3bd1 6ea0 6c31 619e
000001c0: 9b73 0f95 244b a1a2 2c92 0a00 6525 b09e
000001d0: 5d40 8005 f13b 8827 eea1 0516 13db 71bd
000001e0: 88c4 453b 247c 533e 6d18 163e ab4c c43d
000001f0: 3bf6 44a9 b8cb 07be 067f 07a6 d70a 7727
00000200: c7f0 483d 3fbe cc3d 37a6 b83d 5dfb 603c
00000210: 27e8 a23e 5999 a1bd af17 2422 011d a61e
00000220: f387 2b9b 2ebd f8a3 fd9a 47bd 6be7 e73c
00000230: 62f2 2dbe 7cdb 0919 3ec7 2ba1 8d59 3200
00000240: 5b86 3599 b73c 37be 6da0 883d 272b 053e
00000250: 18ab 47bd e458 1325 f962 d027 7c4f 68bc
00000260: 080a 199e 8bdf 2803 71c5 7a3e c78b 093d
00000270: 3458 4cbe eacb 930c 6b92 6c16 6637 9aa3
00000280: 8f97 8b02 3a5b 3885 1251 e710 c72d f026
00000290: b517 4cbe 5159 ebbc 95d3 aebd ba53 499e
000002a0: d055 9d17 cd5b 0f9d e4d0 c998 f2d7 241b
000002b0: ba38 ec9c 015e 8421 c0fe cebb ba9c 7a12
000002c0: 44e0 950f 9a75 3500 ee76 3580 5e52 1625
000002d0: 1ee5 a095 8c04 1680 bc9d 1ca3 60a6 14a3
000002e0: 4182 c69e 94b9 ff27 1049 f11a 0b5e 1515
000002f0: 4a03 6324 1a63 faa5 73e8 9da3 1d9b 411f
00000300: 1e8c 82bd 5172 2110 5141 1a8b 2e82 0727
00000310: 8e30 e1a7 39ca ec82 7e43 3e8f 44a4 4010
00000320: 5ea8 4f11 897a 3500 208d 3580 7619 a025
00000330: 525e 781e cee6 ed02 e24f c306 a0a4 b5a2
00000340: 2074 849a 8467 f51d 4156 69a3 13fc d482
00000350: ec36 68a6 3512 86a9 7c85 2396 3e20 c505
00000360: eb55 8624 3a53 980c 53bb 2e80 95f3 4a9c
00000370: 823d 351f 2f5e fc13 21e2 289f 8dc2 2723
00000380: 3958 20a3 1728 f029 86f8 c394 a583 3500
00000390: 6c3b 830b 1054 5014 b14f b99b 8f77 c19f
000003a0: 4d6d 3500 3877 6a25 fd8a 3500 274f a98e
000003b0: f365 7595 90b7 4f16 4bfe 860a 24f3 0f80
000003c0: d5ce 7f21 ab4e 8fa8 c40e 011e ac8f 58a9
000003d0: f229 c817 d5e7 b401 4349 808e 45b2 0b2a
000003e0: 35fc b71a d4ee b3a7 fa6a 9392 354e e389
000003f0: e6bf eb99 0947 bf13 6a27 aea6 8a91 84a3
0.05144496 0.067029245 -4.9075e-39 8.799504e-15 -3.1137202e-14 7.8602456e-25 -0.1873194 0.19000603
0.01989681 0.06738297 9.929655e-26 1.4415059e-22 0.18856148 3.9313144e-22 1.5412833e-28 0.07804857
0.022423487 -0.093878455 5.763905e-22 -3.9574818e-29 7.974201e-17 -1.1461678e-33 2.079023e-25 1.448088e-15
2.3097846e-28 0.05273481 -0.1698137 0.15890928 -2.0690592e-34 -3.3263422e-21 -8.8550724e-33 -2.4292521e-19
1.212939e-25 -5.0928942e-23 1.7965464e-14 0.1006236 4.632418e-23 1.4003793e-30 7.1750276e-16 -1.0374441e-18
-5.529484e-14 -1.6674516e-19 -9.331644e-26 3.1752065e-16 -1.8252422e-30 -2.4897018e-18 6.917082e-20 1.8535352e-13
6.6792026e-16 -1.5596966e-28 -1.0092264e-22 2.1306511e-33 2.1564292e-21 0.10226452 -1.6370954e-16 -3.5949928e-17
6.313762e-26 8.8191716e-26 6.0007235e-23 -1.4683384e-13 4.905175e-39 -6.913554e-24 -2.4709622e-33 4.905657e-39
-2.1527342e-13 1.5514294e-28 -5.1710107e-17 6.1507823e-30 5.503127e-28 -4.906058e-39 -2.7438077e-14 -1.9839489e-18
4.906899e-39 1.1869486e-20 -4.915017e-39 -2.488763e-27 -1.01445477e-16 9.026226e-22 -2.6010846e-26 -7.550194e-22
2.591282e-16 1.2941294e-38 1.8664339e-23 -1.1461922e-20 4.3413963e-23 -4.529856e-14 1.194204e-28 2.0677287e-16
3.4828562e-30 -2.0345522e-30 -3.9971447e-15 -2.7853733e-38 2.2157854e-24 -3.0144387e-17 1.6483421e-33 3.4434416e-15
-5.4434673e-27 6.457837e-25 7.2965705e-15 4.904859e-39 -5.263661e-20 1.08056185e-16 -4.397713e-32 -5.0125673e-15
1.6759433e-37 -1.3715517e-15 9.012929e-24 2.408704e-15 6.0754107e-17 2.564052e-15 -2.0228613e-19 -1.1921621e-20
-2.8969817e-26 -4.3718696e-18 9.70792e-40 -1.8650191e-20 1.2060705e-35 3.781257e-15 1.079475e-25 -0.059046816
0.0030176956 0.20652825 0.14657755 0.09584936 -4.3734313e-14 -0.13261306 -4.7009683e-16 3.4284012e-15
0.04905775 0.09997224 0.09016078 0.013731805 0.31817743 -0.07890577 2.2238683e-18 1.758793e-20
-1.4188716e-22 -2.6968335e-17 -0.048731793 0.02830859 -0.16986993 7.1270585e-24 -5.820075e-19 4.6239e-39
-9.3846136e-24 -0.17894255 0.06671224 0.13004743 -0.048747152 1.2780335e-16 5.7838904e-15 -0.014179107
-8.101827e-21 4.9627377e-37 0.2448938 0.033580568 -0.19955522 2.2771662e-31 1.911013e-25 -1.6720176e-17
2.0511205e-37 -8.668394e-36 9.1238343e-29 1.6665753e-15 -0.19930919 -0.028729113 -0.0853645 -1.0658166e-20
1.0167549e-24 -1.8973352e-21 -5.2168208e-24 1.3635538e-22 -1.5631833e-21 8.969551e-19 -0.0063169897 7.907927e-28
1.4778918e-29 4.909469e-39 -4.909945e-39 1.3038333e-16 -6.498497e-26 -2.022012e-39 -8.4901785e-18 -8.058327e-18
-2.1017937e-20 7.097792e-15 9.97933e-23 3.0164497e-26 4.9225565e-17 -4.343524e-16 -1.712042e-17 4.0997646e-20
-0.063743815 3.1839718e-29 -2.970846e-32 1.8805584e-15 -6.250269e-15 -3.4793153e-37 -9.380722e-30 3.799187e-29
1.6381303e-28 4.911239e-39 -4.917907e-39 2.7772829e-16 1.3148516e-20 3.4956496e-37 7.3468225e-35 -4.923445e-18
-5.478153e-23 6.4957993e-21 -1.264922e-17 -3.1295284e-37 -8.05656e-16 -5.953954e-14 -1.3209155e-25 1.8537635e-35
5.825879e-17 2.3469398e-31 -4.291632e-39 -6.7151016e-22 3.837912e-20 6.3706616e-27 -3.5762433e-20 9.094286e-18
-8.692299e-18 1.06650955e-13 -1.9787993e-26 4.914506e-39 5.054877e-32 1.0517895e-26 -3.0657182e-22 -8.193647e-20
4.906491e-39 2.0336658e-16 4.917141e-39 -4.1737937e-30 -4.955778e-26 1.6779249e-25 1.2999385e-32 -1.464755e-39
8.66711e-19 -1.5910306e-14 6.832257e-21 -4.808625e-14 1.2935286e-24 6.645422e-38 -3.1624985e-30 1.240753e-13
7.609449e-23 -4.994142e-15 -9.303376e-28 -5.4721808e-33 -2.4375938e-23 4.8285225e-27 -1.2084359e-15 -1.4373107e-17

atom_lin.bias f4 [300]
00000000: 37b3 913b f9de 953d 9e74 0a3e 5ea8 f93d
00000010: 751b a93d 05b6 82bd d393 87bd 1d7e 77bb
00000020: 1065 863d e4bc 9c3d de92 06bd c91a ce3d
00000030: d5a7 243c eb61 83bd 3cd2 acbd a846 b23c
00000040: 09bf 053d e667 f2bc 6442 013e 8350 8b3d
00000050: 2523 a43d 775c cebc 1e18 973d 9519 1a3d
00000060: 5822 cf3d 30a0 943d c4de 5e3d 0bab 273d
00000070: a30f e13d 8095 82bc 4325 28bd 3c85 703d
00000080: d722 103e 99ab 6d3d c250 203d 6fdc 0f3d
00000090: 988a 25be 8538 ba3d 5ec8 b33d 1994 d33d
000000a0: ac70 4a3d 268d f13c 06d2 453c d6cd ea3b
000000b0: d560 b63d 8a9a 8a3d 527d 16bb 902c 1d3d
000000c0: 4ad4 a0bc 15dd 023e c7aa f7bc de9c 4abe
000000d0: 4705 ac3d c55b 1a3e 5b2e 5ebd e679 553d
000000e0: 1e01 8c3c 39de 893d 534e a3bd 84a9 043d
000000f0: c7aa 893d a6b3 4a3d ae73 d7bd 23ec a8bc
00000100: 5d49 813d 7ef7 823d 4990 083d 0338 993d
00000110: 2ebf dcbc c771 d33d eb4a 793d f46b b13d
00000120: 9a63 da3c f94b 03bd 158a e43d db2a 4fbd
00000130: a395 97bd 2084 963d 243a f73c 0da0 c13d
00000140: 6bd1 b33c 20a4 bc91 d18b 543d 9d7c c83d
00000150: 6343 d43d 538f bc3d a6c7 7b3d 769c ae3d
00000160: edb6 9e3c 7f55 693d bade aabc ca84 5d3d
00000170: 6cac db3c a59d 45bd ed45 25bd b85a 2f3d
00000180: 5d1e 46bc 8e14 3e3d 1f51 0a3e 07e6 0abd
00000190: b4c2 1fbd fa4c 443d ad15 d93c fb7c 613c
000001a0: 7031 cd3d 9bb8 333c 740b 423d e28d 573b
000001b0: 8faa e23d 1026 e73d 4e98 c93c e10d 9abd
000001c0: fc8b 7a3d 58ec 48bb 9f31 ebbc eb95 48bd
000001d0: e6f5 5ebd 7e98 763e 36ad 6dbd 7bf3 31bd
000001e0: 9767 453e 8f61 8e3d 04ab 113d 549d babd
000001f0: 7cf5 25bd 0d05 cd3d cfd0 b7bc 05fc 98bd
00000200: 3026 07bc 448a 483d 6614 47bc 0679 a03c
00000210: 8f07 c73d 0be2 f53b 1b05 d23c 180a 4c3d
00000220: cfc5 b2bc 199f 003d ae65 3fbd f35c 1e3d
00000230: 7f47 003e cff4 0ebb fa2d 8ebc 633f 743d
00000240: fb45 e3bb 63be 9ebc a617 a33d dba4 f3bc
00000250: f9ed e03d dde8 4e3d 2633 64bd 762c 07bd
00000260: 54cd 04bd 49e1 0b3d 20e4 7a3d 3ef1 8fbd
00000270: 7c81 c0bd 0098 babb 20df a83d f1cb a8bd
00000280: 6b97 22bc ccb9 c33d faf9 673d d74e 6cbc
00000290: 945f 06be 0c48 9ebc 6174 413c 3f3e 0bbd
000002a0: 7fd1 3abd 84e3 143c 0281 dc3d e665 c53c
000002b0: 413c bbbd c620 df3d 9210 6d3c 5d16 dc3d
000002c0: 3c2d ce3d 69ac 99bd 1f22 453d 53a1 153d
000002d0: e085 5f3c 4de6 053e 9a5c 0b3b c293 d13d
000002e0: 48e0 58bd 86ec 8ebc 6ab5 43bd 2abe cb3d
000002f0: 4a3e 103e 3453 ea3d b784 823d 23b8 6cbd
00000300: 7c6d 1fbd b9ab ed3c 438f ae3d af02 39bc
00000310: 4d28 4e3d 3c9b babd 54bd fe3d d637 b43d
00000320: af2a 8abd e79c f03d fe38 833d 2f2d 88bc
00000330: 9350 86bd 567e 6fbc 770b a33c 2ba9 4f3d
00000340: 54ab 9cbc eb6f 8dbd 9ae2 2cbc 8955 183d
00000350: f7f1 20bc f14d e1bd 8cd8 4f3c c09d 603c
00000360: 0a76 c83d c4d4 643b add5 753d 2964 55bc
00000370: d581 d53c 056b 853d 5e4b 44bd 83df d6bc
00000380: 9258 2dbc ba92 f73d acda 573d afc2 4abb
00000390: e04d 193e 46da b6bc 43a8 4a3d 587d 3e3d
000003a0: 2f32 9c3d 217b 3bbb 665a 7e3d c87c 25bd
000003b0: 485b 2e3d 20b6 c23d 3dac 313c 94a6 c33b
000003c0: 25b1 153e fec0 033e 8279 46bd fe76 e23d
000003d0: df8a 14be b338 bfbd 0be4 493d 990b 36bd
000003e0: d4ea 7dbd ea66 6ebd e0a5 a83d 1ef1 b1bd
000003f0: 1def d63d 81e2 83bd a6a1 9e3d 28f7 7a3d
0.004446413 0.07317919 0.13521048 0.121903166 0.0825719 -0.06382374 -0.06619992 -0.0037764378
0.06562245 0.076532155 -0.032854907 0.100637026 0.01004978 -0.06415161 -0.084385365 0.021762207
0.03265289 -0.029590558 0.12622982 0.06802466 0.08014516 -0.025190575 0.07377647 0.037622053
0.101139724 0.07257116 0.054411665 0.040934604 0.109893106 -0.015940428 -0.04105116 0.058720812
0.1407579 0.058024976 0.039139517 0.03512233 -0.1616615 0.090928115 0.087784514 0.10330982
0.04942386 0.02948625 0.012073999 0.007165651 0.08905188 0.06767757 -0.002296288 0.038372576
-0.019632477 0.12779649 -0.0302328 -0.19786403 0.08399444 0.1507407 -0.054243427 0.052118205
0.017090376 0.06731839 -0.079739235 0.032388225 0.06722026 0.049487732 -0.10520111 -0.020620411
0.06312821 0.06394862 0.033340726 0.074813865 -0.02694663 0.10324436 0.060862463 0.086631685
0.026658822 -0.032054875 0.111591496 -0.05057798 -0.07401588 0.073494196 0.03017909 0.094543554
0.021950444 -2.976232e-28 0.05189115 0.09789393 0.103644155 0.092070244 0.061469696 0.08525936
0.019374335 0.0569663 -0.020858157 0.054081716 0.026815616 -0.048246045 -0.04034989 0.042811126
-0.0120922 0.04640632 0.13507508 -0.033910777 -0.039004043 0.047924973 0.026499594 0.013762708
0.10019195 0.010969306 0.047374204 0.0032890965 0.11067688 0.11286557 0.024608757 -0.075221784
0.061168656 -0.003065845 -0.028710185 -0.048971098 -0.054433726 0.24081609 -0.058026515 -0.04344509
0.19277798 0.069522016 0.035563484 -0.09112039 -0.040517315 0.10010729 -0.022438435 -0.07469944
-0.008248851 0.048959985 -0.012150859 0.019588958 0.097182386 0.007503753 0.0256372 0.049814314
-0.021822838 0.031401727 -0.04672783 0.038662862 0.12527274 -0.0021813398 -0.017355908 0.059630763
-0.0069358326 -0.019377893 0.07963495 -0.029741695 0.1098289 0.050515044 -0.05571284 -0.033001386
-0.03242238 0.034150396 0.061252713 -0.07028435 -0.09399697 -0.0056943893 0.08245683 -0.08242024
-0.009923796 0.09556922 0.05663488 -0.014423094 -0.13122398 -0.019321464 0.011807532 -0.03399491
-0.045609947 0.009087447 0.10766794 0.02409644 -0.09142352 0.10894923 0.014469283 0.10746453
0.100672215 -0.07503588 0.048128244 0.036530804 0.013642758 0.13076134 0.0021264912 0.10233261
-0.052948266 -0.017446768 -0.04778043 0.0994838 0.14086261 0.11441651 0.063729696 -0.057792794
-0.03892277 0.029012548 0.08523419 -0.011292144 0.050331403 -0.0911164 0.12438455 0.08799712
-0.067464225 0.11748677 0.06407355 -0.016623108 -0.06558337 -0.014617523 0.019902928 0.05069844
-0.019124664 -0.06906112 -0.010552073 0.037190948 -0.009823314 -0.11001194 0.012685906 0.0137094855
0.09788139 0.0034916857 0.06001823 -0.013024368 0.026062885 0.06514553 -0.04792344 -0.026229626
-0.010580199 0.12088533 0.052698776 -0.0030938794 0.14971113 -0.022320878 0.049476873 0.046506256
0.07626759 -0.0028607326 0.06209793 -0.040402204 0.04256752 0.09507394 0.010844287 0.0059707854
0.14618357 0.1286659 -0.048455723 0.11057852 -0.145061 -0.093369864 0.049289744 -0.044444654
-0.061991528 -0.058203615 0.08234763 -0.086885676 0.10494826 -0.064396866 0.07745676 0.061270863

bond_lin.weight f4 [300, 23]
00000000: 9490 5399 71e7 063f 9abf 393e ef7a db3e
00000010: b0ee 61ba 56d6 cca4 a6da df2f 0595 01ba
00000020: bf8d 39b8 af13 9429 0ea3 1d2e 6edc 8836
00000030: ecbb 58be ab78 47ba 643a 96b5 e68a 3500
00000040: 5a88 3580 4092 c526 c914 8c39 ee9d 0926
00000050: 8ad8 9a35 ad8a 4220 98eb 123a 9d83 3500
00000060: cc9b 373e 0fa9 053e fc3b 0b3e 8c06 a29c
00000070: 5070 5739 a662 3238 37de 4733 50a1 dd08
00000080: 770d 309e b186 54b4 3440 a91e 1149 c4be
00000090: 0fb5 2e2b cac2 802a 0be0 b7ad 8309 3538
000000a0: 7462 78af a184 8134 c9a6 672c 47c1 00b8
000000b0: cc23 ab0c 2689 3580 799c b721 4ba2 f0be
000000c0: 0ac5 da3e ed99 e1bc ae18 87b9 bdb2 fa39
000000d0: 0017 abb6 cfd1 0d8d da90 d92f b927 97aa
000000e0: f8e9 5838 24a5 9aaa c875 c53d fcd6 fcb9
000000f0: e73c 3aa6 a6a1 c92d 0bcf a996 5c27 ab38
00000100: e26b 2eb7 b4b6 d59b 82ce 0635 d803 2230
00000110: 5705 19b5 6686 3580 5a0f 773e f4f5 b13b
00000120: fb67 b93e d96d 188c 96f5 3035 8c78 481f
00000130: f42b 0f2d 2853 741a d82f 2714 df62 5523
00000140: fdd8 312e 7b8c b481 d6fa 5d38 f78c 3580
00000150: b10c 6db9 633c dd35 63b4 1c17 d64e 23b6
00000160: 0981 0e38 68c9 18b6 10a4 2d39 f638 da99
00000170: ae34 591c c552 603e 7e5d 0e3e 1645 a43e
00000180: 6473 49b5 6f8a d639 47be 02b8 87ad 19a6
00000190: d05a d835 90d7 4d22 2f7a c1a5 d5af 9128
000001a0: ad34 94bd e1b6 a139 a8ac d238 fc45 11b5
000001b0: 22e9 53b8 a004 1ead 2945 6cba 2351 50b4
000001c0: e47d 0d30 6982 3580 cb06 a527 a42e 35b4
000001d0: 21ef 01bf 9f0a f73e 4c28 07bf fa90 1b3a
000001e0: 2ef7 1793 1895 5f36 0743 0f2e ce78 3500
000001f0: fd31 5c29 8704 72a2 09f0 8433 52c5 ef3e
00000200: 9a55 bf30 c15b c0a2 21c8 379a b9ca 0597
00000210: 0b4e fcae 65c7 edb4 bdce 13ba 895d 22b9
00000220: a6e8 1eb6 b98e e725 bffc 2192 739a bd3c
00000230: c279 09bf 3e0d 8c3e 3766 9cb9 9b53 c3aa
00000240: 67a1 1d38 1c9c 8e2f 6956 4739 bafa 2d26
00000250: 0be5 9108 2f1b 42a6 4f5f 78be f2d5 0538
00000260: 7a50 b7a8 66c3 a4ba ce27 d123 bc69 9d96
00000270: e0c4 ecb0 a0c3 8210 dc1a 9c33 328f d889
00000280: 49a3 2c02 62e9 07b8 eebd 49bd 08f9 5abe
00000290: f6c4 22be 39c4 b987 6c7e 3eb9 62cf 4f2b
000002a0: 739c 2433 1882 3580 c5ab d21e e618 acb9
000002b0: bcd0 173a f1d2 64be 25cc 5d22 d02d f435
000002c0: 8ce5 f1b7 d2b9 8f08 e5d4 e432 5169 19af
000002d0: 4ca6 8436 69c6 fd16 2106 7db8 4dc9 cdb3
000002e0: 18a9 5131 8016 473e fdd0 833e e74b 07be
000002f0: c82f e5b5 5340 ea39 1673 3500 9f76 3580
00000300: 833a ca38 f3df 4a9d 7225 c029 e208 9b3a
00000310: 0fdd 16bf 9fc9 a038 1852 a104 a367 3d38
00000320: 1b9d 8331 1097 81ba 928b 432f 07c9 1cb1
00000330: 7673 c01f e5a0 ed92 e643 1c36 1dfd 4837
00000340: e4bc 473e fc96 003f c3d5 a23e cad4 6298
00000350: 3400 833a 8732 432d 737f 77b6 265a 9386
00000360: 9889 9637 ce7e 7b17 ad98 e0a3 502e 88bd
00000370: 48ed c7b9 b8b4 2180 5a5b d838 4939 69b4
00000380: b71a ddb9 6949 88ab 544d a896 cb71 8920
00000390: 0d0e c0a5 9831 c5b0 b426 7399 835b d2bd
000003a0: bb2d c3be bd98 12bf 0b95 45a0 7bdc 9b1f
000003b0: eedc d1a9 cdb5 9dba 4772 8db5 7264 c237
000003c0: 6ee3 3423 79b9 f9a8 34c0 00be f03e 6e38
000003d0: db07 6e19 f1d7 99ba 739f 9b37 bfeb 1888
000003e0: e673 aa8b 4da3 cb38 4b94 3a38 6531 8b05
000003f0: 3a4b b811 336a 9427 7057 de3e 0140 ee3e
-1.0937642e-23 0.526969 0.18139496 0.42867228 -0.0008618636 -8.8833996e-17 4.0718823e-10 -0.0004943165
-4.423945e-05 6.575935e-14 3.584249e-11 4.0787772e-06 -0.21165437 -0.00076092285 -1.1192865e-06 4.917109e-39
-4.916195e-39 1.3709262e-15 0.00026718367 4.774546e-16 1.1536915e-06 1.6478323e-19 0.0005604564 4.914495e-39
0.17930526 0.13052772 0.13597101 -1.0721953e-21 0.00020545837 4.253038e-05 4.65354e-08 1.3338878e-33
-9.320147e-21 -1.9793039e-07 1.7920125e-20 -0.38336995 6.2068487e-13 2.287253e-13 -2.0904186e-11 4.316262e-05
-2.2590446e-10 2.4124623e-07 3.2919659e-12 -3.069758e-05 2.6368266e-31 -4.916481e-39 1.244198e-18 -0.4699882
0.42728454 -0.027539218 -0.00025767594 0.00047816886 -5.0988747e-06 -4.3701527e-31 3.9574993e-10 -2.6850551e-13
5.1716313e-05 -2.7470485e-13 0.096416056 -0.0004822536 -6.461425e-16 2.292284e-11 -2.7434085e-25 8.161247e-05
-1.0396327e-05 -3.5355963e-22 5.02194e-07 5.894072e-10 -5.700471e-07 -4.915494e-39 0.2412695 0.005430931
0.36212143 -1.174271e-31 6.5922484e-07 4.245136e-20 8.1383685e-12 5.052519e-23 8.440781e-27 1.156769e-17
4.0437865e-11 -6.6323137e-38 5.2924115e-05 -4.91785e-39 -0.00022606809 1.6483358e-06 5.0634e-25 -2.4334781e-06
3.397561e-05 -2.2767e-06 0.00016559684 -2.2563678e-23 7.1867364e-22 0.21906574 0.13902852 0.32083958
-7.504625e-07 0.00040920402 -3.1171625e-05 -5.331771e-16 1.6119684e-06 2.7896799e-18 -3.3562958e-16 1.6174489e-14
-0.072366096 0.00030844568 0.0001004574 -5.411855e-07 -5.0523442e-05 -8.982287e-12 -0.0009012991 -1.9401027e-07
5.14744e-10 -4.914064e-39 4.5804065e-15 -1.6873906e-07 -0.50755507 0.4825029 -0.52795863 0.0005934384
-1.9180748e-27 3.3316373e-06 3.2573968e-11 4.910618e-39 4.889317e-14 -3.2799512e-18 6.190391e-08 0.4683023
1.3921408e-09 -5.2138853e-18 -3.8005176e-23 -4.323049e-25 -1.14734965e-10 -4.428977e-07 -0.00056384114 -0.00015484368
-2.3679254e-06 4.0168825e-16 -5.1114176e-28 0.023144936 -0.5370141 0.27353853 -0.00029830795 -3.469697e-13
3.7582035e-05 2.5940572e-10 0.00019010309 6.036123e-16 8.780718e-34 -6.734411e-16 -0.24255107 3.1908923e-05
-2.0351982e-14 -0.001257044 2.2676683e-17 -2.5431446e-25 -1.7227215e-09 5.1577367e-29 7.269202e-08 -5.213477e-33
1.2683425e-37 -3.2403863e-05 -0.049253397 -0.2138406 -0.15895447 -2.7951036e-34 -0.00018166908 7.3828975e-13
3.8326515e-08 -4.91395e-39 2.2305657e-20 -0.00032824947 0.0005791297 -0.22346093 3.0059158e-18 1.819275e-06
-2.883633e-05 8.650186e-34 2.6639507e-08 -1.3952685e-10 3.953266e-06 4.099957e-25 -6.032561e-05 -9.582673e-08
3.0509621e-09 0.19442177 0.25745383 -0.13212548 -1.7075736e-06 0.00044679883 4.908566e-39 -4.909835e-39
9.643009e-05 -2.6850256e-21 8.5330086e-14 0.0011828209 -0.5893106 7.6669494e-05 3.792631e-36 4.515763e-05
3.8304626e-09 -0.0009886939 1.7784732e-10 -2.2815259e-09 8.150618e-20 -1.4996466e-27 2.3285334e-06 1.19798615e-05
0.1950565 0.50230384 0.31803712 -2.9317246e-24 0.0009994567 1.1095686e-11 -3.6880053e-06 -5.5427715e-35
1.7945466e-05 8.1262524e-25 -2.435079e-17 -0.066494584 -0.00038133026 -3.095401e-39 0.00010316698 -2.1720656e-07
-0.0004217231 -9.683757e-13 -2.7190665e-25 2.3284005e-19 -3.3316212e-16 -1.4347732e-09 -1.25706216e-23 -0.10271361
-0.38120827 -0.5726431 -1.6735863e-19 6.600981e-20 -9.31979e-14 -0.001203233 -1.0538578e-06 2.3173376e-05
9.80598e-18 -2.772499e-14 -0.1257332 5.6802237e-05 1.2305898e-23 -0.0011737329 1.855169e-05 -4.6017954e-34
-6.5656e-32 9.7102115e-05 4.4483964e-05 1.3089642e-35 2.9076443e-28 4.1193393e-15 0.43426085 0.46533206

bond_lin.bias f4 [300]
00000000: b1e8 5c3e 9600 e5bd 8f2e 853d dc1b 253e
00000010: 8cac 443e 6099 243e 0817 173d cfa3 2f3e
00000020: ae56 0b3e 5120 283e 296a dc3d 95e2 1d3e
00000030: 6cfc 403e 0126 44bd cd5e 53be a072 50bd
00000040: 0c7e 7e3d e255 47be 88e8 edbc 008c 913e
00000050: c34b 913d 2ea4 113e 057c 39bd 320c 8abe
00000060: c62d 3e3d c199 4c3e ad03 8abd 39e2 0d3e
00000070: 612d 833e 8be8 e1bd ad42 1b3e 7302 2fbd
00000080: 2e1b 533e d1ed 02bc 335c 983c 9791 a13d
00000090: f536 e43d 90b0 333d f19c 263e 0b8f a7bb
000000a0: 974e acbd d294 563e 0cd7 6f3e 6222 153e
000000b0: 428e a9bd 20ad e3bd 4db8 84be cf67 393e
000000c0: ffb6 703e 7b56 7c3d 2154 26be f3c1 6abe
000000d0: 93fc 33be ea61 be3d 6f7e 80be 3e2f 623e
000000e0: 48ab 16bd 583f 123d b144 efbd db47 0abe
000000f0: 7589 003d ef63 0e3e 9080 93bc 783e 6b3e
00000100: 57f7 0abd 70f8 d03d 1007 07bd 0d6b fa3c
00000110: 202a 45bd 10e0 68be b4cf 3b3c e76c 8dbb
00000120: aa2a ff3d bcad e53d 0561 99bb cce3 13be
00000130: 6ef4 eebd dbae 2b3e b21d 1d3e a89e 3e3e
00000140: b468 82bd c759 3828 1a42 093e ba4c bebc
00000150: 53d6 66bd 7a6a b83d 743a 3b3e 32e3 46bd
00000160: 5eae b1bc 4d9e 35be fde4 f2bd 55ec 18bd
00000170: 10ac 0bbd 00d7 4bbe fceb 023e 8b97 213e
00000180: e97b 36bd 2a56 f8bc 025e 86be bfb7 84be
00000190: f88c 56be 2053 4f3e d415 8a3e 9908 25bd
000001a0: 951b d8bd 7b6a 2e3e a33a 45bd 98de 0f3e
000001b0: e008 63bd 4bc3 c8bd cca1 7e3d 5ab5 fdbd
000001c0: 29c5 593e 0440 183c d98c c8bd 8c0e 0d3e
000001d0: 694e 47be 0ad0 f5bd d1cc 363e c523 2ebe
000001e0: c307 4e3e da09 1b3e 2bf8 0c3e 7a5f 02be
000001f0: 7ee2 563e 3eea d93d a9bb 133e bf87 b9bc
00000200: 1776 6c3c f7de a0bc 0aa0 203e 86a4 473c
00000210: 298b b8bc efd4 883e 5aae edbc 2063 7f3d
00000220: d384 4d3d 0eef 19be cbb6 b43d 9fb3 4cbe
00000230: 4fc9 36be 6d68 01bb d689 2c3c 8d96 5ebe
00000240: bc5b 3ebe 3457 f63d 525b 4dbd a91f 4d3e
00000250: 7806 383e 27bd 743d 027b 0b3e c029 72bd
00000260: 77b2 d9bc f71e 1d3e 60b5 8b3d 5326 5fbe
00000270: e7c8 81be bc8f 8b3b fa3b 0c3c a5cc 53be
00000280: ae3b 6f3e b02c 70bb c7ac 9dbd 781e f43d
00000290: 1c21 f9bc 8b24 6a3e c289 9dbe c2b5 2c3d
000002a0: 2284 ff3b bcc9 8cbd 4411 963c 6a79 66bd
000002b0: 10fa 86bd e78c a9bd 8725 02bd b807 0dbc
000002c0: 322d 453c fc33 40bc 41a2 0ebe 9bf2 a2bd
000002d0: 0600 383e 2159 16bd ed3b 423e c7d6 c93d
000002e0: 777e 773d abf4 a0bd 6280 8abd 1e8a 673e
000002f0: 9a39 96be c1ee ff3c 6226 59bd b850 573e
00000300: cb0f 133e 1f7b 2fbe d633 28be c17c 6c3d
00000310: ab2c 59be 1c2a 913d 34f0 823e 348b 57bd
00000320: 6d81 9a3d 3d2a 7c3d 9e13 cc3d c319 843e
00000330: 2f7b 50be 8a76 3c3d 08d2 773b 03b4 bc3d
00000340: cb16 52be 2b33 2cbe 4fbd 68bd 303c aabc
00000350: 8a21 e3bb f693 2b3e f83d 033e 0638 12be
00000360: 864b 3d3d d3d0 4bbe 7d15 cebd c7fc 49be
00000370: 38de 363e 5af6 1b3e 1d6e 30bc 063e 86bd
00000380: e032 85bc b91c e4bd 7fe7 413e f15f 683e
00000390: 584b b13e 3eea f03a d5d0 07be ea02 ba3d
000003a0: 3625 a0bd 2539 85bc f897 463e 27d9 0abd
000003b0: aa21 b03e b290 65be 021f 9f3e 2a8d 85be
000003c0: 9846 f13e 2711 a8bd 1315 8e3e 9c5f 9bbd
000003d0: 038d 43be 6690 033e 9e23 6dbd 1434 2fbe
000003e0: e1ca 19bd 6ccc 653e b803 183e a9b4 e4bb
000003f0: a7c5 c9bd 2e20 42be 89dd 55be 5682 eebd
0.2157314 -0.111817524 0.06503021 0.16123909 0.19206446 0.16074133 0.0368872 0.17152332
0.13607284 0.16418578 0.10762436 0.15418465 0.18846291 -0.047887806 -0.20641632 -0.050890565
0.062131926 -0.19466355 -0.029041544 0.28427124 0.070945285 0.14222786 -0.04528429 -0.2696243
0.04643037 0.19980527 -0.06738982 0.13855828 0.2562056 -0.11030682 0.15162154 -0.042726945
0.20615837 -0.00799127 0.018598652 0.07889097 0.11143295 0.043869555 0.16270806 -0.0051134876
-0.08413427 0.20955208 0.23421878 0.14563897 -0.08279087 -0.11117005 -0.2592186 0.18106006
0.23507307 0.06160591 -0.1624303 -0.22925548 -0.17576818 0.092960194 -0.2509646 0.22088334
-0.03678444 0.03570494 -0.11683024 -0.13503973 0.03138109 0.13905309 -0.01800564 0.22973049
-0.033927288 0.10203636 -0.03296572 0.030568624 -0.048135877 -0.22741723 0.0114630945 -0.0043159607
0.124593094 0.11214778 -0.004680755 -0.14442366 -0.11667715 0.16765921 0.15343359 0.1861521
-0.06367627 1.0233519e-14 0.13404122 -0.023229945 -0.05635674 0.09004684 0.18284017 -0.048556514
-0.02168959 -0.17736168 -0.11860082 -0.03733476 -0.03409964 -0.19906235 0.12785333 0.15780465
-0.044551764 -0.030314524 -0.26243597 -0.25921437 -0.20952213 0.20246553 0.2696978 -0.040291402
-0.10552136 0.17032807 -0.048151623 0.14049757 -0.055428386 -0.09802874 0.06216602 -0.12388106
0.21266617 0.009292606 -0.097924896 0.1377508 -0.19463505 -0.12002571 0.17851569 -0.17005832
0.20120148 0.15140477 0.13766544 -0.12731734 0.20984837 0.10640381 0.14427055 -0.022647737
0.014432452 -0.019637568 0.1568605 0.012185222 -0.022527294 0.26724955 -0.029013801 0.062350392
0.0501755 -0.15032598 0.088239275 -0.19990395 -0.1785023 -0.001974608 0.0105309095 -0.21737118
-0.18589681 0.120283514 -0.050135918 0.20031609 0.17971218 0.059750702 0.13621143 -0.059121847
-0.026574356 0.15343843 0.06821704 -0.21791963 -0.2534859 0.004259078 0.008559221 -0.20683534
0.2336261 -0.003664773 -0.0769897 0.11919874 -0.030411296 0.22865503 -0.30769163 0.042165525
0.007797734 -0.06874415 0.01831878 -0.056268133 -0.065906644 -0.08278828 -0.03177407 -0.008607797
0.012034701 -0.011731144 -0.13929082 -0.079564296 0.17968759 -0.036706094 0.18968172 0.09855419
0.06042334 -0.07859167 -0.06762768 0.22611281 -0.29340822 0.031241776 -0.05301512 0.21026886
0.14361493 -0.1713681 -0.16426024 0.057736162 -0.21208446 0.0708811 0.25573885 -0.05262299
0.07544217 0.06156372 0.09964679 0.25800905 -0.20359491 0.046011485 0.0037814397 0.09214022
-0.20516507 -0.16816394 -0.056821164 -0.020780653 -0.0069314884 0.16755661 0.12816608 -0.14279184
0.046214603 -0.19903879 -0.10062692 -0.19725333 0.17858207 0.15230694 -0.010768441 -0.06554799
-0.01625961 -0.11138291 0.18935965 0.22692849 0.34627795 0.0018380356 -0.13263257 0.09082587
-0.078195974 -0.0162626 0.19393909 -0.0338985 0.34400684 -0.22418478 0.31078345 -0.26084262
0.4712417 -0.082063965 0.27750453 -0.075865954 -0.1909676 0.12848052 -0.057895295 -0.1710971
-0.037546996 0.22441262 0.14845169 -0.006979544 -0.09852152 -0.18957588 -0.2088529 -0.11645953

energy_lin.1.weight f4 [300, 300]
00000000: e14f 823d 5441 80bd f701 c7bd d230 9e3e
00000010: ffaf bd3c d463 033c fbb5 063e 18fb d4bd
00000020: a320 1e3e 6e97 0bbc 3183 60bd 696a e23d
00000030: a5b8 aa3b 997e 5fbb 5291 023d 00d7 043d
00000040: 04d7 e53d de9b 87ba 0049 c13c e0cf a9be
00000050: 0ac3 b7bd 7bcf c2bd 5364 2a3d 8633 c3bc
00000060: 0aab 6f3d 6f5a babd 5ec9 05bc 7c7e 033d
00000070: 3920 953d adb6 f33c e8a5 ba3d 5760 e9bd
00000080: cd8a 13bd 5205 6f3b b726 44ba c971 023e
00000090: d244 08bd 80de 643d f660 6b3d da75 3b3c
000000a0: 92b7 01be 9c9b 083e 6399 6ebd fb61 b63d
000000b0: 0f07 953d 5c5a 6ebd 1dda cb3d d267 1ebd
000000c0: 7d46 973b 3c17 ccbd 7a8a f6bd 55b8 25bc
000000d0: 1345 bd3d eb1e 283e bf60 63bd 4d90 103d
000000e0: 38ad 123e af00 86bd edc6 57bd 34dc fcbd
000000f0: ca8f 723d 0f08 a53e b686 033e 03fb be3d
00000100: 4576 7d3b 6235 dbbb b018 d2bd b579 3d3d
00000110: 7a2d 80bc 745a 8ebc 7da0 383c 8374 53bd
00000120: 8fc5 a83d 5d1c 4ebd c433 143d a5d3 16bd
00000130: 7a60 38bd 5c76 3f3c 92df 0f3e 2711 263e
00000140: eb42 b03d 3b74 c004 db10 b83d 245d 103e
00000150: f643 a03d de8e d0bd ca6d 09be 6d77 893b
00000160: f8da 793d e32f 263e e0f5 153d 2d50 4c3e
00000170: 6255 ff3d 6a2b 973d 5212 823d 3197 6c3d
00000180: 7064 dc3d 0a6e b53d b0f3 9dbc 6d83 2b3d
00000190: 28e1 253e fad1 4a3e 87a8 673d 6c1b b93d
000001a0: bd72 583d 3f15 4dbd 45a8 e6bd a9c1 073e
000001b0: cd31 ed3d 3fcf 213e d4fd cebd 100c 4e3d
000001c0: 7e1c ad3d 1f15 acbd 1fa6 a5bd c586 4e3d
000001d0: 90f9 2dbc cd47 663e 8846 f73d 879a a93d
000001e0: 49a5 313e 0f0e ec3c f970 b73d 16d8 6c3d
000001f0: 6402 d23d e917 59bd 7aae 3abe d86b f4bd
00000200: 8738 0ebe c890 003d 4340 353d dfd5 8e3d
00000210: 39a3 6fbd 469e a2bd 7e4e c43d 9742 273d
00000220: a2f1 efbd 95e2 e13c f8fd de3d 2564 293b
00000230: 8aee 5bbd c88d d5bd adeb f93d e394 e13d
00000240: 9a55 76bb 809b 4bbd f025 afbc 7dc1 9abd
00000250: 90ad 20be e637 8ebd 911e 7bbd b172 853d
00000260: 176f 44bc e3a4 3fbd fa3e d2bc 3945 493d
00000270: 9bbf 143e f3bc 8fbc 7a30 5b3d c60e d2bc
00000280: a6ed 9f3b 1365 47bd a14c b7bd 1ec0 ab3c
00000290: 3618 53bc b972 f6bd 9e6d acbd 72d9 dfbd
000002a0: e90f 263d 4527 5dba 113e 653d 0f00 793d
000002b0: ec80 7bbd e20f d8bd c430 d53c 2f01 da3d
000002c0: b7a3 e53d 69fd bcbd 52e4 ccbd e5af 9dbb
000002d0: 7589 1a3e cf20 ca3d cd0b 143e d113 6f3c
000002e0: 2dd9 e9bd 905c 87bd c3d8 af3d e697 02be
000002f0: b41d 2d3d 7c8b 293e fffc e43d 4d0f b9bd
00000300: 5b09 ed3d ade5 96bd a990 ca3c 6432 b03d
00000310: 6e3f ed3d 17f2 423e 2935 a0bd 1d97 d4bd
00000320: 128b 343d aac6 173e fd51 f1bd 04d0 8dbd
00000330: 64a4 22be 2bf6 793d 08de 913d a830 8e3d
00000340: 30cd 2e3e 635b ac3c 5b3a 013e fe32 ef3d
00000350: 0c57 633d 3042 58bc db16 fdbc 7ff1 2cbd
00000360: 5d77 7e3d 3494 a73d 51a7 d0bd f1cf b03c
00000370: 08e2 a93d c000 22bd 94ff e7bd 635f 25be
00000380: 7c5f 033e 32ae a03d db24 adbd c325 a93d
00000390: 0f5e b13e 9a62 9d3d 688b 003e 08bd 9c3d
000003a0: 7b41 113e d8a0 b8bc 4e8b 6a3c e646 99bb
000003b0: 32a7 49be 5bf7 283e 61da 02be a5f5 f63d
000003c0: eb7f b93e de2e b1bd 31dc b8bd 076d 963d
000003d0: 9e30 003e 39ed 2ebd b118 4f3d 7e2d e4bc
000003e0: fed0 0f3e 4be3 f23d 261c 3ebc a007 05be
000003f0: 3ac4 abbb 7f6a 2ebd cad3 2a3e 9968 cabd
0.06362892 -0.0626246 -0.09717172 0.30896622 0.02315521 0.008019406 0.13155358 -0.10399455
0.15442137 -0.00851999 -0.054812614 0.110554524 0.0052099996 -0.0034102558 0.03187687 0.032431602
0.112226516 -0.0010346135 0.02359438 -0.3316641 -0.089727476 -0.0951223 0.041599583 -0.02382828
0.058512725 -0.0909928 -0.008165685 0.032103047 0.072815366 0.029750193 0.09113675 -0.113953285
-0.036021043 0.0036471677 -0.00074825756 0.12738718 -0.033268757 0.055876255 0.057465516 0.011441672
-0.12667683 0.1334061 -0.05825175 0.08905407 0.07276737 -0.058191642 0.09953711 -0.03867323
0.004616557 -0.09965369 -0.12038131 -0.010114749 0.092416905 0.16418044 -0.055512186 0.035293866
0.1432389 -0.06543099 -0.052679945 -0.12346688 0.05921916 0.3223271 0.12844357 0.093252204
0.003867523 -0.0066897133 -0.10258615 0.046258647 -0.015646685 -0.017377116 0.011268732 -0.051624786
0.08240806 -0.050320018 0.03618218 -0.036822934 -0.045013882 0.011685934 0.14050129 0.1621748
0.086065136 4.5245724e-36 0.0898759 0.1409803 0.078254625 -0.101835 -0.13420787 0.004195145
0.06099984 0.16229205 0.036611438 0.1995246 0.12467457 0.073813275 0.063511506 0.057761375
0.107613444 0.08858879 -0.019281238 0.041873384 0.16199172 0.19806662 0.056557205 0.090384334
0.052843798 -0.05006909 -0.112625636 0.13257469 0.11581764 0.15801714 -0.101070076 0.050304472
0.084527 -0.08402466 -0.08088326 0.050421495 -0.010618582 0.22488327 0.12074 0.08281427
0.17348208 0.028815297 0.08957095 0.057823263 0.10254362 -0.053001318 -0.1823062 -0.11934632
-0.13888751 0.031388074 0.044250738 0.069743864 -0.05850527 -0.079403445 0.09585284 0.04083499
-0.1171601 0.027573863 0.108882844 0.0025847044 -0.053694285 -0.10427433 0.12203155 0.11014726
-0.0037587644 -0.049708843 -0.021380395 -0.07556436 -0.15691209 -0.069442555 -0.061308447 0.06516016
-0.0119893765 -0.046788108 -0.025664795 0.04913828 0.14526217 -0.017546153 0.053513028 -0.02564181
0.004880625 -0.048680376 -0.08950163 0.020965632 -0.01288419 -0.120336 -0.08419345 -0.10930146
0.040542517 -0.00084363326 0.055967394 0.06079107 -0.061402246 -0.105499044 0.02602423 0.10644757
0.11212867 -0.09228022 -0.10004486 -0.004812228 0.15091498 0.09869539 0.14457627 0.014592127
-0.11418376 -0.06609452 0.08586266 -0.12753257 0.042264655 0.16557115 0.11181068 -0.090361215
0.1157405 -0.07368026 0.024727182 0.08603361 0.11584364 0.19037662 -0.078226395 -0.10380385
0.04407794 0.14821878 -0.11783216 -0.069244415 -0.15883023 0.06102578 0.07122427 0.06942874
0.1707046 0.02103967 0.12619917 0.11679648 0.055502936 -0.013199374 -0.030894687 -0.042222496
0.062125552 0.081825644 -0.10188163 0.02158353 0.08295065 -0.039551497 -0.113280445 -0.16149668
0.12829393 0.07845725 -0.08454295 0.082591556 0.34642074 0.076848224 0.1255318 0.07653242
0.14185135 -0.022537634 0.014315439 -0.004677641 -0.19692686 0.16500609 -0.12778617 0.12058572
0.36230406 -0.08651517 -0.09026373 0.07345014 0.12518546 -0.042706702 0.050560657 -0.027853724
0.14044568 0.11859759 -0.011603391 -0.1299119 -0.005241898 -0.04258203 0.16682354 -0.09883232

energy_lin.1.bias f4 [300]
00000000: 40a9 11bd 5927 0f3d e520 73bc d8b3 f7bc
00000010: 1cbd 28bd 622a 853d 4db6 0c3d 55bf 3d3d
00000020: 81dc 563c 667c 8b3d 089a 2d3d 6b99 293c
00000030: d656 ffbb 0081 943b e3ec 893d 07fb 5d3d
00000040: a03c a6bb 6a67 f3bb 5804 873d e837 723d
00000050: e4bb 623d 6521 8bbc b358 16bd e53f 32bd
00000060: 3433 823c 6e0b fe3c 5bd1 d0bc e05f 823b
00000070: 7b29 40ba d0af 973d 9a33 7a3b efbc 1d3d
00000080: 0ad0 993d 85d3 ccbc 18f9 be3d c09a a73c
00000090: ef2a efbc 381a 903b 1db2 7a3d bd03 b23c
000000a0: 9634 663d af54 52bd 7f53 863d 5988 0e3c
000000b0: f22c 02bd 6934 2abc d259 f03c 04a5 91b6
000000c0: 4849 643d 5a94 12bc 0349 463d 2491 27bb
000000d0: 3c84 353c 56c7 a83c 1d73 2e3d e139 ea3c
000000e0: a545 09bb f9af 4bbd 4f62 a23c 3d67 563d
000000f0: cb22 863c 720e 5a3d 1474 993d 96b0 14bc
00000100: 1f7a 953c dca8 f2bc 3e67 d1bb f8fd ae3d
00000110: eea3 9ebc 07b5 37bc 8bba 833d 0cdd 0a3d
00000120: 0e0b 293d 97c1 aa3c 27e0 823d 5f82 033d
00000130: 9ec3 aabb 2623 0fbd ea76 fd3a a17b 233d
00000140: 4b5c ddbc a46e 07bd 1405 3dbd 1604 d8bc
00000150: f6cc ed3b 78c8 be3c b199 fbbc ad71 da3b
00000160: f36b 5dba 31f4 753c 66a4 7c3c cd81 603d
00000170: 52de d6bc 0454 173d 3dd0 093c f690 2abc
00000180: 8df6 833d 9404 1bbd ea85 e83c dc13 d43c
00000190: 70ff 05bd b691 e33c 48bd 843d 623f 1fbd
000001a0: 086c 233d da9d 7bbc 4387 503d 161b 243c
000001b0: e058 28bd e5a0 6b3d 5dbc 843d f138 f93c
000001c0: d754 f0bc 79f0 24bd 9682 bb3d f58f 643d
000001d0: 4972 1c3d db1d a1bc fee5 0ebd 82e5 12bd
000001e0: 5cd9 b63d 9c82 aabb ddde d2bc 89cc 9d3b
000001f0: 869b 5a3d e6a0 2cba 01ce 05bb 6e7f 8d3d
00000200: a2aa a83c ee5b 2e3d 2fd2 063d 08d9 a43d
00000210: 79b4 0e3d a661 d93c 440c f8bb 1234 cdbb
00000220: a86a ba3d 8a28 1d3d 1cc6 6b3d f956 3dbd
00000230: e6b4 8d3d 6abb eebc 7c20 313d ea44 713d
00000240: d5ff e8bb 0344 1a3d f7e4 19bd 6580 443d
00000250: fc1a 583d c147 7d3d 2cd5 29bd bb5e d6ba
00000260: 6ccb c53c 651c b4bc 8fc9 31bd b069 8e3d
00000270: f38e 573d cf40 03bd cd73 1a3d 59be a73b
00000280: d546 02bd fa03 063d 1f38 913c 4972 bdbb
00000290: 2fa9 1ebc d139 853c 0295 0c3d f3a6 25bc
000002a0: bd72 173d 3d35 2b3d f3ec 0eb9 1ef9 a3bc
000002b0: 4691 cd3a e6f4 91bc 1a39 383c 8042 d4bc
000002c0: cf20 ee3c 631c 37bd 18ce bcbc 0766 d43c
000002d0: ebdb 71ba cc7c d43d 7309 543c 1e85 423c
000002e0: 1576 403d 422c db3c 27fd 8ebc baf0 85bc
000002f0: f0fc 75ba 746e e9bb d51d 8c3d 174b 203d
00000300: 4ea7 953d 1777 763a 851e 983b dd10 943b
00000310: 7481 303d 9704 553d 83b6 1abd ce3f 94ba
00000320: e80e 453d 87db a93d 62cc 603d 791b 683d
00000330: 9bde 3b3d 34cd c6a1 8864 05bd a79f d33c
00000340: 221a 08bd 0bbe 253d 8584 4b3d 9f27 4e3d
00000350: f8ee 27bc 51e3 8f3c bd90 383d e8bb 96bc
00000360: d6b3 363c 3a7a 38bd 7285 e13a 431e 533d
00000370: eb4e 823c c1ea 5cbc a5eb 923d b113 eb3c
00000380: a95e 4b3d 157c bf3c 63bd 15bc e8f1 01bc
00000390: af9e 51bc 5dbe b13c 3e84 6f3b f70a 71bd
000003a0: 6ce5 aa3d e2da 96bc 6b52 b43b 4197 523d
000003b0: 4066 293d e624 1b3d 0ebc 623d 9456 dd3b
000003c0: 177a 4e3d 19ac 913d 4f13 463d 17e6 b53c
000003d0: 4ff2 0dbc c1be d53c d39e 23bd 6bb3 64bc
000003e0: 07f3 04bc 892d 3c3d 3af6 263b 35a1 84bc
000003f0: b905 583d 91ab 69bc ec19 d93c 48eb 1f3d
-0.0355618 0.034949634 -0.014839386 -0.030237123 -0.041195974 0.065022245 0.034353543 0.046325047
0.013114096 0.068108365 0.042383224 0.010351519 -0.007792334 0.0045319796 0.06734636 0.054194476
-0.005073145 -0.0074280994 0.065926254 0.059135348 0.055354968 -0.016983697 -0.036705684 -0.043517966
0.015893556 0.03101131 -0.025490453 0.0039787143 -0.00073304 0.074065804 0.003817773 0.03851026
0.075103834 -0.025003204 0.093248546 0.020459533 -0.029195277 0.004397657 0.06120502 0.021730298
0.056202494 -0.05135029 0.06558894 0.0086995 -0.031781144 -0.010388472 0.029339705 -4.340547e-06
0.05573395 -0.008946503 0.048409473 -0.0025568688 0.01107889 0.020602863 0.04259025 0.028592052
-0.0020946052 -0.049728367 0.019822268 0.05234455 0.016374012 0.053236432 0.07492843 -0.0090753045
0.018246708 -0.029621534 -0.0063904813 0.085445344 -0.019365277 -0.011212594 0.064320646 0.033902213
0.04127031 0.020844264 0.0639041 0.032106753 -0.0052113077 -0.03494563 0.0019337807 0.039912824
-0.027021548 -0.0330645 -0.04614742 -0.026369136 0.0072570993 0.02328895 -0.030712934 0.0066663832
-0.00084465666 0.015011833 0.015420055 0.054811288 -0.026229057 0.036945358 0.008411464 -0.010410538
0.0644351 -0.037846163 0.028384168 0.025888376 -0.032714307 0.027779441 0.06481415 -0.038878806
0.03989795 -0.015357459 0.050910246 0.010016223 -0.041100383 0.057526488 0.0648124 0.03042266
-0.02933733 -0.040268395 0.09155767 0.05580135 0.03819493 -0.019667557 -0.034887306 -0.035863407
0.08928177 -0.005203558 -0.025741035 0.0048156423 0.053370975 -0.0006585255 -0.0020416977 0.06909071
0.020589177 0.04256814 0.03291529 0.08049208 0.03484008 0.02653582 -0.0075698216 -0.006262311
0.09102374 0.03836874 0.05756198 -0.04622552 0.06919269 -0.0291421 0.04324387 0.058903612
-0.0071105757 0.037662517 -0.037571874 0.04797401 0.05276011 0.061836008 -0.041463062 -0.0016355136
0.02414485 -0.021986196 -0.043405112 0.06953752 0.05262656 -0.03204423 0.037708092 0.0051191268
-0.031805832 0.032718636 0.017726956 -0.005781446 -0.009683891 0.01626292 0.034321792 -0.010110605
0.036974657 0.04179882 -0.00013630446 -0.02001625 0.0015683554 -0.017816972 0.011244083 -0.025910616
0.029068379 -0.044704806 -0.023047492 0.025927557 -0.0009226191 0.103753656 0.012941706 0.011872558
0.04698761 0.026754502 -0.017454697 -0.016350139 -0.0009383699 -0.0071237627 0.068416275 0.03913411
0.073073015 0.0009401901 0.00464231 0.004518612 0.043092206 0.05200633 -0.037771713 -0.0011310519
0.04810992 0.08293825 0.054882415 0.056666825 0.04586659 -1.3471319e-18 -0.032566577 0.025832964
-0.033228047 0.040464442 0.049686927 0.050330754 -0.010249846 0.017564448 0.04505991 -0.018400148
0.011151275 -0.04503844 0.0017205907 0.05154253 0.015906772 -0.013483704 0.07173852 0.028695913
0.04965082 0.023374597 -0.009139392 -0.00793121 -0.012794181 0.021697218 0.0036547328 -0.058848348
0.0834454 -0.018414918 0.005502989 0.05141378 0.04135728 0.037876986 0.055355124 0.0067547057
0.050409403 0.07112903 0.048358258 0.022204442 -0.008663728 0.026091935 -0.03994639 -0.013958792
-0.008114583 0.045941863 0.0025476352 -0.01619015 0.052739833 -0.014262096 0.026501618 0.03904274

energy_lin.3.weight f4 [150, 300]
00000000: c2a7 813d 57d8 81bd 0c38 213e 410f ed3d
00000010: 0132 a03d 25fe adba c18d 6b3d e4e9 d8bd
00000020: bc2f 55bd d289 ed3d d912 00bd ac39 ddbd
00000030: df12 753d 7624 f73d e90b 1d3d 2e90 393e
00000040: 41de ffbd b3a9 1cbd b065 3ebd 9fa4 4fbd
00000050: 2089 f43d 532e 08be 4817 aebd 50f6 693d
00000060: ed14 c93d acf4 0f3e 9b56 8b3d 014f 14bd
00000070: 4cf0 c03d a192 f83d 5e67 6fbd 749f 0c3e
00000080: 387a e8bd 0771 813c a694 233e 0db6 1a3e
00000090: 39ce 353d 74cf 323e 8015 54bd 9a0e e3bd
000000a0: 41e8 a03d 71f9 bf3c f47d ac3d 454b e83c
000000b0: c194 02be 2205 86ba b46c c43c a479 513a
000000c0: 0da5 4abc 5325 e03b e1fb 803d dd0a 2a3c
000000d0: 5a28 f53d 0172 673d b3f0 633d 363b 0b3e
000000e0: 66c9 10bd 481f fcbc c8dc 09be c458 38bd
000000f0: c985 ee3c 3695 533d 9813 6e3d 7d43 1a3c
00000100: 371e fe3d fc5b 623d 5501 c83c 87c4 efbb
00000110: d29e e5bd 0110 d03d 5355 92bd f827 efbd
00000120: f6d0 3c3c e5a1 3d3d 562e a93d c742 f33b
00000130: 3d4e fabd 882a dcbe a18b b7bc db58 6bbe
00000140: 07ed 14be 5bfe 243d ecaa 6fbc 5c66 9e3d
00000150: e050 46bd aa02 f3bd 337d 8bbe c076 353d
00000160: 38a7 59bd 3a6a 9abe 4ecb aa3d 24bf 3a3d
00000170: 21b8 aa3d f69e ccbd 7503 89be d575 173e
00000180: 9248 f33d 04c6 7bbd 29e3 fdbd c48e 8cbc
00000190: 359c ffbd 8906 723d 91da 98b9 fba0 16be
000001a0: c225 3bbd 640e a7bc a399 50bd abb8 19bd
000001b0: f543 dbbd eeed 48be 431c 53bc 6b5e 713d
000001c0: a6fe e13d 0468 dbbc ddb3 293c 9ebb c8bd
000001d0: a478 2cbd 52da bd3d 0568 053e 208d 0c39
000001e0: be71 7dbc 53b9 0cbe e089 893e b7e3 c9bd
000001f0: 504c 9ebd eebc c0bd 4623 073e 1249 11ba
00000200: 418e ae3d 4c61 18bc 8e9b 06be ff0d a3bc
00000210: 4b16 a03c 54a8 643d 4bb3 e23d 0f4a d1bc
00000220: 72ab 373d 3796 82bd 4e41 88bd 0bba 11bd
00000230: 79d8 a5bd f0ef 9a3d 612b b9bc f813 233c
00000240: fe4f 9fbd c58b 08bb f3cd 03bd 001b 4fbd
00000250: 8215 ea3c 4e08 e33d 28d6 3d3d b702 913d
00000260: dc68 88bd 846f e7bd 7e24 d1bc 9a43 dfbc
00000270: 1f92 4ebd 4fba bd3d 1d4f fe3c f231 3a3d
00000280: b202 463e 1e5d 5ebd e91d f83d 0081 c73d
00000290: 6de4 493d 376b d73d 3487 d53d e5f6 adbd
000002a0: 78c6 9bbc 69ff f8bd 69f8 71b6 7684 043e
000002b0: 5713 8b3d 5acf b33d ca39 993d d26a 923b
000002c0: 587a 0a3e a4c4 00bd 8e02 13bf 4aaa 393d
000002d0: 66b3 683d 0535 60be fc80 03be 44e1 a4bd
000002e0: c018 b33b f234 843d 10b5 f3bc ba6e 9abb
000002f0: 55e9 a53d ef31 073e fa39 013e a72f e3bd
00000300: bf9a 4c3e 3487 5e3d 9ecb e1bc 34b1 bbbd
00000310: de31 283d e115 cdbd bba5 d5bd 18d1 003e
00000320: 5240 fdb9 1a4c 8d3d 602c 0b3e 1849 b8bd
00000330: ddc6 43bd f8fd f31a 78cf aebd 0f98 24be
00000340: 570c d33d c311 43bd 1441 a43c a653 aebd
00000350: 108f e53d 410f 163e bd4a 9b3c 8785 103e
00000360: 3734 d6bd 9567 013e d3eb ef3d 1437 fd3d
00000370: 84e0 efbd 2df7 9c3d 96ce af3d a9fe 473e
00000380: ebbb 18be e8e8 0a3e a3fb 85bb 03c2 27be
00000390: fce4 913d 4af7 cf3d 292c 00be 6743 203d
000003a0: df4d 8b3d 95c8 db3d ddbb e2bd 3781 e0bd
000003b0: 9544 7b3d d0b6 e3bc c9cf 813d d703 1b3c
000003c0: 57cc dfbd a3a4 0ebd f0e3 3dbd b1b5 e6bd
000003d0: c45f c9bd c620 d33d a9f8 a73c c935 2abd
000003e0: 131e bbbd 0ecb c8bd e9b8 b63c 4c4f 55bd
000003f0: 999b 01be 5aa0 a9bc 07b0 053e 9f9a f6bd
0.063308254 -0.06340092 0.15744036 0.11575175 0.078220375 -0.0013274594 0.057508234 -0.10591486
-0.052047476 0.11598553 -0.031267975 -0.10802016 0.05983245 0.12067501 0.038341437 0.18121406
-0.124935634 -0.038247775 -0.046483696 -0.050694104 0.11940217 -0.13298921 -0.08500534 0.057119668
0.098184444 0.14058179 0.06803628 -0.036208156 0.09420833 0.12137342 -0.058448188 0.13732702
-0.113514364 0.015800966 0.15974674 0.1510851 0.044386122 0.1746195 -0.051778316 -0.110867694
0.07856799 0.023434373 0.08422461 0.028356204 -0.12752058 -0.0010224918 0.023977615 0.0007990843
-0.012368453 0.006840387 0.06298042 0.010378567 0.11970587 0.056505207 0.05564947 0.13596806
-0.03534832 -0.030776635 -0.13463128 -0.04500653 0.029116528 0.05165597 0.058124155 0.0094155045
0.12408107 0.055263504 0.024414698 -0.007317129 -0.11211933 0.101593025 -0.071451806 -0.11677545
0.01152443 0.046296973 0.08260791 0.007423732 -0.12221954 -0.430012 -0.022405447 -0.22983114
-0.14543544 0.040281635 -0.014628153 0.07734367 -0.048416972 -0.118657425 -0.27243957 0.044302702
-0.053137988 -0.3015917 0.083395585 0.045592442 0.08335901 -0.09991257 -0.2676045 0.14791043
0.11879076 -0.06146814 -0.12396843 -0.01715792 -0.12480966 0.059088264 -0.00029154544 -0.14709847
-0.045690306 -0.020392604 -0.05092777 -0.03752963 -0.10706321 -0.19622013 -0.012885156 0.058927935
0.110348985 -0.026782997 0.010357824 -0.0980141 -0.04210724 0.09270157 0.13027962 0.00013404014
-0.015469013 -0.1374257 0.26863003 -0.09857886 -0.07729399 -0.094110355 0.1319705 -0.00055421994
0.085232265 -0.009300541 -0.13145277 -0.019904135 0.01954188 0.055824593 0.11069354 -0.02554801
0.044841237 -0.063763075 -0.06653081 -0.035577815 -0.080979295 0.07565296 -0.022603692 0.009953491
-0.07778929 -0.0020835262 -0.03217883 -0.05056286 0.028574709 0.11085568 0.046346813 0.07080596
-0.06660625 -0.11300567 -0.025530096 -0.027253915 -0.05043232 0.09264051 0.031043584 0.045457788
0.19336966 -0.054288022 0.1211508 0.09741402 0.04929011 0.105184965 0.104261786 -0.08494357
-0.019015536 -0.121580906 -3.6056392e-06 0.12941155 0.06790798 0.087797835 0.074817255 0.0044683004
0.13523233 -0.03143753 -0.57425773 0.045328416 0.056811713 -0.21895225 -0.12842172 -0.080507785
0.005465597 0.06455411 -0.029749423 -0.0047129067 0.08101145 0.13202642 0.12619773 -0.11093073
0.19980906 0.05432816 -0.027562913 -0.09164658 0.041063182 -0.10013939 -0.10432001 0.12579763
-0.00048303843 0.06899281 0.13591146 -0.089983165 -0.047797073 1.0091275e-22 -0.08535665 -0.16073631
0.10305088 -0.04762436 0.020050563 -0.085120484 0.11208928 0.14654256 0.018956536 0.14113437
-0.10459178 0.1263717 0.11714902 0.12364021 -0.11712745 0.076643325 0.08584325 0.19530739
-0.14915435 0.13565409 -0.0040888353 -0.16382603 0.071237534 0.101545885 -0.12516846 0.03912678
0.06801962 0.10731617 -0.11070988 -0.10962146 0.0613447 -0.027797133 0.0633846 0.009461365
-0.109276466 -0.03482498 -0.046359956 -0.11265124 -0.09832719 0.103089854 0.020504313 -0.0415552
-0.091365956 -0.098043546 0.022304969 -0.052077577 -0.12657012 -0.020706344 0.1305543 -0.120412104

energy_lin.3.bias f4 [150]
00000000: 7f53 5e3c 3f59 993c af9f 033b e57a 02bd
00000010: f97d c43b 2755 9cbb 0a02 23bd ce3e 9ebc
00000020: 7caf 543a 118d 69bc 7f96 3c3c b7c8 efbc
00000030: 5d5a 01bd 618d bb3d 8f30 44bd 9e39 d43c
00000040: 8c43 6ebc 644f 673d 6843 8a0b 39fe 65bc
00000050: 4ce1 8f3c 314b babc c5b8 30bc a906 d83b
00000060: e475 fdbc 538b f53c c7b9 14ba 947a e9bb
00000070: 21c4 ff3b a8fa 013d ce6e 00bd 5c89 ce3b
00000080: be91 623b f26c 02ba f739 1fbc f456 e3bc
00000090: 335d 5d3d ae0d c8bc 4bb7 78bc c715 02bc
000000a0: 46d8 f33b 397e c4b9 43e7 303d 4ca7 0ebd
000000b0: 0a7e 0d3d d407 0a3b 7ddf 5b3b 46c5 e23c
000000c0: 7f1d 13bd 5ac3 1dbd eaa2 df3c b6ff 5b3c
000000d0: eff3 4d3d 8be4 2038 594b f73c b3ac 883d
000000e0: 123b 58bd 717b 573d 97f6 b1bc a176 23bd
000000f0: e28d c23c 3139 203d b7f1 303c e844 113b
00000100: a1fa 47bd f8a8 063d 202e 0bba 3a48 7f3d
00000110: 8a1a 0bbd f6c5 2c3c 0aa0 043d d41a 11bd
00000120: 8b5a a53c f788 d7bc 7bb3 d23c 7de8 6e3d
00000130: de24 0e3d 77a5 31bc 0395 07bd aca9 883c
00000140: 7cf5 a1bb 5367 983d dcd7 673d 3a55 57bc
00000150: bc5f 7e3d 6aad 073d 2093 343d beb8 dc3c
00000160: 41d8 63ba fe02 00bd d447 bb3c e6c8 1a3b
00000170: b1f7 b73c d05c 583d bdf7 5f3d 1a4b a03d
00000180: 9e57 9cbc cc22 12bb 1cbd f3ba 1c55 313d
00000190: 69a6 803d e0d3 313b 58bb a73d c12a f43c
000001a0: 436e 9e3d 851f c53c 1b2a 4d3d e8ad cb3c
000001b0: 42c0 b93c 8744 803d aede 943c 8ad5 bc3b
000001c0: e6f2 30bc d761 0a3d 18a4 4bbd 0ea9 15bd
000001d0: 841e 46bc 209c a4bc ff7a d83c 940b 4f3d
000001e0: 46f3 203d 5fe3 52bc 29d5 383d 1358 fd3b
000001f0: d8a7 9cb8 28a6 bbbc c319 f5bc 2004 593d
00000200: ff78 5f3c 33c6 3b3d a7c2 7e3c e239 7f3d
00000210: 0d94 653d 5a7a 4b3d 0f4f 3d3d d318 5abb
00000220: ce53 7a3c 2ea4 2f3d ff18 823d 7154 3a3d
00000230: 3783 7d3c 15c5 c43c 8459 103d 31b9 9b3b
00000240: 5516 28ba e522 35bd 5807 473d 5a6a 98b9
00000250: e43b f33c ded3 e03b
0.013569712 0.018719314 0.0020084193 -0.031855483 0.0059964624 -0.004770893 -0.039796866 -0.019317057
0.00081133074 -0.014254824 0.01151049 -0.029270513 -0.031580318 0.09157825 -0.04789787 0.02590638
-0.014542472 0.056472197 5.325709e-32 -0.014037662 0.017563485 -0.022740932 -0.01078624 0.006592591
-0.030940004 0.029973662 -0.0005673435 -0.007125208 0.007805363 0.031733185 -0.03135567 0.0063029956
0.0034571732 -0.00049753406 -0.00971841 -0.027751423 0.05404396 -0.024420585 -0.015180419 -0.007939762
0.0074415533 -0.00037478076 0.0431893 -0.034827515 0.03454403 0.0021061795 0.0033549957 0.027681958
-0.0359168 -0.03851638 0.027299363 0.013427665 0.05028146 3.835982e-05 0.030187296 0.06673565
-0.05279071 0.052607957 -0.021724029 -0.039908055 0.023749296 0.039117042 0.010799817 0.0022166315
-0.048823003 0.032875985 -0.00053093024 0.06232474 -0.033960856 0.010545244 0.032379188 -0.035425976
0.020184776 -0.026310427 0.025720349 0.058327187 0.034703128 -0.010842673 -0.033101093 0.016682468
-0.004942594 0.074415825 0.056602344 -0.013142878 0.06210302 0.033124365 0.04408562 0.02694356
-0.0008691587 -0.031252854 0.022861399 0.002361828 0.022456976 0.052822888 0.05467962 0.078268245
-0.019084748 -0.0022298573 -0.0018595788 0.043294057 0.0628174 0.0027134344 0.0819003 0.029805543
0.077358745 0.024062881 0.050088983 0.024863198 0.022674683 0.062630706 0.018172588 0.0057627605
-0.010800099 0.033784714 -0.04971704 -0.036538176 -0.012092236 -0.020093977 0.026425837 0.05054815
0.039294504 -0.012871592 0.04512516 0.0077314465 -7.469923e-05 -0.022906378 -0.02991951 0.05298245
0.013639688 0.045843314 0.015549338 0.06231106 0.056049395 0.04967723 0.046217974 -0.0033278957
0.01527877 0.042881183 0.06352424 0.045490686 0.015473179 0.024019757 0.03524162 0.004752301
-0.0006412019 -0.04422273 0.048590988 -0.00029070937 0.029691644 0.006861194
