models/mpnn_A139_B23_E300_L2/23.pt (torch, 742651 bytes, 9 tensors)

atom_lin.weight f4 [300, 139]
00000000: 0cec 1dbe 366d 883c f52d 4626 5316 12a0
00000010: c7d8 9aa5 45de a427 6ae5 343e fca7 31bd
00000020: bf5d 4ebe c3b5 5d3d 2c64 0129 ca50 1521
00000030: a72c dcba af36 bb24 b84d 2ba9 8fe5 253e
00000040: 1ee0 7a3e b7da 7e3d c543 2da5 d628 b689
00000050: d06a a007 ee9f 878d 4f90 7519 e4db 6213
00000060: 6d86 6918 b8f3 8fbc 65d7 42bd 5870 893d
00000070: 5b85 2326 e067 9699 deb9 0127 8974 3580
00000080: 1f0e 2125 ae17 831b a91f 86a8 5952 0abb
00000090: d463 4f01 bbe8 bf82 7b63 d886 3d94 af14
000000a0: cf47 a818 dbcd 6799 ed0c 8322 2734 9c9f
000000b0: 0a9f 0c9c 3184 fa91 b632 6316 a236 37a8
000000c0: 3b99 f4a4 f44a 3392 59f6 0080 35bb bd98
000000d0: 2051 0c93 8779 cc3c 5494 c4a0 fa89 3580
000000e0: 96ef 47a3 5e39 709d 896c 3500 bc55 e4a6
000000f0: ac79 3580 e389 4295 13f3 b624 656c 9601
00000100: a33b b803 9ccc 698a e114 a8a3 b369 c014
00000110: d593 e423 de7d 6416 575e 0203 7c43 af1b
00000120: 4bdb 8d02 4806 3a21 f8bf 6896 c870 34a9
00000130: e837 73a9 122f 01a5 20e9 57a4 fb8d 3580
00000140: 407c e193 0c76 b28c 549b 2d98 1669 3580
00000150: 0d5e 86a9 3730 2f06 e229 3020 46c8 5610
00000160: 0e25 42a8 039e c7a2 87d9 8f29 f01e 4b99
00000170: 9871 f528 ed89 ad14 1ec4 2fa6 fee6 b6a9
00000180: 1b2b d928 2ffc d915 ce48 a7a8 212b 8b9f
00000190: 5291 1d84 e704 4724 811f 1223 728d c1a3
000001a0: 895b a79b 4368 3580 86e3 9c14 0d86 5615
000001b0: cfcf 1116 1bc6 ae11 f75f 64a6 4efa 038b
000001c0: a798 8ea8 20d3 8da7 1886 3580 2efc 9f16
000001d0: aa72 c226 e8bc f61f d83c ac1a 48f4 b23d
000001e0: c26a 443e b6e1 593b 1a56 0ebd eb2e fbbd
000001f0: aa3c 37a7 5994 c63d a28c 3c8e 7b18 9c8c
00000200: f72b 033d ad53 0cbe b1a7 2c3c 22d6 3cbe
00000210: 3a76 98be 2673 cc3d 4d29 97a1 58f6 0c14
00000220: 2dac da97 94e2 352a 836d 343d 9613 8ebd
00000230: a8d2 123e 958a 3580 b1b5 8aa1 9688 bc1a
00000240: 276a 4f1e 854d 8ebd 0793 44bd 829b ddbd
00000250: c4b8 cb3c fc7e 3500 ad02 348c fc74 3500
00000260: b5f6 521a 880d 7b83 6a56 063d ecbd 513e
00000270: eeac 45bd 3f77 fb1c dcce a619 2b7b 3580
00000280: 700a a5a6 090a ffa2 7653 bb26 28d1 1fa0
00000290: 35bd 763d 8763 7e3d ecf6 d13d fdcd ab99
000002a0: 9b76 2c1f 7c4d 9c89 a169 c723 e704 5128
000002b0: 518c 2f8e 32ad a020 8975 a03d e20b 0f9e
000002c0: 5269 0286 4153 52a7 4739 fb10 3182 3580
000002d0: 98df 382a 41a2 d025 085c 5ea4 bb75 3500
000002e0: 13eb 018d 22af 29a2 c008 e58b ad81 c009
000002f0: 1f89 1891 5686 3580 9964 93a1 561c 9515
00000300: 6262 743e 69ce 9a95 263a 3d12 434d 231a
00000310: b6cb f59d 0ec7 fb86 7b7c 3500 2eac f121
00000320: 74d4 4628 6d88 5223 803f 3302 b26c 9b83
00000330: a166 558a 5779 3580 e14a 8d11 cf27 ad8c
00000340: ce73 7522 cea0 3428 a0b3 0f1f 0950 539e
00000350: 6504 aea1 2c38 030f 773a 6e1c 4c93 c40f
00000360: 3ea6 579e 6520 8aa3 a978 b5a8 3a7e 3580
00000370: decd 9199 6944 081b 4d6b 3580 6df8 bd10
00000380: bd36 2225 bd51 5125 1169 19a6 b22b 1c1d
00000390: e927 1700 2e49 9619 1b0f 93a8 fcc1 ed24
000003a0: db6b 1c9a a354 ed25 5f82 9820 0042 eb0c
000003b0: 46af dda1 2f37 8897 fba4 a08c 8a2d 9329
000003c0: a34d dc9e d3e7 0da2 3ed7 521d a853 2a26
000003d0: a86f 3500 9b43 3418 b6b6 3c81 a8fd ba95
000003e0: 90f1 9515 a50d 8d29 c841 7e83 6f7d fa9e
000003f0: ed79 3500 89a9 a228 e657 0d83 ef7a 3580
-0.15422076 0.016653638 6.8757333e-16 -1.2374067e-19 -2.6861636e-16 4.576013e-15 0.1766564 -0.043373093
-0.20152949 0.05412842 2.873064e-14 5.0590087e-19 -0.0016797975 8.119096e-17 -3.8037038e-14 0.16200851
0.24499556 0.0622203 -1.5028319e-16 -4.385331e-33 2.4136903e-34 -8.358519e-31 1.2695346e-23 2.8633625e-27
3.0182412e-24 -0.017572269 -0.047568697 0.06710881 5.6732716e-16 -1.5551591e-23 1.8003105e-15 -4.909086e-39
1.3969308e-16 2.1687435e-22 -1.4890719e-14 -0.0021106212 3.8091519e-38 -2.8198508e-37 -8.1396343e-35 1.7728954e-26
4.349949e-24 -1.1983992e-23 3.5521307e-18 -6.615485e-20 -4.6527667e-22 -3.9524515e-28 1.8352916e-25 -1.0170387e-14
-1.06077715e-16 -5.657483e-28 -8.8373e-41 -4.9044386e-24 -1.7710482e-27 0.024960293 -3.3301847e-19 -4.916778e-39
-1.0838546e-17 -3.1793394e-21 4.906216e-39 -1.5843916e-15 -4.910929e-39 -3.928676e-26 7.93417e-17 5.5256836e-38
1.082824e-36 -1.1257025e-32 -1.8223439e-17 1.9428737e-26 2.4782419e-17 1.845741e-25 3.8311863e-37 2.8994932e-22
2.0843956e-37 6.3027564e-19 -1.8801385e-25 -4.006585e-14 -5.400533e-14 -1.1204914e-16 -4.6818158e-17 -4.918214e-39
-5.6920505e-27 -2.749629e-31 -2.2438147e-24 -4.904979e-39 -5.9671106e-14 3.2949264e-35 1.4921638e-19 4.2358343e-29
-1.0777198e-14 -5.410636e-18 6.388211e-14 -1.0501102e-23 2.7249728e-14 1.7522938e-26 -6.098111e-16 -8.1224944e-14
2.4110534e-14 8.804348e-26 -1.8572299e-14 -5.894014e-20 -1.852199e-36 4.31554e-17 7.921347e-18 -2.0985006e-17
-2.7686986e-22 -4.904683e-39 1.5841717e-26 4.3322703e-26 1.177858e-25 2.7574451e-28 -7.9233447e-16 -2.541799e-32
-1.583137e-14 -3.9364264e-15 -4.915385e-39 2.5846983e-25 1.3492534e-15 1.0449757e-19 7.123583e-23 0.08737999
0.1918135 0.0033246106 -0.03475008 -0.12264808 -2.5429238e-15 0.09696264 -2.3240501e-30 -2.405034e-31
0.03202435 -0.13703795 0.010538028 -0.1844106 -0.297777 0.099829 -1.024309e-18 7.1167764e-27
-1.4131383e-24 1.615464e-13 0.04404975 -0.069373295 0.14338171 -4.916995e-39 -9.399337e-19 7.7975644e-23
1.09804405e-20 -0.069483794 -0.04799178 -0.108206764 0.024868377 4.912835e-39 -1.3867501e-31 4.909247e-39
4.362627e-23 -7.3777804e-37 0.032797255 0.20482606 -0.04826062 1.6640611e-21 1.7247548e-23 -4.911466e-39
-1.1452004e-15 -6.9128514e-18 1.2998354e-15 -1.3537028e-19 0.060239036 0.062106635 0.10252175 -1.7764184e-23
3.6520525e-20 -3.76285e-33 2.1620359e-17 1.1602894e-14 -2.1637975e-30 2.7219665e-19 0.07834918 -7.572814e-21
-2.452766e-35 -2.9188486e-15 9.9090293e-29 -4.913985e-39 1.6420058e-13 3.6192196e-16 -4.821653e-17 4.909515e-39
-4.0034154e-31 -2.2996485e-18 -8.8220757e-32 4.6344265e-33 -1.203294e-28 -4.915472e-39 -9.987735e-19 6.022533e-26
0.23865655 -6.252576e-26 5.970956e-28 3.377002e-23 -6.5061592e-21 -9.470819e-35 4.911936e-39 1.6376371e-18
1.1037276e-14 1.1413012e-17 1.3169067e-37 -9.135036e-37 -1.0274879e-32 -4.91081e-39 2.2292025e-28 -2.667883e-31
3.3264998e-18 1.0026876e-14 3.043001e-20 -1.1186798e-20 -1.1791862e-18 6.469617e-30 7.882316e-22 1.9383829e-29
-1.1416383e-20 -1.497571e-17 -2.0147365e-14 -4.912563e-39 -1.5075798e-23 1.1271761e-22 -4.905774e-39 7.4930116e-29
1.4069806e-16 1.8155554e-16 -5.322493e-16 2.0669018e-21 2.126533e-39 1.5539194e-23 -1.632683e-14 1.0311099e-16
-3.234717e-23 4.1170298e-16 2.5836074e-19 3.6247205e-31 -1.5021937e-18 -8.802724e-25 -2.4751197e-31 6.536011e-14
-2.3325516e-20 -1.923179e-18 2.7904546e-21 5.9093974e-16 4.907336e-39 2.3298587e-24 -3.4661235e-38 -7.5525e-26
6.056174e-26 6.264025e-14 -7.4719404e-37 -2.6521658e-20 4.91102e-39 1.8059137e-14 -4.153708e-37 -4.911382e-39

atom_lin.bias f4 [300]
00000000: 65b0 c13d 80d9 80bc 8022 57bd b89c a5bd
00000010: fe6e 08bd e92c 0c3d 5b4f a03c b5b3 46bc
00000020: d3aa 7fbc a415 93bc 0e4d 583d 08b0 7ebc
00000030: eefe 56bd 214f 48bd 2238 3f3c aaa1 043d
00000040: 5cfc bd3c d6be 6bbd 6fc3 613c 4196 3dbd
00000050: 5e05 c03d 1712 4b3d 5b9e 9c3d daad 303d
00000060: 862f 0e3d 5cbf c73d eed6 2e3d 04f2 d33c
00000070: c32a 733d 3c92 573d ee83 3abd abee 6b3c
00000080: 0411 8a3d b448 df3c a2c6 073c 3a4d 703d
00000090: 7389 1c3b de6e 5b3d 3378 4bbb 661c 133c
000000a0: c5d2 803d e7d3 b73c 8379 debc 7615 bebc
000000b0: 60fd f8bc 887e 8e3d f390 023d bbe2 c23d
000000c0: 51aa fe3a 576f 253d cd19 82bd f705 10bd
000000d0: b3e9 64bc 4e99 6e3d af2d cd3d d985 ae3d
000000e0: 3479 a2b9 9d14 c83c 1703 6d3c 7e23 413d
000000f0: 813a c8bc 65d5 dbbc ced3 953d 67d9 863d
00000100: a0f1 a93d 1bb6 aebc 0974 3f3d 2750 0f3d
00000110: 8dc8 6bbc 8fa6 b1bc 499c 01bc a106 653d
00000120: 3ce9 b63d 125b d93d 1aee 403d bd87 50bd
00000130: 3f24 4abe ff89 a33d 402c 7c3d 4c81 d3bd
00000140: 1f0d 8bbc 445e 703d 7603 883c d920 a83d
00000150: 933a 8e3d d0be 5b3a 53bd 853d 2057 e13c
00000160: f1dc 393d d8e5 21bd 9049 cbbc bea4 893d
00000170: 8314 c13d 7a32 413d a1be 283d 3a83 87bb
00000180: 9eba 9f3d cf61 1ebd ac71 5c3c 7392 6d3c
00000190: 801d 873b b934 83bd c1af 203d 25c7 273d
000001a0: 6b0f baba bbfb 8bbd 0614 eb3d 6f92 9c3d
000001b0: cbc3 debc 0d57 0d3b d450 fc39 95f4 c33d
000001c0: 8fc2 863c 4983 ad3a 3229 7f3b 23e6 353c
000001d0: d486 a73b 43eb 513c 4efc 8b3c 9967 eaba
000001e0: c9c8 a53d 41bb a83c 6515 6a3d 6a95 8d3d
000001f0: eceb 663d 522d dd3d 1f7b a53c 20d6 68bc
00000200: 23e3 f23d 7d09 863d 32e0 c43d 3867 fb3b
00000210: d14b c7ba f1fe 763d d242 28bd db27 5fbb
00000220: d22e 8a3d e291 393d d3eb c03c 6084 41bb
00000230: b261 d93b 99f6 adbd a4cc babc b9d5 5fbd
00000240: 7a22 0b3b 5fb0 9d3d 1ffe 2abc 3770 2cbc
00000250: 3f50 8c3d 8f6a 0dbd 63aa b63c f298 b13d
00000260: 11a9 b7bd 4c58 b23a 4718 773d d7f1 64bd
00000270: 43d1 fd3c 6a11 233d 3eb8 693d db5d 573d
00000280: ad51 a93c 7950 413d 5a2b aabc e227 a93d
00000290: e914 0a3e 17c9 15bd d72e e03d 9090 68bd
000002a0: 745d 35bd 15c8 503d 9e0d 893d 4558 953b
000002b0: 61d8 fabd 9f40 d3bd d97a 24bd 84fe b73d
000002c0: 344b f73d f7c9 0bbd 8c00 363b adc3 713d
000002d0: 61d2 803c 0709 6f3d 2482 bebc 1bdf c5bd
000002e0: 227d 5c3d 2826 403d af5b 89bd f89b 61bd
000002f0: b033 ee3d 9537 bd3d 63c2 f6bc 7c2a a9bd
00000300: 9314 a93d 815f 4dbd 3f91 9abc 482f 613d
00000310: fb92 7abb ae41 df3c 1c94 22bc 3f19 2d3d
00000320: 2e9d 893c 1ecd 8abd 4719 a43d a444 aa3d
00000330: 26d6 00bd 0f90 53bd bdb3 a83d 415a 1cbd
00000340: 4740 31bd 8808 9b3d e828 803d 044c 873c
00000350: bb11 993d 7eec 573d 0bd1 d3bd 6151 913d
00000360: d91f b53d 2aa2 7dbb ae31 f33c 9aa2 a9bc
00000370: 5fdf 32bd 5c21 05bd 3b4f 88bd fa10 c33d
00000380: 49aa 743b 24a9 91bd 5959 a0bd 61b4 453d
00000390: 71cb 0b3e e6dd 423d 2ad0 9d3d 8627 34bd
000003a0: 3849 d7bc 890a 043e 071d 463c 648b 1e3d
000003b0: f17d a73d 6e1b 343d aa3f 67bd 3b1a 28bd
000003c0: c876 e43b 2e1a 233d f6a7 633d c9a0 373e
000003d0: 06cd 683d ed5f d73d 0d1e 623d a8c1 68bd
000003e0: 3a47 0cbd 43ba f03c 5f7e be3c 0711 533d
000003f0: 5f29 7d3c 1e93 403d 8792 843b fc2f 76bd
0.09457473 -0.015728712 -0.052523136 -0.08086532 -0.033308975 0.034222517 0.01956909 -0.012127806
-0.0156046925 -0.017954655 0.05280786 -0.015544899 -0.052489214 -0.04890359 0.011671098 0.032380737
0.023191623 -0.057555042 0.013779505 -0.04628587 0.09376024 0.0495778 0.076473914 0.043134548
0.03471329 0.09753296 0.04268544 0.025872238 0.059366953 0.052629694 -0.045535974 0.014400165
0.06741527 0.027256347 0.008287104 0.0586674 0.0023885637 0.053572528 -0.0031046986 0.008978939
0.06290201 0.02243991 -0.02715755 -0.023203593 -0.030394256 0.06957728 0.031876516 0.09515902
0.001942942 0.040389385 -0.06352577 -0.03516194 -0.013971734 0.05825167 0.10018479 0.08521623
-0.0003098935 0.024423892 0.014466069 0.04715299 -0.02444196 -0.026835153 0.07315789 0.06584435
0.082980394 -0.021327069 0.04674152 0.03498855 -0.014391077 -0.021685867 -0.007910796 0.055914525
0.08931205 0.106130734 0.04710207 -0.0509107 -0.1974039 0.07985305 0.061565638 -0.10327396
-0.01697403 0.05868365 0.016603213 0.0820939 0.06944766 0.000838262 0.06530251 0.027507365
0.04537672 -0.039525837 -0.02481535 0.06720875 0.094277404 0.04716728 0.041197423 -0.0041355165
0.07799266 -0.038667496 0.013454836 0.014500248 0.0041233897 -0.064065404 0.039230112 0.040961403
-0.0014195269 -0.06835123 0.114784285 0.076451175 -0.02719297 0.002156678 0.00048125407 0.09568135
0.016450195 0.0013237979 0.0038934466 0.011102232 0.0051125083 0.012812438 0.017088082 -0.0017883658
0.08094937 0.020597102 0.05714931 0.06913264 0.056377336 0.1079966 0.02020031 -0.014211208
0.11859729 0.065447785 0.09613074 0.0076722167 -0.001520509 0.060301725 -0.04107935 -0.0034050855
0.067472115 0.04530514 0.02354995 -0.0029528365 0.0066339606 -0.084943004 -0.022802658 -0.05464718
0.0021230266 0.07699656 -0.010436564 -0.010524801 0.06851243 -0.03452545 0.022298044 0.0867175
-0.08967794 0.0013606637 0.060325887 -0.0558947 0.030983573 0.03981153 0.057060473 0.052579742
0.020668829 0.047195885 -0.020772625 0.0825956 0.13484539 -0.036568727 0.10946434 -0.05677849
-0.044278577 0.050972063 0.066920504 0.0045576417 -0.12248302 -0.1031506 -0.04015622 0.08984092
0.12074891 -0.034128156 0.0027771322 0.0590245 0.015725316 0.05835822 -0.023255415 -0.096616946
0.053830273 0.04691139 -0.067069404 -0.055080384 0.11630952 0.09239117 -0.030121988 -0.082600564
0.08255877 -0.050139908 -0.018868087 0.05497673 -0.003823458 0.027252998 -0.009923007 0.042260405
0.016798582 -0.06777404 0.08012634 0.083138734 -0.031454228 -0.051651057 0.08237407 -0.03817201
-0.04327419 0.075699866 0.06257802 0.01651574 0.07474085 0.05271577 -0.10342606 0.070956
0.08843965 -0.0038701394 0.029686775 -0.020707417 -0.043670055 -0.032502517 -0.06655737 0.095247224
0.0037332943 -0.07112339 -0.07829542 0.048267726 0.13651825 0.0475749 0.0770572 -0.043983005
-0.02628003 0.12894644 0.012091882 0.038707152 0.08178318 0.04397147 -0.0564572 -0.04104064
0.0069721676 0.03981989 0.055580102 0.17932428 0.05683615 0.10516343 0.05520444 -0.05682531
-0.034247614 0.029385692 0.023253618 0.05152991 0.015451758 0.047015302 0.0040457877 -0.060104355

bond_lin.weight f4 [300, 23]
00000000: bdc1 8135 c201 0d3d 8348 9e3d 756a 5cbe
00000010: 3657 2430 65c7 8690 4452 8037 32ef e2a4
00000020: 7f50 24ab 26b9 2b28 aea6 4b37 b4fb 0bac
00000030: afc1 863e 2eb5 6c33 58ca a2a1 50f0 7435
00000040: b09b 85ae a958 8d33 e3df 44ab 87c1 5797
00000050: f35f 5baf eb0b 8513 d355 9e81 9fe6 c3b7
00000060: a2b1 35be db8e 843e 6bdd 833e dc25 87b9
00000070: a988 5613 88a0 3336 d046 98b9 2293 0436
00000080: 376c 0f34 61a4 8421 8169 84b1 cc17 c2be
00000090: ba36 8a2b 226f d8a9 f410 7627 9822 39b6
000000a0: f809 4cb7 e91a f7b6 31ab 48b8 badd 8337
000000b0: ab32 f512 b19c f736 65cd a4aa 227a d53e
000000c0: 9cf5 6abe 9ab9 0e3f 125b 9c1c 8a6b 3580
000000d0: 6ab6 0c39 4235 d292 3fa9 442d e4d9 0d3a
000000e0: aa82 3500 1e9a e127 f5a5 3c3e 4bd5 dc31
000000f0: 7f7e 3580 d481 3500 b66d 0fa6 81d9 0530
00000100: 4bce d733 c664 8bb4 f53f c217 d82b 08b9
00000110: 8811 7596 fd08 b0b4 09a5 aabe 2b2f c93c
00000120: 07db c8be adc4 fb1e c635 a128 5560 05b9
00000130: b451 0838 aa6b 51b7 a502 9932 014e a025
00000140: ca54 bd90 58ed ebbe a027 88b8 37e5 5e38
00000150: 9979 0dba 7dc2 522a c037 1d3a bb0f b01c
00000160: 71a5 2f19 6d42 31b3 4007 f7b9 bcb7 a420
00000170: 5801 5a91 74be 0dbf 0e49 6e3e ed24 1e3d
00000180: 3437 949b 9741 32ba 13c0 3297 6e3f 88ab
00000190: 2d76 80a6 9d01 63b9 cde2 0d3a 8167 2205
000001a0: edbf fcbe 8842 1b8a e945 8f2f af19 1b0d
000001b0: ff26 9e37 abdc afae 3d6d 33ae f0ee 28b9
000001c0: ab2c 2ba3 5abd 6ea1 afdf 222f abf7 99b7
000001d0: 6116 553e c6d0 473e b523 cb3e 95a5 bc1e
000001e0: b62a 1ab7 5065 aa36 1681 80aa f15c 9439
000001f0: f0c8 e9b0 ed75 d239 5fbe ec1e bfc1 d2be
00000200: 76ad ea34 d2d4 d91f 3df1 06a6 e3b7 f222
00000210: cd87 0d2b e036 f337 b87c b035 7705 e2aa
00000220: 9ddd c811 a26c 3500 5f62 1ea1 fc81 f73e
00000230: 57e8 f9be 5f33 d5be 99dd ffa5 af76 853a
00000240: b59e c939 3f74 a839 e935 adb8 fe4f c034
00000250: 67c1 fbb4 99e3 93b5 d922 bebb f578 3bb5
00000260: 23eb da08 b559 a0b8 b927 4eba 2d74 0431
00000270: c920 863a 511b 8bb3 114a 612b 2408 09b6
00000280: 8158 b535 b40b e522 f64a 81bd 02ec cf3d
00000290: c78b 83bd fe84 0f3a 8229 ac9c 49cd de81
000002a0: 3a64 3d83 1f66 912f e05c e92e cd73 449f
000002b0: f12a 921a 2eeb 473e 139a 0637 2c7c 7a39
000002c0: 6dfd bbb2 69e7 4c34 da2d 9e33 ad8c 3037
000002d0: 816a 9cb2 1ce1 8a9c 5ce8 612d c4ff bf0d
000002e0: 3ecb 211e b6ef eabe 9bc1 fcbd 70b2 993e
000002f0: 5f7a 3500 0286 3500 4984 3500 3c6b f4b9
00000300: 4ecd bfb6 d1cf 5e8d 2bc3 9983 94b8 5e34
00000310: b099 c8be ad87 3500 28dd a5ae 6193 95b1
00000320: b2b2 6037 2e13 3c39 e255 2928 cbb7 a31d
00000330: b8b5 a8b9 3415 27b4 0d27 1b35 3f81 16b4
00000340: 6682 42be 6009 aa3e 86d2 8f3e 114d 4097
00000350: 2779 0d97 537c 0337 3af1 8cb9 c39f 2122
00000360: dae8 9038 eb82 3580 16fd 66b8 674b adbe
00000370: f217 240b 3ace ec22 6cb2 6323 f28c 4189
00000380: 3fbd 19ab 6f09 2f2e c6e2 0339 dc6e 0703
00000390: 24b9 35b9 8c01 15ac 3e3d f939 348a 383e
000003a0: b8c9 e33e 95c4 73be fbce 7038 9e0d f4b4
000003b0: ab86 79ab 8aba 8e38 cfd2 05b5 22ac b42d
000003c0: 3a4a 77ba dd4e 3200 e7d8 86be fea5 60b1
000003d0: d4c2 3aac dc69 3500 9f92 f69a 40ec 25b1
000003e0: 876f aab8 c765 e438 da8c a90d 35a0 aab6
000003f0: 7f57 f239 0ae0 af36 4912 b93d 903c 43bc
9.667634e-07 0.034425505 0.07728674 -0.21524985 5.9786787e-10 -5.3160897e-29 1.5297097e-05 -9.841709e-17
-5.8376215e-13 9.5325545e-15 1.2138551e-05 -1.9892811e-12 0.26319644 5.5112814e-08 -1.1031107e-18 9.1246784e-07
-6.0757954e-11 6.581951e-08 -6.9943893e-13 -6.9714513e-25 -1.9952022e-10 3.3585672e-27 -5.8163185e-38 -2.3353203e-05
-0.17743543 0.2589024 0.25754866 -0.00025777414 2.7077976e-27 2.676652e-06 -0.0002904446 1.9755175e-06
1.3357281e-07 8.988179e-19 -3.8537e-09 -0.3790878 9.820679e-13 -9.6116054e-14 3.4148548e-15 -2.7587284e-06
-1.2161669e-05 -7.3643064e-06 -4.784315e-05 1.5719666e-05 1.5474164e-27 7.379415e-06 -2.9274773e-13 0.41694742
-0.22945255 0.55751956 1.0346755e-21 -4.905859e-39 0.00013419395 -1.3265992e-27 1.117889e-11 0.00054111914
4.914155e-39 6.261714e-15 0.18422683 6.4270913e-09 -4.91266e-39 4.913855e-39 -4.976178e-16 4.869421e-10
1.0049242e-07 -2.596409e-07 1.2553101e-24 -0.00012986304 -1.9796474e-25 -3.2789094e-07 -0.33329037 0.024558624
-0.39229605 2.6657002e-20 1.7897911e-14 -0.00012719755 3.250102e-05 -1.2482438e-05 1.7812747e-08 2.7808433e-16
-7.4677994e-29 -0.46079516 -6.492366e-05 5.3142398e-05 -0.00053968426 1.8719223e-13 0.0005997382 1.1650769e-21
9.0806986e-24 -4.1271438e-08 -0.00047116913 2.7904266e-19 -1.7197582e-28 -0.55368733 0.23270056 0.038609434
-2.452022e-22 -0.0006799935 -5.7757334e-25 -9.680986e-13 -8.913816e-16 -0.00021649008 0.0005412519 7.636214e-36
-0.49365178 -7.475492e-33 2.6061223e-10 4.779398e-31 1.8853227e-05 -7.997277e-11 -4.079691e-11 -0.0001611074
-9.279387e-18 -8.088814e-19 1.4813283e-10 -1.835435e-05 0.20809318 0.19513234 0.3967568 1.9973757e-20
-9.18906e-06 5.078189e-06 -2.282694e-13 0.00028298007 -1.7010091e-09 0.00040142183 2.5066208e-20 -0.41163442
4.3712106e-07 9.2255156e-20 -4.681753e-16 6.578893e-18 5.0281724e-13 2.899341e-05 1.314932e-06 -4.0149457e-13
3.1691016e-28 4.906251e-39 -5.3662675e-19 0.48341358 -0.48810074 -0.41640756 -4.438561e-16 0.0010182465
0.00038455953 0.00032130067 -8.2593244e-05 3.582099e-07 -4.6893112e-07 -1.1018593e-06 -0.005802494 -6.9838944e-07
1.3175678e-33 -7.646104e-05 -0.00078641955 1.9274566e-09 0.0010233159 -6.477661e-08 8.0038846e-13 -2.041933e-06
1.3511309e-06 6.2082966e-18 -0.06313126 0.10152437 -0.06423145 0.00054748345 -1.1392735e-21 -8.184449e-38
-5.5657163e-37 2.6447908e-10 1.0612111e-10 -4.1600403e-20 6.045356e-23 0.19523308 8.022896e-06 0.00023888116
-2.188491e-08 1.9083167e-07 7.365789e-08 1.0523171e-05 -1.8209223e-08 -9.190263e-22 1.2841363e-11 1.1832857e-30
8.5652985e-21 -0.4588601 -0.12341615 0.3001895 4.91118e-39 4.915354e-39 4.914736e-39 -0.00046619202
-5.716144e-06 -6.865918e-31 -9.03734e-37 2.074251e-07 -0.39179754 4.915953e-39 -7.5426165e-11 -4.353226e-09
1.3393046e-05 0.00017936222 9.4000074e-15 4.333578e-21 -0.00032178848 -1.55608e-07 5.7798826e-07 -1.4016858e-07
-0.18995056 0.33210278 0.28090304 -6.2135817e-25 -4.5712473e-25 7.837155e-06 -0.0002688261 2.1904146e-18
6.909827e-05 -4.914246e-39 -5.5071978e-05 -0.3384659 3.1603266e-32 6.418628e-18 1.2343477e-17 -2.3297802e-33
-5.461915e-13 3.9798772e-11 0.00012577613 3.9800195e-37 -0.00017330475 -2.1175032e-12 0.0004753861 0.1802147
0.44489837 -0.23805459 5.7413225e-05 -4.545845e-07 -8.864946e-13 6.805833e-05 -4.985313e-07 2.0540073e-11
-0.0009433363 4.620066e-39 -0.26337358 -3.2690646e-09 -2.6540341e-12 4.905256e-39 -1.01980094e-22 -2.4144953e-09
-8.127005e-05 0.00010890845 1.0449338e-30 -5.0850454e-06 0.00046223027 5.241488e-06 0.09036691 -0.011916295

bond_lin.bias f4 [300]
00000000: 715f f53d 95e3 81bd ad86 1c3e df7a 41bd
00000010: 13da 4cbe bad6 17be 4cd1 2c3e 41ed 87bd
00000020: 01dc f4bd 093d b3bd 7748 583e 030b 17be
00000030: 3c9a 413d ae2c 1e3d 0c1a 55bc 4878 8b3d
00000040: 45ed a13d 0fed 253e cec9 3b3e a948 11bd
00000050: 9c9d bb3d 4929 133e 1019 313e def5 973d
00000060: 1a79 a63d a409 78be c606 bf3d 594b 51be
00000070: 9e02 85bc 7ff6 e0bd 58a7 023c 59c2 b7bd
00000080: 80a8 8b3d 7402 ab3d 983d 113e 3cfc 893d
00000090: b05e 2f3d ade1 dabd 40ac 7a3e 6760 e9bc
000000a0: c09e 8e3d e7dc efbc 84bc 673e 7610 df3e
000000b0: 58e8 06be e90a 523b 25b3 cf3d e279 383e
000000c0: beaf ddbd 6988 29be 28db 343c f14b 0b3c
000000d0: bcdc 623e eaaf e13c b9e5 8abd fefb 7dbe
000000e0: a324 1bbe b576 9ebc c1fe 703e a282 b83d
000000f0: 6a41 89bd 9b99 3b3e 0e12 f4bc aeac 34be
00000100: 5674 e6bc 7608 1a3e 5f0a 61be 2bfe 26be
00000110: e4a4 fabb e72c 3dbd 1ae7 2c3e 7d84 febd
00000120: b513 543e 38c9 d2bd f8ee 4e3d 93d6 3f3e
00000130: 69d4 23be 40f2 093e 2791 633d 589e bebd
00000140: f166 583c eaf8 9fbd d717 f03d 2503 523e
00000150: aefe 3d3e 8e62 853d 6d6e 993d f510 0cbe
00000160: bd91 fdbd e822 f7bb 22b0 a2bd 3f12 443e
00000170: c8e0 473e abe1 2dbe cfa4 edbd afaf 333e
00000180: 196a 44be dbac 573e 6f7c 19be f094 3b3e
00000190: c1a6 eebd 1009 f73d 6e2d 573e 6080 63be
000001a0: 64db 443e 819d 973c dc20 5c3d e15a 25bb
000001b0: 132f 46be 1070 443e 97f8 423e 8415 433e
000001c0: ec0d a03e ab0e f73d 2647 72be c52e 0d3e
000001d0: 415b 403e d103 1ebe ed04 4abd c85e c53a
000001e0: f3a8 9b3c cd66 0a3e c00e 4a3e 445d 423d
000001f0: 763b 89be 4c77 61bd c1a6 1a3e ad4b e4bd
00000200: eef9 0bbd 51fe c0be 0256 75be 6036 163d
00000210: ebcd 983d a455 08be fd14 8ebe 7d77 95bc
00000220: 832d aebd 4813 4c3e 1033 d6bc f41f 94bd
00000230: 815c a73d 8ecb 4abe 7947 403e 1abd f5bd
00000240: 296b 493e 0b09 2dbc ffab 0dbe 4c38 983d
00000250: d341 3bbe c8cf 533d a399 df3d afd2 153e
00000260: 43ea 14be 3a37 65bd b675 0ebd c2ce 54bd
00000270: 898b 473e 4ca7 8cbb 3721 4d3e e207 773e
00000280: e308 11be e01c 84bd 6c11 213e 69b0 043d
00000290: 7c51 02be 6f20 48be 6f6d 9a3c 2637 37be
000002a0: a9b8 9e3c b57f 47be e704 a2bd 899b 8bbe
000002b0: 4c71 69be b16c 86be fb94 593d 5cc0 9e3d
000002c0: 7667 543e 3142 59be e044 103e c324 24be
000002d0: e83e 21be 13aa bbbc c1d7 72bd 3fea cdbc
000002e0: a86e b8bd 9424 0c3e 42c3 7b3d c6b4 09bd
000002f0: ae82 24be a0f1 5dbd 7530 24bd 2f9a 6a3d
00000300: cb60 63be 73d8 41be 99a7 fcbd 3c56 883c
00000310: 35ad fcbd 2242 17be 49b9 3a3e 160b b73c
00000320: 5005 a7bd 8969 eb3d 6289 afbd 8e01 9cbd
00000330: 9fc1 a43d a017 793e b0ee 473e 21a6 c7bc
00000340: c5f3 e63c 9b5d 583e e65e 2a3e c424 67be
00000350: 5033 1c3d 24cf 3e3e 961a e2bd 7ec7 763e
00000360: 105f 2cbd 185f 253e 8559 dfbc 34c4 443e
00000370: 0ee9 3e3e 5c94 ffbd f37f 36be eb7c 2d3e
00000380: a9ba d3bd f56a b3bd 48b3 c3be f2c3 c8bd
00000390: 2afe 25be 798d 7bbe b0b9 18be 6a87 34be
000003a0: 8e9a ef3d 6bbe 563e 44df 31bd 6a62 5d3e
000003b0: 48a8 10be 0c8d 133a a556 9cbd 93b8 14be
000003c0: 5dd2 e03d 27d9 c13d 4fe0 59be a60c cdbd
000003d0: 3dae 433b 8615 2d3c 9594 133e 08a9 06be
000003e0: 0319 69be 06fe ca3d bbb2 53be 3772 df3d
000003f0: b036 80be 8efd aebd 0e1f fc3d 35d8 26bc
0.11981095 -0.06342236 0.1528575 -0.04723632 -0.20005064 -0.14828005 0.16876715 -0.066370495
-0.11956025 -0.08751876 0.21121393 -0.14750294 0.04726623 0.03861683 -0.013006698 0.06810051
0.07906584 0.16203712 0.18338701 -0.035469685 0.09160921 0.14371218 0.17294717 0.07419942
0.08128567 -0.24222428 0.09327464 -0.20438899 -0.0162366 -0.109845154 0.007974468 -0.08972616
0.06819248 0.08350077 0.14183652 0.06737563 0.04281491 -0.106875755 0.2447977 -0.028488351
0.06963873 -0.02928014 0.22630507 0.43567246 -0.1317457 0.003204996 0.10141591 0.18015245
-0.10824536 -0.16555943 0.011038579 0.008501993 0.22154516 0.027549703 -0.06782097 -0.24803159
-0.15150695 -0.019343713 0.23534681 0.09009291 -0.0670193 0.18320315 -0.029793765 -0.17643997
-0.028131645 0.1504229 -0.21976613 -0.16307895 -0.007649051 -0.0461854 0.16885033 -0.12427614
0.20710643 -0.10292286 0.050520867 0.18734197 -0.15998997 0.13471317 0.05555835 -0.093075454
0.013208137 -0.078111485 0.11723297 0.20509012 0.18554184 0.065129384 0.07491765 -0.13678344
-0.12381313 -0.007542003 -0.07943751 0.19147585 0.19519341 -0.16980617 -0.116037 0.17547487
-0.19181098 0.21062033 -0.14988874 0.18318534 -0.116528995 0.120622754 0.21013424 -0.2221694
0.19224316 0.01850772 0.053742275 -0.002523117 -0.19353895 0.19183373 0.19040142 0.19051176
0.31260622 0.120633446 -0.23659953 0.13787372 0.1878481 -0.15431143 -0.049321104 0.0015058154
0.01900146 0.13515778 0.19732189 0.047452226 -0.26803178 -0.05504541 0.15102674 -0.111472465
-0.0341739 -0.37694028 -0.2395859 0.03667295 0.07461151 -0.1331392 -0.27750388 -0.018245453
-0.085047744 0.1992923 -0.026147395 -0.07232657 0.081719406 -0.19804212 0.18777265 -0.11998959
0.19669785 -0.010561238 -0.13835143 0.07432613 -0.18286829 0.051711828 0.10917976 0.1463115
-0.14542489 -0.05596087 -0.034780227 -0.051954992 0.19486822 -0.0042924043 0.20032202 0.24124101
-0.14163546 -0.0645082 0.15729302 0.0323948 -0.12726396 -0.19543622 0.01885101 -0.17892131
0.019375162 -0.1948231 -0.07911091 -0.272671 -0.22797126 -0.262548 0.053120594 0.077515334
0.20742592 -0.21216656 0.14088774 -0.16029648 -0.15746653 -0.022908246 -0.05928779 -0.025136111
-0.09005481 0.13685828 0.06146551 -0.033619665 -0.16065475 -0.05418551 -0.040085275 0.057275947
-0.22204892 -0.18930225 -0.12336654 0.016642682 -0.12337724 -0.14771321 0.18234743 0.022344153
-0.0815531 0.114947386 -0.085711256 -0.07617484 0.08044743 0.24325418 0.19524646 -0.024371209
0.02819241 0.21129458 0.16637763 -0.22572619 0.038134873 0.18633705 -0.11040227 0.24099538
-0.042082846 0.16149557 -0.027264366 0.1921547 0.18643591 -0.12479469 -0.17822246 0.16942184
-0.10338337 -0.08760635 -0.38222718 -0.098029986 -0.16210237 -0.24565686 -0.14914584 -0.17629781
0.11699401 0.20971076 -0.043425813 0.21619573 -0.14126694 0.00056286226 -0.07633714 -0.14523534
0.109776236 0.09465247 -0.21276973 -0.10012178 0.0029858493 0.010564214 0.14412148 -0.13150418
-0.22763447 0.099117324 -0.20673649 0.10910457 -0.25041723 -0.085444555 0.12310611 -0.010183384

energy_lin.1.weight f4 [300, 300]
00000000: 8f39 b7bd 43d3 ba3d c418 dbbd c86a 2f3e
00000010: f1fd bf3c 7cce 973d b1cf 413d 4a4d 34be
00000020: ffd9 b2bb a61d 0abd 4b21 19be fb00 823d
00000030: fa95 03be 58b1 403c d351 ddbc 9e00 1fbe
00000040: 9643 81bd 4e7a f0bd 38ff 943d 61dc 9b3d
00000050: 0323 8fbd 4280 a9bc ab04 f53d 0aeb 203c
00000060: 94e5 66bd 473e 22bd d411 34bd bd40 933d
00000070: 01ab 953b 6b55 f03c e1d3 f13d 44ae d53d
00000080: 494f 59bc 4007 423d 9f2c 2a3d 8bd8 fabb
00000090: 85c6 abbd 5043 4e3d aa94 0abe cdf1 003d
000000a0: f8b2 16bd 392d 6d3e 7142 033d c531 653e
000000b0: 5375 e03d 6eab febc 0cc3 1fbc e00a 4bbc
000000c0: 28bb 0b3e 23c5 013e 037d febc 80af ca3d
000000d0: a8ed c7bc 4365 953d 54ba e4bd 5f40 68bd
000000e0: 911b ecbd 9dc8 d53d ffbf fcbb 1e3d 6cbd
000000f0: bb50 123c f315 83bd 7ef8 053e 61be cd3d
00000100: 1c43 063d f055 a03d ef97 85bc c261 a63c
00000110: 5173 683d bbf5 c3bd 2634 253d eece 6abd
00000120: 9299 ee3b f8bb 3f3d c0ee 793d 22bf 7b3d
00000130: dbdb d63d 6ddd 26bd 56f3 1a3e 5dd4 d43d
00000140: 985f 2a3e 5c7d 0abe 5ce0 16bd e32a 58bd
00000150: 4b9b f03d 8401 5cbd 40ec e3bd 63c9 893d
00000160: 2242 d23c e42f 5d3d f700 9d3d ecd9 d23d
00000170: d261 b3bc 9680 b4bd be61 893c 701c 1c3d
00000180: 4835 033e 9a0d b1bd 6d7b 46bd 898c 5cbc
00000190: b2d8 b33d c31f 10be b463 0dbd 9fd7 523d
000001a0: 88e0 6fbc a16c c3bd be5b 113d 5df0 0a3e
000001b0: 94da 1f3d 5d21 5bbd 2ad4 023d a8c2 f1bd
000001c0: 5bfc 7bbe bc28 483d c643 d6bc 36c5 2c3e
000001d0: ebad d33d 2272 8e3d 2704 2c3d c46e e93a
000001e0: a6e3 183d 1d8c 0d3e c15e 9dbd 5a8d 22be
000001f0: 75ff 3bbd df48 87bd eb1c 8e3d a3ed 123e
00000200: 6f48 223e dc86 9e3c 376c 5bbd 748b 433d
00000210: 2bf3 98ba 4403 d6bd cfba 9e3d c6be fdbd
00000220: 83ee c6bd 4c1c ff3d 7354 a5bd fb2b 82bd
00000230: 6cab 243d e22e 81bd 2e46 5cbd 801b d43c
00000240: 6dd5 c13d 211d e7bc 834c e3bd 8b64 8d3d
00000250: 2344 4d3d ec2e 9dbb 890e 003e 9165 a73d
00000260: 9a38 853c cdb5 0ebe c356 923c 0333 5f3c
00000270: c72b 20bd 452c 3e3d cbd0 04bd 0377 1bbd
00000280: 783f 173e b2f4 afbd 19a4 c83d 4e87 40bd
00000290: e887 f0bd 2db7 193e 6a92 903d 78a2 2f3e
000002a0: e47b 62bd ca42 3dbd 0864 403d a1d8 1ebe
000002b0: 1505 c0ba 3a02 af3d 9f6d 9d3d c8d8 1b3c
000002c0: cfbb bc3c ed08 84bd d91a 32bd eee5 50bd
000002d0: 2200 b7bd d322 1c3e b4db 853d 250e 5f3d
000002e0: 9505 9fbc 91ca 6dbd 088b e3bd 5cae 943c
000002f0: 7d64 54bc 8f39 9ebd 5fcb 1c3c a4c0 073e
00000300: 82a7 48bd 7b9c 193e d192 be3d 744e 973d
00000310: 0574 e53c c082 16bd 8496 333e 5049 02be
00000320: 1dd5 073e 4ad6 bf3c 804a c1bb e974 26bb
00000330: 81b4 81bc 6e0a 0bbe e707 d73c d898 6a3c
00000340: d5fb bcbd 3910 1ebd e580 10be 7192 683d
00000350: e5f2 81bd b79f b83d d6df 0abd a3a6 5dbd
00000360: a35a 8bbd 06c1 543a c950 01be 9b62 df3d
00000370: f13b 0fbe 01ed 183c 642b 843d 1958 7f3d
00000380: 9b79 4e3d 72bf 9abd a9d9 45bc e474 93bb
00000390: 9416 f43d 4ce6 543d b14e a13d dc17 443d
000003a0: db91 513d 2883 8d3d a2af e63d 468a 743d
000003b0: 9745 093d 7a25 edbb 26f2 b8bd 31db 41bc
000003c0: 7a11 98bc 6331 9abc fe1c 23bd 5ef3 a8be
000003d0: 938b 73bd ed40 9d3d d69e d6bd 9ca0 ddbc
000003e0: d345 eebd a7f7 cbbc 225f 2b3e 186e 7c3c
000003f0: a7cd 1d3e d696 77bd 5442 173e 6a23 d93d
-0.08946525 0.09122326 -0.10698083 0.17130578 0.023436518 0.07412431 0.04731721 -0.17607608
-0.005458116 -0.03371968 -0.14954107 0.06347843 -0.1285018 0.011761032 -0.027016556 -0.15527579
-0.06311719 -0.11742078 0.072752416 0.07610393 -0.069891 -0.02069104 0.11963781 0.009821663
-0.056371287 -0.039610174 -0.043962315 0.07190082 0.0045675044 0.029337605 0.11807991 0.10433629
-0.013263532 0.047370195 0.04154646 -0.0076552085 -0.08387474 0.050357163 -0.13533273 0.0314806
-0.03679177 0.23161782 0.032045785 0.22382267 0.10959878 -0.031087603 -0.009751093 -0.0123927295
0.13645613 0.12672858 -0.03106547 0.09896755 -0.024405316 0.07294705 -0.11168352 -0.056702014
-0.115286954 0.104386546 -0.0077133174 -0.057675473 0.00893038 -0.06400671 0.13083073 0.100460775
0.032778844 0.07828891 -0.0163078 0.020310286 0.0567506 -0.09568354 0.040332936 -0.05732625
0.0072814906 0.04681012 0.061018705 0.061461575 0.10491153 -0.04073851 0.15131888 0.103920676
0.16638029 -0.13524383 -0.03683506 -0.052775275 0.1174837 -0.053712383 -0.111290455 0.067278646
0.0256663 0.05400075 0.076662 0.102954715 -0.02189723 -0.08813588 0.01677024 0.038113058
0.12813294 -0.086451724 -0.04845755 -0.013461241 0.08781566 -0.14074616 -0.034518912 0.051475164
-0.014640935 -0.09542204 0.035487883 0.13568254 0.03902681 -0.053498615 0.031940617 -0.11804706
-0.24607985 0.048866972 -0.026155364 0.16872105 0.103359066 0.06955363 0.041996147 0.00178095
0.037326477 0.1382298 -0.076840885 -0.15874234 -0.04589792 -0.06605696 0.069391094 0.14348464
0.15847944 0.019351415 -0.05357 0.047740415 -0.0011669149 -0.104498416 0.07750475 -0.12389903
-0.09713461 0.12456569 -0.08072748 -0.06356045 0.040202543 -0.0630777 -0.053777866 0.02589202
0.09464536 -0.028212132 -0.11098578 0.06903943 0.05011381 -0.0047968533 0.12505545 0.08173669
0.016262341 -0.13936539 0.017863637 0.013623002 -0.03910425 0.046428937 -0.032425683 -0.037955295
0.14770305 -0.08591594 0.09796924 -0.047004037 -0.11744672 0.15011282 0.07059176 0.1715182
-0.055293933 -0.046206273 0.046970397 -0.15512325 -0.0014649952 0.085453466 0.07686924 0.009512134
0.023038773 -0.06447015 -0.043482635 -0.051000528 -0.08935572 0.1524766 0.06536046 0.05445685
-0.019411841 -0.05805451 -0.111105025 0.018149547 -0.012963411 -0.07725822 0.009569972 0.1325708
-0.048987873 0.15001099 0.09305347 0.073880106 0.028009424 -0.036745787 0.17537886 -0.12723279
0.1326489 0.02341761 -0.0058987737 -0.0025399274 -0.015833141 -0.13578197 0.026248885 0.014318667
-0.09227721 -0.03858969 -0.1411167 0.056780282 -0.063451566 0.09014838 -0.033904873 -0.054113995
-0.06804397 0.0008115921 -0.12628473 0.109074794 -0.1398771 0.00933385 0.064535886 0.062339876
0.05040894 -0.075560465 -0.01207582 -0.0045000184 0.11918369 0.05197744 0.07876337 0.047874317
0.05116449 0.06909782 0.11263968 0.05970218 0.03351363 -0.0072371336 -0.09030561 -0.011832044
-0.018563021 -0.018822378 -0.03982257 -0.32998174 -0.05945928 0.07678399 -0.10479514 -0.027054124
-0.11634412 -0.024898363 0.16735509 0.015407108 0.15410481 -0.060446583 0.14771396 0.10602458

energy_lin.1.bias f4 [300]
00000000: 364b f53b 5f53 3a3d 2030 05bd bd04 163c
00000010: eb65 643d 6df4 dbbc d3ce dbbc 510c 343d
00000020: a44c e4bb 9378 413c 4dc7 6f3d 059c 2c3d
00000030: 090b 883c 472e 80bd d6b0 093d 411a 80bd
00000040: c455 423d 6af4 cd3c 7413 b73c 7977 c7bc
00000050: 6bf4 9cbb e315 1b3d d640 863d 5f9c 09bd
00000060: 7371 1a3d 9347 103d 9a6a 22bd 1b65 a93c
00000070: 7689 dc3c 2a68 b53d 85e6 753d e57a ccbc
00000080: 4bb2 553b ebd4 b53d c745 cf3c 177b 72bc
00000090: b677 19bd a4ac 703d 79c7 693d 7b47 30bd
000000a0: 8c8f 03bd 6a3a 803d 4391 813d 26bf 71bd
000000b0: 63a7 f43c b898 6c3d d90f 5f3d 9d81 debc
000000c0: 03ad 30bc 21af 233d a310 9a3d 071f eebc
000000d0: 3c04 813c a582 f93c eef8 833d 928b 963d
000000e0: ace5 aabc 6d7a a6bc 6267 b0bb c9b5 0dbd
000000f0: e147 eeba 94af 683c faa0 8a3c 441b afbc
00000100: cb82 8e3d 0736 40bd c267 683c 8b18 a2bc
00000110: 1da7 0b3d 02ba 22bc 2d41 ae3c f710 33bd
00000120: 0be7 3d3d 0d6f 843d fd4c 1ebd 207a a2ba
00000130: eac3 143d effe 663d 9719 953d dd8b 54bb
00000140: 85b8 983c cdc9 faba c0e3 593d d7a7 933c
00000150: a9ec 873c db7f 393d 6e7e f19f a9f4 053c
00000160: 1280 39bc 416d a93c acc3 28bc a1e9 11bd
00000170: 5e92 b03d 23f0 c1bb 0d15 f7ba c63b 233c
00000180: 9abf a23d 558b 6d3d 9c88 8b3d 56c0 8dbb
00000190: 785c 26bd 7af8 533d 9a2a 343d e2f8 053d
000001a0: 9f6d 30bd 2b2a 1cbd 288b 353d ab57 683d
000001b0: a8f0 c2bc bdd0 573c 1c6a 73b9 c85f 1b3b
000001c0: 4d48 eebb ed0b 393d 4e20 a23c 87a6 113d
000001d0: 48c9 603d 7f1a a4bc 9a80 803d 7210 e23c
000001e0: f90c 2abd 99a9 733c 7ef9 883c 4a5d bc3b
000001f0: b57a 863c 26e1 733d b3c1 e6bc 683a 113d
00000200: 770c 3ebd 457c 1b3c dd2e 8e3d 3135 0a3d
00000210: 2b17 14bd 9dde 433d 8f4a 6c3d 63b2 8abb
00000220: f05b d93c 8069 65bc 47c2 11bd 179c 1abd
00000230: ad2b 1e3d 314b fbbc 01f4 ba3b fa2e 323d
00000240: 98d0 033d d2c2 15bd 5b71 7abc e41d 22bd
00000250: 1ecc 4a3d bb31 b63d a81c 023d e254 d2bc
00000260: 7620 7a3d e0c4 2a3d fd06 e73c 2d74 e9bb
00000270: 546a 5a3d 96b3 af3c 132b 80bc 593f 783d
00000280: a5cc 2d3c f639 043d 6280 da3c 7129 20bd
00000290: 7f35 733c 5985 ae3b 4ded 893c 1bdc a93d
000002a0: 7384 603d d9a4 043d 8c8f 0fbd b458 c8bc
000002b0: 8632 0dbd cd98 38bb 5565 493d b394 8fbc
000002c0: 029f 783d 2596 233d 179c 863b 753b 1f3b
000002d0: 99dc bfbc 02e1 cb3b 11c6 2bbc bd7b 4ebd
000002e0: 4ace 43bc c77a 24bd 2aba 383d 49f9 b43c
000002f0: bf0b 353d a71c 533d 6ce7 2fbd 0761 6c3c
00000300: 15c6 36bb 6279 6a3d 91c6 823b 0335 f7bc
00000310: 3df5 8f3c da8f a93b a3df 583d 3721 863d
00000320: 4b07 61bd cf4e 933d 4ac9 a63c cd8e 80bc
00000330: 58d8 403c 1d06 debc 094d a73c 642a 70bb
00000340: c065 e3bb 541d 05bd 3f4c 68bc 112a d33b
00000350: a4a2 643d 9aae 823c 27f9 6d3d 014f 4d3d
00000360: 8c9b 21bc fcf7 023c 2ea4 693d c10a 71b9
00000370: da0e 073d c5d4 2ebc af8a 1c3d 5215 763d
00000380: ee96 c93b 0e2b b8bc 899e 973c 4891 e5b9
00000390: b762 603d 6540 bbbc 69ef 7ebc 77d7 453d
000003a0: 91eb 863d 8fa0 dcbb 0397 603d d2f6 2cbd
000003b0: 448b 39bc 6052 0cbd 1f6e 793d 6469 793d
000003c0: 3b8d 35bd b01d 763c 4fcf d33c 610d 973d
000003d0: cf20 06bd dfd0 463d 3245 813d c8cf 853b
000003e0: 4fda 093d aba9 6f3d 6e65 c2bb 4711 3c3d
000003f0: 2388 50bd 8131 b93c 1fc6 4e3d 60ea 9e3d
0.0074857725 0.045489665 -0.0325166 0.009156403 0.05576126 -0.02684995 -0.02683202 0.04395706
-0.006967144 0.011808532 0.058539677 0.04214098 0.016606824 -0.06258827 0.03361591 -0.062550075
0.047445074 0.02514096 0.022348143 -0.024348961 -0.004789879 0.03786267 0.06555335 -0.033596393
0.03770585 0.03522451 -0.039652444 0.020678094 0.026921015 0.08857758 0.060034294 -0.024960944
0.0032607492 0.088785015 0.025301827 -0.014799855 -0.03746768 0.058758393 0.057074998 -0.04303692
-0.03211932 0.062611416 0.063265346 -0.059020184 0.029864972 0.05776283 0.054458473 -0.027161414
-0.010783437 0.039961938 0.075227045 -0.02906753 0.01574909 0.030457804 0.06443964 0.0735084
-0.02086147 -0.020322049 -0.005383418 -0.034597192 -0.001817938 0.014202017 0.016922463 -0.021375306
0.069585405 -0.046926524 0.014184894 -0.019787094 0.03409492 -0.009932043 0.021271313 -0.04371735
0.046362918 0.06466494 -0.03864764 -0.0012396015 0.03631965 0.056395467 0.072802715 -0.0032431998
0.018642673 -0.0019133628 0.053195715 0.018024368 0.01659234 0.045287948 -1.0227663e-19 0.008176007
-0.011322038 0.02068198 -0.010300558 -0.035623197 0.08621667 -0.005918519 -0.0018850878 0.009962982
0.07946701 0.057994206 0.068131655 -0.0043259067 -0.04061553 0.051750638 0.04398594 0.032708056
-0.043073293 -0.038126152 0.044322163 0.05672423 -0.023796394 0.013172326 -0.00023213815 0.0023708213
-0.0072718025 0.04517739 0.019790795 0.035559203 0.054879457 -0.020032166 0.06274529 0.027595732
-0.041516278 0.014871978 0.01672053 0.0057484256 0.016415933 0.05954089 -0.028168535 0.03545609
-0.046398606 0.009490077 0.06942532 0.033742134 -0.036154907 0.047819722 0.057688292 -0.004232691
0.026533097 -0.014002204 -0.035585668 -0.037746515 0.03861587 -0.030675502 0.005705357 0.04350183
0.032181352 -0.03656275 -0.015285815 -0.039579287 0.049511068 0.08896204 0.03176561 -0.02567524
0.061066113 0.04169166 0.028201574 -0.007124445 0.05332406 0.021447938 -0.01564554 0.060607288
0.010607873 0.03228184 0.026672546 -0.03910202 0.014844297 0.005325955 0.016836787 0.08293935
0.054813813 0.032383773 -0.035049006 -0.02445636 -0.03447201 -0.0028167248 0.049168903 -0.01752696
0.060698517 0.03993811 0.004107963 0.0024296914 -0.023420619 0.0062218914 -0.010484234 -0.050410975
-0.011951039 -0.040156152 0.045099415 0.022091525 0.044200655 0.051540997 -0.04294531 0.01442743
-0.0027889062 0.057244666 0.003990956 -0.030176645 0.017572993 0.005174619 0.05294765 0.06549304
-0.054938596 0.07192766 0.020359654 -0.015693093 0.01177033 -0.027102524 0.020422475 -0.003664636
-0.00693962 -0.032498673 -0.014178335 0.0064442237 0.05581917 0.015952397 0.05809894 0.050124172
-0.009863745 0.007993694 0.05704134 -0.00022987557 0.032973148 -0.010670845 0.038218196 0.060078926
0.0061520254 -0.022481468 0.018508213 -0.00043786527 0.05478164 -0.022857854 -0.0155600095 0.048301186
0.065878995 -0.0067330073 0.054831516 -0.042227574 -0.011324707 -0.034258246 0.060896035 0.060891524
-0.04432414 0.0150217265 0.025855688 0.07375599 -0.032746132 0.04853904 0.06312026 0.0040836073
0.03365546 0.058511417 -0.0059325015 0.045914914 -0.05091108 0.022606613 0.05048191 0.07759547

energy_lin.3.weight f4 [150, 300]
00000000: 4bea 2a3e 23d8 2dbc cf82 61bd df84 febb
00000010: c838 31bd 9e2e fb3d 6be4 153e 3280 97bd
00000020: f623 173e 7344 a5bd 45bf 843d fe4f eabc
00000030: 2907 b8bd eada 983b 1cfc 45bc 4cd0 2a3e
00000040: 76b6 e83d c10c 1b3e dc7f 7e3d 308a 323e
00000050: c28f a83d 16d2 8e3d 9f55 263d 050c 4bb9
00000060: 96e4 c7bc a9c2 173e 81b6 ed3d a90d 2b3d
00000070: 1c96 8b3c 0eb7 1abe e832 2a3e b113 ec3d
00000080: f554 323e d6c8 20bd 4044 a13d bd3c 15be
00000090: 451c 473d dbd1 ec3c 1397 ed3c 174d 18be
000000a0: afec 453c 5cbc ba3d 2a3f 8cbd 84c7 1c3e
000000b0: a442 dbbd 9559 9b3e 000b cc3b cd7e 403e
000000c0: b4fa 4f3d 373c 1f3d 61b9 9abd f268 ea3d
000000d0: 41d6 99bd 2042 ee3d 1739 fe3c 85ab bb3d
000000e0: cfd4 30bc bbc3 9d3d 4dc8 023d dff9 f53d
000000f0: 3762 cabb 793f 22be 5708 043e 5368 c5bd
00000100: d01c 2b3e 52fc 7b3d 73d3 8a3d 9f86 143d
00000110: 64b2 1f3e 26d3 b03d 3b56 4fbc c4ec ec3d
00000120: 28eb fc3e 117e 333d 4704 cabc 9824 03be
00000130: 87de 4c3e b4af 43bd 78f6 96be cb82 0c3e
00000140: a148 64bc a2b1 16bd f27c 323c b655 89bd
00000150: 9978 2dbd 15ac f7bd 64d4 211e f778 c23d
00000160: 064c ca3c 75b3 2cbd 422e 2fbe 043d d63c
00000170: 4579 c5bd 6f58 7cbc 76c7 313e 3078 44bd
00000180: b388 093e faf0 d0bd 31b0 e23d 0aba 0ab5
00000190: 13e2 113d 6537 c43d 5bdd 633d c811 8bbc
000001a0: 4455 3b3e bee1 0a3e 9710 a9bb 8860 c33d
000001b0: c52b b73c f1cb 0ebe 780f e1bc bc69 d8bd
000001c0: 83f4 653d a6da aabc b22d d63c a2e7 c93e
000001d0: d765 62bd 6317 8cbd 1674 333e 4ac3 c03d
000001e0: 27d2 183e c666 8dbd 0363 183e d7a6 883d
000001f0: 05eb 353e d95a 53bc 2139 213e aefa 72bd
00000200: 9a2e b6bb bfd3 e73d 7a23 903d 5a99 cd3d
00000210: eeb9 6fbd 8b64 84bc f7d4 a4bd 9c61 2e3e
00000220: 61e8 943d b391 1f3e 0e49 87bd f119 253c
00000230: 78bb 263e 38b6 d93d 8a19 b33e e47a 0fbd
00000240: 1959 823d f3ff 703d a0da fa3c 7317 9abd
00000250: b206 a2bd d56b 233d 8a18 1bbe d758 03bd
00000260: 751f bfbd 21c6 13bd 4822 173e 7f72 52be
00000270: 09f9 e93d f1aa 803a 1e79 2b3e 39b7 0dbe
00000280: a969 19be 255c 403e ad9b 9c3c 77b3 b23d
00000290: 8550 0e3d eff8 183e 1664 023d 24ba 063d
000002a0: 1119 4d3d d8f2 f33d 4558 c63d 61fe 373e
000002b0: 8bc0 90bc 597e 25bb 41b2 473d dbf9 033e
000002c0: 0e44 a9bc 8531 99bb 80e4 133e d9cb 25be
000002d0: b878 9c3d fb09 6b3c 7c24 27be 3abf ae3e
000002e0: 08f1 b7bd 686a 28bc c360 c63c ea8e 90bd
000002f0: 1b30 c83d 7bd1 143f 02f3 96bc c9f5 d1bc
00000300: 1f12 5ebd e9a9 003e 2d48 35bc 5f3a 983b
00000310: c74e 383d 1507 203d a3e8 13bc 9646 093d
00000320: 7e10 e13d cc3c c9bc 740c 353d 4ac9 103e
00000330: 9ce1 45bd fa4d 1b3d 9bee 053e 3aef ccbd
00000340: 9b9d b23c 32e3 c8bd 50c3 05bc 48e4 673d
00000350: 53b2 02bd be91 393e 4377 ac3d fe7c 833c
00000360: 7442 243e a5d9 ec3d e2a1 1c3d a34b 263e
00000370: 09c1 9e3d b1e2 ac3d 25ad 753d 3a00 00bd
00000380: 9a66 4fbc ca04 a03c 477c c03d 310f 7bbd
00000390: 9b4a 2b3e a7a9 0f3e 4cfc 1e3e fc8b bd3d
000003a0: cec5 4e3c 1eb4 dd3d 894f ac3d 5745 fb3c
000003b0: a052 1abe 4f96 313e 22e0 24bd 2177 163e
000003c0: 5719 9dbd 8ab2 4b3d 52bd f0bd 8f50 30be
000003d0: 42d5 183c bbe1 b93e c97a e23b ace7 6e3c
000003e0: f572 243d 1d8e babd 66bf 6b3d 8e43 12bd
000003f0: 320c 973e ce11 f73c 92c9 6a3c 77b7 393e
0.16690938 -0.010610613 -0.05505639 -0.0077673043 -0.04326704 0.12264751 0.14637916 -0.07397498
0.14759812 -0.08069696 0.06481794 -0.028602596 -0.08985741 0.0046647685 -0.012084033 0.16681021
0.11362927 0.15141584 0.062133655 0.17435527 0.082305446 0.069736645 0.040609 -0.00019364066
-0.02440099 0.1482035 0.116070755 0.041761074 0.017039351 -0.15108892 0.16620982 0.11527193
0.17415221 -0.039254032 0.07874346 -0.14573951 0.048610944 0.02890866 0.029002702 -0.14873157
0.012080356 0.09117958 -0.06847985 0.15310484 -0.1070607 0.30341783 0.0062268972 0.1879837
0.0507762 0.038875785 -0.075548895 0.11445798 -0.07511569 0.11633706 0.031033082 0.09163574
-0.010792925 0.07703348 0.031929303 0.1201055 -0.006176259 -0.15844525 0.12893806 -0.09639039
0.1671021 0.06151993 0.06778612 0.036261197 0.15595394 0.08634023 -0.012654836 0.11568597
0.4939816 0.0438214 -0.024660243 -0.12806928 0.20006762 -0.047774985 -0.29484916 0.13721769
-0.013933332 -0.036790498 0.010894047 -0.06705801 -0.04235134 -0.12093369 8.56719e-21 0.094957285
0.024694454 -0.04216333 -0.1710749 0.026152141 -0.09642271 -0.015401944 0.17361245 -0.047966182
0.13431053 -0.10202213 0.11068762 -5.167973e-07 0.03561599 0.09580878 0.055631023 -0.016976252
0.18294245 0.13562676 -0.0051594484 0.09539896 0.022359738 -0.13944985 -0.027473196 -0.10567042
0.056141388 -0.020856213 0.026144836 0.39434534 -0.055272903 -0.06840398 0.17524752 0.094122484
0.14923917 -0.06904368 0.1488152 0.06672447 0.17765434 -0.012900078 0.15744449 -0.059321098
-0.0055597546 0.11319684 0.070380166 0.10039015 -0.058526926 -0.016161224 -0.08048432 0.17029423
0.07270885 0.15582924 -0.06605731 0.010076986 0.16282451 0.106304586 0.34980422 -0.035029307
0.0636465 0.058837842 0.030621827 -0.07524004 -0.07911433 0.03989776 -0.1514608 -0.032067146
-0.09332172 -0.036077622 0.14759171 -0.2055149 0.11424453 0.000981657 0.16745421 -0.13839425
-0.14981712 0.1878515 0.0191172 0.087256365 0.03474476 0.1493871 0.03183373 0.03289236
0.050072733 0.11911553 0.09684805 0.17968132 -0.017669937 -0.002525231 0.04875398 0.12888281
-0.020662334 -0.0046750926 0.14442635 -0.16191043 0.07640213 0.014345641 -0.16322511 0.3413027
-0.0898152 -0.0102792755 0.024216061 -0.07058509 0.097748004 0.5813214 -0.018426422 -0.025629895
-0.0542165 0.12564816 -0.011064571 0.0046456303 0.044997003 0.039069254 -0.009027633 0.03351458
0.10989474 -0.024565123 0.04420133 0.14139286 -0.04831086 0.03791616 0.13079302 -0.10006566
0.021803668 -0.09808959 -0.008164242 0.05661419 -0.031908344 0.18122002 0.08421185 0.016050812
0.16040975 0.1156495 0.03824032 0.1623979 0.07751662 0.084416755 0.059979577 -0.031250216
-0.012658739 0.019533534 0.09398704 -0.061293785 0.16727678 0.14029561 0.15525931 0.092552155
0.0126204025 0.1082537 0.084136076 0.030672712 -0.15070581 0.17342494 -0.040252812 0.14693882
-0.07670849 0.049730815 -0.1175486 -0.1721823 0.009328188 0.3630503 0.00691161 0.014581602
0.040148694 -0.09109137 0.05755558 -0.035708956 0.29501492 0.030159857 0.014330285 0.18136393

energy_lin.3.bias f4 [150]
00000000: 267e 043d a2e8 e83c 36ad 5b3c 8afb 63bc
00000010: 77d2 8d3c 740f 10bd faf0 c03c df2e 8c3d
00000020: 3915 b0bc 4e47 13bd 94c7 b3bc 5aa8 923d
00000030: 0207 64bc 06b3 293d 2106 c7bc 48cf c63c
00000040: 1e05 693c 5085 b53c 0938 46bd e4b4 353d
00000050: 9f0b 26bd 538c 3580 cb3b 2bbd a10b e73c
00000060: 44ba 1c3d 1e3f e3bc 6983 0abc d388 a13b
00000070: 82ce 25bd 8e0d 45bd bdbb d03c 824b 413b
00000080: cbf0 863c dca7 a53c d3aa 9b3d e6a4 6dbd
00000090: c387 093d 77cb 47bb 229f 96bc 12ea 27ba
000000a0: a639 ad3c 9696 af3c 1897 143d a029 14bd
000000b0: 0196 403d 99c9 60bd c50e 77bc cb06 4bbd
000000c0: 9bc6 903d 4c5b 993c 65f2 06bd 1a45 433d
000000d0: 970d 2bbd c1b5 19bd 9b58 313d c752 14bd
000000e0: da65 4f3d da27 2e3d 3841 99bc 8ec5 cc3c
000000f0: e383 a13c 406e 893c 483e 573d 6255 07bd
00000100: 4fdb 18bc 0ea2 143d 7977 c2bb c127 543c
00000110: 71a8 0fbc aeff 33bc bf1a e5bb 52ec b4bc
00000120: 7515 32bd d643 5c36 94f7 0a3b bc8e 7fbc
00000130: a338 263d 20c0 efbb 8dd4 a43b eb4e 973c
00000140: b085 ea3c cfc3 693d 6f21 e7bc 5d5c cfbc
00000150: 2eb3 f7bc 46bf 523d 612a e83c 66ac 06bb
00000160: e6a2 0cbd bd43 583d 5cde 34bd e9cd 2c3d
00000170: 0193 d83c ff44 cf3b e3e5 a23c b082 c0bc
00000180: 271c 0bbd fce7 2b3d 9ec5 8ab7 dc18 093d
00000190: fb8c 3cbc fc7d 7c3d db0e 25bb 1ea9 0c3c
000001a0: 7fb2 8f3d b2e0 143d 2ee2 4ebd 03f3 2dbd
000001b0: de6f 0ebd 380d 7c3c ecc1 dfbc e744 f13c
000001c0: f86f 2fbc 5f38 ecbc db31 f53c 99d9 773d
000001d0: b803 a83c 8ad3 86bc b98c 703d f960 573d
000001e0: 7767 d0bb bdd7 433d 8c4d 283d 01ca b33c
000001f0: 2f07 783d 9ad1 2abd 10a1 a9bc c72f 673d
00000200: 83aa 193d 74f6 72bd 892c c2bb 4221 523c
00000210: e7e7 c93c fb96 b5ba 43c9 193b 46ab 37bc
00000220: a884 433c 8395 2c3c 9a31 0a3c c58c 31bd
00000230: e3f2 20bb 0b68 a83c c139 4d3d cccb 2cbd
00000240: 9971 daba 0c54 773d fe14 06bd 17a7 233b
00000250: 3ad4 023d c7e4 40ba
0.032346867 0.02843124 0.013407996 -0.013914952 0.017312272 -0.035170987 0.023552407 0.068448775
-0.021494495 -0.035956673 -0.021945752 0.07161017 -0.013917686 0.041430496 -0.024294915 0.024268761
0.014222411 0.022158295 -0.048393283 0.044361964 -0.040538426 -4.91762e-39 -0.04180507 0.028203787
0.038263574 -0.027740058 -0.008454182 0.004929641 -0.040480144 -0.04810863 0.025480146 0.002949447
0.01647224 0.020221643 0.076009415 -0.058018588 0.033576738 -0.0030486265 -0.018386427 -0.00064054236
0.021145653 0.02143411 0.036276907 -0.03617251 0.047018055 -0.05487976 -0.015079205 -0.049567025
0.07069131 0.018720292 -0.03294601 0.047673322 -0.041761007 -0.03752685 0.04329739 -0.036211755
0.050634243 0.042518474 -0.018707857 0.024996545 0.019716209 0.016776204 0.05254963 -0.03304041
-0.009329631 0.03628736 -0.0059346524 0.012948931 -0.008768187 -0.010986252 -0.006991714 -0.022085343
-0.043477494 3.282204e-06 0.0021204697 -0.015597995 0.040581357 -0.0073166043 0.005030221 0.018470248
0.0286282 0.057071503 -0.028214185 -0.025312597 -0.030236807 0.051451944 0.02834052 -0.0020549535
-0.03433504 0.052798975 -0.04415737 0.04218856 0.026437284 0.0063253636 0.01988501 -0.023499817
-0.033962395 0.041969284 -1.6542905e-05 0.033470973 -0.011508222 0.061643586 -0.0025185857 0.008585243
0.07016467 0.0363471 -0.05050867 -0.042468082 -0.034774654 0.015384011 -0.027314149 0.0294518
-0.010707848 -0.028835474 0.029931 0.06051025 0.020509586 -0.016458292 0.058727954 0.052582715
-0.00635999 0.047813166 0.04108958 0.021946909 0.060553726 -0.041703798 -0.020706683 0.05644205
0.03751613 -0.059317067 -0.005925719 0.012825312 0.024646712 -0.00138542 0.0023465909 -0.011210268
0.011933483 0.010533693 0.0084346775 -0.04334714 -0.0024558834 0.020557424 0.050103907 -0.042186543
-0.0016665935 0.060382888 -0.032734863 0.002497142 0.031940676 -0.0007358309
