models/mpnn_A139_B23_E300_L2/24.pt (torch, 742651 bytes, 9 tensors)

atom_lin.weight f4 [300, 139]
0	0xbe01665f	-0.12636708
1	0xbdaf9ead	-0.08575187
2	0x9b865086	-2.2220477e-22
3	0x1943481b	1.0095825e-23
4	0x8c9d19a1	-2.4205105e-31
5	0x1dfa3324	6.6227327e-21
6	0x3d564d5c	0.05231987
7	0x3e6282e5	0.22120245
8	0x3e08d279	0.13361539
9	0x3df02552	0.11725868
10	0xa1b4baf2	-1.2246758e-18
11	0xa48515ad	-5.7716276e-17
12	0x1ca2cfe5	1.0774e-21
13	0x1fbbf8d0	7.9609206e-20
14	0x8dfb9dff	-1.55071055e-30
15	0xbe1479c8	-0.14499581
16	0x3d70936d	0.058734346
17	0x3d215fa0	0.039397836
18	0x94178d99	-7.651477e-27
19	0xa2abe8ac	-4.6595994e-18
20	0x9bd98819	-3.598759e-22
21	0x1bcb1624	3.359784e-22
22	0x80358cc7	-4.917783e-39
23	0x24c0d3dd	8.362564e-17
24	0x9a059f23	-2.7632305e-23
25	0xbe8396b5	-0.25700918
26	0xbde93b1f	-0.113882296
27	0x3cbdf241	0.023186805
28	0xa5e1d6bc	-3.9176788e-16
29	0xa8ac42fb	-1.9124884e-14
30	0x26447eac	6.8172833e-16
31	0x13cf3203	5.230346e-27
32	0xa7c53616	-5.4737124e-15
33	0xa959af4e	-4.8335732e-14
34	0xa77ebcf9	-3.5352023e-15
35	0x3df9b257	0.12192219
36	0x27997e6b	4.2603093e-15
37	0xa6f50fcb	-1.7004571e-15
38	0x0829d866	5.1110963e-34
39	0x902786a5	-3.303867e-29
40	0x0af99dab	2.4037136e-32
41	0xa01cf67d	-1.329527e-19
42	0x21a99d4f	1.1493525e-18
43	0xa202c086	-1.7720206e-18
44	0x07f738d1	3.7197823e-34
45	0x0c0083c3	9.900412e-32
46	0x2272efc1	3.292404e-18
47	0x0fa9aa48	1.6730277e-29
48	0x9980377b	-1.3257298e-23
49	0x927e48d1	-8.023802e-28
50	0x9ee7d67d	-2.4546787e-20
51	0x92d78f62	-1.3603754e-27
52	0x1766a3e8	7.4523887e-25
53	0x3c53d264	0.012928579
54	0x2a42fef0	1.731911e-13
55	0x00356ebe	4.907008e-39
56	0x24c20615	8.414439e-17
57	0x16caad78	3.2744334e-25
58	0x26c82dc2	1.389019e-15
59	0x9c96888f	-9.961467e-22
60	0x094348ad	2.3506443e-33
61	0x1d0e8239	1.8860867e-21
62	0x099a26d6	3.7110673e-33
63	0x83f34794	-1.429869e-36
64	0x1d593ac8	2.87501e-21
65	0x17b59698	1.1734866e-24
66	0x289ff3be	1.7758252e-14
67	0x25daca9a	3.795426e-16
68	0x00356f26	4.907154e-39
69	0x00358125	4.91361e-39
70	0x020d4c8b	1.0381011e-37
71	0x871c6a23	-1.1767326e-34
72	0x26ac0549	1.193633e-15
73	0x230d7a2d	7.669497e-18
74	0xa80af5ee	-7.713866e-15
75	0x80357825	-4.910381e-39
76	0x0a423b57	9.351921e-33
77	0x9b7f38b9	-2.1111434e-22
78	0x2803f3ec	7.324853e-15
79	0x81b88c7c	-6.779251e-38
80	0x1cf5acf3	1.6257446e-21
81	0xaa6d8747	-2.1096762e-13
82	0x15595066	4.3886224e-26
83	0x923212fe	-5.6190306e-28
84	0x9202270d	-4.10689e-28
85	0x08178fd8	4.5608997e-34
86	0x80358439	-4.914714e-39
87	0xa6411f05	-6.7002365e-16
88	0x25cece09	3.5874918e-16
89	0x200d3f64	1.1964139e-19
90	0xa9ff8195	-1.1346754e-13
91	0xa25619e7	-2.901612e-18
92	0x27d03d57	5.77981e-15
93	0x9ed06f9c	-2.2069017e-20
94	0x27e3dffa	6.3247993e-15
95	0xa006d541	-1.1420801e-19
96	0x255a83c1	1.8953126e-16
97	0xa1ed8081	-1.6093759e-18
98	0x91e3d166	-3.5943337e-28
99	0x1b1376e1	1.2197967e-22
100	0x25f22818	4.2007477e-16
101	0x8787d789	-2.0439223e-34
102	0x047f8b14	3.0038967e-36
103	0x80358424	-4.914684e-39
104	0xa67654c0	-8.5463253e-16
105	0x8ab58a1e	-1.748162e-32
106	0x290497dd	2.9441608e-14
107	0xa4a27d0b	-7.046813e-17
108	0x128c8b8b	8.869642e-28
109	0x04d1df4a	4.9340722e-36
110	0x95114227	-2.9334702e-26
111	0x218e0f3f	9.62633e-19
112	0x20082ede	1.1535155e-19
113	0x0841e3c7	5.8346576e-34
114	0xa4e0fe6d	-9.757553e-17
115	0x1fdfa919	9.472392e-20
116	0xa2a2e1f3	-4.414942e-18
117	0x0ceb9fed	3.6303735e-31
118	0x82c5220f	-2.8966097e-37
119	0x3d5bacc8	0.053631574
120	0xbe1d27a4	-0.15347153
121	0x3e04c88f	0.12967132
122	0xbdef743f	-0.11692094
123	0x3d1e51e9	0.038652334
124	0x1223c6f6	5.167897e-28
125	0xbe0320f2	-0.12805536
126	0x9107a6fc	-1.0701078e-28
127	0x98e22431	-5.8456175e-24
128	0x3d8c9d3f	0.0686593
129	0x3d8ecdb2	0.06972827
130	0x3e0e8a22	0.13919881
131	0xbd7938ba	-0.060845114
132	0xa0b7be09	-3.112716e-19
133	0x8c1d5e9c	-1.212331e-31
134	0x9ead999e	-1.8380622e-20
135	0x9cce3c33	-1.3647498e-21
136	0x0520559e	7.538889e-36
137	0x003589bc	4.916691e-39
138	0xbd4a3693	-0.049368452
139	0xbe1f3baf	-0.15550111
140	0x3d229a97	0.03969821
141	0x143c1cfa	9.497289e-27
142	0x11675605	1.8249194e-28
143	0xa564e306	-1.9852766e-16
144	0x81c0b6be	-7.0791883e-38
145	0xbe44c786	-0.19216737
146	0x3e3c875c	0.1841101
147	0x3dbf6478	0.09345335
148	0x3cafe271	0.02147028
149	0x1508cdf3	2.7627447e-26
150	0xa607587b	-4.6957447e-16
151	0x3c413b39	0.011793905
152	0x1c41e129	6.4149356e-22
153	0xa41fde4d	-3.4665925e-17
154	0x3cd5a3cf	0.026079087
155	0xbdbff311	-0.09372533
156	0x3c67416a	0.014114717
157	0xa8c8ab5a	-2.2278772e-14
158	0x96696eee	-1.8856593e-25
159	0xa187673b	-9.175281e-19
160	0x063fdb88	3.6084393e-35
161	0x089efe55	9.569072e-34
162	0x8098a961	-1.4019757e-38
163	0x2a2328f9	1.4491523e-13
164	0x3e827ee5	0.25487438
165	0xbe132437	-0.14369284
166	0x3e025821	0.12728931
167	0xa29ef759	-4.3087875e-18
168	0x164a7ed9	1.6357456e-25
169	0x2982bbca	5.805736e-14
170	0x8596a0b9	-1.4164972e-35
171	0x80358cf3	-4.917844e-39
172	0x8f168ec4	-7.423067e-30
173	0x86b52b12	-6.814792e-35
174	0x3e58f016	0.21185336
175	0xa3406343	-1.042936e-17
176	0x1498c8bc	1.5427254e-26
177	0x1e45afc2	1.0465439e-20
178	0x1cad565f	1.1470506e-21
179	0x00356c60	4.906159e-39
180	0x9fe5b6ea	-9.728788e-20
181	0x94eb39d5	-2.3751747e-26
182	0x9566ac4f	-4.6584058e-26
183	0x94b0fe9a	-1.7871881e-26
184	0x8540b5db	-9.061198e-36
185	0x876b09d0	-1.7682319e-34
186	0x288a8eee	1.5383064e-14
187	0x002bc2c2	4.018792e-39
188	0x80357ffd	-4.913195e-39
189	0x2635bebf	6.30555e-16
190	0xa46afa6f	-5.0952787e-17
191	0xa736e9f5	-2.5384402e-15
192	0x3e911138	0.2833345
193	0x0b92bda0	5.652247e-32
194	0x131e9b3c	2.001894e-27
195	0x901b5cac	-3.0639752e-29
196	0x18601887	2.8963705e-24
197	0x003578be	4.910595e-39
198	0x962489a7	-1.329125e-25
199	0x80356c70	-4.906181e-39
200	0x9ae3ab2a	-9.416153e-23
201	0x1b002d5d	1.060257e-22
202	0x9010f126	-2.8584767e-29
203	0x0dc84bc9	1.2344196e-30
204	0xa60f27fb	-4.9667275e-16
205	0x24ce6c60	8.9521853e-17
206	0xa898e591	-1.6974949e-14
207	0x9fe8f472	-9.866022e-20
208	0x00357f73	4.913001e-39
209	0x8dbe36e4	-1.17228685e-30
210	0xa91ca854	-3.478496e-14
211	0x00356d4b	4.906488e-39
212	0xa7f5c370	-6.8213054e-15
213	0x1a57c504	4.4620106e-23
214	0x1c0dfdd3	4.6981047e-22
215	0x185a908c	2.8248817e-24
216	0x9c4f5b03	-6.8608185e-22
217	0x0bee8583	9.187515e-32
218	0x94cd3a78	-2.0722772e-26
219	0x261e77c0	5.4979553e-16
220	0x210a41a7	4.684311e-19
221	0x9f76aa5f	-5.2233454e-20
222	0x9485911b	-1.3486802e-26
223	0x98b8ad89	-4.773811e-24
224	0x130e18bc	1.7935115e-27
225	0x94982cc9	-1.5365742e-26
226	0xa7cb0ba6	-5.6356448e-15
227	0x17de6b13	1.4373443e-24
228	0x1fbe0a5e	8.048528e-20
229	0x00356e99	4.906956e-39
230	0x8ec7d292	-4.926006e-30
231	0xaa798d3a	-2.216464e-13
232	0x1f9feb65	6.772855e-20
233	0x255f5641	1.9371391e-16
234	0xa95c362f	-4.889681e-14
235	0x2956b958	4.7678306e-14
236	0x8035812c	-4.91362e-39
237	0x1a1aee2c	3.2038847e-23
238	0x22107661	1.9578308e-18
239	0x1faf65bf	7.428371e-20
240	0xa0d93341	-3.6795147e-19
241	0x16115a71	1.1741545e-25
242	0x91c82a8a	-3.1580653e-28
243	0x18683287	3.0010807e-24
244	0xa3958470	-1.6210702e-17
245	0xa1ea7651	-1.5887775e-18
246	0x80357354	-4.908653e-39
247	0x93f58bc7	-6.1984526e-27
248	0x0a2aaf00	8.218116e-33
249	0x97da5810	-1.411015e-24
250	0x0401bfb8	1.525191e-36
251	0x1d939792	3.9067296e-21
252	0x294832eb	4.4453085e-14
253	0xa9ffff74	-1.1368589e-13
254	0x13aa55d0	4.299865e-27
255	0x98c165ee	-4.9992253e-24

atom_lin.bias f4 [300]
0	0x3da3576f	0.07975661
1	0x3bbef078	0.005827006
2	0x3c0043b6	0.007828644
3	0x3d9fb2f4	0.077978045
4	0x3cd1632f	0.02555999
5	0x3d84a9a6	0.0647767
6	0xbe0dda5e	-0.13852832
7	0x3d7d84e2	0.061894305
8	0x3d6c7dc8	0.05773714
9	0x3d6bc178	0.057557553
10	0x3d94d9b5	0.07268087
11	0xbc4c9141	-0.012485803
12	0xbd621da8	-0.055204064
13	0xbda91653	-0.08256211
14	0x3d2786e1	0.040900115
15	0x3d8277d0	0.06370509
16	0xbd08c38e	-0.03338962
17	0x3d84ad91	0.06478418
18	0x3dc4f223	0.096164964
19	0xbca1dc59	-0.01975839
20	0x3dca12da	0.09866877
21	0x3dd457f9	0.10368342
22	0x3dddce40	0.10830355
23	0xbc3ca6df	-0.011514395
24	0x3dfeefa2	0.1244805
25	0x3db3f8a7	0.08787661
26	0xbd3d5e36	-0.046232425
27	0xbbac18b3	-0.005251968
28	0x3dd9afa3	0.10629203
29	0xbc921076	-0.017830115
30	0xbca9307e	-0.020653006
31	0x3c2e54b6	0.010640314
32	0x3d9962d8	0.07489556
33	0x3ce36567	0.027758313
34	0x3dcf481f	0.10121178
35	0xbd768c2a	-0.060192265
36	0xbc8574b1	-0.016290994
37	0xbc127c88	-0.008940823
38	0x3cba5281	0.022744419
39	0x3d362477	0.04446837
40	0x3c8013c6	0.015634429
41	0xbd50e806	-0.051002525
42	0x3dae2d49	0.08504731
43	0x3d1c2a6c	0.038126394
44	0x3dfe1657	0.12406605
45	0x3d5d102a	0.053970493
46	0x3cb4b087	0.022056831
47	0x3d936cf6	0.07198517
48	0xbd3abfda	-0.04559312
49	0x3db6717c	0.08908364
50	0xbd7c5db6	-0.061612807
51	0x3d442125	0.04788317
52	0xbd3bb9ef	-0.045831617
53	0x3ccd9213	0.025094068
54	0x3cfab9db	0.0306062
55	0xbde14fbe	-0.11001538
56	0x3ca9022d	0.02063092
57	0x3d936e19	0.07198734
58	0xbd5a8f14	-0.053359106
59	0x3c9fb3c1	0.019494893
60	0xbd0765bb	-0.033056002
61	0xbd56f7c1	-0.05248237
62	0x3cb9c7f8	0.02267836
63	0xbe03a464	-0.12855679
64	0x3d6fe537	0.058568206
65	0x3d8e4dbf	0.06948423
66	0xbb06a26f	-0.0020543595
67	0xbd49c7eb	-0.049262922
68	0x3d5cc214	0.053896025
69	0x3bb33951	0.005469479
70	0x3c6d837f	0.014496683
71	0x3b92d4cb	0.0044809333
72	0x3d53dc0c	0.051723525
73	0x3c832fcc	0.016014002
74	0xbc5ff398	-0.013668917
75	0xbac1a924	-0.0014775139
76	0x3ca24aaf	0.019811003
77	0xbddad8a7	-0.106858544
78	0x3d8be2c0	0.068303585
79	0x3bc01e8e	0.0058630174
80	0x3c8ba3b1	0.017045828
81	0x3dd5f4af	0.1044706
82	0x3c7b219d	0.015327838
83	0x3da56ace	0.08077012
84	0x3cc48c66	0.023992728
85	0xbd4191ab	-0.04725806
86	0xbcdf5b67	-0.027265264
87	0x3c10ff44	0.008849923
88	0xbc9e590b	-0.019329568
89	0x3ab82d18	0.0014051525
90	0xbcc48dda	-0.023993421
91	0x3db7e997	0.089801006
92	0x3d7f8fc7	0.062392976
93	0x3d927784	0.07151702
94	0x3e02732c	0.12739247
95	0x3df0ed50	0.11764014
96	0xbb5d5c87	-0.0033777074
97	0x3c9e6800	0.0193367
98	0x3cbdee70	0.023184985
99	0x3ca1fbfe	0.01977348
100	0x3c931997	0.017956538
101	0xbc2a6597	-0.0104001975
102	0x3d474d31	0.0486576
103	0x3de12817	0.10993975
104	0x3dbad723	0.09123065
105	0xbd7da581	-0.061925415
106	0xbd587aa1	-0.052851323
107	0xbd058987	-0.03260186
108	0x3d036b00	0.032084465
109	0x3d4239c6	0.04741838
110	0xbce8baa2	-0.028409306
111	0x3e0e2f0d	0.13885136
112	0xbd50b3b5	-0.050952632
113	0x3d3c289a	0.04593716
114	0x3d78ee39	0.06077406
115	0x3d1dc00b	0.038513225
116	0x3d16c40a	0.03680805
117	0xbd9a26d3	-0.075269364
118	0x3d28aafd	0.041178692
119	0xbb00687c	-0.0019593528
120	0x3c6e9273	0.014561283
121	0x3d0efb86	0.03490784
122	0x3b495b53	0.00307246
123	0x3db2544d	0.08707485
124	0x3db3869a	0.087659076
125	0x3c8cb954	0.017178215
126	0x3d95692f	0.07295453
127	0x3d1febd6	0.03904327
128	0x3ddbf452	0.1073996
129	0x3dc230f6	0.09481995
130	0x3c608b49	0.013705083
131	0x3dbe6ccd	0.09298096
132	0xbd83ad61	-0.06429554
133	0xba6bca61	-0.00089946954
134	0xb98b34e3	-0.0002655155
135	0x3da3554a	0.07975252
136	0xbc128e98	-0.00894513
137	0xbceedc2d	-0.029157722
138	0x3acfbc91	0.0015849044
139	0x3c769ba0	0.015051752
140	0xbdb5a04f	-0.08868467
141	0xbd64c2ba	-0.05584977
142	0x3d16abb6	0.03678485
143	0xbc2b7d5e	-0.010466902
144	0x3db64814	0.089004666
145	0x3cb82238	0.022477254
146	0xbd181fd9	-0.037139747
147	0x3d9044a9	0.07044346
148	0x3d69ccdb	0.05708013
149	0xbdc10717	-0.094251804
150	0x3cfa0bc4	0.030523188
151	0x3d8bf0a9	0.06833012
152	0x3d398194	0.04528959
153	0xbac306c9	-0.0014879341
154	0x3dc61217	0.09671419
155	0xbc1857e2	-0.009298297
156	0x3dcde651	0.10053695
157	0x3c8d1dfc	0.017226212
158	0x3dc19462	0.0945213
159	0x3c943d09	0.01809551
160	0xbd36a6db	-0.04459272
161	0xbcf65e78	-0.030074343
162	0xbcbea4d8	-0.023271963
163	0x3ddb9796	0.10722272
164	0xbd29bcfa	-0.041439988
165	0xbc3b8ece	-0.0114476215
166	0xbda96a08	-0.08272177
167	0x3d29a01d	0.04141246
168	0x3d951639	0.07279629
169	0x3dfcdf12	0.12347235
170	0x3d2530da	0.04032979
171	0x3c7f474b	0.015580962
172	0x3d963309	0.07333953
173	0xbd6d33f4	-0.057910874
174	0x3d12923c	0.03578399
175	0xbddc595f	-0.10759234
176	0x3d1c51f3	0.03816409
177	0xbd94d0b1	-0.07266367
178	0x3cc4c787	0.024020923
179	0x3de3465e	0.11097406
180	0x3dc9c501	0.09852029
181	0x3d8bae09	0.06820304
182	0x3d29a7c5	0.041419763
183	0xbcb5b989	-0.022183197
184	0x3c1f59ae	0.009725971
185	0x3d2335df	0.039846297
186	0x3c13752c	0.009000104
187	0x3e09c069	0.13452305
188	0xbb004d42	-0.00195773
189	0x3cfc82e9	0.030824142
190	0x3ce1b66b	0.027552804
191	0x3d7fec58	0.062481254
192	0xbcdffb69	-0.027341561
193	0xbd1ad081	-0.0377965
194	0xbd02262a	-0.031774677
195	0x3d613921	0.054986123
196	0x3baba4ec	0.005238166
197	0x3dbdd82f	0.092697494
198	0x3d19ad14	0.037518576
199	0x3dd9a4c8	0.10627133
200	0x3dcb5638	0.09928554
201	0xbd27f514	-0.04100521
202	0x3dea6eeb	0.11446937
203	0x3dcb5bec	0.09929642
204	0x3d87578e	0.066084966
205	0x3dc080db	0.09399577
206	0xbcba5d20	-0.022749484
207	0x3dd90edc	0.10598537
208	0xbd25d42f	-0.040485557
209	0x3abaccd9	0.0014251723
210	0x3bc87976	0.006117995
211	0x3d4fc928	0.050728947
212	0x3c4874d0	0.0122348815
213	0xbd74ddb6	-0.059781753
214	0x3d069586	0.03285744
215	0xbcaa32a9	-0.02077611
216	0xbd171fbd	-0.036895502
217	0x3d8b8ada	0.06813593
218	0xbc853e6e	-0.01626512
219	0x3db7f240	0.089817524
220	0xbc01107a	-0.0078774635
221	0x3dc4d135	0.096102156
222	0xbc004152	-0.007828074
223	0x3d26a4a6	0.040684365
224	0x3e1ee66b	0.15517585
225	0x3d6429f8	0.055704087
226	0x3d976480	0.07392216
227	0xbd04f5dd	-0.032461036
228	0x3c70aa2d	0.014689011
229	0xbd663dfa	-0.05621145
230	0x3c92de73	0.017928338
231	0xbc1b8eee	-0.009494526
232	0x3d7bfb3f	0.061518904
233	0x3ce5e8d8	0.02806513
234	0xbe00bba8	-0.12571585
235	0x3dbd24cf	0.09235536
236	0x3bdcc10b	0.0067368797
237	0x3deddd94	0.11614528
238	0x3cf41da6	0.029799294
239	0xbc70d0ab	-0.014698188
240	0xbcdb4d49	-0.02677025
241	0xbd037f16	-0.03210362
242	0x3df07a74	0.11742106
243	0x3cfabdd2	0.030608092
244	0x3db435aa	0.08799298
245	0xbd91b2b2	-0.071141616
246	0xbc9d9b46	-0.01923908
247	0x3cc90000	0.024536133
248	0x3d6ad062	0.057327636
249	0x3dd6c078	0.10485929
250	0x3db2f2b6	0.087377
251	0x3c95cc16	0.018285792
252	0x3ddb943b	0.10721632
253	0x3d191913	0.03737743
254	0x3baf8d94	0.0053574536
255	0xbd301163	-0.04298533

bond_lin.weight f4 [300, 23]
0	0xb966511d	-0.00021964726
1	0xbef78ff8	-0.48352027
2	0x3d815154	0.0631434
3	0x3dedb668	0.11607057
4	0x214ffb8e	7.046726e-19
5	0x2be84eb1	1.6506433e-12
6	0x300a3af8	5.0287907e-10
7	0xabbfb5ee	-1.3621862e-12
8	0x2914186f	3.2883794e-14
9	0x319f4b62	4.636079e-09
10	0xb97983cc	-0.00023795589
11	0xb7de7467	-2.6518666e-05
12	0x3decd0b4	0.115632445
13	0x1e6bd875	1.2485559e-20
14	0x8bd72277	-8.2866845e-32
15	0x18c31d83	5.0436118e-24
16	0xb75285d0	-1.2548131e-05
17	0x28f0037d	2.6646865e-14
18	0x9bec92a9	-3.9137702e-22
19	0xba86be97	-0.0010280189
20	0x85dd0f72	-2.0788414e-35
21	0x104d7379	4.0518078e-29
22	0xb95c01ea	-0.00020981548
23	0x2a2f97d6	1.5595801e-13
24	0xbf00b6e5	-0.50279075
25	0x3ea84d3a	0.3287142
26	0xbe3b368c	-0.18282527
27	0x3a929cca	0.0011185643
28	0x39d9fdbf	0.0004157852
29	0xaeaa9fb7	-7.759076e-11
30	0xaf61e08c	-2.0543406e-10
31	0xaa2891cf	-1.4971985e-13
32	0xb6bac247	-5.565849e-06
33	0xb20f253c	-8.332162e-09
34	0xb9f182b0	-0.00046064472
35	0x3f016c03	0.5055544
36	0x342cb079	1.6082949e-07
37	0xb88ae0d8	-6.622233e-05
38	0xaf078591	-1.2325631e-10
39	0x9e83565a	-1.3905879e-20
40	0xb79b690f	-1.8526362e-05
41	0x310687f8	1.9576856e-09
42	0x0905028a	1.6010487e-33
43	0x0035841e	4.914676e-39
44	0x368636e6	3.999902e-06
45	0x1cc86007	1.3259712e-21
46	0x386485fd	5.4484222e-05
47	0xbe5d8875	-0.21634085
48	0xbe712ba6	-0.23551807
49	0x3d2240ff	0.039612766
50	0xabc56e37	-1.4028283e-12
51	0xb8a4c4b3	-7.8567675e-05
52	0x2ed18677	9.5281054e-11
53	0xb5f24f3e	-1.8053468e-06
54	0x80280023	-3.673469e-39
55	0xa8ee3d17	-2.6449801e-14
56	0xaa7f09df	-2.2651974e-13
57	0x292156f7	3.582461e-14
58	0x3d84e34e	0.064886674
59	0xb184d1b1	-3.8655448e-09
60	0x270a5523	1.91975e-15
61	0xb3f14c97	-1.12363686e-07
62	0x079cba17	2.3581645e-34
63	0x89c6313e	-4.7713073e-33
64	0x9b6e8a71	-1.9731631e-22
65	0xa7a3c5c3	-4.5456e-15
66	0x0035739f	4.908758e-39
67	0x36285e2d	2.5088768e-06
68	0xbaa11597	-0.001228976
69	0x9ecaac13	-2.145875e-20
70	0x3f0f8c5a	0.56073534
71	0x3d8a55ff	0.06754684
72	0x3d3f263b	0.04666732
73	0x00357888	4.91052e-39
74	0x80358d14	-4.91789e-39
75	0x940c2faf	-7.077598e-27
76	0xb3eaf358	-1.0940738e-07
77	0x206aacde	1.9877768e-19
78	0x3569c634	8.708769e-07
79	0xb89b9884	-7.419384e-05
80	0xaa2a10aa	-1.5104815e-13
81	0xbda370f1	-0.07980526
82	0x99f04ab5	-2.4845592e-23
83	0x379181de	1.7345821e-05
84	0xb37a60d2	-5.829572e-08
85	0x3955ca8f	0.00020388722
86	0xb313057d	-3.4231096e-08
87	0xb948ac89	-0.0001913776
88	0x2dffc960	2.9079572e-11
89	0x39f008dd	0.0004578297
90	0xb3ecfb2b	-1.10352936e-07
91	0x9f304765	-3.7328506e-20
92	0xb65b87be	-3.2712555e-06
93	0x3ea71883	0.32635888
94	0x3f006c7d	0.5016554
95	0xbddb8d6f	-0.10720336
96	0xb592eb89	-1.0946397e-06
97	0x80356d90	-4.906585e-39
98	0x0d0ea051	4.39501e-31
99	0xb6bde77c	-5.6595873e-06
100	0x9dbe65ef	-5.039798e-21
101	0x09c7ae7d	4.8071595e-33
102	0xb8e8a7be	-0.000110938665
103	0xb87b98bc	-5.998531e-05
104	0x3de43618	0.1114313
105	0x16de900a	3.5956936e-25
106	0x28916af8	1.6144624e-14
107	0xab2b12bf	-6.077742e-13
108	0x2e63859e	5.17325e-11
109	0xa97c8212	-5.606806e-14
110	0x1cc76524	1.319486e-21
111	0xb3e4b88e	-1.0650648e-07
112	0x9f3e4f15	-4.029948e-20
113	0xb950e6a5	-0.00019922348
114	0xabbd0179	-1.3429666e-12
115	0x2e4adbac	4.612459e-11
116	0x3efbd552	0.49186188
117	0x3f0a9dfe	0.54147327
118	0xbea0c8f0	-0.31403303
119	0xad03b071	-7.485666e-12
120	0xb87932bf	-5.9413487e-05
121	0xb175f267	-3.5789982e-09
122	0x2dcbc758	2.3166954e-11
123	0x33d542a4	9.930707e-08
124	0x1305f980	1.6909973e-27
125	0x81a56946	-6.076249e-38
126	0xa161259e	-7.628275e-19
127	0x3eb987a4	0.36236298
128	0x388cd692	6.715687e-05
129	0x1bb1d36c	2.9418822e-22
130	0x21ed4e91	1.6080541e-18
131	0xb8289167	-4.0189738e-05
132	0x379b8b88	1.8542414e-05
133	0x23025b5f	7.066663e-18
134	0xb175b09e	-3.5752588e-09
135	0x346efea0	2.225811e-07
136	0x19784a42	1.2836296e-23
137	0x3741309e	1.1515016e-05
138	0x210dbf73	4.802604e-19
139	0xbe7dac1c	-0.24772686
140	0xbea9465c	-0.33061492
141	0x3ee37fc9	0.4443343
142	0x374515a9	1.1747158e-05
143	0x2bded229	1.583238e-12
144	0x289f6b0c	1.769897e-14
145	0x37d48dd9	2.5338422e-05
146	0xa61361c3	-5.113336e-16
147	0xb32717f1	-3.8904492e-08
148	0x169ec311	2.564938e-25
149	0x9bcdc8ef	-3.4044255e-22
150	0xbf0177d4	-0.5057347
151	0x33cd30d1	9.554936e-08
152	0xacd3d6e9	-6.0208405e-12
153	0x18bf1ee0	4.940352e-24
154	0x3a0b1ad1	0.0005306425
155	0xb9af9dcf	-0.00033496178
156	0xad5edad1	-1.2667826e-11
157	0xb6671f88	-3.4440036e-06
158	0x2f73e196	2.2180865e-10
159	0xaef1afdd	-1.0990651e-10
160	0x30567c2c	7.8029205e-10
161	0x39c4acba	0.00037512725
162	0x3e96472d	0.29351178
163	0xbee44e6a	-0.44591075
164	0x3e48d452	0.19612244
165	0x35fed1bf	1.8985519e-06
166	0x37099c49	8.202224e-06
167	0xaecb7a9c	-9.253151e-11
168	0xa19521f6	-1.0105622e-18
169	0x97376c60	-5.926728e-25
170	0xb9899b51	-0.00026246396
171	0x210bd33b	4.7374593e-19
172	0xba540080	-0.00080872327
173	0xbe69d2c6	-0.2283431
174	0x39877e52	0.00025843323
175	0xb94c2829	-0.00019469917
176	0xa8bbfde7	-2.0871283e-14
177	0xa6111829	-5.0339724e-16
178	0xb4de6a6c	-4.1428154e-07
179	0x38382f37	4.391299e-05
180	0x382e5708	4.1565887e-05
181	0x0894657a	8.931283e-34
182	0x882b054e	-5.1464676e-34
183	0xb9ee3603	-0.0004543514
184	0x15dd680d	8.942535e-26
185	0xbe62f06b	-0.22162025
186	0xbed08675	-0.40727583
187	0x3ec828f6	0.3909375
188	0x00358bd5	4.917444e-39
189	0x339896a6	7.1054544e-08
190	0xb55663ad	-7.986626e-07
191	0x38af63c9	8.363237e-05
192	0x3195e4cd	4.3624824e-09
193	0xae8aea79	-6.317164e-11
194	0xb38943c8	-6.391889e-08
195	0x375177a5	1.2485228e-05
196	0xbe25e2e4	-0.16199833
197	0x32dcbc62	2.5697037e-08
198	0xa632c90e	-6.2028636e-16
199	0x24011ed1	2.799852e-17
200	0x151ac59d	3.1255942e-26
201	0xb400560b	-1.1952231e-07
202	0x1c86fe07	8.933041e-22
203	0x8d2d919c	-5.348501e-31
204	0x887dd4c0	-7.6384505e-34
205	0x92961d08	-9.473488e-28
206	0x8a482626	-9.636825e-33
207	0xa80a8851	-7.690098e-15
208	0x3ce12777	0.027484639
209	0x3d81f025	0.06344632
210	0x3ec9b3bb	0.39394936
211	0x8f2df37b	-8.576451e-30
212	0x05a9ca1a	1.5966924e-35
213	0xaf69020f	-2.1191958e-10
214	0xba0a36d4	-0.0005272452
215	0x3909ba4b	0.00013134738
216	0x2e820a8c	5.913589e-11
217	0xb4007f01	-1.1967133e-07
218	0xb8b29f78	-8.517405e-05
219	0xbe4799c5	-0.19492252
220	0x1f78a8b3	5.2655587e-20
221	0x3350712d	4.8531707e-08
222	0x24f77aad	1.07326995e-16
223	0x9bba694e	-3.083917e-22
224	0x2fe8f0d1	4.2371665e-10
225	0x108855e5	5.3774883e-29
226	0xba8dc864	-0.0010817167
227	0x12b61621	1.149127e-27
228	0x2b9ecefc	1.1284025e-12
229	0x3988a9fd	0.00026066593
230	0x3a808f83	0.0009808395
231	0xbdaa1236	-0.08304255
232	0x3ea68719	0.32524946
233	0xbeee85c0	-0.46586418
234	0x0035865e	4.915483e-39
235	0x2daf6608	1.9940508e-11
236	0x3a14792e	0.0005663809
237	0x37ddc97c	2.6439076e-05
238	0xa88b1f40	-1.5445653e-14
239	0x9fa355f6	-6.9175396e-20
240	0x27f05b22	6.6712188e-15
241	0xba83dc0a	-0.0010060084
242	0xbe51320d	-0.20429249
243	0xb207295e	-7.86744e-09
244	0xb5d26b1e	-1.5677394e-06
245	0x9a2a143e	-3.5171528e-23
246	0xb88ed4c3	-6.8107176e-05
247	0x30e32cc5	1.6529148e-09
248	0xb6040dcd	-1.9677566e-06
249	0xb8260cd2	-3.9589424e-05
250	0x3a60cab5	0.00085751276
251	0xb07b2b0d	-9.1374447e-10
252	0xba539670	-0.0008071428
253	0x330b685f	3.2458384e-08
254	0xbec5eda3	-0.38657865
255	0xbdb3c5b0	-0.0877794

bond_lin.bias f4 [300]
0	0xbc075171	-0.008259163
1	0xbe5fd7b9	-0.21859635
2	0xbe4c4ad8	-0.19950426
3	0xbe456d70	-0.19280028
4	0xbcfe1826	-0.031017374
5	0x3b45b9ad	0.0030170486
6	0xbdc85922	-0.09782626
7	0xbe6775a0	-0.22603464
8	0x3e36739a	0.17817536
9	0xbdab397d	-0.083605744
10	0xbdb359bc	-0.0875735
11	0x3c292e75	0.010326018
12	0xbe7bc214	-0.24585754
13	0xbe267cca	-0.16258541
14	0xbdaa9f37	-0.08331149
15	0xbe1e7e9b	-0.15477984
16	0xbd14509c	-0.036209688
17	0xbe4afb0d	-0.19822331
18	0xbe07a24f	-0.1324551
19	0x39e7cc4f	0.00044211975
20	0x3d54ac55	0.05192216
21	0xbe0da592	-0.13832691
22	0x3e1a25d0	0.15053487
23	0xbced536d	-0.028970445
24	0x3e2dd593	0.16976003
25	0x3db2f8ac	0.08738837
26	0xbca7dbf6	-0.020490628
27	0x3c83cacd	0.016087914
28	0x3de79aa9	0.11308796
29	0xbb82bbdb	-0.0039896793
30	0x3d0cb428	0.034351498
31	0x3dcdcfa0	0.10049367
32	0x3d82f944	0.063952
33	0xbe600fe0	-0.21881056
34	0x3e546410	0.20741296
35	0x3ddb8d2e	0.10720287
36	0x3ca5cee3	0.020240253
37	0xbd319749	-0.043357167
38	0x3d811b03	0.0630398
39	0xbe44dc03	-0.19224553
40	0xbe1e1a27	-0.15439664
41	0xbdda7132	-0.106661215
42	0xbd851238	-0.064976156
43	0xbdb947ac	-0.090468735
44	0x3dba0e9b	0.09084817
45	0xbda0042c	-0.07813296
46	0x3dcb60db	0.09930583
47	0x3e06e51c	0.13173336
48	0xbe397170	-0.18109679
49	0xbe454d0c	-0.19267672
50	0xbe02474c	-0.1272251
51	0xbd41cb5a	-0.04731307
52	0xbe10dc57	-0.14146553
53	0x3e78a9b5	0.24283488
54	0x3d6e7d72	0.058225103
55	0xbe3c3f0a	-0.18383422
56	0x3db7f2aa	0.08981831
57	0x3e76ba5c	0.24094528
58	0xbdba182f	-0.09086644
59	0x3dc0b127	0.09408789
60	0xbdd51a05	-0.104053535
61	0x3b132b24	0.0022456134
62	0x3db8233b	0.08991095
63	0xbdc62dd1	-0.096767075
64	0x3e739da2	0.23790601
65	0xbd5d10f5	-0.05397125
66	0x3e0732fc	0.13203043
67	0xbe83ba5e	-0.25728124
68	0xbe184163	-0.14868693
69	0x3e144d47	0.14482604
70	0x3e22eb59	0.1591009
71	0x3d9f86c4	0.077893764
72	0x3e685b09	0.22690977
73	0x3deb4fbe	0.11489819
74	0xbcc85231	-0.024453254
75	0x3e3baa79	0.18326749
76	0xbdc884de	-0.097909674
77	0xbe07cea6	-0.13262424
78	0x3d5a3bfe	0.05327987
79	0xbda03613	-0.07822814
80	0xbcee245b	-0.02907007
81	0x3e1fe101	0.15613176
82	0xbe274e6b	-0.16338508
83	0x3e72992e	0.23691246
84	0xbe1b59a2	-0.15170911
85	0x3e7acca5	0.24492128
86	0xbdecd57d	-0.11564157
87	0x3d779ae5	0.060450453
88	0x3d4feda6	0.05076375
89	0xbe28578d	-0.16439648
90	0xbe685643	-0.22689156
91	0x3e1ebf3d	0.15502639
92	0xbe87193d	-0.26386443
93	0x3d30afd2	0.043136425
94	0x3cee1c4d	0.02906623
95	0x3d59b5b9	0.05315182
96	0x3d7b7206	0.061388038
97	0xbde32a79	-0.110920854
98	0xbda72686	-0.08161645
99	0xbe24c216	-0.16089663
100	0x3ec4f8c6	0.3847105
101	0xbe89c971	-0.269115
102	0xbd0c0b75	-0.034190614
103	0x3e503d6f	0.20335935
104	0xbe2f3a4b	-0.17112081
105	0x3e05da2a	0.13071504
106	0x3cd0cce2	0.02548832
107	0xbe322624	-0.17397362
108	0xbe23fa3b	-0.16013424
109	0xbd860ae8	-0.06545049
110	0x3d82b0c3	0.06381371
111	0x3e0bd674	0.13656026
112	0xbe1827f6	-0.14858994
113	0x3df79393	0.120886944
114	0xbd8eab80	-0.06966305
115	0xbe09a7ec	-0.13442963
116	0x3e22f593	0.15913992
117	0x3dfa6856	0.12226932
118	0x3d3f67f9	0.046730015
119	0x3dc9b074	0.09848109
120	0x3e7b97ba	0.24569598
121	0xbe5e7e4a	-0.21727863
122	0x3e652915	0.22378953
123	0xbddb071a	-0.10694714
124	0xbdf16abe	-0.117879376
125	0x3e412877	0.18863092
126	0x3d5ded7b	0.054181557
127	0xbdd1835b	-0.10230132
128	0xbe8e5e75	-0.2780644
129	0xbe2a77b1	-0.16647221
130	0x3e600245	0.21875866
131	0x3d7f24e3	0.062291037
132	0x3de92006	0.11383061
133	0x3e3a613a	0.18201151
134	0x3e5ac3ef	0.21363805
135	0x3e6ceb0c	0.23136538
136	0xbd9d28c1	-0.07673789
137	0xbe0ad9c2	-0.1355963
138	0x3dddff68	0.108397305
139	0x3e2f3f2d	0.17113943
140	0x3b8985d4	0.0041968618
141	0xbdcea383	-0.10089781
142	0xbd470175	-0.048585374
143	0x3da76c72	0.08174981
144	0xbe2c0c70	-0.1680162
145	0x3e73a0a4	0.23791748
146	0xbe8f85c1	-0.28031734
147	0x3e4465c5	0.19179447
148	0x3ded17b8	0.115767896
149	0xbe370074	-0.17871267
150	0x3e782472	0.24232653
151	0xbd99633f	-0.07489633
152	0xbe2d1c2a	-0.16905275
153	0x3ca46543	0.020067817
154	0xbbde95e0	-0.006792769
155	0xbe727b93	-0.23679952
156	0x3df6d074	0.12051478
157	0xbd8f55e3	-0.069988035
158	0xbdcb8aab	-0.09938558
159	0xbe29740a	-0.16548172
160	0x3e725d67	0.23668443
161	0xbd23b5ac	-0.039968178
162	0xbe35b420	-0.17744493
163	0x3d8ea340	0.06964731
164	0x3e378ded	0.17925234
165	0x3e6c16bd	0.23055549
166	0xbe054644	-0.13015085
167	0x3e4c6d15	0.19963486
168	0xbd168216	-0.036745153
169	0xbdf1478c	-0.117812246
170	0x3e3b20c1	0.18274213
171	0xbe3d4bbb	-0.1848592
172	0xbe38f295	-0.18061288
173	0xbe844701	-0.25835422
174	0xbcb53d42	-0.022123937
175	0xbe211b92	-0.15733173
176	0x3dfa3bbb	0.12218424
177	0xbdd05252	-0.10171951
178	0xbddc129d	-0.10745738
179	0x3e41f7fc	0.18942255
180	0xbdd896dd	-0.1057565
181	0x3dc0010d	0.093752004
182	0x3da413e5	0.08011607
183	0x3e6e5cfd	0.2327766
184	0x3e262ead	0.16228743
185	0xbe8a3c63	-0.26999196
186	0x3d01a32f	0.031649765
187	0x3ca0edb1	0.01964459
188	0xbe60ccef	-0.21953176
189	0x3ded1d8f	0.115779035
190	0x3d56a04b	0.05239896
191	0xbd9b59ff	-0.07585525
192	0xbe160dd2	-0.1465371
193	0x3d4c7219	0.0499135
194	0xbe6ee3ef	-0.23329137
195	0xbe5db334	-0.21650392
196	0xbe650163	-0.2236381
197	0xbcfd9aae	-0.030957546
198	0xbce7428d	-0.028229976
199	0x3e0fb353	0.1403325
200	0x3e2d2916	0.16910204
201	0x3cf24c22	0.029577319
202	0x3e381ed8	0.17980516
203	0x3e8da23f	0.27662846
204	0x3ddb7668	0.107159436
205	0xbddb6ab3	-0.10713711
206	0x3e44ded3	0.19225626
207	0x3e23feeb	0.16015212
208	0xbdae4d3e	-0.085108265
209	0x3e49575d	0.19662233
210	0x3e2a3697	0.16622387
211	0x3e2a9da9	0.16661705
212	0x3d285b94	0.04110296
213	0x3de3e114	0.111269146
214	0x3e0e0cd9	0.13872088
215	0x3e46d7b4	0.19418222
216	0xbe83058e	-0.25590175
217	0xbd7b055f	-0.06128442
218	0x3e7cc0c7	0.24682914
219	0x3d68387f	0.056694504
220	0xbde207db	-0.110366546
221	0x3e1eb946	0.15500364
222	0x3e1869f8	0.14884174
223	0xbdd34599	-0.10316009
224	0x3df760f3	0.120790385
225	0xbdde0d28	-0.10842353
226	0x3db0180e	0.08598338
227	0xbe6c6339	-0.23084725
228	0x3dcf4404	0.10120395
229	0xbe085518	-0.1331371
230	0xbe2aca69	-0.16678776
231	0x3d5cadea	0.053876795
232	0x3e2a992c	0.16659993
233	0xbe019a91	-0.12656619
234	0x3de32de4	0.11092737
235	0x3d88e4d9	0.06684274
236	0xbdb8395d	-0.08995316
237	0xbe7e16af	-0.2481334
238	0x3e36fff2	0.17871073
239	0xbe4aec02	-0.19816592
240	0x3d2ff126	0.042954586
241	0x3e0793ac	0.13239926
242	0x3e323e4c	0.17406577
243	0x3deacabf	0.11464452
244	0xbda304e4	-0.07959917
245	0xbe10b776	-0.14132485
246	0xbda51237	-0.08060115
247	0xbdfa2aa7	-0.122151665
248	0x3e1b002c	0.15136784
249	0xbe04912b	-0.12946002
250	0xbe3d5954	-0.18491107
251	0x3dab9f83	0.08380034
252	0xbddf0f08	-0.10891539
253	0xbe3fce34	-0.18731004
254	0xbbb6d19b	-0.005579186
255	0xbdccd5f0	-0.10001743

energy_lin.1.weight f4 [300, 300]
0	0xbdcb0f85	-0.099150695
1	0xbe097902	-0.13425067
2	0x3db39942	0.08769466
3	0xbdb02de1	-0.08602501
4	0x3e46fb2b	0.1943175
5	0x3e17e2af	0.14832567
6	0xbde06912	-0.109575406
7	0x3de29ee3	0.110654615
8	0xbdcaa964	-0.0989559
9	0xbda58802	-0.08082582
10	0xbd8125c0	-0.06306028
11	0xbdf357a5	-0.11881951
12	0x3da2b492	0.07944597
13	0x3d6048cf	0.054756936
14	0xbe0c6b0e	-0.13712713
15	0x3d8bd48f	0.06827652
16	0x3e00b85e	0.1257033
17	0xbcf45b62	-0.029828731
18	0xbcdb6cf4	-0.026785351
19	0xbddf3cb3	-0.10900249
20	0xbd42a0fb	-0.047516804
21	0xbc1dd2bf	-0.009632765
22	0xbd43635b	-0.047702175
23	0xbd4f192b	-0.05056111
24	0x3e94ad4e	0.2903847
25	0x3cfcdcf0	0.03086707
26	0xbc873015	-0.01650242
27	0x3d1698c0	0.036766768
28	0x3e203c29	0.1564795
29	0x3e06120d	0.13092823
30	0x3df01567	0.11722832
31	0xbd85a195	-0.0652496
32	0x3d9ffda2	0.078120485
33	0xbd57dfd8	-0.05270371
34	0xbdc8924e	-0.097935304
35	0x3da7b4a4	0.08188751
36	0xbd91082f	-0.07081639
37	0x3dc50caf	0.0962156
38	0x3d3528b8	0.044228286
39	0xbd3e2f67	-0.046431925
40	0xbd18f1e3	-0.037340056
41	0x3df631f3	0.12021246
42	0x3d9d14e3	0.076699995
43	0xbd997484	-0.07492927
44	0xbdc86a94	-0.09785953
45	0xbd1fae29	-0.03898445
46	0x3c329ae5	0.010901188
47	0x3d33bc4c	0.043880746
48	0x3d823a70	0.06358802
49	0x3dc02e76	0.09383862
50	0xbddae55b	-0.10688277
51	0x3d9f2498	0.077706516
52	0xbda55280	-0.08072376
53	0x3db78fa1	0.08962942
54	0x3de1bfbb	0.11022898
55	0xbd2db1ea	-0.042406
56	0x3dc8cca5	0.09804658
57	0xbdc78acd	-0.09743271
58	0x3dd0215c	0.10162613
59	0xbd16c665	-0.036810298
60	0xbdc750f1	-0.09732235
61	0xbd3c1afa	-0.045924164
62	0xbdb142f0	-0.086553454
63	0x3dc14ae4	0.094381124
64	0xbded602d	-0.1159061
65	0xbcbde90a	-0.02318241
66	0x3e085179	0.1331233
67	0xbd80d3ff	-0.06290435
68	0xbd303c64	-0.043026343
69	0x3df4f410	0.11960614
70	0xbd9dee24	-0.07711437
71	0x3da1c3d0	0.078986764
72	0xbe076e4c	-0.13225669
73	0x3df32012	0.11871351
74	0xbd2ff5f3	-0.042959165
75	0x3df893bf	0.12137555
76	0x3e11ebe9	0.14250149
77	0x3e10703c	0.14105314
78	0xbdd4ccf9	-0.10390658
79	0x3cafd5b4	0.021464206
80	0x3ddf42f6	0.10901444
81	0xbdddc5d6	-0.1082875
82	0x3d4b1394	0.049579218
83	0x3dc132a1	0.09433485
84	0xbcc92539	-0.024553882
85	0x3d3dbdda	0.046323635
86	0xbd12469c	-0.03571187
87	0x3df71a09	0.12065513
88	0x3e20cecc	0.15703887
89	0x3d8f8c2e	0.07009159
90	0xbdd124d3	-0.10212102
91	0x3dbc5436	0.091957495
92	0xbdfd9254	-0.123814255
93	0x3d686bc0	0.056743383
94	0x3dd5615a	0.10418959
95	0x3c975b7c	0.01847624
96	0x3e0372df	0.12836789
97	0x3de53b01	0.11192895
98	0xbcab8f10	-0.020942241
99	0x3d9fa058	0.07794255
100	0x3d39b9ba	0.04534314
101	0xb93e641d	-0.00018157107
102	0x3c942dd2	0.018088255
103	0x3e03ac49	0.1285869
104	0xbcd17b8e	-0.02557161
105	0xbe075286	-0.13215074
106	0x3e070cd5	0.13188489
107	0xbd2a6c41	-0.041607145
108	0xbd379758	-0.044822067
109	0xbd8d5849	-0.06901605
110	0xbd54efd0	-0.051986516
111	0x3e5ebd6d	0.21751948
112	0x3d3f471e	0.046698682
113	0x3cfaa0a0	0.03059417
114	0x3dd1a3b8	0.10236305
115	0xbdac9594	-0.08426967
116	0xbe019a10	-0.12656426
117	0x3dd05df8	0.10174173
118	0x3e0dd9fe	0.13852689
119	0x3d0a5c88	0.03377965
120	0x3d568ed4	0.052382305
121	0xbca7a536	-0.02046452
122	0xb9e057b9	-0.00042789968
123	0xbde00594	-0.10938564
124	0x3d0d6d65	0.034528155
125	0x3d326c8b	0.043560546
126	0x3d987be5	0.07445506
127	0xbd9e09be	-0.07716702
128	0x3e10fa77	0.14158045
129	0xbddadc3c	-0.106865376
130	0xbe03d5c9	-0.12874521
131	0xbb4dc0d9	-0.0031395464
132	0x3dad31d8	0.084567726
133	0xbde7b2e9	-0.11313421
134	0x3e1ae27c	0.1512546
135	0xbdb09d0f	-0.086237065
136	0x3c66c5a4	0.014085207
137	0x3dbd508e	0.0924388
138	0xbdf998c8	-0.12187344
139	0x3dbf0d38	0.09328693
140	0x3d98df89	0.07464511
141	0x3ccb8eb1	0.024848314
142	0xbd5e88f1	-0.054329816
143	0xbde5e409	-0.11225135
144	0x3d7faf92	0.062423296
145	0x3d821b17	0.06352823
146	0xbecb5a8a	-0.39717513
147	0x3dd0246e	0.101631984
148	0xbd3db945	-0.046319265
149	0xbb264190	-0.0025368668
150	0xbd4e7ae5	-0.05041017
151	0xbd208196	-0.039186083
152	0x3d906b33	0.07051697
153	0xbceb74f9	-0.0287423
154	0x3deaf214	0.11471954
155	0x3d86d832	0.06584205
156	0xbe4a0d52	-0.19731644
157	0xbd5ddd85	-0.054166336
158	0x3cf68329	0.030091839
159	0x3e0ed668	0.13948977
160	0xbd31f6e8	-0.04344836
161	0xbdc8f7ab	-0.09812864
162	0x3cf33d0d	0.029692197
163	0x3de036dd	0.10947964
164	0x3d567882	0.05236102
165	0x3d2c2527	0.04202762
166	0x3e10054f	0.14064525
167	0xbd3cbfe4	-0.04608144
168	0x3d84e27e	0.064885125
169	0xbdca7b70	-0.09886825
170	0x3d6700f1	0.056397382
171	0x3cea0ee5	0.028571555
172	0xbda7da7a	-0.08195968
173	0xbe0efad0	-0.13962865
174	0xbd097ae7	-0.033564474
175	0x3cf07edd	0.029357368
176	0xbd65c548	-0.056096345
177	0x3d5df94e	0.054192834
178	0xbd8e911a	-0.0696127
179	0xbc98fbd8	-0.018674776
180	0x3d0168aa	0.031593956
181	0x3d06be07	0.032896068
182	0x3da53ab6	0.08067839
183	0x3e12e679	0.14345731
184	0xbd3523eb	-0.044223707
185	0xbdd594f8	-0.10428804
186	0xbd8088e5	-0.062761106
187	0x3e00a623	0.12563376
188	0xbd935f85	-0.07195953
189	0x3ca2e8f1	0.019886466
190	0xbc8332e4	-0.016015477
191	0x3e0c12d0	0.13679051
192	0x3d383678	0.04497382
193	0x3e037457	0.12837349
194	0x3d8eb342	0.069677845
195	0x3da358ee	0.07975946
196	0x3c84a7a3	0.016193217
197	0xbe030819	-0.12796058
198	0x3bd5377c	0.0065068584
199	0x3de107b6	0.10987799
200	0x3d3afd03	0.045651447
201	0x3dc38009	0.09545905
202	0x3e1359dc	0.14389747
203	0xbcae5032	-0.021278474
204	0xbc2d48dd	-0.010576454
205	0x3cb3849b	0.021913817
206	0x3dad61f7	0.08465951
207	0xbd4e004b	-0.05029325
208	0x3dc0ae61	0.0940826
209	0xbd80c09c	-0.06286737
210	0x3e0b5523	0.13606696
211	0xbdce2a4d	-0.10066662
212	0x3d6db6be	0.058035605
213	0xbdc7bd54	-0.09752908
214	0x3da211bf	0.07913541
215	0x3d51ec02	0.051250465
216	0x3e0be6f3	0.13662319
217	0x3df5be62	0.11999203
218	0xbdf735d9	-0.120708175
219	0x3dddc391	0.10828317
220	0x3e005a1e	0.12534377
221	0x3c822eb3	0.015891409
222	0xbe90ac82	-0.28256613
223	0xbd89838e	-0.06714545
224	0x3e1d4ed1	0.15362097
225	0xbcd45905	-0.025921354
226	0x3cd55e0c	0.026045822
227	0x3d89ce2d	0.06728778
228	0x3d36b118	0.044602484
229	0x3e119442	0.14216712
230	0x3cff45c6	0.0311612
231	0xbbebac81	-0.007192195
232	0x3e17e160	0.14832067
233	0xbd00612d	-0.031342674
234	0x3d85e6cc	0.06538162
235	0xbd113fac	-0.035461113
236	0x3de2b061	0.11068798
237	0xbc8bcb0b	-0.017064592
238	0x3e0bef27	0.13665448
239	0x3da922b5	0.08258573
240	0x3cf68122	0.030090872
241	0x3d37f8dc	0.044915065
242	0x3daa33f7	0.08310693
243	0xbc5ed86b	-0.013601403
244	0x3c4177d8	0.011808358
245	0xbe9896b5	-0.2980248
246	0x3dc57014	0.09640518
247	0x3da9b1d8	0.08285874
248	0x3df96774	0.12177935
249	0x3cba0b1b	0.022710374
250	0x3e029246	0.12751111
251	0xbc9fb959	-0.01949756
252	0x3d207f12	0.039183684
253	0x3c8a0112	0.016846213
254	0x3bc0b41c	0.0058808457
255	0xbd382cfb	-0.04496477

energy_lin.1.bias f4 [300]
0	0x3bbbe7ea	0.0057344334
1	0xbc79d3cf	-0.015248253
2	0x3cc24566	0.023714732
3	0x3d90ce30	0.07070577
4	0x3d134bc2	0.03596092
5	0x3d8a26a7	0.067456536
6	0x3d6e5a16	0.05819138
7	0xbc050b93	-0.008120435
8	0x3c2b4ada	0.010454858
9	0x3d748e06	0.059705757
10	0x3d8ffeba	0.07031007
11	0x3bf8bb3d	0.00759068
12	0x3d918580	0.07105541
13	0x3d64b2c2	0.05583454
14	0xbcbe4619	-0.023226785
15	0x3d82d003	0.06387331
16	0x3d8dbbae	0.06920563
17	0x3c4b92f2	0.012425171
18	0x3dca2c7a	0.098717645
19	0x3d570c4e	0.05250197
20	0xbc0f6f4a	-0.008754561
21	0xbce45900	-0.02787447
22	0xbd181afb	-0.037135106
23	0x3d3b47c1	0.045722727
24	0xbc21f5ba	-0.009885246
25	0x3d3df441	0.046375517
26	0xbccb729b	-0.024834922
27	0xbd3e8606	-0.046514533
28	0x3b8bbf70	0.0042647645
29	0xbd2952a4	-0.041338578
30	0x3bee36e0	0.007269725
31	0x3c7207e7	0.014772392
32	0xbc21926e	-0.009861572
33	0x3ce7166d	0.028208936
34	0xbb40df9a	-0.0029430152
35	0x3c77358d	0.015088451
36	0x3ce0e99b	0.027455142
37	0x3b80d2df	0.003931388
38	0xba46c9e2	-0.00075831835
39	0xbb10a975	-0.002207366
40	0x3d8a278f	0.067458265
41	0xbb47bf29	-0.003047893
42	0x3d7c8cbf	0.061657663
43	0xbbaaf828	-0.005217571
44	0x3d69afb6	0.057052337
45	0xbb16ab54	-0.0022990303
46	0xbd59355a	-0.053029396
47	0xba930856	-0.0011217694
48	0x3cd6cbc8	0.026220217
49	0xbd3ecc25	-0.046581406
50	0x3d9449e1	0.07240654
51	0x3c061aad	0.008185071
52	0x3ddf02eb	0.108892284
53	0x3d5a3fd9	0.053283546
54	0xbc83611d	-0.016037518
55	0xbd2ce6d7	-0.042212334
56	0xbcc8bf0e	-0.024505164
57	0x3c61ec09	0.013789185
58	0xbd1b60e5	-0.037934203
59	0x3cd3e601	0.02586651
60	0xbc9e2fe0	-0.019309938
61	0x3da952b1	0.08267725
62	0xbcfc6e03	-0.030814176
63	0xbb64e315	-0.003492539
64	0x3ce2eab4	0.027699806
65	0x3d20b34c	0.03923349
66	0xbcc74992	-0.024327073
67	0xbd641036	-0.055679522
68	0x3cbcaeb6	0.023032527
69	0x3dcc308d	0.09970198
70	0xba0bacfc	-0.0005328206
71	0x3da0800e	0.078369245
72	0x3b81ef0f	0.0039652656
73	0x3cfea02b	0.031082233
74	0xbc54a889	-0.012979635
75	0x3c43166d	0.011907202
76	0x3d66e55f	0.05637109
77	0xbc33ca59	-0.010973536
78	0x3d028052	0.031860657
79	0x3d1355a0	0.03597033
80	0x3d80a19f	0.06280827
81	0xbc43aad1	-0.011942581
82	0x3d061da3	0.032743108
83	0xbbd39731	-0.0064572324
84	0x3c5cf9b5	0.013487269
85	0xbca3f7d6	-0.020015638
86	0xbd0b4373	-0.03399987
87	0x3d90377e	0.07041834
88	0xbc2c428d	-0.010513914
89	0xbd4a066a	-0.049322523
90	0x3cecbb21	0.028897824
91	0x3d96bad2	0.07359852
92	0xbc4e0910	-0.012575403
93	0x3d80c971	0.06288422
94	0x3bd0c2a2	0.0063708583
95	0xbbcad3a7	-0.0061897817
96	0x3d37ef23	0.044905793
97	0x3caec08b	0.021332046
98	0xbd2749e0	-0.040841937
99	0x3d81dece	0.06341325
100	0x3b19787c	0.0023417762
101	0x3ca70a63	0.020390695
102	0xbcc265ab	-0.02373012
103	0x3abad28d	0.0014253423
104	0xbcd19980	-0.02558589
105	0xbce50d46	-0.02796043
106	0x39791bd9	0.00023756865
107	0x3d6440ef	0.055725988
108	0xbcd75929	-0.026287632
109	0xbd0a0dfe	-0.03370475
110	0xbca7f246	-0.020501267
111	0xbcfb6933	-0.030689811
112	0x3d68fa71	0.056879465
113	0x3d80e4d3	0.06293645
114	0xbccf0609	-0.025271432
115	0xbcb96ac4	-0.022633918
116	0xbcb824c0	-0.022478461
117	0x3d615884	0.055016056
118	0x3d6403af	0.055667575
119	0x3d6f5db4	0.05843897
120	0x3ca0518a	0.01957013
121	0xbc009d3b	-0.007849987
122	0x3d52fb9e	0.051509492
123	0xbd48cb87	-0.049022224
124	0x3c91cd11	0.017797979
125	0x3d1a3512	0.037648268
126	0xbc9b26ca	-0.018939395
127	0x9dc744ea	-5.2746117e-21
128	0x3cf55774	0.029948927
129	0x3c67cced	0.014147979
130	0x3b2c93dd	0.002633325
131	0xbc79e95c	-0.015253391
132	0xbd24421e	-0.040102117
133	0xbd197933	-0.0374691
134	0x3d59de7f	0.053190704
135	0xbc9e255f	-0.01930493
136	0x3c72b83c	0.014814433
137	0x3c0831e2	0.008312674
138	0x3d70f158	0.058823913
139	0xbb0eee2c	-0.0021809442
140	0xbd322bfc	-0.043498978
141	0xbbea83f3	-0.007156843
142	0x3d3f98dd	0.04677664
143	0xbc240f17	-0.010013363
144	0x3d193de5	0.037412543
145	0x3cdab66d	0.026698316
146	0xbc882ca3	-0.016622847
147	0x3ce1adf3	0.027548766
148	0x3d6a8fdc	0.0572661
149	0x3c637237	0.013882211
150	0x3bf84e0c	0.0075776633
151	0xbb665b6c	-0.0035149707
152	0x37f1d5b3	2.882895e-05
153	0xbc229826	-0.00992397
154	0x3c89e35c	0.016832046
155	0x3c9f5782	0.019450907
156	0xbc861eb3	-0.01637206
157	0x3d283513	0.04106624
158	0xbd544f00	-0.051833153
159	0x3cf13e61	0.02944869
160	0x3d334dc9	0.043775354
161	0x3d94c106	0.07263379
162	0x3d1f1d1e	0.038846128
163	0x3d61dded	0.055143286
164	0xbc6c9bea	-0.01444147
165	0x3bddc610	0.0067679957
166	0x3d69d857	0.057091083
167	0xbc2e0951	-0.010622338
168	0x3cc5b4bc	0.024134032
169	0xbd46eb48	-0.048564225
170	0x3dae335b	0.08505889
171	0x3c96c5a8	0.018404797
172	0x3bfb1e6b	0.007663538
173	0x3ce43306	0.027856361
174	0xbb91fbc5	-0.004455062
175	0x3d910800	0.07081604
176	0xbc8f43c2	-0.017488364
177	0x3d22b8b9	0.039726947
178	0xbc7eca69	-0.015551188
179	0x3d34218e	0.043977313
180	0x3d122187	0.035676505
181	0xbd013214	-0.0315419
182	0xbc0bcea3	-0.008533153
183	0xbc418f50	-0.0118139535
184	0xbc8e90e8	-0.017403081
185	0x3ca9f49e	0.020746525
186	0xbb223e0e	-0.0024756226
187	0x3d98b317	0.07456034
188	0xbceec269	-0.029145436
189	0xbc571efb	-0.013129945
190	0x3cd0177f	0.025401829
191	0x3d5e5ab0	0.054285705
192	0x3d8f4cc0	0.06997061
193	0xbb5beec6	-0.0033559068
194	0xbbf48d4e	-0.007463134
195	0x3d1ce0aa	0.038300194
196	0x3cb49af6	0.022046547
197	0xbce2681c	-0.027637534
198	0x3d8be151	0.06830085
199	0x3d2a4ad8	0.041575283
200	0xbcaa1e7a	-0.020766485
201	0x3b69020f	0.0035554206
202	0x3d22ab38	0.03971407
203	0x3c17a07b	0.00925457
204	0x3c38d643	0.011281553
205	0x3bfd08e6	0.007722008
206	0x3d5c0d25	0.053723473
207	0xbc3c26a4	-0.011483822
208	0x3d61f23d	0.055162657
209	0xa37bbc9a	-1.3646675e-17
210	0x3d62e882	0.055397518
211	0x3d7845b1	0.060613338
212	0x3d47cc49	0.048778806
213	0xbcc95874	-0.02457831
214	0xbcedc8fd	-0.029026503
215	0x3d63c01f	0.055603143
216	0xbca59f34	-0.020217516
217	0xbd1e5db2	-0.038663574
218	0xbc338450	-0.010956839
219	0x3bb82d39	0.0056206253
220	0x3d3abb82	0.045588978
221	0x3d84f3e9	0.06491835
222	0x3db37a4a	0.08763559
223	0xbc5f8c89	-0.013644346
224	0xbc667726	-0.014066493
225	0x3e04fc07	0.12986766
226	0x3c4fbab8	0.012678795
227	0x3d874747	0.06605392
228	0x3d61ff74	0.05517526
229	0x3d2a5c60	0.041592002
230	0xbb57f7ad	-0.0032954023
231	0x3a531284	0.000805177
232	0xbd0827ff	-0.03324127
233	0xbc0df753	-0.008664924
234	0xbc032255	-0.008003791
235	0x3be04c3a	0.0068450244
236	0x3c1e3657	0.00965651
237	0x00358369	4.914422e-39
238	0x3ca05941	0.01957381
239	0x3cd9f985	0.026608238
240	0x3cdbeaea	0.026845414
241	0xbd3bb149	-0.04582337
242	0xbd59bc5e	-0.053158157
243	0x3c7a08a8	0.015260853
244	0xb972760f	-0.00023122899
245	0x3d927c06	0.07152562
246	0x3cb10d0a	0.021612663
247	0xbd357e21	-0.04430974
248	0x3d6d733d	0.057971228
249	0xbbb674cb	-0.005568122
250	0x3d684947	0.056710508
251	0x3d777aa9	0.060419712
252	0x3da4c3c1	0.080451496
253	0x3c493edf	0.012283056
254	0x3c478f71	0.012180195
255	0x3da61fbc	0.081115216

energy_lin.3.weight f4 [150, 300]
0	0xbc23c99c	-0.009996798
1	0xbdabb6bc	-0.08384463
2	0xbd5b7928	-0.05358234
3	0x3deed22b	0.1166118
4	0xbe331a4e	-0.17490503
5	0xbe4ee767	-0.2020546
6	0x3db88f93	0.090117596
7	0x3e187207	0.14887248
8	0xbc2107da	-0.009828532
9	0x3cf61eed	0.030044043
10	0xbddbb863	-0.10728528
11	0xbdf122c4	-0.11774209
12	0x3d924748	0.07142502
13	0x3e23f3d4	0.16010982
14	0x3d9aaa62	0.07552029
15	0x3b6f430e	0.0036508474
16	0xbe909df3	-0.28245506
17	0x3b223104	0.0024748454
18	0x3e36f6b6	0.1786755
19	0x3dd6258d	0.10456381
20	0x3ddc44f8	0.10755342
21	0x3cd8c47d	0.02646088
22	0x3d0dd25f	0.034624454
23	0xbcb4d8a3	-0.022075957
24	0xbd9f240a	-0.07770546
25	0x3dabdec6	0.083921
26	0x3dba5dea	0.09099944
27	0x3d434865	0.047676463
28	0xbda9044b	-0.08252772
29	0xbd940c0d	-0.07228861
30	0xba079699	-0.0005172282
31	0xbdc8f62d	-0.09812579
32	0x3d0d161c	0.034444913
33	0x3de80a5d	0.11330102
34	0x3d0a1be7	0.033718016
35	0x3d2659cd	0.040612984
36	0xbd9b0d8d	-0.07570944
37	0x3d63fa1a	0.055658437
38	0x3d990a77	0.07472699
39	0x3dbace7d	0.09121416
40	0xbed2ec65	-0.4119598
41	0xbdd6b0e4	-0.10482958
42	0xbd84b6f3	-0.06480207
43	0xbdb8ceac	-0.090237945
44	0x3e1a6b93	0.15080099
45	0x3da39bd0	0.07988703
46	0x3d93ef3a	0.07223363
47	0xbd990d14	-0.074731976
48	0xbb55e23e	-0.0032636072
49	0x3d9f1528	0.07767707
50	0xbe56ab19	-0.20963706
51	0xbd6b9e33	-0.057523917
52	0x3e1a06f9	0.15041722
53	0x3cbb555d	0.022867853
54	0x3d0dbe65	0.034605402
55	0xbcf1137e	-0.02942824
56	0x3dbb78f9	0.09153933
57	0xbdb4f0fb	-0.08835026
58	0x3e1878a7	0.14889775
59	0xbd6d340a	-0.057910956
60	0xbcf0e45e	-0.029405769
61	0xbcbfacea	-0.023397882
62	0x3cf92b8f	0.030416278
63	0x3d5b7b69	0.05358449
64	0x3c972390	0.018449575
65	0x3c38b8a0	0.011274487
66	0xbcb295be	-0.021799918
67	0x3dd53230	0.10409963
68	0xbdb7e264	-0.089787275
69	0x3e49a0bc	0.19690222
70	0x3d92250a	0.07135971
71	0x3b956c6a	0.004560043
72	0xbc06a101	-0.008217097
73	0x3d833364	0.06406286
74	0x3de7625b	0.11298057
75	0xbce7a3e1	-0.028276386
76	0x3d194046	0.03741481
77	0x3de31af9	0.11089129
78	0x3d7876e7	0.06066027
79	0x3cd9d016	0.02658848
80	0xba28b185	-0.0006435144
81	0x3e075cd8	0.13219011
82	0x3d74a8a0	0.059731126
83	0x3b04ecbe	0.002028271
84	0xbcd96cf9	-0.02654122
85	0xbdbde146	-0.09271483
86	0xbdd08ed9	-0.10183496
87	0x3ccb8b60	0.024846733
88	0xbda2782d	-0.07933078
89	0x3dda90ab	0.106721245
90	0x3e159c0b	0.14610307
91	0xbdaa36ef	-0.08311259
92	0x3dd7cb3b	0.1053681
93	0xbd31bc9c	-0.043392763
94	0x3dfe66e3	0.12421968
95	0x3de1d20b	0.11026391
96	0xbddfce7f	-0.10928058
97	0x3d87ee19	0.066372104
98	0x3e06a3ea	0.13148466
99	0x3d35330c	0.044238135
100	0x3dc3fb7e	0.09569453
101	0xbd59b793	-0.053153586
102	0x3e3c5446	0.18391523
103	0x3e78e1dd	0.2430491
104	0x3d839584	0.06425002
105	0x3db4bb54	0.088247925
106	0x3c85a90e	0.016315963
107	0x3db04733	0.0860733
108	0xbc1ee32b	-0.009697716
109	0xbe185a52	-0.14878204
110	0xbd871f35	-0.06597749
111	0xbc2b95cc	-0.010472726
112	0xbdbb299e	-0.09138797
113	0xbc0609b5	-0.008181025
114	0xbd1e85c2	-0.03870178
115	0xbdb1ae42	-0.08675815
116	0xbc7c8b48	-0.015414067
117	0x3dbd42b1	0.09241236
118	0xbd0f6970	-0.035012662
119	0x3ebefa5c	0.37300384
120	0xbdd545b3	-0.10413685
121	0xbd37868b	-0.044806045
122	0x3e1d739b	0.15376131
123	0xbdd312de	-0.10306333
124	0xbc48c533	-0.012254047
125	0x3dde0a99	0.10841865
126	0xbdbc9dbe	-0.092097744
127	0xa0738d6d	-2.0629694e-19
128	0xbd74d6f9	-0.059775326
129	0x3d022211	0.03177077
130	0x3e1f7808	0.15573132
131	0x3cb71741	0.022349956
132	0x3db63e2e	0.088985786
133	0x3bae17ae	0.0053128814
134	0x3df2e481	0.1185999
135	0xbdb7aebb	-0.08968874
136	0xbe0498c0	-0.12948895
137	0x3d6c7cf1	0.05773634
138	0x3d3b1844	0.04567744
139	0x3e056d12	0.13029888
140	0x3c4ab3b5	0.012371947
141	0xbd8f7f0e	-0.07006656
142	0x3dcb595e	0.09929155
143	0xbd9f430c	-0.0777646
144	0xbc3c2e5e	-0.011485664
145	0x3dcd9d8b	0.100398146
146	0x3bfe616f	0.00776308
147	0x3dfef49d	0.12449
148	0xbe008543	-0.12550835
149	0xbdd83ea1	-0.105588205
150	0x3df85507	0.12125593
151	0x3e0fe6df	0.14052914
152	0xbebd0cc9	-0.36923817
153	0x3dd29d4c	0.10283908
154	0x3e0b6015	0.13610871
155	0x3d03a3c4	0.0321386
156	0x3d71b827	0.059013512
157	0x3cb23daf	0.021757929
158	0xbc9987d3	-0.018741524
159	0x3dc30531	0.095224746
160	0xbd0de1cd	-0.03463917
161	0xbd0abfaf	-0.03387421
162	0x3da1eeb5	0.07906858
163	0xbd571c05	-0.052516956
164	0xbd8b8daa	-0.0681413
165	0xbdef3ff1	-0.11682118
166	0x3e324e63	0.17412715
167	0xbdb1e578	-0.08686346
168	0x3e36da35	0.17856677
169	0x3dcfc4f7	0.1014499
170	0x3d9335ef	0.071880214
171	0xbce44cdb	-0.027868679
172	0x3e19b2f4	0.15009671
173	0x3de659d8	0.11247605
174	0xbd9d8d37	-0.0769295
175	0x3e19c6df	0.1501727
176	0x3c4dc6d1	0.012559609
177	0x3c29c5db	0.010362114
178	0x3df85a10	0.12126553
179	0x3cf49e7b	0.029860726
180	0xb9aee47b	-0.00033358097
181	0xbde56b92	-0.11202158
182	0xbd88f8fc	-0.06688115
183	0xbd8b274d	-0.067946054
184	0x3d692892	0.056923456
185	0xbcc5355e	-0.024073299
186	0xbcc72e74	-0.024314143
187	0x3e0b917a	0.13629714
188	0x3d96ba90	0.07359803
189	0xbe08882c	-0.13333195
190	0xbda5d2c4	-0.08096841
191	0xbd481402	-0.048847206
192	0xbccb025c	-0.024781398
193	0x3c703636	0.014661362
194	0xbde000e4	-0.1093767
195	0x0c035bc1	1.0119484e-31
196	0xbd97f8de	-0.074205145
197	0xbdd1e791	-0.10249246
198	0x3bb3fbdc	0.0054926705
199	0x3d3098f0	0.043114603
200	0xb2809e9e	-1.4973292e-08
201	0xbd8c4245	-0.068485774
202	0x3dc30922	0.09523226
203	0xbd032931	-0.032021705
204	0xbdb7d107	-0.08975416
205	0x3d5bdbb0	0.053676307
206	0x3dc0fdce	0.094234094
207	0xbd9c7ed0	-0.07641375
208	0x3abfc2ef	0.0014630238
209	0x9effe30a	-2.7093076e-20
210	0x3e00bc41	0.12571813
211	0x3d6c4e15	0.057691652
212	0x3bfafb5c	0.007659359
213	0x3d9c3e36	0.07629053
214	0x3e828b36	0.25496835
215	0x3de52faa	0.11190732
216	0x3b95f306	0.00457609
217	0x3db4adcc	0.088222116
218	0xbd71addb	-0.059003692
219	0x3e0d4ef1	0.13799645
220	0xbe42884e	-0.18997309
221	0xbd1e9afe	-0.03872203
222	0xbd0124ad	-0.031529117
223	0xbda54e7f	-0.080716126
224	0xbcb9cd68	-0.022680953
225	0x3e95d8dd	0.29267016
226	0x3db7376b	0.08946117
227	0xbe3f823c	-0.18702024
228	0xbe282f19	-0.16424216
229	0x3d0251e4	0.03181638
230	0x3d713164	0.058884993
231	0xbd6fe989	-0.058572326
232	0x3e279176	0.16364083
233	0xbd2e99a4	-0.042626992
234	0x3e02216c	0.12708062
235	0x3e018d91	0.1265166
236	0x3d7013e0	0.058612704
237	0x17179df8	4.8990116e-25
238	0x3da4d45f	0.08048319
239	0xbda1d7dc	-0.079025
240	0xbd6353ab	-0.055499714
241	0x3e6f3354	0.23359424
242	0xbd9448a0	-0.072404146
243	0x3e0f0118	0.13965261
244	0x3d15913c	0.03651546
245	0xbd35a6a3	-0.04434837
246	0x3ca81084	0.020515688
247	0x3d850b68	0.06496316
248	0x3c253e90	0.010085717
249	0x3d9c0643	0.07618382
250	0x3d210b4b	0.03931741
251	0x3df2d03c	0.11856124
252	0xbd4dbbdc	-0.050227985
253	0x3d0d7cf5	0.034542996
254	0xbd6a80cd	-0.05725174
255	0x3c989a8d	0.018628383
