models/mpnn_A139_B23_E300_L2/28.pt (torch, 742651 bytes, 9 tensors)

atom_lin.weight f4 [300, 139]
0.02126801 -0.13212222 1.224367e-19 -3.0085363e-17 -7.57772e-37 -4.6045754e-32 0.085250065 0.09878491
-0.2561812 0.08904092 7.851173e-28 1.5413332e-35 -1.032065e-26 1.0953516e-23 4.8786714e-19 -0.0797951
0.12362621 0.1255815 -3.314034e-39 -3.721214e-39 2.217141e-13 3.066302e-34 2.5122608e-15 -4.046977e-21
-6.063037e-23 6.3182815e-20 -0.14239575 0.20573524 -2.1010462e-38 -4.904615e-39 3.6892827e-16 -1.1647513e-14
8.715374e-26 4.2424687e-32 -2.2888633e-29 0.08084018 1.0660433e-15 -3.9939167e-19 1.1745138e-23 -1.4425641e-17
2.6244725e-32 -2.139151e-20 6.861808e-30 4.910287e-39 2.5730934e-35 4.913423e-39 4.915745e-39 -5.4575224e-30
-1.1650173e-22 9.4163395e-17 1.4880627e-14 -1.5192979e-33 -2.3028428e-25 0.074985184 -7.6606944e-35 -4.906463e-39
-2.0873039e-30 9.8340925e-14 -7.0128765e-14 -1.5102196e-18 1.1336368e-29 1.0982997e-19 -9.755938e-31 6.45597e-15
-3.5601066e-17 4.909537e-39 3.796987e-20 -1.0505083e-30 -4.6042255e-14 1.4082409e-24 7.329626e-16 -2.4623743e-38
-3.7376408e-26 9.665081e-20 -2.9338996e-34 1.0370407e-33 -8.696203e-17 -4.913653e-39 4.913024e-39 -1.092248e-30
-4.918502e-39 2.6795837e-20 7.210371e-34 9.490414e-37 4.723165e-15 1.587914e-33 -4.915782e-39 -2.5198433e-30
-1.3909887e-17 -4.907983e-39 1.41298e-39 1.0862325e-14 -6.1817318e-24 1.6022789e-28 -4.8777334e-14 7.4332334e-33
1.4768458e-33 -4.7211837e-29 -4.4659416e-14 4.906738e-39 7.809891e-24 -8.343018e-20 2.0480977e-17 -3.4386354e-32
6.997179e-24 6.959227e-14 4.912172e-39 1.7604736e-20 -4.917026e-39 -4.906338e-39 7.5398237e-20 -7.31565e-30
2.1609388e-18 9.373468e-27 1.0206678e-24 3.0514024e-17 1.0063696e-30 2.162765e-25 -5.1608714e-22 0.24323472
-2.964635e-31 0.0029640466 0.018700115 -0.20528841 -1.7351386e-15 -0.007991691 -1.9718876e-24 -2.239693e-39
-0.23283225 0.10934393 0.073740676 -0.0747422 -1.3330729e-17 2.8865197e-15 5.1734672e-30 -2.285224e-39
3.938294e-15 -1.2498826e-34 0.05770228 -0.27847844 -0.12703107 1.4702911e-15 -4.841522e-31 9.803732e-32
4.1702986e-14 0.22234204 -0.10317399 0.011210235 0.1090112 8.052646e-21 1.0670176e-27 0.09848965
1.4045394e-20 -2.6814247e-37 0.032356955 0.020074379 0.073728226 -1.9670238e-14 -4.912402e-39 -1.5184145e-22
-8.1875696e-25 -2.38864e-19 1.2821951e-13 9.334035e-18 4.352483e-26 -0.009058037 0.10948337 -2.7528634e-28
6.005683e-31 1.414551e-24 -1.8295369e-36 -1.3401947e-16 5.207134e-39 1.4963369e-16 -0.11400591 -1.3863612e-18
-1.4674958e-20 -4.575911e-24 -5.0776618e-20 6.241058e-33 1.7958173e-34 -5.811395e-29 -2.6649102e-21 -6.8977175e-19
6.244299e-14 5.0845368e-15 -1.7287699e-13 -4.910738e-39 -2.4153214e-36 -3.897553e-31 2.1818396e-32 1.1499261e-16
-0.20864877 -5.7492446e-34 2.489139e-39 4.916502e-39 3.275713e-22 3.7242123e-26 2.47707e-13 3.060589e-25
2.9486784e-24 7.744558e-22 -3.8092175e-16 -5.2922964e-19 1.4528753e-19 -2.972412e-24 -5.2084048e-20 -1.7295564e-18
-1.0481298e-31 -1.2130214e-18 -8.2024866e-24 -6.1420054e-20 -4.907166e-39 1.7497891e-16 5.797616e-15 -5.881993e-15
2.6264924e-26 -4.907808e-39 5.5567835e-18 2.136634e-29 2.4895448e-37 1.4960745e-16 -1.67023e-32 -4.907291e-39
2.0505933e-27 1.3418989e-13 -1.7467051e-23 -4.91354e-39 4.91525e-39 4.828158e-34 3.3438858e-15 -1.17861404e-23
3.0626858e-34 -6.219885e-19 2.2602922e-13 6.5859856e-16 2.9478412e-33 -2.1435311e-28 -9.124914e-35 2.7136938e-14
-1.8931335e-19 -3.8859712e-16 -1.3370366e-17 -4.6062774e-16 -1.8017591e-15 2.982452e-23 -2.6726123e-13 -1.4000742e-31
-1.5403754e-24 -4.8230272e-29 -1.1450409e-20 -1.7643474e-14 -4.911292e-39 1.2067994e-14 4.2272267e-32 4.22311e-15
00000000: 403a ae3c 0c4b 07be 398c 1020 87be 0aa4
00000010: a0ed 8083 4e15 6f8b 9697 ae3d be4f ca3d
00000020: 2f2a 83be 165b b63d 48d0 7812 15e7 a305
00000030: ea6b 4c94 2fdf 5319 33fe 0f21 9d6b a3bd
00000040: bd2f fd3d 7098 003e 2e16 2480 3b85 2880
00000050: bda0 792a 6dca cb07 0807 3527 f6e3 989d
00000060: 6298 929a ab2f 951f 31d0 11be 42ac 523e
00000070: 9fc8 e480 1268 3580 34ac d425 acd2 51a8
00000080: 3fc8 d715 1548 5c0b 4a1e e88f 898f a53d
00000090: 0ea2 9926 5dc2 eba0 1b2f 6319 950d 85a3
000000a0: 3945 080b 7f09 ca9e 8b2c 0b0f e277 3500
000000b0: 22cf 0806 a080 3500 1987 3500 2762 dd8e
000000c0: 8ad7 0c9b 4220 d924 6408 8628 c96f fc88
000000d0: 008a 8e96 d591 993d fca7 cb86 396d 3580
000000e0: 9b57 298e af71 dd29 7bea 9da9 7cde dea1
000000f0: caed 650f 12aa 0120 954c 9e8d d099 e827
00000100: 522e 24a4 cb75 3500 c24e 331f 6874 aa8d
00000110: 1b5b 4fa9 2bea d917 1843 5326 7d10 0681
00000120: 3a14 3995 d435 e41f b7fd c287 d54e ac08
00000130: 5285 c8a4 4481 3580 837f 3500 353a b18d
00000140: c88e 3580 5c14 fd1e 0e9b 6f08 9578 a103
00000150: 822b aa27 32eb 0309 3387 3580 196f 4c8e
00000160: cb4b 80a3 7671 3580 d062 0f00 a2ad 4328
00000170: e824 ef98 ec1c 4b11 70ac 5ba9 d961 1a0a
00000180: 1362 f508 7864 6f90 cd20 49a9 fd6d 3500
00000190: b510 1719 73fe c49f 57e7 bc23 4e8b 328b
000001a0: 5a58 0719 36b5 9c29 237d 3500 a445 a61e
000001b0: ab8a 3580 e06c 3580 7007 b21f 0761 148f
000001c0: fb72 1f22 21a9 3914 d1f0 9d17 9ab8 0c24
000001d0: f54a a30d 61de 8516 4ffa 1b9c 8612 793e
000001e0: 736a c08c 7340 423b fc30 993c 2037 52be
000001f0: 510f faa6 95ef 02bc 4291 1898 5a63 1880
00000200: 946b 6ebe b6ef df3d 5a05 973d 7012 99bd
00000210: 96e8 75a3 e4fe 4f27 5bdc d10e 46e2 1880
00000220: 5ae4 8d27 4d23 2687 3a59 6c3d ba94 8ebe
00000230: 6f14 02be 2be4 d326 cb1d 1d8d fa84 fe0b
00000240: 45d0 3b29 a2ad 633e e34c d3bd 22ab 373c
00000250: 4441 df3d 351c 181e 6013 a912 f1b4 c93d
00000260: aea7 841e 027d b682 ba88 043d 0673 a43c
00000270: d3fe 963d 7b2c b1a8 c77d 3580 a790 379b
00000280: 9c64 7d97 1b00 8da0 c25c 102a bc2e 2c23
00000290: 4786 5715 2968 14bc d138 e03d c37b ae91
000002a0: 43e5 420d 23e4 da17 c9a3 1b84 9183 1aa5
000002b0: 5fb3 3800 1284 2c25 ee7b e9bd 3f97 cca1
000002c0: df99 8a9e a105 b198 2ac9 6f9f 289f 010a
000002d0: 7fb4 6e07 1c56 9390 dc5a 499d ae95 4ba1
000002e0: ef9b 8c29 9330 b727 66a4 42aa 2479 3580
000002f0: 0b79 4d84 35f7 fc8c 3f93 e20a d493 0425
00000300: 06a8 55be 2a0d 3f88 b51a 1b00 3589 3500
00000310: 3401 c61b 006a 3815 5772 8b2a f870 bd16
00000320: 9824 6418 9d10 6a1c 2196 dba5 7633 1ca1
00000330: 7686 2b20 affa 6598 c0f5 759f cb3c ffa1
00000340: 160e 088c a702 b3a1 bfa8 1e99 2506 919f
00000350: 2f6f 3580 a9bc 4925 92e1 d027 cfeb d3a7
00000360: bf0e 0215 f970 3580 5602 cd22 31ae d80f
00000370: fd6d a902 537c 2c25 5472 ad8a 886f 3580
00000380: f976 2213 9a15 172a 53ee a899 f380 3580
00000390: b885 3500 6d71 2008 cef3 7027 24fa 6399
000003a0: e68c cb07 1f94 37a1 7d7c 7e2a ffd3 3d26
000003b0: a6e5 7409 c8dc 8791 f294 f286 856d f428
000003c0: 7380 5fa0 d002 e0a5 c5a3 76a3 54c4 04a6
000003d0: 97d4 01a7 f838 101a 6774 96aa 72bd 358c
000003e0: 8e5c ee97 798e 7490 c84a 589e 15eb 9ea8
000003f0: af7a 3580 cd65 5928 7b7d 5b0b 5127 9827

atom_lin.bias f4 [300]
0.006519613 0.07303524 0.08661009 0.04374845 0.096832186 -0.003233906 -0.055926163 0.08293706
0.098463945 0.14129469 0.027262473 -0.07049559 0.09229403 -0.029032301 -0.08663936 0.07202423
0.08484402 0.13909346 -1.8072435e-28 0.1298181 -0.04202076 -0.046553448 -0.04979112 0.082600534
0.037668064 0.03319739 -0.008345843 -0.04050251 0.06295375 0.09879619 0.064705476 -0.0172242
0.052278545 0.013973311 0.086478956 0.04938064 -0.0049771112 0.006472743 0.045695983 -0.0034137822
0.01961669 0.07884097 0.008417649 -0.0044874977 0.028571954 -0.009229675 0.0055723134 0.05251104
0.004602335 0.011799036 -0.119389534 0.11352897 -0.01251633 0.09982632 0.11900344 0.08588175
0.063684 0.047369134 0.041712426 -0.07175229 0.0370189 0.07951752 0.023919467 0.10072917
0.11582267 0.08467949 0.110487185 0.08726277 0.0767852 0.02649144 0.05768068 0.099459276
-0.048805386 -0.01691455 0.04866501 0.063629605 0.11026425 -0.018792883 0.00089618034 0.07183313
0.06841338 0.0756549 0.08098421 0.032168984 -6.192996e-05 0.0006449733 -0.03917903 0.089574434
-0.08493218 -0.041011274 0.06716376 -0.019483723 -0.080000475 0.10839969 0.053343836 0.09208331
-0.01799365 0.02646095 0.08931852 -0.0075707007 -0.00030747015 0.07682503 0.049840473 0.041664228
-0.07680283 0.041746553 -0.07197121 0.06615327 0.0066074966 -0.06317205 0.0060437033 0.09935654
0.040231664 0.03480592 -0.07076307 0.040295742 0.03757231 -0.08016119 0.0268211 0.01745935
0.08108608 0.072481014 -0.05045535 0.04447128 0.0027760563 -0.03757468 -0.008117906 0.07225717
0.010749633 -0.028482137 0.10099067 -0.0092942435 0.030499911 -0.04026277 0.012965682 0.02256101
0.08146239 -0.10180882 -0.0407462 0.07672685 0.047454346 -0.0029905818 0.033415277 0.032654166
-0.020660862 0.06455153 -0.012162833 0.036404286 0.021067334 -0.06694083 0.029172853 0.019029208
0.035212304 0.040307347 -0.025150122 -0.031642724 0.0143087525 0.022481319 -0.07350794 -0.045768816
0.07551309 -0.026729075 -0.09294678 0.048002344 0.042150326 -0.01630791 0.033541366 0.09099071
0.07365404 -0.043035008 -0.111469045 -0.025227092 0.0650243 0.046651293 0.06601504 0.060010917
-0.07385146 0.06858693 0.07816642 -0.028532084 -0.066175744 -0.0031862964 -0.015279099 -0.02294816
-0.07809575 0.026811812 0.04413693 -0.049242165 0.0019756784 -0.035316937 0.07793201 0.08110326
0.024693817 0.0795373 0.09476991 -0.100975044 -0.07675661 0.038562696 -0.04438245 0.02984125
0.064635046 0.05661677 -0.015301978 0.047479004 -0.06527462 0.091036074 -0.032313123 0.02615754
0.096486256 0.06329818 -0.0020001326 0.12338841 -0.021023074 0.07446174 0.045795202 0.021634836
0.058187727 -0.114362486 0.0329627 0.0067916554 0.031689383 -0.053495206 0.005194342 -0.049894333
-0.056996614 -0.02336888 -0.018375767 0.009664538 0.07452437 0.10196645 0.0319001 -0.13227661
-0.03649455 0.0013752647 -0.04214299 0.016066024 0.022144064 0.0017788594 0.005754181 -0.01882964
0.011658531 0.03140074 -0.07562968 0.06690263 0.03659901 0.0054036505 -0.050908618 0.0861168
0.040667243 0.08999161 0.028635625 0.048711773 -0.005937553 0.04879474 0.09478583 0.073570244
00000000: 7aa2 d53b 8093 953d a260 b13d 9331 333d
00000010: f44f c63d f1ef 53bb d512 65bd e8da a93d
00000020: 77a7 c93d 8eaf 103e 8d55 df3c fe5f 90bd
00000030: a704 bd3d 26d5 edbc fa6f b1bd 7181 933d
00000040: b4c2 ad3d 846e 0e3e 6818 6591 09ef 043e
00000050: f61d 2cbd d4ae 3ebd c6f1 4bbd 782a a93d
00000060: d449 1a3d fdf9 073d 01bd 08bc f6e5 25bd
00000070: e5ed 803d a855 ca3d 4e84 843d c419 8dbc
00000080: 0722 563d 50f0 643c e11b b13d 5b43 4a3d
00000090: 0917 a3bb 4e19 d43b b62b 3b3d c3b9 5fbb
000000a0: 2eb3 a03c 6077 a13d 2eea 093c dc0b 93bb
000000b0: bb0f ea3c 1038 17bc f497 b63b d115 573d
000000c0: 2fcf 963b be50 413c 8082 f4bd e081 e83d
000000d0: 4b11 4dbc be71 cc3d 13b8 f33d c5e2 af3d
000000e0: c26c 823d 2306 423d a6da 2a3d ddf2 92bd
000000f0: 21a1 173d 15da a23d c2f2 c33c 184b ce3d
00000100: 7034 ed3d 716c ad3d 1b47 e23d d3b6 b23d
00000110: 8f41 9d3d 9404 d93c 9442 6c3d 4eb1 cb3d
00000120: 28e8 47bd 6290 8abc f654 473d 3d50 823d
00000130: 39d2 e13d 88f3 99bc a5ed 6a3a 401d 933d
00000140: 501c 8c3d f5f0 9a3d 0ddb a53d a0c3 033d
00000150: 65e0 81b8 6d13 293a 317a 20bd cd72 b73d
00000160: ecf0 adbd 70fb 27bd 278d 893d 549c 9fbc
00000170: 4ad7 a3bd a800 de3d 117f 5a3d 2d96 bc3d
00000180: 6b67 93bc a2c4 d83c a1ec b63d a413 f8bb
00000190: f233 a1b9 7156 9d3d 8625 4c3d 1ca8 2a3d
000001a0: cd4a 9dbd 6ffe 2a3d a465 93bd 5e7b 873d
000001b0: b383 d83b 5960 81bd 420a c63b 717b cb3d
000001c0: f5c9 243d a790 0e3d 3aec 90bd 260d 253d
000001d0: 6ce5 193d 8d2b a4bd ecb7 db3c e906 8f3c
000001e0: 7510 a63d ed70 943d 45aa 4ebd 8427 363d
000001f0: 7fee 353b e8e7 19bd f700 05bc 91fb 933d
00000200: 3b1f 303c 5f53 e9bc 32d4 ce3d e246 18bc
00000210: f3da f93c 93ea 24bd 036e 543c ded1 b83c
00000220: c1d5 a63d 2581 d0bd 7de5 26bd f722 9d3d
00000230: 7d5f 423d a3fd 43bb 75de 083d 60c0 053d
00000240: f840 a9bc 9833 843d 9e46 47bc a91c 153d
00000250: 6795 ac3c 4618 89bd e8fb ee3c 24e3 9b3c
00000260: c73a 103d 5119 253d a107 cebc cd9b 01bd
00000270: 426f 6a3c be2a b83c 558b 96bd 1578 3bbd
00000280: 9ba6 9a3d eff6 dabc e25a bebd 1b9e 443d
00000290: d2a5 2c3d 2b98 85bc ac62 093d 5659 ba3d
000002a0: eed7 963d 7a45 30bd e249 e4bd 0ca9 cebc
000002b0: 762b 853d 6d15 3f3d e532 873d 02ce 753d
000002c0: 6f3f 97bd 4e77 8c3d b715 a03d 1ebc e9bc
000002d0: 2687 87bd 2fd1 50bb 3055 7abc c8fd bbbc
000002e0: aaf0 9fbd 72a4 db3c edc8 343d 27b2 49bd
000002f0: 627a 013b 7ea8 10bd d19a 9f3d 7719 a63d
00000300: b04a ca3c 74e4 a23d ba16 c23d 01cc cebd
00000310: 9232 9dbd ebf3 1d3d 5fca 35bd a375 f43c
00000320: 615f 843d fce6 673d 26b5 7abc 5879 423d
00000330: b3ae 85bd 1f71 ba3d c45a 04bd 5648 d63c
00000340: 969a c53d 7aa2 813d a814 03bb 10b3 fc3d
00000350: 9538 acbc 667f 983d c093 3b3d 8a3b b13c
00000360: 4156 6e3d e136 eabd e503 073d 898c de3b
00000370: bacc 013d ca1d 5bbd 4d35 aa3b 005e 4cbd
00000380: 4875 69bd 1870 bfbc c788 96bc 0358 1e3c
00000390: 3ca0 983d c9d3 d03d aea9 023d 8573 07be
000003a0: 4f7b 15bd 3a42 b43a 219e 2cbd e59c 833c
000003b0: 7867 b53c 9e28 e93a 928d bc3b 9e40 9abc
000003c0: 6c03 3f3c 109e 003d bce3 9abd 3f04 893d
000003d0: d8e8 153d 1b11 b13b 8e85 50bd 015e b03d
000003e0: b292 263d 854d b83d 4295 ea3c ff85 473d
000003f0: ce8f c2bb fedc 473d 131f c23d ffab 963d

bond_lin.weight f4 [300, 23]
-5.931039e-12 -0.39409113 -0.14010912 0.11830336 5.335621e-08 -6.345825e-12 1.13227925e-05 -4.1425353e-32
0.00021861667 0.00030868736 -0.0009237956 -2.1707184e-18 0.38507944 7.827794e-13 -1.3406144e-15 4.2581087e-05
-0.00080058596 1.0389308e-11 5.4444123e-14 6.761767e-14 3.3114046e-25 2.0613336e-17 4.4079043e-05 3.8488505e-16
-0.36345914 -0.50139785 0.4058967 2.806287e-07 -4.267749e-29 0.0002529626 1.6928941e-06 8.229693e-09
4.4258628e-11 1.8922454e-05 4.360829e-06 0.3384297 2.4708995e-18 1.9725985e-19 3.935503e-13 4.907713e-39
-2.0557708e-17 -1.3160831e-21 -2.5286522e-09 -0.0006619474 3.4028357e-30 9.72099e-15 4.7638763e-16 -0.114021406
0.3588904 0.34450135 4.910235e-39 7.35945e-18 0.0002618633 3.925907e-12 -6.1285176e-28 5.3537457e-05
-2.526651e-09 -1.0444114e-05 -0.2152719 -0.0007578797 0.00012597001 2.460075e-12 -1.6092435e-21 4.4503958e-12
2.2570252e-05 1.3782115e-07 7.040551e-05 -7.800679e-10 1.1522379e-32 -3.4539949e-07 -0.09989547 -0.5826022
0.31846946 -4.698567e-26 0.00010276904 0.00037306902 -3.9292813e-06 -0.0009965653 -1.9520748e-30 0.00071696984
1.5452966e-05 -0.44463554 -2.472241e-28 1.5132463e-12 0.0005095779 3.2408467e-09 -0.00069360883 0.0004675732
-3.866011e-24 4.4623334e-06 4.011045e-09 -1.7804849e-10 -7.1114094e-23 0.2524295 -0.20515682 0.33726215
-2.1903556e-15 -1.8494401e-06 -2.312364e-20 -4.7484843e-07 8.755009e-16 -2.5127418e-26 1.3146143e-10 -1.8476722e-10
0.08950583 -1.1178355e-05 0.00043366145 3.5951133e-13 -6.984053e-05 0.0012781946 1.8299022e-11 4.7461354e-26
2.831764e-20 1.0783836e-05 -0.00019351568 3.4510654e-12 0.15711245 0.49097222 0.30245546 -5.233462e-18
1.5375316e-25 3.682877e-18 -1.38111445e-05 -2.3458716e-10 0.00093663525 -0.0001416473 -2.756675e-19 -0.0645001
2.7747387e-08 2.1898727e-09 -9.809004e-06 -5.247509e-08 -2.2572484e-10 -1.8327053e-05 -3.541504e-05 4.911784e-39
1.881318e-07 1.4568735e-09 5.8149116e-08 -0.33664715 -0.35779262 -0.32425046 3.1072868e-13 -0.00022078288
3.2882082e-29 1.811493e-12 -1.0246562e-07 9.788658e-13 4.0554105e-14 -1.3522098e-09 0.25983116 6.6967872e-18
-1.0372943e-08 5.8726792e-09 -3.5535955e-10 -1.8648216e-15 -1.5354866e-08 -6.321584e-33 5.719656e-18 -2.5488464e-22
-8.2781116e-05 -4.553256e-13 -0.32780936 0.09657374 0.4362361 -1.4450546e-20 -3.894888e-09 8.069736e-11
2.4098748e-12 1.5010508e-22 7.9269414e-22 -1.2017173e-05 -0.00026448345 0.04692195 -1.0399338e-09 3.517615e-09
-2.6959117e-25 0.00035429883 7.307187e-17 -5.3156063e-10 1.551299e-08 -1.0952614e-06 -1.39277585e-14 0.00073669
-6.3039936e-25 0.5324556 0.071651995 -0.06292361 1.8733584e-06 1.0865451e-27 -2.9210162e-19 3.5106462e-33
-0.0006674889 7.0373276e-18 1.6911996e-12 2.2962472e-10 -0.08799587 6.554764e-11 -1.7175333e-05 1.2482787e-05
0.00014402987 -1.7261309e-05 5.7938178e-21 1.0006415e-06 -0.00022584648 9.604696e-16 0.00040728608 0.00011342374
0.38490626 0.22776206 0.14399189 -6.9863916e-08 7.340927e-27 -5.1966207e-14 -3.396041e-07 -2.0565227e-19
2.9509784e-09 -2.423844e-10 6.749831e-07 -0.2975946 -4.898495e-39 -7.735096e-09 -4.5738344e-32 -0.00043996525
5.3159022e-14 -7.684887e-22 -5.6930722e-30 3.488827e-07 -3.596619e-12 -1.7904483e-12 3.3057455e-35 0.023536893
0.4092091 -0.35620755 2.790185e-06 2.6847848e-19 -8.611262e-10 -4.906526e-39 -0.00037708733 0.0001810829
-1.29548e-09 3.7361731e-28 -0.15702271 -0.00019044617 1.0702548e-27 5.366118e-25 1.6019593e-06 -1.2277771e-06
-0.0011667926 -0.00042814753 -4.3385012e-23 1.8308638e-15 -4.043297e-18 -2.9633664e-11 -0.078758396 0.043206923
00000000: 0dae d0ac 50c6 c9be c478 0fbe 0849 f23d
00000010: c629 6533 1c46 dfac 06f7 3d37 bd17 578b
00000020: 773c 6539 51d7 a139 e02a 72ba b62b 20a2
00000030: 2229 c53e 3355 5c2b f133 c1a6 1899 3238
00000040: 6ade 51ba 49c5 362d cd31 7529 ef42 9829
00000050: 4df7 cc16 dd1f be23 83e1 3838 02df dd25
00000060: 5117 babe 9c5b 00bf b1d1 cf3e 51a9 9634
00000070: 8d66 5890 11a0 8439 6637 e335 9362 0d32
00000080: c9a6 422e a9bb 9e37 3c53 9236 a846 ad3e
00000090: f951 3622 22e2 6820 938c dd2a b570 3500
000000a0: 849c bda3 80e1 c69c 85c4 2db1 8a86 2dba
000000b0: 1109 8a0e 271e 2f28 344f 0926 0e84 e9bd
000000c0: 7cc0 b73e 7b62 b03e bd77 3500 05c2 0723
000000d0: b24a 8939 6d21 8a2c 7138 4292 688d 6038
000000e0: 51a1 2db1 2139 2fb7 3d70 5cbe 72ac 46ba
000000f0: d116 0439 c51c 2d2c 982e f39c 9a95 9c2c
00000100: 3f55 bd37 fdfb 1334 aca6 9338 666c 56b0
00000110: 7a4f 6f0a 586f b9b4 ff95 ccbd 6b25 15bf
00000120: 6e0e a33e 6aa9 6895 b585 d738 7a98 c339
00000130: 45d8 83b6 2f9f 82ba 025f 1e8e 08f3 3b3a
00000140: fea0 8137 45a7 e3be 67b2 9c91 72f8 d42b
00000150: 3295 053a 94b5 5e31 4dd3 35ba 9d24 f539
00000160: 1e8f 9598 27bb 9536 86d1 8931 32c4 43af
00000170: 7ef1 ab9a 703e 813e a114 52be a0ad ac3e
00000180: eed4 1da7 473a f8b5 8865 da9e acee feb4
00000190: 9058 7c26 93d9 f894 1a8b 102f 5927 4baf
000001a0: d54e b73d ab8a 3bb7 0e5d e339 0b63 ca2a
000001b0: 5977 92b8 1889 a73a bcf5 a02d 6a04 6b15
000001c0: edb9 051f 39ec 3437 78ea 4ab9 ded8 722c
000001d0: 16e2 203e b660 fb3e 71db 9a3e a714 c1a2
000001e0: 5256 3e16 cadf 8722 6ab6 67b7 35f7 80af
000001f0: 8788 753a 2887 14b9 b2b9 a2a0 a118 84bd
00000200: 2659 ee32 a67c 1631 5a91 24b7 f960 61b3
00000210: e52f 78af 0cbd 99b7 9c8a 14b8 0e7c 3500
00000220: 4701 4a34 2e3b c830 a1bf 7933 045d acbe
00000230: 9830 b7be 2804 a6be b9ec ae2a f481 67b9
00000240: 62bb 2610 eaf1 fe2b 120b dcb3 5bc3 892b
00000250: b3a3 3629 a7d8 b9b0 9708 853e 5e11 f722
00000260: b034 32b2 a2c8 c931 695c c3af e35f 06a7
00000270: b5e5 83b2 4e4b 038a a004 d322 7d11 9a9b
00000280: c69a adb8 ab29 00ab a1d6 a7be 74c8 c53d
00000290: 575a df3e 477b 889e ccd3 85b1 9374 b12e
000002a0: 7294 292c 4677 351b bd93 6f1c 5d9d 49b7
000002b0: 5eaa 8ab9 3b31 403d 6bed 8eb0 8aba 7131
000002c0: 6dde a696 2fc1 b939 057e a824 411d 12b0
000002d0: 6d41 8532 e500 93b5 73e6 7aa8 6e1e 413a
000002e0: 6219 4397 034f 083f 48be 923d 18de 80bd
000002f0: 1b70 fb35 812b ac12 266d aca0 98d3 9109
00000300: 6cfa 2eba d7d0 0123 e303 ee2b 9d79 7c2f
00000310: 2e37 b4bd 0a24 902e bf13 90b7 296d 5137
00000320: b906 1739 61cc 90b7 5ee2 da1d c84d 8635
00000330: 34d1 6cb9 136b 8a26 0389 d539 e8dd ed38
00000340: 6f12 c53e 753a 693e 9c72 133e 1808 96b3
00000350: ec66 1114 f508 6aa9 d552 b6b4 96ca 72a0
00000360: 29ca 4a31 9240 85af 7c30 3535 525e 98be
00000370: 0357 3580 50e3 04b2 b07c 6d8b 23ab e6b9
00000380: 2e68 6f29 ef42 689c 3ef0 e68e 134e bb34
00000390: ee16 7dac b3fb fbab 7ac3 2f06 71d0 c03c
000003a0: db83 d13e d660 b6be 033f 3b36 527b 9e20
000003b0: 5fb4 6cb0 666d 3580 ceb3 c5b9 12e1 3d39
000003c0: a60c b2b0 e0ce ec11 90ca 20be 81b2 47b9
000003d0: b196 a912 c412 2617 e702 d735 1aca a4b5
000003e0: 10ef 98ba fd78 e0b9 0bcc 519a 7aed 0327
000003f0: dc2b 95a2 8a54 02ae 154c a1bd bef9 303d

bond_lin.bias f4 [300]
-0.15332924 0.12389569 0.23945288 0.066149496 -0.029912818 0.16437732 0.09839763 0.20457168
0.1929818 0.04268488 0.08595024 0.15513675 0.14982131 0.0047542937 0.12397223 0.16358826
-0.14850608 0.23642819 -1.1621116e-23 0.24301974 0.14946796 -0.06539142 0.005867004 0.060031727
0.0844078 0.09183554 -0.16787826 0.10728726 0.075582005 0.019741325 -0.038334355 0.01735756
-0.024161179 0.059644807 -0.0066773654 0.113808766 -0.22657448 -0.21020372 0.21311328 -0.21360481
-0.081515804 0.1392026 -0.079243645 0.011867749 -0.12691012 0.082988255 0.19957933 0.036117025
-0.094024666 0.11622807 -0.12934433 0.15970355 0.11327507 -0.20221044 -0.20080528 0.055472165
0.16925766 0.008009054 -0.06615194 -0.2788375 0.12400504 -0.096195556 0.016460715 -0.0538338
-0.1113515 0.1687905 0.007215951 -0.024249917 0.030222906 -0.12259596 0.20783749 0.18517314
-0.024590958 0.2039082 0.13837734 -0.24805452 -0.109519444 -0.25654528 -0.05662256 0.12114982
0.188505 -0.026822316 0.17901598 -0.23253728 -0.21763785 -0.20397334 -0.21706097 0.039594684
0.092676856 0.055870473 0.14460458 -0.017207313 -0.068684876 0.040143255 0.14199196 0.2361605
-0.13138056 0.17288889 0.1864152 -0.17775175 0.18625927 0.2050107 0.12993807 0.2121432
0.054374218 0.11585819 -0.13142078 -0.034644235 -0.13922411 -0.2311263 0.13527925 0.10928209
0.0010686639 0.20124042 -0.059952557 -0.023511974 -0.01539302 -0.0023288769 0.16686742 0.022116018
0.11881017 0.060014427 0.064087465 0.12552491 -0.01381077 -0.15942393 -0.1747864 -0.23976344
0.23753273 -0.25193885 0.01272332 -0.20032932 -0.10025972 0.024944374 -0.04499161 -0.08394594
-0.15573367 -0.07453513 -0.14450017 -0.120097116 0.14603245 0.028612407 0.12676598 -0.011754568
0.14570557 -0.14260757 -0.2460833 -0.007221469 0.07313227 0.0075763483 0.086467795 -0.1581011
0.075184934 -0.063551806 0.19208935 0.04155868 0.03154878 -0.21813422 0.06055786 -0.018784191
-0.1290328 -0.034013182 0.048574585 0.071834 0.109187156 -0.13690005 -0.1441626 -0.2849479
0.035829112 0.057943 -0.10357321 0.112443216 0.21709228 0.015292919 -0.16257055 0.13577697
0.22551528 0.014312511 0.19283623 0.089059465 -0.08146973 -0.042312916 0.09141063 -0.13004608
0.119363725 -0.22861762 -0.21693088 -0.16721609 0.23722966 -0.107990935 -0.010181542 -0.23204492
0.018317109 0.16021965 -0.2664655 0.046927948 -0.10898916 -0.11364726 0.040467776 0.23989879
0.039256066 -0.16391656 0.17513615 -0.10141898 -0.20326358 -0.14560147 -0.032750815 0.17897752
0.09569213 -0.25288904 0.22271748 0.1144188 -0.13591634 -0.15762936 0.13455704 0.08853156
-0.12233745 0.02348267 -0.16325445 -0.24688073 -0.21194217 0.11797499 -0.08684716 -0.034534592
-0.24700671 0.34502748 0.15986505 0.045213997 -0.12656619 0.09440483 0.268361 -0.035034437
-0.10497544 -0.055558484 0.22311282 -0.028178623 0.06029716 -0.23562393 0.013861758 -0.02242889
0.089287795 0.20277783 -0.27809706 0.18687141 0.0844656 0.14687099 -0.1198451 0.17970122
-0.017714955 -0.12175439 -0.10585082 0.18540536 0.0020401806 -0.14322388 -0.10635515 -0.13885015
00000000: 5702 1dbe 06bd fd3d 2333 753e 6379 873d
00000010: ba0b f5bc 8752 283e b284 c93d 3d7b 513e
00000020: 059d 453e 57d6 2e3d ae06 b03d 2bdc 1e3e
00000030: c26a 193e e8c9 9b3b 27e5 fd3d ae83 273e
00000040: fa11 18be 3b1a 723e fbc8 6099 2bda 783e
00000050: 210e 193e f0eb 85bd ff3f c03b d4e3 753d
00000060: ffdd ac3d 4614 bc3d 47e8 2bbe 6cb9 db3d
00000070: bdca 9a3d 8fb8 a13c 7c04 1dbd 7131 8e3c
00000080: aaed c5bc 1d4e 743d cdcd dabb 9214 e93d
00000090: 2403 68be a53f 57be 5e3a 5a3e 38bb 5abe
000000a0: c2f1 a6bd 208b 0e3e 7e4a a2bd f270 423c
000000b0: baf4 01be bff5 a93d 865e 4c3e 72ef 133d
000000c0: 0190 c0bd fb08 ee3d d772 04be 5489 233e
000000d0: c3fc e73d 4110 4fbe e69f 4dbe c836 633d
000000e0: e151 2d3e 6838 033c ab7a 87bd cac3 8ebe
000000f0: 5bf6 fd3d 2d02 c5bd 9fd8 863c d580 5cbd
00000100: 410c e4bd 6bd7 2c3e c973 ec3b c3a7 c6bc
00000110: 0796 f73c 9713 fbbd 5ad3 543e 079e 3d3e
00000120: fa72 c9bc 50cd 503e cab2 0d3e 0102 7ebe
00000130: bb4b e0bd e759 83be 0fed 67bd 661d f83d
00000140: 7407 413e 79ba dbbc f74f 373e 411e 6ebe
00000150: 75dc 5ebe 63de 50be 3b45 5ebe 092e 223d
00000160: 5dcd bd3d 70d8 643d 3913 143e 5af6 8cbc
00000170: a8aa 8cbd 416d 243d 5766 113e 0fd4 713e
00000180: a088 06be c909 313e a0e3 3e3e 8e04 36be
00000190: c0ba 3e3e 53ee 513e 7c0e 053e 113c 593e
000001a0: 80b7 5e3d 0f47 ed3d 2b93 06be 1de7 0dbd
000001b0: c490 0ebe 5fac 6cbe a586 0a3e 4acf df3d
000001c0: 6912 8c3a f811 4e3e d090 75bd 2f9c c0bc
000001d0: 0133 7cbc 12a0 18bb 4bdf 2a3e a72c b53c
000001e0: bf52 f33d b0d1 753d 4a40 833d 9a89 003e
000001f0: 9146 62bc 0740 23be 35fb 32be 8c84 75be
00000200: c83b 733e 21fe 80be 7975 503c 2123 4dbe
00000210: f854 cdbd 2558 cc3c 1f49 38bd d9eb abbd
00000220: a678 1fbe e0a5 98bd daf7 13be 7af5 f5bd
00000230: 8889 153e 9164 ea3c f1ce 013e 3b96 40bc
00000240: d733 153e b807 12be 43fd 7bbe 13a2 ecbb
00000250: 5fc6 953d 0443 f83b 0716 b13d 41e5 21be
00000260: 8ffa 993d 7327 82bd 12b3 443e 6f39 2a3d
00000270: 4b39 013d 945e 5fbe 850b 783d 4ee1 99bc
00000280: 2d21 04be 6851 0bbd 25f6 463d b41d 933d
00000290: 849d df3d 872f 0cbe 5c9f 13be b1e4 91be
000002a0: 8cc1 123d a455 6d3d 311e d4bd a148 e63d
000002b0: 704d 5e3e 278f 7a3c e578 26be 1e09 0b3e
000002c0: 7aed 663e 067f 6a3c dc76 453e cf64 b63d
000002d0: 9ad9 a6bd 4f50 2dbd 7f35 bb3d cd2a 05be
000002e0: f874 f43d bd1a 6abe 2123 5ebe b23a 2bbe
000002f0: 55ec 723e 5a2a ddbd 7bd0 26bc 2f9d 6dbe
00000300: c30d 963c 9f10 243e 2b6e 88be 8537 403d
00000310: b535 dfbd e5bf e8bd 8ac1 253d 07a8 753e
00000320: f8ca 203d bed9 27be e456 333e c1b4 cfbd
00000330: 5424 50be 8d18 15be b825 06bd e245 373e
00000340: 3cfa c33d ac7a 81be 0d10 643e 6754 ea3d
00000350: a72d 0bbe 9769 21be 52c9 093e 0950 b53d
00000360: 0f8c fabd ba5e c03c 2d2c 27be 4dce 7cbe
00000370: 5e07 59be df9c f13d ecdc b1bd 2574 0dbd
00000380: 54ef 7cbe 71a7 b03e aab3 233e 5032 393d
00000390: 919a 01be 5257 c13d 9d66 893e 4580 0fbd
000003a0: 5dfd d6bd 4b91 63bd b077 643e dbd6 e6bc
000003b0: 28fa 763d 6647 71be 6d1c 633c cbbc b7bc
000003c0: 85dc b63d fea4 4f3e bd62 8ebe 385b 3f3e
000003d0: 4dfc ac3d 5965 163e 5971 f5bd 9903 383e
000003e0: f41e 91bc 5e5a f9bd 51c8 d8bd e7da 3d3e
000003f0: 8db4 053b 48a9 12be bbd0 d9bd bc2e 0ebe

energy_lin.1.weight f4 [300, 300]
0.15269285 -0.061763994 0.06263597 0.1429798 0.017860243 -0.044879258 0.18539467 0.0023059433
0.094600886 -0.13000178 -0.045296166 -0.11837614 0.01580525 0.033602845 0.06473805 0.082863174
0.15253375 0.31010765 8.8042386e-35 -0.034450635 0.02503283 0.019680014 0.07335144 -0.063599825
0.0013060465 0.13778755 0.13701455 -0.14911568 -0.036231395 0.07835569 0.11080137 -0.092208914
-0.06341144 0.040027127 -0.03330042 0.0933596 0.066017225 0.027562497 -0.04257565 -0.048881
-0.094749056 -0.00394728 -0.019080963 0.059312783 0.0049332967 -0.09081608 -0.04996725 0.118532605
0.086934656 -0.067106925 0.05248957 0.0513393 0.08720154 -0.07453646 0.14815582 -0.028590225
-0.087436594 -0.08956197 -0.05009251 0.17354463 -0.065482326 0.020336835 -0.07992473 -0.117014185
0.025409697 0.15671827 -0.076786995 -0.08852099 -0.067181624 0.091421306 0.0791941 0.032978196
-0.11645089 -0.101655476 -0.011008881 -0.059238877 0.1625915 -0.09719781 -0.13184892 0.000908197
0.059234705 -0.13778257 0.15193903 -0.04329063 0.1294084 -0.08195945 0.14663902 0.29878548
-0.001791954 0.010681005 0.06695835 -0.035679843 -0.056593005 0.022812959 0.052666318 0.025968472
-0.00510957 0.062203377 -0.080645286 0.12375427 -0.065125756 -0.00080249103 -0.12571299 0.086954825
0.1452463 0.14237702 -0.0039438503 -0.020083003 -0.10775881 0.16969998 0.21084301 -0.0072275447
0.034723103 0.05935698 0.085450046 0.1270253 -0.02672216 -0.0041489387 0.027358577 0.020715807
-0.065084964 0.14829879 -0.102343135 0.1360146 0.071804345 0.13106275 0.07629676 0.03351761
0.1546343 0.0742512 0.08572283 0.07680133 -0.08554212 0.014528783 0.0020655717 -0.07163265
0.049712095 0.02966243 -0.0021096102 -0.07024216 0.13927765 -0.021937368 -0.0037692639 0.10928931
0.061476626 -0.097800404 0.029901255 -0.1473795 0.009083853 -0.07039966 0.13840331 0.15221156
-0.096878596 -0.0682431 -0.11424184 0.14029166 -0.066904925 -0.08470176 -0.08977858 0.102712154
-0.09194245 0.09754458 -0.12478013 -0.11485847 -0.12441473 0.024237301 0.018613998 -0.0848787
-0.15205513 -0.012560921 0.005492478 -0.09031408 -0.07245768 0.015300744 -0.07647601 0.09294708
-0.07228897 0.016132869 -0.10616425 0.10866386 0.020650882 -0.108087234 0.003803962 -0.058458857
0.13729957 0.05830155 0.13121876 0.046119004 -0.016031068 0.119678035 0.013560754 -0.09078954
-0.0799854 0.03532292 0.14096943 0.10534603 0.14592767 0.07039245 0.13334459 0.018927844
0.020455917 0.11294663 0.132745 -0.06326783 0.13956861 -0.044094704 -0.13207334 0.17721698
-0.09084857 -0.05217663 0.10488525 0.061790153 0.085342154 0.0006344254 0.06507978 -0.082178466
0.078779 -0.089086644 0.026107447 0.026889525 -0.07864623 -0.11598107 0.03345515 0.028921492
-0.015127636 -0.11057772 -0.1570078 0.0023395934 0.02177826 -0.022798868 -0.25377017 -0.070633054
0.06961212 0.11220083 -0.12248723 0.008001106 0.16995719 0.0460779 0.25679114 0.01284763
0.08710035 0.077736475 0.063265644 -0.06780608 -0.2002865 0.12904344 -0.032738663 -0.102409996
0.15091328 -0.11569462 -0.052675452 0.03835324 -0.0010106465 0.045758974 -0.046792064 -0.11482314
00000000: 845b 1c3e 3efc 7cbd 4a47 803d 4c69 123e
00000010: a54f 923c 50d3 37bd 1ad8 3d3e 4f1f 173b
00000020: 1cbe c13d 301f 05be 7988 39bd 316f f2bd
00000030: 037a 813c 23a3 093d 6295 843d 2bb4 a93d
00000040: cf31 1c3e 6ec6 9e3e 8b0e ea06 1c1c 0dbd
00000050: a611 cd3c fb37 a13c 4839 963d a040 82bd
00000060: a62f ab3a 2e18 0d3e 8b4d 0c3e c8b1 18be
00000070: 5f67 14bd f378 a03d d4eb e23d 07d8 bcbd
00000080: dbdd 81bd 7cf3 233d 0566 08bd 5133 bf3d
00000090: 0a34 873d bfca e13c ce63 2ebd 7237 48bd
000000a0: cb0b c2bd 2f58 81bb ae4f 9cbc f6f1 723d
000000b0: 7ea7 a13b c8fd b9bd 76aa 4cbd 39c1 f23d
000000c0: cc0a b23d 5b6f 89bd 4eff 563d 2849 523d
000000d0: b996 b23d 92a6 98bd 29b6 173e 0c36 eabc
000000e0: f511 b3bd 446c b7bd ce2d 4dbd afb5 313e
000000f0: 991b 86bd 6f99 a63c 94af a3bd 22a5 efbd
00000100: ff27 d03c c17a 203e 8042 9dbd 7e4a b5bd
00000110: 8596 89bd 183b bb3d 8430 a23d 2514 073d
00000120: ce7d eebd bf30 d0bd 985e 34bc 77a4 72bd
00000130: 637e 263e a50f c7bd 6703 07be 1214 6e3a
00000140: 17a0 723d e016 0dbe e895 1b3e 8451 31bd
00000150: a383 043e 5bda a7bd 8a28 163e 69fa 983e
00000160: 00e0 eaba 62ff 2e3c 7621 893d 0725 12bd
00000170: 11ce 67bd 3ee2 ba3c a3b8 573d d5bb d43c
00000180: 2e6e a7bb f8c8 7e3d 5b29 a5bd e172 fd3d
00000190: a760 85bd 435e 52ba e8ba 00be 5f15 b23d
000001a0: 72bb 143e 48cb 113e 6a3b 81bb 1c85 a4bc
000001b0: a7b0 dcbd d5c5 2d3e 3be7 573e 0ad5 ecbb
000001c0: d039 0e3d 4e20 733d 6f00 af3d ec12 023e
000001d0: 6ee8 dabc d2f3 87bb 181f e03c 32b4 a93c
000001e0: 444b 85bd a3db 173e 4799 d1bd 6947 0b3e
000001f0: 280e 933d 5035 063e 7a41 9c3d c349 093d
00000200: 7458 1e3e 0311 983d 738f af3d 044a 9d3d
00000210: b530 afbd 220a 6e3c 8b5e 073b 24b4 92bd
00000220: e99e 4b3d a0fe f23c 6341 0abb 1fdb 8fbd
00000230: cd9e 0e3e ffb5 b3bc c105 77bb 13d3 df3d
00000240: eace 7b3d 944b c8bd 7af3 f43c a7ea 16be
00000250: 71d4 143c b22d 90bd 99b9 0d3e 59dd 1b3e
00000260: 4968 c6bd 0ac3 8bbd a0f7 e9bd 9ea8 0f3e
00000270: 7305 89bd 1e78 adbd d5dd b7bd c05a d23d
00000280: 534c bcbd 74c5 c73d ba8c ffbd eb3a ebbd
00000290: 26cd febd 4e8d c63c 627c 983c e2d4 adbd
000002a0: 57b4 1bbe 52cc 4dbc 3ffa b33b 97f6 b8bd
000002b0: b164 94bd f9af 7a3c 749f 9cbd 0a5b be3d
000002c0: 3d0c 94bd 1429 843c a46c d9bd 288b de3d
000002d0: 0a2c a93c d75c ddbd e44b 793b 8e72 6fbd
000002e0: 4298 0c3e 9bcd 6e3d 365e 063e 48e7 3c3d
000002f0: 9653 83bc c219 f53d ed2d 5e3c deef b9bd
00000300: 63cf a3bd c4ae 103d 4a5a 103e a9bf d73d
00000310: 106e 153e eb29 903d 7c8b 083e 910e 9b3c
00000320: 2b93 a73c 9050 e73d 4eee 073e 9092 81bd
00000330: 13eb 0e3e a69c 34bd 3c3e 07be 5e78 353e
00000340: d10e babd 29b7 55bd 14ce d63d ac17 7d3d
00000350: dec7 ae3d 914f 263a 8c48 853d 2f4d a8bd
00000360: e256 a13d 0f73 b6bd 49df d53c 6c47 dc3c
00000370: 4611 a1bd 7c87 edbd 4408 093d c4ec ec3c
00000380: e7d9 77bc 9276 e2bd a7c6 20be dd53 193b
00000390: 5268 b23c b1c4 babc 2aee 81be 10a8 90bd
000003a0: cd90 8e3d 8cc9 e53d 96da fabd 1217 033c
000003b0: 4209 2e3e 2ebc 3c3d 217a 833e de7e 523c
000003c0: ab61 b23d 4d34 9f3d 6b91 813d eadd 8abd
000003d0: e717 4dbe f723 043e fa18 06bd 55bc d1bd
000003e0: 0389 1a3e 4df1 ecbd 37c2 57bd 4918 1d3d
000003f0: ab77 84ba c36d 3b3d 09a9 3fbd 6528 ebbd

energy_lin.1.bias f4 [300]
-0.019688703 0.012587955 0.048328575 0.03068736 0.038081087 -0.043598805 0.04515428 0.04767887
0.013213251 0.055268135 -0.012514984 0.030076733 0.05543781 0.031060852 7.819593e-05 -0.01598759
0.041143563 -0.018438736 0.0220217 -0.027184524 0.046830352 0.05226948 -0.008335059 0.040844582
0.05782959 -0.012160401 0.037303228 -0.033292472 0.04931753 0.03198108 0.058679506 -0.044316914
-0.02602285 -0.028340656 0.065828666 -0.009304914 0.023564631 -0.017183142 -0.007807247 -0.047875054
0.031181369 -0.02013091 0.070580244 0.04326522 -0.0586316 -0.015843118 0.057990864 -0.018684177
0.020243732 -0.035209678 -0.020962235 -0.0038717755 -0.015419279 0.01588338 0.018842593 -0.036773942
0.052420523 0.02287367 0.013748071 -0.023009576 0.014589057 -0.0026748155 0.04103242 0.0016972347
0.04946364 -0.044023596 -0.002869843 -0.014810329 -0.0025638763 0.0035089382 0.02421128 0.0043607648
0.06266968 0.009692739 -0.021550275 0.03807795 0.06244557 0.026057132 -0.009083291 -0.029115887
0.02235318 0.007464523 -0.0028532066 0.06717287 0.041443266 -7.083682e-18 -0.026538726 -0.043981317
0.0022690082 0.055177223 -0.017828569 0.08033447 0.011316668 0.041540593 0.048593413 0.025252081
-0.024372911 0.024583278 0.06993717 -0.03263817 0.02459788 0.05502223 0.02658118 0.09049027
0.06654597 -0.026573148 0.053806 -0.059705127 0.062486224 0.04596886 -0.000358955 0.00591443
0.013095879 -0.015190481 -0.023411458 0.021509372 0.04919791 0.037758827 0.013681076 0.01678185
-0.015881224 -0.053495962 0.03449955 0.025820991 -0.016550114 0.07970504 0.025720943 -0.027011309
-0.0027331512 0.049551483 -0.053744424 0.03974883 0.067240626 0.017166348 -0.044406503 -0.019212896
-0.021260096 0.061625473 -0.010020472 -0.022633092 4.904584e-39 0.054511875 -0.001709161 -0.0045514596
0.058952462 0.06992211 0.0017200925 -0.0010593456 0.069991946 0.00034744904 0.07225131 0.058574166
0.052951604 0.06846709 0.058419395 0.006454662 0.044704575 0.040634654 0.015202016 -0.022019409
-0.00077098334 -0.012801011 0.015899112 0.03809425 0.02670309 0.036579657 0.03773142 0.04339371
0.006201005 0.0076699187 0.061274868 0.013713268 0.05258201 -0.03035399 -0.009710375 0.007630508
-0.0061491253 0.007711394 0.046068855 0.08514453 0.09858007 0.09349455 0.085704446 -0.02437599
0.03387998 0.039303444 0.064502515 0.06466626 0.0013648196 0.022341643 0.05640807 0.042628337
0.009984272 0.052572787 0.023626398 0.017611481 -0.027607866 0.042084202 0.033182096 0.01608842
0.046935968 0.01997303 -0.024788408 0.06760604 0.05130875 -0.044427756 0.009560656 0.0039123436
0.044855125 0.094974354 0.06737116 0.04117771 -0.0259855 0.021850184 -0.06586032 0.016460089
-0.017666534 -0.0078088925 -0.007918609 0.03359938 0.01315818 0.039981388 0.010140562 -0.018658554
0.04557457 0.024572676 0.017771374 0.027830143 -0.03992031 0.031095674 0.07286239 -0.009269271
0.0572993 0.03539421 -4.6792076e-21 -0.0068360674 0.0039965995 0.07783558 0.0012496293 0.039805915
0.05034202 0.011140346 0.042310223 -0.05458583 0.06911047 0.0029656803 0.057447813 0.013654181
0.024638314 -0.05587418 0.030283276 0.016484406 -0.038638026 -0.037981667 0.027024277 -0.017685257
00000000: 344a a1bc b63d 4e3c 2ff4 453d 0f64 fb3c
00000010: eafa 1b3d a994 32bd b2f3 383d eb4a 433d
00000020: 647c 583c d760 623d a60b 4dbc 7b63 f63c
00000030: c212 633d 5473 fe3c 1ffd a338 68f8 82bc
00000040: 2786 283d d50c 97bc da66 b43c 14b2 debc
00000050: 2fd1 3f3d 8618 563d c58f 08bc a64c 273d
00000060: b8de 6c3d 6b3c 47bc 45cb 183d b05d 08bd
00000070: 2e01 4a3d 98fe 023d ec59 703d a785 35bd
00000080: df2d d5bc aa2a e8bc 2ed1 863d a373 18bc
00000090: 9d0a c13c a9c3 8cbc efd3 ffbb a218 44bd
000000a0: 1270 ff3c 94e9 a4bc 608c 903d df36 313d
000000b0: b027 70bd 6dc9 81bc d487 6d3d 8f0f 99bc
000000c0: 2fd6 a53c 0638 10bd feb8 abbc 9dbd 7dbb
000000d0: 25a1 7cbc dd1d 823c c85b 9a3c 46a0 16bd
000000e0: e7b6 563d 9061 bb3c 973f 613c 947e bcbc
000000f0: f106 6f3c f54b 2fbb 9c11 283d bf75 de3a
00000100: 639a 4a3d 1652 34bd fa13 3cbb 06a7 72bc
00000110: b506 28bb 37f6 653b bc56 c63c bfe4 8e3b
00000120: f658 803d 4bce 1e3c 348a b0bc a0f7 1b3d
00000130: edc6 7f3d c475 d53c 15d2 14bc 7184 eebc
00000140: 041e b73c f598 f43b ddfc 3abb ee91 893d
00000150: 6ac0 293d beab 02a3 be67 d9bc c125 34bd
00000160: a4b3 143b 8301 623d 380d 92bc 6686 a43d
00000170: 8c69 393c 7826 2a3d e309 473d 74dd ce3c
00000180: b3a9 c7bc df62 c93c 383b 8f3d 9aaf 05bd
00000190: 7e81 c93c fd5e 613d c6c0 d93c f652 b93d
000001a0: 4149 883d eeaf d9bc ae63 5c3d 5d8d 74bd
000001b0: 8ef1 7f3d d849 3c3d 2032 bcb9 d6cd c13b
000001c0: 1990 563c 7fe1 78bc 63c9 bfbc 6c34 b03c
000001d0: bf83 493d 00a9 1a3d 9726 603c 177a 893c
000001e0: 5719 82bc 951e 5bbd 664f 0d3d 8b86 d33c
000001f0: 1b94 87bc 653c a33d bab4 d23c d246 ddbc
00000200: ab1e 33bb 7ff6 4a3d 1d23 5cbd abcf 223d
00000210: 74b5 893d 71a0 8c3c 98e3 35bd 5d64 9dbc
00000220: a729 aebc fe6a 7c3d e82c 24bc 0969 b9bc
00000230: fc67 3500 d847 5f3d ed05 e0ba 6924 95bb
00000240: 2378 713d 5333 8f3d ba74 e13a bdd9 8aba
00000250: f057 8f3d d229 b639 7ff8 933d 77eb 6f3d
00000260: c8e3 583d 7938 8c3d 2d49 6f3d a181 d33b
00000270: 251c 373d 8670 263d e011 793c 0c62 b4bc
00000280: d11b 4aba 55bb 51bc db3e 823c b708 1c3d
00000290: 70c0 da3c 8dd4 153d 438c 1a3d 9abd 313d
000002a0: cd31 cb3b f153 fb3b 5bfb 7a3d 9dad 603c
000002b0: 3c60 573d eea8 f8bc 4418 1fbc 5709 fa3b
000002c0: 9a7e c9bb ddaf fc3b b2b2 3c3d 4160 ae3d
000002d0: 59e4 c93d 127a bf3d d085 af3d 28b0 c7bc
000002e0: bcc5 0a3d a6fc 203d e519 843d be6f 843d
000002f0: bfe3 b23a d205 b73c 260c 673d 0d9b 2e3d
00000300: 1295 233c 9056 573d 268c c13c f445 903c
00000310: e429 e2bc 7c60 2c3d f3e9 073d ddcb 833c
00000320: ee3f 403d 7b9e a33c 0f11 cbbc 0975 8a3d
00000330: 2029 523d e1f9 35bd 4ca4 1c3c 1e33 803b
00000340: 02ba 373d ea81 c23d e4f9 893d f5a9 283d
00000350: 8bdf d4bc 28ff b23c c7e1 86bd 4fd7 863c
00000360: 68b9 90bc bde1 ffbb 0ebd 01bc 819f 093d
00000370: 6895 573c 86c3 233d 9a24 263c d3d9 98bc
00000380: 66ac 3a3d a34c c93c 4695 913c 0afc e33c
00000390: 7b83 23bd 5bbc fe3c e038 953d 24de 17bc
000003a0: acb2 6a3d 85f9 103d 85c6 b09d 1701 e0bb
000003b0: e8f5 823b 4368 9f3d 9aca a33a 870b 233d
000003c0: 6f33 4e3d ff85 363c 7c4d 2d3d 6495 5fbd
000003d0: ca89 8d3d dc5b 423b 664e 6b3d c9b5 5f3c
000003e0: 4ad6 c93c 53dc 64bd a214 f83c 4e0a 873c
000003f0: e842 1ebd aa92 1bbd 0462 dd3c ace0 90bc

energy_lin.3.weight f4 [150, 300]
0.10729488 0.022850933 0.108070776 0.021040382 0.2918404 0.24056618 0.108408965 0.16311347
0.11191634 -0.037897553 -0.009997978 -0.024742825 0.05361774 -0.12710537 0.0865871 0.15687549
0.13915987 0.16604799 0.09461995 0.118847646 -0.054586835 -0.12262916 -0.0355741 0.16458553
-0.04937396 0.13793276 0.009470211 0.02504486 0.26016924 -0.06896768 -0.05867634 0.008787685
0.05079162 -0.101768166 0.00044369098 -0.030159662 0.071595185 -0.10937524 -0.19707078 0.0010035448
0.059767526 -0.12450783 0.15034635 0.10949522 -0.012734034 -0.04440673 -0.048203588 -0.0034228005
-0.034134846 0.16502498 -0.057257414 0.09241364 0.07597937 -0.041678865 -0.007424752 0.06673118
-0.034121145 0.18539438 -0.021226784 -0.027262118 0.015453497 0.048977282 0.12758642 0.15863582
0.048223116 -0.09296538 -0.118226245 0.043394484 0.051955275 -0.13210675 -0.03787696 -0.060208682
0.018253582 -0.1213329 -0.044409543 0.16150662 -0.009373321 0.10576252 -0.074890375 -0.24725538
0.2737235 0.06896955 0.1355472 -0.026684672 -0.15828198 -1.6930279e-18 -0.2577625 -0.19199935
-0.05018279 -0.00035415596 -0.105588414 -0.08347305 -0.021066418 -0.09826644 -0.23937482 0.020671003
0.013534508 0.07054993 0.16236132 0.04669475 0.14715175 0.049811788 0.059217945 -0.12519135
0.06691443 -0.2018805 -0.10260201 0.05968345 -0.009680759 0.06409168 0.028207097 0.13233286
0.060577303 0.17200162 0.14036898 0.14695929 0.15879583 0.16056672 0.07900801 0.0049453992
0.11672323 0.40013337 0.13401857 0.0598308 -0.10091261 0.019859698 0.008513414 -0.022129565
0.13279603 -0.007327532 0.043027613 0.01392649 0.08591227 -0.051849518 -0.00037337132 -0.13465269
-0.014453593 0.13148977 0.048749913 -0.09497128 -4.8085693e-21 0.015139763 0.062376652 0.0066474536
-0.019009238 0.021359561 0.057740573 1.9162715e-05 -0.16713002 0.08381819 0.009354867 -0.013339129
-0.096126296 0.03902495 -0.0039572357 0.07076775 0.067002155 0.16273166 0.08601849 -0.029214868
0.124951325 -0.11335178 0.10603695 -0.00823855 -0.024724672 -0.3628657 0.15591428 -0.06085659
-0.12983818 0.16166493 0.07753747 -0.031907372 0.07649563 0.19060788 0.012020364 -0.051306374
-0.019959716 0.38397878 0.0025401867 -0.08987149 0.18275252 0.18788917 -0.23937742 0.033724513
0.042906567 0.13953213 0.18716952 0.011849389 0.060889166 0.16076083 -0.025894929 0.16699824
0.12702806 0.047719333 0.1912075 -0.04742266 -0.0038623523 -0.03048585 -0.0148285385 0.02213006
-0.00968597 0.12876031 0.18312602 0.10781059 0.06987269 -0.0064897267 -0.16379364 -0.00017548625
-0.045688234 0.07764418 0.15257362 0.011831854 0.082420945 -0.14419676 0.12422553 -0.061595354
0.15992013 -0.068639085 0.28966793 -0.047436923 0.016031858 0.11427631 -0.083265975 -0.09023247
0.07032764 0.044919036 0.040234443 -0.011274218 0.17498623 -0.13845693 -0.17227557 -0.029861432
-0.20685995 0.16664897 -6.324904e-30 -0.10917518 -0.105999604 0.03842934 -0.16887352 0.062240403
0.015202143 0.0155721875 -0.23435357 0.11448706 0.10842624 -0.20263626 0.12753943 0.09067578
0.3367311 0.47895396 -0.072198525 0.049572777 -0.019333828 -0.01743492 0.10895414 0.009627957
00000000: 6bbd db3d e131 bb3c 3654 dd3d e15c ac3c
00000010: 1b6c 953e fb56 763e 8505 de3d 3807 273e
00000020: 6534 e53d 773a 1bbd 8fce 23bc 77b1 cabc
00000030: 469e 5b3d e927 02be 9454 b13d f8a3 203e
00000040: ed7f 0e3e 7c08 2a3e 1bc8 c13d 6566 f33d
00000050: 7296 5fbd ff24 fbbd 26b6 11bd 1c89 283e
00000060: 593c 4abd 3f3e 0d3e f228 1b3c e12a cd3c
00000070: e734 853e ed3e 8dbd 9a56 70bd 39fa 0f3c
00000080: e00a 503d d46b d0bd 329f e839 6511 f7bc
00000090: 7fa0 923d 2000 e0bd eccc 49be 6089 833a
000000a0: cbce 743d f6fd febd 65f4 193e 083f e03d
000000b0: 69a2 50bc d5e3 35bd 2071 45bd 1051 60bb
000000c0: fbd0 0bbd 4ffc 283e c086 6abd 5d43 bd3d
000000d0: 129b 9b3d 75b7 2abd 564b f3bb 5baa 883d
000000e0: 9dc2 0bbd 06d8 3d3e cbe3 adbc ce54 dfbc
000000f0: aa30 7d3c 679c 483d 04a6 023e 6e71 223e
00000100: 9a85 453d a264 bebd 9a20 f2bd 6abe 313d
00000110: 0ecf 543d fe46 07be df24 1bbd 619d 76bd
00000120: 8988 953c 627d f8bd c8e6 35bd fe61 253e
00000130: 8f92 19bc 059a d83d 2060 99bd 8430 7dbe
00000140: 7d25 8c3e e83f 8d3d e3cc 0a3e d099 dabc
00000150: ac14 22be c9d8 f9a1 72f9 83be 7a9b 44be
00000160: 788c 4dbd 02ae b9b9 bd3e d8bd ebf3 aabd
00000170: 7b93 acbc ea3f c9bd ac1e 75be 3c56 a93c
00000180: d7bf 5d3c 7b7c 903d 0c42 263e ff42 3f3d
00000190: f3ae 163e 7207 4c3d 848e 723d 2932 00be
000001a0: 6f0a 893d c3b9 4ebe 0121 d2bd a276 743d
000001b0: 0c9c 1ebc 8042 833d 9212 e73c 4482 073e
000001c0: e81f 783d 3121 303e e3bc 0f3e 7f7c 163e
000001d0: 609b 223e 9a6b 243e f4ce a13d 040d a23b
000001e0: 970c ef3d 48de cc3e 2a3c 093e 2411 753d
000001f0: 45ab cebd ceb0 a23c d97b 0b3c 1049 b5bc
00000200: affb 073e cb1b f0bb b93d 303d ef2b 643c
00000210: c6f2 af3d 2960 54bd 0dc1 c3b9 65e2 09be
00000220: c3ce 6cbc 41a5 063e fdad 473d 4d80 c2bd
00000230: a1a9 b59d c50c 783c a97e 7f3d e2d2 d93b
00000240: 43b9 9bbc 3ffa ae3c 6181 6c3d 9ebf a037
00000250: 2224 2bbe dfa8 ab3d 2845 193c 5d8c 5abc
00000260: dddd c4bd a0d8 1f3d b3ab 81bb afee 903d
00000270: 6d38 893d 21a3 263e 762a b03d 0554 efbc
00000280: 7be6 ff3d fa24 e8bd e729 d93d fcfa 06bc
00000290: 658b cabc 88c9 b9be fea7 1f3e c244 79bd
000002a0: 4df4 04be 7e8b 253e f7cb 9e3d 4eb1 02bd
000002b0: bea9 9c3d b62e 433e 10f1 443c a226 52bd
000002c0: 8f82 a3bc de98 c43e 4379 263b 8b0e b8bd
000002d0: 7a23 3b3e 0566 403e 5b1f 75be b722 0a3d
000002e0: ccbe 2f3d 83e1 0e3e 5ea9 3f3e f123 423c
000002f0: eb66 793d 7d9e 243e 9a21 d4bc 9601 2b3e
00000300: a513 023e 5975 433d e6cb 433e 433e 42bd
00000310: 851f 7dbb 76bd f9bc 66f3 72bc 194a b53c
00000320: e7b1 1ebc bed9 033e 6385 3b3e cccb dc3d
00000330: 6a19 8f3d c6a7 d4bb 85b9 27be bb02 38b9
00000340: 9623 3bbd e903 9f3d 423c 1c3e 64da 413c
00000350: 50cc a83d 51a8 13be f469 fe3d 694b 7cbd
00000360: 1ac2 233e a692 8cbd 5b4f 943e 384d 42bd
00000370: 3e55 833c b309 ea3d 5a87 aabd cdcb b8bd
00000380: f007 903d 06fd 373d dfcc 243d 7fb7 38bc
00000390: 972f 333e a7c7 0dbe 0269 30be f69f f4bc
000003a0: 18d3 53be 07a6 2a3e c748 008f 3d97 dfbd
000003b0: 5216 d9bd 1568 1d3d 2eed 2cbe cbef 7e3d
000003c0: 6912 793c 7d22 7f3c 62fa 6fbe 3178 ea3d
000003d0: 940e de3d e17f 4fbe b299 023e 39b4 b93d
000003e0: 0568 ac3e 7439 f53e d2dc 93bd d30c 4b3d
000003f0: fa61 9ebc add3 8ebc 5923 df3d 94be 1d3c

energy_lin.3.bias f4 [150]
0.047281172 0.059129577 -0.01158379 -0.021512127 0.0054938644 0.031238124 -6.30566e-05 -0.018711794
0.011088507 0.0056143645 0.087224096 0.03733326 -0.024948426 -0.010059811 0.021417523 0.07127126
-0.0062200753 -0.028046802 -0.009677712 -0.027336972 -3.4571714e-11 0.031442624 -0.00776415 -0.011910199
0.017492326 -0.017186165 -0.044353537 0.02109875 -0.048341665 0.23612696 0.033747636 0.006663731
-0.0054268646 0.008993004 0.054411553 -0.04864528 0.007013507 0.027383186 -0.00051487784 -0.026635611
0.021265669 0.06065209 -0.027389988 0.032530084 0.012372635 -0.02452721 -0.0219115 -0.023864264
-0.009899915 -0.014334442 0.0154870795 0.026269674 0.0027047542 0.0105655985 -0.0032668237 0.048814807
0.014387091 0.054509874 0.05567963 -0.008449474 -0.009506925 0.029761098 -0.025074467 0.042880826
-0.037233457 -0.021414064 0.034634206 0.037327234 0.0574036 0.015692702 0.05481055 0.0012125915
-0.0022957302 0.048995964 -0.051104784 0.026758038 0.001285668 0.05472248 0.0050004534 0.05018767
0.012501619 0.011910574 0.04603488 0.0028466692 -0.01809645 -0.0366968 0.003255191 -0.04160657
0.080123946 -0.04011612 -0.011221686 0.011621323 -0.009469376 -0.018174857 0.018247884 -0.033595685
-0.016542299 0.022264302 -0.0007955753 0.05234279 -0.038532075 0.032447293 -5.2557383e-26 -0.02578383
-0.017465472 0.008338765 0.037032858 0.065650366 -0.002194984 0.07762035 0.04519359 -0.04193244
0.043689493 0.013143775 -0.010901216 0.007456282 0.016293388 -0.0034683933 0.003850501 0.010179599
-2.101814e-17 0.07089369 0.018397624 0.035067894 0.015543005 0.049922347 0.056673475 0.060552076
0.023096375 -0.0035692614 0.04955863 0.047134947 -0.029958712 0.046697136 0.04632254 0.040887736
-0.053957783 0.004048399 -0.0011822655 -0.0014006622 0.008414168 -0.050926257 0.06663133 -0.016923035
0.04518986 -0.00668511 -0.056975897 -0.03560051 -0.009398296 0.03037798
00000000: e7a9 413d db31 723d f0c9 3dbc 333a b0bc
00000010: e005 b43b 18e7 ff3c 413d 84b8 7a49 99bc
00000020: 92ac 353c b4f8 b73b 8ca2 b23d c3ea 183d
00000030: a460 ccbc e8d1 24bc cd73 af3c abf6 913d
00000040: c6d1 cbbb 68c2 e5bc 448f 1ebc c9f1 dfbc
00000050: 4a0c 18ae fbc9 003d 696a febb ff22 43bc
00000060: 114c 8f3c 00ca 8cbc 0eac 35bd 49d7 ac3c
00000070: e901 46bd 44cb 713e f63a 0a3d 6d5b da3b
00000080: d7d3 b1bb 6557 133c a6de 5e3d 4640 47bd
00000090: 90d1 e53b b452 e03c def8 06ba ed32 dabc
000000a0: 5735 ae3c 536e 783d f860 e0bc 443e 053d
000000b0: 98b6 4a3c 4aed c8bc bf7f b3bc fd7e c3bc
000000c0: 4133 22bc 02db 6abc 85bd 7d3c 8033 d73c
000000d0: 3f42 313b 551b 2d3c 3518 56bb 09f2 473d
000000e0: d5b7 6b3c bf45 5f3d 5310 643d aa6f 0abc
000000f0: efc2 1bbc 8ccd f33c f868 cdbc cea3 2f3d
00000100: 1c82 18bd 8c6c afbc 99dc 0d3d 71e4 183d
00000110: 0a20 6b3d fb8d 803c 0781 603d d2ef 9e3a
00000120: f673 16bb feaf 483d 4053 51bd ac33 db3c
00000130: dc83 a83a ae24 603d d8da a33b 9691 4d3d
00000140: 97d3 4c3c 9124 433c 128f 3c3d 2f8f 3a3b
00000150: 023f 94bc 624f 16bd 0b55 553b a76b 2abd
00000160: 0618 a43d cd50 24bd 2adb 37bc 5d67 3e3c
00000170: 7125 1bbc 70e3 94bc 967c 953c a19b 09bd
00000180: b783 87bc a063 b63c 288e 50ba 6565 563d
00000190: cfd3 1dbd 74e7 043d 3320 8295 9c38 d3bc
000001a0: c013 8fbc 519f 083c c4af 173d b373 863d
000001b0: b8d9 0fbb 6bf7 9e3d ea1c 393d 5ac1 2bbd
000001c0: c1f3 323d fd58 573c 049b 32bc d453 f43b
000001d0: b679 853c fc4d 63bb b058 7c3b 55c8 263c
000001e0: aedb c1a3 b630 913d 9db6 963c 5aa3 0f3d
000001f0: 17a8 7e3c 607b 4c3d 7222 683d 7405 783d
00000200: 9c34 bd3c 45ea 69bb fdfd 4a3d 9310 413d
00000210: f96b f5bc 7f45 3f3d b4bc 3d3d e679 273d
00000220: d602 5dbd 6fa8 843b 3ff6 9aba 6d96 b7ba
00000230: 94db 093c 0d98 50bd 0276 883d 2da2 8abc
00000240: 0119 393d c40e dbbb 8f5f 69bd d7d1 11bd
00000250: 4ffb 19bc 3edb f83c
