models/mpnn_A139_B23_E300_L2/29.pt (torch, 742651 bytes, 9 tensors)

atom_lin.weight f4 [300, 139]
-0.07389179 0.20772488 7.991494e-29 -4.0469675e-30 7.613963e-38 4.2740817e-15 0.08361463 0.25311047
-0.14319263 -0.25525123 -4.905045e-39 -4.1123893e-27 0.019970123 3.3160625e-31 1.3740214e-16 -0.1179785
0.26795363 -0.11084497 4.906121e-39 1.0768557e-15 -4.290982e-28 -2.4653169e-23 -5.1758504e-37 4.4945e-17
-5.9951747e-33 0.1783954 0.12002831 0.050905194 -6.3637395e-18 1.9148125e-33 -2.8329509e-35 9.4711965e-18
-5.67323e-15 6.7004734e-38 -4.0088158e-20 0.2220988 3.6140426e-27 2.520958e-20 -1.7355467e-17 -7.111121e-30
-1.6905638e-27 -4.910139e-39 -6.8506185e-17 1.7299732e-13 -4.907339e-39 -3.6333502e-16 -1.6143236e-20 -1.592035e-13
-3.7424303e-24 -1.1309487e-16 1.02988626e-19 -4.5642666e-30 -1.972787e-37 0.08403723 6.389313e-17 -4.915363e-39
3.5556566e-22 1.5244638e-17 1.6066745e-16 -3.950175e-23 1.1186765e-15 9.991811e-24 -2.0569496e-29 -4.6224843e-16
4.91437e-39 9.437774e-35 -4.915339e-39 3.3696058e-26 -1.237004e-16 -4.912075e-39 -2.2876547e-16 8.7690225e-21
-2.309877e-14 3.3530203e-29 -1.3173759e-18 -1.584658e-23 6.4522893e-26 1.6759331e-18 -4.90696e-39 -1.4290778e-17
4.905636e-39 -1.221012e-25 1.0899042e-19 4.6132813e-25 -5.5368996e-38 -3.1699487e-19 2.1091698e-13 -7.28928e-22
-1.5057487e-23 -2.021007e-35 -1.3493805e-21 -4.916104e-39 8.364989e-25 4.978605e-18 3.4422542e-17 5.3594368e-18
-3.2364292e-16 1.5595381e-26 5.7922313e-22 -3.755083e-29 -8.324864e-18 5.785427e-21 1.1938807e-23 -2.34622e-36
-1.4920398e-23 -7.56345e-17 1.0712133e-18 1.5078245e-28 -3.833271e-15 -4.910538e-39 -5.837172e-15 -3.7529193e-28
1.5408798e-13 -8.523589e-36 5.9717546e-15 -1.0033484e-13 9.07557e-28 -8.615931e-30 2.3083478e-32 -0.11480972
0.20501815 0.10745771 -0.13515784 0.077747814 -8.498308e-22 0.09032099 -7.261068e-36 4.2320875e-15
-0.06531296 0.22914065 0.06854119 -0.061441142 -0.022755403 0.026886014 1.392333e-30 -1.570302e-19
-5.2596524e-15 -4.904564e-39 -0.17906311 -0.0018927908 -0.010366939 -3.4958976e-27 7.4777265e-21 1.0591007e-15
3.3353423e-16 -0.028807793 0.12254626 0.13884488 0.11363784 -1.1846974e-13 -1.6368669e-21 0.2414927
-1.5270343e-33 -1.3524416e-16 -0.25467294 -0.07168154 0.16241784 4.918223e-39 -4.907786e-39 5.8561436e-17
-2.6628848e-17 -3.945293e-33 -1.0714455e-14 -1.1311738e-29 -0.030978475 -0.1551128 -0.12333674 2.1931215e-18
-8.320913e-16 7.7166524e-14 -1.2104917e-16 -6.414737e-30 -5.057147e-15 -3.7872408e-17 0.063922755 1.3195451e-33
-4.6570582e-32 -5.4281466e-16 1.2224018e-13 1.2627433e-18 -1.0362622e-15 -2.1757758e-19 -1.4176253e-29 -5.264823e-39
4.2262206e-17 2.6456133e-18 -4.911407e-39 3.09277e-38 -1.6257249e-26 -9.792701e-33 -2.7354719e-27 -6.311245e-15
-0.018383007 -1.5560846e-22 -1.8545744e-22 4.915755e-39 8.542213e-14 -2.861037e-35 -2.6395917e-22 -4.225188e-36
7.687643e-14 4.0056775e-24 5.9327575e-21 8.113589e-15 -3.6539364e-18 2.9180047e-37 1.0538774e-21 -9.824114e-15
-6.2422623e-25 -3.6558964e-19 -9.9967635e-14 -1.4285736e-23 -3.9312836e-15 -7.611207e-39 4.906277e-39 -4.914145e-39
7.324892e-25 4.909169e-39 1.4563973e-14 8.046203e-14 1.1315158e-17 1.9827263e-18 -2.4523286e-17 2.5508336e-21
1.5448139e-17 1.0515944e-32 -5.809808e-14 5.4574365e-20 3.476522e-21 -5.0588274e-21 -1.8147804e-15 -3.3474952e-14
1.7884298e-18 -2.1437292e-20 -5.9299665e-16 -4.906411e-39 1.7686307e-15 1.7106435e-14 -2.2931197e-38 -4.913377e-39
-5.23388e-25 -1.9568495e-23 4.905058e-39 -4.7892397e-20 -1.050392e-20 -2.0815143e-25 2.1113708e-26 -1.8639054e-34
2.7000833e-20 -5.708835e-18 4.344923e-14 5.926339e-14 2.228069e-28 -4.634369e-19 -1.8422788e-25 5.9531766e-14
00000000: 9454 97bd d5b5 543e c39b ca10 1d2a a48e
00000010: 9445 cf01 72fd 9927 263e ab3d b297 813e
00000020: 17a1 12be 4ab0 82be 4569 3580 95e8 a293
00000030: 6298 a33c 8a39 d70c f469 1e25 b69e f1bd
00000040: 3831 893e b002 e3bd 456c 3500 f730 9b26
00000050: 95fc 0792 4a6e ee99 0420 3083 b145 4f24
00000060: a207 f989 49ad 363e 67d1 f53d f781 503d
00000070: d2c7 eaa2 8f13 1f09 21a0 1686 76b6 2e23
00000080: 5066 cca7 7c67 b601 9c4f 3d9f de6d 633e
00000090: bf2a 8f13 0619 ee1e 7013 a0a3 0d3b 108f
000000a0: b5f0 0593 7877 3580 eaf6 9da4 15c7 422a
000000b0: aa6f 3580 c972 d1a5 f377 989e 493f 33aa
000000c0: 3cc7 9098 b763 02a5 ce2c f31f 0e26 b98e
000000d0: cc42 8682 b61b ac3d d953 9324 0886 3580
000000e0: 1fed d61b 629b 8c23 a93c 3925 cc04 3f9a
000000f0: e137 a126 0d45 4119 7799 d08f ea3b 05a6
00000100: 4483 3500 29e6 fa06 f785 3580 d4da 2615
00000110: ea9d 0ea5 de7c 3580 d3df 83a5 64a4 251e
00000120: 230e d0a8 b104 2a10 0e69 c2a1 3b42 9999
00000130: 3ec0 9f15 f652 f721 9c6e 3580 25cf 83a3
00000140: eb6a 3500 6a27 1796 55ac 0020 2ec6 0e17
00000150: 8fba 9681 e91e bba0 ae78 6d2a 134e 5c9c
00000160: 88a0 9199 0be9 d685 a1e9 cb9c 1988 3580
00000170: 2371 8117 98ad b722 f7be 1e24 73ba c522
00000180: 4491 baa5 fd72 9a14 380f 2f1c c467 3e90
00000190: 0f91 19a3 3791 da1d 1cee 6619 2698 4784
000001a0: 1e4d 9099 ba66 aea4 4b15 9e21 b423 3f11
000001b0: af1b 8aa7 9578 3580 694e d2a7 99de ed91
000001c0: d67c 2d2a d546 3585 b727 d727 19ef e1a9
000001d0: e3ce 8f12 79c0 2e8f 69b6 ef0a 5c21 ebbd
000001e0: 47f0 513e ca12 dc3d d166 0abe 3f3a 9f3d
000001f0: 3d6c 809c 36fa b83d 046d 1a85 1e7a 9827
00000200: cdc2 85bd d9a3 6a3e 535f 8c3d b5a9 7bbd
00000210: 8a69 babc 0f40 dc3c 40eb e10d 7763 39a0
00000220: bb7f bda7 ee67 3580 525c 37be 8517 f8ba
00000230: 18da 29bc 9d7c 8a93 1140 0d1e eba1 9826
00000240: f744 c025 52fe ebbc 89f9 fa3d 5a2d 0e3e
00000250: f5ba e83d 9462 05aa 395b f79c dd49 773e
00000260: dbb8 fd88 08ed 1ba5 7e64 82be c5cd 92bd
00000270: dd50 263e 018e 3500 e970 3580 9208 8724
00000280: 979b f5a3 8de1 a389 b403 41a8 e76d 658f
00000290: 92c6 fdbc e4d5 1ebe f997 fcbd e5d2 2122
000002a0: 80d5 6fa6 79c3 ad29 698f 0ba5 381b 028f
000002b0: f333 b6a7 d9a7 2ea4 efe9 823d 3e3f db08
000002c0: ecce 718b a774 1ca6 55a1 092a 1859 ba21
000002d0: 5457 95a6 656f 80a0 a8c3 8f8f 2f54 3980
000002e0: 68e6 4224 3936 4322 017b 3580 ec62 2801
000002f0: 0601 a194 ee62 4b8a f6b9 5893 f662 e3a7
00000300: f697 96bc 7c1e 3c9b 4c34 609b 2087 3500
00000310: 815a c029 6b1e 1886 b48d 9f9b 39b8 b384
00000320: 3f1c ad29 4ff6 9a18 1c22 e01d 5329 1228
00000330: 74ce 86a2 d096 c602 e841 9f1c bbf9 30a8
00000340: 4c30 4197 58ce d7a0 6b1b e1a9 c529 8a99
00000350: b1a3 8da7 f3e0 5280 b46c 3500 a382 3580
00000360: c6b1 6217 c474 3500 3c2e 8328 342f b529
00000370: 53ba 5023 a44c 1222 f92f e2a3 4cbc 401d
00000380: e37b 8e23 5968 5a0a 43d3 82a9 2edc 801f
00000390: dc56 831d fa1d bf9d cac4 02a7 fec1 16a9
000003a0: 7cf6 0322 3178 ca9e 6eeb 2aa6 146d 3580
000003b0: f5e2 fe26 c114 9a28 d9b2 f980 7f80 3580
000003c0: 12fb 2197 3f41 bd99 4e69 3500 5b2a 629f
000003d0: d769 469e e9d6 8096 9c19 d114 6ac1 7787
000003e0: 0204 ff1e 6c9e d2a2 8dad 4329 0573 8529
000003f0: 7d38 8d11 4dc8 08a1 2510 6496 ba0d 8629

atom_lin.bias f4 [300]
0.049041674 0.001217975 -0.03652057 0.04634226 0.05253989 -0.0020671354 0.092416026 -0.07690831
-0.012642458 0.10045551 0.058625672 -0.05221432 0.105223894 -0.061257564 0.019247921 0.06436248
0.0900331 -0.048948336 0.080682114 0.04519683 0.105331674 0.0047556097 0.072692975 -0.026332445
0.029416956 -0.021254439 0.10147419 0.027956616 -0.10706631 0.057229877 -0.012135874 -0.022024604
-0.014137617 0.03482061 0.020540629 0.058830306 0.086542726 0.054562956 0.12469105 -0.038604017
0.057187773 0.085943386 0.11770686 0.021920253 -0.01102537 -0.033173695 -0.038844805 -0.009814307
0.010168821 -0.00065056444 0.012099821 0.02671853 0.087780215 0.06309794 0.04518451 0.029066222
0.10165124 0.06611638 0.02404815 -0.025324762 0.097810425 0.03404404 0.032340564 -0.046532393
0.10351229 0.0886844 0.007937776 0.07144334 -0.008225796 -0.12720512 0.04113098 0.06467238
-0.0014761089 -0.080808125 0.0861742 0.065307 0.115220554 -0.07341855 -0.018466579 0.06045279
0.081136204 -0.033750176 -0.023225283 -0.020820089 0.08112857 0.13298352 0.018108679 -0.027356235
0.018596105 0.07535143 -0.047753055 0.03208491 0.028898418 0.062570654 0.012335194 0.09992684
0.09223734 0.016397247 0.060683776 0.08474693 0.020736467 0.08307629 -0.049466398 -0.028435973
-0.06764137 0.07234969 0.10089534 0.027889322 -0.021862302 -0.01590196 -0.018866703 -0.118148796
0.06486909 0.0010921891 0.02819756 0.010696519 -0.03429333 0.04427741 0.09382665 0.055020627
-0.0932112 0.074958645 0.06310023 0.01682973 0.00495914 0.065667436 -0.020346524 -0.0011720341
0.031235753 0.07625713 0.029403158 -0.008174831 0.07778995 0.08777686 0.08112185 0.06099906
0.104836315 0.07983693 -0.036321394 0.01643951 -0.008694309 0.094737485 -0.0046016444 0.003481229
-0.06599675 0.039046053 -0.036173332 0.042302787 -0.050950408 -0.044986 0.09214546 -0.055284016
-0.0059570875 0.0006389037 -0.01334275 0.06660921 -0.019360825 0.053293362 -0.057116188 0.06380378
-0.001173074 0.11637319 0.08160688 -0.0805707 0.03648355 0.009592081 -0.008407141 -0.03371399
0.06559912 0.11243915 0.10542543 0.064990595 -0.031641707 0.033492137 -0.026057366 -0.022993838
0.07613512 0.07443518 0.013513194 -0.021999363 0.10584926 0.050513957 0.037467293 -0.023176454
-0.015884131 0.03145043 -0.037307326 0.07255266 0.062016245 0.051270667 0.102918915 0.043587867
-0.028828409 -0.056976564 0.009544485 0.050405618 -0.003079749 0.06318021 0.0066655218 -0.07686721
-0.028144557 0.065702245 0.07864599 0.049943615 0.114554845 -0.021327043 -0.033206467 0.033051312
-0.12191349 0.015376517 0.0067466088 0.060951542 0.0856134 -0.017157925 0.070550196 0.03911463
-0.05778494 -0.016063219 0.061189204 -0.10496614 -0.003827745 -0.032684963 0.006724371 -0.0065107923
0.08221844 -0.11422713 0.051784694 -0.021230415 0.14682147 0.00989349 0.08985411 -0.010091449
0.01937673 0.09795448 -0.04619801 0.09186119 -0.042059347 0.08114427 -0.02918236 0.06469234
0.049951915 0.056439783 0.05317306 -0.056730047 0.065434106 -0.053401254 0.041002743 0.069812104
-0.019764714 0.116353504 0.09299821 -0.03496672 -0.06081411 0.004206564 0.0003219139 -0.07493046
00000000: ecdf 483d 76a4 9f3a 9896 15bd 62d1 3d3d
00000010: 1134 573d c778 07bb 9d44 bd3d 1b82 9dbd
00000020: 5022 4fbc 9ebb cd3d 7921 703d afde 55bd
00000030: a07f d73d 36e9 7abd d1ad 9d3c 7ad0 833d
00000040: 4663 b83d 0d7e 48bd aa3c a53d 5020 393d
00000050: 22b8 d73d f2d4 9b3b 0ee0 943d 24b7 d7bc
00000060: d4fb f03c ca1d aebc b3d1 cf3d 4605 e53c
00000070: 9545 dbbd e069 6a3d 8bd5 46bc f16c b4bc
00000080: 77a1 67bc 0ea0 0e3d d244 a83c 0cf8 703d
00000090: 503d b13d 687d 5f3d 055e ff3d 3f1f 1ebd
000000a0: ba3d 6a3d 1603 b03d 4b10 f13d 1a92 b33c
000000b0: c1a3 34bc 24e1 07bd bb1b 1fbd 30cc 20bc
000000c0: 209b 263c a48a 2aba 543e 463c d2e0 da3c
000000d0: 1dc6 b33d 7e39 813d 6513 393d 491c ee3c
000000e0: 862e d03d 0668 873d a000 c53c e075 cfbc
000000f0: d550 c83d c371 0b3d 8a77 043d c098 3ebd
00000100: 40fe d33d 2ba0 b53d 720d 023c e350 923d
00000110: 7dc5 06bc 0f42 02be f578 283d f472 843d
00000120: ff79 c1ba bb7e a5bd 197c b03d adbf 853d
00000130: c1f8 eb3d 775c 96bd 3947 97bc 589d 773d
00000140: bd2a a63d a03d 0abd f342 bebc e48e aabc
00000150: bc26 a63d d52c 083e a758 943c 2f1a e0bc
00000160: dc56 983c da51 9a3d b598 43bd 776b 033d
00000170: 60bc ec3c 0b25 803d 8e19 4a3c 71a6 cc3d
00000180: eee6 bc3d 8553 863c 8d8f 783d cc8f ad3d
00000190: 86df a93c e723 aa3d 479d 4abd 8ff2 e8bc
000001a0: 8f87 8abd 132c 943d 37a2 ce3d 2678 e43c
000001b0: 9218 b3bc d444 82bc 588e 9abc fff7 f1bd
000001c0: 16da 843d c927 8f3a 92fe e63c 7440 2f3c
000001d0: 2a77 0cbd 3b5c 353d 3028 c03d 4f5d 613d
000001e0: 83e5 bebd eb83 993d b23a 813d 80de 893c
000001f0: 4880 a23b a67c 863d c1ad a6bc f09e 99ba
00000200: 1fe2 ff3c b32c 9c3d e4de f03c baef 05bc
00000210: 5650 9f3d 5bc4 b33d 3623 a63d 26da 793d
00000220: 6cb4 d63d 8b81 a33d bec5 14bd 27ac 863c
00000230: 9372 0ebc ba05 c23d 64c9 96bb 5525 643b
00000240: 4e29 87bd c1ee 1f3d 7d2a 14bd b045 2d3d
00000250: 60b1 50bd 3d43 38bd c2b6 bc3d 7e71 62bd
00000260: ac33 c3bb 1a7c 273a 8d9b 5abc 696a 883d
00000270: 989a 9ebc 244a 5a3d aaf2 69bd 8eab 823d
00000280: d5c1 99ba 1155 ee3d 8221 a73d 4002 a5bd
00000290: c66f 153d 1b28 1d3c 1bbe 09bc ae17 0abd
000002a0: d558 863d 7f46 e63d 4ae9 d73d ca19 853d
000002b0: bc9a 01bd 0d2f 093d 4276 d5bc 935d bcbc
000002c0: bbec 9b3d 7971 983d 7266 5d3c 0238 b4bc
000002d0: 7fc7 d83d b9e7 4e3d 4e77 193d 8cdc bdbc
000002e0: 701f 82bc 2bd2 003d 91cf 18bd 7d96 943d
000002f0: bf04 7e3d 3101 523d 27c7 d23d 3189 323d
00000300: 8e29 ecbc 4260 69bd 7960 1c3c 1f76 4e3d
00000310: 9dd5 49bb a064 813d 736a da3b 8e6c 9dbd
00000320: 6a8f e6bc e68e 863d 2611 a13d ad91 4c3d
00000330: bb9b ea3d 0db6 aebc 8103 08bd d060 073d
00000340: c8ad f9bd c9ed 7b3c a812 dd3b 53a8 793d
00000350: 1456 af3d c78e 8cbc 9f7c 903d aa36 203d
00000360: e7af 6cbd 0397 83bc 88a1 7a3d 7df8 d6bd
00000370: e8da 7abb abe0 05bd 1d58 dc3b 7c58 d5bb
00000380: 2462 a83d eaef e9bd 301c 543d 68eb adbc
00000390: 5e58 163e 4e18 223c 6e05 b83d 9b56 25bc
000003a0: f3bb 9e3c 5c9c c83d 203a 3dbd b821 bc3d
000003b0: 6c46 2cbd f82e a63d d80f efbc 6b7d 843d
000003c0: 619a 4c3d 672d 673d ffcb 593d c45d 68bd
000003d0: 5102 863d 46bb 5abd 7ef2 273d a6f9 8e3d
000003e0: 9ce9 a1bc bf4a ee3d d875 be3d 4339 0fbd
000003f0: 3718 79bd 37d7 893b 8dc6 a839 2475 99bd

bond_lin.weight f4 [300, 23]
3.7606096e-20 0.39853218 -0.3445777 0.00048514773 1.462666e-11 4.916384e-39 -7.0356654e-09 1.284362e-07
7.418603e-17 -1.2525613e-24 -2.048768e-08 4.6153058e-05 -0.04196524 -2.3217651e-10 -1.6597914e-29 7.455022e-07
3.4624404e-12 -0.00015831257 -1.3896651e-33 1.3701302e-18 0.00037936843 -3.1285153e-15 -2.7665164e-11 -0.00012225428
-0.20496495 -0.21549118 -0.24983406 -1.3304295e-07 5.339711e-10 -3.5689626e-10 -1.6960326e-16 -6.437132e-05
-2.6191316e-09 -5.8437206e-05 1.3847892e-07 0.07811066 0.0003156504 3.5038538e-05 5.0273917e-05 0.0010529915
-3.6867993e-06 1.4232493e-34 7.065137e-17 2.5719368e-05 0.00040462214 3.0903656e-37 -1.5663716e-12 0.05019248
0.34768268 -0.29770893 -6.2943063e-31 9.364621e-05 -2.0346756e-13 4.907769e-39 5.8829443e-08 -3.0271319e-21
9.488753e-13 7.208786e-13 0.14771357 -2.133439e-17 4.913058e-39 -3.8114283e-08 6.1121517e-07 8.883912e-22
0.00062677765 -1.7422761e-25 -5.631613e-05 1.0912716e-25 -4.907613e-39 2.4795943e-07 -0.3274245 0.30795127
-0.46207422 -2.936727e-31 1.4264318e-05 6.054675e-05 1.6793587e-05 -1.02938365e-22 -2.4907795e-36 -4.263688e-38
1.4400322e-33 -0.031062448 6.664288e-12 0.00059328607 -0.000100197794 9.404042e-06 1.1268083e-27 3.6562836e-16
6.2326e-05 0.00024753474 -8.411548e-28 8.06952e-32 -0.00031155598 -0.33041397 -0.00092809123 -0.13952714
1.0009399e-30 -1.5262085e-05 -5.603192e-06 2.3823826e-07 -1.9056446e-14 -5.955514e-33 0.0008027467 2.9036688e-25
-0.52882355 -2.5853923e-16 1.0025466e-09 2.8118995e-05 0.0005234232 -1.751856e-33 7.377781e-13 -4.1397614e-28
-1.3300662e-21 -8.919769e-10 2.9877954e-05 -0.00013905094 0.16331172 0.30441746 0.11497127 5.288834e-15
-1.0548486e-11 -1.1243044e-08 6.994908e-11 7.763808e-07 8.5807426e-07 7.259095e-36 -1.9212491e-11 0.31949174
0.00023538302 2.0125969e-10 1.7002478e-18 -0.0003680454 -9.399965e-16 -5.4898332e-11 9.656936e-25 4.4740616e-14
-0.0003274402 1.6920156e-07 -1.0990558e-13 -0.1969197 -0.38701168 0.29725882 -1.2433175e-10 -2.5183954e-13
8.240331e-06 -7.743218e-29 4.5699373e-09 4.904699e-39 4.91243e-39 -1.8601949e-06 0.29514495 3.216846e-05
-1.2747309e-10 3.0456488e-12 0.0004251156 0.00016193966 3.0713916e-05 -0.00012486729 4.3811504e-08 0.0007406099
4.915157e-39 -3.6860547e-05 0.20182677 0.4420268 0.13842037 -5.4005817e-05 -2.1196034e-18 -1.1269113e-12
-0.00043314171 5.5662204e-30 3.7097003e-22 4.3207325e-16 -1.1030567e-07 -0.36038786 -4.5404922e-36 -1.2374208e-16
2.9031662e-23 6.5289902e-09 -1.4782902e-08 -2.3601928e-14 -2.082019e-08 9.699871e-06 1.1186819e-07 0.00069051073
-0.0012110748 -0.5577769 -0.29298314 0.3190129 4.3026734e-24 4.913395e-39 2.4298363e-36 -1.2799338e-06
-1.0715354e-12 -4.477518e-16 1.8995882e-08 4.9501592e-05 0.08992805 6.415496e-21 -7.65923e-18 -4.5853096e-24
-0.001232692 2.9553335e-11 -1.4528803e-10 0.00016406 -2.4035808e-06 -1.7941195e-28 -9.349003e-15 -1.9293879e-17
-0.03513425 0.1030999 -0.41818964 4.049829e-06 5.8164144e-25 -0.0010849586 -2.8969536e-38 1.3901915e-09
4.908428e-39 -4.7891053e-13 0.00071610033 0.38463116 -1.215343e-05 3.2507385e-05 2.3452665e-13 2.6313388e-10
-4.5269736e-11 4.7316913e-08 -2.3114386e-09 -0.000101864236 -2.6460238e-20 -0.0007168486 -2.171751e-06 0.22989441
-0.37800008 -0.06324156 8.280345e-16 5.3604535e-06 -6.361251e-20 1.813347e-14 5.1771093e-07 -3.4306627e-18
-2.4473574e-21 1.3331154e-12 0.32287624 -1.9685493e-11 7.495215e-06 -0.00044391616 7.863852e-16 -1.3324905e-08
-2.26757e-14 -8.319039e-28 -5.3762183e-06 3.2499873e-15 -7.2864627e-06 -1.8851841e-14 -0.18600291 -0.24625249
00000000: fb96 311f 690c cc3e 7d6c b0be 6d5b fe39
00000010: 4fa8 802d e188 3500 5ebe f1b1 46e8 0934
00000020: b40f ab24 11d3 c197 e3fc afb2 7894 4138
00000030: bee3 2bbd e147 7faf a652 a88f 851e 4835
00000040: c8a5 732c b500 26b9 d1e5 e688 0e32 ca21
00000050: f8e5 c639 ec6e 61a7 6958 f3ad 6231 00b9
00000060: 55e2 51be b8a9 5cbe 80d4 7fbe 91da 0eb4
00000070: e0c6 1230 af34 c4af 0c8a 43a5 17ff 86b8
00000080: 40fc 33b1 791a 75b8 ccb0 1434 7bf8 9f3d
00000090: e17d a539 58f6 1238 35dd 5238 8804 8a3a
000000a0: bb6a 77b6 aa2e 3d07 35e9 a224 ecbf d737
000000b0: 7723 d439 c351 d202 7c72 dcab a196 4d3d
000000c0: 7703 b23e 4e6d 98be 0d43 4c8d ed63 c438
000000d0: 8815 65aa dd70 3500 a8ab 7c33 3fb9 649d
000000e0: d68a 852b c7e8 4a2b 3a42 173e 67c6 c4a3
000000f0: 9b7f 3500 19b3 23b3 6312 2435 f83f 861c
00000100: 564e 243a efae 5796 fc34 6cb8 c717 0716
00000110: 6e70 3580 491f 8534 2fa4 a7be caab 9d3e
00000120: fe94 ecbe bf9a be8c c850 6f37 94f3 7d38
00000130: f4df 8c37 c3e3 f89a 60e4 5384 2323 6881
00000140: 3244 ef08 ad76 febc 927a ea2c c186 1b3a
00000150: 4821 d2b8 0ec6 1d37 c68c b212 39c5 d225
00000160: 04b5 8238 8dc7 8139 4b49 8592 297f d10b
00000170: 5658 a3b9 052c a9be 264b 73ba 34e0 0ebe
00000180: 6b69 a20d 1407 80b7 0e03 bcb6 6fce 7f34
00000190: 2ca5 aba8 e361 f789 6b6f 523a 78ba b316
000001a0: fb60 07bf a809 95a5 f9c9 8930 15e1 eb37
000001b0: 5636 093a db89 1189 84aa 4f2b bc31 0392
000001c0: 72fe c89c 4b2f 75b0 6ba2 fa37 34ce 11b9
000001d0: 303b 273e 9bdc 9b3e 0f76 eb3d e28c be27
000001e0: 2892 39ad 6e27 41b2 d5d1 992e 7b68 5035
000001f0: 6a56 6635 4662 1a05 affe a8ad 6c94 a33e
00000200: 26d1 7639 9149 5d2f 8ce9 fa21 38f6 c0b9
00000210: c077 87a6 0772 71ae 116f 9517 6b7e 4929
00000220: 48ac abb9 c5ad 3534 417c f7a9 51a5 49be
00000230: 6526 c6be 4f32 983e 47b4 08af e7c5 8daa
00000240: f43f 0a37 5c50 c490 9805 9d31 4e68 3500
00000250: db7d 3500 cfab f9b5 3d1d 973e 9fec 0638
00000260: 7c28 0caf 8851 562c 0de2 de39 59ce 2939
00000270: d1d2 0038 cfee 02b9 422b 3c33 7d25 423a
00000280: 7585 3500 b69a 1ab8 adab 4e3e 5651 e23e
00000290: 12be 0d3e 4e84 62b8 2d66 1ca2 4299 9eab
000002a0: 4c17 e3b9 f0ca e10e d53c e01b c212 f925
000002b0: 2fe1 ecb3 c284 b8be 9521 c184 37aa 0ea5
000002c0: 7563 0c1a 9b55 e031 e4f7 7db2 5796 d4a8
000002d0: 15d8 b2b2 a1bc 2237 303c f033 6403 353a
000002e0: edbc 9eba 78ca 0ebf e301 96be a955 a33e
000002f0: 9d73 a618 8c80 3500 26b5 4e04 31ca abb5
00000300: 22ce 96ab 400e 01a6 632c a332 ee9f 4f38
00000310: 332c b83d df5e f21d b149 0da3 b562 b198
00000320: 4892 a1ba 19fa 012e f2be 1faf 8507 2c39
00000330: 344d 21b6 826e 6391 ab6a 28a8 62f4 b1a3
00000340: eee8 0fbd 0a26 d33d f41c d6be c4e3 8736
00000350: 6202 3417 2b35 8eba a4b9 1d81 0411 bf30
00000360: b372 3500 24cd 06ab aeb8 3b3a 60ee c43e
00000370: 96e6 4bb7 8a58 0838 da06 842a cda8 902f
00000380: 3119 47ae 7f39 4b33 42d7 1eb1 f29f d5b8
00000390: eee8 f99e e5ea 3bba 66be 11b6 7169 6b3e
000003a0: 3a89 c1be ca84 81bd 29aa 6e26 f2dd b336
000003b0: 6733 969f ef54 a328 d3f8 0a35 6323 7da2
000003c0: c7ea 389d 8b9e bb2b 0950 a53e ca27 adad
000003d0: 687f fb36 6bbd e8b9 fca8 6226 8deb 64b2
000003e0: 9b3e cca8 08d2 8392 5d65 b4b6 af2f 6a27
000003f0: 3d7e f4b6 63cd a9a8 8c77 3ebe 9d29 7cbe

bond_lin.bias f4 [300]
0.10627458 -0.18225782 0.067544304 -0.15915993 -0.0996274 0.18262641 -0.068709135 -0.012194052
-0.1361649 0.071415834 0.007534253 -0.09959038 0.13542606 -0.114253476 -0.009713705 -0.015629223
-0.13976294 -0.0005290145 -0.16364363 -0.08828553 -0.05750155 -0.14463826 0.17667596 -0.09822485
0.008956138 0.21801592 0.12618911 -0.055754934 -0.05932758 0.06889848 -0.11430349 0.13711421
-0.09704692 -0.00841479 0.023402983 -0.14610724 -0.035827976 0.22090104 0.040147103 -0.1315344
0.033732943 -0.13415508 -0.21935016 -0.19052322 -0.1254531 0.18345706 0.1362679 -0.100659996
-0.12497439 -0.0040126136 0.096329756 -0.19296022 -0.06647848 0.059949417 -0.24740335 0.06901729
-0.06093281 0.07218121 0.072442114 0.21152167 0.15932952 0.017028628 0.13055827 0.049301114
-0.09475116 0.10783011 0.06305589 0.13588515 -0.122065276 -0.19002405 -0.051714577 -0.14629601
-0.008239597 -0.11489383 0.04360247 -0.045246657 -0.21431303 -0.15207714 -0.090340495 -0.16010986
0.42152408 0.060761478 -0.0540607 -0.07820214 0.24285254 -0.21956049 -0.29625204 0.23010603
-0.2566125 0.0329588 -0.09807235 0.20657325 -0.21383072 0.07363179 0.20900925 -0.13051552
0.09114019 0.030885095 -0.008388382 0.026531301 -0.15495767 0.09314705 0.18442392 0.22570217
-0.08199134 0.0798061 0.023879783 -0.1651873 0.13408603 0.1767551 -0.077622786 -0.060568642
-0.14741427 0.053617913 -0.1503588 0.08585969 -0.24396598 0.23743765 0.08311431 0.23009509
0.04785113 -0.20716025 -0.070524246 -0.26535416 0.233673 -0.0007179208 0.055645134 0.09496648
-0.037558533 -0.076443315 -0.058155205 0.0006350181 -0.026533896 0.21645232 0.05536763 -0.19466996
0.1287292 0.14870064 0.04603786 0.037392136 -0.12762818 -0.15084904 -0.20411602 0.13376832
-0.18451664 -0.058294613 -0.04443278 -0.024521811 -0.16302057 -0.056963913 0.19347994 -0.21549942
0.1281774 0.2051245 0.07194693 -0.02038627 0.08259849 -0.16039483 0.13033722 -0.23388496
0.01721727 0.04545018 -0.1254833 -0.034802083 0.16383585 0.24067906 0.16103737 -0.121457376
-0.18913014 0.06543946 0.032717317 0.14579111 -0.12472498 0.15556404 -0.22104739 -0.074840024
-0.20988305 -0.10724247 -0.07083585 0.056394413 -0.1801411 0.019570246 -0.022296166 -0.20869614
-0.15988082 0.004200263 -0.11834451 -0.19392626 0.19149084 -0.13830818 0.16983674 0.12511408
-0.012922013 -0.1938312 -0.12357895 0.093399934 0.05927955 -0.0654049 -0.14115147 -0.085468166
0.06327716 -0.2062926 -0.115353346 -0.01811172 -0.07005814 0.0972092 0.16976362 -0.17695306
-0.15786041 -0.0689761 -0.11842286 -0.08080028 -0.107983045 0.11323402 0.15449077 -0.18823521
-0.19687146 0.17220114 0.09766892 0.08052069 -0.2593104 -0.18562743 0.022967843 0.1268419
0.1948574 -0.156176 0.03102671 -0.105416015 -0.23949368 0.10960572 0.1412949 0.16114725
-0.12426642 0.004609754 0.05277419 0.22198804 0.14949386 -0.26380518 0.21586215 -0.05094608
0.18458405 0.068040274 -0.02118181 0.17951371 -0.24948163 0.21776758 0.14156389 0.15167938
0.028961258 0.24543461 0.0063738613 0.033503946 -0.25319156 0.068410866 0.18117422 -0.03876682
00000000: 7da6 d93d cba1 3abe ab54 8a3d d2fa 22be
00000010: 7309 ccbd 6b02 3b3e 60b7 8cbd 90c9 47bc
00000020: d06e 0bbe 7742 923d e5e1 f63b 0bf6 cbbd
00000030: 21ad 0a3e bafd e9bd 3b26 1fbc db08 80bc
00000040: 041e 0fbe 90ad 0aba 3292 27be 0bcf b4bd
00000050: bf86 6bbd 0d1c 14be 8bea 343e 1c2a c9bd
00000060: c4bc 123c 913f 5f3e b837 013e 495f 64bd
00000070: 7a01 73bd a51a 8d3d f317 eabd ab67 0c3e
00000080: 89c0 c6bd 30de 09bc 9db7 bf3c 239d 15be
00000090: 5bc0 12bd e233 623e 4a71 243d f4b0 06be
000000a0: 8e2b 0a3d f35f 09be 549d 60be 8518 43be
000000b0: c776 00be 2bdc 3b3e d089 0b3e d426 cebd
000000c0: 93f2 ffbd 3e7c 83bb 8948 c53d 5d97 45be
000000d0: df25 88bd 858d 753d 4e57 7dbe f058 8d3d
000000e0: af94 79bd bed3 933d 885c 943d 2399 583e
000000f0: 4727 233e 9f7f 8b3c 11b1 053e f7ef 493d
00000100: e50c c2bd 08d6 dc3d 7223 813d 7a25 0b3e
00000110: 5cfd f9bd aa95 42be aad2 53bd 9fce 15be
00000120: 60ff 06bc 754d ebbd 8198 323d 8f54 39bd
00000130: e074 5bbe 1cba 1bbe 7004 b9bd d7f3 23be
00000140: 01d2 d73e 07e1 783d c16e 5dbd 7228 a0bd
00000150: 56ae 783e 77d4 60be 59ae 97be eaa0 6b3e
00000160: b762 83be cfff 063d 28da c8bd f087 533e
00000170: 71f6 5abe 44cc 963d 8506 563e dca5 05be
00000180: b5a7 ba3d bd02 fd3c 6d6f 09bc 2c58 d93c
00000190: 39ad 1ebe e1c3 be3d a0d9 3c3e 781e 673e
000001a0: 13eb a7bd 6171 a33d 899f c33c dc26 29be
000001b0: d94d 093e 4aff 343e b2f8 9ebd d316 78bd
000001c0: c4f3 16be 759e 5b3d a8f7 19be 35d7 af3d
000001d0: 38d2 79be db22 733e d637 aa3d 0c9e 6b3e
000001e0: 8cff 433d d121 54be 046f 90bd 80dc 87be
000001f0: fa47 6f3e d932 3cba 27ec 633d c97d c23d
00000200: fad6 19bd 508e 9cbd 2734 6ebd 5877 263a
00000210: 9d5d d9bc ada5 5d3e 2bc9 623d 9057 47be
00000220: 96d1 033e fb44 183e 3292 3c3d 7f28 193d
00000230: f6b0 02be 2c78 1abe ca03 51be 90fa 083e
00000240: eef1 3cbe 55c6 6ebd 26ff 35bd f7e1 c8bc
00000250: ddee 26be fe52 69bd 9b1f 463e e1ab 5cbe
00000260: f040 033e 280c 523e e958 933d 1b01 a7bc
00000270: 6629 a93d 8b3e 24be 1f77 053e 8a7f 6fbe
00000280: 3b0b 8d3c f829 3a3d b27e 00be a18c 0ebd
00000290: 96c4 273e 9274 763e fbe6 243e a5be f8bd
000002a0: 55ab 41be 2005 863d 9802 063d 444a 153e
000002b0: cf6f ffbd 2e4c 1f3e 3f5a 62be ba45 99bd
000002c0: 95eb 56be f1a1 dbbd 6312 91bd d4fd 663d
000002d0: e976 38be c851 a03c 73a6 b6bc 71b4 55be
000002e0: ccb7 23be 5ca2 893b 9b5e f2bd 9b94 46be
000002f0: 2d16 443e a9a0 0dbe afe9 2d3e e81d 003e
00000300: dab6 53bc b07b 46be f616 fdbd 7748 bf3d
00000310: 1dcf 723d 01f3 85bd 038a 10be ef09 afbd
00000320: 7597 813d 5e3e 53be 603e ecbd 085f 94bc
00000330: a47a 8fbd 9e15 c73d 84d6 2d3e 2f33 35be
00000340: 29a6 21be 5743 8dbd af87 f2bd 9e7a a5bd
00000350: 3726 ddbd 3de7 e73d d432 1e3e bbc0 40be
00000360: ac98 49be 7f55 303e a506 c83d 08e8 a43d
00000370: 55c4 84be 1e15 3ebe 0f27 bc3c d8e2 013e
00000380: b388 473e 9aec 1fbe ba2b fe3c 5ae4 d7bd
00000390: d53d 75be f778 e03d 9caf 103e c903 253e
000003a0: 657f febd 6b0d 973b c029 583d d550 633e
000003b0: eb14 193e 7911 87be f80a 5d3e d6ac 50bd
000003c0: 9a03 3d3e b358 8b3d 7a85 adbc 71d2 373e
000003d0: 1d78 7fbe 77fe 5e3e 20f6 103e d751 1b3e
000003e0: 2940 ed3c 3653 7b3e d3db d03b 6f3b 093d
000003f0: 53a2 81be ff1a 8c3d bc85 393e f5c9 1ebd

energy_lin.1.weight f4 [300, 300]
-0.10579589 -0.046153065 0.15681128 0.08706628 0.059448607 -0.06497705 -0.03604728 0.0050327233
-0.101051904 -0.01408203 -0.03186775 0.029148942 -0.03168375 -0.115442954 -0.05404673 -0.026259506
0.06416356 -0.10381457 0.029257575 0.122309126 0.12235299 0.13431887 0.06468198 0.09560935
0.011915146 0.14191401 -0.07655513 -0.08647931 -0.043115374 0.1408456 0.011421699 0.009669761
0.041731693 -0.035237964 0.0524361 0.10968039 -0.00930573 0.016799018 0.12093432 0.05904647
0.00646644 0.1744217 0.013253341 0.084470205 0.052619956 0.16272603 0.0061831176 0.11413231
-0.11182245 -0.059680752 0.0851083 0.050331883 -0.030030059 0.04353904 -0.055438455 0.018716488
-0.10414458 -0.07484235 -0.04751118 0.059792157 -0.059578843 0.04179792 -0.09220057 0.08363807
0.05639181 0.08711946 -0.08005421 0.02169566 0.11557315 0.009834472 0.11011003 -0.07420617
-0.08107491 0.018762143 -0.055050824 0.015953546 0.21152534 -0.056991275 0.15013847 0.10542483
0.397177 0.118340895 0.015297348 0.041257147 -0.027069349 0.097919576 -0.07070722 0.120146774
-0.02152243 0.0024976365 0.05858279 0.013049657 0.12909143 -0.040887482 0.08342918 -0.09294858
0.052565936 -0.088877365 -0.07224015 -0.08656724 0.17184792 0.019002246 0.13138704 -0.116790384
0.004276302 -0.021124346 0.07355386 0.036562856 -0.023203183 0.09099287 0.03360552 0.16093665
0.03141581 -0.049357306 0.02931248 -0.120397985 -0.13282593 0.031566713 0.1010838 -0.048531946
0.15401794 -0.112468354 -0.07455719 0.063043885 -0.04291036 -0.08394934 0.15362293 0.11138211
0.07540906 0.014971191 -0.08601071 0.011157959 -0.09278339 0.020626532 0.030108387 0.1260659
0.10284913 0.07622668 -0.145011 0.13838051 0.051995866 0.12424857 0.11964283 0.12110851
-0.011350389 -0.013953438 -0.13279195 0.1051267 0.14414392 0.16773617 0.02875762 -0.08345861
0.022109784 0.04444926 0.13387395 -0.021105886 -0.007272307 0.06869553 0.032225635 0.06208768
-0.18434703 0.049593646 -0.12461914 0.046900444 0.13969703 -0.11271051 0.005801233 -0.04078675
-0.045935746 0.14381893 -0.07678738 0.1438069 -0.05760146 0.0024058926 -0.06558534 -0.0979686
-0.10903026 -0.09634059 0.07966368 0.14915128 0.02913238 0.06198103 0.09192561 0.15755284
0.10250962 0.015812295 -0.10063978 0.09802659 0.095762834 0.01851189 0.15945484 -0.048831493
-0.101134874 -0.078844726 0.08635369 0.17339294 0.11263936 -0.06893622 0.18292187 0.021033369
0.052954275 0.1637713 0.08448337 -0.06577931 0.081304066 0.05319284 0.13614744 0.15705621
-0.15020332 -0.12851635 -0.062374935 0.1394357 -0.08863838 0.12250891 0.015593502 -0.09792258
-0.027799793 -0.09643917 -0.031082617 0.009000784 -0.09224822 -0.06277495 0.10055108 -0.0639341
0.045319345 0.06661169 -0.14800212 0.15527473 0.16231081 -0.011066331 0.021572012 0.02303099
-0.022619132 0.033077516 -0.08112067 -0.13143471 0.11067371 -0.103359684 -0.03487414 0.0400107
-0.06649575 -0.05876112 -0.002074345 0.10622062 0.027511762 -0.061664212 0.072277345 -0.06380179
0.12257864 -0.0156347 0.109054536 0.048648406 -0.09371846 -0.09469864 -0.1548567 0.019664414
00000000: 84ab d8bd ff0a 3dbd 2393 203e ce4f b23d
00000010: 6280 733d b012 85bd 50a6 13bd 8be9 a43b
00000020: 4df4 cebd 51b8 66bc c287 02bd c3c9 ee3c
00000030: d2c6 01bd 5b6d ecbd 1b60 5dbd 2d1e d7bc
00000040: 2f68 833d bc9c d4bd 95ad ef3c 357d fa3d
00000050: 3494 fa3d e38a 093e fc77 843d d6ce c33d
00000060: bf37 433c e851 113e f0c8 9cbd 111c b1bd
00000070: bf99 30bd d439 103e 1422 3b3c eb6d 1e3c
00000080: daee 2a3d af55 10bd 3cc7 563d 1da0 e03d
00000090: 1077 18bc 189e 893c 6aac f73d b6da 713d
000000a0: 6ee4 d33b 9a9b 323e 8b24 593c b7fe ac3d
000000b0: 0688 573d a7a1 263e c09b ca3b 33be e93d
000000c0: 2b03 e5bd ce73 74bd 434d ae3d ce28 4e3d
000000d0: 9901 f6bc fe55 323d 6f13 63bd 5253 993c
000000e0: c149 d5bd f246 99bd 159b 42bd 9fe8 743d
000000f0: f208 74bd 4c34 2b3d a7d3 bcbd 704a ab3d
00000100: 19fb 663d b06b b23d 76f3 a3bd 19bb b13c
00000110: 9eb1 ec3d c420 213c 5e81 e13d 68f9 97bd
00000120: 9a0a a6bd 11b3 993c f97c 61bd 03b1 823c
00000130: 199a 583e af6f 69bd e6bd 193e f9e8 d73d
00000140: c95a cb3e b65c f23d baa1 7a3c 41fd 283d
00000150: 8ac0 ddbc 0f8a c83d f2ce 90bd 830f f63d
00000160: cf4f b0bc 63af 233b 82f4 6f3d 3bce 553c
00000170: 8b30 043e a279 27bd ebdc aa3d d35b bebd
00000180: 614f 573d 5605 b6bd a5f2 93bd 2a4a b1bd
00000190: e7f8 2f3e 99aa 9b3c 538a 063e cc2f efbd
000001a0: 3920 8c3b f70c adbc 68a3 963d efc2 153d
000001b0: 9a14 bebc 785a ba3d f1a5 093d 94cc 243e
000001c0: ddad 003d e32a 4abd ba20 f03c 3893 f6bd
000001d0: 8503 08be 194c 013d 0605 cf3d 6fc9 46bd
000001e0: e1b6 1d3e cf55 e6bd 71b1 98bd 271d 813d
000001f0: c6c2 2fbd a2ed abbd 544f 1d3e 4e1c e43d
00000200: 1170 9a3d ba49 753c 6226 b0bd dfcf 363c
00000210: 3805 bebd f9f8 a83c dda5 f63c 6b17 013e
00000220: 91a2 d23d bc1c 9c3d c37d 14be 9fb3 0d3e
00000230: 9ef9 543d 0976 fe3d 4d07 f53d bd07 f83d
00000240: fbf6 39bc f69c 64bc 9dfa 07be ab4c d73d
00000250: 779a 133e 08c3 2b3e 1a95 eb3c 59ec aabd
00000260: 941f b53c 6d10 363d 4116 093e 40e6 acbc
00000270: 884c eebb 3eb0 8c3d 07ff 033d a74f 7e3d
00000280: 78c5 3cbe b522 4b3d 5238 ffbd ae1a 403d
00000290: bd0c 0f3e c5d4 e6bd 4518 be3b 0210 27bd
000002a0: 1f27 3cbd 4545 133e b442 9dbd 1e42 133e
000002b0: 82ef 6bbd 2eac 1d3b 9b51 86bd c3a3 c8bd
000002c0: 424b dfbd 374e c5bd b626 a33d 1dbb 183e
000002d0: 07a7 ee3c d2df 7d3d 7f43 bc3d 8855 213e
000002e0: 90f0 d13d c988 813c 3b1c cebd 2ac2 c83d
000002f0: 4e1f c43d 3fa6 973c 2148 233e 8803 48bd
00000300: cd1f cfbd 5879 a1bd 34da b03d eb8d 313e
00000310: 77af e63d 6f2e 8dbd df4f 3b3e 2c4e ac3c
00000320: 95e6 583d aab3 273e 9e05 ad3d 4eb7 86bd
00000330: bf82 a63d bce0 593d 3c6a 0b3e 58d3 203e
00000340: e6ce 19be ca99 03be dc7c 7fbd 3bc8 0e3e
00000350: 0a88 b5bd f4e5 fa3d e37b 7f3c a28b c8bd
00000360: 64bc e3bc e681 c5bd f9a0 febc 0678 133c
00000370: a3ec bcbd 2790 80bd baed cd3d e2ef 82bd
00000380: c7a0 393d b66b 883d de8d 17be 5700 1f3e
00000390: ce34 263e 8e4f 35bc cab7 b03c 7dab bc3c
000003a0: c24b b9bc 4a7c 073d 9822 a6bd d296 06be
000003b0: e6a8 e23d 3eae d3bd 30d8 0ebd 42e2 233d
000003c0: ec2e 88bd 80af 70bd bcf1 07bb 328a d93d
000003d0: 5960 e13c 9d93 7cbd 2506 943d 83aa 82bd
000003e0: 830a fb3d 5814 80bc fc57 df3d 8d43 473d
000003f0: 77ef bfbd 5cf1 c1bd c192 1ebe 4417 a13c

energy_lin.1.bias f4 [300]
-0.040332697 0.0138066 0.0560476 0.016886635 0.04307674 0.06391486 0.029695407 0.022615016
0.0073468094 0.06463286 0.044770457 -0.034837086 -0.033176824 -0.033728678 0.04460632 -0.004641339
0.072764926 0.031010656 0.05615674 0.05335596 0.065690435 -0.025257424 0.06895749 0.03479314
-0.046763822 0.015950937 -0.01104964 0.049300067 0.00923127 -0.040658005 0.069524825 -0.0038575784
-0.011218137 0.02299689 -0.003096868 0.06680322 -0.024591656 0.0034908503 0.06551265 -8.725997e-19
-0.011999842 0.035599783 0.01659853 0.08430848 0.04864108 -0.0051673083 0.03105538 -0.0012995322
0.07555092 0.031445667 0.013339518 -0.009445731 0.039521787 0.00045165344 0.096661 -0.042199664
0.043079752 0.06812277 0.030246608 -0.05615803 0.015689222 0.026638608 -0.024812592 -0.0051021054
-0.00798116 0.0017894203 0.061838765 0.050903134 0.010829669 -0.03481036 0.0023748553 0.07189649
-0.019071711 0.01971877 -0.026980372 -0.018356336 0.027584724 0.023819994 0.055616334 0.05860853
0.021277424 0.029370457 -0.009954969 -0.008407859 -0.0031554354 -0.032622784 -0.016529199 0.05181674
0.03211906 0.021478552 0.04609697 0.06438856 -0.034227245 -0.027971592 0.025271747 0.06333489
0.07828848 0.08230561 -0.045817565 0.004193218 -0.0024147413 0.04777524 -0.0029331092 0.05107073
-0.025888676 -0.0125718545 -0.040625874 -0.037534986 0.028517647 0.007945831 0.028761787 -0.024579028
0.009472696 0.03549069 0.029827803 0.072356425 0.0733106 0.059027754 -0.032531466 0.048340324
0.05518452 0.0059363046 -0.02883924 -0.008816546 0.06813928 -0.019096205 -0.0305701 0.0068106316
-0.023601819 0.0189493 -0.019993296 0.038396202 -0.014871726 0.013982471 0.021735571 0.0061955852
0.038138464 -0.024621977 0.05612517 0.06557808 -0.0437114 0.06446127 0.050571017 0.017441556
-0.0026657574 0.03279303 0.020326583 0.0033777822 -0.012839528 -0.028649993 0.046521567 0.019879282
-0.0033759426 -0.024290876 -0.037156925 0.024383621 -0.009227612 0.086304195 0.014967131 -0.017986901
0.020396687 0.0244494 0.038115025 0.0362443 0.039010108 0.07068195 -0.03567153 -0.039787844
0.01543343 0.016303135 -0.06291909 0.020348573 0.055095546 -0.05112065 -0.025255827 -0.036676086
-0.013038307 0.04427732 -0.001390335 0.037879676 -0.05108648 0.0032807686 0.05492117 -0.052174713
0.027081767 0.03994107 0.04705105 0.0016127846 0.00809846 -0.000120763194 -0.03794096 -0.036047924
-0.022089055 0.05212286 0.00018530776 -0.019249184 -0.03737791 0.027099727 -0.03955427 0.02349053
-0.016083337 0.018818213 0.036989704 0.083322756 -0.0009634791 -0.015240947 0.04419989 0.055809155
-0.0004927204 0.037914544 0.0170491 0.04042269 -0.003676509 -0.033220593 0.05879969 -0.013781057
0.019808041 0.059228465 0.039853677 -0.011694765 -0.055351384 0.101072244 0.008835128 0.033640087
-0.009833365 0.07337427 0.055889457 -0.041104823 0.047465198 0.073713474 0.00887886 0.004958909
0.03389562 -0.067505166 -0.02141169 0.082634166 -0.015246515 -0.05185999 0.021169627 0.01922033
0.033468653 -0.01972799 -0.013312239 0.04265891 0.07059466 0.053565815 0.07522928 -0.027892577
-0.0032128198 -0.0543087 -0.0040353183 0.031059444 0.058468238 -0.016058577 0.041478552 -0.011221612
00000000: e633 25bd 1435 623c 2b92 653d d755 8a3c
00000010: 3c71 303d cbe5 823d c843 f33c 2043 b93c
00000020: 81bd f03b 3c5e 843d 3a61 373d 55b1 0ebd
00000030: 6ce4 07bd 1527 0abd 1eb5 363d 6016 98bb
00000040: c705 953d 0f0a fe3c 9c04 663d c78b 5a3d
00000050: b588 863d a8e8 cebc 9639 8d3d 4083 0e3d
00000060: 6c8b 3fbd 8aab 823c 8d09 35bc deee 493d
00000070: c13e 173c 0289 26bd 0863 8e3d 6dcf 7cbb
00000080: 47cc 37bc f963 bc3c d3f4 4abb 20d0 883d
00000090: 7174 c9bc c0c6 643b 7f2b 863d e2c5 80a1
000000a0: fc9a 44bc 14d1 113d a4f9 873c eda9 ac3d
000000b0: de3b 473d 8652 a9bb da67 fe3c 1155 aaba
000000c0: 71ba 9a3d 2ccd 003d fe8d 5a3c 44c2 1abc
000000d0: 99e1 213d e6cb ec39 34f6 c53d 8ed9 2cbd
000000e0: 6574 303d f383 8b3d bcc7 f73c f605 66bd
000000f0: af86 803c 3639 da3c c743 cbbc 902f a7bb
00000100: 69c3 02bc fb8a ea3a a54a 7d3d ce7f 503d
00000110: ed6e 313c 4f95 0ebd 76a3 1b3b 783e 933d
00000120: 473c 9cbc 4289 a13c f105 ddbc 0760 96bc
00000130: 5cf9 e13c 2622 c33c f4cd 633d 7f0f 703d
00000140: fe4d ae3c 509a f03c 2b1a 23bc 1ec1 09bc
00000150: 6ccb 4ebb 789f 05bd 3e68 87bc ca3d 543d
00000160: 478f 033d caf3 af3c 2dd0 3c3d 26de 833d
00000170: de31 0cbd ae24 e5bc b206 cf3c b9b5 813d
00000180: b655 a03d d88f a83d 33ab 3bbd 4367 893b
00000190: a340 1ebb f8af 433d 6839 40bb 8b2f 513d
000001a0: 7d14 d4bc 2efa 4dbc 5167 26bd 49be 19bd
000001b0: d79d e93c 3b2f 023c d79d eb3c f559 c9bc
000001c0: 5e33 1b3c b05e 113d 7059 f43c 9b2f 943d
000001d0: de23 963d 16c7 713d b73f 05bd 8100 463d
000001e0: 2a09 623d 5585 c23b 4540 ecbc 4673 10bc
000001f0: 9b8c 8b3d a56f 9cbc 256e fabc b82b df3b
00000200: 9a58 c1bc 903b 9b3c fbc8 a3bc 5645 1d3d
00000210: 8aa8 73bc bc16 653c cc0e b23c 5604 cb3b
00000220: 1437 1c3d 07b4 c9bc 82e3 653d cd4d 863d
00000230: ba0a 33bd 4504 843d 8e23 4f3d 98e1 8e3c
00000240: fdb3 2ebb fc51 063d ef83 a63c c85d 5d3b
00000250: e25c 52bc 64b3 eabc 668d 3e3d e0d9 a23c
00000260: eb3e 5dbb a9fd c6bc dc31 18bd 29c0 c73c
00000270: 692f 17bc 41c0 b03d b338 753c 4459 93bc
00000280: f416 a73c 1c4a c83c 801e 1c3d e774 143d
00000290: 10c9 1f3d b3c1 903d 4f1c 12bd 94f8 22bd
000002a0: 7fdc 7c3c 278e 853c b9db 80bd 0db2 a63c
000002b0: deab 613d e363 51bd 4fe5 cebc aa39 16bd
000002c0: a09e 55bc 235c 353d e73b b6ba b827 1b3d
000002d0: 0f40 51bd 2a02 573b 05f5 603d 27b5 55bd
000002e0: 95da dd3c 3f99 233d 9ab8 403d 1264 d33a
000002f0: 67af 043c 3f42 fdb8 fb67 1bbd fda6 13bd
00000300: 1bf4 b4bc c87e 553d 2c4f 4239 77b0 9dbc
00000310: 9419 19bd 3f00 de3c a903 22bd 366f c03c
00000320: 34c1 83bc a728 9a3c 8482 173d 1fa5 aa3d
00000330: fd91 7cba 2ab5 79bc f20a 353d 2498 643d
00000340: e829 01ba 484c 1b3d 8eaa 8b3c 4392 253d
00000350: 96f1 70bb 5112 08bd f2d7 703d f1c9 61bc
00000360: 7944 a23c 8c99 723d 9c3d 233d 669b 3fbc
00000370: 22b8 62bd f7fe ce3d 36c1 103c 30ca 093d
00000380: 1f1c 21bc 4045 963d 58ec 643d 885d 28bd
00000390: de6a 423d 17f7 963d a378 113c 587e a23b
000003a0: 22d6 0a3d 2640 8abd 9267 afbc 1a3c a93d
000003b0: 85cc 79bc 246b 54bd ed6b ad3c f473 9d3c
000003c0: 6d16 093d 989c a1bc 941b 5abc 1cbb 2e3d
000003d0: ef93 903d d467 5b3d cf11 9a3d f97e e4bc
000003e0: 2c8e 52bb cd72 5ebd b43a 84bb 6070 fe3c
000003f0: 647c 6f3d 478d 83bc 6ae5 293d dada 37bc

energy_lin.3.weight f4 [150, 300]
0.07911213 -0.054119185 0.051180042 0.13715291 -0.008932171 -0.093759514 0.0040810723 0.14103547
0.07773539 0.12566128 0.09896281 0.18377043 0.0016018092 -0.11317647 0.25887445 -0.025908835
-0.0049958415 0.13258795 0.14112881 0.09334699 -0.021376919 0.121695556 0.090319335 -0.022510206
0.12721202 0.029127976 0.02665909 0.09529949 0.022948414 0.13435467 -0.11324373 0.020700866
0.20523857 -0.029449299 0.41157028 0.08554527 0.04557405 -0.32488623 -0.009222209 2.662709e-18
0.053364616 -0.23222049 0.023620835 0.054545503 0.12910607 0.12997708 -0.11588886 0.0917299
-0.12782364 -0.21667436 -0.045917317 -0.006391528 -0.056798548 0.14140797 -0.24932718 -0.10190956
-0.14449649 -0.004659371 -0.06693474 0.058626857 -0.058788512 0.16858566 0.022311352 0.06580178
0.08165481 0.106422804 -0.12505929 -0.18694855 0.17028415 0.0032716107 -0.04001164 0.0025564595
-0.048366193 -0.037817415 0.19259769 0.059387535 0.060223017 0.03787528 0.067980245 -0.0018967255
0.079650894 0.08180669 0.121729486 0.17603807 0.011334166 -0.11470665 0.05899327 -0.003017445
0.018686438 0.053198658 0.18353453 0.12333977 0.005194881 0.15551332 0.04728754 0.1270193
-0.037544686 -0.039300002 -0.09471337 0.0025641099 0.031571157 -0.0884618 -0.012712355 -0.06692909
-0.06723354 -0.086590365 -0.0045797336 -0.07314129 -0.09064565 -0.08184476 0.28821394 0.14908051
0.09001985 0.08681535 -0.04466908 0.09586019 0.08727585 -0.08351169 0.03574936 -0.10095089
0.10607004 0.13828112 0.015252401 0.044132337 0.0839818 0.16601938 -0.0807809 -0.014671063
0.022701185 0.18694581 -0.04909128 -0.052127875 0.07711292 -0.20512654 -0.051188696 0.17255934
0.008563953 0.08966948 -0.084407955 0.035422012 0.06399415 0.109499335 0.15928294 -0.069565594
-0.0027320446 0.15171982 0.12600823 -0.08088839 0.077573545 -0.06064451 -0.063347965 -0.04763993
-0.14590418 -0.1697524 0.25123522 0.106681004 -0.033744525 -0.08431408 0.15657586 -0.079175875
-0.1047522 -0.014826664 -0.13943318 -0.05314549 0.11539217 -0.12416156 -0.055500682 0.088818505
-0.04531535 0.012956432 -0.36008433 -0.003793424 0.043822676 0.061647434 -0.43177027 -0.022365944
0.09554964 -0.054339923 0.20617183 0.07088256 0.0016179518 -0.011957278 0.008880023 -0.10678331
0.047129598 0.017698357 0.11108799 0.11007828 0.029948143 3.892817e-07 -0.11356278 -0.008364175
0.14653344 0.16851519 -0.009687846 -0.039758004 0.08956586 0.3776279 -0.108081326 -0.11718891
-0.06882197 0.0056539616 0.085784055 -0.012169219 0.102886096 0.14388177 -0.09283594 0.07598722
0.16071951 0.08270195 0.101649225 -0.08060444 -0.08790149 -0.017449914 0.048180517 -0.02447557
0.12719902 -0.09989551 -0.13875964 -0.02188543 0.24051103 0.07090127 -0.136956 0.10848619
-0.07779922 -0.047713593 0.09977659 -0.033030376 -0.032457262 -0.08851246 0.07152408 -0.18115263
-0.030846199 0.11774396 0.051303998 -0.11126818 -0.065029055 0.00027500535 0.16898195 -0.0022559592
0.1552915 -0.09286749 0.05904314 -0.08473248 -0.097572684 -0.089068055 -0.07562604 -0.02310295
-0.0013826111 -0.09575488 -0.002512138 -0.019287808 -0.16739771 -0.10143098 0.16793232 -0.28097233
00000000: 8a05 a23d 14ac 5dbd 2aa2 513d d071 0c3e
00000010: 3e58 12bc fd04 c0bd 84ba 853b 9a6b 103e
00000020: bb33 9f3d 5aad 003e 04ad ca3d 512e 3c3e
00000030: ccf3 d13a 11c9 e7bd 318b 843e c43e d4bc
00000040: 28b4 a3bb 23c5 073e 1284 103e b52c bf3d
00000050: a61e afbc 853b f93d 58f9 b83d 5367 b8bc
00000060: de43 023e cb9d ee3c 2a64 da3c 612c c33d
00000070: 50fe bb3c 4594 093e 54ec e7bd dd94 a93c
00000080: 0f2a 523e a83f f1bc 57b9 d23e 5c32 af3d
00000090: dbab 3a3d 7d57 a6be c018 17bc 2779 4422
000000a0: db94 5a3d 35cb 6dbe 7b80 c13c 1b6b 5f3d
000000b0: 6234 043e b618 053e 2357 edbd e3dc bb3d
000000c0: 33e4 02be e2df 5dbe cc13 3cbd 0670 d1bb
000000d0: 98a5 68bd 40cd 103e a04f 7fbe f6b5 d0bd
000000e0: e3f6 13be a3ad 98bb 1515 89bd b722 703d
000000f0: 39cc 70bd b8a1 2c3e 4cc6 b63c 15c3 863d
00000100: a33a a73d 33f4 d93d 8b0f 00be 716f 3fbe
00000110: f85e 2e3e 8568 563b 3fe3 23bd 468a 273b
00000120: a11b 46bd 6fe6 1abd 5438 453e 5840 733d
00000130: 69ac 763d 1c23 1b3d 3a39 8b3d 8c9b f8ba
00000140: 0220 a33d 448a a73d 4f4d f93d 5343 343e
00000150: f0b2 393c 52eb eabd eda2 713d 54c0 45bb
00000160: 4d14 993c d6e6 593d 7af0 3b3e 9099 fc3d
00000170: d239 aa3b e23e 1f3e 94b0 413d 5911 023e
00000180: 75c8 19bd 0af9 20bd 15f9 c1bd a00a 283b
00000190: c250 013d 762b b5bd 7b47 50bc 1e12 89bd
000001a0: bdb1 89bd 4a56 b1bd 9711 96bb 1acb 95bd
000001b0: 6da4 b9bd 3a9e a7bd c790 933e 90a8 183e
000001c0: 545c b83d 3fcc b13d edf6 36bd 5952 c43d
000001d0: aebd b23d 2d08 abbd ec6d 123d 57bf cebd
000001e0: 403b d93d 9199 0d3e 35e5 793c 1cc4 343d
000001f0: a6fe ab3d fc00 2a3e 7570 a5bd e65e 70bc
00000200: d6f7 b93c b96e 3f3e f013 49bd 0a84 55bd
00000210: 61ed 9d3d b10c 52be 3dab 51bd 65b3 303e
00000220: d34f 0c3c a2a4 b73d 14de acbd ac16 113d
00000230: 5d0f 833d 3041 e03d 111b 233e 6878 8ebd
00000240: 1a0c 33bb 715c 1b3e 4d08 013e d0a8 a5bd
00000250: e1de 9e3d 6166 78bd 94bc 81bd 1622 43bd
00000260: e867 15be 93d3 2dbe e7a1 803e 927b da3d
00000270: b337 0abd dcac acbd 6c55 203e f626 a2bd
00000280: 5288 d6bd 89eb 72bc 92c7 0ebe 16af 59bd
00000290: bb52 ec3d 6a48 febd af54 63bd 7ae6 b53d
000002a0: 979c 39bd 3747 543c f95c b8be 189b 78bb
000002b0: 687f 333d 0582 7c3d fe10 ddbe c938 b7bc
000002c0: 88af c33d 8a93 5ebd b51e 533e e02a 913d
000002d0: 7411 d43a 75e8 43bc 847d 113c 35b1 dabd
000002e0: f70a 413d 25fc 903c 1a82 e33d b970 e13d
000002f0: cf55 f53c 78fe d034 9a93 e8bd e509 09bc
00000300: dd0c 163e 3f8f 2c3e c5b9 1ebc 4ad9 22bd
00000310: 4e6e b73d 7258 c13e be59 ddbd bd00 f0bd
00000320: 88f2 8cbd de44 b93b 8daf af3d 6761 47bc
00000330: f2b5 d23d be55 133e c520 bebd 309f 9b3d
00000340: a893 243e a45f a93d 782d d03d f113 a5bd
00000350: b205 b4bd 1ff3 8ebc ef58 453d fe80 c8bc
00000360: 7640 023e 0496 ccbd 0217 0ebe 1349 b3bc
00000370: 8648 763e af34 913d 323e 0cbe 022e de3d
00000380: 3355 9fbd 546f 43bd ab57 cc3d dc4a 07bd
00000390: e8f1 04bd 0546 b5bd 387b 923d 1380 39be
000003a0: 2bb1 fcbc bf23 f13d 2424 523d 92e0 e3bd
000003b0: f42d 85bd 982e 9039 9b09 2d3e b7d8 13bb
000003c0: bc04 1f3e 5031 bebd 38d7 713d 3988 adbd
000003d0: 30d4 c7bd 5069 b6bd d3e1 9abd 6642 bdbc
000003e0: bb38 b5ba 221b c4bd afa2 24bb 7701 9ebc
000003f0: 4e6a 2bbe 0cbb cfbd 73f6 2b3e 9bdb 8fbe

energy_lin.3.bias f4 [150]
0.013287263 0.034754876 0.007840144 -0.03986293 -0.04845085 -0.006378562 0.006921485 0.01502917
-0.048009288 -0.013607684 0.014825564 -0.05568871 -0.036589667 0.057711057 0.059044786 -0.020471709
0.056463078 0.024297474 -0.0068397084 -0.019308813 -3.0693147e-37 0.04565387 0.052669242 0.05444666
0.010542797 0.020268437 -0.035265118 0.019514663 0.03160496 0.037175696 -0.0016283469 0.042446647
-0.023148961 0.024940474 -0.048230518 0.0517469 -0.0046131453 0.046188157 0.06447553 0.0068864804
0.022834497 0.038377203 0.04529127 0.0058641667 -0.027699465 0.0050977212 -0.059405286 0.007110251
0.05427011 -0.021538978 -0.048945308 0.045316868 -0.021872642 0.05055996 0.02476971 0.012960594
-0.04427232 -0.03234525 -0.011966746 0.053104147 0.042725284 -0.0051687653 -0.03835784 0.06279535
0.011023193 0.01722434 -0.005983825 -0.024410231 -0.01827837 -0.023817496 0.0339828 0.032037683
0.033680204 0.019910013 0.005484563 0.038492277 -0.0071929614 -0.015807005 4.914015e-39 0.052815236
0.003640179 0.024659576 -0.031291846 -0.03929699 -0.019994738 0.0307109 0.011826605 0.06827768
0.0001705135 -0.009355746 -0.0010158807 -0.0038384353 0.05964051 0.009133274 -0.033186004 0.035362806
-0.011181829 0.06562318 0.029256424 0.01381148 0.023131542 0.013571078 0.009058166 -0.005891685
0.0036630551 -0.03936506 0.008780174 -0.025971448 -0.042381637 0.0438142 -0.038071647 -0.0062934966
0.022799017 0.034306627 -0.045760196 -4.9617776e-31 0.022599343 -0.011104624 0.0075170277 -0.007140846
0.013773335 0.057899058 -0.018972278 -0.019465039 0.042762052 -0.037866917 0.002176936 -0.034385085
0.018374996 -0.036610477 0.046978626 0.023848066 0.040765654 -0.0022166388 -0.015858369 0.0044345
0.040063176 0.015463286 0.03823272 -0.015749935 -0.060678672 0.034122333 0.015740117 -0.02727261
-0.009007584 -0.024168272 0.054276492 0.044619415 0.0027701557 -0.0014854391
00000000: d2b2 593c 215b 0e3d f373 003c 5047 23bd
00000010: 6674 46bd 4203 d1bb a0cd e23b e83c 763c
00000020: 63a5 44bd c3f2 5ebc ece6 723c d819 64bd
00000030: 0cdf 15bd 6e62 6c3d f2d8 713d 49b4 a7bc
00000040: d445 673d 7f0b c73c a21f e0bb 842d 9ebc
00000050: 01e3 d082 8dff 3a3d b4bb 573d 7603 5f3d
00000060: b2bb 2c3c fe09 a63c 2872 10bd 37dd 9f3c
00000070: 3474 013d 8b45 183d 416e d5ba 89dc 2d3d
00000080: e4a2 bdbc f74f cc3c 5d8d 45bd 8ff4 533d
00000090: de29 97bb cb2f 3d3d bf0b 843d fca7 e13b
000000a0: 690f bb3c 6a31 1d3d 5783 393d 3228 c03b
000000b0: fde9 e2bc c90a a73b f552 73bd 1cfd e83b
000000c0: 564a 5e3d 8372 b0bc e07a 48bd 2e9e 393d
000000d0: 412e b3bc f617 4f3d d9e9 ca3c ac58 543c
000000e0: e456 35bd 747c 04bd 2c10 44bc bc83 593d
000000f0: b500 2f3d bf5e a9bb 1c1d 1dbd d99a 803d
00000100: 9f9a 343c 0f1a 8d3c f613 c4bb f7f7 c7bc
00000110: 85bc 95bc e91c c3bc 8c31 0b3d f239 033d
00000120: 41f4 093d 531a a33c d9b7 b33b 14aa 1d3d
00000130: efb2 ebbb b17d 81bc 4682 3500 ca54 583d
00000140: 1290 6e3b e102 ca3c e12b 00bd e1f5 20bd
00000150: 01cc a3bc 6d95 fb3c 60c4 413c 2bd5 8b3d
00000160: decb 3239 d848 19bc 4d27 85ba 428e 7bbb
00000170: 9b49 743d baa3 153c 0cee 07bd 97d8 103d
00000180: fd33 37bc 7265 863d 2bab ef3c 8c49 623c
00000190: 5c7e bd3c 3a59 5e3c b468 143c 090f c1bb
000001a0: de0f 703b 423d 21bd b8da 0f3c 13c2 d4bc
000001b0: 5e98 2dbd 8576 333d 04f1 1bbd ad39 cebb
000001c0: 01c5 ba3c 1b85 0c3d 0b6f 3bbd d604 218d
000001d0: 4222 b93c 2bf0 35bc 6651 f63b c2fd e9bb
000001e0: 8ea9 613c 9027 6d3d c06b 9bbc 2575 9fbc
000001f0: 4327 2f3d 571a 1bbd edaa 0e3b 60d7 0cbd
00000200: 2987 963c def4 15bd a96c 403d 055d c33c
00000210: e3f9 263d 0745 11bb 69e9 81bc 484f 913b
00000220: 4919 243d b959 7d3c ea99 1c3d 0206 81bc
00000230: 338a 78bd dcc3 0b3d 6bf1 803c cf6a dfbc
00000240: 8c94 13bc 8afc c5bc 0751 5e3d d9c2 363d
00000250: 808b 353b 11b3 c2ba
