models/mpnn_A139_B23_E300_L2/3.pt (torch, 742574 bytes, 9 tensors)

atom_lin.weight f4 [300, 139]
00000000: 68be 55be 2375 243d b24a 5a22 1ec1 63a6
00000010: a9ab ff27 24d8 9b25 15df 483e f1db 01be
00000020: 5603 58be aa3e 92bd 987a 25a8 e365 c897
00000030: cb3c 64be 270e 9712 ec0a 9a26 06cf d0bd
00000040: 3afc 8bbe d763 283e 2f63 a39a f27c 60a8
00000050: add7 f994 7812 df17 5a74 3ca8 c213 1f86
00000060: 31d5 b91a 0ba2 833e 108a 46be d849 e3bd
00000070: 8270 68aa bb7e 2e03 b247 3a18 1535 f6a9
00000080: 74b3 2989 ecc1 851c 741c 0ca8 7cce f03d
00000090: 4c3a a424 40b3 8ba8 975b a083 db56 9d1a
000000a0: d42f f9a5 7536 4312 e456 7ca4 07fb 6099
000000b0: d747 8320 56af 081f d995 8a9a ab7b 8e0d
000000c0: 5416 7a8a eb47 8b8f b9c1 9a23 8b2d 450c
000000d0: 05ab f90c f53e a13c b635 7599 fd25 0799
000000e0: 183e 8c13 e619 5107 492c c91a 9d5f 322a
000000f0: 94ec 9216 040a e092 8136 1d0e be2f 65a7
00000100: 8303 b929 ab7e 2100 1d91 a9a5 1fff f19c
00000110: ee79 8e22 6ae0 e00a 19a2 de26 85aa e6a2
00000120: 8e91 8784 2924 14a8 7976 3500 7d26 c821
00000130: f859 2f95 8e2d 8f98 2763 70a3 cad9 dc28
00000140: 66e7 a8a2 19ff 4b27 8ba6 bfa8 6398 1225
00000150: 14d1 2208 48bd 8223 3e73 479d e292 76a6
00000160: 5c75 5b89 3404 4021 f16f 3580 fff8 84a3
00000170: f91c 49a8 3be4 1f80 2c06 dc92 7eea 96a1
00000180: b192 8f98 4730 5724 b0d5 3629 e2a0 46a9
00000190: 0483 1925 78c6 1724 a188 5c9e 3a9b 0f92
000001a0: d79b 1c21 69fb d8a9 ce6b aa13 3442 3d95
000001b0: c411 221b ea05 5929 268b 909c 05ad 5b8d
000001c0: b670 dea2 d5b7 13a6 5562 1780 14b9 d11f
000001d0: 8ce3 e39b c7fe 542a 7fcd 1d20 94a1 333e
000001e0: 5b5f 6e3d 5efc 033e e81e c13d 13d7 a1bd
000001f0: 12a5 f69f 1eaf 143e d315 cb24 56a2 9726
00000200: a72b 533e e11e acbb 46f1 44bb c47d d63d
00000210: 4ceb debc aee2 023e 6f10 83a4 568d 3580
00000220: 61e6 9202 9879 3580 0430 ac3b ac39 babd
00000230: 7cf8 85bd 5a96 86a5 a7c3 3a2a 6fc4 d7a7
00000240: 60c8 1722 9011 00be d1f3 e13b 4f92 943d
00000250: 96b8 663e 5c6f 3580 0bac a318 3e03 8a02
00000260: 457b 3500 49aa f489 9450 c5bd b5d3 843d
00000270: d6ea a7bc 960a c288 8368 3500 5025 8da3
00000280: 22da df27 15b2 7f81 b52a 568f 259f ab27
00000290: 2588 45b9 2daf 67bd db6e c53c 9489 6ea4
000002a0: 37ab 98a5 c7bc 6f29 fc31 cc0f 2327 3100
000002b0: 5d7d 899d 3672 8881 c219 98bd 58de 0415
000002c0: 5573 4fa4 1d35 0a1d a215 0a9e 8e9b 6ca1
000002d0: 5778 a794 4000 349b e617 d219 2d00 8da8
000002e0: a123 0ba4 eb7c 3500 2fc9 fd22 d705 ed9d
000002f0: 5880 08a1 96db ff1b 617f 2600 f61c 3f13
00000300: 80c7 113d 5476 7103 a9de 3b8f b832 f702
00000310: 84a6 ad1a 973c 2a28 952e 69a2 6245 0a1e
00000320: c180 6c8c 67fc aba3 9bfe dba7 be3b 49a5
00000330: b03a 03aa f30f c5a8 b5a5 941c 87e6 7e28
00000340: 2359 8095 f409 b721 0080 3580 d3d5 8024
00000350: a8ea 6ba8 aa84 da9b f847 a495 39cb 2aa6
00000360: 5b19 3692 d8c9 a399 fde1 c395 205e 9698
00000370: 727c fd26 f99e 2098 5137 5ba9 5cf0 9e91
00000380: 840a 7383 dbf3 9ca9 e904 b927 d014 f625
00000390: 00f7 c281 b97f 3500 fc26 be94 46f0 931c
000003a0: 55d6 fa9a edbe 7b81 220d fd0e b6c6 8310
000003b0: 967b 329a cf33 de1c 9381 a793 e048 9b08
000003c0: 2183 50a9 8743 5aa4 4686 3500 bff6 5692
000003d0: 2472 3580 c25c bf1d 70f6 1486 df5b 2600
000003e0: b76a 3580 7ff2 3e81 46e5 9ba9 b8aa 7097
000003f0: 20ed 8f19 aafb dd9e c0ef a9a5 116b 3500
-0.20873415 0.040150773 2.9584053e-18 -7.901817e-16 7.0962832e-15 2.7034676e-16 0.19616349 -0.12681557
-0.21095023 -0.071408585 -9.185923e-15 -1.2950417e-24 -0.22288816 9.532929e-28 1.0688857e-15 -0.101957366
-0.2734087 0.16444336 -6.757546e-23 -1.2461591e-14 -2.5227644e-26 1.4415699e-24 -1.0461326e-14 -2.9919092e-35
7.6858636e-23 0.25709566 -0.19388604 -0.11098069 -2.0644773e-13 5.1279484e-37 2.4076133e-24 -1.0933803e-13
-2.0427013e-33 8.851329e-22 -7.777731e-15 0.11758134 7.122242e-17 -1.5509837e-14 -9.424983e-37 6.5074e-23
-4.3227024e-16 6.1598274e-28 -5.471739e-17 -1.1631223e-23 2.2239803e-19 2.8944155e-20 -5.7317554e-23 8.781198e-31
-1.20412616e-32 -1.373416e-29 1.6778758e-17 1.5190033e-31 3.8467453e-31 0.01968334 -1.267705e-23 -6.987008e-24
3.5402198e-27 1.5731023e-34 8.32032e-23 1.5842748e-13 2.3736874e-25 -1.4138856e-27 1.9377987e-30 -3.1806015e-15
8.2162596e-14 3.076011e-39 -2.941516e-16 -1.6013989e-21 3.8618275e-18 2.165483e-32 1.5448281e-15 -6.252217e-18
-3.187202e-36 -8.223491e-15 4.909781e-39 1.3562715e-18 -3.541194e-26 -3.7010632e-24 -1.3031422e-17 2.4519357e-14
-4.5781494e-18 2.8310198e-15 -2.1277486e-14 1.2715112e-16 4.899587e-34 1.4174792e-17 -2.639701e-21 -8.554746e-16
-2.6416348e-33 6.5057693e-19 -4.907438e-39 -1.4416923e-17 -1.1164024e-14 -2.928774e-39 -1.3885473e-27 -1.0226465e-18
-3.7112754e-24 4.6661586e-17 4.0597462e-14 -4.4104375e-14 1.3315024e-16 3.2911015e-17 -1.1674957e-20 -4.5314175e-28
5.306111e-19 -9.6359396e-14 4.3020337e-27 -3.822047e-26 1.3406066e-22 4.818881e-14 -9.56509e-22 -6.769285e-31
-6.0292558e-18 -5.125001e-16 -2.147491e-39 8.882113e-20 -3.7701049e-22 1.8917776e-13 1.336641e-19 0.17542106
0.058196407 0.12889239 0.09429723 -0.0790235 -1.0445814e-19 0.14519927 8.807419e-17 1.0521731e-15
0.20622121 -0.0052527045 -0.0030051037 0.10473207 -0.027211808 0.12781784 -5.6840033e-17 -4.917983e-39
2.1585003e-37 -4.910901e-39 0.0052547473 -0.09093031 -0.06541535 -2.3347177e-16 1.6587999e-13 -5.988746e-15
2.0570394e-18 -0.125067 0.0068955203 0.07254469 0.22531351 -4.90723e-39 4.230823e-24 2.0279138e-37
4.911502e-39 -5.8901e-33 -0.0963451 0.064856924 -0.02049772 -1.1678439e-33 4.904773e-39 -1.5303053e-17
6.2131434e-15 -4.696387e-38 -1.055924e-29 4.763458e-15 -0.00018838102 -0.056563545 0.024100712 -5.1724557e-17
-2.6483817e-16 5.32324e-14 2.0135206e-29 4.513979e-39 -3.639322e-21 -5.0122395e-38 -0.07426788 2.6832586e-26
-4.498366e-17 1.8291607e-21 -7.310133e-21 -8.0165785e-19 -1.6910156e-26 -1.4889332e-22 2.1723144e-23 -1.5654221e-14
-3.0171e-17 4.912093e-39 6.87888e-18 -6.2739416e-21 -4.6248454e-19 4.2328115e-22 3.535444e-39 2.4121868e-27
0.03559065 7.095937e-37 -9.2626946e-30 3.63225e-37 7.1820143e-23 9.450034e-15 -3.1602049e-18 7.320007e-21
-1.8219524e-31 -1.8646754e-17 -6.1060754e-15 -1.7454212e-16 -1.1655499e-13 -2.187831e-14 9.836653e-22 1.414982e-14
-5.183942e-26 1.2403197e-18 -4.913199e-39 5.5873384e-17 -1.30960035e-14 -3.6150807e-22 -6.635262e-26 -5.9256016e-16
-5.7460327e-28 -1.6935329e-23 -7.911642e-26 -3.8869133e-24 1.7589133e-15 -2.0759776e-24 -4.8675748e-14 -2.5076138e-28
-7.1423353e-37 -6.970094e-14 5.135314e-15 4.26883e-16 -7.161877e-38 4.9131e-39 -1.9200474e-26 9.789753e-22
-1.0374385e-22 -4.6238402e-38 6.238196e-30 5.197655e-29 -3.690937e-23 1.470412e-21 -4.2284497e-27 9.345856e-34
-4.6299014e-14 -4.7328413e-17 4.91545e-39 -6.783063e-28 -4.908227e-39 5.065319e-21 -2.801676e-35 3.522706e-39
-4.905563e-39 -3.507147e-38 -6.9231554e-14 -7.776366e-25 1.4881627e-23 -2.3503371e-20 -2.9479288e-16 4.90569e-39

atom_lin.bias f4 [300]
00000000: d4d9 5bbc bed8 d4bc c101 543c e949 86bb
00000010: 6cbd 843d f404 df3d 6141 2dbd 2a8f dcbc
00000020: 22b8 e33d d865 863d d9b1 e7bd 5f16 0b3d
00000030: 31c8 e83d eafe bb3d 796d 803d 1545 7e3d
00000040: 372d f83d 7185 ffbb 5676 e6bd fd66 423d
00000050: a2a2 883c a133 d0bc 3e9f b5bd f7a5 953d
00000060: 01b3 98bd 0d3c 733d 66b0 483d c7f9 813d
00000070: 426e 14bc 0f6b e2bc beae b0bc 9cfe e939
00000080: 4590 043d 7b4c 87bd a4f4 36bd b6e7 513e
00000090: deb1 ffbc d210 8d3d ba9d ee3d 18b1 903c
000000a0: 450b 7f3d cf77 f13d 7336 e83c 9fc9 bf3c
000000b0: f025 bc3c 39b4 ac3d 4f48 d3bb 2f16 ab3d
000000c0: b5ea c7bc 9a66 973d efbd 013e fe86 b23d
000000d0: 160d c3bc 4072 87bd 1b46 bd3d 3143 99bd
000000e0: 0561 963c 594b c63d 0ecc 2cbd ce7c 5c3c
000000f0: f4f4 793d fe72 953d 5489 c43d d795 0d3d
00000100: 155e 073c 2072 36bd 7ff6 b5bd b0be ee3d
00000110: 4c27 ba3d cb13 17bd 6af7 843d ff6c 83bc
00000120: c015 da3c 1b48 f73c 51b4 71bc 3810 f1bb
00000130: 5a46 6abc d754 0abd c31e 32bd bd43 0bbd
00000140: 4309 203d 412a b23d 76da 963d d92c 54bd
00000150: 276e de3c 7b56 2dba fcbd 983d 4038 ad3d
00000160: 1f54 be3d f771 f53c 21a7 01bd 10ec 293c
00000170: 80de 3a3d 0b54 54bc 17ff 6abd 8efb 9f3b
00000180: 299d 59bd 3804 45b8 d9be 9c3d a156 8cbd
00000190: 47f8 0ebd 1af2 36bd f3c7 7bbd 9db2 cdbc
000001a0: 65dd 96bc a34d cd3d 85da 90bd 7635 00bd
000001b0: 5726 d83d d549 793d fc73 5bbd 3ae0 ce3d
000001c0: b276 eebc a93f 3dbd e312 4fbd 6091 773d
000001d0: 3c22 24bc b38c 6b3d c822 d53d b059 423d
000001e0: 98ac 043d b976 0c3d 54d3 1d3c 9c68 f8bc
000001f0: ebfa 2b3d 0a3d 9dbd c304 5bbd 95f6 523d
00000200: 38c9 183d 4365 233e 1a55 603d 51ab ffbb
00000210: 46e7 5d3d 6d9d 903d 2e1e 23bd 9f10 793c
00000220: a674 f1bc eacb 49bd 4880 923c 146f 893b
00000230: 9f55 e23d d1c2 113d e48c 803d fe76 2a3d
00000240: beaa d5bc d49d 85bd f479 b63d 513b e93d
00000250: 94f3 a73d 591c 2ebc a94b 5b3d d3a2 ab3d
00000260: c260 123d 8b69 9f3d 9e2b 793d 7f2a fd3c
00000270: 2d44 ba3d af44 e73d c1a8 05bc b761 02bd
00000280: 2a0b ffbc a54f 573c 58dd 2b3d 9415 b4bc
00000290: b3f6 8b3d 01a4 7c3d 5871 d43d 1fe9 f53b
000002a0: 14c9 82bc a421 d63d abf0 d53d 4e5d af3d
000002b0: afab 003e b4a1 c03d cacc 8f3b 2152 f0bb
000002c0: 145c 973c 4b0f b1bd 2725 283d de3f ff3c
000002d0: 60ff a73d 19b5 f73c 4297 ba3d 45a3 743d
000002e0: f30a 0abb d9ab 16bd 8084 5abd a985 1b3d
000002f0: 6bd3 16bd 821e 0a3d 7fb1 0a3d 79c1 2f3c
00000300: 5711 d9bb e228 27bd 1373 febb b35d c23d
00000310: f3bc b33d e692 54bd 1bef 83bd f5f6 39bd
00000320: 9f4b b03d d3e6 aa3c 615e e43c 75d8 ad3d
00000330: f29e cf3c ca8c bdbd d5ab 163d 2cfb 45bd
00000340: 4b4d 8c3d 18b1 653d 3c2a cf3d f1ac 71bd
00000350: b45a f93c e1d4 18bb 84d2 e43d e8cc 6d3d
00000360: 0da6 1d3d 4120 813c 2d17 22bd 5bee 903c
00000370: fa02 183c 3c6b b5bd 3ad7 eabc ea84 acbd
00000380: 6261 1fbd 8a35 c8bc b48d 53bc 9a02 15bc
00000390: 4a10 55bb ae47 60bc a53b b13d 5734 06bd
000003a0: ae3f 843d 8f4a d43d 9738 c23d c5c4 b53d
000003b0: a95a 773d 8174 d2bb 74b2 52bd 93cf 563a
000003c0: e91a 3bbd 4892 c63d 9a7f 41bd 9242 033c
000003d0: cbfb 3b3c 2953 17bd 431c a13d 1969 403d
000003e0: 296e be3d 8b46 1dbd 5958 833d 59b9 04bd
000003f0: 4f12 113e effa b93c 91fa 333d f44d 90bd
-0.0134186335 -0.025982257 0.012939871 -0.0040981662 0.06481442 0.108896166 -0.04229868 -0.026923735
0.11119105 0.06562394 -0.113132186 0.03395688 0.113663085 0.091794804 0.0627088 0.0620776
0.12117999 -0.00779789 -0.112530395 0.0474615 0.016679112 -0.025415244 -0.08868264 0.07307046
-0.07456017 0.05938344 0.04899635 0.06346469 -0.009059491 -0.02763894 -0.021567699 0.00044630922
0.03236415 -0.06606384 -0.0446669 0.20498547 -0.031212743 0.06887974 0.11651178 0.01766257
0.062266607 0.1179043 0.028346276 0.02341157 0.022967309 0.08432812 -0.006447829 0.083538406
-0.02440391 0.073926166 0.1267011 0.08717154 -0.02380995 -0.06613588 0.09241887 -0.07483519
0.01835681 0.0968234 -0.04218679 0.01345749 0.06102462 0.07297324 0.09596506 0.034566727
0.008262177 -0.04454243 -0.08884906 0.116574645 0.090895265 -0.03688411 0.06492503 -0.016043184
0.0266217 0.03018575 -0.014752463 -0.0073566698 -0.014299 -0.033772316 -0.043486368 -0.034000147
0.039071333 0.086994655 0.07365887 -0.051800583 0.027152134 -0.0006612313 0.07458112 0.084579945
0.092933886 0.02996157 -0.031653527 0.010371223 0.04562235 -0.0129594905 -0.05737218 0.0048822826
-0.053128395 -4.697239e-05 0.07653589 -0.06852461 -0.034904744 -0.04466448 -0.061469983 -0.025109584
-0.018416116 0.10024574 -0.07072929 -0.031300984 0.10554188 0.060861427 -0.05357741 0.101013616
-0.029109333 -0.04620329 -0.05055512 0.060441375 -0.010017928 0.057507228 0.104070246 0.047448814
0.03239116 0.03429291 0.009632904 -0.03032332 0.04198734 -0.07677658 -0.053471338 0.05150469
0.037301272 0.15956597 0.05476866 -0.007802405 0.054175638 0.070612766 -0.039823703 0.015201717
-0.029474568 -0.049266733 0.017883435 0.0041941497 0.11051487 0.035586182 0.06276873 0.041617386
-0.026082393 -0.06524244 0.089099795 0.11388267 0.08200756 -0.010626876 0.053538952 0.08380666
0.035736807 0.077838026 0.060832612 0.030904053 0.09095035 0.11292397 -0.00815791 -0.03183147
-0.031133253 0.013141547 0.041959137 -0.021982946 0.068341635 0.061679844 0.10373181 0.007504597
-0.015965022 0.10455635 0.104462944 0.08562718 0.12565492 0.094058424 0.0043884264 -0.0073340093
0.018476523 -0.08645495 0.041051056 0.031158384 0.08203006 0.030237721 0.091108814 0.05972602
-0.0021063655 -0.03678498 -0.053349018 0.037969265 -0.036822718 0.0337205 0.03386068 0.01072728
-0.0066243815 -0.040810473 -0.0077651828 0.09490528 0.087762736 -0.051897906 -0.0644209 -0.045401532
0.086081736 0.020862019 0.027877035 0.084885515 0.025344346 -0.09255369 0.036784966 -0.04833524
0.0685068 0.056077093 0.101154774 -0.05900282 0.030438758 -0.0023320245 0.11172965 0.058056742
0.038488436 0.01576245 -0.039572883 0.017691782 0.009278053 -0.08858344 -0.028667081 -0.08423789
-0.03891123 -0.024439592 -0.012912203 -0.009094859 -0.003251093 -0.013688965 0.086539544 -0.03276476
0.064574584 0.103657834 0.0948345 0.088754214 0.060389195 -0.0064225798 -0.051439717 0.0008194383
-0.04567996 0.0969587 -0.04724083 0.008011477 0.011473606 -0.036944542 0.078667186 0.04697523
0.09298355 -0.038397353 0.06413335 -0.032403324 0.1416714 0.022702662 0.04394013 -0.070461184

bond_lin.weight f4 [300, 23]
00000000: 1723 a7b1 cf16 833e 58e6 38be 0c9c 803e
00000010: 6487 3034 25f3 1200 9b4c 462a 144f 27a8
00000020: d684 2e33 8d9e 94a0 5483 60b8 9634 9338
00000030: 1d54 a6bd 3abc 7617 79a5 adb9 fb3a 423a
00000040: 968f a90a c283 0792 bb8e 8937 e7a6 96b2
00000050: 6f7a f639 b80e 12a1 a83d cb38 592a a629
00000060: 4d79 f03e 856d afbe 5b62 eb3c cc02 9db8
00000070: 5900 a3a4 5987 3580 0306 5a38 6280 3500
00000080: c49e 5e2c 5b3e 3386 1b5e cfb2 699c 473e
00000090: bae2 14b8 306a 0b21 0cb2 c3b5 72ab e519
000000a0: 555b 25b6 3af0 a939 e458 dfb1 276d cd37
000000b0: 78e5 48b4 49f1 8839 79c8 8f38 772e 47b9
000000c0: 5b1e 9c3e 46ea 08bf 1fe2 532d 6e55 d439
000000d0: 0c29 82b1 5584 79a6 8a70 3500 d60c a324
000000e0: 6c10 7839 79e9 9b31 a30a 81bc d0bf 5139
000000f0: e35b f331 0461 a534 dce2 fc9c 8280 8f2c
00000100: 1e4d 9ba3 c04e ce2d d9b4 da37 e3c2 2600
00000110: 58f2 8234 e2d0 d31b 655b 8b3d 46a2 e5be
00000120: def7 1b3f f2fa 81ac f7fd 2034 4ad2 8e36
00000130: 5f40 52a7 972e 69b9 fe6e 048e 0a86 dd9c
00000140: aa63 4cb9 6963 c53e 03c6 513a ade0 25ba
00000150: 1071 68ae 01e7 e7a8 711d 8fba d086 3500
00000160: d976 3580 d7d4 2e2e a8f3 ceb1 8cdf 1433
00000170: ab92 ea84 de5e 6bbe 13d0 e4be d45f e8be
00000180: ceb1 a91e 9eab 9226 0e6b 3580 7be9 8d34
00000190: de29 0612 1028 fea4 c491 9337 754f ff34
000001a0: ee0e dc3e f4cb 7bb0 ff1e 4339 157c 62b2
000001b0: 53d8 48ba 2625 8290 e94e c938 5367 87b4
000001c0: e81b 131e 7e17 78ba 1fe0 0735 1ba6 759a
000001d0: 7c66 063f 91a7 073f c798 13be fb4d 1928
000001e0: b174 942e 4a02 c136 ce60 b52e d3b3 d19d
000001f0: 9706 da33 c867 8d16 667d 2c00 dc5d 0c3f
00000200: 4d78 6337 06db abb9 8ad4 ada1 8711 e738
00000210: ad8a 2039 9f92 8eb3 2313 9d36 e6f0 9d0a
00000220: 88e9 e9ab e3d4 05b6 387b 8999 63fb 8fbb
00000230: e988 883e d936 bdbe 5aa0 8bb8 3353 9010
00000240: 5f1f af39 817e 3580 a2cb 6aba 3c4a 97b9
00000250: 2a95 b78c b0b0 b725 084f 5c3e b319 6f34
00000260: 7c05 5e2a 6a57 1aa7 3d47 ab21 a54c c7b2
00000270: 0b28 2d00 caf5 28b3 80ec f0b6 0c66 c730
00000280: 790d 9b2e 31ca 908c 58bf 413e 316f dcbd
00000290: fed7 34be afd3 fab0 81dc 3189 334a 0e27
000002a0: 8cd2 ab93 7136 8f34 be6b 3500 65ae 07ac
000002b0: b77d 3580 ef73 6abe c040 c731 6738 9dae
000002c0: 0449 8835 364d 73b9 b6c9 2136 1b87 aa37
000002d0: f82a 92b9 6be4 f835 ce70 9b2a e322 6386
000002e0: 0e7c 0639 b975 f3be c7e0 6ebe ba5d 113e
000002f0: 2b55 0033 5dc7 e7b9 affd 5c34 0d57 b637
00000300: b2ec 36b8 8917 fcaf d937 102e 6593 bda8
00000310: 1e20 85be 0bb4 5f20 4d71 3580 360e 4814
00000320: a511 79b1 945e 8827 f16a 3580 7090 21a4
00000330: 81a8 c106 2462 34ab 3f39 6230 939f 26ba
00000340: 731f bebd 355c 41be 3140 ab3d 61f4 2b0a
00000350: 0232 60b7 ccea f28d 7718 82b2 cf2d 1f20
00000360: 9e78 5936 80ae 36a0 7f1c 38b9 f618 a03e
00000370: 628a 7531 449e 9629 8424 a784 2c73 a6a6
00000380: f240 4e39 8629 d221 6c7d 3580 df03 ecb7
00000390: 54a3 161e c83e 8a31 54a0 12a8 11f0 df3e
000003a0: 8b01 9f3e 93f7 a039 794e ee39 4286 e613
000003b0: a595 35a4 24c0 5530 1a08 01ab 8a83 4339
000003c0: b91d 1c95 2d12 66af 2dc3 ddbe 765a 3f35
000003d0: 0410 3c25 1107 16b2 1ace 8c2e 9370 1e30
000003e0: cb0a 1d2f ce7a 9528 4319 5d2f 6bd3 77b3
000003f0: c282 61ad 008a 1d21 cf4b 9b3e 4958 293e
-4.864329e-09 0.2560334 -0.18056619 0.25119054 1.6440532e-07 1.740263e-39 1.761251e-13 -9.28751e-15
4.0633346e-08 -2.5177095e-19 -5.352807e-05 7.019301e-05 -0.08121512 7.972446e-25 -0.00033120418 0.00074093015
1.6328119e-32 -4.2760893e-28 1.6398137e-05 -1.7538197e-08 0.00047011997 -4.9486204e-19 9.691279e-05 7.379227e-14
0.46967545 -0.34263244 0.028733423 -7.486864e-05 -7.069057e-17 -4.915835e-39 5.198085e-05 4.913336e-39
3.163623e-12 -3.371197e-35 -2.4140766e-08 0.1949326 -3.5497105e-05 4.723557e-19 -1.4580451e-06 2.3747291e-23
-2.4640078e-06 0.00032413175 -6.50026e-09 2.4488732e-05 -1.8709932e-07 0.00026119713 6.856112e-05 -0.00018995428
0.3049191 -0.5348247 1.204417e-11 0.0004049944 -3.7881644e-09 -8.656857e-16 4.907653e-39 7.0711727e-17
0.0002365724 4.5376365e-09 -0.015752142 0.00020003249 7.082677e-09 3.0804233e-07 -1.6734603e-21 4.0785717e-12
-1.6837794e-17 2.345446e-11 2.6071839e-05 3.559661e-39 2.4390715e-07 3.504201e-22 0.068045415 -0.44850367
0.6092509 -3.694261e-12 1.4993553e-07 4.2564106e-06 -2.917825e-15 -0.00022237968 -1.6323697e-30 -1.4659202e-21
-0.00019492084 0.38552406 0.00080022233 -0.000632773 -5.2851112e-11 -2.5746334e-14 -0.0010918808 4.915643e-39
-4.909916e-39 3.975206e-11 -6.0230896e-09 3.466225e-08 -5.514783e-36 -0.22985408 -0.44689998 -0.4538561
1.796711e-20 1.0177302e-15 -4.905685e-39 2.6433176e-07 4.233455e-28 -1.1022281e-16 1.7591643e-05 4.7555264e-07
0.4298014 -9.1603103e-10 0.00018608196 -1.3183144e-08 -0.00076616294 -5.1333195e-29 9.599125e-05 -2.5220888e-07
7.787886e-21 -0.000946395 5.061756e-07 -5.079899e-23 0.5250013 0.5299006 -0.14413749 8.5101155e-15
6.7509894e-11 5.7521147e-06 8.248123e-11 -5.5507773e-21 1.0152615e-07 2.2845274e-25 4.085746e-39 0.5483072
1.3558264e-05 -0.00032778847 -1.1779195e-18 0.00011018203 0.0001531045 -6.6390605e-08 4.6811924e-06 1.5209166e-32
-1.6620464e-12 -1.994246e-06 -1.4215236e-23 -0.0043939813 0.26666954 -0.36955908 -6.657904e-05 5.6926174e-29
0.00033401974 -4.912662e-39 -0.0008956735 -0.00028856273 -2.828539e-31 3.1865168e-16 0.21514523 2.2267959e-07
1.9719464e-13 -2.141918e-15 1.1606267e-18 -2.3201503e-08 4.146962e-39 -3.9339092e-08 -7.1800896e-06 1.4508159e-09
7.050977e-11 -2.2308402e-31 0.18920648 -0.107633956 -0.1766052 -1.8250058e-09 -2.140928e-33 1.9746682e-15
-4.3374084e-27 2.6675437e-07 4.905932e-39 -1.9281462e-12 -4.912379e-39 -0.22895788 5.7990235e-09 -7.1495525e-11
1.015404e-06 -0.00023203049 2.410828e-06 2.0328493e-05 -0.00027879304 1.8543918e-06 2.7611805e-13 -4.2719586e-35
0.0001282545 -0.47550753 -0.23327933 0.1419591 2.9879782e-08 -0.0004420829 2.0581386e-07 2.1736627e-05
-4.361262e-05 -4.5855256e-10 3.2791412e-11 -2.1047137e-14 -0.26001066 1.8948406e-19 -4.907926e-39 1.0100222e-26
-3.6244299e-09 3.7850125e-15 -4.905645e-39 -3.5033653e-17 7.2846125e-35 -6.4085044e-13 8.229967e-10 -0.0006356176
-0.09283342 -0.1888283 0.08361853 8.279313e-33 -1.3363084e-05 -1.4970927e-30 -1.5145117e-08 1.3482981e-19
3.2405728e-06 -1.5473737e-19 -0.00017558223 0.31269044 3.5730854e-09 6.688793e-14 -3.9295046e-36 -1.1549781e-15
0.00019669885 1.4241145e-18 -4.912274e-39 -2.8135195e-05 7.974709e-21 4.023466e-09 -8.139394e-15 0.43737844
0.31055865 0.00030702035 0.00045453364 5.819255e-27 -3.9374872e-17 7.7761997e-10 -4.584125e-13 0.00018645651
-3.1527396e-26 -2.0924835e-10 -0.4331297 7.128468e-07 1.6311827e-16 -8.732756e-09 6.403074e-11 5.764004e-10
1.4282901e-10 1.6595581e-14 2.0108808e-10 -5.7701453e-08 -1.2818803e-11 5.337631e-19 0.30331275 0.16537584

bond_lin.bias f4 [300]
00000000: 3a81 733e a2be 3bbe fe1f 61bd 48d8 f6bd
00000010: f546 313d 9501 59bd 22d6 f6bd 7966 123c
00000020: a99f 5abd 9731 113e e351 673d 541b d5bd
00000030: 4f9a 6dbd 5ab4 863d b5c6 5c3e 74db 46be
00000040: 8ba6 84bd 910a 183d 78b7 e4bd 3cbd d3bd
00000050: e9c2 97bc b88b 5bbd d952 fe3d a0c2 583e
00000060: d9e5 58be aeba 9e3e ac40 b53b fafd 4c3e
00000070: 376a bf3d 83f9 1e3d 1c94 2cbe 978e 6d3e
00000080: 9efa 373e dddb afbc 909f 8abe bda6 07be
00000090: 1c3d a1be 3b13 f3bd 4171 fb3c a23b 1abe
000000a0: b2f3 cebd f742 96bd 7e26 83be f6d6 e8bd
000000b0: 9fd3 eb3c 088a 813d db1e 5bbe 34c5 96bd
000000c0: 53e0 9c3c 5983 1cbe 5674 a23d 9c82 69be
000000d0: 96d8 c83d d9a6 59be 9398 73be 8ebb 363d
000000e0: b6c1 2abd a35a 87bd bc80 13be cc57 2cbe
000000f0: 95af 35bd c367 1abd e332 f43d 21da d3bd
00000100: 6412 dd3c 76df e4bc 677b 1f3e bb93 7d3e
00000110: a22b 25be c3c1 43be 2835 a63b 79ef 393c
00000120: d616 eebd 2f62 a1bd 6ceb 58bd 2f8e 163e
00000130: 872b b4bd e9e8 3b3e 218a d9bb a4e8 ba3d
00000140: 622f f5bd 9435 0d3e 5e62 be3d 0a0a fdbd
00000150: 5cd7 66be 88c8 b93d 1fd7 11bd 2335 fabd
00000160: c869 01be a863 b3bd b954 893d 4986 2a3c
00000170: e6e8 ecbd 4b6d 523d fbf6 0cbe eed6 af3c
00000180: 746d ebbd 7d94 3b3d 5bf7 e1bd 1c88 fbbc
00000190: 17ac 983d 0a8f f6bd 9d10 4c3d 4fba e3bd
000001a0: a6da 44be a91b 1f3d e30e b8bd 571e f73d
000001b0: 88a3 163e 7e59 4c3e db83 8bbd d742 05bd
000001c0: cc34 3e3e 9ef0 653d 65c3 8c3e 064c 633e
000001d0: 3448 54b5 067f 56bd de82 973d d7c3 173e
000001e0: 7685 693d e56d 083e 29c5 00bd 466c 3b3e
000001f0: aea9 933d ca62 073c 80f0 2ebe 6b73 353e
00000200: 8ce7 5cbe 8dc5 fb3b e9ca 753b 2115 093e
00000210: bfa0 7a3e 6d4c 613e 6fa2 413e 071c 05be
00000220: 0f03 05be 97a5 ec3c 3433 ad3d ccbf 22be
00000230: ad50 483e f9f9 5cbe 891e 163e dc87 4c3e
00000240: e924 bd3d 5f18 e0bd dddd b6bd a605 b5bd
00000250: 300e 32bd 0105 8dba b498 5fbe 6aa9 04be
00000260: 9694 d7bc 4d9c 8dbd eeec 2d3e 56cb 643e
00000270: cb6e 503e 032d 89be 08e5 39bd 7b5b e23d
00000280: 813a 8dbe 9494 d5bc 9829 97bd 86f2 eb3d
00000290: 2411 3bbe 293d 22be e35d 82bd 1afb 8e3d
000002a0: 194f 4c3c 0892 683b 40c2 4d3e 3a4d 66bd
000002b0: 5d10 5fbe 9efe be3b d24e 4f3e 18c9 b63d
000002c0: 7b07 ef3d a5eb cdbd f2cf 273e 6877 2ebe
000002d0: 219a 003e c6ae b83d d8af 413e 950e 76bd
000002e0: 14bb 84bd c508 8f3d a2d2 20be 37e6 743d
000002f0: 3690 5d3e e7c9 3c3e d66d a23c ebb3 35bd
00000300: c7dc 9a3d 04bd 20be 4f1d 173e 5532 e03d
00000310: 6d13 cfbd 1bd0 61be fa08 21be 5dcf 2ebd
00000320: e8a6 e13d 152c cfbb b5fd 7cbd a008 a3bd
00000330: 4a68 32be 019d 78be 10ad 1e3e 20ee 6e3c
00000340: c177 873e be78 94bd 5799 2b3e 26d3 8bbb
00000350: 10a1 043e a1a0 623e f591 7bbe 8be1 923d
00000360: 4443 42be 013b e13d a2eb 78bd bf32 01be
00000370: e589 453e d3bc 80be 9a5c 1ebe 6edf d03d
00000380: 1d65 8fbd 0297 02be e8bf f93c 07a9 56be
00000390: ecc1 61bd db5f 13be fa42 37be 53dd 393d
000003a0: 9b10 283d bd4c b83c 9159 3c3e 49d5 393e
000003b0: 86b2 2ebe 45cf c83d b7dd 813e 720c 953d
000003c0: 65a9 363e 132b 913d 561f b53d 6dd2 54be
000003d0: 0533 2cbe 3499 be3d 5a19 393e bb3b 403e
000003e0: 946d 583e f7be 953d ea2d 243e 198d cb3d
000003f0: 4644 5bbe 24fa 8fbe 7923 ef3d 5e35 963d
0.23779765 -0.1833444 -0.05496215 -0.12052971 0.04328056 -0.052980024 -0.12052561 0.008935564
-0.05337492 0.14179073 0.056474578 -0.10405603 -0.05800849 0.06577368 0.21560176 -0.19419652
-0.06477078 0.037119452 -0.111678064 -0.10338828 -0.018525558 -0.053600043 0.12418146 0.21167994
-0.2118143 0.310018 0.005531391 0.2001876 0.09346431 0.03881217 -0.16853374 0.23198925
0.17966697 -0.021467144 -0.27074862 -0.132472 -0.31491935 -0.11868902 0.030693652 -0.1506181
-0.10105075 -0.07336991 -0.25615305 -0.113691255 0.028787432 0.063251555 -0.21398489 -0.07361832
0.019149935 -0.1528448 0.079323456 -0.2280373 0.098069355 -0.21255054 -0.23788671 0.04461246
-0.041688643 -0.066090845 -0.14404577 -0.16830367 -0.0443569 -0.03769661 0.11923768 -0.10344339
0.026986308 -0.027938586 0.15574418 0.24763386 -0.16129926 -0.19116883 0.0050722547 0.011348599
-0.11625449 -0.07880055 -0.05295889 0.14702676 -0.08797365 0.18350567 -0.0066387807 0.09126404
-0.11971928 0.1378997 0.09296106 -0.123554304 -0.2254309 0.090714514 -0.035605546 -0.12217166
-0.12638009 -0.08759242 0.06705613 0.010407993 -0.11567859 0.05137376 -0.1376609 0.021464791
-0.11495486 0.045795906 -0.110335074 -0.03070455 0.074546985 -0.12039001 0.04982053 -0.1111952
-0.19224033 0.03884474 -0.089872144 0.12066334 0.1471082 0.19956014 -0.06812259 -0.032534447
0.18574828 0.056137674 0.27492824 0.2219697 -7.9081224e-07 -0.052367233 0.07398008 0.148208
0.057012044 0.13323171 -0.031438027 0.18303022 0.07210098 0.008263299 -0.17083931 0.1771981
-0.21572703 0.007683462 0.0037504977 0.13386966 0.24475382 0.2200181 0.1890962 -0.12998973
-0.12989448 0.028887553 0.08457032 -0.15893477 0.19562025 -0.21579732 0.14660086 0.19973701
0.09235556 -0.109421484 -0.08929036 -0.08838968 -0.04347056 -0.0010758938 -0.21835595 -0.12955251
-0.026315968 -0.06914578 0.16984913 0.22343192 0.20354764 -0.26792154 -0.045384437 0.11052605
-0.27583697 -0.026071824 -0.0738098 0.11520867 -0.18268257 -0.15843643 -0.06365564 0.069814876
0.01247003 0.0035487432 0.20093632 -0.056225993 -0.21783586 0.0058286926 0.20244911 0.08925074
0.11671349 -0.10054711 0.16387919 -0.17037737 0.12558796 0.090177104 0.18914735 -0.0600725
-0.06480995 0.069840945 -0.1570535 0.059789862 0.21637043 0.18436395 0.019827764 -0.044361036
0.07561641 -0.15697104 0.14757274 0.109471 -0.10111127 -0.22052042 -0.1572608 -0.042678226
0.11018163 -0.0063223937 -0.06176539 -0.079606295 -0.17422596 -0.24278642 0.15495706 0.014583141
0.26458552 -0.07249592 0.16757713 -0.004267114 0.12952065 0.22131588 -0.24567397 0.07171925
-0.18970972 0.10997582 -0.060771592 -0.12617014 0.19290884 -0.2514406 -0.15465012 0.10198866
-0.07001708 -0.12752917 0.030487016 -0.20962916 -0.05511658 -0.14392035 -0.17896643 0.045377087
0.04103146 0.02249753 0.18393542 0.18147768 -0.17060289 0.098051585 0.25364468 0.072777644
0.17838056 0.07088294 0.088438675 -0.20783396 -0.16816337 0.09306565 0.18076077 0.18772785
0.2113555 0.07311814 0.1603314 0.099390216 -0.21412763 -0.2812053 0.11676688 0.07334398

energy_lin.1.weight f4 [300, 300]
00000000: 0ca0 883d 711a ca3b 53f0 80bd d5cc cfbd
00000010: 2d90 883d 594b 9d3c 67a5 ba3d b873 b43c
00000020: 9881 a33d 2b13 a6bc d798 f83b 3d8b d5bd
00000030: 2a49 acbc a521 1bbd da65 07bd 5ac1 17bc
00000040: fe36 7c3d b9f4 483d 6217 6c3d 2b9b 65bd
00000050: 5c3e 4e3d 22b2 b6bd acf0 b7bd 8bca b83d
00000060: a4e7 253e 597d 69be 6063 fdbd 70de 003e
00000070: 7b45 ab3d fe1a 3b3d 9c5c 093e 2471 80bd
00000080: 5635 9b3d 4751 823d 6334 573e f94b 643e
00000090: 8a40 a5bd 37b5 92bb e457 1dbd b7f1 ac3d
000000a0: 91db 50be 98d9 d63d 8fb3 ff3c 664d bc3d
000000b0: 66ae b1bd 2f3a 533c 302e cdbc c661 09bd
000000c0: c056 3a3e 1517 89bc 9ccb c93d fa9c 653d
000000d0: e7af f93d b122 2cbe 9296 1c3a 3b04 dfbd
000000e0: 067b 593d 824c 513e ea1b 163e 2847 30bd
000000f0: d4e4 b63c cbb8 60bc 555d 1abe 2acc cb3d
00000100: 15c7 e33c d42e 90bd 526a 2e00 49a9 0dbe
00000110: ef5b 9abd ab50 dcb9 0d9c 88bd b634 5e3c
00000120: f07b 8d39 8342 183d fcb0 1fbe 79ba bd3d
00000130: 204c b93d bf8e 073e 905b ac3d aaaf 0b3d
00000140: c4bd 873d 32d0 683d 2c87 f0bd ccf4 b3bd
00000150: 1d48 af3d 1e4a 2a3e 3102 263e fc5a 3dbd
00000160: fd26 b6bc db2c 5a3d 25bb af3d 72ea 213c
00000170: 6ebd 2e3e 1233 293d 514c 0fbd a496 3cbd
00000180: b61d 04bd 9623 bbbc 5e8e 4d3d 99f9 edbc
00000190: a07d 18be 03af 263e 264a fcbd 77ad 323c
000001a0: 859a 0e3e 2681 353e 0351 c4bd b4df 1e3e
000001b0: c135 b73d 52a0 c73d ce1e bcbc dd78 4b3e
000001c0: aa6f d23d b8d7 743d 17de c93d 9fc3 583d
000001d0: 7ed6 dcbc f5a4 42bd 3026 23bd fe49 c23b
000001e0: 0ec1 693d 976d aabd c53d 433e e296 943c
000001f0: 3511 d2bd 6566 71bd 1528 a03d dcb8 373d
00000200: a380 3c3c 6b09 f0bd defe 843b ecb5 02bc
00000210: c311 423d a209 dd3c de9e 083e d261 5e3d
00000220: ae04 953c dddd a23c 9124 0b3e e4b0 f13b
00000230: b424 e8ba d8d7 f1bc 86cc 253d 063b 05be
00000240: 5fa6 653c d8c0 e7bb a576 3abd 2f81 97bd
00000250: ebfc fc3d f86c 113e 03b7 1d3e 9ace 723d
00000260: 75e1 debd 7405 f1bb 6c62 363e a88e 733e
00000270: 9d6b 083d cdf3 85bd aee1 97bd 8cb1 533d
00000280: 07f2 023e 5376 25bd e53f 323e b67e 1e3d
00000290: e487 3e3e fb5b d0bc 3337 f83c 92fd d3bd
000002a0: ca36 353e f1b5 89bd a82f af3c d9bb 0a3e
000002b0: d148 3f3e 3b85 d43c 9631 b03c cb14 8fbd
000002c0: 6fb3 1d3e 77c7 5f3d 3ba4 3cbd ee05 e63d
000002d0: d0ce 38bc 434a 64bd 0c95 243d b071 68bd
000002e0: 6fbd b1bd e2bd 99bd 5e67 24bd 984b c3bd
000002f0: c99a 293e cff0 a0bc 38bc eabd 8a73 69bd
00000300: fd99 e1bd 2371 cb3d ebb6 aabc 27de 9a3d
00000310: aebe 31bc 037f 0bbd b798 033e 15ea fa3c
00000320: f636 073e 8b93 83bd 3864 1fbd a146 e83d
00000330: 6ae6 773d 4a0c 8f3d 9c6a 92bc bd57 f2bd
00000340: 7fbe 16be c41b cb3d 17ac cc3d fe80 443d
00000350: b2a1 16be 66da 713d 6519 f63d 9eb9 353d
00000360: 7612 92bc 5625 b8bd 1943 a7bd 5f31 a4bd
00000370: f740 2ebd f1d7 0f3e 8607 84bd 1728 eb3d
00000380: 5283 bebb 0c29 633b df15 0bbe 58c6 d93b
00000390: 5592 11be b7be 02bd 5fdd 843d 54b6 f33d
000003a0: 8208 e33d 4913 1c3c fa17 953d 5a91 2fbd
000003b0: 144e 1dbe fac5 fbbd 9f78 833e 8593 143e
000003c0: 454f eebd 4a7b a4bd 3edb c43d 1313 0f3e
000003d0: 83f8 033d 0d6a a5bd 8b39 08bd 9ffa 09be
000003e0: aefd 5e3d 430c 27be dd6c 5e3e f14c 533d
000003f0: c423 f13c a232 843d fe6d 89bb fb65 773e
0.066711515 0.006167703 -0.06295838 -0.101464905 0.06668124 0.019200968 0.09113579 0.022027835
0.079837024 -0.020272812 0.0075865793 -0.10426948 -0.021030981 -0.037873883 -0.033056118 -0.009262407
0.061575882 0.04906151 0.057639487 -0.056056183 0.05035244 -0.08920695 -0.089814514 0.09023007
0.16201645 -0.22801723 -0.1237247 0.12584853 0.08362862 0.04568004 0.13414234 -0.0627158
0.075785324 0.06363159 0.21016078 0.22294606 -0.080689505 -0.004477169 -0.038413897 0.08444541
-0.20396258 0.104907215 0.03121355 0.0919445 -0.08675842 0.01289229 -0.025046438 -0.03354051
0.18197155 -0.01673464 0.098532885 0.056057908 0.12191754 -0.16810109 0.00059733645 -0.10889479
0.05309584 0.20439342 0.14659086 -0.04303661 0.02232591 -0.013715933 -0.15074666 0.099510506
0.02780489 -0.07040182 4.262573e-39 -0.13834108 -0.07537066 -0.00042021772 -0.06670389 0.013562372
0.00026985956 0.037172806 -0.15594858 0.092640825 0.09047723 0.13238047 0.08415902 0.034103073
0.06627992 0.056839176 -0.11744532 -0.08786926 0.085586764 0.16629836 0.16211773 -0.046229348
-0.022235388 0.053265434 0.08580617 0.009882556 0.17064449 0.04130847 -0.03498489 -0.0460421
-0.032254897 -0.022844117 0.0501846 -0.029049681 -0.14891672 0.16277699 -0.1231883 0.010905615
0.13926132 0.17725047 -0.09585764 0.15515023 0.089457996 0.097473755 -0.022963908 0.19870324
0.102752045 0.059776038 0.098568134 0.052920934 -0.026957747 -0.047520597 -0.03983134 0.0059292307
0.057068877 -0.08321684 0.19066532 0.018138353 -0.10257188 -0.05893554 0.07820145 0.04485403
0.011505279 -0.11720546 0.004058703 -0.007977944 0.04738022 0.026982132 0.13341853 0.054292507
0.018190708 0.019881183 0.13588168 0.0073758233 -0.0017711134 -0.029521868 0.040478252 -0.13010797
0.014016717 -0.0070725493 -0.045523304 -0.07397687 0.12352928 0.14201725 0.15401845 0.05927906
-0.10882846 -0.0073553864 0.17810982 0.23784888 0.033305753 -0.06540642 -0.07416092 0.051682994
0.12787639 -0.040396046 0.17407186 0.03869506 0.18606526 -0.025434485 0.030299759 -0.10351099
0.17696682 -0.06724156 0.021385029 0.1354822 0.18680121 0.025942435 0.02150802 -0.06986388
0.1540048 0.054633584 -0.04605506 0.112316 -0.011279777 -0.055734884 0.040181205 -0.056749046
-0.0867871 -0.075069204 -0.04013764 -0.09535903 0.16562952 -0.019646076 -0.11461681 -0.056994952
-0.11015699 0.099336885 -0.020839175 0.075619034 -0.010848684 -0.034056675 0.12851225 0.030629197
0.1320456 -0.06424626 -0.038913935 0.113415964 0.060522474 0.06984766 -0.017873101 -0.11833141
-0.14721106 0.09917405 0.09993761 0.04797458 -0.1471012 0.05904617 0.12016562 0.04436647
-0.017831068 -0.08991496 -0.08167095 -0.08017229 -0.042542424 0.14047219 -0.064467475 0.11482256
-0.0058139944 0.0034661917 -0.13582562 0.006645959 -0.14215977 -0.03192016 0.06487536 0.11900011
0.11085607 0.009526082 0.07279964 -0.042863227 -0.15361816 -0.122936204 0.25677964 0.14509399
-0.11636213 -0.08031328 0.0961213 0.1397212 0.03221942 -0.08076868 -0.033258002 -0.1347451
0.054441147 -0.16313271 0.21721216 0.05158705 0.029436 0.0645497 -0.0041940203 0.24159996

energy_lin.1.bias f4 [300]
00000000: d0fa 47ba c587 05bd 4ba6 ee3d 3af3 383b
00000010: d8dc c9bc 22d6 a83a e315 6c3d 4dbc 4c3d
00000020: 82c0 ba3d a550 a2bc 133a 29bd dc0b 0ebc
00000030: eaae 45bc fcfd bdbc 0ae4 7c3c e75e 183d
00000040: a69b 28bd ba77 7ebc b3cb 383d 0889 903d
00000050: 8eef e6bb 5560 6c3c dd40 443d dcd4 383d
00000060: 107d 8fbc 4a2a 883c 2d29 08bd 645f 7b3d
00000070: 5df6 6b3d a8ec 9dbc c887 08bc e66e b3bc
00000080: 01f7 92bb 89c8 a2bc f7cf 26bd 3404 423c
00000090: 8175 523d 4fbd 443d 6441 913c 6baa 923d
000000a0: b90f 96bb 897b bd3c a505 f5bc b13b 383c
000000b0: 6a85 bbbc f201 ef3c 5726 71bc aea9 0d3d
000000c0: aef6 acbb 6f08 9c3c 43e3 0abd 9b17 44bd
000000d0: 5cd9 37bd 73d6 f93c 88e6 1dbc 00a2 e1bc
000000e0: 8d7f 6abc 49cd f5bc f37a 8c3c 9c4a 0f3c
000000f0: ab7d d5bc 421e 4bbb b18b eabc b3fa b83a
00000100: 49aa 0a3d 3e25 9b3c bc47 24bd 3953 b1bc
00000110: a20b d93c 844b c43c 2884 a13d 1d35 af3c
00000120: 0868 59bc 1e13 ca3c 7d38 653b 7dae 343c
00000130: 7dea d93c b2f8 8fbc 86d6 ee3c 2d27 763d
00000140: 8f41 ab3c 4c89 9fbc a70d 29bd a8df 47bd
00000150: 5cfa cd3c 5129 c13d ee66 943d 0ce4 a03d
00000160: 7e64 aa3c f7ff 853d 2263 33bd 31ba d83c
00000170: ab87 323d d14d d9bc 6667 cd3c a5e4 3fbd
00000180: 7cee ec3b 1f46 293d 62b3 a8bb 470b 20bd
00000190: 5563 cabc 6663 51bd 70c1 9f3c 20db 8c3d
000001a0: 2a68 b23b 41b8 a2bc 476e 54bd 0fbf 0c3c
000001b0: 39ef 1b3d b01b 833d 525e 4c3d f660 84bc
000001c0: 4f55 a03b 937e 3dbc 7220 92bb 5025 9a3c
000001d0: e961 b63d d69c a6bc e3ed 603c 6f7b 7f3d
000001e0: a845 753c 1bd7 943d 65b6 3cbc dd50 cc3c
000001f0: 645e bebc 57ce bc3d c70e 253d 40b8 77bc
00000200: 8ef5 23bd e6a6 1ebc 8271 ecbc 6a65 31bc
00000210: e56f 643d fb5c 5c3a b9dd b13d 0cd7 3a3d
00000220: 4810 bdbc 4b7b 9fbc 92f4 c63a 9e29 003d
00000230: 8a22 823d d8dd 803d b70d 0fbd c32c 873d
00000240: b457 563d 2eef 9f3d b5f9 f4bc e0d6 883d
00000250: 4a4a 443d 9984 603d 7e59 acbc 1142 f63c
00000260: cba4 863d 1d9e 32bd c9ca 36bc be32 93bc
00000270: 5bf5 813b bf07 dc3b 96c5 1bbd f9be ebbc
00000280: aed1 893d ef28 0b3d 8e17 093d c88f 10bc
00000290: 7fff d7ba 4398 13bc 17fb 1f3d e451 5c3c
000002a0: 0d02 b83c b9b2 e23c dc93 173c dfdf a03c
000002b0: a8c4 793d 18dd 7f3d 0097 6c3d cb48 08bd
000002c0: 3e1c 0c3d 0cd8 773d fb30 4c3d b063 813c
000002d0: eda6 6ebb 6a95 dbbb 7f4b 85ba 4a3f 0e3d
000002e0: bfae 1b3d 377c adbc 05c8 c73c 5dcb 4bbc
000002f0: 3677 f3bc ea63 cc3d 8e4a cd3c 5532 2e3d
00000300: 4f5d a03c b208 2abd daba a6bc e46d c13d
00000310: fe59 2c3d 18c9 b7bc eaa6 e5bc 37c0 2abc
00000320: ddd7 00bd bac4 033c 8ffb 893d fa93 debc
00000330: ff7c 86bb ca3e f63c c265 913d 816d 8d3d
00000340: 52d1 633c a53e 313d 6040 843d 6a10 813c
00000350: 6264 9f3d 639d 22bc 768c 6a3c ee3b 3f3d
00000360: 1795 633d 46a6 e93c d408 5e3d d11c 2d3c
00000370: 9d52 5f3b 4f25 fabc 95fe 963d 7356 1ebc
00000380: 99b0 e33c 749d 5abc b008 773d afd3 553d
00000390: aa73 37bd 0679 28bb c44c 343d 759c 96bc
000003a0: eac9 563d 28c1 893d cace 153d ae4b d83c
000003b0: 14fe 34bd 6682 643b a447 38bd 9260 8f3d
000003c0: 06f4 26bd e713 d43c ed90 fa3c 746d a8bc
000003d0: 9090 9c3d c62b 6dbb 20f7 9fbc 47d2 ed3c
000003e0: 80a1 a33d 2c49 3c3c 1551 5d3c 23df 0f3d
000003f0: 84ac 14bd 0c26 5d3d e35d 5c3b 39a9 3ebd
-0.00076286215 -0.032600183 0.116528116 0.0028221146 -0.02464144 0.0012881199 0.05763806 0.049984265
0.09118749 -0.019813845 -0.04131515 -0.00866982 -0.012065629 -0.023192398 0.015435228 0.03719988
-0.041164063 -0.015531475 0.045116138 0.07057387 -0.0070476 0.014427264 0.04791342 0.045124874
-0.01751569 0.016621727 -0.033242393 0.06137027 0.057607997 -0.019277886 -0.008333154 -0.021903466
-0.0044850116 -0.019871013 -0.040725674 0.011841822 0.05138159 0.0480321 0.017731376 0.07161411
-0.004579511 0.023130195 -0.029909918 0.0112447 -0.022890765 0.029175732 -0.014718614 0.034585647
-0.00527843 0.01904699 -0.03390814 -0.047874074 -0.044885024 0.030497765 -0.009637482 -0.027543068
-0.014312637 -0.030005114 0.01714847 0.008745816 -0.0260609 -0.0030993377 -0.028631063 0.00141128
0.033853803 0.018938657 -0.040107474 -0.021646129 0.026494805 0.02396179 0.07886535 0.021387631
-0.013269432 0.024667319 0.0034976297 0.011027929 0.02660107 -0.017574642 0.029155027 0.060095955
0.020905284 -0.019474648 -0.041272786 -0.04879728 0.025143795 0.094317086 0.07246195 0.078559965
0.020799872 0.06542962 -0.043795712 0.02645597 0.043586414 -0.026526364 0.025073718 -0.04684891
0.007230578 0.04132664 -0.005148337 -0.039073255 -0.024705568 -0.051120184 0.019501418 0.06877732
0.005444546 -0.01986325 -0.05186298 0.008590474 0.038069937 0.06401765 0.04989464 -0.016159516
0.004892982 -0.011565822 -0.004459434 0.01881662 0.08905394 -0.020338457 0.013728592 0.062373575
0.014970221 0.072675906 -0.011518096 0.024940902 -0.023238368 0.09219044 0.040297296 -0.015119612
-0.0400291 -0.009683346 -0.028862718 -0.010827402 0.055770773 0.0008406189 0.08684868 0.04561524
-0.023079053 -0.01946797 0.0015179089 0.03128969 0.06354244 0.06292313 -0.03492519 0.066003345
0.052329734 0.07809292 -0.029904226 0.06681609 0.04792241 0.054813955 -0.021038767 0.0300608
0.065744005 -0.04360782 -0.011156746 -0.017968532 0.003966016 0.0067147906 -0.03803023 -0.028777586
0.06729446 0.033974584 0.03346973 -0.008823343 -0.0016479342 -0.00900847 0.039057817 0.013447259
0.022461915 0.027673112 0.009251561 0.019638 0.06097856 0.06246671 0.057761192 -0.033272546
0.03420662 0.060508773 0.0498514 0.015794605 -0.0036415413 -0.006701161 -0.0010169594 0.034728326
0.038008448 -0.021177394 0.024387369 -0.012438622 -0.02971993 0.099799946 0.025059965 0.04252847
0.019575743 -0.0415122 -0.02035277 0.09444788 0.04207801 -0.022434756 -0.028033692 -0.010421804
-0.031455863 0.008042509 0.06737434 -0.02717017 -0.004104256 0.030059237 0.07099487 0.06905652
0.013904886 0.043272633 0.06457591 0.015754897 0.077828184 -0.009925219 0.014315715 0.046688013
0.055562105 0.028521668 0.054207638 0.010565952 0.003407634 -0.030535368 0.073727764 -0.009664166
0.02779417 -0.013343204 0.06031102 0.05220383 -0.04478804 -0.0025706901 0.044018522 -0.018385151
0.052438654 0.06726295 0.036574163 0.026403274 -0.04418762 0.0034867763 -0.044990197 0.07000841
-0.040760063 0.025888396 0.030586684 -0.020560004 0.076447606 -0.003618942 -0.019527018 0.029030932
0.07989788 0.011492055 0.013508101 0.03512491 -0.036297336 0.053991362 0.0033625297 -0.046548102

energy_lin.3.weight f4 [150, 300]
00000000: f484 063e 2138 d13d 3cb4 93be 2127 3bbd
00000010: a5d5 bcbd 2310 373d 1d54 b93d dae9 d73b
00000020: 3fa0 19be 1cc2 3cbd 21cc b0bd 351e 40bd
00000030: 4b4f 37be 9e94 7fbd 08e3 a3bd 036f af3d
00000040: 184b b0bc af27 a9bd 4cd7 0d3e f635 a53d
00000050: 50a5 47bd ee4e 383c 9b98 22be d2ae 40bd
00000060: 97ea db36 1236 bf3d 907b 073e 5a8c ef3d
00000070: e82e 623d f4dc 88bb 7ac9 623e b08a 273e
00000080: c69b 373e 536f b53d c71b 44be 3ca7 b03c
00000090: 8422 59bd 4007 a5bc 2623 5bbd d292 2abd
000000a0: 28df 96bb 311b b63e d282 003e 50f7 263d
000000b0: aae2 32be 92ef 183e d1a0 943e 5455 0cbe
000000c0: 1631 99bd e84d 58bd 0d07 07bd b2cf b93d
000000d0: 0f95 98bc 1e06 713d dd48 a7bd 7511 893d
000000e0: 41a4 7dbe 02ac e8bd 7315 243e 2377 9abd
000000f0: a032 1c3e 1ee2 bf3d 9e3c f13d 095e 133e
00000100: 4161 9bbd 25b1 153d 55ac 9bbd 70d0 b53d
00000110: 6803 d83d 2c22 adbe 8da5 3ebd 7e6f 553d
00000120: 3fa2 57bd 58a7 debc 7ba7 2e3e f86c 1b3e
00000130: 9d72 0a3e e368 fbbc f92d 133e a512 5a3d
00000140: 2858 19bc 7050 993d 6dd4 59bd af3d 253d
00000150: 52a3 1cbd 502a f9bc 516f 8a3d 02df b2bc
00000160: 9114 9e3d ec70 c53d bd12 92bc 46a7 75bd
00000170: 04c9 933d 87e5 1f3b a5cd dfbc 6ebe aabe
00000180: 404a 213d 7bf6 963d 8e4b b432 dc04 8a3c
00000190: 1d48 be3d 5784 9c3d 78ae c0bd f6f7 833d
000001a0: fd4c 373e a888 0c3e 5b3d e73d 707a 07be
000001b0: ea27 f43c 34ba fdbd f1ac 83ba 1e31 cd3d
000001c0: d967 f93d 81a6 313e 1ba7 983c b12a a2bd
000001d0: 44ec 14be bc28 80bd 86b7 653d f260 d63c
000001e0: 216e 0dbe a049 093d 3397 ad3d 87e5 39be
000001f0: 0610 40b9 68bd 5d3d 78f7 f6bd f5f1 20bd
00000200: ca5c 9fbd a35d 4d39 ec2b b43d 4812 b6bd
00000210: bbef d7bd 1ab2 84bd ad8e 7ebd f341 c13d
00000220: ede8 afbd 3cce 3c3e 488d 04be cbdb af3d
00000230: f265 02be cea0 2f3e 5846 1c3e 0a55 223e
00000240: a26a f43c 3a45 1a3d 2034 903c adac c3bd
00000250: 01b4 ae3d c839 16be 957b 0d3e c054 79bc
00000260: 8b67 11be 5c0a c8b9 4bc9 7bbd ed8e 833d
00000270: cea2 14be b1d0 5b3d f044 943d 5cc4 69bd
00000280: 56c9 5c3d d642 8e3d 96c7 38be 0e67 6bbd
00000290: b850 1dbe 1ce2 21bd 43a9 133e 66b7 d0bc
000002a0: 5833 153e 4402 26bd c66b beba d468 94bd
000002b0: d220 b2bd 1745 d8bd a873 09bd 9fdd 8dbd
000002c0: 2516 e9bd abdb 90bd 90f8 95be b3b2 b13b
000002d0: e380 a33e df44 cb3d 309b 273b 46ba 9abc
000002e0: 4db7 2bbe 7a24 15be 80ca 833d f612 be3d
000002f0: 1a29 3f3b edfa e33d 3e40 173e c522 0bbc
00000300: 7584 efba 91ae 2a3d 1d31 023c a094 2fbe
00000310: 1848 86bd 1011 213f 6692 133e b664 da3c
00000320: b52d 939b 9aa6 1abd 991a 323e febb 653d
00000330: 4950 2b3d ea80 133d aea4 9fbd 9f03 ec3d
00000340: 3d8b d23b 9997 b63d a028 d0bd 33a6 063e
00000350: a2b2 783d 108f 6cbd e903 363e b393 04bd
00000360: 08d2 30be 01a2 a33e 1816 4fbd 8404 033e
00000370: 9d08 99bc 2568 f2bd 31dc 073e 237f 02be
00000380: b89b 8a3d fe31 10be 965f 9abc 3543 83bd
00000390: 2626 103e c618 4f3b 8f2d 90bd 524d e93c
000003a0: 4518 493d b959 f03d 84dd e33d 3fff 393e
000003b0: 8d1f 13be e5e5 7f3d b7b6 e8bd 8ede e9bd
000003c0: 612b 6ebe 7b7f 213e 61e0 b53d f1a1 b3bd
000003d0: c3c6 a23d a27d 013e 7dda 773d e73f d9bd
000003e0: faa2 b4be 3736 aa3d 3e6a d83a 5ca7 b33d
000003f0: 2a56 623c a848 393e 582b 67bd 21c6 053d
0.13136655 0.10215784 -0.28848445 -0.045691613 -0.09220437 0.044693124 0.090492465 0.0065891566
-0.15002535 -0.046083555 -0.086326845 -0.046903808 -0.17901342 -0.06239759 -0.08002287 0.08566096
-0.021520182 -0.08259522 0.1385166 0.08066933 -0.04874164 0.011249287 -0.15878527 -0.04704172
6.5540185e-06 0.09336485 0.13230729 0.11696692 0.055220515 -0.0041767303 0.2214717 0.16361499
0.17930517 0.08859124 -0.19151221 0.021564119 -0.053011432 -0.020145059 -0.053500317 -0.041643925
-0.004604239 0.3556762 0.12549904 0.0407632 -0.17469278 0.14935139 0.29028943 -0.13704425
-0.074800655 -0.052808672 -0.03296571 0.09072818 -0.018625764 0.058843724 -0.081681944 0.06692783
-0.24769689 -0.11360933 0.16023807 -0.07542255 0.15253687 0.093693 0.1177914 0.1439134
-0.07586909 0.03654589 -0.07601229 0.08877647 0.10547525 -0.33815134 -0.0465446 0.05210828
-0.052644964 -0.027179405 0.17056076 0.15178287 0.13520284 -0.030689662 0.14373006 0.053240437
-0.009359397 0.07486045 -0.0531811 0.04034203 -0.038241692 -0.030415684 0.06759513 -0.021834854
0.077187665 0.09640679 -0.0178312 -0.059973978 0.07216075 0.0024398284 -0.027319739 -0.3334841
0.03937745 0.07371231 2.0989116e-08 0.01684802 0.09291098 0.07642429 -0.09408277 0.06443779
0.17900462 0.13724005 0.112909995 -0.132303 0.029804189 -0.12389031 -0.0010046047 0.10019134
0.121780105 0.17348672 0.01863437 -0.07918299 -0.14543253 -0.062577695 0.056083225 0.026169274
-0.13811542 0.03351748 0.084761046 -0.18153964 -0.00018316516 0.05413571 -0.1205892 -0.03929325
-0.0778137 0.00019585206 0.0879744 -0.088902056 -0.10543772 -0.06479283 -0.062147785 0.09436407
-0.08589349 0.18438047 -0.1294452 0.08586844 -0.12734202 0.17151186 0.15261209 0.15852752
0.029836003 0.037663676 0.01760298 -0.0955442 0.08530427 -0.1467048 0.13816674 -0.01521796
-0.14199655 -0.0003815469 -0.061471265 0.06423745 -0.1451523 0.05366582 0.07239711 -0.05707203
0.053902946 0.06946342 -0.18044886 -0.057471327 -0.15362823 -0.039522275 0.14420037 -0.025478076
0.14570367 -0.040529504 -0.0014527969 -0.07246557 -0.08697666 -0.10560053 -0.033557564 -0.069270365
-0.11381177 -0.07073148 -0.292912 0.005422914 0.3193427 0.099252455 0.0025574677 -0.01888765
-0.16769142 -0.14564696 0.06435108 0.0928096 0.0029168786 0.11131845 0.147706 -0.008492176
-0.0018273728 0.041670386 0.00794628 -0.1714654 -0.065567195 0.6291666 0.14411315 0.02665935
-2.4348647e-22 -0.03775654 0.17392959 0.056087486 0.041824613 0.036011614 -0.07795082 0.11524128
0.00642529 0.08915634 -0.101639986 0.13149337 0.060717233 -0.057753623 0.17774929 -0.03236742
-0.1726762 0.31959537 -0.05055818 0.12794691 -0.018680865 -0.1183627 0.1326759 -0.12743811
0.06767982 -0.1408157 -0.018844407 -0.06409303 0.14077052 0.003160046 -0.070399396 0.028479252
0.04909541 0.11735863 0.11126235 0.18163775 -0.14367504 0.062475104 -0.11362975 -0.11419402
-0.23258735 0.15771286 0.088806875 -0.08771122 0.07948067 0.12645581 0.0605111 -0.106078915
-0.3528059 0.08311122 0.0016511155 0.08772156 0.013814488 0.18094122 -0.05643782 0.032659654

energy_lin.3.bias f4 [150]
00000000: 20b0 e2bc 72ea 103d 15ad efbb 728d 333d
00000010: e9aa 4bbb e5c3 693d c3eb b1bc 7565 3fbd
00000020: 4824 163c fc27 453d 2fbc 283d 960c 2e3d
00000030: 2a90 8cbb d0d6 72ba 66aa d5bc bbf9 933a
00000040: 8b7c 5d3d b2bf 853d 1898 8e3d 6dff 0288
00000050: 72de bdbc e739 ab3c 1f46 133d 9e4a b2bc
00000060: 9c3e 9088 4c5e 57bc d62e 143d 598d 493c
00000070: 3e82 9d3c 8f52 c0bc 39ed 833c aa6a d3bc
00000080: 670a 13bc 3686 47bd 7f82 37bd bdd8 313d
00000090: 9305 03bd 2db0 7ebc 7033 4bba bff9 b482
000000a0: 8ebe c4bc 641b 6e3c c957 213d 455f febc
000000b0: dbc3 c93b 2a47 87bc 2fdd cfbc 042a c73c
000000c0: d793 de8d 7b23 ee3c 0c97 23bb c436 683b
000000d0: 83f0 8b3b aedd 1ebc ce8e 233d 3bd9 82bc
000000e0: f69a 4b3d 374c 03bd 11ec 043d aafe 03bc
000000f0: 4e46 0fbb 357f 263d 7472 493d f603 3b3c
00000100: 93eb 7c3c d7bc 5bbb 4235 1a3d e5a4 c7bb
00000110: 5869 513d 6180 643d bf74 303d db62 a2bc
00000120: 110f 7c3b 2c41 203d 81b7 560b 6f82 8dbc
00000130: b201 323d 9fd4 0d3d 72db 033d 5b9a 1e3d
00000140: 4775 9dbc 3ecd 333c d705 163d 7d2f 2b3d
00000150: fa10 473b 1b9f 643d c0d9 1e3d 9d18 e5ba
00000160: c2a9 57ba 8a90 4a3d fb95 a83c 71d1 693d
00000170: 0713 5b3d 1aba 1dbd dacd 113b b345 313d
00000180: bc38 a7bc ccb9 a0bc 6946 de3b 0a06 36bc
00000190: ada0 033d 0696 003c 9efe 9e3c eee0 21bd
000001a0: c129 9f3d f65d 62bc 2ab9 8c93 f433 05bd
000001b0: 5029 a13b b893 e0ba 9241 623d 9f76 063c
000001c0: c865 1abc 2a83 45bd 659b de3c 5f4d 583d
000001d0: 1ede 4e3d 6648 2abc 904a 90bc 1ac7 febb
000001e0: 4b0e fab9 ce4d 5a3d 7fc7 283d fea8 d1bc
000001f0: 0623 833d 09b6 7a3d 7315 bdbb 1765 f13c
00000200: b69c 733c 2d36 7abb fa09 f3bb 142d 44bd
00000210: 6e76 b3bc 4d6d c5bc 0564 063d f247 28bd
00000220: c520 28bd 98c5 1c3d 68bd 843d 2c49 173d
00000230: f18d c9bc a82b 96bb b2d4 47bc 2833 10bd
00000240: c6a1 3cbd daf0 53bc c7d6 4b3d c472 c93d
00000250: 6689 02bd 3c63 25bd
-0.027671874 0.035379834 -0.007314334 0.043836065 -0.0031077212 0.057071585 -0.021718865 -0.046727616
0.009163924 0.048133835 0.04119509 0.04249247 -0.0042896466 -0.0009263577 -0.026082229 0.0011289635
0.05407385 0.065307036 0.06962603 -3.9420704e-34 -0.02317736 0.020901633 0.035955545 -0.021764096
-8.681404e-34 -0.013145041 0.03617748 0.012301766 0.019227143 -0.023476867 0.016104328 -0.025807697
-0.008974648 -0.048711978 -0.044802185 0.04341959 -0.031987738 -0.015544933 -0.00077515 -2.659197e-37
-0.024016645 0.014532898 0.03939036 -0.031051287 0.006157381 -0.016513426 -0.025374023 0.024312027
-1.37173975e-30 0.029069653 -0.0024961857 0.0035433033 0.0042706146 -0.009696407 0.03993111 -0.015972724
0.04970833 -0.032055106 0.032451693 -0.008056322 -0.0021861973 0.040648658 0.049181417 0.011414519
0.015437025 -0.0033529305 0.037648447 -0.006092655 0.051125854 0.055786494 0.043080088 -0.019822529
0.0038461129 0.039124653 4.1352954e-32 -0.01727411 0.043458648 0.0346266 0.0321917 0.038721424
-0.019220961 0.0109742265 0.036626663 0.041793335 0.003037511 0.055815797 0.03878188 -0.0017478649
-0.0008226895 0.04945425 0.020579329 0.057084505 0.053484943 -0.03850756 0.0022247941 0.04327936
-0.020412795 -0.019619845 0.006783296 -0.011109838 0.032135654 0.007848268 0.01940852 -0.03952115
0.07771636 -0.013816347 -3.5523554e-27 -0.03252025 0.004918255 -0.0017133867 0.055238314 0.008206992
-0.009423681 -0.04822079 0.027173707 0.05280816 0.050504796 -0.010393238 -0.01761368 -0.0077751996
-0.00047694365 0.053296857 0.04120588 -0.025593277 0.064031646 0.06120876 -0.005770379 0.029467149
0.014868906 -0.0038179264 -0.007416961 -0.047894552 -0.021907058 -0.02409997 0.03281023 -0.041084237
-0.041046876 0.038274378 0.06481439 0.036935017 -0.024603816 -0.004582841 -0.012196707 -0.035205036
-0.046052717 -0.012935841 0.049765375 0.09836343 -0.031869315 -0.04037784
