models/mpnn_A139_B23_E300_L2/37.pt (torch, 742651 bytes, 9 tensors)

atom_lin.weight f4 [300, 139]
-0.15970036 0.08222699 -2.955172e-27 3.4114563e-25 -3.0604897e-35 -7.597549e-16 0.16519578 0.051066063
-0.23948267 0.3078252 8.330835e-24 -1.8619577e-13 0.35585207 -5.0545608e-27 2.0486283e-26 0.031408653
0.14170809 -0.006402529 3.2675217e-16 9.849136e-17 -1.4276777e-13 2.121801e-15 1.2314223e-22 7.4607507e-38
9.2796025e-18 -5.087406e-22 -0.20655932 -0.13200308 -1.6447962e-14 2.0789412e-20 -5.940572e-33 -4.911485e-39
-4.907703e-39 3.0280062e-27 -7.687279e-37 -0.03417834 -1.4724025e-14 -4.715102e-21 -9.551416e-20 -7.350901e-32
-6.2711246e-22 -7.385201e-21 6.251443e-17 1.8000408e-32 7.213389e-14 2.425914e-19 3.2337728e-34 3.9517796e-22
-3.228467e-19 1.88564e-23 1.2638742e-15 1.6248278e-35 -1.4761163e-15 0.0451959 -1.2490948e-23 2.5857054e-38
-4.913832e-39 1.7788833e-36 -4.911917e-39 6.5407115e-27 1.9560438e-17 -4.2788728e-20 7.7523854e-23 1.3356297e-24
1.2847918e-23 -4.907646e-39 1.8983233e-14 4.773024e-38 5.5739844e-17 -1.02837945e-20 -1.9389683e-29 -1.3991341e-21
1.12804934e-13 2.11305e-20 -4.9551492e-20 -2.4440346e-14 -1.7938964e-34 -7.263128e-20 -6.224692e-23 -7.1882085e-16
8.9013125e-20 9.813575e-19 -4.911582e-39 3.0867476e-34 -4.566008e-39 -2.5556605e-17 -8.4498105e-22 -2.5826937e-21
7.1455784e-16 4.137568e-32 1.03522386e-32 -1.2067705e-17 4.917e-39 -9.221066e-21 -1.1100692e-22 1.7834451e-14
-1.68378e-31 1.0959851e-16 1.229169e-16 1.23054704e-23 -2.71561e-38 4.554334e-39 -3.0402246e-21 -3.3700862e-18
1.2339423e-18 2.9525418e-18 -2.4725887e-31 -8.863744e-17 2.1088329e-18 -4.2512953e-24 -5.1968377e-19 1.1718782e-31
3.2614835e-26 -3.551489e-21 5.018691e-16 -9.272722e-17 1.0719694e-21 1.06447126e-29 6.2979667e-18 -0.19916528
0.45504808 -0.22446388 -0.22480993 -0.20519249 -4.20135e-26 -0.2298584 1.3975704e-20 -4.909221e-39
0.0986172 0.074658476 -0.01265915 0.04934924 0.3042913 4.9114502e-18 -4.4433743e-15 7.5403474e-15
-3.1132774e-21 -1.3118083e-20 0.0521323 0.045737263 -0.12419596 2.2438885e-14 1.7890692e-33 -1.29544565e-17
4.907124e-39 0.2337388 0.080122024 -0.22778454 0.10010944 4.909036e-39 4.911358e-39 -1.3204077e-23
3.0200543e-14 -7.009114e-22 -0.018119967 0.10315145 -0.12410766 4.9004927e-16 -3.167629e-24 -9.323612e-16
-4.909458e-39 -3.7344304e-24 -1.0596324e-29 8.713702e-25 -0.011604654 -0.1512062 0.22309878 -5.4519073e-18
-7.0796486e-37 3.048076e-39 -3.3234637e-28 1.092231e-14 -4.90897e-39 1.2192423e-15 0.121032104 3.6434245e-31
1.4898132e-13 1.9265673e-33 1.3981875e-23 -1.4686353e-15 -3.307885e-14 -1.5425975e-15 -5.785431e-33 1.1390152e-27
-1.156382e-38 1.2002503e-16 -4.907542e-39 -7.3633034e-30 -1.7241247e-14 -3.0288362e-20 4.905156e-39 -2.9408143e-24
0.042022564 -4.916981e-39 4.286295e-37 3.6357716e-15 -7.84891e-40 3.5429753e-21 1.4174844e-13 7.63492e-24
-4.3296076e-29 2.1828316e-22 -5.605135e-17 2.6327368e-27 6.479094e-15 4.907828e-39 2.0262082e-25 -6.0230243e-31
4.911473e-39 -3.1935882e-31 2.3069408e-22 -6.4784523e-15 1.7281587e-15 -2.6891279e-22 4.911837e-39 -1.6959622e-21
1.9718085e-24 -1.2058389e-15 5.2544215e-33 -3.051108e-23 8.92862e-34 -4.914048e-39 -5.9304393e-30 -6.721185e-17
1.2415856e-15 -6.118378e-14 1.14118e-39 9.754923e-15 -5.8450313e-16 1.01976123e-25 3.924673e-38 -2.4446083e-21
9.413569e-25 -1.2008483e-25 -2.4883242e-29 -2.6092505e-15 -3.7198302e-24 -6.418275e-26 4.305326e-39 -9.329937e-22
-8.6688296e-19 -8.8180296e-16 2.7507308e-31 4.060063e-15 -4.9470164e-26 -3.156983e-39 -1.7818384e-18 -4.905696e-39
-2.4552968e-16 1.2788767e-30 -1.3006174e-28 -4.908618e-39 -7.899739e-21 1.4162799e-26 1.3457564e-19 1.6489915e-13
00000000: 7e88 23be a066 a83d 0222 6a93 af28 d316
00000010: 3ab9 2286 04fc 5aa6 1529 293e a62a 513d
00000020: f23a 75be 449b 9d3e 4c24 2119 47a3 51aa
00000030: 3e32 b63e 563b c893 e6e2 ca14 5ca6 003d
00000040: ed1b 113e 4ecc d1bb 1c5c bc25 0a1b e324
00000050: 02be 20aa 52e4 1827 adde 141b d819 cb01
00000060: af2d 2b23 e6c1 199c 4984 53be d12b 07be
00000070: 6b26 94a8 b759 c41e ffc2 f689 397b 3580
00000080: ae70 3580 43e7 6f13 d3ca 8283 96fe 0bbd
00000090: 4a9f 84a8 ab21 b29d c486 e19f 1ed7 be8b
000000a0: 7a88 3d9c a480 0b9e 0226 9024 4bed ba0a
000000b0: 5b6e a229 6033 8f20 cbeb d607 d4de ee1b
000000c0: 3793 bea0 2f5e b619 ba24 b626 05c8 ac05
000000d0: 14bb d4a6 561f 393d 2e9c 7199 79c7 0c01
000000e0: c481 3580 a654 1704 6d7c 3580 598d 0114
000000f0: c769 b423 6610 4a9f f170 bb1a bead ce17
00000100: cf83 7819 8570 3580 5bfc aa28 1fef 8101
00000110: ff86 8024 6141 429e 7fa2 c48f 616e d39c
00000120: 9e03 fe29 6a92 c71e 1400 6a9f 9a23 dca8
00000130: 2273 6e87 ea7e ab9f fa80 969a 9e2f 4fa6
00000140: 222d d21f a3d2 9021 7e7b 3580 4a26 cd07
00000150: 2cb8 3180 d4b7 eba3 3e61 7f9c 9024 439d
00000160: 10f5 4d26 b6d5 560b f101 570a 209c 5ea3
00000170: 988a 3500 572e 2e9e fa32 069b 72a3 a028
00000180: 3091 5a8c 8bb7 fc24 aab6 0d25 bd05 6e19
00000190: 14da 1381 a197 3100 7fb6 659d 21ab 78a2
000001a0: 0619 b621 f0db 5922 ed7a a08c 4f62 cca4
000001b0: ba9a 1b22 ca76 a498 3262 19a1 551e 180c
000001c0: 3780 2115 e52b 869d 67a7 1026 7dd0 d5a4
000001d0: cffd a11c 82e6 570f 9d5a e822 fcf1 4bbe
000001e0: 10fc e83e dcd9 65be 9334 66be fb1d 52be
000001f0: 700a 5095 0060 6bbe 2eff 831e e974 3580
00000200: d1f7 c93d 8be6 983d 5368 4fbc 6e22 4a3d
00000210: 12cc 9b3e 5633 b522 e516 a0a7 b7d5 0728
00000220: 8b3b 6b9d 28cb 779e ae88 553d ff56 3b3d
00000230: 745a febd 8c1c ca28 4ba1 1409 b1f7 6ea3
00000240: 116f 3500 3959 6f3e 0417 a43d 5a40 69be
00000250: 2e06 cd3d 6574 3500 de7a 3500 6c67 7f99
00000260: db02 0829 65d6 539c 5370 94bc 1141 d33d
00000270: 282c febd 413f 0d26 5b15 7598 0f5e 86a6
00000280: 9275 3580 0278 9098 43eb 568f 88d6 8617
00000290: 7221 3ebc ccd5 1abe 0274 643e cf23 c9a2
000002a0: 70e8 7083 cc30 2100 48a6 d291 44c2 4428
000002b0: 3674 3580 1ab6 af26 aedf f73d c678 ec0c
000002c0: f1bc 272a 8e0d 2009 7239 8719 14a7 d3a6
000002d0: 51f9 14a9 cd4f dea6 4151 f089 f27b b412
000002e0: 3aeb 7d80 2361 0a25 3b70 3580 7558 158f
000002f0: 9c4b 9ba8 6208 0f9f 9469 3500 d488 6398
00000300: da1f 2c3d 8b8a 3580 e5da 1103 13fe 8227
00000310: f58b 0880 8ed9 851d 3598 1f2a 4bae 1319
00000320: 8589 5b90 aff1 831b e13e 81a4 3f96 5013
00000330: 186f e927 0771 3500 1ad5 7a16 5475 438d
00000340: 307b 3500 9646 cf8c 2e72 8b1b 2d69 e9a7
00000350: cd0d f926 3d8c a29b 347c 3500 ae24 009d
00000360: b18f 1818 9ac7 ada6 9842 da09 e38a 139a
00000370: 265a 9408 5e82 3580 3491 f08e e0fa 9aa4
00000380: 6cee b226 0cc6 89a9 256d 0c00 a4ba 2f28
00000390: b878 28a6 0c7b fc15 f5ad 5501 9ab5 389d
000003a0: fdaa 9117 67a8 1496 9758 fc8f 2d04 3ca7
000003b0: 6ae7 8f98 a7e8 9e95 7fe1 2e00 72fd 8c9c
000003c0: d3db 7fa1 9329 7ea6 5b88 b20c 7947 9227
000003d0: e2f6 7495 6260 2280 fa79 03a2 166b 3580
000003e0: c989 8da5 7682 cf0d 73df 2491 3b73 3580
000003f0: cb38 159e f642 8c14 fee0 1e20 f2a8 392a

atom_lin.bias f4 [300]
0.05604892 -0.049964566 0.028943134 0.006843911 -0.045545127 0.15337417 0.0034770323 0.019736137
-0.05539039 -0.00901071 0.07835035 -0.028196475 0.034461685 0.05425636 0.016021525 0.056929044
-0.030116366 0.08335079 0.0010112321 0.048594456 -0.034639128 -0.06878843 0.04347041 -0.03588587
0.035225693 -0.06691676 0.014327506 0.040539507 0.025221666 0.09181953 0.014864782 -0.011863399
0.020833502 0.055080514 0.10461666 0.04802695 -0.04023657 -0.051206995 0.096648864 -0.061265875
0.09297635 0.073259264 -0.00021294433 0.08836029 -0.016139718 -0.04498548 0.0036037345 0.016095484
0.10473542 -0.009605936 0.011185387 0.05984399 0.09814198 -0.07852548 0.07294238 0.063062094
0.07644284 0.07533733 -0.04012285 0.019375762 0.109841384 0.044470694 0.042539738 0.09540224
0.07350779 0.07185254 0.032560494 -0.031149453 0.09520106 0.020687137 0.05931814 -0.0013595088
0.08934016 -0.09654248 0.05321137 0.04355798 0.00064595725 0.024313718 0.12363989 0.0040879305
0.008840318 0.02102779 -0.027979836 0.077623196 0.1012462 0.09804909 0.054417577 -0.02988936
0.009128542 -0.016337093 -0.021078365 0.1019835 0.05629874 -0.0073627117 0.089771174 -0.009406129
-0.059012674 -0.012757405 0.10329056 0.10183604 0.050867468 0.0567546 0.034553524 -0.06666743
-0.03617659 0.11071053 0.022916406 -0.060413018 -0.01587095 -0.031152142 0.012674024 0.01623063
-0.013134398 0.053626977 0.05038685 -0.050583176 0.054515515 0.111750044 -0.07283177 -0.023123572
0.09885137 -0.024977088 -0.0036334668 0.100626074 0.0015982541 0.11362568 0.035303257 0.017123535
0.016968427 0.0666384 -0.009322609 0.03662303 -0.021305632 -0.04046918 0.015490919 0.09297626
0.016136011 0.07613743 0.09087368 0.007892299 0.07206842 0.03429961 0.005690762 -0.06538079
0.055128023 -0.05325268 -0.020377938 -0.04663259 0.020271242 0.09624433 0.07233348 -0.11346504
-0.017024193 -0.003950371 0.0582277 0.004404947 0.118417926 0.06516536 0.006779892 0.13165615
0.0747806 0.09427374 -0.09370461 -0.015912944 0.065969676 0.06057952 0.012940369 -0.07133544
-0.016859408 -0.014323151 -0.039473254 0.10524241 0.06355081 0.07980682 -0.06085759 0.023726294
0.09750321 0.14858845 -0.1657932 -0.016971288 0.06841794 -0.19095506 -0.012196845 0.0807467
0.06874687 0.049394924 -0.03821402 0.039126422 0.027064899 0.06504011 -0.028001878 -0.026963178
0.025294086 -0.004643507 0.036750056 0.095726185 0.056835182 0.013576078 -0.026499126 -0.029925643
-0.07307383 -0.05924306 0.014214882 -0.052210685 -0.046474975 -0.08357445 0.0025820707 0.033010688
0.060516603 0.016519206 0.011766597 -0.0067151147 0.11981608 0.07868785 0.107882224 -0.025809513
0.00913563 0.12645729 0.082911044 0.112310424 0.0004235004 -0.014471268 0.056990046 0.033407025
0.035317607 -0.01644677 0.026763573 -0.00642688 0.062399976 -0.0016744607 0.071942165 -0.16041018
-0.0331114 -0.019197239 0.017238036 0.090010494 0.027612315 0.006642167 0.0750256 -0.1067651
0.018125905 0.0064280685 -0.005902178 -0.081696436 0.0052308305 -0.045596205 0.07378669 -0.0057913708
0.01828238 0.024479054 0.060581826 -0.036021955 0.029552262 -0.029890416 -0.05278933 0.070321985
00000000: 8d93 653d a5a7 4cbd 271a ed3c e342 e03b
00000010: 878d 3abd 1e0e 1d3e ecde 633b aead a13c
00000020: 09e1 62bd a8a1 13bc 2676 a03d 4bfc e6bc
00000030: b227 0d3d eb3b 5e3d 933f 833c 6e2e 693d
00000040: 99b6 f6bc d2b3 aa3d 528b 843a fb0a 473d
00000050: c2e1 0dbd f3e0 8cbd 070e 323d 10fd 12bd
00000060: d148 103d a70b 89bd eabd 6a3c c10c 263d
00000070: ab9d ce3c e10b bc3d 6a8b 733c b45e 42bc
00000080: 05ab aa3c 1b9c 613d 4241 d63d e8b7 443d
00000090: 1acf 24bd 6dbe 51bd d7ef c53d edf1 7abd
000000a0: 626a be3d f408 963d cf49 5fb9 3df6 b43d
000000b0: 7137 84bc b242 38bd a22c 6c3b adda 833c
000000c0: 867f d63d 3762 1dbc ea42 373c f91e 753d
000000d0: aafe c83d f8d1 a0bd d162 953d b326 813d
000000e0: 108e 9c3d 754a 9a3d dc57 24bd ebb9 9e3c
000000f0: 85f4 e03d e726 363d 263e 2e3d 4062 c33d
00000100: 418b 963d 6d27 933d 275e 053d 232d ffbc
00000110: c6f8 c23d 1278 a93c 94f7 723d 8c31 b2ba
00000120: f9f7 b63d 10b8 c5bd 2af4 593d da69 323d
00000130: 7555 293a 902d c73c e936 fd3d 0cf4 853b
00000140: fbd6 103c 7942 ac3c f835 e5bc e9f8 9e3d
00000150: 2b5a cf3d f6cd c83d f7e4 5e3d 88da f4bc
00000160: e18f 153c 5ed5 85bc 89ac acbc badc d03d
00000170: 8299 663d e742 f1bb f3d9 b73d 2a1c 1abc
00000180: 46b7 71bd 6f04 51bc 008a d33d 6a8f d03d
00000190: 685a 503d 8377 683d ff87 0d3d ef88 88bd
000001a0: e72d 14bd 34bc e23d 30bb bb3c a473 77bd
000001b0: cb03 82bc c732 ffbc b6a6 4f3c 19f6 843c
000001c0: a831 57bc f6a7 5b3d 7162 4e3d 4e30 4fbd
000001d0: a94b 5f3d 35dd e43d d328 95bd a56d bdbc
000001e0: 9672 ca3d c09c ccbc 751f 6ebb 0b15 ce3d
000001f0: 827c d13a 95b4 e83d 269a 103d a846 8c3c
00000200: 5f01 8b3c b779 883d dbbd 18bc 0802 163d
00000210: 2689 aebc 03c3 25bd a0cd 7d3c 566a be3d
00000220: ab2f 843c f1ed 9b3d fb1b ba3d b44e 013c
00000230: 9c98 933d bf7d 0c3d 9279 ba3b 5de6 85bd
00000240: eccd 613d 7b1f 5abd a2ef a6bc d101 3fbd
00000250: e00f a63c bf1b c53d 9323 943d 5c60 e8bd
00000260: 5276 8bbc 1d72 81bb 2b80 6e3d 6057 903b
00000270: 1985 f23d 6b75 853d db29 de3b dfd0 063e
00000280: 9226 993d 9712 c13d 34e8 bfbd dd5b 82bc
00000290: 1c1b 873d 3b22 783d d703 543c 5118 92bd
000002a0: be1c 8abc a6ab 6abc b5ae 21bd 5589 d73d
000002b0: ed26 823d c271 a33d cf45 79bd a55d c23c
000002c0: c3af c73d 9227 183e b1c5 29be 5f07 8bbc
000002d0: b41e 8c3d b989 43be 47d5 47bc 875e a53d
000002e0: 29cb 8c3d 5552 4a3d 4e86 1cbd 0743 203d
000002f0: 35b7 dd3c c033 853d 3264 e5bc e2e1 dcbc
00000300: 8b35 cf3c 8f28 98bb 3a87 163d 170c c43d
00000310: 02cc 683d 336e 5e3c b214 d9bc 9f26 f5bc
00000320: bba7 95bd daa8 72bd 89e5 683c dfda 55bd
00000330: 8b5c 3ebd 1529 abbd f537 293b 3736 073d
00000340: 42e0 773d 4953 873c afc8 403c 770a dcbb
00000350: 2262 f53d 1827 a13d 5bf1 dc3d 796e d3bc
00000360: 9cad 153c 057e 013e 44cd a93d 0203 e63d
00000370: 4309 de39 e618 6dbc 656e 693d ced5 083d
00000380: 32a9 103d 60bb 86bc 483f db3c 9498 d2bb
00000390: 1e97 7f3d 9479 dbba 6a56 933d 9142 24be
000003a0: d29f 07bd 8743 9dbc c836 8d3c 6c57 b83d
000003b0: 3933 e23c 89a6 d93b 06a7 993d a9a7 dabd
000003c0: c77c 943c 8ca2 d23b 0f67 c1bb 7650 a7bd
000003d0: 6367 ab3b 16c3 3abd 7a1d 973d 8ac5 bdbb
000003e0: eec4 953c 4c88 c83c a624 783d c28b 13bd
000003f0: 9617 f23c bfdc f4bc a039 58bd f904 903d

bond_lin.weight f4 [300, 23]
9.243478e-14 -0.16408294 -0.2678941 0.012583092 -3.842748e-35 8.4242276e-19 9.6998395e-17 -0.00096571323
9.3290176e-32 1.5212276e-08 1.0767974e-05 -3.816684e-15 -0.4402876 4.5411864e-05 -1.0947424e-11 3.4548626e-07
1.956654e-12 -1.1705901e-16 -4.7460026e-12 1.4712633e-23 -0.0002053267 1.1554373e-19 1.386822e-22 4.916191e-39
-0.5270743 0.56927043 -0.04928703 8.2023135e-09 -8.467911e-06 -1.3415004e-05 1.2417169e-38 -1.6663267e-06
-1.0371045e-10 0.00022038356 -2.2262234e-06 0.47347942 -1.0504561e-17 -1.1925049e-16 -0.0002413962 -6.115842e-17
1.4075487e-24 8.700228e-08 -5.4981296e-08 2.2773813e-06 3.299854e-07 -1.22357146e-20 -3.762932e-09 0.409532
0.37407827 -0.07038153 -1.8398147e-24 -0.00017305698 -3.673055e-09 4.250236e-05 -1.9211061e-08 9.1708585e-05
-1.2482575e-37 1.106515e-19 -0.4150322 -4.908987e-39 3.3932752e-17 1.0865636e-05 -9.588228e-10 -1.820525e-10
-4.924369e-16 2.436795e-07 -2.8774296e-25 -4.1534938e-19 -6.94018e-05 -2.0735232e-18 -0.35080585 0.7179913
-0.1514349 4.905867e-39 4.2999523e-05 -1.2065762e-11 0.00065083796 -4.912686e-39 -2.9613229e-10 1.1437407e-17
-3.7117666e-27 -0.24343765 0.0004755749 7.534358e-06 -6.110035e-05 0.00076046895 3.7585964e-35 8.71661e-11
-1.0227376e-16 0.00013113981 9.01955e-26 -4.904693e-39 1.0875953e-08 0.43607944 -0.46480784 0.20970643
4.916512e-39 -1.6157537e-36 5.1840754e-11 5.8300814e-34 1.6165757e-18 -0.00014469902 -4.7983492e-11 -1.5088144e-16
0.36299714 3.0229821e-06 -1.0812108e-14 -6.074276e-16 -3.35896e-24 4.4165792e-14 1.0838283e-12 1.6717461e-25
-2.5851658e-29 -2.6108554e-20 0.00018866487 2.1376382e-17 0.4698695 -0.63809276 0.38858968 4.4162164e-16
-6.296061e-27 9.973337e-21 -4.431489e-39 0.0006463567 -1.5330727e-22 1.3071664e-14 1.4547203e-14 -0.09948571
-3.968448e-05 -1.182971e-35 -2.3100205e-14 0.00011311584 -3.211578e-34 5.7831912e-05 -1.694816e-35 1.7948888e-16
-1.2736168e-19 1.104373e-25 -7.17618e-27 0.020024905 0.31921706 0.4150825 2.4754568e-08 6.322591e-05
4.0761097e-09 4.3264937e-33 1.3636427e-06 1.9833786e-14 8.0597096e-14 9.589801e-05 0.08400631 7.140699e-27
-4.1046135e-08 5.5546727e-17 -7.187509e-21 -1.0026911e-06 -1.5948988e-38 2.9317598e-05 5.9775684e-11 8.232126e-06
4.3022716e-05 0.0011510251 0.3710449 0.23855728 -0.5982688 -0.00022372164 1.534754e-39 4.030844e-15
0.00013122085 -5.797148e-25 2.9959247e-05 -8.9860036e-20 -1.3971514e-14 -0.22472303 -1.1641573e-24 1.699658e-24
1.1261001e-06 -4.91067e-39 -4.2766928e-08 -6.25361e-05 1.6730858e-37 -3.5507435e-34 7.2506586e-29 2.9823227e-19
4.918268e-39 -0.09710109 0.43389153 -0.27550313 -2.610268e-05 0.0010198777 1.0079744e-21 2.6527522e-15
4.172894e-05 -7.410755e-12 2.2380668e-06 -0.0007101561 0.40981585 -1.3994847e-12 -4.5294176e-08 3.907931e-09
5.540763e-14 -0.0007199835 -2.0317474e-14 4.904594e-39 3.7956758e-07 1.3378192e-16 1.0120558e-26 1.5526828e-09
-0.3063941 -0.4143737 0.14377336 7.203539e-23 4.90555e-39 4.909305e-39 3.5512406e-07 2.590719e-07
-4.461258e-06 -2.0834867e-26 4.777453e-26 0.19220182 -0.000876404 0.0010983943 -1.4511101e-12 3.733107e-06
-6.577626e-16 -1.1749303e-12 2.867235e-05 6.9397e-27 7.0721375e-16 4.7710873e-06 2.9398126e-21 -0.0021091173
-0.496939 0.17369393 -2.8436306e-19 -0.00072561466 -2.701164e-09 3.205941e-20 -2.7596451e-08 -7.1695516e-10
5.6495026e-07 -4.157122e-05 -0.27166224 -7.5430506e-22 -9.453184e-21 -1.78689e-06 2.0986493e-21 -1.0454616e-07
1.2654551e-20 3.6041426e-31 -2.4776508e-36 6.364879e-07 1.4907444e-37 8.63204e-18 0.47226506 0.42333278
00000000: 0625 d029 5c05 28be 6a29 89be 5029 4e3c
00000010: c750 4c86 aaa3 7821 bfa9 df24 eb27 7dba
00000020: f531 f20b 26ac 8232 19a8 3437 b282 89a7
00000030: 606d e1be 9e78 3e38 d196 40ad 457b b934
00000040: f2af 092c b9f5 06a5 31fc a6ac b74a 8e19
00000050: f74c 57b9 f368 0820 10a8 271b 5788 3500
00000060: 57ee 06bf b5bb 113f 32e1 49bd 28ea 0c32
00000070: 6711 0eb7 0111 61b7 0436 8700 8da6 dfb5
00000080: cb0f e4ae c316 6739 3a66 15b6 e56b f23e
00000090: 63c6 41a3 887c 09a5 4d1f 7db9 8f05 8da4
000000a0: c0ce d917 02d6 ba33 9324 6cb3 1dd5 1836
000000b0: d928 b134 4920 679e 1a4b 81b1 2eae d13e
000000c0: 3087 bf3e 3124 90bd 4959 0e98 a176 35b9
000000d0: 1169 7cb1 9044 3238 9205 a5b2 ac53 c038
000000e0: 6de7 2982 5da2 0220 1a7f d4be 4274 3580
000000f0: b97c 1c24 8d4b 3637 94c7 83b0 392b 48af
00000100: 6eef 0da6 0ed3 8234 b11a b296 d32d f5a0
00000110: cf8b 91b8 bfff 18a2 d39c b3be 47ce 373f
00000120: c011 1bbe 906b 3500 635a 3438 5c43 54ad
00000130: ff9c 2a3a 927e 3580 eacc a2af a1fb 5223
00000140: c909 9393 b847 79be 9556 f939 a4cf fc36
00000150: 0023 80b8 355a 473a 5dd7 4706 27ae bf2e
00000160: c6d3 eba4 9382 0939 3150 df15 4a68 3580
00000170: f2d8 3a32 ce45 df3e 4bfb edbe 48bd 563e
00000180: 3c89 3500 0074 0984 80ff 632e d9bc 4108
00000190: 8190 ee21 59ba 17b9 9c08 53ae 57f4 2da5
000001a0: c3da b93e 70de 4a36 0cc6 42a8 3f14 2fa6
000001b0: 87f1 8198 b1e7 4629 0889 982b c0f3 4e16
000001c0: 5f15 0390 9c96 f69e 57d4 4539 8e29 c523
000001d0: bc92 f03e 0c5a 23bf 3af5 c63e da93 fe25
000001e0: a569 f993 1964 3c1e 3041 3080 4470 293a
000001f0: 4d56 399b 697a 6b28 9107 8328 2abf cbbd
00000200: e372 26b8 1197 7b85 7211 d0a8 9b38 ed38
00000210: 2b72 d587 8b90 7238 4839 b485 c4ef 4e25
00000220: b55c 16a0 fab6 0816 8e23 0e94 450b a43c
00000230: 6b70 a33e b285 d43e dfa3 d432 2798 8438
00000240: d70d 8c31 2cb7 b309 6806 b735 99a5 b228
00000250: 107d b529 da1c c938 800b ac3d a56f 0d14
00000260: b44a 30b3 0015 8024 a9c4 079e 3494 86b5
00000270: 4aab ad80 10ef f537 b872 832e b61c 0a37
00000280: 4a73 3438 fedd 963a 99f9 bd3e 5c48 743e
00000290: 2528 19bf d296 6ab9 45b6 1000 f939 9127
000002a0: 5498 0939 bd69 3397 fe50 fb37 0f2d d49f
000002b0: 3cb0 7ba8 cb1d 66be 0625 b497 3281 0318
000002c0: 8124 9735 f378 3580 bcae 37b3 d025 83b8
000002d0: 88ba 6302 c5fc eb87 77d3 b710 960b b020
000002e0: 218e 3500 f0dc c6bd 0827 de3e bf0e 8dbe
000002f0: 14f7 dab7 6bad 853a 1f52 981c a426 3f27
00000300: 1c06 2f38 135f 02ad b231 1636 c529 3aba
00000310: 62d3 d13e c0f5 c4ab 7989 42b3 8646 8631
00000320: a688 7929 46bd 3cba e800 b7a8 0368 3500
00000330: 5fc7 cb34 743d 1a25 5375 4814 2b66 d530
00000340: b0df 9cbe ca28 d4be 5339 133e bf2b ae1a
00000350: ad6a 3500 2575 3500 e1a7 be34 9216 8b34
00000360: eab1 95b6 aa56 ce94 6991 6c15 8ed0 443e
00000370: 7abe 65ba fff7 8f3a c039 ccab 4a86 7a36
00000380: 5096 3da6 535b a5ab 6785 f037 7674 0914
00000390: 2ad7 4b26 5417 a036 3f20 5e1d 1e39 0abb
000003a0: ca6e febe d2dc 313e bbdb a7a0 2d37 3eba
000003b0: 619f 39b1 7365 171f 3d0d edb2 3c13 45b0
000003c0: 16a7 1735 c25c 2eb8 5017 8bbe 87f9 639c
000003d0: cb90 329e 13d5 efb5 c891 1e1d dc82 e0b3
000003e0: a709 6f1e 17ec e90c 75c6 5284 1edb 2a35
000003f0: dce8 4a02 a83b 1f23 bacc f13e 13bf d83e

bond_lin.bias f4 [300]
-0.029857092 0.19882445 0.076654784 -0.06673945 0.049637537 0.012581965 0.15879838 0.12091525
0.050300065 -0.23579745 0.08204183 -0.09331286 0.0838864 0.17068446 -0.15825891 -0.069732435
0.15931949 0.059522904 -0.22716692 0.07029884 -0.24015206 0.058633123 -0.23439936 -0.28294882
0.20531157 -0.19171019 -0.23352101 0.16570966 0.052902807 0.20309007 -0.047161266 0.18909802
0.023027027 0.18082854 -0.25702432 -0.052182987 0.105671145 0.005379859 0.16484864 0.17002137
0.03590465 0.18728083 0.18903421 -0.11314786 0.122632094 -0.025995875 0.06642743 0.11660857
-0.066065714 0.1077093 -0.14536715 -0.14439338 -0.16167207 -0.12087301 -0.14280854 -0.13713278
-0.049105063 -0.26037166 -0.12893422 -0.15825282 0.23525828 -0.069877245 0.23302847 0.1554756
-0.047961887 0.07144946 -0.10547564 0.16726743 0.0025642437 -0.14654909 -0.16300856 0.06544645
0.009368061 -0.06754932 0.034007113 -0.11198731 0.0053405105 -0.26984876 0.016992731 -0.21875153
0.052268375 -0.07432435 0.041739304 0.19351706 -0.24357694 0.09611 0.0081274025 -0.099637784
0.2680733 -0.11609209 0.05986365 0.06544287 -0.31693926 0.07668305 -0.29359648 -0.17137721
0.03637405 -0.098797396 -0.13320854 -0.197772 0.16167304 0.11626087 -0.07738859 -0.23011445
-0.2605752 0.00028634537 -0.26835027 -0.20174447 0.05137362 -0.113941096 0.18887615 0.119584605
-0.1259005 0.08817838 0.14877935 -0.025834074 0.05564851 0.19367418 -0.18029723 0.24281158
0.17642136 -0.03615958 0.08387626 0.124687985 0.13989887 -0.09515663 -0.2080423 0.04953762
-0.03658284 0.08450445 0.09799352 0.103137776 0.31400183 0.17281602 -0.13209692 0.23825009
0.1999758 -0.074902646 0.071921624 -0.18046883 -0.060601864 0.2373352 0.15528646 -0.048874706
-0.026174054 -0.1811144 0.052545536 0.0398871 0.04196785 0.16918916 -0.03489693 -0.20049043
-0.029067721 0.14415787 -0.019635959 -0.035078935 0.03569989 0.073925525 0.052471142 -0.22228232
0.105088115 0.21861021 -0.09018074 0.19121894 -0.12247549 0.24070366 -0.08546122 -0.079432346
0.17618741 -0.12252763 0.13068646 -0.20409323 -0.050290596 0.2005903 -0.012990175 0.17982893
-0.06658235 0.24273324 -0.31352684 0.11848579 0.22192292 -0.028409034 -0.21798207 0.009810831
-0.09734573 -0.0022600507 -0.00669741 -0.13478716 -0.011487484 0.22834137 -0.26280963 0.123844124
-0.1259623 -0.027961893 -0.06500621 0.04149594 0.2069709 0.12606785 -0.22499476 -0.06002559
-0.05443264 0.13586076 -0.005087504 -0.00445604 0.13948733 -0.12446698 0.42342657 0.10716714
-0.17364158 0.1146968 -0.12994154 0.11620313 -0.115314364 0.02105207 0.04430099 -0.015607305
-0.15644705 0.13270865 -0.10552618 -0.24013357 0.17349374 0.045446366 0.20841032 0.1074094
-0.04208719 0.047865056 -0.3082299 -0.08298204 -0.14687312 -0.22444755 0.20212273 0.07856317
-0.087010965 0.0035223772 0.051402684 0.18914717 -0.0668513 0.21868029 -0.25240493 -0.12974001
0.05145946 0.27868262 -0.08415273 0.16159733 -0.116422586 -0.075653665 -0.14800967 0.011342894
-0.038886335 -0.08547724 0.19159584 -0.13003413 -0.1580352 -0.08795763 -0.11804929 0.039056025
00000000: dc96 f4bc a398 4b3e 2ffd 9c3d b1ae 88bd
00000010: bb50 4b3d 9624 4e3c 0b9c 223e 6aa2 f73d
00000020: 7107 4e3d e374 71be 8c05 a83d d01a bfbd
00000030: a2cc ab3d e8c7 2e3e a00e 22be e1cf 8ebd
00000040: a624 233e 4ace 733d 729e 68be d7f8 8f3d
00000050: 6cea 75be 4929 703d 6306 70be abde 90be
00000060: 323d 523e ad4f 44be 2220 6fbe cbaf 293e
00000070: 9db0 583d d8f6 4f3e 2c2c 41bd e9a2 413e
00000080: 2da3 bc3c 1e2b 393e b198 83be d4bd 55bd
00000090: 1d6a d83d 8749 b03b 15ce 283e 151a 2e3e
000000a0: c110 133d 8cc6 3f3e 2f92 413e 11ba e7bd
000000b0: 8926 fb3d 4df5 d4bc 1b0b 883d 79d0 ee3d
000000c0: 764d 87bd b296 dc3d 20db 14be dcdb 13be
000000d0: 5d8d 25be 458c f7bd 673c 12be 896c 0cbe
000000e0: 6422 49bd 6f4f 85be 5507 04be 070d 22be
000000f0: 8ce7 703e cd1b 8fbd 049f 6e3e ff34 1f3e
00000100: af73 44bd 1854 923d 9d03 d8bd 2748 2b3e
00000110: df0c 283b f710 16be b7eb 26be ca08 863d
00000120: 7f7c 193c 4c57 8abd 0b4b 0b3d 9a59 e5bd
00000130: 73ff ae3b 9e29 8abe 5734 8b3c 6700 60be
00000140: 5d17 563d 5d37 98bd d5f6 2a3d 5629 463e
00000150: 3c6c 79be 52d5 c43d cc28 053c e50e ccbd
00000160: e740 893e b1c1 edbd 9633 753d e906 863d
00000170: dd45 a2be 010c 9d3d 4752 96be 827d 2fbe
00000180: f5fc 143d 4a56 cabd d267 08be be84 4abe
00000190: 9e8d 253e 2e1a ee3d e97d 9ebd 1fa3 6bbe
000001a0: 1d6a 85be a020 9639 3565 89be 1a96 4ebe
000001b0: 256d 523d f359 e9bd c068 413e c6e8 f43d
000001c0: 10ec 00be de96 b43d 9d59 183e fba1 d3bc
000001d0: b1ef 633d 8652 463e d69f 38be 99a3 783e
000001e0: cda7 343e 111c 14bd 51c7 ab3d 6a5c ff3d
000001f0: a641 0f3e 7be1 c2bd 0a09 55be f6e7 4a3d
00000200: e3d7 15bd ab10 ad3d d4b0 c83d e639 d33d
00000210: d9c4 a03e aff6 303e 6a44 07be d5f7 733e
00000220: 75c6 4c3e 8f66 99bd a54b 933d d2cc 38be
00000230: a939 78bd 0008 733e 6a03 1f3e d830 48bd
00000240: f86a d6bc 0e76 39be fd39 573d a860 233d
00000250: 7be6 2b3d ec3f 2d3e 15f0 0ebd 5d4d 4dbe
00000260: 6e1f eebc 1f9e 133e 97db a0bc eeae 0fbd
00000270: 0c3a 123d 4466 973d fbeb 563d fa9d 63be
00000280: 7038 d73d 5bdb 5f3e aeb0 b8bd e6ce 433e
00000290: 6ed4 fabd 057b 763e 4b06 afbd 6dad a2bd
000002a0: 796a 343e c4ef fabd acd2 053e d1fd 50be
000002b0: 83fd 4dbd 8b67 4d3e bed4 54bc 1325 383e
000002c0: 545c 88bd 108f 783e 9786 a0be aea8 f23d
000002d0: c33f 633e 10ba e8bc b136 5fbe 9cbd 203c
000002e0: 335d c7bd 5c1d 14bb f275 dbbb a505 0abe
000002f0: 0036 3cbc 52d2 693e fc8e 86be fda1 fd3d
00000300: 43fc 00be 5710 e5bc fa21 85bd a6f7 293d
00000310: 2ef0 533e ee17 013e 0765 66be 65dd 75bd
00000320: c3f4 5ebd 151f 0b3e 14b5 a6bb f903 92bb
00000330: c4d5 0e3e 8be8 febd 5ecb d83e 727a db3d
00000340: 19cf 31be 28e6 ea3d 650f 05be e8fb ed3d
00000350: f029 ecbd 6475 ac3c f474 353d c8b5 7fbc
00000360: a833 20be c7e4 073e 1c1e d8bd 93e5 75be
00000370: 58a8 313e f825 3a3d 8469 553e 76f9 db3d
00000380: 9e63 2cbd 260e 443d 4fd0 9dbe 7df2 a9bd
00000390: e865 16be 94d5 65be 43f9 4e3e bae5 a03d
000003a0: ce32 b2bd afd7 663b 9f8b 523d ccaf 413e
000003b0: 56e9 88bd baed 5f3e 383b 81be 91da 04be
000003c0: 28c7 523d 7daf 8e3e 4458 acbd c579 253e
000003d0: f76e eebd 4ff0 9abd d98f 17be 8cd7 393c
000003e0: 4747 1fbd b10e afbd b331 443e ab27 05be
000003f0: fbd3 21be 2123 b4bd d3c3 f1bd 36f9 1f3d

energy_lin.1.weight f4 [300, 300]
0.037695453 -0.053968873 0.19437364 0.112658374 0.089505136 0.27339414 0.05309792 -0.017440317
-0.06581755 -0.058124796 -0.06660456 0.18300506 -0.10117745 0.11267136 0.016579654 0.12634338
-0.082021385 0.12103296 0.14753713 0.15067893 0.07348337 -0.012819193 0.17063598 0.14098388
0.119955756 0.14029115 0.20877592 -0.082745135 0.009099895 0.13164364 0.17458002 -0.07916688
-0.08483291 0.12942661 0.024993246 -0.031905554 -0.084819 0.05060722 -0.05167376 -0.029278409
0.040680837 0.15932855 -0.065273784 0.13470037 0.100002244 0.1691115 0.023212621 0.18468682
0.09218185 0.023884127 0.114915274 0.097274914 -0.10736632 0.13468644 -0.04586746 0.100688025
0.026841568 -0.032988787 -0.003644417 -0.043120243 -0.018626561 0.087934114 0.1783668 -0.060370427
-0.071558505 0.16875686 -0.047131952 -0.055004716 -0.06176927 0.10067276 0.17886509 0.020920433
-0.09205793 0.06050086 0.14073896 -0.10709295 0.17221193 0.13588516 0.047189225 -0.011010951
-0.038420405 -0.11967301 -0.13910499 -0.036771968 -0.10376184 -0.091627374 0.14106984 0.14503701
0.18055128 0.026122902 0.006901096 -0.045852885 -0.030115623 0.031367514 0.048642766 -0.070174515
0.04037025 -0.08078747 -0.0065853 0.15652032 -0.111088865 -0.0017242747 -0.05624608 0.07722522
0.17023957 0.0252514 0.08202615 -0.04634383 0.08537415 0.060630888 0.08499984 0.00043975125
-0.04384576 -0.058982655 0.10091682 0.01930121 0.15110666 -0.017012583 0.09523865 -0.020312753
0.033158127 -0.10289878 0.004610828 -0.07590675 0.15629205 0.12319192 0.18142308 -0.10873129
0.055648625 0.08595868 -0.08925427 0.15376484 0.39025712 -0.123033464 -0.067630306 -0.013289369
0.16378415 -0.09404037 0.014059742 0.017469821 -0.06261938 -0.092948794 -0.028275684 0.14534831
0.12991062 -0.051029265 0.029684614 -0.02488842 0.14856382 0.028956737 0.04803718 0.13437143
0.04423307 -0.033528607 -0.09422761 0.07892139 0.008187995 0.027952611 0.03153464 0.11590813
-0.12732548 -0.10047102 0.012546207 0.008945911 -0.12905332 0.033569593 -0.17819609 -0.023837926
-0.067192234 0.014352347 -0.07309276 0.031261988 0.011605929 0.12776618 0.09197367 -0.035752814
0.0076182517 0.22606306 0.09933541 0.077998474 0.17841876 0.12852457 0.08022091 0.1776527
-0.09595704 0.054895863 0.25067857 -0.029843247 -0.0441121 -0.0013979533 0.024604255 -0.06056651
0.05140747 0.00034015984 0.05894579 0.03485895 -0.005802859 0.01321286 -0.0321923 -0.0041183606
0.028711775 0.018499462 -0.08024193 0.1499869 0.04753867 -0.012399853 0.20998712 -0.03925663
0.08652543 0.044647306 0.08707293 0.13842186 0.17250095 0.13645214 0.10062553 0.09253926
0.0043186164 0.042029854 0.042477 0.061743148 0.033896446 -0.15966271 0.101611294 0.13964066
-0.10305716 -0.12403883 0.05862929 0.07985643 0.050010987 0.08013331 -0.04439743 0.3882587
0.09177049 0.14650624 0.08134785 0.035225525 0.24929844 -0.035283428 0.023666404 -0.07646803
-0.0478622 0.16832358 -0.031029385 0.0071663666 -0.18474126 -0.11484641 0.1633503 -0.15514141
-0.12799323 0.17501031 -0.062496673 -0.040825635 -0.06679578 0.018175943 0.14272076 -0.08112798
00000000: 8c66 1a3d 770e 5dbd e209 473e 6fb9 e63d
00000010: 784e b73d 51fa 8b3e 347d 593d ffde 8ebc
00000020: 5acb 86bd 4414 6ebd f967 88bd ae65 3b3e
00000030: 1f36 cfbd 3ec0 e63d 0ed2 873c 2960 013e
00000040: d4fa a7bd 21e0 f73d f913 173e 944b 1a3e
00000050: 737e 963d 9807 52bc 33bb 2e3e 145e 103e
00000060: 5dab f53d 7ca8 0f3e 5bc9 553e 4876 a9bd
00000070: ba17 153c 97cd 063e 1bc5 323e 3f22 a2bd
00000080: e0bc adbd 6988 043e a3be cc3c 66af 02bd
00000090: 95b5 adbd 8449 4f3d dda7 53bd 46d9 efbc
000000a0: f3a0 263d 0627 233e 43ae 85bd e5ee 093e
000000b0: facd cc3d 912b 2d3e 6528 be3c 8b1e 3d3e
000000c0: d6c9 bc3d a5a8 c33c b358 eb3d 1238 c73d
000000d0: e0e2 dbbd 3eeb 093e 85df 3bbd 8635 ce3d
000000e0: d9e2 db3c 401f 07bd 2cd7 6ebb da9e 30bd
000000f0: bb96 98bc cd16 b43d c9a5 363e fb46 77bd
00000100: 448d 92bd 99ce 2c3e 6f0d 41bd a04c 61bd
00000110: c601 7dbd 852d ce3d 6928 373e 5461 ab3c
00000120: de88 bcbd c0cf 773d e01d 103e 8c53 dbbd
00000130: 5358 303e 7b25 0b3e 7d49 413d 4767 34bc
00000140: b75e 1dbd 2017 f5bd 8a71 0ebe 349e 16bd
00000150: 1681 d4bd 22a7 bbbd 9d74 103e 9584 143e
00000160: 6fe2 383e b2ff d53c 9722 e23b 3cd0 3bbd
00000170: 0ab5 f6bc 397b 003d a33d 473d a8b7 8fbd
00000180: 465b 253d e773 a5bd 80c9 d7bb dd46 203e
00000190: 8f82 e3bd 0f01 e2ba 4a62 66bd 4228 9e3d
000001a0: 4853 2e3e 06dc ce3c 53fd a73d 07d3 3dbd
000001b0: a4d8 ae3d 1858 783d 6514 ae3d 6a8e e639
000001c0: 9d97 33bd cc97 71bd 7aad ce3d 921d 9e3c
000001d0: b4bb 1a3e f95d 8bbc 7b0c c33d ee66 a6bc
000001e0: d1d0 073d 98bc d2bd 6e16 973b 0075 9bbd
000001f0: 060b 203e 0c4c fc3d f9c6 393e 83ae debd
00000200: d0ef 633d 1b0b b03d f1ca b6bd 8874 1d3e
00000210: c8cf c73e f8f8 fbbd c281 8abd a7bb 59bc
00000220: 08b7 273e 3d98 c0bd d55a 663c df1c 8f3c
00000230: 973e 80bd f05b bebd 68a2 e7bc 30d6 143e
00000240: 4a07 053e 1004 51bd 262d f33c cde2 cbbc
00000250: 1d21 183e ae36 ed3c a2c2 443d aa98 093e
00000260: bc2d 353d 4b55 09bd 68fa c0bd 8aa1 a13d
00000270: f126 063c e0fc e43c 772a 013d 3e61 ed3d
00000280: 9c61 02be c0c3 cdbd 9b8e 4d3c df91 123c
00000290: 8e26 04be 4580 093d 0979 36be c147 c3bc
000002a0: 159c 89bd 1b26 6b3c a8b1 95bd 920c 003d
000002b0: cb26 3e3c 23d5 023e b15c bc3d 8b71 12bd
000002c0: 87a2 f93b 137d 673e 5d70 cb3d aabd 9f3d
000002d0: 68b3 363e f29b 033e dc4a a43d 97ea 353e
000002e0: 2085 c4bd 7cda 603d f158 803e d379 f4bc
000002f0: e4ae 34bd 873b b7ba dd8e c93c 9714 78bd
00000300: a490 523d 7b57 b239 2471 713d 42c8 0e3d
00000310: e925 bebb c07a 583c 13dc 03bd 50f3 86bb
00000320: f534 eb3c 2f8c 973c e255 a4bd 2a96 193e
00000330: e9b7 423d c128 4bbc dd06 573e 8fcb 20bd
00000340: 3f34 b13d 18e0 363d 4b53 b23d 76be 0d3e
00000350: 17a4 303e 1cba 0b3e c214 ce3d 3985 bd3d
00000360: 2e83 8d3b 7f27 2c3d 5dfc 2d3d 62e6 7c3d
00000370: 00d7 0a3d 9f7e 23be 9519 d03d f6fd 0e3e
00000380: a20f d3bd 1208 febd 4425 703d c58b a33d
00000390: 52d8 4c3d ef1c a43d 14da 35bd d8c9 c63e
000003a0: 2bf2 bb3d bb05 163e b499 a63d a448 103d
000003b0: 1748 7f3e 5b85 10bd 0ce0 c13c 459b 9cbd
000003c0: 270b 44bd 045d 2c3e 5631 febc d7d3 ea3b
000003d0: d02c 3dbe 9834 ebbd 4d45 273e 64dd 1ebe
000003e0: a810 03be e735 333e 83fc 7fbd c838 27bd
000003f0: 3acc 88bd b7e5 943c 6425 123e 6d26 a6bd

energy_lin.1.bias f4 [300]
-0.035336472 -0.02603922 0.044629976 0.09015704 0.08488387 -0.011399338 0.028321948 0.06965597
-0.023445213 -0.015823469 0.019892896 -0.012027421 0.06945732 -0.051960275 0.0075531243 0.06224781
0.067232005 -0.056238633 -0.0044817217 0.0151794525 -0.019825457 0.06332318 0.0028558963 0.008562227
0.046712887 -0.009082328 0.0640771 -0.029448655 0.059337374 -0.026734073 -0.0073646614 0.050522283
-0.0032833898 -0.016986419 0.013409034 0.05155215 0.00059442065 0.015425629 -0.007945582 0.031658553
0.026519097 0.058272492 0.057088953 0.0561591 0.023080405 0.057438597 0.008186436 -0.014952898
-0.03491931 0.060529668 -0.015046765 0.0092955185 0.11050709 -0.006843683 -0.023092875 -0.0045398907
0.04247019 -0.042690817 -0.0036715604 -0.001442352 0.043098565 0.012330058 0.020746328 0.07112672
0.021012252 -0.008815592 -0.024790557 0.005752031 -0.036646128 -0.008279146 0.06594898 0.019395553
0.031062935 0.019731577 0.064946674 0.04243968 0.0044927173 -0.026431305 0.05566152 -0.036635317
0.03641493 0.018500896 0.042150643 0.048991904 0.096069224 0.026417527 0.02460053 0.0042602774
-0.04414345 0.0064276555 0.0020539768 0.025934048 0.004333162 -0.03081022 -0.03657116 -0.017166056
0.0031272394 -0.007326068 0.01564304 0.042913277 0.019293955 0.030035125 0.0588609 -0.013660316
0.07604845 -0.0108605 0.07082296 0.017047284 0.04411197 0.039952714 0.0010754837 0.03256416
0.048697524 -0.02792097 0.07479225 -0.020601282 -0.02865896 0.023020886 0.03691699 0.016765812
0.089336805 -0.017351206 -0.008816594 0.08589337 -0.0059159636 0.03668216 0.00076848094 0.07834917
0.01026247 0.072530955 0.04534407 0.06066028 0.029204983 -0.019932862 0.012479631 -0.006754042
0.016017988 0.08294028 0.011207028 -0.016941015 -0.05446891 0.041358072 0.008712972 -0.0020098202
-0.016850168 0.061550293 0.03943077 -0.03034537 0.013339388 -0.013110347 -0.011241243 0.014857824
-0.029583292 -0.023439026 -0.016316159 0.022229098 -0.04343322 0.038801122 -0.038481362 -0.010486678
-0.034259498 0.091244854 -0.023817936 0.05734549 -0.0048729605 0.030779334 0.011573696 0.02950808
-0.037611302 0.023780746 0.04096571 0.07349303 0.053148348 0.012033769 0.04447983 0.046587646
0.045195065 -7.9312784e-26 0.015640955 -0.007982953 0.0031505632 0.043820765 0.009001763 0.09809193
0.053228647 -0.06501407 0.09173442 -0.040536564 0.059152495 0.046972763 -0.00958231 -0.032560077
-0.04305409 -5.653448e-33 -0.014491962 -0.0060246955 0.0073803747 -0.0340749 0.026562303 -0.00023927534
0.011190472 -0.0122463275 0.032787886 -0.007883037 0.02142707 0.05195304 0.024437483 0.07071753
0.020791512 -0.03423151 -0.029138843 0.11269007 0.056333683 0.011162326 -0.037312057 -0.01992148
0.01704466 0.017572755 0.014697393 0.040878933 0.042186897 0.0056120455 0.023289006 0.02580934
-0.009635163 0.035374947 0.05861617 -0.03553275 0.07477996 -0.020733474 0.037089434 0.053927656
0.050202616 0.030262839 0.041852396 -0.0017823287 0.041253388 -0.034943398 0.007912943 -0.008746625
-0.014026014 -0.026565226 -1.13304985e-26 0.05201152 -0.0015182379 0.03461886 -0.0059173075 0.044847067
0.068109 -0.02972706 0.049422603 0.030585656 -0.026500935 0.0040828725 0.02763595 0.05066392
00000000: fabc 10bd 3450 d5bc eccd 363d 41a4 b83d
00000010: 98d7 ad3d 4ac4 3abc 6e03 e83c caa7 8e3d
00000020: 2d10 c0bc 38a0 81bc 6df6 a23c a90e 45bc
00000030: a43f 8e3d 4cd4 54bd 3380 f73b 8ff7 7e3d
00000040: efb0 893d 7b5a 66bd 68db 92bb 3db3 783c
00000050: ff68 a2bc 95af 813d fd29 3b3b 9548 0c3c
00000060: 0356 3f3d 0bce 14bc db3a 833d 4e3e f1bc
00000070: bf0b 733d 6a01 dbbc 4253 f1bb 74f0 4e3d
00000080: 242e 57bb 1a27 8bbc 91b1 5b3c 5928 533d
00000090: e5d2 1b3a c7bb 7c3c 302e 02bc 66ac 013d
000000a0: 943e d93c 23af 6e3d 1bd6 693d 1607 663d
000000b0: 1e13 bd3c bc44 6b3d 6720 063c 00fd 74bc
000000c0: 8d07 0fbd f5ed 773d b586 76bc 3b4c 183c
000000d0: 8b51 e23d f940 e0bb 452d bdbc 5dc3 94bb
000000e0: 39f5 2d3d 91dc 2ebd 909e 70bb 4d0d bdba
000000f0: 1f88 303d 0304 4a3c 34f4 a93c e3aa 913d
00000100: e321 ac3c 466f 10bc 9115 cbbc 897b bc3b
00000110: 401a 16bd 41a5 07bc 4210 873d 6ce3 9e3c
00000120: b277 fe3c 1ea4 a13c c302 853d 3bd5 2d3d
00000130: a537 933b 7786 d8bc 56fd 633d ea0e 16bd
00000140: d227 153d 318f 973c 27a6 2c3d bcab 483d
00000150: f1bf c43d 9269 d83c 0d87 c93c cc99 8b3b
00000160: c3cf 34bd 159f d23b 039c 063b a473 d43c
00000170: 33fd 8d3b b765 fcbc a4cb 15bd d49f 8cbc
00000180: 5ff2 4c3b 830f f0bb d525 803c d5c5 2f3d
00000190: 5b0e 9e3c 390c f63c 2118 713d 85cf 5fbc
000001a0: 4abf 9b3d 3df0 31bc a10b 913d bfa6 8b3c
000001b0: c1ae 343d 75a5 233d 3ff7 8c3a ff61 053d
000001c0: 0e77 473d 85ba e4bc ae2c 993d 05c4 a8bc
000001d0: 32c6 eabc 4c96 bc3c 4536 173d 7558 893c
000001e0: 37f6 b63d 1e24 8ebc 7a73 10bc dde8 af3d
000001f0: b3da c1bb 0840 163d e273 493a 8875 a03d
00000200: eb23 283c 1c8b 943d b4ba 393d ea76 783d
00000210: 4a3f ef3c 3e4a a3bc 5e77 4c3c 0351 ddbb
00000220: 2838 833c 98dc a93d af9d 373c e2c7 8abc
00000230: cb1a 5fbd 1567 293d dac0 0e3c 30b7 03bb
00000240: 5d09 8abc 291c 7c3d 2982 213d da96 f8bc
00000250: 738d 5a3c c8cc 56bc 312d 38bc 3b6e 733c
00000260: a958 f2bc 3303 c0bc 77a9 85bc cc19 b63c
00000270: 08e7 31bd eded 1e3d a29e 1dbd 51d0 2bbc
00000280: b053 0cbd 95de ba3d d51d c3bc 1be3 6a3d
00000290: 5bad 9fbb f124 fc3c 999f 3d3c eeba f13c
000002a0: 4f0e 1abd d7cf c23c a9cb 273d 8483 963d
000002b0: 15b2 593d 4929 453c 7b30 363d b0d2 3e3d
000002c0: 761e 393d 735e c495 7621 803c efca 02bc
000002d0: ae79 4e3b 677d 333d 217c 133c 6ce4 c83d
000002e0: 4806 5a3d 1926 85bd 41df bb3d ab09 26bd
000002f0: e349 723d 8366 403d 1fff 1cbc b75d 05bd
00000300: 7c59 30bd c5d5 ea89 b26f 6dbc cf6a c5bb
00000310: 12d7 f13b 1f92 0bbd 3099 d93c fce5 7ab9
00000320: 3e58 373c d2a4 48bc 974c 063d db27 01bc
00000330: d387 af3c b6cc 543d 1e31 c83c 5ad4 903d
00000340: f652 aa3c 5736 0cbd 95b4 eebc 0dca e63d
00000350: 26be 663d 30e2 363c 87d4 18bd 5f32 a3bc
00000360: 3ea1 8b3c bdf4 8f3c 56cd 703c ab70 273d
00000370: 2bcc 2c3d 40e5 b73b 96c8 be3c 1c6e d33c
00000380: cddc 1dbc 52e5 103d 8217 703d ca8a 11bd
00000390: 3c26 993d 3fd9 a9bc 17eb 173d 3fe3 5c3d
000003a0: 42a1 4d3d c6e9 f73c 6b6d 2b3d 079d e9ba
000003b0: 50f9 283d cf20 0fbd 4aa5 013c 014e 0fbc
000003c0: 5ecd 65bc 519f d9bc 746c 6094 080a 553d
000003d0: 9cff c6ba 81cc 0d3d f9e5 c1bb 8fb1 373d
000003e0: bb7c 8b3d 2a86 f3bc 5b6f 4a3d c58e fa3c
000003f0: 7d18 d9bc 9ec9 853b ca64 e23c f884 4f3d

energy_lin.3.weight f4 [150, 300]
0.069785744 -0.078960024 -0.06523005 0.13235804 -0.09705128 0.020695506 -0.0064309584 -0.083287396
-0.10266746 0.14287296 -0.076918244 0.11571149 0.019312512 -0.13927965 0.01562782 0.07801296
0.01324884 -0.13607647 0.06875933 0.042915434 -0.13832729 0.019079443 0.0755815 -0.027675156
-0.12111214 0.014003312 0.099938095 -0.07157953 0.036044084 0.026335813 0.06582089 0.17534348
0.0900651 0.066302836 -0.08495509 -0.07099842 -0.08706627 0.123258635 0.027884291 0.101541765
-0.06507426 -0.00075349305 -0.038241405 0.12686537 0.062454794 -0.09451086 -0.37219322 0.024059452
0.14471357 -0.14633666 -0.07396696 0.16508944 0.24001881 0.11079226 -0.060129736 -0.09004633
0.008598969 -0.12511948 -0.002334597 -0.16148455 -0.025460297 0.15736501 -0.01052254 0.09289532
0.009082423 -0.14722882 0.044334684 0.002597887 0.07023423 0.047647245 -0.010099291 0.049493063
0.09106882 -0.048605893 -0.13951182 0.1122725 -0.05360502 0.066391096 0.07037067 0.031358223
0.1250332 -0.031811073 0.007786546 -0.12071009 0.0237663 0.13070577 -0.051247023 -0.10646727
-0.105419494 -0.038717534 0.080909885 0.08174142 -0.12308945 0.110391036 -0.09696487 0.042765148
-0.096834905 0.038057186 0.16570958 0.13364202 0.09673609 0.13752669 -0.010267218 0.1295103
0.01795721 -0.11671905 0.035396054 0.027999729 -0.020105226 -0.16447599 0.065363884 -0.1361191
0.017430305 -0.017063336 -0.06882998 0.09319129 -0.0806608 0.02404131 -0.025504116 0.017869545
0.05510377 -0.15217489 0.004019211 -0.061539736 0.07423202 -0.017897476 0.06660608 0.17848703
0.09977451 0.0059917793 -0.0046866266 0.10921779 -0.39057907 -0.101705365 0.053825278 0.05515884
0.04644378 -0.011696943 -0.080115445 -0.10973989 0.12479079 -0.10548215 0.094581336 0.09563445
0.0456929 0.10912878 0.12589774 -0.11902898 -0.10887518 -0.08957838 -0.15579475 -0.0937458
-0.0707619 -0.005851437 0.07839517 -0.081958584 -0.0112957265 -0.07070548 0.11056974 0.14560805
0.12435585 0.12961715 0.100232035 -0.08102955 0.34213874 0.13362007 -0.062250983 -0.050245326
0.0828454 0.0012248742 0.030302124 0.059039842 0.035261706 0.004498994 -0.15198046 -0.09074985
0.0109630795 3.1467715e-23 -0.052903533 0.12437445 -0.06888812 -0.14300945 -0.01941958 -0.05052503
-0.031112859 0.35564584 0.03243348 0.05165666 0.22360095 0.2179589 0.12457155 -0.114511214
0.12891936 -1.2799266e-21 0.0013954382 -0.17005543 -0.123599 0.08212666 -0.1270708 0.049503323
0.03851659 0.012720887 0.21625242 -0.01183178 0.13803586 0.041888323 0.10539276 0.046316925
0.049831763 0.11033878 0.12111154 0.19743589 0.06860646 0.06507021 -0.080400184 0.017666792
-0.026860092 -0.10919642 0.049978767 0.09896735 0.0642089 0.07891827 0.14059897 0.025586162
0.13667254 -0.10857082 -0.1098875 0.029188514 -0.047369774 0.104635924 0.09242319 0.07112796
0.092230774 0.13198301 -0.0038629319 -0.124350116 -0.111569606 -0.042183075 0.007356414 0.11472318
0.10801815 0.16616675 1.232856e-28 0.10953431 -0.06868104 -0.039578833 0.011465008 0.117177226
-0.023249254 0.075476766 -0.117857434 0.0798689 -0.006460852 -0.08920825 0.053239647 0.12264301
00000000: d4eb 8e3d cbb5 a1bd 5597 85bd de88 073e
00000010: d2c2 c6bd 9f89 a93c caba d2bb 9592 aabd
00000020: 5143 d2bd 4a4d 123e 5087 9dbd 25fa ec3d
00000030: 4635 9e3c 539f 0ebe ea05 803c 42c5 9f3d
00000040: aa11 593c a157 0bbe b1d1 8c3d 18c8 2f3d
00000050: aba5 0dbe 7e4c 9c3c 79ca 9a3d 02b7 e2bc
00000060: a409 f8bd 266e 653c 58ac cc3d 4a98 92bd
00000070: f6a2 133d 34be d73c 1acd 863d 3e8d 333e
00000080: 0d74 b83d c8c9 873d effc adbd 9f67 91bd
00000090: cd4f b2bd 066f fc3d 996d e43c 21f5 cf3d
000000a0: a745 85bd 1086 45ba 05a3 1cbd ffe8 013e
000000b0: 99d0 7f3d e98e c1bd 1c90 bebe 5418 c53c
000000c0: cb2f 143e 47d9 15be fd7b 97bd 350d 293e
000000d0: 7ec7 753e 0de7 e23d 994a 76bd 366a b8bd
000000e0: b1e2 0c3c 521f 00be 0a00 19bb 355c 25be
000000f0: 1d92 d0bc 4b24 213e bb66 2cbc e73f be3d
00000100: 71ce 143c 27c3 16be 4998 353d 5041 2a3b
00000110: f7d6 8f3d c229 433d 7f77 25bc 3db9 4a3d
00000120: 4a82 ba3d f916 47bd 30dc 0ebe 20ef e53d
00000130: f090 5bbd 0ef8 873d 7f1e 903d 7b71 003d
00000140: b408 003e 544c 02bd 4826 ff3b da36 f7bd
00000150: 8bb1 c23c bcd7 053e 66e8 51bd 830b dabd
00000160: 2de6 d7bd 4796 1ebd 15b4 a53d 0c68 a73d
00000170: 5216 fcbd b214 e23d 8595 c6bd 822a 2f3d
00000180: 6151 c6bd dae1 1b3d c6af 293e 74d9 083e
00000190: 921d c63d ccd3 0c3e d537 28bc 599e 043e
000001a0: 001b 933c 660a efbd 74fb 103d b05f e53c
000001b0: b7b3 a4bc 656c 28be 80dd 853d ce62 0bbe
000001c0: 00ca 8e3c 69c8 8bbc bcf6 8cbd 13db be3d
000001d0: 7d31 a5bd 48f2 c43c 02ee d0bc 2763 923c
000001e0: 7eb4 613d bcd3 1bbe 96b3 833b 1711 7cbd
000001f0: f506 983d ba9d 92bc c568 883d 4ec5 363e
00000200: 9456 cc3d b056 c43b 4692 99bb 94ad df3d
00000210: fbf9 c7be e74a d0bd e577 5c3d 3cee 613d
00000220: d53b 3e3d 89a4 3fbc 9113 a4bd 4fbf e0bd
00000230: 5092 ff3d 0707 d8bd dcb3 c13d ffdb c33d
00000240: 7a28 3b3d e97e df3d 56eb 003e 77c5 f3bd
00000250: f3f9 debd df74 b7bd a988 1fbe ccfd bfbd
00000260: 9deb 90bd 69bd bfbb a68d a03d e7d9 a7bd
00000270: b611 39bc 09ce 90bd 6372 e23d 471a 153e
00000280: 48ae fe3d 5cba 043e 7446 cd3d d2f2 a5bd
00000290: cf2c af3e b3d3 083e e3fa 7ebd 0bce 4dbd
000002a0: d9aa a93d f58b a03a 293c f83c c3d3 713d
000002b0: 946e 103d 4c6c 933b c4a0 1bbe 0fdb b9bd
000002c0: 7d9e 333c 252b 181a 60b1 58bd 08b8 fe3d
000002d0: 3715 8dbd 1271 12be d015 9fbc 55f3 4ebd
000002e0: 65e0 febc 3617 b63e f8d8 043d ef95 533d
000002f0: a6f7 643e 9e30 5f3e 5e1f ff3d db84 eabd
00000300: 7003 043e c36a c19c 23e7 b63a 0323 2ebe
00000310: 7921 fdbd 0632 a83d d91e 02be ffc3 4a3d
00000320: 92c3 1d3d 446b 503c 4671 5d3e 15da 41bc
00000330: 4659 0d3e 1793 2b3d 29d8 d73d d1b6 3d3d
00000340: 641c 4c3d 4cf9 e13d 5409 f83d a22c 4a3e
00000350: 8b81 8c3d 8843 853d daa8 a4bd f3b9 903c
00000360: b209 dcbc 5fa2 dfbd 89b6 4c3d 65af ca3d
00000370: f57f 833d e79f a13d 2df9 0f3e 129a d13c
00000380: e3f3 0b3e 615a debd b30c e1bd c01c ef3c
00000390: cf06 42bd 5c4b d63d 5f48 bd3d 89ab 913d
000003a0: 7de3 bc3d 8e26 073e 3e29 7dbb 46ab febd
000003b0: 9b7e e4bd 29c8 2cbd 130e f13b fdf3 ea3d
000003c0: 9f38 dd3d 9e27 2a3e 7748 1c11 8653 e03d
000003d0: a5a8 8cbd 6a1d 22bd bbd7 3b3c 9dfa ef3d
000003e0: 3875 bebc 9093 9a3d 3d5f f1bd 4e92 a33d
000003f0: 8eb5 d3bb d1b2 b6bd d111 5a3d 422c fb3d

energy_lin.3.bias f4 [150]
-0.024088979 0.0016004764 0.030951707 0.03804256 0.04340808 0.0053303014 0.011507108 -1.4945824e-34
0.021657081 0.023494087 -0.030254483 0.06450383 0.0027373985 -0.031453066 0.029800357 -0.0237331
-0.01999001 -0.03385508 -0.02227977 0.009704514 0.051605597 0.040274784 -0.029655047 -0.0047482704
-0.0037145396 0.023781842 0.044720802 -0.0406164 -0.020753823 -0.048481785 -0.0276021 0.00061687746
-0.0050605694 0.051402327 0.020330355 -0.030349297 0.009305515 -0.02782196 0.06799757 0.040942233
0.04384836 0.004926545 -0.0048717842 -0.0463001 0.035723284 0.007540721 -0.0059069996 0.025039744
0.05128475 -0.03550576 0.018639864 0.070095964 0.009657364 0.052491803 -0.0035608385 -0.043163054
0.033236764 0.03796004 0.0034802319 -0.021389136 0.011651622 0.010492635 -0.008926818 -0.033258572
-0.044202134 0.03483306 0.022288864 0.061442684 0.016951371 0.056530505 -0.007827327 0.0059864405
-0.04406397 -0.050393376 0.011804978 0.03547334 0.01085672 0.012422442 0.021563223 0.06441775
0.025861906 0.0066489414 0.004952857 0.0045305737 -0.04523052 0.052111715 -0.013573403 0.012715295
-0.010252589 0.04422002 -0.020189617 -0.04325834 0.051026493 -0.04011859 -0.04856273 0.071311906
0.0061101243 0.06398603 0.0051460154 0.013243664 0.047855258 -0.020621713 0.060995523 0.018230045
0.043062683 0.025440022 0.047514506 0.034656364 0.068283804 -0.0030706301 0.0029825969 0.058868863
-0.022288768 0.013754232 -0.010483934 -0.034023162 0.023085156 0.0034674632 0.03825889 0.0100352075
-0.008706977 -0.035866246 0.062119976 -0.009435053 -0.044097196 0.05864922 0.050855268 -0.032652467
0.02580012 0.007755596 -0.016272457 0.025375944 0.00830755 -0.04109132 -0.023675013 -0.012767101
-1.8342158e-15 0.015647456 0.04164432 0.050936054 0.059222285 -0.029897528 0.022332456 0.008650094
-0.011433029 0.0144152865 0.059341684 -0.04343545 0.05906527 0.0021711385
00000000: 4056 c5bc 14c7 d13a 6f8e fd3c 84d2 1b3d
00000010: accc 313d cfa9 ae3b 4f88 3c3c 01aa 4687
00000020: 316a b13c ac76 c03c 40d8 f7bc 961a 843d
00000030: ed65 333b eed4 00bd e11f f43c eb6b c2bc
00000040: 17c2 a3bc a0ab 0abd 1084 b6bc afff 1e3c
00000050: 6460 533d 2cf7 243d 24ef f2bc 6197 9bbb
00000060: a26f 73bb 23d2 c23c 292d 373d 625d 26bd
00000070: ec03 aabc d694 46bd cd1d e2bc f2b5 213a
00000080: 22d3 a5bb 3f8b 523d d88b a63c 179f f8bc
00000090: 2976 183c e1ea e3bc 4f42 8b3d 0bb3 273d
000000a0: 579a 333d db6e a13b 7da3 9fbb 2ca5 3dbd
000000b0: 9452 123d 2718 f73b 818f c1bb 2620 cd3c
000000c0: f50f 523d 7d6e 11bd a1b2 983c 798e 8f3d
000000d0: ec39 1e3c a501 573d f55c 69bb becb 30bd
000000e0: 4623 083d fd7b 1b3d 9a14 643b 4538 afbc
000000f0: 72e6 3e3c 4de9 2b3c ca41 12bc 243a 08bd
00000100: 4c0d 35bd 1cad 0e3d 2397 b63c 53ab 7b3d
00000110: 9add 8a3c 888c 673d 303e 00bc e729 c43b
00000120: 6c7c 34bd 4969 4ebd ab69 413c 7e4c 113d
00000130: 62e0 313c 8087 4b3c 5ba5 b03c 74ed 833d
00000140: 59dc d33c 5ddf d93b 934b a23b 3575 943b
00000150: a343 39bd 1873 553d fa62 5ebc d053 503c
00000160: 7afa 27bc 0d20 353d b264 a5bc a82f 31bd
00000170: 2801 513d 6453 24bd b7e9 46bd fa0b 923d
00000180: 7037 c83b 1c0b 833d e89f a83b f4fb 583c
00000190: e003 443d deee a8bc 71d6 793d 2d57 953c
000001a0: 7f62 303d 9867 d03c 929e 423d d5f3 0d3d
000001b0: 61d8 8b3d a03c 49bb ac77 433b 7a20 713d
000001c0: ef96 b6bc 6e59 613c cec4 2bbc df5b 0bbd
000001d0: 151d bd3c 613e 633b 5bb5 1c3d b66a 243c
000001e0: b5a7 0ebc 7ce8 12bd 8471 7e3d 7b95 1abc
000001f0: 439f 34bd 2a3a 703d 9d4d 503d 98be 05bd
00000200: c65a d33c a822 fe3b d14d 85bc 36e1 cf3c
00000210: 641c 083c 5f4f 28bd 1af2 c1bc 1a2d 51bc
00000220: 4f2b 04a7 182f 803c 3c93 2a3d 53a2 503d
00000230: 1193 723d a9eb f4bc 8ef2 b63c 20b9 0d3c
00000240: 9951 3bbc 182e 6c3c 4410 733d 5fe9 31bd
00000250: 6dee 713d a949 0e3b
