models/mpnn_A139_B23_E300_L2/39.pt (torch, 742651 bytes, 9 tensors)

atom_lin.weight f4 [300, 139]
0	0x3d700594	0.05859907
1	0x3da55df6	0.08074562
2	0x24b5fedd	7.892799e-17
3	0xa427f883	-3.642285e-17
4	0xa3bc6410	-2.0425379e-17
5	0x203d7e7a	1.605077e-19
6	0x3dc41acb	0.09575423
7	0x3d65d840	0.056114435
8	0xbdba03b5	-0.09082738
9	0xbe79109f	-0.24322747
10	0x1a19c088	3.1795184e-23
11	0x003586e9	4.915678e-39
12	0xbcd68a91	-0.02618912
13	0xa9c98d7f	-8.950739e-14
14	0x003570f8	4.907807e-39
15	0xbce73397	-0.028222842
16	0x3e1c65ff	0.15273283
17	0xbdbfb766	-0.09361152
18	0xa1f2eca8	-1.64612e-18
19	0xa9ec4a53	-1.04933985e-13
20	0x291c9e4d	3.4776262e-14
21	0x8035740f	-4.908915e-39
22	0x27bfdb4e	5.325092e-15
23	0x94e59e3b	-2.3185502e-26
24	0x2603eb5f	4.576874e-16
25	0x3d406288	0.046968967
26	0x3cd176fc	0.025569431
27	0xbe40000d	-0.1875002
28	0x0a0b4981	6.706431e-33
29	0x8031e889	-4.583357e-39
30	0x001faa2c	2.907947e-39
31	0x1ff556e8	1.0390531e-19
32	0x286d9d1e	1.3190212e-14
33	0x26fcd5e9	1.7543993e-15
34	0xa71160fd	-2.017537e-15
35	0x3d9d6adf	0.076864
36	0x12b51778	1.1428491e-27
37	0x09ee8236	5.7418866e-33
38	0x00b0832c	1.6210103e-38
39	0x29117a65	3.2302628e-14
40	0xa2939259	-3.999938e-18
41	0x0e80985b	3.170115e-30
42	0x94022f1d	-6.572614e-27
43	0x9aed8957	-9.824279e-23
44	0x96502c55	-1.6816095e-25
45	0x80358ca6	-4.917736e-39
46	0x15343ac5	3.639707e-26
47	0xa74ad694	-2.8149454e-15
48	0xa6e16fb6	-1.5642791e-15
49	0x282f0900	9.716403e-15
50	0x1eb2d1ee	1.8933308e-20
51	0x87e160ca	-3.3911125e-34
52	0x80358885	-4.916255e-39
53	0x3e38f5b1	0.18062474
54	0x0ebf0718	4.7091966e-30
55	0x01790d1f	4.574349e-38
56	0x105e31d1	4.3820157e-29
57	0x00357569	4.9094e-39
58	0x1a1b7b19	3.2152686e-23
59	0x247e5107	5.5146103e-17
60	0x290f7889	3.1856926e-14
61	0xa0047ab6	-1.1221437e-19
62	0x98fdab97	-6.557223e-24
63	0x9e17c598	-8.034735e-21
64	0x00112b17	1.576661e-39
65	0xa61c281b	-5.4177725e-16
66	0x2569b231	2.0269902e-16
67	0x8c3e1ad1	-1.4645137e-31
68	0x1947d9a0	1.0332008e-23
69	0x9488ed98	-1.3826205e-26
70	0x288f3498	1.5898998e-14
71	0x890f274b	-1.7231474e-33
72	0x1a0565d8	2.7586024e-23
73	0x0035878a	4.915904e-39
74	0xa82dacd9	-9.6409095e-15
75	0x1672feae	1.9628967e-25
76	0x80356d95	-4.906592e-39
77	0x0c2ff31d	1.3554669e-31
78	0x1e8f12fc	1.5148566e-20
79	0x9fb4ccf0	-7.6572006e-20
80	0x298654c4	5.9655e-14
81	0x11addb7e	2.742986e-28
82	0x1c3413e1	5.9582697e-22
83	0x1e94ed0c	1.576815e-20
84	0x9ff691aa	-1.04426033e-19
85	0x13d96dca	5.488676e-27
86	0xa67fe776	-8.8784585e-16
87	0x1a54953a	4.3961117e-23
88	0x22827ee8	3.5370938e-18
89	0x98584b70	-2.7955432e-24
90	0x170fe8d4	4.649966e-25
91	0x2156556e	7.2619086e-19
92	0x0bd1e437	8.084725e-32
93	0x8aa82955	-1.6193359e-32
94	0x10d35d81	8.336889e-29
95	0x01996480	5.6347534e-38
96	0x27de7365	6.174249e-15
97	0x2a536b0d	1.8777705e-13
98	0x1a869556	5.5662366e-23
99	0x00358a09	4.916799e-39
100	0x920e5b6c	-4.4919986e-28
101	0xa6ac874e	-1.1971572e-15
102	0x23b4f326	1.9618616e-17
103	0xa125f0b0	-5.622272e-19
104	0xa0fbdd85	-4.2667643e-19
105	0x1d76b427	3.2650965e-21
106	0x1ccdcec1	1.3619207e-21
107	0x17ea1804	1.5127958e-24
108	0x824a2fe3	-1.4854359e-37
109	0x80356806	-4.904598e-39
110	0x0b94ab53	5.7265306e-32
111	0x1bde3e5a	3.6767113e-22
112	0x0c2d994f	1.337357e-31
113	0x28f97949	2.7697152e-14
114	0xa4e237f3	-9.810666e-17
115	0x89ad1284	-4.1665647e-33
116	0x00358199	4.913772e-39
117	0xaa04dff2	-1.1801652e-13
118	0x2a2600b0	1.4744e-13
119	0xbdbc295e	-0.09187578
120	0x3e6541f4	0.2238844
121	0x3d8614d7	0.06546944
122	0xbe4aa40d	-0.19789143
123	0x3e062d96	0.13103327
124	0x0508a669	6.425254e-36
125	0xbc20929c	-0.009800579
126	0xa69db14a	-1.0942118e-15
127	0xa829e867	-9.431779e-15
128	0xbe03c406	-0.12867746
129	0x3d8030ca	0.06259306
130	0x3d8e7d1f	0.06957459
131	0x3e0a9cd6	0.1353639
132	0xbd968f4b	-0.0735155
133	0x1e28fec1	8.946528e-21
134	0x9fe2d568	-9.6067774e-20
135	0x811a9608	-2.8392975e-38
136	0x27e3856e	6.314982e-15
137	0x91ca4e32	-3.1918172e-28
138	0xbe7fcf3b	-0.24981396
139	0xbdb7cade	-0.08974241
140	0xbd73a62a	-0.05948464
141	0x9695f49c	-2.4226619e-25
142	0x017aa6b4	4.6037352e-38
143	0x1180781f	2.026887e-28
144	0x23b333f4	1.9429222e-17
145	0x3d843588	0.06455523
146	0x3dd32597	0.10309904
147	0xbde5e52b	-0.11225351
148	0xbe23f3f5	-0.16011031
149	0xa3c08b37	-2.0875641e-17
150	0x05fbca17	2.3678163e-35
151	0xbd1a0259	-0.037599895
152	0x0035799d	4.910908e-39
153	0x12426e80	6.135181e-28
154	0xbe316bdd	-0.17326303
155	0xbcdf7f57	-0.0272824
156	0x3ce94645	0.02847589
157	0x23a5e0bd	1.7984516e-17
158	0x00357f20	4.912885e-39
159	0x2913c50d	3.281147e-14
160	0x803588cb	-4.916353e-39
161	0x8c8edeb9	-2.201261e-31
162	0x07e6a58c	3.4703853e-34
163	0xa3f899e4	-2.6953389e-17
164	0x3d0288c8	0.031868726
165	0x3e981c4a	0.29709083
166	0xbe8a4fd2	-0.27014023
167	0xa81a8d41	-8.579347e-15
168	0x1fac42c1	7.295527e-20
169	0x0ca32262	2.513482e-31
170	0x281441ef	8.2299475e-15
171	0x80358e1f	-4.918265e-39
172	0x211b4c7a	5.261726e-19
173	0x1e030cd5	6.937736e-21
174	0xbdd42df5	-0.10360328
175	0x9219b3e1	-4.8500005e-28
176	0x8dd3272e	-1.3013311e-30
177	0x80356aba	-4.905568e-39
178	0x80357388	-4.908726e-39
179	0x9d36b537	-2.4181185e-21
180	0x00356bed	4.905998e-39
181	0x87344d89	-1.356448e-34
182	0x0ed4c2c3	5.2449584e-30
183	0x17068bd9	4.347425e-25
184	0xa474463f	-5.2968567e-17
185	0x87b7830b	-2.76118e-34
186	0x285b8e9a	1.2187864e-14
187	0x8cc75b55	-3.0715773e-31
188	0x1b3f9c20	1.5849596e-22
189	0x1fefebea	1.01610724e-19
190	0xa30454cb	-7.17369e-18
191	0x9bc92996	-3.3279535e-22
192	0x3e69ebe7	0.22843896
193	0x13325712	2.2509688e-27
194	0x80347fbe	-4.821271e-39
195	0xa22dfa0a	-2.3578242e-18
196	0x8d83e6f6	-8.1291e-31
197	0x21851cbf	9.02004e-19
198	0x0bafe808	6.775667e-32
199	0x9c569c45	-7.1008634e-22
200	0x1da06a2d	4.246143e-21
201	0x1270ae9b	7.5945865e-28
202	0xa7286822	-2.3371134e-15
203	0x9f2f4e1b	-3.71223e-20
204	0x1dfe5798	6.732381e-21
205	0x00357e71	4.91264e-39
206	0x9aa63a7f	-6.8750496e-23
207	0x21061762	4.5431913e-19
208	0x27873f30	3.7538535e-15
209	0x08693b37	7.0185494e-34
210	0x21178eab	5.134961e-19
211	0x056172b2	1.06005154e-35
212	0x0ff6c1ac	2.4332073e-29
213	0xa24b0b20	-2.751752e-18
214	0x0fb6dc94	1.8031549e-29
215	0xa8bae2d3	-2.0748518e-14
216	0x1fe1be09	9.5605593e-20
217	0x28892c27	1.5229203e-14
218	0x1e3aeb2f	9.895393e-21
219	0x2a29ce1f	1.5081728e-13
220	0x9c5e0a43	-7.34669e-22
221	0x98b0c518	-4.5693948e-24
222	0xa8e30a61	-2.5206564e-14
223	0x83145c0d	-4.359896e-37
224	0x00358e4d	4.918329e-39
225	0x803578a1	-4.910555e-39
226	0x2737a025	2.5483166e-15
227	0xa505e875	-1.161467e-16
228	0x200887df	1.1564604e-19
229	0xaa4aafd7	-1.8002211e-13
230	0x910a8bcf	-1.0929362e-28
231	0x1aa719c5	6.9111214e-23
232	0xaa2ae7da	-1.5179473e-13
233	0x0e62ad0a	2.7939966e-30
234	0x0047cbed	6.593475e-39
235	0x96ea67c6	-3.787023e-25
236	0x9d616a61	-2.9833499e-21
237	0x265b8922	7.616674e-16
238	0xa2fa6ca4	-6.7877664e-18
239	0x29df94db	9.929012e-14
240	0x9c7a01ba	-8.2720293e-22
241	0x22160f76	2.0336976e-18
242	0x1e856d8b	1.4127229e-20
243	0x281c9abb	8.693291e-15
244	0x176ab656	7.583962e-25
245	0x1a7845e5	5.1341658e-23
246	0x1c72ad16	8.029479e-22
247	0x925de891	-7.0021964e-28
248	0xa644b213	-6.8242496e-16
249	0x170ea935	4.6096244e-25
250	0x96c59a64	-3.19245e-25
251	0x8030d745	-4.485328e-39
252	0x20ce3f8a	3.4939804e-19
253	0x24abd08a	7.451271e-17
254	0x8215cb57	-1.1005147e-37
255	0x017e927b	4.6757527e-38

atom_lin.bias f4 [300]
0	0xbca43d45	-0.020048747
1	0x3da46203	0.08026507
2	0xbd226927	-0.039651062
3	0x3d9d2e04	0.076747924
4	0x3da86835	0.08223001
5	0xbd08d505	-0.033406276
6	0x3da29e72	0.07940377
7	0x3dcf6ffa	0.1012878
8	0xbd73c287	-0.059511688
9	0xbdc85f7e	-0.09783839
10	0x3c5acb9c	0.013354208
11	0xbbd1d469	-0.006403495
12	0x3d04ff91	0.03247029
13	0x3ab6af84	0.0013937806
14	0x3dc2f8c0	0.095201015
15	0xbd01d80d	-0.031700183
16	0x3c85dfbe	0.01634204
17	0xbc895dbd	-0.01676833
18	0xbcac2725	-0.02101476
19	0x3d1d248e	0.03836494
20	0xbcd192ba	-0.02558266
21	0x3d01920a	0.031633414
22	0xbc69ebf3	-0.014277446
23	0x3da35a6c	0.07976231
24	0x3d04be43	0.03240801
25	0xbb0794d1	-0.0020688067
26	0xbdc323b0	-0.09528291
27	0x3dcbef38	0.09957737
28	0x3b18b977	0.0023303905
29	0x3d465379	0.04841945
30	0x3c7646e0	0.015031546
31	0x3bf434ef	0.0074525992
32	0x3cfc9271	0.030831547
33	0x3b987535	0.004652644
34	0xbbbb5c1a	-0.0057177665
35	0x3d02ce4d	0.031935025
36	0xbd14c3d1	-0.036319558
37	0x3d4af390	0.049548686
38	0x3bd79de9	0.0065801037
39	0xbd2ef3f7	-0.04271313
40	0x3d2fac6b	0.04288904
41	0x3d54e31f	0.051974412
42	0x3c18ff38	0.009338193
43	0x3dafbbab	0.08580717
44	0x3d393591	0.0452171
45	0x3dbec93e	0.09315728
46	0xbd3e63f8	-0.046482056
47	0xbd57c845	-0.052681226
48	0xbd24f002	-0.04026795
49	0xbddc4b90	-0.107566
50	0x3db55e09	0.088558264
51	0x3d2a985d	0.04164921
52	0x3dacb0ea	0.08432181
53	0xbacb2437	-0.0015498464
54	0xbd20eec7	-0.039290216
55	0xbd52f708	-0.05150512
56	0xbc711364	-0.014714096
57	0x3d47fbfc	0.048824295
58	0xbdae1acc	-0.08501205
59	0x3d31af59	0.043380115
60	0xbcaccc51	-0.02109352
61	0x3dd51e04	0.10406116
62	0xbd5bfc96	-0.05370768
63	0xbd7a29f9	-0.061075184
64	0x3c573fca	0.013137767
65	0xbca87f96	-0.02056865
66	0x3d0949d9	0.033517692
67	0xbd279f82	-0.040923603
68	0x3d8eea93	0.06978335
69	0xbe2981ac	-0.16553372
70	0x3d782f63	0.060592066
71	0x3e470e6b	0.19439094
72	0xbce8561f	-0.028361378
73	0x3c21fb37	0.009886554
74	0x3de03101	0.10946847
75	0x3d0606b7	0.032721248
76	0xbbf152b6	-0.0073645962
77	0x3d8fa60c	0.07014093
78	0x3de6c0bf	0.11267232
79	0xbd04a99f	-0.032388326
80	0x3ae48b43	0.0017436523
81	0x3c16ad3a	0.009196574
82	0xbc0e0f2a	-0.008670608
83	0xbd21fe4f	-0.03954917
84	0x3d7544e9	0.05988017
85	0x3db47ca8	0.08812839
86	0x3dfd3ae1	0.12364746
87	0x3d9c841a	0.07642384
88	0x3de703e3	0.11280038
89	0x3d5dddf3	0.054166745
90	0x3c00831c	0.007843759
91	0x3d5eb921	0.05437577
92	0x3d29d256	0.041460358
93	0x3d5f5a43	0.05452944
94	0xb5bfd782	-1.429333e-06
95	0x3d1e47f7	0.03864285
96	0xbd68e980	-0.056863308
97	0x3c4ef40a	0.012631426
98	0x3dd4f400	0.10398102
99	0xbd47a385	-0.04873993
100	0xb9fb3017	-0.0004791028
101	0x3d837483	0.06418707
102	0xbd4ad431	-0.049518768
103	0xbd12f516	-0.035878263
104	0x3d162665	0.03665771
105	0x3d993586	0.07480912
106	0xbc2c8f1e	-0.010532169
107	0xbc5e8136	-0.013580611
108	0x3d69c240	0.057070017
109	0x3cc10778	0.023563132
110	0x3dd33bd7	0.10314148
111	0xbbe48616	-0.006973992
112	0x3ae21558	0.0017248793
113	0x3d4839f2	0.048883386
114	0x3d01590d	0.031579066
115	0xbd1f8cc1	-0.038952593
116	0x3d58dc50	0.05294448
117	0xbe623b2e	-0.22092888
118	0x3e1233ae	0.14277527
119	0x3d8ace93	0.06777682
120	0x3b20aa6c	0.0024515642
121	0x3d72fdbc	0.05932401
122	0x3da50c7a	0.0805902
123	0x3d706905	0.058693904
124	0x3daa4d25	0.083154954
125	0x3d32ac17	0.04362115
126	0x3cd0204c	0.025406025
127	0xbddcbb0d	-0.107778646
128	0x3d0fce79	0.035109017
129	0x3d43f9d4	0.047845677
130	0x3d855af8	0.065114915
131	0xbd60b0c2	-0.05485607
132	0xbd133b7a	-0.035945393
133	0x3d0ff602	0.03514672
134	0x3c1334c5	0.008984749
135	0x3db4201d	0.087951876
136	0x3db6b4b5	0.08921186
137	0x3d6b4df7	0.0574474
138	0x3ad3f226	0.0016170188
139	0xbbce91d3	-0.0063040047
140	0xbe22b0fe	-0.1588783
141	0xbd5f95de	-0.054586284
142	0x3deb8483	0.11499884
143	0x3da92849	0.08259637
144	0xbd3a6e8d	-0.045515586
145	0x3d061b77	0.032741036
146	0xbd3196b6	-0.04335662
147	0xbd59d902	-0.05318547
148	0x3caf8400	0.021425247
149	0xbd3e8c62	-0.0465206
150	0x3de7e8b5	0.11323682
151	0x3ca29de8	0.019850686
152	0x3dbfb5d1	0.093608506
153	0x3dcae6b7	0.099072866
154	0x3d3c44ca	0.04596404
155	0x3d953571	0.07285584
156	0x3c9e8f06	0.019355308
157	0xbd38a018	-0.045074552
158	0x3e05d6d2	0.13070229
159	0xbd7b0e24	-0.061292782
160	0x3de33469	0.11093981
161	0xbc666a3a	-0.014063412
162	0x3ca2723c	0.019829862
163	0xbd3c48b8	-0.045967788
164	0xbce8a4fa	-0.02839898
165	0x3dafd2b4	0.0858511
166	0xbb4e1f2c	-0.0031451685
167	0x3d541056	0.05177339
168	0x3b64664f	0.003485102
169	0x3d7736de	0.06035506
170	0x3da259da	0.07927294
171	0x3e1076d8	0.14107835
172	0xbcb5abdb	-0.022176674
173	0xbbb09557	-0.0053888964
174	0x3bc1c6d8	0.0059135966
175	0x3cd7f608	0.026362434
176	0x3b545f22	0.0032405336
177	0x3c310688	0.01080478
178	0x3c621d2e	0.013800902
179	0x3d612751	0.054969136
180	0x3d31232c	0.043246433
181	0x3d99914c	0.07498416
182	0x3dc77c6f	0.09740531
183	0xbc46d96e	-0.0121368
184	0x3d309462	0.04311026
185	0x3db28348	0.08716446
186	0xbe1a688a	-0.15078941
187	0xbd2b25a1	-0.041783933
188	0x3c84314b	0.016136786
189	0xbd49392c	-0.04912679
190	0x3d0f1227	0.03492942
191	0x3db1e087	0.08685403
192	0xbde105ec	-0.10987458
193	0x3dd53bd5	0.10411803
194	0x3dad4f10	0.084623456
195	0xbd3be342	-0.045871027
196	0x3df20f11	0.1181928
197	0xbb99210e	-0.00467313
198	0xbd892171	-0.066958316
199	0xbb939402	-0.004503728
200	0x3c8d349a	0.017236996
201	0xbcbddeb8	-0.02317749
202	0x3cef9e56	0.029250305
203	0xbbe9b312	-0.0071319425
204	0x3b8a0e49	0.0042131287
205	0x3cefe601	0.02928448
206	0x3d7fbfab	0.06243865
207	0x3d125412	0.035724707
208	0xbd584dd6	-0.052808605
209	0xba0e55ca	-0.00054296537
210	0xbd406b73	-0.04697747
211	0x3d9de2c0	0.07709265
212	0x3dddac3e	0.10823868
213	0x3b01e7d6	0.0019822023
214	0x3cac9a65	0.021069715
215	0x3d17f54d	0.03709917
216	0x3dba1cf2	0.09087552
217	0x3cb4cc6c	0.022070132
218	0xbc8c554a	-0.017130513
219	0x3d2e20f0	0.04251188
220	0x3d979d20	0.07403016
221	0x3ceea92f	0.029133407
222	0x3ddeec3e	0.10884903
223	0x3d9e5a8c	0.07732114
224	0x3b5fcd1a	0.003414935
225	0xbd06b42e	-0.032886676
226	0x3d2d7d87	0.04235604
227	0xbd661a9d	-0.056177724
228	0x3b9ec726	0.0048455177
229	0xbd231ce7	-0.039822485
230	0x3b3475d2	0.0027536047
231	0x3da78a36	0.081806585
232	0x3d3aefee	0.04563897
233	0x3d910aa5	0.070821084
234	0x3dab677c	0.083693475
235	0x3df42533	0.11921158
236	0x3c44f20a	0.012020597
237	0xbd17346c	-0.036915228
238	0x3d9323e3	0.07184579
239	0x3d9c5b8f	0.07634651
240	0x3d79cc22	0.06098569
241	0x3d52da5b	0.05147777
242	0xbd014a15	-0.03156479
243	0x3d199701	0.037497524
244	0x3dc47111	0.09591878
245	0xbc59da8f	-0.013296737
246	0x3d3c843a	0.04602454
247	0xbd30bd02	-0.043149002
248	0x3d440320	0.047854543
249	0x3d65583f	0.05599236
250	0x3d22adfd	0.03971671
251	0xbd978cd6	-0.07399909
252	0xbc5b34da	-0.0133793
253	0x3d3dfa47	0.04638126
254	0x3da47021	0.080291994
255	0xbc5f500a	-0.013629923

bond_lin.weight f4 [300, 23]
0	0x36df685e	6.658068e-06
1	0xbca74888	-0.020420328
2	0xbe8f61a6	-0.28004187
3	0xbefae029	-0.48999146
4	0x1f0c3687	2.9691257e-20
5	0xaf9ad70c	-2.8165237e-10
6	0xb9f7b430	-0.0004724576
7	0xb27a53a3	-1.4570932e-08
8	0xb44c1512	-1.9006646e-07
9	0xac1e1191	-2.2462902e-12
10	0xa97ef1fe	-5.6609224e-14
11	0x36df0df2	6.6475413e-06
12	0x3e0ff60f	0.14058708
13	0x35decb34	1.6599429e-06
14	0xac24c94d	-2.3417546e-12
15	0x1e98a944	1.6163633e-20
16	0xa58045e1	-2.2251812e-16
17	0xb521c492	-6.026322e-07
18	0x371bd104	9.287385e-06
19	0x00358222	4.913964e-39
20	0xa69d5883	-1.0918055e-15
21	0x37c17be5	2.3065086e-05
22	0x2f220a65	1.4737507e-10
23	0x976117fb	-7.273169e-25
24	0x3eac2635	0.336229
25	0x3f067776	0.5252603
26	0x3e855de5	0.26048198
27	0x39144029	0.00014138281
28	0x2393004a	1.5937894e-17
29	0xb0a98fd0	-1.2337242e-09
30	0xac17247e	-2.1478648e-12
31	0x87b745ba	-2.7575761e-34
32	0xa2f38a73	-6.601187e-18
33	0xb6b16ac9	-5.2874425e-06
34	0xb7218a23	-9.62851e-06
35	0xbe8f1e17	-0.27952644
36	0x36d8026c	6.4375836e-06
37	0x82e18628	-3.313778e-37
38	0xad1643cb	-8.541566e-12
39	0x2dddbd81	2.5208948e-11
40	0x2d5238ca	1.1949728e-11
41	0x38e572ef	0.00010940979
42	0x80358c02	-4.917507e-39
43	0x2955ff8e	4.751716e-14
44	0x2c98fad9	4.3479495e-12
45	0x8b1db0f7	-3.0370234e-32
46	0x0b89d661	5.309304e-32
47	0xbebd044f	-0.3691735
48	0xbeadbcfa	-0.3393324
49	0xbee9a97d	-0.45637122
50	0x2b993207	1.0885189e-12
51	0x2db4d1a3	2.0556728e-11
52	0xb8131e9d	-3.5076042e-05
53	0x2f80c256	2.3421148e-10
54	0x34a05ee0	2.9871353e-07
55	0x8f7d53be	-1.2489991e-29
56	0xb2cbdab3	-2.3731763e-08
57	0x3a5d1744	0.0008433948
58	0xbdef3b9f	-0.11681294
59	0x390bdd61	0.00013338543
60	0x076a0fb1	1.7608815e-34
61	0x22c8111f	5.4228236e-18
62	0x24f5d74b	1.06616533e-16
63	0x003587ea	4.916038e-39
64	0x07947425	2.2336829e-34
65	0xa2bbb912	-5.0882402e-18
66	0x938a1223	-3.485398e-27
67	0x06ae0f43	6.547395e-35
68	0xb47d6617	-2.3599601e-07
69	0x91adc5f6	-2.741659e-28
70	0x3e8d5b8c	0.27608907
71	0xbe69b8bb	-0.22824375
72	0x3e9fb0be	0.3118953
73	0x2569ef0c	2.0290521e-16
74	0x345cb688	2.0555501e-07
75	0x91d3c74b	-3.3412754e-28
76	0xadcd755d	-2.3357921e-11
77	0x38816255	6.169515e-05
78	0x2e58e273	4.931384e-11
79	0x9b2d516d	-1.4336535e-22
80	0x244b879e	4.413348e-17
81	0xbe5e246a	-0.21693578
82	0xac098920	-1.954499e-12
83	0x2a877f65	2.4069215e-13
84	0x384d46fd	4.894192e-05
85	0xac6cdd39	-3.366042e-12
86	0xaa14fa76	-1.3231937e-13
87	0x220d865b	1.918019e-18
88	0xb3b7a8b2	-8.552287e-08
89	0x35cd5f87	1.5301492e-06
90	0x331ddaaa	3.6753285e-08
91	0x29afad53	7.801628e-14
92	0xb40abc25	-1.2920698e-07
93	0xbe8a6725	-0.27031818
94	0x3f155700	0.58335876
95	0xbe2bce2b	-0.16777866
96	0xb5bad0ea	-1.3918882e-06
97	0x2a15b8f0	1.3298022e-13
98	0x281e4d42	8.7875145e-15
99	0x32e38e8a	2.6491097e-08
100	0x35336fe4	6.684552e-07
101	0xa226a7f5	-2.258611e-18
102	0xa720d893	-2.2321866e-15
103	0x9e0bc894	-7.400077e-21
104	0x3d72c9e9	0.059274588
105	0x05d32dcd	1.9859169e-35
106	0x39287320	0.00016064616
107	0x25b03a49	3.057063e-16
108	0x2b1f8147	5.6667556e-13
109	0x183d37da	2.4455875e-24
110	0x29541fec	4.7101144e-14
111	0x37924e7a	1.74411e-05
112	0x07143822	1.1150778e-34
113	0x358cef65	1.0500486e-06
114	0xb6049f6f	-1.9762335e-06
115	0x39185a2e	0.00014529444
116	0xbe00a683	-0.12563519
117	0xbf0a3333	-0.53984374
118	0xbe23bd43	-0.15990166
119	0xb229b2c8	-9.877745e-09
120	0xa9c813b4	-8.885202e-14
121	0x1220c99f	5.0735615e-28
122	0x393e7e8b	0.00018166953
123	0x31163f63	2.1863904e-09
124	0x8e4c52cc	-2.5184807e-30
125	0x8285bf67	-1.9652453e-37
126	0x3a375b43	0.0006994495
127	0xbf00d365	-0.5032256
128	0xb7a375fe	-1.9486059e-05
129	0x9c834b6f	-8.688352e-22
130	0xa96c8843	-5.2520715e-14
131	0x305a753a	7.9474527e-10
132	0xab1dbb8d	-5.6037884e-13
133	0x39b30809	0.00034147527
134	0x818cfbe6	-5.1789334e-38
135	0x26ebb6b2	1.635592e-15
136	0x3885db4f	6.3827836e-05
137	0xad99d362	-1.7487959e-11
138	0x3a765d9a	0.0009398103
139	0xbdd116ed	-0.10209451
140	0xbe1f6e0a	-0.1556932
141	0xbec8d64b	-0.39225993
142	0xba37b7a2	-0.00070082594
143	0xa676e817	-8.5662935e-16
144	0x2e274fa9	3.8042156e-11
145	0xaf399d28	-1.6881485e-10
146	0x80357ad6	-4.911347e-39
147	0xb4729548	-2.2592315e-07
148	0x351af9f8	5.7733223e-07
149	0x2b881e66	9.671818e-13
150	0xbf027761	-0.5096341
151	0x8caf6ff9	-2.703041e-31
152	0x3a07a01f	0.0005173701
153	0xb3241878	-3.820648e-08
154	0xa63c5714	-6.5343616e-16
155	0xa3910fa5	-1.5727557e-17
156	0x37e6c9b6	2.7512066e-05
157	0x329b57d6	1.8084318e-08
158	0x2fdd248a	4.0225628e-10
159	0xb8acad52	-8.2338825e-05
160	0x126a9197	7.4016834e-28
161	0xb0170c1a	-5.495068e-10
162	0xbf1a72b8	-0.60331297
163	0x3e0eb237	0.13935171
164	0x3f27b2cd	0.65507203
165	0x37c8b036	2.3923913e-05
166	0x858c86fc	-1.3215122e-35
167	0x2bb458a8	1.2814376e-12
168	0x2883a55c	1.4615635e-14
169	0xb84bcd9a	-4.8590453e-05
170	0x2e34db25	4.11219e-11
171	0x0b19ccfa	2.9620935e-32
172	0x8d26b1aa	-5.1366555e-31
173	0x3f17a63d	0.59238034
174	0x2b104c93	5.1265345e-13
175	0x2ea2ccb4	7.40327e-11
176	0x271c4bde	2.1690477e-15
177	0xa04a8c68	-1.7156522e-19
178	0x36a4a94f	4.907291e-06
179	0x2c237cc4	2.3232952e-12
180	0x1c125802	4.8421095e-22
181	0x99d60ffb	-2.2133536e-23
182	0xb290b0a8	-1.684414e-08
183	0x38418cd4	4.6145942e-05
184	0x36673892	3.445461e-06
185	0x3ef8b991	0.48579076
186	0xbeb0eda1	-0.34556296
187	0x3e9ea11c	0.30982292
188	0x37e20b5a	2.6946585e-05
189	0x3774d451	1.4592967e-05
190	0xaae2d5fa	-4.029414e-13
191	0xba3ccff8	-0.00072026206
192	0xba6ec796	-0.000910872
193	0x1f80495d	5.433148e-20
194	0x369e8945	4.724747e-06
195	0xa9cda4a4	-9.1323894e-14
196	0xbd2ce13e	-0.042206995
197	0x24b7a00b	7.963472e-17
198	0x21cecf6d	1.4014008e-18
199	0x9d112f74	-1.9215123e-21
200	0xa19aee06	-1.049845e-18
201	0x2f3db667	1.7254252e-10
202	0xa2038698	-1.7825064e-18
203	0x000bc9dc	1.082604e-39
204	0x29feca65	1.1314976e-13
205	0xab738ea0	-8.6528874e-13
206	0x90940668	-5.838558e-29
207	0xa67f4dc1	-8.8576273e-16
208	0xbddbb18b	-0.10727223
209	0x3e6894e4	0.22713047
210	0x3c5f2cdb	0.013621534
211	0xb2b89ae5	-2.1490857e-08
212	0x0e8db6fe	3.49354e-30
213	0xa053df96	-1.7946374e-19
214	0x25193e71	1.329179e-16
215	0xac245ee4	-2.3358477e-12
216	0x057590db	1.15464504e-35
217	0x2d00028c	7.276523e-12
218	0x333bb3ae	4.3702748e-08
219	0x3e4a09ed	0.19730349
220	0x36839343	3.9212478e-06
221	0xb3851c61	-6.198457e-08
222	0x95b67f91	-7.371048e-26
223	0xb6ab10d2	-5.0981553e-06
224	0x0a4deca9	9.914902e-33
225	0x21a010c0	1.0846455e-18
226	0x3024c65b	5.994473e-10
227	0x0a9f7b25	1.5357465e-32
228	0x2b2806dd	5.9695115e-13
229	0x279f0e83	4.41471e-15
230	0x1a8835cd	5.63352e-23
231	0xbedae70a	-0.42754394
232	0xbf1acb3b	-0.60466355
233	0xbcaa9501	-0.020823004
234	0xba68d97a	-0.0008882504
235	0x0b94d0d6	5.732175e-32
236	0xb027a815	-6.0993105e-10
237	0x358a6164	1.0310146e-06
238	0x37988738	1.8182778e-05
239	0x9d5f8af5	-2.9585643e-21
240	0x1239a8c9	5.858375e-28
241	0xaca4d794	-4.6850943e-12
242	0xbeaf517c	-0.34241855
243	0x98907904	-3.7345322e-24
244	0x8ba6f329	-6.430674e-32
245	0x1e1e3fdd	8.377657e-21
246	0xb2233a46	-9.501099e-09
247	0xa180590e	-8.69719e-19
248	0xa97633b5	-5.466782e-14
249	0x8cb1c46a	-2.738938e-31
250	0xac5ff620	-3.1826833e-12
251	0x23898c47	1.491298e-17
252	0x823029db	-1.294245e-37
253	0x3773e798	1.4537851e-05
254	0x3ec055c0	0.37565422
255	0x3ec756b3	0.38933334

bond_lin.bias f4 [300]
0	0x3dfb3934	0.1226677
1	0xbdab6e91	-0.08370698
2	0xbda12b28	-0.078695595
3	0x3e894bce	0.26815647
4	0xbcbde17c	-0.023178808
5	0x3db50075	0.08837978
6	0x3e002235	0.12513049
7	0x3d85611a	0.06512661
8	0x3c8c339e	0.017114457
9	0xbe6fdfde	-0.23425242
10	0x3d904346	0.070440814
11	0x3e05382a	0.13009706
12	0xbd7c046e	-0.061527662
13	0x3caae1d0	0.020859629
14	0xbd741a86	-0.059595607
15	0xbdf96415	-0.12177292
16	0x3e127964	0.1430412
17	0xbe80ec1f	-0.25180146
18	0xbde34b24	-0.11098316
19	0xbe1dfda5	-0.15428789
20	0x3d14c330	0.036318958
21	0x3dd8ac52	0.105797425
22	0x3e8b4e8e	0.2720837
23	0x3e2d78f3	0.1694067
24	0x3e146359	0.14491023
25	0x3d8eb2a6	0.06967668
26	0xbda3ad32	-0.07992019
27	0x3e27591c	0.16342586
28	0x3be6583d	0.007029562
29	0x3db256f9	0.08707995
30	0xbe0ea35d	-0.13929506
31	0xbd319ed8	-0.043364376
32	0x3d6b92ca	0.057513036
33	0xbe3489c1	-0.17630674
34	0x3e1474f6	0.14497742
35	0xbce5dac4	-0.028058417
36	0x3ce6ac57	0.02815835
37	0x3d755225	0.059892792
38	0xbe383298	-0.1798805
39	0x3dab418a	0.0836211
40	0x3ddbf3eb	0.10739883
41	0x3e35a550	0.17738843
42	0x3dfec912	0.12440695
43	0x3d77b27a	0.060472943
44	0xbe3170bb	-0.1732816
45	0xbd9ae2bf	-0.0756278
46	0xbbf86f3b	-0.007581619
47	0xbe4ae912	-0.19815472
48	0x3d68454b	0.056706708
49	0xbe674c80	-0.22587776
50	0x3ce2a9c4	0.027668841
51	0x3de471e1	0.11154533
52	0xbdbaa61d	-0.09113715
53	0xbe22e31b	-0.15906946
54	0xbe6bcdba	-0.23027697
55	0x3e38ccf7	0.18046938
56	0xbe1c64fe	-0.152729
57	0x3ae7dda2	0.0017689953
58	0xbcb249e8	-0.021763757
59	0x3e457485	0.1928273
60	0xbdd9dc56	-0.10637729
61	0x3cb30cb8	0.02185665
62	0x3d7e1901	0.062035564
63	0xbd8d0051	-0.06884826
64	0xbebcc3e1	-0.36868194
65	0x3eaa2868	0.33233953
66	0x3cac8cec	0.02106329
67	0x3cdf2626	0.02723987
68	0xbd5de72a	-0.054175533
69	0x3df597a2	0.11991812
70	0xbe36d10d	-0.17853184
71	0xbd331532	-0.043721385
72	0x3df5b79f	0.119979136
73	0x3d956437	0.07294505
74	0x3e82473b	0.2544497
75	0xbe2eb40d	-0.17060871
76	0xbcbfd76e	-0.023418155
77	0x3daff9c1	0.08592559
78	0xbd9339a6	-0.0718873
79	0xbdd5dafd	-0.10442159
80	0x3c3d55ed	0.011556131
81	0x3e1423b5	0.14466746
82	0xbc8d789a	-0.017269421
83	0xbe24544e	-0.16047785
84	0xbc7f0e5f	-0.015567391
85	0x3e18ba20	0.14914751
86	0x3d5a54a2	0.05330337
87	0x3aad6775	0.0013229685
88	0x3e4efa45	0.20212658
89	0x3e74ae81	0.23894693
90	0x3e2b58d8	0.1673311
91	0xbd671fc5	-0.056426782
92	0x3d514330	0.051089466
93	0x3e467adf	0.19382809
94	0x3c5df453	0.013547021
95	0xbc81221a	-0.015763331
96	0xbdccb878	-0.09996122
97	0x3e225e03	0.15856175
98	0xbe1c964f	-0.15291713
99	0xbe36da5b	-0.17856734
100	0x3dc7ee2a	0.09762223
101	0x3dbba2ef	0.091619365
102	0xbe1fe3ca	-0.15614238
103	0x3e6a458a	0.2287809
104	0xbd889f5a	-0.06671019
105	0xbd6a9392	-0.05726964
106	0x3dd4834d	0.10376606
107	0x3de4b42c	0.111671776
108	0xbe5030e4	-0.2033115
109	0xbe63e589	-0.2225553
110	0xbe6e0d4b	-0.23247258
111	0xbdece175	-0.1156644
112	0x3e60a415	0.21937592
113	0x3dae615f	0.08514666
114	0x3e3c085e	0.18362567
115	0x3e6467ca	0.22305217
116	0x3e7ce9a2	0.24698499
117	0xbce195df	-0.027537284
118	0xbe0a956e	-0.13533565
119	0x3c9b9c7b	0.018995514
120	0x3e1dae38	0.1539849
121	0xbc87750f	-0.01653531
122	0xbde175a0	-0.11008763
123	0xbdc8e991	-0.09810174
124	0xbca18b43	-0.019719725
125	0x3e05226d	0.13001414
126	0xbd7aa9ae	-0.061196975
127	0xbde62ae1	-0.11238647
128	0x3e918e9a	0.2842911
129	0x3e178912	0.14798382
130	0xbde1caf6	-0.1102504
131	0xbe2c3209	-0.16815962
132	0x3dbed9c1	0.09318877
133	0x3c55b0c3	0.013042632
134	0x3e771dd0	0.24132466
135	0x3e437cc9	0.1909057
136	0x3e324342	0.1740847
137	0xbe3048be	-0.17215249
138	0x3e6573d7	0.2240747
139	0xbe3b9576	-0.18318734
140	0xbe34982b	-0.17636172
141	0xbb81cd82	-0.003961266
142	0x3d3521cb	0.04422168
143	0x3d68f0df	0.056870338
144	0x3e032606	0.12807474
145	0x3d2c6222	0.042085774
146	0x3dbc4c9f	0.09194302
147	0x3e7f98e4	0.24960667
148	0x3e020da5	0.12700517
149	0xbda7331f	-0.081640474
150	0x3e5c0e8b	0.21489923
151	0xbcb9d2c8	-0.022683516
152	0x3de5101c	0.11184713
153	0x3d6ada2c	0.05733697
154	0xbe82da13	-0.25557002
155	0x3e185ee3	0.14879946
156	0x3d5a229c	0.053255662
157	0xbe5a0300	-0.21290207
158	0xbdea4be8	-0.11440259
159	0xbe269363	-0.16267161
160	0x3d4b4ad6	0.049631916
161	0xbe89f4fb	-0.26944718
162	0x3d286737	0.04111406
163	0x3e0f6540	0.14003468
164	0x3e0aa184	0.13538176
165	0x3e681171	0.22662903
166	0x3db7d409	0.08975989
167	0x3dccd66c	0.10001835
168	0x3dd313a0	0.103064775
169	0xbe36cd31	-0.17851712
170	0x3e445041	0.1917124
171	0xbe72261f	-0.23647355
172	0x3dacb141	0.08432246
173	0x3def1702	0.1167431
174	0x3e160f9d	0.14654393
175	0xbcf949d2	-0.030430708
176	0x3e16c13b	0.14722149
177	0xbd9cec89	-0.07662303
178	0x3e008571	0.12550904
179	0x3d3c2c47	0.045940664
180	0xbe21ea3e	-0.15812013
181	0x3db249a4	0.08705452
182	0x3d1268f6	0.03574463
183	0xbe1e8886	-0.15481767
184	0x3d928b17	0.071554355
185	0x3cf5cb41	0.030004146
186	0xbe9c0293	-0.30470714
187	0x3e75bef2	0.23998621
188	0x3e4b4d63	0.1985374
189	0x3dd27e78	0.10278028
190	0xbe07f62d	-0.13277502
191	0xbdef6892	-0.11689867
192	0x3dae02c9	0.08496625
193	0x3e442cb1	0.19157673
194	0x3dfa73fb	0.12229153
195	0xbe2b23f9	-0.16712941
196	0x3dd75109	0.10513503
197	0xbcf88c76	-0.030340414
198	0xbe208f64	-0.15679699
199	0x3d543689	0.05180982
200	0xbdc1bb60	-0.09459567
201	0x3d8caa04	0.068683654
202	0x3e4203e6	0.189468
203	0x3e82a731	0.25518182
204	0xbe1c8773	-0.15286045
205	0x3e2b3ae2	0.16721681
206	0x3d8a2b03	0.06746485
207	0xbb96b320	-0.00459899
208	0x3cfd9fb2	0.030959938
209	0xbdc0f76d	-0.09422193
210	0x3d9916dc	0.07475063
211	0xbe86357a	-0.26212674
212	0x3cbd6687	0.023120178
213	0x3d83f991	0.064440854
214	0xbe223e25	-0.15844019
215	0x3e81f92f	0.25385424
216	0xbe7f20aa	-0.24914804
217	0xbdec0673	-0.115246676
218	0xbe186c20	-0.14884996
219	0xbd923f06	-0.07140927
220	0xbd794ff8	-0.06086728
221	0x3e43edc3	0.19133668
222	0xbe4c940e	-0.19978353
223	0xbc2c11e2	-0.0105023105
224	0x3d75adfd	0.05998038
225	0x3d28acb1	0.041180316
226	0x3e360ba6	0.17777881
227	0xbe2fd0df	-0.17169522
228	0x3d717b73	0.05895562
229	0xbe3bb753	-0.18331651
230	0xbdb8f7ed	-0.09031663
231	0x3e5cacd0	0.21550298
232	0xbdb9ff64	-0.09081915
233	0x3e54a05c	0.20764297
234	0x3e5ae3c3	0.21375947
235	0xbdb9e257	-0.09076374
236	0xbe10a85a	-0.14126721
237	0xbe39f74e	-0.18160746
238	0x3e403bdb	0.18772833
239	0xbe3d8492	-0.18507603
240	0xbe0a0cf8	-0.1348151
241	0xbe38327f	-0.17988013
242	0x3d3d2d98	0.04618606
243	0x3e1d344d	0.15351982
244	0x3e25d275	0.16193564
245	0xbd1ecb75	-0.03876825
246	0xbdbc130d	-0.09183321
247	0x3e6b1e74	0.22960836
248	0xbe3052d0	-0.1721909
249	0xbe43227d	-0.19056125
250	0x3d904aa5	0.07045487
251	0xbe84a6af	-0.2590842
252	0xbdd79ec5	-0.1052833
253	0xbc58c11c	-0.013229635
254	0x3db515a1	0.08842016
255	0xbe0e07c4	-0.1387015

energy_lin.1.weight f4 [300, 300]
0	0x3d12c730	0.03583449
1	0xbde06229	-0.109562226
2	0x3ec695b4	0.3878609
3	0x3bf1d444	0.0073800404
4	0x3e17524b	0.14777486
5	0xbd6b12dd	-0.057391036
6	0x3e058f0a	0.13042846
7	0x3d6f5dfe	0.058439247
8	0xbafa3b3e	-0.0019091142
9	0x3d533653	0.05156548
10	0xbd004bcc	-0.031322286
11	0x3d9baa97	0.07600897
12	0x3d6d0f97	0.057876196
13	0xbdbbc651	-0.09168685
14	0xbb5efb57	-0.0034024322
15	0x3d99f442	0.075172916
16	0xbd4593eb	-0.04823677
17	0x3ddad9fd	0.10686109
18	0x3b1cdc8f	0.0023935174
19	0xbbb014b3	-0.0053735613
20	0xbe1c1609	-0.1524278
21	0x3e033ba0	0.12815714
22	0x3e052219	0.13001288
23	0xbcf71da2	-0.030165497
24	0xbdcb1e51	-0.09917892
25	0x3e06a4c6	0.13148794
26	0xbe228d58	-0.15874231
27	0x3db05315	0.08609597
28	0x3e069842	0.13144019
29	0x3d70eb91	0.058818404
30	0x3dcb3506	0.09922223
31	0xbdd4edbb	-0.10396906
32	0x3dd3f77d	0.10349939
33	0x3dba1c2b	0.09087404
34	0x3d29a5ed	0.041418005
35	0x3c180dab	0.009280602
36	0x3d88dae8	0.06682378
37	0xbd1ad0e4	-0.03779687
38	0x3ed8b791	0.4232755
39	0x3d8a9e3c	0.06768462
40	0xbdc85571	-0.09781922
41	0x3cf54d62	0.029944126
42	0x3da9cbfb	0.08290859
43	0xbdffe7b5	-0.124953665
44	0xbddaa5a5	-0.106761254
45	0xbda9a7cf	-0.0828396
46	0xbdeef983	-0.11668684
47	0xbe4e7889	-0.20163168
48	0xbdbf4ab1	-0.09340418
49	0xbdbebdc7	-0.09313541
50	0xbc218168	-0.009857513
51	0x3dcf3674	0.10117808
52	0xbe0381c4	-0.1284247
53	0x3e0666e3	0.13125186
54	0x3c1df3e1	0.009640665
55	0x3d1c6b79	0.03818843
56	0x3e86c3d4	0.2632128
57	0x3e2e42c2	0.17017654
58	0x3ddd9220	0.10818887
59	0x39bdc031	0.00036192083
60	0x3e0aae3d	0.13543029
61	0x3dd8707a	0.10568328
62	0x3f54ff19	0.8320175
63	0xbd9b4f54	-0.0758349
64	0x3e6d6409	0.23182692
65	0x3e4ac05c	0.19799942
66	0x3ddf4fbd	0.10903881
67	0xbd08d754	-0.033408478
68	0xbde81366	-0.11331825
69	0x3e291622	0.16512349
70	0x3dc88f71	0.09792984
71	0x3e9d2448	0.30691743
72	0x3d8d800d	0.069091894
73	0x3df05313	0.11734595
74	0x3e68ffc2	0.22753814
75	0xbd2233a4	-0.03960003
76	0xbe0409b9	-0.12894334
77	0xbd214908	-0.03937629
78	0xbdb18a7b	-0.08668991
79	0x3df463c5	0.11933092
80	0x3ca6d68a	0.020365972
81	0x3dafc02f	0.08581578
82	0x3d8a9385	0.06766418
83	0x3dbc8ca0	0.092065096
84	0xbdc76fd2	-0.09738125
85	0x3cc30c6d	0.023809636
86	0xbddb6c8b	-0.10714062
87	0xbdb4f25b	-0.08835288
88	0xbd9f4fe6	-0.07778911
89	0xbd311962	-0.043237098
90	0x3ce4480f	0.027866391
91	0x3e2a1fc3	0.16613679
92	0xbd7e37da	-0.062064983
93	0x3cf70132	0.030151937
94	0xbd8351ad	-0.06412063
95	0xbd834c6a	-0.06411059
96	0x3e53caa8	0.20682776
97	0xbdc9c639	-0.09852261
98	0x3e1ff107	0.15619288
99	0x3d8d86d4	0.06910482
100	0xbdc2c6a5	-0.09510545
101	0x3d16e55b	0.036839824
102	0x3e0554b7	0.13020597
103	0x3dc5eb6e	0.09664045
104	0xbe1180d0	-0.14209294
105	0xbe2c1eaa	-0.16808572
106	0x3e2e7a2e	0.17038795
107	0xbca0664d	-0.01958003
108	0x3d442d04	0.047894493
109	0x3daa8d08	0.08327681
110	0x3c873094	0.016502656
111	0xbc4ccf69	-0.012500622
112	0xbdf82b09	-0.12117583
113	0x3d02bf92	0.031920977
114	0xbc310db3	-0.010806489
115	0x3e6517de	0.22372386
116	0x3dec5704	0.115400344
117	0x3b1f5c33	0.002431643
118	0x3dcbdcf4	0.09954253
119	0xbd4f9727	-0.05068126
120	0xbcf648a7	-0.03006394
121	0xbc8a059c	-0.016848378
122	0x3e73ebd2	0.23820427
123	0x3d414700	0.04718685
124	0xbc2f3daf	-0.010695859
125	0x3e10b023	0.14129691
126	0xbadedd42	-0.0017003196
127	0x3d942999	0.072344966
128	0xbe2ae284	-0.16687971
129	0xbe0afb84	-0.13572508
130	0x3d39f267	0.04539719
131	0x3d61ca4d	0.05512457
132	0x3de50ed7	0.11184471
133	0xbe1c82e6	-0.15284309
134	0x3d4996cc	0.049216077
135	0xbe05bbd8	-0.13059938
136	0x3d2407e0	0.040046573
137	0x3b153cdc	0.002277187
138	0x3d1ea2f3	0.03872962
139	0x3c40a6f0	0.011758551
140	0x3dbed80e	0.09318553
141	0xbd4b5363	-0.04964007
142	0x3e1f7cee	0.15575
143	0x3cef2fdf	0.029197631
144	0x3dd098b4	0.10185376
145	0xbbb2ead9	-0.005460125
146	0x3d12269a	0.035681345
147	0x3d2bc537	0.041936126
148	0xbd1971a9	-0.03746191
149	0xbd9c1d92	-0.076228276
150	0x3d3bd13f	0.04585385
151	0x3d71426b	0.05890123
152	0xbd9e0e32	-0.07717551
153	0x3a84ea63	0.0010140653
154	0x3e44d184	0.19220549
155	0xbdb72152	-0.08941902
156	0x3daaea1e	0.083454356
157	0x3d785c99	0.060635183
158	0x3dad52e0	0.08463073
159	0xbd635864	-0.055504218
160	0xbd07c381	-0.03314543
161	0x3dc4cfb4	0.09609929
162	0xbe00ab6d	-0.12565394
163	0xbd5aca68	-0.053415686
164	0xbcbe18e4	-0.023205228
165	0x3dabc8be	0.08387898
166	0x3c5310fd	0.012882468
167	0x3db6b5e7	0.08921414
168	0x3dd3f206	0.10348897
169	0x3e09b7da	0.1344904
170	0xbd98bac6	-0.07457499
171	0x3d82ce98	0.06387061
172	0x3d851daf	0.06499802
173	0x3dbbe626	0.09174757
174	0xbd4fe319	-0.050753687
175	0x3c96c5dd	0.018404895
176	0xbdd60ae6	-0.104512975
177	0xbd507826	-0.050895832
178	0x3e1159fc	0.14194483
179	0x3df3cafd	0.11903951
180	0x3d5b88dd	0.05359732
181	0x3d316e3f	0.04331803
182	0xbd06bcd5	-0.032894928
183	0xbb29f9ab	-0.0025936167
184	0xbd6d9185	-0.058000106
185	0xbde50213	-0.11182036
186	0x3c87f062	0.016594116
187	0x3e2d09c1	0.16898252
188	0xbdfd885a	-0.123795226
189	0xbd92dc26	-0.07170896
190	0x3cec118e	0.028816964
191	0xbdb2e6eb	-0.0873545
192	0x3d34ba27	0.04412284
193	0xbe07942e	-0.1324012
194	0x3d9e1153	0.07718148
195	0xbe0d9d94	-0.13829643
196	0xbbf55843	-0.0074873283
197	0x3d5679fe	0.052362435
198	0x3d9ec764	0.077528745
199	0xbd18dc69	-0.037319575
200	0xbe03e11f	-0.12878846
201	0x3e20b061	0.15692283
202	0x3d620b07	0.055186298
203	0x3d8cc8a8	0.0687421
204	0xbe123404	-0.14277655
205	0xbe1c94b8	-0.15291107
206	0x3dae12a2	0.08499648
207	0x3dea6299	0.11444587
208	0xbd66f366	-0.056384467
209	0x3e96cf42	0.29455
210	0x3dcb30d6	0.09921424
211	0xbde429bc	-0.11140773
212	0xbdb21077	-0.08694547
213	0xbdb68aa6	-0.08913164
214	0x3d7ff48d	0.06248908
215	0xbc9d8877	-0.01923011
216	0xbe19799b	-0.14987795
217	0x3cdd951e	0.027048644
218	0x3aa19c54	0.0012329915
219	0xbe890e45	-0.267687
220	0x3d6ea3a2	0.05826152
221	0xbe2d8dd8	-0.1694864
222	0xbe2e6f73	-0.17034702
223	0xbd0c995b	-0.03432594
224	0x3e25acd2	0.16179207
225	0x3d71660c	0.05893521
226	0x3e0c533c	0.13703626
227	0x3c4c3bd2	0.012465434
228	0x3d1d7fcd	0.03845196
229	0x3d7b5b2a	0.061366238
230	0x3e4cb550	0.1999104
231	0xbd2663e6	-0.040622614
232	0x3df5923f	0.11990785
233	0xbd87f3f9	-0.06638331
234	0xbd9ed34e	-0.07755147
235	0x3cabae39	0.0209571
236	0x3d6e0679	0.05811164
237	0x3d2551f2	0.040361352
238	0x3dd8263e	0.10554169
239	0xbe1cdbec	-0.15318269
240	0xbe017e4e	-0.12645838
241	0x3c189c42	0.0093145985
242	0x3c944687	0.018100036
243	0x3dfce765	0.123488225
244	0x3d970bf9	0.073753305
245	0xbc4e3e3f	-0.012588083
246	0xbc224d77	-0.009906164
247	0xbcd278e1	-0.025692405
248	0x3de0ccaf	0.1097654
249	0xbd56c6b9	-0.05243561
250	0xbd5daa6a	-0.054117598
251	0x3e669ea3	0.22521453
252	0xbcd281c9	-0.025696652
253	0xbd8602de	-0.065435156
254	0xbd4f4a07	-0.050607707
255	0xbdf0e9aa	-0.11763318

energy_lin.1.bias f4 [300]
0	0xbc92b5e7	-0.017909003
1	0x3c471efa	0.0121533815
2	0x3d6841c3	0.05670334
3	0x3c8c39a5	0.01711733
4	0x3c3b15ae	0.011418743
5	0xbd7f60b1	-0.06234807
6	0xbd491fbe	-0.049102537
7	0xbc983038	-0.01857768
8	0x3db797c2	0.089644924
9	0x3d58a490	0.052891314
10	0xbd08cf2f	-0.03340071
11	0xbd02a72b	-0.031897705
12	0x3d5fae30	0.054609478
13	0xbd3a441a	-0.045475103
14	0xbc337901	-0.010954143
15	0x3d9ec4d2	0.07752384
16	0x3a3774c8	0.0006998298
17	0x3d53c64f	0.051702794
18	0xbb4ade21	-0.0030955153
19	0xba0b0516	-0.0005303187
20	0x3d8af376	0.06784718
21	0x3d7fffc9	0.062499795
22	0x3cc9cf70	0.024635047
23	0xbd1a557d	-0.037679184
24	0x3d75e03c	0.0600283
25	0x3d996e23	0.0749171
26	0xbb9cc2a7	-0.0047839466
27	0xbcdf1235	-0.027230361
28	0xbc522941	-0.0128272185
29	0x3d7d3049	0.061813626
30	0x3ca21cba	0.019789089
31	0x3d52d0fe	0.05146884
32	0x3d81e40e	0.06342326
33	0xbc68ee96	-0.01421704
34	0x3cf897a0	0.030345738
35	0x9f96dadb	-6.388954e-20
36	0x3b9657d2	0.0045881057
37	0x3d2b53b6	0.04182788
38	0xbc2d026b	-0.0105596585
39	0xbc93a043	-0.018020755
40	0x3d207b0d	0.03917985
41	0x3d63e418	0.05563745
42	0xbc04edc3	-0.008113327
43	0xbc201ba8	-0.009772219
44	0x3d4cdc6c	0.0500149
45	0xba44d12f	-0.00075079774
46	0x3c7990bb	0.01523226
47	0x3c8393a1	0.016061606
48	0x3c8e2ca0	0.017355263
49	0xbcbb998d	-0.022900367
50	0x3b2134f4	0.0024598213
51	0x3c62ebd5	0.013850172
52	0xbcac8b68	-0.021062568
53	0xbbecd72a	-0.007227798
54	0x3d31db15	0.043421824
55	0x3d550b06	0.052012466
56	0x3a21b400	0.00061684847
57	0xbc8adcb5	-0.016950944
58	0xbc8fb279	-0.017541157
59	0x3c0cd568	0.008595802
60	0xbcfcdaf9	-0.030866133
61	0x3c87b853	0.016567385
62	0x3d465065	0.048416514
63	0xbcc39152	-0.023873005
64	0xbd2057da	-0.03914628
65	0xbd2d9373	-0.042376947
66	0x3d1bad22	0.03800691
67	0xbcc50605	-0.024050722
68	0x3d5959c9	0.05306414
69	0x3d73c83a	0.059517123
70	0xba700d28	-0.0009157234
71	0xbcd45c56	-0.025922935
72	0xbba09fb3	-0.00490185
73	0xbbd2c61f	-0.0064323093
74	0x3d09c394	0.033633783
75	0x3a357789	0.0006922414
76	0x3d407099	0.04698238
77	0xbca87d19	-0.020567464
78	0x3d6b6f41	0.057479147
79	0xbcebf48c	-0.028803132
80	0x3ba2349d	0.0049501196
81	0xbc41016a	-0.011780122
82	0x3d757826	0.059929036
83	0xbc566012	-0.013084428
84	0x3cb63a05	0.022244463
85	0x3d213833	0.039360236
86	0x3d87effe	0.06637572
87	0x3dad9c28	0.0847705
88	0x3c85bebc	0.0163263
89	0xbcb393ed	-0.021921122
90	0x3d2ec997	0.04267272
91	0xbcb9e492	-0.022691999
92	0x3d83f7b7	0.06443732
93	0x3c1fddeb	0.009757499
94	0x3d4d31ad	0.050096203
95	0x3cce9e71	0.025222035
96	0x3c4e6fac	0.012599867
97	0x3d59a02a	0.05313126
98	0xbc4c8598	-0.012483023
99	0x3d1d6d2b	0.03843419
100	0x3a8f052b	0.0010911574
101	0xbd2140f0	-0.03936857
102	0x3d406978	0.046975583
103	0xbc87aad5	-0.016560951
104	0x3c4f30f6	0.012645951
105	0x3d782798	0.060584635
106	0xbd0445cd	-0.03229313
107	0x3854b80f	5.0716157e-05
108	0x3d7e650c	0.062108085
109	0xbd227291	-0.03966004
110	0x3d0a3959	0.033746097
111	0x3c1b560b	0.009480963
112	0xbd4c7074	-0.04991193
113	0x3d2eaff9	0.04264829
114	0x3d00e8fb	0.031472187
115	0xbd0dfd2a	-0.034665264
116	0x3dafbbc4	0.08580735
117	0x3d3ace9e	0.0456072
118	0xbd0bf434	-0.034168437
119	0x3d695f20	0.056975484
120	0xbc4c98f0	-0.012487635
121	0x3c5c6d13	0.01345374
122	0xbc9d68fc	-0.0192151
123	0xbc21e144	-0.009880368
124	0xbb4a7dbc	-0.0030897697
125	0x3d85c6db	0.06532069
126	0xbcc6adf4	-0.02425287
127	0x3c7fd631	0.015615032
128	0x3c4405e0	0.011964291
129	0x3adf3bb1	0.0017031339
130	0x3d242313	0.040072512
131	0x3ca5f5cf	0.020258812
132	0xbd38ec82	-0.045147426
133	0xbc606c47	-0.01369769
134	0xbcd16781	-0.02556205
135	0x3d62be77	0.055357423
136	0xbd26926b	-0.04066698
137	0x3d657829	0.056022797
138	0x3c9922f3	0.018693423
139	0x3c9c2a54	0.019063152
140	0xbcdcc659	-0.026950048
141	0x3d1cb85a	0.03826175
142	0xbbf820be	-0.0075722625
143	0x3d555d6f	0.05209106
144	0x3ca05075	0.019569615
145	0x3d6d7c7e	0.057980053
146	0x3d26675e	0.040625922
147	0x3d92ad6a	0.07161982
148	0xbcaee837	-0.021350963
149	0x3d4f3c7c	0.05059479
150	0xbcc83408	-0.024438873
151	0xbcf34091	-0.029693874
152	0x3d9971bd	0.07492397
153	0x3d867db0	0.06566942
154	0x3c39c49c	0.011338379
155	0x3d62cae2	0.055369265
156	0xbc2e9074	-0.0106545575
157	0x3cfb681f	0.030689297
158	0xbc9326a1	-0.017962756
159	0xbd289cce	-0.041165166
160	0xbcfdb559	-0.030970262
161	0x3d0be981	0.034158234
162	0xbc942259	-0.018082784
163	0x3d3617d6	0.044456325
164	0xbd5aed08	-0.053448707
165	0xbd3c0b34	-0.04590912
166	0x3d8b72a6	0.06808977
167	0x3d2b99fe	0.041894905
168	0x3ce1d9aa	0.02756961
169	0x3d416543	0.04721571
170	0x3cb0ad18	0.021566913
171	0x3c9d01f7	0.019165976
172	0x3cf2d431	0.029642196
173	0xbbe0f107	-0.00686467
174	0x3d47ecba	0.048809744
175	0x3d8d7b0a	0.069082335
176	0xbd01353f	-0.03154492
177	0xbcc64afb	-0.024205675
178	0xbd2b1648	-0.041769296
179	0xbcfdc48d	-0.030977512
180	0x3c6c5305	0.01442409
181	0x3c9b6f3f	0.018973945
182	0x3d73b2a0	0.059496522
183	0xbd18889b	-0.037239652
184	0x3d8b6407	0.06806188
185	0xbcd088fd	-0.025455946
186	0x3a6e2ab8	0.0009085345
187	0x3d41761b	0.047231775
188	0xbd1ef36b	-0.03880636
189	0xbbd567f9	-0.0065126386
190	0x3c858f45	0.016303668
191	0x3d614a3e	0.055002443
192	0x3da208d2	0.079118386
193	0xbcd81eaf	-0.026381819
194	0x3c08f7b0	0.008359835
195	0x3d54fe5f	0.0520004
196	0xbc409963	-0.01175532
197	0x3d5bfb68	0.053706557
198	0xbd09c92a	-0.03363911
199	0x3d78512d	0.06062429
200	0x3d643f80	0.05572462
201	0x3d95921f	0.07303261
202	0x3d403254	0.046922997
203	0x3d20e6d6	0.039282642
204	0xbcfe6f48	-0.031058922
205	0x3bd9c924	0.0066462923
206	0xbd342cf6	-0.04398819
207	0x3b096307	0.0020963566
208	0x3d6fb4c6	0.05852201
209	0xbbb2b388	-0.0054535307
210	0xbcde0815	-0.027103463
211	0xbc1d6bca	-0.009608218
212	0xbc8fe2ca	-0.017564196
213	0x3c431f0f	0.01190926
214	0x3d4be385	0.049777526
215	0xbc12c512	-0.008958118
216	0x3de50933	0.11183395
217	0xbc923b6d	-0.017850602
218	0xbd0eee9a	-0.034895517
219	0xbc1ca7c4	-0.009561483
220	0xbca812bf	-0.020516751
221	0x3d4ec59a	0.050481416
222	0xbbdba5b5	-0.0067031034
223	0x3d02596c	0.03182356
224	0x3cece72e	0.028918829
225	0x3d5edc92	0.05440957
226	0x3c495486	0.012288218
227	0x3beedbc7	0.007289383
228	0x3c9354b5	0.017984727
229	0x3db2b63c	0.08726165
230	0xbca60c90	-0.020269662
231	0xbbe87a1f	-0.007094636
232	0x3cf2f5cb	0.029658219
233	0xbcf6d3c1	-0.030130269
234	0x3ceea285	0.02913023
235	0xbbae7907	-0.005324486
236	0xbb945496	-0.004526685
237	0x3d36377d	0.04448651
238	0xbd08cf8c	-0.033401057
239	0xba21a4c4	-0.00061662146
240	0xbccc8792	-0.024966989
241	0x3d9193eb	0.07108291
242	0x3d1fcc65	0.039013285
243	0x3aeb1923	0.0017936568
244	0xbb61f82c	-0.0034480197
245	0xbc176849	-0.009241172
246	0x3ddeee2d	0.10885272
247	0x3cc1a985	0.023640404
248	0xbd0708de	-0.03296744
249	0x3d3170e4	0.04332055
250	0xbd0f7d9f	-0.03503191
251	0x3d8115d1	0.06302989
252	0xbb0eb6b2	-0.0021776375
253	0xbc00883d	-0.007844982
254	0x3d8b38e9	0.06797964
255	0x3d31b542	0.04338575

energy_lin.3.weight f4 [150, 300]
0	0xbe8a9d09	-0.27072933
1	0x3db9882f	0.09059178
2	0xbdfeccbc	-0.12441394
3	0xbd97ad16	-0.074060604
4	0x3c5e736c	0.013577323
5	0xbdf22dea	-0.11825164
6	0xbd873b2b	-0.06603082
7	0xbd775cf5	-0.060391385
8	0x3e2f7629	0.17134918
9	0x3dd0daf3	0.10198011
10	0x3e1916ef	0.14950155
11	0x3cc85765	0.024455735
12	0x3d1884fb	0.037236195
13	0x3de6d500	0.11271095
14	0xbcd72c44	-0.026266225
15	0x3d01f014	0.031723097
16	0x3d24f1b2	0.04026956
17	0x3d989b5a	0.07451506
18	0x3c80b102	0.015709404
19	0x3e15695d	0.14590974
20	0xbcc242b5	-0.023713449
21	0x3ccfd1e4	0.025368638
22	0x3c73d912	0.014883297
23	0x3d4a9d22	0.04946626
24	0x3dfc71a6	0.12326364
25	0xbd483d27	-0.048886444
26	0x3e01b7d2	0.12667778
27	0x3c7f8bc3	0.015597287
28	0x3bf6c41a	0.0075307013
29	0x3e193316	0.14960894
30	0x3da8f8a9	0.08250553
31	0x3d3e8051	0.04650909
32	0xbd987ca2	-0.07445647
33	0x3e05097d	0.129919
34	0x3dbdb617	0.092632465
35	0x1e2a50a8	9.016404e-21
36	0x3da9082e	0.08253513
37	0x3c751055	0.014957507
38	0x3da9b0af	0.08285653
39	0x3e08ff4f	0.13378642
40	0xbdbdc5c1	-0.09266234
41	0x3e0c9679	0.13729276
42	0xbddcd59c	-0.1078293
43	0x3dc26f2b	0.0949386
44	0x3c2220fe	0.009895561
45	0x3e3f4a2e	0.18680641
46	0x3e0fe40c	0.14051837
47	0x3e12940c	0.14314288
48	0x3d1159e5	0.03548612
49	0x3c2e4236	0.010635903
50	0xbde7a455	-0.11310641
51	0x3dfe5ad8	0.12419671
52	0x3d038bb5	0.032115657
53	0xbd010950	-0.03150302
54	0x3dcbd5b2	0.099528685
55	0xbcc985ca	-0.024599928
56	0xbda7931b	-0.08182355
57	0x3eb18634	0.346727
58	0x3dcd83ce	0.100349054
59	0x3d3d7d2b	0.046261948
60	0xbdd31447	-0.10306602
61	0x3d565121	0.052323464
62	0xbdea5c06	-0.11443333
63	0xbe19e33c	-0.1502809
64	0x3db1839c	0.086676806
65	0xbdf64dff	-0.12026595
66	0x3e7071cf	0.23480915
67	0x3cbfabb0	0.023397297
68	0x3c24934a	0.010044882
69	0xbd3f003e	-0.04663109
70	0x3e31779e	0.17330787
71	0x3d51b7e5	0.051200766
72	0xbe1e4db3	-0.15459327
73	0x3e16cc61	0.14726402
74	0xbe26f078	-0.16302669
75	0xbe0a9f3b	-0.13537304
76	0x3d709227	0.05873313
77	0x3da5a428	0.08087951
78	0xbd692d3b	-0.0569279
79	0x3d6ed0ae	0.05830448
80	0x3dcc18cf	0.09965669
81	0xbdfc2a58	-0.12312764
82	0x3d9ce4a5	0.07660798
83	0x3db44f8a	0.08804233
84	0x3d5ca40b	0.05386738
85	0xbdb5e72a	-0.08881982
86	0xba13a8ae	-0.000563274
87	0x3dd4a234	0.103825
88	0xbd848edc	-0.06472561
89	0x3a6140a0	0.0008592699
90	0xbd6df8de	-0.058098666
91	0xbd8f7115	-0.070039906
92	0x3d2703db	0.04077516
93	0x3dd89055	0.10574404
94	0x3e395a53	0.18100862
95	0x3cd1bc90	0.025602609
96	0x3dad687b	0.08467194
97	0x3d8e3d91	0.069453366
98	0x3ce03176	0.027367335
99	0x3cd84b21	0.026403012
100	0xbaf14403	-0.001840711
101	0x3db2903c	0.08718917
102	0x3c85f546	0.016352307
103	0x3e130ac4	0.14359576
104	0x3e0fdb9e	0.14048621
105	0xbd8889d4	-0.06666914
106	0xbd0be8ae	-0.034157448
107	0x3c9c39d3	0.019070541
108	0xbdbbe293	-0.09174075
109	0x3da783fb	0.0817947
110	0xbcafed1c	-0.021475367
111	0xbbde274b	-0.0067795864
112	0xbcd7ede1	-0.026358547
113	0xbd155aef	-0.036463674
114	0x3d6db81c	0.05803691
115	0x3dcc3872	0.099717036
116	0xbcff39e0	-0.031155527
117	0x3db9d724	0.09074238
118	0x3e2718a2	0.1631799
119	0xbe7f20fa	-0.24914923
120	0x3daaa62e	0.083324775
121	0x3d57bf0a	0.052672423
122	0x3d9804e7	0.0742281
123	0x3d442cb1	0.047894184
124	0xbdf1eb09	-0.118124075
125	0xbb2f92cc	-0.0026790379
126	0x3e0b1be3	0.13584857
127	0x3d378454	0.044803932
128	0x3d4b1ca9	0.04958788
129	0x3dda9d7d	0.1067457
130	0xbe1b8b44	-0.15189844
131	0xbd8477c4	-0.06468156
132	0x3cdeb5ed	0.027186358
133	0xbd177f32	-0.036986537
134	0x3d932f9c	0.07186815
135	0xbc012aa7	-0.007883704
136	0xbd2adb7a	-0.041713215
137	0x3e04538a	0.12922493
138	0x3d376671	0.04477543
139	0xbde0fc2e	-0.109855995
140	0x3cd40ec6	0.02588595
141	0x3d9ee8c3	0.077592395
142	0x3caee0bb	0.021347394
143	0x3b8cc8e0	0.004296407
144	0xbe190e23	-0.14946799
145	0x3ec6bdf8	0.3881681
146	0x3c2d2c71	0.010569678
147	0xbd9115af	-0.07084214
148	0x3e09351d	0.13399167
149	0x3dbaa868	0.09114152
150	0x3e354138	0.1770066
151	0x3d6d3f74	0.05792184
152	0x3ddee45b	0.10883399
153	0xbe3bc535	-0.18336947
154	0xbd31cc83	-0.04340793
155	0x3e10ecb6	0.14152798
156	0xbc8889ef	-0.016667334
157	0x3cf47d20	0.02984482
158	0x3e0b9295	0.13630135
159	0x3ddc6884	0.10762122
160	0xbd119c15	-0.035549242
161	0xbcd38563	-0.02582044
162	0xbd375d53	-0.044766735
163	0x3e09cae2	0.134563
164	0x3e06f8eb	0.13180892
165	0xbd10361d	-0.035207856
166	0x3d2e8248	0.042604715
167	0xbe2d9609	-0.16951765
168	0xbdc9bbc4	-0.098502666
169	0xbb736e25	-0.0037144509
170	0xbde90d64	-0.11379507
171	0xbbd1dfb2	-0.0064048404
172	0x3d595690	0.053061068
173	0x3d108ea1	0.03529227
174	0xbc125c7b	-0.008933182
175	0xbdaf090f	-0.0854665
176	0x3d889ba9	0.06670315
177	0x3deca89d	0.11555598
178	0xbd939a86	-0.072072074
179	0xbd11c718	-0.03559026
180	0xbd8cd8f6	-0.068773195
181	0x3dceae49	0.10091836
182	0xbe26b8c9	-0.16281427
183	0x3ddf1e70	0.10894477
184	0x3c8b7de1	0.017027797
185	0xbde03a73	-0.10948648
186	0xbc00248a	-0.007821212
187	0x3e260e50	0.16216397
188	0x3d5b93ba	0.05360768
189	0xba5892bb	-0.00082616106
190	0x3df11e96	0.11773412
191	0x3df11173	0.11770906
192	0xbe7002da	-0.23438588
193	0xbd3fb614	-0.046804503
194	0x3d43e0c3	0.04782177
195	0x3df2e2c7	0.118596606
196	0x3e74109e	0.23834464
197	0x3c45d0f2	0.012073742
198	0xbdcbd6b0	-0.09953058
199	0xbd3205f5	-0.043462712
200	0x3dd3629c	0.103215426
201	0x3e3f679b	0.18691866
202	0x3dae1d4e	0.08501683
203	0xbda6eb70	-0.08150375
204	0xbda092f6	-0.078405306
205	0x3d2bea49	0.04197148
206	0x3dbb4d30	0.09145582
207	0x3b4b5e13	0.0031031414
208	0xbd7163b8	-0.05893299
209	0xbccd2816	-0.025043529
210	0xbd77158d	-0.060323287
211	0x3e067d67	0.13133775
212	0x3e680cd7	0.22661148
213	0x3d07f10c	0.033188865
214	0x3d3f1dc0	0.04665923
215	0x3eadd50d	0.33951607
216	0x3e8ae69a	0.2712906
217	0xbddbd196	-0.10733335
218	0xbdcbdf0f	-0.099546544
219	0xbe012263	-0.12610774
220	0x3ce6aeec	0.028159581
221	0xbd6d7e66	-0.05798187
222	0xbda0acd2	-0.07845463
223	0x3d12cad6	0.03583797
224	0x3e048066	0.12939605
225	0x3d56590c	0.052331015
226	0xbd6a52c8	-0.057207853
227	0xbda98e9b	-0.08279153
228	0xbadd43c1	-0.0016881154
229	0xbe47b65b	-0.19503157
230	0xbc0c38c6	-0.008558458
231	0xbd4eda38	-0.05050108
232	0xbe1b184b	-0.15145986
233	0xbd8cfadc	-0.06883785
234	0x3dda3829	0.10655243
235	0x3e139036	0.14410481
236	0xbd9b5669	-0.07584841
237	0x3c34a4a5	0.011025582
238	0x3d18cf3d	0.037307013
239	0x3c8e67ed	0.01738354
240	0xbde7d2c8	-0.113195
241	0x3e0981d0	0.13428426
242	0x3da87bb6	0.08226721
243	0x3d4134f8	0.047169656
244	0xbcd6d821	-0.026226105
245	0x3d804ea1	0.06264997
246	0xbea2b453	-0.317782
247	0xbd125485	-0.035725135
248	0xbd88b5d3	-0.06675305
249	0xbc50a0c0	-0.012733638
250	0x3e09ca9b	0.13456194
251	0xbd835cd9	-0.06414194
252	0x3bacf8ab	0.005278667
253	0xbd6cc035	-0.05780049
254	0x3e1325cb	0.14369886
255	0xbcfef18b	-0.031121036
