models/mpnn_A139_B23_E300_L2/41.pt (torch, 742651 bytes, 9 tensors)

atom_lin.weight f4 [300, 139]
0.017228782 0.21707758 4.91761e-39 6.091114e-25 -1.5555485e-16 -1.255039e-20 0.21247634 -0.11417655
-0.20907815 0.20654888 7.878914e-16 1.5858122e-38 0.42781037 -8.598091e-20 4.4022746e-26 -0.01493054
-0.17630418 -0.06626521 -6.5439338e-18 1.5693077e-19 -4.907221e-39 6.582971e-23 2.5994351e-17 9.560908e-22
-1.9032934e-18 -0.19933167 -0.22094867 0.03196382 -3.0372612e-26 2.285801e-39 -3.8610484e-35 -9.265915e-16
8.362325e-16 -1.0369459e-35 4.647112e-39 0.07624503 6.2354333e-26 -1.183714e-13 2.4390028e-15 2.1094266e-14
-3.1709648e-17 -2.6383814e-15 -1.6214452e-27 -7.6664165e-21 -1.0492254e-30 1.6666388e-19 5.2624853e-20 -5.481699e-19
-1.685699e-22 -1.4897469e-32 7.8937696e-28 -5.7955003e-18 5.0072514e-33 -0.04126587 3.465806e-37 -1.7299092e-23
3.043237e-32 -9.187059e-21 -1.1508163e-23 -9.269415e-36 -8.214881e-28 6.929033e-37 -7.2628976e-14 -3.1950132e-30
-1.4216487e-31 4.907842e-39 -4.913465e-39 8.279171e-15 -3.4393572e-21 -1.7907895e-29 4.295871e-14 4.737456e-25
4.191687e-14 1.8540491e-13 3.034215e-15 7.9087824e-23 1.1750503e-19 -1.0747099e-17 9.102294e-21 1.4646459e-17
-4.557291e-19 -5.5066743e-15 -1.2158752e-36 4.1657485e-33 4.630286e-15 4.917274e-39 9.1985525e-15 -2.5103e-15
-2.3283993e-18 -3.4060276e-21 -8.138935e-24 1.4210609e-20 -1.0278239e-25 1.8731502e-14 5.9276783e-29 7.991755e-35
1.2094688e-28 4.0015044e-24 -2.6438361e-27 -6.025986e-21 -1.9179143e-13 1.4624615e-13 -9.884951e-19 1.1675782e-15
-1.0492778e-14 1.10675254e-35 -9.800933e-20 -2.3958964e-24 -6.3499883e-15 -3.2436556e-24 2.2799754e-22 -4.91804e-39
-1.6079009e-24 3.5189783e-16 1.1792066e-21 -1.881016e-24 -1.5158331e-17 9.405396e-16 6.6542343e-28 -0.12876731
0.24113886 0.15439163 -0.05907213 0.14915302 3.8820706e-16 -0.041352257 1.807113e-18 1.0579792e-27
0.10258181 -0.20083368 -0.0040051844 -0.005951572 0.20997016 0.22009283 5.5816685e-28 4.91404e-39
-3.474288e-17 -5.2937565e-31 0.049191613 -0.15912795 0.123003565 -1.8350918e-22 -6.071733e-22 -6.5406e-23
-1.4744243e-22 0.06349694 -0.08062436 0.23854212 -0.09223565 8.145524e-30 7.187462e-18 0.3790493
-8.483767e-22 2.7763452e-25 0.1174792 0.1158544 0.09069205 -8.975616e-25 7.107054e-36 -4.723353e-20
1.0655307e-22 -1.9517746e-30 -3.4384904e-23 -9.5206576e-20 -0.1092661 0.031127244 -0.017734248 1.5487716e-14
-8.673667e-19 -4.219491e-38 1.9615668e-30 -1.277474e-21 1.572775e-17 -5.9396105e-20 -0.17066935 -6.1013467e-26
-4.916607e-39 2.085787e-18 -1.3864477e-33 6.6079964e-19 4.3836584e-23 8.2005977e-16 8.258272e-36 9.3154084e-38
-3.1637316e-24 1.3653434e-22 4.907407e-39 6.7559985e-29 2.6647139e-37 1.4204992e-17 -4.2084815e-17 3.4267166e-25
-0.012977986 -3.4469122e-25 -1.3584397e-27 1.5186133e-24 -6.0213624e-30 7.313335e-15 2.3035545e-27 3.0489357e-26
2.6623712e-22 4.0117966e-15 3.8599273e-16 -3.349117e-28 9.406021e-19 -1.4201444e-32 -8.142509e-15 1.2992702e-18
-3.4667305e-21 -3.3230117e-32 3.0145354e-22 -1.1876064e-17 -4.912117e-39 -1.2407684e-25 -2.2879614e-14 1.2582655e-21
-1.4087509e-27 3.4666562e-22 -1.0131807e-24 7.017512e-27 2.0553205e-29 1.7560372e-20 4.907393e-39 7.783444e-23
6.0199634e-14 1.7999083e-14 -8.356378e-16 -1.3947874e-29 5.2574333e-19 -3.3124545e-20 -1.5249993e-17 1.7781757e-38
-1.1533169e-21 -4.2791544e-31 1.1217954e-18 -1.7210517e-13 -8.836521e-37 -1.3129517e-27 -3.00929e-30 -3.5292873e-19
4.644029e-26 -3.09474e-34 5.151104e-19 -1.91684e-40 -1.4098025e-27 -5.2903465e-16 7.680027e-14 1.8610634e-13
3.769225e-37 -3.1263284e-29 1.2992995e-34 4.243971e-18 9.1687386e-29 1.4508716e-28 2.394377e-24 4.91378e-39
00000000: 6023 8d3c 9649 5e3e 4c8c 3500 c782 3c17
00000010: b057 33a5 f611 6d9e 6693 593e 65d5 e9bd
00000020: 9518 56be 8d81 533e 2018 6326 fead ac00
00000030: f609 db3e 4504 cb9f 76fd 5915 399f 74bc
00000040: 1589 34be 0eb6 87bd b56d f1a2 6a45 3920
00000050: 566f 3580 9e2a 9f1a 6dc1 ef23 f97a 901c
00000060: 3270 0ca2 9a1d 4cbe 5e40 62be 7fec 023d
00000070: dc65 1695 e2e3 1800 de49 4d86 3189 85a6
00000080: 1107 7126 b488 5c85 429a 3200 5b26 9c3d
00000090: c161 9a15 3c46 05aa a9bf 2f27 1100 be28
000000a0: 253c 12a4 8c1d 3ea7 d176 0093 84d0 109e
000000b0: 1e3f aa8d 11c3 4420 8b83 781f 8cca 21a1
000000c0: dbc9 4b9b 44b4 9a8a de29 7a12 f4d0 d5a2
000000d0: 3bfe cf09 6706 29bd dbde eb02 7a4e a799
000000e0: 8f03 1e0b e489 2d9e aa99 5e99 7f23 4585
000000f0: 842b 8292 64c8 6b03 c18b a3a9 ea9a 818e
00000100: 628a 388c 1171 3500 be80 3580 f024 1528
00000110: 6cef 819d 8e9b b58f 0578 4129 fe9d 1217
00000120: dcc6 3c29 54bf 502a 63a3 5a27 fe38 bf1a
00000130: b7b9 0a20 bd3f 46a3 feef 2b1e f916 8723
00000140: eb81 06a1 1b66 c6a7 d6de ce83 d609 ad09
00000150: dad2 a627 5c8b 3500 d6b4 2528 dde2 34a7
00000160: 38ce 2ba2 14ad 809d 0e6e 1d99 2537 861e
00000170: 147a fe95 e7b7 a828 d548 9610 1175 d406
00000180: 8251 1911 fbcc 9a18 5e77 5193 c3a7 e39d
00000190: 1ef0 57aa 95a8 242a 4ae0 91a1 0844 a826
000001a0: 6605 3da8 5761 6b05 016b e79f 9e5f 3998
000001b0: 4ec8 e4a7 38f7 7a98 e9d0 891b 7f8d 3580
000001c0: 84cf f897 f4da ca25 5932 b21c 5c89 1198
000001d0: 99cf 8ba3 c98b 8726 90e1 5212 94db 03be
000001e0: 1bed 763e d718 1e3e 9ef5 71bd 92bb 183e
000001f0: 40c9 df25 fc60 29bd 6657 0522 bca4 a712
00000200: 6916 d23d 58a7 4dbe ec3d 83bb 6805 c3bb
00000210: 6b02 573e 0460 613e e0e3 3012 5882 3500
00000220: 2739 20a4 cfca 2b8d 257d 493d 70f2 22be
00000230: 4be9 fb3d 57d9 5d9b c281 379c 5a24 9e9a
00000240: 393f 329b af0a 823d 621e a5bd 6344 743e
00000250: 0be6 bcbd fb35 250f d495 0423 c012 c23e
00000260: fc33 809c f2d8 ab16 ef98 f03d 1245 ed3d
00000270: c1bc b93d 14e4 8a97 7c26 1705 d50d 5f9f
00000280: 94d0 001b c658 1e8e 7346 269a d8cc e09f
00000290: e8c6 dfbd 90fe fe3c 6a47 91bc 3e80 8b28
000002a0: 3000 80a1 1fbb 6581 2624 1f0e e20b c19c
000002b0: 1a10 9123 be3e 8c9f f2c3 2ebe e10f 9795
000002c0: 8089 3580 67e7 1922 f75c e688 9c08 4321
000002d0: 10fb 531a bb5d 6c26 4fa2 2f05 ec96 fd01
000002e0: 29c8 7498 550f 251b db6f 3500 f048 ab10
000002f0: dd59 b502 9704 8323 fb14 42a4 7e1a d416
00000300: 9ea1 54bc 815a d596 dc40 d792 78fe ea17
00000310: 6741 f48e cebe 0328 a381 3613 daf9 1615
00000320: 33ee a01b 4b8a 9027 7982 de25 8846 d491
00000330: f1ce 8a21 ea79 938a b2ae 12a8 0abd bf21
00000340: 29f8 829d 678a 2c8b ad37 b61b 2013 5ba3
00000350: fc7c 3580 8599 1996 cc14 cea8 ca24 be1c
00000360: ba39 df92 e88b d11b 39c8 9c97 03ff 0a14
00000370: 2c6f d00f 60da a51e d16f 3500 2f31 bc1a
00000380: ba8e 8729 0f1f a228 30db 70a6 c072 8d8f
00000390: 0b2c 1b21 1e6d 1c9f 07a8 8ca3 4ea0 c100
000003a0: c948 ae9c d3dd 0a8d 3b8c a521 f0c5 41aa
000003b0: 7a58 9683 a60b d092 8224 748e 1555 d0a0
000003c0: 10f6 6515 46ae cd87 a408 1821 5616 0280
000003d0: 6264 df92 de7b 18a6 57f0 ac29 8089 512a
000003e0: 9542 0003 1086 1e90 dfb4 2c07 2c93 9c22
000003f0: 8474 e810 7aeb 3711 8641 3918 9f81 3500

atom_lin.bias f4 [300]
0.0567169 0.0155695025 0.0988446 0.04483051 0.06705285 -0.006907574 0.023238286 -0.13134994
0.0008786135 0.026370391 0.036333956 0.17346519 0.07648359 0.016747927 -0.00096127245 0.004082692
0.06995537 0.037453644 -0.0618871 0.007588994 0.1526756 0.04666363 0.035310704 0.05303928
0.100476064 0.09100048 0.011987385 -0.026038434 0.059759833 0.0468448 0.041370608 -0.02830067
0.07289297 -0.0063199652 -0.04244146 0.092126384 -0.09145761 -0.014427876 0.0706524 0.031143518
0.0061327424 0.09540651 0.07871541 0.014318928 0.003643428 0.0053209304 0.017909989 0.03688711
-0.018032964 0.0687109 -0.009904974 0.108809106 0.047724735 -0.02034538 -0.028228574 -0.018998545
0.03432192 0.10247117 0.120953724 0.081949785 0.045311496 0.08397271 0.07392864 0.03897791
-0.12621538 0.0203929 0.01613313 0.03904113 0.11650964 0.092984274 0.022274239 0.017418439
-0.037106898 0.10867885 -0.013303419 0.055802226 0.08668325 -0.019690145 -0.048248447 -0.02563583
-0.025522135 -0.082638904 0.0016970541 -0.013369433 0.032398667 0.022382101 0.09876441 -0.008545845
0.045766637 -0.013703957 0.052514933 0.120946094 0.023675973 0.0043292874 0.026064973 0.08144837
0.07660775 0.10559383 0.1074668 0.08547869 0.013254904 0.093508035 0.067419015 0.11906227
0.11508169 0.008751615 0.11320714 -0.011406609 0.08527037 0.07970955 0.09110838 -0.03241548
-0.019983124 0.10622786 -0.06748667 0.059683543 0.030134115 0.06952368 0.03717392 -0.020427763
0.012347171 0.049490537 0.1314342 -0.046980068 -0.007334183 0.0038188463 0.0012826241 0.03932356
0.0824493 0.08456194 0.027562965 0.0302196 -0.035697054 -0.057952005 0.094281495 0.08976983
0.111942716 -6.148229e-29 -0.028369792 0.006814775 0.0064724274 -0.0165616 0.07273989 0.04930881
-0.022208843 0.095934406 0.058061928 0.04194956 -0.020468956 -0.05758465 0.083591014 -0.07955206
0.04651226 0.077917 0.097397305 0.09002466 -0.01462775 0.08708583 0.11092193 -0.010528097
0.012075281 0.0137468595 0.08272837 0.0173701 0.08750347 0.0019425988 -0.039308116 0.16985905
-0.011434696 0.026812863 -0.087583 -0.03850982 0.010705755 -0.011647727 0.010944173 0.056120753
0.07428582 0.07790762 0.072931446 -0.019075815 -0.029095659 0.08649044 0.06476753 -0.013573776
0.05144223 0.06333555 0.0071033505 0.004048028 -0.022278598 -0.12581708 -0.012716971 -0.091868944
-0.0098720305 -0.05750036 0.010373113 0.04979616 -0.060386624 0.016546326 0.10165249 0.098183885
0.02550723 0.023929643 -0.07363384 0.0549078 0.060616113 0.03727307 0.001523126 0.057962604
0.04019425 0.006793589 -0.05029661 0.02680743 -0.027952366 0.098028645 0.009619747 -0.03543169
0.06952745 0.059150808 0.093039244 -0.0059295716 0.0039349943 -0.018479979 0.12811801 0.09100834
-0.08192145 0.08437604 0.022509156 -0.043774974 0.05973558 0.026400628 0.0068511427 -0.026198981
0.019612074 0.012814741 0.0144031625 0.07904492 0.07072812 0.023699703 0.018425396 0.015830783
0.1261095 -0.05353283 0.046997268 0.05401851 0.090648696 0.073599 0.06372363 0.011623375
-0.0039592767 0.0029220048 0.09155697 -0.008386721 0.010123298 0.03747057 -0.011881427 -0.05666784
00000000: fb4f 683d 3a17 7f3c 0a6f ca3d 32a0 373d
00000010: 0153 893d ee58 e2bb 385e be3c 9980 06be
00000020: c152 663a b806 d83c ead2 143d dca0 313e
00000030: 6ea3 9c3d f332 893c e7fd 7bba 1ac8 853b
00000040: c344 8f3d fe68 193d 547d 7dbd 19ad f83b
00000050: fe56 1c3e 5d22 3f3d f5a1 103d b73f 593d
00000060: 65c6 cd3d 765e ba3d bd66 443c 8e4e d5bc
00000070: bac6 743d 55e0 3f3d 3a74 293d cfd6 e7bc
00000080: e948 953d b617 cfbb 19d7 2dbd c2ac bc3d
00000090: 214e bbbd e662 6cbc 35b2 903d b120 ff3c
000000a0: 2cf5 c83b 7d64 c33d 8b35 a13d f099 6a3c
000000b0: 94c6 6e3b 335b ae3b f8b7 923c f016 173d
000000c0: deb9 93bc 4db8 8c3d 7948 22bc 4fd7 de3d
000000d0: 037b 433d 5bab a6bc 9c3f e7bc d6a2 9bbc
000000e0: 2495 0c3d 68dc d13d 96b6 f73d 4ad5 a73d
000000f0: 8c98 393d e2f9 ab3d e667 973d 4da7 1f3d
00000100: 9b3e 01be 030f a73c a029 843c 98e9 1f3d
00000110: 9b9c ee3d 8a6e be3d 7778 b63c 1db1 8e3c
00000120: 67fd 17bd 0493 de3d 95f6 59bc e090 643d
00000130: fd86 b13d 3a4d a1bc 2aa0 45bd 3b02 d2bc
00000140: cc13 d1bc 963e a9bd b06f de3a 770b 5bbc
00000150: 77b4 043d ab5a b73c ff44 ca3d df03 0cbc
00000160: cc75 3b3d 9086 60bc e619 573d 96b2 f73d
00000170: 1df4 c13c b2dc 8d3b 3686 d53c 67ce a63d
00000180: 86e4 9c3d 9441 d83d 8e17 dc3d 740f af3d
00000190: 192b 593c 2481 bf3d fb12 8a3d ebd6 f33d
000001a0: f3af eb3d ef62 0f3c 25d9 e73d c9e2 3abc
000001b0: 3ba2 ae3d c33e a33d 0897 ba3d 18c6 04bd
000001c0: a6b3 a3bc fe8d d93d 7436 8abd bb76 743d
000001d0: d2db f63c 6e62 8e3d ae43 183d 2058 a7bc
000001e0: ca4b 4a3c 97b6 4a3d b096 063e 2c6e 40bd
000001f0: 9653 f0bb 9c45 7a3b b91d a83a be11 213d
00000200: 2edb a83d cf2e ad3d bacb e13c 188f f73c
00000210: 1337 12bd 155f 6dbd a816 c13d 3fd9 b73d
00000220: 3942 e53d 4ae0 9b90 c467 e8bc 7a4e df3b
00000230: a816 d43b 31ac 87bc a7f8 943d 09f8 493d
00000240: 52ef b5bc 4279 c43d 58d2 6d3d 4dd3 2b3d
00000250: 83ae a7bc e2dd 6bbd c431 ab3d 31ec a2bd
00000260: a483 3e3d f392 9f3d 3d78 c73d d95e b83d
00000270: 3ba9 6fbc 0e5a b23d 092b e33d 0a7e 2cbc
00000280: 66d7 453c 823a 613c 7e6d a93d bd4b 8e3c
00000290: 0535 b33d cd9e fe3a 8c01 21bd 88ef 2d3e
000002a0: 9758 3bbc a6a6 db3c b75e b3bd 79bc 1dbd
000002b0: 3167 2f3c 1cd6 3ebc 304f 333c e0de 653d
000002c0: 2a23 983d 088e 9f3d 155d 953d e244 9cbc
000002d0: 055a eebc e621 b13d d7a4 843d 8b64 5ebc
000002e0: 16b5 523d 12b6 813d 39c3 e83b 52a5 843b
000002f0: 9b81 b6bc 31d6 00be d85a 50bc c925 bcbd
00000300: 4cbe 21bc 7f85 6bbd fdf3 293c 0ff7 4b3d
00000310: f757 77bd 298c 873c 2e2f d03d a214 c93d
00000320: 8af4 d03c 1908 c43c 57cd 96bd 00e7 603d
00000330: 9a48 783d a6ab 183d a1a3 c73a 326a 6d3d
00000340: baa2 243d c19c de3b d103 4ebd 419b db3c
00000350: 5cfc e4bc 3ec3 c83d 259c 1d3c d220 11bd
00000360: 6864 8e3d 1e48 723d 5c8b be3d da4c c2bb
00000370: 20f1 803b 5363 97bc 5e31 033e 9562 ba3d
00000380: 6fc6 a7bd 58cd ac3d 1f65 b83c 634d 33bd
00000390: 4cad 743d 2146 d83c 8d7f e03b 3f9f d6bc
000003a0: 80a9 a03c ebf4 513c 3efb 6b3c 4ee2 a13d
000003b0: e8d9 903d e125 c23c dbf0 963c 8faf 813c
000003c0: d922 013e 3e45 5bbd 3580 403d 8342 5d3d
000003d0: 06a6 b93d 13bb 963d 8981 823d f86f 3e3c
000003e0: d2bc 81bb 1b7f 3f3b 3882 bb3d 7568 09bc
000003f0: 30dc 253c be7a 193d 51aa 42bc 891c 68bd

bond_lin.weight f4 [300, 23]
-1.4042501e-11 -0.6245594 -0.085884854 0.20246029 -1.1859119e-23 -1.3114777e-37 -8.873638e-21 -8.039882e-22
2.269829e-09 -4.270179e-08 -4.4106258e-23 -0.0010462103 -0.2314699 -2.1859342e-31 6.893485e-16 6.7776465e-11
-9.2371694e-14 5.571167e-27 9.90769e-12 7.626556e-21 -0.0009767783 -3.1320915e-11 0.0009728608 -2.868746e-08
0.022537097 0.18087399 0.4088115 -1.1355662e-23 -7.17273e-15 8.1529197e-07 0.00022578554 6.3020656e-05
2.853273e-10 -1.9519757e-23 -4.6571373e-07 0.42042458 4.968034e-09 3.8865045e-07 1.05562614e-17 7.673627e-18
-8.2549684e-32 -4.8306913e-05 1.3095686e-18 -3.831633e-23 -0.0004165672 2.088681e-36 -3.552075e-24 -0.4108668
0.44590378 0.12869209 -1.2119152e-10 -1.1236194e-15 7.483972e-33 3.1856928e-08 -5.509869e-05 -3.9616496e-25
0.0009011454 8.730636e-05 0.14708811 -1.4364921e-06 -4.534517e-05 1.5770942e-09 7.1957247e-06 -1.0768325e-07
-3.8301008e-13 -6.742225e-29 4.8393357e-28 -2.3960066e-08 -0.00021629261 3.145495e-13 -0.49064708 0.24774334
0.06460032 3.193638e-34 -5.2132446e-17 -1.9570637e-06 -4.6119462e-07 -7.819878e-07 -1.6097284e-12 6.455699e-09
-1.182568e-10 0.47444722 -9.319802e-06 -7.147349e-11 -1.891571e-37 0.00067898317 4.9198558e-37 4.6421857e-07
-1.9642005e-37 1.5699587e-08 2.3723703e-06 -9.289183e-08 -2.3349773e-32 0.1400246 0.22730781 -0.117028125
-1.3467225e-10 -1.1981765e-17 -3.7808208e-05 2.9477064e-07 0.00015908407 -8.8773405e-08 -1.3871734e-09 5.118946e-32
-0.43048835 -4.3779422e-05 -1.6896883e-13 2.965089e-14 -8.8196893e-16 -1.6374081e-27 1.1355631e-17 -9.461181e-15
-5.0987746e-06 -0.0007212702 -1.4580372e-20 -0.00010364481 0.31046793 -0.2878774 -0.063037 -1.317628e-05
4.229346e-39 -0.00019912071 -5.6276954e-21 0.00030505532 0.00019717588 -7.283095e-06 -6.441933e-05 -0.06239638
-3.3119647e-17 -0.00011938764 1.1414967e-13 1.0929444e-18 2.2530412e-14 7.167058e-31 1.840073e-11 2.4861242e-06
1.2166591e-10 1.2755113e-25 1.0133397e-05 0.30886218 0.4076781 0.0029591904 -1.2946451e-06 -4.909487e-39
-7.148504e-05 -1.8075658e-08 4.489036e-05 -1.2249337e-22 1.3044999e-14 -1.9163679e-06 0.3776624 4.115126e-36
-1.7512873e-07 -3.2107936e-12 2.600558e-29 -4.3591534e-29 0.00078875566 -1.6419708e-05 2.581587e-29 1.3539486e-19
-1.4394338e-09 6.4545943e-06 -0.57593864 -0.45228562 0.27570054 5.6469003e-09 -1.4088894e-15 1.7487625e-07
-2.0652124e-24 -1.4509419e-06 -2.313854e-24 -1.8557694e-26 -3.981834e-05 -0.088250615 1.8445154e-06 -4.512581e-06
0.00031056316 -1.0067107e-06 2.5615077e-18 7.739231e-39 -9.545943e-18 -1.0696224e-27 -5.319263e-07 -1.2990595e-06
-0.00025899598 -0.5572519 -0.040209886 0.19410375 1.2644317e-09 3.1161876e-10 -1.9288002e-05 -0.00011129174
-2.7856292e-06 1.168973e-24 5.396804e-09 -3.9662913e-17 0.02613294 -0.00035017644 1.8877985e-05 3.034868e-07
6.523671e-28 -1.2160392e-10 5.580124e-06 -1.4282997e-11 0.0011352941 3.739354e-39 4.0298412e-10 3.634965e-06
-0.09454521 -0.49388677 0.25589603 0.0007770358 -0.00039093778 0.0006181159 6.05586e-07 -6.352185e-09
4.0623785e-05 1.1512486e-36 -8.354524e-08 -0.17191574 7.6174554e-05 -5.9538864e-20 0.0009916594 -0.00016934352
0.00021795474 -2.7444892e-16 -0.00026422407 -1.7296632e-09 -1.0049944e-08 -0.00035047292 -3.21851e-23 0.34348014
-0.4482028 -0.020620113 7.036543e-09 -0.0001707101 -5.8332033e-09 -3.6074432e-08 3.730932e-10 5.83097e-31
9.395206e-08 4.722797e-33 0.26656193 1.0791673e-08 -1.2094077e-07 -1.2953966e-34 3.390251e-19 -4.7428387e-16
0.0006886535 1.6475628e-08 -1.0905413e-06 5.687725e-05 1.2462687e-27 1.0209392e-30 0.5447457 0.7032302
00000000: cd09 77ad 20e3 1fbf 66e4 afbd c051 4f3e
00000010: 8363 6599 5482 3282 489e 279e 93fd 729c
00000020: 41fb 1b31 1d67 37b3 e748 559a fe20 89ba
00000030: 7206 6dbe 10e0 8d8c f1b0 4626 c20a 952e
00000040: a800 d0a9 58b2 dc13 454c 2e2d c30f 101e
00000050: 3e07 80ba 37c0 09ae 9507 7f3a 646c f6b2
00000060: b89f b83c 0837 393e be4f d13e 84a6 5b99
00000070: 6136 01a8 70da 5a35 d8c0 6c39 f529 8438
00000080: 3fdc 9c2f 94c8 bc99 3507 fab4 e441 d73e
00000090: 4ab3 aa31 b6a7 d034 89ba 4223 ae8d 0d23
000000a0: ad4f d68b 279d 4ab8 1a42 c121 5249 399a
000000b0: b466 dab9 72af 3104 0c6a 8998 225d d2be
000000c0: 804d e43e dcc7 033e 6140 05af 3dee a1a6
000000d0: 9f6f 1b0a 10d3 0833 c519 67b8 d836 f596
000000e0: d83a 6c3a 3f18 b738 449e 163e 7ecd c0b5
000000f0: 0131 3eb8 12c1 d830 ce72 f136 7e3f e7b3
00000100: 929d d7aa 8bef aa90 5b5d 1912 bed0 cdb2
00000110: 9bcc 62b9 5c13 b12a 1836 fbbe 6eb0 7d3e
00000120: 2c4d 843d ef40 d407 216b 70a4 1956 03b6
00000130: 1b9a f7b4 cbe9 51b5 948c e2ab eed0 dd31
00000140: 5406 02af bfea f23e 3f5c 1cb7 ff2b 9dae
00000150: d1bb 8082 cafd 313a fd69 2703 b739 f934
00000160: 33ad 8582 c2db 8632 0335 1f36 d37b c7b3
00000170: 587a f28a 9c62 0f3e 61c3 683e 71ac efbd
00000180: de12 14af 4906 5da3 4194 1eb8 f840 9e34
00000190: cecf 2639 b2a3 beb3 d3a6 beb0 3be5 840b
000001a0: f868 dcbe cc9f 37b8 f33d 3eaa 2689 0529
000001b0: d235 7ea6 95ba 0193 7479 5123 ff6f 2aa8
000001c0: 2416 abb6 a013 3dba 2db5 899e e25b d9b8
000001d0: a7f5 9e3e ab64 93be 8b19 81bd b10f 5db7
000001e0: b20d 2e00 0fcb 50b9 bb9b d49d d5ef 9f39
000001f0: ffc0 4e39 4f61 f4b6 dd18 87b8 5993 7fbd
00000200: c7bc 18a4 c05f fab8 6785 002a 464a a121
00000210: 98ef ca28 9795 680d c3da a12d 4ad7 2636
00000220: e9c5 052f 91e6 1d16 9c02 2a37 2f23 9e3e
00000230: 2fbb d03e faee 413b abc3 adb5 a775 3580
00000240: 3dea 95b8 cb44 9bb2 a848 3c38 dd15 149b
00000250: 71ff 6a28 f39a 00b6 f75c c13e c109 af04
00000260: 050b 3cb4 84f0 61ac 2cdd 0310 0c09 5d90
00000270: 7fc4 4e3a 0ebd 89b7 eae6 0210 96d8 1f20
00000280: 93d5 c5b0 8b94 d836 b770 13bf fb91 e7be
00000290: 9f28 8d3e a906 c231 d80a cba6 9ec5 3b34
000002a0: bfc9 1f98 fcbd c2b5 9a06 3398 58c9 b794
000002b0: 9e02 27b8 bdbc b4bd 1191 f735 c76a 97b6
000002c0: 15d3 a239 511e 87b5 8301 3d22 d445 5400
000002d0: 7117 30a3 0a7d a992 b2c9 0eb5 585b aeb5
000002e0: dac9 87b9 0fa8 0ebf 1fb3 24bd 22c3 463e
000002f0: 3cc8 ad30 7150 ab2f abcc a1b7 4c65 e9b8
00000300: bff0 3ab6 cbe3 b417 ca6e b931 b4e9 36a4
00000310: bf14 d63c e397 b7b9 2a5c 9e37 e8ee a234
00000320: 4fbe 4e12 76b4 05af e63c bb36 e644 7bad
00000330: 26ce 943a ccb7 2800 f98a dd2f 39f0 7336
00000340: eba0 c1bd bade fcbe ce04 833e fdb1 4b3a
00000350: c8f6 ccb9 0e09 223a 8e8f 2235 6942 dab1
00000360: 7563 2a38 f3df c303 7b69 b3b3 ae0a 30be
00000370: e7bf 9f38 0995 8c9f 91fa 813a ce91 31b9
00000380: c88a 6439 8335 9ea5 8e87 8ab9 1db9 edb0
00000390: 1fa8 2cb2 aebf b7b9 39a3 1b9a a1dc af3e
000003a0: d67a e5be 83eb a8bc 16c6 f131 a500 33b9
000003b0: 666d c8b1 42f0 1ab3 331c cd2f ce39 3d0d
000003c0: b1c2 c933 642d c409 ce7a 883e 4866 3932
000003d0: f2db 01b4 1030 2c87 0620 c820 f9b3 08a6
000003e0: c186 343a 4a86 8d32 b75e 92b5 7b8f 6e38
000003f0: aa7a c512 28a8 a50d 7474 0b3f e506 343f

bond_lin.bias f4 [300]
-0.2772062 0.021789273 0.08812797 -0.15612772 -0.0028373399 0.12606458 -0.11909744 -0.18345605
-0.20360568 -0.07528828 0.17988014 0.251443 0.26438877 0.28306004 0.19569746 0.000674624
-0.0934324 0.08280521 -0.23900847 0.03498585 0.008108436 0.2369657 0.04849082 0.07977011
-0.046624918 -0.21732216 -0.15704902 0.102264225 0.13782634 -0.072588846 -0.22778796 0.070101425
0.2087866 -0.062457625 -0.09015801 0.18987821 -0.10557189 0.008446484 -0.14766124 -0.12364672
0.24919601 -0.040457405 0.14827715 0.16023673 -0.22477329 -0.157322 0.23863564 0.10048432
-0.27632976 0.19306982 0.13643134 -0.019807806 -0.14653938 -0.0023686246 -0.27091172 -0.21648984
0.06344093 0.24686019 -0.22831404 0.25142562 -0.1952424 -0.20781258 0.100812756 0.0992608
-0.08352393 0.11478106 -0.022786165 -0.14740327 -0.23611817 0.1945303 -0.2540529 0.1103764
-0.07764877 -0.21320415 -0.16339727 -0.12459111 -0.028891612 -0.14504471 -0.2062602 -0.1551263
-0.16917989 -0.122164376 -0.08427993 0.46164918 0.08403333 -0.05476641 -0.105471954 -0.07424362
0.25573182 0.12122146 -0.022504274 -0.03268571 0.14510423 -0.112958446 0.19670096 0.031962115
-0.04504223 -0.18988003 -0.2623127 0.17366798 0.10598799 0.06533345 -0.1162362 0.11734824
0.19967279 0.20785418 -0.18984564 -0.05087963 -0.21876292 -0.12832455 0.05339325 0.044095676
-0.23947093 -0.03480855 -0.12526809 -0.06836595 0.043639794 -0.010229603 -0.04694767 0.06485119
-0.055962052 -0.1682328 -0.259223 0.027405 0.015073659 0.09362247 -0.04455065 0.3378786
-0.10216217 0.21770978 -0.09238929 0.20472255 -0.17018053 -0.025945064 -0.16580121 0.1123245
0.050158765 1.05155125e-20 0.084584594 -0.11936983 0.17894195 0.24499168 -0.0051223044 0.099101566
0.14052108 -0.15274079 0.13509636 0.25507826 -0.14872448 0.037205506 0.1562535 0.17434327
0.033609375 0.10895107 0.053552672 0.10729728 -0.0029990885 -0.04111059 -0.11600016 0.27614945
0.14267047 0.20701882 -0.25279558 0.07150308 -0.17426892 0.14009818 0.27136743 0.1234388
-0.07711121 0.018385429 -0.125202 0.13265653 -0.19929934 -0.28017527 -0.09689453 0.25070766
-0.15983672 0.09377136 0.09336734 -0.09789815 0.17751473 0.18443559 -0.018611785 0.0017126742
-0.14986964 0.0895277 -0.12910555 -0.20335077 0.14932 0.13337925 0.10616678 0.15599199
0.2060808 -0.19062679 0.23584712 -0.17807494 -0.05780741 -0.06641368 0.04262681 0.117373675
0.074828066 0.17630497 -0.1725108 0.14603947 -0.24512433 0.121761814 0.06079884 -0.08699082
0.032667905 -0.28007537 0.18696928 -0.17368457 -0.15807515 0.1855889 0.12482773 -0.10243109
0.256294 0.10457441 0.11329357 0.11392284 -0.08904408 0.047923647 -0.09059583 -0.27357584
0.0816428 0.01395439 0.14869389 -0.043667544 0.04122839 0.043248214 -0.06548652 0.10771612
-0.06413288 -0.03711382 0.13657376 -0.09826789 -0.17332217 -0.13932066 0.13319618 0.13712746
0.18115625 0.09581128 -0.14797477 0.026655389 -0.22508077 0.054312907 -0.059866305 0.118909985
0.026449032 0.16339418 0.10505263 -0.21777107 -0.13255058 0.0067212903 0.06819834 0.06675484
00000000: f9ed 8dbe 6b7f b23c 707c b43d f2df 1fbe
00000010: aaf2 39bb 1317 013e 5ce9 f3bd e7db 3bbe
00000020: 027e 50be be30 9abd 8032 383e 23bd 803e
00000030: f75d 873e 3fed 903e ea64 483e 40d9 303a
00000040: 7c59 bfbd c795 a93d a3be 74be 534d 0f3d
00000050: 3fd9 043c 23a7 723e 4f9e 463d 835e a33d
00000060: c5f9 3ebd b389 5ebe 75d1 20be e86f d13d
00000070: 5922 0d3e 76a9 94bd 3f41 69be 5691 8f3d
00000080: 28cc 553e 91d3 7fbd c3a4 b8bd 6f6f 423e
00000090: 1336 d8bd 1f63 0a3c 8234 17be 7e3a fdbd
000000a0: 3d2d 7f3e aab6 25bd f7d5 173e 1915 243e
000000b0: f82a 66be 0519 21be e75c 743e b9ca cd3d
000000c0: 187b 8dbe 18b4 453e a8b4 0b3e fb43 a2bc
000000d0: 6b0e 16be ed3a 1bbb f1b4 8abe 83af 5dbe
000000e0: 51ed 813d ebc8 7c3e 28cb 69be dcba 803e
000000f0: a0ed 47be d2cc 54be eb76 ce3d 3f49 cb3d
00000100: 980e abbd 5512 eb3d 0daa babc e2f0 16be
00000110: f6c8 71be f332 473e 3913 82be 060d e23d
00000120: 5106 9fbd 3052 5abe 9d51 27be a029 ffbd
00000130: 1aae ecbc 9a86 14be e035 53be 6ed9 1ebe
00000140: 7e3d 2dbe 5131 fabd f59a acbd 485d ec3e
00000150: ab19 ac3d be52 60bd ae01 d8bd 0a0d 98bd
00000160: 48ef 823e f542 f83d e25a b8bc 73e1 05bd
00000170: 3496 143e c256 e7bd fa6b 493e b5ea 023d
00000180: 347e 38bd e96f 42be da4d 86be 05d6 313e
00000190: 3b10 d93d 8bcd 853d 3f0d eebd 4654 f03d
000001a0: 0677 4c3e bad7 543e e566 42be 2967 50bd
000001b0: 6303 60be 8367 03be e1b2 5a3d ab9d 343d
000001c0: de37 75be 6993 0ebd 4746 00be 7203 8cbd
000001d0: a4bf 323d 119a 27bc 334c 40bd b3d0 843d
000001e0: 7738 65bd 3845 2cbe e1b8 84be 7380 e03c
000001f0: 82f7 763c 23bd bf3d be7a 36bd 6dfe ac3e
00000200: 663a d1bd 50ef 5e3e 9936 bdbd caa2 513e
00000210: ce43 2ebe be8a d4bc cbc7 29be 630a e63d
00000220: 4773 4d3d e6a1 461e b03a ad3d 2b78 f4bd
00000230: 8f3c 373e 19df 7a3e 01d9 a7bb c3f5 ca3d
00000240: c2e4 0f3e 1568 1cbe b356 0a3e 9e99 823e
00000250: 3b4b 18be cd64 183d eb00 203e 0b87 323e
00000260: fca9 093d bd21 df3d 0c5a 5b3d adbe db3d
00000270: 5b8c 44bb 9463 28bd 7e91 edbd 7663 8d3e
00000280: 3518 123e befc 533e 6c6e 81be 3570 923d
00000290: 8d73 32be e675 0f3e acf0 8a3e 7bcd fc3d
000002a0: 7bec 9dbd 0a9d 963c f434 00be 1dd7 073e
000002b0: 2015 4cbe 2273 8fbe a470 c6bd c15c 803e
000002c0: 3dac 23be 330b c03d 6037 bf3d d37e c8bd
000002d0: 6cc6 353e afdc 3c3e be77 98bc cf7b e03a
000002e0: 6d77 19be 4c5a b73d 3f34 04be 2f3b 50be
000002f0: 58e7 183e 9294 083e f86d d93d 5dbc 1f3e
00000300: d806 533e ab33 43be e881 713e 4759 36be
00000310: 76c7 6cbd e503 88bd 7399 2e3d 9c61 f03d
00000320: 753f 993d 4a89 343e aca6 30be 5f8b 153e
00000330: df01 7bbe 425e f93d 3408 793d 3e28 b2bd
00000340: c8ce 053d 0a66 8fbe e074 3f3e 5eda 31be
00000350: 74de 21be 040b 3e3e aea5 ff3d 64c7 d1bd
00000360: f838 833e 1c2b d63d 7606 e83d 6150 e93d
00000370: be5c b6bd 964b 443d 4e8a b9bd 2212 8cbe
00000380: 5734 a73d f4a0 643c 3643 183e bddc 32bd
00000390: 1adf 283d 0a25 313d cc1d 86bd 459a dc3d
000003a0: 1958 83bd a904 18bd fed9 0b3e ad40 c9bd
000003b0: 5e7b 31be 13aa 0ebe 9464 083e 246b 0c3e
000003c0: 0681 393e b438 c43d b386 17be 675c da3c
000003d0: 937b 66be 3677 5e3d 5f36 75bd 1487 f33d
000003e0: a4ab d83c ce50 273e d525 d73d 61ff 5ebe
000003f0: 57bb 07be 453e dc3b 92ab 8b3d c3b6 883d

energy_lin.1.weight f4 [300, 300]
-0.21929283 0.06110293 -0.05380062 0.011498127 -0.07995171 -0.039135385 -0.06466634 -0.11068957
-0.011386086 -0.1060273 -0.004919804 -0.42893815 -0.047076713 -0.2070743 0.14018485 0.051668465
-0.13235871 -0.14953166 -0.023313656 0.029658347 -0.03929437 0.17881079 0.17619178 -0.145661
0.11191342 -0.22678572 0.042682387 0.017658621 0.121723585 0.017072728 0.09101643 -0.103702955
0.02837835 0.052887924 0.0368586 -0.0016539061 0.013248739 0.06357117 0.071134984 -0.07428445
0.12654004 0.029918615 0.00079150434 -0.08785793 0.08427131 -0.040364634 0.0017633742 0.048521765
0.075317286 0.119627 -0.09841897 -0.10766519 0.028270848 0.02251696 -0.13990147 0.041785102
-0.021505121 -0.11698363 0.028506553 0.08285143 0.064897664 -0.02694225 0.01139403 0.04942013
-0.13773057 -0.09239677 -0.021240469 -0.08363596 -0.11202947 -0.101158835 0.07579668 0.13167945
-0.06507959 -0.022766372 0.034614585 0.03545541 -0.10916427 0.06909684 -0.17901672 0.00020201012
0.035783477 0.0273827 0.12803301 -0.34993458 0.041476984 -0.14932099 0.048233263 -0.025454976
-0.07111798 0.031130526 -0.17380962 -0.08653018 0.113342665 -0.02976848 0.13627987 0.033483896
0.08822577 -0.11414741 0.17656143 0.1817443 -0.042897508 -0.046407208 0.12904766 0.09371927
0.04686152 0.20290309 0.018630477 -0.1067845 0.025966294 -0.027538942 0.0850142 -0.01109548
0.09786655 0.07348135 -0.14323866 0.15306433 0.1825373 0.14372696 0.13005474 -0.0861113
-0.027192228 0.011468059 0.019734172 -0.031007534 0.045320287 -0.005883159 0.0015359591 0.21902275
-0.12701382 -0.09437922 0.051117014 0.03210766 0.039066043 -0.020126713 -0.042498283 -0.10360843
0.10151846 3.0031068e-27 -0.120495334 -0.036436997 -0.12554045 0.05035375 0.061805017 0.012912928
-0.0032092906 -0.0022215843 0.029725855 0.1521033 -0.0021504816 0.10319643 -0.13913202 0.0073449295
0.041364048 -0.0034646876 -0.011157458 -0.13057376 -0.06239432 -0.011015597 -0.019062351 -0.17185353
0.046240047 0.12811106 -0.08009 0.027964387 -0.00054187234 0.089830324 0.08375865 0.09863545
0.103468545 0.04205008 0.05726815 -0.06013248 -0.12923156 0.07541623 0.092843816 0.10990765
-0.16022182 -0.015297296 0.12558223 -0.045319617 -0.085700005 -0.014411267 0.04263522 0.0740408
0.10063274 0.04240524 0.09292155 -0.080174215 0.19237845 -0.044702567 -0.117314875 0.04803237
-0.0049236314 -0.19547598 0.014332594 0.06639069 0.058836903 -0.11667021 0.065736294 -0.13631947
0.14982772 -0.026758239 0.029068945 0.14474379 0.12824829 0.026901973 0.13523236 -0.08991851
-0.07007461 0.032221362 0.062947586 0.004115328 0.10078348 0.115471445 -0.15337893 0.07109005
-0.035868462 0.050292 -0.11525115 -0.07660776 -0.05140361 0.06185588 -0.0049877623 -0.16428876
0.027564079 0.01766481 0.078363016 0.1596625 0.08237769 0.03498144 0.018026927 0.055721845
0.0057766214 0.015850265 -0.018614914 0.023789806 0.13143253 -0.08490409 0.11973128 -0.02955234
-0.011279366 -0.053516053 -0.04561668 -0.10825093 0.053083807 0.106158085 0.094797954 -0.09270317
-0.06799489 0.046206184 0.09878593 -0.17857021 -0.06918917 0.13689624 -0.029932417 -0.041676193
00000000: 4d8e 60be 1147 7a3d 0a5e 5cbd a462 3c3c
00000010: b9bd a3bd 6d4c 20bd c96f 84bd 37b1 e2bd
00000020: b58c 3abc d724 d9bd 4f36 a1bb c89d dbbe
00000030: 83d3 40bd 490b 54be 9e8c 0f3e 50a2 533d
00000040: 0b89 07be d41e 19be 48fc bebc 10f6 f23c
00000050: 22f3 20bd 2d1a 373e 9e6b 343e 2828 15be
00000060: dd32 e53d 843a 68be bad3 2e3d d0a8 903c
00000070: 374a f93d 1bdc 8b3c d266 ba3d 3762 d4bd
00000080: b779 e83c 02a1 583d 0bf9 163d e1c7 d8ba
00000090: 3d11 593c 9a31 823d 38af 913d 7222 98bd
000000a0: b693 013e e217 f53c f57c 4f3a dcee b3bd
000000b0: 7096 ac3d 6355 25bd 0521 e73a c2be 463d
000000c0: f33f 9a3d 00ff f43d e38f c9bd 917f dcbd
000000d0: 4498 e73c 7d75 b83c 5542 0fbe db26 2b3d
000000e0: 822b b0bc 1d95 efbd 9386 e93c 03ae a93d
000000f0: 11e9 843d feb5 dcbc 07ae 3a3c c36c 4a3d
00000100: 3e09 0dbe 853a bdbd 7e00 aebc 5549 abbd
00000110: b56f e5bd 5d2c cfbd 4a3b 9b3d fad6 063e
00000120: 7348 85bd 8b80 babc 06c8 0d3d b139 113d
00000130: 8491 dfbd a582 8d3d 2950 37be aed2 5339
00000140: b291 123d af51 e03c 161b 033e a02a b3be
00000150: c5e3 293d 9ae7 18be 3e90 453d f486 d0bc
00000160: 4ea6 91bd 7205 ff3c 26fb 31be bc36 b1bd
00000170: 3320 e83d 07dd f3bc f38c 0b3e 6926 093d
00000180: b6af b43d 1ec6 e9bd 85cc 343e 2e1b 3a3e
00000190: 4cb5 2fbd 7c15 3ebd 1225 043e e3ef bf3d
000001a0: ddf1 3f3d d4c5 4f3e f19e 983c d5b1 dabd
000001b0: 44b7 d43c 5999 e1bc ed1b ae3d d1c9 35bc
000001c0: 426e c83d 647d 963d 28ad 12be e5bc 1c3e
000001d0: 0feb 3a3e 292d 133e 122d 053e 1f5b b0bd
000001e0: 3cc2 debc 87e4 3b3c 8fa9 a13c 8303 febc
000001f0: c4a1 393d 84c7 c0bb 3c52 c93a 8047 603e
00000200: e90f 02be e449 c1bd 1360 513d 5283 033d
00000210: b703 203d c7e0 a4bc ae12 2ebd a830 d4bd
00000220: e9e8 cf3d 3eee 6d13 42c6 f6bd f63e 15bd
00000230: ad8d 00be bc3f 4e3d 4227 7d3d bf90 533c
00000240: f652 52bb 0098 11bb a383 f33c f8c0 1b3e
00000250: 18ef 0cbb a658 d33d a078 0ebe bcad f03b
00000260: 596d 293d d00f 63bb c5cd 36bc 21b5 05be
00000270: 3091 7fbd c37a 34bc a628 9cbc 5ffa 2fbe
00000280: 3466 3d3d 8c2f 033e 3a06 a4bd 9215 e53c
00000290: 700c 0eba f6f8 b73d a889 ab3d 6201 ca3d
000002a0: 51e7 d33d b43c 2c3d 0292 6a3d 7a4d 76bd
000002b0: 4755 04be d373 9a3d e624 be3d 4317 e13d
000002c0: 3011 24be 83a1 7abc a198 003e 10a1 39bd
000002d0: 7c83 afbd 3c1d 6cbc 45a2 2e3d b4a2 973d
000002e0: 8a18 ce3d 1eb1 2d3d a74d be3d 6132 a4bd
000002f0: dbfe 443e 0a1a 37bd c842 f0bd 97bd 443d
00000300: 6a56 a1bb db2a 48be 42d3 6a3c d8f7 873d
00000310: f7fe 703d cbf0 eebd c0a0 863d 5597 0bbe
00000320: 706c 193e 1834 dbbc ff21 ee3c b737 143e
00000330: 8553 033e 8761 dc3c 5a7a 0a3e 3227 b8bd
00000340: 4783 8fbd 8cfa 033d aaea 803d e0d9 863b
00000350: 9267 ce3d 4b7c ec3d 5e0f 1dbe a997 913d
00000360: cfea 12bd fcfe 4d3d cc08 ecbd 87e4 9cbd
00000370: 978c 52bd 975c 7d3d 6270 a3bb 503b 28be
00000380: 10ce e13c cbb5 903c ca7c a03d 917e 233e
00000390: a2b5 a83d b348 0f3d 35ad 933c 973c 643d
000003a0: d049 bd3b 6ad8 813c 4e7e 98bc d7e2 c23c
000003b0: 4096 063e 32e2 adbd ac35 f53d c017 f2bc
000003c0: 17cd 38bc a633 5bbd 8ed8 3abd aab2 ddbd
000003d0: 686e 593d 6969 d93d 6e25 c23d 29db bdbd
000003e0: e840 8bbd b242 3d3d 4750 ca3d 1cdb 36be
000003f0: 0db3 8dbd 872e 0c3e d434 f5bc a8b4 2abd

energy_lin.1.bias f4 [300]
0.05474589 0.06917503 0.05662196 0.124062695 0.029229136 0.02145611 -0.019725462 0.06299394
0.045221955 0.005764159 -0.012739104 0.11123637 -0.02008349 -0.007398674 0.055087343 0.025403803
-0.036245596 -0.008452837 0.02807728 0.04692549 -0.0006541402 0.049761835 0.06770243 0.03677803
0.002639125 0.041339263 -0.040285498 0.021490982 -0.025939016 -0.034929976 0.018862158 -0.041784465
0.0011581241 -0.018578626 -0.002969121 0.024029149 -0.029783655 0.07574735 0.0058446843 -0.050886683
0.04699524 0.0414668 0.07500924 0.069104336 0.03978559 0.05856397 0.052257873 0.06723254
0.048699677 0.006416207 0.0070556784 0.022203064 -0.036259096 -0.005455405 -0.028275603 0.08704101
0.00078122964 -7.052804e-06 0.024059204 0.056091137 0.026155325 0.040828813 0.034799125 0.011688127
-0.04911344 0.015575617 0.033698343 -0.016359795 0.026818724 0.039772745 -0.014471729 0.043675985
-0.024596877 0.008979444 0.054671116 0.005720207 0.01484017 -0.05146247 -0.029953256 0.06456949
-0.006321677 0.0051652547 0.06922415 0.0479902 -0.035251066 0.04048675 0.038849317 0.07899588
0.06835778 0.07200008 -0.0139021315 0.010741757 0.01696215 0.05932081 0.030254398 -0.004925272
0.06978547 -0.0075282645 -2.2202275e-14 0.072684646 0.063039646 0.061086934 0.005472472 -0.016407164
0.047662184 -0.008989873 -0.024277853 0.063563496 0.046208296 0.014367919 0.070098676 0.022298018
0.06289055 0.042305563 0.015219325 0.0071341246 0.051117096 0.069399886 0.08722442 -0.039760508
0.0013686849 -0.016241405 -0.0033621665 -0.04653447 0.0381132 0.027316244 -0.019859273 -0.020363284
0.014921057 0.065252155 0.04278128 0.008642387 0.015475541 0.028180685 0.053771447 0.03051029
0.03949405 0.0194757 -0.03734485 -0.000404538 0.05733615 0.055544097 -2.976418e-19 0.023648584
0.021436948 -0.044212837 0.028743371 0.029112784 0.040515013 0.04790181 0.020324487 0.058589686
0.05684106 -0.05448541 -0.033372566 0.0058031967 0.04366332 0.071264155 0.0067617022 -0.02518908
-0.022963798 0.09701244 -0.019126598 0.032548472 0.07853844 -0.037430022 -0.031920128 0.0065515423
-0.033026047 0.062155638 -0.029814703 -0.032290865 0.061109446 0.042540953 0.0064754356 0.054943472
0.03574778 -0.023558507 0.031096151 0.0825242 0.03661192 0.017704986 -0.02044604 0.009178279
-0.0016960155 0.004602528 -0.022549465 0.023408616 -0.011330265 -0.0014295127 -0.012138237 0.012793172
-0.010179547 0.030204128 0.0032127532 -0.0142752435 0.02763691 0.0049931207 0.040081672 0.061995856
-0.016728783 -0.04275003 0.033878297 0.05183516 -0.025384996 0.031148918 0.008790655 0.0146740945
0.047690887 0.03489515 0.0676159 0.05131999 -0.029369159 -0.026807295 0.06658619 0.00020204257
-0.032276012 0.032131415 0.07777948 0.011230909 5.4463326e-05 -0.048351426 0.04957108 -0.066143766
0.01746792 -0.017702917 0.051389214 0.019532282 0.0504381 -0.008770816 0.00715478 0.0019863695
0.042064693 -0.009679163 0.03850799 0.033752616 -0.00852658 0.054334424 0.018455286 0.058502026
0.05786333 0.005749439 -0.02534091 -0.012481269 0.08105056 -0.0462381 0.05762694 -0.0082376525
0.07188558 -0.0133521445 -0.010106841 -0.029199217 0.037911862 0.001765559 0.013742539 -0.009539535
00000000: 3a3d 603d a3ab 8d3d 6eec 673d 9514 fe3d
00000010: f171 ef3c b9c4 af3c 4b97 a1bc f802 813d
00000020: a83a 393d 45e1 bc3b adb7 50bc e5cf e33d
00000030: 2286 a4bc 9370 f2bb 44a3 613d a31b d03c
00000040: 4376 14bd c57d 0abc 5302 e63c f134 403d
00000050: 9b7a 2bba 11d3 4b3d 92a7 8a3d 8fa4 163d
00000060: 2cf5 2c3b 5c53 293d 6802 25bd db0d b03c
00000070: 0f7e d4bc bc12 0fbd d084 9a3c 3026 2bbd
00000080: 32cc 973a 3432 98bc 9695 42bb c7d8 c43c
00000090: dafc f3bc 6d21 9b3d c484 bf3b 8e6e 50bd
000000a0: 157e 403d 17d9 293d 729e 993d 9386 8d3d
000000b0: 37f6 223d c6e0 6f3d 5a0c 563d 37b1 893d
000000c0: 5079 473d 0c3f d23b 5233 e73b 33e3 b53c
000000d0: 6b84 14bd 41c3 b2bb 3da2 e7bc 8f42 b23d
000000e0: 6fcb 4c3a 20a7 ecb6 cf17 c53c d2bf 653d
000000f0: b143 d63c 1d3c 273d 8789 0e3d 8f7f 3f3c
00000100: 2d2b 49bd df30 7f3c 4607 0a3d fa04 86bc
00000110: f1b2 db3c bfe8 223d d51a 6dbc 97e5 323d
00000120: 647f c9bc 851e 133c d2ee 5f3d 9370 bb3b
00000130: 2f24 733c 50ca 52bd 8860 f5bc 023d 843d
00000140: 1226 cfbb 4c41 a93b 64c5 8d3d 5f91 443d
00000150: 6c63 10bd 6fd5 253d 7620 1f3d 98c8 a13d
00000160: 2aff 8b3d c774 933d c4c5 63bc 32fe 2f3c
00000170: 35f4 8a3c 61fa 723d 12d8 f73c 2d64 a1bb
00000180: afeb 8e3d a9af f6bb f6fa c7a8 b0db 943d
00000190: ee1a 813d 4b36 7a3d 6c52 b33b 5168 86bc
000001a0: 6c39 433d 434a 13bc 59e2 c6bc 942d 823d
000001b0: e944 3d3d 6c67 6b3c e58f 8f3d 55aa b63c
000001c0: c3cc 803d 9948 2d3d 7a5a 793c 60c5 e93b
000001d0: 2960 513d 8721 8e3d b7a2 b23d eadb 22bd
000001e0: 7265 b33a b20c 85bc cb57 5cbb ee9a 3ebd
000001f0: 961c 1c3d 51c6 df3c eaaf a2bc e7d0 a6bc
00000200: 7377 743c eca2 853d 6c3b 2f3d cc98 0d3c
00000210: 208d 7d3c 2edb e63c 733f 5c3d b7f0 f93c
00000220: 83c4 213d 818b 9f3c eaf6 18bd 2c18 d4b9
00000230: 50d9 6a3d 3582 633d 5bb2 afa0 adba c13c
00000240: 8a9c af3c 8518 35bd 3877 eb3c ef7d ee3c
00000250: 12f3 253d b034 443d 8a7f a63c bdfb 6f3d
00000260: 2cd2 683d 182c 5fbd acb1 08bd be28 be3b
00000270: 4fd8 323d f1f2 913d 4591 dd3b 5459 cebc
00000280: 931e bcbc 75ae c63d 62af 9cbc 8c51 053d
00000290: c3d8 a03d 3950 19bd aebe 02bd 52ae d63b
000002a0: 5246 07bd e996 7e3d f73d f4bc 6d43 04bd
000002b0: e64d 7a3d 6c3f 2e3d e42f d43b 680c 613d
000002c0: 446c 123d c5fd c0bc 5bbd fe3c 7302 a93d
000002d0: 61f6 153d 0c0a 913c 747e a7bc 7e60 163c
000002e0: d64c deba ced0 963b a8b9 b8bc 6dc3 bf3c
000002f0: 93a2 39bc 7d5e bbba 75df 46bc 749a 513c
00000300: 1dc8 26bc a66e f73c 0e8d 523b b6e2 69bc
00000310: cd66 e23c 559d a33b ae2c 243d 5eef 7d3d
00000320: cd0a 89bc a81a 2fbd f8c3 0a3d 1b51 543d
00000330: 32f4 cfbc 042c ff3c ae06 103c 9d6b 703c
00000340: 8557 433d 38ee 0e3d 347a 8a3d e934 523d
00000350: 9797 f0bc f99a dbbc 575e 883d 64db 5339
00000360: da33 04bd 3b9c 033d d94a 9f3d d901 383c
00000370: 8d6f 6438 250c 46bd 0b0b 4b3d 6276 87bd
00000380: e218 8f3c b505 91bc 7f7d 523d 2a02 a03c
00000390: 2e98 4e3d 78b3 0fbc a572 ea3b c02d 023b
000003a0: 074c 2c3d 5a95 1ebc 8eba 1d3d 2f40 0a3d
000003b0: 12b3 0bbc c68d 5e3d 8a2f 973c d29f 6f3d
000003c0: 1902 6d3d ca65 bc3b bd97 cfbc 3d7e 4cbc
000003d0: d6fd a53d 2964 3dbd 3a0a 6c3d 38f7 06bc
000003e0: bf38 933d f4c2 5abc 2a97 25bc 3233 efbc
000003f0: 7849 1b3d 546a e73a 6328 613c b64b 1cbc

energy_lin.3.weight f4 [150, 300]
0.1619757 -0.11825604 0.09383491 -0.24497755 -0.04513705 -0.005984271 -0.0011661277 0.012087351
0.08924902 -0.23979197 -0.0705872 0.15763074 0.31923816 -0.068346255 -0.08233364 -0.09207051
0.05923527 0.031095982 -0.1195865 0.070821255 -0.038595486 0.063909724 0.011383664 0.26085702
0.16507964 0.12520772 -0.02017816 0.0477876 -0.07257048 -0.08575896 0.08818306 -0.0014363907
-0.035621643 -0.060018197 0.011120264 0.076070316 0.21315178 0.029783279 0.0014397777 0.5092589
0.03292971 0.052597452 -0.019440174 0.08732737 0.094572656 -0.01022349 -0.14326264 0.0457024
0.00092445844 0.0019254617 0.1501111 0.013130806 -0.015732065 0.038812872 0.020675642 0.11505125
0.007347629 -2.3825163e-26 0.053610746 0.1605706 0.070018254 0.011086565 -0.00028041622 -0.05349562
0.5463888 -0.038300067 0.041901495 -0.07785023 -0.0809267 -0.026082763 0.13696793 -0.0971481
0.007283369 -0.03279756 0.05815454 -0.10562722 -0.012866679 -0.13529222 -0.025740566 0.09812947
0.004858208 0.009879469 -0.021770352 0.06184329 -0.026736392 0.009095311 -0.114530124 0.016951585
-0.045097925 0.069299124 0.017602928 0.013234331 0.026570167 0.29314682 4.912462e-39 0.0036053488
0.063743755 -0.009843653 0.00011841694 0.01188213 0.09468811 0.081812434 0.10439303 0.015452015
-0.056410413 0.19063352 0.017952234 0.054101165 0.009504843 -0.058978476 0.05149232 0.1310877
-0.051190656 -0.054318007 0.046600655 -0.067460015 -0.021172639 -0.014235269 0.088816755 0.11118516
0.058968317 -0.0050947764 -0.17623168 -0.09112695 0.037048213 0.049093205 -0.009188924 0.02596818
0.009945784 -0.0317422 0.010538034 0.13057002 0.0061906367 0.018674016 0.0920628 0.05070573
0.22755529 -0.002447053 0.0386327 -0.06472372 -0.007886582 -0.16618931 2.790553e-19 0.28672495
-0.12579805 -0.036157496 -0.0027850736 0.0250647 0.01269431 0.22283417 0.1272255 0.027594749
0.10424108 -0.52918684 -0.024781622 -8.4432035e-24 -0.04006993 -0.02267039 0.12009061 -0.021378439
0.059051637 0.27243063 -0.11065398 -0.02599263 0.037511297 0.03280857 0.012868953 0.24088334
-0.06445857 -0.010611382 -0.03291411 -0.09290536 0.06467964 0.19090593 -0.05292113 -0.03932016
-0.088279136 0.3433933 -0.06745735 0.2387356 0.092666194 0.34614518 0.0983663 0.027607717
0.1892228 0.04167619 0.028518667 0.036054436 0.034990173 -0.0041283197 -0.075896956 -0.6405296
-0.003381866 -0.11404714 -0.077195205 0.10198906 0.24908775 0.005840247 -0.050010197 -0.05895528
-0.03492409 0.52135915 -0.0006026588 -0.062761046 0.53499603 -0.023915838 0.06208071 -0.005368992
-0.11085624 0.25778466 0.011637784 -0.11612744 -0.0488366 0.060511533 0.028894404 -0.010473054
0.04749811 0.009198507 0.23015776 -0.10306521 0.5426238 0.15472534 -0.28838375 -0.08310087
-0.07740732 -0.07518574 0.36032692 0.04525684 0.11467773 0.06364556 -0.14640453 0.03641701
-0.036879487 0.33302918 0.039445356 -1.3607843e-12 -0.009627872 -0.016011668 0.004724918 0.0003969571
0.096973516 -0.033789895 -0.18051219 0.08744271 0.009883348 -0.23882538 -0.06533566 -0.06516268
0.041555665 0.14989668 0.012955104 4.907043e-39 0.1377845 0.06322515 0.07711824 -0.017349059
00000000: f5dc 253e 3930 f2bd 842c c03d 65db 7abe
00000010: a1e1 38bd b417 c4bb c1d8 98ba 060a 463c
00000020: 31c8 b63d 078c 75be 0690 90bd f469 213e
00000030: 2f73 a33e 1ff9 8bbd 8a9e a8bd 778f bcbd
00000040: afa0 723d 00bd fe3c c4e9 f4bd bc0a 913d
00000050: 4d16 1ebd 1ae3 823d 8c82 3a3c 0d8f 853e
00000060: a30a 293e 7436 003e ab4c a5bc eebc 433d
00000070: d59f 94bd 65a2 afbd 5299 b43d 4645 bcba
00000080: 00e8 11bd a4d5 75bd c531 363c c1ca 9b3d
00000090: 7644 5a3e 10fc f33c ecb6 bc3a cb5e 023f
000000a0: 4ee1 063d 6d70 573d 0041 9fbc b1d8 b23d
000000b0: 4faf c13d 6d80 27bc 71b3 12be 7132 3b3d
000000c0: 5b57 723a c65f fc3a b9b6 193e 9822 573c
000000d0: 88e0 80bc 3ffa 1e3d f75f a93c fd9f eb3d
000000e0: 61c4 f03b f7f3 eb94 f196 5b3d 9f6c 243e
000000f0: bb65 8f3d 6da4 353c d404 93b9 391e 5bbd
00000100: 23e0 0b3f 88e0 1cbd e7a0 2b3d f16f 9fbd
00000110: e6bc a5bd 85ab d5bc 5241 0c3e 95f5 c6bd
00000120: 54a9 ee3b bc56 06bd 7433 6e3d 1553 d8bd
00000130: c3ce 52bc 0b8a 0abe e1dd d2bc 1bf8 c83d
00000140: 9a31 9f3b 7fdd 213c bd57 b2bc 644f 7d3d
00000150: 4706 dbbc 8004 153c c58e eabd 0dde 8a3c
00000160: 9ab8 38bd b3ec 8d3d 0434 903c cfd4 583c
00000170: aea9 d93c 5717 963e f27d 3500 b747 6c3b
00000180: 168c 823d 4647 21bc 9c56 f838 44ad 423c
00000190: d7eb c13d 478d a73d 03cc d53d 732a 7d3c
000001a0: 9b0e 67bd 6f35 433e 9010 933c 2f99 5d3d
000001b0: 33ba 1b3c 6a93 71bd 9ce9 523d db3b 063e
000001c0: 4bad 51bd 8f7c 5ebd 54e0 3e3d 7a28 8abd
000001d0: 3e72 adbc 0c3b 69bc 8fe5 b53d 0cb5 e33d
000001e0: c388 713d 15f2 a6bb 1476 34be c4a0 babd
000001f0: debf 173d f515 493d 248d 16bc 38bb d43c
00000200: a4f3 223c 1c04 02bd b8a7 2c3c 26b4 053e
00000210: d3da ca3b 40fa 983c 6c8b bc3d d0b0 4f3d
00000220: 4104 693e bd5e 20bb 523d 1e3d df8d 84bd
00000230: b936 01bc 882d 2abe a5b9 a420 9dcd 923e
00000240: 34d1 00be e219 14bd c885 36bb 7c54 cd3c
00000250: ccfb 4f3c a42e 643e 6747 023e 620e e23c
00000260: 597c d53d ca78 07bf d402 cbbc b850 2399
00000270: 5e20 24bd 41b7 b9bc 11f2 f53d d621 afbc
00000280: 21e0 713d 077c 8b3e 8e9e e2bd 7fee d4bc
00000290: 72a5 193d 4762 063d 4dd8 523c 1faa 763e
000002a0: db02 84bd 5ddb 2dbc f2d0 06bd 2a45 bebd
000002b0: c276 843d d87c 433e d4c3 58bd 2d0e 21bd
000002c0: b1cb b4bd 3fd1 af3e 1427 8abd 1b77 743e
000002d0: c6c7 bd3d f139 b13e 4574 c93d 9429 e23c
000002e0: 9fc3 413e a7b4 2a3d fb9f e93c d1ad 133d
000002f0: db51 0f3d db46 87bb dd6f 9bbd bff9 23bf
00000300: 4ca2 5dbb 8c91 e9bd 8518 9ebd a4df d03d
00000310: dc10 7f3e 8b5f bf3b 7ed7 4cbd 177b 71bd
00000320: 900c 0fbd cb77 053f bffb 1dba dd88 80bd
00000330: 80f5 083f 26eb c3bc 5848 7e3d 5fee afbb
00000340: 9908 e3bd 5afc 833e 67ac 3e3c 39d4 edbd
00000350: e308 48bd f1da 773d f5b3 ec3c 2c97 2bbc
00000360: 618d 423d 56b5 163c 7aae 6b3e da13 d3bd
00000370: 65e9 0a3f 5270 1e3e 09a7 93be ca30 aabd
00000380: bb87 9ebd fbfa 99bd c57c b83e 3c5f 393d
00000390: 28dc ea3d 9a58 823d 12eb 15be 012a 153d
000003a0: f20e 17bd cd82 aa3e 7491 213d 6c83 bfab
000003b0: 39be 1dbc e72a 83bc 7cd3 9a3b ae1e d039
000003c0: 0d9a c63d 4667 0abd 30d8 38be 2a15 b33d
000003d0: c4ed 213c a48e 74be b4ce 85bd 0374 85bd
000003e0: 4636 2a3d 847e 193e a541 543c d76e 3500
000003f0: 6117 0d3e 307c 813d 2bf0 9d3d 9d1f 8ebc

energy_lin.3.bias f4 [150]
0.09756634 0.016050197 0.036166433 -0.01681253 0.03871778 -0.028999774 0.024990505 0.047775365
0.051438347 0.048634432 0.04948915 0.032635864 -0.02028276 -0.032737903 0.043158446 0.098111056
-0.0027972187 0.037529454 0.03228877 0.012554696 0.040006876 -0.00418226 0.035999082 -0.04203177
0.04141603 -0.010179298 0.09073198 -0.022860685 0.0050940677 0.056558784 0.022063164 -0.0015294612
0.0036331336 -0.04753958 0.053959135 -0.02284887 0.025054695 0.0641164 -0.0064836373 -0.02749238
0.092728294 -0.041187216 0.025791533 0.065499224 -0.017325293 0.013342965 0.039189138 0.054643158
0.04875477 -2.8428043e-11 0.1274135 0.0668723 -0.01574543 0.05628417 0.0045120423 -0.0051852576
0.01856655 0.03918041 0.022370815 -0.012884279 0.008682124 -0.019701198 0.019299721 -0.029310497
-0.05620493 -0.013167198 0.033902336 0.02539972 -0.03059249 0.0027009163 0.010646618 0.013065846
0.05147164 -0.032836244 0.025605485 -0.019981457 -0.036953714 -0.023155885 0.043689262 -0.007116236
-0.03823091 -0.030624935 -0.0059912973 0.005006259 -0.028346404 0.041832693 0.07103168 0.044688217
0.029152852 -0.046024337 0.05353843 0.026791178 -0.015747884 0.021769451 -0.014262341 0.05527259
8.928773e-34 -0.027738752 -0.011800022 0.057865202 0.011929596 -0.032806695 -0.010748895 0.060065202
-0.0011695428 -0.0019215159 -0.02537055 0.037138127 0.049408957 0.012334451 -0.019483285 -0.023139387
0.072417185 -0.0054662125 0.053561736 0.066368476 4.904794e-39 -0.0007309668 0.035970442 0.059699386
-0.0040654168 -0.04808939 0.00396055 -0.0020161404 0.0112343235 0.019846447 0.048112612 -0.0051019024
-0.013199596 0.0037732632 -0.018039046 -0.00013971503 0.0289079 0.030996999 -0.023371067 0.014356204
-0.024695853 0.03499766 0.050426487 -0.024174385 0.04619673 -0.030076878 -0.028306542 0.048009016
0.04089466 0.0076469234 0.044298526 -0.00059555384 0.043466102 -0.025332578
00000000: dcd0 c73d b47b 833c 4123 143d 6eba 89bc
00000010: 8996 1e3d ef90 edbc e3b8 cc3c 1ab0 433d
00000020: 04b1 523d e634 473d 23b5 4a3d 2fad 053d
00000030: 0828 a6bc 2e18 06bd e9c6 303d 73ee c83d
00000040: 8b51 37bb 7cb8 193d 3b41 043d 36b2 4d3c
00000050: 40de 233d 570b 89bb c673 133d 8129 2cbd
00000060: dba3 293d 12c7 26bc b0d1 b93d 5546 bbbc
00000070: 23ec a63b 2faa 673d cfbd b43c 3478 c8ba
00000080: de19 6e3b ddb8 42bd 4104 5d3d 8e2d bbbc
00000090: 813f cd3c 764f 833d b174 d4bb b337 e1bc
000000a0: 55e8 bd3d edb3 28bd c448 d33c 7524 863d
000000b0: c6ed 8dbc 749c 5a3c ca84 203d 81d1 5f3d
000000c0: 15b3 473d 430e faad af78 023e 58f4 883d
000000d0: 8ffc 80bc 3b8a 663d c1d9 933b 18e9 a9bb
000000e0: e118 983c a37b 203d 0043 b73c 9518 53bc
000000f0: 783f 0e3c 6864 a1bc 731a 9e3c 911c f0bc
00000100: 2437 66bd 3bbb 57bc 2ddd 0a3d 1313 d03c
00000110: 1a9d fabc db01 313b 276f 2e3c 2112 563c
00000120: edd3 523d 4c7f 06bd 98c2 d13c 27b0 a3bc
00000130: c75c 17bd 69b1 bdbc 83f3 323d 502f e9bb
00000140: 0498 1cbd 25e1 fabc a552 c4bb 8b0b a43b
00000150: b836 e8bc c258 2b3d 0f79 913d fe0a 373d
00000160: f6d1 ee3c 0484 3cbd 1d4b 5b3d 2c79 db3c
00000170: b501 81bc d955 b23c 98ac 69bc 8365 623d
00000180: cd5a 9408 613c e3bc e154 41bc 1004 6d3d
00000190: 5a74 433c 5060 06bd 221c 30bc ee06 763d
000001a0: 584b 99ba 60db fbba e6d5 cfbc 261e 183d
000001b0: 0c61 4a3d 7016 4a3c 699b 9fbc d08e bdbc
000001c0: 764f 943d ea1d b3bb 8d63 5b3d 32ec 873d
000001d0: 9268 3500 5a9e 3fba be55 133d 5887 743d
000001e0: 3037 85bb 61f9 44bd 80c7 813b 3921 04bb
000001f0: 2b10 383c 0495 a23c bb11 453d dc2d a7bb
00000200: 1e43 58bc da48 773b 9fc6 93bc 7880 12b9
00000210: 43d0 ec3c 6bed fd3c ae74 bfbc 4936 6b3c
00000220: f54e cabc b559 0f3d 018c 4e3d 5c09 c6bc
00000230: c838 3d3d c963 f6bc 1fe3 e7bc 1aa5 443d
00000240: 2981 273d 0b93 fa3b 5f72 353d f11e 1cba
00000250: 8309 323d 4486 cfbc
