models/mpnn_A139_B23_E300_L2/43.pt (torch, 742651 bytes, 9 tensors)

atom_lin.weight f4 [300, 139]
0.068063766 0.16428505 -5.631107e-17 3.7999033e-27 -1.06565846e-19 -1.2592929e-14 0.13229045 -0.25074226
0.15031488 -0.074173965 -2.33828e-15 8.828703e-23 -4.907978e-39 -1.330191e-19 2.120078e-25 0.052061606
-0.020917667 -0.21362196 -5.5059073e-15 -5.166061e-15 -5.70676e-14 -3.424153e-16 5.181431e-29 -6.844968e-35
1.0938924e-15 -0.14204912 -4.3620672e-05 -0.15171388 4.909444e-39 2.5425088e-24 -3.1845283e-28 -1.2811147e-38
-6.4757746e-24 -4.917959e-39 -1.9108038e-18 -0.07151096 4.8695993e-16 -4.7452863e-24 -3.1909758e-23 2.4354635e-21
4.422358e-39 -2.76044e-19 2.6914473e-24 -1.3025775e-15 1.953801e-33 4.285541e-15 1.292411e-32 1.9344018e-23
-2.545926e-36 3.067535e-28 5.753715e-30 -3.0247089e-30 -6.229833e-17 -0.28787526 -1.2340466e-15 -1.4610641e-31
-4.916974e-39 1.405666e-35 1.8227105e-33 4.2579534e-35 4.912417e-39 4.91749e-39 -3.9911176e-15 -1.992123e-16
7.865253e-28 -5.1409204e-14 -8.799673e-27 -3.273505e-17 4.3028503e-19 -1.2803055e-13 4.499669e-30 -1.0355463e-21
4.2249635e-18 6.7448593e-25 6.5921084e-19 -3.117662e-39 -7.32515e-14 2.4061064e-15 9.06051e-19 -2.520014e-16
8.8141884e-30 -1.2824689e-34 -4.917055e-39 4.917608e-39 2.1221098e-33 -8.819447e-17 4.917281e-39 -8.942644e-35
-4.912762e-39 -4.914582e-39 -2.861191e-17 1.4820877e-26 8.768703e-20 -4.0782768e-26 -3.141765e-24 -1.2645531e-23
-2.3796193e-14 -2.1633711e-36 -1.1094379e-15 1.8221984e-18 5.797588e-14 -7.2458777e-16 1.3045136e-16 -2.0539034e-26
-1.1287377e-27 1.5755533e-30 7.4110064e-14 -3.511606e-16 7.885132e-26 4.252959e-14 -5.96338e-40 -1.5219432e-21
6.2439535e-20 -2.1109684e-14 1.9382475e-19 -9.6761016e-24 -4.019955e-39 -2.1067232e-21 -1.592951e-15 -0.023861026
-0.07825366 0.07322931 0.059760362 0.21806048 7.8157e-33 -0.21071638 3.0836886e-16 1.7961347e-21
-0.10935608 -0.15785816 0.030546885 0.082759984 -4.912602e-39 0.15808827 -1.7557474e-20 1.740549e-24
-2.0245239e-16 2.2360558e-16 0.094355956 -0.087408006 0.11584622 -5.1715988e-27 -9.126476e-16 -9.413323e-18
8.682929e-33 0.1256712 0.07294785 0.2353798 0.016115066 -1.2534365e-17 1.8715979e-26 0.25865108
7.307796e-28 2.2728843e-32 0.11737995 0.11673236 0.007953157 -6.996687e-25 -6.995282e-24 3.9614273e-37
-3.4806791e-16 8.111934e-20 3.5274637e-17 -8.935598e-30 -0.051930755 -0.16763811 0.13806534 -4.913753e-39
-1.1989577e-15 -1.131742e-14 -1.3003291e-20 5.6852566e-16 -3.413254e-21 8.46682e-25 -0.04660819 4.915258e-39
2.1894278e-17 -9.475642e-32 -5.505094e-17 5.8557455e-19 -2.597597e-27 7.62298e-17 1.1597728e-17 2.9189963e-19
-7.3123077e-28 4.914449e-39 4.912339e-39 6.404653e-14 -1.800268e-36 1.9576458e-28 -1.243515e-17 1.0814582e-36
0.059291787 -4.7679416e-16 -5.263986e-21 -1.1345e-13 1.600591e-30 1.00625906e-23 5.1743685e-33 -3.0470604e-17
4.759434e-22 1.3056284e-31 4.914627e-39 -8.5243675e-16 4.918045e-39 -3.203566e-26 8.966914e-28 1.2258052e-27
-1.9614125e-22 -8.562818e-25 -1.829355e-29 -6.2381436e-37 -1.8356842e-14 2.694757e-15 9.8005846e-14 3.0824915e-25
9.10445e-40 -2.2472342e-23 -8.4078096e-14 -3.346969e-30 4.91705e-39 -1.8952053e-15 -1.3911596e-14 9.197539e-24
4.9143048e-30 2.1659567e-17 -1.8076005e-14 1.8245491e-26 -2.540714e-25 1.9627042e-19 -2.2999693e-37 -2.8770874e-32
-3.180062e-17 2.6762923e-36 4.910535e-39 -5.014153e-16 -2.8912873e-29 6.9211925e-16 7.697121e-15 3.0628845e-32
4.4026982e-20 3.4960627e-22 -4.911973e-39 1.1781591e-26 4.914645e-39 -4.975321e-17 1.6495148e-25 5.034655e-22
-5.595039e-20 -2.6707214e-23 1.1668771e-34 1.775978e-25 1.4975913e-30 2.605199e-18 -6.115837e-25 -4.2556864e-30
00000000: 0465 8b3d 573a 283e 30d8 81a4 9987 9613
00000010: 1a9f fb9f a2da 62a8 2677 073e 4a61 80be
00000020: 25ec 193e 85e8 97bd a77d 28a7 0677 d51a
00000030: 7271 3580 8e0a 1da0 fa39 8316 8d3e 553d
00000040: 875b abbc b7bf 5abe 085f c6a7 8120 baa7
00000050: 3b81 80a9 9463 c5a5 695d 8310 70f8 b586
00000060: 82a5 9d26 5375 11be 57f5 36b8 e25a 1bbe
00000070: 8875 3500 93b7 4418 edd7 c991 4480 8b80
00000080: f784 fa98 458d 3580 10fe 0ca2 5774 92bd
00000090: 4d5b 0c26 0a93 b798 5e4e 1a9a b704 381d
000000a0: bc27 3000 97f2 a2a0 9b3d 5018 a1b8 bba6
000000b0: c050 2209 2467 9a27 2d36 860a 7815 bb19
000000c0: 5c95 5884 9a6d c211 fe65 e90e bf64 758e
000000d0: 71a6 8fa4 6364 93be 49d8 b1a6 2fa8 3d8c
000000e0: 868a 3580 de79 9505 c46c 1709 4264 6206
000000f0: d27d 3500 f68b 3500 90cb 8fa7 18ad 65a5
00000100: 8342 7912 c786 67a9 a54b 2e94 baf6 16a4
00000110: d6fe fd20 4b26 10aa 3c87 b60e c27c 9c9c
00000120: a7df 9b22 48be 5017 9090 4221 c6f2 2180
00000130: 9df2 a4a9 d460 2d27 a4b5 8521 d844 91a5
00000140: e2c5 320f 2878 2a87 c08a 3580 4a8c 3500
00000150: 494c 3009 d35c cba4 618b 3500 7bbc ed86
00000160: c87e 3580 db83 3580 fbf2 03a4 63c7 9214
00000170: 8f0b cf1f 4df2 4995 1115 7398 a399 7499
00000180: 4956 d6a8 0d0a 3884 09e3 9fa6 5b74 0622
00000190: d28c 8229 24d9 50a6 7266 1625 a368 cb94
000001a0: 0adb b292 eca5 ff0d 8be1 a629 286e caa5
000001b0: f639 c315 4789 3f29 597e 0680 53fd e59c
000001c0: 626e 931f 9e23 bea8 f0d3 6420 bc29 3b99
000001d0: 00c6 2b80 f42d 1f9d 8591 e5a6 3378 c3bc
000001e0: 7443 a0bd 40f9 953d 48c7 743d 3f4b 5f3e
000001f0: 6453 220a 09c6 57be 36c3 b125 4cb6 071d
00000200: 15f6 dfbd 92a5 21be 763d fa3c 117e a93d
00000210: 567e 3580 e4e1 213e 5ed3 a59e 20ab 0618
00000220: 6669 69a5 5ce6 8025 b23d c13d f802 b3bd
00000230: c840 ed3d 3ede cc93 c186 83a6 29a5 2da3
00000240: 5f56 340a f3af 003e af65 953d 6707 713e
00000250: be03 843c dd37 67a3 a55a b914 ea6d 843e
00000260: e297 6712 a107 ec0a e664 f03d 6011 ef3d
00000270: f54d 023c 7789 5897 f54e 0799 e6cc 0603
00000280: c2a5 c8a5 a289 bf1f f1ac 2224 473c 358f
00000290: 58b5 54bd 53a9 2bbe 0061 0d3e 8b81 3580
000002a0: bbc9 aca6 63e0 4ba8 0fa0 759e cadd 2326
000002b0: f8f2 809d 8804 8317 3be8 3ebd bd85 3500
000002c0: 67f0 c923 7100 f68b aee0 7da4 c3d4 2c21
000002d0: 87cd 4d93 22c6 af24 b9f0 5523 a04e ac20
000002e0: 7dbc 6792 7c83 3500 9a7d 3500 5038 9029
000002f0: 5d26 1984 3d29 7811 5663 65a3 2600 b803
00000300: f2db 723d 336d 09a6 26de c69d 7977 ffa9
00000310: f9da 010e 89a3 4219 53ef d609 5785 0ca4
00000320: 56d8 0f1c f27a 290c fb83 3500 bbb2 75a6
00000330: 828d 3500 06a2 1e95 2016 8e12 913c c212
00000340: c71e 6d9b d180 8497 c584 b98f e545 5483
00000350: ff57 a5a8 7e2d 4227 86b0 dc29 07cc be16
00000360: f3e9 0900 d356 d999 b953 bda9 eac4 878e
00000370: bc8a 3500 5e90 08a7 ea9b 7aa8 02e8 3119
00000380: 0f59 c70e 35c6 c723 6ed0 a2a8 d1b1 b414
00000390: 3843 9d96 18b7 6720 1e87 9c82 0d63 158b
000003a0: 8ca7 12a4 7cac 6304 9378 3500 eb85 10a6
000003b0: 0e9b 1290 637d 4726 b5a8 0a28 b808 1f0b
000003c0: 5be9 4f1f f352 d31b 957c 3580 c35b 6914
000003d0: 0884 3500 3972 65a4 3633 4c16 c229 181c
000003e0: ef1b 849f ee25 019a c51a 1b07 fdda 5b16
000003f0: 82ff f20d d13a 4022 a746 3d97 93a1 ac8e

atom_lin.bias f4 [300]
-0.0026569732 0.04742301 0.085094795 0.051370952 0.10415851 0.07560229 -0.11181779 0.01389531
0.045236878 0.11738337 0.0051977145 0.06366384 0.0020757786 -0.003932317 0.02762197 -0.051692426
0.018356424 0.04685226 0.10292455 -0.031061703 0.027180407 -0.051978696 0.08098988 -0.03916496
0.09099819 0.0068069506 0.080672905 0.0036945068 0.030085074 0.1529151 -0.012336772 0.0008411367
0.0026794218 -0.015390046 0.005945393 -0.04104885 -0.030881977 0.11282235 0.015092319 -0.06278613
0.06398905 0.041226547 0.03696569 0.022907162 -0.18181543 0.014465399 -0.10503956 0.10388427
0.05058184 -0.07988485 0.102378584 -0.03913803 0.07548817 0.05088175 0.077497885 0.012591545
0.038271885 -0.04976156 0.09246509 0.05949166 -0.023053816 0.06228307 0.11003346 0.08823129
0.04591185 0.13161609 -0.0109040635 -0.08418804 -0.011260317 0.09256484 0.058273494 -0.032338817
0.041641258 -0.012131426 0.033983756 0.11138765 0.14029755 0.023453249 0.060348496 -0.02917694
-0.056595437 0.03578439 -0.040002864 -0.06744712 0.12111983 0.03641132 -0.024652064 0.031958025
0.13239138 0.0035232557 0.028429948 0.06294071 -0.032976408 0.038262155 -0.0648348 0.08654099
0.008124709 0.057775464 0.056638915 -0.0042445417 0.07309496 0.022451963 -0.026745236 0.11724437
0.06844367 0.08917707 -0.01573224 0.04743742 0.069185875 0.112228245 -0.015599822 -0.049479444
0.08273654 -0.028854607 -0.0014402954 -0.071841076 -0.02545533 -0.08928379 0.03479327 0.11230664
0.016680518 0.03849927 -0.0005097571 -0.07477848 0.07883232 0.089585386 0.08479354 0.19402692
0.04096318 0.016110567 0.054965142 -0.023833582 0.05435119 -0.009357116 0.14226076 0.00472419
0.02394973 -0.013456458 -0.01924969 -0.0581971 0.060300976 0.031003917 0.0012229298 0.034717277
-0.050535817 0.017964922 -0.019362917 0.018804744 -0.087938465 -0.112578735 0.10369754 5.0411934e-05
0.013992483 0.09877232 -0.13735114 -0.0002716313 0.00723334 -0.008924725 0.008939594 0.037415992
0.09941965 -0.0066459775 -0.11932613 0.12917976 0.00927428 0.08273401 -0.00033612901 0.04815171
-0.014671366 -0.060312204 -0.07055717 0.025139535 -0.057350367 0.04715859 0.04698025 -0.00437751
0.016841002 -0.0016755512 -0.020068696 -0.040738206 -0.055032693 0.1210154 -0.00024420742 -0.044333678
0.0393285 0.024070032 0.042626414 0.060803667 -0.014151066 -0.026315909 -0.0481328 -0.014042341
-0.030863227 0.036518935 0.057887524 -0.00025288653 -0.070259616 0.08056643 -0.0048516556 -0.017779391
-0.11538696 0.04996856 0.071944885 0.042193677 -0.08352754 -0.0077661257 -0.11689101 0.03334059
0.030997125 0.10421255 0.0315135 0.055743743 -0.0028099169 0.09547058 0.03712194 0.0917785
0.037177935 0.034404397 -0.023052722 0.07435198 -0.00044017792 -0.041395552 -0.0106369555 0.108615495
0.0072456636 0.021858789 -0.019375386 0.07670195 0.004998178 -0.038753446 0.11100626 0.10551424
0.052000042 -0.014773625 0.054312695 0.039984286 -0.039311536 -0.04394485 -0.010070785 -0.045776717
0.01675573 0.10351149 0.091017105 -0.046664674 0.056700993 -0.087054305 -0.05744174 -0.006335738
-0.008258488 0.044678733 0.02657194 0.06443717 0.008911453 0.029441383 0.03169274 -0.10349845
00000000: 9d20 2ebb a13e 423d 2e46 ae3d 596a 523d
00000010: 0f51 d53d 60d5 9a3d ba00 e5bd 28a9 633c
00000020: 4e4a 393d b166 f03d 9751 aa3b 3062 823d
00000030: c909 083b aada 80bb 7847 e23c 70bb 53bd
00000040: 3660 963c 28e8 3f3d 1bca d23d 1d75 febc
00000050: 72a9 de3c 9de7 54bd 06de a53d 706b 20bd
00000060: 425d ba3d d70c df3b d637 a53d 8a1f 723b
00000070: f974 f63c c795 1c3e 2c20 4abc ba7f 5c3a
00000080: 3d99 2f3b 8826 7cbc 92d1 c23b d722 28bd
00000090: 33fc fcbc 670f e73d c645 773c 0496 80bd
000000a0: b10c 833d 2bdd 283d 5669 173d cda7 bb3c
000000b0: d32d 3abe 4800 6d3c fb1e d7bd 47c1 d43d
000000c0: e72e 4f3d ab9a a3bd ddab d13d 334f 20bd
000000d0: 8b99 9a3d 6269 503d 36b7 9e3d c44c 4e3c
000000e0: fbc2 1c3d c7d2 4bbd 565e bd3d 87ad 733d
000000f0: 5bdb bcbc 881c 7f3d 3959 e13d 9bb2 b43d
00000100: 100e 3c3d 5ec6 063e f5a6 32bc c76a acbd
00000110: 317d 38bc a392 bd3d 30b0 6e3d b575 04bd
00000120: 0690 2a3d e3c2 46bc 8d32 0b3d 351f e43d
00000130: 29aa 0f3e 0721 c03c fc2f 773d 7a04 efbc
00000140: 9ed0 67bd a792 123d 0bda 23bd b721 8abd
00000150: ac0d f83d 0924 153d 20f3 c9bc 6be6 023d
00000160: 9b91 073e 6ce6 663b ece5 e83c 0fe7 803d
00000170: 4512 07bd c7b8 1c3d 1cc8 84bd 673c b13d
00000180: 801d 053c f7a5 6c3d 35fe 673d cc15 8bbb
00000190: cfb2 953d 2eed b73c d318 dbbc d11d f03d
000001a0: 322c 8c3d 78a2 b63d e6e0 80bc bd4d 423d
000001b0: 53b1 8d3d ecd7 e53d 6596 7fbc f5aa 4abd
000001c0: c671 a93d 7f60 ecbc 4bc8 bcba 6a21 93bd
000001d0: b287 d0bc 6bda b6bd 6383 0e3d 0601 e63d
000001e0: 95a5 883c 69b1 1d3d 38a1 05ba 7625 99bd
000001f0: d772 a13d 8b78 b73d 3ca8 ad3d feae 463e
00000200: 02c9 273d 4ffa 833c 2123 613d a53e c3bc
00000210: 5a9f 5e3d 974e 19bc ceac 113e 61cd 9a3b
00000220: 3932 c43c 7a78 5cbc 87b1 9dbc 1560 6ebd
00000230: 28fe 763d edfb fd3c b74a a03a b433 0e3d
00000240: a5fe 4ebd 2c2b 933c fb9e 9ebc 680c 9a3c
00000250: 1519 b4bd ae8f e6bd 605f d43d 6771 5338
00000260: ba40 653c 2449 ca3d c7a5 0cbe bc69 8eb9
00000270: a705 ed3b 0339 12bc 6077 123c 8341 193d
00000280: 889c cb3d 80c6 d9bb 4261 f4bd b347 043e
00000290: 26f3 173c 7370 a93d 793a b0b9 ba3a 453d
000002a0: 2b60 70bc ee09 77bd 4780 90bd 6df1 cd3c
000002b0: 38e8 6abd 5e29 413d 5d6e 403d 3771 8fbb
000002c0: 24f6 893c 2b9e dbba 1b67 a4bc 1bdd 26bd
000002d0: f669 61bd ecd6 f73d f708 80b9 3b97 35bd
000002e0: ec16 213d 842e c53c 0999 2e3d 440d 793d
000002f0: dfd9 67bc 7694 d7bc e626 45bd d911 66bc
00000300: e1d4 fcbc e194 153d 781b 6d3d db95 84b9
00000310: 46e4 8fbd 0300 a53d a3fa 9ebb 16a6 91bc
00000320: 0050 ecbd d5ab 4c3d d757 933d 47d3 2c3d
00000330: 7d10 abbd fc7a febb 8e64 efbd 2490 083d
00000340: afed fd3c 646d d53d 4d14 013d 8d53 643d
00000350: 9526 38bb 1486 c33d 2d0d 183d 5ef6 bb3d
00000360: e447 183d a0eb 0c3d 10d9 bcbc da45 983d
00000370: aec7 e6b9 628e 29bd a046 2ebc cd71 de3d
00000380: 086d ed3b 3411 b33c 21b9 9ebc e915 9d3d
00000390: c2c7 a33b efbb 1ebd 4057 e33d da17 d83d
000003a0: fffd 543d 130d 72bc fd76 5e3d 90c6 233d
000003b0: 2205 21bd 84ff 33bd efff 24bc 5e80 3bbd
000003c0: 5043 893c d5fd d33d 2d67 ba3d 7523 3fbd
000003d0: 4d3f 683d 8749 b2bd 0848 6bbd 069c cfbb
000003e0: 9c4e 07bc 0c01 373d 66ad d93c a3f7 833d
000003f0: 5801 123c 0e2f f13c 3fd0 013d fff6 d3bd

bond_lin.weight f4 [300, 23]
0.00070254575 0.41707245 0.27052155 0.03723487 8.1422994e-14 2.6294841e-11 2.1309314e-24 1.2138727e-08
-4.905998e-39 7.338936e-29 -2.4329938e-06 3.6583045e-17 0.02249647 -4.127008e-10 -7.710816e-05 5.17032e-30
-4.9560393e-32 1.9833098e-20 0.0010633732 -5.993021e-29 -4.908153e-39 2.1079346e-24 2.93337e-21 6.3733046e-07
0.20901662 0.5169387 -0.41053158 2.1168711e-12 1.7968592e-13 -6.86655e-18 3.881057e-06 1.0135725e-07
-4.8323416e-09 -4.617134e-16 6.594753e-16 -0.066899255 -1.5032825e-05 0.00030921167 0.0001398977 9.263459e-07
2.9131985e-12 -5.9922586e-06 -1.4155661e-32 6.073108e-07 5.4092464e-09 -0.0010491419 -1.2306501e-06 0.13447338
-0.37242165 -0.6661741 3.643909e-12 -9.6380165e-05 -4.747593e-12 5.664744e-25 4.6129185e-19 -5.3360597e-11
3.6428744e-07 2.687088e-06 -0.29541436 -4.0039268e-14 2.1473084e-06 3.128186e-05 7.4311185e-18 0.00026503048
-0.0008620907 -5.351151e-26 4.908834e-39 0.00022300104 8.434593e-39 4.995107e-08 0.020175967 -0.2155551
0.1996806 -1.4275265e-07 -4.273836e-19 -0.0007051829 0.00046604758 -4.721801e-20 1.2544527e-32 -6.0365906e-08
-6.9425613e-07 -0.2432019 -2.0235216e-09 1.3351573e-11 1.80679e-07 -2.7160522e-11 8.815442e-07 0.000547609
-1.1650906e-20 -4.9413433e-08 -7.458292e-12 -1.7927068e-19 3.559636e-27 -0.3813784 0.20810525 0.42917752
-4.908576e-39 -1.5322655e-11 -3.828622e-27 1.321389e-05 -2.5387484e-10 -2.5699169e-08 0.00014894511 2.4071202e-17
-0.015343016 -4.90754e-39 0.00030047126 -2.1819464e-08 9.4759826e-18 -7.4183916e-11 -3.078199e-05 1.7855513e-07
1.6819975e-05 -4.0921364e-05 -2.1918613e-11 -1.7906329e-07 -0.56883764 0.45812595 -0.1858049 -8.182487e-06
-1.2362137e-13 -4.907367e-39 -1.956889e-06 -3.397365e-07 3.8197e-11 -2.5158385e-22 -2.6457295e-32 -0.025376188
1.4679598e-08 1.2737381e-09 5.9209054e-07 -0.0002879093 -0.0003904059 -1.2492815e-06 6.183475e-11 1.815998e-32
7.633347e-33 -1.4070848e-06 3.8451195e-12 -0.3752697 -0.09807832 -0.26663208 0.00048076225 -1.04489806e-16
0.0007242834 -0.0001644135 3.8332107e-25 -1.9117214e-29 -1.0557244e-12 8.215746e-06 -0.42705944 -3.0712483e-05
-1.437951e-14 1.28743e-07 -4.5773588e-17 -1.2072578e-19 5.115181e-09 7.314526e-08 -1.8626221e-06 -3.0979934e-06
2.5412075e-09 -2.6815638e-05 0.25587273 -0.2843017 0.15746891 -1.051728e-05 -4.2578873e-20 1.9998375e-16
5.50541e-11 -1.147328e-11 -1.2787732e-06 0.00023985695 -4.906628e-39 0.0030193636 -2.7459986e-20 -9.488595e-16
6.1186356e-10 5.501337e-07 -7.40665e-29 0.00042094078 -8.1152684e-05 -8.553943e-09 2.5265545e-06 1.455652e-05
-4.90683e-39 0.4786008 0.2208404 -0.6395675 -4.6088067e-11 -5.3226564e-12 1.0566001e-06 -3.4809437e-26
-3.0948045e-20 3.3960694e-06 0.0009871097 1.3875899e-10 0.3064004 1.3074302e-21 9.095059e-20 -3.6208126e-05
-3.9254774e-06 -2.6150948e-12 -1.5944748e-08 -3.2292195e-23 -2.5835348e-10 1.20983e-39 -3.072769e-06 -1.0811888e-18
0.090529844 -0.47933355 0.2797391 1.3861546e-13 -6.683912e-20 2.4837139e-14 -5.1697136e-29 9.507432e-10
-3.1512636e-24 2.8401012e-10 -4.360659e-13 0.20149352 0.0010307602 -3.1796443e-09 -8.3120176e-07 -0.00097271916
4.3186777e-19 -2.5743298e-35 5.6451866e-19 -3.1181796e-07 -2.62817e-12 -0.00032506516 -5.0759208e-14 0.2869497
-0.51471335 -0.08337601 -0.00029563156 4.0601378e-10 -4.7387664e-05 7.667442e-06 -3.8793312e-11 1.9342195e-12
-1.5187375e-06 6.9581326e-08 0.3514159 1.8304666e-15 4.32028e-35 0.00016482132 5.9825976e-05 2.4057584e-08
-8.801495e-09 -5.878718e-13 -0.000101007805 1.8970182e-15 1.5408745e-13 -5.6436383e-12 0.1999329 -0.19463557
00000000: 0c2b 383a 858a d53e cd81 8a3e 9783 183d
00000010: 2959 b729 b84a e72d 72df 2418 b08a 5032
00000020: ed6b 3580 6b10 ba10 8446 23b6 a3b5 2824
00000030: 844a b83c 79e2 e2af 21b5 a1b8 acbb d10e
00000040: 88aa 808b 7d51 bb1e e260 8b3a eef0 9790
00000050: ef71 3580 f217 2318 a1a3 5d1d 0415 2b35
00000060: 7408 563e 1856 043f 3231 d2be 29f6 142c
00000070: f14e 4a2a bb54 fda2 073a 8236 bda9 d933
00000080: ba09 a6b1 7014 05a6 b014 3e26 7a02 89bd
00000090: 7e35 7cb7 b01d a239 81b1 1239 01aa 7835
000000a0: 85ff 4c2c 1c11 c9b6 3400 938a 1506 2335
000000b0: 3cdc b931 5c83 89ba d12c a5b5 64b3 093e
000000c0: 0dae bebe 638a 2abf 6a35 802c b51f cab8
000000d0: 840a a7ac ba50 2f17 3a26 0821 b1ae 6aae
000000e0: 4993 c334 d253 3436 8d40 97be 2252 34a9
000000f0: 7a1a 1036 a434 0338 7714 0923 caf3 8a39
00000100: edfd 61ba f37c 8495 d573 3500 63d5 6939
00000110: 37d8 5b00 c889 5633 1248 a53c 7aba 5cbe
00000120: 1279 4c3e 8d47 19b4 6248 fca0 06dc 38ba
00000130: d957 f439 12fb 5e9f 1345 820a 82a2 81b3
00000140: eb5c 3ab5 eb09 79be 2b0e 0bb1 24e2 6a2d
00000150: aa00 4234 0fe8 eead 42a3 6c35 6b8d 0f3a
00000160: 5314 5c9e a53a 54b3 2935 03ad 3da5 53a0
00000170: ff02 8d13 0844 c3be 8b19 553e 28bd db3e
00000180: 1d73 3580 8dc7 86ad d7aa 9793 3ab1 5d37
00000190: b591 8baf 12c1 dcb2 262e 1c39 8504 de23
000001a0: 4661 7bbc 3a70 3580 9288 9d39 826d bbb2
000001b0: 10cd 2e23 d521 a3ae e91b 01b8 dcb8 3f34
000001c0: 9f18 8d37 fba2 2bb8 54cc c0ad 8b44 40b4
000001d0: 589f 11bf 7c8f ea3e a443 3ebe 8447 09b7
000001e0: 6f2f 0baa be6f 3580 1953 03b6 0765 b6b4
000001f0: 00fe 272e b712 989b c75f 098b b9e1 cfbc
00000200: 8e31 7c32 ad0f af30 27f0 1e35 88f2 96b9
00000210: 65af ccb9 fcac a7b5 dff9 872e 8295 bc0a
00000220: d689 1e0a 11db bcb5 c249 872c 5a23 c0be
00000230: 49dd c8bd 0084 88be d10e fc39 e5ef f0a4
00000240: d6dd 3d3a 6a66 2cb9 a643 ed16 20df c18f
00000250: 7b94 94ab 5cd6 0937 89a7 dabe 47d1 00b8
00000260: e584 81a8 9b3c 0a34 ea17 53a4 2187 0ea0
00000270: 9cc1 af31 0814 9d33 35ff f9b5 1fe7 4fb6
00000280: 65a1 2e31 25f2 e0b7 c001 833e fe8f 91be
00000290: 883f 213e 6073 30b7 b312 499f c990 6625
000002a0: 6821 722e 0fd7 49ad 50a2 abb5 1c82 7b39
000002b0: af6d 3580 84e0 453b 16ad 019f bdbe 88a6
000002c0: 1230 2830 e6ac 1335 e8c7 bb90 b7b1 dc39
000002d0: 8430 aab8 a4f4 12b2 e08d 2936 c737 7437
000002e0: 3f6e 3580 2a0b f53e fc23 623e b2ba 23bf
000002f0: 8db2 4aae 3a46 bbac 81d0 8d35 345e 2c95
00000300: e425 129f 07e8 6336 e861 813a 2f91 182f
00000310: 83e0 9c3e c292 c51c 42c0 d61f 2ede 17b8
00000320: 98b7 83b6 5c05 38ac dff6 88b2 cd27 1c9a
00000330: 0508 8eaf 842c 0d00 c535 4eb6 288e 9fa1
00000340: b667 b93d 356b f5be f739 8f3e 3011 1c2a
00000350: c5d1 9d9f 8bb6 df28 5c11 8390 4dab 8230
00000360: 35d1 7398 df22 9c2f b87b f5aa 5154 4e3e
00000370: 931a 873a e580 5ab1 c01f 5fb5 14fe 7eba
00000380: 03ee fe20 f6df 0886 d39d 2621 ef67 a7b4
00000390: e7f0 38ac 826d aab9 6299 64a9 12eb 923e
000003a0: 41c4 03bf 0bc1 aabd fffe 9ab9 5c35 df2f
000003b0: 1ec2 46b8 6aa3 0037 639d 2aae cd1b 082c
000003c0: 6cd7 cbb5 bd6c 9533 c9ec b33e 26e6 0327
000003d0: 9bb4 6506 e3d3 2c39 a7ed 7a38 30a7 ce32
000003e0: 6235 17b2 a178 25ab 27d4 d3b8 cfb1 0827
000003f0: af7c 2d2a 6091 c6ac 36bb 4c3e 8c4e 47be

bond_lin.bias f4 [300]
-0.009807463 0.065231614 -0.016556438 0.1407963 0.07071481 -0.24960054 -0.115630455 -0.067510664
-0.003955005 0.117259525 0.020382123 0.15816359 0.1750604 0.061827064 -0.16302316 -0.052303217
0.31738532 0.012044035 0.15394679 -0.15284064 -0.0033312049 0.116452344 0.06717678 0.108290374
0.046403263 0.15447524 0.17040382 0.23230647 -0.0044763624 -0.13662006 0.12800348 -0.02764108
0.062160328 -0.0448916 -0.06510378 -0.06206392 -0.121051095 0.22895966 0.39448544 0.020906914
0.2538234 0.30309242 0.156403 0.36249208 -0.33544183 0.10003187 -0.07755532 0.013841125
-0.12511368 -0.187754 -0.21271436 0.034643013 0.13644125 -0.16109855 -0.043509644 -0.29158658
0.057099972 -0.26675513 -0.12329383 -0.21047065 0.15863991 0.21749885 0.117582455 -0.14829737
-0.026171299 -0.103028096 -0.19816443 -0.23981434 0.09535121 0.089279994 -0.101690866 0.13426031
-0.14935261 -0.035035007 -0.17209287 -0.095469855 -0.16429158 0.0024590322 0.18871172 -0.22840308
-0.03413871 0.26386872 -0.15895286 0.014849693 0.12257462 -0.05878343 -0.15845412 0.25280526
-0.13253456 -0.06783031 -0.22264539 0.13879932 -0.06838494 0.11620543 0.048398923 0.20290804
-0.19732457 -0.15582931 0.08936131 0.23356529 0.093771465 0.045405433 -0.02551362 -0.15666477
0.22371389 0.22065169 0.19500576 -0.123432234 0.11185904 -0.27590397 -0.003313263 0.0769961
-0.017638996 0.064364806 -0.21189304 -0.019585919 0.057447147 -0.17657347 0.027241807 -0.19513969
-0.25161934 0.22544178 0.13191001 -0.18436223 -0.21647397 -0.026561106 -0.24405584 0.03996009
-0.06623099 0.1527348 0.026016265 0.14724092 -0.18007952 -0.07807148 0.18412547 -0.05101197
-0.10334958 0.03174405 0.15954857 0.19080658 0.052788243 0.05693362 0.21356845 0.11692628
0.2112009 0.08087759 0.21054415 -0.14139397 0.2634054 -0.25398612 0.077181436 -0.07415802
0.03383184 -0.0056038913 -0.19562466 -0.0023556529 -0.0750673 -0.15575486 0.10291873 0.25949115
0.18677548 0.1026817 -0.15040407 0.2384762 -0.22190021 -0.103199266 0.1245508 0.245955
0.0051911874 0.08488323 0.0034890238 0.0859583 0.13623786 0.22949754 -0.08511197 0.17616078
-0.039785415 0.06315875 0.120574445 -0.30384547 0.08021656 -0.030895164 0.07691241 0.04865911
0.034125727 0.005194014 -0.111913845 0.13156815 -0.07035092 -0.009446604 0.06583818 -0.06214351
-0.07300088 0.11132734 0.031391725 0.023458535 -0.11106391 -0.057284035 -0.029517638 -0.18075874
-0.08187714 0.2367298 0.0463316 -0.043119326 0.0024203048 -0.0009762132 0.02229273 -0.042213846
-0.18718743 0.1870002 -0.17680609 -0.043401618 -0.023404427 -0.09755152 0.04887805 0.19431649
-0.12500007 -0.29775646 0.13300541 -0.27284062 -0.066808954 0.10501689 0.08104256 0.026456887
-0.28923824 0.22162315 -0.07794815 -0.167023 -0.118391424 -0.13479573 -0.036310043 0.12335782
-0.14246994 -0.0161262 0.19504787 -0.15106305 0.057397112 -0.22245583 -0.12853265 -0.01956471
0.04483476 0.17272024 0.06930662 0.21947603 -0.2216264 -0.24308832 -0.13710852 0.011637227
0.065400526 -0.17080168 -0.15512754 0.17739141 -0.09083156 -0.24546638 -0.11669402 0.08868373
00000000: 7baf 20bc 2798 853d 5ea1 87bc e82c 103e
00000010: edd2 903d 4997 7fbe a9cf ecbd 0843 8abd
00000020: fd98 81bb c325 f03d 69f8 a63c a3f5 213e
00000030: 0943 333e 603e 7d3d 8bef 26be e63b 56bd
00000040: 5480 a23e 5854 453c 3aa4 1d3e 4282 1cbe
00000050: 5850 5abb 917e ee3d fb93 893d 58c7 dd3d
00000060: 5911 3e3d c22e 1e3e 577e 2e3e bfe1 6d3e
00000070: 73ae 92bb 21e6 0bbe 5813 033e 8c6f e2bc
00000080: d49b 7e3d 41e0 37bd 2155 85bd bd36 7ebd
00000090: a3e9 f7bd 6774 6a3e fff9 c93e fa44 ab3c
000000a0: 24f5 813e ee2e 9b3e 1c28 203e 9098 b93e
000000b0: 08bf abbe 82dd cc3d 53d5 9ebd e3c5 623c
000000c0: cd1d 00be 9642 40be cbd1 59be d5e5 0d3d
000000d0: 41b7 0b3e 05f7 24be 2b37 32bd d64a 95be
000000e0: a9e1 693d 2194 88be 7a81 fcbd 9e85 57be
000000f0: 8072 223e 05b8 5e3e 12cf f03d 44db 17be
00000100: 3165 d6bc 6500 d3bd 9eeb 4abe e491 75be
00000110: 7f47 c33d 6ed8 b63d 4d43 d0bd 897b 093e
00000120: e4ef 18be de80 0fbd 1d39 30be b385 c3bd
00000130: 0d3c 28be b727 213b a53d 413e 7fe2 69be
00000140: 08d5 0bbd cd19 873e 8ac4 22be 204c 733c
00000150: 6708 fb3d e5c6 70bd cc41 22be b16f 813e
00000160: 24b7 07be 9eea 8abd 27fd 63be 6921 0e3e
00000170: 670d 8cbd 1dfd ed3d f33d 463d 20c7 4f3e
00000180: 740f 4abe b891 1fbe 1003 b73d bd2b 6f3e
00000190: 410b c03d 0cfb 393d f001 d1bc bb6c 20be
000001a0: 4115 653e 84f2 613e 97af 473e 0aca fcbd
000001b0: 5a16 e53d 4943 8dbe 5423 59bb 22b0 9d3d
000001c0: a87f 90bc b2d1 833d 7dfa 58be a672 a0bc
000001d0: b34d 6b3d adcf 34be 362a df3c b3d2 47be
000001e0: 40d4 80be 36da 663e 6b13 073e 74c9 3cbe
000001f0: 5aab 5dbe ad96 d9bc c6e9 79be 31ad 233d
00000200: 1da4 87bd 8366 1c3e 1020 d53c 53c6 163e
00000210: c466 38be f1e3 9fbd 638b 3c3e edf1 50bd
00000220: f2a8 d3bd 0d06 023d b360 233e cd62 433e
00000230: 7c38 583d 3a33 693d b0b1 5a3e 0c77 ef3d
00000240: 0c45 583e 26a3 a53d e398 573e 95c9 10be
00000250: 13dd 863e 780a 82be 4d11 9e3d 29e0 97bd
00000260: 4193 0a3d d9a0 b7bb d551 48be 4c61 1abb
00000270: e2bc 99bd 347e 1fbe 0ec7 d23d 06dc 843e
00000280: 1242 3f3e c84a d23d 8603 1abe 1b33 743e
00000290: cf39 63be 235a d3bd 7d14 ff3d a1db 7b3e
000002a0: d61a aa3b 42d7 ad3d 1ba8 643b e80a b03d
000002b0: f081 0b3e 6701 6b3e 2f4f aebd 7e63 343e
000002c0: 08f6 22bd 6059 813d bcef f63d a291 9bbe
000002d0: 9448 a43d db17 fdbc 4184 9d3d c64e 473d
000002e0: 6bc7 0b3d 8c32 aa3b 1633 e5bd cdb9 063e
000002f0: 2514 90bd eec5 1abc 2bd6 863d 318a 7ebd
00000300: 7c81 95bd 97ff e33d 9c94 003d 1d2c c03c
00000310: 7a75 e3bd aaa2 6abd f9ce f1bc d218 39be
00000320: 34af a7bd 4c69 723e 34c6 3d3d e49d 30bd
00000330: fa9d 1e3b 8fe8 7fba 3e9f b63c 6de8 2cbd
00000340: 10ae 3fbe fb7c 3f3e a80c 35be e5c5 31bd
00000350: a4ba bfbc 17c9 c7bd 5a34 483d e7fa 463e
00000360: 0500 00be 8973 98be 9232 083e c4b1 8bbe
00000370: 22d3 88bd 1813 d73d a4f9 a53d 1dbc d83c
00000380: 0917 94be 2ef1 623e 48a3 9fbd 1408 2bbe
00000390: 3477 f2bd e407 0abe d7b9 14bd 06a3 fc3d
000003a0: a4e3 11be 181b 84bc a1ba 473e 46b0 1abe
000003b0: 3c19 6b3d 76cb 63be 109e 03be 2c46 a0bc
000003c0: a7a4 373d 93dd 303e a1f0 8d3d 53be 603e
000003d0: 08f2 62be 25ec 78be 2d66 0cbe 11aa 3e3c
000003e0: b6f0 853d a3e6 2ebe c1d9 1ebe 18a6 353e
000003f0: e605 babd 8a5b 7bbe 46fd eebd d19f b53d

energy_lin.1.weight f4 [300, 300]
0.09559018 0.035484865 0.09150346 -0.09359215 0.1321494 -0.13054341 -0.13328426 -0.021822752
4.918488e-39 0.00028110459 0.066971816 -0.09001526 0.12180384 0.005827658 -0.07419702 -0.07375419
3.0931714e-30 0.071360566 -0.13816844 0.11010452 -0.12196721 0.11420208 1.7612146e-07 0.02732272
-0.012499282 -0.00890932 0.008368112 -8.240208e-34 -0.013640191 -0.084772 0.046135735 -0.00833526
-0.037019476 0.085170485 5.193353e-32 0.04468771 -0.04118076 0.08258843 -0.052303597 -0.017952574
-0.078868575 1.4466845e-25 -0.059676375 0.0573015 0.11259383 0.112918176 4.906813e-39 4.909609e-39
-0.10259983 -0.04061985 -0.036542077 -0.037210464 -0.053741064 -0.108634785 -2.1468044e-30 0.016970238
-0.11483564 0.1372467 0.11639958 -0.07819068 -0.080250055 -0.04043914 0.008659221 -0.0978846
-9.04479e-26 -0.08902265 -0.06495978 -0.06386887 0.10970486 -0.040917404 3.6553e-21 0.06769387
-0.009434146 0.032008544 -0.036389552 0.06700251 -0.08484531 5.9681905e-36 1.2122139e-35 -0.054914933
1.4082671e-05 -1.743611e-23 -0.0063331034 -0.011531547 -0.056971867 0.13453884 0.12382821 0.07171381
-0.07834856 0.11617899 -0.12165969 0.029533181 -8.005743e-33 -0.11741941 -0.03883062 -0.12989245
-0.11831521 0.07005236 0.08664074 -0.022112802 0.11572555 0.012073806 -0.038799465 0.0365714
-0.071125746 -4.909938e-39 2.103228e-22 0.062206663 0.06959001 0.121658884 -0.010980334 0.08409687
-0.013091116 0.02114038 0.014737944 0.12157661 0.107908465 -0.07539139 -0.04422519 0.13828002
-0.049949184 -0.057770483 -0.040032674 -0.13462494 -0.11547109 -0.01726965 -4.90584e-39 8.1780406e-33
-0.05697384 -0.0016643403 -0.07203456 0.0120159965 -0.04697328 0.03479517 2.403987e-21 -0.041772734
4.911693e-39 0.06918956 -0.12896588 5.303072e-29 -0.104663335 -0.060346395 0.08475222 0.029039195
-0.09908009 0.037373666 -0.12434515 0.02083058 -9.325845e-21 -0.024769846 0.09276558 -4.619486e-23
0.02609791 -0.0066245217 -0.07054082 0.00859761 0.037050158 -0.028047862 -0.07272584 -0.059701554
1.6940434e-27 -0.066269875 0.095875934 -4.1765635e-20 -0.048181985 -0.05306988 0.017963339 0.019326312
-0.124600634 0.090619825 -0.0038660397 0.082906805 -4.7709696e-25 -0.13094516 -0.09037288 -0.056663804
0.06634977 -0.09809599 4.911436e-39 -0.07711139 0.019229943 0.042417727 -9.0414794e-32 -6.3827247e-21
-1.0036904e-24 0.02154312 0.07255146 -0.062394325 -0.12443548 -0.008376513 -0.13924892 -0.07591752
0.04541624 -0.05098559 0.011322399 0.11808744 0.03850171 0.10673442 -5.1178056e-25 -0.043388885
0.066782676 -0.055860117 0.0057635834 -0.024932804 -0.024999274 0.060456958 -9.145793e-19 0.10477156
-0.024856305 0.080499865 0.034305997 0.092824504 0.119537026 -2.4385686e-06 0.07781358 -3.302299e-19
-0.11943661 -0.07023457 0.0040280707 -0.051082343 -0.0992499 -0.11628877 -0.1031766 -0.12924847
-0.11365741 -0.1347638 -0.07965281 -0.028986774 0.09222493 7.841289e-12 -4.913516e-39 0.11793947
0.09601055 -7.429622e-33 -0.0937234 0.12286377 -0.13101631 0.12833312 -0.085499845 0.06456569
-0.014980821 -0.14420873 0.051441677 2.4181347e-34 -0.0019270771 0.016205251 0.06275741 -0.087476805
-1.021311e-26 -0.04344437 -0.0094356835 -0.030640429 -0.11432713 0.12677054 -0.13758443 -0.04968402
00000000: c9c4 c33d 9458 113d 2b66 bb3d 3ead bfbd
00000010: 2c52 073e 2cad 05be ab7b 08be a1c5 b2bc
00000020: be8e 3500 3861 9339 8528 893d ec59 b8bd
00000030: 4b74 f93d f0f5 be3b 9bf4 97bd 700c 97bd
00000040: a8f2 7a0e 7d25 923d 077c 0dbe 7b7e e13d
00000050: f2c9 f9bd c8e2 e93d e61b 3d34 e6d3 df3c
00000060: cac9 4cbc 66f8 11bc 681a 093c f8e9 8888
00000070: 1c7b 5fbc f19c adbd d3f8 3c3d 9d90 08bc
00000080: bca1 17bd dd6d ae3d c0d3 860b 760a 373d
00000090: 28ad 28bd 1f24 a93d 4c3c 56bd 4711 93bc
000000a0: d985 a1bd 4317 3316 376f 74bd fab4 6a3d
000000b0: 9897 e63d a541 e73d 336e 3500 fe75 3500
000000c0: dc1f d2bd 0061 26bd 25ad 15bd 006a 18bd
000000d0: 971f 5cbd ea7b debd 622b 2e8e 2b05 8b3c
000000e0: f32e ebbd 668a 0c3e e762 ee3d 6f22 a0bd
000000f0: 245a a4bd 83a3 25bd 68df 0d3c b977 c8bd
00000100: 2bf0 df95 8251 b6bd a209 85bd afcd 82bd
00000110: f1ac e03d 0299 27bd e417 8a1d 15a3 8a3d
00000120: ad91 1abc 641b 033d 360d 15bd 9d38 893d
00000130: 61c3 adbd d7db fd04 9ae7 8005 7bee 60bd
00000140: 9d44 6c37 b8a1 a899 ec85 cfbb d0ee 3cbc
00000150: 555b 69bd 8dc4 093e a599 fd3d b1de 923d
00000160: 3675 a0bd 40ef ed3d b728 f9bd 92ef f13c
00000170: d545 268a 9679 f0bd db0c 1fbd 8702 05be
00000180: 3f4f f2bd 9d77 8f3d b370 b13d e825 b5bc
00000190: 8401 ed3d 36d1 453c 30ec 1ebd e4cb 153d
000001a0: 60aa 91bd e976 3580 c143 7e1b 6acc 7e3d
000001b0: 3585 8e3d 4b28 f93d dce6 33bc fb3a ac3d
000001c0: 1f7c 56bc 972e ad3c 6b77 713c 28fd f83d
000001d0: 1dff dc3d cd66 9abd 7925 35bd 4799 0d3e
000001e0: 8497 4cbd bea0 6cbd 4df9 23bd 1fdb 09be
000001f0: 1b7c ecbd 1579 8dbc 7c6b 3580 ecd9 290a
00000200: 675d 69bd fe25 daba db86 93bd bede 443c
00000210: 0e67 40bd 6185 0e3d dfa3 351d e319 2bbd
00000220: cd7b 3500 42b3 8d3d a20f 04be e872 8610
00000230: bb59 d6bd c82d 77bd 9292 ad3d 9be3 ed3c
00000240: 81ea cabd 2115 193d aca8 febd e4a4 aa3c
00000250: 0529 309e 22ea cabc e1fb bd3d 7862 5f9a
00000260: 49cb d53c 8412 d9bb b577 90bd fddc 0c3c
00000270: e8c1 173d a1c4 e5bc 49f1 94bd 9e89 74bd
00000280: 4837 0613 80b8 87bd 9a5a c43d 8e3b 459f
00000290: 795a 45bd cd5f 59bd da27 933c 3752 9e3c
000002a0: 9e2e ffbd e396 b93d 625d 7dbb 0bcb a93d
000002b0: 84a7 1397 7d16 06be 6b15 b9bd 4e18 68bd
000002c0: 63e2 873d 8de6 c8bd 167b 3500 94ec 9dbd
000002d0: 1d88 9d3c 36be 2d3d f0ba ea8b ed21 f19d
000002e0: 4650 9b97 327b b03c dc95 943d 3191 7fbd
000002f0: 07d8 febd a43d 09bc 4597 0ebe a57a 9bbd
00000300: 6106 3a3d 44d6 50bd 9581 393c d4d7 f13d
00000310: f8b3 1d3d 9397 da3d 6f63 1e97 8bb8 31bd
00000320: 5bc5 883d 94cd 64bd 71dc bc3b e13f ccbc
00000330: 47cb ccbc b7a1 773d d4f7 86a1 7992 d63d
00000340: 739f cbbc 1ddd a43d 7284 0c3d c61a be3d
00000350: d4cf f43d 4aa6 23b6 ba5c 9f3d eeee c2a0
00000360: 2e9b f4bd 24d7 8fbd e8fd 833b b83b 51bd
00000370: 8843 cbbd cf28 eebd 414e d3bd b659 04be
00000380: 37c5 e8bd 86ff 09be 0321 a3bd ac75 edbc
00000390: 6de0 bc3d 07f2 092d e280 3580 408a f13d
000003a0: 2ea1 c43d a54e 1a8a 0ef2 bfbd 00a0 fb3d
000003b0: 2429 06be c269 033e 8b1a afbd 043b 843d
000003c0: 1e72 75bc 74ab 13be 82b4 523d 6eb6 a007
000003d0: fa95 fcba e0c0 843c f586 803d 0a27 b3bd
000003e0: 9f4a 4a94 b9f2 31bd 2098 1abc a301 fbbc
000003f0: 5824 eabd 23d0 013e efe2 0cbe 7981 4bbd

energy_lin.1.bias f4 [300]
0.029537616 0.05521167 0.032951046 -0.003990994 -0.020820538 -0.002713801 0.0033629336 0.005939344
-0.020973478 -0.003810481 0.061562512 0.028377524 -0.03570108 -0.017515201 0.06365259 0.0023848037
0.04292231 0.013200862 0.08619415 0.030083576 -0.01620597 -0.009287398 0.055603743 -0.049758498
0.06922746 0.053013943 -0.04192143 0.0032498133 0.003366597 0.019970527 0.00019236568 -0.036137715
0.0028727616 0.04588279 -0.037375204 0.024018627 -0.019433787 -0.0398651 0.02688887 -0.001421319
0.037472483 0.06423107 0.026667926 -0.02514902 -0.032046303 -0.024005553 0.034829274 -0.0324138
0.060088955 -0.03397394 0.049222764 -0.00987295 -0.011146083 0.006895247 -0.014501388 0.08282443
-0.012772038 0.024989907 0.011487582 -0.016127342 0.059860006 0.0012435433 0.037076782 0.022350725
0.014201693 0.025008475 0.064020544 -0.029045524 0.008503843 0.07092233 0.028852606 0.04248036
0.00012023882 -0.019692862 0.053998772 0.01735692 -0.021825967 0.011326263 -0.025523372 0.0008462313
-0.029807603 -0.016356444 0.025743123 -0.010024289 0.019071998 0.035012275 -0.060125884 0.026170474
-0.028335052 0.06698688 -0.033970926 -0.015451815 0.05858226 -0.02913085 0.029883329 0.03500631
-0.022241116 -0.0051984875 -0.019563572 0.025155384 -0.04352282 -0.03931145 0.0104926005 -0.0142645575
0.03659454 -0.03052101 -0.0006752994 0.0040891487 0.029613782 0.051767584 0.06727593 0.011896067
0.03920185 -0.008045027 0.073265895 0.05624236 0.037165437 0.0492013 0.02274744 0.012509354
-0.039273065 0.042670287 0.012117523 0.066226065 -0.023140024 -0.029624028 -0.02975425 0.024325863
-0.009168111 0.037428014 -0.009101411 0.050630227 -0.021156609 0.058499005 0.003785492 -0.044341587
0.002413385 0.05466827 0.05894907 0.02948054 0.017649777 0.051198274 0.0022289585 0.06284352
0.061170895 -0.0018461678 0.04588747 -0.044546124 -0.037210014 -0.036981776 0.061377037 0.022167234
-0.0013706073 -0.027784633 0.029105151 0.025488235 -0.014414631 0.007840741 0.07283261 -0.045741692
0.05934931 -0.0032627103 0.012155209 0.055602297 0.014192198 -0.009735371 -0.019570328 -0.018678444
0.068227656 0.014217582 -0.028884348 0.06757036 0.013247988 0.0037136036 0.04143635 0.065956794
-0.01228215 0.04285047 0.065899275 -0.018277163 -0.012688112 0.05086918 0.0444418 0.0006012327
0.017902946 0.051765315 0.047303922 0.08105231 0.02866263 0.06382588 0.040646996 -0.0007316541
0.061541915 0.023360876 0.029783383 0.026136206 -0.002798403 0.06167747 0.015264645 0.08053477
0.049380686 0.02779465 0.019669991 0.010218045 -0.05328081 0.014318845 -0.003679515 0.09131963
-0.021288186 0.024209796 0.003215437 0.0740389 0.06958111 0.031057019 0.0007465941 -0.00078571384
0.06242766 -0.022766626 0.016041348 -0.032858048 0.06601028 0.013590356 -0.027744638 0.04496593
0.009550925 -0.016744127 0.03362025 0.03409025 0.043830443 0.016457666 0.028728316 0.043632537
-0.01296822 -0.03757444 0.012531177 0.06347057 -0.024989989 -0.020130303 -0.016248338 0.032200567
0.004409688 0.03268092 0.034595624 0.06435272 -0.016455919 0.07585556 0.02875246 0.0027131129
0.03727255 0.036619395 -0.045289174 0.007957255 0.061875105 -0.02745657 -0.020831268 0.055605136
00000000: dff8 f13c a225 623d adf7 063d e2c6 82bb
00000010: d58f aabc 07da 31bb aa64 5c3b d49e c23b
00000020: 92d0 abbc 43b9 79bb f928 7c3d fb77 e83c
00000030: 4c3b 12bd 0a7c 8fbc 4a5c 823d 5e4a 1c3b
00000040: 4ecf 2f3d 6e48 583c 8f86 b03d d571 f63c
00000050: 62c2 84bc 2c2a 18bc c0c0 633d 91cf 4bbd
00000060: 20c7 8d3d 2625 593d ceb5 2bbd d2fa 543b
00000070: 20a2 5c3b 3b99 a33c c5b5 4939 2405 14bd
00000080: f144 3c3b 98ef 3b3d be16 19bd b6c2 c43c
00000090: 9b33 9fbc 9649 23bd 0c46 dc3c 8d4b baba
000000a0: bf7c 193d 948b 833d b276 da3c 5105 cebc
000000b0: fc42 03bd 4ba7 c4bc 24a9 0e3d 55c4 04bd
000000c0: d61f 763d 4228 0bbd cf9d 493d 27c2 21bc
000000d0: 0f9e 36bc 86f1 e13b 3b97 6dbc db9f a93d
000000e0: cf41 51bc a2b7 cc3c 6936 3c3c 7d1d 84bc
000000f0: c42f 753d 64fe a23a d3dd 173d de18 b73c
00000100: 38ae 683c 93de cc3c 341d 833d e1f0 edbc
00000110: b453 0b3c ba3f 913d 4d5c ec3c e3ff 2d3d
00000120: ba28 fc38 ed52 a1bc d12d 5d3d 1930 8e3c
00000130: 5fcc b2bc ca91 393c 6416 d1bc 9fd5 5d3a
00000140: 132f f4bc f3fd 85bc 3ee3 d23c ea3c 24bc
00000150: e13c 9c3c 0869 0f3d 8f46 76bd 7663 d63c
00000160: e91e e8bc 6b30 893d 1925 0bbd 9c29 7dbc
00000170: f4f3 6f3d d2a3 eebc e2cd f43c c762 0f3d
00000180: 0033 b6bc 1358 aabb c943 a0bc aa12 ce3c
00000190: fc44 32bd 0b05 21bd 28e9 2b3c e4b5 69bc
000001a0: 28e4 153d 3207 fabc 9306 31ba 44fe 853b
000001b0: 9a98 f23c 3f0a 543d f6c7 893d b9e7 423c
000001c0: 1e92 203d 4acf 03bc 6e0c 963d 645e 663d
000001d0: c93a 183d 4d87 493d d758 ba3c 09f4 4c3c
000001e0: cbdc 20bd 0ac7 2e3d 9388 463c 88a1 873d
000001f0: 2690 bdbc 17ae f2bc 2fbf f3bc 0847 c73c
00000200: d835 16bc 1e4e 193d 161e 15bc a461 4f3d
00000210: a050 adbc a79c 6f3d 0416 783b 869f 35bd
00000220: e229 1e3b d6eb 5f3d 9474 713d 2c81 f13c
00000230: 4496 903c 48b5 513d b813 123b 1ab4 803d
00000240: 558e 7a3d 1dfb f1ba 80f4 3b3d ff75 36bd
00000250: 8769 18bd 347a 17bd 7d66 7b3d 0f98 b53c
00000260: f3a5 b3ba 999c e3bc ed6d ee3c b4cc d03c
00000270: 582b 6cbc 7476 003c 4329 953d a45b 3bbd
00000280: 4318 733d 32d3 55bb a426 473c 3cbf 633d
00000290: 6586 683c 1b81 1fbc f451 a0bc 8903 99bc
000002a0: f1ba 8b3d dcf0 683c de9e ecbc 5462 8a3d
000002b0: 170e 593c ee5f 733b 2ab9 293d 5b14 873d
000002c0: 123b 49bc f983 2f3d 33f6 863d fdb9 95bc
000002d0: cde1 4fbc 345c 503d 9b08 363d 0b9c 1d3a
000002e0: 33a9 923c de07 543d c2c1 413d c1fe a53d
000002f0: e4cd ea3c 25b7 823d 777d 263d 7acc 3fba
00000300: 6013 7c3d 4f5f bf3c 48fc f33c 991b d63c
00000310: 6965 37bb 84a1 7c3d 9018 7a3c 6aef a43d
00000320: 6743 4a3d 9bb1 e33c f622 a13c 9669 273c
00000330: fb3c 5abd 9799 6a3c 0524 71bb c905 bb3d
00000340: 9064 aebc 9f53 c63c 15ba 523b b5a1 973d
00000350: 8a80 8e3d 4a6b fe3c 15b7 433a 5df8 4dba
00000360: 25b4 7f3d 1381 babc 2569 833c 2996 06bd
00000370: 6630 873d 16aa 5e3c b948 e3bc 322e 383d
00000380: 7c7b 1c3c fb2a 89bc 63b5 093d 38a2 0b3d
00000390: 8d87 333d 3ad2 863c a557 eb3c 08b8 323d
000003a0: a878 54bc a8e7 19bd 914f 4d3c dcfc 813d
000003b0: ceb7 ccbc 4ee8 a4bc 3c1b 85bc bee4 033d
000003c0: 257f 903b 6edc 053d 24b4 0d3d 5ccb 833d
000003d0: 90ce 86bc 295a 9b3d 478a eb3c 7bce 313b
000003e0: 1aab 183d 38fe 153d 2481 39bd 255f 023c
000003f0: c070 7d3d 9aec e0bc 56a6 aabc 36c2 633d

energy_lin.3.weight f4 [150, 300]
0.12774219 -0.0681782 0.16101831 0.15406516 -0.12373982 0.15322286 0.0076520257 0.084540926
0.016907385 -0.049823347 -0.042132396 -0.048908025 0.14604855 -0.13442507 -0.014869834 0.049251955
0.12560977 -0.13227068 -0.21815166 0.089570604 -0.08084236 0.029490367 0.08953222 0.06943395
-0.122518875 0.049910907 -0.11440262 0.12938459 -0.06974341 -0.008225337 0.048465956 0.052216265
0.08774647 -0.10520956 -0.07558994 0.053473014 -0.043502413 0.13842344 -0.017230852 -0.020504946
0.047019664 -0.36415842 -0.09623263 -0.081582956 0.009722922 -0.07123853 0.06293339 0.1172666
0.10701095 0.12727499 0.0875153 -0.009300879 0.0024008967 -0.07583387 -0.041944213 -0.13337463
-0.007915737 0.0847797 0.038394853 0.027371088 0.14968486 0.039099693 -0.16851516 -0.05425419
0.14760062 -0.107588045 -0.0474356 0.05048822 0.07057046 -0.052110787 0.12625737 -0.26435438
-0.13760602 0.15076073 0.12239789 -0.11120271 -0.09783487 -0.027542824 -0.005354083 0.1895262
0.20091216 -0.0662456 -0.118358046 0.031639747 0.12180813 -0.0031945843 0.043766208 0.1622147
-0.08253804 -0.055530507 0.15548785 0.06657842 -0.0058671786 -0.00015049371 -0.1098265 0.04426932
0.058601268 -0.024723424 0.06345901 -0.006615444 0.005292114 -0.06257604 0.07029544 0.12569894
0.013597814 0.17312689 0.097884506 0.08636226 -0.15230355 0.049698032 0.005602875 0.02511525
-0.009451883 0.09285566 0.11116863 0.07440475 0.020919176 -0.22426488 -0.034723636 0.03340765
-0.053206682 -0.11799708 0.11081903 0.06269974 -0.100527994 0.124179564 0.14527327 -0.031804062
0.31935072 -0.024072988 0.13400193 -0.061699126 0.033866342 -0.035582695 -0.014285169 0.06320129
-0.06703519 -0.06329692 0.07991483 0.16480474 -0.09524036 -0.0785381 -0.045761187 -0.0605934
-0.05491677 -0.1933715 -0.24069148 -0.1809925 -0.07837863 -0.054075047 -0.024897823 0.0007058752
0.10250204 0.11667601 -0.10807673 0.0035562962 0.0672772 -0.05194001 -0.016797166 0.111580335
0.14261492 0.20092657 0.047957312 0.015380688 0.026337756 0.03559359 0.18148333 0.09702077
-0.08936137 0.03286168 -0.06296136 0.092738666 -0.13991992 0.031151904 -0.083563484 0.004894155
-0.05164685 0.16405864 0.07512016 -0.07192746 0.15791692 -0.01877901 0.039813552 0.12095117
-0.0863607 -0.21272837 0.089084946 0.04269566 0.016352648 0.07664041 0.15347974 0.16473988
0.057732064 0.08256666 0.20241064 0.018413039 -0.034896698 -0.1254673 -0.0006448357 -0.084389254
0.051001992 -0.06444876 0.102543995 0.15007095 0.13544156 -0.1741846 0.052922364 -0.10193419
-0.022920944 0.060954064 0.061855562 0.1449349 0.046500485 -0.10983518 0.025017451 0.12924181
-0.14892396 0.088674806 -0.055401146 -0.0068554785 -0.064874776 0.17697173 0.05495472 -0.10076458
0.009572004 0.02516835 -0.108553804 -0.06671156 0.14340682 0.06958455 0.116536655 0.04173162
-0.07137143 0.12329029 0.044082742 0.10169333 -0.18516658 0.030858729 0.034357462 0.2870482
-0.0016250251 -0.026355421 -0.108246975 0.016854929 0.005565904 0.10397161 -0.034685407 -0.1653593
-0.041714676 -0.1426536 0.04658173 0.010995971 0.03554614 0.15977105 0.09771477 -0.050695237
00000000: d9ce 023e 03a1 8bbd fce1 243e 42c3 1d3e
00000010: 4e6b fdbd 74e6 1c3e d8bd fa3b cb23 ad3d
00000020: 5b81 8a3c 9113 4cbd 0593 2cbd c853 48bd
00000030: c08d 153e baa6 09be 9ba0 73bc 6bbc 493d
00000040: d99f 003e f771 07be 2663 5fbe cb70 b73d
00000050: ae90 a5bd c895 f13c ab5c b73d 6333 8e3d
00000060: 2deb fabd 616f 4c3d ec4b eabd 657d 043e
00000070: a2d5 8ebd 90c3 06bc 3d84 463d b9e0 553d
00000080: 6cb4 b33d 1c78 d7bd e6ce 9abd 8506 5b3d
00000090: 962f 32bd e0be 0d3e b727 8dbc fdf9 a7bc
000000a0: b197 403d f972 babe 9d15 c5bd f714 a7bd
000000b0: e44c 1f3c 82e5 91bd 39e3 803d 7929 f03d
000000c0: 8f28 db3d 6054 023e 393b b33d b762 18bc
000000d0: 5d58 1d3b ca4e 9bbd b2cd 2bbd 5c93 08be
000000e0: 02b1 01bc fba0 ad3d ec43 1d3d 5539 e03c
000000f0: fd46 193e 0027 203d 3d8f 2cbe a439 5ebd
00000100: 9e24 173e 1f57 dcbd d54b 42bd bccc 4e3d
00000110: 3f87 903d 1f72 55bd 9d49 013e 7559 87be
00000120: 98e8 0cbe 0561 1a3e bfab fa3d 3fbe e3bd
00000130: a65d c8bd 7da1 e1bc 4e71 afbb 2813 423e
00000140: ebbb 4d3e c6ab 87bd b465 f2bd ae98 013d
00000150: 8a76 f93d 3b5c 51bb 3244 333d 9c1b 263e
00000160: b409 a9bd f573 63bd 3538 1f3e 445a 883d
00000170: 7641 c0bb d9cd 1db9 b7ec e0bd bf53 353d
00000180: e207 703d c788 cabc ccf6 813d 5ec6 d8bb
00000190: 7869 ad3b de27 80bd 0ef7 8f3d 39b7 003e
000001a0: 5ec9 5e3c 2d48 313e ac77 c83d b2de b03d
000001b0: 76f5 1bbe 2a90 4b3d 5298 b73b 7fbe cd3c
000001c0: 12dc 1abc 1c2b be3d 61ac e33d 8461 983d
000001d0: b15e ab3c b1a5 65be 5f3a 0ebd 76d6 083d
000001e0: 40ef 59bd 74a8 f1bd 16f5 e23d b968 803d
000001f0: 9fe1 cdbd db51 fe3d 84c2 143e fa44 02bd
00000200: f081 a33e b734 c5bc cd37 093e 39b8 7cbd
00000210: 6fb7 0a3d 29bf 11bd 570c 6abc ae6f 813d
00000220: bf49 89bd d1a1 81bd 63aa a33d 93c2 283e
00000230: 610d c3bd 95d8 a0bd 1570 3bbd c930 78bd
00000240: 68f0 60bd 2e03 46be d477 76be 1956 39be
00000250: fa84 a0bd cc7d 5dbd 85f6 cbbc 7c0a 393a
00000260: 97ec d13d d5f3 ee3d 5557 ddbd c010 693b
00000270: a1c8 893d 0cbf 54bd 369a 89bc 3b84 e43d
00000280: a509 123e b2bf 4d3e e36e 443d 48ff 7b3c
00000290: 47c2 d73c 96ca 113d c4d6 393e d3b2 c63d
000002a0: 1803 b7bd f899 063d e3f1 80bd c5ed bd3d
000002b0: 2b47 0fbe 4732 ff3c 5523 abbd 265f a03b
000002c0: a68b 53bd fdfe 273e 99d8 993d b44e 93bd
000002d0: f9b4 213e 70d6 99bc 8913 233d 3fb5 f73d
000002e0: e1dd b0bd 77d5 59be 2b72 b63d a5e1 2e3d
000002f0: fdf5 853c a6f5 9c3d cb29 1d3e 92b1 283e
00000300: 7578 6c3d b618 a93d bc44 4f3e f1d6 963c
00000310: d7ef 0ebd 807a 00be 310a 29ba 46d4 acbd
00000320: 77e7 503d b6fd 83bd 9602 d23d 33ac 193e
00000330: 31b1 0a3e 735d 32be 1fc5 583d dfc2 d0bd
00000340: b4c4 bbbc f8aa 793d 425c 7d3d d069 143e
00000350: 4b77 3e3d 44f1 e0bd 66f1 cc3c f757 043e
00000360: 867f 18be 239b b53d 50ec 62bd eca3 e0bb
00000370: 11dd 84bd 1438 353e 3318 613d a95d cebd
00000380: e5d3 1c3c db2d ce3c 7551 debd 12a0 88bd
00000390: 3dd9 123e 5882 8e3d c5aa ee3d c6ee 2a3d
000003a0: 2f2b 92bd 9f7f fc3d 1b90 343d 9844 d03d
000003b0: 4f9c 3dbe 72cb fc3c 69ba 0c3d fbf7 923e
000003c0: cbfe d4ba 53e7 d7bc 97b0 ddbd 5913 8a3c
000003d0: 3062 b63b 11ef d43d 4912 0ebd f353 29be
000003e0: 02dd 2abd c913 12be 7ccc 3e3d 7228 343c
000003f0: d498 113d 069b 233e ae1e c83d cfa5 4fbd

energy_lin.3.bias f4 [150]
0.0060436134 -0.03523554 0.007556658 0.060523555 -0.038955428 -0.03659825 0.032730337 0.08890651
0.013932516 0.04151491 0.044212587 -0.047352307 -0.001758502 -0.027902573 0.06270366 0.0048356657
-0.000736562 0.012604098 -0.03022557 0.06518395 -0.012385047 -0.023981344 -0.021697043 0.056834787
0.06659733 0.03218428 0.07049485 0.009847823 -0.022775479 0.086457565 0.031244067 0.076996535
0.04226117 3.8130015e-38 -0.042132903 -0.044454068 0.02189865 0.06435508 0.031647507 0.0065745194
0.0037698096 -0.010451989 0.020046983 -0.0075426013 0.0007245176 0.025023973 -0.030760925 -0.004276761
0.009896111 -0.033689383 0.051802438 -0.0089509785 0.0027810128 0.028433783 -0.024271952 -0.01656668
0.04247247 -0.014606972 0.05497702 -0.038871054 0.0443437 0.06005082 0.03507269 -0.038967934
0.036793273 0.051571544 0.023897182 0.04283185 -0.009313389 -0.014022443 0.059183843 0.028824678
0.027208677 0.06959812 0.03894152 -0.03638959 0.01863701 0.013674473 -0.0384208 -0.03404597
0.04314641 0.032045815 0.0054747523 -0.004925324 0.05331381 -0.016616369 -0.041391477 0.013322616
0.031320736 0.017927544 -0.055514984 0.054529075 0.06603673 -0.024346292 -4.910673e-39 -0.022721548
-0.021665335 0.010399037 0.006302767 0.010668226 0.0019961302 0.006537172 0.067122735 -0.0083742095
0.036443543 0.038401816 0.015268647 -0.037243024 -0.03762641 0.048951793 0.020482013 0.057127148
0.059373874 0.007195079 0.05684193 0.049499847 -0.007398817 0.012930679 -0.02571273 0.10236831
0.021630025 -0.03643025 -0.0030870433 -0.012252798 -1.8086784e-08 0.049794324 0.023285773 -0.017520612
0.046416763 0.018004866 -0.041455537 -0.037102148 -0.03910174 0.007748694 0.07097546 -0.004817614
0.013512117 -0.02256283 0.064339 0.003473321 0.030511633 -0.03258721 0.032751344 -2.847201e-23
0.01137785 0.047554187 -0.013655084 -0.005070873 0.0009038833 -0.018488107
00000000: 8109 c63b 2453 10bd d79d f73b 8ce7 773d
00000010: ba8f 1fbd 0ce8 15bd 3f10 063d 9e14 b63d
00000020: 3545 643c 8a0b 2a3d 4218 353d 7ef4 41bd
00000030: 897d e6ba f093 e4bc c76a 803d 8174 9e3b
00000040: d715 41ba 6b81 4e3c 9d9b f7bc 2a7f 853d
00000050: a7ea 4abc 8674 c4bc ffbd b1bc 98cb 683d
00000060: 2e64 883d aad3 033d 9b5f 903d c358 213c
00000070: a493 babc aa10 b13d 8ff3 ff3c 5cb0 9d3d
00000080: 0c1a 2d3d 7c99 4f01 8d93 2cbd 7815 36bd
00000090: cc64 b33c 99cc 833d d1a0 013d 116f d73b
000000a0: e90e 773b d23e 2bbc 9239 a43c ed27 f7bb
000000b0: 8eed 3d3a 13ff cc3c 56fe fbbc 1224 8cbb
000000c0: 4c23 223c e1fd 09bd cb2e 543d 20a7 12bc
000000d0: a741 363b f7ed e83c f9d5 c6bc d9b6 87bc
000000e0: 9df7 2d3d 1552 6fbc 952f 613d 4137 1fbd
000000f0: bda1 353d d9f7 753d 62a8 0f3d d79c 1fbd
00000100: 8bb4 163d af3c 533d 06c4 c33c 7370 2f3d
00000110: 2f97 18bc 64be 65bc c26a 723d bb21 ec3c
00000120: bbe4 de3c 7689 8e3d 2581 1f3d 400d 15bd
00000130: a5ac 983c e60a 603c 215f 1dbd c973 0bbd
00000140: 4aba 303d 7942 033d 8d65 b33b 9d64 a1bb
00000150: 955f 5a3d 0d1f 88bc 1c8a 29bd 1a47 5a3c
00000160: 2c4a 003d c9dc 923c ae63 63bd e159 5f3d
00000170: 443e 873d e071 c7bc f578 3580 8a22 babc
00000180: 807b b1bc b960 2a3c 7187 ce3b c8c9 2e3c
00000190: 82d1 023b c635 d63b a577 893d fb33 09bc
000001a0: d345 153d 394b 1d3d 5929 7a3c 248c 18bd
000001b0: 271e 1abd ad81 483d e5c9 a73c 28fe 693d
000001c0: 0532 733d b2c4 eb3b 15d3 683d 5ac0 4a3d
000001d0: c771 f2bb 33db 533c 81a3 d2bc 7aa6 d13d
000001e0: 7331 b13c e337 15bd fe4f 4abb f6bf 48bc
000001f0: 425d 9bb2 22f5 4b3d cec1 be3c 6387 8fbc
00000200: 811f 3e3d f17e 933c 48cd 29bd 6cf8 17bd
00000210: 2529 20bd c2e8 fd3b 955b 913d 13dd 9dbb
00000220: ed61 5d3c afd5 b8bc 2ac4 833d a8a0 633b
00000230: 88f3 f93c 2b7a 05bd 4626 063d a4ae 099a
00000240: 296a 3a3c 2ec8 423d 93b9 5fbc 9129 a6bb
00000250: 95f2 6c3a 5f74 97bc
