models/mpnn_A139_B23_E300_L2/46.pt (torch, 742651 bytes, 9 tensors)

atom_lin.weight f4 [300, 139]
000000 8e 8d fe 3d 2e 3b 1a be 00 71 35 80 84 a8 94 93
       0.12429343 -0.15061638 -4.907818e-39 -3.752662e-27
000010 4e c3 18 1d 69 aa 72 0f 6d 00 8e 3d ad 38 1c 3e
       2.0218003e-21 1.1964341e-29 0.06933675 0.15255995
000020 ec fb 33 be 9c 2f d2 bd 94 6f 01 a2 0d 19 5e 12
       -0.1757657 -0.10262987 -1.754183e-18 7.0081726e-28
000030 eb 55 84 3c fb b8 1d 0c d8 95 a2 9f 43 f6 30 bc
       0.01615425 1.2150506e-31 -6.8857564e-20 -0.010800901
000040 b6 ff 13 be 47 d4 42 bd f2 ef 92 12 1c 4a 3e 1d
       -0.14453015 -0.047565725 9.273046e-28 2.5184604e-21
000050 1e 5f ee 23 49 75 35 80 83 16 da a8 97 78 35 00
       2.5844295e-17 -4.909355e-39 -2.4212625e-14 4.910541e-39
000060 b0 14 0c 1e fa 51 34 be 6a 41 33 bc c1 e0 9a 3d
       7.415816e-21 -0.17609397 -0.010940889 0.075624
000070 a7 b9 86 9b fb 67 35 00 0d f2 2d 04 8d 35 d1 25
       -2.2288415e-22 4.904582e-39 2.0447197e-36 3.6292008e-16
000080 8b 4a e0 a9 b3 81 b7 8a 3e 1f e1 10 26 11 9a bc
       -9.9605294e-14 -1.7671046e-32 8.879499e-29 -0.018807005
000090 82 65 e1 06 93 be 6f 09 2a cd 23 91 9d 85 35 00
       8.4784746e-35 2.8858186e-33 -1.2921654e-28 4.915213e-39
0000a0 7b b9 8f 86 72 82 5b 1e 5a ce 9c 15 36 bf 36 93
       -5.406316e-35 1.1620739e-20 6.3333464e-26 -2.3065904e-27
0000b0 50 4c 11 00 a9 7c a1 9d 56 c0 1c 1a c3 e7 49 1e
       1.588579e-39 -4.274524e-21 3.2415412e-23 1.0688779e-20
0000c0 4f 57 49 a8 16 15 54 04 ae e2 37 a8 78 dc c4 29
       -1.11766734e-14 2.4930162e-36 -1.0207694e-14 8.742394e-14
0000d0 5e 27 6e 20 f9 9c 03 be 9b 0e 8e 0d 46 95 02 10
       2.017241e-19 -0.12852849 8.754942e-31 2.5752975e-29
0000e0 0d bb a6 a9 45 09 2b 8c bc b4 1e 01 b4 7f 35 00
       -7.404329e-14 -1.317615e-31 2.9149687e-38 4.913093e-39
0000f0 f7 f3 01 8d d0 dc 61 a6 22 04 1c 93 9b 73 97 92
       -4.0044856e-31 -7.8361813e-16 -1.9692006e-27 -9.557939e-28
000100 c0 fe b8 96 69 11 1b 16 db 2c 6c a4 90 54 d9 0a
       -2.9887573e-25 1.2526294e-25 -5.1212337e-17 2.0928149e-32
000110 23 9a 22 90 48 72 1b 97 58 46 71 24 11 93 ba 22
       -3.206761e-29 -5.0227444e-25 5.2318128e-17 5.0571114e-18
000120 2d 65 91 83 e4 f9 44 a9 b3 31 83 86 73 6e 35 00
       -8.545563e-37 -4.3737488e-14 -4.934975e-35 4.906903e-39
000130 c0 20 57 0c d6 b9 36 13 c3 5f ca a9 6d 1b 73 28
       1.6572853e-31 2.3063254e-27 -8.987214e-14 1.3495157e-14
000140 70 53 0a 25 b9 25 48 a6 34 84 35 80 fb 6b 15 94
       1.1997862e-16 -6.9440063e-16 -4.914707e-39 -7.543873e-27
000150 8c 81 96 93 12 93 de 03 3f 42 ae a8 2e 9f 6d a8
       -3.7993067e-27 1.3081753e-36 -1.934661e-14 -1.31906594e-14
000160 c8 e5 32 08 29 bb 3c 88 8c 70 e9 16 60 21 03 88
       5.3835033e-34 -5.67942e-34 3.7714207e-25 -3.946061e-34
000170 6b 73 07 95 05 97 3f a1 fe 91 cd 92 12 37 2c 93
       -2.7354082e-26 -6.491319e-19 -1.2973309e-27 -2.1736604e-27
000180 a2 5d 66 0c 2c df 23 88 5f 08 cc 8d ea 24 d2 1c
       1.7746732e-31 -4.9313366e-34 -1.2574486e-30 1.3906176e-21
000190 0b 09 b3 25 ac be c9 21 13 09 04 21 62 10 38 94
       3.1057678e-16 1.367076e-18 4.473535e-19 -9.292857e-27
0001a0 e8 e5 c8 a7 04 05 bd 19 57 13 a9 00 c7 4c e8 93
       -5.5760416e-15 1.9544168e-23 1.5527137e-38 -5.864074e-27
0001b0 79 a4 b1 23 f9 69 4b 1c 94 78 35 80 ec 8f 69 a9
       1.9260035e-17 6.730403e-22 -4.910537e-39 -5.1861225e-14
0001c0 14 1b a7 9c 48 1e 47 0c a0 39 90 87 48 f7 7d 1d
       -1.1058133e-21 1.5339515e-31 -2.170058e-34 3.3612113e-21
0001d0 1a 73 a3 1b 7b 97 85 a8 51 90 ff 0b 93 c4 f0 bc
       2.704047e-22 -1.483166e-14 9.843957e-32 -0.029390609
0001e0 73 3c 7f 3e 24 54 7b 3c 53 99 d7 3d e4 96 3e 3e
       0.24925403 0.015339885 0.10527291 0.18612248
0001f0 b1 f9 0e 23 89 31 13 be 11 62 d7 96 17 96 0d 80
       7.75071e-18 -0.14374365 -3.4797012e-25 -1.247704e-39
000200 cb 81 09 3e 2c 07 a2 3d b9 b0 21 3e 02 f3 c9 bd
       0.13428418 0.07911524 0.1579007 -0.09860803
000210 6e 29 99 3e 35 d7 06 bd d6 20 ed 08 fa 17 db 21
       0.2991442 -0.03292008 1.4271638e-33 1.4846364e-18
000220 64 0e d0 9f 4d fc 5f a1 70 44 8f bd a5 34 eb bc
       -8.8115234e-20 -7.5889256e-19 -0.06995475 -0.028711626
000230 14 93 b0 3b 25 5c 8e a0 01 3b d3 06 6e 72 5f a9
       0.005388627 -2.4116712e-19 7.9456077e-35 -4.96152e-14
000240 5b 1f b4 27 6a f6 df 3d 11 bf 6f be 2d fa ad 3d
       4.999403e-15 0.10935672 -0.2341273 0.08494983
000250 ab ca 84 be 69 22 5b 95 bb a9 40 9a 42 36 ce 3d
       -0.25935873 -4.4253843e-26 -3.9841777e-23 0.100689426
000260 c2 99 2c 97 70 0e d6 8c 79 7d 03 3e 8a 57 97 bc
       -5.5770267e-25 -3.298061e-31 0.12840833 -0.018474359
000270 f1 f9 2e bd f5 ee 14 a9 5e 14 80 9d 7d 83 35 80
       -0.04271883 -3.3069864e-14 -3.3902377e-21 -4.91445e-39
000280 4a 4e 3c 80 ec 8d 35 80 e0 54 86 26 f5 c6 9a 8e
       -5.538215e-39 -4.918193e-39 9.321123e-16 -3.815552e-30
000290 53 7c 96 3d a0 a2 5c 3d 7e 6d ae bd 82 73 dc 26
       0.07347932 0.05386603 -0.08516978 1.5296875e-15
0002a0 6d 3a b3 15 ca 95 8e 1e fa 33 7d a3 71 29 05 21
       7.2389704e-26 1.5096786e-20 -1.3726164e-17 4.5117e-19
0002b0 d5 64 59 19 96 fc 49 8f ef 97 52 bd fc 58 c9 99
       1.1239e-23 -9.9587114e-30 -0.051414426 -2.0818853e-23
0002c0 d4 9a 25 29 b3 75 35 80 f2 00 09 18 91 28 52 0e
       3.6771652e-14 -4.909504e-39 1.7707312e-24 2.590403e-30
0002d0 e9 c8 85 18 b9 82 35 00 5b 59 77 9a 1e bb 7d 05
       3.458256e-24 4.914176e-39 -5.1150584e-23 1.1930371e-35
0002e0 b3 20 38 0d ee dc 90 26 a8 d4 0f 18 df 3c ab 97
       5.673874e-31 1.005189e-15 1.858968e-24 -1.1065982e-24
0002f0 77 f6 29 a9 a0 8d 35 00 fc 68 04 26 aa 40 f2 15
       -3.7739312e-14 4.918087e-39 4.593898e-16 9.7845044e-26
000300 15 f6 8a 3e 91 81 c4 9c a2 ce fe 93 70 f5 33 88
       0.2714087 -1.3003684e-21 -6.432237e-27 -5.4154364e-34
000310 6e 56 08 29 db a1 21 13 93 d5 a0 13 5c 2c 34 15
       3.0273032e-14 2.0400858e-27 4.060028e-27 3.6385704e-26
000320 35 be 8c a5 af f7 f9 0e 32 bb 96 25 29 f8 b1 1b
       -2.4415018e-16 6.162175e-30 2.61477e-16 2.9442563e-22
000330 91 a2 a1 23 14 82 35 00 05 97 84 19 f7 c1 18 00
       1.7524505e-17 4.913945e-39 1.3709476e-23 2.273633e-39
000340 ca 3e 93 9b 57 71 3a 96 f5 b1 0e 9d 59 59 07 a8
       -2.4359686e-22 -1.5060724e-25 -1.8885545e-21 -7.51338e-15
000350 5a 20 01 a2 2d 53 b8 24 87 8e 35 80 70 44 cf 24
       -1.7499887e-18 7.9938185e-17 -4.91841e-39 8.988788e-17
000360 49 0d a4 89 85 3f 21 15 a6 a6 0f 28 d0 0b 3a a2
       -3.9494057e-33 3.25638e-26 7.974231e-15 -2.5213954e-18
000370 c1 77 35 00 d3 47 03 18 ce e5 22 a9 3b 87 35 00
       4.910241e-39 1.6967615e-24 -3.617055e-14 4.915793e-39
000380 b1 0f 48 98 aa e1 76 9f 37 6f 35 80 c6 e1 00 18
       -2.5857316e-24 -5.227919e-20 -4.907178e-39 1.6657599e-24
000390 34 7c 35 80 d0 e7 94 9a 58 fd ff 96 9d 8f 3b 20
       -4.911837e-39 -6.158588e-23 -4.1357354e-25 1.5887034e-19
0003a0 b5 f0 22 00 a5 78 b9 a8 76 c1 21 99 3b 28 44 26
       3.208756e-39 -2.0591447e-14 -8.362574e-24 6.8055683e-16
0003b0 6e 55 85 20 ce 68 27 8f df d0 07 22 c4 7f 80 a2
       2.258761e-19 -8.25392e-30 1.8406487e-18 -3.4829747e-18
0003c0 51 82 d3 a1 9c 86 ce 10 bc 8b 35 80 e5 15 e2 0a
       -1.4332411e-18 8.146007e-29 -4.917409e-39 2.1771244e-32
0003d0 04 50 56 13 7c 66 eb 21 8d d7 8b 29 32 24 ed 17
       2.7050048e-27 1.5951347e-18 6.210232e-14 1.5324903e-24
0003e0 58 02 42 97 fb 73 59 26 cc d0 ac 26 2f 86 35 80
       -6.268774e-25 7.544418e-16 1.1991492e-15 -4.915417e-39
0003f0 b4 8b be 23 67 65 fb 94 51 9d 24 23 5a 5f 4d 18
       2.0659008e-17 -2.538452e-26 8.923771e-18 2.654377e-24

atom_lin.bias f4 [300]
000000 bc fc c8 3d c1 8c ce bd 49 a1 fc 3c 3f f4 e3 bc
       0.0981383 -0.100854404 0.030838626 -0.027826427
000010 f9 a0 f3 3d 4f 17 1c 3d 38 0b f3 3c bb 8b 2f bc
       0.118959375 0.038108166 0.029668435 -0.010714467
000020 39 e3 dd 3c a3 08 ee 3d 88 aa 03 bd 14 cf 58 bd
       0.027085887 0.11622741 -0.032145053 -0.05293186
000030 b8 e0 f4 bb 2e 02 32 3d ab ba a4 3d d5 02 bb bc
       -0.0074730776 0.04345911 0.080434166 -0.022828499
000040 a0 11 97 bd ad dd 1d 3d f1 f5 0d bd cc b8 81 3c
       -0.073764086 0.038541485 -0.034658376 0.015835188
000050 cd aa e0 3b 8c 75 dd bc 02 e2 d5 3d 26 1c 80 bd
       0.0068562985 -0.02703359 0.10443498 -0.06255369
000060 6b a1 20 3d 29 b2 9c bd f4 51 9f 3d b2 20 8d bd
       0.03921644 -0.07651169 0.07779303 -0.06891002
000070 12 02 9c 3d 2e 44 bf 3d 2c e1 46 bd d3 a3 c9 3d
       0.076175824 0.09339176 -0.048554584 0.098457
000080 99 4f f2 bb 15 4d ad 3c e2 23 4e 3b ef 6e f0 3c
       -0.0073947427 0.02115492 0.0031454493 0.029349772
000090 b6 e2 70 3d 18 f5 4f 3d dd 18 db bd 0b fe ba bd
       0.05880996 0.05077085 -0.10698102 -0.09130486
0000a0 0d fd ac 3d 1b 1e 40 3e 6d 8b 8c bc f7 48 db bc
       0.08446703 0.18761484 -0.017156327 -0.02676819
0000b0 0e 63 57 3c e9 a8 20 bd 84 38 25 3d e2 76 b6 3c
       0.013146175 -0.039223585 0.0403371 0.022273485
0000c0 50 08 f4 3d aa f9 d8 3c 84 53 d3 bc d7 4e 59 bd
       0.11915648 0.026486237 -0.02579666 -0.053053703
0000d0 0c 7c 37 3c fd 18 71 3d 71 ab 7e bd 4b c2 18 3d
       0.011199009 0.05886172 -0.062175218 0.037294667
0000e0 0c 0a 94 3c 4b d3 10 3d 38 15 92 3d 23 57 f2 bc
       0.018071197 0.035357755 0.071329534 -0.029582566
0000f0 99 8e 8c bc d2 f8 a5 bb 69 ba 9a 3d a1 f2 da bc
       -0.01715784 -0.005065062 0.07555086 -0.026727023
000100 09 cb 26 bd 85 50 75 bd 98 09 0c bd 66 e3 12 be
       -0.040720973 -0.059891243 -0.034188837 -0.14344558
000110 df c6 9b bd df e0 40 3c db 43 17 3d 2a f8 41 bc
       -0.07606291 0.011772363 0.036929946 -0.011838952
000120 2e 69 84 bc 84 6e 83 bc 7f f8 93 bd 86 58 0e bb
       -0.016163435 -0.016043909 -0.07225131 -0.0021720245
000130 34 ba a8 bc 90 29 49 bc 9c ef b7 bd c8 be cc 3c
       -0.020596601 -0.012277976 -0.08981249 0.024993315
000140 01 b7 c6 bd 74 8b 83 3d 4e e3 4e bc 67 17 16 3c
       -0.09702874 0.06423083 -0.012627436 0.009160853
000150 76 99 70 3d 53 de fb 3c 3f 25 0f 3d 12 9f 49 bd
       0.0587401 0.03074566 0.03494763 -0.049223967
000160 36 82 a1 bc ba 09 cc 3c 60 9f 16 bd 92 89 da 3d
       -0.01971541 0.024906982 -0.036773086 0.10670771
000170 12 27 0f 3d a6 69 8e bb 33 53 d0 bc 0a 32 d5 3d
       0.03494937 -0.0043460904 -0.025430297 0.10409935
000180 3a b7 80 3d d4 f6 1d bd bc 9f a3 bd 00 43 8d 3b
       0.06284948 -0.03856547 -0.07989451 0.0043109655
000190 f2 ac 68 3d 98 59 ad bc b1 00 6d 3d 95 8e b6 3d
       0.05680556 -0.021160886 0.057861988 0.08913914
0001a0 b0 1d b6 bc fe fb 77 bd bc 06 9b 3d 37 37 6b bd
       -0.022230953 -0.060543053 0.07569644 -0.057425704
0001b0 5e 77 09 bd 02 0c cf bd 00 88 3c bc ed bf 19 3c
       -0.033561103 -0.10109712 -0.011507034 0.009384138
0001c0 ce d1 7f 3d 89 5a 4c 3c 29 85 10 bd cc 32 c5 bc
       0.062455945 0.012472757 -0.03528324 -0.024072073
0001d0 05 74 ba bc 6c 8e a7 3d 5f e2 16 3d b7 20 8e bd
       -0.0227604 0.08181462 0.036836978 -0.069398336
0001e0 f9 54 83 3d dc 6b 6e bd f1 6a ae 3d f5 fb a8 3d
       0.064126916 -0.05820833 0.08516491 0.08251182
0001f0 5d ec d3 3c cb ab b0 bd 30 e3 90 3c 42 53 ad bd
       0.025869543 -0.08626517 0.017686456 -0.08463146
000200 ec 95 c1 bb 13 04 74 bd 3e a1 0b bd 26 e2 4f 3d
       -0.0059077647 -0.059574198 -0.03408932 0.05075278
000210 d7 af 21 3d c0 da 7f 3d 1a 3e 19 3d 82 d7 9f 3c
       0.039474335 0.062464476 0.03741274 0.019511942
000220 60 d0 6d bc 71 d3 16 bc 95 a1 53 bb 83 d0 6b 3d
       -0.0145150125 -0.009205685 -0.0032292355 0.0575719
000230 85 21 cb 3d ef 44 a3 bc 6f cc 35 3d 58 44 6f 3d
       0.09918503 -0.019930331 0.044384416 0.058414787
000240 1e ae 8b 3d 45 30 42 3d bf 61 8c bc ce 93 e7 3d
       0.068203196 0.047409315 -0.017136453 0.113074884
000250 97 a0 79 bd 19 3f 6b 3d b5 bd 84 3d 81 de 0d bc
       -0.060944166 0.05743322 0.06481496 -0.008659006
000260 70 a2 0f 3d 0c 65 c2 3d 9a e0 4f bd 4c ac 54 3d
       0.03506702 0.094919294 -0.050751306 0.051922128
000270 08 ce c0 3d 5d 44 02 8c 50 6a 89 3d 7e e1 02 3e
       0.09414297 -1.0035408e-31 0.067097306 0.12781331
000280 a0 8a 0c be 1c ab 82 3d a5 b8 60 3c 5d 30 96 bc
       -0.13724756 0.06380293 0.013715898 -0.018333608
000290 03 f3 51 bd 13 82 1c bb d4 8f d3 3d ff fe 95 3d
       -0.051257145 -0.0023881241 0.103301674 0.07324027
0002a0 9e 80 86 3c cc b7 8b 3d c4 27 db 3d 60 a7 55 3d
       0.016418751 0.06822166 0.10700944 0.052161574
0002b0 a6 86 c3 3c 6d e9 59 3d c6 8a 5b 3d e5 19 c7 3d
       0.023867916 0.053201128 0.05359914 0.09721736
0002c0 d3 53 d2 3c 6b a5 67 3d 2f 1f 9e 3d 67 0f 27 3d
       0.025674736 0.05655424 0.077207915 0.040786173
0002d0 7e 56 d1 3d 38 5c 89 bd 6d 1d 29 3d ff 0b b2 bd
       0.10221575 -0.067070425 0.04128783 -0.08693694
0002e0 6e 06 21 bd 4d 21 02 3d 8d e7 b6 bd 77 90 11 3d
       -0.039312772 0.03177004 -0.089308836 0.035538163
0002f0 bd 52 25 3c 7c 26 08 be 7a 68 7e bd 1c 12 09 39
       0.010090527 -0.1329593 -0.062111355 0.00013072084
000300 8a da 87 3d 41 84 c9 3c 6b 35 43 3c 8b c0 e2 3d
       0.0663348 0.024599196 0.011914591 0.11071881
000310 d9 10 17 3d df f0 a5 3d 44 04 67 3c 63 58 bf 3d
       0.0368813 0.08102583 0.014100138 0.0934303
000320 d7 30 d8 3d 41 95 07 3d 25 17 08 3e 42 69 d6 bd
       0.105561905 0.033101324 0.13290079 -0.10469295
000330 8f c5 82 3d 9f df ed bc 18 68 d7 3d 4d b0 9a bc
       0.063853376 -0.029037295 0.10517901 -0.018882895
000340 1f 32 46 bd 33 d2 b1 3d 8b fc c4 3d 10 e9 0d 3c
       -0.048387643 0.086826704 0.09618481 0.008661523
000350 c4 b9 40 3d 5f 9a 6a bc 61 d3 30 3d e5 1e ae bd
       0.04705216 -0.0143190315 0.043170337 -0.085019864
000360 87 25 8c 3d 90 11 8c bd 4c 60 8b 3d df 08 5f 3d
       0.06843095 -0.06839287 0.068054765 0.05445182
000370 76 0e 06 bd 94 be 89 bc 23 4c cd 3b 46 d6 a6 bc
       -0.032728635 -0.016814508 0.0062651797 -0.020365845
000380 50 7c 7b bd 49 13 39 3d 0a b5 11 bd a2 34 0a 3b
       -0.06139785 0.045184407 -0.035573043 0.00210885
000390 24 ae 9f 3d 91 01 2f bd 9f 4a 06 3d dd ae d9 3d
       0.077968866 -0.042726103 0.032786008 0.10629056
0003a0 9b f5 34 be 3f 1c e6 3d 19 37 5b 3d be 9a be bc
       -0.17671816 0.11235856 0.053519342 -0.023267146
0003b0 49 df 8c bd 11 6e bf bc f1 aa 2a bd 9d 3b 24 3e
       -0.06878526 -0.023367913 -0.04166693 0.16038366
0003c0 ec 08 4c 3d de bb 03 3d 95 33 bc 3d ff 32 a6 3d
       0.049813196 0.032161586 0.09189526 0.081151955
0003d0 17 7f 73 3d 4c be 29 bd 76 7a 13 bd 6a 48 f4 3d
       0.059447374 -0.041441247 -0.03600546 0.119278744
0003e0 73 c4 41 3d d7 db 4b bc c2 b7 ba bd 72 5b 86 bd
       0.04730649 -0.012442551 -0.0911708 -0.065604106
0003f0 a5 80 00 3e 0e cd bb bd 43 ab 8d bd dd ef ca bc
       0.12549074 -0.091699705 -0.06917431 -0.024772579

bond_lin.weight f4 [300, 23]
000000 e7 58 8f 18 b5 e3 61 3e e2 2e bb be cb 04 94 3e
       3.7054402e-24 0.2205952 -0.36559206 0.28909907
000010 40 72 91 aa 73 19 d1 b9 59 2e 7a ba 10 b3 c9 22
       -2.583645e-13 -0.00039882548 -0.00095436495 5.467075e-18
000020 7c 31 72 a2 f2 0d 1f 09 79 c2 f9 15 e7 2e 41 31
       -3.2823313e-18 1.9145486e-33 1.0087712e-25 2.8111857e-09
000030 d4 bd cf 3e cf 09 8a b7 96 d2 9e 3a 78 9f 9f b8
       0.40574515 -1.645545e-05 0.0012117203 -7.611414e-05
000040 49 a1 ea 34 36 ae 2e a0 9e 8b 82 b9 a1 56 16 b2
       4.3703247e-07 -1.4796015e-19 -0.00024899555 -8.750846e-09
000050 83 23 ae b9 72 56 4d a5 6c c2 0c a8 76 71 b2 af
       -0.00033214325 -1.7810204e-16 -7.81372e-15 -3.245863e-10
000060 78 f0 d6 bd 00 f8 96 be b8 50 f9 be d6 1b 90 2f
       -0.104950845 -0.29486084 -0.48694396 2.6213226e-10
000070 2e 31 7b b2 0a f0 12 2a b6 d0 bb b2 31 7b 24 23
       -1.4621305e-08 1.3050685e-13 -2.1864576e-08 8.916545e-18
000080 cb 3a 8c b7 a6 68 df 19 7c 4c d2 12 e6 47 54 3c
       -1.6716678e-05 2.3099927e-23 1.3271718e-27 0.012956595
000090 d8 ec 21 1d 5f 26 4e b2 bc 8e 09 37 80 8c 1c 29
       2.1430618e-21 -1.1999503e-08 8.199069e-06 3.4760823e-14
0000a0 4d 06 c0 21 cf 74 81 83 8b a9 12 2e 73 6e b1 38
       1.3012094e-18 -7.6087565e-37 3.334714e-11 8.4605905e-05
0000b0 e2 10 a9 97 bb 80 cd 31 eb 7d 0d 23 af 87 0f bf
       -1.0925631e-24 5.98092e-09 7.6702895e-18 -0.5606641
0000c0 06 b4 ec 3e fa d2 a5 3c a1 a4 26 b4 ee 2d 0b ac
       0.46231097 0.020242203 -1.5519846e-07 -1.9778584e-12
0000d0 a8 20 09 b0 62 cb a6 35 2e ea 6e 10 35 5e ae 92
       -4.9886717e-10 1.2427156e-06 4.711763e-29 -1.1004168e-27
0000e0 b3 5a 76 8d 8a 0f a1 2f 4d 0f 03 bf 4d 75 35 00
       -7.591378e-31 2.929677e-10 -0.5119522 4.909361e-39
0000f0 b5 df cc 9e 33 ab c0 95 c6 3e 0d 96 b9 68 81 b9
       -2.1691863e-20 -7.781829e-26 -1.1409697e-25 -0.00024682822
000100 20 f6 a0 33 fe 10 ef b8 0a 15 31 b8 35 06 df 2f
       7.4953505e-08 -0.00011399573 -4.2219683e-05 4.0567874e-10
000110 90 20 7d 31 0f c7 e9 b4 5f c0 b8 be 79 03 72 be
       3.6834855e-09 -4.3544466e-07 -0.36084267 -0.23634137
000120 92 c8 e4 3e 24 30 1b 32 8f a7 ae b4 83 7a 84 a1
       0.44684273 9.033133e-09 -3.253194e-07 -8.977097e-19
000130 71 9e c6 b5 54 7b 76 82 b2 75 69 a9 c0 54 26 a9
       -1.4798262e-06 -1.8108619e-37 -5.1838477e-14 -3.6932913e-14
000140 56 ed 90 b7 c1 31 e3 be bc fe ec aa ae 8e 5b ae
       -1.7276656e-05 -0.44373897 -4.209878e-13 -4.992156e-11
000150 2f b9 57 16 01 1d 5b 0d 65 a1 df 31 84 e2 bd ad
       1.7425995e-25 6.7519497e-31 6.5085026e-09 -2.1587405e-11
000160 36 68 35 80 70 c3 b2 b6 75 13 91 11 90 56 ac b6
       -4.904665e-39 -5.3275653e-06 2.2888958e-28 -5.1360767e-06
000170 c9 18 31 19 45 8f 29 3f 01 08 74 be d8 19 8f be
       9.155691e-24 0.66234237 -0.23831178 -0.27949405
000180 71 7a 48 a6 67 c2 9e 32 b6 b8 a3 33 d1 1b b3 a1
       -6.955488e-16 1.8482025e-08 7.623878e-08 -1.2136875e-18
000190 fe 96 8f 32 e7 23 f5 aa 1d 55 5f 37 63 0d b2 81
       1.6716054e-08 -4.3545655e-13 1.3311653e-05 -6.540608e-38
0001a0 2c 70 cf 3d 5f de 1b a9 19 9a 41 ab 47 bf ec 32
       0.10128817 -3.460979e-14 -6.878123e-13 2.7560999e-08
0001b0 bb 4d 67 3a 4e ac f1 1a 51 b7 14 a7 c6 38 5d ad
       0.00088235334 9.995364e-23 -2.0638502e-15 -1.2575002e-11
0001c0 3c 19 81 8c 68 75 35 80 50 89 9c b0 8b fd 99 38
       -1.9890784e-31 -4.909399e-39 -1.138952e-09 7.3428346e-05
0001d0 65 28 a1 be 05 53 0a 3f d5 e4 c4 be c3 e5 08 ba
       -0.3147613 0.5403293 -0.38455835 -0.00052222254
0001e0 00 25 9b 3a 33 d8 23 98 87 5b b7 31 1c bb 46 b8
       0.0011836588 -2.1176409e-24 5.3364064e-09 -4.7381138e-05
0001f0 fd a5 4f ae 80 06 ea 39 c6 51 53 b7 16 41 df bc
       -4.7213778e-11 0.000446368 -1.2595619e-05 -0.027252715
000200 23 f1 eb a1 e6 dc 71 36 88 30 26 b8 0b d4 f8 b7
       -1.5988048e-18 3.6040378e-06 -3.9622682e-05 -2.9662644e-05
000210 a0 19 00 88 59 c1 a6 38 01 7a 09 a0 4d c8 40 03
       -3.854872e-34 7.9515106e-05 -1.1644719e-19 5.6653663e-37
000220 9f 0c 84 ba 4a 08 95 36 1c 8d fb 1b 3b 3e b0 3e
       -0.0010074562 4.441511e-06 4.1615657e-22 0.34422478
000230 c7 fd cd 3e f8 98 84 3e 0a 3e f4 30 ba 7a 35 80
       0.4023268 0.25897956 1.7770969e-09 -4.911307e-39
000240 4d fb bb af 44 ad 11 b2 49 b8 bc 2f 9a 8b bc 25
       -3.4193662e-10 -8.479507e-09 3.4327943e-10 3.27074e-16
000250 29 65 df 25 a3 41 ab 31 01 c4 08 be 45 74 f8 12
       3.8752882e-16 4.984217e-09 -0.1335602 1.5679663e-27
000260 05 6a 07 36 55 59 4a 2a c4 d0 bc aa 74 86 d6 32
       2.017828e-06 1.7972197e-13 -3.354037e-13 2.4974021e-08
000270 4f 8e a0 29 c1 ea c4 b5 1d a9 7f 2d 30 c8 69 25
       7.130114e-14 -1.467146e-06 1.45326225e-11 2.0277355e-16
000280 10 38 94 a4 02 95 0b b9 6e d1 d2 be 29 b3 f9 be
       -6.427974e-17 -0.00013311583 -0.41175407 -0.487695
000290 cb 0a 13 bd 1d 79 5f b8 43 7d a3 b6 2e 61 8b 30
       -0.035898965 -5.328014e-05 -4.872361e-06 1.0141201e-09
0002a0 27 c8 45 b3 ca a5 e1 25 15 0e a1 b6 e8 ef 63 b8
       -4.6049674e-08 3.914362e-16 -4.7998133e-06 -5.4344448e-05
0002b0 65 6b f1 35 5f 9f cc 3e f9 fb 24 a0 39 4c 8a 25
       1.7987155e-06 0.3996534 -1.3974711e-19 2.3990834e-16
0002c0 d9 df 82 3a 7f 7d 81 38 f3 ce 4a a8 dd 72 35 00
       0.0009984925 6.174575e-05 -1.12581275e-14 4.908486e-39
0002d0 f2 49 f8 38 10 05 95 33 24 44 4f 26 8b 86 c4 81
       0.00011839335 6.939274e-08 7.19099e-16 -7.219209e-38
0002e0 10 aa ce 36 2d fb b6 3e 22 67 99 be a7 5a 85 3e
       6.1590763e-06 0.35738507 -0.29961497 0.26045725
0002f0 a3 6b 03 b1 90 7e 13 b8 a8 d8 16 b5 f5 65 99 b5
       -1.9124193e-09 -3.51654e-05 -5.619463e-07 -1.1429062e-06
000300 1d a8 30 38 3f 55 a2 38 5b bc 5f 25 b4 28 6f ae
       4.2118238e-05 7.74064e-05 1.9405984e-16 -5.437846e-11
000310 68 ce 0e 3e 97 3e 6a b9 54 50 42 2b 66 0c 36 b0
       0.13945925 -0.00022339296 6.9034123e-13 -6.6228834e-10
000320 f8 da 1a 39 c1 7a 75 b5 9c 3b f2 ae 59 ca 8f ba
       0.00014768157 -9.144824e-07 -1.10154746e-10 -0.0010970338
000330 b1 b9 69 36 00 d9 81 a6 4d e4 45 8f 69 1e 05 39
       3.4827792e-06 -9.009991e-16 -9.756819e-30 0.00012695197
000340 25 01 39 3b 17 54 05 3f da 4d 6a 3e 03 a1 1a 34
       0.0028229442 0.52081436 0.2288126 1.4400943e-07
000350 25 1b 3c ae c8 6c 35 00 12 af c1 16 b7 62 88 b9
       -4.277036e-11 4.906305e-39 3.1291317e-25 -0.0002601349
000360 67 07 b7 b0 85 45 e3 b5 75 a7 b8 af 0a 17 f1 ba
       -1.3317106e-09 -1.6933051e-06 -3.358839e-10 -0.0018393707
000370 38 a7 8a ab 61 db 06 33 f5 79 35 00 c2 eb 45 39
       -9.851902e-13 3.139883e-08 4.911031e-39 0.0001887521
000380 3c 9d 12 b7 65 f6 a1 92 24 9e 81 aa 1f 7b 40 39
       -8.738887e-06 -1.0221269e-27 -2.3024735e-13 0.00018356413
000390 52 ae c9 2b 15 6a 59 99 5d 1e 17 04 f6 39 4b be
       1.4330293e-12 -1.124006e-23 1.7763907e-36 -0.19846329
0003a0 29 9b e5 be 31 c5 27 bd aa 11 27 89 9b 07 7b b2
       -0.4484494 -0.04095954 -2.01102e-33 -1.4611852e-08
0003b0 da 82 ef 38 28 76 88 15 26 f1 80 38 a1 91 2f 2c
       0.00011420781 5.511638e-26 6.148433e-05 2.4949836e-12
0003c0 8c f1 50 39 12 0c 78 30 a2 06 8c bd 08 79 be b8
       0.00019926409 9.023903e-10 -0.068372026 -9.08245e-05
0003d0 05 fc 04 b3 27 77 3d 25 31 88 35 00 71 20 f9 b8
       -3.0962855e-08 1.6433507e-16 4.916138e-39 -0.00011879288
0003e0 7b f0 07 af ce 56 5b b9 da 60 a3 b1 50 16 96 26
       -1.2363614e-10 -0.00020917805 -4.754935e-09 1.0414389e-15
0003f0 78 3e e1 39 e4 2f 37 22 8f 60 18 3d 14 7a 24 3e
       0.00042961887 2.4826478e-18 0.03720146 0.16062194

bond_lin.bias f4 [300]
000000 79 05 58 3d b3 28 6b be 2f 52 44 3e 51 8d e8 3d
       0.052739594 -0.22964744 0.19171976 0.11355079
000010 55 c5 d7 3d c0 5e 7a 3e 0e 30 af bc 9e a1 11 3e
       0.10535685 0.24450207 -0.021385219 0.14221808
000020 f2 da 63 bd 85 0f f4 3d 93 03 47 3e b9 5c 02 bb
       -0.055628724 0.119170226 0.19434957 -0.0019891693
000030 6c 38 d7 bd a2 e5 d6 bd 91 3f 79 3e d8 a5 35 be
       -0.105088085 -0.10493018 0.24340655 -0.17739046
000040 a1 b0 9e 3d b6 6f 55 be 53 6d 12 3e 42 dd 88 be
       0.07748533 -0.20843396 0.14299516 -0.26731306
000050 0a 84 85 3d 47 e0 72 3d b5 44 1c be df c0 d0 3b
       0.06519325 0.05929592 -0.15260585 0.0063706483
000060 ca 02 18 3e 43 ab 81 be 3c 86 b4 bc 33 a8 98 3d
       0.14844814 -0.25325975 -0.022036664 0.074539565
000070 1e 02 30 3e f5 51 5f bd 97 f1 d3 3c e5 48 09 3e
       0.17188308 -0.05452152 0.025872035 0.13406713
000080 49 3d a8 bd 23 89 d0 3d 43 8c ea 3d 45 5e 31 3e
       -0.08214814 0.10182407 0.11452534 0.17321117
000090 38 e8 30 be 2e 43 97 bb f7 87 2a bc b9 a5 39 be
       -0.17276084 -0.0046161627 -0.010408393 -0.18129624
0000a0 6d 83 a4 bd dc 10 81 3e 72 6e 70 be 7a 3a 3b 3e
       -0.0803288 0.25208175 -0.23479632 0.18284026
0000b0 2d aa 3d be dd f4 c8 bd e5 b6 fe bd 42 50 20 bc
       -0.18521948 -0.09812329 -0.12437228 -0.00978476
0000c0 e8 bc b1 3c bb d0 d8 bd f9 b5 02 be 45 3c cc bd
       0.021696523 -0.10586687 -0.1276473 -0.09972433
0000d0 36 cf fc 3b 1d 4d 5c 3e 33 fa 09 3e 82 45 8c bd
       0.007715131 0.21513791 0.1347435 -0.06849195
0000e0 5f cd 3d 3e 59 91 f3 bd ae 81 0d 3e e1 a6 53 3d
       0.18535374 -0.11892957 0.13819 0.05167282
0000f0 0c ec 5f be 33 c0 88 bc 9c ac 82 be df 3b 8c be
       -0.21867388 -0.01669321 -0.25522316 -0.27389428
000100 69 c3 2d 3e 31 51 f9 3d c6 8a 1c 3e 1b 13 00 be
       0.16969074 0.12173689 0.15287313 -0.12507288
000110 de 00 e5 bb 2b cc 49 bc 5a 1c 09 be 1e c9 22 be
       -0.006988629 -0.012316744 -0.13389722 -0.15897033
000120 a3 7a 97 3d 75 fe 49 3e 31 a7 7b be 7a 7e 2d bd
       0.07396438 0.19725974 -0.24575497 -0.042356946
000130 c9 d4 4f be e2 79 20 be 72 f0 43 bd 9d b0 15 be
       -0.20296015 -0.15671495 -0.04783673 -0.14618154
000140 2d 0d 67 bc 12 8b f7 bd 87 88 96 3d 85 bd 07 be
       -0.014102262 -0.120870724 0.07350259 -0.1325589
000150 77 eb 25 3e 8f a8 20 be c4 8a b1 3d 5f 4d 36 bd
       0.16203104 -0.156893 0.086690456 -0.04450738
000160 8b c2 20 3e 7c 21 fc 3d 96 be 1d be 71 b5 63 be
       0.15699212 0.12311074 -0.15404734 -0.22237183
000170 44 a2 93 be d7 85 af bd 99 f5 93 3d f2 9f 6a 3e
       -0.28834736 -0.0857045 0.072245784 0.22912577
000180 80 66 90 3d f4 d5 c0 3e 71 b6 81 bc a3 3c a9 3b
       0.070508 0.37663233 -0.015834065 0.005164699
000190 a5 d6 d6 bc c9 75 34 3e 58 67 cf 3d 8a da 0b 3e
       -0.026225397 0.17623056 0.10127133 0.13657585
0001a0 bd b7 f1 3d 5a 32 1a be 50 5e 33 be 8e 62 a0 3d
       0.118026234 -0.1505827 -0.17516446 0.07831298
0001b0 57 eb 4c be 2c fa 9d bd 09 cd 31 3c 2d 41 4a bc
       -0.2001165 -0.07713732 0.010852107 -0.012344641
0001c0 a7 df 82 bd e0 8b 2b 3c 69 d6 f1 3d 96 db 02 bd
       -0.063903145 0.0104703605 0.118084736 -0.031947695
0001d0 28 84 49 3e 65 fb 75 bd 91 5f f5 3c 97 6d 17 bb
       0.1967932 -0.0600542 0.029952796 -0.0023106092
0001e0 9a 92 2f 3e b8 f1 38 be f4 3e 67 3e af 75 02 3e
       0.17145768 -0.18060958 0.22582608 0.12740205
0001f0 30 f4 66 3e 6e a0 aa bd 70 72 69 3e 0b c2 62 bd
       0.22554088 -0.08331381 0.2279756 -0.055360835
000200 14 33 2a be 39 25 e7 bd 2b 23 d8 3d 15 99 69 3d
       -0.16621047 -0.112863965 0.10553583 0.057030756
000210 06 e5 95 3d b7 5c f1 3b 65 df 5a 3d 9f 9b b1 bd
       0.073190734 0.007365789 0.053435702 -0.086722605
000220 32 41 4e be 9f a0 a9 3d 3b 2c 18 bd 0c 96 11 be
       -0.20142058 0.08282589 -0.037151556 -0.14217395
000230 ad e9 80 be 65 ca 20 3e fd c5 17 3e 27 fc 81 3d
       -0.2517828 0.15702207 0.1482162 0.06346922
000240 d7 86 18 be d6 7f 81 be ac db 44 be 87 71 cc 3d
       -0.14895187 -0.25292844 -0.19224423 0.09982591
000250 08 4c 80 bd 2a c7 95 3d ad 5d 91 bd 23 43 55 3d
       -0.06264502 0.07313378 -0.07097945 0.05206598
000260 b4 c0 c8 3d 76 1d 0f be f0 fe 60 be 82 37 59 be
       0.0980238 -0.13976082 -0.21972251 -0.21212581
000270 5f 44 a7 3d d3 81 69 28 32 dc af bc f4 e7 17 3e
       0.081673376 1.2962249e-14 -0.021467302 0.14834577
000280 19 e9 ec bd bb 89 66 3e 14 ea 94 bd 4d 72 14 3d
       -0.11567897 0.22513478 -0.07271209 0.03624182
000290 31 72 92 bd b5 03 68 3e 8f 86 6d 3e e5 b7 3b be
       -0.071506865 0.22657664 0.23195861 -0.18331869
0002a0 96 a5 72 3d f5 ac 0f bd b2 c5 26 bd c5 72 0b be
       0.059239946 -0.035077054 -0.04071588 -0.13618
0002b0 ad 7c 37 bc 5f 97 fe bd 16 01 81 3d 59 07 91 be
       -0.011199159 -0.124312155 0.06299035 -0.28325918
0002c0 f5 45 ee 3d 7d 2f 92 3d 48 08 47 3c ae 01 76 be
       0.11634437 0.07137964 0.0121479705 -0.24024078
0002d0 aa 99 9d 3c 47 89 4f be a5 bf 33 3e f0 87 b3 bd
       0.019238312 -0.20267211 0.17553575 -0.087661624
0002e0 f6 e7 6e bc 81 77 a6 bd 1a 2e ab bd 52 a7 99 bc
       -0.014581671 -0.08128262 -0.083584026 -0.018756542
0002f0 6f 60 0f 3e de bb 1b be 07 75 0c be 11 7c 96 ba
       0.1400163 -0.15208384 -0.13716517 -0.0011481066
000300 dc 29 9a 3b 2e 3c 50 bc a4 26 ba bc 8c 1f e1 bd
       0.004704697 -0.01270966 -0.022723503 -0.10992345
000310 64 51 4e 3e 14 54 15 3e 51 24 85 bd e8 64 6c 3e
       0.20148236 0.14582855 -0.065010674 0.23085368
000320 e0 d1 2a 3e 8d 1b fb 3d c7 dc 52 bc c0 d1 ca bd
       0.16681623 0.12261114 -0.01287002 -0.09903288
000330 7b 03 4e 3e a4 13 33 be 80 61 33 3d b9 c0 9e 3d
       0.20118515 -0.17487961 0.043794155 0.07751603
000340 4d 2c c2 bd 85 ac 79 be 1b af 41 3e 05 7d 5b be
       -0.09481106 -0.24382217 0.18914454 -0.2143441
000350 01 1c 0e be b8 fa ec bc 4d 57 8e 3b a3 e0 c9 3d
       -0.1387787 -0.028928146 0.004343903 0.09857299
000360 2c 61 51 3e a1 72 e7 bd b8 55 54 3e 6c 7d 5a be
       0.20447224 -0.113011606 0.20735824 -0.21336907
000370 f6 9a 36 be 6e bc 45 ba 2c 88 82 3d 0e 85 c5 3c
       -0.1783255 -0.0007543032 0.06373629 0.024111297
000380 07 78 ef bd 6d 4f 16 bd 4b ee 0a bd 56 f4 4d be
       -0.11692815 -0.03669684 -0.03391866 -0.20112738
000390 f4 2f 46 bc af 16 f3 3c 92 d5 27 3e 7d 99 dc bb
       -0.012096394 0.029673902 0.16390064 -0.0067321644
0003a0 a8 26 31 3c 63 43 25 be 3d d2 7d be aa 92 16 3e
       0.010812439 -0.16138987 -0.24787231 0.14704385
0003b0 88 14 d9 3c e0 a1 a6 3c aa a2 73 be 1b 9c 2e be
       0.026499048 0.02034086 -0.2379252 -0.17051737
0003c0 73 f7 1b 3e 91 7d 5d be 84 72 5a bd ea e5 bf bd
       0.15231113 -0.21629931 -0.053331867 -0.093700245
0003d0 61 58 1e bd f6 e9 f1 bd 1e 13 0a 3e 20 87 0f be
       -0.038658503 -0.11812203 0.13483855 -0.1401639
0003e0 7f 48 16 be a6 3c 23 80 cd 99 6a be 79 a7 9d 3b
       -0.14676093 -3.235999e-39 -0.22910233 0.004811224
0003f0 22 c0 45 bc bd 40 59 bb 0d 63 13 3d fd 3e 18 bd
       -0.012069734 -0.003315016 0.035983134 -0.037169445

energy_lin.1.weight f4 [300, 300]
000000 94 ad f7 3a a6 d3 d4 3d 0f ca d1 bc 22 c8 b0 3d
       0.0018896335 0.10391931 -0.025609044 0.08631922
000010 f9 71 8c 3e 4f ac 5f bd 3a de 1a 3d 7a 36 1d 3e
       0.27430704 -0.054607686 0.037809588 0.15352812
000020 cf 47 f0 bd a3 81 05 3e 22 d6 b1 3d 32 d8 02 3e
       -0.117324464 0.13037734 0.08683421 0.12777784
000030 6a 29 54 3d 92 a7 72 bd 80 02 da 3d 40 d0 c9 bc
       0.051797308 -0.05924184 0.10645008 -0.024635434
000040 91 62 91 bc b6 61 80 3d d3 2a 0f 3d 3c a5 19 3c
       -0.017747195 0.06268637 0.03495295 0.009377774
000050 51 97 04 3e c3 da f4 bc 62 bc 1d 3d 26 39 6e 3d
       0.12948348 -0.02988947 0.038509734 0.05815997
000060 a0 11 00 3e a1 64 49 3d a2 f1 01 bd 4b 1c 8b bd
       0.12506723 0.049168233 -0.03172458 -0.06792506
000070 94 6a 17 be 45 60 26 3e c3 a4 1b 3d 6a 53 b8 bc
       -0.1478675 0.16247661 0.037998926 -0.022500712
000080 c4 d0 bf 3d e9 8e c2 3d 22 6a 1b 3d 59 1b 8b bc
       0.09365991 0.09499914 0.037943013 -0.016980814
000090 42 5c 82 3d 08 42 b2 bd 2e f6 cb bc 01 a6 3e 3c
       0.06365253 -0.08704001 -0.024897661 0.011636258
0000a0 1d f9 f8 3b fa c8 54 be ad ac a3 3d f6 0c 15 bd
       0.007598056 -0.20779791 0.0799192 -0.036389314
0000b0 9c 31 e8 bc 22 0c b9 3d ae 14 be bd 94 8b 5e bd
       -0.028343968 0.09035517 -0.09281288 -0.05433233
0000c0 fc be 8a 3d ca 02 64 bc 92 52 19 be 26 1a 8d 3c
       0.06774709 -0.013916681 -0.14972904 0.017224383
0000d0 2f b8 eb 3c cf 79 0e be f1 f3 36 be f2 38 6c bd
       0.028774349 -0.13913654 -0.17866494 -0.057671495
0000e0 a5 2d 23 3e ed e5 a9 3d eb 84 b8 3d 79 e3 1d 3e
       0.15935381 0.08295808 0.09009727 0.15418805
0000f0 e2 b4 ef bc 2b 4d 04 3e 48 2c 66 3c c6 de 48 3d
       -0.029261056 0.12920062 0.014048643 0.04904058
000100 af fd c0 bd 54 74 97 3d 19 af 89 bc 7e dc 7f 3d
       -0.09423386 0.07395235 -0.016807126 0.062466137
000110 29 0d 84 bd 4b 36 07 3e 78 df 5d bd 3e 14 f7 3d
       -0.064478226 0.13204305 -0.054168195 0.12064408
000120 4f 2b 23 bd f8 c8 bf bd 4d b9 14 be f0 68 24 3e
       -0.039836224 -0.093645036 -0.14523812 0.16055655
000130 56 c2 aa 3d 6b 66 e0 3b 48 05 29 3d b5 71 87 bc
       0.08337848 0.0068481467 0.041264802 -0.016533712
000140 2d c4 63 3d 1f e0 04 be f8 1a d3 bd ce ff 6d 3d
       0.05560701 -0.1297612 -0.10307878 0.058105282
000150 6a 44 3a 3e bc a4 ad bd 9a 42 ce 3d 02 7a 10 be
       0.1819016 -0.08478686 0.10071297 -0.14109042
000160 b6 75 3c 3d b2 6c 17 3d e9 16 3e 3d 3a 50 63 3c
       0.046010695 0.036968894 0.046408568 0.013874108
000170 d4 54 1f bc e5 97 9b bd 85 a9 01 3e 3c b0 c8 bd
       -0.009724814 -0.07597331 0.12662323 -0.09799239
000180 f0 48 87 bd 43 4b 91 3d 2e 71 83 bd da e4 33 3d
       -0.066057086 0.07094433 -0.06418072 0.04391942
000190 a5 54 05 3d 61 d6 c4 3d 3a fe 5d 3d db 41 e0 3d
       0.032551426 0.09611202 0.054197527 0.10950061
0001a0 db e1 ee 3c c2 7f 26 be 5e e9 92 bd 50 6b 9a 3d
       0.02916043 -0.16259673 -0.071734175 0.075399995
0001b0 ad fa c4 3b 40 72 be 3c 99 15 35 3d 4d 08 71 3d
       0.006011328 0.023247838 0.04421005 0.058845807
0001c0 49 7b 5e 3d f8 47 9c 3d b0 87 84 3d e4 c1 28 bd
       0.054316793 0.076309144 0.06471193 -0.041200534
0001d0 fb 9c 0a be 8d 14 d6 bd ac 94 a8 3d 80 ab 4e 3d
       -0.13536446 -0.104531385 0.08231482 0.050456524
0001e0 25 96 96 3d 06 4a 83 3d 53 d7 de 3d 08 c7 25 3e
       0.073528565 0.06410603 0.108809136 0.16189206
0001f0 63 92 e4 bc 06 1f 71 bd 94 69 05 be 1e c9 3b bc
       -0.027901834 -0.058867477 -0.13028556 -0.011461524
000200 ad 03 87 3d d5 a8 5c 3c 9b c2 9a 3c b8 2c 1c 3e
       0.06592498 0.013467987 0.018891623 0.15251434
000210 ef cb 86 bd ca bd c6 bd 3d 06 25 bd 05 e6 1c 3e
       -0.06581866 -0.09704168 -0.040289152 0.1532212
000220 b4 99 76 bc f4 39 f6 3d d8 68 81 3d 6e 9c 21 bc
       -0.015051294 0.120227724 0.063188255 -0.009863956
000230 48 69 1f 3e f4 48 a4 bc ae 11 cf 3d 57 56 0d bd
       0.15567505 -0.020054318 0.10110794 -0.03450617
000240 e4 ff c7 bb 40 8a c2 3d bb aa 82 bb c7 74 35 bd
       -0.0061035026 0.09499025 -0.003987638 -0.04430082
000250 51 86 ce bc 61 dd 02 bd ea 0f 0c 3d 09 50 1e 3c
       -0.025210531 -0.031949405 0.034194864 0.009662637
000260 62 88 9a 3d 31 40 cd bd 7c d2 ff bc 4e 90 93 bd
       0.07545544 -0.10022009 -0.031228296 -0.07205258
000270 77 5c 0f 3b 4c b3 fc 8b cb 42 62 bc c9 4a 37 bd
       0.0021875182 -9.7336645e-32 -0.01380987 -0.044749055
000280 d4 12 ae bd 1a 74 1d 3e e9 5c 2c 3e f2 a8 47 bd
       -0.08499685 0.1537632 0.16832317 -0.048745103
000290 87 ff 80 bc 58 c0 0d be e9 ca 1e bc f2 19 93 3c
       -0.015746845 -0.13842905 -0.009691932 0.017956708
0002a0 35 b6 a5 bd 9a f7 ce bd 62 5e 35 bd 0b 29 f9 bd
       -0.08091394 -0.1010582 -0.044279464 -0.121660315
0002b0 b5 8e b4 bd cd d5 cb 3d 22 7f 0d be 30 68 a6 3d
       -0.08816282 0.09952889 -0.13818029 0.08125341
0002c0 6b 45 a4 bd 0b 27 b3 bd a5 9b 88 be af 90 c7 bc
       -0.08021053 -0.08747681 -0.26681247 -0.024360983
0002d0 d3 9e 8d bd 38 b1 b6 3d 9c 3a ee 3b ff a6 7e 3d
       -0.06915059 0.089205205 0.0072701704 0.06217098
0002e0 72 e7 8a bc 1f bb 4c bd 83 22 07 be 70 85 10 3e
       -0.016956065 -0.04998314 -0.13196759 0.14113402
0002f0 cf 83 05 3d f2 31 0b be e0 da b2 3d 29 07 0f bd
       0.032596406 -0.13593271 0.08733153 -0.034918938
000300 ed d0 a7 3c 94 d1 9f bc 78 cb e7 bd 5c 4d 93 3d
       0.020485366 -0.019509114 -0.113181055 0.071924895
000310 af 21 23 be 03 87 56 bd 0a 35 2f bd bb 49 a2 3d
       -0.15930818 -0.05237485 -0.04277519 0.07924219
000320 53 3d aa 3c 49 48 01 3e 07 b0 8a bd ff 60 27 be
       0.020781195 0.12625231 -0.06771856 -0.16345595
000330 c2 11 dd bc f0 db cf 3d 23 a7 25 bd 8e 7b b1 3d
       -0.026986007 0.101493716 -0.040442597 0.08666144
000340 0d 32 f6 bd fb 5c 80 bd 99 89 a9 bd 16 e8 55 3d
       -0.12021265 -0.062677346 -0.08278198 0.052223288
000350 cb 8a 13 3e cc 17 29 3e d6 28 d2 bd ac 7b 07 3d
       0.14408414 0.16512984 -0.10261695 0.033076927
000360 b5 05 e4 3d 3a 7e 12 3e 8d 41 24 be 17 87 fc 3d
       0.11133901 0.14305964 -0.1604063 0.12330454
000370 1c 84 71 be f1 f4 2d bd c0 fc 1a 3d 5c 52 e9 3d
       -0.23585552 -0.042469922 0.037838697 0.11392662
000380 74 9d a8 bd dd ac 02 bc 64 8a 8c bc e6 60 d3 3d
       -0.08233157 -0.007975784 -0.017155834 0.10321216
000390 ff 1b b0 bc ca 8e c1 3d d0 18 0e 3d a8 9d 0f 3d
       -0.021497725 0.09451063 0.03469163 0.035062462
0003a0 b8 81 fc 3d 8f a1 08 bd 7d a8 8b 3d 1a fa 20 3e
       0.123294294 -0.0333572 0.06819246 0.15720406
0003b0 c4 74 38 be cd e8 b4 3d ca 0d e4 3a 35 60 01 3d
       -0.18013293 0.08833466 0.0017399129 0.03158589
0003c0 8d 67 b5 3d 5c 20 a0 3d b5 d0 41 bc 96 99 eb bd
       0.08857641 0.07818672 -0.011829545 -0.115039036
0003d0 77 91 9e 3d 12 ae c8 bd ad 4e 74 bd bf be ef 3d
       0.07742589 -0.09798826 -0.059645344 0.11706304
0003e0 cb 94 1d bd bb 47 1a 94 a1 17 80 bc 4e 37 3e bd
       -0.03847198 -7.7891594e-27 -0.015636267 -0.04643946
0003f0 c2 58 af bd d2 e1 b5 bd 04 68 a8 bc ab 14 bb 3d
       -0.08561851 -0.088809624 -0.020557411 0.091348015

energy_lin.1.bias f4 [300]
000000 35 7d 7d 3d 55 2a e6 bc e6 56 0d bb 1c 35 0e 3d
       0.061886985 -0.028096357 -0.0021566688 0.034718618
000010 cc fa 05 3d af e4 0f 3c 18 59 41 bd 68 b2 2b bc
       0.03270988 0.00878255 -0.047204107 -0.010479547
000020 9c a3 03 bd 62 4e 78 3d 62 69 fa 3c 2a 36 10 3c
       -0.032138452 0.060621627 0.030567829 0.008801976
000030 ee 5a b8 bb 4a 04 2b 3d d6 f3 50 bc 94 c5 a6 3d
       -0.005626074 0.041752137 -0.0127534475 0.08143154
000040 21 bc 51 3d 17 17 ab bc 64 44 bd 3d ce 47 6c bc
       0.051204804 -0.020885034 0.0924156 -0.014421416
000050 b2 7b c8 3c 61 5c c7 3b 73 81 b2 3c ff a4 8b 3d
       0.024473045 0.0060840105 0.021790242 0.0681858
000060 99 6b 83 bb e8 c2 18 bc d9 56 63 3d 01 78 df 3d
       -0.0040106294 -0.009323813 0.055502746 0.10911561
000070 70 82 58 3d ea 91 17 3c c7 a0 f4 bc dd 40 3b 3d
       0.05285877 0.009251097 -0.02986182 0.045716155
000080 5d 0f f8 bc 06 d5 0d bc db 10 61 bc 9d 8e 03 3c
       -0.030280763 -0.008656746 -0.013736929 0.008029607
000090 43 94 8a bc 72 72 2f 3d 11 e4 95 3d 86 65 2f 3d
       -0.0169164 0.042833753 0.07318891 0.04282143
0000a0 5e 3f ad bc 4a a2 cb bc 55 a1 d2 bc bb bb 76 3b
       -0.02114838 -0.024857659 -0.025711695 0.0037648517
0000b0 03 52 73 3d 03 c1 ba bc 49 d3 74 3d 44 26 1a bd
       0.059404384 -0.022797113 0.05977181 -0.03763415
0000c0 28 74 d0 3c 2f b8 43 bc 2b ae 45 3d d4 ac 99 bb
       0.025446013 -0.011945768 0.048261803 -0.004689792
0000d0 9a be 76 3d 1d ac 5a bd 9e fc ee bc 81 72 8f bc
       0.060240366 -0.053386796 -0.029173192 -0.017510654
0000e0 9d e4 b3 3a e5 eb 03 3c 16 02 3a 3c a8 09 f7 3c
       0.0013724748 0.008051847 0.011353036 0.030155972
0000f0 ab 2e 3c 3c 07 bf 1f 3d cb 44 5a 3d d1 f0 05 3d
       0.011485736 0.039000537 0.053288262 0.032700364
000100 b9 8a 1d 3d 8a 50 89 3d f2 97 ab bb 4e 2b 9f 3d
       0.038462374 0.06704815 -0.005236619 0.077719316
000110 4b 4d 17 3d 32 6f 0f 3d 15 d8 09 bd a7 73 b6 3d
       0.036938947 0.035018153 -0.033653338 0.08908778
000120 e3 31 90 3d 5c 8f 0b bc 81 d0 b8 3d f9 d9 57 bd
       0.07040765 -0.008518066 0.09024144 -0.05269811
000130 f5 ed 6c bc c6 55 b9 3c c7 f6 bf 3d 74 82 fe bc
       -0.01446103 0.022623908 0.09373241 -0.031068064
000140 43 f3 42 bc e1 52 b3 bc 60 6b cb 3c b9 3a 2a bd
       -0.011898818 -0.021890106 0.024831474 -0.04155991
000150 09 dc 77 3d af b9 34 3d 2e d4 46 bd a3 58 85 3d
       0.060512576 0.044122394 -0.048542194 0.06511047
000160 00 f5 49 bd 59 0d 19 3d ee 77 9f 3c 0d c4 96 3d
       -0.049305916 0.037366245 0.019466367 0.073616125
000170 23 43 e9 3b 21 60 f8 3a ee f5 40 bc 98 73 30 3d
       0.007118599 0.0018949547 -0.011777384 0.04307899
000180 69 e8 1a bd 15 af a8 3c f1 20 8d 3b ba 50 76 bc
       -0.0378193 0.020591298 0.0043069054 -0.015033895
000190 19 a9 65 3d cb 25 48 bd bd 66 e5 3c 3a d1 e0 bc
       0.056069467 -0.048864167 0.028003091 -0.027443517
0001a0 ad ca 7b 3d 35 b4 09 bb 69 59 24 bc 2d e8 94 3d
       0.061472584 -0.0021011953 -0.010031083 0.072708465
0001b0 62 96 42 3c 30 8f 2b 3c eb b2 74 3b 6b 88 95 3a
       0.011876674 0.01047115 0.0037338089 0.0011408454
0001c0 58 0a a8 3b c7 85 89 3d c4 10 1e bc a2 f8 19 bd
       0.005128186 0.06714969 -0.009647552 -0.03759063
0001d0 24 48 23 bd 10 f2 73 3d 93 1c 23 bd f8 e5 7f 3b
       -0.03986372 0.05955702 -0.039822172 0.0039046984
0001e0 ca 4f 94 3d 0f cf c0 bb b2 14 38 3d ca 39 be 3d
       0.07241781 -0.0058840583 0.04494161 0.09288366
0001f0 51 81 9c bc 47 1d 5b bd be 4f c9 3c 93 21 90 3d
       -0.019104632 -0.053494718 0.024574157 0.07037654
000200 a8 cb 63 3d fc d2 4b 3d 2e c1 7e 3c e9 b3 41 3d
       0.055614144 0.049761757 0.015548987 0.047290716
000210 d0 ef a0 bb 64 90 67 3d a9 7f 00 bd f8 1d 0d bd
       -0.0049114004 0.056534186 -0.031371746 -0.03445241
000220 c1 15 90 3d 8b 00 fd ba ee ab 8e bc 11 2d e6 bc
       0.07035399 -0.001930253 -0.017415967 -0.028097661
000230 f0 35 3b 3d 9e 4b 64 bc 0d 29 a5 3d 7b 07 a0 bc
       0.045705736 -0.013934044 0.080644704 -0.019534817
000240 c2 17 06 3d f8 1f f2 3b 55 48 57 3d 5d d4 1d 3d
       0.0327375 0.007389065 0.052559216 0.038532604
000250 7e ec c4 bc 63 76 fc bc bf 47 c9 bc fb 9c 01 3d
       -0.02403855 -0.03081817 -0.024570344 0.03164385
000260 73 a1 83 3d 41 4e 20 3d 54 9b 82 3c 7c 7b a4 3c
       0.06427278 0.03913713 0.015943207 0.020078413
000270 4c 01 5c bc 04 78 b7 bb f5 c4 65 3d a4 df e9 bc
       -0.013428044 -0.005599024 0.056096036 -0.028549023
000280 f4 17 70 3d 38 a3 57 3d e4 69 3e 3d 82 19 f8 bc
       0.058616593 0.052645892 0.046487704 -0.0302856
000290 71 64 c4 3c a1 cb bb bc 0a 85 22 3d f8 35 93 3d
       0.023973675 -0.022924246 0.039677657 0.07188028
0002a0 51 21 70 bc c6 5d 88 3d 58 21 28 bc 02 a4 26 bb
       -0.014656381 0.06658511 -0.010261856 -0.0025427346
0002b0 0f 3b bd 3b ab 34 1c bc 4b 04 e3 3d 20 08 4f 3c
       0.0057748626 -0.009534041 0.11084803 0.0126362145
0002c0 f7 4b 83 bc cc 3c 03 bb e7 09 6d bb d7 c0 06 3d
       -0.016027434 -0.0020025251 -0.0036169232 0.03289875
0002d0 c3 cf a1 bc 0a 1f 8b 3d 7f d6 08 3d de 12 0f 3d
       -0.019752389 0.067930296 0.033407684 0.034930103
0002e0 3d 4b 59 bb f5 75 11 bc 89 fb 86 3d 5e 7d 09 bc
       -0.0033156418 -0.008878221 0.06590945 -0.008391706
0002f0 74 90 10 bd 93 b4 e8 3c af 42 49 3d db 9f aa bc
       -0.03529401 0.028406417 0.04913586 -0.020828178
000300 da d9 8d 3b b8 c9 3d 3d 40 4a 24 3d da 40 c5 b5
       0.0043289484 0.046334952 0.040109873 -1.4696518e-06
000310 fb 99 5a bd a1 95 2c bd 60 8d 13 3d 45 7a 12 3d
       -0.053369503 -0.042134885 0.036023498 0.035761137
000320 07 99 81 3d c1 f1 79 bc bd 76 24 3d 91 fe 48 bd
       0.06328016 -0.0152553925 0.0401523 -0.0490709
000330 bc 59 e0 bc 0a 60 1d bc ef 21 62 3d 26 91 2b 3d
       -0.027386539 -0.009605417 0.055208143 0.04188647
000340 1e e1 78 3d 20 69 e1 bb 39 c1 43 bc f3 dd 9f 3d
       0.060761563 -0.006878987 -0.011947923 0.07806005
000350 02 8f 93 3d 51 fb 2c 3d 3a 2f 8c 3d b7 be 94 82
       0.07205011 0.04223186 0.06844945 -2.185611e-37
000360 7f 91 3f 3b 86 e9 d2 3b cf ff d2 ba 5b 7f 37 3d
       0.002923101 0.0064365296 -0.0016097965 0.04479919
000370 ea 07 39 bc 34 45 4e 3d ad 29 51 bd af 43 12 3d
       -0.011293391 0.050358966 -0.051065136 0.03570908
000380 74 b0 da b9 47 1b 8f b9 d1 ab 1a 3d dd b4 4f bb
       -0.00041711668 -0.0002729541 0.037761513 -0.0031693496
000390 0b 73 b4 3c 3d 9e 74 bc 48 6e 26 3d 64 2f 4e 3c
       0.022027513 -0.014930305 0.040632516 0.012584541
0003a0 f6 11 f2 3c b1 31 c2 3d 40 b4 0b bc 78 36 49 3b
       0.02954958 0.09482134 -0.008526862 0.0030702632
0003b0 49 a9 45 3d 4e cf ab 3b 55 72 47 3d 82 ee f3 bc
       0.048257146 0.0052432185 0.04869302 -0.029776815
0003c0 c9 a1 0f bd cf 00 b8 b5 f5 7c 41 3c 1e 64 11 3c
       -0.0350664 -1.3709304e-06 0.011809577 0.008873967
0003d0 5a 7c 04 3d be 4d 27 bc 28 ed ae 3c 06 68 79 bc
       0.032345153 -0.010211406 0.02135332 -0.015222555
0003e0 43 f1 c9 3b 85 ed 5f 3d ad ac f5 38 c6 4c 2f 3d
       0.006162794 0.054669876 0.00011714674 0.042797826
0003f0 44 95 54 3d eb 65 73 3d 7d af bc 3d c0 3c 49 3d
       0.051900163 0.05942337 0.09213159 0.0491302
