models/mpnn_A139_B23_E300_L2/48.pt (torch, 742651 bytes, 9 tensors)

atom_lin.weight f4 [300, 139]
0.2983103 -0.014965061 -5.566398e-36 7.784893e-15 -6.3842664e-34 -2.8603723e-14 0.17919898 0.034038078
-0.048075113 0.06652653 2.2740519e-18 -1.3106158e-14 0.1587057 -1.56907525e-27 6.070116e-20 0.0016598909
-0.19170956 -0.0055053765 1.7986314e-14 -2.329593e-23 1.2877521e-18 -4.910808e-39 1.1553801e-17 -4.916212e-39
-4.910127e-39 0.106946774 -0.21649113 -0.047092706 4.9785852e-15 -2.5968167e-17 1.0669559e-37 -7.193329e-24
-5.4672646e-14 -3.2364526e-14 3.5588016e-31 0.16965248 -3.7537834e-20 -1.5455093e-34 5.5595717e-25 8.507618e-14
-4.91431e-39 -6.476422e-17 4.209523e-29 4.9875425e-21 -4.913855e-39 -1.4284e-22 5.7344354e-14 -4.909791e-39
-1.0897397e-24 6.6658e-15 -1.3051944e-30 1.997628e-19 -5.2294888e-20 0.1460167 1.0925686e-36 -2.770741e-23
-2.5024245e-19 -2.6747946e-36 -1.4625832e-28 6.1657513e-17 -1.2841386e-23 8.48192e-16 2.7223315e-19 -6.873578e-24
-1.181982e-19 -2.124328e-18 -4.4721334e-19 -4.914987e-39 4.907888e-39 -3.4667815e-30 -4.6108143e-19 1.9592396e-23
-5.9982176e-22 -4.917931e-39 -1.8972379e-19 1.3712119e-30 -5.0166746e-27 5.9283218e-15 -7.2663676e-28 -2.222796e-31
4.91956e-25 -4.0073902e-16 4.3758994e-30 4.41686e-39 -9.282926e-19 -6.514646e-14 -2.985232e-22 9.618963e-37
6.364903e-29 4.3532505e-31 -8.0304845e-18 4.906628e-39 4.905234e-39 5.1997e-14 6.750721e-19 1.2218902e-24
-9.838562e-16 4.1139048e-16 9.426669e-35 -1.730588e-17 -3.078585e-26 7.8664924e-16 -4.313922e-20 7.982567e-17
1.2830708e-26 -1.21832595e-17 -3.4415624e-38 1.058736e-33 -4.7097864e-17 8.401484e-24 -4.3800857e-36 -4.912909e-39
5.184898e-37 2.0061175e-18 3.727336e-39 2.4166296e-23 -3.1896245e-25 -3.304806e-14 -1.2613491e-32 -0.19173251
-0.17658591 -0.084391065 0.09478213 0.04479087 -4.543646e-22 -0.18051009 -2.1762446e-22 -7.7870334e-23
0.11796852 -0.18651432 -0.12525888 -0.23265608 -0.10368959 0.0058188927 -3.9208083e-20 -1.7918791e-15
2.2149062e-18 -1.0763019e-21 0.0028055713 -0.32539567 0.035054896 6.318829e-33 3.8869467e-21 -4.123047e-39
-7.7503484e-36 -0.059977006 -0.17703347 0.0439622 2.919273e-18 2.7230429e-14 -1.0755942e-14 0.34504542
-4.913605e-39 3.2734464e-16 -0.04102713 0.41532344 -0.15105607 2.3576495e-21 2.2065174e-20 -4.912563e-39
-5.418816e-24 3.55942e-14 -4.880542e-39 -6.097867e-35 -6.9789644e-28 -0.1826382 -0.1378438 -3.2762908e-18
-1.1104522e-33 -4.912605e-39 3.9294973e-20 -2.7426315e-25 -8.716588e-19 1.6071942e-38 7.603706e-28 -2.421392e-28
-4.0141387e-27 -3.1584377e-28 1.0374584e-27 1.6101752e-27 -5.374944e-22 -2.3330089e-36 1.8251598e-13 -1.05887894e-13
-5.0587515e-14 -4.913458e-39 7.134622e-18 6.7221397e-25 -4.173354e-32 -9.811676e-26 -1.8815494e-34 -1.2953278e-20
-4.4034326e-21 8.178687e-15 5.4838173e-21 -1.5245111e-26 1.1086155e-28 2.6935965e-16 -8.067362e-14 4.3746185e-14
5.809013e-14 4.904898e-39 1.7769727e-19 -2.1965067e-14 -1.5149097e-17 -1.3142319e-29 5.918259e-36 4.6203418e-24
-1.28277125e-33 5.5841955e-20 1.3982889e-14 1.1332558e-14 2.9818133e-32 1.5987926e-14 8.4286396e-24 2.7519302e-28
9.99525e-18 -4.916292e-39 -2.9824794e-22 -5.006681e-27 -1.0737497e-24 -2.7213652e-14 1.0467289e-14 1.063474e-15
-5.6135206e-22 -4.90515e-39 -2.7754507e-17 6.77171e-25 -4.909187e-39 1.088486e-14 6.6556475e-30 -1.52274e-17
4.447803e-25 -3.1657582e-17 1.998337e-39 3.2460452e-23 -4.911752e-39 7.4402234e-19 1.0132849e-30 -2.1884036e-35
-1.5502153e-33 4.9744484e-24 6.029002e-21 -1.1955317e-16 4.896199e-21 2.36873e-15 1.8038588e-18 -1.3574401e-15
4.914689e-39 4.917595e-39 -2.8892254e-15 -5.9597392e-24 4.911519e-39 -7.9539736e-17 -2.0360105e-19 8.576636e-34
00000000: 21bc 983e 0430 75bc b5c4 ec84 7b3d 0c28
00000010: 5527 5488 d9d1 00a9 f07f 373e 836b 0b3d
00000020: 69ea 44bd 103f 883d a0cb 2722 7c19 6ca8
00000030: bf83 223e 41a1 f892 9a53 8f1f b290 d93a
00000040: 834f 44be 7266 b4bb 9e01 a228 ee4d e199
00000050: e609 be21 5679 3580 4821 5523 6688 3580
00000060: 7077 3580 e906 db3d daaf 5dbe 48e4 40bd
00000070: 585f b327 9a83 efa3 fd39 1102 a423 0b99
00000080: 4539 76a9 c2c1 11a9 bcfa e60c 61b9 2d3e
00000090: 7544 319f f56e 4d87 770f 2c17 1493 bf29
000000a0: 1983 3580 0c56 95a4 bc72 5510 8d6c bc1d
000000b0: d481 3580 d7ae 2c9b c520 8129 8076 3580
000000c0: 09a1 a897 2729 f027 a7c7 d38d 9ad6 6b20
000000d0: a4f4 769f 6785 153e 13e4 b903 1dfc 059a
000000e0: 92b7 93a0 de8b 6384 8a67 3991 2c2c 8e24
000000f0: 7763 7899 8679 7426 b6b2 a020 4ff4 0499
00000100: 378b 0ba0 6cbf 1ca2 7cfe 03a1 fc84 3580
00000110: 3271 3500 1ea1 8c8e 5416 08a1 6c7c bd19
00000120: f648 359c 318d 3580 7ffc 5fa0 ea7d de0d
00000130: 20bb c693 1e97 d527 c747 6692 8944 908c
00000140: c540 1817 a402 e7a5 f081 b10e 6918 3000
00000150: e7fd 88a1 61b2 92a9 3a72 b49b 7ea8 a303
00000160: 955e a110 6445 0d0d e422 14a3 af6d 3500
00000170: cc69 3500 762c 6a29 013f 4721 0f14 bd17
00000180: e3c9 8da6 8526 ed25 969a fa06 5b9e 9fa3
00000190: b471 1895 78bc 6226 1eb8 4b9f c210 b824
000001a0: 6b23 7e14 d1bd 60a3 6160 3b81 a6e9 af08
000001b0: 5833 59a4 2282 2219 e94e ba84 317f 3580
000001c0: d56e 3003 7d06 1422 4c96 2800 dab8 e919
000001d0: 9e6d c596 d2d5 14a9 69fc 828a 8755 44be
000001e0: f0d2 34be 39d5 acbd 221d c23d a276 373d
000001f0: c252 099c a3d7 38be c18b 839b 6747 bc9a
00000200: 7b99 f13d 9cfd 3ebe dd43 00be 653d 6ebe
00000210: 355b d4bd 69ac be3b aa27 399f 561e 01a7
00000220: 656e 2322 6aa5 a29c addd 373b 439a a6be
00000230: b995 0f3d a83c 030a 3ed8 921d 61e5 2c80
00000240: e9d4 2485 73aa 75bd 4348 35be b511 343d
00000250: 8267 5722 1845 f528 07c3 41a8 cba9 b03e
00000260: 2281 3580 8bb3 bc25 100c 28bd 46a5 d43e
00000270: 71ae 1abe 9323 321d 5166 d01e 3a7e 3580
00000280: 5ba1 d198 524d 2029 f724 3580 ef1b a286
00000290: 162c 5d92 8205 3bbe ed26 0dbe 62bf 71a2
000002a0: 6a81 b888 587e 3580 b590 391f bbc2 a996
000002b0: 57a2 80a1 0902 af00 98f8 7012 5579 9991
000002c0: 3404 9f93 9530 c891 5064 a412 7724 ff12
000002d0: 9d72 229c 6f78 4684 a67e 4d2a 3770 eea9
000002e0: 6fd3 63a9 b980 3580 4d9c 0323 470a 5017
000002f0: 64b1 588b e3ec f295 cf19 7a87 35ae 749e
00000300: 635b a69d 8955 1328 3a2c cf1d f3fa 9694
00000310: a188 0c11 7846 9b25 2da9 b5a9 eb03 4529
00000320: aece 8229 dc68 3500 b4c9 5120 ffd7 c5a8
00000330: cbb9 8ba3 6947 858f 22bc fb04 a6bd b218
00000340: 0e23 d588 64da 831f b2e4 7b28 3326 4c28
00000350: 19d3 1a0b a601 9028 9a08 2319 9f6c ae11
00000360: 3c61 3823 9f88 3580 a247 b49b c755 c693
00000370: 9c27 a697 691e f5a8 da8f 3c28 4443 9926
00000380: 83a8 299c 9069 3580 7afd ffa3 0493 5117
00000390: d174 3580 8f15 4428 19fe 060f af72 8ca3
000003a0: 20a7 0917 adfe 11a4 8dc2 1500 18f8 1c1a
000003b0: f77b 3580 bd98 5b21 356a a40d 03b6 e885
000003c0: 6fc9 0089 8d70 c018 eec4 e31d ded5 09a5
000003d0: 22f9 b81d 5baf 2a27 ee19 0522 b3a0 c3a6
000003e0: 2784 3500 418c 3500 cd30 50a7 668e e698
000003f0: 517b 3500 f967 b7a4 a45e 70a0 fa80 8e08

atom_lin.bias f4 [300]
-0.01085095 0.09703964 -0.013365221 0.026638849 -0.020516872 0.036241703 0.053317305 0.13350551
0.09296128 -0.050627615 -0.03153113 0.10453879 0.012297833 -0.04655991 0.0011343308 -0.04299925
0.08671898 0.09161064 -0.048538383 4.5078203e-05 0.00412971 -0.106491566 -0.06773252 -0.0914941
0.064384356 -0.06312996 0.081769414 -0.03297178 0.084407754 0.03995146 -0.004753879 -0.08882498
0.08142273 0.0839616 -0.0541873 -0.03310218 0.023277877 -0.003588952 0.045752738 0.07809177
0.104997106 0.04659493 0.07176398 0.037921928 -0.008330617 -0.059609428 -0.11890602 0.027260657
0.07635969 0.073680304 -0.008519788 0.063724935 0.05652944 0.022357434 -0.043552466 0.043972872
0.0665251 0.021525731 0.057048514 0.08198422 -0.031622987 0.018397491 0.06529158 -0.031348385
-0.04332618 0.015916526 0.11035522 -0.035358556 0.029950412 -0.02985458 0.06509128 -0.01590034
0.08844055 0.025950225 -0.048368443 0.0023571195 -0.00094664824 0.01795395 0.10614428 0.115568794
0.025331868 0.09178968 0.04691271 -0.043035567 -0.036710195 -0.047329236 0.007842462 -0.028578058
-0.006566082 0.02849049 -0.013442597 0.050836 -0.045890108 0.02290453 0.040806077 0.027080629
0.09235344 0.073499896 0.07105916 -0.04081339 0.06508514 0.02832996 -0.13075526 0.06723979
0.08016013 -0.029849052 0.05113649 -0.02197477 -0.068813205 0.0213845 0.08783543 -0.0067964625
-0.045961544 0.03810889 0.06783809 -0.06449855 -0.01119149 0.084300585 -0.02535221 0.05449096
-0.041938804 0.1033997 0.08358034 -0.046731018 -0.06491769 0.057284374 0.016528131 0.050432745
0.04624301 0.12323725 -0.042782307 -0.16924517 0.0614877 0.015553479 -0.00059224723 -0.010182407
0.0028706656 0.047519855 0.041666813 0.08630515 0.0074675763 -0.038997505 -0.0029015816 0.052889116
-0.04319746 -0.039956704 -0.061927564 -0.060852636 0.00811934 0.12113941 -0.055549253 0.020411128
0.027476177 0.11109724 -0.02153746 0.007865015 0.02812772 0.00772681 0.032582868 0.047128364
0.037554882 0.0072419336 0.01887835 -0.07073845 0.01638607 -0.027335204 0.08311697 0.056273494
0.112440154 0.055927336 -0.041262243 0.058167804 -0.014260315 0.034796655 0.0012873102 -0.026598392
-0.10432136 -0.0024753434 -0.049362008 -0.014741618 -0.009044389 -0.049191654 0.08673153 0.01526737
-0.028271554 0.058896832 -0.005031789 -0.055205397 -0.010651435 -0.05779403 0.040390145 0.06657472
0.096927136 -0.03382134 0.06232903 -0.033198483 -0.05647297 0.089401856 0.031587116 0.07471171
-0.03855533 0.02302649 0.028907577 0.008953301 0.1546041 0.019229567 0.10100993 0.07033721
-0.042506337 -0.015610529 0.030836357 -0.0021098736 0.075236216 -0.05463686 -0.05506979 -0.017208263
-0.034813788 0.06675404 0.0035484757 0.003140738 0.01252992 0.14114678 -0.09447309 0.081828155
0.007684855 -0.004653099 -0.011756438 0.079175666 0.08434716 0.057603903 -0.012250393 -0.03829447
0.06914135 -0.054981954 -0.025431482 0.01754443 -0.04108998 0.021857088 -0.051531527 0.09681931
-0.013931685 0.051075682 -0.053005032 0.09504372 0.096838094 -0.0037975095 0.08835154 0.012717249
0.030854851 0.07249928 -0.039944634 -0.05022303 0.032274116 -0.055637565 0.068834454 0.09297998
00000000: 2fc8 31bc b8bc c63d cdf9 5abc b739 da3c
00000010: 0013 a8bc 2e72 143d 3f63 5a3d abb5 083e
00000020: 7c62 be3d e75e 4fbd c926 01bd 6f18 d63d
00000030: da7c 493c 9bb5 3ebd d3ad 943a fb1f 30bd
00000040: b899 b13d 5c9e bb3d 2fd0 46bd 5a12 3d38
00000050: 8552 873b 4018 dabd 59b7 8abd 4261 bbbd
00000060: f2db 833d 484a 81bd b976 a73d 6b0d 07bd
00000070: f9dd ac3d 24a4 233d 6dc6 9bbb dfe9 b5bd
00000080: f6c0 a63d 0ff4 ab3d 81f3 5dbd 2796 07bd
00000090: 3fb1 be3c 9f34 6bbb 3967 3b3d 94ee 9f3d
000000a0: b908 d73d 53da 3e3d fef8 923d 0654 1b3d
000000b0: 247d 08bc 0429 74bd 0085 f3bd be51 df3c
000000c0: 7862 9c3d b3e5 963d 9596 0bbc 3882 823d
000000d0: 6a8b 673d f026 b73c 1264 32bd e61c 343d
000000e0: 503e 883d bb56 b03c b4ab 693d 58e7 a73d
000000f0: 1b87 01bd 56b6 963c 98b7 853d 2a67 00bd
00000100: cb76 31bd 6063 823c eb01 e23d 22d4 10bd
00000110: 915a f53c 9891 f4bc 944e 853d 6e41 82bc
00000120: 5220 b53d 9195 d43c fd1d 46bd e779 1a3b
00000130: 7d28 78ba 2a14 933c 2c62 d93d 55af ec3d
00000140: c784 cf3c 3afc bb3d 8b27 403d 1046 30bd
00000150: 6e5d 16bd 4ddc 41bd ab7d 003c 881c eabc
00000160: 4a28 d7bb e364 e93c 573e 5cbc 6939 503d
00000170: 44f7 3bbd 48a2 bb3c 4624 273d 32d8 dd3c
00000180: cd23 bd3d 1d87 963d 7787 913d f12b 27bd
00000190: 5c4b 853d 3b14 e83c b5e4 05be 04b5 893d
000001a0: ff2a a43d 0086 f4bc 7f74 513d 6f04 b4bc
000001b0: f0ed 8cbd 8c2e af3c 10e3 b33d dcb4 debb
000001c0: 2c42 3cbd 1118 1c3d b2ee 8a3d d117 84bd
000001d0: 835c 37bc c9a5 ac3d 70af cfbc ea31 5f3d
000001e0: 06c8 2bbd 39c3 d33d 2b2c ab3d 0669 3fbd
000001f0: 91f3 84bd 05a3 6a3d 0166 873c 9192 4e3d
00000200: 4f69 3d3d d063 fc3d 803c 2fbd 9b4e 2dbe
00000210: 87da 7b3d 05d4 7e3c 0a41 1bba 1cd4 26bc
00000220: c721 3c3b 2ea4 423d d2aa 2a3d c1c0 b03d
00000230: 92b2 f43b d9bb 1fbd 7628 3ebb 42a2 583d
00000240: d2ef 30bd a4a9 23bd c2a7 7dbd 9d40 79bd
00000250: fb06 053c f017 f83d 9d87 63bd 3d35 a73c
00000260: b815 e13c f386 e33d 546f b0bc 44dc 003c
00000270: 1b6c e63c 2e31 fd3b 9d75 053d ac09 413d
00000280: 26d3 193d be4d ed3b c5a6 9a3c 52df 90bd
00000290: 143c 863c 14ee dfbc 3b39 aa3d 097f 663d
000002a0: 0647 e63d 1014 653d 9902 29bd 5d41 6e3d
000002b0: 19a4 69bc f086 0e3d f6ba a83a dfe4 d9bc
000002c0: 70a6 d5bd 5f39 22bb d12f 4abd d486 71bc
000002d0: eb2e 14bc 307d 49bd 4da0 b13d fe23 7a3c
000002e0: bf99 e7bc ce3d 713d b5e1 a4bb 0e1f 62bd
000002f0: 5b83 2ebc 6fb9 6cbd 2370 253d 5458 883d
00000300: bc81 c63d 3f88 0abd ba4c 7f3d 22fb 07bd
00000310: 3350 67bd 5218 b73d 7e61 013d 7402 993d
00000320: 32ec 1dbd 0da2 bc3c 95cf ec3c deb0 123c
00000330: 8a50 1e3e 5387 9d3c 4bde ce3d f50c 903d
00000340: 201b 2ebd 4ec3 7fbc 879c fc3c ce45 0abb
00000350: 7215 9a3d e6ca 5fbd dc90 61bd 58f8 8cbc
00000360: e798 0ebd 58b6 883d 8b8d 683b d7d4 4d3b
00000370: 4b4a 4d3c c888 103e 1b7b c1bd 8595 a73d
00000380: 3cd1 fb3b 0679 98bb 139e 40bc da26 a23d
00000390: 34be ac3d 12f2 6b3d dfb5 48bc aada 1cbd
000003a0: fb99 8d3d c234 61bd af55 d0bc 56b9 8f3c
000003b0: f84d 28bd a30d b33c b912 53bd 3449 c63d
000003c0: b941 64bc bc34 513d ce1b 59bd 48a6 c23d
000003d0: 0d53 c63d a3df 78bb a7f1 b43d 025c 503c
000003e0: 50c3 fc3c 817a 943d fc9c 23bd aab6 4dbd
000003f0: dd31 043d 37e4 63bd 14f9 8c3d 4a6c be3d

bond_lin.weight f4 [300, 23]
6.5513726e-11 -0.53751296 0.20703095 0.49470255 -0.0001479489 3.0002871e-05 -4.1396143e-24 0.0009934128
-2.1598729e-19 -7.7382406e-30 -8.995229e-09 -3.3108377e-27 -0.072455965 -2.8041283e-19 -0.00036562321 0.00013047931
7.6632375e-07 0.0009292728 1.0892155e-06 5.2232276e-06 -8.763195e-25 -0.00037432846 -5.7060863e-09 0.0004987709
0.59100586 -0.28547904 -0.1982553 -1.9477243e-06 -2.6090586e-06 -1.4343781e-08 2.5212687e-16 -2.8557162e-23
4.421172e-14 8.6877144e-11 1.1712992e-05 -0.37021327 0.00014756955 -8.996481e-09 -4.260546e-09 -6.4352156e-28
1.1493217e-32 -2.763251e-39 2.3426122e-22 1.5517552e-08 4.907267e-39 -1.8285804e-05 5.163803e-09 0.0898484
0.11590046 0.06608541 2.557643e-06 8.826711e-25 -5.0565275e-26 -7.147749e-15 -4.015109e-07 -0.0008466416
-2.7194484e-12 -0.00039116872 -0.438019 4.906941e-39 -4.302523e-15 -1.0378511e-05 3.9896393e-18 1.0595069e-08
0.00031535365 7.188687e-15 -2.4769613e-05 8.578992e-22 5.904274e-06 1.5232259e-06 0.41878498 0.54352653
0.75042224 -9.670632e-05 9.748621e-08 -9.946648e-25 -3.2659913e-13 1.7121885e-21 -4.164928e-10 6.740266e-10
1.1654794e-22 -0.3085658 2.3170645e-38 2.1108146e-09 1.5174848e-20 -1.1877317e-10 7.129632e-13 3.5745944e-30
1.7946536e-21 3.1813425e-07 -0.00057921564 2.420265e-10 -5.175211e-05 0.0528985 -0.64758235 0.3238263
-0.00062220014 1.4713803e-06 5.1547997e-09 -1.0944453e-11 -7.1086847e-06 -1.038529e-06 5.010609e-07 -3.1298764e-09
0.0037078767 0.00024397149 -0.00079212704 -5.4267667e-17 0.00023597681 7.458161e-05 -5.156412e-08 -1.0517488e-21
4.437243e-05 -1.8022598e-05 -3.280093e-27 3.770144e-14 -0.5077279 -0.1015179 -0.26786032 1.6683458e-12
1.9973398e-09 1.1978253e-15 2.5351604e-10 0.0010566725 -4.278493e-27 -3.4850552e-07 -2.190235e-10 -0.15783928
7.694881e-20 -1.0286568e-06 -9.686404e-10 -0.00034371868 3.4238788e-08 -1.2142112e-10 9.493999e-18 -2.2616262e-24
-9.50604e-32 -1.4933022e-32 -2.6132503e-12 -0.5186939 0.0070725004 0.20020632 -2.4543688e-08 5.4291053e-05
4.742294e-17 0.000101504746 -1.2922519e-10 2.6746338e-13 -7.6793333e-07 6.1472535e-11 -0.0636539 -7.6517216e-13
-9.476368e-05 -5.089713e-10 1.5482788e-09 7.7210977e-14 -5.6374313e-25 3.7195585e-27 -1.4634941e-09 -0.00015813914
-1.4134113e-05 -1.11782e-08 -0.13299568 -0.31771854 -0.020922868 4.649455e-08 2.8943233e-25 -0.0001669761
2.4472214e-05 -2.7739497e-07 -8.522863e-14 1.993838e-11 -9.609774e-15 -0.43535858 6.4674874e-19 6.5685e-06
-2.515984e-19 2.4646798e-10 -8.543092e-09 1.897209e-21 3.7467105e-31 2.2979496e-24 -4.7700316e-11 -1.0441229e-16
4.909086e-39 -0.027989859 0.14307745 -0.23252013 -5.0973293e-25 8.1418845e-23 1.9028735e-13 0.00032429848
-3.669508e-09 6.5665674e-08 -2.1948342e-16 -1.301501e-12 0.40885958 0.0005806253 -2.5529165e-09 -5.33945e-26
6.3258332e-27 -1.857563e-18 2.468819e-06 3.2765312e-38 -6.2435965e-06 2.0999433e-36 2.124126e-06 2.9590065e-12
0.47854254 -0.109517716 -0.2902904 -1.4209087e-11 -2.0736987e-07 2.4037057e-09 9.1731706e-20 1.4610802e-13
-5.7115157e-36 8.77079e-37 5.143342e-05 -0.07192874 3.834927e-25 -2.428785e-19 -1.8794472e-20 3.832046e-15
-3.0775666e-18 -7.337226e-05 1.3368496e-11 -5.2640785e-06 4.663825e-31 6.0835023e-18 0.00010431437 0.051566944
0.0602705 -0.047566295 3.2244686e-06 -4.917835e-39 -4.904828e-39 -4.4481385e-15 1.6617112e-18 0.00015416568
4.910953e-39 4.794147e-25 0.24157326 -7.787639e-32 3.7330815e-16 1.2005108e-18 -8.2835257e-22 -1.6307814e-22
1.1641497e-20 4.7125668e-05 2.7212564e-30 0.0008137816 4.067045e-30 -2.9712935e-13 0.3809922 0.13486746
00000000: f310 902e 739a 09bf ecff 533e a749 fd3e
00000010: bb22 1bb9 adae fb37 c124 a098 6735 823a
00000020: 27fe 7ea0 3ef3 1c8f 6f89 1ab2 e227 8393
00000030: cb63 94bd ca86 a5a0 1eb1 bfb9 46d1 0839
00000040: 5eb5 4d35 719a 733a 2931 9235 2f43 af36
00000050: 989a 8797 8441 c4b9 440f c4b1 f3bf 023a
00000060: 294c 173f 4f2a 92be 7003 4bbe a6b5 02b6
00000070: 4917 2fb6 9e6c 76b2 5c57 9125 0e18 0a9a
00000080: a51c 4729 7c0b bf2e eb82 4437 988c bdbe
00000090: e6bc 1a39 f18e 1ab2 2964 92b1 acf0 4b92
000000a0: 6cb4 6e0a d216 1e80 2b9a 8d1b 754b 8532
000000b0: 776f 3500 7764 99b7 4b6d b131 7002 b83d
000000c0: 385d ed3d ca57 873d f9a3 2b36 3496 8817
000000d0: 1a63 7a95 2dc3 00a8 3d8f d7b4 28f1 5dba
000000e0: 3a5d 3fac c715 cdb9 0744 e0be 8e6e 3500
000000f0: c503 9ba7 5e1f 2eb7 1431 9322 9b05 3632
00000100: 0d56 a539 f87f 0128 57c8 cfb7 5ea4 811c
00000110: 541d c636 a571 cc35 fc6a d63e 8e24 0b3f
00000120: ac1b 403f cfce cab8 9c59 d133 bbea 9997
00000130: e5db b7aa 8b5e 011d 27f8 e4af 6846 3930
00000140: d7e5 0c1b 56fc 9dbe 554e fc00 d80d 1131
00000150: 8852 8f1e ad97 02af 6aae 482b b600 910e
00000160: a699 071d 0acc aa34 81d6 17ba 340e 852f
00000170: 6810 59b8 19ac 583d f5c7 25bf 90cc a53e
00000180: 251b 23ba 3e7c c535 191e b131 6f89 40ad
00000190: 2387 eeb6 9663 8bb5 a580 0635 5e15 57b1
000001a0: d9ff 723b 99d2 7f39 bfa6 4fba f443 7aa4
000001b0: 8b70 7739 b268 9c38 5977 5db3 90ef 9e9c
000001c0: 891c 3a38 3c2f 97b7 18f0 8193 cdca 2929
000001d0: 75fa 01bf 9ee8 cfbd fd24 89be 7ecc ea2b
000001e0: 9341 0931 f49f ac26 365f 8b2f 0c80 8a3a
000001f0: 137d a993 3c1a bbb4 a2d1 70af 9fa0 21be
00000200: b4b0 b51f 6110 8ab5 0121 85b0 2435 b4b9
00000210: f20d 1333 0281 05af 2522 2f23 1ffc 2e98
00000220: 79ca f68b c812 9b8a 22e4 37ac 20c9 04bf
00000230: 6fc0 e73b e302 4d3e 24d4 d2b2 93b6 6338
00000240: 20b3 5a24 f2de d438 a815 0eaf 8991 962a
00000250: fa23 4eb5 f62d 872e fa5c 82bd 7760 57ab
00000260: ddbb c6b8 ace7 0bb0 38cb d430 19dd ad29
00000270: 5578 2e97 ce58 9313 1f24 c9b0 27d2 25b9
00000280: 8e21 6db7 3e0a 40b2 0530 08be 01ac a2be
00000290: 6f66 abbc 4cb1 4733 6226 b316 4e16 2fb9
000002a0: ae49 cd37 e0ec 94b4 f6ea bfa9 3e61 af2d
000002b0: 431d 2da8 52e7 debe f4e2 3e21 fc66 dc36
000002c0: 7a84 94a0 497f 872f eac4 12b2 5c59 0f1d
000002d0: e82c f30c 95cb 3118 c8c9 51ae 23c2 f0a4
000002e0: 8974 3500 fd4a e5bc e582 123e c219 6ebe
000002f0: 34c1 1d97 d3db c41a 983e 562a 9b06 aa39
00000300: ab2a 7cb1 1604 8d33 120c 7da5 842b b7ab
00000310: 0b56 d13e 1b35 183a 626f 2fb1 c932 8495
00000320: 9297 fa13 5f10 09a2 fdad 2536 2e64 3201
00000330: 1680 d1b6 b7a4 3204 358c 0e36 b938 502c
00000340: 8703 f53e d34a e0bd f1a0 94be 0af8 79ad
00000350: 65a9 5eb4 702e 2531 6a98 d81f c580 242a
00000360: e6f0 f284 2e3a 9503 37ba 5738 604f 93bd
00000370: d85e ed16 c35e 8fa0 3f82 b19e 6310 8a27
00000380: 9715 63a2 6fdf 99b8 5b2e 6b2d 17a2 b0b6
00000390: 8b59 170d 0e71 e022 5ac3 da38 dc37 533d
000003a0: 33de 763d e0d4 42bd f363 5836 ec8c 3580
000003b0: aa68 3580 d642 a0a7 ad39 f521 89a7 2139
000003c0: bd79 3500 255f 1417 fb5e 773e bd2d ca8b
000003d0: 8f32 d725 042a b121 ad5a 7a9c 3d26 459b
000003e0: d3e6 5b1e cda8 4538 49c6 5c0e f553 553a
000003f0: 9cfa a40e da44 a7aa 6911 c33e b21a 0a3e

bond_lin.bias f4 [300]
-0.2465338 0.06396625 0.21906869 0.099329114 -0.066901885 0.09597952 -0.15537183 -0.24444123
0.24969676 -0.044692118 0.18386346 -0.22579008 -0.064327456 -0.15916541 0.1030881 -0.16152659
0.043187268 -0.16594957 0.113362454 0.0008137657 0.035714995 -0.12913366 0.16024092 -0.19635646
0.01710145 -0.13001941 0.13570769 0.08471176 -0.119953535 -0.06488362 -0.060121436 0.11970059
0.13988417 -0.04267731 0.21808104 0.21216705 -0.18390624 -0.28175512 0.17218958 0.24054652
0.22682162 0.119222745 0.16592032 -0.1469987 0.22644053 0.010306881 -0.17242107 0.16769831
-0.24863604 -0.061139148 0.22033694 0.17107375 0.085989825 -0.1545253 0.012688129 0.10663689
-0.06717316 -0.117295094 -0.11107919 0.12295797 0.11942218 0.08132208 0.06270903 0.20748086
-0.12926042 -0.10880968 -0.14292513 0.07768354 -0.12177199 0.017014481 0.21653344 0.039115433
-0.13602045 -0.16312312 -0.25841466 0.16519386 -0.018803481 0.21234985 -0.1322783 -0.25575596
0.12234161 0.017441286 -0.0050430344 -0.105855554 -0.23432614 0.09408119 0.12493224 0.09643387
0.22177091 0.19345082 -0.06899291 -0.15761341 0.14305367 -0.036130812 0.23340315 -0.011720182
0.015875176 -0.22360057 0.022976773 -0.1672424 -0.121462256 -0.13669634 -0.24235615 0.24640748
0.22476435 0.016461978 0.19151393 -0.2027296 -0.17365284 0.2635734 0.13153866 0.09979133
-0.073312715 0.09533679 -0.05368168 0.16130535 0.03693029 -0.25768933 -0.010043756 -0.286633
0.08479191 0.036810312 -0.26349705 -0.09673753 -0.06454616 0.2515414 -0.14466691 0.20122504
-0.072102174 -0.03097285 0.22255759 -0.19879664 0.21899553 0.025729083 -0.18113711 -0.0128500415
-0.22316073 0.063479334 -0.08859259 0.01204571 -0.0057379515 -0.05382307 0.13679819 -0.10262726
0.10114502 0.007091922 -0.23295338 -0.045000616 0.13638398 -0.10302478 0.24505155 -0.15165514
0.29405168 0.25101513 -0.026929654 0.15489495 -0.15123922 -0.25834554 0.18670274 -0.15771374
0.17284459 -0.1157057 -0.26041162 0.05829173 0.019798787 0.014813358 0.13011613 -0.022095457
0.10899373 0.22478911 -0.048254192 0.19426903 0.13201833 -0.14060058 0.11797418 -0.06008353
-0.1568356 -0.12065828 -0.08297764 -0.20489487 0.057209656 -0.059213415 -0.13269563 -0.18826872
-0.20182721 -0.23865236 0.012944173 -0.11578706 -0.22631453 0.040869206 0.07179457 0.24490215
0.14175701 0.18443424 0.04439541 -0.033857767 -0.18931456 0.13120699 -0.01989842 0.13479412
0.18097053 -0.1594958 -0.04257276 -0.08984484 0.045417488 0.14572066 0.1462268 -0.009198943
-0.13811275 -0.20686348 -0.06816504 -0.050024245 -0.25657552 -0.21071261 -0.019799668 0.09516227
0.1584868 0.19114982 -0.051921945 -0.2902195 0.16289827 -0.13047633 -0.23197939 0.025488611
0.12218904 -0.16432849 -0.09393897 -0.03367878 0.10675644 0.012721578 0.24315389 0.07205189
0.09751349 0.12292608 -0.18018538 0.13278224 -0.06322043 -0.072447 -0.034118168 -0.1400111
-0.1267841 0.085861236 0.06832838 0.20369652 0.09159498 9.538024e-07 0.12316976 -0.17922688
-0.13946995 -0.23319761 -0.15784517 0.024399206 -0.18659048 0.20125848 -0.0058367928 0.082331896
00000000: 5b73 7cbe bd00 833d 8b53 603e 106d cb3d
00000010: db03 89bd e990 c43d cb19 1fbe cd4e 7abe
00000020: 82b0 7f3e 150f 37bd b446 3c3e 8435 67be
00000030: 1dbe 83bd 42fc 22be db1f d33d 3a67 25be
00000040: 22e5 303d afee 29be 932a e83d e452 553a
00000050: e349 123d 9d3b 04be 3216 243e ab11 49be
00000060: 5718 8c3c cf23 05be f5f6 0a3e 5c7d ad3d
00000070: 33aa f5bd b4e1 84bd e541 76bd 9525 f53d
00000080: cc3d 0f3e 67ce 2ebd a350 5f3e 5242 593e
00000090: eb51 3cbe 3542 90be 7752 303e d451 763e
000000a0: ed43 683e 0e2b f43d 04e7 293e d486 16be
000000b0: 07e0 673e 31de 283c 268f 30be 1bb9 2b3e
000000c0: 729a 7ebe 0b6d 7abd 02a0 613e f52d 2f3e
000000d0: 6f1b b03d e13b 1ebe dfe1 4f3c 7164 da3d
000000e0: 1592 89bd 6938 f0bd 7d7d e3bd 63d1 fb3d
000000f0: 9e93 f43d 318c a63d 986d 803d dd75 543e
00000100: d85c 04be 9cd7 debd f75a 12be 8c18 9f3d
00000110: 9863 f9bd f461 8b3c f1ba 5d3e 8137 203d
00000120: f248 0bbe bf09 27be ed4e 84be 9428 293e
00000130: c209 9abc 3d72 593e f673 07be 72f2 82be
00000140: 3d8e fa3d 07e1 8e3c 0a40 a5bb ccca d8bd
00000150: 31f3 6fbe a4ad c03d 79dc ff3d 1f7f c53d
00000160: ea17 633e f917 463e 284c 8dbd 6965 21be
00000170: a97c 123e e7fd 13bd 3c01 6f3e 0206 40bc
00000180: a80c 823c 8cf7 64be c939 bc3c 9741 2bbe
00000190: 34c1 f8bd 20fa 0bbe 362c 78be 3e52 7c3e
000001a0: a028 663e 45db 863c 3a1c 443e 5998 4fbe
000001b0: 0dd2 31be 18f3 863e 12b2 063e 665f cc3d
000001c0: fa24 96bd ef3f c33d 52e1 5bbd 3b2d 253e
000001d0: 3744 173d dbef 83be 918e 24bc 90c1 92be
000001e0: 62a7 ad3d 69c6 163d 16e9 86be 531e c6bd
000001f0: c730 84bd 09ca 803e 9023 14be f00d 4e3e
00000200: 4eaa 93bd c6ba fdbc 23e6 633e 5991 4bbe
00000210: 5d40 603e ccc5 d23c 027c 39be fb88 52bc
00000220: 3f84 64be 7401 823d 0870 b5bd 5f5b 453c
00000230: 6d05 bcbb 9475 5cbd d314 0c3e 3e2e d2bd
00000240: 1f25 cf3d 5b63 e83b 558b 6ebe 9152 38bd
00000250: 3ea8 0b3e a8fe d2bd cbee 7a3e 7c4b 1bbe
00000260: f18d 963e 0e85 803e 949b dcbc c89c 1e3e
00000270: 74de 1abe de45 84be 012f 3f3e b67f 21be
00000280: 2cfe 303e 1cf7 ecbd ac54 85be 4fc3 6e3d
00000290: 1131 a23c bab3 723c 2a3d 053e 8801 b5bc
000002a0: 1b38 df3d 1e2f 663e 30a6 45bd 76ee 463e
000002b0: d02f 073e 99f9 0fbe 729c f13d 261a 76bd
000002c0: 8399 20be b01b f7bd 2ef0 a9bd f6cf 51be
000002d0: ac54 6a3d c489 72bd 5de1 07be 84c9 40be
000002e0: cbab 4ebe 4961 74be cc13 543c c421 edbd
000002f0: ffbe 67be 7866 273d 0809 933d a1c7 7a3e
00000300: c028 113e 54dc 3c3e f6d7 353d 71ae 0abd
00000310: addb 41be 205b 063e 0302 a3bc 7807 0a3e
00000320: 5750 393e de52 23be c660 2ebd 9200 b8bd
00000330: b007 3a3d cc37 153e 7abc 153e 2ab7 16bc
00000340: 6e6d 0dbe 05d4 53be 1d9a 8bbd 39e6 4cbd
00000350: de5d 83be 0cc5 57be ea32 a2bc 70e4 c23d
00000360: 5d4a 223e c7bc 433e 1bac 54bd a697 94be
00000370: cece 263e 969b 05be 018c 6dbe 7ecd d03c
00000380: 3f3e fa3d ba45 28be 1363 c0bd c3f2 09bd
00000390: 1fa3 da3d 2a6e 503c 55fd 783e f18f 933d
000003a0: 27b5 c73d abc0 fb3d 8482 38be 11f8 073e
000003b0: b679 81bd 185f 94bd 7ebf 0bbd 125f 0fbe
000003c0: b1d3 01be 04d8 af3d c0ef 8b3d d295 503e
000003d0: 2696 bb3d 6704 8035 6d40 fc3d 4087 37be
000003e0: 36d1 0ebe 5bcb 6ebe 2aa2 21be d8e0 c73c
000003f0: 9311 3fbe b416 4e3e 9142 bfbb a09d a83d

energy_lin.1.weight f4 [300, 300]
-0.050513968 0.1668267 -0.0029189035 -0.26527616 0.00918169 0.032949455 -0.0239782 0.053697042
-0.035849746 0.076547824 0.0061422815 0.12605706 0.12036322 0.08769407 -0.06959137 -0.10676516
-0.08111705 0.016411524 -0.082874805 0.09103943 0.014892099 0.06445308 -0.0015245803 0.035075095
0.00079149555 0.13239841 0.2128862 0.008014207 0.07281203 0.12403829 0.16941836 -0.1434356
0.13293046 -0.09045256 -0.108476326 0.03766706 0.011361712 0.0971283 0.093439296 0.10176562
-0.12343166 0.026655793 0.124153785 -0.025747333 -0.048615757 0.07657841 0.003583131 -0.01914322
-0.08079809 -0.124337815 0.10705681 -0.051022153 -0.09030535 -0.045555424 -0.103779346 -0.12345628
0.020813847 0.020661052 0.04222355 0.088064335 0.06890722 -0.045132022 0.06954219 0.04211302
0.06433675 -0.023361115 -0.011708073 -0.03540421 0.06853512 -0.012750817 0.030091777 -0.0037431957
0.123067655 0.12942073 -0.032711785 -0.12325831 -0.046607513 -0.0312563 -0.036173444 -0.093161054
0.067220435 -0.10050247 -0.06833897 0.093434736 0.09638992 0.105141036 -0.058508668 -0.07673719
0.11221036 -0.021136051 -0.05168323 -0.059387885 0.16530673 0.14502436 -0.18412513 -0.1453385
0.13979141 -0.03200876 -0.11260647 0.04932587 -0.05666222 0.1665132 0.10278939 0.13849086
0.09271062 0.10386133 -0.00037910533 0.09499984 -0.009271245 0.058593545 0.16294257 -0.027626883
-0.04947773 -0.034011815 -0.022851324 -0.12749673 0.1620219 0.04657882 0.038094614 0.08859313
-0.066326134 0.11453122 0.029054914 -0.09569886 -0.07861765 0.13644923 0.05839698 0.11465172
0.14595723 -0.05628478 0.022004398 0.13732654 0.114682965 -0.023504063 -0.058538213 0.055415593
-0.068608314 -0.084658556 -0.009072136 -0.12692663 -0.08621204 0.03432431 0.08616473 -0.0072356183
-0.01749733 0.011141607 0.022660734 -0.13891713 0.032578792 0.07665148 0.025591003 0.078949824
-0.042473804 -0.019906566 0.14374894 0.10285555 0.06324614 0.12300021 -0.03800246 -0.08417474
-0.079327926 0.07401089 -0.0101261325 0.1266216 0.015430561 0.08512654 -0.10781639 0.12683022
0.14198568 -0.07514362 0.13322026 0.0823301 -0.1658671 0.018060299 -0.0077481465 0.14697093
0.06814455 -0.034055516 -0.03372919 -0.020540502 -0.20638397 0.08821578 -0.039251503 -0.06916567
-0.026586339 -0.10892152 2.4468945e-05 0.024541128 -0.066048935 0.113219716 -0.063588776 0.112610176
-0.05504502 0.11477704 -0.10937463 0.10701608 0.1783189 0.1719395 0.13421632 0.0058239563
-0.08464335 0.14434522 0.11657489 0.122322 0.19411099 0.0016697738 -0.014102429 0.06592027
-0.03211758 -0.082201116 0.07354139 -0.041198894 0.042973164 0.09171739 -0.023698539 0.038475785
0.10712132 -0.07884289 -0.063448355 0.12668656 0.1211934 -0.0329182 0.14001694 -0.12718256
0.04091887 0.07091526 0.023475945 -0.14364047 -0.062100496 0.09269068 0.07547748 -0.016269961
0.0034032897 -0.065007 -0.016668418 0.0050060274 -0.1012059 -0.098547824 0.16023324 0.07891175
0.1527378 -0.11976983 -0.0880013 -0.068754666 0.21326639 4.404025e-08 0.0005988721 -0.04684473
0.08876874 -0.108892165 0.09879994 0.04071519 0.0047630277 -0.033982094 -0.111779414 0.040580895
00000000: bce7 4ebd 9ed4 2a3e 134b 3fbb 47d2 87be
00000010: cd6e 163c 02f6 063d ee6d c4bc 6ef1 5b3d
00000020: 2fd7 12bd 1bc5 9c3d 3145 c93b 1a15 013e
00000030: fe80 f63d f398 b33d ec85 8ebd b1a7 dabd
00000040: b220 a6bd 7671 863c 44ba a9bd e172 ba3d
00000050: fefd 733c faff 833d 6dd4 c7ba e7aa 0f3d
00000060: 5e7c 4f3a 7393 073e d7fe 593e 054e 033c
00000070: 791e 953d c907 fe3d 027c 2d3e c8e0 12be
00000080: ec1e 083e 313f b9bd d628 debd c648 1a3d
00000090: 7926 3a3c 34eb c63d 1a5d bf3d 7e6a d03d
000000a0: bdc9 fcbd 405d da3c 5744 fe3d 12ec d2bc
000000b0: 5121 47bd 24d5 9c3d f6d2 6a3b 3ed2 9cbc
000000c0: 7879 a5bd d3a4 febd 9a40 db3d 9bfc 50bd
000000d0: 03f2 b8bd 5398 3abd 448a d4bd a5d6 fcbd
000000e0: cd81 aa3c 5e41 a93c 9af2 2c3d 135b b43d
000000f0: 3b1f 8d3d 5bdc 38bd 236c 8e3d b47e 2c3d
00000100: fcc2 833d cf5f bfbc 38d3 3fbc 0104 11bd
00000110: 245c 8c3d cee8 50bc 0883 f63c 6750 75bb
00000120: e50a fc3d de86 043e cbfc 05bd da6e fcbd
00000130: 85e7 3ebd 9b06 00bd 9b2a 14bd 39cb bebd
00000140: deaa 893d 3dd4 cdbd 4df5 8bbd b65a bf3d
00000150: 1468 c53d 2f54 d73d c9a6 6fbd 6328 9dbd
00000160: 8cce e53d 8325 adbc cbb1 53bd b640 73bd
00000170: 2b46 293e 4481 143e 4c8b 3cbe 9ed3 14be
00000180: 7b25 0f3e 9e1b 03bd 399e e6bd ec09 4a3d
00000190: a516 68bd 7082 2a3e 3e83 d23d 8cd0 0d3e
000001a0: 11df bd3d 40b5 d43d a8c2 c6b9 478f c23d
000001b0: 6ce6 17bc c9ff 6f3d 6bda 263e c651 e2bc
000001c0: 29a9 4abd f94f 0bbd b332 bbbc 818e 02be
000001d0: 12e9 253e 6fc9 3e3d 1909 1c3d 5170 b53d
000001e0: ffd5 87bd 588f ea3d 9204 ee3c c4fd c3bd
000001f0: 4a02 a1bd 59b9 0b3e ac31 6f3d 85ce ea3d
00000200: d075 153e df8a 66bd 9142 b43c 549f 0c3e
00000210: e7de ea3d 988b c0bc c4c5 6fbd 76fb 623d
00000220: 8482 8cbd 7761 adbd 4ca3 14bc 0ef9 01be
00000230: f08f b0bd a697 0c3d 2277 b03d c418 edbb
00000240: 9056 8fbc 498b 363c 01a3 b93c 4b40 0ebe
00000250: 5771 053d 73fb 9c3d 39a4 d13c 72b0 a13d
00000260: 03f9 2dbd 1813 a3bc ec32 133e eea5 d23d
00000270: 3187 813d 89e7 fb3d 78a8 1bbd ce63 acbd
00000280: ae76 a2bd 0693 973d 14e8 25bc 18a9 013e
00000290: 77d0 7c3c d356 ae3d d7ce dcbd c8df 013e
000002a0: b264 113e e6e4 99bd e46a 083e af9c a83d
000002b0: 11d9 29be 31f3 933c 2ae4 fdbb 8c7f 163e
000002c0: 5f8f 8b3d cc7d 0bbd 9e27 0abd 8e44 a8bc
000002d0: 5256 53be 7aaa b43d 2fc6 20bd bba6 8dbd
000002e0: 98cb d9bc 3f12 dfbd a942 cd37 7a0a c93c
000002f0: aa44 87bd bddf e73d d53a 82bd 2aa0 e63d
00000300: e376 61bd 3a10 eb3d ceff dfbd 3f2b db3d
00000310: 3b99 363e e910 303e 0170 093e e3d6 be3b
00000320: 7e59 adbd 3ccf 133e d1be ee3d f583 fa3d
00000330: 08c5 463e 50dc da3a e00d 67bc 3501 873d
00000340: b98d 03bd 0f59 a8bd de9c 963d 2cc0 28bd
00000350: a104 303d 54d6 bb3d 7023 c2bc c998 1d3d
00000360: 6c62 db3d 6278 a1bd 36f1 81bd 1fba 013e
00000370: 3f34 f83d 3cd5 06bd 9a60 0f3e 253c 02be
00000380: 8c9a 273d 053c 913d a050 c03c 7d16 13be
00000390: 175d 7ebd 9cd4 bd3d f093 9a3d 9548 85bc
000003a0: ba09 5f3b 6422 85bd 358c 88bc 9a09 a43b
000003b0: 0a45 cfbd 71d3 c9bd 2f14 243e 7c9c a13d
000003c0: 4c67 1c3e e249 f5bd 073a b4bd 3fcf 8cbd
000003d0: 8162 5a3e c426 3d33 a0fd 1c3a 42e0 3fbd
000003e0: 63cc b53d db02 dfbd 9f57 ca3d f9c4 263d
000003f0: 2c13 9c3b cf30 0bbd 9bec e4bd 2738 263d

energy_lin.1.bias f4 [300]
-0.0011808341 0.07990094 0.080339745 0.05782926 -2.832179e-30 -0.009690197 0.046717275 0.05234112
0.013838206 -0.0019268437 0.029148884 0.051911727 -0.057972755 0.037517074 0.066339105 -0.00739817
0.053078905 0.06261878 0.024124548 0.015781475 0.01337542 -0.031449363 -0.002011678 0.06977585
-0.050482567 0.06380975 0.059445903 -0.040777046 0.0022899697 0.014927536 0.037677076 0.04040595
-0.012865081 0.044795576 -0.026180658 0.020671992 0.0058070966 0.08515802 -0.013727783 0.022727223
-0.001725732 0.070328675 0.052191887 -0.03671544 -0.02607347 0.02110448 0.071454585 0.03847762
-0.030740019 0.065224186 0.051573217 -0.0075951526 -0.009174241 -0.028444204 0.04189161 0.05905629
-0.044787318 -0.031531133 -0.023668174 0.031215133 0.04017512 -0.0014095325 0.06834498 -0.0005817433
0.028539285 0.060807753 0.07207928 -0.002086748 0.0007681762 0.045737203 0.028901177 0.056257926
-0.035382308 -0.007042484 0.04724321 -0.0015614406 0.021814995 0.05121015 0.08059784 0.030371474
-0.013955174 0.054068945 -0.042487957 -0.01435495 -0.016194053 0.061196685 -0.03483458 0.014335204
0.05680373 0.009335346 0.07539231 0.013606673 0.06635112 0.016948408 0.0037583327 0.026624246
0.030966567 -0.02620132 0.010486077 -0.026748857 -0.037240624 0.036392942 -0.0052363137 0.062489986
-0.020049155 -0.056253318 -0.011541708 0.007767961 -0.021099258 0.060151678 -0.043721735 0.017370686
0.009396517 -0.040370617 -0.057052113 0.08602762 0.058014955 0.0027245453 0.020575648 0.023353396
0.0017870937 0.035415765 0.07274573 -0.02378708 0.05876132 0.050135825 0.08377618 -0.008593473
0.042653907 -0.0054936786 -0.0021439078 -0.017447894 0.047872923 -0.014712727 0.04431645 -0.023081109
0.03696231 0.0053146738 0.05317541 0.054296218 0.006194441 -0.03365996 -0.005031229 0.015432304
0.025066663 0.0006027494 0.00039584812 0.06440339 0.052816287 -0.020581895 0.034444895 0.026218254
0.014661269 0.05132448 0.06435064 0.0030780411 0.069033824 -0.031583708 0.011062111 0.0144474385
-0.025612572 0.044027723 0.008485142 0.03716235 0.07347418 -0.0032719523 0.023847979 0.04066336
0.023968758 0.0208914 0.05035415 0.07053272 0.080494784 0.00035393305 0.033367082 0.010596008
0.00033816058 -0.03090891 0.04463033 1.0947943e-30 0.094381385 -0.02107137 0.03768575 0.051856562
-0.0063592726 0.033497587 0.023239784 0.06948588 0.004550198 0.0016558382 -0.039038885 -0.027753586
-0.0045306575 0.06807298 -0.030256981 0.027089642 0.035335608 0.05178732 0.054421384 0.06493324
-0.019873695 -0.007853405 -0.0144704515 -0.035181414 0.07354799 0.03410739 0.06173529 0.022859393
-0.03364931 -0.0399373 -0.03666143 0.0069269044 -0.017142363 0.024064632 -0.0048171547 0.10124894
0.023275532 0.060690276 -0.052107837 0.012120715 -0.036365546 0.06711849 -0.022704348 -0.024762467
-0.03143975 0.0137704825 -0.013853136 -0.043429073 0.03643855 -0.027135294 0.07437977 0.04777197
0.049632076 0.06806102 0.01758285 -0.0070207533 0.011953578 0.027076228 -0.0056643616 0.032701567
0.04534922 0.026321245 0.005372062 0.025605345 0.056713805 0.020977402 -0.0051154066 0.041044634
0.0035579437 -0.04658579 0.018741501 0.06935488 -0.03785156 -0.014688384 0.08035825 0.056418497
00000000: 38c6 9aba 1ba3 a33d 2a89 a43d 60de 6c3d
00000010: 0ec6 658e a2c3 1ebc 9d5a 3f3d a463 563d
00000020: a5b9 623c 258e fcba a4c9 ee3c 64a1 543d
00000030: d774 6dbd 81ab 193d ccdc 873d 596c f2bb
00000040: 4469 593d 463e 803d d8a0 c53c 2748 813c
00000050: 9424 5b3c 0cd1 00bd 5bd6 03bb a4e6 8e3d
00000060: cfc6 4ebd b0ae 823d 8c7d 733d d505 27bd
00000070: 5113 163b a092 743c 4753 1a3d b680 253d
00000080: 10c8 52bc 917b 373d d278 d6bc 4f58 a93c
00000090: 7549 be3b 5467 ae3d 7fea 60bc 712e ba3c
000000a0: f531 e2ba 7b08 903d 29c7 553d ee62 16bd
000000b0: 0898 d5bc 4de3 ac3c c856 923d b59a 1d3d
000000c0: 7ed2 fbbc 4294 853d 703e 533d c2e0 f8bb
000000d0: 8e4f 16bc d203 e9bc 8996 2b3d 02e5 713d
000000e0: e872 37bd ca26 01bd c2e3 c1bc e1b6 ff3c
000000f0: ab8e 243d 10c0 b8ba 74f8 8b3d 2280 18ba
00000100: 38cb e93c 8d11 793d 4d9e 933d d2c1 08bb
00000110: 6f5f 493a ef56 3b3d 29c2 ec3c b66e 663d
00000120: 0aed 10bd a3c4 e6bb 1982 413d 41a9 ccba
00000130: 5cb5 b23c bcc1 513d 7b10 a53d 99cd f83c
00000140: 3ea4 64bc 6677 5d3d da07 2ebd 0631 6bbc
00000150: 64a9 84bc 60a9 7a3d b4ae 0ebd 34de 6a3c
00000160: 07ab 683d 47f3 183c 4967 9a3d 86ee 5e3c
00000170: 19e3 873d 63d7 8a3c 5c4e 763b 171b da3c
00000180: 99ad fd3c 27a4 d6bc cbcd 2b3c 6b20 dbbc
00000190: a089 18bd c410 153d 6295 abbb 80f5 7f3d
000001a0: 203e a4bc e169 66bd 6f19 3dbc 618a fe3b
000001b0: 5ad8 acbc 9b61 763d 9015 33bd f84c 8e3c
000001c0: d9f3 193c a95b 25bd 7aaf 69bd 402f b03d
000001d0: 17a1 6d3d 498e 323b 438e a83c 9f4f bf3c
000001e0: ea3c ea3a 1f10 113d b7fb 943d 1fdd c2bc
000001f0: b6af 703d 395b 4d3d d992 ab3d a3cb 0cbc
00000200: ddb5 2e3d 5104 b4bb ce80 0cbb e3ee 8ebc
00000210: 6616 443d a60d 71bc 2a85 353d 9814 bdbc
00000220: cb65 173d b726 ae3b 75ce 593d b665 5e3d
00000230: bdfa ca3b 07df 09bd 02dd a4bb c6d7 7c3c
00000240: 9a58 cd3c d401 1e3a d689 cf39 ede5 833d
00000250: e455 583d 5d9b a8bc 1716 0d3d aac7 d63c
00000260: d235 703c 9e39 523d 45ca 833d f6b8 493b
00000270: 9b61 8d3d eb5d 01bd db3d 353c f3b4 6c3c
00000280: 75d1 d1bc 6a56 343d 4405 0b3c 8c37 183d
00000290: a279 963d 406e 56bb d65c c33c a08e 263d
000002a0: 215a c43c 7124 ab3c 2740 4e3d 7573 903d
000002b0: 73da a43d 1790 b939 ecab 083d e19a 2d3c
000002c0: 254b b139 af34 fdbc 4bce 363d faa3 b10d
000002d0: 074b c13d de9d acbc 5f5c 1a3d 8c67 543d
000002e0: 7261 d0bb c434 093d 5c61 be3c 9d4e 8e3d
000002f0: d419 953b b608 d93a 3de7 1fbd 7d5b e3bc
00000300: e975 94bb d969 8b3d 7ddd f7bc 19eb dd3c
00000310: 12bc 103d f11e 543d f5e8 5e3d b8fb 843d
00000320: 29ce a2bc 91ab 00bc 7915 6dbc 631a 10bd
00000330: 54a0 963d 31b4 0b3d 25de 7c3d 9f43 bb3c
00000340: dcd3 09bd 4b95 23bd 4c2a 16bd 16fb e23b
00000350: 246e 8cbc 3123 c53c 39d9 9dbb 9b5b cf3d
00000360: 54ac be3c 5e96 783d 076f 55bd f795 463c
00000370: 0af4 14bd 6b75 893d 78fe b9bc a8da cabc
00000380: f8c6 00bd 979d 613c 44f8 62bc afe2 31bd
00000390: 9740 153d d64a debc 6c54 983d 8bac 433d
000003a0: 014b 4b3d 9363 8b3d e909 903c 590e e6bb
000003b0: f1d8 433c f7ce dd3c 1c9c b9bb 14f2 053d
000003c0: 1bc0 393d a79f d73c 1f08 b03b 4dc2 d13c
000003d0: bc4c 683d cdd8 ab3c 249f a7bb 6b1e 283d
000003e0: 642c 693b bed0 3ebd c787 993c ee09 8e3d
000003f0: 3d0a 1bbd 8ca7 70bc de92 a43d 1517 673d

energy_lin.3.weight f4 [150, 300]
-0.10319051 0.14432713 -0.032064643 0.0075204615 -1.9491571e-26 0.08114216 -0.07587916 -0.091408916
0.065177724 0.14823604 -0.14556485 -0.08952625 -0.1301537 0.0016130585 0.10510576 0.035106476
0.03736 0.08669423 -0.08195651 -0.012516595 0.011893661 0.08976386 0.0027647377 0.024598207
0.3619167 -0.11752028 0.0106460145 0.13834777 0.11859502 0.0696067 -0.011085618 0.06302183
0.023364466 -0.071440496 -0.031906597 -0.088544905 -0.054495655 -0.089555174 0.106298074 0.13485686
-0.006824031 0.13733621 -0.09889153 0.12810335 0.16739656 0.064142585 -0.017964192 0.092406444
-0.020024505 0.15732981 0.13998501 -0.0028024851 0.07580709 -0.13768116 0.15419026 -0.10843528
0.018111682 -0.002798453 0.11326301 0.023951266 -0.16037883 0.041753154 -0.24346481 0.107159056
0.13099506 -0.13872787 0.034278747 0.07257552 -0.19684161 0.24562284 0.04653026 0.07771206
-0.17526373 0.16651724 -0.10955638 -0.0893047 0.14727573 0.08727391 0.1410751 -0.1108126
-0.111516416 0.0020764847 -0.09875834 0.027454926 -0.052601654 0.07928466 0.14541428 -0.054799657
0.095196836 0.15122409 0.16090247 0.12459092 -0.049431853 -0.044881806 -0.09923931 -0.040373277
0.025744233 -0.13567507 -0.13868333 -0.043229707 -0.0017963094 0.15055346 0.10641145 -0.061606172
0.0364016 -0.010437451 0.043757733 -0.07637868 0.17090206 0.21036299 -0.1339755 -0.09909543
-0.00044533788 -0.21153791 0.09317484 -0.09562114 -0.12504669 -0.0765419 0.09628386 -0.07647373
-0.033062898 0.056409065 -0.013684101 0.120297745 0.0015934517 0.14215203 -0.03135557 -0.0107725635
0.1572797 -0.095082425 0.0721225 -0.046106618 -0.018371591 -0.0467129 0.08989689 0.060978
-0.16231841 0.039768957 0.12274464 0.14020644 0.07711863 -0.0068506384 -0.020346578 0.054527313
0.07956622 -0.11522007 -0.1355842 0.00025119868 -0.03701327 0.089068934 0.06121221 -0.0022297238
0.105416924 0.13793029 -0.073560156 -0.03677033 -0.06311863 -0.09062995 0.18630965 -0.008913877
0.031633377 0.030239765 -0.15863688 -0.009568851 -0.045884825 -0.07965063 0.236009 0.13234577
-0.11279484 -0.11023868 0.140167 0.079183534 0.161411 -0.076170705 0.03773197 0.08446264
0.05453305 0.0015303413 -0.0904569 1.6662525e-19 0.36490473 0.059350107 -0.06743057 0.043009955
0.122169994 -0.0827156 0.13039078 0.07960123 -0.06047334 0.11284496 -0.056594692 0.19442835
0.15196593 -0.13549833 0.12460869 -0.10348389 0.06761013 -0.012178948 0.007753259 0.08881276
-0.015020909 0.00046971333 0.115499474 0.008698066 0.13619556 -0.11071925 0.14466833 -0.042939406
-0.015919661 -0.012838757 0.056319393 -0.12467576 0.119186655 0.06698004 -0.16274975 0.12654859
0.112044394 0.08328161 0.0062232274 -0.06862491 0.045535963 0.085923046 -0.09093953 0.057708446
0.015037302 0.10291755 -0.20896958 0.038697653 -0.11686797 0.0004697748 -0.002552508 0.014426221
0.1216564 0.10613714 0.0053208377 -0.13597082 -0.0115977265 -0.07224341 0.09277684 0.48109156
-0.056982335 -0.04859492 0.060139988 0.042713463 -0.09935669 0.13225073 -0.10696254 -0.034168534
0.03477001 -0.029645069 -0.020652935 0.09698805 0.0001736476 0.010392816 0.04318188 0.113795586
00000000: 8c55 d3bd 7eca 133e 3756 03bd 346e f63b
00000010: 0109 c194 dc2d a63d 8866 9bbd 9934 bbbd
00000020: e67b 853d 30cb 173e f40e 15be 8a59 b7bd
00000030: 0347 05be 436d d33a b041 d73d cfcb 0f3d
00000040: cd06 193d bf8c b13d d1d8 a7bd 6812 4dbc
00000050: a1dd 423c 1dd6 b73d 9a30 353b 2e82 c93c
00000060: 254d b93e 79ae f0bd 9f6c 2e3c 0aab 0d3e
00000070: f2e1 f23d f58d 8e3d 74a0 35bc 9711 813d
00000080: d666 bf3c 654f 92bd 7eb0 02bd 0857 b5bd
00000090: d636 5fbd b468 b7bd ceb2 d93d eb17 0a3e
000000a0: 1f9c dfbb dda1 0c3e a487 cabd 862d 033e
000000b0: 016a 2b3e 305d 833d a429 93bc 973f bd3d
000000c0: 6e0a a4bc 111b 213e 3b58 0f3e e6a9 37bb
000000d0: bf40 9b3d 4afc 0cbe 0de4 1d3e 5113 debd
000000e0: f35e 943c 4066 37bb 70f6 e73d 7235 c43c
000000f0: 593a 24be 5b05 2b3d d74e 79be 3576 db3d
00000100: 9223 063e ae0e 0ebe df67 0c3d 79a2 943d
00000110: d990 49be 8e84 7b3e 8496 3e3d 8027 9f3d
00000120: 5678 33be 7f83 2a3e 185f e0bd 62e5 b6bd
00000130: 73cf 163e aabc b23d fe75 103e b7f1 e2bd
00000140: b862 e4bd a215 083b d041 cabd 27e9 e03c
00000150: d574 57bd ff5f a23d 7be7 143e 9b75 60bd
00000160: 8ff6 c23d 7dda 1a3e 9ec3 243e 8629 ff3d
00000170: 0e79 4abd fcd5 37bd fb3d cbbd 735e 25bd
00000180: 92e5 d23c 68ee 0abe 0103 0ebe a211 31bd
00000190: 2472 ebba b02a 1a3e 3fee d93d c156 7cbd
000001a0: d819 153d d801 2bbc 4f3b 333d 6d6c 9cbd
000001b0: f300 2f3e 6569 573e e030 09be 8bf2 cabd
000001c0: 3d7c e9b9 659d 58be 73d2 be3d 04d5 c3bd
000001d0: 3d0c 00be 00c2 9cbd 7930 c53d 429e 9cbd
000001e0: f66c 07bd 310d 673d 4833 60bc aa5e f63d
000001f0: 5edb d03a 4d90 113e b36e 00bd 687f 30bc
00000200: ee0d 213e 93ba c2bd f6b4 933d 4bda 3cbd
00000210: 0580 96bc 0756 3fbd dc1b b83d 11c4 793d
00000220: cc36 26be c6e4 223d 8b61 fb3d 4792 0f3e
00000230: 5ff0 9d3d 527b e0bb dead a6bc 0858 5f3d
00000240: 9df3 a23d 80f8 ebbd 96d6 0abe 51b3 8339
00000250: 3a9b 17bd c669 b63d a8b9 7a3d 8f20 12bb
00000260: d4e4 d73d 993d 0d3e b5a6 96bd 7c9c 16bd
00000270: 5744 81bd 329c b9bd f5c7 3e3e 830b 12bc
00000280: 0092 013d 62b9 f73c b571 22be acc6 1cbc
00000290: baf1 3bbd df1f a3bd 58ac 713e a685 073e
000002a0: fb00 e7bd d1c4 e1bd f087 0f3e fa2a a23d
000002b0: ed48 253e 63ff 9bbd d78c 1a3d c0fa ac3d
000002c0: 0c5e 5f3d bc95 c83a 7841 b9bd 64b7 4420
000002d0: cbd4 ba3e 1919 733d 0a19 8abd 352b 303d
000002e0: 4334 fa3d cc66 a9bd 2985 053e f805 a33d
000002f0: e5b2 77bd 421b e73d d6cf 67bd 3a18 473e
00000300: f59c 1b3e 13c0 0abe d732 ff3d 5def d3bd
00000310: 2e77 8a3d 368a 47bc 0d0f fe3b 77e3 b53d
00000320: 421a 76bc db43 f639 fd8a ec3d 5582 0e3c
00000330: d976 0b3e c6c0 e2bd ef23 143e 3be1 2fbd
00000340: f369 82bc a659 52bc 2aaf 663d 0156 ffbd
00000350: 2218 f43d d52c 893d dfa7 26be f495 013e
00000360: 8877 e53d 8c8f aa3d 37ec cb3b 388b 8cbd
00000370: eb83 3a3d 6cf8 af3d 813e babd b15f 6c3d
00000380: 045f 763c 70c6 d23d 1ffc 55be 6e81 1e3d
00000390: 7958 efbd 1b4c f639 fa47 27bb f55b 6c3c
000003a0: fe26 f93d 6e5e d93d 6c5a ae3b ef3b 0bbe
000003b0: 6404 3ebc 5af4 93bd c901 be3d a251 f63e
000003c0: 4f66 69bd 780b 47bd 5955 763d 50f4 2e3d
000003d0: 857b cbbd bc6c 073e 2d0f dbbd 4ef4 0bbd
000003e0: ff6a 0e3d 37da f2bc 5830 a9bc aca1 c63d
000003f0: 2c15 3639 a146 2a3c 7cdf 303d a90d e93d

energy_lin.3.bias f4 [150]
0.013981707 -1.9612815e-35 -0.030222239 0.029352976 0.036514975 -0.036169518 0.07151579 -0.011492745
-0.023597807 0.04093699 -0.043292135 -0.041934762 0.070051946 -0.041630346 -0.04313346 -0.03634055
-0.029726319 -0.0060346653 0.042100113 -0.028721564 -0.04598559 0.034946676 -0.031818073 -0.010052051
0.04970711 0.0031187513 0.037988495 -0.0012539206 0.05067138 -1.2594084e-31 -0.008006494 0.0077452194
0.02396431 0.08689307 -0.013479883 0.04769992 -0.037475694 0.028221812 0.04472378 0.051359657
-0.009084983 -0.025212556 0.09078042 -0.029140836 0.04478065 -0.042358927 0.011474692 0.114228345
0.0012448959 0.027992053 0.016707659 -0.02065366 0.017181704 0.00023886487 -0.030814102 0.081227556
0.0007530185 0.048285354 -0.020243213 -0.034185685 -0.0585975 -0.025609013 0.05306903 -0.03422245
-0.047029864 0.06545926 0.02965389 0.016624173 0.0115735745 0.017728679 0.07432022 0.013739419
-0.0061532836 -0.018864883 0.049036745 -0.032642424 0.05135922 0.06519866 0.048587035 -0.05352914
-0.018431406 0.055017177 0.047738228 -0.048353102 0.029830672 -0.01706442 0.011428934 0.006763463
0.013104734 -0.00298471 -0.0114336945 -0.010168269 -0.027978715 -0.04215099 0.032211285 -0.009954511
-0.037044883 0.042021364 0.019679584 0.024604421 0.0037567772 0.045759648 -0.023877328 -0.045339804
-0.037415113 -0.014216351 0.053850446 -0.018917195 0.016804514 -0.045062423 0.027181737 4.298689e-39
-0.013750041 -0.048049822 -0.048248857 0.012301113 0.043222297 -0.017159306 -0.026792107 0.055060986
0.053996805 -0.0467981 0.06495994 0.0603188 -0.006403228 -0.017557882 -0.034029882 -0.05594466
0.01087343 -0.056801893 0.043562792 -0.04683974 -0.0073082643 0.0033395467 0.053877328 0.015423211
0.005066145 0.044763684 0.075252354 0.08584243 0.04577982 -0.04466169 0.045752317 0.0653683
-0.028169364 -0.025158865 0.039354376 -0.02209545 -0.019235171 0.04799238
00000000: 8813 653c 298f d085 a194 f7bc a775 f03c
00000010: ba90 153d 7d26 14bd df76 923d 114c 3cbc
00000020: 3050 c1bc 8cad 273d 1853 31bd c9c3 2bbd
00000030: 6577 8f3d 9584 2abd b6ac 30bd d4d9 14bd
00000040: 9c84 f3bc 71be c5bb 2b71 2c3d 7c49 ebbc
00000050: 635b 3cbd 3f24 0f3d ab53 02bd 5cb1 24bc
00000060: af99 4b3d f763 4c3b d399 1b3d 985a a4ba
00000070: cb8c 4f3d 067b 238c ab2d 03bc 9ccb fd3b
00000080: cd50 c43c fef4 b13d bada 5cbc fe60 433d
00000090: 1d80 19bd 6e31 e73c 4830 373d 815e 523d
000000a0: 2ed9 14bc 908a cebc 16eb b93d c3b8 eebc
000000b0: ea6b 373d 8e80 2dbd 5900 3c3c 8df0 e93d
000000c0: c62b a33a 974f e53c 80de 883c dd31 a9bc
000000d0: a5c0 8c3c cd77 7a39 db6d fcbc a25a a63d
000000e0: 3766 453a ddc6 453d 18d5 a5bc 4a06 0cbd
000000f0: ef03 70bd fec9 d1bc e95e 593d d72c 0cbd
00000100: 63a2 40bd 810f 863d b7ec f23c 6b2f 883c
00000110: 179f 3d3c bc3b 913c 3335 983d 4d1b 613c
00000120: 7ca1 c9bb 878a 9abc c1da 483d 10b4 05bd
00000130: 0c5e 523d e086 853d 3303 473d 5f41 5bbd
00000140: 76fd 96bc b159 613d 2989 433d e70d 46bd
00000150: 745f f43c afca 8bbc 6c40 3b3c 0aa0 dd3b
00000160: 3db5 563c 209b 43bb 6454 3bbc d098 26bc
00000170: 9e33 e5bc 84a6 2cbd fbef 033d 3f18 23bc
00000180: 60bc 17bd 981e 2c3d 1437 a13c 368f c93c
00000190: 4334 763b 786e 3b3d 639a c3bc 3bb6 39bd
000001a0: 9740 19bd b3eb 68bc 4992 5c3d 3cf8 9abc
000001b0: 9fa9 893c 6093 38bd 3cac de3c ffce 2e00
000001c0: da47 61bc e4cf 44bd 98a0 45bd 9c8a 493c
000001d0: dd09 313d ac91 8cbc 1f7b dbbc a187 613d
000001e0: c12b 5d3d 5daf 3fbd b809 853d d910 773d
000001f0: 2bd2 d1bb 8cd5 8fbc eb62 0bbd 3a26 65bd
00000200: 7926 323c 1aa9 68bd e66e 323d 07db 3fbd
00000210: 2a7a efbb 4cdc 5a3b 79ae 5c3d a3b1 7c3c
00000220: e801 a63b 205a 373d e81d 9a3d 28ce af3d
00000230: 9f83 3b3d 2def 36bd c866 3b3d d1df 853d
00000240: 70c3 e6bc f719 cebc 0e32 213d 8401 b5bc
00000250: 1493 9dbc a893 443d
