models/mpnn_A139_B23_E300_L2/49.pt (torch, 742651 bytes, 9 tensors)

atom_lin.weight f4 [300, 139]
00000000: 2aaa 13be 3f20 96bd b22c 2b9e 7dc6 4e0d
00000010: 1759 3394 26b4 6f96 8251 f93d 9dee 4ebe
00000020: c31a d0bd 7ce7 913d 6b48 0212 3303 9b28
00000030: 1a73 5c3e 78df a693 b47b 4892 d591 8cbd
00000040: 736a 84be 6f59 3a3e 3068 3580 91a3 f912
00000050: 76e5 f329 5f17 7182 1209 93a3 017b d817
00000060: e066 39a1 ccc1 f4bc 2886 04bd 13e9 4b3e
00000070: bc4e e6a9 8026 2322 6cd2 88a1 97ba dc24
00000080: fe6b 3b10 1815 8b1d 36c0 d60b 4cab 2cbe
00000090: 7501 ae12 7f60 7c99 037f 248d 365c cda0
000000a0: 1f3d f40b 5eaa 6a22 93d1 809a 7ea0 7a01
000000b0: bd2f 36aa c79a 6005 6062 1d00 3e72 ff12
000000c0: 9f86 5d21 c7a6 659d df27 ae27 7ad1 3190
000000d0: 7976 2b2a 26de 56be 80ce 3897 5371 818c
000000e0: 16e2 ea9e a7b3 a788 2fe6 8b90 dd8f 9188
000000f0: c17a 3500 fce4 680c 1218 88a7 e2e3 9119
00000100: f579 e81c ef29 5da7 432c 13a2 f107 99a7
00000110: 7ce2 0093 0d7e 2c13 3071 8d97 5dfb 8ca5
00000120: 0682 3500 d6a9 a828 5db4 9721 a358 459a
00000130: 5acc 639a 8b8c 3500 b928 3990 d800 ad25
00000140: ac4c 16a6 b81f 0681 b573 3500 d969 3580
00000150: 3fb0 0ea9 17af 320b e885 d1a8 5c21 6428
00000160: f2b9 5fa3 1644 0995 1fd3 4c1e 704b d51c
00000170: e092 b899 76cd 0822 1f68 3580 8ea8 dc17
00000180: 7c52 9099 0a37 13aa a251 06a7 777f f39c
00000190: 24a1 cb9f ace9 5aa6 e0e3 2300 e084 bc25
000001a0: e95a 8329 96e3 7796 8393 c115 d551 cea3
000001b0: 8575 0880 549a b09c 9587 3580 7a24 bea8
000001c0: d86b 3510 042e 9e1c 223b 989f 0afb fd16
000001d0: c26f cd0e 2b36 1280 626b 8010 c741 37bd
000001e0: ea66 743b 0ffa f23c ec9d 053e 0b10 273e
000001f0: 97ca dd24 aea1 763d 6a77 3580 1790 03a4
00000200: 26a5 523e d30d b63d 8676 c43b 615a 3d3e
00000210: dfc0 343e be92 4b3e 80ee 1912 6a05 be25
00000220: 73b4 a925 d6f5 848d f69a 9abc 6d29 f03d
00000230: 1be8 64bd d36e 3580 618d 3580 6a6b a628
00000240: a553 a499 1ac5 853c de6c 5bbe e52d 0ebe
00000250: 8421 323d 32d1 2116 5226 8ca6 6458 0118
00000260: 371f 9e94 bf22 4ba8 7359 cbbd 47d5 ab3d
00000270: 40f5 2b3e 0c36 2800 27a7 2f00 bfe0 b79e
00000280: dac7 e586 022f 0c89 6352 999a 5cd0 0d18
00000290: fbea 8ea8 b3ef 253e 1897 713e d6c0 680e
000002a0: bb98 8985 50a7 a690 fe6f 3500 8250 4103
000002b0: 5582 afa8 b569 bc96 90c2 ccbb 41bd f79f
000002c0: 4d9b cfa0 960d 8aa2 2312 258f 5a23 f50e
000002d0: a7d6 9126 f449 9b0c 168a 93a5 1e63 2b00
000002e0: 0694 a91f bd85 9aa4 e8cf 1d00 404b df9a
000002f0: 1ace 5399 ed71 3580 ed78 3500 02f8 1523
00000300: cb23 7ebe 2cea d61b 820e 1819 18b1 8212
00000310: c790 268f 5568 3580 14ce 0023 050c 031b
00000320: 2faa 04a3 c900 1297 4099 381f 6263 f78c
00000330: ff60 4d13 57d0 810c 058d 3500 8611 0390
00000340: 0abb 951a 916b da0c b937 591f 0e23 97a9
00000350: f176 3580 7331 bb12 0902 1fa3 2015 2e21
00000360: b27c 2929 2ff7 cd98 5e4f d100 19d0 48a6
00000370: b021 0526 d03a 2e00 7973 44a0 be83 d9a8
00000380: 6dd4 c517 d34e 2380 fe6a 4102 8f30 8da3
00000390: c885 f2a7 9c38 5785 43a2 8f1f bcab 9e22
000003a0: 1289 7b89 c823 1c26 c4ff cf94 055e 991f
000003b0: e889 3580 8fa3 351a 957d 0795 0a7c 9f03
000003c0: 0c0c 08a1 cf6c 8226 de52 a7a4 3323 d79a
000003d0: d8a8 3c1f f0af 3899 1b08 95a9 7c79 722a
000003e0: fbc3 dca2 237a 3500 8537 690a dbd5 049a
000003f0: 0a83 b41d 6bda b920 1908 c61d 160c eb90
-0.14420381 -0.07330369 -9.061907e-21 6.3717573e-31 -9.0547604e-27 -1.9363111e-25 0.121737495 -0.20208211
-0.101613544 0.0712423 4.111003e-28 1.7209844e-14 0.21528283 -4.212465e-27 -6.326135e-28 -0.06863753
-0.25862464 0.18198179 -4.904657e-39 1.5754431e-27 1.0831173e-13 -1.7712591e-37 -1.5941613e-17 1.3989723e-24
-6.281659e-19 -0.029877566 -0.032354504 0.1991313 -1.022771e-13 2.2111e-18 -9.271417e-19 9.5725887e-17
3.696244e-29 3.6814804e-21 8.271901e-32 -0.1686222 1.0981303e-27 -1.3047582e-23 -5.0689287e-31 -3.478937e-19
9.4077346e-32 3.1803105e-18 -5.3278145e-23 4.6032896e-38 -1.618141e-13 1.05608575e-35 2.69852e-39 1.6120925e-27
7.505588e-19 -3.039412e-21 4.833793e-15 -3.506847e-29 1.5228954e-13 -0.2098318 -5.9714246e-25 -1.9943802e-31
-2.486922e-20 -1.0093183e-33 -5.5180487e-29 -8.760692e-34 4.911317e-39 1.7941537e-31 -3.777368e-15 1.508469e-23
1.5383997e-21 -3.0692643e-15 -1.9945647e-18 -4.247464e-15 -1.6267537e-27 2.17716e-27 -9.140484e-25 -2.445646e-16
4.913925e-39 1.8725401e-14 1.02799e-18 -4.0810245e-23 -4.7107574e-23 4.917699e-39 -3.6516188e-29 3.0011288e-16
-5.2145614e-16 -2.463467e-38 4.908789e-39 -4.905252e-39 -3.1683203e-14 3.4413276e-32 -2.3261734e-14 1.2663776e-14
-1.212823e-17 -2.772064e-26 1.0843329e-20 1.4114658e-21 -1.9084476e-23 1.8540207e-18 -4.904633e-39 1.4259716e-24
-1.4922566e-23 -1.3075318e-13 -1.8640489e-15 -1.611334e-21 -8.624043e-20 -7.595063e-16 3.295989e-39 3.270284e-16
5.833339e-14 -2.0024315e-25 7.818481e-26 -2.2369222e-17 -7.76842e-40 -1.1686596e-21 -4.915919e-39 -2.1110057e-14
3.5779036e-29 1.0467458e-21 -6.447233e-20 4.1032782e-25 5.064402e-30 -1.672471e-39 5.065255e-29 -0.044740465
0.0037292787 0.029660253 0.13048524 0.16314714 9.618667e-17 0.060212784 -4.910119e-39 -2.8528146e-17
0.20570812 0.088893555 0.0059955744 0.18491508 0.176517 0.19880196 4.857226e-28 3.2963415e-16
2.9439104e-16 -8.194311e-31 -0.01887272 0.11726651 -0.055885416 -4.907038e-39 -4.917998e-39 1.8476286e-14
-1.6990986e-23 0.016329337 -0.21428248 -0.13884695 0.043488994 1.3071487e-25 -9.724838e-16 1.6717485e-24
-1.5966235e-26 -1.1276298e-14 -0.099291705 0.08390289 0.16792774 3.692808e-39 4.376231e-39 -1.9468831e-20
-8.643388e-35 -1.687399e-33 -6.341242e-23 1.8329017e-24 -1.5867073e-14 0.16204719 0.23592794 2.8689055e-30
-1.2939522e-35 -6.573324e-29 4.907457e-39 5.681002e-37 -1.9485425e-14 -3.0439749e-25 -0.0062487796 -1.04921663e-19
-3.5169933e-19 -3.741936e-18 -8.138621e-30 6.0431205e-30 1.0119578e-15 2.392604e-31 -2.5594006e-16 3.984483e-39
7.181917e-20 -6.7013415e-17 2.737812e-39 -9.235221e-23 -1.0950066e-23 -4.90815e-39 4.910661e-39 8.129824e-18
-0.24818341 3.555466e-22 7.861146e-24 8.24781e-28 -8.212315e-30 -4.904709e-39 6.982533e-18 1.083995e-22
-7.191772e-18 -4.7176135e-25 3.909028e-20 -3.811619e-31 2.592246e-27 2.0000987e-31 4.91787e-39 -2.5848694e-29
6.1927134e-23 3.3652957e-31 4.599763e-20 -6.711828e-14 -4.90995e-39 1.1813549e-27 -8.619838e-18 5.898145e-19
3.7633694e-14 -5.324085e-24 1.922209e-38 -6.9670964e-16 4.61893e-16 4.245531e-39 -1.6640052e-19 -2.4148974e-14
1.278445e-24 -3.242519e-39 1.4210106e-37 -1.5307816e-17 -6.731354e-15 -1.0119649e-35 6.0831295e-20 4.3007817e-18
-3.0277476e-33 5.4171865e-16 -2.100254e-26 6.495356e-20 -4.916753e-39 3.7562044e-23 -2.73621e-26 9.373658e-37
-4.6094536e-19 9.050055e-16 -7.256509e-17 -8.8978783e-23 3.9950213e-20 -9.548107e-24 -6.618335e-14 2.1536066e-13
-5.983862e-18 4.911096e-39 1.1228984e-32 -2.746971e-23 4.7781094e-21 3.1484756e-19 5.2418536e-21 -9.270978e-29

atom_lin.bias f4 [300]
00000000: 0662 ccbb 12b0 0abd 7afe 713d 4f5f 01bc
00000010: 7774 b23d b684 6abc a0fd f93c b4cd 42bd
00000020: 3f90 cc3d d808 33bd bd30 42bd 9b37 573c
00000030: 36fa 493d 6a09 23bd c70e d7bc cdb9 ad3d
00000040: 5d56 f13c 99b0 79bd 837d 0d3d 6ae4 ea3c
00000050: 8686 cc3d cba0 12bd f096 0a3e b069 50bc
00000060: d42f 72bd 64bb 9e3c 9848 1d3d cde1 ec3d
00000070: 9b37 323d 643f a0bb d911 aa3d c56e 553c
00000080: d634 523c f113 ce3d a73b 02bd cbbf 953d
00000090: 83aa f53b 1083 163d 0fd6 043c 44e4 e1bc
000000a0: 4ebf dd3b c698 09bc 0fbb 7f3d b799 e4bd
000000b0: 7a46 533d 6ec0 913d 2062 e4bc 5d9b 89bd
000000c0: 0c70 1a3c 17ee b43d babc d6bd 5494 19bd
000000d0: 06bd aabc a083 c63d 4875 843d 7dc7 a63d
000000e0: e9b3 8a3c a676 9e3d 84e1 83bd b9b9 543d
000000f0: e374 e23c 86c4 cd3d c230 89bd 9cfc 9c3d
00000100: 15ee 5b3d 82a2 d5bc 4565 a1bc 06f8 85bd
00000110: 954d d1bd 4b8b e63d ea65 81bc ca20 403d
00000120: c970 0a3d 6d93 963d 4863 ec3d 6b81 08bd
00000130: 4e91 5d3d 6ba9 063d 5733 89bd 1f9f 32bd
00000140: 7501 883c 76b0 9bbd 5539 49bd 67e2 9a3d
00000150: 5acf 233d 1b1a 533d ed57 89bd 3ab7 9a3d
00000160: feea 84bc 5df0 cb3c 4ce8 c23d 3799 9ebd
00000170: a093 f23c 4d18 8f3d afe2 acbc 72bb 983b
00000180: 08e4 863d d100 833c caf5 813d 32ee 083d
00000190: 2fec 91bb 396e a73d 3a8e 46bc 97ea 903d
000001a0: e01f 73bd b088 54bd 58e8 043a eb18 30bd
000001b0: 4fae bc3d 5610 ac3d da9c a03d e016 963d
000001c0: 45b6 903c 383e 8a3d 7107 463b 02de cbbc
000001d0: cb16 82bd 9afb 383d 609b baba aeb9 7b3d
000001e0: f573 b83d 0b92 5ebd cfd5 273d bce6 2bbd
000001f0: 242d 1d3c 9bd0 c93d dd47 463d 84af 0dbd
00000200: 85c1 5a3d bdcf cf3d 55ab c43d 54ad 56bd
00000210: f3cb 76bd 686b 073e 3228 af3d 8d57 bd3d
00000220: 68e4 463d 1e31 053d 5d14 a53c 51de 5abd
00000230: 9047 853c aeef 3fbb 3050 40bd 5277 e93c
00000240: 4384 9838 82ae 3ebc 61f7 523d 36e9 f8bc
00000250: 44d1 3ebd 1250 6bbd 8747 1ebd a415 cbbc
00000260: c06a 033d c4e8 8d3d 4c34 6bbd eb89 173d
00000270: 0a56 98bd 1ddb 303b 5896 48bc ab30 ccbd
00000280: 5323 babd c8fe 8dbb 7aca 92bc 64fc ecbc
00000290: 91e0 193d 955c ee3d dca1 823b aa27 013e
000002a0: 5cf4 ab3b 9ec4 8b3d 7ddb ae3d 8487 7ebc
000002b0: 1275 233e 9917 843d 5b2d 983d 9bdc 0f3d
000002c0: cb26 af3d 1397 953d a527 84bd 7878 35bd
000002d0: 209b 183d e0d5 93bd fb54 c6bc aa1f c7bd
000002e0: 6ee3 d43c 4cf1 303c 5cd1 e23c 065d 52bc
000002f0: 37f9 4dbc fa38 4f3d 09c5 873b bc10 203d
00000300: d6f5 fd3c d291 c53d c1de 2e3c a46b c73d
00000310: 393b 55bd 4b10 db3d 679f 55bc 5f78 7fbd
00000320: 91e2 dc3c e597 023d 61fe 4f3d 07ea 4e3d
00000330: 94b5 3f3d 765f 183d d72a 16b9 4c2d 633b
00000340: ab55 5f3c 5caf 1cbd cfce 08bd a026 443d
00000350: a845 52bd a284 223d b736 c2bb a0da 9bbc
00000360: 29d3 333c 2a05 11bd 19eb 663c dd06 b23d
00000370: 7917 9c3d 23d4 e63d 6362 5fbd 4f1b babd
00000380: cd60 853d 2d1d 283c c890 3d3d 0ab8 053d
00000390: 2b16 86bd 1168 813c c7a5 89bd ddff 5c3c
000003a0: 77f3 3c3d 43d7 1e3e 3319 bdbc 7987 6b3d
000003b0: 63c7 033e ed93 adbc 22c8 9d3d b861 013e
000003c0: bbcb 863d 3723 d23c 034f b33d 7cec 43bd
000003d0: 47ca 6fbb 3aa0 483d d3da 0ebd 529f 983d
000003e0: 7007 153e 8847 303d 1ca1 b13c 432a 76bd
000003f0: bf16 e43b 3e78 9a3c 4d1a e03d 3dad c53d
-0.0062372712 -0.03385932 0.05908058 -0.0078962585 0.0871362 -0.014313867 0.030516446 -0.047559455
0.0998845 -0.043709606 -0.04740976 0.013135816 0.049310885 -0.0398039 -0.026252164 0.08482704
0.029460127 -0.060959432 0.034543525 0.02867337 0.09986596 -0.035797875 0.1353414 -0.01272051
-0.059127644 0.019376464 0.03839931 0.115665056 0.04351006 -0.0048903693 0.083041854 0.013026898
0.01282998 0.10062397 -0.03179517 0.07311972 0.007497133 0.036746085 0.008107676 -0.027574666
0.00676719 -0.00839824 0.062434252 -0.11162131 0.051580884 0.07116781 -0.02787882 -0.06719086
0.009426128 0.088344745 -0.104852155 -0.037494972 -0.020842087 0.09693074 0.06467682 0.08143518
0.016931491 0.07737474 -0.06439498 0.05193493 0.027643627 0.100472495 -0.06698753 0.07665369
0.05369385 -0.026078466 -0.01970161 -0.06541447 -0.10219876 0.11257037 -0.015795667 0.04690627
0.033798967 0.07352338 0.11542374 -0.033326548 0.05409365 0.032876413 -0.066992454 -0.04360878
0.016602257 -0.07602017 -0.04912694 0.07562714 0.039992668 0.051538568 -0.06706224 0.07554479
-0.016225334 0.024894888 0.09516963 -0.07744067 0.029611409 0.06987057 -0.021104185 0.004661017
0.06586462 0.0159916 0.06345709 0.033430286 -0.004453204 0.0817532 -0.01211887 0.070759945
-0.05935657 -0.051888168 0.00050700223 -0.042992514 0.09212934 0.08401553 0.07842417 0.07328582
0.017665038 0.067501485 0.0030216838 -0.024886135 -0.06352004 0.04516182 -0.0014236979 0.061456375
0.09006492 -0.054338496 0.04097539 -0.041968092 0.009593282 0.098542415 0.048408378 -0.034591213
0.05340721 0.10147045 0.096029915 -0.052411392 -0.060253095 0.13224566 0.085525885 0.092452146
0.04855767 0.032517545 0.020151312 -0.053434674 0.016269475 -0.0029287147 -0.046951473 0.02849928
7.2725605e-05 -0.011638286 0.05150545 -0.030384641 -0.04658629 -0.057449408 -0.038642433 -0.024790592
0.032084227 0.06929162 -0.05742292 0.036996763 -0.07438286 0.002698607 -0.012242876 -0.0997022
-0.09088769 -0.004333351 -0.017918814 -0.028928943 0.03756768 0.11638752 0.0039865803 0.12612787
0.0052476358 0.06824611 0.08537958 -0.015535239 0.15962628 0.064498134 0.07430526 0.035122495
0.08552321 0.07304206 -0.06452874 -0.04430434 0.037257314 -0.07218528 -0.024210444 -0.09722836
0.025987353 0.010799717 0.027687721 -0.012839561 -0.0125716245 0.050591446 0.0041433615 0.03907846
0.031001013 0.09646954 0.010673226 0.09737328 -0.052058432 0.10696467 -0.013038493 -0.062370654
0.026963504 0.03188314 0.050779704 0.050516155 0.046804026 0.037200414 -0.00014321074 0.003466445
0.013631265 -0.038253173 -0.033400353 0.0478884 -0.05133596 0.03967727 -0.0059269327 -0.019025147
0.0109756375 -0.035405315 0.014094138 0.08692715 0.076216646 0.112709306 -0.05453719 -0.0908724
0.06512604 0.010260862 0.046280652 0.032646216 -0.06547197 0.015796693 -0.06721073 0.013488737
0.046130624 0.15511803 -0.023083305 0.057502244 0.12869029 -0.0211887 0.07704188 0.12634933
0.06581827 0.025651557 0.08755305 -0.04783295 -0.0036589073 0.04898093 -0.034876656 0.07452263
0.14553618 0.043036968 0.021683268 -0.060098898 0.0069607194 0.018856164 0.109425165 0.09652183

bond_lin.weight f4 [300, 23]
00000000: a2c8 1528 dafc 6f3b b110 a63e 7b1c 6d3e
00000010: 08fd 6300 b2fd 24b4 b4d3 f80d 4aca aeb6
00000020: f96b bf34 0bb7 e9ab f6c9 058b 98fa f42a
00000030: f69d adb7 58a1 8daa d0db cc34 a38b 2e15
00000040: 2d23 44a9 af5c 5535 2a43 b629 9087 972f
00000050: 9f68 669a e1db 8320 e821 1cba c8f2 608a
00000060: cfea f1be 9617 953d 0449 b0be 3d0b aa35
00000070: c578 7897 774f b18a 6438 28b2 9453 bfa3
00000080: 50b5 2e91 4f4a 2131 0c6f 1e30 01bf 0e3f
00000090: 60ca 6237 e168 2b80 8d46 1000 ef61 92a4
000000a0: fe19 ff16 8252 8b0a 470a 622e 7085 352b
000000b0: a270 5db3 5157 21ab 2ecb 31ad eb80 0a3f
000000c0: 6c75 6bbe bc1c 539e 9c7f 1e39 a18b 3580
000000d0: b173 eb1f dfde cdb8 bb3f d79e e8da 5ea9
000000e0: c704 9920 473c d836 1b9b f9be 5df0 c1b7
000000f0: f1e7 51a8 73f5 deb9 b944 fdac be80 d932
00000100: 9883 ed2b b34b af21 f104 7cba 5c5e d5a1
00000110: e8bd 8025 42b0 4e36 74bb 8bbe 34d6 07bf
00000120: 4826 543e 478e afab 314e f7a7 7b9e b138
00000130: cec6 2a95 26ef f3b7 5e70 4410 b9eb b92b
00000140: eb93 1f39 f19a a6be 16a2 a5b8 6163 9019
00000150: b918 b20a 3581 65b5 4b97 7228 a976 152b
00000160: 5582 3580 9a03 edb8 515f 0f31 4200 1f0a
00000170: b1dd f023 1530 f7bc 16b5 cf3e a9fb 543f
00000180: ab7e 322f ad9e c41b d9ee 3700 500d c6b6
00000190: 74bc 9994 15db fe31 4fd8 b4a1 557d 329c
000001a0: 9d97 0dbe eff7 9a2d 9180 1e2e 5dbd 61b7
000001b0: 9fe9 ec31 22b3 97a7 d918 7934 6937 2e80
000001c0: bcba 4ab2 ffcc 51ba edde af0f 9579 3580
000001d0: abc4 cf3e ec7e 713e 0025 3bbd 522a daa9
000001e0: d79a 8cac 05ae 04ba 47ab b696 e8c3 4129
000001f0: 4d1f 0faf 03b5 bc28 54d5 64ab 3b82 063e
00000200: 8882 9db6 f128 c621 6130 3ca2 53d3 2802
00000210: 0b0e 7bb8 a68f 5832 5f76 438e a988 941d
00000220: a74a 17b3 2d2e 32b9 b85b cd0d e8a5 12bf
00000230: ef0a 06be f55c fb3e 98a9 1bba 1faa cc2f
00000240: 565d 2fa0 6187 3500 7294 c4b7 4b5b 00a0
00000250: 768b b2b0 a16e b135 92d2 5cbe 9b48 550c
00000260: 5886 d038 7bee eaa4 7201 459a 9e35 2cba
00000270: 9653 47a1 679b 55a8 1032 86a6 56a2 5635
00000280: 9b8a 3500 7f21 5d39 1771 ad3e cddd e5bd
00000290: ec43 8ba1 723b ef9e 9a34 efb7 ccae 0cb4
000002a0: 274e 9da2 c2b2 84ba 3ac3 233a 1e87 1528
000002b0: abc3 3300 b3ea b43d 5b2b b2b2 70cf 4533
000002c0: 9761 b121 ac01 e12b 8ada 7eb8 021f c2b1
000002d0: bc66 a225 8c6e 3580 da0d ca9e 73e9 36b4
000002e0: c15e 16b9 7a51 25be 0013 3bbd 3974 36be
000002f0: bc69 0a31 f282 3c24 e6fd 8a34 2b42 dea1
00000300: f6fa 41b1 5c74 d8a9 8f69 1f33 dc8d 54a3
00000310: 7e5d aa3e e775 3580 410f ad0c b9a6 76a6
00000320: 15f7 8b92 77e5 9e3a e39c c1b4 25c1 67a5
00000330: 1018 39b1 f35e 95b4 e61b 9bb7 770b a530
00000340: 00f1 7e3e bbec 0c3f 5ab5 20be edb5 cd07
00000350: 1c44 9fa4 357f e1ab 2d8e d135 8200 ce33
00000360: 4234 7434 ae98 6f36 73c1 33ae 0210 7abe
00000370: d36d d2b7 4880 6aba a788 67b8 32ef 6f29
00000380: a4a8 a78c 2c86 e69e f745 ce36 d81e 80b9
00000390: 0572 d7b4 b228 39b3 713c c0ab a64a b6be
000003a0: 1c01 83be 5ca5 e8bc 06a5 47b8 6fbf 1f8b
000003b0: 4a5d 98b9 9451 2aa8 5115 9135 887f 40b1
000003c0: da98 deb1 6eb6 0696 2dcc a93e e54d 52b7
000003d0: 3b93 49ba 1b5b 73b9 1066 c117 403e 0919
000003e0: da89 c335 fa2a 4303 161c fc84 ac0a 78b1
000003f0: 58e5 99ab 7773 1287 2b8a dc3e 08c4 94be
8.314667e-15 0.0036619217 0.3243461 0.23155396 9.182485e-39 -1.5365984e-07 1.5335146e-30 -5.2091536e-06
3.5655083e-07 -1.660645e-12 -2.5766807e-32 4.351699e-13 -2.0696763e-05 -2.5158586e-13 3.8157896e-07 3.5249174e-26
-4.3551253e-14 7.9483556e-07 8.094075e-14 2.7563063e-10 -4.7647397e-23 2.2337767e-19 -0.000595598 -1.083087e-32
-0.47249457 0.07279889 -0.34430707 1.2669258e-06 -8.0285554e-25 -1.7074371e-32 -9.791709e-09 -2.0743658e-17
-1.3782051e-28 2.3470823e-09 5.763787e-10 0.557602 1.3517769e-05 -3.98655e-39 1.494677e-39 -6.348331e-17
4.1213875e-25 1.3416249e-32 5.139558e-11 6.44893e-13 -5.155801e-08 -5.7319866e-13 -1.01064e-11 0.54102963
-0.22994012 -1.1176189e-20 0.00015115592 -4.917371e-39 9.9717767e-20 -9.816675e-05 -2.2790369e-20 -4.9483773e-14
2.592237e-19 6.444319e-06 -0.4875115 -2.311932e-05 -1.1652125e-14 -0.00042526014 -7.1983222e-12 2.532067e-08
1.6876387e-12 1.1878499e-18 -0.00096137734 -1.4458418e-18 2.2333146e-16 3.0798988e-06 -0.27291453 -0.53061223
0.20717728 -1.2473988e-12 -6.8641047e-15 8.469537e-05 -3.4488056e-26 -2.907922e-05 3.874075e-29 1.3210467e-12
0.00015218525 -0.32540086 -7.898004e-05 1.492939e-23 1.7150076e-32 -8.549717e-07 1.3466505e-14 5.310011e-13
-4.914036e-39 -0.000113017115 2.086342e-09 7.65562e-33 2.6114742e-17 -0.030174294 0.40567845 0.831965
1.6234007e-10 3.2528022e-22 5.136635e-39 -5.9024096e-06 -1.5523384e-26 7.4172797e-09 -1.2254531e-18 -5.9057247e-22
-0.13827367 1.7617878e-11 3.603923e-11 -1.3455135e-05 6.8950636e-09 -4.2105135e-15 2.3198972e-07 -4.24431e-39
-1.1800406e-08 -0.0008003264 1.73422e-29 -4.910897e-39 0.40579733 0.23583573 -0.045689583 -9.688486e-14
-3.99623e-12 -0.00050613313 -2.9511777e-25 4.302453e-14 -1.3016895e-10 2.0950694e-14 -8.1297924e-13 0.13135616
-4.6941605e-06 1.3427839e-18 -2.5504363e-18 1.2403338e-37 -5.9856142e-05 1.2605517e-08 -2.40926e-30 3.9316577e-21
-3.5225323e-08 -0.00016992605 1.2656181e-30 -0.572844 -0.13090108 0.49094358 -0.0005938052 3.7228262e-10
-1.4853959e-19 4.915846e-39 -2.3434146e-05 -1.0872228e-19 -1.2990842e-09 1.3219725e-06 -0.21564701 1.6430772e-31
9.9432364e-05 -1.01885325e-16 -4.0739813e-23 -0.0006569269 -6.753445e-19 -1.1857573e-14 -9.311687e-16 7.995744e-07
4.917004e-39 0.0002108868 0.33875343 -0.11223946 -9.436985e-19 -2.5329695e-20 -2.8515515e-05 -1.3102107e-07
-4.2637682e-18 -0.0010124075 0.00062470476 8.30046e-15 4.753803e-39 0.08833828 -2.0741643e-08 4.60563e-08
1.2019818e-18 1.5987676e-12 -6.076185e-05 -5.6496683e-09 2.8172136e-16 -4.906938e-39 -2.139331e-20 -1.7034999e-07
-0.00014340413 -0.16144362 -0.045672417 -0.17817773 2.0141746e-09 4.0876917e-17 2.5889238e-07 -1.506082e-18
-2.8227851e-09 -9.612512e-14 3.7116077e-08 -1.1522583e-17 0.33274454 -4.909577e-39 2.666405e-31 -8.5574346e-16
-8.833044e-28 0.0012122829 -3.6063201e-07 -2.0101496e-16 -2.6934721e-09 -2.7822497e-07 -1.8490431e-05 1.2008589e-09
0.24896622 0.5504872 -0.1569418 3.0951898e-34 -6.907064e-17 -1.6022519e-12 1.5613092e-06 9.592715e-08
2.2743282e-07 3.5702647e-06 -4.0871705e-11 -0.24420169 -2.5085092e-05 -0.0008945507 -5.520196e-05 5.327613e-14
-2.583192e-31 -2.440769e-20 6.1474234e-06 -0.00024437043 -4.012983e-07 -4.311068e-08 -1.3659196e-12 -0.35603827
-0.25586784 -0.028399162 -4.7598987e-05 -3.0766305e-32 -0.00029061205 -9.454585e-15 1.0809546e-06 -2.801217e-09
-6.4784276e-09 -1.0881998e-25 0.33163586 -1.2535112e-05 -0.00076894806 -0.00023208225 1.2498097e-24 7.095305e-24
1.4568752e-06 5.7354684e-37 -5.9270708e-36 -3.6094816e-09 -1.093496e-12 -1.1017751e-34 0.43074164 -0.2905581

bond_lin.bias f4 [300]
00000000: 9204 ac3b fc99 5bbe a614 03bd 3ea5 0b3e
00000010: 9199 ccbd 4945 0f3e 5c65 16be 6039 e23c
00000020: dea0 77be dd36 2abe efe0 a2bd ceef 923e
00000030: 5299 23be 392e f5bd 6a9e a83d 0bb7 6e3d
00000040: 20b7 963a a310 cdbd ee57 673d 2e93 743e
00000050: 36a5 253d 417e 91bd 313e 02be ed75 4ebe
00000060: 0ca1 423e 7f93 443d 6bd1 debd d797 313e
00000070: 7f85 5b3e c1c1 34be 62d7 d63d 9a00 2cbe
00000080: 309a c9bd f063 16be e96d 68be aa3e 093e
00000090: c388 5dbe 16b4 333e dd02 e0bc 8b81 023e
000000a0: 9122 a5bb 9c9b b53c 2057 c7bd edc5 543d
000000b0: 204b 09bb 4679 50bd da17 6f3e 3d21 653d
000000c0: 26f5 503e 3a17 d53d e52a 16be 1bc1 4b3e
000000d0: c98d 60be e685 573e 1b18 a6bd 0fa3 473e
000000e0: a267 32be 513d 6e3e 148c 41bd 851c 243e
000000f0: 5603 06be 4dfc 6dbd 8c02 843d 2dc1 843e
00000100: c612 4bbe de0d 8dbd a8bc 61be a5e1 113e
00000110: 5446 49be d0c2 903d 5bfd 4abe d196 1a3d
00000120: 598f 57be 3b76 19be 874a 27be 2554 8d3e
00000130: eb7a cc3c 67a4 963e 359d 9dbd 1381 9c3c
00000140: cdb6 38be f3cc 08bd 0d6f 553e 2dc4 a43d
00000150: f3db 13bd d2f3 553e 471c 03bd 95a1 58be
00000160: e0f3 26be 59c5 b5bc da62 e2bd 8527 3dbe
00000170: bd1e 32be 3162 373e c990 bcbd f30c 76be
00000180: fdf0 763d de8b 683e 6f8c 1bbe a3a9 603e
00000190: 65ba 3d3e 568c 083e a197 58be e603 813e
000001a0: a54f b63d 58a1 773e 0291 99be c22b 41be
000001b0: 64fd 02bd 08e6 babd aa67 dd3d d4c4 83be
000001c0: 5c74 383d de2e dbbd b4f3 873c e873 e73b
000001d0: 9e50 243e 0189 b53c c53a 3fbe 71bb 213e
000001e0: 3823 ccbd 4c98 07bd 8682 0bbe 50a6 52bd
000001f0: f46d 153e 84f6 2fbe 9e4f 443c 6231 333e
00000200: 4ac8 a6bd f90f be3d b31f f6bd 89d0 68bc
00000210: cb34 583d 5ab3 7b3d c155 0a3e 4645 203e
00000220: 8ecd 2a3e c53f 45be 1f4c a7bd 36af 8e3e
00000230: 8045 f73d b3ce 413b 2db5 05be c5dc b9bd
00000240: c63c b3bc d9f3 49be 8775 f7bb 263f 553e
00000250: 3b00 e4bd 951f 8cbd 9f9f 35bc 5355 8d3d
00000260: f633 223e 131e ef3d 8016 383e f02c 3b3e
00000270: 4a3a 0fbe 9ebd 16bd 5556 193e 54c5 b33d
00000280: 5586 293e 7d3e fd3d d659 113e e7ff 0dbe
00000290: 7c75 09be f62c 8b3c 4ea2 703d 11b9 46bd
000002a0: a1f5 943c c935 203e ac84 59be 4e75 6c3d
000002b0: f5a0 13bc 24af e83d 7104 a23d e3d6 d13d
000002c0: b4ed 9fbb 1475 acbd bbed 033e 2134 6fbe
000002d0: 3cb7 e33d f316 2ebe 22ca 7cbe f107 4dbd
000002e0: 0599 723c e120 54be 7f0a 98bd 3c55 00be
000002f0: 042e 34be 2247 543e 42f4 e3bd 5c32 1cbe
00000300: d500 ee3d a162 96bd c334 c5bd 5d63 493e
00000310: 0088 ffbd 421e 59be 0b8d d6bd 9197 5ebe
00000320: 41eb 8d3d 090b 03be 143e 383e 800d 85be
00000330: 2c31 14be bc60 423e a151 b73d 87d2 9c3c
00000340: b36c 7b3d a940 11be 7bc7 c23d b05d 803d
00000350: a14f 053e 6d2a 7dbd 4ad1 5bbd bf61 8ebd
00000360: b03a b13e a321 8cbd 45de babd cf9c 5e3d
00000370: e9d7 623e d8b9 ecba 8bff 993d 2e30 84be
00000380: 2d4e a7bd 4f24 51be ca4c 29be f5d5 c33d
00000390: ff95 05be 16b7 2ebe 8df5 b9bd 70d9 d63d
000003a0: f88f 353e 8706 86be 2eb7 963d a357 533e
000003b0: ca5d 36bc 852f c7bc a158 59be 23cd ad3d
000003c0: ecbb 41bd 8ae6 143e c339 31bd 31ce 433e
000003d0: 3a16 f6bd a9c6 dabd 4b63 2a3e 4540 133d
000003e0: 3d1c 863e 9f15 823e d54e db3d b510 a43c
000003f0: 17fd 5c3c 0c52 1fbe 6577 c53d 5748 293e
0.0052495683 -0.21445459 -0.032002114 0.13637254 -0.09990228 0.13991274 -0.14687103 0.02761525
-0.2418246 -0.16622491 -0.07953059 0.2869858 -0.15976456 -0.11971707 0.0823334 0.058280032
0.0011498667 -0.10012939 0.05648034 0.2388427 0.04044076 -0.07104159 -0.12719037 -0.20162173
0.19006747 0.047992226 -0.10879787 0.17343079 0.21437643 -0.17652036 0.104903 -0.16797104
-0.09843862 -0.1468656 -0.22698177 0.1340281 -0.21634202 0.17549166 -0.027345115 0.12744729
-0.005039521 0.022168927 -0.09733415 0.05194657 -0.002094932 -0.050896905 0.23348942 0.0559399
0.20406017 0.10404821 -0.146648 0.19897883 -0.21929087 0.21047172 -0.081100665 0.19495796
-0.17422345 0.23265578 -0.04725273 0.16026504 -0.1308721 -0.05810194 0.06445798 0.2592863
-0.1983138 -0.068874106 -0.22044623 0.14246233 -0.19655734 0.070684075 -0.1982321 0.037741486
-0.21050777 -0.14986508 -0.16337024 0.2760326 0.024960956 0.29422304 -0.076960005 0.019104516
-0.18038483 -0.03339858 0.20843144 0.0804523 -0.03609843 0.20893791 -0.03200939 -0.21155389
-0.16303968 -0.02218883 -0.11054011 -0.18472107 -0.17394538 0.17908551 -0.09207303 -0.24028377
0.060288418 0.22709605 -0.1519029 0.21939711 0.18528135 0.13334784 -0.21151592 0.25198287
0.0890191 0.24182642 -0.29993445 -0.18864349 -0.031979933 -0.09125906 0.10810788 -0.25736105
0.045032844 -0.107022986 0.016595699 0.0070633776 0.16046378 0.022160055 -0.18674763 0.1579416
-0.09967655 -0.033104226 -0.1362401 -0.05142814 0.14592725 -0.17183882 0.011981873 0.17499307
-0.08143671 0.0928039 -0.12017765 -0.014209875 0.052784722 0.06145034 0.13509275 0.15651426
0.16679975 -0.19262607 -0.08168816 0.2786805 0.12073803 0.0029572665 -0.13057394 -0.090753116
-0.021879565 -0.19721927 -0.007551852 0.2082487 -0.111328565 -0.06841961 -0.01108542 0.0690104
0.15840134 0.11675658 0.17977333 0.18278861 -0.1398708 -0.036801927 0.1497434 0.08777872
0.1655515 0.12365434 0.14194426 -0.1386715 -0.13423723 0.016989212 0.058748536 -0.048516337
0.018183531 0.15645517 -0.21242017 0.057729058 -0.009010543 0.113615304 0.079110034 0.102460645
-0.0048806313 -0.084207684 0.12883656 -0.2335973 0.111189336 -0.17000942 -0.24686483 -0.0500564
0.0148069905 -0.20715667 -0.07423877 -0.12532514 -0.17595679 0.2073026 -0.11130573 -0.15253586
0.116212524 -0.07343031 -0.09629204 0.1966681 -0.12477112 -0.21202949 -0.104761206 -0.21737505
0.06929637 -0.12797178 0.17992431 -0.25986862 -0.14471883 0.18982214 0.08951116 0.019143356
0.06138296 -0.14184822 0.09510704 0.062678695 0.13018657 -0.06180804 -0.05366639 -0.06952237
0.34615088 -0.06842353 -0.09124426 0.054348763 0.22152676 -0.0018060757 0.07519444 -0.25818008
-0.08169208 -0.20424007 -0.16533199 0.095622934 -0.130455 -0.17062029 -0.09080038 0.10490692
0.17730701 -0.26176855 0.073591575 0.206389 -0.0111307595 -0.024314651 -0.21225215 0.08486392
-0.047298357 0.14541069 -0.043267976 0.19121625 -0.12015958 -0.10682423 0.1663944 0.035949964
0.2619342 0.2540712 0.107083954 0.020027498 0.013488076 -0.15558642 0.09641913 0.16531502

energy_lin.1.weight f4 [300, 300]
00000000: 7a3f 063e 5789 5e3d 6b02 133e 16e6 aabd
00000010: 2ff6 ee3d 6ab9 2a3d 354e 083e 77ff e63d
00000020: a95a 5abd 2175 903d 1452 2fbd 4ada 803e
00000030: 6e0a 8abc bb20 9a3d 21a4 193d aeae dbbd
00000040: 8ebe 8fbd e377 033e aaaa f0bd 6854 74bc
00000050: 217f 73bd 4915 ccbd e772 c0bd 1f04 aebc
00000060: be13 dbbd c2f5 9cbd 893a 0c3d c28f b73d
00000070: 1e14 983c 35e1 0cbe e157 4fbb 3ae8 f5bd
00000080: 6a58 f13d d04b 4a3c d791 803d d4e2 88bb
00000090: d598 683d e828 5e3d 75b5 9ebd a4c4 2dbe
000000a0: 2ade 133e 2553 51bc 3c62 0b3e 8c46 0d3e
000000b0: 9d35 ebbc 149d d53d f7c2 29be dcfc bbbd
000000c0: a012 8abd f74f 3fbd 93a3 203e bc0a f03d
000000d0: 9cb1 153e f853 d53d ed9e 74bd 103f e53c
000000e0: 5279 edbd 4f21 f13d 25dc c03c ce52 0ebd
000000f0: 3cad 973c e429 b63d ded1 d33d 7f22 a13c
00000100: e7ba 783d a710 31be acff ccbd def4 a13d
00000110: 2a18 a33d 9be5 31bc 249a 033e d0ad 04bd
00000120: 9b8d ad3d 3809 203d cfbd e93c 89d6 43bd
00000130: 2264 733c e9c6 28bc dd65 2ebe 8bfc 2fbc
00000140: a60a 92bd c8e0 22bd 4911 ab3d b966 c33d
00000150: e6f8 3bbd b440 b43d 89fd 5fbc c53b 213e
00000160: 81c5 c9bd 80a8 1bbe 077b 6e3d bca6 8dbd
00000170: fd3b 99bc 1890 d43d 968a 143e aead 493d
00000180: 0355 d83b 5292 143d 05e5 5a3d 6935 a33c
00000190: f9e8 04bd 1730 c53d 6640 4e3e f9f6 213d
000001a0: e1c7 71bc c6cf 10bd 7468 0a3e 67f0 003e
000001b0: cc4f bebd e016 303c e73d 5f3d f3c7 49bb
000001c0: a080 f73d de79 273d f36e f23d 288d 2dbd
000001d0: 2a6c ac3d 351d 863d 4692 be3d 2112 713d
000001e0: 6ae5 023e a2fd a43d 2a96 f4bd 1dbd 5dbc
000001f0: bd45 84bd d753 153e afae 9f3d 99c6 00be
00000200: 956a 06bd bc0a 223e 7c32 82bb 877d d9bd
00000210: 2f26 d63b 870d 153e e37f 263b 1cbc f33d
00000220: deda b2bd 4da0 df3d 41d5 80bd 7dee aabd
00000230: cfbb 8ebd 3a7c fcbd 9006 02be abba dbbd
00000240: 9a21 d43d 416e 113e 0c90 dfbd 757d 353d
00000250: 2ab6 1a3e 77e5 1c3d 6935 8abd d8d0 513d
00000260: ad68 c63d 4a32 4abc 2509 763d 07bd 14be
00000270: 4348 9dbd 809d e0bd c9e9 e4bd 4cd8 88bd
00000280: 9ff9 673d df1a b43d 3092 51bc 9456 503d
00000290: cce8 7a3d 48c9 44bd e74c 7b3d efd2 8bbc
000002a0: 74cc e23d cb26 1b3e 1cf6 4bbc 34c4 8d3b
000002b0: b01e b8bd dbf9 cfbc 109b 8c3d 6d55 bdbd
000002c0: 1213 f43d 81ae 833d 7596 1fbe 8d7c 013e
000002d0: 55c8 933d b8fb f63d a3cf da3d 8836 123e
000002e0: 6ea6 40be 5ae9 0abe 4601 9a3d a17b 513d
000002f0: 4c73 1d3e 2776 263d b7ff 843d 9e17 12bc
00000300: 7b2f 7abc 9b1d e4bc e37e 223e d23f 2ebd
00000310: bb9e 063e c2f7 013d 04d2 3cbd 9bfe cdbd
00000320: 3a20 0e3e b6ca f03c 7728 03be 7224 d43d
00000330: d5f3 713d 6663 0e3e adf4 8d3c 662a c1bd
00000340: 47b4 f7bc 5be2 a33c 7a51 07bd e8d2 18bc
00000350: b625 27bd 88d3 843c 5232 13bd 9587 1e3d
00000360: 2835 a9bd df89 3f3d c71f 9c3d c4ee 723c
00000370: 30ae b23c 2a4b 2e3d c225 b9bd ed13 193e
00000380: 35d0 133e 08c0 1d3e d0dd 043d cf34 0abc
00000390: 220a e93d 2085 33bc 2411 d5bd 000b f93c
000003a0: 4c3f 113e 1300 e63d 9784 a13d abd8 ee3d
000003b0: cb8d cc3d 3e60 9d3c b107 b13d ef50 943e
000003c0: c03c 253e d843 cdbd 589b ff3d 24a5 f8bd
000003d0: c697 05bd 74e5 103e 4ce2 a53d 3eec b7bd
000003e0: 88bb 45be a950 a1bd b0b3 1e3e 83e2 8c3c
000003f0: 9e05 903c 5d90 873d f52b e5bd a4d4 03bd
0.13110152 0.054330196 0.14356391 -0.08344667 0.116680495 0.04168073 0.13311084 0.11279195
-0.053309117 0.070535906 -0.042802885 0.2516654 -0.016850676 0.07525774 0.03751004 -0.10726677
-0.07018767 0.12838702 -0.117513016 -0.014912702 -0.05944741 -0.09964997 -0.09396916 -0.0212422
-0.10697125 -0.07664062 0.03423551 0.089629665 0.01856428 -0.13757785 -0.0031638073 -0.12007184
0.11784442 0.012347177 0.06277817 -0.0041774306 0.056786377 0.05423823 -0.07749454 -0.16969544
0.14440218 -0.012776171 0.13611692 0.13796443 -0.028712088 0.10430351 -0.1657828 -0.091790885
-0.06741834 -0.04670712 0.15687399 0.117207974 0.14618534 0.104164064 -0.059721876 0.027984172
-0.11595406 0.11773931 0.023542473 -0.034746937 0.018515222 0.08894709 0.10342763 0.01966977
0.06072512 -0.17291509 -0.10009703 0.07908033 0.07963593 -0.010857965 0.12851769 -0.032392323
0.08474275 0.03907129 0.02853289 -0.04781202 0.0148554165 -0.01030133 -0.17031045 -0.010741363
-0.07130937 -0.03976515 0.08352906 0.09541077 -0.045891665 0.08801404 -0.013671287 0.15745457
-0.09852124 -0.15200996 0.058222797 -0.06916568 -0.018705362 0.10379046 0.14505991 0.0492379
0.006601931 0.036272354 0.053441066 0.019922929 -0.032448743 0.09628313 0.20141754 0.039542172
-0.0147571275 -0.0353544 0.13516408 0.12591706 -0.09292564 0.010747641 0.054502394 -0.0030789345
0.1208508 0.040887706 0.11837568 -0.042370945 0.08419068 0.065485395 0.09305243 0.05885518
0.12782827 0.08056189 -0.11942704 -0.013533858 -0.06458614 0.14582764 0.0779699 -0.12575759
-0.03281649 0.15824407 -0.0039733034 -0.106196456 0.0065353136 0.14555942 0.0025405816 0.119011134
-0.08733152 0.10919247 -0.06290675 -0.08346269 -0.069694154 -0.12328382 -0.12697816 -0.107289635
0.103579715 0.14202215 -0.10916147 0.0443091 0.15108553 0.038304772 -0.067484684 0.05122456
0.09687934 -0.012341091 0.060067315 -0.14525233 -0.076797985 -0.10967541 -0.111774035 -0.0668188
0.05663454 0.08794188 -0.0127912015 0.050863817 0.06125717 -0.04804352 0.061352637 -0.017068354
0.110741526 0.15151517 -0.012448814 0.0043263678 -0.08990228 -0.025387695 0.06865513 -0.09244809
0.119177 0.06429768 -0.15584739 0.12645169 0.07215945 0.1205973 0.10684135 0.14278615
-0.18813488 -0.13565579 0.07519774 0.051143292 0.15376014 0.040640023 0.06494086 -0.008916764
-0.015270109 -0.027846148 0.15868716 -0.042541333 0.13146488 0.03173042 -0.046098724 -0.10058328
0.13879481 0.029393535 -0.12808405 0.10358514 0.059070427 0.13905105 0.017328585 -0.09431915
-0.03023733 0.020005396 -0.033036686 -0.009327628 -0.04080745 0.016214147 -0.03593666 0.03870352
-0.08262092 0.046762343 0.076232485 0.014827434 0.021811575 0.04255215 -0.09040405 0.14949007
0.14434893 0.15405285 0.0324381 -0.008435442 0.11378886 -0.010957032 -0.1040366 0.030400753
0.14184302 0.11230483 0.07886618 0.1166242 0.09987982 0.01921093 0.08644045 0.28967997
0.16136456 -0.10022706 0.12480801 -0.12140873 -0.032615446 0.1415003 0.08099803 -0.089806065
-0.19309819 -0.07876713 0.15498233 0.017197853 0.017580803 0.06619332 -0.11190025 -0.03218521

energy_lin.1.bias f4 [300]
00000000: 54be 2ebd 4563 70bb 819a 673a 1b56 5cbc
00000010: a86d c83c ca36 e83b f32c 343d be39 f63c
00000020: adb0 833c eee8 003d 2966 c73d 8866 d4bb
00000030: 25eb ea3c cb7f 3d3d d7bb 84bb 9faa b93b
00000040: 43fd 04bd 549a 34bc 97f1 503c b822 ae3c
00000050: 885a 8b3d 1835 963d 5db8 bc3d 51f7 363d
00000060: 9d35 dcbc da89 e8bc 89a3 a33d 663d f2bc
00000070: 2652 0dbc 1756 303d 865f 06bd a4b7 2d97
00000080: fa36 203b dbb3 823d d3fc 46bc 277f 15bd
00000090: c313 6abc 5253 4b3d 713c 02bb 6827 373d
000000a0: 482f bc3c 06f6 c4bc d4ca 50bc 8f9b efbb
000000b0: 7535 4fbc b0ae bf3c ce14 08bd 6b73 603c
000000c0: 757c 01bd 2b36 2bbc 7531 8c3d 74f3 2d3d
000000d0: a5bc 683d 17a6 623c ef16 033d 2d1e b83c
000000e0: ece7 eebc e2c5 a5bb fef8 2dbc 0eca 4d3d
000000f0: e8a5 853d 7b77 053d ab56 c99d 79c5 293d
00000100: a9e8 d4bc 7d0b 463d 7135 973c b390 5e3d
00000110: 687f e5bc e949 3b3d 8c72 353d cc94 b13d
00000120: 3ea4 a03b aef0 a43c c9c5 233d bee4 bdbc
00000130: 4ee3 4f3d d7c1 383d 0d47 653d ad21 363d
00000140: 54d0 313d 9128 953c 0f48 ddbc 0957 0a3d
00000150: 3d74 0a3d d793 d03c 4f32 a03c e449 75bb
00000160: 8cb8 f0bc 08fa 0f3d c84b 373d 0101 4b3c
00000170: affc 913b 9dc2 013d 1437 19bc 534c 213c
00000180: 9bcb 2dbd 3be9 bb3d edcf 9d3d ccb8 30bd
00000190: b3da d73c 5eef 55bd 3a1c 1dbd 8cfc 28bd
000001a0: 7645 433c 7aaa f23c 94ac 093c 6ff4 b63d
000001b0: 25d1 29bc bc6c afbc d8d4 83bc 897f 213d
000001c0: f7bd 483d 26c1 993d 4b52 753c ceb9 ae3c
000001d0: 0443 5b3d ac11 cebc 4afa dd94 5b30 ecbc
000001e0: 2f31 be3c 66ed 1ebd c0ca 153c 323f 453d
000001f0: a75e 253d bfd4 a33d cfdb fbbc 2f6f a13d
00000200: d648 193d a94d ee3c b616 863d db01 55ba
00000210: 711f 11bb df18 9e3c d3be 48bc 1b99 12bd
00000220: 58aa 1abc b737 663d 0b20 2a3d 8791 3e3d
00000230: 9592 863d 13bd abbc b517 26bd f409 1d3d
00000240: b007 82bc 5a4e 3cbd a452 9bbc ba9f 06bd
00000250: 7f69 8ebc 9f88 373d cb05 0b3d 1ffb 3e3d
00000260: 0f62 373c fefb 0ebc 144b adbb 3233 b3bc
00000270: 220d 9dbb 3e1f 6d3c 4c9c f0bc a5eb 233a
00000280: ce8a 15bc 721b 7f3d 474d 8f3d 6d96 613d
00000290: 995a 34bd 8757 c43d 3980 603d 5364 c63d
000002a0: d147 983d 4037 153d bafd 623d 2a06 debc
000002b0: ac57 293d c8c0 2ebd 4bcb 2d3c df65 b43c
000002c0: f03e 213d 0e08 00bd 55a3 2e3d 6160 b9bc
000002d0: 37d9 6f3d 6cf3 843c 7abc 34bc 99d2 3f3d
000002e0: 5fbe 833d 8b84 2abd 70ee 57bd 817d 7b3d
000002f0: 1381 e03c e11d 6abc 9d09 dcbb d70d 9e3d
00000300: c0f2 bb3c 7be5 793c ba59 96bc d0e2 26bd
00000310: ed8d 20bd 64f2 e8bc b413 e73c b351 5c3d
00000320: 7805 193d f2ef 5d3d 4a6f 183d 23bc 3b3d
00000330: 3e9d c73d 02a5 873d b254 b9bc 4f5a 4c3d
00000340: 379d 35bc cc44 09bd 6e38 813c 1db2 e3bc
00000350: 3651 bcbc 8c3b e13c 61f2 d13c 2391 0a3c
00000360: 6764 41bc ebbc a8bc 3dee 073d 76a2 0b3d
00000370: 5500 b3bc 8391 7c3c 96e5 f93b c8c4 c63c
00000380: dd9f 4a3d da49 0fbd caa4 f3bc c01a 9c3c
00000390: 4ae8 b53d f6d7 2b3d d8a6 4c3d 4cf5 b4b9
000003a0: 8d98 543c 4e70 3b3d ec6f e33c c91b 19bd
000003b0: 3ef1 083d 28df b13d 7a84 103d 5293 9b3c
000003c0: 6886 153e 900a 993b 3edc 92bc 8c60 193d
000003d0: f49c 183d 2969 783c b1d0 c1bc c975 153d
000003e0: ac9a a63c 81cb 73bc 3620 c43c 8d40 a53d
000003f0: 1590 71bb bbf9 45bc a8a0 b5bc afde bd3c
-0.04266198 -0.0036680263 0.00088349736 -0.0134482635 0.02446635 0.0070866095 0.04398818 0.03005683
0.016075457 0.03147214 0.097362824 -0.0064819492 0.028676579 0.04626445 -0.0040507126 0.0056660916
-0.03246809 -0.011023123 0.012752912 0.02125679 0.06804377 0.073343456 0.09214852 0.044669453
-0.026881034 -0.028386045 0.07990176 -0.029570293 -0.008625543 0.04305085 -0.032805942 -5.61311e-25
0.002444683 0.06381961 -0.012145239 -0.036498215 -0.014286938 0.049640007 -0.0019872452 0.044715315
0.022971764 -0.024043094 -0.0127436705 -0.007312245 -0.0126470225 0.023398727 -0.033222966 0.013699393
-0.031612832 -0.010449926 0.06845371 0.042468503 0.05682053 0.013833544 0.032004293 0.022475326
-0.029163323 -0.00505899 -0.010618446 0.050241522 0.06525785 0.03258465 -5.329387e-21 0.04144809
-0.025989847 0.0483508 0.0184581 0.054337215 -0.028014854 0.045724783 0.044298694 0.08670959
0.0049023917 0.020134296 0.039983544 -0.023180362 0.050753884 0.045106735 0.055975962 0.04446571
0.043411568 0.01820782 -0.0270119 0.03377441 0.03380226 0.02546112 0.019555239 -0.0037428075
-0.029384874 0.035150558 0.044750005 0.012390376 0.004455171 0.03167974 -0.009351511 0.009844857
-0.0424305 0.091753446 0.07705674 -0.043144986 0.026349401 -0.05223023 -0.038356997 -0.041256472
0.011918416 0.029622305 0.008402962 0.08933341 -0.010364805 -0.021414153 -0.016092703 0.039428268
0.04900929 0.07507543 0.014973233 0.021328833 0.053530708 -0.025154911 -2.2414019e-26 -0.028831651
0.023216812 -0.03880062 0.009142578 0.04815597 0.04037347 0.079995625 -0.030744461 0.07882535
0.037422977 0.029089766 0.065473005 -0.00081255817 -0.0022143985 0.019298969 -0.012252527 -0.035790544
-0.009440027 0.056205478 0.041534465 0.046525504 0.06570927 -0.020964181 -0.040549953 0.03833957
-0.015872806 -0.04597316 -0.018960305 -0.03286717 -0.017384289 0.044808026 0.03394107 0.046626206
0.011192813 -0.008727072 -0.005288491 -0.021874998 -0.0047928253 0.014472781 -0.029371403 0.00062530703
-0.009127332 0.062282033 0.06997161 0.055075098 -0.044031713 0.09587007 0.054809783 0.09687104
0.07435573 0.036429644 0.055417754 -0.027102549 0.041343376 -0.04266432 0.010607551 0.022021232
0.039366663 -0.03125768 0.042636234 -0.022628965 0.05855676 0.016229354 -0.011031264 0.0468317
0.06432795 -0.04163031 -0.052717626 0.061398987 0.027405297 -0.01428935 -0.006715013 0.077174835
0.0229429 0.015252466 -0.018353332 -0.04074365 -0.03919785 -0.028435893 0.028207637 0.053788852
0.03735873 0.054183908 0.03721551 0.045833718 0.097467884 0.066232696 -0.022623394 0.049890812
-0.011084846 -0.033512875 0.015773978 -0.027794892 -0.022987943 0.027494214 0.02562827 0.008457455
-0.011803723 -0.020597896 0.033186186 0.03409048 -0.021850744 0.015415552 0.0076262457 0.024263754
0.049468864 -0.03498254 -0.029741663 0.019055724 0.08882196 0.041954003 0.049963802 -0.00034515036
0.012975824 0.0457614 0.02776333 -0.037380014 0.03343319 0.08685142 0.03528259 0.018991146
0.14602053 0.0046704486 -0.017927285 0.03744559 0.037259057 0.015161791 -0.023659082 0.03648928
0.020337425 -0.014880062 0.02394114 0.08068953 -0.0036859561 -0.012083466 -0.022171333 0.023177473

energy_lin.3.weight f4 [150, 300]
00000000: 8e3d 3e3d cd43 7bbd a5be 963a eee9 73bd
00000010: 4495 9cbe 1d11 31bd eb89 99bd 5691 be3c
00000020: 4581 f5bc 8b10 8cbd f6cd 0dbe 0406 463d
00000030: ee4b 02be 7509 fcbc 790b 98bd 7009 a73d
00000040: 1075 3ebd 3994 0f3e 069b c6b9 01a9 023e
00000050: ba38 a33d 131a 25be bf73 64bd 8737 cd3d
00000060: 9934 89bd fba0 b4bd 8418 263c 2342 54bd
00000070: 343d 9c3d aa4e ab3c ac86 5d3d acb7 2620
00000080: 9dcb 823e 2b20 823d 8531 e43d 737b adbd
00000090: e5fa 143d b96b c63d f6ba 0b3b b6f0 f6bd
000000a0: 65d1 b13c 1fa1 6e3c 7923 8a3d 54b5 e23d
000000b0: 6080 353d 05d5 9d3d 98de 8ebd 2892 9f3d
000000c0: 68b4 2e3e fddb 0dbe 564d d8bc e732 15bd
000000d0: aee8 77bb 1586 a4bd 117b 86bd 91a7 60bd
000000e0: 15a0 ca3d 2eef aabd 03a9 cfbd e48a 9bbd
000000f0: bff6 e43d 064b e83d 32d2 a91b 6145 1ebe
00000100: 6d9f 35bd 7d27 debd 7cfa 27bd e5de 043e
00000110: 7593 8f3c ded0 283c b5c1 99bd a9ab 1d3e
00000120: 1be4 fc3c ad1b a93e 7f0c ef3d 74ad 923d
00000130: 85d6 2a3e 209e 2abd bd3d c13d d286 1f3d
00000140: 222d 3dbd 9e52 fc3d fbb4 893d 8dd1 943d
00000150: 9a31 b0bd 058e 353c 530e efbd d631 1cbb
00000160: a59e e53d 38d0 9cbd 171a 973d 36d0 14bd
00000170: e307 5d3d f139 70bd 292c d53c 5449 10bd
00000180: e090 143d 5cc3 403d a554 463d 4d1d ea3d
00000190: 281f 77bc 954f 12bd 468d 38bc 975d 38bd
000001a0: d266 2b3d 577f 42bd d85f ddbd 9265 b63d
000001b0: dd9a 15bd 2bb9 c9be 2955 eb3d 657b a4bd
000001c0: d7d5 c13c 9b51 d83d 00b1 eebd af1a 6c3e
000001d0: 5058 f13d 98ca 943d 7fed a01b 0520 8a3d
000001e0: 092c 5e3c f386 df3d 5ae1 173d bdaa 273d
000001f0: 488d a13d fb98 9ebd 3fe7 82bd cfbc 433e
00000200: 606f bd3d 8bb2 e23e e730 2abd 754d 0abe
00000210: 0c9b 4f3d 0bcb f63c 616a f0bd 1f81 c03d
00000220: d279 5cbd 4c25 2d3e cc6d e3bd 42e4 413c
00000230: 0e5b 043d 0414 ea3c 6348 57bd aa02 c63d
00000240: 0dd1 953c ad49 91bc 94e2 9ebc 6deb 4e3d
00000250: 5753 8e3d dd23 9fbd c6d0 c2bd 1976 fdbd
00000260: 12cb 30be a697 0c3e b3e9 713d f1ef 923c
00000270: 8604 98bb 8822 b83d 8921 29bc 988f 2a3c
00000280: 6a02 e93a 8bfc 06be b9ec 353d 72ca fe3d
00000290: f8b0 a73c 29a2 563d f3c5 70bb c346 083e
000002a0: 7301 2f3d 26a8 133e f453 233b 4c21 073d
000002b0: 019c 93bb ec51 70bd ca69 063e e005 8139
000002c0: fafd 0f3e 4044 f63d fc50 e2bc e25e 1abe
000002d0: b4ea 433d e871 86bc 1617 823d 6a26 b5bc
000002e0: fa64 ec3d 0e8f 0e3e 703f 073e f03e abbe
000002f0: 2a93 b63d d499 a23d 9a9a 85bb 1f68 adbe
00000300: 17f9 573d 11d9 853e ccf3 14bd 4040 9bbd
00000310: c8ce fa3d f9f9 b23d 9acf 333e 82d2 04be
00000320: 3363 723c 42c7 f6bd 16ad 8abd c9c3 09be
00000330: 3b2a 3ebe 9c35 c03e 9010 55bd 4875 cebd
00000340: ab41 aabd 5899 c8ba e0f7 75bd d14b c13d
00000350: 7e4b 60be 60dc 483e e80b 26bd cfdb 9b3c
00000360: e904 e8bd 3708 f8bb 357f 6c3e 650f 893d
00000370: a7fc a73d dc95 94bc 2f10 e13d 30b0 283e
00000380: 7b11 ed3d 224d 033e 56c0 c33d 7b85 13be
00000390: e20d e93d 96f6 20bd 2701 003d 1487 c2bc
000003a0: 5d21 cebd 2090 e8bb ece2 41bd 93ad db3d
000003b0: 1db5 923d ee90 953d 91fd 263d d2d7 053e
000003c0: 9934 a2be ceeb c43d 68fb f2bd 7ef2 80bd
000003d0: 29ab 0d3c 34b5 46bd f2bb 6ebc 30b8 bfbd
000003e0: 23bf cbbd 0d9e 1bbe 1830 e23d 340d 4e3d
000003f0: 0583 fbbc 5975 9ebd ddb6 c8bd 8805 26bc
0.046445422 -0.061343957 0.0011500908 -0.059549265 -0.3058263 -0.04322921 -0.07497009 0.023262661
-0.029968867 -0.06839093 -0.13848099 0.04834558 -0.12724277 -0.030766228 -0.07424063 0.08156097
-0.04649836 0.14021386 -0.00037881004 0.12759782 0.07969804 -0.16123228 -0.055774447 0.100203566
-0.06699485 -0.08819767 0.010137681 -0.051820885 0.07628861 0.020911533 0.05408351 1.4121519e-19
0.2554597 0.06353792 0.111422576 -0.08470812 0.036372084 0.09688515 0.0021321154 -0.12057631
0.021706292 0.014564781 0.06745047 0.11069742 0.04431188 0.07706646 -0.0697605 0.07791549
0.17061007 -0.1385345 -0.026404064 -0.036425497 -0.0037827897 -0.080333866 -0.06566442 -0.054847304
0.098938145 -0.08346401 -0.10139658 -0.07594851 0.111798756 0.113424346 2.809454e-22 -0.15456153
-0.044341493 -0.108473755 -0.041010365 0.12975653 0.017526368 0.010303704 -0.0750765 0.15397514
0.030870488 0.33028927 0.11672305 0.0716199 0.16683395 -0.041654706 0.09435604 0.038946934
-0.04618562 0.123204455 0.067239724 0.07266531 -0.08603211 0.011081223 -0.11672654 -0.0023833415
0.112119 -0.07656902 0.07378023 -0.036331378 0.0539626 -0.058649007 0.026022034 -0.03522618
0.036270976 0.04706131 0.048420567 0.1143137 -0.015083112 -0.035720427 -0.011264151 -0.04501113
0.041846104 -0.047484722 -0.10809296 0.08906092 -0.036524642 -0.39399084 0.114908524 -0.08031348
0.023661537 0.1056244 -0.11654854 0.23057054 0.117844224 0.07265204 2.6623258e-22 0.067443885
0.0135603035 0.109144114 0.037080146 0.040934313 0.078882754 -0.077440225 -0.06391763 0.19114994
0.09249759 0.44276842 -0.041550543 -0.1350611 0.050684974 0.030126115 -0.1173904 0.09399628
-0.053827114 0.16908759 -0.111049265 0.011834206 0.0323134 0.028573997 -0.052559268 0.09668477
0.01828816 -0.017735327 -0.01939515 0.05051749 0.069494896 -0.07770512 -0.095124766 -0.12376041
-0.17264965 0.13729724 0.059060764 0.017936679 -0.004639211 0.08990961 -0.010322937 0.010410212
0.0017777209 -0.13182275 0.04441521 0.12440957 0.020470127 0.05240074 -0.003673908 0.13308243
0.04272599 0.14419612 0.0024921866 0.03299074 -0.004504681 -0.058671877 0.13126293 0.00024609175
0.14061728 0.120247364 -0.027626507 -0.15075257 0.047831252 -0.016411737 0.063520595 -0.022113044
0.11542697 0.13921759 0.13207793 -0.33446455 0.08914788 0.07939497 -0.004077268 -0.338685
0.052727785 0.2614217 -0.036365315 -0.07580614 0.12246472 0.08739085 0.17559662 -0.12970927
0.014794159 -0.12049724 -0.06771295 -0.13453592 -0.18570797 0.375409 -0.05201775 -0.100809634
-0.083133064 -0.0015304489 -0.060050845 0.09438289 -0.21903798 0.19615316 -0.0405387 0.019025711
-0.113290615 -0.0075693387 0.230954 0.066923894 0.082024865 -0.018137865 0.10989415 0.1647346
0.115756 0.12822393 0.095581695 -0.14406388 0.11379601 -0.039297663 0.0312511 -0.02374605
-0.10064957 -0.007097259 -0.04733555 0.10726466 0.07163451 0.07303034 0.040769164 0.1307061
-0.31680754 0.09615289 -0.11864358 -0.06296252 0.008646765 -0.048512653 -0.014571177 -0.09361303
-0.09948566 -0.1519701 0.110443294 0.05030556 -0.030702123 -0.07737226 -0.098005034 -0.010133155

energy_lin.3.bias f4 [150]
00000000: 4002 5f3d e902 9abb b07c bbb9 a14b 01bd
00000010: 11cf 743d 2774 21bd 5da0 1a3d 25bd 063d
00000020: 1b9a c0bb 7fd5 8a3d 07a8 eabc fc38 2dbc
00000030: 496a a3bc 5fdc d03c e7a2 a23b 3e1c 0f3d
00000040: c52b 493d 8ed9 ab3d 11d0 c93c 9bf6 203d
00000050: 7b4a 9f3c 6cb1 a43c d36d 453d 786a b83c
00000060: 1053 10bd ad5b 103d 3822 543d cc28 5abc
00000070: 6775 9b3d 25de f93c 6ea4 c63c cd2f 073d
00000080: 5103 3b3c c67f 19bc 68bc 573d 758a 74bb
00000090: 6238 b93b 2ca4 e4bc 6b57 cd3c 981c 85bc
000000a0: 2f1c dd3c 247d febc fa3b 493c 413d e33c
000000b0: 41a4 8a3d 63ca 8dbc 7dae 3c3c 1ad9 5d3d
000000c0: cf46 8abc 2507 533b 5eeb 313d 7619 663c
000000d0: cd30 0a3b 56cd 373d 048c 783b c5a4 e93b
000000e0: c19b ebbc bc3e 8c3d 712a 9dbb f63d 883d
000000f0: 55ef 1b3c 2343 a43c 5e9d 273c 4552 433d
00000100: f7ea c3bc 794d 2c3d 217a 453d a821 533d
00000110: 014d 6f3d 2f92 45bc 885e bfba 95f6 a13c
00000120: 2293 51bd 1da5 7bbc 182b 0a3d c887 00bc
00000130: 5e48 173d 6c2c 4e3d a58c 833d 973b 1e38
00000140: c0b5 0fb2 98ed cdbc a190 7cbc fb7a 5d3d
00000150: b8af 1b3c a60c 743d afb6 fd3b 333c 56bc
00000160: 90a2 1f3d 2188 9aac b5e6 063d 8800 e0bb
00000170: c025 463d e2ce 43bd 3b40 5d3d f018 0bbd
00000180: 803c 833c 9ba2 b7bc d841 6bbd e5c4 22bd
00000190: 039f 61bd 89d3 8cbb cfe6 323d 87f1 c33c
000001a0: 4615 203d 82ed 2e3d 0c96 27bd 9d7b 1c3c
000001b0: 99ee dc3a c6da 723d 41dc d7bc 82f3 093d
000001c0: 087e 49bc 17d1 a3bc f98c 81bc 4358 abbc
000001d0: acab 783d 9ae1 09bd 55a0 7bbb 63f2 923c
000001e0: 3d38 91bc 4e41 1c3d 5b13 633d 7ebd 63bd
000001f0: c934 c2bc 9985 073d 6af0 86bc 3dc4 483c
00000200: c2b2 6b3d 8cbf 9a3c 61a4 cb3c 1c85 32bd
00000210: 1f47 fab4 e4cf bebc f814 323c d9f8 823d
00000220: 1d0c 9dbc b93f 5b3d c61b 793d ef5f 1987
00000230: 4961 afbc 7deb 27bd 7429 0c3d abb9 7c3d
00000240: 7c38 973d 18dc 90ba 8622 743c 8cc8 b8a5
00000250: 6d6e 723d 13e0 b23d
0.054445505 -0.004700054 -0.0003576032 -0.031566266 0.059767786 -0.039417412 0.03775059 0.032895226
-0.005877746 0.067790024 -0.028644575 -0.010572668 -0.019948142 0.025495706 0.004963267 0.034939043
0.049114008 0.08391105 0.024635347 0.03929768 0.019444695 0.020104133 0.04820044 0.022511706
-0.035235465 0.03524368 0.051790446 -0.013315391 0.07590752 0.030501435 0.024248328 0.03300457
0.011414365 -0.0093688425 0.052669913 -0.0037313972 0.0056524733 -0.027910315 0.025066098 -0.016248986
0.026990978 -0.031065531 0.012282366 0.02773917 0.0676961 -0.01730842 0.011516211 0.054162122
-0.016879467 0.0032200303 0.043437354 0.014044156 0.0021086216 0.044873558 0.0037925253 0.0071302378
-0.028760793 0.06847903 -0.004796319 0.06652443 0.00951751 0.020051545 0.01023039 0.04768588
-0.02391575 0.04206607 0.048212174 0.05154577 0.058423046 -0.012058779 -0.0014600316 0.0197709
-0.051165707 -0.01535919 0.033732504 -0.007844873 0.03693425 0.050335333 0.0642331 3.7725633e-05
-8.365021e-09 -0.025137708 -0.015415342 0.05407236 0.009502344 0.059582375 0.007742725 -0.013075876
0.03897339 -4.3920566e-12 0.032934863 -0.006836001 0.048375845 -0.04780472 0.054016333 -0.03395933
0.01602006 -0.022416404 -0.05743584 -0.039738555 -0.055083286 -0.004297678 0.043677147 0.02391888
0.039082788 0.042706974 -0.04091458 0.009550956 0.0016855776 0.05929067 -0.026350142 0.033679493
-0.012298115 -0.019997163 -0.015814291 -0.02091611 0.060710594 -0.033662416 -0.0038395126 0.017937845
-0.017727012 0.038148217 0.05543838 -0.055600636 -0.02370681 0.033086393 -0.01647206 0.012253818
0.057543524 0.018890165 0.024858655 -0.043583974 -4.6617876e-07 -0.02329249 0.010869257 0.0639512
-0.019170815 0.053527568 0.060817502 -1.1538633e-34 -0.021408694 -0.040996064 0.03421922 0.061700504
0.073838204 -0.0011051921 0.014900809 -3.2054808e-16 0.05918734 0.08734145
