models/mpnn_A139_B23_E300_L2/51.pt (torch, 742651 bytes, 9 tensors)

atom_lin.weight f4 [300, 139]
000000 2e 17 b9 bd 10 f0 89 bd 45 23 e5 1f aa 29 8d a6
       -0.09037624 -0.067352414 9.704362e-20 -9.795133e-16
000010 a1 8a 35 00 bf b4 d5 a4 5c 1a 42 3e 3c 2d 0f 3e
       4.917012e-39 -9.268022e-17 0.18955368 0.139821
000020 8b 69 40 3c 20 ed 8f bb b5 d7 ee 25 7c 78 35 80
       0.011743913 -0.004392281 4.1432587e-16 -4.910503e-39
000030 06 d1 53 3d 72 87 f7 a8 52 2b 94 18 e7 5a 6f bd
       0.051713012 -2.7481249e-14 3.8300846e-24 -0.0584363
000040 a3 a3 28 be e9 d4 06 3e 9b 73 35 80 5e ae 35 a3
       -0.16468672 0.13167156 -4.908753e-39 -9.848953e-18
000050 42 79 2a a7 64 5f f4 1f 64 6f 2a aa 69 a7 25 a1
       -2.3657973e-15 1.0349583e-19 -1.513768e-13 -5.612574e-19
000060 e3 3e 90 87 f4 fa 49 87 b4 53 09 3d 3a 16 86 3e
       -2.1703673e-34 -1.5195308e-34 0.03352709 0.26188833
000070 11 5e 46 86 02 cd 4e 22 fb a8 6b 9c 59 48 9f a9
       -3.730877e-35 2.8026736e-18 -7.797338e-22 -7.073569e-14
000080 1e 8f cc 21 38 33 b2 17 30 41 4f 10 c8 07 37 3c
       1.386146e-18 1.151591e-24 4.087377e-29 0.011171289
000090 eb bd a9 28 92 6d 76 92 58 9d c8 a8 57 14 13 9c
       1.8845133e-14 -7.775897e-28 -2.2272697e-14 -4.866451e-22
0000a0 5d 4a 5d 14 b0 57 d0 1c 3d 5c 50 09 11 b3 ed 13
       1.1172314e-26 1.3786952e-21 2.508046e-33 6.0003784e-27
0000b0 85 82 dc a9 3e d8 44 1e 6f 59 82 8e cf ee 95 1b
       -9.792604e-14 1.04208714e-20 -3.2133596e-30 2.4804309e-22
0000c0 57 67 2e 9f 9b 5d 71 29 ec 66 a6 11 b9 59 85 86
       -3.6931414e-20 5.359394e-14 2.6253613e-28 -5.0160875e-35
0000d0 60 b3 ac 1a af 31 35 be d4 f3 53 a0 73 97 e4 a1
       7.142733e-23 -0.17694734 -1.7953071e-19 -1.5489969e-18
0000e0 67 ac 99 07 43 98 1a a2 5c 77 f9 25 58 26 f1 1c
       2.312221e-34 -2.0951499e-18 4.3275496e-16 1.5957954e-21
0000f0 27 ad c2 92 9d e9 48 29 b0 5f 3c 1a 37 fa a0 84
       -1.2285807e-27 4.4611548e-14 3.8954785e-23 -3.7845605e-36
000100 1a a8 8e 29 ee 9b e2 16 05 a6 f5 92 8e 53 8d a9
       6.335228e-14 3.6610675e-25 -1.5502601e-27 -6.276152e-14
000110 73 9c de 16 c9 f2 34 80 9c 73 35 00 c1 95 4b 1e
       3.5964768e-25 -4.862541e-39 4.908754e-39 1.0777699e-20
000120 28 08 39 27 8e a2 ab 8b d2 80 35 80 3e 11 16 81
       2.567833e-15 -6.611139e-32 -4.913493e-39 -2.756302e-38
000130 78 d2 5d 1f 65 d1 a7 8e 4e ce 73 24 dc fd 52 80
       4.6972666e-20 -4.1370318e-30 5.2866972e-17 -7.621578e-39
000140 62 00 4e a2 be 1a fb 82 aa 88 35 00 d7 f0 62 28
       -2.7918409e-18 -3.6896485e-37 4.916307e-39 1.2597744e-14
000150 13 8b dd 29 49 9a 0a 2a d3 44 97 25 0c 4f 86 a8
       9.838497e-14 1.231039e-13 2.6240962e-16 -1.491127e-14
000160 46 20 ef a2 e4 d3 35 a1 e1 d5 08 99 1c 8d 92 1e
       -6.481525e-18 -6.160562e-19 -7.074228e-24 1.5516713e-20
000170 41 a2 9c a3 25 56 c7 95 74 92 7f 9e b4 23 88 a8
       -1.6982271e-17 -8.051137e-26 -1.3529873e-20 -1.5114517e-14
000180 c1 76 1f 1f cd 49 a6 a8 cf 71 35 80 02 bf cf 9c
       3.376779e-20 -1.8461708e-14 -4.908108e-39 -1.3747485e-21
000190 72 4e e1 86 10 a7 a6 8e d4 cb a7 21 85 49 8d 94
       -8.475086e-35 -4.1083035e-30 1.1370313e-18 -1.426636e-26
0001a0 24 49 e2 1d c4 57 e0 1e 2e c9 95 17 6a f1 e6 29
       5.9897328e-21 2.3753222e-20 9.679684e-25 1.02559305e-13
0001b0 77 17 07 29 d4 52 73 97 be 73 df 9f 6c 5c 21 0b
       2.9996374e-14 -7.862208e-25 -9.463565e-20 3.1077003e-32
0001c0 66 2f f0 83 15 e4 19 18 db 7c a9 1d ef 3b 6a 0e
       -1.4116814e-36 1.9889939e-24 4.4863025e-21 2.8871584e-30
0001d0 24 79 35 80 8c 93 22 0a 88 63 06 80 be 5f ed bd
       -4.910738e-39 7.827767e-33 -5.86718e-40 -0.11590527
0001e0 53 4f 97 3e cd d6 77 3e 66 bd 54 3e 1d a8 bc bd
       0.29552707 0.24203034 0.20775375 -0.092117526
0001f0 29 6a 35 00 64 41 ab bd 69 32 3a a8 fa cc 2a 96
       4.905364e-39 -0.08362082 -1.0336005e-14 -1.379717e-25
000200 b6 fd cb 3d c7 d3 25 be e7 c7 12 be 7a 5a 46 bd
       0.09960501 -0.16194068 -0.14334069 -0.04842613
000210 95 20 8d 3e 69 05 74 3d 68 34 d1 28 36 bd 2e 9f
       0.2756392 0.059575472 2.3226389e-14 -3.7002445e-20
000220 7d 1c 03 a2 11 b7 f5 21 f7 76 49 3e 5f 6b 58 bc
       -1.7768892e-18 1.6650303e-18 0.19674288 -0.013209193
000230 90 fb ac bd 8f 3f ae 8b b2 56 8a 17 64 67 80 1c
       -0.08446419 -6.7117994e-32 8.939926e-25 8.497055e-22
000240 6a 37 c4 25 8b b1 53 bd af 81 20 3e 67 34 e8 bc
       3.403813e-16 -0.05168299 0.1567447 -0.0283453
000250 4c c9 2d be 90 6c 5b 90 66 e2 1f 00 b6 5d e2 3d
       -0.1697132 -4.3273768e-29 2.928117e-39 0.1105303
000260 d5 55 12 11 1e 7e 35 80 d5 b2 b8 bd b3 24 45 be
       1.1543818e-28 -4.912524e-39 -0.090184845 -0.19252281
000270 bc b6 e1 3d 55 5d f6 17 a9 70 c0 84 85 6e 41 1b
       0.11021182 1.5920938e-24 -4.5242445e-36 1.6000297e-22
000280 d0 c0 f4 a3 a8 f2 13 03 61 75 b9 25 2e 19 28 2a
       -2.6536192e-17 4.3477973e-37 3.2171923e-16 1.4930133e-13
000290 b6 a1 77 3d 0e 96 1f 3d 60 ca 45 3d 49 bc 0a 24
       0.060456954 0.038961463 0.048288703 3.0083464e-17
0002a0 df 5a b4 a3 c0 0b 45 0a 35 2d 07 97 9e 84 c5 12
       -1.9554125e-17 9.487415e-33 -4.367791e-25 1.2465141e-27
0002b0 80 72 35 80 61 ad c1 29 97 02 2d 3e c3 13 04 1b
       -4.908356e-39 8.600998e-14 0.16895519 1.092517e-22
0002c0 29 b0 1f 26 10 f3 20 12 60 95 be 28 42 18 98 a7
       5.540295e-16 5.0786696e-28 2.1159019e-14 -4.2214775e-15
0002d0 8b e7 65 82 af ca 8a 0b 9f f2 aa 1f b0 e8 45 13
       -1.6890712e-37 5.346063e-32 7.2399183e-20 2.497962e-27
0002e0 69 5f 61 a5 df 79 d2 15 75 14 40 9a a4 2d c6 99
       -1.9547965e-16 8.5010603e-26 -3.9721194e-23 -2.0491154e-23
0002f0 d6 b2 00 a6 58 76 35 80 31 67 9d 16 e6 58 85 a1
       -4.465129e-16 -4.909735e-39 2.542984e-25 -9.035962e-19
000300 01 d4 3d 3c cc e2 b4 11 e9 cb 4a a1 6c 0c 0d 27
       0.01158619 2.8538767e-28 -6.8710135e-19 1.9574415e-15
000310 db 0e 7e 20 be 3e 03 23 13 2c 1f 83 03 6b 35 00
       2.1519552e-19 7.11481e-18 -4.6776495e-37 4.90567e-39
000320 6e 71 35 80 e2 a4 a2 a6 41 a1 19 28 16 fa b5 94
       -4.907972e-39 -1.12857e-15 8.5281725e-15 -1.8374971e-26
000330 4e 4b eb 9a 77 90 33 0e 33 f7 3c a5 91 70 35 00
       -9.7315383e-23 2.213301e-30 -1.6390155e-16 4.907663e-39
000340 3d 4b 1f 22 d0 bd c3 a4 e0 f7 df a9 dc 6d 35 00
       2.158835e-18 -8.4889324e-17 -9.946189e-14 4.906691e-39
000350 35 43 3b 28 c0 7a 28 95 68 a3 85 a2 58 e4 ed 9f
       1.03951585e-14 -3.4024162e-26 -3.6222735e-18 -1.0075117e-19
000360 27 6d c5 a3 81 1d 8b 93 e2 41 6c 25 17 8f 90 9f
       -2.140501e-17 -3.5117626e-27 2.0492059e-16 -6.1223094e-20
000370 4d f7 2b 9c d4 1d a9 00 92 b9 22 0f a5 49 85 8c
       -5.6898783e-22 1.5530899e-38 8.022956e-30 -2.0536218e-31
000380 00 bc 93 1c e4 09 1b a2 ed e3 cb a6 aa 00 18 a3
       9.776241e-22 -2.1011653e-18 -1.4147734e-15 -8.240077e-18
000390 b4 ad a6 a1 85 7e f8 9b e8 72 cf a8 80 38 0e 0f
       -1.1294576e-18 -4.110992e-22 -2.303145e-14 7.012022e-30
0003a0 40 d0 d3 0e 19 c5 3f 2a b6 84 12 84 12 6c 2a a8
       5.2216053e-30 1.703259e-13 -1.7223155e-36 -9.46033e-15
0003b0 50 42 43 a3 e5 37 cd a7 54 33 9b a4 52 8d 35 00
       -1.0585013e-17 -5.695953e-15 -6.730749e-17 4.917977e-39
0003c0 52 d2 d1 0c 49 03 ec 88 b0 c4 31 86 5f fd c7 00
       3.232813e-31 -1.4204506e-33 -3.3434503e-35 1.8366156e-38
0003d0 58 d1 64 a6 f1 c1 cc 26 0a db 70 1f 49 07 87 8c
       -7.9387104e-16 1.4207911e-15 5.1003162e-20 -2.0804428e-31
0003e0 0d 82 35 00 71 ab 8e a1 64 bb 54 27 9f ac 0d 20
       4.913935e-39 -9.667674e-19 2.9522495e-15 1.200028e-19
0003f0 7e fb 44 aa 54 56 12 14 5a 09 9e a7 5c 70 35 00
       -1.7495551e-13 7.3881415e-27 -4.386395e-15 4.907588e-39

atom_lin.bias f4 [300]
000000 cd fe c6 3d 56 7f b7 3d 3f b4 f7 3c e2 e6 59 3d
       0.09716568 0.08959834 0.030237315 0.053198703
000010 a2 bf 8b 3d 5f 98 41 bb d2 0d 79 3d b1 c4 d4 bc
       0.068236604 -0.0029540283 0.060804196 -0.025972696
000020 2e 4e ce 3d 40 88 85 3d e2 66 45 bd 49 fa ef 3c
       0.10073505 0.06520128 -0.04819382 0.02929415
000030 75 02 6d bd a3 2e 59 ba 17 4e 9f bb 07 8e ba 3d
       -0.05786367 -0.00082848425 -0.004861604 0.09109121
000040 c0 a9 b8 bb a8 61 0e 3e 3d 72 d7 3d e5 68 84 3c
       -0.00563547 0.1390444 0.10519836 0.016163299
000050 d4 ac 16 3d a0 7c 96 3d bd 10 b7 3d ca 51 40 bc
       0.036785915 0.07347989 0.089387394 -0.01173825
000060 3e 74 c3 3d ea 87 17 3c 03 a9 f2 3c 73 fe 9a 3d
       0.09543656 0.009248713 0.029621607 0.075680636
000070 ce bc b2 bd d8 69 9b 3d 1b 78 ff bb fd 7a 75 3d
       -0.08727418 0.075885475 -0.0077963 0.059931744
000080 4c e2 4a bd 78 08 92 3d b0 2d cd 3d c2 8a 0e 3b
       -0.04953222 0.071305215 0.1001848 0.0021750187
000090 37 37 cf 3d 28 74 9c bd 77 b6 86 3c 8a 51 e5 3d
       0.10117953 -0.076393425 0.016444428 0.11197193
0000a0 82 59 10 3e 00 89 bd 3d 96 70 9b 3d d7 01 0f 3a
       0.14096645 0.09254646 0.075898334 0.0005455291
0000b0 95 0d c0 bd 48 4b 9a 3d e1 96 3c bb 96 28 8b bd
       -0.093775906 0.0753389 -0.0028776454 -0.067948505
0000c0 fa 5f 71 bc e1 5d 4d 3d e5 f6 2d 3d 6f 2e a9 3d
       -0.014732355 0.050138358 0.042471785 0.0826081
0000d0 27 8e e2 bc 9a e8 32 3d 7f 97 20 bd 07 83 4b bd
       -0.027655674 0.043678857 -0.039206978 -0.049685504
0000e0 79 00 f8 bb 11 50 a5 bc 9f 68 22 3d f7 35 52 3d
       -0.0075684157 -0.02017978 0.039650556 0.051320996
0000f0 fa f6 bf bb 86 0a e1 3c 35 26 0b 3d 13 bc 2a 3d
       -0.0058582993 0.027470838 0.033971984 0.041683268
000100 5a 83 92 3d 85 17 c0 bd 66 57 8d 3d 5d 94 c5 3b
       0.071539596 -0.09379486 0.069014356 0.006029649
000110 18 68 67 bc d2 b5 c8 bb 89 4e 8e 3d 91 8c 3e bc
       -0.014123939 -0.0061251903 0.06948573 -0.011630193
000120 85 9d 33 bd ff 0d c1 3d cb de a0 bc 30 40 80 3d
       -0.043851394 0.09426498 -0.019637486 0.06262243
000130 c8 e3 3e 3c 41 bd d1 bd ba 6f 4e bc c8 41 38 3c
       0.011650987 -0.102411754 -0.01259988 0.011246152
000140 76 93 50 bc 41 d6 23 3d f2 bb 11 3d d4 a3 f6 3b
       -0.01273047 0.03999925 0.03557963 0.007526854
000150 22 05 fc 3c b5 7a e0 3c 45 0a e4 3d 4d f9 d0 3d
       0.030764166 0.027402261 0.11134771 0.102038
000160 33 4c 3d bd 5f f3 75 bc 71 d2 19 3e 33 8c d0 3d
       -0.046215247 -0.0150116375 0.15021683 0.10182991
000170 e2 94 9a bc 07 9f 3d bd 24 f0 17 3b 2f b8 4f bb
       -0.018869821 -0.04629424 0.0023183906 -0.0031695475
000180 c4 30 e3 bc 64 b7 cc bd f0 98 68 3d 03 33 a4 bc
       -0.027733214 -0.099959165 0.056786478 -0.020043856
000190 0a ed 17 bd 1b 20 18 3b 87 5d f6 bc fb 8e 8c bc
       -0.037091292 0.0023212496 -0.030073894 -0.017158022
0001a0 9b c0 ae 3d f1 bd 07 bc a2 e1 de 3d 3b d8 44 3d
       0.0853283 -0.008285032 0.1088288 0.048057776
0001b0 a5 1e 0a 3e 49 f3 1b bd 2e ba c6 bc 45 94 e4 bc
       0.13488252 -0.03807381 -0.0242587 -0.027902732
0001c0 7a b7 d8 3b a6 f2 60 3d 63 47 a7 ba 7c 2d 6a bd
       0.006613669 0.054918908 -0.0012762364 -0.057172284
0001d0 c1 32 99 3d 9a 5e 47 3b d7 ce 48 3d 80 45 c4 bc
       0.07480384 0.0030421377 0.049025383 -0.023958921
0001e0 03 55 6b 3c 99 29 60 3d 0a 93 f3 bd ef ec e2 3d
       0.01436353 0.05472717 -0.1189328 0.11080348
0001f0 2e 3f 07 3e 41 6e 6e 3c d8 f2 9c 3c 9a 6a 90 3d
       0.13207695 0.014552654 0.019158766 0.07051583
000200 66 3c 6a 3c 3a 48 78 3d 8c 97 29 bb 6f b1 9e bc
       0.014296627 0.060615756 -0.0025877682 -0.019371716
000210 ff 75 87 3d 10 99 a3 3c cc 30 e8 bc 34 0f 12 3e
       0.06614303 0.019970447 -0.02834358 0.14263612
000220 dc 23 a1 3a 7b bd bb bb e2 1f 21 3d d8 b3 a4 3d
       0.0012294012 -0.005729375 0.039337046 0.08042115
000230 b9 f6 9b 3d 36 66 74 bc f0 19 74 bd 98 ec 84 3d
       0.07615418 -0.014916947 -0.05959505 0.06490439
000240 a7 37 e3 3d b4 2c c5 3d c6 7e a2 bc 30 8d 15 3d
       0.11094599 0.09627667 -0.01983584 0.0365116
000250 f7 ac 51 3d d9 4d 23 3d 86 d4 92 3d bf 46 8c bc
       0.051190343 0.039869163 0.07169442 -0.017123578
000260 29 15 00 3d 93 8f b7 3d ce 73 e9 3d f0 79 2e bb
       0.03127018 0.089629315 0.11399041 -0.0026622973
000270 41 6d fc 3d 2d 2d 0f 3c b8 64 7d 3d ad 95 1c 3e
       0.12325526 0.008738798 0.06186363 0.15291472
000280 30 d4 c8 3d fe 1e 3f 3d f2 cc b0 bc 37 42 25 3c
       0.098060966 0.046660416 -0.0215821 0.010086588
000290 d5 d4 a7 3b fe 64 59 3c 4f d3 b3 3d a3 54 b4 3c
       0.005121807 0.013268707 0.08780538 0.022013014
0002a0 ef 9c 77 bd 1d ab 3b bd 28 f8 0e bb f1 fc dd 3d
       -0.060452398 -0.045817483 -0.0021815393 0.1083926
0002b0 88 9f fa ba 3d 19 8a 3d 28 ba b2 3c 5e 9c 1e 3d
       -0.001912103 0.06743095 0.021817282 0.038723342
0002c0 66 c8 b5 3d 36 4d fb 3b bc 52 35 3d b5 67 86 bc
       0.088761136 0.0076691164 0.044268355 -0.016406873
0002d0 89 06 63 3c e7 0b b6 3d b5 b6 e7 3d 85 d6 bd 3d
       0.013856539 0.08888989 0.113141455 0.09269432
0002e0 e9 d3 3e bd d3 1b b3 3d ee c8 38 ba 7d a6 3f 3c
       -0.046588812 0.087455414 -0.0007048984 0.011697409
0002f0 68 7a 42 bc ad c0 2f 3d 6a e8 b9 3c a6 b2 93 3d
       -0.011870004 0.04290836 0.022693831 0.07211809
000300 e8 d1 aa bc aa b3 b9 bd 88 48 8d bc e1 7c 88 bc
       -0.020852044 -0.09067471 -0.0172465 -0.01666111
000310 95 d5 8c 3d 22 97 bd 3d 77 a7 e1 bb db 86 03 3b
       0.06876675 0.09257342 -0.0068864184 0.0020069394
000320 24 ce c4 bd c8 ab 80 3c f8 c1 07 3d f5 ec 20 3c
       -0.09609631 0.015706912 0.033143967 0.00982212
000330 2d 96 0b bc e8 0b ae 3b 4c 61 ea 3c 6f 64 e3 3d
       -0.008519691 0.005311478 0.028610848 0.111031406
000340 dc b1 89 3c 9f 43 b2 3c 4a ff 27 bd ec 3c 93 3d
       0.016808443 0.02176076 -0.041014947 0.07189354
000350 b1 90 16 3e 91 a7 91 bd 69 86 1c bc 20 8f 70 3d
       0.14703633 -0.07112039 -0.00955353 0.058730245
000360 5b 79 60 3d 62 f8 69 bd e6 d9 e8 3c 82 43 27 bd
       0.054803234 -0.057121642 0.028424215 -0.040835865
000370 cb 52 4a bd 2e 0a 8b 3d 43 ad 7b 3d 44 be 29 bb
       -0.049395364 0.06789051 0.061444532 -0.002590076
000380 ef 5d c9 3d 52 d2 92 bb 43 4a d3 3d b8 a1 96 3d
       0.098323695 -0.0044806385 0.10316899 0.07355064
000390 e8 90 cd bc 13 97 09 3d b2 9a ad 3c 02 f5 1c 3d
       -0.02509351 0.03359134 0.021191929 0.038319595
0003a0 9c 97 af 3d 24 e8 40 bc 82 5d 4a 3d 0e 81 0a bd
       0.08573839 -0.011774097 0.049405582 -0.033814482
0003b0 32 0a f1 bd a1 7b 87 bc 66 3e bc 3d d6 fd 26 bd
       -0.11769523 -0.016538443 0.09191589 -0.04076942
0003c0 02 69 0c be 9d 14 c4 bd 4c aa a1 3c 94 2c 36 3d
       -0.13711932 -0.09574244 0.019734524 0.044476107
0003d0 9e 47 53 3d 85 88 d7 3c 5b 58 e2 bc 33 b8 ad 3d
       0.05158197 0.026310215 -0.027630022 0.08482399
0003e0 be e9 a0 bd 05 3a 4e bd e9 2b d6 3d 97 a8 7a bd
       -0.07857083 -0.0503483 0.10457594 -0.061195936
0003f0 04 82 35 80 47 43 95 bc b2 06 c8 3d 76 1c 36 bd
       -4.913922e-39 -0.018220557 0.09766902 -0.044460736

bond_lin.weight f4 [300, 23]
000000 af 6b f7 10 2d b3 70 be d1 99 e8 3d 56 4c ba be
       9.7590235e-29 -0.2350585 0.11357463 -0.36386365
000010 9c 92 61 a9 2c 75 37 30 32 46 99 a4 d5 b2 1b 0e
       -5.00872e-14 6.6741523e-10 -6.647209e-17 1.919133e-30
000020 ad 77 ef 01 f0 87 11 b7 8f 07 a4 19 c3 e8 24 b2
       8.796646e-38 -8.674324e-06 1.6960255e-23 -9.59898e-09
000030 cf 09 11 3e 6c 3d bb b5 fa 39 7a 0f 75 1a 1a ad
       0.14163898 -1.3950462e-06 1.23371175e-29 -8.759761e-12
000040 95 2c 07 a1 26 e3 b1 2b 03 4f 90 35 e8 2e 95 37
       -4.5798783e-19 1.2639653e-12 1.0751831e-06 1.7784027e-05
000050 ff e9 8e aa 59 55 a3 b4 85 bd 69 39 cf 81 a5 b8
       -2.5386635e-13 -3.0423215e-07 0.00022291213 -7.891992e-05
000060 67 16 f7 3e a6 f1 70 be 9c 85 40 3e ec 80 5a ba
       0.4825928 -0.23529682 0.18800968 -0.0008335251
000070 9a f1 53 b5 89 89 63 86 64 34 f7 2c a1 0b 0d 36
       -7.89552e-07 -4.2795e-35 7.0259788e-12 2.1017406e-06
000080 8d c9 b1 2c f8 3c 84 a5 2c c7 d0 39 d1 50 c4 3e
       5.053019e-12 -2.2939664e-16 0.00039821246 0.38342908
000090 f6 41 3c 25 d3 81 cf b9 0d f6 ad 8d a7 3b 45 b5
       1.6328749e-16 -0.00039578843 -1.0721183e-30 -7.3475024e-07
0000a0 11 8e 92 1f 2e 79 35 00 f3 e9 87 b8 5f 0f 20 25
       6.2068434e-20 4.910752e-39 -6.480878e-05 1.3882996e-16
0000b0 60 41 79 32 42 28 a0 9c d0 e0 af 21 0a 70 b2 3d
       1.4508572e-08 -1.0598318e-21 1.1917969e-18 0.08712776
0000c0 33 f0 03 3f 4f 4e a0 bc 17 be b1 2b 3f 6f 25 b9
       0.5153839 -0.01956859 1.2629367e-12 -0.00015777069
0000d0 20 22 8a ba 34 2d 3b a7 29 75 05 a5 73 ab 86 33
       -0.0010538734 -2.5975968e-15 -1.1575607e-16 6.271048e-08
0000e0 19 fd c4 2b 85 07 a2 b8 e8 f7 3e be 7b 87 fd a5
       1.3996886e-12 -7.7261626e-05 -0.18649256 -4.398031e-16
0000f0 e3 e8 45 b4 6e a1 f7 b8 a9 91 4a 9c 84 1d 63 33
       -1.8431778e-07 -0.000118079464 -6.7024455e-22 5.28794e-08
000100 9a 49 27 b3 b6 9c 9f 26 5c 14 fb 82 7a 34 31 32
       -3.8949658e-08 1.1075318e-15 -3.689282e-37 1.0314688e-08
000110 da 9e 98 b3 41 57 84 31 ab 26 84 3d 58 c3 da be
       -7.1069465e-08 3.8516252e-09 0.06452688 -0.4272716
000120 d6 2c 29 be 67 75 0b 04 be 44 ff 15 fc b8 ae 28
       -0.1652101 1.639328e-36 1.03102136e-25 1.9398105e-14
000130 c1 1b ec 22 aa e2 a0 af d7 ec 99 ba ed 59 4a 3a
       6.3997314e-18 -2.9264885e-10 -0.0011743557 0.00077190885
000140 ef 15 61 3a dc 58 bd 3c 3e ed 6e ad a7 e6 bf 1d
       0.0008586337 0.02311366 -1.3581412e-11 5.0795768e-21
000150 cd 07 af b9 a9 57 d5 97 dd d4 1b a0 68 fb 1b 30
       -0.00033384413 -1.3786931e-24 -1.3199441e-19 5.674594e-10
000160 6e 8f 2a b2 7d 8c 35 80 c0 78 46 a9 41 70 92 14
       -9.9279145e-09 -4.917679e-39 -4.4069566e-14 1.4786509e-26
000170 82 40 91 ba 28 1f 01 bf c9 a4 cb 3d 80 f8 1b be
       -0.0011081847 -0.50438166 0.0994354 -0.15231514
000180 75 39 63 a9 79 85 35 00 77 7e 35 00 8a 39 4a 34
       -5.045396e-14 4.915162e-39 4.912648e-39 1.8833649e-07
000190 4c 89 16 38 45 d8 ce 8b 78 f7 34 37 a6 59 80 29
       3.5890655e-05 -7.967372e-32 1.0786454e-05 5.6998934e-14
0001a0 e4 68 95 3e f1 ea 0c b9 fc 41 30 a7 68 a8 06 38
       0.29181588 -0.00013438963 -2.4460677e-15 3.210493e-05
0001b0 4f 02 c8 2e df 71 c1 2f c2 dd 46 b3 f3 71 9f b0
       9.095357e-11 3.5187406e-10 -4.6302155e-08 -1.1601159e-09
0001c0 0d 85 8e 39 6a 61 2c 20 5a b4 98 af 26 54 03 30
       0.0002718348 1.4601198e-19 -2.7776786e-10 4.7777104e-10
0001d0 6f 50 a8 be 46 69 1f be be 1e a0 3d a8 a8 a3 af
       -0.32873866 -0.15567502 0.078183636 -2.9769365e-10
0001e0 04 1f 00 8e b3 66 87 92 b8 bc 55 b9 24 e2 9f ac
       -1.5792152e-30 -8.545015e-28 -0.00020383566 -4.5441585e-12
0001f0 24 7e 35 00 d0 f5 94 24 f1 9a ae b3 13 26 9f be
       4.912532e-39 6.460119e-17 -8.13069e-08 -0.31083736
000200 55 93 8e 0c 70 68 52 13 19 47 30 a6 62 4e 85 b7
       2.1967236e-31 2.6557218e-27 -6.115862e-16 -1.5891335e-05
000210 8a d4 47 36 ef ff 2a b1 3c fa 44 b5 93 79 63 9c
       2.9777025e-06 -2.4883737e-09 -7.337983e-07 -7.526513e-22
000220 e8 33 5e 34 25 4e fb 36 42 8a e9 b9 4d df 90 be
       2.0694245e-07 7.48948e-06 -0.00044544233 -0.28295365
000230 50 dd 05 bf 9a 62 4c 3e 35 58 25 30 0b 7c e8 a0
       -0.5229082 0.19959489 6.0152e-10 -3.9384414e-19
000240 3a 1b 89 ab 04 c2 1e a5 79 b0 ac 27 5b 95 a2 04
       -9.741992e-13 -1.377005e-16 4.793092e-15 3.822318e-36
000250 9c fa bb 2f b8 97 d2 14 25 9b 27 3f 4b 12 1d 2b
       3.419317e-10 2.1264424e-26 0.65471107 5.580299e-13
000260 c4 12 59 ab 6a e8 95 ba 7b e9 6b ba cc 84 32 27
       -7.711993e-13 -0.0011437063 -0.000899933 2.4774452e-15
000270 c3 df 80 b0 61 cb 5d b0 3e 96 22 33 7e 33 45 ba
       -9.376823e-10 -8.068835e-10 3.785521e-08 -0.00075226265
000280 e8 33 d5 38 ee 09 0b b3 b9 cd a0 3c 1e b1 ca 3e
       0.000101663 -3.237249e-08 0.019629346 0.39588255
000290 b7 53 76 3e 0f 6a b6 21 62 ce 67 b1 ed 31 5e ab
       0.24055372 1.2360873e-18 -3.373224e-09 -7.893953e-13
0002a0 88 81 34 38 ac 1a 95 39 2a 89 ab b6 63 b3 c2 8b
       4.303598e-05 0.00028439367 -5.112165e-06 -7.4995993e-32
0002b0 cc cd 7d a2 1c 84 4a 3e 07 08 c1 ab 0d a2 af a5
       -3.4396842e-18 0.19776958 -1.3715703e-12 -3.046747e-16
0002c0 0d 9c 08 ba 93 7a 4b 1c 9d 84 93 ba c3 38 33 2f
       -0.00052112417 6.732549e-22 -0.0011254732 1.6300121e-10
0002d0 33 d5 0e b2 68 47 31 32 21 cb 37 39 a2 f1 66 31
       -8.313964e-09 1.0318992e-08 0.00017527911 3.3606757e-09
0002e0 7b 19 ff 31 d6 eb 08 3d 53 5d cb 3e c4 ba 86 3e
       7.4243736e-09 0.033428036 0.39719638 0.26314366
0002f0 f6 c1 6a 34 6b c9 1b 25 7d cf d6 0d 74 0a dc a8
       2.1863511e-07 1.351235e-16 1.3238719e-30 -2.442944e-14
000300 d0 17 8e 15 52 cd bf a8 05 1c a0 b1 9e ac 47 33
       5.739091e-26 -2.1294303e-14 -4.6597983e-09 4.6490293e-08
000310 e9 19 da 3e 74 e3 b6 30 77 ec 7a b5 39 53 30 b3
       0.42597893 1.3306889e-09 -9.347636e-07 -4.1053884e-08
000320 b0 99 9a 35 b8 af f7 31 91 33 d6 1a f6 3d 50 2a
       1.1518623e-06 7.208623e-09 8.8591636e-23 1.8495608e-13
000330 b2 e3 e0 9a 7e fb 7c a4 d9 55 64 ac 91 b2 c3 34
       -9.301209e-23 -5.4856812e-17 -3.2448404e-12 3.6451505e-07
000340 ad fa 0a 3d 6f 6f b5 3e f5 35 39 be 6f 66 10 a1
       0.03393047 0.3543658 -0.18086989 -4.892467e-19
000350 cf 2f 73 2c 53 dd 9e 17 6a f1 9c b8 b3 b5 e3 b9
       3.4558916e-12 1.0266381e-24 -7.4836265e-05 -0.0004343219
000360 16 d8 83 2c e3 80 0b 36 31 e3 b6 15 92 51 fe bd
       3.7472343e-12 2.0787636e-06 7.386766e-26 -0.12417902
000370 a0 03 7e ba 8e d5 c5 b9 f2 cf 7b b6 5b f1 83 39
       -0.0009689871 -0.0003773388 -3.7522955e-06 0.0002516609
000380 e3 04 96 ab 0e 51 4b 3a ee a0 15 b9 da d5 5f 35
       -1.0659497e-12 0.00077559135 -0.00014269698 8.338517e-07
000390 41 65 fb 24 9f c8 c6 b6 b9 8b 88 a7 80 45 1a bf
       1.0902543e-16 -5.924215e-06 -3.789907e-15 -0.602623
0003a0 f7 4c 31 3e f3 51 8b 3d a9 9e 36 b1 ad c3 ef 98
       0.17314516 0.0680274 -2.6574674e-09 -6.1977634e-24
0003b0 3c b0 c9 2d d7 5e 31 2b 40 20 f9 25 ac 5a cf 37
       2.2929318e-11 6.301465e-13 4.3216468e-16 2.4718545e-05
0003c0 de d1 05 a8 3b 5b b7 39 ae 6d 17 be da c0 cd ac
       -7.428491e-15 0.00034972452 -0.14787933 -5.8478613e-12
0003d0 4d e4 82 2c 99 96 d6 2b 19 d5 06 38 42 55 4e 8a
       3.7201687e-12 1.5247414e-12 3.2146552e-05 -9.9345744e-33
0003e0 3b 22 92 2f 86 d2 65 22 8e 63 53 11 89 3a 29 b0
       2.6581568e-10 3.1146737e-18 1.6675643e-28 -6.1565025e-10
0003f0 bb b8 9d 39 8d d5 d7 b9 f5 a5 d0 be bd 2e 15 bf
       0.00030083008 -0.00041167103 -0.40751615 -0.5827444

bond_lin.bias f4 [300]
000000 5e 66 5c 3e 11 43 89 bd bb 05 86 38 a9 ac 57 be
       0.21523425 -0.06702245 6.390685e-05 -0.21061958
000010 85 3e 9c bd 1e b9 87 be 49 59 fc 3c 54 34 0a 3c
       -0.07629112 -0.2650842 0.030804293 0.008435328
000020 9b f6 a2 3d 18 68 5d 3e 85 9c ad bd 3b 25 bf 3c
       0.079571925 0.2162174 -0.08477119 0.023333183
000030 68 a0 c9 3d 2e f5 48 bd 66 2e c0 3d 11 f6 07 3e
       0.09845048 -0.049061947 0.0938385 0.1327746
000040 af 70 1d 3e dd c1 d0 3c 25 0c b3 3d ec f7 28 3e
       0.15375017 0.025483066 0.08742551 0.16500825
000050 04 79 24 be 28 f7 91 bd cd c1 24 be 8a 43 0e 3d
       -0.16061789 -0.071272194 -0.16089554 0.03473238
000060 58 d7 02 be ee 4a 83 3d 2c 6e 91 bd e3 57 38 3d
       -0.1277746 0.06410776 -0.07101092 0.04500569
000070 2e b8 00 be 60 df 14 be 4a 4a 90 3e 86 fb 5c 3e
       -0.12570259 -0.14538336 0.28181678 0.21580324
000080 a1 90 04 3e 94 4d 00 3e 40 ef d0 3c 17 c7 c9 3d
       0.12945797 0.12529594 0.025504708 0.098524265
000090 5e 88 86 3c f9 1d 06 be 3d ae f0 3d 28 77 07 3d
       0.016422447 -0.13097371 0.11751983 0.03307262
0000a0 14 7d 46 bd bc 5c 5a 3d 38 1a d4 bd 7c 3b b3 bc
       -0.048459128 0.053311095 -0.10356563 -0.02187895
0000b0 ef 46 24 be ab e0 58 3e e2 a5 b0 bd 0e 22 1d be
       -0.16042684 0.21179454 -0.0862539 -0.15345022
0000c0 96 b7 07 3e f8 c0 53 be 70 0c 1e 3e d2 37 b2 bd
       0.13253626 -0.2067908 0.15434432 -0.08702053
0000d0 cc 34 f4 bd 42 b3 8d be 34 29 d9 3d cc b3 16 3e
       -0.11924133 -0.27675825 0.10603562 0.14717025
0000e0 c1 94 4a 3c d5 a5 9d bd a0 64 62 3e 2d 51 a2 bd
       0.012364567 -0.076976456 0.22108698 -0.07925639
0000f0 e2 85 c0 bd 24 c9 36 3d 5c c5 b4 3d 44 bc 14 be
       -0.09400536 0.044625416 0.08826706 -0.14524943
000100 0c 0b 7c be 7e 52 b5 3d 84 61 42 3e 22 ac 65 be
       -0.24613589 0.08853625 0.18982512 -0.22428945
000110 66 dd 6c be fb e1 23 3e 10 73 67 3e 8f 2b 0e bb
       -0.23131332 0.16004173 0.22602487 -0.0021693443
000120 d8 24 77 3e 47 4a cf 3d 18 e7 21 3e de d3 3c be
       0.24135149 0.10121589 0.15810812 -0.18440196
000130 eb b4 cf 3e de 9e 50 bc 15 e0 3d bd 4c 6d 40 be
       0.40567717 -0.012733189 -0.04635628 -0.18791693
000140 18 c2 43 3e fa a8 47 be 9e 21 3c 3e 8a a6 b7 bd
       0.1911701 -0.19498053 0.18372199 -0.08967312
000150 d2 09 9d 3d eb f0 4e 3d 4a be b5 bd 10 c5 77 be
       0.07667889 0.050522726 -0.088741854 -0.24196267
000160 1a b5 c5 3d 4c 60 42 3d 81 65 5a bd 08 9b 4e bd
       0.09653683 0.047455117 -0.053319458 -0.050440818
000170 0f 62 66 3d 67 e5 fd bd 35 56 29 3d ea 95 86 bc
       0.05624586 -0.12397271 0.04134198 -0.016428906
000180 3a 7c 2f 3e 63 23 e1 bd a2 24 76 be 4e f2 f7 bd
       0.17137232 -0.109930776 -0.24037412 -0.12106763
000190 6d 22 1c be 9c 98 3e bd c3 46 45 3e c3 1b 1e 3e
       -0.15247507 -0.04653226 0.19265275 0.15440278
0001a0 d4 fb 82 bd 28 69 23 3e 3e c8 a7 bd ee 91 15 be
       -0.06395689 0.15958083 -0.0819249 -0.14606449
0001b0 7c f4 80 be 0d eb d2 bc bb e6 62 be 50 45 d3 3d
       -0.25186527 -0.025746847 -0.22158329 0.10315955
0001c0 41 8a b6 bc 01 1b 37 3e 16 91 df 3c 93 32 3c be
       -0.022282721 0.17881395 0.027290862 -0.18378668
0001d0 17 b7 5c 3c 91 6a d5 3e 06 59 3d be 0b 0c 37 3e
       0.013471386 0.41682866 -0.18490991 0.17875688
0001e0 5f d8 44 be 96 08 5c 3d be 13 11 be 8e 09 80 3d
       -0.19223164 0.053719126 -0.14167687 0.062518224
0001f0 66 0e 8e 3e 7a 8f 00 be 20 29 a1 be 31 49 be 3d
       0.2774536 -0.12554732 -0.31476688 0.09291304
000200 ee f1 97 3d 88 39 1c be 56 bc 7e 3e b6 af 95 bd
       0.07419191 -0.15256321 0.24876532 -0.07308905
000210 ec 6f 66 3e 73 26 57 3e 68 d0 1e be c5 d1 52 be
       0.22503632 0.21010761 -0.15509188 -0.20587833
000220 71 9b 93 bd 83 cb fd bd 53 60 d1 3d 1d 8e 48 be
       -0.072073825 -0.123923324 0.102234505 -0.19585462
000230 cf 65 19 be 5c 60 eb 3d 0c 1a 05 be a2 d4 f8 3d
       -0.14980243 0.114929885 -0.12998217 0.121499315
000240 92 99 5a 3e 8d 96 70 3e 4d 83 2b 3e 76 93 63 be
       0.21347645 0.2349493 0.16749306 -0.2222422
000250 9f 0a fa 3d 56 03 88 bd b9 cb c4 bd ac b6 68 be
       0.12209057 -0.06641261 -0.096091695 -0.22725934
000260 a2 1c ed 3d fd 3a 8b bd 89 af 82 be dd 0f 04 bd
       0.11577727 -0.067983605 -0.25524548 -0.03224169
000270 d4 29 2e be 6e 40 3a bd e2 4b 82 bd 4a 0d 54 bd
       -0.17008144 -0.0454716 -0.0636213 -0.051770486
000280 b3 3d e2 3d 2c 80 55 be b8 d5 81 bd 5c 0d e8 3d
       0.110469244 -0.20849675 -0.06339592 0.11330673
000290 03 78 22 be 88 38 8e 3d 01 5d 97 bd 32 ae 00 3e
       -0.15866093 0.06944376 -0.07390786 0.1256645
0002a0 de 18 ce bd 73 dc f2 3c a3 2d 2b 3e 35 f4 03 bd
       -0.10063337 0.029646134 0.16716628 -0.032215316
0002b0 c8 06 11 3c c8 c6 80 3e 4e e2 d4 bc 73 f2 5c be
       0.008851714 0.25151658 -0.025986817 -0.21576862
0002c0 36 b4 88 3c d7 26 23 3e 87 ea 0b 3e 23 96 fe 3c
       0.016687494 0.15932785 0.13663684 0.03107745
0002d0 d9 04 8e bd a6 1b c7 3d d6 fe 65 3e a0 95 a3 3d
       -0.06934518 0.097220704 0.22460493 0.07987523
0002e0 8c 9c 89 3e 7e 44 95 3d 37 78 62 3d db 05 14 3e
       0.26877248 0.072884545 0.055290427 0.14455359
0002f0 10 fd 3b 3e ff cf 5d be 1c 26 59 bd b6 84 02 3e
       0.18358254 -0.21661375 -0.05301486 0.12745938
000300 b3 56 4b be 96 01 be 3d 24 09 28 be 4e ce 5e bc
       -0.19857292 0.09277646 -0.16409737 -0.013598992
000310 cb be 1b bd 49 e9 78 3e e2 86 5a 3e 9c fe 37 3e
       -0.03802375 0.24307741 0.21340516 0.1796822
000320 f6 e5 74 be 5c 84 f1 3d 8d 58 55 bc 86 4d 2e be
       -0.23915848 0.11792824 -0.0130216 -0.1702176
000330 d7 39 be bd 05 61 0f be a2 d3 27 be 10 dc 43 be
       -0.09288376 -0.14001854 -0.16389325 -0.19126916
000340 27 e2 59 3e f2 e6 59 be b8 10 3e be de f2 a5 3d
       0.21277677 -0.21279505 -0.18561065 0.08102964
000350 31 a9 8b be 31 fa 2b be 0d 43 47 3d de 4a 37 be
       -0.2727752 -0.16794659 0.04864793 -0.17899653
000360 72 95 04 3e 69 a6 3e be 59 4d f9 3c 8c 44 74 3e
       0.12947634 -0.18618168 0.03043239 0.23854274
000370 c8 08 00 be 40 48 3b be 57 3e 56 3d 80 75 43 be
       -0.1250335 -0.1828928 0.052305546 -0.19087791
000380 1a 33 8b bd d1 a1 aa 3d 9c d6 30 3e f9 54 29 3e
       -0.06796856 0.08331645 0.17269367 0.16536321
000390 12 c7 25 3e e4 0b 27 be aa bb 84 be 0b 30 c9 3d
       0.1618922 -0.1631313 -0.25924426 0.098236166
0003a0 b5 2d 9b bc 22 ed 9b bc 5b b0 67 bd 78 19 56 be
       -0.018942693 -0.019033972 -0.05656467 -0.20908153
0003b0 5b c9 84 be 89 9d f2 bd cd 0f 44 3e 48 45 17 be
       -0.25934872 -0.11846454 0.19146653 -0.14772522
0003c0 6a 99 e5 bd 1f 2b 4d be 88 85 cc 3c 56 93 84 3d
       -0.11210902 -0.2003598 0.024966016 0.064734146
0003d0 c5 9b 35 3e 3f c4 a9 3d b8 12 80 bd a2 29 68 3e
       0.17735203 0.08289384 -0.0625357 0.22672132
0003e0 f6 b1 c7 3d f1 df 77 bd 8b fa d0 3d 2e 41 61 3c
       0.0975074 -0.0605163 0.10204037 0.01374845
0003f0 ce 49 e9 a5 73 0e 7e be 87 af 7d 3e 1c a8 61 bd
       -4.046907e-16 -0.248102 0.2477399 -0.055091962

energy_lin.1.weight f4 [300, 300]
000000 11 59 9b 3d 69 3f fc ba 0d 64 de bd 25 f5 27 bd
       0.075853474 -0.0019244972 -0.10858927 -0.041005272
000010 05 95 4e 3d aa 37 df bd 34 ba 0a be 56 6b 68 3d
       0.050435085 -0.10899289 -0.13547593 0.05674299
000020 31 ff 90 3c 8a a0 22 be 9b 5b 6c bc 7d a3 53 3d
       0.01769981 -0.15881553 -0.014426137 0.051669586
000030 2e 99 04 be 9b 62 db 3b d4 8c 1c 3d 7b c4 07 3e
       -0.12949058 0.0066951043 0.03822024 0.13258545
000040 40 6c 1f 3d 32 19 a1 ba c4 60 d6 bd 59 ac 1f be
       0.038921595 -0.0012290834 -0.10467675 -0.15593089
000050 04 98 c9 3d fa 49 cf bd 79 07 c6 bb d4 51 04 3d
       0.09843448 -0.10121532 -0.0060433713 0.0323046
000060 f3 38 0e bd e1 ba 3f 02 89 ca 5e 3d 5a 3d b7 3d
       -0.03472228 1.4086095e-37 0.05439237 0.08947249
000070 44 90 25 bd fd 54 07 be 79 fa 1a 3f b6 aa 21 3d
       -0.040420786 -0.13216014 0.6053844 0.039469443
000080 a5 ce 24 39 35 5a a8 3d a3 47 ec 3b 11 07 7a 3d
       0.0001571724 0.082203306 0.007210688 0.061041895
000090 7b d0 24 bd 21 f1 9c bc dc 61 41 3d 4f e0 d8 bd
       -0.040237885 -0.019157948 0.047212467 -0.105896585
0000a0 65 f5 15 be 46 e5 03 bd b8 cd 15 3d ba 67 bb 3d
       -0.14644392 -0.032201074 0.03657314 0.09150644
0000b0 de ee 23 bd ad 66 15 bb ab 88 62 3d 49 d8 50 bd
       -0.040022723 -0.0022796795 0.055306118 -0.050987516
0000c0 f3 2e 02 be 48 ad c9 bc 72 8b ee 3d e8 b1 a2 bc
       -0.12713222 -0.02461876 0.11647691 -0.019860223
0000d0 90 e3 7d 3c cf 39 19 3e c6 a7 d6 3d b4 fe 45 3d
       0.01549615 0.14963458 0.10481219 0.048338607
0000e0 c9 f2 87 bd ca 73 42 3d f5 63 15 bd 56 6e ad 3d
       -0.066381045 0.047473706 -0.03647228 0.084683105
0000f0 52 a2 5b bc f6 3a f7 3d 66 d5 e6 3d 95 69 28 3c
       -0.013405399 0.12071793 0.11271171 0.010279079
000100 18 ab 29 3e f1 1c 1f 3e 4e 12 55 3d 56 b9 82 bd
       0.16569173 0.15538384 0.05201941 -0.06383006
000110 27 3f 83 bd 86 6f 03 3d e4 9b d7 bd 57 1e a5 be
       -0.0640853 0.03208878 -0.10527781 -0.3224971
000120 36 51 03 bd 28 f1 9c 3d 85 ec ae 3c 98 a5 22 3e
       -0.03205987 0.076631844 0.021353016 0.15883482
000130 09 79 8a be 20 4d f6 3d fc cc 94 3d 0d 70 8d bd
       -0.27045467 0.12026429 0.0726566 -0.069061376
000140 7f 34 3e 3d 39 0a 0f be 5b 3b da 3c 1f 67 19 3d
       0.046436783 -0.13968743 0.026639631 0.03745186
000150 68 62 3a bd 13 5d 2b be 2a 1f 85 bd 3a aa 48 bd
       -0.045504004 -0.16734724 -0.06500085 -0.048990466
000160 1f b7 8b 3d 9f 10 35 be 32 76 12 3e e8 37 c4 3d
       0.06822037 -0.17682122 0.143029 0.09580976
000170 91 26 3d 3c 55 ec 45 3d 6e 2a 94 bc 39 4a 21 3e
       0.0115448395 0.048321087 -0.018086638 0.1575097
000180 25 54 4a 3d a7 0b 66 bd 8e 98 d6 3c 9a 6f da bd
       0.049396653 -0.056163456 0.02619579 -0.106658176
000190 c3 2f ed 3c 45 30 05 be 14 33 c0 3c 65 e2 b4 bd
       0.028953439 -0.13006695 0.023461856 -0.08832244
0001a0 9c ac 90 bd ea 98 21 bd fe d7 1a 3e eb 3b db bb
       -0.070641726 -0.03945247 0.15121457 -0.0066904924
0001b0 5d 83 1a 3e 15 14 73 bd 9e 4b b2 bd b2 f0 84 3e
       0.15089174 -0.059345324 -0.08705829 0.25964886
0001c0 18 48 b1 bc 4a 58 00 3e 49 92 b7 3d fe 3e 4d bc
       -0.021640822 0.1253368 0.089634486 -0.012527226
0001d0 7c 5c 95 3d 59 da 77 3d 0c 9e a0 3d 28 80 9e 3d
       0.072930306 0.060510967 0.07842645 0.077392876
0001e0 0d 95 b9 bd d5 ef e9 3d 89 5c d2 3d e9 0f b4 3c
       -0.09061632 0.114226975 0.10271556 0.021980243
0001f0 f4 fb 29 bb fb 86 aa bd 76 16 f7 3d e6 0f 9c bc
       -0.002593753 -0.08326527 0.12064831 -0.01905055
000200 a7 8d 0f 3e a1 6d e7 3d 58 c6 22 be 63 0e 83 3c
       0.1401888 0.11300207 -0.15895975 0.015998071
000210 5d f1 00 bd fe 89 6a 3d 80 9c ea 3d 3f 98 31 bd
       -0.031480182 0.057260506 0.11455631 -0.043358084
000220 95 c7 2d bd 7d 50 39 bd ad 6d 4a 3e b8 d1 97 3d
       -0.042426664 -0.045242775 0.197684 0.074130476
000230 3d 83 27 be 43 59 db 3c 73 6b f6 3c 56 fe 7b 3d
       -0.16358657 0.026775962 0.030080533 0.06152185
000240 c5 f1 8a bd 35 ee 24 3e 6e ae 1a 3d 05 96 27 bd
       -0.06784395 0.16106494 0.037764005 -0.040914554
000250 bf 3f 1a be 9e 99 31 bc 66 1c b0 3c 86 be 28 3e
       -0.1506338 -0.010839848 0.021497916 0.16478929
000260 58 98 91 3d 3d 81 87 3c 21 5b 92 bc ea 56 0f 3e
       0.071091354 0.016541118 -0.01786572 0.13997999
000270 d3 8a c0 bd 54 b9 00 be 27 d5 a5 bd 2f b2 7e 3d
       -0.094014786 -0.12570697 -0.08097296 0.062181648
000280 81 0d e4 3d 85 7f 92 bd e3 ce 1f 3e f6 80 95 3d
       0.11135388 -0.07153229 0.15606265 0.07299988
000290 7e 88 81 3d 1b 3c 8f 3d 35 c2 2e 3d 89 c2 a2 3d
       0.06324862 0.06993886 0.04266568 0.07947261
0002a0 64 f6 2c 3e c4 87 3f bd 73 cb 31 bc 51 b9 bd 3d
       0.16890866 -0.046760336 -0.010851729 0.09263862
0002b0 ca 52 b5 bd d6 40 29 bd d6 37 85 bc 25 4a 82 bc
       -0.088536814 -0.041321598 -0.016261976 -0.015904495
0002c0 f8 e6 af bd 22 b5 5c 3d 4c 3d db bb df 78 de 3d
       -0.08588976 0.05388368 -0.0066906568 0.10862898
0002d0 1e ae 49 3c 40 d6 cf 3d 67 a6 2d be 45 aa b0 3c
       0.012309579 0.10148287 -0.16958009 0.021565566
0002e0 ad e7 0d 3e e3 61 f6 3c e4 8b 14 be 43 c9 0d 3b
       0.13857909 0.030075973 -0.14506489 0.0021634854
0002f0 53 16 a8 bd 7e 77 1b be 95 86 41 3d 39 b6 6f 3d
       -0.08207383 -0.15182301 0.047247488 0.05852339
000300 92 8c d2 bc 36 dc 96 bc 76 77 05 3e cb b1 ab bd
       -0.025701795 -0.018415552 0.13033852 -0.08383521
000310 8c ed 19 bd bd d8 ce bd 9b e3 44 3c db d1 4e 3d
       -0.037580058 -0.10099933 0.012017156 0.050493103
000320 af b8 0b bd 7f 60 5d bd ea 6c b0 3d 64 6f cd 3c
       -0.034111675 -0.054047104 0.08614524 0.02507753
000330 e9 b1 95 bd 44 23 f7 3d 8d 53 f9 bd 54 71 3a bd
       -0.07309324 0.12067273 -0.12174139 -0.045518234
000340 f4 28 b3 bd 15 4c d6 bd b7 fc 01 be 29 f5 1e bd
       -0.087480456 -0.1046373 -0.1269406 -0.03880802
000350 91 7d d3 bd b2 aa b0 bd 61 86 0d bd fd 7a 63 bd
       -0.10326684 -0.086263075 -0.03455198 -0.055537213
000360 e0 02 a9 b8 c8 ca bb 3c 45 56 de 3d 9a 68 86 3c
       -8.0590835e-05 0.022923842 0.10856298 0.0164073
000370 ef ea 58 bd f1 97 80 bd 98 a3 0a 3e e1 bb 8c 3c
       -0.052958425 -0.062789805 0.13538969 0.017179431
000380 e4 86 e7 3c 3d 47 2b bd 5c fe 02 be 9d 3c ed 3d
       0.028262563 -0.041815985 -0.12792343 0.11583827
000390 9a 76 f9 bd b8 8f 62 bd fc 1d 82 bd 7d 87 93 bc
       -0.121808246 -0.055312842 -0.06353375 -0.018008942
0003a0 38 92 0f 3e 3c 40 4e bd 5a 96 bf bc 24 2d 2e be
       0.14020622 -0.050354227 -0.023387123 -0.17009407
0003b0 65 58 dc 3c 37 8e f0 bd 08 19 f8 bd f3 02 1a be
       0.026897619 -0.11745875 -0.12114149 -0.15040188
0003c0 1b 5a e2 bc 21 09 90 bd db e8 e0 3c 0a de 14 3e
       -0.027630856 -0.07032991 0.027454784 0.14537826
0003d0 41 96 ca 3d 3e 42 83 bd 67 29 6b bd c8 bf 00 be
       0.0989194 -0.06409119 -0.05741253 -0.12573159
0003e0 04 77 22 3e 4f f7 f0 bc 37 fa bf 3c af c0 7a 3d
       0.15865713 -0.0294148 0.023434741 0.061218914
0003f0 89 74 a8 18 08 64 7b bd 87 6a c3 3d f0 b9 34 3d
       4.3544653e-24 -0.061374694 0.09541803 0.044122636

energy_lin.1.bias f4 [300]
000000 5e 9e 80 bc c0 0d 13 bd 14 fa 2c bc 82 8d 8c 3d
       -0.015700515 -0.035901785 -0.01055767 0.06862928
000010 67 a0 cf 3b a2 2d e9 bc bf 54 63 3d d0 7b 10 bd
       0.00633626 -0.028464142 0.055500742 -0.035274327
000020 33 ad 93 3d 19 14 17 3d 94 5c 66 bb 90 cb 14 bd
       0.072107695 0.0368844 -0.0035150396 -0.036326945
000030 66 a1 70 3d 7d dc 49 bd 38 3f 84 b8 a6 eb 80 3d
       0.05874767 -0.04928254 -6.306026e-05 0.06294946
000040 e6 50 84 bc 32 3d 54 3d aa bd a3 bc 3d ae d3 39
       -0.016151857 0.051816173 -0.0199879 0.00040374874
000050 ce f6 4f bc be 41 ef 3c f2 ee ab 3d 92 70 26 bd
       -0.01269312 0.029206153 0.083951846 -0.0406347
000060 4e 47 22 3d 25 80 0b bc e7 fb 2b bb e7 bc 3c 3b
       0.039618783 -0.008514439 -0.0026242675 0.0028799118
000070 21 7c 89 3d 48 41 52 3d c9 bb ef 3c 20 6a 38 bd
       0.06713129 0.05133179 0.029264348 -0.045023084
000080 61 77 b3 3c ca 73 7c 3b d5 41 6d bc 05 7f b0 3d
       0.02190751 0.0038521164 -0.014481028 0.08617977
000090 89 57 cd bb 19 5c c2 3b dc 4e 79 3d 4e 13 6f 3d
       -0.0062665385 0.005931389 0.06086622 0.05836802
0000a0 9d 8a f1 bc e1 fc f3 bc e8 31 d3 3c 4b c1 6b 3c
       -0.029485041 -0.029783668 0.025780633 0.014389346
0000b0 51 64 3d bd 26 58 23 bd e7 72 1c bb d8 ed b7 bb
       -0.046238247 -0.039878987 -0.0023872198 -0.00561307
0000c0 a6 3c dd bb 2a b1 f0 bb ba fc 12 bd cf f0 b4 3b
       -0.0067516146 -0.0073453384 -0.03588555 0.0055218707
0000d0 12 8f 93 3d 33 65 ab 3d 3c a7 e1 3c 9e 45 1e bc
       0.07205023 0.083689116 0.027545564 -0.009660153
0000e0 3b 94 fc bb c1 83 fa bc bb e1 14 bc fe 65 3a 3d
       -0.0077081 -0.030580403 -0.009087021 0.045507424
0000f0 dd 1b 25 3d 1c 1c 9f 3d 48 ae 2d bd b3 22 27 3d
       0.040309776 0.07769033 -0.042402536 0.040804576
000100 80 12 52 3c ca 24 49 3c 6f 16 3d bc 50 58 6d bc
       0.012821794 0.012276838 -0.011540993 -0.014486387
000110 91 3e 2d bb c1 ec ff b8 07 c0 52 3d 9a 04 6b 3d
       -0.0026434998 -0.000122034464 0.051452663 0.057377435
000120 c9 df b7 bb 12 1e ce 3c d6 2e a2 bc 83 87 77 ba
       -0.005611394 0.025160823 -0.019797724 -0.0009442495
000130 4d 93 0c bb 05 72 9b 3d 7c c6 01 bd 17 d0 2f 3d
       -0.0021450103 0.07590107 -0.03168343 0.04292306
000140 b8 cb ed bc 34 c3 54 bc 93 c6 cf bc cf f4 54 3d
       -0.029027805 -0.012985993 -0.025363242 0.05199128
000150 1f e7 e6 3c 05 b9 3b 3c 26 79 30 bd 25 9f 05 3d
       0.028186379 0.011457686 -0.043084286 0.032622475
000160 1e d7 46 3d 40 01 d3 3c 8a 2f 8a bc 6d d0 9c 3d
       0.048544995 0.025757432 -0.016868372 0.076569416
000170 44 5c d1 bb 05 1f d2 3b a8 a7 53 3c dd 8a 3a 3c
       -0.0063891727 0.006412389 0.01291839 0.011385647
000180 f2 93 85 3d 25 b9 fb bc 2d 2f aa 3c 2e 1e b5 3d
       0.06522359 -0.030727932 0.020774448 0.08843647
000190 c7 73 03 bd 81 3c 86 bc 75 ea 85 3d 50 83 7f bc
       -0.032092836 -0.016386272 0.0653886 -0.015595272
0001a0 a3 74 22 3d 7d 66 56 bc 9c 22 72 bc 61 e5 28 3d
       0.039662015 -0.013085959 -0.014778759 0.041234378
0001b0 43 1c ce bc d9 65 e0 bc 2a e6 b7 bc 46 bc e1 3c
       -0.02515996 -0.027392315 -0.022448618 0.027555596
0001c0 2c 8c 87 ba fa e8 68 3d b7 9b 53 3d 4a 96 b9 bc
       -0.0010341457 0.05686281 0.051662173 -0.022654671
0001d0 90 53 48 3c 9a e4 2f 3d c3 a4 24 3d e0 aa 6a 3d
       0.012226954 0.04294262 0.04019619 0.057291865
0001e0 d8 f7 b2 3b fc 1c 81 3d e3 af a9 b9 b9 1b 11 3b
       0.005461674 0.063043565 -0.00032365238 0.0022141768
0001f0 3c d8 a8 bb 38 36 8b 3d 0f e0 16 3d f7 36 6a bc
       -0.0051527303 0.06797451 0.036834773 -0.014295331
000200 b5 49 f2 3c 7b bd ac bb c6 3a ac ba 4d 10 46 3d
       0.029576162 -0.0052716113 -0.0013140074 0.04835539
000210 8e 73 70 3d ad cc cb 3b 3b e7 8e 3d 58 6a 16 3d
       0.05870395 0.0062194676 0.069776975 0.03672251
000220 d9 69 e1 bc f3 d9 b5 3c 60 8b f4 3c 0f ef 0c 3d
       -0.027516292 0.022198653 0.029851615 0.03440767
000230 bb 01 67 bc c0 5a 06 3d 03 a3 16 3d d9 1c d5 3b
       -0.014099534 0.03280139 0.036776554 0.006503683
000240 41 96 9d bb de fd 15 3d 21 7c 2d 3d 14 41 90 3c
       -0.0048091714 0.03661906 0.042354707 0.017609157
000250 db bd 67 39 2f e8 be 3c e3 26 df 3b b9 e7 10 bd
       0.00022100603 0.023304073 0.0068100556 -0.035377238
000260 25 6c 0c 3c 07 f1 4c 3d 98 ee 14 3d f8 d3 eb 3c
       0.008570706 0.05003455 0.036360353 0.028787598
000270 fe a2 4d 3d 96 50 64 3b 16 cd 72 3d 03 a5 41 bd
       0.05020427 0.0034838072 0.059277616 -0.047276508
000280 e9 9e 1d bd ac ce 32 38 59 51 31 3c 21 b4 8a 3c
       -0.038481627 4.2630985e-05 0.010822617 0.016931595
000290 8a 4d d5 3c 43 50 10 bd 84 7a 50 3d 09 f4 06 bc
       0.02603795 -0.035232794 0.05089809 -0.008236893
0002a0 7b b7 e8 3c 18 a4 81 bc e6 3f e8 3b 18 ea f1 bc
       0.028407803 -0.015825316 0.0070876954 -0.02953057
0002b0 33 f6 e4 3c 68 1f 9f 3d e0 f2 8c 3d fd d2 4f 3d
       0.027949428 0.07769662 0.06882262 0.050738323
0002c0 b6 bb 12 3d 7d b8 dc 3b 75 d1 a3 3c 29 ac 17 3c
       0.035823546 0.00673586 0.019997338 0.009257355
0002d0 ab 33 86 bc 08 34 26 3d fa b1 0d bd 20 b2 10 3d
       -0.01638206 0.040576965 -0.03459356 0.035326123
0002e0 54 b2 ce bb b7 7f 7e bc 59 ad dd bc 14 c1 0a 3d
       -0.0063078795 -0.015533379 -0.027060198 0.03387554
0002f0 e6 df 82 bc d0 87 4e 3d fc ce 78 3b 2e d0 34 3d
       -0.015975904 0.05042249 0.003796517 0.044143848
000300 8a 2d 80 bb fe 9c 5e 3d 40 9d 98 bc 66 ce 4f bd
       -0.0039116787 0.05434894 -0.01862967 -0.050733946
000310 b2 13 43 3c 47 80 03 bc 6f 80 f8 3c 08 66 33 3d
       0.011906551 -0.008026189 0.03033468 0.043798476
000320 30 21 56 3a a2 b5 81 3c a6 fc 1e bd 5c cb 4e 3d
       0.00081683975 0.01583368 -0.038815163 0.050486907
000330 46 19 04 bd ac 10 26 3b 65 47 21 3c 97 1d 1c 3d
       -0.032250665 0.0025339527 0.009843682 0.038114157
000340 92 6a 5c bb cd b6 a2 3c 86 10 c5 3a 35 8a b4 bc
       -0.0033632857 0.019862557 0.0015034832 -0.022038558
000350 95 f0 fb 3c 68 2a 96 3d c7 65 26 bc ae 94 c6 3d
       0.030754367 0.07332307 -0.010156102 0.09696327
000360 ce 8a 9a 3b 31 fb ed 3c 66 61 22 3d a9 89 9a 3c
       0.004716254 0.029050441 0.039643668 0.01886447
000370 cd d7 28 bd 62 6c 94 3c 3f c8 a7 3c d6 70 2d 3d
       -0.04122143 0.018118087 0.020481227 0.042343937
000380 20 f2 70 3c ea 1d 6f 3d df 20 c7 3c 1e 7a 9d bc
       0.014706165 0.058378138 0.024307666 -0.01922327
000390 c8 06 24 3d 83 92 8e 3c d6 f5 db ba 30 1d 2e bc
       0.04004553 0.017403847 -0.0016781639 -0.010627076
0003a0 da e1 9d bb ea 90 c2 3c 84 a5 6b 3c 15 dc 9c 3c
       -0.0048181834 0.023750741 0.014382724 0.019147912
0003b0 91 80 fe 9a 7b ea 12 bd ad d3 f0 bc 8d e1 86 3c
       -1.0525965e-22 -0.03586815 -0.02939781 0.016464973
0003c0 88 b7 f0 bc a4 02 5e 3d e7 16 df bc 7a 67 be 3b
       -0.02938439 0.054201737 -0.0272326 0.005810675
0003d0 7d 80 70 3d f6 df 42 bb bc b8 c4 bb df 91 15 bd
       0.058716286 -0.0029735542 -0.0060034674 -0.036516067
0003e0 8e 92 35 3d a3 32 46 3d 84 6c 0f 3d 70 39 88 3d
       0.04432922 0.048388135 0.035015598 0.0665158
0003f0 0e 9a 26 3d c9 64 86 3d ae 34 83 bc 80 24 34 bd
       0.04067426 0.06562192 -0.01601633 -0.04398012
