models/mpnn_A139_B23_E300_L2/54.pt (torch, 742651 bytes, 9 tensors)

atom_lin.weight f4 [300, 139]
00000000: ba7e 8f3e d688 1d3e c159 0b23 74e4 8725
00000010: 3189 560a 31e6 ce15 aa0a 3dbe f156 4d3e
00000020: 4215 1abe 0f86 b1bd 1470 3500 ba05 d924
00000030: cde4 973c 858b 0707 de1e 8e9e 1d63 033e
00000040: 3571 873e a9a2 41bd 4140 0117 e96b de26
00000050: 5e32 1a91 b0d4 961f 8d8f 6027 c43f ae1c
00000060: 3976 521d b3ef 543e 7a3b d6bc 776e 77bd
00000070: fa6f 7821 4d72 3580 86a1 8d25 413f eca5
00000080: 3185 cc90 a0a2 ce14 ac73 3500 ffde b83d
00000090: 748c a1a4 9cdc fa0a ad0a 09a9 0457 421f
000000a0: 74b9 c484 345f 8529 2988 462a 7ce9 28a8
000000b0: 71f5 c904 3fe2 7617 a0d1 2d9c 0ed8 1710
000000c0: 7132 1520 7b38 de9b 52a9 00a5 8145 3e83
000000d0: 94d2 dfa9 95ab b03d 81c6 e39e ae46 a822
000000e0: 7fd9 0202 0226 ab1a 48ff fd0f cee6 1594
000000f0: 948d d486 4be2 0125 eec5 259f 8fc9 7216
00000100: 8ba6 568a cdee 4aa2 d9d2 5ca6 a3e2 0d28
00000110: 0b7d 4416 fcbb 3ea6 e7b9 fea7 7a7e 3500
00000120: 0e94 941b ca73 cc8f 970b ad21 8bc3 cfa5
00000130: e6ea b3a3 ce89 5d1d 0ef8 cca0 cd12 9987
00000140: 1abb d098 527a 3500 4d20 39a5 9667 139a
00000150: adda f10a a3e8 6706 6eea e997 7b32 e91f
00000160: 4cb0 2e2a d7bb a302 3ddd b61e e833 eb25
00000170: 4974 3500 6eee fa97 a24d 81a8 0986 3580
00000180: 3ac3 888d aea4 612a 5073 3500 e455 3601
00000190: 50a7 4d9e 370c 07a4 67e8 5f1e c283 a08b
000001a0: 6620 bf1f a943 0626 d0a6 af91 33f9 eb1d
000001b0: 614d 3aa5 157d b199 b1a8 9999 cc08 dfa4
000001c0: 74ec 269f 0d7f 6a16 99a5 4c15 f417 a082
000001d0: ea86 449b 79e6 a426 fc67 3500 4b83 3d3d
000001e0: 84de 963e 3708 62be 3fc7 c23d c213 bf3c
000001f0: a748 e987 4e28 bcbc cc94 1ea8 28ce 4a9b
00000200: e3ab 903d 07ef 553c 397a 933c 50e0 493e
00000210: 6353 22bc 902f c43b 147e d128 1843 42a6
00000220: c3e3 258d 8e13 c792 3764 0f3e 0070 34be
00000230: f900 313d 4420 6022 0613 4708 0c2b 602a
00000240: d495 061e a1a9 463e b5b2 3abe 0c4d 043e
00000250: a050 10be d558 061e 81cd b620 37b4 8f3d
00000260: d6bc f71d 417a 7e16 65e8 a83d d1c4 47bd
00000270: fee2 01bd 72cc 9ca4 39a3 8c27 0151 1b11
00000280: 8233 e4a2 2ecc 2328 94f0 ea26 0ec8 3c24
00000290: 6d9e ee3c fa11 0b3e f62c c2bc 812d c515
000002a0: cdd4 e692 5d21 7214 d9bb c91b 430b c0a2
000002b0: 6e0d 60a8 1465 559c ded8 7a3d ae61 210e
000002c0: d6d8 6024 f16a 23a0 3b7e a78e 263b 7fa2
000002d0: 0e6e 3500 de37 6f93 6c3c ed12 2854 0e9b
000002e0: ae75 3500 85b5 a41d 884d 3f9c 23e1 a0a1
000002f0: fdee dda5 5e9c d923 e55c e99b ae98 5523
00000300: 2f2b a33d 0986 3580 4d27 1628 b41f 900e
00000310: 9f3b 0803 a851 c50f 78a8 4424 ab90 841d
00000320: 226e 2a25 10cf 179a fba2 5d1c a12e 710f
00000330: ce8a 87a6 77b4 f015 4a2f e326 8407 7023
00000340: 608a 1a26 826b dd9c b85e d61c 8b13 57a6
00000350: 2a9c 171d 9540 ae14 d01b 631d a97f 7995
00000360: 43bb dd96 2988 8ca6 e8b2 4b1e a5c1 751c
00000370: b5ac 479f f690 fb22 7afb b5a1 e747 7214
00000380: 5826 a520 49db f7a2 aeea 0326 65ad 7280
00000390: ffd2 7421 20d3 be87 0287 3500 a989 3580
000003a0: 896c 9286 5f23 e6a5 c036 0222 6740 8e0d
000003b0: 9ecd 6da0 44b0 da86 f1fc f309 800c 3c23
000003c0: 2d48 57a9 bef3 50a3 e830 ad0f 2c2c 4d15
000003d0: ca33 4a11 9357 9f8d c6e6 3799 c3f4 aea5
000003e0: 0bbd 2923 dfca 3ea9 b902 1c00 70c8 321a
000003f0: 6237 a499 5c5b 2a05 f070 b08c 6570 3500
0.28026372 0.1538423 7.554211e-18 2.3573573e-16 1.0329528e-32 8.3565915e-26 -0.184611 0.20052697
-0.15047172 -0.08668148 4.907487e-39 9.411845e-17 0.018541718 1.0197272e-34 -1.5047601e-20 0.12830777
0.26453558 -0.047274265 4.176325e-25 1.5433594e-15 -1.2163979e-28 6.387933e-20 3.1164064e-15 1.1530837e-21
2.7854388e-21 0.20794563 -0.026151408 -0.06040808 8.417387e-19 -4.908285e-39 2.4569054e-16 -4.0982337e-16
-8.0669026e-29 2.0864829e-26 4.908777e-39 0.09026908 -7.006056e-17 2.4157108e-32 -3.042937e-14 4.1153076e-20
-4.624969e-36 5.9229016e-14 1.7633173e-13 -9.376502e-15 4.7480275e-36 7.977245e-25 -5.751183e-22 2.9945942e-29
1.263748e-19 -3.676332e-22 -1.1159598e-16 -5.591577e-37 -9.939719e-14 0.08626477 -2.4116659e-20 4.5611326e-18
9.61331e-38 7.078535e-23 2.5046057e-29 -7.568096e-27 -7.9953567e-35 1.1265637e-16 -3.5103833e-20 1.9612205e-25
-1.03350485e-32 -2.7502525e-18 -7.6613585e-16 7.876216e-15 1.587221e-25 -6.617426e-16 -7.0700718e-15 4.912653e-39
2.4580224e-22 -2.0160553e-29 1.1726004e-18 -3.604128e-16 -1.9506702e-17 2.932035e-21 -3.4723093e-19 -2.3031931e-34
-5.3955664e-24 4.911162e-39 -1.6057136e-16 -3.0482564e-23 2.3289713e-32 4.3617186e-35 -1.511645e-24 9.876285e-20
1.551547e-13 2.4058512e-37 1.9361502e-20 4.0801175e-16 4.908997e-39 -1.6216059e-24 -1.4355545e-14 -4.915364e-39
-8.428646e-31 2.0041149e-13 4.908648e-39 3.3489744e-38 -1.0887209e-20 -2.9283805e-17 1.1853581e-20 -6.1828005e-32
8.0945245e-20 4.6582286e-16 -2.7712938e-28 6.246165e-21 -1.6159145e-16 -1.8351891e-23 -1.5887963e-23 -9.6725736e-17
-3.5347457e-20 1.894246e-25 4.1328105e-26 -2.3523635e-37 -1.6256333e-22 1.1442256e-15 4.904584e-39 0.04626779
0.2946664 -0.22073446 0.095106594 0.023324851 -3.5100645e-34 -0.022968438 -8.803027e-15 -1.6775661e-22
0.07064035 0.013057477 0.018002616 0.19714475 -0.009907576 0.005987115 2.3258339e-14 -6.73982e-16
-5.111871e-31 -1.2563486e-27 0.14003073 -0.1762085 0.04321382 3.0374742e-18 5.9906746e-34 1.9910131e-13
7.124885e-21 0.19400646 -0.18232234 0.12920016 -0.14093256 7.112271e-21 3.096799e-19 0.07016795
6.5575607e-21 2.0556533e-25 0.08247451 -0.048771683 -0.031710617 -6.800056e-17 3.9034772e-15 1.2252305e-28
-6.185406e-18 9.092592e-15 1.6302221e-15 4.0935455e-17 0.029128278 0.13581076 -0.02370308 7.963946e-26
-1.45675e-27 1.22244574e-26 3.3374054e-22 -5.205363e-18 -1.243741e-14 -7.060643e-22 0.061241977 1.9891813e-30
4.8755925e-17 -1.3842021e-19 -4.1290234e-30 -3.4590257e-18 4.906761e-39 -3.0193586e-27 1.4971698e-27 -1.1773157e-22
4.909497e-39 4.3598125e-21 -6.3296806e-22 -1.0901615e-18 -3.8499334e-16 2.3593411e-17 -3.8606648e-22 1.1579084e-17
0.07967221 -4.915364e-39 8.335195e-15 3.552927e-30 4.003525e-37 1.9457153e-29 4.2643424e-17 3.5089692e-21
1.4782464e-16 -3.1393332e-23 7.3333413e-22 1.1891198e-29 -9.40513e-16 9.721995e-26 1.5764107e-15 1.30120176e-17
5.3617016e-16 -1.4652343e-21 1.4185816e-21 -7.4619595e-16 2.0065419e-21 1.7594983e-26 3.0057579e-21 -5.0385856e-26
-3.5822654e-25 -9.751358e-16 1.07837275e-20 8.131398e-22 -4.228275e-20 6.818717e-18 -1.2331602e-18 1.2232058e-26
2.797746e-19 -6.718166e-18 4.5767805e-16 -1.0531449e-38 8.2949667e-19 -2.871211e-34 4.915713e-39 -4.916664e-39
-5.5078574e-35 -3.9922608e-16 1.764727e-18 8.76693e-31 -2.0142714e-19 -8.2261485e-35 5.8737987e-33 1.0194147e-17
-4.7802193e-14 -1.1327317e-17 1.7077955e-29 4.1434266e-26 1.5950949e-28 -9.820214e-31 -9.5074826e-24 -3.0350045e-16
9.20154e-18 -4.2364438e-14 2.57237e-39 3.697145e-23 -1.6979571e-23 8.010142e-36 -2.7185065e-31 4.907601e-39

atom_lin.bias f4 [300]
00000000: 847a 2fbb ea2f df3c 42ed 9a3c d2cc 25bd
00000010: 0dd3 8fbd 3097 1abd d253 863c b376 013d
00000020: 6ff4 b23d acd0 d13d 417d 51bd 299a 043d
00000030: e6ea 23bc bc35 edbc c768 a9bb ea67 1dbd
00000040: 4159 113e 0661 a93c 1a90 9d3d cdbc 07bd
00000050: 816d 1d3d 907d 85bd a304 d73d 7e59 963d
00000060: 9690 dd3c 7249 bb3d 2bb5 bfbc aa15 fe3b
00000070: a6ae 4abd 8093 72bd 3622 01be a517 76bc
00000080: f6f4 b6bc 784a b23d f65f 7b3d cb23 e83c
00000090: e6bc a4bd 17b6 c43d bb5b 0c3d c566 6cbd
000000a0: 0d21 ab3d 3d2a aa3d 3ece 9b3d 3945 563d
000000b0: a7e9 183d 2ce4 c23a 90b1 dbbc c1cd 393d
000000c0: 455c 5ebd 4e98 193b 2638 813d 5565 b73d
000000d0: 0343 5abd 506b 57bc 4101 203d 774b fdbb
000000e0: 1512 ed3d e16b cb3d 823f 30bc d7b2 ce3d
000000f0: 31b6 6cbd 81ab a43d dd2e dd3a a262 193d
00000100: 08c2 893c 31d5 98bd 6f4e 06bd 1635 d93d
00000110: be50 45bd 5399 fe3d b064 ff3d faca b73d
00000120: 296d d3bc a24a 24ae 8a2c c43d a19d 05bc
00000130: f9e4 743d 8f8a 6dbd 4ee1 c03d 4e08 c83d
00000140: de59 64bd 2256 623d 9c65 3abd 1b74 81bc
00000150: 4b5b 9cbc a312 c03d 541e c73d 6df3 bb3d
00000160: d248 22bd b1ae 86bc f908 923d aecc 213d
00000170: 5b59 38bc e15b febc c707 74bd 70ea 5c3d
00000180: 0034 693d a70c 063d cab2 763c 43ab 05bd
00000190: 0252 d03d a3e0 6d3d 1bb8 7a3d 825b 023c
000001a0: 0cd0 45bd 5980 b5bd f3e3 6abb 43ad ce3d
000001b0: 7c3d a1bd 651c af3d 64f5 90bd 3b1f 76bd
000001c0: 0c3b 9fbd 0dce 283d 718c 603d 802b e53d
000001d0: c9a5 d13b 1166 b13d b3d4 d43b 831a 93bd
000001e0: d463 f9bc ac41 e93d 2c79 08bd f9c4 d3bb
000001f0: 6a87 853d 5512 bd3d f8b9 3c3d 7f99 d53d
00000200: 6c1e 5ebc 7be6 ae3d 3057 c53d 98f4 483d
00000210: 0945 a13d 4a86 753d bc93 033e 0f21 26bd
00000220: dfff bdbb 8a6d 18bd 4aa7 c7bc 1a42 f1bd
00000230: d258 acbc 42fb e03d e99c 94bd 3956 333d
00000240: 1f81 da3d f7a3 5a3b 3fa7 c13d d4f3 733d
00000250: 74c7 873c 281f 993c 4d20 043d 92e5 b2bc
00000260: 1c4d 10bd fad4 123e f196 a73d 8bdb ca3d
00000270: a2dc b1bd eaf2 713d 4e38 5fbd 63f3 b3bc
00000280: 51fb f63c 4a5b 4cbd 3ece f73c 6031 f63c
00000290: 696d 2cbc a7cd b53c dc59 1d3c 417a 013d
000002a0: 6d55 dcbd 1fac 9e3d be9a 0cbb 9b99 783d
000002b0: 7650 14bd 3df1 aa3c 9232 533c 98a7 913d
000002c0: 2780 bebb e6ec 9c3d 3274 8a3c f0f8 19bc
000002d0: 605d 4cbc e8c6 d5bc 3132 263d 7358 0b3e
000002e0: e4ff 8e3d cf5e 323d fc26 dd3d 0e11 cb3a
000002f0: 2b70 bf3c 3b7b 35bd 5088 1c3b d69a 86bd
00000300: b0a5 dcbb dc5f ed3d 7a9e ca3d dea1 903d
00000310: 6f53 c73d a66a 133d 0d9a f4bb 249a acbd
00000320: 82ba 24bb 0351 d3bb e0f2 bb3a 55f9 48bd
00000330: 33b0 0db9 a55f 963c c817 d3bb 68e5 e43c
00000340: cda8 313d ddab 263d 0b45 2fbd 911f 9dbc
00000350: c403 b63a a75f c23d 7e84 1a3d c350 b63c
00000360: 7e15 933c 6314 bdbd b226 383d bd86 9ebd
00000370: a6b1 653d f3a1 27bd 0629 de3c a191 3d3d
00000380: d5d8 9e3d 3d22 f63c e152 8cbd 31f8 9d3d
00000390: 9ea9 7e3b 4291 12bc 6534 fd39 119b 923c
000003a0: 087a a23d d38c b63b 69d5 18bd f4d4 b73d
000003b0: 9535 4b3d 2ac5 593d dc87 f4bc acb0 c83d
000003c0: be4a b53d 942a 643d 13e7 723c 006b d7bc
000003d0: e3f2 2c3d d4c8 17bc 8633 983c 15ad a43d
000003e0: 8eee ee3d 3e33 b33c 59a8 2f3d 4c40 3e3b
000003f0: 2fd6 843d 365b 44bd 806c edbc 9321 8b3c
-0.0026775906 0.027244527 0.018911961 -0.040478535 -0.070226766 -0.03774184 0.01639739 0.03160734
0.08738028 0.10244879 -0.051144842 0.03237358 -0.010004735 -0.028956287 -0.005169961 -0.03842918
0.14194204 0.020676147 0.07693501 -0.03313904 0.03843451 -0.0651809 0.10498931 0.07341288
0.027046483 0.09144868 -0.023401817 0.0077540474 -0.049482964 -0.0592227 -0.12610707 -0.015020286
-0.022333603 0.0870561 0.061370812 0.02833738 -0.08043842 0.096050434 0.03426717 -0.057715196
0.08355913 0.083088376 0.07607697 0.05231211 0.037332203 0.0014869026 -0.026818067 0.045362238
-0.054287214 0.0023436728 0.063095376 0.089548744 -0.053286564 -0.013148144 0.039063696 -0.0077299434
0.115757145 0.09932686 -0.010757329 0.10092705 -0.05779094 0.08040524 0.0016874928 0.03744758
0.016816154 -0.07462538 -0.032789644 0.106058285 -0.048172705 0.12431588 0.124703765 0.089742616
-0.025808888 -3.735557e-11 0.09578808 -0.008155257 0.059788678 -0.057993468 0.094179735 0.09767209
-0.055749767 0.055257924 -0.04550706 -0.015802434 -0.0190865 0.09378555 0.097225815 0.09177289
-0.039620228 -0.016440721 0.07130618 0.03950184 -0.011251773 -0.03104967 -0.05957773 0.053934515
0.056934357 0.03272691 0.015057275 -0.03263403 0.10171892 0.05807556 0.061210733 0.0079563875
-0.048294112 -0.08862371 -0.0035841435 0.10091641 -0.07873055 0.08550338 -0.070780545 -0.060088377
-0.07774934 0.04121213 0.054821435 0.111899376 0.006397937 0.08662046 0.0064950823 -0.07182791
-0.03044311 0.11389479 -0.033318684 -0.00646269 0.06519969 0.09232012 0.04607579 0.10429668
-0.013557058 0.085400544 0.0963577 0.049061388 0.078744955 0.05994252 0.12849325 -0.04055887
-0.0057983245 -0.03721384 -0.024371762 -0.11780186 -0.021038447 0.109854236 -0.07256491 0.0437834
0.10669159 0.003336189 0.09455728 0.059558704 0.016574599 0.018691614 0.032257367 -0.021837983
-0.035229787 0.14339057 0.08183087 0.09905156 -0.086846605 0.05906955 -0.054497056 -0.021966642
0.030149134 -0.049891748 0.030249711 0.03005284 -0.010524132 0.02219279 0.009603944 0.03161073
-0.10758481 0.07747673 -0.0021454538 0.060693365 -0.036209546 0.020866985 0.012890475 0.07112044
-0.005813617 0.07662372 0.01690111 -0.00939773 -0.012473434 -0.026095822 0.04057521 0.1360796
0.06982401 0.043547448 0.10798451 0.0015492754 0.023368916 -0.044306975 0.002388496 -0.06572501
-0.0067336187 0.11590549 0.09893508 0.07062124 0.097327106 0.03599038 -0.0074646533 -0.084278375
-0.0025135581 -0.0064488663 0.001433935 -0.049065907 -0.00013512447 0.018356154 -0.006442044 0.02794142
0.04337387 0.040691245 -0.042790454 -0.019180091 0.001388662 0.094909005 0.03772401 0.022255307
0.017954584 -0.09232404 0.044958778 -0.07740543 0.056077622 -0.04092593 0.02711917 0.04628146
0.07756201 0.030045623 -0.068517454 0.077133544 0.0038858424 -0.008945765 0.00048294957 0.017896207
0.07933432 0.005570987 -0.0373129 0.089761645 0.049611647 0.053166546 -0.029849939 0.097993225
0.088521466 0.05570467 0.0148256 -0.026296139 0.042223822 -0.00926419 0.018579256 0.08040825
0.116665944 0.02187502 0.04288516 0.0029030023 0.06486165 -0.047938548 -0.0289824 0.016983783

bond_lin.weight f4 [300, 23]
00000000: 9741 e482 befd 9dbe bdf0 4b3e 61d3 3f3e
00000010: e9d8 5d04 df03 ba35 5791 f2a1 6142 1038
00000020: 8023 812f 785f e935 8206 fa2c 5122 b6ae
00000030: 26ce a13e 5e98 0534 3c02 a5a4 afb7 92aa
00000040: 7077 a72f 4e77 3580 1d6f e02b 0fc4 49b3
00000050: 2a84 bb37 aa66 79b6 e54b 6d1b 3080 0ea9
00000060: 18d3 303d 6740 adbd 8441 1f3f 2bf3 8eb1
00000070: 1ddc 9936 2eca 00ba 4d9d cdb2 3d9b 4bae
00000080: 3b76 c739 415a f839 f9ed 06b8 d0fa 2d3d
00000090: a3df 9238 c406 3426 d18d 213a 2ef2 5cb2
000000a0: ed1b 6bb2 cb3d 56a6 5332 05ac 1f77 43ba
000000b0: a9d4 3436 08de 012f 4fb2 3db3 5055 cabc
000000c0: be27 cabe b1d1 56be b8d6 d791 0e8e 3c9d
000000d0: 0da6 0837 6ac8 57a9 816f d2b9 e469 a715
000000e0: d72c 92a2 e961 94b5 bfd4 123f a231 b0b5
000000f0: 261a 752e e3b4 d42f 529b 4db2 acb5 f5b2
00000100: e43d ddae 2063 6dae 3a89 49ba 417d 82b4
00000110: 96e8 3833 65d7 df33 edde ed3d dcf4 fabd
00000120: 362e 933e 7522 6120 cd73 931c a4ac c1b3
00000130: c5f4 5525 8255 8437 0b5e dcb8 334f 1030
00000140: ba4f bb2b c1c6 2abd 8eea e52b 47bf ceb4
00000150: 3b70 8215 276d 3580 21d0 6081 adb1 9332
00000160: 07c6 4a01 ea9b 8d10 45d3 2fba c081 bcb5
00000170: be7c 092a 0a95 adbc 505d 29be e4eb cf3d
00000180: 86cd bbb5 5dc2 9090 b1d0 8414 21ce 1f30
00000190: 12ce 6322 ae71 999f 51b1 5bb4 2f1b 9a1b
000001a0: e10f 253d 1a43 4eaa 36a5 cf23 4c5b e9a8
000001b0: 01e6 8934 4ee7 3e10 b065 6bb9 b39f 97b2
000001c0: a1c3 e82e a3f7 80b9 b288 629a 37f3 4182
000001d0: 7ec2 8bbd a57d 123f 5f7e d93e 0e06 1427
000001e0: 567a 5ba1 461c 2dba a4cb 9ab1 302a 3b3a
000001f0: 73bb 32a9 0d52 8298 4ee3 a535 9ecc 113e
00000200: 482f 9d36 5f3e 42b9 c22d cb35 5931 a53a
00000210: 1255 68b0 1ce7 d7b9 348f 8139 2731 1eb0
00000220: 3ecb 3930 75e7 9b32 6899 0021 b006 f63e
00000230: 4c5c 5bbd c3fa 04bd 380d 9c30 b144 d196
00000240: bcce 1337 7d79 113a 85f8 f139 5057 a516
00000250: dd62 4f36 349a bb2e f6ac c9be f02a 0eae
00000260: 2df3 3938 7e79 c6b2 278b 5084 9815 4d33
00000270: 5350 18b8 dda8 93b7 5f64 941c 4958 8a38
00000280: d50b 062c 6e9c 6499 9ae2 97bd 2a3b 92be
00000290: 3067 d93e 8764 3cba 2c7c a12e 52df 15ab
000002a0: 29ec 9635 ebb2 2a80 c425 6938 8a46 8931
000002b0: 56a9 80ba abf8 8a3e d459 9d85 ec63 06a5
000002c0: 66d6 4cb4 60cb 4305 ae52 b693 e9c9 963a
000002d0: c75c 92b7 0eeb 3539 6e7d 3580 b332 17ab
000002e0: 76a5 1db2 f70e 20bd 6ca6 8cbe 6347 773e
000002f0: d560 b40b 3a21 a039 8a35 be1e 4e90 4528
00000300: 9118 2336 ae13 90b1 4eaf 7582 af7e 3500
00000310: 252d 27be 74e8 6703 b06a 492a 2f3c 3599
00000320: 7147 c2b8 714e 1eba 51b7 d4b5 02fc aba6
00000330: 3c88 3580 210f 6ab1 1587 3500 b678 3580
00000340: 591c 06bf 6652 99be a3b8 523e 403d 03b7
00000350: 2f04 da37 ff11 fcb4 8c4f 232c 0707 45b3
00000360: 2bc1 0599 306a 47b5 2918 4735 6160 af3d
00000370: cc01 b8a5 92bf c39f 26a7 2f30 b173 3580
00000380: f303 39b4 731b 05b9 9258 4732 1c71 e631
00000390: 3245 6db5 b143 36b6 e8ec aab3 3483 89bb
000003a0: e63c c8be 5ce7 043f 1828 d42a 339c a6b0
000003b0: 3554 58b8 5ac0 0e3a 2f06 3f80 6c32 9a31
000003c0: 9dab 53b5 d5ee b105 ad2a 683c eb9c 32aa
000003d0: d627 4ead 33bb d2a7 8eb8 08b7 58ac ee30
000003e0: a3dd 9837 5640 2f31 a81e a21d ac0e aa37
000003f0: 349a 1a20 2dd7 6130 ff3f d5be a3b5 033f
-3.3539236e-37 -0.30857652 0.19916053 0.18732978 2.6078025e-36 1.3859207e-06 -1.6437029e-18 3.4394096e-05
2.3490188e-10 1.7387638e-06 7.10615e-12 -8.2824976e-11 0.3160259 1.2442021e-07 -7.156113e-17 -2.6062266e-13
3.0461988e-10 -4.91008e-39 1.5946997e-12 -4.6977274e-08 2.235368e-05 -3.716365e-06 1.9628703e-22 -3.164152e-14
0.043170065 -0.084595494 0.62209344 -4.160389e-09 4.58538e-06 -0.00049129396 -2.3936673e-08 -4.6294735e-11
0.00038044326 0.0004736949 -3.216972e-05 0.04247552 7.003478e-05 6.2459214e-16 0.0006162795 -1.2860751e-08
-1.368515e-08 -7.432991e-16 -1.8928372e-12 -0.000745641 2.6945875e-06 1.1811363e-10 -4.4167162e-08 -0.024698883
-0.39483446 -0.20978428 -3.405335e-28 -2.4955033e-21 8.144893e-06 -4.791342e-14 -0.00040137398 6.761783e-26
-3.9620855e-18 -1.1055355e-06 0.57355875 -1.3127467e-06 5.5729775e-11 3.8691103e-10 -1.1967886e-08 -2.8604369e-08
-1.00609104e-10 -5.3975602e-11 -0.000768799 -2.430552e-07 4.3052374e-08 1.0423427e-07 0.11614785 -0.122537345
0.28746194 1.9069642e-19 9.757578e-22 -9.018666e-08 1.8557736e-16 1.5775444e-05 -0.00010507934 5.2499444e-10
1.3309278e-12 -0.041693453 1.6336531e-12 -3.8509663e-07 5.268365e-26 -4.906438e-39 -4.1291627e-38 1.719385e-08
3.7243618e-38 5.585492e-29 -0.0006707202 -1.4044854e-06 1.2211323e-13 -0.021189231 -0.16539502 0.101524144
-1.3992401e-06 -5.709745e-29 1.3410908e-26 5.813679e-10 3.087333e-18 -6.498609e-20 -2.0460472e-07 2.549473e-22
0.040298346 -1.8319756e-13 2.2512955e-17 -2.590779e-14 2.5685588e-07 3.7649084e-29 -0.00022449228 -1.7651336e-08
1.0584889e-10 -0.00024598566 -4.6846126e-23 -1.42492e-37 -0.06824206 0.5722297 0.42479226 2.0542408e-15
-7.4361996e-19 -0.00066036393 -4.505141e-09 0.00071397703 -3.9686526e-14 -3.3687063e-24 1.2359612e-06 0.14238212
4.684469e-06 -0.00018524517 1.5137996e-06 0.0012603208 -8.4522e-10 -0.00041180186 0.00024711492 -5.7549915e-10
6.759143e-10 1.814963e-08 4.357112e-19 0.48051977 -0.053554818 -0.032465708 1.1354251e-09 -3.3809121e-25
8.810017e-06 0.0005549414 0.00046152264 2.671229e-25 3.090295e-06 8.5311674e-11 -0.3938977 -3.2325198e-11
4.4333912e-05 -2.3105482e-08 -2.4514178e-36 4.774992e-08 -3.631443e-05 -1.7602399e-05 9.819764e-22 6.596797e-05
1.9049113e-12 -1.18189145e-23 -0.07416268 -0.28560764 0.42461538 -0.00071866106 7.34349e-11 -5.3245353e-13
1.1244603e-06 -3.921275e-39 5.55867e-05 3.995244e-09 -0.0009816091 0.27142844 -1.4797207e-35 -1.1656502e-16
-1.9076978e-07 9.20621e-36 -4.6024788e-27 0.0011504266 -1.744776e-05 0.0001734907 -4.912277e-39 -5.3716336e-13
-9.176224e-09 -0.03907677 -0.2747072 0.24148326 6.9479175e-32 0.00030542334 2.0139176e-20 1.0966988e-14
2.4303192e-06 -4.193189e-09 -1.8050067e-37 4.912727e-39 -0.16325815 6.815164e-37 1.7889401e-13 -9.369635e-24
-9.263948e-05 -0.00060389104 -1.5848583e-06 -1.1933815e-15 -4.916153e-39 -3.4060081e-09 4.91574e-39 -4.910584e-39
-0.52387005 -0.29945678 0.20578246 -7.822469e-06 2.5989573e-05 -4.6951752e-07 2.320785e-12 -4.5874028e-08
-6.914949e-24 -7.42878e-07 7.4168435e-07 0.08563305 -3.192013e-16 -8.290264e-20 6.390216e-10 -4.908784e-39
-1.7230904e-07 -0.00012694094 1.1603463e-08 6.70674e-09 -8.839007e-07 -2.7159515e-06 -7.959335e-08 -0.004196549
-0.39108962 0.51915526 3.7686586e-13 -1.2122484e-09 -5.1576837e-05 0.0005445533 -5.787855e-39 4.487722e-09
-7.8853355e-07 1.6732733e-35 0.014170331 -1.5864018e-13 -1.171859e-11 -5.848967e-15 -8.149202e-06 1.7365762e-09
1.822302e-05 2.5502422e-09 4.291274e-21 2.0272411e-05 1.3095329e-19 8.2160306e-10 -0.41650388 0.5144903

bond_lin.bias f4 [300]
00000000: 0e1f 63bc 4bc7 babc 817e 1abe e7d1 20be
00000010: a0c2 89bd 6562 3a3b 670a a43e 3d51 21be
00000020: 3f5e c63c d955 c13d c428 e43b 9eef 953d
00000030: afd9 943e 9714 86be 4234 d8bd 7f9a 213c
00000040: fa64 913d 47db 5f3e 95c3 28be 4634 843e
00000050: f7c3 a9bd 8ed9 e13d 4594 253e 23ac 823e
00000060: df01 123d f0b0 edbd 29ff 79be b49f 8a3d
00000070: d125 3e3e 5acb 90bd 3239 49bd 9569 30be
00000080: f16f 88be 2235 79bc 609c 08bc fc1a 723e
00000090: 909f 9c3d a2c4 09be 10c4 2b3e 813f 493e
000000a0: 5102 123e 6d57 e6bc 718d 64bd 85b7 89bd
000000b0: 0acf eb3c 4465 333e 5404 42bc b675 f83d
000000c0: 619b 8cbe 8568 86bd 3f3f 0d3e 9baf c1bd
000000d0: 8d2b 2dbe c5b2 3a3e 0724 b63c 60f6 afbd
000000e0: 20f0 ac3d 11bc 8cbb ea15 723e 2c4f 013e
000000f0: c78f 25be e512 4f3e e239 8fbe f1a1 b83d
00000100: 55b3 c5bc 1eef 253e 0b8a 23be f6f4 523e
00000110: 5d71 c4bc 8d4f 803e fe5e 4a3d e05c 8b3c
00000120: d46d 03bc 7022 519e 7916 f13d 669b eebd
00000130: 246c 3b3e 197e 34be abce 0fbe 1839 1dbe
00000140: 9c2e 2fbc 9f12 2cbe 644c 38be 96c5 08bc
00000150: f584 24bd 57fa a4bd 7794 32bd b48f 6a3e
00000160: f911 01be d194 5b3d 2116 863e e299 cd3d
00000170: afd3 533d eb37 823e cbf0 143e 14e6 0e3e
00000180: 1722 a93e feee 2d3e a4d7 52be 9879 debd
00000190: 2e23 81be 025e 073e 9c4d 99bd cf71 263c
000001a0: 15d7 0d3e 4ae5 bfbd 9c18 02be 4671 da3c
000001b0: 24e0 c7bd d0ac 923d 5a82 4dbe dec7 3abe
000001c0: 6c6a be3d 54ba d7bd 1896 68be 620b 10be
000001d0: 31f8 0ebc 2014 16be 9a4b da3d d879 623e
000001e0: c918 a23d 457e edbd 2b7c dcbe 36e8 813e
000001f0: ac02 d93c 7015 1f3e c6c6 26be b565 313e
00000200: 5c2b 86be 864d 4ebd a433 dbbd 6dee af3d
00000210: a6a3 dc3d bbcb 493e 44d5 b03e a8f2 eebd
00000220: a905 313e faae 143d 778a 3ebd 2e97 9fbc
00000230: 847f dcbd 5743 823e d663 483e 3afc 903d
00000240: 12e0 c73d 3413 48bd 3a13 773e 3b67 883e
00000250: f7da 75bd ce7e 303e 4c93 853e 5846 a2bd
00000260: 51b6 953d 6ff5 7e3e 4826 1cbe b5a0 f53d
00000270: ce03 95be ed26 233c 2519 a2bd 5af3 763e
00000280: dbeb 8e3d 0fac 54bd a5fa 223e 62fa 803c
00000290: 6afa 9e3d 1c5d eb3d 0cec b1bc 081e 063e
000002a0: 7806 73be a71a 453e e4c9 b1bd 91c2 56be
000002b0: d89f 44be 18ec 223d ee22 bc3d d947 c93d
000002c0: 59fa 5fbd 5791 3a3e febc ce3b 451c 36bb
000002d0: 8e26 0cbe a5d0 63bd 61eb eb3d a3fc 69be
000002e0: 2a39 06be e2f5 bc3d a297 6f3d 3a1e c8bd
000002f0: e631 f8bb 59ac 93bd 4d4c 4f3d 02c2 5f3e
00000300: b21e 323e 02ba b5bd fedf 073e 8cfd a5bc
00000310: b476 4f3e 6950 6abd 6ea4 40bb f2c6 09be
00000320: d1ee 6ebe 774d 50be 5e95 433e eb37 f93d
00000330: 37c0 ec3d c587 283e 3c67 13be 1f99 f43d
00000340: 924c 0abe 93e0 3c3d b71f ca3d 54e9 05bc
00000350: ebf3 38bd 9ced 43bd ce57 1ebd ab18 7abe
00000360: 470f 8abd c29b 293d 4b66 7dbe 0c13 38be
00000370: e08a 383e fa4f febc 8783 38be bb98 d83d
00000380: e136 503e 0859 6dbe 83b6 6abe e2d2 37be
00000390: 002e 593e a4b9 03bd 4a72 abbd 5e3b 4fbe
000003a0: 6271 26be 1310 4a3d 35d6 49be 1593 033e
000003b0: 8f6a 2b3d 5293 be3e 775f 3bbe b88c cbbc
000003c0: 63ad 5abc 8518 36bc f3ea 2dbe 54c7 393a
000003d0: a047 5cbe 3fb6 23be e1aa b0bd 36b7 70bd
000003e0: 4348 d33e 6659 033e 8127 0e3e cd88 4abc
000003f0: 3f08 5dbe c017 ac3d cccc 373d 125f e63d
-0.0138623845 -0.022800108 -0.1508732 -0.15705071 -0.06726575 0.0028439995 0.32039186 -0.15753646
0.024214862 0.09440202 0.0069628675 0.07321094 0.2907233 -0.26187584 -0.105568424 0.009863495
0.07099338 0.21860991 -0.16480859 0.2582113 -0.082893305 0.110278234 0.16169842 0.25521955
0.035646316 -0.11606014 -0.24413742 0.06768742 0.18569113 -0.07070036 -0.04912681 -0.17227776
-0.26647905 -0.015210422 -0.008338064 0.23643106 0.07647622 -0.13453916 0.1677401 0.19653131
0.14258696 -0.02811786 -0.05579895 -0.06724457 0.028785247 0.17519099 -0.011841852 0.121318266
-0.27462295 -0.06562904 0.13793658 -0.09457322 -0.16911145 0.18232258 0.022233976 -0.08591914
0.08444238 -0.00429488 0.23641172 0.12627858 -0.16168128 0.20222051 -0.2797385 0.09015263
-0.024133364 0.16204497 -0.15970628 0.20601258 -0.023979837 0.25060692 0.049406998 0.01701206
-0.0080217905 -1.1071489e-20 0.117718644 -0.11650734 0.18302971 -0.17626227 -0.14043681 -0.15353811
-0.010692265 -0.16803978 -0.1799789 -0.008347889 -0.04016586 -0.08055561 -0.04359862 0.22906381
-0.12604512 0.05360872 0.26188758 0.100391164 0.05171555 0.25433287 0.1454498 0.13954955
0.3303382 0.169857 -0.20590073 -0.10863036 -0.25222152 0.13219455 -0.07485506 0.01015897
0.13851579 -0.09369905 -0.127047 0.026665341 -0.09759548 0.071618676 -0.20069256 -0.18240306
0.09297642 -0.10533586 -0.22713506 -0.14066842 -0.008726166 -0.14656115 0.10658951 0.22116792
0.07914884 -0.115963496 -0.43063483 0.25372475 0.026490532 0.15535522 -0.16286764 0.17323954
-0.26204956 -0.0503669 -0.10703209 0.08590398 0.10773401 0.19706623 0.3453771 -0.11667377
0.17287315 0.036299683 -0.04651877 -0.019481268 -0.10766509 0.25442 0.19569334 0.070793584
0.09759535 -0.04884644 0.24128428 0.2664126 -0.060023274 0.17235872 0.2608894 -0.07923573
0.07310165 0.24898313 -0.15248978 0.11993543 -0.29104465 0.009958011 -0.07914952 0.24116269
0.069785796 -0.0519219 0.15915926 0.015744392 0.077626064 0.114923686 -0.021719001 0.13097394
-0.23732936 0.19248448 -0.08681086 -0.20972659 -0.192016 0.039775938 0.0918635 0.09828157
-0.05468211 0.18219505 0.0063091507 -0.0027787846 -0.13686582 -0.0556189 0.11519504 -0.2285028
-0.13107744 0.09226586 0.058494218 -0.0977139 -0.0075743077 -0.07210607 0.050609875 0.21851352
0.17394522 -0.08873369 0.1326904 -0.020262502 0.20260125 -0.05720559 -0.0029394883 -0.13454798
-0.23333289 -0.2034205 0.19099948 0.12168869 0.115600996 0.16458042 -0.1439485 0.11943268
-0.13505772 0.04611261 0.098693304 -0.008173306 -0.045154493 -0.047834024 -0.038657956 -0.24423473
-0.06741195 0.041408308 -0.24746053 -0.17976016 0.18021727 -0.031043995 -0.18018924 0.10576006
0.20333435 -0.23178494 -0.22921185 -0.17951539 0.21208954 -0.032159463 -0.08371408 -0.2023749
-0.1625419 0.049331736 -0.1971062 0.12849076 0.04184967 0.3722177 -0.18298136 -0.024847373
-0.013347003 -0.011114244 -0.16984157 0.0007086892 -0.21511698 -0.1598749 -0.086263426 -0.058768474
0.4126607 0.12827072 0.13882257 -0.012361717 -0.21585177 0.084029675 0.044873044 0.11248602

energy_lin.1.weight f4 [300, 300]
00000000: 2ee0 8c3d 059b 9cbc 9b21 3bbd 6a9d 28bb
00000010: d33b d6bd 7bb8 6d3c 3c0c da3d 98d1 0d3e
00000020: badf d1bd e89c 113e dcdb efbd b4ca d0bc
00000030: 08ac bebd 69ec d8bd a649 14bd c47e ffbc
00000040: 4be4 7d3d d41f c63c 8f51 ffbd 71a4 a1bd
00000050: c51f bd3c 2f4a ebbc 4dc3 443e a447 0b3e
00000060: 5aa7 3bbe 43cf e9bd f0a7 a4bd ae0a 2d3d
00000070: 8db6 9cbd 960b 19be 377f ffbc 8461 b3bc
00000080: 017c debd 0f83 15bd d6c4 3bbd 01d2 803d
00000090: 58aa 39bd f3d7 25bd 6fe0 983d 5fa3 763c
000000a0: 3597 ac3d 0bcf babd 2716 4fbd 291b 97bc
000000b0: afc4 d4bd 411c 07be 384c a83d 9756 263d
000000c0: d59c c4bd b4bd 093e 2da6 893d 428a 073d
000000d0: 33b2 5cba 0175 95bd 0040 8dbd caa2 e53d
000000e0: cefd 15bd 0a6b edbd 660b 7a3d 8d16 ccbb
000000f0: 922f e43d 4a76 debd 72ff 943d 9b22 bcbd
00000100: 06c7 b0bd a978 d2bc 0532 ca3d 20e3 2f3e
00000110: 2824 9cbd e627 3b3e b47a 6c3c d0e1 033e
00000120: 33e7 f13c 1354 b3ab f365 c4bd 7460 eebc
00000130: 66b7 e83c 2d54 8dbc d434 84bd dca8 c23d
00000140: bb67 f53c c123 b83d b919 dbbd 4b0a c8bd
00000150: 8516 7f3d d5c7 9abc f926 9e3c 64e6 ff3b
00000160: 635e e93d 95d6 143c f48e 9dbd 3ea6 7d3b
00000170: c023 7b3d 9ecc 9abb e41f debd 35ab b03b
00000180: eafd 863e c881 e33d 7f8e c23d f343 21bd
00000190: f029 76bd cb7f 893d 39c2 b43d 0580 c93d
000001a0: fc36 4cbd 0254 323e 68d2 d1bd e409 ad3d
000001b0: 1ab0 c33d 2ec5 39bc 11a6 f9bc 5c52 06bc
000001c0: f1d0 29bd 1d7f 363c 680c 963d 524b c4bd
000001d0: d7b7 f73d 4133 06bd 44ac 8ebd 8c9e 1dbd
000001e0: 4ca8 c9bd 8507 a43d e9db 89bd d1f2 363e
000001f0: 721d c8bc 3026 e53d 3fa1 853c c9ba fbbd
00000200: 6fe5 66bc 5ff5 22bd 3c75 123e 6eda aa3d
00000210: fd91 d13d 270e 7c3d a708 8abd b241 90bb
00000220: c7fe ba3d 3847 b2bd d798 03bd 4cf3 6fbd
00000230: b53d ab3d e9b8 9b3d 0b2a d33b 975e 853c
00000240: cc74 2fbd eb3d ddbd b477 22be 6d94 313d
00000250: f59d 813d ecf6 483d 0f2a 863d dcaf bdbd
00000260: 1fb6 f13d da43 423d 9c31 1e3e 059c 923d
00000270: 327a b73c 17a2 f83d 53e7 e0bd 877d 353d
00000280: a86a f739 08b3 a3ba f6bd 813d 38db f4bc
00000290: 9daf 35bd f1ed 9cbd d0bc 303d 2301 f8bc
000002a0: ac0c 8dbd 8493 c7bd e1fc 89bd b768 7ebc
000002b0: ae0d 983c 590b 213e 52b6 973d baff 323d
000002c0: 711b 1fbd fec1 db3c 4268 cb3d e33c 4c3c
000002d0: c0d9 e43d 7e0a 103e 32bb b9bd f305 d73d
000002e0: 0944 d33d fcf1 233e 12dc 8bbd c637 d8bd
000002f0: 6fbd c9bd ce38 bc3d 6794 563d 2083 3f3c
00000300: e232 9ebd d6c1 453c 1133 09bc 9588 a5bc
00000310: 25bc 0d3e 96ea ad3d 21ca aabd 2635 06bd
00000320: c1d2 53bd fdf4 2e3e ec2c 4c3d 15db 203d
00000330: 5267 283e 48cb d63d 9556 cfbd b448 dbbd
00000340: a01c c8bd e0ce ff3c df87 08be 5507 0ebe
00000350: edb0 1a3d 1cca b93d 404d 743d c25a f33d
00000360: 45d1 893d 4a17 38bd c737 3cbd 77f7 c43c
00000370: 19d7 18bd 8dda 893c 38b0 893c 8906 1a3d
00000380: a08b 053e ffa4 38bd 0a1e 3b3c 7823 023e
00000390: bf0a e53d bfa7 42bd 085f 6f3d a792 d7bd
000003a0: 9337 703b aa87 0f3e 5e68 a73d 17d9 50be
000003b0: 863b 39bd a8a9 32be 9981 0e3d cc76 85bd
000003c0: 8b1b 673d 02b5 77bb 9755 923b e1ae 833d
000003d0: 99c8 103e 8b68 d03c eed2 903d 38bf 8bba
000003e0: 8985 443e ad1a 523c 2988 d13d 27b4 e3bc
000003f0: fca6 98bd 70f5 c03d 17a4 f33d acf4 f03c
0.068786964 -0.019116888 -0.045686346 -0.0025728592 -0.10460629 0.014509316 0.10646865 0.13849485
-0.102477506 0.14220011 -0.11711857 -0.025487281 -0.09310156 -0.10591967 -0.03620305 -0.031188376
0.061985295 0.024185099 -0.12466728 -0.07892693 0.023086438 -0.028721897 0.19215126 0.13601547
-0.18325558 -0.11416485 -0.08039844 0.042246513 -0.07652006 -0.14945826 -0.03118859 -0.021897085
-0.108634956 -0.03650194 -0.045842014 0.06290055 -0.045328468 -0.04048915 0.07464682 0.015053599
0.08427278 -0.091215216 -0.050558235 -0.018445568 -0.10389077 -0.13194372 0.082176626 0.040609922
-0.09600226 0.13451272 0.06721149 0.033090837 -0.0008418888 -0.07297707 -0.06896973 0.1121269
-0.036619 -0.11592682 0.061046027 -0.006228274 0.11141886 -0.108624056 0.07275285 -0.09186288
-0.08631711 -0.0256923 0.09872822 0.17176485 -0.07624084 0.18276939 0.014433552 0.1287911
0.02952919 -1.274205e-12 -0.09589758 -0.029098727 0.028407764 -0.017252052 -0.06455389 0.095048636
0.02995669 0.089911945 -0.106982656 -0.09767588 0.062277336 -0.018894115 0.019305693 0.007809447
0.11394956 0.0090843635 -0.07693282 0.0038703824 0.06131339 -0.0047240993 -0.108459264 0.005391503
0.26365596 0.11108738 0.09499835 -0.039371442 -0.06009859 0.06713828 0.088261075 0.09838871
-0.049857125 0.17414859 -0.1024521 0.08449152 0.09555073 -0.011338515 -0.030474694 -0.008198347
-0.041459028 0.011138705 0.07326585 -0.09584679 0.120956115 -0.032763723 -0.06966451 -0.03848128
-0.09846553 0.08009247 -0.06731398 0.17866065 -0.024428103 0.11188924 0.01631224 -0.12291486
-0.014092787 -0.039784785 0.14302534 0.083424434 0.10232923 0.061536934 -0.067399316 -0.0044023627
0.09130626 -0.0870499 -0.03212818 -0.058581635 0.08361379 0.07603628 0.006444221 0.016280456
-0.042835996 -0.108028255 -0.15865976 0.04335444 0.06328956 0.049063608 0.06550991 -0.09262058
0.11802315 0.04742799 0.15448612 0.071586646 0.022397134 0.12140291 -0.109816216 0.044309165
0.00047190976 -0.0012489269 0.0633506 -0.029889688 -0.04435693 -0.07662571 0.043148816 -0.03027398
-0.068871826 -0.09744933 -0.06737686 -0.015527896 0.01856121 0.15726985 0.07407822 0.04370091
-0.03884453 0.026825901 0.09931995 0.012465688 0.11174345 0.14066502 -0.09068908 0.104991816
0.10315711 0.16010278 -0.068290845 -0.10557513 -0.09850585 0.09190522 0.05238762 0.0116889775
-0.07724549 0.01207014 -0.008373992 -0.020206729 0.13841303 0.08492009 -0.08339334 -0.03276553
-0.051714662 0.17085643 0.04984753 0.039271433 0.16445664 0.104879916 -0.10123936 -0.107072264
-0.09771085 0.031226575 -0.1333308 -0.13869984 0.037766386 0.090717524 0.059643984 0.11882545
0.06729368 -0.044944085 -0.04595163 0.024043782 -0.037314508 0.016827846 0.01680766 0.03760389
0.13041544 -0.045079228 0.011420736 0.12708843 0.1118369 -0.047523256 0.05844024 -0.105260186
0.0036654219 0.14016595 0.08174203 -0.20395313 -0.04522278 -0.17447531 0.034791563 -0.06516799
0.05642275 -0.0037797098 0.0044657695 0.0642984 0.14139022 0.025440475 0.07071482 -0.0010661846
0.19191565 0.012823743 0.102310486 -0.027795864 -0.07453725 0.094218135 0.11896532 0.029413544

energy_lin.1.bias f4 [300]
00000000: e7da 31bb d38c 50bc ba45 e6bc ea7d 8f3d
00000010: c828 f93d 20df 233d 9e0f a43c a372 6ebc
00000020: d7b5 293d 58e1 703c 9250 f5bc cfe7 6abc
00000030: 3ad3 913d a56a 72bb b085 4dbd 2182 6b3d
00000040: 2cfe 463d 0ee2 8e3c bc33 673d 831d a33b
00000050: 4e70 413d 8fa6 763d 4529 d7bc 4e0a 483c
00000060: 1b13 a43d 55e8 e2bb 5022 263c b4a6 65bc
00000070: a413 673d 0de4 4d3b 9a14 963c f4d6 f2bc
00000080: 7473 32bc 7e1d 133d 92db d83c 7090 423d
00000090: 6312 10bc b7b7 80ba 161c 15bd e5f3 483c
000000a0: 0cbd 733d d754 1d3d e04c c13d 64da 0cbc
000000b0: 2141 48bc 7a76 253d bffa 42bc 26e4 adbc
000000c0: ef49 9d3d 4172 853d 835c 5cbb 8f5c d8bc
000000d0: 630a 8d3c a89b bb3c ef9c 713d c9e9 a33c
000000e0: 9cd0 aa3c a834 7a3d 6127 813a a16e 0f3c
000000f0: df1a 12bd 6a1c 87bc 5d17 b13c ff9a fe3c
00000100: 107a 04bc 0e16 96bc c3e1 973d 096d b9bc
00000110: b28c 0bbd 4168 46bd a273 0b3d fbc9 933a
00000120: 3b32 e03c 8470 923d 179d ffbc f656 543d
00000130: 9034 aa3d da2b 0abd ab37 90bc 38ca 8399
00000140: 473b f23c 089c 13bd 8416 283d 7c93 453d
00000150: e494 0c3d 3386 a63d c8a3 7b3b ae04 9cbb
00000160: 4901 1b3d 2cb6 1abd 5d98 4b3c 768a 4b3d
00000170: 01d5 6d3d dad6 833c 16e5 85bc ec75 18bd
00000180: 76f1 1ebd 14b5 6c3d 1631 85bc 66b2 1ebb
00000190: 1093 193b c508 473d 7185 953b 151f 75bc
000001a0: 21d3 1b3d ac40 86ba 77ad 8e3b 56ae 54bd
000001b0: 75ab 9b3d de64 823d 316d b73c b535 2dbd
000001c0: c447 c8bc bd24 553c de3a 483b 9e6c 483c
000001d0: 3cbc b8ba 8ddd 54bd dee3 b03c a904 0d3c
000001e0: cd61 19bc 29b1 823d 4614 b4bc 3357 15bc
000001f0: 34fa 6d3d 26cc f73c cddd 4eba ae98 373d
00000200: 9963 113d befd 79bc b150 b73c 2e3c 48bc
00000210: a474 8d3d a7ae a6bc fce7 1e3d 6c36 39bc
00000220: 40e6 213c c00f fb3c 59ee 81bd 907f 913c
00000230: 9152 5d3d 6a76 553d a4b7 8fbc 44bf 723a
00000240: 9b2c 63bc 6435 873c 1c5b f33c 1fe2 7fbc
00000250: 1cf7 313d 81df aa3c 17d0 813d e1cb e23c
00000260: 82f5 f2bc 378b c83b ef4a 053c 09e3 603c
00000270: 3889 3c3d 5198 673d 65e1 14bd d978 5a3d
00000280: 43d6 803d 821b e93c 4298 5ebd 7c4f f23c
00000290: 6354 003d bfdf af3d d9fe 18bc 588a ae3d
000002a0: 9e29 f83b 0000 0a3d 3863 09bb 3d3a 463d
000002b0: 88b6 0d3c b226 343d 1596 993d fb89 c1bc
000002c0: 88ae 26bd d125 b3bc 1783 39bb 8cb8 0c3d
000002d0: 9a36 9bbc 8a53 2e3d 8f3b afbc 52dc e23c
000002e0: f9c2 c43c c6b4 e63b cb34 e3bc 9a4d 263d
000002f0: 2058 623d 16c8 993a 08f9 9d3d c756 36bc
00000300: c569 983c bc95 a93c 9df6 c03b 2e32 47bd
00000310: 2617 37bd f656 30bc c037 743d 2b53 34bb
00000320: 9939 56ba e92b cdbc c724 3ebd b6c4 6a3b
00000330: fac3 143d 4805 553d b1aa c6bc a944 953d
00000340: 7eaf 923d c31e 793d e42a 2f3d 0d8e 843c
00000350: 560d 7f3b 08c5 1b3d 817e 793c 9a6c 43bd
00000360: d2ae 023d 2e21 783d 5e00 e43b 97ac 113d
00000370: fb77 6f3d d27e fbbc 59b1 b5bb 65ac 053d
00000380: 9733 bcbc 23ac aebb a233 903d 5157 543d
00000390: 4706 403c 0bdf 743c d5cb 133c 9f4c 91bc
000003a0: 32f9 9b3d 5667 52bc adcb 2c3d 3d72 0bbd
000003b0: 0979 55bb e0a7 d5bb 53c2 803d 3dee 813d
000003c0: 519d 383d f42e 8f3d aac7 3fbd 695c 3739
000003d0: 5f79 d03b 2119 c3bc eed4 59bd 97f7 d63c
000003e0: bed9 3ebd dad4 0e3d 8b91 483d 2a36 ebbc
000003f0: 649d ad3a e5e5 5c3d 1f43 7fbc a3d4 c8bc
-0.0027138533 -0.012728888 -0.02810942 0.07006438 0.121659815 0.04000771 0.020026978 -0.014553699
0.04143318 0.014702164 -0.029945645 -0.014337494 0.071203664 -0.0036989835 -0.050176322 0.057497147
0.04858224 0.017441776 0.056445822 0.0049778833 0.047226243 0.060217436 -0.026264796 0.012209488
0.080114566 -0.006924669 0.010140017 -0.014016796 0.056415215 0.0031416446 0.01832037 -0.029643513
-0.010891784 0.035916798 0.026471887 0.047501028 -0.008793446 -0.0009820376 -0.036403738 0.01226518
0.05950646 0.038410988 0.09438491 -0.00859699 -0.012222559 0.04039619 -0.011900603 -0.021226954
0.07680117 0.06515933 -0.0033624477 -0.026411323 0.017216867 0.022901371 0.058987554 0.020008938
0.020851426 0.061085373 0.0009853655 0.008754403 -0.035670158 -0.016493041 0.021617586 0.031079767
-0.008085743 -0.018321063 0.074161075 -0.022635 -0.034069724 -0.048439268 0.034045823 0.0011275405
0.027367702 0.07150367 -0.031202836 0.051840745 0.08310807 -0.033733226 -0.01760467 -1.3626758e-23
0.029569281 -0.036037475 0.041037098 0.048236355 0.03432168 0.08131065 0.0038397182 -0.0047613
0.037843022 -0.03777139 0.012426463 0.049692594 0.058064464 0.01609366 -0.016344588 -0.037221834
-0.038804494 0.057789877 -0.016258758 -0.002421522 0.0023433603 0.048592348 0.0045630266 -0.014961024
0.038043145 -0.0010242662 0.0043541747 -0.051924072 0.07601062 0.06366895 0.022390934 -0.042287547
-0.024448283 0.013009247 0.0030552666 0.012232928 -0.0014094184 -0.0519691 0.02159303 0.008607068
-0.009361696 0.06381447 -0.021982323 -0.009115028 0.05809994 0.030248713 -0.0007891327 0.04482334
0.035495374 -0.015258251 0.022377344 -0.012221379 0.06907013 -0.020346953 0.038795456 -0.011304479
0.009881556 0.030647159 -0.06344289 0.017761022 0.05403382 0.05211488 -0.017543621 0.0009260068
-0.013865615 0.01650495 0.02970653 -0.015617876 0.043448552 0.020858528 0.06338518 0.027685108
-0.029658083 0.0061201113 0.008135541 0.013726004 0.0460293 0.056541745 -0.036347765 0.053337906
0.06290867 0.0284555 -0.054344423 0.029578917 0.031330477 0.08587598 -0.009338104 0.08522481
0.0075733205 0.033691406 -0.002096368 0.048395384 0.008649476 0.043982215 0.07499329 -0.023625365
-0.04069379 -0.021868618 -0.0028306895 0.034355685 -0.018946934 0.042560138 -0.021390704 0.027692948
0.024018751 0.007040593 -0.027735135 0.04060135 0.055259824 0.0011732604 0.077135146 -0.011129088
0.018605122 0.020701282 0.0058887736 -0.04863184 -0.04469981 -0.010762921 0.05962348 -0.0027515392
-0.0008172035 -0.025045352 -0.046421792 0.0035822815 0.03631971 0.05200699 -0.024251314 0.072884865
0.07162379 0.060820352 0.042765513 0.016181016 0.003891786 0.0380297 0.015227915 -0.047710992
0.031905003 0.060578518 0.0069580516 0.035564985 0.05846403 -0.030700121 -0.005544823 0.03263511
-0.022973819 -0.005330579 0.07041098 0.051841084 0.011720247 0.014945756 0.009020765 -0.017736731
0.076158896 -0.01284202 0.042186428 -0.034044493 -0.0032573363 -0.0065202564 0.062870644 0.063442685
0.045071904 0.069913775 -0.046821274 0.00017486665 0.006362125 -0.023815693 -0.05318158 0.026241107
-0.046594374 0.03487096 0.048966926 -0.02871235 0.0013245759 0.053930182 -0.015579968 -0.024515456

energy_lin.3.weight f4 [150, 300]
00000000: 977d f93c 09c0 0f3d ba2d 9b3d b444 eebc
00000010: 9485 803e 6628 243d 809d c2bc 5d50 f4bc
00000020: 0715 c6bc d6c9 d93d 5a74 dfbc 826d 5e3e
00000030: f9e4 6bbd 50a7 323e a97b 913d 8cb1 18bd
00000040: 8595 aa3d dc1e a43e fdf7 203e 5f90 103e
00000050: 6c47 133e 0393 57bd 10a9 0f3d b275 993d
00000060: e682 433e 8745 94bd 3755 553b 410f 82bd
00000070: 2b57 e2bd 0037 4cbe 9f5c 163e d21c 763c
00000080: 6070 32bb 7d8a dfbd a84a 0b3d fd32 b3bd
00000090: 12d0 f93d 897b e1bd 685e d73d f92b 6ebb
000000a0: 60d4 f73d 764a ec3c 5f61 e6bd d59e e53d
000000b0: f04b 45bd 7413 363d 0b81 16bd 879f 16bc
000000c0: 6e0c e4bb 37c5 edbc 6834 babd 9ff9 3f3e
000000d0: 3a24 463b 340b 54bd 41cf 1c3e 04e9 2bbd
000000e0: cd68 b03d bd48 bdba 7b52 c73d 8dd4 fcbc
000000f0: f611 c0be 81a2 60bd 718b 583d 2331 1bbd
00000100: ddb3 733d 4f22 c739 cf35 c73d 7614 b93c
00000110: f691 713d dc36 ce3d 07d9 14be ff25 303d
00000120: 8b68 0cbe 903c 0c3d 2710 9a3d 006d 533d
00000130: 9d3e 61bd 531f 8f3d 8c92 8dbd 5ca2 5699
00000140: e7ee 18be 4c38 083e 1f4a a33d 7b10 553e
00000150: 5030 003e 0143 33bd 9d08 5f3c e6f5 0e3e
00000160: 0014 37bc 0852 073e 8c18 1a3e e806 f33c
00000170: 1967 4abe 5019 da3c 40da 463a 1399 123d
00000180: fbaf ad23 9ba5 55bd ae30 60bd 738e bf3c
00000190: abee b4bd 94f6 00be 5b11 913d b90b 2abd
000001a0: 9291 8cbd bc64 8d3c bf23 85be 17ec e7bd
000001b0: 478b 333a 6422 eb3d ec21 9fbd b307 d03d
000001c0: 7ea5 ad3d 9b9d c63d c257 d5be 31e6 c8bd
000001d0: 345b 95bc cbed 853d ffeb b3bc fd3d e23d
000001e0: 59b1 e5bd 3b35 823d c70a 8abd 97c3 13bd
000001f0: 079c 133d d336 a33c 1079 56bc 3dbc d53d
00000200: df9c 22be fe4c 2c3e 676c 80bd 80ca 24bf
00000210: f4a8 74bd dcd0 883c 34a0 36bd 5faa a9bd
00000220: 588a 16bd aa92 263e 6eef 6dbc 760e b33e
00000230: aee1 94bc accc acbd b816 3e3b 28bd 8d3d
00000240: c538 403d d867 97bc 6c1a d0bb 9de2 4dbe
00000250: b7dc 1f3d c91d 933d 9981 af3c b022 87bd
00000260: 7e88 223e c6a3 463c 4745 2a3d 011d 943d
00000270: 0b0d 003e a9e8 51bd b60f 813b 9dbe c1bd
00000280: 9756 ce3d 3023 bf3d 2a28 be3e b8b7 5b3d
00000290: edc1 ce3d 4b9b 923d cbdb 95bc c666 5abc
000002a0: 6e28 2cbd b642 18be b833 76ba 0ab4 d7bd
000002b0: ec80 e0bd f0ec 133e 9d01 28bd 0bc2 6ebd
000002c0: b5be 083e d38d 103d 50db 26be 9072 94bc
000002d0: a228 783d 9c3d 133b 7780 7bbd a305 4c3d
000002e0: 3101 afbd 0081 18be bf2b 12bb 2d1a 4ebd
000002f0: e81c cc3c 21e0 b0bc 8c23 773e a764 3e3b
00000300: e43c ce3d c754 0ebd f0e4 be3d 6e45 9abd
00000310: 5a5c 563d 44db 783d 276e d33d 0948 8ebd
00000320: 12f8 b5bd cf84 36bd 0ae7 923d 542b d63d
00000330: 9517 ec3d 2e75 dcbc adfc a33d dd30 9f3d
00000340: 007f 39bd 6918 edbb edd9 96bd 1109 623d
00000350: b330 963d 1b7d 9b3d 74fa 843d 94e7 b834
00000360: 8df4 c3bd 8bae 22be b806 54bd ba25 5ebc
00000370: b94f 803c de03 8bbc 6f31 333d b1a7 04bd
00000380: 3728 cb3d 7f90 eb3b 7ba8 8e3d 3aee e3bd
00000390: 6b68 283d 0d60 263e 9e9a 0bbe 579b 493d
000003a0: 0ef6 ecbd d92b 183e ce11 77bd 8d0a 163e
000003b0: a18f 523d 01d3 d93d 7156 1ebe fb93 b7bd
000003c0: 64ad e2bc ef10 a93d a383 083d f237 abbc
000003d0: 9502 14bd 7168 9abe c8b0 0ebd 53c5 0d3b
000003e0: 85b0 cfbd 5f79 1ebe 22b7 c23d f772 aabd
000003f0: 5791 65bd ba07 133e 40c7 c8bd 2d2a 823e
0.030455394 0.03509525 0.07577081 -0.029085495 0.25101912 0.04007759 -0.023756742 -0.029823476
-0.024179948 0.106342 -0.02727716 0.21721461 -0.057591412 0.17446637 0.071036644 -0.037278697
0.083293 0.32054794 0.157196 0.14117573 0.14382714 -0.052630436 0.03507334 0.07493152
0.19092903 -0.07239824 0.0032552013 -0.06350566 -0.11051782 -0.19942856 0.1468377 0.01502152
-0.0027227625 -0.109150864 0.034006745 -0.087499596 0.121978894 -0.110098906 0.105160534 -0.0036342128
0.12101054 0.0288441 -0.11249041 0.112119354 -0.048168123 0.044452146 -0.03674416 -0.009193308
-0.0069594895 -0.029024703 -0.09092027 0.18747567 0.0030233995 -0.051768497 0.15313436 -0.041970268
0.08613739 -0.0014441233 0.09732529 -0.03086307 -0.37513703 -0.054842476 0.052867357 -0.037888657
0.059497703 0.000379818 0.0972706 0.022592764 0.05897709 0.10069057 -0.14535914 0.043004986
-0.13711755 0.034237444 0.07522612 0.051617622 -0.054991353 0.069883965 -0.06912717 -1.1096329e-23
-0.14934884 0.13302726 0.07973122 0.20807068 0.1251843 -0.04376507 0.013612893 0.1396099
-0.011174202 0.13214886 0.15048426 0.02966638 -0.19765891 0.026623398 0.00075856224 0.035790514
1.8831228e-17 -0.052159887 -0.054733925 0.023383355 -0.08834585 -0.12594062 0.070833884 -0.041515086
-0.06863703 0.017259948 -0.26003835 -0.113243274 0.0006849062 0.11481169 -0.07770142 0.101577185
0.08478831 0.096980296 -0.41668516 -0.098095305 -0.018231966 0.06539496 -0.021963118 0.110469796
-0.11215467 0.06357809 -0.06740337 -0.0360752 0.03603747 0.019923603 -0.013090387 0.10436294
-0.15880154 0.16826245 -0.06270676 -0.6437149 -0.05973144 0.016701154 -0.044586375 -0.08284449
-0.03675303 0.16266885 -0.0145224165 0.3497197 -0.018174019 -0.084374756 0.002900524 0.06920844
0.04692914 -0.018482134 -0.006350806 -0.20105977 0.03902885 0.071834154 0.021424102 -0.06598413
0.1587238 0.012124008 0.041569974 0.072320946 0.12504975 -0.051247273 0.0039386405 -0.09460185
0.100751095 0.09332883 0.37140018 0.053642005 0.10095582 0.07158526 -0.018293282 -0.013330167
-0.042030744 -0.14869198 -0.0009391862 -0.105323866 -0.1096209 0.14445853 -0.041017164 -0.058290523
0.13353999 0.035291504 -0.16294599 -0.018121034 0.060585625 0.0022467142 -0.06140181 0.049810063
-0.08545149 -0.1489296 -0.0022303907 -0.050317932 0.024916127 -0.021591248 0.24134654 0.0029051693
0.10070208 -0.03474882 0.0932101 -0.07532774 0.052334167 0.060755983 0.10323744 -0.06947333
-0.08885206 -0.04456025 0.071729735 0.10457483 0.115279354 -0.026911344 0.080071785 0.07772992
-0.045287132 -0.007235576 -0.07365785 0.055184428 0.073335074 0.07592221 0.06493083 3.4441166e-07
-0.09568129 -0.15886895 -0.05176422 -0.013558799 0.015663015 -0.016969617 0.043748315 -0.032386485
0.0991978 0.007188856 0.06965729 -0.111294225 0.041115206 0.16247578 -0.136332 0.04922041
-0.11570369 0.14860477 -0.060319714 0.14652462 0.051406506 0.10635949 -0.15462662 -0.08963772
-0.02767057 0.08255183 0.033328664 -0.0209007 -0.036135275 -0.30157807 -0.03483656 0.0021632507
-0.1014109 -0.15475987 0.09507586 -0.08322709 -0.05604681 0.14358416 -0.09803629 0.25422803

energy_lin.3.bias f4 [150]
00000000: b396 e93b b971 023d 261c 0fbd 1584 cabb
00000010: 829e 20bd 86b2 22bd 7a52 abba e210 1abd
00000020: 73c6 643d dd3c 723c c8e0 9b3a 3074 4fbd
00000030: 159f 82bc 28d7 9cbc 5889 2d3d c4c6 06bd
00000040: 4e7e 2bbd e680 5f3d 9dae 88bc 24b2 823d
00000050: 3ac6 13bd 2054 ddbc 02a1 3a3d 08c9 b23c
00000060: 2e02 8abc f652 64b8 4e1d 533d 9ccf 8cbc
00000070: b930 e53c 32ff 913c 0d76 bbbb 335a 073d
00000080: a952 403d ca8e 313d b830 88bb 8212 2d3c
00000090: f745 213d f98f 98bc 0ec2 4c3b 7eba 143c
000000a0: baa7 683d 1f18 b0bc 7362 18bd ef7c 793c
000000b0: 75bd e9bc 5d6b 8bbb 13f0 df3b be68 ddbc
000000c0: f85d 7abd b393 0dbd 69cd 7aba 94ce 05bc
000000d0: 51ec 8fbc 6a31 26bd 433f 01bc 0b1b 913c
000000e0: e8fe 123d 0658 17bd 7b51 bc3a e2f4 5e3d
000000f0: 9343 25bc 986e 3580 d20d 563c d944 5f3d
00000100: eba5 0dba 40fa 36bd 958d aabc eb52 413d
00000110: a88a ee3c 08d8 17bd 17da edbb b558 4a3d
00000120: b2ed 6ebb 0dac 4b3d 8c52 683d de70 9cbc
00000130: 2eec 7f3d 9be7 cc3c 8b34 f8bc 7156 6c3a
00000140: a8d9 54ba e4bc 00bd f3b3 01bd eaa1 99bb
00000150: 9272 2cbd 34eb 633d 93a3 3d3d fad4 633d
00000160: 52bd 94bc 2628 12bb f792 a43d 19bb fa3c
00000170: 59de 7c3d 8b39 403d b882 073d 458d 85bc
00000180: ba00 30bb 3155 0abd 399a a7bc e3f6 ff3c
00000190: 3302 2d3d 2cad 4d0a b597 75bb 620d 393d
000001a0: e338 503d 58ad d33c b10c 6c3d 8179 54bc
000001b0: 0fbf 7c3d 1902 b8bc 8f2a 6abc 6c82 32bc
000001c0: d278 d9bb a717 223c 79bb e3ba dc7f 8cbc
000001d0: 0664 403c 18af 3a3d 2c4f 653c b5dd 8cbb
000001e0: e84a 153c b30b f23c 6a5a d0bc 3087 0fbd
000001f0: b366 8f3b 242a 673d 8d75 253d 45b1 08bd
00000200: 0711 9a3c b71a a63d 5dbd 623d daab 793c
00000210: 913b 45bd 6092 b7bd d90e 03bc a22c ce3b
00000220: d858 9f3c 117d a83b ad7e fa3c 28e8 0e3d
00000230: c560 7f3c 69aa f83c ac64 8a3c 2fcc 803d
00000240: 8b9f 853c f7b2 3f3d 4198 1bbd 79a7 383d
00000250: adcc dfbc 7145 733d
0.0071285604 0.031846736 -0.034938954 -0.006180296 -0.039213665 -0.039721034 -0.0013070845 -0.037613757
0.05585332 0.014785019 0.0011892552 -0.050647914 -0.015944997 -0.019145563 0.04236731 -0.0329044
-0.0418685 0.054566287 -0.016684825 0.06381634 -0.036077715 -0.027017653 0.045563705 0.021824375
-0.016846742 -5.44367e-05 0.05154162 -0.01718884 0.027977334 0.017821882 -0.00572086 0.033045005
0.04695383 0.043349065 -0.0041561984 0.010563495 0.039373364 -0.018623339 0.0031243595 0.009077666
0.05680058 -0.021495877 -0.037203263 0.01522754 -0.028532723 -0.004254742 0.006834039 -0.027027484
-0.06112477 -0.034564685 -0.00095673517 -0.008166928 -0.01756874 -0.04057447 -0.007888618 0.01771309
0.03588763 -0.03694918 0.0014367545 0.054432757 -0.010086912 -4.906955e-39 0.013064818 0.054509018
-0.0005403447 -0.04467225 -0.020819465 0.047198217 0.02911885 -0.037071258 -0.0072586644 0.049401004
-0.0036457595 0.049724627 0.056719348 -0.019096788 0.062481098 0.025012782 -0.030298492 0.00090155663
-0.00081195915 -0.03143014 -0.031665754 -0.004688491 -0.04210145 0.05564423 0.046298575 0.055623032
-0.018156681 -0.0022301762 0.08035844 0.030606793 0.061735485 0.046929877 0.033083647 -0.016302714
-0.0026855902 -0.03377265 -0.020459281 0.031245654 0.042238425 9.902961e-33 -0.0037474458 0.04517878
0.0508355 0.025839493 0.05762929 -0.012968422 0.061705645 -0.022461938 -0.014292373 -0.010895353
-0.0066367174 0.0098933345 -0.0017374597 -0.017150812 0.011742597 0.04557714 0.013995927 -0.0042988905
0.009112097 0.029546594 -0.025433738 -0.035041034 0.0043762564 0.056436673 0.04039531 -0.033372182
0.018806947 0.08110564 0.055356372 0.0152387265 -0.04815251 -0.08963466 -0.007999145 0.0062919417
0.019451544 0.005141862 0.030577982 0.03488937 0.0155870365 0.030354695 0.016893707 0.06288945
0.016311428 0.046801534 -0.037986998 0.04508159 -0.027319277 0.059392396
