models/mpnn_A139_B23_E300_L2/57.pt (torch, 742651 bytes, 9 tensors)

atom_lin.weight f4 [300, 139]
0	0x3e0e10b1	0.13873555
1	0x3e1c9f98	0.15295255
2	0x8317148c	-4.43985e-37
3	0xa0c206c3	-3.2869353e-19
4	0x1ac3ab85	8.0927214e-23
5	0xa8c981fe	-2.2371858e-14
6	0x3d325dfc	0.04354666
7	0x3da19361	0.078894384
8	0x3e4523af	0.19251893
9	0x3d17af53	0.037032437
10	0x206fed96	2.0322698e-19
11	0x14e80e4d	2.3431654e-26
12	0x3eb494ff	0.35269925
13	0x12bab6c0	1.1783302e-27
14	0x9da3128e	-4.3164926e-21
15	0x3e050acc	0.129924
16	0xbe5c1fa6	-0.21496448
17	0xbe68134f	-0.22663616
18	0x09fba83e	6.0584266e-33
19	0x9aed9e60	-9.827677e-23
20	0x266bb348	8.1774975e-16
21	0x1fccfd33	8.6816244e-20
22	0x80356fb0	-4.907347e-39
23	0x22baa80b	5.0593323e-18
24	0x1f71c76f	5.1198703e-20
25	0xbe3df070	-0.18548751
26	0x3c1a7a4e	0.009428574
27	0xbe6ce71a	-0.23135033
28	0x98077c01	-1.7510947e-24
29	0x8daff1c2	-1.0843409e-30
30	0x2a1b40eb	1.3789288e-13
31	0x261df980	5.4808453e-16
32	0x09852896	3.2056752e-33
33	0xa832afbc	-9.919091e-15
34	0x20ba6faa	3.158352e-19
35	0xbd37b374	-0.044848874
36	0xa94c4feb	-4.5366417e-14
37	0x27ad0c6f	4.8030626e-15
38	0x00357f22	4.912888e-39
39	0x80357fff	-4.913198e-39
40	0x80357a5c	-4.911176e-39
41	0x00273571	3.600756e-39
42	0x2238d798	2.5050784e-18
43	0xa499fa12	-6.677681e-17
44	0x27821df6	3.611473e-15
45	0x287be198	1.3982217e-14
46	0x216db37c	8.053627e-19
47	0xa9c4d1fc	-8.740575e-14
48	0x0c22842d	1.2519801e-31
49	0x82a9a011	-2.4924192e-37
50	0x290e5237	3.1601644e-14
51	0x80de747b	-2.0429265e-38
52	0xa4a1a3b2	-7.009993e-17
53	0xbdca3930	-0.09874189
54	0x2510f91a	1.2574408e-16
55	0x80357223	-4.908226e-39
56	0x8035850a	-4.915007e-39
57	0xa21d5d4d	-2.132686e-18
58	0x0e488a59	2.4718515e-30
59	0x1ee86a87	2.4608014e-20
60	0x9173f82b	-1.9245793e-28
61	0xa94b47c0	-4.5137288e-14
62	0x0bb17be5	6.8364336e-32
63	0xa2b25abe	-4.8343074e-18
64	0x8dc096f7	-1.1869257e-30
65	0x003585cf	4.915283e-39
66	0x2820d0a7	8.9270285e-15
67	0x22ccaf85	5.548015e-18
68	0x026f49b7	1.7580102e-37
69	0x9ac3cd99	-8.098227e-23
70	0x802c5057	-4.069582e-39
71	0x1765eec4	7.4295255e-25
72	0x97d703a7	-1.3894971e-24
73	0x295a27cb	4.844024e-14
74	0x18419184	2.5018132e-24
75	0x1b8beddd	2.3149337e-22
76	0x802c62b6	-4.076173e-39
77	0xaa19fb8f	-1.3676407e-13
78	0x22aa62d1	4.618322e-18
79	0x9c2036ff	-5.301064e-22
80	0x80358db2	-4.918112e-39
81	0x23509e37	1.1309206e-17
82	0x9244e954	-6.2134294e-28
83	0x80357a44	-4.911142e-39
84	0xa9551c2f	-4.7319946e-14
85	0xa70ff53e	-1.9978183e-15
86	0x00358959	4.916552e-39
87	0x8e5baae6	-2.7076119e-30
88	0x0b913297	5.592809e-32
89	0xa909b600	-3.057797e-14
90	0x9ee31691	-2.4043893e-20
91	0x8fc91c05	-1.9830923e-29
92	0x29d2e20a	9.365085e-14
93	0x188e185c	3.6730736e-24
94	0x93cceb17	-5.1728656e-27
95	0xa3780fc3	-1.3447445e-17
96	0x921c94e2	-4.9408433e-28
97	0xa3243fc2	-8.903959e-18
98	0xa2170639	-2.046761e-18
99	0x106bc37a	4.6496168e-29
100	0x9e44a439	-1.0410114e-20
101	0x26c6794a	1.3771885e-15
102	0x9eb6ddfd	-1.9361812e-20
103	0x8035687b	-4.904762e-39
104	0x261ecd5d	5.509558e-16
105	0x1fb2f203	7.578631e-20
106	0x1c8f9472	9.501318e-22
107	0x888f4bd9	-8.624331e-34
108	0x12db5457	1.3841634e-27
109	0x8035758f	-4.909453e-39
110	0x954c52dd	-4.126284e-26
111	0x09098b7e	1.6556364e-33
112	0x1821e4d3	2.0924289e-24
113	0x13509127	2.6324857e-27
114	0x0592fcc3	1.3822624e-35
115	0x803586b3	-4.915602e-39
116	0xaa126f31	-1.3005982e-13
117	0x26a1e632	1.1234014e-15
118	0x0035842e	4.914698e-39
119	0x3e06bf3c	0.13158888
120	0xbbeec13e	-0.00728622
121	0x3dbc1f6e	0.09185682
122	0x3e0fda55	0.14048131
123	0x3d9c1420	0.07621026
124	0x24b35958	7.778023e-17
125	0xbcfeff25	-0.031127522
126	0x9c116aca	-4.8114497e-22
127	0x0dd5c79a	1.3175191e-30
128	0x3e0f5c3c	0.14000028
129	0x3d7a6711	0.061133448
130	0x3dd37a7b	0.10326096
131	0xbdbf89cc	-0.093524545
132	0xbc69336e	-0.014233453
133	0xbe20233e	-0.15638444
134	0xa0e89987	-3.9403925e-19
135	0x8994e0dd	-3.5841164e-33
136	0xa8774123	-1.3725379e-14
137	0x0b810048	4.9689416e-32
138	0x3e99df8f	0.30053374
139	0x3e175229	0.14777435
140	0x3e3b99ec	0.18320435
141	0x00652939	9.290173e-39
142	0x1fc23c54	8.2262e-20
143	0xa37ea168	-1.3803547e-17
144	0x9c96579b	-9.948813e-22
145	0x3d954000	0.07287598
146	0x3e034fa7	0.12823354
147	0xbd226342	-0.03964544
148	0xbd1cdf6d	-0.038299013
149	0x23216d42	8.750964e-18
150	0x138a1468	3.485622e-27
151	0x3e8a527a	0.2701605
152	0x0949db7f	2.4297701e-33
153	0xa71ab4b2	-2.1469748e-15
154	0x3e4673f1	0.19380166
155	0xbdca98f5	-0.098924555
156	0xbe3ca489	-0.1842214
157	0xa056a8cf	-1.8182359e-19
158	0x981ee836	-2.0538258e-24
159	0x9f4e51c2	-4.3689825e-20
160	0x80358d67	-4.918007e-39
161	0xa5e72af5	-4.010122e-16
162	0x98adaf63	-4.4896547e-24
163	0x199d06f2	1.6236225e-23
164	0x3bf4de12	0.007472762
165	0x3c635f25	0.013877665
166	0xbe150740	-0.14553547
167	0x8002bad3	-2.50691e-40
168	0x28142763	8.224191e-15
169	0x8e52e2ff	-2.5993793e-30
170	0x80358b60	-4.91728e-39
171	0x8c8a65b9	-2.1323489e-31
172	0x17ddea4a	1.4340933e-24
173	0x1b020bf7	1.0757214e-22
174	0x3dd83dca	0.1055866
175	0x0930ce91	2.1282356e-33
176	0x803586f7	-4.915698e-39
177	0x279f01fc	4.4133517e-15
178	0x12f8019c	1.5651397e-27
179	0x27de125e	6.163729e-15
180	0x8ac06ba2	-1.8529414e-32
181	0x8b81fafe	-5.0066644e-32
182	0x0c76fc9a	1.9027165e-31
183	0x8bcb1d5a	-7.823692e-32
184	0x00358e6b	4.918371e-39
185	0x210ac0bb	4.7011295e-19
186	0xa570e839	-2.0895362e-16
187	0xa857467b	-1.19501805e-14
188	0x02e80b0d	3.409568e-37
189	0xa85b9195	-1.218851e-14
190	0x25d10f31	3.6266015e-16
191	0x1e445ff6	1.0395998e-20
192	0x3d9ec6ab	0.07752737
193	0x128cd269	8.887112e-28
194	0x9bb24e1a	-2.9498102e-22
195	0xaa47d0da	-1.774721e-13
196	0x961e522f	-1.2789071e-25
197	0x80357a33	-4.911118e-39
198	0x0a48ab54	9.661873e-33
199	0x99f2519d	-2.5055177e-23
200	0x0ab41983	1.7342966e-32
201	0xa0ff8f32	-4.329344e-19
202	0xa006ce88	-1.1418577e-19
203	0x8a4a1c34	-9.731251e-33
204	0x14fe93bc	2.5705717e-26
205	0x204f3c49	1.7553529e-19
206	0x1da675c5	4.4061605e-21
207	0xa0992b20	-2.5947746e-19
208	0xa3a204e6	-1.756615e-17
209	0xa33ecd39	-1.0343378e-17
210	0x28b4f740	2.0091242e-14
211	0x916751c1	-1.8247879e-28
212	0x280f1279	7.9421e-15
213	0x8df110c6	-1.485681e-30
214	0x0ba1d284	6.233169e-32
215	0x1bdc7446	3.6471087e-22
216	0x99692531	-1.20533284e-23
217	0x8300f307	-3.78948e-37
218	0x8e527396	-2.5940151e-30
219	0x20ff6996	4.326855e-19
220	0x101b8f95	3.0678972e-29
221	0x28a2d0e0	1.8076198e-14
222	0xa95e3f6c	-4.9348912e-14
223	0xa7a331ab	-4.529544e-15
224	0x8ef342c5	-5.996842e-30
225	0x289bbc43	1.7290102e-14
226	0x003d8b9b	5.652046e-39
227	0x953fdc34	-3.8745852e-26
228	0x20e83ea8	3.934379e-19
229	0x16cce6cd	3.3103633e-25
230	0x15ce0c31	8.322197e-26
231	0x92e39409	-1.4362208e-27
232	0x00358300	4.914275e-39
233	0x1174e4b1	1.9318677e-28
234	0x22803f52	3.4761513e-18
235	0x8007911b	-6.94903e-40
236	0xa0a52a38	-2.7980025e-19
237	0xa8fe9309	-2.8263431e-14
238	0x18c79ce1	5.15987e-24
239	0x919c8a1b	-2.4697574e-28
240	0x18cbaeb2	5.2650667e-24
241	0x28942868	1.6448824e-14
242	0x26b73902	1.2713628e-15
243	0xa3854d17	-1.4452538e-17
244	0xaa3e678e	-1.6911318e-13
245	0x109e0bca	6.2338175e-29
246	0x9c17434a	-5.004868e-22
247	0x95d5dea2	-8.638127e-26
248	0x998ffafd	-1.4887227e-23
249	0xa77b148a	-3.4844382e-15
250	0x0029f829	3.854278e-39
251	0x2874832a	1.35731626e-14
252	0x801c3e31	-2.593704e-39
253	0x293fa3e6	4.255268e-14
254	0x0ad9bb52	2.0966802e-32
255	0x266ac286	8.1448687e-16

atom_lin.bias f4 [300]
0	0x3db0c518	0.08631343
1	0x3d313442	0.043262728
2	0xbc9ec396	-0.019380372
3	0x3d712c60	0.05888021
4	0x3d978ad1	0.07399524
5	0x3b7b87c1	0.0038380476
6	0x3c0cdfaa	0.008598248
7	0x3e0c7cad	0.13719435
8	0xbcdfa48e	-0.027300145
9	0xbbcb1bb9	-0.006198373
10	0xbd89df65	-0.06732062
11	0x3dbfc7f2	0.093643084
12	0x3d3d6fe9	0.046249304
13	0xbd8b9f51	-0.068174966
14	0x3c90c93c	0.017674081
15	0x3c3146c2	0.010820093
16	0x3db128a1	0.086503275
17	0xbccd0ae7	-0.025029613
18	0x3d99bfbf	0.07507276
19	0x3d21a637	0.039465155
20	0x3dd0f438	0.10202831
21	0xbce82b12	-0.02834085
22	0xbcd1e3b0	-0.025621265
23	0x3c9e4b7a	0.0193231
24	0x3dc559de	0.096362814
25	0xbd8eab2a	-0.06966241
26	0x3dd3760e	0.103252515
27	0x3d45db76	0.048304997
28	0xbdde6f49	-0.1086107
29	0x3d25cb16	0.04047688
30	0x3c0db18c	0.0086482875
31	0x3d09131a	0.033465482
32	0x3d8643f1	0.065559275
33	0x3df10ec8	0.117703974
34	0x3dc78489	0.09742076
35	0x3ddd3637	0.10801356
36	0x3dbd2f3c	0.09237525
37	0x3d84a188	0.06476122
38	0xbd49a3f9	-0.049228642
39	0x3b9392c0	0.004503578
40	0xbb33ebfd	-0.0027453892
41	0xbd2b6438	-0.041843623
42	0x3e28083d	0.16409393
43	0xbc241b17	-0.010016224
44	0xbc27841d	-0.010224369
45	0xbd1f3025	-0.038864274
46	0xbc19893f	-0.009371101
47	0x3d586a43	0.052835714
48	0x3b9c7e13	0.0047757714
49	0x3d33a2c1	0.043856386
50	0x3d6f1038	0.058365077
51	0x3de341e6	0.110965535
52	0xbccef64a	-0.025263924
53	0x3d218d43	0.03944136
54	0x3c4c6424	0.012475047
55	0x3cbefc9a	0.02331381
56	0x3d4c5986	0.049890064
57	0x3d87640c	0.06610879
58	0xbcc23f48	-0.023711815
59	0xbc2595ef	-0.010106548
60	0x3af62ef9	0.001878231
61	0xbc95f995	-0.018307487
62	0x3d9a78c8	0.075425684
63	0x3d18dbb3	0.037318897
64	0x3d211541	0.03932691
65	0x3df5bba2	0.11998679
66	0x3cf16cbd	0.029470796
67	0x3cc5d53d	0.024149531
68	0x3dcf15fa	0.101116136
69	0xbbef7177	-0.0073072272
70	0x3dcb440e	0.0992509
71	0xbbab87fb	-0.005234716
72	0x3da7636b	0.08173259
73	0x3dbc0ffc	0.09182736
74	0xbdfdd130	-0.12393415
75	0x3d9be87d	0.07612703
76	0x3d929211	0.07156766
77	0x3c30039e	0.01074305
78	0xbb25f806	-0.0025324835
79	0x3db05fa8	0.08611995
80	0xbdd5dc91	-0.1044246
81	0xbdda4e2a	-0.1065944
82	0x3dfba66c	0.12287602
83	0x3d317bc7	0.043330934
84	0xbd583da4	-0.05279316
85	0x3d922a03	0.07136919
86	0xbb52bd65	-0.0032156345
87	0x3c3208e6	0.010866379
88	0xbd856b10	-0.06514561
89	0xbcfa9afe	-0.030591484
90	0x3cef55da	0.029215742
91	0x3b1b9d82	0.0023745005
92	0xbdbd66ad	-0.092480995
93	0x3d62d1be	0.055375807
94	0xbb7ff3e6	-0.0039055287
95	0x3d37ba2b	0.044855278
96	0xbd4ac8be	-0.04950785
97	0x3d818948	0.063250124
98	0xbc927d22	-0.017881934
99	0x3cdc3607	0.026881231
100	0xbcdd4107	-0.027008547
101	0xbcbe582a	-0.0232354
102	0x3dbeebe7	0.093223386
103	0xbcf83638	-0.030299291
104	0x3d33a36c	0.043857023
105	0xbda7ee50	-0.081997514
106	0x3cdacd90	0.026709348
107	0xbd8ccc10	-0.06874859
108	0x3c80ed45	0.015738139
109	0x3d83de4d	0.06438885
110	0xbc5b5451	-0.013386802
111	0xbdf314d9	-0.11869211
112	0x3d664098	0.056213945
113	0xbcbc9efc	-0.023025028
114	0xbd1c1fd1	-0.03811628
115	0x3c0320de	0.008003442
116	0x3d18344c	0.03715925
117	0xbc2b79e2	-0.010466071
118	0x3da93c49	0.082634516
119	0x3dab2666	0.08356933
120	0x3d2cdf60	0.042205215
121	0xbdc63244	-0.09677556
122	0xbb825f3a	-0.003978637
123	0x3d97fb8d	0.074210264
124	0x3d81a8e2	0.0633104
125	0xbd44cade	-0.04804503
126	0xbcf32428	-0.029680327
127	0xbd87a5ea	-0.066234425
128	0x3d660d03	0.056164753
129	0x3dcd2e43	0.10018589
130	0x3d72ae2f	0.059248146
131	0xbc602d28	-0.013682641
132	0x3de4f98a	0.11180408
133	0x3ccd272b	0.02504309
134	0x3c031e47	0.008002824
135	0xbbe0c0e1	-0.0068589305
136	0x3d5d3123	0.05400194
137	0xbd132987	-0.035928275
138	0xbc91c87d	-0.017795796
139	0xbc9a9c75	-0.018873433
140	0x3c2dbf81	0.01060474
141	0xbca772f2	-0.020440552
142	0x3d8fc7bc	0.07020518
143	0x3db5b67c	0.08872697
144	0xbd2857ed	-0.041099478
145	0xbcadf387	-0.021234287
146	0xbd36fd94	-0.044675425
147	0x3d65e088	0.056122333
148	0x3cdd4620	0.027010977
149	0x3c869d30	0.016432375
150	0x3da755ff	0.08170699
151	0x3ddd1195	0.10794369
152	0xbd9c8136	-0.076418325
153	0x3dc02d83	0.09383681
154	0x3bcf9766	0.006335187
155	0x3cb7b7c7	0.022426499
156	0x3d8e06a7	0.069348626
157	0x3db29f24	0.0872176
158	0x3d9b21ab	0.07574781
159	0x3d096b8f	0.03354984
160	0xbd8d6a21	-0.06905008
161	0xbdae01c0	-0.084964275
162	0x3d25f7a6	0.04051938
163	0x3ccd92e3	0.025094455
164	0xbb64e239	-0.0034924878
165	0xbd1c0b18	-0.038096517
166	0xbd0b22f9	-0.0339689
167	0x3d7f6924	0.06235613
168	0x3dfa861d	0.12232611
169	0xbd12ae45	-0.035810728
170	0xbcc874aa	-0.024469692
171	0xbd62db0a	-0.055384673
172	0xbcdb629f	-0.026780425
173	0xbbea6e1d	-0.00715424
174	0x3cb2a4e5	0.021807143
175	0x3d8354bd	0.06412647
176	0x3db85766	0.09001045
177	0x3d339dbf	0.04385161
178	0x3d0eb32d	0.034838844
179	0x3dbf3336	0.093359396
180	0xbc92e536	-0.017931562
181	0x3c541d58	0.012946449
182	0x3cb10285	0.021607647
183	0x3be360e6	0.0069390414
184	0xbaac71d6	-0.0013156484
185	0x3d7f01d9	0.06225762
186	0x3dfcb137	0.123384885
187	0xbc867136	-0.016411405
188	0x3c0d50ad	0.008625192
189	0xbd85bcf1	-0.06530178
190	0x3de32e07	0.110927634
191	0x3c66c688	0.0140854195
192	0xb8f0c9ac	-0.00011481656
193	0xbc799f7e	-0.01523578
194	0x3d533338	0.051562518
195	0x3c992895	0.018696109
196	0xbb9eeed1	-0.0048502465
197	0xbc8490e3	-0.016182369
198	0xbd16a554	-0.036778763
199	0x3d94b11d	0.07260344
200	0xbcdfe109	-0.027328985
201	0xbda47ecc	-0.08031997
202	0x3e013aa3	0.12620024
203	0x3ddded86	0.108363196
204	0xbd574493	-0.05255563
205	0xbcb5a4cb	-0.022173306
206	0xbd08f180	-0.033433437
207	0x3c106bea	0.008814791
208	0x3b81b697	0.003958534
209	0xbae89a3a	-0.0017746158
210	0xbda8ecc6	-0.08248286
211	0xbdbae3c3	-0.09125473
212	0x3dd7375f	0.10508608
213	0x3cb93281	0.02260709
214	0x3d3725f6	0.044713937
215	0x3d81138b	0.06302556
216	0xbc9a8474	-0.018861987
217	0xbd95579c	-0.07292101
218	0x3da9febe	0.08300541
219	0x3c25b5c2	0.010114135
220	0xbd382794	-0.04495962
221	0xbc7f113c	-0.015568074
222	0x3d0cf045	0.034408826
223	0x3de54914	0.11195579
224	0x3d869611	0.06571592
225	0x3da9e409	0.082954474
226	0x3d59aa6f	0.053141054
227	0xbcdfdff8	-0.027328476
228	0xbbe3c92c	-0.006951472
229	0xbc9ac8f7	-0.018894656
230	0xbd8820f2	-0.06646909
231	0x3bbcc855	0.005761186
232	0x3db12f1d	0.08651564
233	0x3db53a81	0.08849049
234	0x3e076d03	0.13225178
235	0x3dbd69ed	0.09248719
236	0xbd311c7f	-0.043240067
237	0x3cc752d7	0.024331493
238	0x3ca5a935	0.020222286
239	0x3d6fe74c	0.05857019
240	0x3c96173d	0.018321628
241	0x3de559e8	0.11198789
242	0x3d1cd8f1	0.03829283
243	0xbcf2bb3b	-0.029630294
244	0xbc924032	-0.017852876
245	0xbcc4fed1	-0.024047287
246	0x3da6f778	0.0815267
247	0xbca75445	-0.020425925
248	0xbcecb4b6	-0.028894763
249	0x3d9ad6bd	0.07560489
250	0x3dd37884	0.10325721
251	0xbcda0d58	-0.02661769
252	0xbd14eafa	-0.036356904
253	0xbc84c26f	-0.016205994
254	0x3df0753b	0.1174111
255	0x3c90579b	0.017619899

bond_lin.weight f4 [300, 23]
0	0xab750ecb	-8.7062014e-13
1	0x3cf440c1	0.029816033
2	0x3e99f11f	0.30066773
3	0x3ee21f24	0.44164383
4	0xac0eb4fe	-2.0279885e-12
5	0x33ab6541	7.981226e-08
6	0x0035728f	4.908377e-39
7	0x33452e75	4.590989e-08
8	0x3744de87	1.1734322e-05
9	0x28bd9feb	2.1052569e-14
10	0x9099847c	-6.0551984e-29
11	0xb2874642	-1.5748018e-08
12	0x3f00a742	0.50255215
13	0xb35d89f5	-5.1581043e-08
14	0xa7243ad0	-2.2791454e-15
15	0xb7d66e0b	-2.556203e-05
16	0x12119282	4.5934517e-28
17	0x95a23071	-6.5507706e-26
18	0xb606ffda	-2.0116481e-06
19	0xb737c4f1	-1.0953504e-05
20	0x17eb212e	1.5194895e-24
21	0x1a5b2e1a	4.532538e-23
22	0xba979ca9	-0.0011567074
23	0x18f64117	6.3655234e-24
24	0x3e759feb	0.23986785
25	0x3cccff26	0.025024008
26	0x3e102efc	0.14080423
27	0x35e72975	1.7222907e-06
28	0x22371e78	2.4817255e-18
29	0x3a411a49	0.00073662825
30	0xb142b4f0	-2.8333567e-09
31	0xa728bb54	-2.3416234e-15
32	0x33d9dd8f	1.0145151e-07
33	0x38d334a6	0.000100710706
34	0x8a64da19	-1.101882e-32
35	0x3c285c1d	0.010275868
36	0xb11cbdcc	-2.2808875e-09
37	0x923a3fba	-5.87698e-28
38	0xb7dc88d1	-2.6289754e-05
39	0x00357707	4.90998e-39
40	0xa4075d9f	-2.935276e-17
41	0xb7b4cd2d	-2.1553215e-05
42	0x10a264db	6.4053126e-29
43	0xae7357e8	-5.532988e-11
44	0xab6f35d4	-8.498456e-13
45	0xb678f6cd	-3.7098537e-06
46	0x267fb52c	8.871643e-16
47	0x3cf61933	0.030041313
48	0x3d7a86a1	0.06116355
49	0x3e1730f3	0.14764766
50	0x06071070	2.5402754e-35
51	0x1b3e6c4b	1.5751423e-22
52	0x3a451dad	0.00075193756
53	0x0e2b899c	2.1143634e-30
54	0x35997581	1.1433586e-06
55	0xb34fb261	-4.8358178e-08
56	0xba35f8c6	-0.0006941672
57	0x0732f640	1.3463598e-34
58	0x3b6ebfaf	0.003643017
59	0x38116b83	3.4670822e-05
60	0x3422e82e	1.5171892e-07
61	0x35d9cd12	1.6227443e-06
62	0x362d53b7	2.5827737e-06
63	0xba91f807	-0.001113654
64	0xb66b65df	-3.5077026e-06
65	0xa5944661	-2.5721598e-16
66	0x80357c12	-4.91179e-39
67	0x3608f2a4	2.0406815e-06
68	0xab8c5409	-9.970923e-13
69	0xb0c7a74b	-1.4526703e-09
70	0x3ed7d5e5	0.42155376
71	0xbe3e01c9	-0.18555368
72	0x3e730c53	0.2373517
73	0x252e9396	1.5142098e-16
74	0xb86a99ee	-5.5933306e-05
75	0x37ee4f2a	2.8408675e-05
76	0x80358980	-4.916607e-39
77	0xaed9fa63	-9.912495e-11
78	0x3a5d7350	0.0008447664
79	0x1f86b227	5.7045936e-20
80	0x9792ebf4	-9.494592e-25
81	0xbf0b2572	-0.5435401
82	0xb22b6b16	-9.9778585e-09
83	0xb3bac83c	-8.6977224e-08
84	0x2bf1ba62	1.7175812e-12
85	0x2da9e43b	1.931443e-11
86	0xaed60797	-9.7329415e-11
87	0xb481dd0f	-2.4188964e-07
88	0x803574e8	-4.90922e-39
89	0xa0d096c8	-3.533635e-19
90	0x00283307	3.691725e-39
91	0x2cf5b965	6.9839017e-12
92	0xb5069639	-5.013749e-07
93	0x3eb8eb00	0.3611679
94	0xbddbe156	-0.10736339
95	0x3e87cab6	0.26521844
96	0xa231b421	-2.4083333e-18
97	0xb2e44647	-2.6574652e-08
98	0xae867c14	-6.115655e-11
99	0xb56ef4bb	-8.901804e-07
100	0xab669c4c	-8.192932e-13
101	0xb593a487	-1.1000237e-06
102	0xa254a7d4	-2.8820205e-18
103	0x2215a4eb	2.0280572e-18
104	0xbe894ece	-0.26817936
105	0x9314647b	-1.8729767e-27
106	0xa6e678bd	-1.5992182e-15
107	0x25bca302	3.272326e-16
108	0xb25ea41e	-1.2959417e-08
109	0x80356e7d	-4.906917e-39
110	0x20077c9f	1.1476178e-19
111	0x2ab808ce	3.2691075e-13
112	0xb91865e2	-0.00014533804
113	0x2987a7fa	6.0243436e-14
114	0x2e0ed733	3.2478197e-11
115	0x3a3d38b0	0.0007218225
116	0xbed6e1a2	-0.4196902
117	0xbe0b5c23	-0.13609366
118	0x3f04ee7d	0.51926404
119	0x39647d2c	0.00021790405
120	0x1c20da5d	5.3221787e-22
121	0x29b9d183	8.251995e-14
122	0x310e0603	2.0667137e-09
123	0x319eb701	4.6192103e-09
124	0x00358a2e	4.916851e-39
125	0x9741674e	-6.249205e-25
126	0xb554fe95	-7.934662e-07
127	0xbe371a6d	-0.17881174
128	0x35062cac	4.9983896e-07
129	0x3321a9df	3.764023e-08
130	0x3495cc7d	2.7902198e-07
131	0xb2814fd7	-1.5053883e-08
132	0xb5073533	-5.0368834e-07
133	0xb9e8d58f	-0.00044409602
134	0xab3782f3	-6.519639e-13
135	0x971d720c	-5.0873383e-25
136	0x20055138	1.1292411e-19
137	0x370497df	7.903173e-06
138	0xab0419aa	-4.6931437e-13
139	0x3bf06324	0.0073360372
140	0x3f23375d	0.6375635
141	0x3e515109	0.20441069
142	0xa3e64f75	-2.4970301e-17
143	0xb119fb9d	-2.2407456e-09
144	0x27161e0e	2.0832974e-15
145	0x36331064	2.668262e-06
146	0x2c9ab0a0	4.3965526e-12
147	0xb5814b6a	-9.633197e-07
148	0xb9222f80	-0.00015467219
149	0x1abb3738	7.74306e-23
150	0xbf054486	-0.52057683
151	0xaf1cdba3	-1.4266148e-10
152	0x8fe0d49d	-2.2170001e-29
153	0xa9503365	-4.6229855e-14
154	0x38aa18dd	8.110863e-05
155	0x2d130ae1	8.358398e-12
156	0xa764557e	-3.1687702e-15
157	0xa15d4509	-7.496908e-19
158	0xab309a35	-6.2741766e-13
159	0xb9ab59b3	-0.00032682493
160	0x019cb131	5.7559607e-38
161	0x0e34b29e	2.2272714e-30
162	0xbdc7c82a	-0.09754975
163	0x3e810890	0.25201845
164	0x3e843417	0.2582099
165	0x38cd2194	9.781416e-05
166	0x00357589	4.909445e-39
167	0xb7e38514	-2.7122478e-05
168	0xb8493c0e	-4.7978065e-05
169	0x3a7bcb0f	0.0009605148
170	0x2ce2f51e	6.45052e-12
171	0x1b4fd129	1.7190222e-22
172	0xae31a9f2	-4.0396082e-11
173	0xbf0bb895	-0.54578525
174	0x2d5b6bc5	1.2472638e-11
175	0xab7a0553	-8.882523e-13
176	0x37301258	1.04946885e-05
177	0x942352ac	-8.245701e-27
178	0x803589a4	-4.916657e-39
179	0xb1380345	-2.6777383e-09
180	0xb3c7f728	-9.311617e-08
181	0xb6122e88	-2.178278e-06
182	0xb5a7ad31	-1.2492875e-06
183	0xba8436f9	-0.0010087184
184	0x313fb449	2.7896638e-09
185	0x3e88a5fd	0.2668914
186	0xbf0740c4	-0.528332
187	0xbe0b1db2	-0.13585547
188	0x1a14235d	3.063425e-23
189	0x38d5a59e	0.0001018748
190	0x38a853ce	8.026474e-05
191	0x2f52cff8	1.9173274e-10
192	0xb523394f	-6.0805627e-07
193	0x214d9fbb	6.9668103e-19
194	0x2f2c2332	1.5655813e-10
195	0x800b8669	-1.058408e-39
196	0xbed52443	-0.41629228
197	0xb83b7845	-4.4696284e-05
198	0xb9ee4d8a	-0.0004545267
199	0x2c142a33	2.105549e-12
200	0x396129c8	0.00021473237
201	0x10967894	5.935035e-29
202	0xac3e818d	-2.707254e-12
203	0x33e6b201	1.0742588e-07
204	0x1aadc9c2	7.187708e-23
205	0xba20dc28	-0.00061363215
206	0x10d5230c	8.4067685e-29
207	0x32865203	1.5636948e-08
208	0xbc8868ff	-0.016651629
209	0xbd4423ef	-0.04788583
210	0xbe6d96d8	-0.23202074
211	0x3597bfab	1.1306159e-06
212	0xb9c38233	-0.00037290304
213	0x278b0ac4	3.8591922e-15
214	0xb944768f	-0.00018736183
215	0x9caa858d	-1.1284178e-21
216	0xb839b720	-4.4277986e-05
217	0x361a1a31	2.2963034e-06
218	0xba53f54b	-0.0008085563
219	0x3f0b12ec	0.5432575
220	0xad6a766c	-1.3327655e-11
221	0xba46d4c2	-0.0007584804
222	0xb4946ad7	-2.7644884e-07
223	0x0003586a	3.07223e-40
224	0xaf0b3d57	-1.2663769e-10
225	0xb6abec24	-5.1236875e-06
226	0xacffd429	-7.2710904e-12
227	0x2c926ff5	4.1619993e-12
228	0xad910fd8	-1.6491628e-11
229	0x0d101140	4.439419e-31
230	0x34684452	2.1631539e-07
231	0xbed57dd7	-0.4169757
232	0xbe8fd7a6	-0.28094214
233	0xbe39b6a6	-0.18136081
234	0xa438f219	-4.0103705e-17
235	0x9e55dca0	-1.132175e-20
236	0x81b0defa	-6.4972145e-38
237	0xb45ae10d	-2.0384705e-07
238	0x3a52539e	0.0008023324
239	0xb34052cf	-4.4778798e-08
240	0x0db6926f	1.1251869e-30
241	0x102ffd28	3.470769e-29
242	0x3cbb2311	0.02284387
243	0x954609cf	-3.999352e-26
244	0x36de6b98	6.628641e-06
245	0x1fd8d11e	9.1825514e-20
246	0x32387154	1.0735977e-08
247	0xb16e30f4	-3.4661385e-09
248	0xb84cc469	-4.882031e-05
249	0xba840ca9	-0.0010074574
250	0xb9daf854	-0.0004176522
251	0xb84e462a	-4.9179573e-05
252	0x377ae404	1.495425e-05
253	0xa835ef80	-1.0099452e-14
254	0x3ed1f0e5	0.410041
255	0xbce23ddb	-0.027617386

bond_lin.bias f4 [300]
0	0x3dbf6410	0.09345257
1	0xbd5dff4b	-0.054198544
2	0xbe40d143	-0.18829827
3	0xbd947d0c	-0.07250413
4	0x3ce5c1cc	0.028046511
5	0xbc92ce0e	-0.01792052
6	0x3db9dbbe	0.090751156
7	0x3e24a0ad	0.16076918
8	0x3e23ff79	0.16015424
9	0x3de11647	0.10990577
10	0x3d03073f	0.031989332
11	0x3e58af38	0.2116059
12	0xbd26cc94	-0.040722445
13	0x3cb4e585	0.0220821
14	0xbdb15fb2	-0.086608306
15	0x3e2a6f90	0.1664412
16	0x3e150159	0.14551295
17	0xbe20bb98	-0.15696561
18	0x3deed252	0.11661209
19	0xbd8e2b7d	-0.069418885
20	0x3d5d19e8	0.053979784
21	0xbe693c63	-0.22776942
22	0xbe0602c1	-0.13086988
23	0xbe554624	-0.20827538
24	0xbd82badb	-0.06383296
25	0x3c51be52	0.012801724
26	0x3d9ff984	0.07811263
27	0xbce700a5	-0.02819855
28	0x3d482b69	0.048869524
29	0x3d6b58b2	0.057457633
30	0x3db04da8	0.08608562
31	0xbdfd7c8b	-0.1237727
32	0xbe6d9033	-0.23199539
33	0x3d96e3ad	0.073676445
34	0x3dfb6c50	0.12276518
35	0x3d933cc3	0.07189324
36	0x3d44f46c	0.04808466
37	0xbe0e9c5e	-0.13926837
38	0xbe08051e	-0.13283202
39	0xbdd7b601	-0.10532761
40	0xbe6cd23b	-0.23127072
41	0xbe49235e	-0.19642398
42	0xbe927839	-0.28607348
43	0x3e3fa403	0.1871491
44	0x3e094001	0.13403322
45	0x3d49a1da	0.04922662
46	0xba9d9890	-0.0012023617
47	0xbdfeba3f	-0.124378674
48	0x3e109a37	0.14121328
49	0xbd34aed4	-0.04411204
50	0x3d21bca7	0.039486554
51	0x3e07a378	0.13245952
52	0xbe03a8b6	-0.12857327
53	0xbe5f9bd8	-0.21836793
54	0xbd66b35b	-0.05632339
55	0x3e5d99d3	0.2164071
56	0x3d9e8c26	0.07741575
57	0x3e6be360	0.23035955
58	0x3e24f054	0.16107303
59	0x3d28fc44	0.041256204
60	0x3db5d992	0.08879389
61	0x3e308445	0.17237957
62	0xbe38f5b5	-0.1806248
63	0xbce08730	-0.027408212
64	0xbe40c2a2	-0.18824247
65	0xbe1b5795	-0.15170129
66	0xbe838237	-0.25685284
67	0xbe486b80	-0.19572258
68	0xbdf7c8c1	-0.12098838
69	0x3e489df9	0.19591512
70	0x3d2ed6c3	0.04268528
71	0x3e81d8d7	0.25360748
72	0x3e0f57dd	0.13998361
73	0x3a734419	0.00092798617
74	0xbd8f989c	-0.0701153
75	0xbcf8f43f	-0.030389903
76	0x3dd5e44d	0.104439355
77	0x3d55b17f	0.052171227
78	0x3c329edd	0.010902134
79	0x3e226aa0	0.15860987
80	0xbdd48f70	-0.10378921
81	0xbe5ceddc	-0.21575111
82	0x3d902bd2	0.07039608
83	0x3e2ccd23	0.16875128
84	0xbe0dd2f7	-0.13850008
85	0xbe63f5ef	-0.22261785
86	0xbe530250	-0.20606351
87	0x3e446dff	0.19182585
88	0x3ddf63de	0.1090772
89	0xbe293322	-0.16523412
90	0x3a8a66ec	0.0010559238
91	0x3d0a5441	0.033771757
92	0x3e33dff6	0.17565903
93	0xbe15e0ec	-0.14636582
94	0x3b3a4e30	0.002842795
95	0xbd8f0b18	-0.06984538
96	0x3dbab2ea	0.091161564
97	0x3c9b751d	0.018976742
98	0x3e120f1c	0.14263576
99	0x3d74e4c1	0.05978847
100	0x3d6a23ee	0.05716317
101	0x3decbd97	0.11559599
102	0x3c83224f	0.01600757
103	0x3e450057	0.19238411
104	0xbde6c09c	-0.11267206
105	0xbe71fdf3	-0.2363203
106	0xbd469082	-0.048477657
107	0xbde0ba92	-0.109730855
108	0x3cc6dfa5	0.024276564
109	0xbddc24a5	-0.10749177
110	0x3d5a549b	0.053303342
111	0x3dc15f44	0.094419986
112	0xbe52f43a	-0.20600978
113	0x3e1c21d1	0.15247275
114	0x3dd1c1ce	0.102420434
115	0xbe5ffb87	-0.21873294
116	0x3c8b1970	0.016979903
117	0x39a5fa81	0.00031657892
118	0xbc96aa7d	-0.018391842
119	0x3de8b84d	0.113632776
120	0x3d6b2ddb	0.057416778
121	0xbda2b94e	-0.079455
122	0xbdd74b45	-0.105124034
123	0x3d342e42	0.043989427
124	0xbdf84d6d	-0.12124143
125	0xbe77d4da	-0.2420229
126	0xbe16900e	-0.1470339
127	0xbe178ef9	-0.14800633
128	0xbdc8596b	-0.0978268
129	0xbdbef7b1	-0.09324587
130	0x3db8eef6	0.09029953
131	0xbe049af9	-0.12949742
132	0xbe04be93	-0.12963323
133	0xbe33c005	-0.17553718
134	0x3cdf659e	0.027270135
135	0x3d05cff4	0.032669023
136	0x3e1de610	0.15419793
137	0xbe119a4e	-0.14219019
138	0xbddf3eae	-0.10900627
139	0xbe267417	-0.16255222
140	0xbd8ded3e	-0.06930016
141	0x3e7732fb	0.24140541
142	0xbdae98f7	-0.085252695
143	0x3eb4164e	0.35173267
144	0x3d2a4860	0.04157293
145	0xbe3e7c69	-0.18602146
146	0x3e40ccf3	0.18828182
147	0xbd827862	-0.063706174
148	0x3db27e4c	0.087154955
149	0x3e589c36	0.2115334
150	0x3e39f709	0.18160643
151	0x3d571e47	0.05251911
152	0xbe6a79d7	-0.2289804
153	0xbe18b5ae	-0.14913055
154	0x3e6202e0	0.22071409
155	0xbe0b439d	-0.13600011
156	0x3e4236e7	0.18966256
157	0x3e33ce03	0.17559056
158	0x3c0eaa99	0.008707666
159	0x3e22e5ce	0.15907976
160	0x3e272870	0.1632402
161	0xbdc6d632	-0.09708823
162	0x3dfaa9d3	0.12239423
163	0xbe279559	-0.16365565
164	0x3d92f2c7	0.07175212
165	0x3e8fc86d	0.280826
166	0x3d51e878	0.05124709
167	0xbe04c927	-0.12967359
168	0xbc88315e	-0.016625103
169	0xbd9c89d2	-0.07643475
170	0xbe4010f2	-0.18756464
171	0x3d0c1e40	0.034208536
172	0xbe21f6b5	-0.15816768
173	0x3e4d531b	0.20051233
174	0xbe0388c1	-0.12845136
175	0x3e10ad40	0.1412859
176	0xbdd19416	-0.10233323
177	0xbe5e347a	-0.21699706
178	0xbd4ae781	-0.049537186
179	0xbbd9ce99	-0.006646943
180	0x3e4f1b6e	0.20225307
181	0x3e0ba991	0.13638903
182	0xbe899658	-0.26872516
183	0xbd4012c3	-0.046892893
184	0x3c0141f0	0.007889256
185	0x3dedf0bf	0.11618184
186	0xbc975367	-0.018472387
187	0xbe29d50d	-0.16585179
188	0xbe522a4b	-0.20523946
189	0xbc67393c	-0.014112767
190	0xbe00602c	-0.12536687
191	0xbdd6d9a4	-0.104907304
192	0xbd24afba	-0.04020665
193	0x3cbff856	0.023433845
194	0x3da7cdae	0.08193527
195	0x3cd43c97	0.025907798
196	0xbe601605	-0.218834
197	0xbe8793a0	-0.26479816
198	0x3d52d464	0.051472083
199	0xbdaac959	-0.08339185
200	0x3e4aa54e	0.19789621
201	0xbdf17799	-0.117903896
202	0x3e024c6f	0.1272447
203	0xbd772b80	-0.06034422
204	0xbe03ea47	-0.12882338
205	0x3e2b44ec	0.1672551
206	0xbca4f2c3	-0.020135289
207	0xbb826946	-0.0039798347
208	0xbc0462de	-0.008080212
209	0xbd873d0d	-0.066034414
210	0x3da6ca27	0.08144026
211	0xbda3f726	-0.08006124
212	0xbd6b4bd5	-0.057445366
213	0xbe2be75b	-0.16787474
214	0xbcc5638d	-0.024095321
215	0xbe63a2cc	-0.22230071
216	0x3dd04eef	0.101713054
217	0xbdde968d	-0.10868559
218	0x3bc4f510	0.006010659
219	0x3ea9726f	0.33095118
220	0xbddf4af5	-0.10902969
221	0x3c184431	0.009293602
222	0x3e42835d	0.18995424
223	0xbd2de79c	-0.042457208
224	0x3e0e729e	0.1391091
225	0xbe346a54	-0.17618686
226	0x3d5a5058	0.053299278
227	0x3d1ff496	0.039051615
228	0x3e7aea3b	0.24503414
229	0xbe1a893b	-0.15091412
230	0xbe71fab8	-0.23630798
231	0x3dd946a1	0.106091745
232	0x3e1fc0f2	0.15600947
233	0xbdf4c3e9	-0.119514294
234	0x3b89fbf6	0.0042109443
235	0x3ea966a5	0.33086124
236	0x3d1eb0a8	0.03874269
237	0x3dd0ea09	0.10200889
238	0x3d86f1ff	0.06589126
239	0x3d2c80e0	0.042115092
240	0xbe1846eb	-0.14870803
241	0xbe421aea	-0.1895558
242	0x3e706418	0.23475683
243	0xbe24234c	-0.1602909
244	0x3e0ecd2b	0.13945453
245	0x3bf97928	0.00761332
246	0x3e30aec4	0.17254168
247	0x3d3e8b4c	0.046519563
248	0xbe0ec128	-0.13940871
249	0x3d219b7c	0.039454922
250	0x3e471d2f	0.19444726
251	0x3cc43cdd	0.023954803
252	0xbdbbe0aa	-0.09173711
253	0xbde6c630	-0.1126827
254	0x3e0ae1db	0.1356272
255	0xbd5f174a	-0.05446557

energy_lin.1.weight f4 [300, 300]
0	0xbd822b5d	-0.06355927
1	0xbe05e3f9	-0.13075246
2	0x3d870d59	0.06594343
3	0x3d348f61	0.04408205
4	0xbe101061	-0.14068748
5	0x3e1f85ca	0.1557838
6	0x3eaeb939	0.3412569
7	0xbd5a53f6	-0.053302728
8	0x3eb15210	0.3463292
9	0x3e466632	0.19374922
10	0xbd8de634	-0.069286734
11	0x3d223678	0.039602727
12	0x3d8d020d	0.06885157
13	0x3dec7695	0.11546055
14	0x3d5fa437	0.054599967
15	0x3e045ca8	0.1292597
16	0x3c5908f2	0.013246762
17	0xbe87848f	-0.26468322
18	0x3db8e5d4	0.09028211
19	0x3d7b4365	0.06134357
20	0xbd3f254e	-0.046666436
21	0xbdf7cfb2	-0.121001616
22	0x3d3b0769	0.045661364
23	0x3b435ec4	0.0029811123
24	0x3e01a8fd	0.1266212
25	0x3dda5f62	0.10662724
26	0xbe97a3e6	-0.29617232
27	0xbe493d0a	-0.19652191
28	0x3ddcd8e3	0.10783555
29	0x3dcb713d	0.09933708
30	0x3d81e758	0.063429534
31	0x3e833eb3	0.25633773
32	0x3e30dcb3	0.1727169
33	0xbd603582	-0.05473853
34	0xbd585a6a	-0.0528206
35	0x3c8bb3fa	0.017053593
36	0x3c9df615	0.01928238
37	0x3e75e660	0.24013662
38	0xbd89dfd6	-0.067321464
39	0x3e568ebd	0.20952888
40	0x3e1f3b47	0.15549956
41	0x3e2faa5d	0.17154832
42	0x3ec00daa	0.37510425
43	0xbde7bd0d	-0.113153554
44	0xbd9db929	-0.07701332
45	0x3dd34c99	0.10317344
46	0x3cf18e80	0.029486895
47	0x3d8413a6	0.0644906
48	0x3db23687	0.087018065
49	0x3d9bba6f	0.07603919
50	0xba816265	-0.0009871243
51	0x3d97d36c	0.074133724
52	0x3e5ad0dd	0.21368738
53	0x3e2c0df3	0.16802196
54	0xbe14d9e4	-0.14536244
55	0x3dc2701f	0.09494042
56	0x3deb5b16	0.11491983
57	0xbdd740f6	-0.10510437
58	0x3e4e4ae4	0.20145756
59	0xbc4bd177	-0.012440077
60	0xbe444df9	-0.19170369
61	0xbe1c6371	-0.15272309
62	0x3e1b51bf	0.15167902
63	0x3e5b0a97	0.21390758
64	0x3d1a35ba	0.037648894
65	0x3ea2d520	0.31803226
66	0x3e1eda33	0.15512924
67	0x3e7ce834	0.24697953
68	0xbe752efc	-0.23943704
69	0xbde0dbe5	-0.109794416
70	0xbc17df36	-0.009269526
71	0xbe68b6ab	-0.22725932
72	0xbdad36e5	-0.08457736
73	0xbd7655ab	-0.060140293
74	0x3e64cada	0.22343007
75	0x3ea6caf0	0.32576704
76	0xbc64a7a1	-0.0139559815
77	0xbe7415a7	-0.23836385
78	0xbd989d4d	-0.07451878
79	0x3e02eee8	0.12786448
80	0xbdff6ebf	-0.12472295
81	0xbd98d62f	-0.07462727
82	0xbdc36d4c	-0.09542331
83	0x3e502c35	0.20329364
84	0x3e8c714c	0.2743019
85	0xbe04cc2e	-0.12968513
86	0x3d985e76	0.07439892
87	0xbc21a02f	-0.009864851
88	0x3e9ee9d4	0.31037772
89	0x3dc6abad	0.09700713
90	0xbdf55147	-0.11978393
91	0x3e44140f	0.19148277
92	0xbd8cac87	-0.068688445
93	0x3e27a26c	0.16370553
94	0xbe0546cc	-0.13015288
95	0x3d7871f5	0.060655553
96	0x3e2dee1a	0.1698536
97	0xbd87820b	-0.066166006
98	0x3d25adbd	0.040448893
99	0xbe37df34	-0.17956239
100	0x3d8bac02	0.06819917
101	0xbec929df	-0.39289758
102	0x3e4ce63b	0.20009701
103	0x3dfc1831	0.12309302
104	0x3d92ac86	0.071618125
105	0xbd57b8e1	-0.05266655
106	0x3e07b638	0.13253105
107	0x3e5130f6	0.20428833
108	0xbea1e48b	-0.31619677
109	0x3e7af2c1	0.24506666
110	0xbe070f09	-0.13189329
111	0x3e34822b	0.1762778
112	0x3d76186d	0.060081888
113	0xbe335f00	-0.17516708
114	0xbe875159	-0.2642925
115	0x3e801bb6	0.25021142
116	0x3dfb0f83	0.12258818
117	0x3403f1dc	1.2288314e-07
118	0x3cc1cbd4	0.023656763
119	0x3df85461	0.12125469
120	0xbd606070	-0.05477947
121	0xbd3761d7	-0.04477104
122	0x3de53658	0.11192006
123	0xbde9d467	-0.11417466
124	0x3be9bb66	0.0071329353
125	0x3ebc4635	0.36772314
126	0xbe706aed	-0.23478289
127	0x3e2ba74e	0.1676304
128	0x3df33521	0.11875368
129	0x3da0b653	0.078472756
130	0xbd8644db	-0.06556102
131	0xbaabb872	-0.0013101234
132	0x3e1b00b7	0.15136991
133	0x3e56e7fa	0.2098693
134	0x3df4e61c	0.119579524
135	0x3bc69ec9	0.006061409
136	0xbdc1af9f	-0.09457325
137	0xbd870255	-0.06592242
138	0x3e7f14a0	0.24910212
139	0xbe41ae71	-0.189142
140	0xbe0f567f	-0.1399784
141	0xbd4648e3	-0.048409354
142	0x3e1edda1	0.15514232
143	0x3e9eb9ce	0.31001133
144	0x3ba0e746	0.0049103824
145	0x3b8a301f	0.0042171623
146	0x3d87bd5d	0.06627915
147	0x3d89e558	0.06733197
148	0xbbaa7bc7	-0.0052027437
149	0x3df13345	0.11777357
150	0xbe006d55	-0.12541707
151	0xbd08bbeb	-0.033382338
152	0x3e686bd2	0.2269738
153	0x3d553d41	0.05206037
154	0x3e0b7b4d	0.13621254
155	0x3d47ff62	0.048827536
156	0x3dd2a0ae	0.102845535
157	0x3b1eca83	0.0024229593
158	0xbd3009e2	-0.042978175
159	0x3c9e7208	0.019341484
160	0x3d369928	0.044579655
161	0x3e59124c	0.21198386
162	0x3e0c5b79	0.13706769
163	0xbc4a6198	-0.01235237
164	0xbdd7eb22	-0.10542895
165	0x3e438c83	0.1909657
166	0xbdc80ded	-0.09768281
167	0xbde8dabb	-0.113698445
168	0xbe03b4c9	-0.12861933
169	0x3e5af143	0.21381097
170	0xbd676e70	-0.056501806
171	0x3e7553d0	0.23957753
172	0x3e188ce3	0.14897494
173	0xbe1e3939	-0.15451516
174	0xbddadee2	-0.10687043
175	0x3dd092a1	0.10184217
176	0x3da4eaec	0.0805262
177	0x3df8595d	0.1212642
178	0xbe3f6ff2	-0.18695047
179	0xbcc2f7ab	-0.023799738
180	0x3d1ca1b9	0.03824017
181	0x3d6e60b2	0.058197685
182	0x3e953ca9	0.29147843
183	0xbe2c6844	-0.16836649
184	0xbe217cc3	-0.15770249
185	0xbc9c01d4	-0.01904384
186	0x3cfa589b	0.030559829
187	0x3cccacf8	0.024984822
188	0x3e38a69c	0.18032306
189	0xbd94cbce	-0.07265435
190	0xbd731146	-0.059342645
191	0x3c1dd39b	0.00963297
192	0x3e4d3ca7	0.20042668
193	0x3dace9a0	0.08442998
194	0x3cb8f823	0.022579258
195	0x3cfc5b47	0.030805243
196	0x3e581dcd	0.21105118
197	0x3d8cad18	0.068689525
198	0x3e5dbee6	0.21654853
199	0xbd036974	-0.03208299
200	0x3dd51908	0.10405165
201	0xbd1afc74	-0.037838414
202	0xbd80d635	-0.06290857
203	0x3d8ffd7a	0.07030769
204	0x3eaf09dc	0.3418721
205	0xbcda5439	-0.026651489
206	0x3db4a700	0.08820915
207	0xbd28b41b	-0.041187387
208	0xbe42b37d	-0.19013782
209	0x3c6241b5	0.013809611
210	0x3db2cf76	0.08730976
211	0x3e0e2608	0.13881695
212	0xbde7baf6	-0.11314957
213	0xbe17a9b5	-0.14810832
214	0x3e93638e	0.28786892
215	0x3e5db882	0.21652415
216	0xbdbb51ef	-0.09146487
217	0xbe38d724	-0.1805082
218	0x3dd403e3	0.10352304
219	0x3db1da60	0.0868423
220	0xbd8a923f	-0.067661755
221	0x3e0a6959	0.1351675
222	0x3bb5dbc2	0.005549879
223	0x3e6dbc6d	0.2321641
224	0x3e688a9f	0.2270913
225	0x3e2df9b3	0.16989784
226	0xbc915133	-0.017738914
227	0xbdefa15b	-0.11700698
228	0xbcacf1e9	-0.021111446
229	0x3e5c73e5	0.21528585
230	0x3d294925	0.04132952
231	0xbe2ca9ec	-0.16861695
232	0x3da12f4d	0.0787035
233	0x3e360e8c	0.17778987
234	0x3e759a84	0.23984724
235	0x3ecadf9f	0.39623734
236	0xbda45763	-0.0802448
237	0x3e0915d2	0.1338723
238	0x3e3342a2	0.17505887
239	0x3e2a5fa7	0.16638051
240	0x3e156d99	0.1459259
241	0x3e43e357	0.19129692
242	0x3e565cd4	0.20933849
243	0x3e84bdc5	0.25926033
244	0x3d9f10e3	0.07766893
245	0x3c2706eb	0.0101945205
246	0xbd0b8758	-0.03406462
247	0xbdb0e65c	-0.086376876
248	0x3e99d99f	0.30048844
249	0xbd9095a8	-0.07059795
250	0x3d9f27cf	0.07771265
251	0xbe38f681	-0.18062784
252	0x3da7458a	0.081675604
253	0x3e037cf0	0.12840629
254	0x3e1624c5	0.14662464
255	0x3dc6f43b	0.09714552

energy_lin.1.bias f4 [300]
0	0xbd0862ef	-0.033297475
1	0x3d2b6532	0.041844554
2	0xbce16f55	-0.027518908
3	0xbd3bee82	-0.045881756
4	0x3c8765d7	0.016528053
5	0x3d2f1f39	0.042754386
6	0x3d00ad85	0.03141548
7	0x3c4fb613	0.012677687
8	0x3ca9db60	0.020734489
9	0xbc0faa21	-0.008768589
10	0x3d99e918	0.07515162
11	0x3c924c78	0.017858729
12	0xbcc6cf26	-0.024268698
13	0xbcd14b97	-0.02554874
14	0x3b9cceea	0.0047854083
15	0x3d86be20	0.06579232
16	0x3cdacf08	0.026710048
17	0xbbdd07f5	-0.0067453333
18	0x3c9bd22f	0.019021122
19	0x3c989211	0.018624337
20	0x3cf327c3	0.029682046
21	0x3db42421	0.087959535
22	0x3d2db15f	0.042405482
23	0xbcaf216f	-0.021378247
24	0x3c177874	0.009245027
25	0x3d045d8b	0.032315772
26	0x3c24e3cd	0.010064078
27	0x3bf484d7	0.007462125
28	0x3d976ad6	0.07393424
29	0xbd0b4e5a	-0.03401027
30	0x3cab33ce	0.020898726
31	0x3d875418	0.066078365
32	0x3d0f7a37	0.035028663
33	0x3ca94196	0.020661157
34	0x3c998e02	0.018744472
35	0x3d5fb2c5	0.054613847
36	0x3d643a5c	0.05571972
37	0xbc4d4b8c	-0.012530219
38	0x3c2af9bd	0.010435519
39	0x3ba4a1a5	0.0050241523
40	0x3c93fcf9	0.018064963
41	0x3b50cc5a	0.0031860084
42	0xbd15c551	-0.03656513
43	0xbcd4ee29	-0.02599247
44	0x3da40a9c	0.08009836
45	0x3d5f8092	0.054565974
46	0x3c4e7bda	0.012602771
47	0xbd33237b	-0.04373501
48	0xbc7d31d7	-0.015453777
49	0x3d31779a	0.04332695
50	0x3d035fe3	0.032073867
51	0xbcaf86fb	-0.021426668
52	0xbcb6ff56	-0.02233855
53	0x3d13b755	0.03606351
54	0x3c233235	0.009960701
55	0x3d36cb9a	0.044627763
56	0x3da00a91	0.078145154
57	0xbcb2277b	-0.021747341
58	0x3cd6e84e	0.026233818
59	0x3ca19938	0.01972638
60	0x3d2daf78	0.04240367
61	0x3d53ee90	0.051741183
62	0xbcb37faf	-0.02191147
63	0x3c8a1c89	0.01685931
64	0x3d5ab809	0.053398166
65	0xbd701b72	-0.058619924
66	0x3bad5a32	0.005290293
67	0x3d8e9603	0.06962206
68	0xbcbb47e0	-0.022861421
69	0xbc7c6080	-0.015403867
70	0x3ca29aba	0.01984917
71	0xbd395644	-0.045248285
72	0x3c949d02	0.018141273
73	0x3c1e0807	0.009645469
74	0x3d86e824	0.06587246
75	0x3cdcecc4	0.026968367
76	0xbd3e4955	-0.046456654
77	0x3c7eb95c	0.015547123
78	0xbd7207cc	-0.059089467
79	0x3d09d2fe	0.033648483
80	0x3d2de491	0.042454306
81	0x3d35bbfb	0.044368725
82	0xbcbf1842	-0.023326997
83	0xbc958426	-0.01825149
84	0x3d954ba7	0.0728982
85	0x3d443c8c	0.047909304
86	0xbd0544e9	-0.03253642
87	0x3d84e8e7	0.06489735
88	0xbd1ee49d	-0.03879224
89	0xbc815bb8	-0.015790805
90	0x3c9447fe	0.018100735
91	0x3cde810f	0.02716115
92	0xbd331382	-0.043719776
93	0xbcb12bdd	-0.021627361
94	0x3cee31d2	0.02907649
95	0xbd504dc7	-0.050855424
96	0xbb22085f	-0.0024724228
97	0xbd324072	-0.04351849
98	0x3d8bfd75	0.068354525
99	0x3c9a0876	0.018802863
100	0x3c7a8698	0.015290879
101	0x3cc640a8	0.024200752
102	0xbd0533ab	-0.032519978
103	0xbce36dd2	-0.027762327
104	0xb7bbb86b	-2.2378013e-05
105	0x3c84ea2f	0.016224949
106	0x3d9dd26e	0.07706152
107	0xbd1c89a2	-0.038217194
108	0x3d256174	0.04037614
109	0xbc93a2d6	-0.018021982
110	0x3d11b647	0.035574224
111	0x3dae8ac1	0.08522559
112	0x3d5c36d8	0.05376324
113	0x3d4c1dff	0.049833294
114	0x3ca103d1	0.01965514
115	0x3d9a4c37	0.07534068
116	0x3c4065ab	0.0117429895
117	0x3c8be961	0.017079057
118	0x3d8be8ba	0.068314984
119	0xbc3bcda0	-0.011462599
120	0x3d5b5606	0.053548835
121	0x3d531118	0.051529974
122	0xbd3e10c3	-0.046402704
123	0x3d33924d	0.043840695
124	0x3d8aa0f3	0.0676898
125	0x3d786283	0.060640823
126	0x3d8a4d13	0.06752982
127	0x3b578aae	0.0032889056
128	0xbbf1f736	-0.007384206
129	0xba69bfac	-0.0008916806
130	0xbc91337c	-0.017724745
131	0xbc30de73	-0.0107952235
132	0x3d82d124	0.06387547
133	0xba82e388	-0.0009986022
134	0x3bbb5544	0.0057169516
135	0xbcc03aa2	-0.023465458
136	0x3be23a76	0.0069039417
137	0x3c3252aa	0.010883966
138	0x3d29bc95	0.04143961
139	0x3c3876b5	0.011258771
140	0xbc4a7995	-0.012358089
141	0xbc2fbc71	-0.01072608
142	0x3d90df79	0.07073874
143	0x3cffc5a2	0.031222168
144	0xbc12818f	-0.008942022
145	0xbc87e507	-0.016588701
146	0xbce5be3c	-0.028044812
147	0xbb166ea8	-0.002295414
148	0xbce81150	-0.028328568
149	0xbd0569e6	-0.032571696
150	0xbb3add31	-0.0028513188
151	0xba864a3c	-0.0010245512
152	0x9d16ebd9	-1.9974265e-21
153	0x3cde0f8d	0.027107025
154	0x3d11f8d9	0.03563771
155	0xbd6ae251	-0.05734474
156	0xbc6bd06d	-0.014392954
157	0xbcee8f65	-0.02912111
158	0x3b084e88	0.0020798761
159	0x3d7475ee	0.05968278
160	0x3ce360c9	0.027756112
161	0x3d4e0b27	0.050303604
162	0xbd0c3d0e	-0.034237914
163	0x3d704e77	0.05866858
164	0x3d49eafc	0.049296364
165	0x3d83e226	0.06439619
166	0x3d3dea32	0.046365924
167	0x3d20fd3e	0.03930401
168	0x3ade849c	0.0016976777
169	0x3c9c2e2c	0.019064985
170	0x3ced243e	0.028947946
171	0xbc9c5fcc	-0.019088648
172	0xbce7ee93	-0.028312003
173	0xbcd3b57f	-0.02584338
174	0x3b26c3e8	0.002544636
175	0xbc0986a3	-0.008393916
176	0xbd2e17f6	-0.04250332
177	0x3c4679f9	0.0121140415
178	0xbc3505a5	-0.011048709
179	0x3d6a0e88	0.057142764
180	0x3cd887fb	0.026432028
181	0x3d8f9304	0.07010463
182	0x3d295bce	0.041347317
183	0x3c11e511	0.008904711
184	0xbc959f74	-0.01826451
185	0x9df6b6a6	-6.530451e-21
186	0xbcc2f563	-0.02379865
187	0x3b420e7a	0.002961068
188	0xbcded947	-0.027203215
189	0x3cdb31d7	0.026757164
190	0x3d4a835a	0.049441673
191	0x3d13cd26	0.036084317
192	0x3ca33afd	0.019925589
193	0xba0a61ca	-0.0005278854
194	0xbce37c7c	-0.02776932
195	0xbb749e34	-0.0037325742
196	0x3d9e6f54	0.07736078
197	0x3dccf9c2	0.10008575
198	0x3c5ca0b4	0.013466049
199	0xbb7ab74b	-0.0038256224
200	0x3cc830f2	0.024437401
201	0x3cc52332	0.024064634
202	0xbd1415e7	-0.0361537
203	0x3d2feeec	0.042952463
204	0x3b8d5ce3	0.0043140515
205	0x3c93d1be	0.018044349
206	0xbbc375cd	-0.0059649707
207	0xbcd6d132	-0.026222799
208	0x3d05381d	0.032524217
209	0x3add33b8	0.0016876375
210	0x3c470ef1	0.012149558
211	0x3a0ceef6	0.0005376184
212	0x3d619f1a	0.05508337
213	0x3ddbf618	0.10740298
214	0x3d6b51ca	0.057451047
215	0x3cb7bc31	0.022428604
216	0xbb492f4e	-0.0030698362
217	0x3dcaae7d	0.09896562
218	0xbc931f99	-0.017959403
219	0xbd58a9a2	-0.05289615
220	0xbd0c7482	-0.034290798
221	0xbce4bb0d	-0.027921224
222	0x3d729f82	0.05923415
223	0x3da75950	0.08171332
224	0x3cbf277d	0.02333426
225	0x3ca73449	0.020410674
226	0xbbcb9d4d	-0.00621382
227	0xbb300c98	-0.0026862975
228	0xbcc86eac	-0.024466835
229	0x3d2242ef	0.039614614
230	0x3d64ad7c	0.05582951
231	0x3d1fa89e	0.038979165
232	0x3ce43e6a	0.027861793
233	0x3bc84740	0.0061120093
234	0x3d60c265	0.05487289
235	0x3b544ed3	0.0032395616
236	0xbd007b4a	-0.031367578
237	0xbb69d378	-0.0035679024
238	0x3d64ec24	0.055889264
239	0x3c980068	0.018554881
240	0x3d7c9e33	0.061674308
241	0x3ccca6c7	0.02498187
242	0xbcf4b769	-0.029872613
243	0xbbf60f66	-0.00750916
244	0xbd4f752c	-0.050648853
245	0xbd11893d	-0.03553127
246	0x3d66ed86	0.056378864
247	0x3d787d8b	0.060666602
248	0x3d1ca19b	0.038240056
249	0xbc3bb8aa	-0.011457602
250	0xbcfa26d9	-0.030536102
251	0xbb1aa79c	-0.0023598438
252	0x3d438ab4	0.0477397
253	0x3bdeaa76	0.006795223
254	0x3d84a7fc	0.06477353
255	0x3c61193f	0.013738929

energy_lin.3.weight f4 [150, 300]
0	0x3e87c650	0.26518488
1	0x3c371349	0.0111740315
2	0xbd9a6c71	-0.07540215
3	0xbda0590f	-0.078294866
4	0x3d91cb81	0.071188934
5	0xbdd4639c	-0.103705615
6	0xbdd41019	-0.10354633
7	0x3daf777c	0.08567712
8	0xbd401715	-0.046897013
9	0x3d60cbe4	0.054881945
10	0x3d7e05b9	0.062017176
11	0x3da93274	0.08261576
12	0x3d1cc02f	0.038269218
13	0x3e04def7	0.1297568
14	0x3d1c86e7	0.03821459
15	0xbc93c9c8	-0.018040553
16	0x3dc9988a	0.09843548
17	0xbd4cc299	-0.04999027
18	0xbe39e774	-0.18154699
19	0xbdab9dc2	-0.08379699
20	0xbc096eb7	-0.008388213
21	0x3de7da05	0.11320881
22	0xbdc60e55	-0.09670702
23	0xbd9a377c	-0.07530114
24	0x3d8a4d25	0.067529954
25	0xbd3f733e	-0.046740763
26	0x3d8ef395	0.06980053
27	0x3cfd95ad	0.03095516
28	0xbe0aaedc	-0.13543266
29	0x3d0bddc1	0.034147028
30	0x3df12f9c	0.11776659
31	0x3d82e164	0.06390646
32	0x3d78a205	0.06070139
33	0x3e2daee1	0.16961242
34	0x3cc1a2b5	0.023637155
35	0xbd9de476	-0.07709591
36	0x3d98afa9	0.074553795
37	0xbcb05c44	-0.02152837
38	0xbe1d41c0	-0.15357113
39	0x3e07ec80	0.13273811
40	0x3d9097b4	0.07060185
41	0xbe7ddb08	-0.24790585
42	0xbdbffb04	-0.09374049
43	0x3e3dd839	0.18539514
44	0x3e13c095	0.14428933
45	0xbd5cc958	-0.053902954
46	0xbc5eda81	-0.0136019
47	0xbdd2ebdf	-0.10298895
48	0xbdc73b37	-0.09728091
49	0xbd486f8a	-0.048934497
50	0x3d9e6691	0.07734407
51	0x3c514768	0.012773372
52	0x3d640133	0.055665206
53	0x3e4c58ae	0.19955704
54	0x3e0bb0a8	0.13641608
55	0x3e3a87ee	0.18215916
56	0x3d896f8d	0.0671073
57	0x3cae5fbf	0.02128589
58	0xbe08c430	-0.1335609
59	0x3e06abe6	0.13151512
60	0xbd555b7c	-0.0520892
61	0x3c89face	0.016843226
62	0xbd342de9	-0.043989096
63	0xbc3cf33d	-0.011532602
64	0x3ba13d6b	0.0049206517
65	0x3db778fc	0.08958623
66	0xbc2043c1	-0.009781779
67	0xbd483403	-0.048877727
68	0x3d856bcc	0.06514701
69	0x3d867725	0.06565694
70	0xbdf73fe1	-0.12072731
71	0xbd0f739c	-0.035022363
72	0xbe0db0f0	-0.13837028
73	0xbcb9595e	-0.022625621
74	0x3c139daa	0.009009758
75	0x3e23d83d	0.16000457
76	0xbdf13ec1	-0.117795475
77	0x3dd36960	0.10322833
78	0x3e1eabfb	0.15495293
79	0x3db3e104	0.08783153
80	0xbd41e35c	-0.047335967
81	0xbd53fb75	-0.05175348
82	0x3de42b60	0.111410856
83	0xbe0cd808	-0.13754284
84	0x3e45fb6f	0.19334196
85	0x3dbd2255	0.09235064
86	0x3d947963	0.07249715
87	0xbd321d41	-0.04348493
88	0xbd1ea5ed	-0.038732458
89	0xbd30730e	-0.043078475
90	0xbdc3cd98	-0.09560698
91	0xbe7ab4e2	-0.24483064
92	0x3e270997	0.16312252
93	0x3ce501fc	0.027955048
94	0xbddc24f9	-0.107492395
95	0x3c3f0309	0.0116584385
96	0xbdce46c3	-0.100720905
97	0xbe10c258	-0.14136636
98	0xbba981c8	-0.005172942
99	0x3dac5088	0.084137976
100	0xbcff2991	-0.03114775
101	0x3ceb2124	0.028702326
102	0x3cfd69bf	0.030934213
103	0x3db06a6f	0.086140506
104	0xb236dd44	-1.0644104e-08
105	0xbdd50466	-0.104012296
106	0xbd1a8e32	-0.037733264
107	0xbd9404d5	-0.07227484
108	0x3e24ee1e	0.1610646
109	0x3e40f625	0.18843897
110	0x3e36219b	0.17786257
111	0x3cedfc84	0.029051073
112	0xbe2ab4e6	-0.1667057
113	0x3e2d8ae9	0.16947521
114	0xbd8e9474	-0.06961909
115	0x3d52938a	0.051410235
116	0xbc9b9d91	-0.018996032
117	0xbd8560c6	-0.06512599
118	0x3e134000	0.14379883
119	0x3dd817e2	0.1055143
120	0x3e506237	0.20349966
121	0xbd037010	-0.032089293
122	0x1a4eb8f1	4.2749196e-23
123	0xbce485df	-0.027895866
124	0x3e0c6bea	0.13713041
125	0x3dd9a147	0.10626464
126	0xbe5b1e3d	-0.21398254
127	0x3dc97a54	0.09837785
128	0x3e28623c	0.16443723
129	0xbd535e37	-0.051603522
130	0x3df5b997	0.11998289
131	0x38f2661b	0.00011558478
132	0xbd9eb0b9	-0.07748551
133	0xbde63fb0	-0.11242616
134	0x3de7f50d	0.113260366
135	0xbe81cb6c	-0.2535051
136	0x3c5ea013	0.013587969
137	0x3d1a9290	0.03773743
138	0xbd23d09a	-0.03999386
139	0xbd88a31c	-0.06671736
140	0x3c0d00d7	0.008606157
141	0xbe13cd61	-0.14433815
142	0x3b35668f	0.0027679538
143	0x3d47bf76	0.048766576
144	0xbd014d7b	-0.03156803
145	0x3db9142a	0.09037049
146	0xbdc5db49	-0.09660966
147	0x3d8bb7ca	0.06822164
148	0x3df3f1b8	0.119113386
149	0xbe36cc02	-0.1785126
150	0x3e2712d9	0.16315784
151	0xbd7eb24c	-0.062181756
152	0x988f9c63	-3.7122544e-24
153	0xbd5438c1	-0.051811937
154	0xbdb1506a	-0.08657916
155	0xbd0b9555	-0.03407796
156	0x3d7c08d5	0.06153186
157	0xbd74dac5	-0.059778947
158	0xbdb02f3c	-0.08602759
159	0x3e22694b	0.15860479
160	0x3e2775d2	0.16353539
161	0x39ac08ba	0.00032812898
162	0xbc6193dc	-0.013768163
163	0x3d51769b	0.0511385
164	0xbe12a278	-0.1431979
165	0xbbd831b3	-0.0065977215
166	0xbdddb8a3	-0.10826232
167	0xbda836c0	-0.08213568
168	0x3d8a27cd	0.06745873
169	0xbd9e3fc2	-0.077270046
170	0x3d7cc916	0.061715208
171	0xbc472aa4	-0.012156162
172	0x0035814e	4.913667e-39
173	0x3e1c8230	0.15284038
174	0xbcb139a7	-0.021633936
175	0xbd63aeb2	-0.055586524
176	0x3c651a7f	0.013983368
177	0x3e55e5c9	0.20888437
178	0xbe25e6aa	-0.16201273
179	0x3e1736a0	0.14766932
180	0xbd663db2	-0.05621118
181	0x3e321f63	0.17394786
182	0xbdf21f75	-0.11822406
183	0x3da41770	0.08012283
184	0x3df04db5	0.117335714
185	0x1dbdbe76	5.0224815e-21
186	0x3d2e9652	0.042623825
187	0x3cf41b7e	0.029798266
188	0xbd8bb588	-0.06821734
189	0x3de7b1a2	0.11313178
190	0x3c2daaf4	0.01059984
191	0xbdfd89a4	-0.123797685
192	0xbe92bc8e	-0.2865948
193	0xbd9b382d	-0.07579074
194	0x3dfe7d58	0.12426251
195	0x3e0a2e7a	0.13494292
196	0x3d9081b3	0.07055988
197	0xbdc6bb72	-0.09703721
198	0x3d9347fa	0.07191463
199	0xbe35c4c5	-0.17750843
200	0x3cd78927	0.026310517
201	0x3dbf596b	0.09343227
202	0x3d49c77f	0.04926252
203	0x3d485656	0.04891046
204	0xbd9fc43e	-0.07801102
205	0x3e1f8629	0.15578522
206	0x3e0e8e88	0.13921559
207	0x3e61c36a	0.22047201
208	0x3ded9552	0.11600746
209	0xbb952294	-0.004551241
210	0xbe1956e2	-0.1497455
211	0xbf2d7829	-0.67761475
212	0x3e069920	0.1314435
213	0xbde9c9c7	-0.11415439
214	0x3d386f93	0.04502828
215	0xbdd93711	-0.10606206
216	0xbd612016	-0.05496224
217	0xbd328afd	-0.04358958
218	0x3e596661	0.2123046
219	0x3cd1412b	0.02554377
220	0x3d8adcf8	0.06780428
221	0xbdd57630	-0.10422933
222	0xbcd0b7b9	-0.02547823
223	0xbd136ccb	-0.035992425
224	0xbd213db0	-0.03936547
225	0x3d7b4297	0.061342802
226	0x3a07c627	0.00051793683
227	0x3e3360cf	0.17517398
228	0x3d70700e	0.058700614
229	0xbdc92fda	-0.0982358
230	0xbdfe417b	-0.12414833
231	0x3dda38e8	0.10655385
232	0xbde59550	-0.1121012
233	0x3de0346c	0.10947499
234	0x3dc2146f	0.09476554
235	0x3bea79ec	0.0071556475
236	0x3bf1a21d	0.0073740617
237	0x3e0be6f4	0.1366232
238	0xbc467987	-0.012113935
239	0xbda4e429	-0.080513306
240	0x3e100f61	0.14068367
241	0xbdae5dd0	-0.08513987
242	0x3dc9cbfe	0.098533615
243	0xbe3f6744	-0.18691736
244	0xbcca9d2d	-0.02473315
245	0xbdc803d2	-0.09766354
246	0xbd801317	-0.06253641
247	0xbe6d99b0	-0.23203158
248	0x3e0cf0d2	0.1376374
249	0x3d181229	0.037126694
250	0xbe42457f	-0.18971823
251	0x3dde4925	0.10853795
252	0xbc1cbc5d	-0.009566394
253	0xbd56b515	-0.052418787
254	0x3e183f4f	0.148679
255	0x3d96b240	0.07358217
