models/mpnn_A139_B23_E300_L2/61.pt (torch, 742651 bytes, 9 tensors)

atom_lin.weight f4 [300, 139]
-2.6377195e-15 -0.4260065 -2.0647436e-13 -5.4321083e-22 5.2201274e-26 3.2374494e-37 -0.06402096 -0.17089821
0.15667963 -3.467416e-23 -5.621201e-26 -4.307804e-19 -9.672352e-37 -6.2315414e-14 2.0122533e-18 -0.122986935
-0.13778795 8.444142e-20 -4.912267e-39 1.1733378e-18 -6.47774e-31 4.904704e-39 -8.8609866e-35 -5.172802e-22
1.1603259e-15 -4.256226e-16 -8.531067e-36 -9.042348e-18 4.622572e-28 1.1986352e-15 -1.5596146e-18 7.7231434e-19
6.216533e-15 2.0706028e-33 -7.945123e-14 3.290367e-29 5.849432e-23 4.918311e-39 -7.3365468e-34 -1.9405687e-25
-3.3799344e-36 9.055948e-28 -2.9148274e-20 8.037332e-30 3.0182348e-18 -2.2743553e-19 -2.6725684e-17 -6.940963e-32
-5.8108306e-32 1.0303703e-15 4.917672e-39 2.4523014e-33 1.5818857e-13 6.190235e-14 8.945242e-28 1.9239358e-33
3.7987983e-24 -4.915723e-39 -4.91453e-39 -1.4774405e-23 -4.4794643e-25 -7.318176e-18 3.2709596e-15 2.3783364e-15
4.8035325e-23 -7.209134e-39 9.426976e-33 4.917362e-39 -1.9770838e-33 4.907667e-39 1.4354516e-15 -4.913675e-39
-5.652529e-29 3.915121e-39 7.307829e-23 1.5636371e-31 5.2069506e-30 -6.3057316e-20 -1.2396832e-34 -7.78447e-18
-5.369281e-39 1.7635947e-21 -1.2760885e-31 7.720596e-18 5.4396223e-16 3.3441515e-15 -5.617554e-26 -2.1565095e-21
1.395674e-22 -4.0902404e-14 -6.4892675e-37 -7.0343654e-14 3.076422e-39 -4.909885e-39 3.9825027e-17 4.915147e-39
-1.5592195e-18 -1.0178881e-29 4.90536e-39 -4.6682155e-34 -1.361336e-16 5.1748856e-17 -4.908572e-39 -1.8414407e-19
3.0094263e-19 -4.915744e-39 -6.738943e-29 4.918134e-39 7.530723e-34 -5.6900255e-31 1.9206004e-16 -4.1172288e-24
-1.0394053e-18 2.4430224e-14 6.252039e-29 -3.4493275e-22 3.6819505e-20 6.6433344e-18 1.4751107e-37 -0.34599078
-9.36333e-24 0.16420573 -0.20699298 0.17838985 -4.908273e-39 2.754042e-35 -3.851099e-29 -3.5196807e-26
-0.0402471 -0.005080784 -0.17804326 0.23243667 -3.66535e-39 6.227495e-38 -1.0348995e-30 -2.7451417e-15
-2.3529857e-29 -2.072326e-29 0.11431231 -0.063423805 0.21173936 -2.1014628e-16 4.0596515e-29 2.465966e-26
-5.801002e-16 0.052496403 0.05990111 0.086792774 -0.1816816 -2.384689e-15 1.1288426e-30 5.4942443e-28
2.585794e-14 5.5238403e-22 0.22178745 0.26754615 0.17357476 -5.1851518e-14 -1.4315996e-30 8.632157e-17
6.9110514e-26 -4.905582e-39 1.8249529e-32 -1.7922247e-15 -2.3885984e-18 -0.06638507 -0.029044922 -3.1398246e-29
4.910412e-39 3.2542077e-33 1.09491725e-20 9.772374e-24 2.3635017e-22 3.1130605e-26 0.17057382 1.8339907e-13
-2.2271408e-16 4.798005e-25 -9.775684e-18 -4.910537e-39 1.8185604e-13 -4.9667433e-15 6.835035e-39 1.6251483e-13
-4.909785e-39 -9.093732e-33 -6.900383e-35 6.2191555e-17 3.9573898e-16 1.214984e-28 4.907794e-39 4.9397697e-23
0.20217967 1.4767515e-13 -7.673503e-19 -3.5102319e-16 -5.8795733e-16 -4.905922e-39 -2.7579892e-37 -2.8586652e-34
-1.0815083e-20 4.2728897e-22 -4.908334e-39 -5.3835305e-25 3.91458e-14 -3.5963563e-21 2.0232144e-28 4.278243e-14
-4.015825e-34 -2.138937e-14 -1.4889501e-29 -1.2616222e-16 4.578563e-39 2.5573748e-16 2.0523181e-14 -1.3407376e-17
-2.7558596e-27 -1.4504662e-22 -2.5528868e-17 -2.6247865e-14 -4.6177412e-32 3.4270143e-16 1.2674261e-26 -6.2717906e-33
-4.349326e-39 1.1920742e-22 3.4883287e-26 -1.7181787e-34 -1.0143071e-22 -1.1951976e-16 -1.758519e-16 6.4167835e-14
1.5386429e-18 -9.0181666e-17 -4.908425e-39 5.144175e-36 7.0789606e-14 5.4526007e-25 7.779362e-17 4.914295e-39
7.721929e-15 -1.1720677e-27 4.906045e-39 4.650384e-23 -1.985432e-14 -4.90649e-39 4.909294e-39 -1.2621008e-21
-3.1191254e-37 9.238468e-18 4.904846e-39 -2.1350302e-26 1.0230793e-13 -4.40985e-18 -3.2402474e-23 1.0143998e-26
00000000: 5611 3ea7 861d dabe 2f78 68aa e72c 249c
00000010: 7d3e 8115 5354 dc02 6c1d 83bd f1ff 2ebe
00000020: a070 203e 88ac 279a 982c 8b95 b249 fea0
00000030: 0991 a483 6452 8ca9 647a 1422 93e0 fbbd
00000040: 4918 0dbe b561 c71f 677d 3580 7327 ad21
00000050: f536 528d 5268 3500 c090 eb86 9e56 1c9c
00000060: 7838 a726 cf5a f5a5 8c6f 3585 48cd 26a3
00000070: c27e 1212 d5bd ac26 9328 e6a1 6cf2 6321
00000080: 66f9 df27 da04 2c09 84e8 b2a9 68d7 2610
00000090: 3b6e 8d1a 408e 3500 70cc 7388 143b 7096
000000a0: 3ac4 8f84 4a7f 8f12 1aa6 099f 3704 230f
000000b0: d8b4 5e22 1641 86a0 3d80 f6a3 9d32 b48b
000000c0: 98db 968b f47d 9426 788c 3500 afba 4b09
000000d0: c01a 322a 4664 8b29 36be 8d12 97d5 1f09
000000e0: 7af5 9218 0987 3580 b683 3580 a8e3 8e99
000000f0: f9a1 0a97 1cff 06a3 8eb2 6b27 9060 2b27
00000100: da48 681a 2280 4e80 67ca 430a 9b8b 3500
00000110: ec3f 2489 9470 3500 d1de ce26 5481 3580
00000120: 034f 8f90 c4a1 2a00 45b1 b01a c1f8 4a0c
00000130: 1138 d30e cfe3 949f 3cc8 2487 1f99 0fa3
00000140: 5f77 3a80 e240 051d 50a5 258c 7c6b 0e23
00000150: 54c9 1c26 b5f8 7027 7a15 8b95 f6f0 229d
00000160: 05ba 281b 4335 38a9 7ed1 5c83 5b66 9ea9
00000170: d07f 2100 c376 3580 18a9 3724 6e85 3500
00000180: a619 e6a1 c673 4e8f 266a 3500 c920 1b88
00000190: 8cf3 1ca5 44a6 6e24 1a73 3580 2166 59a0
000001a0: 2aa5 b120 1887 3580 3eda aa90 c28d 3500
000001b0: 4e40 7a08 e2a6 388d 1e6e 5d25 0f47 9f98
000001c0: 9f63 99a1 430c dc28 0e82 9e10 c27f d09b
000001d0: 0de0 2d1f 8518 f522 1bc8 4802 b425 b1be
000001e0: f71c 3599 8c25 283e f8f5 53be d4ab 363e
000001f0: 4572 3580 146e 1206 2046 4390 4149 2e95
00000200: 25da 24bd b57c a6bb f950 36be e103 6e3e
00000210: 81e9 2780 4e87 a901 0bec a78d edce 45a7
00000220: 009f ee8f a928 d28f 931c ea3d 57e4 81bd
00000230: 34d2 583e 3c48 72a5 4ad9 4d10 aa37 f414
00000240: d733 27a6 7806 573d de5a 753d 69c0 b13d
00000250: be0a 3abe bfd5 2ba7 492a b70d 9b1e 2e12
00000260: 5ae8 e828 a5f2 261c 401c 633e cffb 883e
00000270: 95bd 313e bb84 69a9 524a e88d 430b c724
00000280: fe1b ab15 c46a 3580 9283 bd0a b624 01a7
00000290: 593f 30a2 e5f4 87bd 9eef edbc 4135 1f90
000002a0: 3b78 3500 ac2c 8709 f3d2 4e1e 7406 3d19
000002b0: 6bdd 8e1b bb26 1a15 e7aa 2e3e 2f7d 4e2a
000002c0: cc62 80a5 b67d 1417 5d54 34a3 9478 3580
000002d0: 6fc0 4c2a 1ff2 b2a7 4c6d 4a00 b6f9 362a
000002e0: 7c76 3580 93de 3c8a 9371 b786 6a67 8f24
000002f0: c420 e425 7c04 1a11 ef70 3500 63df 6e1a
00000300: 3008 4f3e 7744 262a 597b 62a1 e159 caa5
00000310: 9877 29a6 b76b 3580 f3b2 bb82 abfd bd87
00000320: 884a 4c9e e223 011c 7072 3580 b99c 2697
00000330: 094c 3029 d3dd 879d 883c 8011 c9ac 4029
00000340: dc72 0588 87a8 c0a8 5bff 968f 8474 11a5
00000350: 2cdb 3100 316c 9325 3cdb b828 8b52 77a3
00000360: 7957 5a93 c159 2f9b 5676 eba3 756b eca8
00000370: 4fc4 6f8b ce8d c525 230a 7b14 8f42 028a
00000380: 275c 2f80 e91c 101b d2bb 2c15 9762 6487
00000390: 923e f59a 02cc 09a5 52be 4aa5 3d7e 9029
000003a0: 4910 e321 dcf1 cfa4 b172 3580 1bcf da04
000003b0: 6e67 9f29 f4bf 2817 3f61 b324 0e83 3500
000003c0: 1d1b 0b28 b7b8 b992 0f6c 3500 f7e0 601a
000003d0: f2d4 b2a8 4c6d 3580 1d75 3500 29b9 be9c
000003e0: d446 d482 6e6b 2a23 b768 3500 7271 d394
000003f0: 8260 e629 dbb1 a2a2 52b0 1c9a 2eec 4814

atom_lin.bias f4 [300]
-0.07908288 -0.0121830255 0.09907959 0.07915842 -0.023335496 -0.046066463 0.04138627 0.012518024
0.01743412 0.024633138 0.00794105 0.029164549 -0.030675666 0.088635646 0.046236914 0.02627185
0.04345466 0.05489253 0.0018639338 -0.045843337 -0.020107334 0.080250815 0.020114146 0.07130434
0.084337585 -0.10734152 0.016568609 0.082899116 -0.0014556204 0.049002245 0.07126172 -0.018429061
0.024180062 -0.0014837506 0.08512031 0.009027992 0.10639681 0.07265688 0.070144355 0.08399897
0.074872226 -0.007235694 -0.003789495 -0.066834725 -0.084668 0.013827362 -0.11021401 -0.030389545
-0.031070998 0.1481088 -0.072412975 0.009976951 -0.030451622 -0.006388543 -0.044840053 -0.0016467402
-0.017082132 0.04282167 0.0052306675 -0.014581973 0.05543761 -0.023695296 0.01102136 0.032956418
0.02011657 0.057626873 -0.022358637 0.037980035 -0.06035399 -0.016696833 0.0645759 0.07351526
-0.03164833 0.10815954 0.122924305 0.19180414 -0.028932381 0.0783555 0.05006024 0.03462041
-0.0015486627 -0.07682307 -0.05687946 0.049114678 0.07254541 0.0069693774 0.036553178 0.0303208
0.047218177 0.024701174 0.0677367 -0.0013087008 0.062187158 -0.05096235 -0.028399738 0.019003505
-0.02397245 -0.02486746 -0.027765831 0.050522473 0.014447749 0.08702334 0.10867025 0.11317491
0.04646499 0.13130206 0.11794605 0.08815478 0.058506407 -0.016114395 0.030186677 0.09512771
0.07472353 0.05762117 0.16353455 0.03725359 0.04900772 0.069334716 0.09950042 0.06925156
0.039264303 0.065370634 0.029308839 -0.06494102 0.10182657 0.06380852 -0.13139226 0.043049224
0.060027834 0.0877641 0.082831524 -0.07384309 -0.084209695 0.03917181 -0.038262077 0.045727275
0.022448197 -0.033513334 -0.0805374 0.035588942 -0.054126464 -0.11000406 0.0041917223 -0.015358585
-0.046438035 -0.04723966 0.06668333 0.07666429 0.0019066815 0.008061475 0.021722024 -0.041976105
0.073047385 0.066773765 0.0977773 -0.13278851 0.09751365 -0.09914719 -0.056642346 -0.038175605
0.022340687 0.105621785 0.07301615 0.103929766 0.09586599 0.09528479 0.024550004 -0.055524297
0.047133952 0.009004285 -0.008944234 0.0048995796 -0.020546494 -0.076750726 0.12688945 -0.014627864
-0.037615485 0.027239136 0.055905875 0.057848908 0.0248631 0.13058668 -0.02692941 -0.00027392266
0.031148598 0.026637616 0.05092674 0.07841163 -0.033563484 0.05003471 0.05682709 0.10282306
-0.018135164 0.051004875 -0.035049886 -0.005164468 0.094881855 -0.04140314 0.10035798 0.023325594
0.13464886 -0.056412734 -0.034093667 0.012304194 -0.019332528 -0.0076248804 -0.06685226 0.010110548
-0.07142642 0.08211986 -0.027386475 -0.050270505 0.08047826 -0.0050991597 0.01986487 0.078889735
0.14155157 0.014479508 0.048336018 -0.033633366 -0.09162561 -0.049562935 0.059995703 0.0002134123
0.07480298 0.096191086 0.047832217 0.05025396 -0.0120181 0.034261566 0.046452362 -0.040215448
0.0013569195 -0.044317767 0.06453604 0.0077898973 0.054876838 -0.0024221828 -0.012177985 -0.08353964
-0.03327259 -0.0030318813 -0.062238317 0.0011370732 -0.06210315 0.06080902 0.041665025 0.079647176
0.11950691 -0.08537152 0.052134443 0.0069204266 -0.0018292255 -0.019443527 0.05690554 -0.039151233
00000000: 34f6 a1bd 509b 47bc 3dea ca3d cf1d a23d
00000010: 152a bfbc 30b0 3cbd a684 293d 6618 4d3c
00000020: 00d2 8e3c 6fcb c93c 2e1b 023c 7eea ee3c
00000030: 894b fbbc 9b86 b53d eb62 3d3d 1038 d73c
00000040: 83fd 313d fdd6 603d 3d4f f43a 39c6 3bbd
00000050: 23b8 a4bc 8a5a a43d 6cc6 a43c 0308 923d
00000060: 2fb9 ac3d dfd5 dbbd e4ba 873c 03c7 a93d
00000070: 84ca beba 94b6 483d aaf1 913d 8bf8 96bc
00000080: 4415 c63c 697a c2ba 8f53 ae3d 25ea 133c
00000090: 92e6 d93d 21cd 943d d8a7 8f3d a707 ac3d
000000a0: 9c56 993d 6719 edbb 2d59 78bb a5e0 88bd
000000b0: 6b66 adbd 298c 623c e2b7 e1bd 7ff3 f8bc
000000c0: 9b88 febc d5a9 173e 414d 94bd 5e76 233c
000000d0: ae75 f9bc fc56 d1bb 34aa 37bd 6fd7 d7ba
000000e0: d4ef 8bbc c765 2f3d 0566 ab3b 3ae9 6ebc
000000f0: 8c12 633d a31c c2bc ef92 343c 4ffd 063d
00000100: 81cb a43c 280a 6c3d 7629 b7bc f490 1b3d
00000110: bf35 77bd ccc7 88bc 5f40 843d 2b8f 963d
00000120: aea1 01bd c082 dd3d bdbf fb3d 4e68 443e
00000130: 9a03 edbc d978 a03d f70b 4d3d 22ce 0d3d
00000140: 7ffc caba 6a55 9dbd 70fa 68bd 792c 493d
00000150: b092 943d 605f e43b c9b8 153d 5463 f83c
00000160: d967 413d 1e5a ca3c 8ab9 8a3d b688 abba
00000170: f6b7 7e3d e6bd 50bd 91a6 e8bc 3dad 9b3c
00000180: df61 c4bc d8b6 cbbc 2b75 e3bc a7f0 4e3d
00000190: 40b6 6c3c 4b39 b23d 828e de3d 3fc8 e73d
000001a0: 1352 3e3d 0c74 063e b38d f13d 7e8a b43d
000001b0: 6aa4 6f3d 5602 84bc 0d4a f73c 51d2 c23d
000001c0: a608 993d 2d04 6c3d 9a75 273e 3897 183d
000001d0: 52bc 483d 5cff 8d3d e0c6 cb3d c3d3 8d3d
000001e0: 9bd3 203d 0ae1 853d 1719 f03c ccff 84bd
000001f0: 738a d03d 0bae 823d b18b 06be 6254 303d
00000200: bfdf 753d aabd b33d 93a3 a93d 0c3b 97bd
00000210: 2276 acbd 9f72 203d b2b8 1cbd 864c 3b3d
00000220: 48e5 b73c 4745 09bd cbf0 a4bd b6c5 113d
00000230: b6b3 5dbd cf49 e1bd b75a 893b 93a2 7bbc
00000240: cf35 3ebd 607e 41bd 4591 883d 2b02 9d3d
00000250: 9de9 f93a 4714 043c 63f2 b13c 23ef 2bbd
00000260: de99 953d afc0 883d 773f c83d b6f9 07be
00000270: 3db5 c73d af0d cbbd ce01 68bd 065e 1cbd
00000280: d103 b73c 3c50 d83d 7e89 953d 21d9 d43d
00000290: 6355 c43d ac24 c33d 171d c93c 726d 63bd
000002a0: 880f 413d b586 133c d68a 12bc a78c a03b
000002b0: 1f51 a8bc 7c2f 9dbd 4fef 013e b5a9 6fbc
000002c0: b212 1abd 9c24 df3c 8ffd 643d faf2 6c3d
000002d0: b3ad cb3c 84b8 053e 119b dcbc 479d 8fb9
000002e0: 582b ff3c 2137 da3c 8f98 503d 4796 a03d
000002f0: dd79 09bd 32f1 4c3d 86c3 683d e594 d23d
00000300: 3290 94bc 7dea 503d 7890 0fbd b33a a9bb
00000310: 6b51 c23d 5796 29bd 7c88 cd3d 5115 bf3c
00000320: 64e1 093e 0a11 67bd cda5 0bbd 8897 493c
00000330: 405f 9ebc 22da f9bb d6e9 88bd b6a6 253c
00000340: 0448 92bd 752e a83d 9a59 e0bc 72e8 4dbd
00000350: c9d1 a43d da16 a7bb a7bb a23c f190 a13d
00000360: e5f2 103e 753b 6d3c fdfb 453d 24c3 09bd
00000370: 35a6 bbbd 8102 4bbd 0ebe 753d 6ec7 5f39
00000380: 4e32 993d d5ff c43d b7eb 433d 19d7 4d3d
00000390: 91e7 44bc db55 0c3d d544 3e3d f4b8 24bd
000003a0: aada b13a 8c86 35bd 792b 843d 6542 ff3b
000003b0: 89c6 603d 7cbd 1ebb 2c86 47bc d516 abbd
000003c0: d748 08bd 87b2 46bb 9bed 7ebd d809 953a
000003d0: df5f 7ebd e112 793d f2a8 2a3d 0f1e a33d
000003e0: 0ac0 f43d 43d7 aebd ed8a 553d bfc4 e23b
000003f0: 9fc2 efba 0848 9fbc c915 693d 0b5d 20bd

bond_lin.weight f4 [300, 23]
-4.63595e-30 0.6849874 0.49313644 0.6224351 4.7004112e-18 0.00011716563 -3.4943923e-09 1.6166496e-14
0.00047262604 2.5087832e-09 3.556822e-25 -1.4956354e-25 -0.43023145 4.90535e-39 7.4508196e-14 -2.2636202e-06
0.00065033196 -0.00026351959 -3.3162988e-13 0.00041343525 3.2427645e-37 0.00095258525 9.126043e-05 1.4229301e-14
-0.4145332 -0.21745782 0.5821595 2.5813053e-08 -1.7121831e-31 -2.1927895e-06 1.2398335e-18 2.6202118e-08
-5.621151e-28 1.3307919e-10 8.992789e-12 0.30182412 1.1791848e-06 1.9819443e-10 1.1895812e-13 -7.86196e-10
7.971722e-05 -2.9309153e-06 1.2615765e-38 4.272285e-09 8.547137e-09 -9.494252e-23 -2.191418e-08 0.26361257
0.5246199 0.13558432 4.62541e-21 -1.8301313e-20 1.5246089e-27 0.000103468235 1.5477734e-09 3.327024e-21
-1.5782233e-12 6.8782965e-06 0.040040035 -0.00014313257 0.00019272245 -4.2930533e-06 0.00012758405 -1.2721808e-20
1.5228511e-27 -7.096122e-08 1.9655967e-07 -0.00017536353 -1.4480058e-11 -6.476154e-17 -0.28914407 0.55775136
0.43607655 2.6451714e-18 0.0008917338 -6.6254075e-38 3.659731e-15 6.7794936e-05 -2.0632758e-22 9.868338e-26
9.173561e-29 -0.55245715 -4.6101534e-34 2.7001957e-25 2.4769655e-15 -1.5586194e-06 -3.3871193e-18 -1.3749866e-07
-1.8268014e-05 0.00121166 4.0229275e-05 -1.5492473e-22 -1.6937352e-22 -0.048665036 0.38926908 -0.3230403
1.4100808e-13 1.6767897e-13 0.00014721516 -1.6478782e-34 4.8380445e-11 0.0002623658 -4.7730144e-05 -8.9890286e-17
0.33886465 -8.372326e-09 1.7673223e-05 -3.8186752e-07 -4.780753e-08 8.443001e-38 0.0011330207 2.9436693e-05
1.5843397e-06 5.8269715e-16 0.0003131489 0.0004790869 -0.3556847 0.089982875 0.10521487 0.0002223966
3.8861702e-32 -4.4984947e-13 9.820819e-27 9.531536e-27 0.00011883077 2.859144e-05 -9.870527e-10 0.49998742
-0.0011143399 0.00096636673 4.909118e-12 -8.953139e-16 -4.4395032e-10 -0.0001578 6.5148065e-15 2.5011843e-29
-3.4778764e-32 -0.00010597341 -8.232855e-07 0.14022359 0.01817952 -0.27639744 -4.912559e-39 -1.7696216e-13
9.589512e-34 7.735832e-08 -4.604416e-08 1.1841958e-05 5.1833654e-10 0.00022879627 -0.30142406 -5.462153e-20
-1.584574e-30 3.7918602e-11 -5.26673e-11 3.9094165e-18 -4.9643135e-13 -1.04882145e-10 2.064357e-19 0.00015420846
1.6181152e-08 0.00029664987 0.16385165 0.5590446 0.3417202 -9.581539e-21 1.0806108e-05 0.0010810415
2.1793998e-14 9.219398e-11 -1.1183034e-11 0.0006205052 -4.2802046e-09 0.27539492 6.282843e-09 3.3582076e-10
1.9588027e-14 -9.863758e-25 1.05295044e-07 2.6440478e-36 -6.587555e-27 -5.457841e-26 -8.451782e-05 -3.6180057e-07
-3.9276535e-14 -0.36264485 -0.19448623 -0.21183786 -1.0903566e-07 -3.1117522e-27 1.5070148e-08 -6.790582e-32
1.6513951e-08 7.468445e-09 -1.4133059e-12 -0.0001108264 0.12584838 -0.00010621895 6.554528e-30 0.000901915
2.146835e-19 -1.2195372e-24 7.8459874e-05 -3.1064995e-10 -1.0386156e-18 3.4782254e-24 5.565245e-06 -0.00014644057
-0.082452565 -0.37404484 0.26917803 -3.675673e-20 2.9235173e-22 7.6522065e-07 -1.3675607e-07 1.0777032e-20
3.023353e-05 9.417182e-21 -0.0007105572 -0.056782924 -2.3791285e-05 3.4263763e-18 -5.014865e-05 2.0443386e-26
-1.7771196e-10 0.0001042405 -0.00017275277 -1.7195538e-30 -0.00038585946 5.477668e-06 -4.8469134e-19 0.4874334
-0.18355738 -0.38438833 4.772496e-11 -0.00040636223 1.0524283e-06 0.0002094215 1.0135761e-05 1.6844242e-05
-6.479236e-27 1.340072e-15 0.07156922 1.2540537e-09 0.00034293797 0.0004361295 -8.075371e-05 0.00013342731
-5.0931625e-16 9.9039665e-17 2.9797991e-05 -2.0216186e-28 8.665085e-05 0.00022643001 0.055045106 0.49184918
00000000: 750e bc8e 565b 2f3f 617c fc3e e857 1f3f
00000010: 216a ad22 d2b6 f538 0022 70b1 679d 9128
00000020: cbca f739 fb66 2c31 1828 dc16 9426 3996
00000030: 4c47 dcbe 1f6a 3500 0dc7 a729 b3e8 17b6
00000040: 0a7b 2a3a 0029 8ab9 e7b0 baaa 57c2 d839
00000050: edb0 dc02 eab6 793a 1263 bf38 892a 8028
00000060: b23d d4be 43ad 5ebe 6808 153f 81bb dd32
00000070: 0b41 5e8c d627 13b6 96f7 b621 1113 e132
00000080: 3224 3292 7652 122f ec33 1e2d b188 9a3e
00000090: 7b44 9e35 c6ea 592f 58ef 052a a01b 58b0
000000a0: db2d a738 beb0 44b6 9f5f 8900 6bcb 9231
000000b0: b5d6 1232 938e e59a cb3d bcb2 3af8 863e
000000c0: 7d4d 063f 9ed6 0a3e 38be ae1d dcd9 ac9e
000000d0: 7c95 f112 16fd d838 6fb9 d430 0162 7b1d
000000e0: 7d1d deab 1ecc e636 0501 243d db15 16b9
000000f0: 8a15 4a39 0c0d 90b6 15c8 0539 e34e 709e
00000100: 2e4e f112 5863 98b3 e90d 5334 cae1 37b9
00000110: 62bc 7ead 7754 95a4 b10a 94be cbc8 0e3f
00000120: 6d45 df3e e02d 4322 3ec3 693a 5a5c b481
00000130: 10db 8327 212d 8e38 4b6f 799b 0654 f415
00000140: d193 e810 d56d 0dbf d932 1988 4f22 a716
00000150: f37b 3227 c131 d1b5 e0ec 79a2 58a3 13b4
00000160: 433e 99b7 90d0 9e3a dbbb 2838 e24a 3b9b
00000170: 91c2 4c9b fd54 47bd 474e c73e 8a65 a5be
00000180: d0c2 1e2a 2cca 3c2a c55d 1a39 640a 5b87
00000190: 8ac7 542e 248e 8939 da31 48b8 dc45 cfa4
000001a0: ab7f ad3e e1d5 0fb2 f540 9437 7903 cdb4
000001b0: ef54 4db3 21d7 e501 de81 943a d1ee f637
000001c0: 7fa5 d435 76f3 2726 222e a439 f52d fb39
000001d0: 4e1c b6be f148 b83d e57a d73d 2233 6939
000001e0: 10c8 490b 243e fdaa 7885 4214 a1ca 3c14
000001f0: c934 f938 a6d7 ef37 d4a8 87b0 5afe ff3e
00000200: 0b0f 92ba c653 7d3a 67b9 ac2c 4107 81a6
00000210: 7410 f4af 1d77 25b9 7cb8 ea27 75a6 fd0f
00000220: e894 348b 0b3e deb8 c0ff 5cb5 c696 0f3e
00000230: 37ed 943c f783 8dbe 377e 3580 df3d 47aa
00000240: 4655 9f08 3020 a633 17c2 45b3 d3ac 4637
00000250: b17a 0e30 08e9 6f39 4154 9abe b0f8 809f
00000260: 508e 008e 8dc4 262e 1ca2 67ae 653b 9022
00000270: a6bb 0bab 66a3 e6ae 5db7 7320 05b3 2139
00000280: bbfe 8a32 ac87 9b39 bac8 273e 8c1d 0f3f
00000290: f3f5 ae3e 7bfd 349e e14b 3537 bcb1 8d3a
000002a0: 8a4d c428 99bc ca2e e8bb 44ad 66a9 223a
000002b0: 1411 93b1 9000 8d3e 79e0 d731 929e b82f
000002c0: ea6e b028 5fa2 9897 901e e233 43ee 6004
000002d0: df7a 0294 2d21 8795 293f b1b8 7e3d c2b4
000002e0: c3e2 30a9 96ac b9be 6627 47be 06ec 58be
000002f0: fd26 eab3 d589 7693 9b73 8132 294b b08b
00000300: 90da 8d32 924e 0032 b6e7 c6ab 786b e8b8
00000310: 66de 003e ddc1 deb8 0ef1 040f 7e6e 6c3a
00000320: 1b74 7d20 d9b6 bc97 d38a a438 18c8 aaaf
00000330: ca45 99a1 ad8e 8618 17bd ba36 d78d 19b9
00000340: e4dc a8bd ce82 bfbe b4d1 893e 2994 2d9f
00000350: 3db7 b01b 9069 4d35 39d7 12b4 8792 4b1e
00000360: 039e fd37 b3e2 311e b044 3aba 3695 68bd
00000370: 6593 c7b7 6bd2 7c22 b456 52b8 2476 ca14
00000380: 7865 43af b19b da38 f824 35b9 bc81 0b8e
00000390: 2e4d cab9 cfcc b736 3e0e 0fa1 df90 f93e
000003a0: 77f6 3bbe 8cce c4be 87e5 512e 040d d5b9
000003b0: 2941 8d35 2898 5b39 c30c 2a37 bc4c 8d37
000003c0: a155 0094 ee1f c126 e292 923d 185b ac30
000003d0: 5bcc b339 50a8 e439 515a a9b8 9fe8 0b39
000003e0: e8cc 12a6 b35e e424 b3f6 f937 a322 8091
000003f0: 52b8 b538 d86d 6d39 fa76 613d a8d3 fb3e

bond_lin.bias f4 [300]
0.10975572 -0.05923493 -0.061439384 0.0323544 0.16726312 -0.2879896 -0.0012789199 -0.11696949
-0.07586538 -0.06639561 0.14182152 0.24754402 0.18975268 0.0073961713 -0.11995896 0.17528173
-0.18018113 0.03857876 -0.0069268947 -0.11985834 0.18328944 -0.0725641 -0.03556949 -0.0076741376
-0.23955204 -0.30147436 0.07132496 -0.0656858 -0.2606064 -0.11348386 -0.22594675 0.09774638
0.07068575 -0.031678602 0.057210967 -0.11452439 0.08659051 -0.22501041 0.096115336 0.12813397
0.081026524 -0.14612198 0.15031005 0.07825467 0.004036745 0.2219764 0.06123546 0.14315796
0.08851573 -0.23849708 0.020060172 0.13593733 0.22119424 0.2391059 -0.3040121 0.16976687
0.20998345 0.08822049 0.2039952 0.11272463 0.15193424 0.2324425 0.020739973 -0.12439407
0.05750852 0.060800686 0.2773291 0.17276604 0.09266334 -0.06726048 -0.051206894 -0.040579505
0.22640732 -0.26563853 -0.08560449 0.41176558 0.044692803 -0.0626227 -0.025631737 -0.16657399
-0.049014214 0.13372846 -0.13116279 0.2194576 -0.21564853 0.011679248 0.054039396 -0.30303845
0.22775574 -0.16152409 -0.16973229 0.042210415 0.12800892 -0.1866545 -0.061961677 -0.11149992
-0.17468892 0.14804016 -0.04172919 0.23856902 0.07013729 0.04083181 -0.21161085 -0.1972016
-0.13949075 -0.14094596 0.053774524 -0.15993915 -0.02496389 -0.04950608 0.14534347 0.036601618
0.20509714 0.059883468 0.059739992 0.06416448 -0.081878066 -0.19356425 -0.014751656 0.05253003
0.07706827 0.07714465 0.22516184 -0.13797861 -0.16574329 0.12142117 -0.2596076 0.08682418
0.082302965 -0.056153957 -0.08259491 -0.1225092 -0.14890942 0.2182138 -0.061675765 0.25682858
0.088997096 -0.059278358 -0.18006216 0.06032299 0.025535766 -0.18965773 -0.022945505 0.19172312
0.09483789 0.14999406 0.02330801 0.25136802 0.22034468 0.13010517 -0.10557453 0.15526624
-0.1633351 0.20269473 0.101693995 -0.10688831 -0.10795512 -0.15213059 -0.16728993 -0.17242609
-0.20382215 0.059985116 0.08851978 -0.018481297 -0.028218152 0.19162789 -0.15940627 -0.1642876
-0.20910515 0.061270695 0.028006252 0.12395538 -0.009569282 0.0452859 -0.10415806 0.2019592
0.09521363 0.18655656 -0.22594911 0.08101706 -0.12728044 -0.24182524 0.046901237 -0.18294948
0.12887104 -0.027683927 -0.09617691 0.076731 -0.19867907 0.17946789 0.18927802 0.14168942
-0.25215682 -0.04756553 -0.030620487 -0.0819128 0.0486011 -0.02111925 0.0952838 0.08316034
0.30432856 -0.084565245 -0.013040167 -0.087935016 -0.047808222 -0.11197431 0.02123059 0.13017194
-0.0023143226 0.04956814 -0.116598934 0.12387453 -0.21807332 0.06764024 0.23711261 0.1356166
0.04072061 -0.15037428 -0.051552583 0.23543282 -0.09580673 0.11539333 0.17458928 0.15401484
0.15281616 0.061802354 0.11260805 -0.043989606 -0.09328402 0.097801216 -0.0076308623 -0.2339291
0.115100235 -0.16172478 0.10610053 0.0032479197 -0.020709349 -0.030653164 -0.13523427 -0.10885468
-0.12287441 -0.108462155 -0.12775743 -0.16740793 0.054018643 0.045910995 0.10736207 -0.11088932
0.22912662 -0.02313914 -0.034840256 0.0017672686 -0.14955798 -0.028697504 -0.045614656 -0.060619082
00000000: 9bc7 e03d 53a0 72bd dda7 7bbd 0c86 043d
00000010: 0647 2b3e 5f73 93be 6ea1 a7ba b38d efbd
00000020: 4f5f 9bbd 6cfa 87bd a939 113e 2e7c 7d3e
00000030: 874e 423e 955b f23b 0bad f5bd 0e7d 333e
00000040: 6781 38be c304 1e3d 01fb e2bb 4a78 f5bd
00000050: 3ab0 3b3e 7d9c 94bd 50b1 11bd 5577 fbbb
00000060: 214d 75be d95a 9abe d212 923d 4786 86bd
00000070: 346e 85be 3a6a e8bd 965e 67be 412f c83d
00000080: b1c3 903d 6cc1 01bd 0c56 6a3d c38b eabd
00000090: 5e56 b13d 2169 66be 1ed8 c43d 8d35 033e
000000a0: 3cf1 a53d 00a1 15be e1ea 193e fc43 a03d
000000b0: ac46 843b c84d 633e 09d2 7a3d 0098 123e
000000c0: bc47 b53d 9438 74be 3b55 a43c 2833 0b3e
000000d0: be80 623e 2dd8 743e 79a7 9bbe 5ed7 2d3e
000000e0: e705 573e f2ac b43d 1ee4 503e 2cdc e63d
000000f0: a694 1b3e 6805 6e3e e0e6 a93c 51c2 febd
00000100: 0e8e 6b3d 240a 793d 14fe 8d3e 95e9 303e
00000110: 47c6 bd3d ddbf 89bd 52be 51bd b236 26bd
00000120: 52d7 673e c601 88be 6851 afbd f0d2 d23e
00000130: cd0f 373d 5540 80bd a6f9 d1bc 5f92 2abe
00000140: 21c3 48bd 1df0 083e 8a4f 06be 7eb9 603e
00000150: f8d2 5cbe 515a 3f3c 6a58 5d3d db27 9bbe
00000160: cd38 693e 9266 25be 4dce 2dbe d4e4 2c3d
00000170: c514 033e 5b22 3fbe 87cb 7dbd 125a e4bd
00000180: a7e1 32be d797 173e 3aec 2abd 704b 743e
00000190: 24a4 8f3d 423f 273d 84b0 58be 37ef 49be
000001a0: aad6 0ebe 2354 10be ad42 5c3d 17c7 23be
000001b0: 1281 ccbc e3c6 4abd ebd4 143e 94eb 153d
000001c0: fc04 523e 5e48 753d ecb1 743d ab68 833d
000001d0: b0af a7bd b535 46be eeb0 71bc bb29 573d
000001e0: f8d5 9d3d 04fe 9d3d d390 663e 444a 0dbe
000001f0: 9cb8 29be aaab f83d 4aeb 84be e0d0 b13d
00000200: 758e a83d b101 66bd 8527 a9bd 1ae6 fabd
00000210: b67b 18be 7073 5f3e ba9f 7cbd 097f 833e
00000220: 1c44 b63d ddcd 72bd 3762 38be 3d15 773d
00000230: 6230 d13c a335 42be 36f8 bbbc 1153 443e
00000240: 5e3a c23d 0b98 193e 71f0 be3c 4fb3 803e
00000250: 09a2 613e 4a3a 053e 7637 d8bd 1dfe 1e3e
00000260: 5141 27be 358f 4f3e f144 d03d 42e8 dabd
00000270: 9317 ddbd 1fc8 1bbe 0d4e 2bbe 7790 30be
00000280: c1b6 50be f4b2 753d dc49 b53d 1766 97bc
00000290: c129 e7bc 1a3a 443e 663b 23be 023b 28be
000002a0: a91f 56be fbf6 7a3d 5e6d e53c 51dc fd3d
000002b0: 7ac8 1cbc b57d 393d d250 d5bd 64ce 4e3e
000002c0: 5dff c23d af08 3f3e 345f 67be 46ec a53d
000002d0: ce55 02be 09a1 77be 831b 403d 1c57 3bbe
000002e0: c5f6 033e 67c9 e2bc 66f8 c4bd 2425 9d3d
000002f0: 8772 4bbe 6ec6 373e 19d2 413e 0817 113e
00000300: b31a 81be 13d4 42bd d1d7 fabc e6c1 a7bd
00000310: f211 473d 4702 adbc 2724 c33d f84f aa3d
00000320: f4d0 9b3e 8b30 adbd 6da6 55bc 4617 b4bd
00000330: 8ed2 43bd c952 e5bd c6eb ad3c cb4b 053e
00000340: e4ab 17bb f607 4b3d 6ccb eebd eeb1 fd3d
00000350: 9d4e 5fbe f786 8a3d a6cd 723e 14df 0a3e
00000360: a8ca 263d b7fb 19be cd28 53bd 4d15 713e
00000370: 5236 c4bd 5753 ec3d 88c7 323e 11b6 1d3e
00000380: d77b 1c3e 7724 7d3d 0d9f e63d 722e 34bd
00000390: b10b bfbd 014c c83d 500c fabb 1c8b 6fbe
000003a0: acb9 eb3d 2e9b 25be 3c4b d93d 0ddb 543b
000003b0: a7a6 a9bc 581c fbbc da7a 0abe 34ef debd
000003c0: 94a5 fbbd 6821 debd d8d2 02be fc6c 2bbe
000003d0: a742 5d3d 2b0d 3c3d a5e0 db3d f119 e3bd
000003e0: 2ba0 6a3e 4b8e bdbc a8b4 0ebd b2a3 e73a
000003f0: ba25 19be 0717 ebbc 6fd6 3abd b74b 78bd

energy_lin.1.weight f4 [300, 300]
-0.1684479 -0.06842014 0.15844794 -0.12605521 0.021317923 0.12513344 0.10619859 0.010245018
0.14247036 0.14547107 0.040880058 0.27138948 -0.04589107 0.17672628 -0.036966886 0.07275908
0.15129401 0.004759293 0.096496835 0.05507804 -0.06280453 0.060855173 -0.06077814 0.013953668
0.15718856 -0.08201832 0.044833478 -0.043430615 -0.098195285 0.0045421235 -0.03927763 0.14508848
-0.0549542 -0.14666742 -0.04869094 -0.015938755 -0.06104383 -0.046559863 -0.042302076 0.058234267
-0.1091814 -0.04774958 -0.12090951 -0.0070949728 0.045287162 0.11756103 -0.21015611 -0.0088971825
-0.05403074 0.12124035 -0.11317667 0.16758722 0.108867146 0.04903234 -0.14807238 -0.028540319
0.09116468 -0.028753594 0.17013794 -0.05859389 -0.082818255 0.15842596 0.026170999 0.03606052
-0.15628795 0.078416385 0.06438735 0.0074256198 0.05917355 -0.095549636 -0.02325298 -0.09306592
0.08127205 0.15515946 -0.061241206 0.26265222 -0.047995206 -0.100988284 -0.058436934 0.12724248
0.096755825 -0.13429756 -0.09554163 0.02572539 0.17204797 0.09964103 0.12101986 0.1391648
-0.061183363 0.131946 -0.062168103 -0.15206693 0.105508745 0.16056186 0.04380865 -0.06317213
-0.11115024 0.08407481 -0.058508758 0.06099191 -0.120796464 0.0934996 0.024928182 0.11346274
-0.10861014 -0.0923808 -0.025214275 0.057357796 0.13966145 0.17830867 0.09172237 -0.07834107
-0.016721169 -0.14410388 -0.030711778 0.012021139 -0.0039120307 0.1700256 -0.102437355 -0.026195811
-0.13142768 0.16174261 -0.093592994 0.16099207 0.033679146 -0.04097373 0.14721194 -0.013957209
0.03548266 0.13807094 -0.05984204 -0.09426071 0.12668553 0.0044110753 -0.09730902 -0.059998743
-0.08072668 0.07352247 0.08093731 0.08267639 -0.052806206 0.16918527 0.16667514 -0.058525644
0.041867692 -0.025602365 0.13277818 -0.09629901 -0.044747528 0.3062833 0.0010595096 -0.03561898
-0.046991102 -0.008851213 0.109197065 -0.14016117 0.07137338 0.09602654 -0.09528344 -0.06694827
0.1771658 -0.0941236 0.008678727 0.10431967 -0.016450703 -0.020936375 0.068645485 0.051701754
-0.099692985 0.08880095 0.06352603 0.08276313 0.15863647 0.0912142 -0.027135663 0.027164776
0.060183614 -0.17804016 0.06659244 -0.02610765 0.05768624 -0.20914097 0.090039074 -0.10417543
-0.09375213 0.10500568 -0.045300514 0.12815239 -0.0015483435 0.07957702 -0.0110183 0.15453798
0.098102085 0.04503809 -0.15673395 0.01942688 0.16020845 -0.061767697 -0.11189012 0.0353749
-0.1733198 0.032845657 -0.17002892 0.17568114 -0.012108112 0.015648462 0.08116081 -0.011210384
0.04386665 -0.005057348 0.08845472 0.007203197 0.15570636 0.009539885 0.011914579 0.0044147074
0.064994395 0.17190441 -0.022882486 0.019462021 0.16437966 -0.10742046 -0.06502345 -0.07270338
-0.062208056 -0.05193852 -0.04072625 0.0730116 0.16853632 0.18418556 0.015158738 0.125654
-0.082327515 0.13232446 -0.030020634 -0.05931276 0.05516537 0.15645438 0.016417423 -0.10092693
0.03619655 -0.036109243 0.1341668 -0.01092923 -0.10671628 0.09774861 0.107036814 -0.0294802
0.11264655 -0.06320805 0.39387873 0.016435675 0.054099753 -0.10140366 0.21085666 -0.06281765
00000000: 9b7d 2cbe dc1f 8cbd 2d40 223e 9e14 01be
00000010: eda2 ae3c fb22 003e a57e d93d b8da 273c
00000020: c0e3 113e 5ef6 143e d971 273d 90f3 8a3e
00000030: 46f8 3bbd bcf7 343e 976a 17bd b602 953d
00000040: d1ec 1a3e d8f3 9b3b 22a0 c53d 8399 613d
00000050: a99f 80bd 4643 793d 80f2 78bd ed9d 643c
00000060: 0af6 203e 39f9 a7bd 4fa3 373d 4de4 31bd
00000070: 9c1a c9bd 18d6 943b 95e1 20bd 1392 143e
00000080: a817 61bd fc2f 16be 2770 47bd fe91 82bc
00000090: 1809 7abd 8eb5 3ebd f144 2dbd 0e87 6e3d
000000a0: 7f9a dfbd 1095 43bd 689f f7bd f27c e8bb
000000b0: 087f 393d d6c3 f03d 2a33 57be 7dc5 11bc
000000c0: 564f 5dbd dc4c f83d 2cc9 e7bd fc9b 2b3e
000000d0: bdf5 de3d 23d6 483d 49a0 17be 63cd e9bc
000000e0: 8cb4 ba3d a88c ebbc a438 2e3e 2600 70bd
000000f0: 9e9c a9bd 6a3a 223e 9064 d63c 32b4 133d
00000100: f309 20be c598 a03d 84dd 833d 9d52 f33b
00000110: f75f 723d 87af c3bd 097d bebc 5899 bebd
00000120: f671 a63d 1fe2 1e3e 0fd8 7abd 5a7a 863e
00000130: 9f96 44bd f2d2 cebd 915b 6fbd da4b 023e
00000140: eb27 c63d 4d85 09be 55ab c3bd 0ebe d23c
00000150: 582d 303e 9910 cc3d 43d9 f73d 3881 0e3e
00000160: 689b 7abd da1c 073e fba3 7ebd 6fb7 1bbe
00000170: f814 d83d 546a 243e b370 333d 6460 81bd
00000180: bda2 e3bd 6a2f ac3d e1a6 6fbd a7d2 793d
00000190: 2364 f7bd b87c bf3d 3036 cc3c 275f e83d
000001a0: fe6e debd 2532 bdbd 2b8e cebc 02f0 6a3d
000001b0: 6903 0f3e 8c96 363e f0d8 bb3d 4871 a0bd
000001c0: d5fa 88bc f88f 13be 4497 fbbc 50f4 443c
000001d0: 7e30 80bb 311b 2e3e adca d1bd 9998 d6bc
000001e0: fa94 06be db9f 253e afad bfbd 1bdb 243e
000001f0: 25f3 093d 12d4 27bd babe 163e c7ac 64bc
00000200: 4456 113d 7862 0d3e ed1c 75bd c20b c1bd
00000210: dab9 013e c88a 903b f449 c7bd 3ec1 75bd
00000220: 0854 a5bd f392 963d 76c2 a53d 3d52 a93d
00000230: 524b 58bd e73e 2d3e e3ac 2a3e 96b8 6fbd
00000240: 757d 2b3d 0dbc d1bc 01f7 073e 6a38 c5bd
00000250: 2f49 37bd 2ad1 9c3e 3edf 8a3a 35e5 11bd
00000260: be79 40bd ae04 11bc b6a2 df3d 6986 0fbe
00000270: 352c 923d 90a9 c43d f723 c3bd 2d1c 89bd
00000280: f46a 353e e0c3 c0bd 3831 0e3c 8da5 d53d
00000290: a0c3 86bc c382 abbc 0196 8c3d 38c5 533d
000002a0: d62b ccbd 46dd b53d ef19 823d b77f a93d
000002b0: 9971 223e 83ce ba3d 9c4b debc aa88 de3c
000002c0: 1883 763d 2950 36be 9e61 883d b6df d5bc
000002d0: 6848 6c3d 0d29 56be 6866 b83d ee59 d5bd
000002e0: 1e01 c0bd 380d d73d 088d 39bd 613a 033e
000002f0: c9f1 caba 47f9 a23d 1a86 34bc 343f 1e3e
00000300: bfe9 c83d dc79 383d dd7e 20be 1f25 9f3c
00000310: af0d 243e 2000 7dbd a626 e5bd 45e5 103d
00000320: bf7a 31be 2b89 063d 101c 2ebe c2e5 333e
00000330: 1a61 46bc 3431 803c a437 a63d c2ab 37bc
00000340: 84ad 333d 1cb8 a5bb c027 b53d cc08 ec3b
00000350: 7d71 1f3e 2e4d 1c3c 5e35 433c 40a9 903b
00000360: c81b 853d b607 303e 0d74 bbbc d16e 9f3c
00000370: 2453 283e 42ff dbbd 042b 85bd 82e5 94bd
00000380: e0cd 7ebd 7cbd 54bd 91d0 26bd 1b87 953d
00000390: c994 2c3e 249b 3c3e 5b5c 783c 71ab 003e
000003a0: 549b a8bd 1080 073e d5ed f5bc f0f1 72bd
000003b0: 15f5 613d 9435 203e d57d 863c c7b2 cebd
000003c0: d542 143d 49e7 13bd 0663 093e 8310 33bc
000003d0: 118e dabd 6c30 c83d 1e36 db3d 7680 f1bc
000003e0: 3cb3 e63d 3973 81bd 79aa c93e 1ca4 863c
000003f0: b497 5d3d b9ac cfbd cfea 573e 8aa6 80bd

energy_lin.1.bias f4 [300]
0.052076533 0.03253353 0.06507616 -0.0106484955 0.0507736 -0.0027085727 -0.045375098 -0.02755013
0.060267877 0.018392533 0.06120722 0.01580365 -0.037523467 0.048288293 -0.003525867 -0.042284984
0.008911825 -0.019390518 0.036195714 0.04606455 0.09148056 0.011729914 0.0705785 0.019567616
-0.012009604 0.054918908 0.04140169 -3.340622e-23 0.06981743 0.029130071 0.063669525 -1.0145526e-20
0.069450065 0.03779121 0.015845614 -0.008828462 0.04492539 0.069961585 -1.0883275e-11 0.037447806
-0.0056287646 0.06707081 0.023155602 -0.02509153 0.04319006 0.06277377 0.010132962 0.045543972
0.032632794 0.006183869 0.014768795 -0.0029868456 0.043418568 -0.0058230534 0.01882582 -0.02773516
-0.026655382 -0.0015079116 0.00781619 0.098584674 0.0072267125 0.029577842 0.008454482 0.039645836
0.05674057 0.053074345 0.06740248 0.010545759 -0.042101037 0.028933102 0.038366016 0.00011075005
0.00044096072 0.017951742 0.07113376 -0.029416844 0.012683554 -0.0037848225 0.05737519 0.04619428
0.061429013 0.05238807 -0.0055751475 0.050941207 0.04468431 0.06718302 -0.036519263 0.050184827
-0.029302621 0.053585626 0.060974225 0.017198935 0.013924995 0.047015943 -2.8927193e-21 0.0016706756
0.047718484 0.067506894 -0.04872591 0.045425568 -0.040731538 -0.04741935 -0.012959058 0.039054826
-0.03535483 0.043988295 0.06573309 0.031070827 0.014128845 0.06658369 -0.021997795 -0.020734705
0.037786327 0.03942755 0.050326753 -0.03529943 0.0461305 0.021083903 0.049542453 -0.0164127
-0.015675513 0.004691967 0.010740754 0.041106597 0.074317075 0.060136233 0.019763714 0.023500713
0.018529804 0.0267181 0.07279212 0.034642886 0.03153631 0.03197272 0.0034305477 -0.013992568
0.06424106 -0.036732424 -0.04107338 -0.03925066 0.007876464 -0.026905367 0.01053586 0.054258466
0.07082862 0.040337067 0.053459015 0.019762862 0.06683787 0.011275477 -0.01647867 0.020568816
0.063517414 0.03743336 0.019153109 0.063812576 0.026936775 0.011833889 0.032507136 0.0292703
-0.0048799063 0.03934906 -0.020006701 -0.0035612585 -0.03417562 -0.025534762 0.09822913 0.03268417
-0.010761833 0.086068764 -0.012428542 0.04902689 -0.03932528 0.015091775 0.005766689 -0.0039287857
-0.024203187 -0.025729006 0.019186297 -0.02865062 0.023352489 -7.515045e-32 0.01993786 -0.051154736
0.017714983 -0.042763297 0.05395832 0.08026599 0.04560151 0.07031384 0.009249326 0.08385538
0.096041866 0.0002825203 0.027700927 -0.0416091 0.043002173 -0.022716217 0.021974841 -0.02425962
0.03534743 0.027681718 0.05161272 -0.011794624 0.044679902 -0.018045438 -0.03405129 -0.021927392
-0.029438414 0.005401935 0.009775129 -0.022635844 0.017378801 0.0046631284 -0.0011212958 0.053532273
-0.04752243 0.007224364 0.05955555 0.06707404 -0.05197596 0.042798802 -0.010697586 0.02826198
0.026193298 0.0027016522 0.048335195 -0.035695896 -0.008113047 -0.016131913 -0.05478472 -0.023247838
-0.016930897 0.05666722 0.05047006 0.045358714 0.04531062 0.07156672 0.009661163 0.01534979
-0.03271612 0.0034049952 0.009337913 -0.032562412 -0.0028046006 -0.013198198 0.044038583 0.07179993
-0.0051647304 -0.011936226 0.016656434 0.0061861593 -0.020255607 0.05703682 0.08203492 0.04874628
00000000: 344e 553d e141 053d a646 853d 0777 2ebc
00000010: faf7 4f3d 4f82 31bb 3ddb 39bd cfb0 e1bc
00000020: 73db 763d f0ab 963c 6cb4 7a3d a876 813c
00000030: 35b2 19bd f2c9 453d 3b12 67bb 0533 2dbd
00000040: e702 123c ddd8 9ebc f541 143d 2eae 3c3d
00000050: 295a bb3d d32e 403c 768b 903d 444c a03c
00000060: eec3 44bc a6f2 603d d294 293d e68a 219a
00000070: 71fc 8e3d 30a2 ee3c 2b65 823d c1a4 3f9e
00000080: d63b 8e3d f5ca 1a3d a9ce 813c 41a5 10bc
00000090: b003 383d 0548 8f3d ea75 3fad df62 193d
000000a0: 8071 b8bb 6c5c 893d d1b0 bd3c c18c cdbc
000000b0: 0fe8 303d 898f 803d b904 263c 518c 3a3d
000000c0: f7a9 053d 0ea2 ca3b d1f8 713c f4be 43bb
000000d0: abd7 313d 50cf bebb 9b38 9a3c d934 e3bc
000000e0: 635c dabc 1ea5 c5ba 7a0f 003c c3e6 c93d
000000f0: 0fce ec3b 3b4d f23c ab84 0a3c ac63 223d
00000100: cd68 683d 7c64 593d 500a 8a3d 1fc8 2c3c
00000110: 2372 2cbd 1d05 ed3c af25 1d3d 7b42 e838
00000120: bf30 e739 880f 933c 94ae 913d 98fb f0bc
00000130: aece 4f3c c90a 78bb 3f02 6b3d 3736 3d3d
00000140: fd9c 7b3d df94 563d baaf b6bb baa7 503d
00000150: e506 373d 4097 893d 3995 15bd 9b8e 4d3d
00000160: 0d0c f0bc 9a7c 5b3d 1cc0 793d c8e4 8c3c
00000170: aa25 643c ca93 403d 5491 5a9d 92fa da3a
00000180: 7574 433d 0e41 8a3d d294 47bd 2910 3a3d
00000190: 1dd6 26bd cb3a 42bd 3b52 54bc f4f7 1f3d
000001a0: 3ad0 10bd 122d 343d 129f 863d 3f88 fe3c
000001b0: ac7c 673c 085d 883d b834 b4bc d4db a9bc
000001c0: d6c5 1a3d c87e 213d 6d23 4e3d 2396 10bd
000001d0: 56f3 3c3d 26b8 ac3c 07ed 4a3d ed73 86bc
000001e0: ef69 80bc 12bf 993b fdf9 2f3c 645f 283d
000001f0: 8d33 983d 6951 763d 83e7 a13c 9184 c03c
00000200: d1cb 973c ebdf da3c 0914 953d b3e5 0d3d
00000210: 382c 013d d4f5 023d 0ad3 603b 1541 65bc
00000220: d190 833d bd74 16bd 8f3c 28bd 4dc5 20bd
00000230: 490c 013c a568 dcbc 9a9e 2c3c 203e 5e3d
00000240: 980e 913d 7b38 253d d7f7 5a3d bae5 a13c
00000250: 4be2 883d c7bc 383c 47fe 86bc ef7f a83c
00000260: 6b15 823d b953 193d fbe6 9c3c 2bb0 823d
00000270: 83aa dc3c eee2 413c 3426 053d 45c8 ef3c
00000280: 9fe7 9fbb 7b2c 213d 18e5 a3bc 0164 69bb
00000290: bcfb 0bbd 472e d1bc 5b2c c93d d6df 053d
000002a0: 6652 30bc d244 b03d 15a1 4bbc 6cd0 483d
000002b0: 8b13 21bd 7e43 773c 7ef6 bc3b 0bbd 80bb
000002c0: c345 c6bc a3c5 d2bc 952c 9d3c b4b4 eabc
000002d0: b84d bf3c 0b1a c38b b954 a33c a187 51bd
000002e0: 031f 913c 9128 2fbd 6603 5d3d 7f62 a43d
000002f0: a6c8 3a3d b400 903d 7c8a 173c 5fbc ab3d
00000300: 99b1 c43d 3c1f 9439 0eed e23c 4e6e 2abd
00000310: 0c23 303d 5c17 babc 9504 b43c 1cbc c6bc
00000320: 77c8 103d c5c4 e23c dc67 533d 3d3e 41bc
00000330: 4602 373d 07d4 93bc 5e79 0bbd 13a1 b3bc
00000340: d428 f1bc b702 b13b dd27 203c ce6e b9bc
00000350: fd5d 8e3c 28cd 983b 72f8 92ba a844 5b3d
00000360: e1a6 42bd 5cba ec3b 85f0 733d 1d5e 893d
00000370: bfe4 54bd cc4d 2f3d ee44 2fbc ab85 e73c
00000380: 5493 d63c 340e 313b 20fb 453d dc35 12bd
00000390: 96ec 04bc 1327 84bc f165 60bd 4072 bebc
000003a0: aab2 8abc e31b 683d b2b9 4e3d 0fca 393d
000003b0: a197 393d 9391 923d db49 1e3c b07d 7b3c
000003c0: 5701 06bd 5726 5f3b 0cfe 183c 2a60 05bd
000003d0: 64cd 37bb 413d 58bc cd61 343d d70b 933d
000003e0: e63c a9bb 2990 43bc 1373 883c 44b5 ca3b
000003f0: 16ef a5bc 719f 693d ed01 a83d 2eaa 473d

energy_lin.3.weight f4 [150, 300]
0.0027183937 -0.057265528 -0.073990844 -0.11787633 0.04023329 0.0054331194 0.107157685 -0.085029334
0.11823889 0.12604836 -0.019849375 0.07671538 -2.6642525e-05 0.05378683 -5.4626765e-19 -0.101667315
0.11855151 -0.021235686 0.121594846 -5.052232e-30 -0.020105384 -2.1236557e-22 -2.5241766e-29 0.066782646
-4.912703e-39 -0.014784127 0.058294952 -9.3583734e-35 0.06852377 -0.09300535 0.08650202 -9.186718e-20
0.028778734 -0.08876749 -4.908145e-39 4.708353e-39 -0.018241774 -0.061561085 1.5089231e-27 0.09312989
-1.6436377e-27 0.040714838 -3.505941e-25 -0.038559955 0.03587243 0.038643025 0.035946175 -4.911965e-39
0.008612713 0.08073509 0.09414367 -4.911066e-39 -0.0061121387 0.04495702 -4.916006e-39 -0.05116815
-0.098131515 -0.10709374 -0.09654746 -4.913713e-39 0.027837606 -0.08134011 -2.2260198e-25 -0.05908287
1.8790104e-29 -0.0641772 -0.077199966 -0.08458323 -4.906572e-39 -4.913031e-39 0.027349 0.10907141
-0.074205324 0.022271244 0.027178118 0.02132808 1.75184e-30 -0.14021185 -0.018337006 -0.050401337
-9.529191e-31 0.026137456 -0.101439275 -0.052806113 3.0863741e-32 -5.727366e-21 4.916164e-39 0.08556361
0.044034753 0.10790987 -1.9757103e-33 -0.08075155 0.10537609 0.051088993 -2.5258824e-21 0.050232805
0.06830501 -4.2124444e-20 7.6196744e-23 0.049824446 0.08687249 0.119778626 0.10025295 -4.1980962e-30
0.12413755 -0.00065322197 0.12963788 0.048690688 -0.105531126 0.07847666 0.07866009 -0.0595034
0.062450875 2.1117498e-25 -0.03201566 -2.8589274e-21 -0.10450805 1.3667399e-31 0.08483368 -0.084144115
0.07494216 -0.09102396 0.108261555 -0.028973611 -0.03694732 -0.09382399 -0.06935377 -1.5724736e-19
-0.10378627 -0.09918759 0.0089582205 0.020192862 -3.5010184e-19 -0.06314745 1.9817827e-30 -0.05538975
-0.07376233 -0.042285625 -0.08908922 8.9569705e-24 -4.906937e-39 0.11510522 1.1153589e-28 0.050880753
-4.904863e-39 0.08457926 -6.3061185e-34 0.014006118 -0.07157794 -0.0651162 -1.3561666e-22 0.093661346
0.050866332 -0.12977736 0.057529137 -0.08403525 4.4367723e-35 -0.04451911 -0.13461506 -0.07101069
-0.09359932 -0.078534625 0.10348662 -1.5628236e-26 0.006492019 -3.6267875e-28 0.078910075 0.038591992
-0.082450464 -7.955394e-20 -0.1022371 -5.228012e-25 -0.084877014 0.111010976 -0.11060564 0.006644583
2.1109811e-29 -0.07532434 0.0387321 0.07527736 0.10414776 6.6363725e-27 -0.046599895 -9.448432e-22
3.0579082e-35 0.018892337 -1.4157928e-05 -3.0664132e-34 -0.040426742 -0.08541915 -0.047632057 0.03559464
-0.064148284 1.0592748e-19 -0.030571617 0.012554181 6.620906e-27 -0.106773965 0.069990136 -0.04767599
0.091812484 -4.911473e-39 -0.05265048 0.0042301095 -3.6566995e-19 -4.1531697e-24 -0.11087892 0.1358304
-4.917753e-39 -0.017154263 0.10379616 -0.005267221 8.133614e-23 -0.092996106 0.060427375 0.04086566
-0.08187611 -0.05429678 1.4453018e-31 -0.04358015 -0.037073266 -0.023548748 -0.06288932 -0.036881357
-0.05954274 0.11971673 0.053137675 -6.464908e-22 6.46137e-40 0.07960719 -0.10855155 0.01033115
-1.659408e-22 0.051287055 1.6562258e-23 2.6900398e-21 4.914222e-39 -0.023583135 0.08485918 -2.1951705e-23
4.910207e-39 3.5670018e-34 -0.11244161 0.079984844 0.03462878 0.04205176 -8.988495e-34 -0.052494574
0.11000788 -1.0031495e-21 -0.00051103777 0.013924829 0.07092811 -0.029129628 -0.04547002 -0.09016129
00000000: 1427 323b 428f 6abd 8388 97bd 2569 f1bd
00000010: aacb 243d 4f08 b23b 7d75 db3d dc23 aebd
00000020: 3b27 f23d d212 013e 289b a2bc f41c 9d3d
00000030: 637e dfb7 944f 5c3d d13a 21a1 f436 d0bd
00000040: 22cb f23d 76f6 adbc b806 f93d 60f1 cc8e
00000050: 0cb4 a4bc fb5d 809b 5ffb ff8f 57c5 883d
00000060: 9e7e 3580 1f39 72bc b0c6 6e3d cac9 f886
00000070: 3156 8c3d 9779 bebd f927 b13d 4eea d89f
00000080: 61c1 eb3c bbcb b5bd e971 3580 f944 3300
00000090: c66f 95bc 7a27 7cbd 3119 ef12 e2ba be3d
000000a0: ef38 0293 9ac4 263d da01 d996 0bf1 1dbd
000000b0: f8ee 123d 2648 1e3d 4c3c 133d 8f7c 3580
000000c0: 561c 0d3c 7058 a53d 65ce c03d 0e7a 3580
000000d0: 5648 c8bb da24 383d d387 3580 b295 51bd
000000e0: 2df9 c8bd f653 dbbd adba c5bd 6f81 3580
000000f0: b10b e43c a595 a6bd b1c8 8996 e100 72bd
00000100: e68d be0f 566f 83bd 041b 9ebd f939 adbd
00000110: 876d 3580 887f 3580 030b e03c d560 df3d
00000120: f6f8 97bd 2f72 b63c a5a4 de3c 3ab8 ae3c
00000130: 4b20 0e0e b293 0fbe 7d37 96bc a271 4ebd
00000140: b69e 9a8d 381e d63c 65bf cfbd 394b 58bd
00000150: f340 200b af5f d89d 4488 3500 f93b af3d
00000160: c95d 343d daff dc3d b622 2489 1261 a5bd
00000170: 6bcf d73d b142 513d acd9 3e9d eac0 4d3d
00000180: 7fe3 8b3d 54ed 469f 803b b81a b814 4c3d
00000190: 34ea b13d 7f4e f53d 6b51 cd3d 864b aa8e
000001a0: d43b fe3d fc3c 2bba cbbf 043e e36f 473d
000001b0: b420 d8bd 5fb8 a03d 8b18 a13d d6b9 73bd
000001c0: 7dcc 7f3d 03b6 8216 da22 03bd b303 589d
000001d0: 5108 d6bd b969 310c 48bd ad3d c053 acbd
000001e0: 467b 993d c56a babd 3cb8 dd3d 115a edbc
000001f0: 1356 17bd cb26 c0bd 5909 8ebd 19a5 39a0
00000200: e58d d4bd dd22 cbbd 80c5 123c 806b a53c
00000210: e5a9 cea0 7353 81bd 04c8 200e 5de0 62bd
00000220: b410 97bd b133 2dbd 6974 b6bd c540 2d19
00000230: 8b6e 3580 49bc eb3d 7763 0d11 5668 503d
00000240: c368 3580 e437 ad3d 868e 5188 eb79 653c
00000250: 7497 92bd a45b 85bd 53f3 239b 85d1 bf3d
00000260: 3759 503d 5be4 04be aca3 6b3d ac1a acbd
00000270: 37e6 6b06 ac59 36bd 88d8 09be 0d6e 91bd
00000280: 00b1 bfbd c3d6 a0bd cbf0 d33d 49c6 9a94
00000290: 01bb d43b fedf e591 9b9b a13d a312 1e3d
000002a0: cadb a8bd 68d7 bb9f af61 d1bd 94cc 2197
000002b0: 00d4 adbd b959 e33d 3685 e2bd cdba d93b
000002c0: 3414 d60f a643 9abd 8da5 1e3d 042b 9a3d
000002d0: 6c4b d53d 6872 0314 88df 3ebd dac7 8e9c
000002e0: 1796 2206 1ac4 9a3c d687 6db7 51cc cb87
000002f0: 8396 25bd 3cf0 aebd d519 43bd afcb 113d
00000300: 2d60 83bd 3c1d fa1f 5471 fabc 0db0 4d3c
00000310: fb23 0314 4fac dabd fd56 8f3d e647 43bd
00000320: 2f08 bc3d 307b 3580 08a8 57bd bb9c 8a3b
00000330: 7bda d7a0 00ab a098 7d14 e3bd 2017 0b3e
00000340: b28c 3580 1987 8cbc 1593 d43d a798 acbb
00000350: a2a8 c41a be74 bebd b282 773d c062 273d
00000360: a9ae a7bd 4d66 5ebd 649c 3b0c 1981 32bd
00000370: 23da 17bd 4ee9 c0bc 1ecc 80bd e810 17bd
00000380: 17e3 73bd 0c2e f53d e4a6 593d ce63 439c
00000390: 2b09 0700 1809 a33d 4650 debd fc43 293c
000003a0: 319c 489b 6012 523d 2a2e a019 f040 4b1d
000003b0: da82 3500 6b31 c1bc a6ca ad3d ca4d d499
000003c0: a977 3500 6411 ed07 c947 e6bd 18cf a33d
000003d0: e8d6 0d3d 773e 2c3d d458 9588 8d04 57bd
000003e0: d04b e13d 7797 979c 2af7 05ba f724 643c
000003f0: c242 913d 42a1 eebc c63e 3abd 7ba6 b8bd

energy_lin.3.bias f4 [150]
-0.03954318 0.07623879 4.909316e-39 0.0020646532 -0.0008098052 -0.009557093 0.024636807 -0.025432602
0.09034895 0.033015426 -0.036008563 -0.01186125 -0.045688715 0.03472045 0.030873861 0.021575732
0.057203744 -0.053310327 0.006943835 0.026714327 -0.00040087738 0.032275036 -0.00054512173 0.013470997
-0.031418525 0.025803892 -0.0071463133 -0.035324924 0.058135513 0.013543731 -0.002977474 0.050251327
0.04749313 0.016672218 0.04178307 0.050423115 -0.010370297 0.008101531 0.011941042 0.013175113
-0.032883503 0.048987992 0.047322143 0.0053092334 0.013874898 -0.013036635 -0.042976722 0.054102547
0.04767896 -0.0217631 0.040122867 0.04391014 -0.013643295 0.0337488 0.06345949 -0.037412044
0.047766477 0.0028071103 0.024076607 0.01677505 0.008471463 0.05970808 -0.011749973 0.0032543507
-0.057507027 0.010763158 -0.0040654643 0.05534782 0.002290378 -0.01667954 0.04239802 0.04695288
-0.008723897 -0.012598907 0.06641454 -0.041318245 -0.015601653 -0.033685636 -0.060125537 -0.01669322
0.06438608 -0.02408837 -0.044108104 -0.020706786 0.00436683 0.019274913 -0.028924292 -0.047220293
0.011608617 0.030672492 0.053580053 0.0146226855 0.040751215 -0.019696632 0.046654664 -0.006776301
-0.0035093478 -0.048265386 0.099200845 -0.04048929 0.00045420133 -0.018870272 -0.00020356149 0.039829705
-0.012279557 -0.04130862 0.036778443 0.016391404 0.044285323 0.006696751 0.009557953 0.028034694
-0.03906135 -0.009586802 -0.047537852 0.038476847 0.011466868 0.011309023 0.059103608 -0.030726857
0.060764104 0.05382616 -0.013734644 0.012561637 -0.015083389 0.036188647 0.026054103 0.038873456
-0.023624377 -0.045852304 -0.04016796 -0.025718091 -0.04002943 0.002048112 0.00261779 -0.02585134
0.00090944336 0.021522235 -0.011059454 -0.014400795 -0.032441497 -0.036288004 0.0149253085 -0.053143192
-0.05453702 0.04347215 0.06443569 -0.02526631 0.034518547 0.027091233
00000000: 08f8 21bd 1523 9c3d 2d75 3500 224f 073b
00000010: 1b49 54ba 5a95 1cbc 21d3 c93c 0858 d0bc
00000020: df08 b93d 2f3b 073d b77d 13bd b055 42bc
00000030: 1724 3bbd 0837 0e3d 2eeb fc3c 97bf b03c
00000040: 794e 6a3d ee5b 5abd 1c89 e33b 01d8 da3c
00000050: da2c d2b9 d432 043d 80e6 0eba 75b5 5c3c
00000060: b6b0 00bd af62 d33c 9f2b eabb deb0 10bd
00000070: 811f 6e3d 86e6 5d3c b921 43bb 56d4 4d3d
00000080: 2888 423d 2d94 883c b924 2b3d 7888 4e3d
00000090: 2ee8 29bc 49bc 043c 5ca4 433c 6edc 573c
000000a0: dab0 06bd a2a7 483d ddd4 413d 14f9 ad3b
000000b0: 8a53 633c 9c97 55bc 5c08 30bd a29a 5d3d
000000c0: 034b 433d 8748 b2bc e057 243d 1edb 333d
000000d0: 2088 5fbc 2f3c 0a3d 0df7 813d 5f3d 19bd
000000e0: c8a6 433d 7ff7 373b 4e3c c53c d46b 893c
000000f0: e4cb 0a3c 7690 743d f582 40bc f246 553b
00000100: 7d8c 6bbd f557 303c 9637 85bb 65b4 623d
00000110: 2b1a 163b 88a3 88bc 8ca9 2d3d aa51 403d
00000120: adee 0ebc a56b 4ebc 5904 883d 523d 29bd
00000130: 139e 7fbc f3f9 09bd 3246 76bd 38c0 88bc
00000140: d9dc 833d f954 c5bc b3aa 34bd 47a1 a9bc
00000150: a017 8f3b 6ce6 9d3c a3f2 ecbc 116a 41bd
00000160: 1232 3e3c e144 fb3c c276 5b3d fd93 6f3c
00000170: bfea 263d d55a a1bc f618 3f3d bc0b debb
00000180: 16fd 65bb edb1 45bd d029 cb3d 19d8 25bd
00000190: df21 ee39 d495 9abc 1f73 55b9 7924 233d
000001a0: 3230 49bc 3a33 29bd fea4 163d 4447 863c
000001b0: 8764 353d 6b70 db3b f698 1c3c 04a9 e53c
000001c0: cbfe 1fbd f611 1dbc 0db7 42bd e699 1d3d
000001d0: 88df 3b3c 7b49 393c a016 723d e4b6 fbbc
000001e0: c8e3 783d d278 5c3d 4607 61bc 53cf 4d3c
000001f0: 5220 77bc 8c3a 143d 6a6f d53c c639 1f3d
00000200: e987 c1bc a0cf 3bbd 2987 24bd bfae d2bc
00000210: e6f5 23bd 9e39 063b 3a8f 2b3b 30c6 d3bc
00000220: b667 6e3a 664f b03c b632 35bc 50f1 6bbc
00000230: 60e1 04bd bba2 14bd 4889 743c adac 59bd
00000240: 3662 5fbd da0f 323d dcf6 833d 4bfb cebc
00000250: 5263 0d3d 6fee dd3c
