models/mpnn_A139_B23_E300_L2/64.pt (torch, 742651 bytes, 9 tensors)

atom_lin.weight f4 [300, 139]
00000000: 0bcb 1a3e 6214 63be d9f2 2d98 cc17 14aa
00000010: 1438 c49c 771a a30b 7ab6 aebd 9ea8 c03d
00000020: fa3f 31be 473d 60bc b61c 959b c97d 3580
00000030: f5b2 7bbc ef98 3521 8e0b 8399 a21d 423e
00000040: 42ce 9e3e fbc4 e2bd 0a9f 4d1c 6418 2008
00000050: 0b77 3580 f88b c81d b0f9 1e95 f89a c398
00000060: 0c17 8a21 22d7 9bbb fbd6 203e b298 cebd
00000070: 3792 de91 2f98 9229 e07a cd21 0dcb 3896
00000080: c7c5 1417 9051 529b 1a85 681e 71b4 93bc
00000090: 07b1 dd28 aee8 9e0d ce7a e6a0 a6a5 c511
000000a0: 8abd 8524 99d5 ac90 03e1 f511 c4e9 fe9c
000000b0: 5fc1 e69b 8c0b 9a9d aa41 b390 437e 3500
000000c0: 8b03 9490 1aa6 9f22 8dea 029b ad45 0629
000000d0: 04df 5f1f 45d9 443d 20f2 6da3 6e2b cd9f
000000e0: c838 dca7 b141 da01 5814 b5a4 6279 fe1b
000000f0: 88e8 db13 1f85 3580 0822 0327 fa8a 018a
00000100: 7371 3500 54bd da8c 8cf8 4021 3583 3580
00000110: 057f 8098 a465 0b16 65bf 9499 8224 aca5
00000120: 4fb9 0aa1 88da c012 5d21 52a6 8c5d 1529
00000130: 6957 f0a4 e98a 3580 7857 000d b367 0318
00000140: fb2f ab0b 881c fc05 bda3 e914 5ee4 2424
00000150: fb8b 3580 a0c7 6080 62d0 4fa5 6585 1d18
00000160: 4f84 4821 7a8f 8c20 10ce 5e28 d721 f30b
00000170: 80fb 1e25 88b1 eb91 1c25 25a7 aa16 4691
00000180: 2de2 4b8f ae9c bd93 0bde 3191 924a 209c
00000190: 7b02 a68b e949 469c b26c 3580 6213 4303
000001a0: f9a0 608d fa74 76a0 5467 e00a 4891 1010
000001b0: d280 3500 b955 209b ecd3 058c cc79 738d
000001c0: 5ee6 1122 de7b f402 b92f 5b23 9bb7 e88d
000001d0: 8b82 ce26 ad75 032a e196 7798 16d1 28be
000001e0: 0874 8cbd 0623 de3d 786d 30bd 84e2 523e
000001f0: 01af a79f 43be d4bc d778 70a6 bf5a 0aa8
00000200: a4fe a83d 0442 d23d 32e3 e53d de91 693e
00000210: 3b9c 663d 788f 13be 4420 7425 2a09 b716
00000220: 3762 e522 9804 9c28 3f7d 2cbe c2b1 60be
00000230: e2d8 ea3d 4259 9a04 66f2 86a5 993b 8229
00000240: 9bb9 be99 b96a 1abe 4b19 143e a5f7 a0bd
00000250: 0e21 15be 4794 0605 e38f 189a 7bd8 5d3e
00000260: d023 9389 53fc c21c a1e7 2f3d dd6c 87be
00000270: 259d cdbd 4531 67a4 be8e 37a2 4e8c 3500
00000280: 5ff8 a495 d5a0 182a 7824 0813 71ee 8b93
00000290: c929 3cbe 3eed f5bc 427e be3d 38ad 1080
000002a0: 192a b987 bff7 280a 6269 3580 a8bc 25aa
000002b0: 2622 30a4 d649 e6a6 121d 9cbd f322 9c13
000002c0: 0353 008b df5b aba0 7e49 52a9 f2fc 0310
000002d0: 3612 0897 e212 8694 2482 3580 f429 9521
000002e0: ca98 108d 988c 3500 b265 2a1c dc71 3500
000002f0: 2f6f 3500 fe70 0f0a 9d88 d20a a06e 3580
00000300: 7d81 293e df88 7417 d6ef 392a 018a 9783
00000310: bede 3c25 402b 011e dd15 c0a9 0462 25a5
00000320: 66ac 1780 915a 089d 5b54 1326 a035 e1a1
00000330: 0ef9 ce85 6b7a 7193 cf78 bf24 4578 0fa0
00000340: 2bd7 f5a7 b28c 3580 bdb2 a2a0 07ea 7217
00000350: 11c0 9a1b 090d d614 5a7b 1790 a3bb f797
00000360: aab8 e416 0e7a 3500 0bab ee91 d6a3 6ba4
00000370: d53c 4c95 fa80 b7a3 0df6 dc8c 896c 3580
00000380: 4abd 738e 2ba8 8323 b411 0b26 e893 1a94
00000390: 8a0e 291d 799e 10aa 7c6b ff24 18b0 c80e
000003a0: 5189 3500 624c d703 a357 bd91 d180 3721
000003b0: 1a51 a6a9 0c26 49a4 4b84 b2a3 e8c4 61a7
000003c0: 8304 19a4 6c86 2725 48c5 9682 e836 8c1d
000003d0: 7857 4004 c06e 3022 283f bb27 7e53 c981
000003e0: d43b daa7 4ec6 58aa 72a1 4588 45c3 3113
000003f0: ab13 e426 b018 0192 509a 0f9e 602e 948f
0.15116517 -0.22175744 -2.2482333e-24 -1.3153297e-13 -1.2984688e-21 6.2825136e-32 -0.085308984 0.09407161
-0.17309561 -0.013686485 -2.4668536e-22 -4.912405e-39 -0.015362491 6.152759e-19 -1.354975e-23 0.18956617
0.31016737 -0.11072727 6.8034363e-22 4.817692e-34 -4.909986e-39 5.3084283e-21 -3.2104815e-26 -5.0562797e-24
9.357344e-19 -0.0047558704 0.15707009 -0.10087718 -3.5115536e-28 6.510102e-14 1.3923865e-18 -1.4927473e-25
4.807101e-25 -1.7397147e-22 1.23095025e-20 -0.018030377 2.4612702e-14 9.793517e-31 -3.904478e-19 3.1183208e-28
5.800065e-17 -6.817114e-29 3.8792859e-28 -1.6868737e-21 -3.8175271e-22 -4.07754e-21 -7.070422e-29 4.912575e-39
-5.8381166e-29 4.3272903e-18 -1.0829135e-22 2.981441e-14 4.740656e-20 0.048058767 -1.2899068e-17 -8.6892725e-20
-6.112383e-15 8.0174815e-38 -7.85307e-17 4.2099217e-22 5.5512666e-27 -4.915036e-39 1.819835e-15 -6.237263e-33
4.907979e-39 -3.3702166e-31 6.538108e-19 -4.91435e-39 -3.321548e-24 1.1260403e-25 -1.5380145e-23 -2.9861982e-16
-4.700147e-19 1.2170776e-27 -7.29036e-16 3.3165785e-14 -1.0423149e-16 -4.917113e-39 3.954833e-31 1.6983708e-24
6.5939e-32 2.3708447e-35 2.3591571e-26 3.5755266e-17 -4.917497e-39 -8.88782e-39 -1.8024991e-16 2.0359121e-24
6.7937745e-19 2.3811867e-19 1.2368158e-14 9.365111e-32 1.3789527e-16 -3.7185875e-28 -2.2918467e-15 -1.562643e-28
-1.00522326e-29 -4.7864806e-27 -1.403126e-28 -5.303594e-22 -6.3944606e-32 -6.560823e-22 -4.906274e-39 5.73276e-37
-6.9219093e-31 -2.0875715e-19 2.1609283e-32 2.8510913e-29 4.913493e-39 -1.3262588e-22 -1.030972e-31 -7.5026764e-31
1.977312e-18 3.5923674e-37 1.18821195e-17 -1.4342305e-30 1.4329505e-15 1.1675964e-13 -3.2000176e-24 -0.1648601
-0.06858069 0.10846524 -0.043073148 0.20594221 -7.101677e-20 -0.02596963 -8.3430495e-16 -7.680216e-15
0.08251694 0.10266498 0.11224975 0.2280955 0.056301337 -0.14410198 2.1174558e-16 2.9571028e-25
6.2174563e-18 1.7321471e-14 -0.16844653 -0.21942809 0.11467148 3.6287196e-36 -2.340955e-16 5.783498e-14
-1.9720505e-23 -0.15079774 0.14462774 -0.078597344 -0.1456339 6.327884e-36 -3.1549094e-23 0.21664612
-3.542264e-33 1.2903067e-21 0.042945508 -0.26450244 -0.100397386 -5.0131873e-17 -2.4876692e-18 4.917613e-39
-6.663093e-26 1.3556112e-13 1.7183594e-27 -3.5323654e-27 -0.18375315 -0.030020352 0.093014255 -1.531507e-39
-2.786045e-34 8.1355016e-33 -4.905086e-39 -1.4720397e-13 -3.819284e-17 -1.5979469e-15 -0.07622732 3.94144e-27
-2.4714354e-32 -2.9029322e-19 -4.669311e-14 2.6030057e-29 -4.3966955e-25 -1.353799e-26 -4.913967e-39 1.0107738e-18
-4.455734e-31 4.917717e-39 5.637972e-22 4.908126e-39 4.907166e-39 6.906451e-33 2.0273653e-32 -4.906966e-39
0.16553302 7.901341e-25 1.651451e-13 -8.9066665e-37 1.6381869e-16 6.838147e-21 -8.5303055e-14 -1.4344678e-16
-2.174061e-39 -1.8046272e-21 5.1115193e-16 -1.5260787e-18 -1.9463635e-35 -3.0478833e-27 8.3037704e-17 -1.2152365e-19
-6.8234446e-15 -4.917753e-39 -2.7562147e-19 7.84898e-25 2.5601283e-22 2.161362e-26 -2.9874526e-29 -1.6009367e-24
3.6951926e-25 4.911066e-39 -3.7655192e-28 -5.1096277e-17 -4.124546e-26 -1.9895523e-17 -3.4044453e-31 -4.906216e-39
-3.0043202e-30 1.427427e-17 4.8249305e-16 -7.8041824e-27 2.237448e-21 -1.284475e-13 1.1077071e-16 4.947338e-30
4.916541e-39 1.2654101e-36 -2.9872953e-28 6.21733e-19 -7.38595e-14 -4.3617154e-17 -1.9354827e-17 -3.1331766e-15
-3.3180408e-17 1.4530485e-16 -2.2153753e-37 3.7114463e-21 2.2609655e-36 2.3911078e-18 5.19714e-15 -7.3955544e-38
-6.057202e-15 -1.9253455e-13 -5.947231e-34 2.2436816e-27 1.5826009e-15 -4.073565e-28 -7.602268e-21 -1.461179e-29

atom_lin.bias f4 [300]
00000000: 369e f1ba cf1b 3c3d 8544 c13d 4f8b 49bd
00000010: e5ca 373d c682 773d 4091 6e3d 6279 bc3d
00000020: 9c19 dd3d efa3 9f3d ff42 6dbc 206a 993d
00000030: 45dc 473d ab41 e9bc 913e 0fbc 1d0b 4b3d
00000040: fd8f 133d dc48 aa3d 859d 86bd 16b2 093e
00000050: 13e0 853d f41a e33d 7cd7 a03c 814e a03c
00000060: a28c 563d 4cf9 833d c149 a0bd 465b c93d
00000070: 73c5 e13d bc62 613b 7e6d 8b3d 01d6 8fbd
00000080: 55d6 bb3c 19d5 b4bc 2587 43bc 557e 703c
00000090: fdd5 843c de54 be3c 906c 69bc ba96 dbbc
000000a0: 7c20 8e3c a97f a03c c1a8 6e3c 9daa 52bd
000000b0: fdc9 233d 08fb 973c 15f4 11bd 7faa 58bd
000000c0: b26b dabd 2c36 bd3d 854c ec3c 6cde ae3a
000000d0: 74e6 cabc 2d0f 723d a400 8c3d f134 ea3c
000000e0: f9b9 1f3d b48f 59bc 8e73 953d 4432 863d
000000f0: 6635 a03c ae93 b3bd 18c1 2e3d ccdb cb3a
00000100: f7d6 8f3d a9fa 233d ac86 3cbe 55a2 8bbb
00000110: 28fc 44bd 9d38 363d ce02 583c 86db 8b33
00000120: e2fe acbc e4fa b0bc 794b 91bc 2bbb c33d
00000130: b8b4 c3bc b2fa acba 57e8 f0bc 89a3 a8bd
00000140: 95e6 743c 075f f23c cf57 873d db1d 51bd
00000150: 961f 2cbd 50a1 e43d ec40 463d 1223 173d
00000160: 05ad 423d a633 29bd 89a5 b6bd f90f d43c
00000170: 1a08 8e3c 6528 273d 1d23 dc3d bcdb 693d
00000180: 6116 8fbd 48c3 fd3c 451a 163e 26e8 ae3d
00000190: fe3d 803c 0576 01bd 4281 7e3d 0901 b13b
000001a0: 131d a537 fdec ae3d 3c2f 293d e426 653d
000001b0: dee6 09bc 4554 ce3c 566b 1fbd b975 6b3d
000001c0: 6739 343d 0258 83bb e62c 42bd bc13 2abd
000001d0: 322d 25bd 03b6 d73d a4fb 053d 035e e33d
000001e0: 61f4 9abd a737 79bc 95ce 923c 0985 1d3d
000001f0: 1325 303b fc37 15bd d2f2 9f3d b8ff 0dbc
00000200: 02c1 7ebc 4480 83bd 5c05 1c3d d3bc c33c
00000210: 0f8d da3d ca08 35bd 4ad9 9dbc 8b33 843b
00000220: c9d7 e93d c633 b13d 2c25 f33d 04ad 6f3d
00000230: 76f2 603d 673f a33d e45c 703c cc01 75bd
00000240: fa5d 0cbd a3a9 3c3d 0e1c a93d 5627 ba3c
00000250: fe46 1dbd 70a8 0e3e 8ca3 86b7 1992 ac3d
00000260: c4b3 dcbc eed6 cd3d c5f9 d53c 21e5 c63d
00000270: 3be3 11be 2b55 8c3b cdf8 8a3d 8f4f d2bd
00000280: 32b0 a2bc 3514 45bd 4709 d13d efca 6b3d
00000290: e176 11bd bedd 4c3d d88b f6bc 0f8f 3e3d
000002a0: 4eda 96bd b83e fb3b e63b 6e39 3a46 803d
000002b0: 1cbb b4bd e061 fb3b 6521 8e3d 3a47 033d
000002c0: 1b6d 853c bbb3 b63c 5753 583d f621 a43d
000002d0: a975 71bb c848 d5bb 30e5 e1bc 22ca 8b3b
000002e0: 4d2f bf3d c74e 80bd dc87 58bd 2ee4 9ebc
000002f0: c68c 9e3d 025f 6f3d a223 933b 81a2 6e3c
00000300: 082f ec3d 8125 b7bd 64fd 593d c8ef c63b
00000310: 1f4e c83b 409e 64bd 33b3 4fbc b697 e9bb
00000320: 5346 08bd 7290 fa3d 20a5 21bd 8bd1 9a3d
00000330: dd34 2b3d ff07 3bbd 747b b2bc db18 acbc
00000340: 4aaa 533d f97c c2bc 923a b2bc ca6a 4dbd
00000350: faca 8d3d 6757 93bd 1e45 923d 4b4b 36bd
00000360: 7815 693c 7ecc dabc 68c2 853c 62ae adbd
00000370: 1056 123d fb74 943d d8a0 aa3d 086b fd3c
00000380: 4c5e d03d 7e83 6dbd e30e 8e3c ee77 6d3d
00000390: 357a 14bd af98 ba3d 2087 4a3d 7fd9 703d
000003a0: 7d23 08bd 5a87 b53d 0c1b 953d bfe6 17bc
000003b0: ba25 ee3c b248 063c b719 7b3b 0dcc de3d
000003c0: 2c95 623d 0dc1 36bd 2ca0 263d 3d31 0dbb
000003d0: b7ee 6b3d 4504 d4bc e1fb ad3d b514 1bbd
000003e0: bb59 b53d 4411 853d 78c0 6a3d 3e8c cf39
000003f0: ccf5 cfbb 4db0 bd3d 79de 3a3d 2b83 903d
-0.0018433991 0.045924958 0.09436897 -0.04920512 0.04487123 0.06042745 0.05824399 0.092028394
0.107959 0.0779494 -0.014481305 0.07490945 0.04879405 -0.028473696 -0.008742944 0.049571145
0.03602599 0.08314678 -0.06573013 0.1344684 0.065368794 0.11089125 0.019634001 0.019568684
0.05238021 0.06444034 -0.078265674 0.09831862 0.110239886 0.0034391126 0.06807993 -0.0702324
0.02292935 -0.02207427 -0.011934076 0.014678557 0.016215319 0.023233827 -0.014247075 -0.02680527
0.017349474 0.019592123 0.014566601 -0.05143224 0.039987553 0.018552318 -0.035633165 -0.052896973
-0.106650725 0.09238848 0.028845081 0.0013341433 -0.024768092 0.059096504 0.0683606 0.028589698
0.038995717 -0.01327889 0.07297431 0.06552556 0.019556712 -0.08768402 0.042664617 0.0015553175
0.07023423 0.04003397 -0.18410748 -0.004261295 -0.048092037 0.044487584 0.013184262 6.512623e-08
-0.021117631 -0.021604009 -0.017736183 0.09557184 -0.023889884 -0.0013197272 -0.029407663 -0.08234317
0.014947553 0.029586328 0.06608545 -0.051053863 -0.04202231 0.111635804 0.048401758 0.03689868
0.047528286 -0.04130902 -0.08918292 0.025886523 0.017337848 0.040810008 0.10748885 0.05709432
-0.0698669 0.030976906 0.14658459 0.085403726 0.01565456 -0.031606693 0.06213499 0.0054017347
1.9683072e-05 0.08541296 0.04130481 0.055945292 -0.008416859 0.025186667 -0.038920723 0.057485316
0.044000056 -0.004008294 -0.0474061 -0.041522726 -0.040326305 0.10532763 0.032710686 0.11101916
-0.07566143 -0.015211022 0.017920772 0.03845695 0.0026877567 -0.036430344 0.07809986 -0.008666925
-0.015548946 -0.06420949 0.03809105 0.02389375 0.10671436 -0.044197835 -0.01926865 0.0040344647
0.11418111 0.08652453 0.11872324 0.05851461 0.05491873 0.079710774 0.014670584 -0.059816167
-0.03426931 0.046060216 0.08257304 0.022723835 -0.03839778 0.13931441 -1.6050202e-05 0.084263034
-0.026941188 0.1005076 0.026120076 0.097116716 -0.14246838 0.0042826138 0.06785736 -0.10269081
-0.019859407 -0.048114974 0.10206848 0.05756658 -0.035513762 0.050016157 -0.03009598 0.04652315
-0.07365857 0.0076673888 0.00022719763 0.06263395 -0.08824751 0.0076715797 0.06939963 0.03205035
0.016287377 0.022302499 0.052813854 0.0801429 -0.0036843813 -0.0065089203 -0.027575105 0.0042660395
0.09335194 -0.062650256 -0.05286394 -0.019395914 0.07741694 0.058440216 0.0044903317 0.014565111
0.11532408 -0.089427 0.053220168 0.0060710646 0.0061128284 -0.05581498 -0.012677002 -0.007128681
-0.03327019 0.12234582 -0.039464116 0.075594984 0.04179846 -0.045661923 -0.021787383 -0.021007946
0.051676072 -0.023741232 -0.021756444 -0.05015067 0.0692348 -0.07194405 0.07142089 -0.0445054
0.01422631 -0.026708838 0.016328052 -0.084805265 0.035726607 0.07248875 0.0833146 0.030934826
0.10174236 -0.05798673 0.017341083 0.057975702 -0.03624936 0.09111153 0.04944527 0.05880117
-0.03323697 0.08863707 0.072805494 -0.009271323 0.029070724 0.008196043 0.0038314888 0.10878763
0.055318043 -0.0446177 0.040680096 -0.002154424 0.057600703 -0.025880942 0.08495308 -0.037861545
0.08855005 0.06497434 0.05731246 0.00039586605 -0.00634644 0.09262142 0.045622323 0.07056268

bond_lin.weight f4 [300, 23]
00000000: b591 0217 dbf2 b5be ed41 dcbd accc 083f
00000010: 977f a598 338f ad12 38b6 2cb9 57c9 5139
00000020: c6e9 a52f cccf a238 0176 3500 411d 25a5
00000030: 4528 923e 8ec9 5318 ab57 cd35 7f8d 3580
00000040: 004f 43a0 a1a8 db29 7a3c cdb6 8199 941e
00000050: b31d 8bb3 c96e eaae 22ba beb7 61da c3a6
00000060: 4c08 aa3e ecee 7dbe 119e 9b3e 17a1 1bba
00000070: 7fe4 93b7 af31 64b4 acfb 1ca2 4883 1a2b
00000080: 2437 da9e 5f8d 0eae 7b05 12af 7f87 01bf
00000090: e2b2 b037 2761 27a0 e602 b3b3 a67d 92b8
000000a0: 8b95 39b9 1229 fa39 9115 7c38 2683 fc1e
000000b0: f9a4 ecad eaa8 a587 22d3 1632 9792 413e
000000c0: 4a66 87be 1c70 023f 2ba9 5eba ac28 32b0
000000d0: 7108 8cba 85e0 60ba 4991 a622 45dc 3527
000000e0: 1acd 8026 4246 9ea0 822a 73be 789b 69a8
000000f0: a7cd 2c2b 7007 2c25 131f dc07 77a3 45b5
00000100: dc1c c60e 87b6 6836 2e1c 00a0 b43a a114
00000110: 33fe 53b9 97ac 0e1d b5c6 c63e 3af5 afbe
00000120: 1b9f 9f3e bb5e b317 2c5c 9587 847b 3580
00000130: cdaa 343a ebd4 d1b7 3938 0631 5d20 0039
00000140: 11f9 9737 c5a2 0e3f b7b0 d9b6 29a1 cf2d
00000150: 8428 7300 6bcc 9733 da82 c3b1 a6be 5caa
00000160: 96ed 0818 e40d 1538 6e2f 1110 0a0e af05
00000170: 87ce 461a 0eb8 20be fcf8 f4be 9dfa 15bf
00000180: d547 bbaa dbc6 2ab7 8a3d 1134 fca5 5111
00000190: 49de 2eaf f9b3 0532 668c 8ab0 36bf d039
000001a0: 1442 3cbe e048 be34 7380 9115 3c56 4039
000001b0: 043a e92f dd48 d6ad 684e 8c2b 5648 4fb5
000001c0: 6ba8 77ab a0ec 4437 56d6 2a0b 4485 0736
000001d0: ff3c e83d 83c9 5dbe 6373 4aba ba85 9bb9
000001e0: da7b f2b3 91cf ef12 3985 6930 f9a9 5ab6
000001f0: 92b0 99b8 b727 f1a1 ce39 869f f0f5 23be
00000200: 52f4 ceb6 3bd2 2437 0b8d 4c22 0bc7 0034
00000210: fe92 b439 69d3 a62c eaa8 4023 c18c cf0a
00000220: 46aa 4e39 9633 d085 8786 2280 6d5e 003f
00000230: a03e 05bf 2c2f bebe 19b7 96b9 1dfe 4cba
00000240: 8e5f b5b2 4229 9138 e509 3230 2d7f 122f
00000250: 647e 3500 eb5e a49f ba7d 9c3d aab4 4d31
00000260: 6b46 d122 8e49 7834 e57d 5aad 4b9c d117
00000270: e362 a121 476e 838e 8efe 85ad 6904 0922
00000280: 6088 90b9 e5b9 19aa d305 01bf 9305 a13e
00000290: ac9c 0bbf 3d80 3219 35f3 5902 5f87 3580
000002a0: 3363 24b6 e887 3500 2a43 22b3 7340 0c1b
000002b0: 2b1d 5bb5 c776 e83e a27f 3eb6 e507 feb8
000002c0: 3a14 6c92 af5e 800c 8849 5a13 780d 43ba
000002d0: cbdb c5b8 aed0 56ad c483 38af 86f0 3e38
000002e0: 28a1 09b0 e610 02bf a772 4bbe 0f01 c03c
000002f0: 7ffa 7823 6143 8bb8 6f6f db38 4a6b 6538
00000300: 1903 15ba ed3d d387 ef03 672d f774 46ba
00000310: 905b 98be 2e4f 1cae d583 5c34 65dc 2325
00000320: 4152 5a93 6500 48b9 9190 94a8 2ad2 3bac
00000330: 9a00 33b0 597e a701 9c36 111b 5244 e9b6
00000340: 6f41 ac3e 1dc6 c4bd 906a 48bf 1b46 c722
00000350: 58a8 47b4 f9d8 8ca4 8ced 88ab dd6e 59b2
00000360: 848e 4039 25b2 592d e21b 51b4 eb43 23bd
00000370: 3456 24a8 a51c 71b0 6d5f 9924 3570 3580
00000380: 5588 1a1f 4558 bab3 9f1a 19ba ccb0 d7b3
00000390: f774 5d38 5052 4f39 8f0d 2a36 a2f5 c93e
000003a0: 4b59 16bf cd4f c9bc adbc db91 fde2 5b80
000003b0: 669b c738 58bf 933a 42ee 9639 77c3 0224
000003c0: 76ba 13ad 4231 c8b8 7bf3 e23e 50e1 b31b
000003d0: a431 8c37 14e1 c633 e1b9 6023 43db ef35
000003e0: 1d54 7f28 5163 37b2 ce91 89ad 3c9b f637
000003f0: 080e 1bba 72aa 15b7 ced5 e93e e50d 91be
4.2189174e-25 -0.35536847 -0.10754762 0.53437304 -4.2780333e-24 1.0953136e-27 -0.0001647108 0.00020006798
3.017943e-10 7.763467e-05 4.909613e-39 -1.432138e-16 0.28546348 2.737287e-24 1.5299205e-06 -4.91804e-39
-1.6543281e-19 9.754806e-14 -6.1165165e-06 1.5733597e-20 -6.478094e-08 -1.06607674e-10 -2.273644e-05 -1.3590035e-15
0.33209455 -0.24798173 0.30394033 -0.0005936785 -1.7630167e-05 -2.125223e-07 -2.1275176e-18 5.489398e-13
-2.3104453e-20 -3.2412625e-11 -1.328057e-10 -0.50597376 2.1064134e-05 -1.4177595e-19 -8.335864e-08 -6.985226e-05
-0.00017698684 0.00047714316 6.0101567e-05 2.673578e-20 -2.6903356e-11 -2.492572e-34 8.779155e-09 0.18903576
-0.26445228 0.50952315 -0.0008493836 -6.481382e-10 -0.0010683668 -0.0008578378 4.5148217e-18 2.5238204e-15
8.937377e-16 -2.6812734e-19 -0.23746684 -1.296781e-14 6.1392075e-13 1.4921142e-16 3.3120185e-34 -7.362609e-07
4.883856e-30 3.467694e-06 -1.0851346e-19 1.628e-26 -0.00020217225 1.888277e-21 0.38823476 -0.3436678
0.31176075 1.1591517e-24 -2.2473202e-34 -4.91159e-39 0.00068919064 -2.501389e-05 1.9531525e-09 0.00012219088
1.8116583e-05 0.55717117 -6.4876763e-06 2.3604745e-11 1.0575616e-38 7.068669e-08 -5.690123e-09 -1.960607e-13
1.7697538e-24 3.5537305e-05 2.8632746e-29 1.6462078e-35 4.1112272e-23 -0.15695211 -0.4784621 -0.5858553
-3.3267716e-13 -1.0179089e-05 1.3526565e-07 1.6538341e-28 -1.590418e-10 7.78254e-09 -1.0080725e-09 0.00039815315
-0.18384582 3.544328e-07 5.876769e-26 0.00018342672 4.2423676e-10 -2.4361341e-11 9.96936e-13 -7.721877e-07
-8.7985755e-13 1.1737604e-05 3.2902057e-32 2.0194138e-06 0.11339759 -0.21658902 -0.00077228824 -0.00029663538
-1.12915316e-07 1.513419e-27 8.4954227e-10 -3.2583469e-06 -7.328497e-05 -1.6341308e-18 -5.684684e-20 -0.16011786
-6.167721e-06 9.82411e-06 2.7721823e-18 1.199334e-07 0.00034441793 4.741475e-12 1.044411e-17 1.998632e-32
0.00019709123 -1.9579176e-35 -3.170666e-39 0.5014408 -0.52048683 -0.37145364 -0.00028746648 -0.0007819848
-2.1114626e-08 6.921824e-05 6.4770084e-10 1.3323805e-10 4.912622e-39 -6.961373e-20 0.07641168 2.9934122e-09
5.672412e-18 2.3123559e-07 -1.24198195e-11 1.3545762e-24 1.0935959e-18 -3.2400187e-30 -1.5233394e-11 1.8569297e-18
-0.00027567428 -1.3653625e-13 -0.5039951 0.31449565 -0.5453594 9.228282e-24 1.6012439e-37 -4.915843e-39
-2.4495646e-06 4.916035e-39 -3.777965e-08 1.1601353e-22 -8.16263e-07 0.4540312 -2.8386498e-06 -0.00012113134
-7.44934e-28 1.9778508e-31 2.7551722e-27 -0.00074406667 -9.434632e-05 -1.2210828e-11 -1.6781515e-10 4.5523535e-05
-5.0069326e-10 -0.50807035 -0.19867955 0.023438005 1.34971515e-17 -6.640587e-05 0.0001046349 5.4697775e-05
-0.00056843605 -3.1784148e-34 1.3131703e-11 -0.00075705297 -0.29757357 -3.554062e-11 2.0537057e-07 1.4212669e-16
-2.7556023e-27 -0.00019073633 -1.6493996e-14 -2.6690963e-12 -6.5120676e-10 6.152741e-38 1.2011764e-22 -6.9518946e-06
0.33643672 -0.096080996 -0.782876 5.4013285e-18 -1.8594562e-07 -6.108289e-17 -9.729314e-13 -1.265627e-08
0.00018363638 1.2374578e-11 -1.9474786e-07 -0.039859693 -9.122521e-15 -8.7715996e-10 6.651483e-17 -4.907534e-39
3.272354e-20 -8.677356e-08 -0.00058404537 -1.0043877e-07 5.2799438e-05 0.00019771722 2.5339866e-06 0.39445215
-0.5873 -0.024574185 -3.4668388e-28 -8.438458e-39 9.518005e-05 0.0011272235 0.00028787745 2.835482e-17
-8.397385e-12 -9.545918e-05 0.44326386 2.975867e-22 1.6712416e-05 9.261035e-08 1.2182426e-17 1.7870701e-06
1.4173583e-14 -1.0674584e-08 -1.5639847e-11 2.9397772e-05 -0.00059148716 -8.920777e-06 0.45670933 -0.28330913

bond_lin.bias f4 [300]
00000000: e0f7 b9bc 99a6 08be 1d10 113e 4207 a2bd
00000010: 0d4b 3f3d 3e62 533e 22a0 36bd 5e18 19be
00000020: eb83 00be 1f95 dcbd 722c 3bbe 7c9f d03d
00000030: 2187 d43d 2e56 163e ddc2 4c3e 4a23 4fbe
00000040: a9da 56bd 888c 2fbe d00f 713e 98ea 323e
00000050: 306f 81bd faac 343e 152a 8ebd 5f6a bfbd
00000060: f18e 17bd 9294 f23d 5fa5 66be c788 c5bc
00000070: 6ab2 4f3e 86c3 f8bd c983 94bd 5711 63be
00000080: 7561 87be c7b8 a53e 40b0 ca3d 735b 0c3e
00000090: ab74 61be 5e6e babd 1d21 553c f0b2 d7bd
000000a0: 7142 66be 0fda 2abe 5626 09be 47be 073d
000000b0: 34ff e8bd c5e9 e6bc f4f7 2abe 15c0 e23d
000000c0: d7cb a3be 223b 2c3e a3a1 febb a907 5abe
000000d0: 754e 8d3d 28e8 443d b2e9 dabd 35ab 92be
000000e0: 83c3 f83d 67f4 c6bc 3005 0bbe 6840 44be
000000f0: cd64 f8bd 3c9b b8bd 65ae b5bd 69ee bebc
00000100: e3ff 1fbd c628 b1bd c235 72be c2a0 c6bd
00000110: 5738 d63d c201 183e e0f6 453e 20ea 663e
00000120: 27bc fcba 0223 683e 2aa2 cc3d d10c 17bd
00000130: 2f8f 8ebd c83e c03d 8e34 cf3d b604 8bbe
00000140: df33 503d 68df 463e 9ed9 403e 9ad0 31be
00000150: 1bd0 143e 311f 133e db17 9b3d f4c3 46bd
00000160: 1e5c 40be 0178 753e cbed 753d 90dc d5bc
00000170: a665 94be 3ebe 4d3e c3e7 49bd 93f5 e7bc
00000180: e25c c8bb ebe8 513e f557 283e d56b d93d
00000190: c54a c93e 878e 863e 3f7d 1abe 3b0b 513e
000001a0: 19ea 843d 3cd2 19be d72a dfbd 6c3b 9bbd
000001b0: 16ff f2bd 7a36 1abe 7c03 1f3e f0eb 00be
000001c0: 9740 1ebe 4edb c23b 89db 5c3e 491d 15be
000001d0: 25bc 683e 30d7 523e f3e9 e03d 2659 543d
000001e0: d039 11bd 6831 7fbe 6076 483e 4a25 6bbe
000001f0: 1c97 263c 7ae1 1fbe 6e87 413d ecac deba
00000200: 1e1a 7dbe 6b11 26be 5b49 35be 0fd1 593e
00000210: ec1f b53c ecfa bb3d 3402 42be ec06 4ebe
00000220: 6cd4 2cbe 0556 203e b383 e83c 0c71 2fbe
00000230: f7ae 8fbe 781d 363e 7985 fabd 7f21 9cbc
00000240: 446a cbbd 80d2 dfbc ed62 1bbe d838 2a3e
00000250: cade 413e 33c2 6b3e 255d 893d 2992 aa3c
00000260: 9701 c93d 04af d53c adf4 f6bc 5989 253d
00000270: 143d 2abd 2344 b7bd 8313 d1bd 5095 46be
00000280: e769 543c 0c5c d7bd 6023 0dbe d25a 5fbe
00000290: 091b 233e 1b05 fe3d aeaa bebd 9d3f 913e
000002a0: d28a 76bb f911 423e 2afa e83d b031 e3bd
000002b0: a106 8abe b734 b43c 7ca9 263d ec29 263e
000002c0: ea7d bc3d 75ca cfbd ce0c b2bc 00df 673e
000002d0: 1004 df3d fa19 3b3d 6572 123e e1e8 c43c
000002e0: 8199 583d 8179 463e 54d0 80be 7784 143d
000002f0: b209 1c3c 84d5 1dbe a24b 32be 8c09 2f3e
00000300: a170 573e ce4a edbd f718 e43d 7fd9 583e
00000310: 9eed c4bd df94 e13d c122 a53c 2fb8 b2bd
00000320: 95ee 053e c8f6 cf3d 3d37 25bc 5f30 cfbd
00000330: 0554 333e 86c7 423d 35e2 2c3e 6740 e73c
00000340: ed9e 913d 3735 36be 3dfc 8f3e 6e12 2bbe
00000350: 4e7b 843e 9e73 2b3e 4333 683d 9340 513d
00000360: 1b81 323e 9c07 51be 8eee d9bd e7f5 afbd
00000370: 15af 7bbd adbe 36be 741d 973d fbb6 d23c
00000380: e71b 333e ab28 f03d e0bf b63d 8261 2fbe
00000390: e2d9 9dbc ccbe 0f3d a8b5 b4bd f0fe cbbc
000003a0: 94f1 32bd b8ee 75bb 6466 363e a77f f8bd
000003b0: 45c4 79be cb7d 28be 2c15 553d 2ce6 643e
000003c0: 55e2 c73d 21d1 fcbd 3dde bcbd 87d8 5a36
000003d0: 8de4 4cbe 9a60 87bd 2b85 723e dfc0 f53d
000003e0: 1617 4d3e 11a1 f0bd c578 19be 41bf 3ebe
000003f0: 9bc9 843c 3281 8cbe 8244 04bd 0be9 3d3e
-0.022701204 -0.13344802 0.14166303 -0.079115406 0.046702433 0.20642945 -0.04458631 -0.14950702
-0.12550323 -0.1077063 -0.18278673 0.10186669 0.10377336 0.14681312 0.1999621 -0.20228305
-0.052454624 -0.17143452 0.23541188 0.17472303 -0.063200355 0.1764411 -0.0694162 -0.093464606
-0.037001554 0.11844744 -0.22524022 -0.024113072 0.20282903 -0.12146668 -0.072516985 -0.22174583
-0.2644154 0.32367536 0.09896898 0.1370676 -0.22017162 -0.09103082 0.013008383 -0.105321765
-0.22486283 -0.16684745 -0.1339353 0.033140447 -0.11376801 -0.028187642 -0.16696149 0.11071793
-0.31991455 0.16819432 -0.0077707334 -0.21291985 0.0689973 0.048072964 -0.10689105 -0.28646246
0.12146666 -0.024286462 -0.13576198 -0.19165194 -0.12128601 -0.090139836 -0.08871154 -0.023307042
-0.039062392 -0.08650355 -0.2365332 -0.09698631 0.10459965 0.1484442 0.19332457 0.22550249
-0.0019282148 0.22669604 0.09991868 -0.036877457 -0.06960904 0.093869746 0.10117446 -0.27152032
0.050830718 0.1942116 0.18833014 -0.17364731 0.14532511 0.14367367 0.075729094 -0.04852672
-0.1878514 0.23971559 0.06004123 -0.026106149 -0.28983802 0.20092103 -0.04929329 -0.028315341
-0.006114588 0.20499007 0.16439803 0.106162705 0.39314857 0.26280615 -0.1508684 0.2041444
0.06489963 -0.15021604 -0.10896843 -0.07579693 -0.1186506 -0.15059844 0.15528673 -0.12590003
-0.15454327 0.0059465533 0.21568121 -0.14561953 0.22728021 0.205899 0.10982122 0.05184283
-0.035455525 -0.2492119 0.19576406 -0.22963443 0.010167863 -0.15613356 0.047248296 -0.0016988791
-0.24716994 -0.16217582 -0.17703764 0.21271156 0.022109948 0.09178719 -0.18946153 -0.20119828
-0.16877908 0.15657814 0.028383112 -0.17132968 -0.28063175 0.17784679 -0.12232489 -0.019058941
-0.09932378 -0.027322054 -0.15174456 0.16623247 0.18932644 0.230233 0.06707219 0.020821648
0.09814756 0.02608443 -0.030145967 0.040414188 -0.041562155 -0.08948543 -0.102088 -0.19392896
0.012964702 -0.105156034 -0.13783026 -0.21811989 0.15928282 0.124033175 -0.09309898 0.28368846
-0.0037619364 0.18952169 0.1137584 -0.110934615 -0.26958182 0.021997793 0.040688977 0.1622693
0.09203704 -0.101460375 -0.021734621 0.22643661 0.10889447 0.04567907 0.1430145 0.024036827
0.052880768 0.19382288 -0.25158942 0.03625914 0.009523796 -0.15413481 -0.17411664 0.17093486
0.21039058 -0.115865335 0.11137574 0.21176718 -0.096156344 0.11014723 0.020158174 -0.087265365
0.13079293 0.10154492 -0.010083971 -0.10116648 0.1751252 0.04755356 0.16883166 0.028228952
0.07110391 -0.17793737 0.2812213 -0.16706249 0.25875324 0.16743323 0.056689512 0.051086973
0.17432062 -0.20413059 -0.10641204 -0.08591824 -0.061446268 -0.17846175 0.073786646 0.025722018
0.17491113 0.11726507 0.08923316 -0.1712704 -0.019268934 0.035094067 -0.08823711 -0.024901837
-0.043687418 -0.003752632 0.17812496 -0.12133723 -0.24391277 -0.16454236 0.052022144 0.22353429
0.09759966 -0.12344576 -0.09222076 3.2610567e-06 -0.2000906 -0.06610222 0.23683612 0.11999678
0.20028338 -0.11749471 -0.14987476 -0.18627645 0.016209414 -0.27442318 -0.032291897 0.1854593

energy_lin.1.weight f4 [300, 300]
00000000: 9c8e b2bc 6312 ee3d babc a43d a10b f13d
00000010: 4859 e8bd 2e61 13bd 973d a73d dc28 14bd
00000020: 8811 bb3d ec49 ec3d e610 47be 3bd6 c83d
00000030: 49c0 69bc 5f3c 8d3d 919a 31be 2ca2 243e
00000040: 1fb0 72bd 7869 2f3e 36fb 0c3d cc9a fb3d
00000050: d008 0c3e 2bf2 52bd 3390 ebbc 14b4 a9bd
00000060: 12e4 f03c ff5d 8bbc 456b 523d b88c 2f3d
00000070: 3eed 46bc d29c 12bd a55e dd3d 33cb 93be
00000080: 908c e53d ab4f 3c3e a3f6 3c3d d9f0 f5bd
00000090: 29a5 633d 0634 debd be37 263d 5867 18be
000000a0: 6dd7 0c3d afd1 18be 04c5 e8bd 356b 893d
000000b0: a2e2 b8bd 424a 82bd ac27 2fbd 3c9b c83d
000000c0: b408 b73d fede a2bc 4ce9 443e ea59 be3d
000000d0: dfa4 9abc d3ab 503c 23f8 fabb 3d74 a33d
000000e0: 58ea 3bbd f906 2a3e e39b 703d fa59 fd3c
000000f0: abb6 283e 2aed d6bb ce33 11be 2298 0ebe
00000100: 971a 7f3d f07d f8bc fcae 5e3e ba2e 6cbe
00000110: de27 ce3d 81fb a7bc 70ee 403d 54fe 1b3e
00000120: bc8d debd 2572 d23d 3ef7 40bd d2b4 913d
00000130: cce4 02be 0f4e 0e3e af7f d43b 8f21 3cbe
00000140: 72c6 b1bd fc55 f9bd 393d 9fbd d6fb 6ebd
00000150: 6d9d 5a3c e71a 413d 2513 113d 464e 763d
00000160: 231e 163e 2e87 5f3c a2ea 47be 72a1 0abc
00000170: 4758 a9bd a0fb 393e f3de 95bd ac73 08bd
00000180: 052e 5c3d 354d cabd 8a51 0a3e 0fce 07be
00000190: fdf5 2e3d 71d9 b4ba 8919 03be 3c58 5dbc
000001a0: 7538 0c3d 0e9a 4e3e 70f5 fdbd 0d17 10bc
000001b0: b500 b0bd 6291 e03b 1a1a afbc dbf5 ad3c
000001c0: 1bda 413e ddf2 213e c062 5b3d 563b 023e
000001d0: 10fe 763e 3379 babd 433e 0abd 4a01 3ebe
000001e0: cb55 c43d 2e52 653d 097d 563d 9689 63bd
000001f0: 98c4 eebd 0c1a d33c 2efa 02be e766 9c3d
00000200: f2e0 f43c 280c c03d 1b22 9abd a7c0 d23b
00000210: 23b1 253c c9b1 67bd 8643 84bd 96a5 d1bd
00000220: 89a9 623d 8b5a d4bc 8693 5bbd 311a 71be
00000230: 5ac3 4f3e 00d2 e5bd b2e6 323e 8794 e03d
00000240: 89e8 f73c ee8a 9dbc 1a3d a4bd 2467 ae3d
00000250: 2d18 e0bd 0d77 34be 608b 983d 7c62 37bc
00000260: 6d52 32bd 2257 ad3d e9e8 e83b bb14 81bd
00000270: 7207 59be 4a24 4e3d ef82 c33d 19e6 ddbd
00000280: a233 87bd f9e5 aabd 3994 1ebe 4aca 8a3d
00000290: f146 383d 1df3 c43d a48d ef3d aab8 7ebd
000002a0: 656e e3bd ee0b 5bbd dc73 e939 8462 883c
000002b0: 7051 adbd de52 8cbd 0762 143e 82fa 023e
000002c0: 4090 83bd b3d9 82bd 0103 893d d6c8 13bc
000002d0: f9c7 bbbc 71fe a43d 7fa5 d63d b7f5 82be
000002e0: e319 603d ea2e aa3d db2e 023d e0f9 c4bc
000002f0: 226d 0f3e 7a4a 023e 6e36 8e3c 29dd dfbd
00000300: 918c debd e269 04be e9c3 843d e32c f43b
00000310: 5fac 10be a545 d0b3 4062 9e3d ab05 003d
00000320: 420d 3f3d 4121 e5bd 51be a73c 5954 c3bb
00000330: 51f4 5b3d f7b3 433c 4fcc 653e 0440 063e
00000340: 4637 083e 0c65 a83d e205 363e dac5 e7bb
00000350: 1643 003e 8a4e 043e 58cf 523d ed20 4dbc
00000360: 4ef3 33bc cdbc c3bd 8ff4 1ebe 3546 14be
00000370: f09c 24bd fb3b ad3d 63fc 32bd dd46 ccbd
00000380: 0421 91bb 7427 873d f892 5b3d 1cb5 40bc
00000390: 0817 583d 10dd a73d c0c3 ea3d f22d 9a3d
000003a0: 1f9f a4bd 311b 833b d1a8 90bd 9b84 013e
000003b0: 3c22 183d 76fa dcbd c088 eb3d 4bfb 813c
000003c0: 3279 e03d e6f6 d6bd 8c51 95bd 6045 f00d
000003d0: 95f2 8a3d fc69 15bd a460 8ebd b93f 87bd
000003e0: 3f6f 6d3d 6126 19bd 08d0 963d 52a7 a0bd
000003f0: 7f18 3539 f55b 04be a768 f23d 1c31 c8bd
-0.021796517 0.11624601 0.08043809 0.11769796 -0.11345154 -0.03598135 0.08166044 -0.03617178
0.09134203 0.11537537 -0.1944004 0.09806486 -0.014267036 0.068962805 -0.17344119 0.16077489
-0.059249993 0.17130077 0.03441926 0.122853845 0.13675237 -0.05150048 -0.028755283 -0.082863
0.029405627 -0.017012594 0.05137183 0.04285881 -0.012141524 -0.035794087 0.10809068 -0.28865966
0.11208451 0.18389766 0.04613365 -0.12008829 0.05557743 -0.108497664 0.040580504 -0.14883173
0.034385134 -0.14923738 -0.11365703 0.06709901 -0.09027602 -0.0636182 -0.042762443 0.097952336
0.08937207 -0.019881722 0.1922962 0.092944935 -0.018877445 0.012736279 -0.0076589747 0.07981155
-0.045877784 0.16604222 0.058742415 0.030926693 0.16475932 -0.006559034 -0.14179918 -0.13925222
0.062281217 -0.03033349 0.21746439 -0.230647 0.10066198 -0.020505669 0.04710239 0.15233737
-0.108668774 0.102756776 -0.04711079 0.07114567 -0.12782592 0.13896964 0.0064849476 -0.18372177
-0.086804286 -0.12174603 -0.07775349 -0.05834564 0.013343197 0.047144797 0.03541865 0.06013324
0.14659934 0.013643069 -0.19523099 -0.008461343 -0.08268791 0.18162394 -0.07317915 -0.03331344
0.053754825 -0.09878007 0.13507667 -0.13262199 0.04271506 -0.0013797713 -0.1280271 -0.013509806
0.03423353 0.20175955 -0.12400329 -0.008794558 -0.08593885 0.0068532685 -0.02137475 0.021235397
0.18930857 0.15815301 0.053560972 0.12717947 0.24120355 -0.09105148 -0.033750784 -0.18555179
0.09586676 0.055986576 0.052365337 -0.055551134 -0.11658591 0.025769256 -0.12790748 0.076368146
0.029892419 0.093773186 -0.07526036 0.0064316574 0.0101130335 -0.056566034 -0.064581916 -0.10236661
0.055337463 -0.02592208 -0.053607486 -0.23545147 0.20289364 -0.11221695 0.17470816 0.10965829
0.030262249 -0.019231286 -0.08019467 0.08515766 -0.10942111 -0.1762354 0.07448459 -0.011192914
-0.04353564 0.08463885 0.007107843 -0.06302782 -0.21194246 0.050327577 0.09546458 -0.10834903
-0.06601645 -0.08344645 -0.1548623 0.06776865 0.04498953 0.09616683 0.11696938 -0.062187828
-0.111050405 -0.053478174 0.00044527545 0.016648538 -0.084627986 -0.06851743 0.1449052 0.12790874
-0.06423998 -0.06389179 0.06690026 -0.009020051 -0.022922503 0.08056343 0.104807846 -0.2557809
0.054712187 0.083097294 0.031782966 -0.024044931 0.14006475 0.12723723 0.017359938 -0.10930855
-0.10866655 -0.12931016 0.064826794 0.00745164 -0.14128254 -9.698423e-08 0.077335835 0.031255405
0.046643503 -0.11187983 0.020476492 -0.0059609828 0.053699795 0.011944762 0.22441219 0.13110358
0.13302335 0.08222398 0.17775682 -0.0070731463 0.12525591 0.12920585 0.05146727 -0.012520057
-0.010983301 -0.09557495 -0.15522979 -0.14479907 -0.04018873 0.08458706 -0.043697726 -0.099744536
-0.0044289846 0.06599322 0.053606957 -0.01176193 0.05275634 0.08196461 0.114631176 0.075282946
-0.080381624 0.004001044 -0.07063449 0.12648241 0.037142023 -0.10789959 0.11500692 0.015866896
0.10960616 -0.10496311 -0.072909445 1.4807843e-30 0.0678455 -0.036478028 -0.069520265 -0.06603951
0.05796742 -0.037390117 0.073638976 -0.07844414 0.0001727063 -0.12925704 0.11836367 -0.09774992

energy_lin.1.bias f4 [300]
00000000: 476a 743c 689e bb3c 8b07 9a3c 865c 1c3c
00000010: fdee 213d cbb2 da3c 432c f9bc d4a7 9f3d
00000020: 2a2f 533b 6692 0f3d 2568 203d 81f2 3e3d
00000030: 12bd 393d d247 09bd a73a 10bd b608 cc3c
00000040: 600f ba3c 59ae 963d 13c3 803c efbc b2ba
00000050: 0dc7 853d 5614 aebc 4aa4 5a3d 8738 12bb
00000060: f737 a03d 7f99 023d d830 5bbc c069 233d
00000070: 6148 a6bc 05c1 ab3d 235b 963d b26a 913d
00000080: 5100 57bc 4103 f0bc f4b5 8a3d c470 093d
00000090: 02cf 9e3c f63d 453a 41c7 33bc e006 5d3b
000000a0: e32e 5fbd 9b0d ad3c b944 6f3d c73b 053d
000000b0: 65ce 663d 8eaa 833b 432c e4bb 2d72 0abd
000000c0: 2385 6c3d fc1f 41bc d0d6 1e3d 6053 833d
000000d0: d493 383d 4358 0d3c 1eaf 9c3a 2888 19a0
000000e0: f67c be3c 6563 3bbc 100a 5cbc bd21 193d
000000f0: 88dd 5a3d be89 203c b946 773d 98c3 763d
00000100: 2807 c2bc 79af afbc 808f 2fbc 3fa5 93ba
00000110: 7a61 8c3d 6d3b e5bc 25c0 4e3d b070 4b3d
00000120: a000 46b9 ff21 cfbc 9879 573d 1599 493b
00000130: 4405 ecbc 6de0 fb3c 56b6 723d af1a d9bc
00000140: 0ca2 253d 6265 0abd e29c a23b 9c09 923d
00000150: 2f9e 693d eef6 4a39 7b47 583d dd62 843c
00000160: c2bd cabc b93c 15bd d22e 1f3d 5773 3b3d
00000170: ab3d 133c 499a cd3c 7676 8b3d e1e9 6e3d
00000180: f106 453d daef d03c 5f2e 8f3c e4b4 fa3b
00000190: 3fae 4b3c d657 b13b 1b11 9f3b 0443 e7bb
000001a0: b958 31bd c42f 1cb9 1ffd 803c 8962 213d
000001b0: e0b4 03bc ae1d ef3c db76 5dbd 8620 ffba
000001c0: b641 0ebd 1d5c feb9 83f1 543d 4e58 05bc
000001d0: 1619 a2bc 1f1e 913c 451a 2abd bc13 973c
000001e0: 9be4 f4ba 4029 403d d877 753b cb55 2f3d
000001f0: 52db e3ba 4798 6c3d fd3f 443c 00cf ce3c
00000200: 176b cb3c 7a72 7dbd 999c a23d cae1 12bc
00000210: a089 5b3d a3a8 703d 38c1 8c3c 73da 5a3d
00000220: 8a4b 843c 6b82 0cbc 592a a13c ecd6 22bb
00000230: f0db bc3d 9709 203d d9ac bb3c cca6 143d
00000240: 5d66 913d 3af7 6ebc 61f6 0ebd 8353 803d
00000250: 5129 aaba 2d63 093c 8204 113d fdc6 53bc
00000260: c2de 64bd 29bb b6bc 4e57 df3c 59f9 8d3b
00000270: d491 fc3c e94f 1f3d 4064 8a3d 14d2 a6bb
00000280: e40d 30bc bd52 fc3c 0184 163d 2025 523d
00000290: bf40 243d 0b5c 3dbc 82af 363d c4d4 0b3d
000002a0: 7471 b1bc 4208 c73d 9f9c 923d 72b8 c63d
000002b0: 07b8 853d 6b7b 013c 1dd2 3abb 27e5 583d
000002c0: 5aab 853c 1d47 1e3d badd 0eba e8dd 2f3d
000002d0: c932 07bc 0ff2 493d 25cf 933d 1428 b5bc
000002e0: 9b90 5a3d 585a cfbc d333 42bd 9f94 7ebb
000002f0: 3953 403b 1555 7c3c b5c6 323d da13 db3c
00000300: 4159 03bc f0ae 693d a6c7 753d a94a 2dbc
00000310: 0663 57bc 3356 503d 6c2a 5bbc 3706 2e3d
00000320: 1dc3 a53a 8f0a a43b f492 023d d480 20bb
00000330: ad46 6fbb febe 69bc eddd efbc 7c87 253d
00000340: 824b ffbc 48a8 37bd cfb8 063b f18a 6b3d
00000350: 07ef 923d 1304 aa3b ed59 e03b ec7a 003d
00000360: 2cf3 083d cd91 56bc e2b6 07bd bdea f83c
00000370: 6f1a dabc 8bed 6a3d 1e99 833c 8c42 2e3c
00000380: 7b0a b7bb da29 20bc bed8 d0bb 37ee 253d
00000390: 393e bcbc 0444 053d a34c 1c3a 7561 3d3d
000003a0: c801 353d 14c6 133b 145d 8e3d 0057 6f3d
000003b0: 19a2 473d aa63 953d a63d 933c 8778 3f3d
000003c0: b50d 0a3c 3395 36bd 34bb 19bc 8e3d 413d
000003d0: 53f1 653d 6f9e 243d a52f 8e3d 8f80 163d
000003e0: 67cc 7f3c 8c47 4abd 56fd 9dbb 761a f43c
000003f0: 6d77 403d 3f1f e7bc 5177 a93d 0dea afbb
0.014917917 0.022902682 0.018802425 0.009543544 0.039534558 0.026696583 -0.030416613 0.077956825
0.0032224157 0.035051726 0.03916182 0.04661799 0.045346327 -0.03351576 -0.035212185 0.024906497
0.02271241 0.07357473 0.015718019 -0.0013636629 0.065321065 -0.021249931 0.053379335 -0.0022311525
0.078231744 0.031884667 -0.0133783445 0.039895773 -0.020298185 0.08386425 0.07341602 0.07100429
-0.013122634 -0.029298427 0.06772986 0.033554807 0.019385818 0.00075241865 -0.010972799 0.0033726022
-0.054488074 0.021124652 0.05841515 0.03252771 0.056349177 0.0040181344 -0.006963284 -0.033800293
0.057744157 -0.011787411 0.03877908 0.06412387 0.045062855 0.008627 0.0011954044 -1.3004654e-19
0.023252945 -0.011437272 -0.013430133 0.03738569 0.053433925 0.009798465 0.06037018 0.060245126
-0.023685053 -0.021445977 -0.010715365 -0.0011264457 0.0685453 -0.027982438 0.050476212 0.049668014
-0.00018882984 -0.025284765 0.052606195 0.003076141 -0.028811105 0.030746663 0.05925592 -0.026501982
0.040437743 -0.033788092 0.0049625495 0.07130739 0.05703562 0.0001935621 0.052802544 0.016160423
-0.024748687 -0.036434863 0.03886301 0.045764294 0.008986871 0.025097983 0.06809704 0.058328513
0.048102323 0.025504995 0.017478166 0.0076509584 0.01243168 0.005412082 0.004854334 -0.0070575494
-0.043297503 -0.00014895113 0.015745698 0.03940061 -0.008038729 0.029188957 -0.054068428 -0.0019464649
-0.034730636 -0.00048515285 0.051988136 -0.008138729 -0.019787353 0.017714558 -0.04152896 0.018442027
-0.0018683852 0.04691434 0.0037455466 0.042806428 -0.0017384088 0.05776241 0.011978147 0.02524519
0.024831338 -0.06187675 0.07940025 -0.008964965 0.053598046 0.058754575 0.017181978 0.053430986
0.016149301 -0.008576016 0.019673513 -0.0024847342 0.09221637 0.039071646 0.022909569 0.036291882
0.07099602 -0.014585311 -0.034902934 0.062659286 -0.0012982284 0.008385462 0.03540469 -0.0129258605
-0.0558765 -0.022306042 0.02726331 0.004332703 0.030831255 0.038894568 0.067574024 -0.005090961
-0.010745499 0.030801171 0.036746982 0.051304936 0.04010081 -0.011557589 0.04460097 0.034138456
-0.021660544 0.09718372 0.07158779 0.09703149 0.06529241 0.00790296 -0.0028506585 0.05295291
0.016317058 0.038642038 -0.000544991 0.042936236 -0.008251854 0.04930311 0.07217244 -0.022113837
0.053360563 -0.025311634 -0.047412705 -0.003884591 0.002934648 0.0154011445 0.043646533 0.026742864
-0.008016885 0.0570516 0.060004853 -0.010576882 -0.013146168 0.050863456 -0.013376813 0.042486396
0.0012646649 0.0050061415 0.031878427 -0.002449085 -0.0036510632 -0.0142667275 -0.029280627 0.04041241
-0.031163935 -0.04483822 0.0020556932 0.05750555 0.07174497 0.005188474 0.0068466575 0.031367227
0.03343503 -0.013096285 -0.033133395 0.03038537 -0.026623933 0.057355445 0.016064223 0.010635983
-0.005585966 -0.009775603 -0.006373494 0.040510383 -0.022978889 0.032535568 0.00059623475 0.04623552
0.04419115 0.0022548484 0.06951347 0.05843258 0.048738573 0.072944 0.017973732 0.046745803
0.00842612 -0.04457588 -0.009383012 0.047177844 0.056138348 0.040190157 0.06942681 0.036743697
0.015612698 -0.04938464 -0.0048214598 0.029797774 0.046988893 -0.028213141 0.08274711 -0.005368477

energy_lin.3.weight f4 [150, 300]
00000000: 5075 cbbd 8a1b d43d fdfd 733b 319a 02be
00000010: 18df 0b3a 2d04 e1be 868c b1bd c732 5abd
00000020: 3dc7 0dbd 9812 be3d fdcf 9f3d 87fd 133e
00000030: 4c08 92bc ffa9 dd3b 73a7 e6bc 7b87 aabc
00000040: a915 2dbe a9ec d83c 9763 663c d5b4 d73d
00000050: e02a c63d 3403 313e cb85 493e 51fb 99bd
00000060: 16d4 27bd 4414 c53d e371 9fbd 1b01 e4bd
00000070: 9fcd 69bd a0e2 fcbd 9384 05be 703e bdbc
00000080: f437 923c 2cc5 4d3d b97b 8fbb 346e 21bc
00000090: 82ff b0bd 8ce0 7dbd b40d 34be 5081 f63d
000000a0: 0e83 c3bd f7c3 663d cd2c 91bd 8d16 e3bb
000000b0: 503d 813d a353 9d3c 444c adbb e75a 07bd
000000c0: 5742 d53d d2ee 273e 27a5 e03d 99ed 0a3e
000000d0: e2cb 26be 1d18 543c 7361 5c3d 6c27 1d9f
000000e0: 8869 c03c 7dd5 423d 3448 11bc 4c86 833d
000000f0: e1e8 56bd 0fa0 d63c 5268 fdbc ca98 93bd
00000100: 1dbf d23d f26e 0e3e ae1f 0cbd 22c5 36be
00000110: 8bbd d93d 07af dabd c12f 77bd e4db d83d
00000120: 88bb 8308 1ca4 f03d e689 0a3e 24c7 8e3d
00000130: 5bd6 80b9 f7ab 8ebe 6a54 393d 2b2e 9bbd
00000140: c67b 283d 61fc d93d 91f2 29bd cbd5 783c
00000150: 9162 9dbd e576 f8bd 297d e33d 1800 893d
00000160: 987d a7bd 1035 e7bd adb4 aebd e3c3 2bbd
00000170: 8c4b 783d 79d4 dabd 87bd d13d 1386 183e
00000180: 0d3e f3bc 912d 86bd c8c6 333e 6736 153e
00000190: 6631 04be c897 67bd e6aa 253d 8a61 3ebd
000001a0: ae4c d53d 887c bf3d 00fa 0c3e 73eb 433d
000001b0: 311b aabc ac62 993c 680b 6a3c 8916 92bc
000001c0: e26b ef3d c5a2 2bbc 2364 023e 299f a43d
000001d0: b7e5 ffbd 0b4c ae3d 84f4 083e e2d3 01be
000001e0: 5828 80bd ee31 a53d 1825 263e bea6 473c
000001f0: 9fc7 2bb7 7be9 65bc deef 823d 1e26 1abd
00000200: 7e4d 89bd ccb2 9d3d d42d e73d 790e 683d
00000210: 906c fd3d c4ca ef3d 4ab1 6f3d 5521 97bc
00000220: 49d1 ae3d e4be 933d fe72 a5bd f589 c7bd
00000230: 5791 d63b bcf2 673d a2c8 16bd f7dd 0d3e
00000240: c5ae 46bd 9547 97bd 3448 173d 351b 343e
00000250: fc93 4cbd 55a3 fdbc 4909 7a3d 40db a5bd
00000260: f3c5 92b9 213e dc3b ab97 b5bd f02d b0bd
00000270: aa66 cd3c 7fab 673c 1269 13bd 87ec 3ebe
00000280: 1a9d ca3c cdba 393e e2e7 01bc 4303 3fbc
00000290: 8cae 6bbd f63f ebbd 3c8b 88bd 7704 d93d
000002a0: 054d 8bbd 128f 3dbe ebaf a03d a903 55bc
000002b0: 8e5c 47be 3fdf ba3d 30b1 5b3c eea1 f8bd
000002c0: 9f72 273c ed34 0e3e 96ef 9b18 a905 233e
000002d0: 0572 43be e7f8 253d b3d8 0cbd 8634 1e3e
000002e0: b6a8 353e b349 b5bd 907d 063e 2a11 98ba
000002f0: 4a76 25bd 3fc1 06be 4bd2 1abe 0f2c d23d
00000300: 2eb0 e03d 5625 113e 4176 b5bd 272c 1a3e
00000310: 2400 88b9 8987 11be ee5d 243b 3592 653c
00000320: b98d 773d e91f 3f3e 93d7 f23d 0a57 87bd
00000330: b6ff a33c 39d6 283e 5e85 d9bd f787 22be
00000340: 8f38 383e 6b12 cdbc 98b2 2bbd 3437 e0bd
00000350: 078e cb3b 13d9 ac3d 6c29 4a3d 4909 3cbe
00000360: 428c f23d 5836 353d d73b 7bbd e471 073d
00000370: 2d66 9c3b 8800 aabd 4ab4 2cbd dc96 023e
00000380: b1d8 ba3b 83a5 88bc cd02 8f3d 1791 203e
00000390: d173 9b3d c771 5ebd 81a6 cbbd bb20 473c
000003a0: 8eb5 2a3c 3ab0 9d3d 54f8 0b3e e350 d33d
000003b0: e3a2 ed3d 6b8b e33d 1ce7 ba3d 1172 46be
000003c0: 10bb 0f3d fe22 033e 0a9c 6a3c 9387 3cbe
000003d0: f1dd 89bd 02ab a5bd c593 5d3d 1b4a b0bd
000003e0: 032e 09be d764 2e3e 7931 293d 3abb db3d
000003f0: 6e35 fbbd ed53 a0bd 7922 8bbd c5be 61bd
-0.09934485 0.10356815 0.0037230246 -0.12754132 0.0005335673 -0.43948498 -0.08669381 -0.05327108
-0.034613837 0.0928089 0.078033425 0.14452182 -0.017826222 0.00676465 -0.028156018 -0.020816555
-0.16902794 0.026480036 0.01406183 0.10532538 0.096761465 0.17286378 0.19679944 -0.07518638
-0.040973745 0.09623006 -0.07785394 -0.11133023 -0.05708086 -0.12347913 -0.13038854 -0.023101062
0.017848946 0.050236866 -0.0043787626 -0.009852935 -0.08642484 -0.061981723 -0.17583352 0.12036383
-0.09546481 0.05633923 -0.07088623 -0.0069301785 0.063105226 0.01920492 -0.0052886326 -0.033045676
0.10413044 0.16399696 0.10969 0.13567199 -0.16288713 0.012945202 0.053803872 -3.3278652e-20
0.023487821 0.04756688 -0.008867312 0.064220995 -0.052468184 0.026199369 -0.030933533 -0.072068766
0.10290358 0.1390951 -0.0342099 -0.17848638 0.106318556 -0.10677915 -0.060348276 0.10588816
7.928364e-34 0.117500514 0.13529167 0.06971577 -0.0002457377 -0.27865574 0.04524652 -0.07577165
0.041133665 0.106438406 -0.041491095 0.015187691 -0.07684816 -0.12132052 0.11107857 0.06689471
-0.08178252 -0.11289418 -0.08530555 -0.04193486 0.060618922 -0.10685057 0.102412276 0.14894895
-0.029692674 -0.0655166 0.17556298 0.14571534 -0.12909469 -0.056541234 0.040446185 -0.04647974
0.10415016 0.09349924 0.13767242 0.047831964 -0.020764919 0.018723808 0.014284946 -0.017833011
0.11690499 -0.010475819 0.12733512 0.0803817 -0.124949865 0.08510598 0.13374525 -0.12678483
-0.06257695 0.08066164 0.16225088 0.0121857505 -1.0238872e-05 -0.014032717 0.06393407 -0.037634008
-0.067042336 0.077001184 0.11288038 0.056654427 0.12374222 0.11708596 0.058518685 -0.018448511
0.08536012 0.07214144 -0.08078574 -0.0974311 0.0065480876 0.056627974 -0.036812432 0.13854204
-0.048506517 -0.073867 0.036934093 0.17588504 -0.049945816 -0.030961672 0.06104401 -0.08098459
-0.00027994774 0.0067212735 -0.08866819 -0.08602512 0.025073368 0.014140009 -0.035988875 -0.18644916
0.024733115 0.18137665 -0.00792882 -0.0116584925 -0.057539508 -0.11486809 -0.06667182 0.10596555
-0.068018 -0.18511608 0.07846054 -0.013001361 -0.194689 0.09124612 0.013408944 -0.12140261
0.010220199 0.13887377 4.030848e-24 0.15920128 -0.19086464 0.040520575 -0.034386348 0.15449724
0.1774014 -0.08851948 0.13133836 -0.0011601795 -0.040396012 -0.13159655 -0.15119283 0.1026231
0.109711036 0.14174399 -0.08860446 0.15055905 -0.00025940046 -0.14211859 0.00250804 0.014011909
0.06043789 0.18664517 0.11857524 -0.06608398 0.020019393 0.1648797 -0.10621141 -0.15872179
0.17990325 -0.025033196 -0.041918367 -0.10948029 0.0062119993 0.08439841 0.04935591 -0.18362917
0.11843158 0.04424128 -0.061336365 0.0330676 0.0047729225 -0.083008826 -0.042164125 0.12752861
0.005702101 -0.016680485 0.06982956 0.15680347 0.075904496 -0.054307725 -0.099438675 0.0121538
0.010419263 0.07699628 0.13668948 0.10318162 0.11603334 0.11110576 0.09126112 -0.1937945
0.035090506 0.12806317 0.014319429 -0.18411092 -0.06731785 -0.08089258 0.054096002 -0.086078845
-0.13396458 0.17030655 0.041306946 0.1072907 -0.1226605 -0.078285076 -0.067936845 -0.055113573

energy_lin.3.bias f4 [150]
00000000: 8e7a 5bbc 1e38 b13b 82af ae3d 8c18 993d
00000010: 5cf9 62bd f063 0e3d 82ab 4e3d 521f fb3c
00000020: 516d a5bc 5d0d c53c 7cca 943c c38c 42bc
00000030: f5f6 b19c afe7 edbc ca77 843d f5f8 773c
00000040: e6a3 5abd 6e56 363c 22ae 6abd d621 f63c
00000050: c010 293d c54c 733d 3bc1 31bd 1daa 04bc
00000060: 41ec 8d3d ce4e 043d e8f7 e0bc e3a8 f6bc
00000070: 8737 853c 9e8e ddbc 07cc 1cbd 513f 193d
00000080: 0b99 d13c 208a 313d 0efc 093d a1c3 a5bc
00000090: 741f e9bc 1844 1fbd 7fd2 30bd b187 073c
000000a0: 1bae 99bd 7d4a 0e3c ff16 4b3d 38e1 22bd
000000b0: 78d1 903c 8e6f 553c d192 8e3c 87f7 2a3d
000000c0: c5cb 5a3d 4ee3 813c 44a0 413d b033 2c3d
000000d0: 09ee 06bd 4659 56bd e6d9 f7bc 3449 9e3a
000000e0: a67f d0bb 3d49 dbbc cfad 543d d033 343d
000000f0: f65f 9e3a 063c 8d3c 8949 533c ea11 ba3d
00000100: 095b d9ba ec24 e03c 2b13 1dbc eb21 163c
00000110: 1be9 a4bc aaac 2dbc 8de0 45bb ea82 813c
00000120: bc92 763c f89a 3a3d ef15 123d b9c3 923c
00000130: 5e74 173c 6b0d c83c 4e44 f2bc 1723 10bd
00000140: 39e3 a43b b9fc 5b3d c4bc a5bb 3a8a beba
00000150: e3e1 883b c8f3 48bd 606d aa3b 4009 89bb
00000160: 5737 24bc 1d15 21bd f1c8 58bd a3a1 823d
00000170: 457c 8c3d d489 703c 601c 58bc 8399 853d
00000180: 877f 223d 1638 253d 8210 d7bc 4785 22bd
00000190: 8177 86bc 3f74 273d f899 743d 2350 bcbc
000001a0: 228c c93c f4fd 2ebc ea04 123d 591e 863d
000001b0: a6fa 41bc 3195 01bd 48ea 42bc 67a8 8ebc
000001c0: c7dc 213b 88bb 1d3d 14f7 513b 5c4f 07bd
000001d0: 31a3 3c3d 6008 093d 0a2b b2bc 69f5 bfbc
000001e0: 1382 3500 2ebf 283d 3688 c23b f071 04bb
000001f0: 16ff 273d d236 5abc 28ab 783c 19e2 b03b
00000200: 243c 413c 283c d23c 93a4 0abd 6948 503d
00000210: 4680 efbc 4ec2 9ebc ed38 e33c 81ff 62bc
00000220: f7ba d83c 3602 3ebc a6f5 c7bc 6371 7d3d
00000230: 9599 9e3d ff33 323d 50ff 283d 86c1 26bb
00000240: e65c da3c 8ba6 1ba1 fe50 8d3c 9552 bebc
00000250: d82c 3981 eb36 7abb
-0.0133959185 0.005408301 0.08529569 0.07475385 -0.05541359 0.034763277 0.05045653 0.030654583
-0.020193728 0.024054224 0.018162958 -0.0118743805 -1.1776714e-21 -0.02904114 0.064681605 0.01513504
-0.053378962 0.011129005 -0.057294972 0.030045431 0.04127574 0.059399385 -0.04339717 -0.008097199
0.069298275 0.032301717 -0.02746196 -0.030109828 0.016261829 -0.027045544 -0.038280513 0.0374139
0.025585672 0.043344617 0.033687644 -0.020234885 -0.02845738 -0.0388833 -0.043169495 0.008272097
-0.07503911 0.008684752 0.049582478 -0.039765567 0.017678007 0.013027085 0.017403992 0.041739967
0.053416986 0.015855458 0.04727198 0.04204148 -0.03294185 -0.05233123 -0.03025527 0.001207626
-0.006362873 -0.026768321 0.05192357 0.043994725 0.0012083042 0.017240535 0.01289595 0.09085448
-0.0016582917 0.027361356 -0.0095870895 0.00916336 -0.020130685 -0.010600248 -0.0030193657 0.015809495
0.015049633 0.045557946 0.03566545 0.017915593 0.009244053 0.02442046 -0.029573586 -0.035189714
0.00503197 0.053707812 -0.005057903 -0.0014537044 0.0041773184 -0.049060613 0.005201027 -0.004182011
-0.01002296 -0.039326776 -0.052926008 0.06378486 0.0685964 0.014681298 -0.013190359 0.06523421
0.0396724 0.04033669 -0.026252989 -0.039677884 -0.016414406 0.040882345 0.05971715 -0.02298743
0.024602953 -0.010680664 0.035649218 0.06548757 -0.011839544 -0.03163642 -0.011896677 -0.017414285
0.0024698244 0.03850892 0.003203814 -0.033034667 0.04605407 0.033455253 -0.021749038 -0.02343245
4.913943e-39 0.04119795 0.0059366478 -0.0020209514 0.041014753 -0.013318734 0.015177526 0.0053980467
0.011794124 0.02566345 -0.033848356 0.050850306 -0.02923597 -0.019379761 0.027737105 -0.013854862
0.02645634 -0.011597207 -0.024409126 0.061875712 0.07744137 0.04350662 0.04125911 -0.0025444939
0.026655626 -5.273646e-19 0.017250534 -0.023232738 -3.4011307e-38 -0.0038179706
