models/mpnn_A139_B23_E300_L2/67.pt (torch, 742651 bytes, 9 tensors)

atom_lin.weight f4 [300, 139]
00000000: d539 89be b992 0e3e 2135 1824 0af5 ce15
00000010: 9df3 b2a9 b0c2 2686 7009 b93d 8b7f 10be
00000020: f723 6ebe 1a38 293c 6e74 7095 3999 ce93
00000030: b0bd 663d a8ea 96a3 64b0 fea1 1d7e 83bd
00000040: 6e94 63be 27df aabc 30be 9c92 a18b 3580
00000050: 7f8e ef84 8381 3500 d9f7 130a f44e 380c
00000060: 95c0 7c27 5cff c73d cf21 0dbd 675f 5dbe
00000070: c693 0c21 c5f2 9521 c229 1f0f c417 04a2
00000080: ff9a baa9 f767 c302 7e91 e627 2622 57bd
00000090: e3d5 e725 83b1 3f24 57ec 8d26 ceb7 0eaa
000000a0: 923c 60a0 9d4a d426 f68c 2e1a a5de 5e9b
000000b0: 5220 1200 e72d 8327 5e7a 3580 319b 4129
000000c0: 2c4e 0989 5b86 f49a e36d 9015 85ab 0c9a
000000d0: 266a 1c81 b238 2ebd f7f7 4a27 7f3a 8b27
000000e0: 1977 8c99 f80f 1a1e d14d 4c20 6c24 0d8c
000000f0: e4c5 449f 6cf5 9a02 dabd 3f8f 470d 0e89
00000100: b278 d11e 91de f59b af7c f224 3f71 5c8d
00000110: d05a b9a2 132b c8a7 5940 ab02 945d 279a
00000120: 7e3d e997 8095 d129 5f3a 29a0 93be 3b9d
00000130: d871 4626 11c5 a4a8 e5d4 3125 a6d0 c625
00000140: 12c9 a028 446c 3580 9875 f918 bf74 9198
00000150: 0468 3500 ea3e bba4 4ea8 8699 4335 3099
00000160: 3e76 3580 c27d 3580 df5b 5889 7655 1208
00000170: efe0 551a 36af 65a6 173d 5781 8408 6aa9
00000180: ff7d 3580 7432 1a9e 7c7d 2a1a 218c 3893
00000190: 578e 8496 be09 8789 ab8c e627 06b6 8721
000001a0: b3e8 30a2 d485 1729 f8a1 0483 03eb de17
000001b0: 1d2b a828 bd8e f310 f369 a011 493e 7329
000001c0: c682 3580 b9f4 6a8c 261c 9f92 1570 940f
000001d0: 39b7 d1a4 6ce0 a01a 55ab c980 9ad5 0dbe
000001e0: 7258 d23e cd1c 2fbc 3a94 4bbd 09b6 123e
000001f0: 70ba a727 73d5 d9bd 2444 f69b e140 de21
00000200: cc85 633e 9df0 0f3e 4d79 523e 3022 6d3e
00000210: 2c7d ba3e d078 be3d 8b0e 0fa6 670b b681
00000220: 91dc 8085 f463 0429 6290 ad3c 212d cb3c
00000230: 087a 04be 8e00 9b23 be09 710b c3bf cf93
00000240: 6cc1 8b8f e36f 3f3d 285f 23be b565 7b3e
00000250: e0f8 ca3d ec23 491f d0ca 7394 e578 9abc
00000260: 2410 7c26 91d2 1a13 2be2 fd3d 0008 683d
00000270: 74a1 283c b44c 9a8a 009a d00d c05b e423
00000280: 8e3a 0905 c575 3580 e71e 9496 ef9d 759b
00000290: 245b b0bd f2d0 35be 1f57 14be 4ff3 570f
000002a0: af72 3500 59f6 05a3 9e3a 6704 41ce f995
000002b0: 4968 2801 498d 3580 a390 b1bd 2b69 3500
000002c0: a9bf eaa2 2bb2 1d14 9ff9 bb9c 2286 95a9
000002d0: a692 d623 b20a 1011 7888 a590 4b75 f125
000002e0: 7310 49a4 8d22 e4a7 7fce e512 2f78 3580
000002f0: a610 bd93 055c e3a6 4d28 2323 490d 4821
00000300: 7a13 8abe 0105 ab24 4530 490e 2a85 122a
00000310: a2e3 2d87 3535 bd25 e0aa b18e 2a24 bb89
00000320: a36c 3580 acc6 bd06 cb23 201d d990 111a
00000330: 5882 20a9 1b18 c829 cebf b68d 1e39 33a6
00000340: 0440 1298 7406 1c2a af70 8b21 521e 2022
00000350: a54d 9e23 3c48 ec8b 5b97 38aa 1ac2 440a
00000360: c370 3500 2f52 cd9a 9c27 7f99 12fa 96a5
00000370: 0756 229f 3e0b 2429 c31b 9923 fcba 2323
00000380: 7236 b10a 9330 ada3 7f0e 1b00 058e 1181
00000390: 661b b71e 1fb0 219c 0368 561c d2d7 2218
000003a0: 3e6c 3500 dc61 39a1 7562 0e8a b20a 3b9f
000003b0: c960 99a1 3540 619e 5675 9729 b7e4 5623
000003c0: e98d 459e b504 1e23 5119 511c db7a b422
000003d0: 446c 9e90 3d2a 121c ec7d 3500 1242 8ea3
000003e0: 1c54 541a 2f81 8491 8f88 8d19 b9e3 1118
000003f0: 8a49 caa5 565e 2f1c 4a89 769c 49c7 b328
-0.26801935 0.13923158 3.3004748e-17 8.358934e-26 -7.947048e-14 -3.1364164e-35 0.09035003 -0.14111154
-0.23255907 0.010328317 -4.855946e-26 -5.21528e-27 0.056333244 -1.6362413e-17 -1.72584e-18 -0.064205386
-0.2222459 -0.02085836 -9.891869e-28 -4.917371e-39 -5.6319492e-36 4.913741e-39 7.1244075e-33 1.4198603e-31
3.5076424e-15 0.09765503 -0.03445607 -0.21618424 4.762942e-19 1.0160893e-18 7.8473475e-30 -1.7901917e-18
-8.286947e-14 2.8712348e-37 6.3995567e-15 -0.0525228 4.0217048e-16 4.156688e-17 9.8479e-16 -1.2675904e-13
-1.8993579e-19 1.4730679e-15 3.6096224e-23 -1.843535e-22 1.664633e-39 3.640957e-15 -4.911178e-39 4.2989216e-14
-1.6527531e-33 -1.011331e-22 5.833451e-26 -2.9089874e-23 -2.8728833e-38 -0.042534538 2.8167553e-15 3.864367e-15
-1.4523764e-23 8.155994e-21 1.730522e-19 -1.0873205e-31 -4.1668306e-20 2.2769132e-37 -9.453591e-30 -1.7098871e-33
2.2178654e-20 -4.067568e-22 1.0516199e-16 -6.792905e-31 -5.02405e-18 -5.5557852e-15 2.5163125e-37 -3.4610382e-23
-1.5072795e-24 9.3073986e-14 -1.433417e-19 -2.4847768e-21 6.8849337e-16 -1.8293122e-14 1.5424434e-16 3.448891e-16
1.7850769e-14 -4.90612e-39 6.448373e-24 -3.7599505e-24 4.904595e-39 -8.12049e-17 -1.3923253e-23 -9.109743e-24
-4.909699e-39 -4.912395e-39 -2.6043252e-33 4.4035736e-34 4.4229068e-23 -7.968779e-16 -3.9533093e-38 -5.1965824e-14
-4.91248e-39 -8.1631256e-21 3.525654e-23 -2.3293154e-27 -2.141558e-25 -3.250923e-33 6.3990336e-15 9.196137e-19
-2.3975638e-18 3.3644813e-14 -3.8977245e-37 1.4405739e-24 1.8670444e-14 9.6066523e-29 2.5308845e-28 5.4010863e-14
-4.914194e-39 -1.8100348e-31 -1.004125e-27 1.4637099e-29 -9.094969e-17 6.653702e-23 -1.8520397e-38 -0.13851014
0.41083103 -0.010688019 -0.049701907 0.14327253 4.6553947e-15 -0.10636415 -4.074132e-22 1.5060478e-18
0.22219008 0.1405663 0.20554085 0.23157573 0.36423624 0.09300387 -4.96328e-16 -6.68726e-38
-1.2118085e-35 2.9396583e-14 0.021187011 0.024801793 -0.12937176 1.6805369e-17 4.642224e-32 -5.2443238e-27
-1.3780962e-29 0.046737563 -0.15954268 0.24550517 0.099107504 4.259312e-20 -1.23083625e-26 -0.018856475
8.745194e-16 1.954135e-27 0.12396654 0.056648254 0.0102924 -1.4858513e-32 1.2856064e-30 2.4758667e-17
6.452464e-36 -4.909529e-39 -2.3930192e-25 -2.0316956e-22 -0.08611134 -0.17755488 -0.14486359 1.0647178e-29
4.908422e-39 -7.262111e-18 2.7180835e-36 -1.0089571e-25 3.0931548e-38 -4.917965e-39 -0.086701654 4.905008e-39
-6.3628755e-18 7.961612e-27 -1.2439148e-21 -6.6401976e-14 2.3264035e-17 1.1362893e-28 -6.529129e-29 4.1886317e-16
-4.359886e-17 -6.3320172e-15 1.4502837e-27 -4.910395e-39 -4.7726724e-27 -1.5776231e-15 8.844782e-18 6.778022e-19
-0.26967984 7.4167906e-17 2.4798404e-30 1.3013605e-13 -1.3081969e-34 3.2822328e-16 -4.3798415e-30 -4.505262e-33
-4.906253e-39 7.138582e-35 2.1194328e-21 3.0102304e-23 -3.5640192e-14 8.885966e-14 -1.1262791e-30 -6.218051e-16
-1.8902377e-24 1.3857822e-13 9.448833e-19 2.1700095e-18 1.7163278e-17 -9.101258e-32 -1.6394995e-13 9.473563e-33
4.907733e-39 -8.491879e-23 -1.319119e-23 -2.6190306e-16 -3.4375995e-20 3.6425066e-14 1.660005e-17 8.875843e-18
1.706496e-32 -1.877727e-17 2.484759e-39 -2.6734188e-38 1.938721e-20 -5.3498063e-22 7.094109e-22 2.104697e-24
4.906111e-39 -6.2809954e-19 -6.855569e-33 -3.9607637e-20 -1.0393302e-18 -1.19246785e-20 6.7261016e-14 1.16493955e-17
-1.04584395e-20 8.566194e-18 6.918502e-22 4.8919176e-18 -6.248682e-29 4.836194e-22 4.912454e-39 -1.5423653e-17
4.3908515e-23 -2.0905543e-28 1.4634214e-23 1.8855781e-24 -3.5091246e-16 5.802457e-22 -8.1572014e-22 1.9959418e-14

atom_lin.bias f4 [300]
00000000: b551 15bd c3f0 87bb c7af 1e3c e521 733c
00000010: a947 8c3d d8af 8c3d a8ed fb3d 7b6d 91bd
00000020: d2a3 ffbb ae5e 2a3d ccaa 00bd af45 ba3c
00000030: 6a41 b83d ec44 163d 7d1e a93d 713a 9a3b
00000040: 5c67 bc3c 6424 b13d 0923 b2bd e788 093e
00000050: 9108 5cbd 98c6 013c 686f 793d c1bd 0c3d
00000060: d769 abbc 79af 7a3d a24e 73bc b0b1 193e
00000070: 9766 d43d dd33 453d 20db 90bc 01b1 bf3d
00000080: f9b8 a83d f370 593d 03fb a2bc 9f69 8b3c
00000090: 588b ee3d 2d68 3dbd c231 3a3d 3575 963d
000000a0: c931 b73b faf0 6f3d 3b0e e33d 993b 4a3b
000000b0: 363f 92bd 1b5c ba3d f964 88bd 19e6 c33d
000000c0: c489 e6bc 252f 603d 342e 823d ec09 4c3c
000000d0: ceaf e13d 056e 833d 6f6f 33bd b0a7 5b3d
000000e0: 0415 99bc e935 1fbc 49c5 0cbd c514 22bd
000000f0: 2fee 2e3d ca79 d43d 575e 8cbc ae78 28bd
00000100: 068e 4ebd 04a9 7d3d 23fd 3cbd bb88 fa3c
00000110: 02e8 683d 8e15 233d b01d d5b8 c6d9 f6bc
00000120: 3a60 c63d a47c c83d b041 063d 6ac1 c7bb
00000130: b689 b23d ce89 5ebd 7fbe 563d 9981 adbb
00000140: 80e7 14bd 5053 8fbd 8938 313d 43c6 083e
00000150: 484b cdbd 7afd ad3c 2610 0a3b 6446 c93d
00000160: 81d4 1ebd ca79 4a3d e7b4 873d 3d67 56bc
00000170: 53e9 1dbd 6cdf 953b 482c 903d 12f7 df3d
00000180: 6b5d e6bd 48ab f5bb 81d7 ef3d c982 c03c
00000190: cfee fa3d 8142 4d3d 45ee 143d aba9 db3d
000001a0: 8a1d 833d a957 c23d 8e1a ad3d aa4a a63c
000001b0: d083 523c b331 0ebe c732 ba3d 8edf 403d
000001c0: 1328 653d 9c54 1cbd 3a61 90bc 934c 1fbd
000001d0: d61f 353d 03cd e03d 757b c33d 46b8 b13d
000001e0: 16f9 983b 8738 1f3c 4b1f fe3c 081d 913d
000001f0: 5337 ab3c 1955 44bd 7f79 84bd dc37 a03d
00000200: 2638 1c3d 802c 32bc 43f8 87bc 67d4 ac3d
00000210: c143 0b3c 34e5 213d 4e32 36bd 0883 8c3c
00000220: 4b58 0a3d a66a 6cbd 5007 113e 32dd 59bd
00000230: 00f1 04bb 5f0d 29bd 43d4 bb3c e772 9abd
00000240: b021 953c c254 e6bd b124 793c 4dd2 2dbd
00000250: b26b 06bb c474 6c3d 6474 943d 4739 a63d
00000260: 0130 8a3d 8336 b53c 4a2a 9f3c 6f68 2ebd
00000270: 384e ccbc 0a09 013e 8cad 163e e8a7 7a3c
00000280: e515 b23d 1362 1f38 07c7 aa3d bbc4 5c3d
00000290: 8715 80bc a422 593d 3363 7c3c 12d4 b23d
000002a0: 8f99 973d b13b 1e3c 6462 883d d1dc 1d3d
000002b0: f72c ad3d 3f20 cb3d 651e 91bc ff61 423d
000002c0: 2fa6 c83c 8554 2a3b c673 07bd f213 6a3d
000002d0: f9ac c33d 58e4 b03d 787e 8e3d 01ca da3c
000002e0: 376c 8f3d 45e8 c43d 564f dc3c 5cc7 983d
000002f0: 7a06 e5bc f008 0d3c 4a12 af3d bc64 36bd
00000300: 5719 ea3c 101b c9bd bee3 013d 3e8f c93c
00000310: 6fc2 a93d aae9 0e3d 3538 853d 4a99 86bc
00000320: a7a3 ee3d ad34 5b3d b5ca 873d d5f4 40bc
00000330: 55c5 d23d adc0 bc3a da2f eab9 b069 9c3c
00000340: d274 ae3c e39e 7bbd 171f 32bd 6b8d 803d
00000350: e008 453d 8c73 d83d 7adc f2ba e7b7 e63c
00000360: 8877 bebc ba7f afbb d3b3 1dbc aeba d43d
00000370: fdcd ee3d 5830 9cbc 4432 133d 54bc 0abc
00000380: d10f e5ba 42ce 563d 8ca7 433d 0f69 063d
00000390: 96ac 0ebd 5167 113d 8f49 503d e23a 6cbd
000003a0: 7c5b e23c e791 1dbd 4607 be3d 6f40 413c
000003b0: 771e 953c 8b1f 83bc 8b73 dc3d 66f8 d83d
000003c0: a135 cb3d a3f7 033d 7c1d ba3c d696 0a3d
000003d0: 548e b03d f114 37bc 5e83 d03d eda7 e93c
000003e0: 1b42 003c 2c8d d2bc c2b3 3c39 9a4c c23d
000003f0: bbe7 ba3d f580 143d 21eb 313d 0ba4 1e3d
-0.036454875 -0.004148574 0.009685463 0.014839624 0.068496056 0.06869477 0.12301189 -0.0710096
-0.0078015113 0.0415942 -0.031412885 0.022738306 0.08996852 0.036686823 0.08257768 0.004706674
0.022998504 0.08649519 -0.08698089 0.1343113 -0.053719107 0.007920884 0.06089726 0.03436065
-0.020924492 0.0612025 -0.0148502905 0.15009189 0.1037113 0.048145164 -0.017682612 0.09359933
0.08238406 0.053086232 -0.019895082 0.017018137 0.116476715 -0.046241928 0.04545761 0.07346574
0.0055906516 0.058579423 0.110866986 0.0030858277 -0.07140963 0.09099599 -0.06659884 0.09565372
-0.028141864 0.05473246 0.06356469 0.012453537 0.1101986 0.06417469 -0.043807443 0.053626716
-0.018686779 -0.009717443 -0.034367833 -0.03957059 0.04270762 0.10374792 -0.017134828 -0.041130714
-0.050428413 0.061928764 -0.046139847 0.030582776 0.056861885 0.039815478 -0.00010162161 -0.03013314
0.096863225 0.09789398 0.03277749 -0.006096055 0.087176725 -0.05433064 0.052427765 -0.0052949903
-0.036353588 -0.069983125 0.043266807 0.13356881 -0.100241244 0.021239031 0.0021066754 0.09827879
-0.03877688 0.049432553 0.06626301 -0.013086137 -0.038552593 0.004573753 0.07039696 0.10935797
-0.11248287 -0.007497225 0.11711026 0.023499863 0.122525804 0.05011225 0.036360044 0.10725721
0.064021185 0.09489376 0.084523305 0.020299274 0.012848809 -0.13886146 0.09091716 0.0470882
0.05594642 -0.038166627 -0.017624486 -0.038891386 0.044219814 0.10976603 0.09545032 0.086777255
0.004668365 0.009718067 0.031020781 0.070856154 0.020900404 -0.047932718 -0.06468486 0.07823154
0.038139485 -0.010874867 -0.016597873 0.0843895 0.0085000405 0.039525226 -0.044481568 0.017152324
0.03377561 -0.057718895 0.14162946 -0.053189464 -0.0020285249 -0.041272517 0.022928363 -0.07541447
0.01820454 -0.11246635 0.015206502 -0.042436887 -0.0020510969 0.057728544 0.07248762 0.081163935
0.06747437 0.02212072 0.019429345 -0.042580064 -0.024939641 0.12601104 0.1471464 0.015298821
0.08695582 3.7999893e-05 0.08338743 0.053898554 -0.015635265 0.05301155 0.01540451 0.087318555
0.07402336 0.009657786 0.066593915 0.038540665 0.08455842 0.0991826 -0.017714689 0.047456738
0.024493305 0.002599032 -0.033069395 0.057147928 0.09554476 0.08637303 0.06957716 0.026707651
0.07003062 0.096146144 0.0268933 0.074599 -0.02795719 0.008608088 0.0854841 -0.04452966
0.028576536 -0.09819615 0.031711332 0.024604436 0.082890384 0.03489081 0.06504861 -0.016430516
0.11652308 0.053517032 0.0663046 -0.0117771225 0.10291544 0.0014400684 -0.0004466761 0.019093364
0.021295939 -0.061430823 -0.04348668 0.06276973 0.048104167 0.10568914 -0.0018528842 0.028163863
-0.023250356 -0.0053558024 -0.009625393 0.10387169 0.11660383 -0.01906602 0.03593661 -0.0084677525
-0.0017476027 0.052442797 0.047767207 0.032815035 -0.03483256 0.03549892 0.0508514 -0.057673343
0.027631514 -0.03846922 0.09278731 0.011795147 0.018203003 -0.016006252 0.107642256 0.10594253
0.09922338 0.032218587 0.022719137 0.033835255 0.08620897 -0.011174426 0.10181306 0.028522456
0.007828261 -0.025702082 0.00017996042 0.09487267 0.0912623 0.036255796 0.043437127 0.038730662

bond_lin.weight f4 [300, 23]
00000000: 4115 c1b5 954a e2be 17c5 bf3e 5d7e cb3d
00000010: f7bd a081 e1ea 112a 926f 3500 6abd 43ba
00000020: cd4e 001e 29b9 a937 a32f 6838 c072 1ea2
00000030: d997 7a3e 22c8 4fb9 cf7c e291 2244 9339
00000040: 97cf bf1a a77c e1b8 7b54 e2b6 ae62 8da1
00000050: 22b0 cf32 e453 4713 18fb 862e dc78 3431
00000060: 81db a23e bde5 88be b428 7cbe 2772 f586
00000070: 8baa da36 008f 77ba c55f 8d37 64e0 09af
00000080: 2471 4c22 6a3c 0796 0842 8320 d182 9d3e
00000090: d363 9334 4d54 a929 affe 59ba 5758 60b8
000000a0: 77ca 3ba6 6d45 c6b6 5960 ca35 526d 1116
000000b0: 2a89 af2e cb99 49ae 2e9d 2680 f33e b9be
000000c0: 4576 f7be 19c6 133f a5e1 a3ae 85cd b4b5
000000d0: 4e8c 3580 8d1b 0b0b 87a9 9aaf 5d76 4ba9
000000e0: 8d02 feb4 110f 0daf 4d44 903e 0f79 dab7
000000f0: 8f82 262e f4b5 2e28 318b 138c fde8 3d93
00000100: b3db 0b37 5bf0 6fa7 cca6 5b3a 4e48 a4a1
00000110: a75a 2192 a801 f297 d59b 74bd 087b 853e
00000120: 7154 023e 3e52 4ca2 4a67 f7ac c2d0 5681
00000130: 9264 c88b fccd ac22 41a2 4fb5 3bbc 0baf
00000140: d659 cfad 5bb0 c13d ad3d 15a6 ab6b 3500
00000150: e6d3 8a10 1ae7 5ab9 8959 0a32 7480 f9b9
00000160: 1688 3580 07d4 6635 c2ae f2ac 8579 5137
00000170: ba8d 469c e0e5 133e 8c60 c63c 324f 03bf
00000180: 5df9 b425 f76a 8832 e53f 6916 7796 671e
00000190: aa01 7a38 4f8e 2085 b832 c839 f793 4a34
000001a0: e196 a53e 3590 8002 750a 8aae b57e 39a6
000001b0: af82 3500 5eca 6632 ac24 cb37 fd80 b22e
000001c0: e107 c41f 0761 d5a5 3e3a 371e bc31 06b1
000001d0: c69a 513e d430 0e3f 8f1b 853e 1b67 8d36
000001e0: 7b2c ad2b 9d16 4b04 f0b9 ba1f f8ae e815
000001f0: c12e 48b0 85e2 15a4 38ad 45ad 1341 d9be
00000200: 7dd2 012d 54ef 5a30 03d9 0337 3c9c 842a
00000210: 9bec 9ab4 f6d9 2535 2629 1930 791f 153a
00000220: 25ee e129 3f1c 3338 0343 4823 a6ef 24be
00000230: 9aae a93e bba0 86bd c179 3500 2c2e 461d
00000240: cd32 1130 9bb1 6fb7 1275 3500 6dbc 7c34
00000250: 0f2e 1229 6e75 beae 0ac3 fabe 7b80 3580
00000260: 4a16 d139 6194 55a2 2939 2f34 f88e 6937
00000270: a568 312c c883 c516 1c76 99a1 31c8 829e
00000280: 10ab 35ba 3e1f b319 04f7 e0be 2994 ad3e
00000290: 52b8 bbbe 80a4 b495 9d0b 0a38 ab1d 9d1d
000002a0: 0375 9f35 bc92 1039 5f9a a4af f816 402a
000002b0: b86b 3580 95a9 c33e c541 3cb8 1604 dd35
000002c0: 54f9 78ab d5f4 582d 8677 af38 4027 5fb8
000002d0: 29c1 80b6 6033 bd2c 382e a717 889a eea0
000002e0: fec4 939e 23d5 5f3e c42c 363e f4bf a03d
000002f0: d7e8 aa36 cb6e 9fad d071 0637 acb7 b9b9
00000300: 80ba dca6 f98e 8f21 e396 2824 3c7a 3580
00000310: b036 d23e 41bb 45ba 7678 2631 4a63 8a35
00000320: 0151 b136 ad18 7138 211d c1b2 d114 3b27
00000330: 41b7 50ba c37c 6fac a738 5e22 41ce b3b5
00000340: 50b5 cc3d a3c1 fb3e 3602 ecbe 1789 1d0e
00000350: 1e51 83ab c3db dab7 505a f02c 8e9d cbb7
00000360: 1ab6 f1b6 38e0 ee30 b8b8 2918 4e1c 42be
00000370: 7750 0f15 58a8 1f0e 83bf 6db0 d87c 3500
00000380: 81e0 852f a9d4 9122 bdd0 1fae e972 d2a3
00000390: b140 96a7 0345 dd39 5ba8 93ae 649f cc3e
000003a0: 29be 073f 4439 ccbe 656a 9db5 8972 3500
000003b0: 4a10 062e c82c 8492 46a6 7e1b 3972 3500
000003c0: 462a 18b2 9a7d 3580 74b1 ad3e 1cf9 01b5
000003d0: f520 d600 a154 ea90 3bfe 7238 3d64 ab11
000003e0: cf6a 7537 ea8d d2b6 8935 f636 8819 d238
000003f0: f394 b18c 4968 bd39 6ad5 08bf 059e e13e
-1.4385806e-06 -0.44197527 0.37455055 0.09936211 -5.9047304e-38 1.2960077e-13 4.907305e-39 -0.00074668846
6.792559e-21 2.0232592e-05 5.5357476e-05 -2.1473741e-18 0.24471988 -0.00019815614 -3.5733432e-28 0.00028088788
7.933113e-23 -0.000107520544 -6.7451597e-06 -9.580652e-19 2.4178068e-08 2.5158692e-27 6.138218e-11 2.6262148e-09
0.31808093 -0.26737776 -0.24624902 -9.232649e-35 6.51676e-06 -0.0009443611 1.6853106e-05 -1.2539797e-10
2.7707052e-18 -1.0924276e-25 2.223596e-19 0.30763867 2.7453515e-07 7.5197315e-14 -0.0008315844 -5.3488035e-05
-6.515305e-16 -5.908942e-06 1.5078214e-06 1.1747502e-25 7.982444e-11 -4.5838704e-11 -3.546134e-39 -0.3618084
-0.4833242 0.5772415 -7.452464e-11 -1.3470859e-06 -4.917613e-39 2.6791153e-32 -2.8132893e-10 -4.517772e-14
-4.7313043e-07 -1.2829228e-10 0.2817711 -2.6043997e-05 3.785999e-11 9.698395e-15 -1.1366354e-31 -2.3970026e-27
8.336198e-06 -3.329821e-15 0.00083790417 -1.1132211e-18 -5.091438e-28 -1.5639302e-24 -0.059718926 0.26070428
0.12727524 -2.7690694e-18 -7.0316296e-12 -3.945537e-38 -7.718852e-32 4.6838788e-18 -7.734962e-07 -1.2708849e-10
-2.357307e-11 0.09457465 -5.1778346e-16 4.905905e-39 5.4757884e-29 -0.00020876192 8.053015e-09 -0.00047588686
-4.9161e-39 8.599022e-07 -6.8974557e-12 1.2485664e-05 -6.569588e-22 0.14443159 0.024215959 -0.5129272
3.1393998e-16 1.5881126e-08 1.8841752e-25 1.22601536e-20 5.9606195e-05 -7.549302e-36 0.0003818476 1.8866545e-07
0.32341674 1.889068e-37 -6.277371e-11 -6.435649e-16 4.914162e-39 1.3433775e-08 2.4216562e-05 8.117416e-11
8.3022263e-20 -3.7015358e-16 9.6999835e-21 -1.9527837e-09 0.20469198 0.55543256 0.25997588 4.2141305e-06
1.2304735e-12 2.3872919e-36 7.908167e-20 9.3980106e-26 -7.282602e-10 -3.2501094e-17 -1.1236616e-11 -0.4243246
7.379539e-12 7.9648044e-10 7.858735e-06 2.355632e-13 -2.8856888e-07 6.1784465e-07 5.571955e-10 0.0005688589
1.0033319e-13 4.2703232e-05 1.0856212e-17 -0.16107044 0.33141023 -0.06573626 4.910958e-39 2.6228952e-21
5.2822885e-10 -1.4286862e-05 4.909278e-39 2.3537878e-07 3.2458462e-14 -8.6610594e-11 -0.48976928 -4.913371e-39
0.00039880193 -2.8945434e-18 1.631894e-07 1.392117e-05 2.5211302e-12 3.1910232e-25 -1.0398947e-18 -1.3847083e-20
-0.00069300923 1.8520785e-23 -0.43938458 0.339021 -0.36664063 -7.2960956e-26 3.291258e-05 4.158823e-21
1.1880478e-06 0.00013787573 -2.9941113e-10 1.7060995e-13 -4.905924e-39 0.38215318 -4.4883946e-05 1.6466972e-06
-8.845331e-13 1.2332542e-11 8.366913e-05 -5.3203898e-05 -3.837184e-06 5.377407e-12 1.0803789e-24 -4.0421028e-19
-1.5645704e-20 0.21858649 0.17790514 0.07849112 5.093501e-06 -1.812541e-11 8.013521e-06 -0.00035422796
-1.5316118e-15 9.727901e-19 3.6557e-17 -4.911131e-39 0.41057348 -0.00075428566 2.4224653e-09 1.0310698e-06
5.284441e-06 5.748186e-05 -2.2481403e-08 2.5962748e-15 -0.0007961877 -3.40332e-12 3.0116602e-18 -1.3396567e-06
0.0999552 0.4917117 -0.46095437 1.941775e-30 -9.330624e-13 -2.608996e-05 6.831237e-12 -2.4272853e-05
-7.203559e-06 1.7380506e-09 2.1935997e-24 -0.1895611 2.8942096e-26 1.9679318e-30 -8.649225e-10 4.912067e-39
2.435208e-10 3.952749e-18 -3.633781e-11 -2.2816912e-17 -4.17035e-15 0.00042203823 -6.714692e-11 0.39965355
0.53024536 -0.3988744 -1.1728376e-06 4.908369e-39 3.048254e-11 -8.341411e-28 2.1064113e-22 4.908257e-39
-8.857176e-09 -4.912339e-39 0.33924448 -4.8418747e-07 1.9664619e-38 -9.242712e-29 5.7934067e-05 2.704082e-28
1.4628006e-05 -6.2750087e-06 7.3376036e-06 0.00010018336 -2.7360814e-31 0.00036126588 -0.53450644 0.44065872

bond_lin.bias f4 [300]
00000000: 0288 fdbd d655 503c 2bdd c93d f1ee 7d3e
00000010: 04d1 46bd c02b 023e fdec cd3d f986 7abe
00000020: 0ad0 c13d 6df1 143d c29e f3bc 609b e43d
00000030: 0d59 f7bd b90a 89bc 0a1a 0ebe d7b9 633e
00000040: a822 813e d63d d2bd 6990 0ebe dea6 2b3c
00000050: 53b9 1abe 0da0 13be 9f1b f9bd 7b93 813d
00000060: 74ed 8a3d a50b 6abc d403 a13d 7259 81be
00000070: 49bd 253c 52a8 073e 62b6 3a3e af99 463e
00000080: cd25 113e 9025 a5bd 2049 683e a22f 08bd
00000090: 3090 1dbd 47d9 393e 5d0b 973b ca1e 0c3a
000000a0: c749 353c 4d19 873e c3c8 65be f283 1fbe
000000b0: 19b0 e8bd 3f2a 36be 3574 9dbd f4b6 983d
000000c0: 7bff 0f3e b64e 10be 91ec 0fbe 447a 85be
000000d0: d95a 7c3d 201c 41be 5769 f1bd 75de 4d3e
000000e0: 1fbf 953d 78d0 d5bd bc51 483e 3fab 48be
000000f0: 1bcc 11be 0ec2 863e 9f2a 2cbd 7bfd b93d
00000100: 8ea2 d13b 7c2c 653e d9e9 f43d f9a6 113e
00000110: bdf4 8fbd 7eb7 8f3d fee3 c3bd fb4a 28be
00000120: 97e1 a3bd 075c 353d d025 e2bc 73c3 c7bd
00000130: baaf 42bd e92a 113e c6d7 9ebd 0c8e 9d3e
00000140: a0bd 9dba cf24 8d3d c261 7ebe e4ef 1bbe
00000150: 56c7 ef3d 6e16 0f3e 0df7 c8bd 20a1 433d
00000160: c065 85be 408a 5e3e 9757 463e c1fd 913b
00000170: 832c d1bc 28fc 52be d4d6 05be 7f45 643d
00000180: 017f cebc 7c59 463e 2fbc 99bd 2246 4e3e
00000190: 420f 27be f41e 553e f61a 93be 7643 613e
000001a0: eeb1 bc3c 4fe1 253e df34 0a3e a055 45bd
000001b0: 9f37 37be bf05 1c3d 002a 2d3e e2f9 1d3c
000001c0: c25e 65be c810 b03d 4cf9 dd3d 0c2c 28be
000001d0: 5cf9 debd b93d 103e 35b9 823e 662a d93d
000001e0: 9a44 883d 30c7 33bd 7449 dfbc 10ea 46bc
000001f0: 3bfc b03c 485b 463e a207 0dbc c12a 723e
00000200: 4b79 b7bd f622 7ebe 64ca 87be 6e42 a4bd
00000210: 7b5e 52be c2ce b03d 6bbb cebd 6ac2 793d
00000220: f00f 43be 462c d7bd 40c5 60bd f594 81be
00000230: 2181 ef3c b3a3 a3bd fae9 66be 0477 eabd
00000240: d9ac 23bc ab08 0b3d 17c8 09be bf5e 85be
00000250: efa4 23be 5c90 123e 4db4 673e fe76 89bd
00000260: 9f11 1b3e fb51 903d 5328 c13c 972d 6b3e
00000270: 1c81 19be 5294 293e ff3c 01bd 3672 67bc
00000280: 039e 0f3e 855b 76bc 9aad a5bd a29f 86be
00000290: 85af 87be f317 293d c7ec de3d a7d8 10be
000002a0: aeb6 ed3d 5195 fb3d 6ef9 7cbe d80c 4bbe
000002b0: ad5b 613e b19d f33c 5652 e73d 7293 3c3e
000002c0: 8b75 22bd 0631 1f3e c05c 5f3e 7ecb 413d
000002d0: b740 983e b835 0cbe bdc5 003e 5669 953c
000002e0: 524b 92bd c238 56bd 4536 733e 4c93 4abe
000002f0: 0a66 24bd 3ea6 7c3d 594f f33d 00b6 263e
00000300: 02dc ef3c 5e53 a0bd e4a8 8cbd 9243 8dbe
00000310: 3343 4bbe 03a2 4cbe 9a4d 843d c1a3 2bbe
00000320: de8d fbbd f8ce 36be 2d38 873d 1089 c4bd
00000330: 6e3b 743e f082 06be dc08 613e 11db 923d
00000340: b4c5 b9bc 01d6 f6bd 8358 10bd 5c1d 8d3d
00000350: 402f 28be 1305 d0bc 8ad5 a0be 4795 5dbd
00000360: 3fcc 78be a061 be3d 89fb 1dbe 6111 e4bd
00000370: 8882 ef3d 84a9 e73b e955 3f3d 4d9b ddbd
00000380: 0318 653b 8287 8839 20e5 7ebe d8e5 c53d
00000390: 9c51 2d3e 62a2 14be 641e c4bc 123f 9b3d
000003a0: 5856 d23d 1bb3 033e 8d77 fabc 861a debd
000003b0: 0e1b 0c3e 3a6d 2abe fe57 a3be d0b8 a33d
000003c0: 97e7 ffbd 72d5 6b3d 7ef7 213e fec3 96be
000003d0: 57eb 823d bdb0 3fbe f8c3 523e 99b3 dbbc
000003e0: 38f7 34be b05b 943d ec68 11be 3928 3d3e
000003f0: 188b 833e 0d00 2dbe 7059 58be af0d 853c
-0.12379457 0.012715777 0.098566376 0.2479818 -0.048539177 0.12712002 0.100549676 -0.2446555
0.094635084 0.036363054 -0.029738788 0.11162448 -0.12077532 -0.016728746 -0.1387712 0.22238861
0.25221753 -0.102657005 -0.13922276 0.010476796 -0.15109758 -0.14416523 -0.121634714 0.06326958
0.06783572 -0.014285003 0.07862058 -0.25263554 0.01011593 0.13247803 0.18233636 0.19394563
0.14174576 -0.08063805 0.22684145 -0.03324855 -0.038467586 0.18149291 0.004609509 0.0005345164
0.011064953 0.2638649 -0.22439866 -0.15577677 -0.11361713 -0.17789553 -0.0768818 0.074567705
0.14062302 -0.14092526 -0.14055087 -0.26069844 0.061610077 -0.18858385 -0.1178767 0.20104392
0.07311844 -0.10440153 0.19562429 -0.19596575 -0.14238016 0.26319927 -0.042032834 0.09081551
0.006397552 0.2238025 0.119586654 0.14223851 -0.07029102 0.0701742 -0.095649704 -0.16434853
-0.08002012 0.044277217 -0.027605921 -0.09754076 -0.047530867 0.14176525 -0.07755999 0.30772436
-0.0012034662 0.06891786 -0.24841979 -0.1522823 0.11707942 0.139734 -0.09812746 0.047761083
-0.26054192 0.21732426 0.1936935 0.0044552987 -0.02553392 -0.20604002 -0.13070232 0.05573034
-0.025207045 0.19370073 -0.07506596 0.20143941 -0.16314414 0.20812589 -0.28731507 0.2199839
0.023034062 0.1619923 0.13496731 -0.04817736 -0.17892312 0.038091417 0.16910553 0.009642096
-0.22399428 0.08596951 0.10838565 -0.16423053 -0.10887405 0.14086045 0.25531927 0.1060379
0.0665371 -0.043891132 -0.027256705 -0.012140766 0.021604648 0.19370759 -0.008607777 0.23649122
-0.08958682 -0.24818024 -0.265216 -0.08020483 -0.20543854 0.08633186 -0.10094341 0.060976423
-0.19049048 -0.10506491 -0.054875612 -0.25308958 0.029236378 -0.079902075 -0.22550192 -0.11448482
-0.009989941 0.033943813 -0.13455234 -0.26048848 -0.15980886 0.14312881 0.22627373 -0.06712149
0.1514344 0.070468865 0.023578798 0.2296661 -0.14990658 0.16560486 -0.03155231 -0.014126351
0.1402512 -0.015036468 -0.080897525 -0.26293665 -0.26501098 0.041282605 0.108850054 -0.14145146
0.11607109 0.12284339 -0.24704525 -0.19829118 0.22007628 0.029738279 0.11295001 0.18415621
-0.03966288 0.15546045 0.21812725 0.047313206 0.29736874 -0.13692367 0.12575431 0.018238705
-0.071432725 -0.052300222 0.23751171 -0.19782752 -0.040136375 0.06168198 0.11880369 0.16280365
0.029279713 -0.07828401 -0.06868151 -0.27590615 -0.19849853 -0.19983678 0.06460114 -0.16761686
-0.122829184 -0.1785239 0.066025116 -0.09596455 0.23850796 -0.13135886 0.21976036 0.0717069
-0.02267728 -0.12052537 -0.03524066 0.068903655 -0.16424274 -0.025393045 -0.31412917 -0.05409744
-0.24296664 0.09295964 -0.15427984 -0.11136127 0.11694819 0.0070697684 0.04671279 -0.10820637
0.003495694 0.00026040903 -0.24892092 0.0966298 0.16925663 -0.14515069 -0.023940273 0.07580389
0.10270375 0.12861292 -0.030574584 -0.10844903 0.13682196 -0.16643229 -0.3190307 0.079942346
-0.12495344 0.057576604 0.15817067 -0.29446405 0.06392544 -0.18719764 0.20582569 -0.026819037
-0.17672431 0.072440505 -0.14200181 0.18472375 0.25692058 -0.1689455 -0.21127868 0.016241876

energy_lin.1.weight f4 [300, 300]
00000000: aa8f bd3d 8a80 03bd d544 b93d 7c3c 10be
00000010: 7c0b 973d 7c9b d93d 1be7 7abd 01dd c5bc
00000020: d842 023d 2163 d4bd 7d4e 543d d47a 4abd
00000030: b6e8 4bbc 3208 ba3d 51dc 3e3d 73a7 eabd
00000040: ebd4 263e 8291 51bc c780 c53d 7983 d6bd
00000050: 98d0 853d 4422 423d b97b ecbc 38ad 1f3c
00000060: 7611 cb3d 2a55 243d 3508 bb3d 5702 13be
00000070: 52b5 183e 5cf5 a43d ce56 ca3b 5022 dc3d
00000080: 18b7 f8bd 264b e33d a096 94bd 3f0e 753d
00000090: eb95 973d a493 fabd 9d25 96bd 9c4d e3bc
000000a0: 37e1 bebd b5ec af3d 18b1 dbbd 4f1f d4bd
000000b0: 5933 fabc 8438 4e3b 36c4 33be 4a4b 183e
000000c0: 9dfd 02bc 1942 a8bd ce95 64bd 2ff3 08be
000000d0: d817 bbbd c4cb afbc bde2 6abd d161 f53d
000000e0: bfa8 993d c57d 71bd bd69 f63d 5248 00bd
000000f0: d838 183e b095 043e bd79 01bd db1d 46bd
00000100: fcef a53d 5714 a53d cae5 393d dcf8 4bbe
00000110: 83e4 11bd 03c4 a6bc 10c8 ee3d 4267 583b
00000120: 44de c13b 99f2 773d 45b6 dc3d 523c 01bd
00000130: 0713 1f3e f21c c93d 02f0 b8bd 5e8a 1d3e
00000140: eb43 7c3c d923 f93c 2efb 7f3d a643 313c
00000150: 99dd 9bbd a575 033e 0340 ae3c b877 ea3d
00000160: d177 cbbd 3ddb 5f3e 39d7 38bd 756b 03be
00000170: 4085 243e 5ffc 893d 3ceb b33d f5b3 593d
00000180: fc87 373d 6aec 823d 710d ebbc d4e9 e73d
00000190: 3486 10be 6a5c a83c d1e9 6f3c 2689 60be
000001a0: 80d3 7abd 1fa3 fa3c 09f5 8bbc f428 503c
000001b0: 11bf 3dbd a800 a73b abc5 84bd 4549 ce3d
000001c0: c64f 9fbd 0417 12bc 208a 863d ac9f 9cbd
000001d0: 040e ca3d e255 8ebd 8725 01be 0fcd 8d3a
000001e0: 817a 83bb d7f8 edbd 985c 383d 64c9 d03d
000001f0: 3589 b93d b9db c3bd 78a8 a7bd f9eb 67bd
00000200: d024 a33c 0832 ac3d 9d38 963d 3f98 f23d
00000210: b63b a93d 3c9d acbd 4eac b9bd a1d7 dd3e
00000220: 8543 bbbd a78f b9bd 3a60 a93c 6246 51be
00000230: 6cac 693d c788 473d 79af d93d 1716 13be
00000240: 5150 6a3d 1e2e 0ebe 4297 5a3d 00a9 043d
00000250: 9022 92bd 0531 c6bd 753a 0d3d 6ef4 9bbd
00000260: 3182 29bc 9e90 543d 2d56 343d b9c0 d2bd
00000270: 9ba5 72bd c269 bd3d 732e 0c3e c25c cf3d
00000280: 636b d0bd 89c1 fb3c 37dd ce3d ca11 4d3d
00000290: 47e8 cebc c547 bd3d 56fe db3d d544 94bd
000002a0: 78b7 5c3c e845 18bd bbc4 8d3d b94b c8bd
000002b0: cb62 14bd 5fb8 96be 6bb4 473d 6c54 d73c
000002c0: e9fc 423e 7830 7dbd 7445 a4bd c29d 773c
000002d0: 5188 123e 34d9 023e dd70 023e 47cb f4bb
000002e0: 139e b63d 4b6c c03d a369 b53c 9f04 2b3c
000002f0: 6f0b c93d 87a5 94bd c6ba 863d 838b e4bd
00000300: 1fc3 0cbe fef1 303e 099d 06be e408 c0bd
00000310: 9318 0b3e f45f d3bd 1a80 9dbd 04ee 1e3d
00000320: 0b78 8739 8a96 2abd 68c0 38bd fdbb 29be
00000330: 2b99 fcbd 1f99 d8bc 423a e03d 7733 27bd
00000340: 3aa8 063e f91d bcbd 2ee5 d73d 64e7 083d
00000350: 18bb a5bd 5f52 253d 464e 003d a4c2 4ebd
00000360: 4974 eabd 42ca 383e bdf0 d93d 3474 9b3d
00000370: 0c2d d3bd 7d83 d83d 7ac5 033e 6d9d 83bd
00000380: e371 4e3d 9b3b fabd f34f cabd e404 5b3d
00000390: f78c ff3c 8cae 23bd 637c e9bc 1747 c3bb
000003a0: 8e43 d03c c01f 803d f638 8b3c 6770 1abe
000003b0: 134b 2cbd 294d 133e 3f51 69be 75c7 d7bd
000003c0: ab5a d43b 09e3 0bbc ebec a9bd 0e1b 2fbd
000003d0: 801f c3bc 15f1 46bc 1916 85bd c87f 8dbc
000003e0: 7213 9bbd 01b1 e03d b565 a4b8 9ffe ebbd
000003f0: f612 aa3d 23d5 ebbd 62aa 0b3e 1849 633d
0.09255917 -0.032105006 0.09046332 -0.14085573 0.07375237 0.106253594 -0.061255556 -0.024153234
0.03180203 -0.1037047 0.051832665 -0.049433544 -0.012445619 0.090835944 0.04659683 -0.1145772
0.1629216 -0.012791039 0.09643703 -0.10474295 0.06533927 0.04739596 -0.02886759 0.009745888
0.0991544 0.04012028 0.09132425 -0.14356361 0.14912918 0.08054611 0.0061748987 0.10748732
-0.12144297 0.11098318 -0.07255292 0.05982804 0.074016415 -0.122351915 -0.07331393 -0.027746968
-0.093203 0.0859007 -0.10727137 -0.10357534 -0.030542063 0.0031466791 -0.17555317 0.1487247
-0.007995036 -0.08215732 -0.055806927 -0.13374017 -0.09135407 -0.021459468 -0.05734514 0.119815476
0.07502889 -0.058957834 0.12031887 -0.03131897 0.14865434 0.12947726 -0.03161024 -0.048368316
0.08102414 0.0806052 0.04538516 -0.19919151 -0.035618316 -0.020357138 0.11659253 0.003302053
0.0059163887 0.060534094 0.10776953 -0.031551667 0.15534602 0.09819974 -0.09030153 0.15384814
0.015397052 0.030412601 0.062495403 0.010819351 -0.07610626 0.12837847 0.021270758 0.11448616
-0.099349625 0.21860977 -0.045127127 -0.1283396 0.16066456 0.06737589 0.08785102 0.053150136
0.04480742 0.06392749 -0.028692933 0.11323896 -0.14113694 0.020551879 0.0146431485 -0.21927318
-0.06123686 0.03059536 -0.017084615 0.0127050765 -0.046324793 0.005096514 -0.06483015 0.10072569
-0.077788875 -0.00891662 0.06569314 -0.076476425 0.098659545 -0.069499746 -0.12611972 0.0010818559
-0.0040124063 -0.11619728 0.04501018 0.10194662 0.09059373 -0.09563393 -0.0818643 -0.056621525
0.019915015 0.0840798 0.07335017 0.11845445 0.08263342 -0.084284276 -0.09066068 0.43328574
-0.09143738 -0.09060603 0.020675767 -0.20437005 0.0570492 0.048714425 0.10629172 -0.14363895
0.057205502 -0.1388478 0.053366907 0.032387733 -0.071354985 -0.096773185 0.034479577 -0.07614981
-0.010345981 0.05189573 0.044027496 -0.10290665 -0.059239965 0.09248687 0.13689594 0.10125114
-0.101767324 0.030731933 0.10100787 0.050065793 -0.025257243 0.092422046 0.1074187 -0.07239691
0.013471477 -0.037176043 0.06922289 -0.09780068 -0.03622703 -0.2943754 0.048756044 0.026285373
0.1904179 -0.0618138 -0.0802106 0.015113296 0.14309813 0.12778169 0.12738366 -0.0074705216
0.08916869 0.09395655 0.022145098 0.0104381135 0.09816634 -0.07258134 0.06578593 -0.11159422
-0.13746308 0.17279813 -0.13145842 -0.09376696 0.13583593 -0.10321036 -0.07690449 0.03880121
0.00025838646 -0.04164747 -0.045105368 -0.16575618 -0.12333902 -0.026440201 0.10948612 -0.040820565
0.13150111 -0.09185404 0.105417594 0.033423796 -0.08092326 0.04036176 0.031324647 -0.050478593
-0.11447961 0.18045905 0.1064162 0.07590523 -0.103113264 0.105719544 0.128683 -0.06426511
0.05040158 -0.122184 -0.0987853 0.05347146 0.031195147 -0.039961383 -0.028501695 -0.0059594023
0.025422838 0.06256056 0.016994935 -0.1508194 -0.042063784 0.14384903 -0.22784899 -0.1053609
0.006480535 -0.008538016 -0.08297142 -0.04275041 -0.023818731 -0.012142439 -0.064983554 -0.017272845
-0.07572068 0.10971261 -7.839074e-05 -0.115231745 0.08304398 -0.11515262 0.13639215 0.05548963

energy_lin.1.bias f4 [300]
00000000: 512b 643d 84ee 16bd 0fb9 2dbd 274e 48bd
00000010: f239 4a3d c5b5 a03c 2ce0 0a3d f37f 3c3d
00000020: 81ae f93c f51a 3c3d 5fc4 2ebc 0809 35bc
00000030: 5257 91b7 a90e 383d c071 fc3c 823d 5bb6
00000040: 70dd 923d 594f 15a8 677f 973d b8a0 893c
00000050: c992 6a3d 2f7d 4d3c 4104 28bd e43d bd3d
00000060: ffea 173d 39a6 403c 8a54 adbb 96c2 393d
00000070: 626d 4c3d faaa 7abd 91da 29bc 2a08 6b3d
00000080: fd85 413c 6051 873d 9f74 843d ca78 9d3d
00000090: ca83 e8bc 005e 62bc 90f7 3cbd a4c5 eabc
000000a0: 1e55 9d3d 0732 503d dc8e b1bb de4b 1abd
000000b0: fbd8 42bc 839b b7ba 98c9 243d 9452 b73c
000000c0: 43c5 cebc 9099 f33b fe46 eb3a fe07 4d3d
000000d0: 368d 743c 909e ab3d 7403 233c 20aa 19bd
000000e0: bbca aebc 42b9 1a3b 2629 95bc 152f 9d3d
000000f0: f97d 593d 69d7 c03c 0227 0e3d 89a7 433d
00000100: 9343 0e3d f1ed 663d d854 f3bc 8cb0 a83c
00000110: c0c1 903d d75f 9f3d 7508 913d 34ff e83c
00000120: 8f8b a03d d2be 4a3c 0667 1b3d f01f b33d
00000130: f7ed 2d3d a991 69bd 9684 8c3c 918e 933d
00000140: 2b59 453d 979e ad3d f64f 0ebc 6cd5 f63c
00000150: 2a4e a1bc 8f9d 843c 2821 603c 5ad9 4f3d
00000160: dedd 193b 9edf a0bc 311f 533d 48be 3d3d
00000170: 58ff db3c 1f65 20bd 3b1c 4c3d d74d 243d
00000180: e087 cd3c 6ee6 cc3a 2a93 81bc 2e9f a23c
00000190: 3692 713d 9aaf 10bd 88f0 873d d81e 873d
000001a0: a89d 873d be21 d5bc 158f 5c3c 3aab 393d
000001b0: 83a9 dd3a b49c fa3c eb8f a9bc e115 743c
000001c0: 15ab 44bc cf29 21bd 5805 ff3b f1a3 893d
000001d0: bbc6 663d 1ef9 a0bc dfed 11bc 0d79 553b
000001e0: b9d8 fc3c 638b 833d d831 3ebd 07fb 85bc
000001f0: e8ca 873d 682c 663d 30dd bcbc 77d1 1dbd
00000200: d439 1abd 1f53 a9bc 9b15 043d 8789 623c
00000210: 0814 103d a817 e83c 6d64 613c 34f8 24bc
00000220: acc1 093d de73 a1bb 70aa 0c3d 612c 7f3d
00000230: f82b 2cbc 5ce3 ccba 6309 213d db1e c2bc
00000240: 71c8 713d d053 973d 202b 52bc 3bca 2d3d
00000250: f4f9 3e3c 01f3 d43c fb58 28bd 56be a43c
00000260: 59d0 553d cef7 82bc 2645 ac3d 3d50 d13c
00000270: 4f5a 3a3d edc0 29bc 50bb a8bc c938 ab3c
00000280: 77bd 363d 7e6d fe3c 5376 14bd 8f21 a3bb
00000290: 6bbb 8ebb 91f8 6fbd 6873 a3bc b94c 16bd
000002a0: b27e 783d e7d4 a13c b60e 6039 e996 bfbc
000002b0: 7611 ca3c 1e09 2a3d 50a1 763d f95f 33bc
000002c0: 3ec9 8a3c 8ed2 8a3d f9bc e2bb 1163 5dbd
000002d0: 0a29 4c3d a743 12bd 2404 8a3d 7253 083d
000002e0: 50a1 463d d440 983d 9f6b 6d3d 69e4 833d
000002f0: 7f03 23bc 3057 b8bc c797 783b e94d 273d
00000300: c455 28bc b600 36bb ac3c b5bc 765d 21bd
00000310: aba5 5c3d a3a7 403d 79d4 493d b5b5 f6b9
00000320: 4ba8 2bbd 16eb 673d 33f4 7bbc 88c2 613d
00000330: 62d9 0cbd f1d1 dd3c 96e1 8dbb c099 28bc
00000340: cdc1 72bd 1b03 59bd cd7f ad3d f9d4 2e3d
00000350: 1b85 5f3d fb8f 07bd a3ae 8d3d 8ff8 b23d
00000360: 01fe 34bd 5bf1 9a3d b53c 58bd 13f6 073d
00000370: 0792 5a3c d22a 05bc 5c0e 6dbc ace9 103d
00000380: 814d 3a3d f4b8 363d ebc9 bc3d afa1 f43c
00000390: 34fe c4bc 5660 183d 9afc 8f3d 60dc 773d
000003a0: d4a7 f3bc d94d c03b 38ca 2abd 66e2 cb3a
000003b0: cb6e 6f3c cfe3 d2bb 430c 823d 970c 373c
000003c0: 3ee7 103d 771a 163d 0467 b93d 3272 2c3c
000003d0: 3ba5 573b 31a4 36bd a505 d0bc 29c8 5b3d
000003e0: 98e1 81bc e66b 17bc 226e 4e3d e673 983d
000003f0: de99 87bc 47d8 913c 0d82 633c 8bd9 873c
0.055705372 -0.03684856 -0.042412814 -0.048902657 0.049371667 0.019617924 0.033905193 0.04602046
0.030478718 0.045924146 -0.010666936 -0.0110495165 -1.7326009e-05 0.044935856 0.030815959 -3.2669345e-06
0.07171142 -8.288367e-15 0.07397347 0.01680027 0.05726889 0.012542053 -0.04101968 0.0924032
0.037089344 0.011758381 -0.005289619 0.045351587 0.049909003 -0.061198212 -0.010367052 0.057380833
0.01181173 0.06607318 0.06467556 0.07689054 -0.028383154 -0.013816357 -0.04613453 -0.028658696
0.076822504 0.05082896 -0.0054186415 -0.03767001 -0.0118925525 -0.0014008138 0.040231317 0.022378244
-0.025240546 0.0074340776 0.0017950234 0.05005645 0.014926245 0.08379853 0.009949554 -0.03751576
-0.021336904 0.0023608957 -0.018208098 0.07674996 0.053098653 0.023540216 0.03470517 0.047767196
0.034732413 0.056379262 -0.029703543 0.020591997 0.07068205 0.07781952 0.07081691 0.028442003
0.07839119 0.012374597 0.037940048 0.08746326 0.04246327 -0.057023678 0.017153066 0.07204927
0.04818074 0.08477514 -0.008686056 0.030131064 -0.019690592 0.016188411 0.01367978 0.050744392
0.002347819 -0.019637879 0.05154342 0.046324044 0.026855156 -0.039158937 0.04983161 0.040113296
0.025089204 0.0015632638 -0.015817244 0.019851293 0.05897733 -0.035323717 0.066376746 0.0659768
0.066218674 -0.026017066 0.013461848 0.04532931 0.001691148 0.0305923 -0.020698508 0.014897794
-0.01200368 -0.039346512 0.0077826194 0.067207225 0.056341868 -0.019650038 -0.008906811 0.0032573373
0.03086506 0.0642307 -0.046434253 -0.01635505 0.06630498 0.056194693 -0.02305469 -0.03852984
-0.037652805 -0.020669518 0.032247167 0.013826734 0.035175353 0.028331593 0.0137568535 -0.010068942
0.033631966 -0.0049271425 0.03434223 0.062298182 -0.01050853 -0.0015631723 0.039315592 -0.023696354
0.059029046 0.07389033 -0.012827665 0.04242919 0.011656273 0.02599478 -0.041100483 0.02011029
0.05220065 -0.015987303 0.084116265 0.025550956 0.04549628 -0.0103609385 -0.02059713 0.0209011
0.04461428 0.03105807 -0.036245655 -0.0049783657 -0.004355838 -0.05858666 -0.01995249 -0.036694262
0.0606677 0.01975484 0.00021367785 -0.02338739 0.02466653 0.0415126 0.060212433 -0.010948175
0.016941663 0.06778441 -0.0069195 -0.054049555 0.049843825 -0.03570905 0.06739071 0.033282705
0.048493683 0.0743424 0.057963964 0.0644005 -0.009949564 -0.022502512 0.0037932263 0.040845785
-0.010274354 -0.002777142 -0.022123657 -0.039395772 0.05386893 0.04703487 0.049274895 -0.0004705616
-0.041908544 0.05662068 -0.015378046 0.05511716 -0.034387 0.027077647 -0.0043298705 -0.010290563
-0.059266854 -0.052981477 0.08471642 0.042683575 0.0545703 -0.033096295 0.06918075 0.08738815
-0.04418755 0.07565566 -0.05279227 0.03319366 0.01334048 -0.008127885 -0.014468756 0.035379097
0.04548407 0.04460998 0.092182 0.029862253 -0.024046995 0.037201248 0.07030602 0.0605129
-0.029743113 0.005868655 -0.041696757 0.0015555143 0.014613817 -0.0064358483 0.06349995 0.011172435
0.03537678 0.036646333 0.09052852 0.010525273 0.0032904882 -0.04459018 -0.025393317 0.053657684
-0.015854642 -0.009242034 0.050398 0.07443981 -0.016552862 0.017803324 0.013885987 0.016583225

energy_lin.3.weight f4 [150, 300]
00000000: 259c 043d b34b cbba cd29 cdbd 6ba1 6abc
00000010: 218b d03d 2b24 0c3e 997a ee3d e357 ae3c
00000020: 88fd 093e cab9 c9bd bce7 be3d 8fa0 da3d
00000030: dc0e 928a e23c 803d 6e7f 0abe 15e4 fe3d
00000040: 04d6 ca3d 9367 a722 350b cdbe 4b22 f93c
00000050: f1e1 103c 212a e43c 9cf8 c1bc b500 9abe
00000060: 3add e5bc b3a8 abbc 383a b03d bb3b f2bc
00000070: f2ce 993d 354f f4bd fc69 043c 6399 1ebd
00000080: 68be f1bd 570b cabd 1f46 603d 8114 663e
00000090: 8eb3 973d 5764 1ebd b6aa 613d e530 033e
000000a0: 825b e43d 0cae 853d f053 9e3d d808 6dbb
000000b0: 2a09 98bd 1801 863c 04b2 b73d 4c45 4f3d
000000c0: 8529 16be 09d7 7e3d c06b c83c cbae 493c
000000d0: 8abc b0bc 68b2 023d 359d 1c3e 39eb 83bd
000000e0: d10e bb3b 347f cbbd e001 053e 0348 6c3d
000000f0: d676 c7bd 5fe1 e93d 5eb4 183e 5b1d a9bd
00000100: 7c4a febd 14cf 42be 3d9e a33d 5fbb e7bd
00000110: ac9b f7bd ed47 2c3e 94cf 833d a6d0 a03e
00000120: d6ac 81bd cc98 913d 8115 9cbd 1609 a1be
00000130: c0b9 893d 4840 bb3d 873b 623d 2b4a 5b3d
00000140: 63ae febd a4dc bbbd 3c11 06bd 5fb6 a03d
00000150: b24e 08be 0090 0f3e 0b2a 5a3d 45a2 a23a
00000160: 803f c43c d568 5a3e 18cc ce3c 86b9 1ebd
00000170: aa91 5f3e bc10 d13d a5c8 46bd af58 43bc
00000180: 0a33 fd3d 560d 0e3e e048 13be a422 d1bd
00000190: d2a2 b53d 41fa dbbd c662 0fbd e394 98bd
000001a0: 7201 dd3d b87f ed3d e995 fb3c bc98 fd3d
000001b0: e852 28bd df17 4fbd 118c 103d f03b dbbd
000001c0: ef73 03bd e783 e23d 377a edbd 90e8 f33d
000001d0: a827 e63c 905f c8bd f80d 7fbc 0133 51bb
000001e0: 8fa6 33be 89d8 d0bc 66d8 4d3d 80e9 c5bd
000001f0: 6e4f b23c 8c57 8dbc 0e4e 41bd 7767 e83c
00000200: 9ad0 793d afb3 363d b163 82bc db0f dabb
00000210: dda6 2fbd 5442 17be 9819 43bd 2b8a 8c3d
00000220: 73da 11bc 4005 87bc 934b 5dbd 608d cabc
00000230: 5d1b 6b3c 23df 53bd 3260 0a3e 69a7 863d
00000240: 602b 83b9 3eed 00be 5c15 08bd 034b 953d
00000250: ff4f 233e 8c68 58bd b6aa 583d 0e72 de3d
00000260: d81b 303d 9c87 a3bd 5cb8 b23c 5c02 27bd
00000270: da02 993c 3f4b 433a 5f1e 523d 110b c5bd
00000280: d27a f6bd 162a 87bd f596 ec3d 271f 13bd
00000290: 8fbe 24bd 5ff6 053e 2340 553c 63f3 1a3e
000002a0: 991f 1a3e 26c1 013e c730 b9bd 8b56 8fbc
000002b0: 3a37 b9bd 8540 183e b362 a8bc 5879 f03b
000002c0: 0179 c5bd c9fe 003e 1510 f8bc aab3 0f3e
000002d0: c3c1 8b3d bd4f 013e f3c5 63bd e351 05bd
000002e0: d347 bfbc a3eb 9abd 17fa 6bbd 09e9 5f3c
000002f0: 264f 2f3c 5597 eb3d 0327 603d 99b9 cabd
00000300: 0174 f53d b5b7 fa3d 0f3b 753d a600 5c3d
00000310: daf6 d93d 65bf 0b3e fc0c 0fbe cf3f ccbd
00000320: 4b04 583d ba72 6b3c b8f8 7dbd 2c32 94bd
00000330: 33c7 c7bd ff75 fa3d eed4 8fbb 3f64 053e
00000340: cb15 cc3d 672e 7f3d 8c72 ecbd acf2 13be
00000350: d43b cfbd 7484 9abd 2f8c 0a3e e79d 333e
00000360: 5047 fe3d 823a ef3d 1924 c23c 55a2 d03d
00000370: b452 f8bb 2db8 afbd 059c 40bd ffe9 c43e
00000380: 14b6 e23c 9480 9cbd 3e5c 3b3e ab07 b8bc
00000390: b0b8 3dbd 4b72 563d 1242 ffbd 2b73 733d
000003a0: a375 b6bc 4bd7 8f39 16bf 7d3c a15a 47bd
000003b0: 2661 913c ec77 193d 4668 9ebd a72c a6bd
000003c0: 55fd da3c 1bf2 a73d 7a94 d0be 7b83 b63d
000003d0: 88da 963d 4e82 87bc 9b83 48bd 77a0 453d
000003e0: a110 0d3e 6dcd 883d 00fd d03d 6b0b 4bbd
000003f0: 1656 713d ebc9 96bd aa0e ac3d 3fe9 2f3c
0.032375474 -0.0015510231 -0.100177385 -0.014320712 0.10182787 0.13685672 0.116444774 0.021282142
0.13475621 -0.098498896 0.093215436 0.10675155 -1.4064878e-32 0.062616125 -0.13525173 0.12445847
0.099041015 4.5375104e-18 -0.40047613 0.03041186 0.008842931 0.02785212 -0.023678117 -0.30078664
-0.02805959 -0.020954465 0.08604854 -0.029569497 0.07510175 -0.1192917 0.008081909 -0.0387205
-0.11803895 -0.09865444 0.054754373 0.22468759 0.07407294 -0.03866991 0.055094443 0.1281162
0.11150266 0.065273374 0.077308536 -0.0036168601 -0.07423623 0.016357943 0.08969501 0.050603196
-0.14664276 0.062216792 0.024465442 0.01230974 -0.021574277 0.031908423 0.15294345 -0.064413495
0.0057085534 -0.099363714 0.12988997 0.057685863 -0.09739463 0.11419939 0.14912555 -0.08257552
-0.124165505 -0.19024307 0.07989166 -0.11315035 -0.12090239 0.16824313 0.06436077 0.31409186
-0.06331794 0.07109222 -0.07621289 -0.31452245 0.06724882 0.0914312 0.05523255 0.05353753
-0.124356054 -0.09172943 -0.03273128 0.078472845 -0.1331127 0.14019775 0.05326275 0.0012407979
0.02395606 0.21329053 0.025243804 -0.038751148 0.2183291 0.1020827 -0.048531193 -0.011922999
0.123632506 0.13872275 -0.14383268 -0.10211685 0.08868946 -0.107410915 -0.035006307 -0.07450273
0.10791291 0.11596626 0.030711131 0.123826474 -0.04109469 -0.050559875 0.035289828 -0.107047915
-0.032092985 0.110603146 -0.11595576 0.11909592 0.028095081 -0.09783852 -0.015567295 -0.003192127
-0.17544006 -0.025493877 0.0502552 -0.09663677 0.02176639 -0.01725366 -0.04719358 0.028369648
0.060989954 0.044604953 -0.015916677 -0.006654722 -0.042883743 -0.14771396 -0.04763183 0.06862291
-0.00890218 -0.016481996 -0.05402715 -0.024725616 0.014349786 -0.05172647 0.13513258 0.065749
-0.00025018584 -0.125905 -0.033223495 0.07289698 0.15948485 -0.05283408 0.052897178 0.10861598
0.042995304 -0.0798485 0.021816425 -0.040773734 0.018678118 0.0007449872 0.051298495 -0.096212514
-0.12035145 -0.06599824 0.1155223 -0.03591838 -0.040220793 0.13082264 0.01301578 0.15131907
0.15051116 0.12671337 -0.09042507 -0.017497322 -0.09043737 0.14868362 -0.020554876 0.007338684
-0.0964222 0.12597193 -0.030281106 0.1403338 0.068240665 0.12628074 -0.0556087 -0.032548796
-0.023349678 -0.075644754 -0.05761155 0.0136664 0.010700023 0.11503474 0.054724704 -0.09898681
0.119850166 0.122420706 0.059870776 0.053711556 0.10642786 0.1364723 -0.13969797 -0.09973108
0.05273847 0.014370615 -0.062004775 -0.07236132 -0.09754791 0.12229537 -0.004389397 0.13026522
0.09965094 0.062300112 -0.115452856 -0.1444804 -0.10118833 -0.07544795 0.13530038 0.17540704
0.124159455 0.11681081 0.023698853 0.101872124 -0.0075782184 -0.085800506 -0.04702379 0.38459775
0.027674712 -0.07641712 0.18296906 -0.022464594 -0.04631871 0.052355092 -0.12463774 0.059436005
-0.02227289 0.0002743549 0.015487453 -0.048670415 0.01774652 0.037467882 -0.07734732 -0.081139855
0.026732126 0.08200475 -0.4073828 0.08911797 0.073659 -0.016541626 -0.048953634 0.048248734
0.13775875 0.06679807 0.10204506 -0.049571436 0.05891999 -0.073627315 0.084012344 0.010736763

energy_lin.3.bias f4 [150]
00000000: fb14 023d 4e3c 0cbc d118 53bc 4a6c e9bb
00000010: 96ce 75bc 164b 65bd cf19 cdbb 2111 d2bc
00000020: acf7 0a3d 618e a63d 5abf 23bd 847d 2fbd
00000030: 38dc f53b 8c92 10bc 0a0b 6c3d 97dd 723d
00000040: 5bd6 91bc 37df 143d 5545 3d3d 2c46 32bc
00000050: 0250 ed3c 9dd5 7c3c 50ba 163d 4a34 593b
00000060: e79e bc3b 212e 1e3d f4ed 673d 41c7 1fbd
00000070: 125f 9bbc c64c 5e3c 3aec 573c 6227 86bd
00000080: 0f24 da3c 9d43 593d 8bf7 613c 05c3 a73c
00000090: 348a 503b e7b3 2c3d 5340 933d 8626 4497
000000a0: 9918 cfbc 649f 1b3d fdd2 75bd 6354 ed3c
000000b0: 2deb a73c bc06 6d81 44de 28bd ba37 b5bb
000000c0: 98bb d5bb 58a1 63bc aef5 dd3c f222 2f3d
000000d0: e2c4 02bd b39b 8bbc 3cf8 003d ab0e 963c
000000e0: 7f43 423d 588f 5a3d fc78 523d 41db c6ba
000000f0: e7df 1e3d 1444 203d ab8e 163d dc0a 1abc
00000100: 71df 0b3d a8e7 9d3c bde4 27bd 5075 133c
00000110: 55f0 303c cc12 f13c 8142 f2bb 1877 5fbc
00000120: 4724 2a3d 0275 0abd 331d 57bd 32c2 b63c
00000130: cf0b 333d da1e 16bd 5927 8d3d 8b4f 913b
00000140: 4387 033c 6ce8 9a3c 34fa 1b3d 7d55 a63c
00000150: 9905 fa3c b1df 883d 8194 623d 287f 593d
00000160: eb04 e9bb 21e9 18bd 8914 4ebd 962d b63c
00000170: 93c0 013c 929e 8d3d 8164 373d e3b3 20bd
00000180: 39de 4d3d 6fb6 a43c 82cd cebc d762 5b3d
00000190: 05cd d13c 0230 80bb c9b9 54bd dd5d 143d
000001a0: 51aa adbc 006a 7bbc 462e 2b3c 353b 0d3d
000001b0: 9d33 103c 29b4 3abd df9e 543d 986d 3d3c
000001c0: 5144 59bc 59a8 6e3c cffb 903d c1a2 f23a
000001d0: 84bb 22bd 3ac7 9e3c 16da f2bc 8396 40b8
000001e0: 3a2f f1bc bc26 453d dc39 5e3d 050d 973c
000001f0: 67f1 69bd d864 10bd c0ff 09bd ce8e 143d
00000200: 2b18 d33c abe5 d13c e6fb 1b3d 7337 17bd
00000210: c0bf 003d d3a7 683c 0f53 63bc 4d99 c0bc
00000220: 9e0b 21bc 27ce 663d 0e6a b03c 5bd2 e6bb
00000230: 4b4c 643d 61bc 6b3c 7252 843d ae67 4d3d
00000240: 527c fe3c 70bd fd3c 83f6 4a3d 779f 26bd
00000250: 3daf 153c 8568 aebc
0.03175829 -0.0085593 -0.012884335 -0.0071235048 -0.015002867 -0.05597981 -0.00625918 -0.025642933
0.033927605 0.08132625 -0.03997741 -0.04284431 0.0075030588 -0.008824002 0.057627715 0.059293356
-0.017802408 0.036345687 0.0462087 -0.010880988 0.028968815 0.015431789 0.036798775 0.003314274
0.0057562473 0.03861821 0.056623414 -0.039008383 -0.018966231 0.013568109 0.013178879 -0.065504804
0.026628522 0.053042997 0.013791929 0.020478735 0.0031820657 0.042163756 0.07190003 -6.337964e-25
-0.025280284 0.037993804 -0.060015667 0.028970903 0.020497883 -4.3534857e-38 -0.041227594 -0.0055303248
-0.006522607 -0.013893448 0.027094688 0.042757936 -0.031926043 -0.017042017 0.031486735 0.018317541
0.04742765 0.05335936 0.05138491 -0.0015171544 0.03878775 0.039127424 0.036757153 -0.009402003
0.034148637 0.019275501 -0.040989626 0.009000137 0.010799487 0.029427908 -0.007393182 -0.013639234
0.041538503 -0.033802994 -0.05251808 0.022309396 0.043712433 -0.036650516 0.068922706 0.004434531
0.008027854 0.018909656 0.03808041 0.020304436 0.030520247 0.06683291 0.055317406 0.05309978
-0.007111182 -0.037331704 -0.050312553 0.022238534 0.007919448 0.069150105 0.044773582 -0.039234053
0.050260756 0.020106522 -0.025244478 0.053561058 0.025610456 -0.003911973 -0.05193499 0.036222328
-0.021199377 -0.015345097 0.010448044 0.034480292 0.008801368 -0.04558197 0.051909324 0.011561774
-0.013260917 0.014566504 0.07079279 0.0018511639 -0.03972961 0.019382108 -0.029645007 -4.5916542e-05
-0.029441465 0.048132643 0.054254398 0.018438825 -0.057114985 -0.035252422 -0.033691168 0.036269
0.02576836 0.02562221 0.038082026 -0.036918115 0.031432867 0.014200169 -0.013874783 -0.0235106
-0.00982943 0.056348946 0.021534946 -0.0070441193 0.05573682 0.014388175 0.06461038 0.050147705
0.03106514 0.03097412 0.0495515 -0.04067942 0.009136018 -0.021290073
