models/mpnn_A139_B23_E300_L2/69.pt (torch, 742651 bytes, 9 tensors)

atom_lin.weight f4 [300, 139]
0	0xbde24a77	-0.11049359
1	0x3dbafc89	0.091301985
2	0x112ba129	1.3539183e-28
3	0x18c0786e	4.975244e-24
4	0x8d840b0f	-8.13779e-31
5	0x93275b16	-2.1123272e-27
6	0xbe11c557	-0.14235435
7	0xbd8d08d4	-0.068864495
8	0x3e37506d	0.17901774
9	0x3e49e126	0.19714794
10	0x094ae6c9	2.442338e-33
11	0x2a02e7e0	1.1626767e-13
12	0x3e1f511a	0.15558282
13	0x2a099178	1.2218514e-13
14	0x20966d6c	2.5483398e-19
15	0x3dd8bdd5	0.105830826
16	0xbe4132ce	-0.18867037
17	0xbd8b312d	-0.06796489
18	0x9d3d518d	-2.5056102e-21
19	0x119489a3	2.3435108e-28
20	0xa90d17a1	-3.1328784e-14
21	0x1ee35c82	2.407282e-20
22	0x9fc71b4f	-8.4324957e-20
23	0x9de91d65	-6.170498e-21
24	0x149c2fbe	1.5770806e-26
25	0xbdbdd2ff	-0.0926876
26	0x3d458d8b	0.04823069
27	0xbdbe56f9	-0.092939325
28	0x1e5ef1dc	1.18025975e-20
29	0x80185780	-2.235441e-39
30	0x22dcb7fe	5.982593e-18
31	0x9a20c95e	-3.3249888e-23
32	0xa6e2021e	-1.5682474e-15
33	0x83bee724	-1.1220264e-36
34	0x8b5d9311	-4.2673692e-32
35	0xbe3dff19	-0.18554343
36	0x07a76c96	2.5191188e-34
37	0x0772bf2c	1.8262237e-34
38	0x80358155	-4.913677e-39
39	0xa20ce8ea	-1.9096842e-18
40	0x209c0934	2.6433518e-19
41	0x248df4f9	6.1564e-17
42	0xa5b75c35	-3.1807922e-16
43	0x8ec3a839	-4.8233204e-30
44	0x1df7e688	6.561872e-21
45	0x1ac6b235	8.217879e-23
46	0x1eef282b	2.5321722e-20
47	0x20ea42a9	3.9685254e-19
48	0x9ad03c03	-8.612374e-23
49	0x8035799f	-4.910911e-39
50	0xaa19ea57	-1.3670433e-13
51	0x91696bdc	-1.8413696e-28
52	0xa88a1ecf	-1.5334439e-14
53	0xbe30604c	-0.17224234
54	0x0035784c	4.910436e-39
55	0xa42743fc	-3.6269938e-17
56	0x1d937738	3.9033845e-21
57	0x1d736d6c	3.2217352e-21
58	0xa97926af	-5.532266e-14
59	0x9b9366b9	-2.4385493e-22
60	0x0023b6ab	3.279771e-39
61	0x803581ac	-4.913799e-39
62	0x114f616d	1.6359442e-28
63	0x199387ec	1.5254342e-23
64	0x9d833e91	-3.4740103e-21
65	0x98873e50	-3.49596e-24
66	0x28057cd7	7.4100534e-15
67	0xa5ded565	-3.8655463e-16
68	0x00356fc6	4.907378e-39
69	0x952007e2	-3.231796e-26
70	0x9d1cbdb4	-2.0744502e-21
71	0x9268230b	-7.3249486e-28
72	0x28503357	1.1557452e-14
73	0x80357417	-4.908926e-39
74	0x8035776c	-4.910122e-39
75	0x23348e25	9.78792e-18
76	0xa6027d22	-4.5272397e-16
77	0x172c1947	5.56081e-25
78	0xa22ea449	-2.366837e-18
79	0x06aee38b	6.578587e-35
80	0x1de18aed	5.970065e-21
81	0x80357692	-4.909816e-39
82	0xa9917d24	-6.461002e-14
83	0x99ef90b6	-2.4770469e-23
84	0x23c510f0	2.1365956e-17
85	0x2342bf92	1.0557328e-17
86	0xa86da0e7	-1.3191033e-14
87	0x8f85bbaa	-1.3187098e-29
88	0x97dab3c0	-1.4133295e-24
89	0x1c731432	8.0428057e-22
90	0x1534108a	3.6363758e-26
91	0x203aee8a	1.5833739e-19
92	0x9aac8264	-7.134819e-23
93	0x1f4efd38	4.3831654e-20
94	0x06d46673	7.989607e-35
95	0x2a15cd71	1.3305135e-13
96	0xa9135920	-3.271786e-14
97	0x9d2372a6	-2.1632142e-21
98	0x0b4bb1aa	3.9230037e-32
99	0x0287c503	1.9949546e-37
100	0x244b5d8b	4.4097842e-17
101	0x00356c5c	4.906153e-39
102	0x903966f0	-3.6564117e-29
103	0x8b3c97ba	-3.632163e-32
104	0x970712d7	-4.364463e-25
105	0xa83af18d	-1.0377452e-14
106	0x295cdb32	4.9039935e-14
107	0x9be65b85	-3.8109451e-22
108	0x1b046ac7	1.0953286e-22
109	0x832ee5b2	-5.139768e-37
110	0xa00155e4	-1.0955144e-19
111	0x1e602110	1.18652984e-20
112	0x91b51161	-2.8567475e-28
113	0x08873b9f	8.139034e-34
114	0x0282ecb3	1.9237642e-37
115	0x2771d34b	3.356001e-15
116	0x8204a9c1	-9.746545e-38
117	0x23890e86	1.485972e-17
118	0xa71c823e	-2.1719953e-15
119	0x3d1244b8	0.035710067
120	0x3e212d98	0.15740049
121	0x3d873958	0.06602734
122	0xbd888a62	-0.066670194
123	0x3ccf1fde	0.02528375
124	0x24db98d7	9.523503e-17
125	0xbe3877f6	-0.18014511
126	0x29ea5154	1.0405796e-13
127	0x0a8516cd	1.2816011e-32
128	0x3e6fdd3d	0.2342424
129	0x3db56395	0.088568844
130	0xbd56c064	-0.05242957
131	0x3d906ec9	0.070523806
132	0x3e6478e2	0.22311738
133	0x3e4a17e3	0.19735675
134	0x13e0a32a	5.670644e-27
135	0x9ea4072c	-1.7367142e-20
136	0xa42069ca	-3.4784076e-17
137	0x1c7b1f3b	8.30893e-22
138	0x3e4d241f	0.2003331
139	0xbe1fcc5c	-0.156053
140	0x3d95c93e	0.073137745
141	0x00356e8d	4.90694e-39
142	0x90ffd646	-1.00909906e-28
143	0x2972bd84	5.3899173e-14
144	0x1ebf2564	2.0238376e-20
145	0x3e88d8ba	0.2672785
146	0xbe1df4ec	-0.15425462
147	0x3e0420c5	0.12903126
148	0x3dae9b83	0.08525755
149	0x8231746b	-1.3037317e-37
150	0x2971cff2	5.3693114e-14
151	0x3e9762ce	0.2956757
152	0x2514dd03	1.2911835e-16
153	0x0b7f1cf4	4.9132995e-32
154	0x3d909c63	0.070610784
155	0xbdb3642f	-0.08759343
156	0x3d95f842	0.07322742
157	0x1b551297	1.7624954e-22
158	0x289df9f9	1.753891e-14
159	0xa8d5481c	-2.3679023e-14
160	0x98b1c413	-4.5951412e-24
161	0x9640e369	-1.5581394e-25
162	0x803580e5	-4.91352e-39
163	0x9ea0ba34	-1.701767e-20
164	0x3c51af4f	0.0127981445
165	0xbd7ed96f	-0.06221908
166	0xbdb7c9ef	-0.08974063
167	0x1a377680	3.7939237e-23
168	0x84d9fece	-5.1250456e-36
169	0x9f9f303a	-6.7418903e-20
170	0x220f7764	1.9443319e-18
171	0x80357ea1	-4.912707e-39
172	0x292c7774	3.829528e-14
173	0x1d449922	2.6019552e-21
174	0xbde92fcd	-0.113860704
175	0xa9519500	-4.653656e-14
176	0x912b0cd1	-1.3493471e-28
177	0x021d7a6b	1.156967e-37
178	0x132b6551	2.1633187e-27
179	0x1de2d943	6.0046345e-21
180	0x9308a2c8	-1.724587e-27
181	0x1d2bbc16	2.27289e-21
182	0xa3d92685	-2.35435e-17
183	0xa755b776	-2.9659142e-15
184	0x0f07b53d	6.690919e-30
185	0x23135b77	7.988254e-18
186	0x0c142bba	1.1414664e-31
187	0xa4ba407f	-8.07739e-17
188	0x83ad7a92	-1.0196167e-36
189	0x168e585c	2.29971e-25
190	0x89138747	-1.7758088e-33
191	0x28e55671	2.5461595e-14
192	0x3d85eeaf	0.06539666
193	0x02874bed	1.9880046e-37
194	0x9cd68590	-1.4195857e-21
195	0x1367ef0a	2.9274154e-27
196	0xa637d598	-6.3780353e-16
197	0x1a0e189f	2.93848e-23
198	0x29a93e1e	7.515883e-14
199	0xa52658f9	-1.442835e-16
200	0x803579e8	-4.911013e-39
201	0xa685014f	-9.229084e-16
202	0x1c1d67de	5.208119e-22
203	0x8c94072d	-2.280733e-31
204	0x27208f7e	2.2282248e-15
205	0x905eee62	-4.3965424e-29
206	0x90ec726c	-9.326188e-29
207	0xa52c38b4	-1.4937834e-16
208	0x25bc4d6f	3.2665272e-16
209	0x00357373	4.908697e-39
210	0x0c5beb30	1.694192e-31
211	0xa1214506	-5.4640274e-19
212	0x00358d7c	4.918036e-39
213	0x81241dda	-3.014346e-38
214	0x00356d67	4.906527e-39
215	0x955d096c	-4.4638027e-26
216	0x28fbad07	2.7941637e-14
217	0x1ff3dccb	1.03279774e-19
218	0x92439447	-6.1713917e-28
219	0x0ee620a7	5.673082e-30
220	0x27dec668	6.183249e-15
221	0x1efd3536	2.6809424e-20
222	0xa7fb29be	-6.971175e-15
223	0x9b7cc51f	-2.0908645e-22
224	0x82902280	-2.11787e-37
225	0xa9b19a24	-7.887118e-14
226	0x926929a7	-7.3573177e-28
227	0x243d22fa	4.101247e-17
228	0x00358b52	4.91726e-39
229	0x08357fff	5.4618165e-34
230	0x25b17cfa	3.0789293e-16
231	0x07d813fc	3.2511814e-34
232	0xa5295640	-1.4687636e-16
233	0xa8e7bdc4	-2.572845e-14
234	0x0014684b	1.874123e-39
235	0x9392dc2d	-3.707269e-27
236	0x85d8651e	-2.0349687e-35
237	0xa2ab0e3d	-4.636472e-18
238	0x152e500d	3.520217e-26
239	0xa45c3d93	-4.775705e-17
240	0x9faf3075	-7.419555e-20
241	0x1b29927f	1.4026688e-22
242	0xa9d2f840	-9.368938e-14
243	0x8c69d12e	-1.8012615e-31
244	0x0eb25bf1	4.3968924e-30
245	0x2670c46c	8.353293e-16
246	0x99cbfba0	-2.1091339e-23
247	0x8f8d3159	-1.3922681e-29
248	0x958bb2f1	-5.642397e-26
249	0x1ecfa1ed	2.1983948e-20
250	0x9a7a54a7	-5.176717e-23
251	0x20847ae4	2.2442992e-19
252	0x003567fa	4.904581e-39
253	0x00358431	4.914703e-39
254	0x0d5c5c62	6.7903936e-31
255	0x21a0e011	1.0901332e-18

atom_lin.bias f4 [300]
0	0xbd0c0813	-0.034187388
1	0x3c5171a9	0.012783446
2	0x3db8b7d2	0.09019436
3	0x3d65c51f	0.056096192
4	0xbc80b7a0	-0.01571256
5	0xbc1703b7	-0.009217194
6	0x3d58a81e	0.052894704
7	0x3c040e40	0.008060038
8	0x3d4e44d9	0.050358627
9	0x3dfabfd2	0.12243618
10	0x3e109364	0.14118725
11	0x3c659a29	0.014013805
12	0x3ddae9a5	0.106890954
13	0xbd94e1a7	-0.07269602
14	0x3d94682e	0.07246433
15	0x3db1c8a7	0.086808495
16	0x3cc81f6d	0.024429047
17	0x3dad3968	0.08458215
18	0x3d8de93d	0.06929252
19	0xbcf81ca2	-0.03028709
20	0x3db146f9	0.08656115
21	0x3d98fb35	0.07469789
22	0x3d14992a	0.03627888
23	0x3d9f33e2	0.07773568
24	0x3da35d26	0.07976751
25	0xbcfc7457	-0.030817194
26	0x3db25e82	0.08709432
27	0x3cdb4426	0.026765894
28	0xbd2b1ac5	-0.041773576
29	0x3ad4290a	0.0016186547
30	0x3da067d6	0.07832305
31	0x3c93e913	0.018055474
32	0xbd130003	-0.035888683
33	0x3da8da09	0.08244712
34	0x3dc703fa	0.09717555
35	0xbdbeff3e	-0.09326027
36	0x3b8ec275	0.004356677
37	0xbbaed824	-0.0053358246
38	0x3d51c772	0.051215596
39	0xbd244781	-0.040107254
40	0xbcec4319	-0.028840588
41	0x3d9ecc24	0.077537805
42	0x3e107111	0.14105631
43	0x3df7c5dd	0.12098286
44	0x3d8577a2	0.06516959
45	0x3d9a116b	0.075228535
46	0xbd05315b	-0.032517772
47	0x3cf4692b	0.029835304
48	0xbcd2f5e6	-0.02575202
49	0x3da21a1a	0.07915135
50	0x3d989608	0.07450491
51	0x3d2a98bc	0.041649565
52	0xbd6e2762	-0.058143027
53	0xbd87b3c1	-0.06626082
54	0x3bd27e60	0.0064237565
55	0xbd06b894	-0.03289087
56	0x3d6d8158	0.05798468
57	0x3dc5b5a1	0.096537836
58	0xbd81bee9	-0.06335241
59	0xbbd860d9	-0.006603342
60	0x3d96c0d5	0.073609985
61	0x3d004ae2	0.031321414
62	0x3da44caa	0.08022435
63	0xbdcbc468	-0.09949571
64	0x3dbde1c1	0.09271575
65	0xbcb3dc38	-0.021955594
66	0x3d9738a9	0.07383854
67	0xbca11a7e	-0.019665953
68	0x3c30129f	0.010746627
69	0x3c18c9db	0.00932547
70	0xbd8c179e	-0.06840442
71	0x3db77509	0.089578696
72	0xbd6576b5	-0.05602141
73	0x3d4af3c6	0.049548887
74	0x3e46218d	0.19348736
75	0x3ddd8ea1	0.1081822
76	0xbc6a579f	-0.014303117
77	0x3d9a2ca8	0.07528049
78	0xbb574b19	-0.0032851158
79	0xbd5888c1	-0.052864794
80	0x3e2de563	0.16982035
81	0x3d858236	0.065189764
82	0x3c817d26	0.015806746
83	0xbaf5a853	-0.0018742181
84	0x3db8af29	0.09017784
85	0x3b0535be	0.0020326222
86	0x3d8ca59a	0.068675235
87	0x3d53e91e	0.05173599
88	0xba05d923	-0.0005105903
89	0xbd7a2447	-0.061069753
90	0xbaa16348	-0.0012312913
91	0xbb1f1568	-0.0024274234
92	0x3c851ac9	0.016248124
93	0x3cabbcb2	0.020964
94	0x3de81930	0.11332929
95	0x3d911903	0.07084849
96	0xbcfcfaed	-0.03088137
97	0xbbe4bc61	-0.0069804643
98	0x3d772ce5	0.06034555
99	0xbd06d013	-0.03291328
100	0x3d87f247	0.066380076
101	0x3ac74d41	0.0015205519
102	0xbcf91e8e	-0.030410077
103	0x3c0bdb75	0.008536209
104	0x3d8a64b7	0.06757491
105	0xbd13038f	-0.035892066
106	0xbd9f16de	-0.077680334
107	0x3c6bfeae	0.014403982
108	0xbd9fe2c2	-0.078069225
109	0x3c1abf63	0.009445044
110	0x3d9d44e8	0.076791584
111	0xbd896681	-0.06709004
112	0x3dbcaf64	0.092131406
113	0x3d775711	0.060385767
114	0x3d60764a	0.05480031
115	0xbe2aee39	-0.16692437
116	0x3e2bbb11	0.16770579
117	0x3d759fea	0.05996696
118	0x3d838e27	0.06423598
119	0x3d962ae1	0.07332397
120	0xbcba03cf	-0.022706894
121	0x3caed3b7	0.021341188
122	0xbd4a1fa8	-0.049346596
123	0x3a121612	0.0005572747
124	0x3c28b9df	0.010298221
125	0x3db2b41a	0.08725758
126	0xbc58992d	-0.013220114
127	0xbc1393ff	-0.009007453
128	0xbc2a40b4	-0.010391403
129	0x3d207445	0.039173383
130	0x3dafd4e5	0.08585528
131	0xbd9ce058	-0.07659978
132	0x3d77dabd	0.06051134
133	0x3dca758c	0.098857015
134	0xbd6f0b0c	-0.058360144
135	0x3d656227	0.05600181
136	0x3d35effd	0.044418324
137	0x3dd06b13	0.10176673
138	0x3dc7e979	0.09761328
139	0x3d8c8f15	0.06863228
140	0xbb633d4d	-0.003467399
141	0xbd8a84af	-0.06763589
142	0xbcb5005b	-0.022094896
143	0xbd9ed470	-0.07755363
144	0x3d88a1c3	0.066714786
145	0x3d430ee2	0.047621615
146	0x3dcdcf41	0.10049296
147	0x3d97944e	0.07401334
148	0xbd5c6236	-0.0538046
149	0x3cfd87a9	0.030948477
150	0xbd1d32fa	-0.038378693
151	0xbc6adfc9	-0.014335581
152	0xbddb29a4	-0.10701302
153	0xbceef974	-0.029171683
154	0x3db5cc05	0.08876804
155	0x3d5e62dd	0.054293502
156	0x3d6a89aa	0.057260193
157	0xbd0d8457	-0.034550037
158	0x3c2197f9	0.009862893
159	0x3b90075e	0.0043954095
160	0x3d1e0b74	0.03858514
161	0xbc1133da	-0.00886246
162	0x3da4c0a8	0.08044559
163	0xbcc67fa2	-0.024230782
164	0x3de863ff	0.11347198
165	0x3bd522c1	0.006504387
166	0x3da315e6	0.07963161
167	0x3da089c6	0.07838778
168	0xbd929201	-0.07156754
169	0x3ccf1192	0.025276933
170	0xbc9794dc	-0.018503599
171	0x3d8bddfa	0.06829448
172	0xbd023766	-0.031791113
173	0x3bd94bdb	0.006631357
174	0xbd7bf562	-0.061513312
175	0x3dd2801a	0.1027834
176	0x3d267c88	0.040646106
177	0x3cfa346c	0.030542575
178	0xbd7ad51f	-0.061238404
179	0x3dc91ede	0.098203406
180	0x3dac7d83	0.08422377
181	0xbcb58a8d	-0.022160793
182	0xbc9ed32d	-0.019387806
183	0xbda7590a	-0.0817128
184	0x3d0bf8bc	0.03417276
185	0xbd823b70	-0.06358993
186	0x3d70f864	0.058830634
187	0x3dc1ed38	0.09469074
188	0xbc00bc14	-0.007857341
189	0x3d058da9	0.0326058
190	0xbc8cbbf8	-0.017179474
191	0x3d7b163d	0.061300505
192	0x3d8c125c	0.06839439
193	0xbccb505c	-0.024818592
194	0x3da448d4	0.08021703
195	0x3ced4689	0.028964298
196	0x3db1c0ad	0.08679328
197	0x3d6bb70c	0.057547614
198	0x3d0ed8b7	0.034874644
199	0x3dd7b046	0.10531668
200	0x3b87d9f7	0.0041458565
201	0xbc028640	-0.007966578
202	0xbcafe261	-0.02147025
203	0xbcb32f8a	-0.021873254
204	0x3dde3484	0.1084986
205	0x3d98e58d	0.07465658
206	0xbc1fac25	-0.009745632
207	0x3d3f03c9	0.04663447
208	0x3d3677e4	0.04454793
209	0xbd0b5596	-0.034017168
210	0x3cf5521d	0.029946381
211	0xbdc6aef9	-0.09701342
212	0xb8babb06	-8.904007e-05
213	0xbe2017d8	-0.15634096
214	0xbc4491f2	-0.011997687
215	0x3c6ac04d	0.014328075
216	0x3dc20e30	0.09475362
217	0x3da7c608	0.08192068
218	0x3de4067e	0.11134051
219	0x3d2493fa	0.040180184
220	0xbcceb418	-0.02523236
221	0x3c3dfd3a	0.011596018
222	0x3dceed1e	0.1010382
223	0xbcb774ab	-0.022394499
224	0x3d989d8e	0.07451926
225	0x3c23c3c7	0.009995407
226	0x3d9e96d1	0.0774361
227	0x3d964909	0.07338149
228	0x3d351198	0.04420623
229	0x3d92eeb5	0.07174436
230	0x3dceca2a	0.100971535
231	0x3dd67965	0.10472373
232	0xbda5684d	-0.080765344
233	0x3d1b3339	0.037890647
234	0x3daef3a5	0.08542565
235	0x3d0a9382	0.03383208
236	0x3d985a14	0.07439056
237	0xbda61fc4	-0.081115276
238	0x3d975c1f	0.073906176
239	0x3dcbedc9	0.09957463
240	0x3d6604c2	0.05615688
241	0x3b95e1fc	0.0045740586
242	0xbd4b20be	-0.049591772
243	0xbd0764bd	-0.033055056
244	0x3db84222	0.08996989
245	0x3da8ce31	0.08242453
246	0xbd860ef2	-0.06545819
247	0x3b82eafe	0.0039952984
248	0x3dc95129	0.09829933
249	0xbbee909a	-0.0072804214
250	0xbccd7437	-0.02507983
251	0x3d5cdf51	0.05392391
252	0x3dc6d571	0.097086795
253	0x3b28272a	0.002565811
254	0xbd0056f1	-0.031332914
255	0x3cea00f5	0.02856491

bond_lin.weight f4 [300, 23]
0	0xb5ba9767	-1.3902144e-06
1	0xbe2ec3af	-0.17066835
2	0xbec9d4a9	-0.3942006
3	0x3edebb39	0.43502215
4	0xb124a28a	-2.3957534e-09
5	0x31f8722a	7.230729e-09
6	0xb3568538	-4.994692e-08
7	0x9770fd48	-7.786787e-25
8	0xa272d685	-3.2910681e-18
9	0xa08b56e4	-2.3605015e-19
10	0x292800d7	3.7304222e-14
11	0x001d2c03	2.679018e-39
12	0x3e95d98c	0.29267538
13	0x802650b1	-3.518695e-39
14	0xad56677b	-1.2187469e-11
15	0x34fccd8c	4.7088213e-07
16	0xa8b93f9a	-2.0566709e-14
17	0x890376d6	-1.5824428e-33
18	0xab0430d5	-4.696359e-13
19	0x088cb25a	8.467874e-34
20	0xba7d616e	-0.0009665702
21	0x339dcdbd	7.348306e-08
22	0x1e5db25b	1.1736526e-20
23	0x39e41745	0.00043504886
24	0xbd2e749b	-0.042591672
25	0x3ed6c0e4	0.4194404
26	0x3ed41c33	0.41427764
27	0xb530a852	-6.581005e-07
28	0xb7a8c3e5	-2.0118381e-05
29	0x9852cb5e	-2.7244538e-24
30	0x981a98d0	-1.9981184e-24
31	0x03852c75	7.827244e-37
32	0x3a035d89	0.0005011191
33	0x2b235560	5.8027715e-13
34	0xacf8f50b	-7.075789e-12
35	0xbe8dec43	-0.27719316
36	0x98f198e3	-6.2451416e-24
37	0x39435f24	0.00018632092
38	0xba1b7f61	-0.00059317617
39	0x993ec194	-9.8618626e-24
40	0x253d3304	1.6410422e-16
41	0x9be2a67c	-3.7496152e-22
42	0x1ef98933	2.6420645e-20
43	0xb4389ea6	-1.7194051e-07
44	0x003575e3	4.909571e-39
45	0x37de2ffa	2.6486803e-05
46	0x2ad4c9c6	3.7798773e-13
47	0x3da7187a	0.081589654
48	0xbe90461e	-0.28178495
49	0xbe370647	-0.17873488
50	0xa0b59e86	-3.0767495e-19
51	0x03bfa2ee	1.1263378e-36
52	0x29b85b06	8.1870315e-14
53	0xb95c22ce	-0.000209938
54	0x2eb1a62f	8.078548e-11
55	0x3003c3ec	4.7935944e-10
56	0xaf4bf410	-1.8549451e-10
57	0xb93ad367	-0.00017817096
58	0x3dbc6493	0.091988705
59	0x95ca01b8	-8.158986e-26
60	0x35504280	7.758281e-07
61	0xb64f7655	-3.0914282e-06
62	0x00356ab4	4.905559e-39
63	0x162ed76a	1.4123581e-25
64	0xb6dac35d	-6.5196496e-06
65	0x0a214a1a	7.765805e-33
66	0x9db5d749	-4.81329e-21
67	0x27074311	1.877137e-15
68	0xa4941b6f	-6.423124e-17
69	0x3807b2eb	3.235314e-05
70	0x3ef32612	0.47489983
71	0xbeaedd29	-0.34153107
72	0xbe8bba31	-0.2729049
73	0x3a1b84ae	0.00059325516
74	0xa9808adc	-5.70843e-14
75	0xa241071f	-2.6160147e-18
76	0x378220d9	1.5512504e-05
77	0x23dc90f4	2.3913838e-17
78	0x344dbd10	1.9160893e-07
79	0xa4201de5	-3.471979e-17
80	0x036f3220	7.029333e-37
81	0xbeda826a	-0.42677623
82	0xae0ef951	-3.25085e-11
83	0xa2156ba9	-2.025026e-18
84	0x240f67fe	3.1096267e-17
85	0x0bb983a3	7.145747e-32
86	0xaaa90fc5	-3.0031373e-13
87	0xb6704a07	-3.5805876e-06
88	0xa3942d8d	-1.6065484e-17
89	0x340d7d7d	1.31773e-07
90	0x1eb82f77	1.9501389e-20
91	0x803587a3	-4.915939e-39
92	0x25fc012b	4.3715823e-16
93	0x3e0c801f	0.1372075
94	0x3ee69be0	0.45040798
95	0x3d7585a7	0.059941914
96	0x353692bd	6.8013816e-07
97	0x33914413	6.764471e-08
98	0xa830b27d	-9.808666e-15
99	0x2a62d4a4	2.0146607e-13
100	0xb5d4f2ba	-1.5865874e-06
101	0x385a3f24	5.2034055e-05
102	0xba19eaca	-0.0005871473
103	0xb24f5ab3	-1.2069608e-08
104	0xbd18c3c8	-0.037296087
105	0x3a8356ce	0.0010020377
106	0xb5c1f14b	-1.4449846e-06
107	0x033ac125	5.4882206e-37
108	0x20fb01ce	4.2522248e-19
109	0x3909f50c	0.00013156625
110	0x2c2c9c05	2.4529278e-12
111	0xa691ceec	-1.0117482e-15
112	0xab890ac7	-9.737427e-13
113	0x34deeaaf	4.1521477e-07
114	0x2ad9dacf	3.8698772e-13
115	0x322ee255	1.0179595e-08
116	0xbee846a8	-0.45366406
117	0xbd32939e	-0.04359781
118	0xbe791568	-0.24324572
119	0x356645bf	8.578317e-07
120	0x2f32c7d8	1.6260004e-10
121	0x2e0cbfa8	3.200254e-11
122	0x2de4de41	2.60193e-11
123	0x2f532fb4	1.9207286e-10
124	0xb498b926	-2.844692e-07
125	0x8c4d6fef	-1.5826309e-31
126	0x04127768	1.7217046e-36
127	0xbe70a615	-0.23500855
128	0xafa78497	-3.0471334e-10
129	0x347342ad	2.2655395e-07
130	0xaa2d79a1	-1.5407685e-13
131	0xb2aee967	-2.0362405e-08
132	0x3a43b8d9	0.0007466204
133	0x2201a210	1.7568555e-18
134	0x2c840351	3.752034e-12
135	0x399c3305	0.0002979265
136	0x32fa281f	2.9122075e-08
137	0xaff58672	-4.466077e-10
138	0x9f3dad75	-4.0165787e-20
139	0x3e97126a	0.29506236
140	0x3f018f8a	0.5060965
141	0xbe8f8b03	-0.28035745
142	0x336bc68d	5.4895782e-08
143	0x1e838d8a	1.3928704e-20
144	0xb6b2fa59	-5.3339577e-06
145	0x9f386c94	-3.905333e-20
146	0x210ea2a6	4.8326735e-19
147	0xa2038a5c	-1.7827057e-18
148	0x38e6ce12	0.00011005638
149	0x1c5c5aad	7.290909e-22
150	0x3e20e241	0.15711309
151	0xb9d5a854	-0.0004075194
152	0xb82fe99a	-4.194081e-05
153	0xba29f1f5	-0.0006482893
154	0x8c4f1b37	-1.595489e-31
155	0xb2bebb9f	-2.2204231e-08
156	0x80356afa	-4.905657e-39
157	0xb414e4d3	-1.386682e-07
158	0x3617894d	2.2580673e-06
159	0x16177341	1.223405e-25
160	0xb1c798e2	-5.809043e-09
161	0x24bbc5d2	8.143344e-17
162	0x3e70a712	0.23501232
163	0x3e756689	0.23964895
164	0xbd992fc9	-0.074798174
165	0xaa323894	-1.5829205e-13
166	0x38f04587	0.00011457042
167	0x39b65dbb	0.0003478358
168	0x80357052	-4.907574e-39
169	0x33e4d3cb	1.0655602e-07
170	0x21fb4b22	1.7028309e-18
171	0xb0b6669b	-1.3271405e-09
172	0x1c6417a8	7.5469447e-22
173	0xbe012db2	-0.12615088
174	0x8abf2eaf	-1.8410191e-32
175	0xb65997d1	-3.2423889e-06
176	0x15777b9d	4.9978766e-26
177	0xb82921c6	-4.0324194e-05
178	0x25a17a6d	2.8012007e-16
179	0xba7f88a3	-0.00097478385
180	0xa999d70e	-6.831871e-14
181	0x39d3e670	0.00040416745
182	0xa8002338	-7.113064e-15
183	0x98a1b0b6	-4.1795957e-24
184	0x32a873e5	1.9610477e-08
185	0x3c7a3adc	0.015272822
186	0xbe2c880f	-0.16848777
187	0x3e9269be	0.285963
188	0xa0a2b8d9	-2.756619e-19
189	0x353e7c89	7.096174e-07
190	0x16037959	1.0620386e-25
191	0x3a2ee3de	0.0006671528
192	0x37ff8101	3.0458441e-05
193	0xba3d2f19	-0.0007216796
194	0xb0653b2d	-8.339381e-10
195	0xb72d68fd	-1.0336048e-05
196	0x3ec1edce	0.37876743
197	0x8845e5fd	-5.955288e-34
198	0x354d9098	7.657886e-07
199	0xa894aa63	-1.6505194e-14
200	0xb186745c	-3.913142e-09
201	0x256f24b5	2.0742382e-16
202	0x320a23bf	8.040785e-09
203	0x8dee31fa	-1.4679914e-30
204	0xafa4dbcd	-2.9987604e-10
205	0xaf2b1847	-1.5560984e-10
206	0x249ccb16	6.7998257e-17
207	0x9a25857e	-3.4229034e-23
208	0x3daf4c57	0.085594825
209	0x3ee50999	0.44733885
210	0x3e3902a8	0.1806742
211	0xad3a89d3	-1.0603479e-11
212	0xa2948913	-4.0260613e-18
213	0xaeb2260b	-8.1012606e-11
214	0xba43927c	-0.00074604875
215	0x89093eb6	-1.6520262e-33
216	0xa18201be	-8.809604e-19
217	0xa55f91ac	-1.9391522e-16
218	0x2da41fca	1.8658759e-11
219	0xbeb6fe01	-0.35740665
220	0xa0dda4e7	-3.754798e-19
221	0x8776deb9	-1.8572435e-34
222	0x8035899d	-4.916648e-39
223	0x378977d5	1.6387474e-05
224	0xb84e4db6	-4.91866e-05
225	0x08380586	5.537698e-34
226	0x38921b4f	6.966909e-05
227	0x92da426d	-1.3774109e-27
228	0x94151489	-7.5266274e-27
229	0x90d391c8	-8.344944e-29
230	0xb50c196e	-5.219107e-07
231	0xbefd98b5	-0.4953057
232	0x3ee1b26b	0.44081435
233	0x3efc0607	0.49223348
234	0x3454c5c2	1.9815982e-07
235	0x9bf4bfa1	-4.049025e-22
236	0xb70858f8	-8.126946e-06
237	0x35aea96e	1.3013321e-06
238	0xa417257d	-3.277466e-17
239	0x25a0277d	2.7782334e-16
240	0x2f4510db	1.7923034e-10
241	0x302e5c03	6.343159e-10
242	0xbe75643d	-0.23964019
243	0xb4a78f46	-3.121042e-07
244	0xb60cc3f7	-2.0975692e-06
245	0xb85755e8	-5.134e-05
246	0x8ca2cfa3	-2.508502e-31
247	0x3720d1b0	9.585565e-06
248	0x2d3cfa41	1.074213e-11
249	0x1f2de6db	3.6825134e-20
250	0x1cc86cf3	1.3263053e-21
251	0xa1d6a8d3	-1.4545891e-18
252	0x315f7d39	3.2521952e-09
253	0xa3540666	-1.1493898e-17
254	0x3d69a97c	0.0570464
255	0x3d21bd5f	0.03948724

bond_lin.bias f4 [300]
0	0xbd90221f	-0.07037758
1	0xbdf074b7	-0.117410116
2	0x3e2506b4	0.16115838
3	0xbdfe7e0e	-0.12426387
4	0xbc3d3e99	-0.011550569
5	0x3e5ea477	0.21742426
6	0x3dd3c39c	0.10340044
7	0xbdb9cdb3	-0.09072437
8	0xbe295a41	-0.16538335
9	0x3e49030b	0.19630067
10	0xbe64c8ee	-0.22342274
11	0x3e4ddfe0	0.20104933
12	0x3b9c7a7e	0.0047753444
13	0xbe091f9b	-0.13390963
14	0x3d543ae4	0.051813975
15	0x3d812cc8	0.063073695
16	0xbc8bddde	-0.017073568
17	0x3d0fe660	0.035131812
18	0xbd7dae1f	-0.061933633
19	0xbe325854	-0.17416507
20	0x3e45f7f9	0.19332875
21	0xbd66afc6	-0.056319974
22	0x3e101725	0.14071329
23	0xbe0bd54c	-0.13655585
24	0xbcabedd2	-0.020987425
25	0xbd8ada4a	-0.067799166
26	0x3eaafbc4	0.33395207
27	0x3e2e3a3c	0.17014402
28	0xbe0e6711	-0.13906504
29	0xbd37da69	-0.044886027
30	0xbe6bc7d1	-0.23025443
31	0xbddcabdb	-0.10774966
32	0xbe0044a0	-0.12526178
33	0xbdd16a81	-0.10225392
34	0x3e253901	0.16135027
35	0xbc245c81	-0.01003182
36	0xbe21565b	-0.15755598
37	0x3cde436f	0.027131764
38	0x3d6af7e2	0.057365306
39	0x3e2c874d	0.16848488
40	0xbdcb0643	-0.09913304
41	0xbddfc25a	-0.109257415
42	0x3d0eb481	0.03484011
43	0x3e2f1a4a	0.17099872
44	0x3d59d5b3	0.053182315
45	0xbbdd9725	-0.0067624026
46	0x3dd0fcb9	0.10204453
47	0xbe1f4e30	-0.1555717
48	0x3e5aac74	0.21354848
49	0xbc7d0e23	-0.015445265
50	0xbda8b290	-0.08237183
51	0xbe63ee6e	-0.22258922
52	0xbe1fe859	-0.15615977
53	0xbde2d1a9	-0.11075146
54	0x3e3663e2	0.1781154
55	0xbd636042	-0.05551172
56	0xbd4a3435	-0.049366195
57	0xbe60c9ff	-0.21952055
58	0xbe5eb1e3	-0.21747546
59	0x3e027aa9	0.12742104
60	0x3e436b28	0.19083846
61	0xbdcc923b	-0.09988829
62	0x3e18cd34	0.14922029
63	0xbe5690f4	-0.20953733
64	0x3d8b324b	0.06796702
65	0x3e59bd97	0.21263729
66	0x3e298eae	0.16558334
67	0xbd71c098	-0.059021562
68	0xbe7c6831	-0.24649121
69	0x3dd8f6f0	0.105939746
70	0xbd5cc922	-0.053902753
71	0xbe1e3a78	-0.15451992
72	0xbc4b5a33	-0.012411642
73	0xbe3bce86	-0.18340501
74	0x3e45218e	0.19251081
75	0x3db5f8ad	0.08885322
76	0xbcf91357	-0.03040473
77	0xbe0e5314	-0.1389888
78	0x3e0db26a	0.13837591
79	0xbe85fbba	-0.26168615
80	0xbc9370a6	-0.01799805
81	0x3c051a57	0.008123956
82	0xbe374a38	-0.17899406
83	0x3dd90c74	0.10598078
84	0x3d5aaf88	0.053390056
85	0xbe1cbd11	-0.15306498
86	0xbcb2a228	-0.021805838
87	0xbb58b3d7	-0.0033066177
88	0x3e28d69c	0.16488117
89	0xbc605328	-0.013691701
90	0x3e45440c	0.19264239
91	0x3d8bd4fa	0.068277314
92	0xbd4b41e3	-0.04962338
93	0x3dd50dd3	0.104030274
94	0x3e4ef750	0.2021153
95	0x3e854e82	0.2603646
96	0x3e32b017	0.17449985
97	0x3de983b9	0.11402077
98	0x3c10502a	0.008808175
99	0xbdecdd9f	-0.11565708
100	0x3d943b4e	0.07237874
101	0xbe3aebc3	-0.18253998
102	0x3e3f5a50	0.18686795
103	0x3deffa0a	0.11717613
104	0xbd60f2da	-0.0549191
105	0x3e0bf64b	0.13668172
106	0x3e18206f	0.14856122
107	0x3def95e8	0.11698514
108	0x3d134cbe	0.03596186
109	0xbe6b1753	-0.22958116
110	0xbd66bdb9	-0.056333277
111	0x3d1a0bdd	0.03760897
112	0x3cc11b23	0.02357251
113	0xbdddfcb5	-0.10839216
114	0xbe1e846f	-0.15480207
115	0xbe18d258	-0.1492399
116	0x3e56b036	0.20965657
117	0x3e4b619c	0.19861454
118	0xbe0af1fc	-0.13568872
119	0xbe11291a	-0.14175835
120	0xbe5cc048	-0.21557724
121	0xbd7a818b	-0.061158698
122	0xbd4d02c7	-0.050051477
123	0xbe7e74ba	-0.24849215
124	0x3c92899a	0.01788788
125	0x3e1eef6c	0.1552102
126	0xbe9bcc02	-0.30429083
127	0xbc8b4e13	-0.017005002
128	0x3e7a8a2c	0.24466771
129	0x3e0f0be9	0.13969387
130	0xbdee1f21	-0.11627031
131	0xbe50588f	-0.20346282
132	0x3dc21a53	0.09477677
133	0x3e559322	0.20856908
134	0xbe2dc42b	-0.16969363
135	0x3d722d7b	0.059125405
136	0x3e15e033	0.14636306
137	0xbda89c44	-0.0823293
138	0x3e5cef38	0.2157563
139	0xbc294e82	-0.010333659
140	0x3ccc7dc7	0.024962319
141	0xbd46d1e3	-0.048540007
142	0x3e0fcb52	0.14042404
143	0xbe15e474	-0.14637929
144	0xbe180d34	-0.14848787
145	0xbe0d06a9	-0.13772072
146	0xbdb42f21	-0.087980516
147	0x3d04547c	0.032307133
148	0xbe7abbc9	-0.24485697
149	0xbe6104cf	-0.2197449
150	0xbe548f57	-0.20757805
151	0xbdef50eb	-0.11685356
152	0xbd8dab75	-0.069174685
153	0x3e42e29e	0.1903176
154	0x3bccbef2	0.0062483484
155	0x3cc196b9	0.02363144
156	0xbe61b674	-0.22042257
157	0xbdd07c32	-0.101799384
158	0x3cf0894e	0.029362347
159	0x3e11cb33	0.1423767
160	0xbd91f238	-0.07126278
161	0x3de315c4	0.11088136
162	0x3e496b36	0.19669804
163	0xbe896306	-0.2683336
164	0x3e3f68dd	0.18692346
165	0xbd760b96	-0.060069643
166	0xbda45b67	-0.08025246
167	0x3dc0a8b1	0.09407175
168	0x3dd5e7eb	0.104446255
169	0xbe56ddee	-0.20983097
170	0x3e35158e	0.17684004
171	0x3e45b333	0.1930664
172	0xbc311fec	-0.010810833
173	0xbe0abe08	-0.13549054
174	0xbcf5c005	-0.029998789
175	0x3ca12303	0.019670015
176	0xbcca5743	-0.024699813
177	0x3ca287bf	0.01984012
178	0x3e295479	0.1653613
179	0x3cdf2866	0.027240943
180	0xbe22a149	-0.15881838
181	0x3e09f9f0	0.1347425
182	0xbe3cea14	-0.18448669
183	0xbe188b12	-0.14896801
184	0x3e17f934	0.14841157
185	0xbe3af353	-0.18256883
186	0x3e1ca4de	0.15297267
187	0x3c87bb38	0.016568765
188	0x3e6087d6	0.21926817
189	0xbe5a3e7c	-0.21312898
190	0xbe0bad47	-0.13640319
191	0xbe57645b	-0.21034376
192	0x3c942d5f	0.01808804
193	0xbdf24d83	-0.118311904
194	0xbdf442f3	-0.11926832
195	0xbe05fe33	-0.1308525
196	0x3b87032b	0.0041202507
197	0x3d137211	0.035997454
198	0x3e7da053	0.2476819
199	0xbe0e5c34	-0.1390236
200	0xbce69443	-0.028146869
201	0xbe42c3f2	-0.1902006
202	0xbe7398ac	-0.23788708
203	0xbe2333d1	-0.15937735
204	0xbda1cb8b	-0.07900151
205	0xbd664bc3	-0.056224596
206	0x3e657896	0.22409281
207	0x3df6d79c	0.12052843
208	0x3cd663cf	0.02617064
209	0x3e1afe53	0.1513608
210	0xbd4a78c2	-0.04943157
211	0xbeac98c9	-0.33710316
212	0xbd296b65	-0.041362185
213	0xba57385d	-0.0008209998
214	0xbe6f2bd3	-0.23356561
215	0x3e5ffbf6	0.21873459
216	0xbe4397b4	-0.19100839
217	0xbdd0d3e4	-0.10196665
218	0x3dfef973	0.124499224
219	0x3dc74c57	0.097313575
220	0xbe9ef157	-0.31043503
221	0xbddf04a7	-0.10889559
222	0xbe2b9bac	-0.16758603
223	0x3d56c165	0.05243053
224	0xbc8ce564	-0.017199226
225	0xbe534fe3	-0.20635943
226	0xbbc4fec4	-0.0060118157
227	0x3dd0bbee	0.10192095
228	0x3e3f54ee	0.18684742
229	0x3af4f530	0.0018688794
230	0xbe1613af	-0.14655946
231	0xbdb82618	-0.08991641
232	0xbe2eea2a	-0.17081514
233	0xbe35c19f	-0.17749642
234	0x3dd3723c	0.10324523
235	0x3cecf1cd	0.028923893
236	0x3e8c60e3	0.2741767
237	0x3deeaa86	0.116536185
238	0x3e38f9c4	0.18064028
239	0x3da58b8f	0.08083259
240	0xbe1fa23c	-0.15589231
241	0x3c0fc1b3	0.008774209
242	0x3bf15f5f	0.0073661054
243	0xbd5f7aea	-0.05456058
244	0xbd85b5df	-0.0652883
245	0xbe915534	-0.28385317
246	0xbb921ae1	-0.0044587706
247	0xbd9d1435	-0.0766987
248	0x3e3468bf	0.17618082
249	0x3cbcd9f2	0.023053143
250	0x3de67df3	0.11254492
251	0x3e4e80eb	0.20166366
252	0x3d1f7a6a	0.038935103
253	0xbd7222d8	-0.05911526
254	0x3e1bcad7	0.15214096
255	0x3ccbe425	0.024889061

energy_lin.1.weight f4 [300, 300]
0	0xbe065b9c	-0.13120884
1	0x3d501d60	0.050809264
2	0x3d9c98c9	0.07646329
3	0xbc9cd874	-0.019146182
4	0x3da3f84b	0.080063425
5	0x3ddb04de	0.10694288
6	0xbd7b6ae7	-0.061381247
7	0x3dccea27	0.100055985
8	0xbddb8b56	-0.107199356
9	0x3e2c8250	0.16846585
10	0xbd8a089d	-0.06739924
11	0x3d8312f1	0.06400097
12	0xbde4f50e	-0.11179553
13	0xbd485cce	-0.04891663
14	0xbe11f62c	-0.14254063
15	0xbd3df5e8	-0.046377093
16	0xbdfd4b9c	-0.12367937
17	0xbd966f2d	-0.07345424
18	0x3d4cb0b5	0.04997321
19	0xbdfcd85a	-0.12345953
20	0xbc285f5e	-0.010276644
21	0xbe0a3d19	-0.1349987
22	0xbccd9387	-0.02509476
23	0xbd61c7d9	-0.05512223
24	0xbd63657b	-0.0555167
25	0xbbe73c6c	-0.0070567634
26	0xbda9469a	-0.08265419
27	0xbd62e30d	-0.055392314
28	0xbe836d4e	-0.2566933
29	0x3e04c04c	0.1296398
30	0xbd9d7191	-0.07687677
31	0xbd1fb7e9	-0.03899375
32	0xbd96961a	-0.07352848
33	0x3dc8f972	0.09813203
34	0xbdb0e048	-0.08636528
35	0x0fc65b0c	1.9559377e-29
36	0xbc91dff3	-0.017806983
37	0x3caad45c	0.020853214
38	0x3c9d7d9f	0.01922494
39	0x3e00f8b7	0.12594877
40	0xbde6b53c	-0.112650365
41	0xbdf81112	-0.12112631
42	0xbdee0761	-0.11622501
43	0x3ca1cfc5	0.019752393
44	0x3ded9f5c	0.11602661
45	0xbd4004bb	-0.04687951
46	0x3d9f5c3f	0.077812664
47	0xbcd2b2a0	-0.02571994
48	0xbe16a0e7	-0.14709817
49	0x3dcad056	0.09903018
50	0x3dd6dfa9	0.104918785
51	0x3dee2b1b	0.116293155
52	0x3d31aaab	0.043375652
53	0x3e08bc93	0.13353185
54	0xbd834279	-0.06409163
55	0xbe150630	-0.14553142
56	0x3dbc7a68	0.09203035
57	0xbde67a80	-0.11253834
58	0xbc5d8e0d	-0.013522637
59	0x3cf421e5	0.029801318
60	0x3c3e1841	0.011602462
61	0x3d74e028	0.059784085
62	0x3c19b518	0.009381555
63	0x3cf83346	0.030297887
64	0xbd92db21	-0.07170702
65	0xbd9a9acf	-0.07549059
66	0xbc63ae00	-0.013896465
67	0x3da06101	0.07831002
68	0x3df72f5e	0.120695814
69	0x3dc2f499	0.095193096
70	0xbdce0966	-0.10060386
71	0xbd97ab73	-0.07405748
72	0x3deb0ada	0.11476679
73	0xbdbb9deb	-0.0916098
74	0xbd688d0e	-0.056775145
75	0xbc8e0b6a	-0.017339427
76	0x3d96c867	0.073624425
77	0xbd38e640	-0.04514146
78	0xbd2f3a40	-0.04278016
79	0xbdf533be	-0.1197276
80	0xbdcdc8e7	-0.10048085
81	0x3dc9a731	0.09846342
82	0x3dc3b675	0.09556285
83	0x3cb1a826	0.021686625
84	0xbe02c027	-0.12768613
85	0xbddca7ca	-0.10774191
86	0x3da43369	0.08017618
87	0x3dceff71	0.10107315
88	0x3d87da19	0.06633396
89	0xbdd2982c	-0.10282931
90	0xbcb4346a	-0.02199765
91	0xbcbe0778	-0.02319692
92	0x3dbb2490	0.09137833
93	0x3e07febe	0.1328077
94	0xba3beb66	-0.0007168561
95	0xbd351a6e	-0.04421466
96	0x80356ade	-4.905618e-39
97	0xbda3392a	-0.079698876
98	0xbd26c4c0	-0.04071498
99	0x3d2d349e	0.042286508
100	0x3e0029f9	0.12516011
101	0x3e00a86d	0.1256425
102	0x3e06c369	0.1316048
103	0x3cec6c19	0.028860139
104	0x3d80ba3d	0.06285522
105	0x3d6e7746	0.058219217
106	0x3dc84792	0.09779276
107	0xbe1b2b9c	-0.15153354
108	0x3d9bef0f	0.07613956
109	0x3d8cc1a3	0.06872871
110	0xbd9cde68	-0.07659608
111	0xbe189e9f	-0.14904259
112	0x3d2dd22a	0.042436756
113	0xbde02b0c	-0.109457105
114	0xbb3ebc33	-0.0029103875
115	0x38dfc378	0.000106698775
116	0xbd2000e4	-0.03906335
117	0xbd6e3d68	-0.05816403
118	0xbbcbafb7	-0.006216015
119	0x3d0a0b56	0.033702217
120	0xbd257fcd	-0.040405083
121	0xbd49c8d3	-0.049263787
122	0xbd789ef7	-0.060698476
123	0xbdfa7075	-0.12228481
124	0xbd8c64a7	-0.068551354
125	0x3d5a78e6	0.053337954
126	0xbd79c444	-0.06097819
127	0xbd9b6a01	-0.07588578
128	0xbdf25d6f	-0.11834227
129	0xbe066b06	-0.13126764
130	0x3d895278	0.06705183
131	0xbcfda42d	-0.030962074
132	0xbddcb2e0	-0.10776305
133	0x3decc74b	0.115614496
134	0x3d57a21c	0.052644834
135	0xbd7dda2b	-0.06197564
136	0x3d90b621	0.07065988
137	0x3d505a17	0.050867166
138	0xbc83e074	-0.016098239
139	0x3d5632b3	0.052294444
140	0x3db71968	0.08940393
141	0xbc00e43e	-0.007866917
142	0x3dcf170c	0.10111818
143	0x3d98147a	0.074257806
144	0x3dbab542	0.091166034
145	0x3dd0d957	0.10197704
146	0x3d61f8be	0.05516886
147	0xbd512c63	-0.05106772
148	0xbe139411	-0.14411952
149	0xbdddde01	-0.108333595
150	0xbd910f02	-0.07082941
151	0xbd913d2b	-0.07091745
152	0xbd392ef8	-0.04521081
153	0x3e090246	0.13379773
154	0x3d7e9afe	0.06215953
155	0x3e04bf83	0.12963681
156	0xbdd920e3	-0.10601976
157	0xbdba6d88	-0.09102923
158	0xbdc33492	-0.09531511
159	0xbe11f00a	-0.14251724
160	0xbd15f669	-0.03661195
161	0x3d5edf12	0.054411955
162	0x3d9fa105	0.07794384
163	0x3d7a2a52	0.061075516
164	0xbd7d32a9	-0.06181589
165	0x38a9e06f	8.100352e-05
166	0x3db493ce	0.08817254
167	0xbd586c41	-0.052837614
168	0xbdc7af7f	-0.0975027
169	0x3deefdf2	0.1166953
170	0xbd967f02	-0.073484436
171	0x3d9932de	0.07480405
172	0x3d23b61a	0.039968587
173	0xbd93573e	-0.071943745
174	0x3e0cc437	0.13746725
175	0xbd3667ad	-0.044532467
176	0xbc1e3b78	-0.009657733
177	0xbd5402de	-0.051760547
178	0x3c7f2c40	0.015574515
179	0x3de2de49	0.11077554
180	0xbdd81c1b	-0.10552236
181	0x3daf4c48	0.08559471
182	0xbd9897b3	-0.07450809
183	0xbe0a6138	-0.13513649
184	0xbc0227ce	-0.0079440605
185	0x3e02c1d7	0.12769257
186	0xbdab6b0e	-0.083700284
187	0x3dc9986d	0.09843526
188	0x3db8d5cd	0.09025154
189	0xbdb7de59	-0.08977956
190	0x3c8c64be	0.017137881
191	0xbdaeef59	-0.08541746
192	0xbdabf8a8	-0.08397037
193	0x3db275d6	0.08713882
194	0xbe1622cc	-0.14661711
195	0x3df32567	0.11872368
196	0xbb2ed5a1	-0.0026677626
197	0xbdf32e68	-0.11874086
198	0xbdf32bab	-0.118735634
199	0xbd9ccc11	-0.0765611
200	0x3ca5a742	0.020221356
201	0xbd57b500	-0.05266285
202	0x3d6fc843	0.058540594
203	0xbdf831d3	-0.12118878
204	0xbc519643	-0.012792173
205	0xbdaeed31	-0.085413344
206	0xbdca14ad	-0.09867225
207	0xbdf78bd7	-0.12087219
208	0xbd0a11df	-0.03370845
209	0x3de91e4d	0.113827325
210	0xbdb5d348	-0.08878189
211	0x3cca90c2	0.024727229
212	0xbdf272e6	-0.118383214
213	0x3d1ea2a8	0.03872934
214	0xbcf114c8	-0.029428855
215	0xbde6bb84	-0.112662345
216	0x3df08d5c	0.11745712
217	0xbca9521c	-0.020669036
218	0x3dae174e	0.08500539
219	0xbc1e0711	-0.009645239
220	0xbde222f3	-0.11041822
221	0x3df53a2b	0.11973985
222	0x3cfd60d1	0.030929955
223	0x3d8859c8	0.066577494
224	0x3dadba0a	0.0848275
225	0xbe3d0994	-0.18460685
226	0xbdc7c44e	-0.09754239
227	0xbdb105ac	-0.0864366
228	0x3d3e5c54	0.04647477
229	0xbd907a35	-0.07054559
230	0x3d011a08	0.031518966
231	0xbe9241b0	-0.2856574
232	0x3dbf8256	0.093510315
233	0xbd802195	-0.06256405
234	0xbdafb706	-0.08579831
235	0xbdd661a9	-0.10467846
236	0x3ddd1ece	0.10796891
237	0xbe026575	-0.12734015
238	0x3df35962	0.11882283
239	0x3db6e087	0.08929544
240	0xbd6edc00	-0.058315277
241	0x3dc042ce	0.09387742
242	0xbd6d392e	-0.05791586
243	0xbdf9fa6e	-0.12205969
244	0xbd94c2c7	-0.07263713
245	0x3dc8aa86	0.0979815
246	0x3d1112cb	0.035418313
247	0xbddeb973	-0.108752154
248	0x3cdf2228	0.027237967
249	0x3d5c306f	0.053757127
250	0xbd9a5d7b	-0.07537361
251	0x3b87b996	0.0041419966
252	0x3d9beb22	0.076132074
253	0xbe0e2a69	-0.13883366
254	0xbda1b25f	-0.0789535
255	0xbbe0be86	-0.0068586497

energy_lin.1.bias f4 [300]
0	0x3d447728	0.0479652
1	0x3d6d4d11	0.057934824
2	0x3d891247	0.06692939
3	0xbd5c77eb	-0.0538253
4	0x3d25ebd8	0.04050812
5	0x3cfd6431	0.030931564
6	0x3d6d4626	0.057928227
7	0x3d874d03	0.06606486
8	0x3cd5e3c9	0.026109593
9	0x3d810e76	0.06301586
10	0x3ca6d022	0.020362917
11	0xbcd3b089	-0.025841014
12	0x3d2ae456	0.041721664
13	0x3cf8abad	0.030355299
14	0x3c7ed8c2	0.015554609
15	0xbc5457fe	-0.012960432
16	0x3b348479	0.002754478
17	0x3d832ea5	0.06405381
18	0x3d79f58d	0.06102519
19	0xbc8733a9	-0.016504126
20	0x3c84a28b	0.016190788
21	0xbcf72a30	-0.030171484
22	0xbbee0ea5	-0.0072649294
23	0xbcf67363	-0.030084318
24	0xbd406374	-0.046969846
25	0xbd175033	-0.03694172
26	0x3d497af0	0.049189508
27	0xbc54c35a	-0.012986029
28	0x3dc585ff	0.09644698
29	0x3d89b9cc	0.06724891
30	0x3de7a18f	0.11310112
31	0x3d5b2bad	0.05350845
32	0x3d6a91af	0.05726784
33	0x3cdb7fb4	0.026794292
34	0x3bd121a6	0.006382185
35	0x3d8aa67e	0.06770037
36	0x3d18dd8d	0.037320662
37	0x3d497cf9	0.04919145
38	0x3d2733d4	0.04082091
39	0xbc5900d3	-0.013244825
40	0xbc466cfe	-0.012110947
41	0x3938cfd2	0.00017625027
42	0x3ca53eba	0.020171512
43	0x3d88ff4f	0.06689321
44	0xbd081ea7	-0.033232357
45	0x3db30963	0.08742025
46	0xbd3b76cf	-0.0457676
47	0x3ce02668	0.027362064
48	0x3ce559f4	0.027996995
49	0x3cf7c384	0.030244596
50	0x3cada2b0	0.02119574
51	0x3d88cf86	0.06680207
52	0xbd309b15	-0.043116648
53	0xbccb8dbb	-0.024847856
54	0x3da19462	0.0788963
55	0xbd317d99	-0.04333267
56	0x3da604f9	0.08106417
57	0x3cd6d1c5	0.026223073
58	0x3ce20549	0.02759041
59	0x3c89b0a0	0.016807854
60	0xbc9f2294	-0.019425668
61	0xbd0887fb	-0.033332806
62	0x3d810efa	0.06301685
63	0x3cf4c34f	0.029878287
64	0x3d6a3043	0.057174932
65	0x3d6493aa	0.055804886
66	0xbd31dec6	-0.043425344
67	0x3d9a0412	0.075203076
68	0x3d0d73ce	0.034534268
69	0xbce6b8e6	-0.028164338
70	0x3c7fd789	0.015615352
71	0xbd3e81b6	-0.04651042
72	0xbd101b76	-0.03518244
73	0x3cf5b70c	0.02999451
74	0x3d518aea	0.05115787
75	0x3c4ee612	0.012628095
76	0x3d44641f	0.047947045
77	0x3d426ba2	0.047465928
78	0xbbc4fc4c	-0.0060115214
79	0x3d2b2ecd	0.04179268
80	0x3cbd03d6	0.023073118
81	0xbcbbb4c8	-0.022913352
82	0xbc4ad612	-0.01238014
83	0xbce53a02	-0.027981762
84	0x3c710bd2	0.014712291
85	0x3aaa0c3d	0.0012973618
86	0xbcb758e4	-0.022381254
87	0x3d330028	0.04370132
88	0x3d2e6049	0.042572293
89	0x3cb8bc24	0.02255065
90	0x3d039b7f	0.032130715
91	0x3caa7aea	0.020810563
92	0x3d258ba3	0.04041637
93	0xbd40327f	-0.046923157
94	0xbaa073c2	-0.001224153
95	0xbb2ef794	-0.002669786
96	0x3c4851e9	0.01222656
97	0x3d49328a	0.049120463
98	0x3d736cf4	0.059430078
99	0x3b4afc52	0.0030973149
100	0xbc8c54c1	-0.017130258
101	0x3c01d279	0.007923716
102	0x3c99985d	0.01874941
103	0x3c3c850d	0.011506331
104	0xbd6af746	-0.057364725
105	0x3c3a9df9	0.011390203
106	0xbcb5f2fb	-0.022210589
107	0x3c1318b1	0.008978055
108	0xbcae1c1c	-0.021253638
109	0x3d9350f0	0.07193172
110	0x3d4ac396	0.04950293
111	0x3c8cb4c0	0.017176032
112	0x3ce7dad3	0.028302586
113	0xbc67bdf3	-0.0141444085
114	0x3ccdfe2a	0.025145609
115	0xbc0d6f8b	-0.008632551
116	0xbd20ae5c	-0.039228782
117	0x3d246e62	0.04014433
118	0x3cec7e6e	0.02886888
119	0xba91e30e	-0.001113029
120	0xbbb05b7f	-0.005382001
121	0x3cdeb176	0.02718423
122	0x3ce63f22	0.028106276
123	0x3d8ef08e	0.06979476
124	0x3d566695	0.052343924
125	0x3d17ea3b	0.037088614
126	0xba40ccac	-0.0007354717
127	0x3cca478f	0.024692325
128	0x3d25841e	0.0404092
129	0xbd3e24d7	-0.046421852
130	0x3ce29171	0.027657242
131	0x3d6cd9bd	0.05782484
132	0xbcc8f725	-0.02453191
133	0x3c69d90d	0.01427294
134	0x3d215ee9	0.039397154
135	0x3d161d49	0.036649022
136	0x3d5c3de1	0.05376995
137	0xbd04b10c	-0.032395408
138	0xbc3e8997	-0.011629484
139	0x3b75b941	0.0037494453
140	0x3d8ecfab	0.06973203
141	0x3c4b54cd	0.012410355
142	0x3d885554	0.066569
143	0x3c88a44f	0.016679911
144	0xbc9ea78e	-0.019367006
145	0x3d7a1a70	0.06106037
146	0x3d52a807	0.051429775
147	0x3d0ff263	0.035143267
148	0xbd40e07f	-0.047089096
149	0x3ca490d0	0.020088583
150	0xbce2c31b	-0.027680924
151	0x3d84ba4e	0.06480847
152	0xbac59d4d	-0.0015076787
153	0xbd30d364	-0.043170348
154	0x3d7f1f2e	0.062285595
155	0x3d8a0746	0.067396685
156	0x3d81305b	0.06308051
157	0xbc4336e1	-0.01191494
158	0x3c21875d	0.009858933
159	0x3d5a5ff0	0.05331415
160	0x3d21ea24	0.039529935
161	0x3dd0bca2	0.10192229
162	0x3ca3da7b	0.02000164
163	0x3baa7893	0.005202362
164	0x3d7f25ca	0.062291898
165	0x3da0eddb	0.07857867
166	0x3cb12535	0.021624187
167	0xbc8f9d1d	-0.017530972
168	0x3c9cd1cc	0.019143008
169	0xbc28ca72	-0.010302173
170	0x3d84355c	0.0645549
171	0x3aab5d2e	0.0013074034
172	0x3d41173e	0.047141306
173	0xbb0e97c3	-0.0021757938
174	0xbd187ae8	-0.037226588
175	0x3c5236e1	0.012830467
176	0x3d5b7376	0.05357691
177	0x3cf04eb2	0.0293344
178	0x3d895370	0.067053676
179	0x3d53b178	0.05168292
180	0xbd0f1d4f	-0.03494006
181	0x3d5859aa	0.052819885
182	0x3d3c3cfa	0.04595659
183	0x3cd575b4	0.026057102
184	0x3d2b82ef	0.041872915
185	0x3c19c978	0.009386413
186	0x3cda948e	0.026682165
187	0x3c8a1855	0.016857306
188	0x3cfd2308	0.030900493
189	0x3d997418	0.07492846
190	0x3d879ef3	0.06622114
191	0x3ccdc573	0.025118565
192	0x3d0f129c	0.034929857
193	0xbd1cd496	-0.038288675
194	0x3d2a1150	0.041520417
195	0x3d70aed0	0.058760464
196	0x3d172d6c	0.036908552
197	0x3ce09161	0.027413072
198	0xbd38c713	-0.045111727
199	0xbd084610	-0.03326994
200	0x3d831e3c	0.06402251
201	0x3c2aecdd	0.010432449
202	0x3d166dae	0.036725692
203	0x3d31724c	0.043321893
204	0x3ab71130	0.0013966914
205	0xbcaba892	-0.020954404
206	0xbbfa3c6c	-0.0076365974
207	0xbd578ba1	-0.052623395
208	0x3d298189	0.0413833
209	0xbd30a2d2	-0.043124028
210	0xbb1a20c9	-0.0023518077
211	0xbd0f84a5	-0.03503861
212	0xbd177bab	-0.036983173
213	0x3c5b7468	0.013394453
214	0xbd148ed5	-0.036269028
215	0x3cadcda2	0.021216217
216	0xbcdb29ab	-0.026753267
217	0xbd188fb0	-0.037246406
218	0x3c6f1dce	0.014594508
219	0x3d2ea03c	0.04263328
220	0xba903384	-0.0011001681
221	0xbc65179c	-0.01398268
222	0xbc1db7f9	-0.009626382
223	0x3d0e514e	0.034745507
224	0xbbb5d438	-0.00554898
225	0x3c6f6751	0.014612035
226	0xbd261009	-0.040542636
227	0x3aa23db1	0.0012378005
228	0x3d0aa3de	0.033847682
229	0xbaee397f	-0.0018175094
230	0xbd47d96a	-0.048791327
231	0x3d886eec	0.06661782
232	0xbb8df370	-0.0043319985
233	0x3d6f5043	0.058426153
234	0x3d130dc5	0.035901804
235	0xbc63fa41	-0.013914646
236	0xbb7d9abc	-0.0038696965
237	0x3d4a288a	0.049355067
238	0xbbeb44f5	-0.007179851
239	0x3d1e10a6	0.038590096
240	0x3bc31205	0.005953076
241	0x3c9cc1cd	0.01913538
242	0xbccb7799	-0.024837302
243	0x3c9279ca	0.01788034
244	0x3d9ff94f	0.07811224
245	0xbca635e8	-0.020289376
246	0xbd01cb73	-0.031688165
247	0x3d72fade	0.059321277
248	0x3d19d052	0.037552185
249	0x3d2dd153	0.042435955
250	0xbd0eca51	-0.034860913
251	0x3ca775f1	0.020441981
252	0x3d951664	0.07279661
253	0x3d06d3f1	0.032916967
254	0x3d7c4522	0.061589368
255	0x3cba0f86	0.02271248

energy_lin.3.weight f4 [150, 300]
0	0x3c3f7451	0.011685447
1	0x3dde94ff	0.108682625
2	0xbe0ee2ae	-0.13953659
3	0xbc10a626	-0.008828675
4	0xbd8f112d	-0.06985698
5	0x3c837af5	0.016049841
6	0xbd4ee9f0	-0.05051607
7	0x3d675095	0.056473333
8	0xbb381a2e	-0.0028091776
9	0xbc9b05a2	-0.018923584
10	0x3ef0aeaf	0.47008273
11	0xbd6a0c0a	-0.057140388
12	0x3e30f6d1	0.17281653
13	0x3f0c0538	0.54695463
14	0xbdf32673	-0.11872568
15	0x3e013cfb	0.12620918
16	0x3d0fea0b	0.03513531
17	0x3baab13a	0.0052091153
18	0x3dc90342	0.098150745
19	0xbdbf0070	-0.09326255
20	0xbc8ccbfc	-0.017187111
21	0x3dddedee	0.10836397
22	0x3ad0af8e	0.001592146
23	0xbde3438f	-0.1109687
24	0x3d3b8b68	0.045787245
25	0xbc4389bd	-0.011934695
26	0xbd367744	-0.044547334
27	0x3e0f2604	0.13979346
28	0x3dae39b0	0.08507097
29	0xbb3de3c3	-0.0028974868
30	0x3e43c4f2	0.19118097
31	0x3cd96464	0.026537128
32	0x3c04c7a6	0.0081042405
33	0x3dac77e0	0.08421302
34	0xbd77a466	-0.060459517
35	0xbde4224e	-0.111393556
36	0xbb7c831a	-0.003853029
37	0x3cb6b311	0.022302182
38	0x3e20c2a0	0.15699244
39	0xbd582924	-0.05277361
40	0x3e05e816	0.13076815
41	0x3d6329b8	0.055459708
42	0x3e172da6	0.14763507
43	0xbdf17297	-0.117894344
44	0xba9784fb	-0.0011560017
45	0xbda28487	-0.07935434
46	0xbd48f03f	-0.04905724
47	0x3c72c549	0.014817544
48	0x3d3d07ac	0.046149895
49	0xbd94f0fe	-0.07272528
50	0x3e20a3b9	0.15687455
51	0x3dca0d55	0.09865824
52	0x3da794a4	0.08182648
53	0xbc45422d	-0.012039703
54	0x3e3052e6	0.17219123
55	0x3e0689a8	0.13138449
56	0x3b4112c2	0.0029460643
57	0x3b572cfa	0.0032833205
58	0xbd1f3146	-0.03886535
59	0x3c212c70	0.009837255
60	0x3d98f5a3	0.074687265
61	0xbd28b5cd	-0.041189004
62	0x3d7edb7d	0.06222104
63	0x3d5a74b3	0.05333395
64	0x3bef5785	0.0073041343
65	0xbddc67ff	-0.10762023
66	0xbe0a815e	-0.13525912
67	0x3c74e643	0.014947477
68	0x3e28e855	0.16494878
69	0x3e2469e3	0.16056018
70	0xbc7c8125	-0.01541165
71	0x3d8966f6	0.06709091
72	0x3e2d9ff7	0.16955553
73	0xbd8e65cf	-0.06953012
74	0x3e365a22	0.1780782
75	0xbd80ba8e	-0.062855825
76	0x3d7a3987	0.06109002
77	0x3db77c59	0.08959264
78	0xbd66d7ab	-0.05635802
79	0x3dc90720	0.09815812
80	0x3da60a0c	0.08107385
81	0xbd849df0	-0.06475437
82	0x3c3e6cd3	0.011622625
83	0xbe3be707	-0.18349849
84	0x3e270c98	0.16313398
85	0xbd807b0c	-0.06273469
86	0xbdbdb890	-0.09263718
87	0xbd5a0a2f	-0.053232368
88	0xbdb58520	-0.08863282
89	0xbdb8a32a	-0.09015496
90	0x3dd5476a	0.10414012
91	0xbdcbfc92	-0.09960283
92	0x3dde29f4	0.10847846
93	0xbd8760ba	-0.06610246
94	0x3d41de34	0.04733105
95	0xbd3f7b63	-0.04674853
96	0x3de92e14	0.11385742
97	0xbde3c0e4	-0.11120775
98	0x3d9a3f3b	0.075315915
99	0x80357f97	-4.913052e-39
100	0x3df2a702	0.118482605
101	0x3d4a5d11	0.04940516
102	0xb6bcbe3b	-5.6249824e-06
103	0x3e13de25	0.1444021
104	0x3d8e4f7e	0.06948756
105	0x3d8ec96a	0.069720104
106	0x3d92b853	0.07164063
107	0xbccca659	-0.024981664
108	0xbe1bcc9a	-0.15214768
109	0xbda87e92	-0.08227266
110	0x3d8e2193	0.069399975
111	0xbde345e2	-0.110973135
112	0xbe1c2d8d	-0.15251751
113	0x3d549f93	0.051909994
114	0x3b916758	0.0044373684
115	0x3cf8bb34	0.030362703
116	0x3d9472ca	0.07248457
117	0x3de1b3a1	0.110205896
118	0xbd0c3eee	-0.034239702
119	0x3c4e6ee7	0.012599683
120	0x3d6e3494	0.05815561
121	0xbd7000d8	-0.058594555
122	0x3c460dfa	0.012088293
123	0x3cfd1e80	0.030898333
124	0xbd83cc68	-0.06435472
125	0xbc4271f4	-0.011867989
126	0xbd13280f	-0.035926875
127	0x3ceb2b1e	0.028707083
128	0xbccdfd11	-0.025145086
129	0xbd9dfd25	-0.07714299
130	0xbbf17d2b	-0.0073696575
131	0x3d4d88c7	0.05017927
132	0xbe6099d7	-0.21933685
133	0xbe23c8c7	-0.15994559
134	0x3d81b4fa	0.06333347
135	0x3b241df6	0.0025042272
136	0xbe09d521	-0.13460208
137	0x3e1ff70e	0.15621588
138	0x3cdd6262	0.027024452
139	0x3d804a0b	0.062641226
140	0x3db81c93	0.08989825
141	0x3d02369c	0.03179036
142	0xbc942ec9	-0.018088715
143	0xbd8fbf44	-0.07018903
144	0x3d70907f	0.058731552
145	0xbd5eb467	-0.054371264
146	0x3db3164d	0.08744488
147	0xbbd06b8b	-0.0063604764
148	0xbdef3453	-0.11679902
149	0xbda71857	-0.08158939
150	0xbdea08c6	-0.11427455
151	0x3c0649d3	0.008196312
152	0x3da1f250	0.079075456
153	0xbe55bf95	-0.20873864
154	0x3df19663	0.11796262
155	0x3d3f9390	0.046771586
156	0x3e11b571	0.1422937
157	0xbcb27432	-0.021783922
158	0x3d9e1dc3	0.0772052
159	0xbe31a84d	-0.17349358
160	0x3d4ae820	0.049537778
161	0x3dedd2ee	0.11612497
162	0xbd441fc5	-0.04788186
163	0xbddaf466	-0.106911466
164	0x3e090b1a	0.13383141
165	0xbcbec29a	-0.023286153
166	0x3eb7fbdc	0.3593434
167	0xba86750a	-0.0010258269
168	0x3e010844	0.1260081
169	0x3d22a138	0.03970453
170	0xbe22e795	-0.15908654
171	0xbdf75336	-0.12076418
172	0x3dece3ee	0.11566912
173	0x3d211b8e	0.03933292
174	0x3cde97fd	0.027172083
175	0xbcfddd63	-0.030989354
176	0x3d00abfc	0.031414017
177	0x3e06e773	0.13174228
178	0x3dbd6338	0.0924744
179	0xbd88e2a1	-0.06683851
180	0x3db050ef	0.08609187
181	0x3dda0261	0.10644985
182	0xbd275dfc	-0.040861115
183	0x3dfb7157	0.12277477
184	0x3e3a9422	0.1822057
185	0xbdec2f5d	-0.11532471
186	0x3d7cc991	0.061715666
187	0xbd97a1b3	-0.074038886
188	0xbdf5b94b	-0.119982325
189	0x3dfdab26	0.123861596
190	0xbc481fab	-0.0122145815
191	0x3d6bc431	0.05756015
192	0xbce496e2	-0.027903978
193	0xbdacf08e	-0.0844432
194	0x3bdfa358	0.006824892
195	0x3da36a9f	0.07979321
196	0xbd451039	-0.048111174
197	0x3caaf30f	0.020867852
198	0xbe6910a2	-0.22760251
199	0xbd7b87ab	-0.06140868
200	0x3e72be40	0.23705387
201	0xbc1bd22c	-0.009510558
202	0xbdec0bb5	-0.115256704
203	0xbd5e476c	-0.054267332
204	0xbcd94663	-0.02652282
205	0xbe281fae	-0.16418335
206	0x3e004d3c	0.12529463
207	0xbe22efbd	-0.15911765
208	0xbe1a8470	-0.15089583
209	0xbd69b492	-0.05705697
210	0x3e09a3cf	0.13441394
211	0x3d556da7	0.052106526
212	0xbc3834f1	-0.011243091
213	0x3dec968c	0.11552152
214	0x3ce6ea53	0.028187906
215	0x3e0c1d94	0.13683158
216	0x3d266a7c	0.040628895
217	0x3dbd77a3	0.092513345
218	0x3e0f3c5f	0.13987873
219	0x3d9f24a4	0.077706605
220	0x3d7f5cc2	0.06234432
221	0xbd9a89e4	-0.07545832
222	0xbd913e70	-0.07091987
223	0x3d3d60e6	0.046234988
224	0xbe345a4b	-0.17612569
225	0x3dec6aee	0.11543833
226	0x3c58adca	0.013225028
227	0x3e05aba7	0.13053761
228	0x3d810703	0.063001655
229	0xbdd175a9	-0.1022752
230	0xbdf099d2	-0.11748089
231	0x3e187da9	0.14891686
232	0xbdc672c4	-0.096898586
233	0xbdabd4e3	-0.08390214
234	0x3bf9e3ed	0.007626048
235	0x3aec60b5	0.0018034192
236	0x3eb09d5b	0.34495053
237	0x3a304075	0.0006723472
238	0xbd87346f	-0.06601798
239	0x3d8851f1	0.06656254
240	0xbd71814f	-0.05896121
241	0x3d8948a2	0.06703307
242	0xbe0e167d	-0.13875766
243	0xbc9e745f	-0.0193426
244	0x3e1a2215	0.15052064
245	0xbd58bf47	-0.05291679
246	0x3cd40121	0.025879445
247	0xbe33dd40	-0.17564869
248	0x3eb6121f	0.355607
249	0xbdcdb5f1	-0.10044468
250	0xbd909665	-0.070599355
251	0xbcf1c198	-0.029511258
252	0x3d3714d2	0.04469759
253	0x3db4b899	0.08824272
254	0xbdfccf09	-0.12344176
255	0x3e35bb51	0.17747237
