models/mpnn_A139_B23_E300_L2/73.pt (torch, 742651 bytes, 9 tensors)

atom_lin.weight f4 [300, 139]
000000 ac 4c 9e 3c f6 94 3e 3e 5f a2 1e 09 3a 5b ab 28
       0.01932367 0.18611512 1.9094905e-33 1.9024377e-14
000010 db 2e 88 a1 88 f1 4b a9 29 17 09 be 23 05 31 bd
       -9.228121e-19 -4.528455e-14 -0.13387741 -0.04321779
000020 b6 cc f8 3d c1 51 18 88 49 dd d2 27 ce fa d7 1f
       0.121484205 -4.5836937e-34 5.8526627e-15 9.1470963e-20
000030 9d a3 28 9f dc 12 86 9f c9 c3 04 10 e8 05 5f be
       -3.571072e-20 -5.678241e-20 2.6183237e-29 -0.21779597
000040 eb ec 8a 3e 8f 61 34 bd 09 ab 33 97 09 79 35 80
       0.2713388 -0.04403835 -5.8053896e-25 -4.9107e-39
000050 92 58 0b 19 93 99 00 98 46 30 47 a0 79 02 15 14
       7.204018e-24 -1.6621147e-24 -1.6871928e-19 7.523065e-27
000060 ae 69 a0 9f a0 93 59 27 09 37 4b 02 1a 3c 4c 3d
       -6.793747e-20 3.0194827e-15 1.4929879e-37 0.049862005
000070 66 73 ed 89 d7 78 6e 28 2b d6 3e 9f 12 c5 37 9a
       -5.7164195e-33 1.3237857e-14 -4.041122e-20 -3.8002705e-23
000080 ff 91 8b 23 d4 ed 0f 08 5e e1 ac 19 4a 47 c1 a2
       1.5132242e-17 4.3312063e-34 1.7875408e-23 -5.2388235e-18
000090 a7 b5 46 9f 2f 24 12 a9 63 c4 b8 26 4d d7 47 27
       -4.207839e-20 -3.2449897e-14 1.2820796e-15 2.7733513e-15
0000a0 a9 7c 03 91 7f 35 98 22 e7 e5 fe a1 8e 8a 3b 9e
       -1.0372492e-28 4.1256324e-18 -1.7272564e-18 -9.92835e-21
0000b0 06 82 35 00 a8 fc e1 a9 2d 1d 52 29 fc d8 2d 8c
       4.913925e-39 -1.0035836e-13 4.6654673e-14 -1.3392732e-31
0000c0 b7 21 d8 8c 74 78 35 00 77 5a 55 a5 ef 2f c2 a9
       -3.330036e-31 4.910492e-39 -1.8505456e-16 -8.623646e-14
0000d0 03 44 e4 22 9e 9d ca 8f 8d 83 21 94 c2 77 c2 16
       6.1871534e-18 -1.997945e-29 -8.1543666e-27 3.1417968e-25
0000e0 2c 80 48 a4 56 36 f5 9f 28 c2 bc 81 31 7a 35 00
       -4.3476653e-17 -1.0385143e-19 -6.9338894e-38 4.911115e-39
0000f0 51 ef 6d 23 75 f9 20 95 a9 d3 7c 9c ba 56 7a 94
       1.2898473e-17 -3.250853e-26 -8.365337e-22 -1.2638878e-26
000100 1e ff 24 0c 52 e1 b7 8e cd 76 cb 22 e8 da 60 27
       1.2710872e-31 -4.532996e-30 5.5149045e-18 3.1204914e-15
000110 68 81 8b a8 90 ee bf 28 b3 00 c8 a2 f7 97 18 22
       -1.5488221e-14 2.130872e-14 -5.421085e-18 2.068029e-18
000120 9a ce 28 00 ba 0c 01 18 22 85 dd 99 e5 55 9e 0d
       3.747535e-39 1.6679284e-24 -2.2904636e-23 9.75818e-31
000130 68 13 40 85 6e 1f 82 95 64 0a 8a 99 81 a0 05 05
       -9.031361e-36 -5.255617e-26 -1.4273062e-23 6.28311e-36
000140 93 36 79 26 09 ba 04 2a ba 8e 35 80 23 7e 82 a8
       8.646319e-16 1.1788499e-13 -4.918482e-39 -1.4487602e-14
000150 d2 6f 35 00 50 c3 43 23 3d 81 35 00 a4 2b d2 20
       4.907395e-39 1.061233e-17 4.913643e-39 3.5604263e-19
000160 f1 e2 52 2a 44 dc 5e 2a 3d 64 68 1f 6c 36 c2 9d
       1.8730483e-13 1.9793981e-13 4.9210826e-20 -5.1407643e-21
000170 a5 1e 65 11 49 59 e7 9d 39 44 9e 02 0d e1 91 19
       1.8074358e-28 -6.123751e-21 2.3255171e-37 1.5083546e-23
000180 75 b7 2a 81 12 c8 3c 1e 0a 68 80 09 43 d3 df 1c
       -3.1355693e-38 9.994011e-21 3.0912717e-33 1.4811512e-21
000190 29 3b 86 13 24 22 d4 8b 04 44 f9 17 6b 7e 35 00
       3.3884692e-27 -8.17108e-32 1.6108417e-24 4.912632e-39
0001a0 09 38 38 26 d8 04 93 19 d8 5c 5e 19 17 91 32 1f
       6.3913766e-16 1.52014e-23 1.1495881e-23 3.7812982e-20
0001b0 2d 69 49 9e 53 80 4a 24 f0 7f 35 00 1c 55 75 a2
       -1.0662601e-20 4.3910463e-17 4.913177e-39 -3.3248748e-18
0001c0 d6 78 25 06 56 c5 d8 9f 05 3d c6 21 5a c7 c8 91
       3.1121827e-35 -9.180602e-20 1.3433154e-18 -3.1677296e-28
0001d0 e8 b7 b2 a8 75 4c cb a5 52 5a 9e 9d 51 0e ba 3c
       -1.9841726e-14 -3.5266696e-16 -4.191564e-21 0.022711905
0001e0 c5 3a cf bd 2e 3b 1b be 85 2f ca bd 54 96 3a be
       -0.10118631 -0.15159294 -0.09872345 -0.18221408
0001f0 64 41 fe 92 55 b2 94 3d 6b 11 23 82 1f 16 f7 04
       -1.6045774e-27 0.07260577 -1.1980347e-37 5.8089736e-36
000200 4b 89 c6 3c fc 84 44 bd 87 c8 1f be 29 52 9e 3d
       0.024235388 -0.047978386 -0.15603839 0.077305146
000210 8f 65 69 94 86 d6 c8 a2 ed 80 e5 8d 61 70 0f 27
       -1.1783523e-26 -5.4437244e-18 -1.4144252e-30 1.9906157e-15
000220 af 52 0b 9c ee e4 4e 9d 38 4b 6f be b2 01 17 3e
       -4.609811e-22 -2.7382227e-21 -0.23368537 0.1474674
000230 3f 48 54 be 45 6d 35 80 8b b2 d7 8e 77 c9 30 0a
       -0.20730685 -4.90648e-39 -5.3173523e-30 8.511983e-33
000240 9a 6d 9a 1a b1 c1 76 be 44 cc e6 3d 56 fc 5b 3e
       6.386998e-23 -0.24097325 0.11269429 0.21482977
000250 1f b4 68 bd de e9 98 a1 c9 9c 1b 2a 28 36 a2 3d
       -0.0568124 -1.0361825e-18 1.3821161e-13 0.07920486
000260 49 f4 37 08 23 37 89 8a fe a1 42 be 3a 1f 3c be
       5.5356715e-34 -1.321336e-32 -0.19007108 -0.18371287
000270 b7 2c d0 bd 23 3e 36 21 dd 60 92 26 82 05 d1 9c
       -0.10164779 6.1746236e-19 1.015704e-15 -1.3831884e-21
000280 6a 6b 35 80 b2 e1 b4 09 2d 07 8a 22 79 7e 35 80
       -4.905814e-39 4.3545667e-33 3.7412573e-18 -4.912651e-39
000290 06 b5 8d be bd 83 a6 be 5e 86 b5 bc 56 fa 46 9d
       -0.27677172 -0.32522383 -0.022158798 -2.6334502e-21
0002a0 93 39 af 26 a4 96 11 01 f5 cc a4 a6 68 c2 28 9b
       1.215867e-15 2.6740373e-38 -1.143534e-15 -1.395945e-22
0002b0 95 20 b9 0d dd 89 35 00 5d 71 bf 3d 9e 8c 35 80
       1.1409349e-30 4.916737e-39 0.09347794 -4.917725e-39
0002c0 0f 9c 1b 20 47 fd 21 a5 91 c9 c6 a2 f5 a4 36 24
       1.3180646e-19 -1.4050338e-16 -5.3881424e-18 3.9604683e-17
0002d0 69 f7 88 8f 80 c5 1a a9 c0 70 35 00 f5 22 63 95
       -1.3505934e-29 -3.4366173e-14 4.907728e-39 -4.586986e-26
0002e0 65 52 25 1a 3d 76 49 96 43 4e fb 09 87 b5 00 1a
       3.4187758e-23 -1.627396e-25 6.049965e-33 2.6616416e-23
0002f0 3a 74 b9 a6 94 69 80 92 20 70 d1 a1 60 a8 17 0b
       -1.2868457e-15 -8.103963e-28 -1.419207e-18 2.9208213e-32
000300 00 64 a4 bc 01 b3 b9 a3 48 39 0b 98 47 ba 11 9a
       -0.020067215 -2.0133551e-17 -1.7994249e-24 -3.013577e-23
000310 c1 e8 6c a0 55 d5 a0 82 f4 77 81 99 78 31 28 27
       -2.006699e-19 -2.3632334e-37 -1.3386736e-23 2.33415e-15
000320 01 a2 90 13 a7 b3 52 9e ad b0 0f 1a 54 0b 4b a1
       3.651046e-27 -1.1154459e-20 2.9714424e-23 -6.879407e-19
000330 0a 2c 0b 99 ae 6d 02 21 ce 10 f1 a0 bc d5 69 a6
       -7.195025e-24 4.4190873e-19 -4.0838108e-19 -8.112778e-16
000340 ff 7a 28 29 34 6f 35 00 db cd 92 87 e8 24 07 1e
       3.7410176e-14 4.907173e-39 -2.208863e-34 7.1544725e-21
000350 59 dd 26 a3 dd 00 20 00 6b f3 4e a1 12 bf 08 23
       -9.04575e-18 2.939046e-39 -7.0117676e-19 7.4130355e-18
000360 9a ac 2c 80 63 40 f2 26 0a 85 35 80 ed b8 d3 18
       -4.10268e-39 1.6809575e-15 -4.915007e-39 5.472895e-24
000370 6c d8 1e 2a 9a 84 7f 8e b8 62 e0 93 15 cb 0d a8
       1.4108305e-13 -3.1495022e-30 -5.6642894e-27 -7.871109e-15
000380 93 34 d0 13 a9 25 d6 8e 27 ff 59 15 5c 8f 99 1d
       5.2558424e-27 -5.279134e-30 4.402408e-26 4.0646993e-21
000390 94 4d 68 27 ed 82 12 a7 62 a7 2c a1 22 28 f6 18
       3.2238523e-15 -2.0332545e-15 -5.8497396e-19 6.3630033e-24
0003a0 47 a7 76 1e 7d f5 00 96 1a ea ea 92 c3 0d 4b 15
       1.3057724e-20 -1.041722e-25 -1.4825187e-27 4.100638e-26
0003b0 d7 89 00 a4 6b 73 d4 95 d6 d8 23 2a 2d bf 88 a3
       -2.787233e-17 -8.5808216e-26 1.4552538e-13 -1.4826116e-17
0003c0 fe 7a 35 00 78 86 c0 24 10 f9 7d 90 6d d1 eb 18
       4.911403e-39 8.3494526e-17 -5.0087323e-29 6.0957542e-24
0003d0 23 f8 88 21 67 4c b6 19 a7 2e 0d 0c 2e 20 6e 9f
       9.2814e-19 1.8849218e-23 1.0876284e-31 -5.042508e-20
0003e0 9b 15 f1 9a 80 75 35 80 0f 87 d8 1a 9b c2 92 01
       -9.971017e-23 -4.909432e-39 8.9553705e-23 5.3911175e-38
0003f0 bd 1b 0b 23 49 cb 88 1f b9 23 1a 0d 47 d0 07 80
       7.541079e-18 5.793455e-20 4.7497913e-31 -7.17564e-40

atom_lin.bias f4 [300]
000000 fc 0c 78 3d 31 c8 6c 3d f4 54 57 3d f8 b3 b8 3d
       0.060559258 0.057808105 0.052571252 0.09018701
000010 a8 04 d2 bc 79 49 f9 3c 0d 8f 18 bd 2d 0e b1 bc
       -0.025636986 0.030430542 -0.0372458 -0.021613205
000020 8e 97 39 bb e8 f4 94 3c c3 65 cc bc 6a aa b6 3d
       -0.0028319093 0.018183187 -0.024950868 0.08919223
000030 3e 48 17 bc b1 51 8d 3d 96 59 2b 3d c2 8c 5f 3d
       -0.0092335325 0.06900347 0.041833483 0.054577596
000040 84 af 14 3e 10 f8 93 bc 5f dd 8b bd 1c ca 1d bd
       0.14520079 -0.018062621 -0.068293326 -0.038522825
000050 14 b2 45 3d b6 c3 3c 3b 5b 83 a9 3b 07 d4 80 3c
       0.04826553 0.0028803176 0.0051731295 0.015726103
000060 a3 64 42 3d 78 be 8e bd 0a 35 86 3d 3c 08 6c 3d
       0.047459256 -0.06969923 0.06553085 0.05762504
000070 44 ce b9 3b 86 60 36 3d 27 ef cd bb 23 ad dc bb
       0.0056703407 0.044525646 -0.0062846127 -0.0067345067
000080 23 b9 c1 3b 50 ed 34 3d 69 06 c2 3d 6a 4b 69 3d
       0.0059119626 0.04417163 0.09473879 0.056956686
000090 98 16 d5 3d 4f 34 93 3c 75 8e 35 bc ef 63 a7 bc
       0.104047 0.017969279 -0.011081328 -0.020433394
0000a0 26 bb 95 bd ef 0d 24 bd 09 0f 2b 3b c8 08 ca 3d
       -0.07311086 -0.04005235 0.002610149 0.09864956
0000b0 e5 ba e8 3c de aa 89 bb 20 94 1b 3d c7 92 0c bc
       0.02840943 -0.004201277 0.03798306 -0.008579916
0000c0 f8 92 c6 bc 80 54 89 bc fa 09 0e 3d 04 10 3e bc
       -0.024240002 -0.016763926 0.034677483 -0.011600498
0000d0 4e 00 10 bc 68 ee b0 3d 2d 9c 7d 3d 6b d8 1c 3d
       -0.008789135 0.086392224 0.06191652 0.03829233
0000e0 66 64 46 3b 45 e0 ab bc 02 86 df 3d c3 6f 93 3c
       0.0030272244 -0.020980963 0.10914232 0.017997628
0000f0 3a 93 04 3d 64 58 9b 3d 8d 64 30 be 37 60 34 3d
       0.03236697 0.075852185 -0.17225857 0.04403707
000100 cf 65 b2 3d 8c 15 dc 3d 04 99 15 3d d8 c6 70 bd
       0.08710825 0.10746297 0.03652288 -0.058783382
000110 d2 7f ba bc 62 5c e4 39 b4 84 8f bd 90 22 93 3d
       -0.022766028 0.0004355638 -0.07007733 0.07184327
000120 19 97 25 bd f5 c4 2e 3b b4 d6 5a 3d 1f f0 c0 3c
       -0.0404273 0.0026667689 0.053427413 0.023551999
000130 44 ac 57 3c 6a 54 b4 bc b5 f8 fd 3c a1 56 bc 3d
       0.01316363 -0.022012908 0.031002382 0.09196211
000140 ca 7f 43 bc 00 e9 80 3d 65 04 e8 3d 01 2f 1c bd
       -0.011932323 0.06294441 0.11328963 -0.038130764
000150 3d bd 68 bd e2 99 ec ba cb 86 83 3d 4d 2c 8e bc
       -0.056821097 -0.0018051232 0.06422194 -0.017355109
000160 b5 b1 be 3d f5 74 0a 3e a2 0a 61 bd 26 7b ce 3c
       0.09311239 0.13521178 -0.05494178 0.025205206
000170 1f 5a 86 3d 44 9d 08 3d c5 bb 74 bc 8f 84 a1 bd
       0.06560158 0.033353105 -0.014937346 -0.07886612
000180 ca a4 4d bb 11 ea c2 bc f9 7c 82 3d 4d 51 01 bd
       -0.003137874 -0.023793252 0.06371493 -0.031571675
000190 35 c8 95 3d 71 82 57 3c a7 ab cc 3d 99 8b 55 bd
       0.07313577 0.013153658 0.099936776 -0.052135084
0001a0 61 44 18 3d 75 cd 21 bd 9f 74 c7 bb e3 83 59 3b
       0.037174586 -0.03950258 -0.0060869004 0.0033190183
0001b0 fb 5c cf 3c 32 f6 88 bd f2 f7 e4 3b 85 cb 6a 3d
       0.025312891 -0.06687583 0.006987565 0.057322998
0001c0 0c 16 9e bd 4a f3 0d 3e 1c 5b 36 3d 63 58 6d 3c
       -0.07719049 0.13862339 0.044520482 0.014486405
0001d0 6b 03 63 3d 73 ba 86 bd 33 ef 9e bb 2a 03 29 bc
       0.05542318 -0.06578531 -0.004850292 -0.010315696
0001e0 ce 0a a8 3c 3d 69 b0 3d ec e0 74 bd e4 78 a5 bc
       0.020512965 0.086138226 -0.059784815 -0.020199247
0001f0 3c d2 2d 3d 4b fd 9d 3c bb eb 6a bc 3d d5 5b bd
       0.042436823 0.019285819 -0.014338429 -0.053670157
000200 af a4 79 bd 15 63 ed bc 81 4f e7 bc bb d3 64 3d
       -0.06094807 -0.02897791 -0.028236153 0.055865984
000210 44 18 e4 3c 82 f7 e7 bc ef 58 bb 3d d6 4b 63 3d
       0.027843602 -0.028316263 0.09147822 0.055492245
000220 11 81 19 3d af 37 18 3c d0 aa 3f bd 9f 92 af 3d
       0.037476603 0.00929062 -0.04679376 0.08572888
000230 6d 8c c8 3d dd 9a 0e 3d 3d 7a e9 bc d1 a2 f2 3d
       0.09792409 0.034815658 -0.02850067 0.11847461
000240 ae a7 48 bd 38 11 b8 3d 06 7e 97 bd c2 14 d3 bd
       -0.048988037 0.08987659 -0.07397084 -0.103066936
000250 01 c7 7a 3d 73 b4 5e 3d d3 75 61 bc 39 a2 23 bd
       0.06122494 0.05437131 -0.013761002 -0.03994963
000260 4a 81 2d be 11 6a 28 3d 8d 3e 8b 3d 9d 37 af bb
       -0.16943851 0.041116778 0.0679904 -0.005347206
000270 aa 2f 45 bb 55 f2 ae bd 6d c1 3a bd ff cb 01 3c
       -0.0030088224 -0.08542315 -0.04559462 0.007922172
000280 db 26 a6 bd 91 94 b0 3d 4f af 2c bd 29 a5 aa bc
       -0.0811288 0.08622087 -0.042159375 -0.020830708
000290 cf 3c 08 3e 90 96 e0 3c 00 a2 88 3c 77 31 70 3d
       0.13304447 0.027415544 0.01667881 0.058640923
0002a0 c8 7a a3 bc 28 e2 1f bc 4c 08 e5 bc c9 0c df 3d
       -0.019956008 -0.00975851 -0.027958058 0.108911105
0002b0 9a 25 9c bc d4 ef 0a be b0 c7 6b bd 9f 8c 28 3d
       -0.019060899 -0.1356805 -0.057563484 0.04114973
0002c0 8e 16 ec bc 39 a9 f4 3c 32 62 95 bc a9 d1 bf 3d
       -0.028819349 0.029865848 -0.0182353 0.093661614
0002d0 ef 77 5c 3d 9d 4a ee bc 4d 00 13 3d a9 a9 08 3c
       0.053825315 -0.029088313 0.03588896 0.008341231
0002e0 5c 42 63 3d 78 1e f1 bc e2 f9 34 3d 52 39 66 3d
       0.055483207 -0.029433474 0.04418362 0.05620701
0002f0 4d 0c 10 bd 1e 4a b7 3d af a1 19 bd 4c 0b ca bd
       -0.03516798 0.089496836 -0.03750771 -0.09865436
000300 e7 11 80 3c ef 06 84 bd 75 28 20 ba f9 e0 b1 3d
       0.015633537 -0.06446635 -0.0006109544 0.08685488
000310 85 02 2a 3c 24 61 31 bd 21 52 28 3d cb 7c cc 3c
       0.010376577 -0.04330553 0.04109395 0.02496185
000320 26 4e 42 3d 6f 06 13 3d 9c de 73 bc ac 05 98 3d
       0.04743781 0.035894807 -0.014884617 0.07422957
000330 72 ae 1d bd 63 3b 85 3d ee 0f a4 3c 62 74 7f 3d
       -0.038496442 0.06505468 0.020027127 0.06236685
000340 e1 3c 8f 3d 04 7e 44 bd da 08 5c 3d e9 8f eb bc
       0.069940336 -0.04797174 0.05371938 -0.028755145
000350 6b 8e 22 3d cc bb 3a 3d 45 17 c2 3d 8a e7 39 3c
       0.0396866 0.045589253 0.094770946 0.011346707
000360 a0 9a 8f 3d 6c d7 06 3c 75 59 89 bc 51 20 82 bc
       0.07011914 0.0082300715 -0.01676629 -0.01588455
000370 7c 6e e6 3d f7 90 d2 3d 28 76 a3 3d 0d 41 2c bc
       0.11251542 0.10281556 0.07981521 -0.010513556
000380 d8 71 a9 3d f1 35 2f bd 8a a8 92 3d 07 b8 85 3d
       0.08273667 -0.042776052 0.071610525 0.06529241
000390 50 de 5b 3d 80 8d f2 bb fa b9 8f 3c cc 01 b8 3b
       0.05367881 -0.007402122 0.017544735 0.0056154486
0003a0 9d 65 27 bc 89 ca 88 bd 65 f8 e3 bc 01 5f d1 bc
       -0.010217098 -0.066792555 -0.027828405 -0.025557997
0003b0 bb 34 99 bc a9 36 de 3d 9a 76 9c 3c 09 96 5f 3d
       -0.018701902 0.10850269 0.019099522 0.054586444
0003c0 03 45 a7 bd 75 78 11 3e 7c be 8c ba a0 fd eb 3c
       -0.0816746 0.14206107 -0.0010737921 0.028807461
0003d0 51 90 70 bd 98 56 a3 bb a6 12 14 bd eb 05 ab 3c
       -0.05873138 -0.004984688 -0.036150597 0.020876845
0003e0 31 b0 15 3c b9 57 b6 3c 64 41 b4 bd dc d5 97 bc
       0.009136246 0.022258626 -0.08801535 -0.018534593
0003f0 6c d9 0b bc ca 21 ac 3c 6e 68 dd 3d 0a 7e 5f 3d
       -0.008535724 0.021012206 0.10810934 0.05456356

bond_lin.weight f4 [300, 23]
000000 6f af 38 82 77 ee 85 3e cd 29 91 be b3 21 8c bd
       -1.3568532e-37 0.26158497 -0.28352204 -0.06842365
000010 e3 f0 d7 b8 27 ed a2 2b 3a 84 ec 09 f2 80 8e b6
       -0.000102968675 1.1576615e-12 5.693928e-33 -4.246941e-06
000020 65 72 b1 8f a1 0e 54 3a 87 24 23 30 e5 6f 30 b2
       -1.749761e-29 0.0008089338 5.9350963e-10 -1.026999e-08
000030 49 e9 90 3d a3 20 3e ab 8e d1 42 24 6b 89 21 39
       0.070757456 -6.754685e-13 4.2244544e-17 0.00015405349
000040 92 cf 8e 21 22 b4 97 ba f4 76 1c 39 91 39 0f 2c
       9.677238e-19 -0.001157407 0.00014921633 2.0353478e-12
000050 b9 74 20 18 a2 99 06 b9 e1 1b e9 33 9a 67 38 2e
       2.0738445e-24 -0.00012836469 1.0854979e-07 4.1928773e-11
000060 75 02 c0 be 65 d6 05 bf ad 5a 0d bd d1 00 14 2e
       -0.37501875 -0.52280265 -0.034510303 3.365203e-11
000070 28 01 e0 1f 46 d8 c1 93 a5 55 3f 14 9f b4 de 32
       9.48696e-20 -4.893331e-27 9.659926e-27 2.5926338e-08
000080 b2 d9 f4 b7 0a 2d ec 39 92 0e 02 3a 8d 49 44 bd
       -2.9188439e-05 0.00045046984 0.00049612776 -0.047921706
000090 9f f8 94 29 7b 70 d4 34 84 ad b9 b0 8a e8 c6 2b
       6.615649e-14 3.9569917e-07 -1.3509838e-09 1.4133289e-12
0000a0 ad 5c 82 35 eb 40 57 2d 2b f8 ca b5 32 5d 11 2b
       9.712727e-07 1.223575e-11 -1.5122399e-06 5.1643683e-13
0000b0 52 5d 29 b9 3e 74 66 3a 85 62 03 38 a9 1a 89 be
       -0.0001615186 0.0008791125 3.1324587e-05 -0.26778153
0000c0 09 b4 b9 be 4a 47 4b be b4 70 78 b9 40 ec 4b 35
       -0.36270168 -0.19851413 -0.00023693108 7.596718e-07
0000d0 29 60 54 0f 46 0e a3 ad 88 68 35 80 19 f0 b0 37
       1.0470927e-29 -1.8537293e-11 -4.90478e-39 2.109264e-05
0000e0 2e 2b a1 0f 6e bd af 37 00 ef 00 bf 16 19 d6 ae
       1.5892458e-29 2.0949836e-05 -0.50364685 -9.7360495e-11
0000f0 8e 80 a3 b1 da d5 93 92 0c 49 ab 2b 4b 07 b5 af
       -4.7585393e-09 -9.329723e-28 1.2170555e-12 -3.292889e-10
000100 35 24 93 3a dc a9 d7 b8 29 41 5c b3 1f b2 bb aa
       0.0011226 -0.00010283638 -5.1282004e-08 -3.334147e-13
000110 8d 55 8f 28 72 d5 83 39 c5 c8 41 3e 83 51 b5 be
       1.5913291e-14 0.00025145296 0.18924244 -0.3541375
000120 31 bb 4c 3d db 43 12 3a 3c fd 83 b9 dc 50 42 29
       0.049983207 0.0005579569 -0.0002517494 4.3146788e-14
000130 4f 69 35 00 1d 10 20 b9 e4 88 35 00 43 a0 f8 a6
       4.905059e-39 -0.00015264792 4.916388e-39 -1.7251896e-15
000140 f0 58 a5 1e b8 3b 96 be 06 ee a8 39 a7 27 cb 25
       1.7506838e-20 -0.29342437 0.00032220798 3.5241756e-16
000150 19 06 05 1c d2 dd af 38 4a ed de 34 97 01 89 09
       4.401389e-22 8.3859675e-05 4.1523373e-07 3.2983045e-33
000160 ad fe 8b a9 69 7f 35 80 5d 98 98 0e 75 44 ef b7
       -6.217019e-14 -4.912987e-39 3.7617614e-30 -2.8522898e-05
000170 1f 1b e4 38 87 10 ca 3e 0d 41 7e be e0 57 da 3e
       0.00010876939 0.39465734 -0.24829502 0.42645168
000180 77 1b 2d a2 48 21 72 a7 46 81 3b 37 91 52 3d 2d
       -2.3460412e-18 -3.3602288e-15 1.1176167e-05 1.076174e-11
000190 02 d7 92 98 d0 b2 11 39 91 0a a5 28 0d 8b 35 80
       -3.7957218e-24 0.0001389489 1.8323262e-14 -4.917163e-39
0001a0 30 a9 14 3f 9d 13 84 38 16 c4 dc 2f d7 12 96 29
       0.5807066 6.297904e-05 4.0157094e-10 6.6646063e-14
0001b0 2f 00 a6 26 54 e2 d9 2e 3d c0 cc b5 51 b0 bf 2d
       1.1518614e-15 9.9082215e-11 -1.5255133e-06 2.1792486e-11
0001c0 28 2e f0 b7 3f d4 64 3a e7 6c f5 b4 44 dc 33 a7
       -2.8631723e-05 0.0008729137 -4.5714043e-07 -2.4960646e-15
0001d0 40 9a 0b 3e 5f 38 f5 bd f5 dc 6a be 46 1b 3b b4
       0.1363306 -0.119736426 -0.22935851 -1.7425654e-07
0001e0 d9 4a a2 37 03 fb 8a aa 16 d7 df a6 fa 79 d8 a0
       1.9346759e-05 -2.46879e-13 -1.5532033e-15 -3.667254e-19
0001f0 98 02 8f ad 15 b0 f0 35 75 82 9c b2 38 ee 2a 3e
       -1.625837e-11 1.793264e-06 -1.8220115e-08 0.16692436
000200 06 e1 c4 1a c1 50 5c 39 42 a9 14 ab 79 ea d6 34
       8.1427245e-23 0.00021010918 -5.2815055e-13 4.0031208e-07
000210 7b bd 83 33 c7 dd 2b a5 27 29 e0 b8 94 d6 a8 b5
       6.134629e-08 -1.4907027e-16 -0.000106888176 -1.2579426e-06
000220 87 01 23 ba 63 14 93 35 79 d4 22 09 f4 53 0e be
       -0.0006218184 1.0958287e-06 1.9599945e-33 -0.13899213
000230 93 47 de bd 98 18 9f be 50 78 56 16 45 1e 89 b6
       -0.108534954 -0.3107345 1.7324746e-25 -4.086442e-06
000240 76 2f 0b aa 08 8c 72 25 19 34 02 ba ac 75 35 00
       -1.2362146e-13 2.1037598e-16 -0.00049668696 4.909494e-39
000250 fe 55 e6 ae 7c 41 31 2e 90 f6 74 be 30 e2 f6 2a
       -1.04744644e-10 4.0303302e-11 -0.23922181 4.3855327e-13
000260 b6 78 e2 b7 5d 2d cf 16 65 68 34 ba b4 70 06 a5
       -2.699751e-05 3.3471282e-25 -0.0006882011 -1.1660833e-16
000270 d9 da a4 a2 7f 64 0a a5 e1 4e 6a 8f bd ec 3a b9
       -4.4684003e-18 -1.2003641e-16 -1.1552282e-29 -0.00017826534
000280 a7 26 1a a9 70 17 48 25 f0 0d 8b 3e 23 23 12 bf
       -3.4228395e-14 1.7355176e-16 0.2715907 -0.57084864
000290 00 d6 ff 3e ce 36 8d 9e 6c b1 f9 23 9e 42 0c b8
       0.49967957 -1.4951622e-20 2.7071775e-17 -3.3440643e-05
0002a0 c5 7a a4 b5 4f af 11 af e2 cc d6 00 6b 54 ca 34
       -1.2254683e-06 -1.3249955e-10 1.9726294e-38 3.7686854e-07
0002b0 8d b7 70 1a 47 de fa be e0 7e 35 b5 2a 3c 87 23
       4.9779108e-23 -0.4899771 -6.761238e-07 1.466221e-17
0002c0 30 62 81 1a fa d2 b0 b0 fb d7 dc b9 6f 3f f0 2a
       5.351178e-23 -1.2865649e-09 -0.00042122588 4.267658e-13
0002d0 d1 04 d8 ab 75 f6 28 31 bd 9d 9d 36 e6 25 36 b2
       -1.534906e-12 2.4587312e-09 4.6973278e-06 -1.0602411e-08
0002e0 af 45 78 ac ca 30 c5 3e f7 1e 0a 3f de 6d fd 06
       -3.5281602e-12 0.38513786 0.539535 9.532946e-35
0002f0 6c 4b 3e 12 64 5d 24 92 f4 39 21 3a 8d 49 91 1f
       6.0046393e-28 -5.186439e-28 0.0006150298 6.153157e-20
000300 7c 68 1d 39 16 61 62 9e 73 a4 a6 32 84 21 b3 32
       0.0001501161 -1.1984417e-20 1.9399726e-08 2.0853584e-08
000310 ea e6 b8 be 8e 18 26 2c 5a bb 72 31 87 db f7 b5
       -0.36113673 2.360365e-12 3.5322132e-09 -1.8466825e-06
000320 dc e2 5f b8 57 af 0f 35 cd 38 8d 98 c8 d8 34 2d
       -5.3378622e-05 5.3526804e-07 -3.6505e-24 1.02799505e-11
000330 4f f5 32 b7 b3 1f ef 1b a9 e6 74 b9 cf f3 02 81
       -1.0666742e-05 3.9559718e-22 -0.00023355581 -2.4052153e-38
000340 d5 66 62 be af ac 4e bd 2a ec 08 be 37 f8 8d 36
       -0.2210954 -0.050457653 -0.1337134 4.2310235e-06
000350 f1 9a 7f 35 f5 1a 6b b5 c4 82 35 00 d9 b6 99 38
       9.522037e-07 -8.758355e-07 4.914191e-39 7.3296666e-05
000360 9c 2b c0 b1 07 c3 38 2d 15 0f e4 1a 15 ee b0 3e
       -5.5928933e-09 1.0502494e-11 9.4322956e-23 0.34556642
000370 ba 73 a0 a5 0b ee 28 b7 c6 a2 f0 2f b0 f8 8b 33
       -2.7833995e-16 -1.0069004e-05 4.3771403e-10 6.517928e-08
000380 57 5c f8 b8 c9 65 d4 86 f9 76 35 80 71 f4 63 a8
       -0.00011842761 -7.9895097e-35 -4.90996e-39 -1.2654036e-14
000390 f4 08 be 27 41 f3 c7 35 bb 86 00 05 a1 c2 05 bf
       5.27453e-15 1.4897452e-06 6.043277e-36 -0.52250105
0003a0 dd 49 02 bf 0c bd 23 3d 7d c7 15 80 dd 13 be 32
       -0.50893956 0.03997521 -2.000108e-39 2.2127944e-08
0003b0 0a 8e 63 34 8b ee 97 34 c7 0b 66 ba f6 5c 4d 9f
       2.1192696e-07 2.8299505e-07 -0.00087755587 -4.3487334e-20
0003c0 7f ab db b7 db 5a bf b6 39 4c b1 3e f7 2e c5 af
       -2.6186694e-05 -5.7028205e-06 0.34628466 -3.5867462e-10
0003d0 e9 f7 91 ba 77 f0 e5 b9 18 d4 06 9e 51 36 59 91
       -0.0011136505 -0.00043857444 -7.137761e-21 -1.7135019e-28
0003e0 ea 55 52 30 74 7e d0 b8 f4 d9 05 80 39 96 72 a7
       7.6519646e-10 -9.9417666e-05 -5.37364e-40 -3.3665682e-15
0003f0 e8 7f 04 80 2b af d4 39 2c 92 b4 be 3b 34 f7 3e
       -4.13226e-40 0.000405663 -0.3526777 0.48282036

bond_lin.bias f4 [300]
000000 bd 72 f7 bd ec f3 f2 bc 00 c1 5d be 9b 41 7d be
       -0.120824315 -0.029657327 -0.21655655 -0.24732058
000010 2a cf 86 bd ee 19 0a bd 38 49 07 3e 0b 49 a1 bd
       -0.06582482 -0.033716135 0.13211524 -0.0787526
000020 b6 47 ad 3e 46 71 a8 bc 3f 50 05 3d 49 08 9f 3d
       0.33843774 -0.020561825 0.03254723 0.07765252
000030 87 99 a7 3d 04 43 31 be ee 06 57 be 9b 44 e5 bd
       0.0818358 -0.1731072 -0.20998737 -0.11194726
000040 b0 f5 9d 3e db 60 2d be c4 eb 76 bd 0d 25 35 be
       0.30851507 -0.16931479 -0.060283437 -0.17689915
000050 1d 34 84 bd d4 ee 9c bd c0 0b 08 be 55 54 7d be
       -0.06455252 -0.0766274 -0.13285732 -0.24739201
000060 d5 32 c2 bd aa 71 11 be a3 a2 08 3e 4a 9c 4e be
       -0.09482352 -0.14203516 0.13343291 -0.20176807
000070 66 96 8d be fe 72 db 3d 6c 29 36 3d 28 61 28 3e
       -0.27653807 0.107152924 0.044473097 0.16443312
000080 3a e7 09 be 99 8b 39 3e 08 3c a8 bd 4e 6b 35 be
       -0.13467112 0.18119659 -0.08214575 -0.17716715
000090 ea ce f5 3e b7 31 e6 3c ff 90 04 3e eb 84 64 3e
       0.48009425 0.028099878 0.12945937 0.22316329
0000a0 c6 d7 b2 bd eb ba 7b 3e ab be ec 3c 6d f1 80 be
       -0.08732562 0.24583022 0.028899511 -0.25184193
0000b0 15 42 13 be 59 c2 1a be ff 26 0c 3e 57 04 0c 3e
       -0.14380677 -0.151132 0.13686751 0.1367353
0000c0 08 3f ca 3d ab dc 3e be 76 24 37 3e c2 a0 80 3b
       0.098753035 -0.18638866 0.17885002 0.003925414
0000d0 18 7c c2 bb 7e 59 1b 3e c0 0f 13 bd d9 85 d5 bd
       -0.0059352033 0.15170857 -0.035903692 -0.1042592
0000e0 b3 84 14 3e 39 72 19 3e d9 d7 df 3d 7d 94 f6 3c
       0.14503746 0.14984979 0.109298415 0.030100102
0000f0 ae 21 9b 3e a4 1e 12 be d0 d1 ab bd 10 b4 78 be
       0.30299133 -0.14269501 -0.08389628 -0.24287438
000100 2b 6f 9c 3d db b3 6c bd 06 19 b9 3c 2d f7 e8 bd
       0.07638391 -0.05778871 0.02259494 -0.1137527
000110 91 3f 15 be 2d 6d 3c be e9 92 b6 3a f7 61 65 3e
       -0.1457503 -0.18401022 0.0013929281 0.22400652
000120 0e 96 16 be 90 ca 1e be 83 32 30 be 1b 9c 27 3e
       -0.14705679 -0.15506959 -0.17206769 0.16368143
000130 8e e8 dc 3d 3e 85 c7 3c 2e 2a 0c 3e d0 30 ce bd
       0.10786544 0.024355527 0.13687965 -0.10067904
000140 87 ca 44 be 9c 8b 78 be 34 72 61 be 03 b2 0c 3e
       -0.19217883 -0.24272007 -0.22016221 0.13739781
000150 05 67 2e 3e 45 19 43 3e b9 43 f6 3c 84 8e de ba
       0.17031486 0.19052608 0.03006159 -0.0016979729
000160 c4 ab 1d bd 2c 12 42 be ed a2 a5 bc 6b 6b 87 bd
       -0.038493887 -0.18952245 -0.02021929 -0.06612285
000170 59 00 4b be e0 46 25 3e 8c 93 ff bd 05 04 f2 3c
       -0.19824351 0.16140318 -0.12479314 0.029542932
000180 ed 0b 13 be eb 51 aa 3d 58 5e e9 3d eb e7 2e 3c
       -0.14360018 0.08316406 0.11394948 0.010675411
000190 1c aa 04 3e cc 8b fd 3d f1 2a f5 3d c8 54 ee 3d
       0.12955517 0.1238018 0.11971081 0.116372645
0001a0 73 de 25 3e d1 cc 8e bd b7 26 50 be 20 8d f7 bc
       0.16198139 -0.069726594 -0.20327269 -0.03021866
0001b0 03 e7 0d be 9c 9d b1 bb 42 d9 7c bd cb 36 98 bd
       -0.13857655 -0.0054204 -0.06173063 -0.07432326
0001c0 c9 76 ad 3d 52 c3 17 3e 00 e2 68 3e c1 24 9b bd
       0.08469922 0.14820603 0.22742462 -0.075753696
0001d0 80 9e 07 3d 51 d6 5a 3d eb 51 6e 3e 21 e9 a1 3d
       0.03311014 0.053427044 0.23273437 0.07905794
0001e0 60 0f d5 bd 12 0a 67 3e 10 cb 59 be 6a be 2e 3e
       -0.10403323 0.22562435 -0.21268868 0.17064825
0001f0 a6 76 8a be d8 5e 2e be 21 25 57 bd 32 2e 4a 3e
       -0.27043647 -0.17028368 -0.052525643 0.19744185
000200 0f c3 16 3e 3c 52 ef 3d 7b d6 0a be 01 98 4b 3e
       0.14722846 0.11685607 -0.1355838 0.19882204
000210 94 fb 1f be 89 97 1b be 0d 82 3f 3d e3 fe 48 be
       -0.15623313 -0.15194525 0.046754885 -0.19628482
000220 d4 d6 5f 3d 6b 95 87 3e 85 f0 8b bd 1a d0 a9 bd
       0.054648235 0.26481184 -0.06832985 -0.08291645
000230 fb 17 57 3d 2e 97 bf 3d d4 db 4b 3d 5b 11 5c 3e
       0.052513104 0.09355007 0.04977019 0.21490996
000240 0c 07 18 3e 98 e7 23 3e a1 1a ba bd 62 71 2e 3e
       0.14846438 0.16006315 -0.0908711 0.1703544
000250 53 66 a3 be 50 fe 4c 3e 61 38 3b bd 2f ac 12 3e
       -0.31914005 0.20018888 -0.045708064 0.14323495
000260 36 e5 ea 3b a6 af 8a 3e 1c ca 7c bd ab 43 81 3e
       0.0071684374 0.27087134 -0.061716184 0.2524694
000270 ee fc 3e 3c a8 ec 79 bd d7 02 6f 3d 8e 91 5c 3e
       0.011656983 -0.06101671 0.058352318 0.215399
000280 59 0a 31 be 9e c5 e6 bd 4d 23 6f be 2c c6 3c 3e
       -0.17289104 -0.11268161 -0.2335331 0.18434972
000290 13 9f 26 3e d4 da a0 bd 69 af 76 be ef fa 74 bd
       0.1627162 -0.07854238 -0.24090351 -0.05980962
0002a0 cc 38 0c 3d 76 6d dc bd 54 02 f7 bd 93 ec cf bc
       0.034233853 -0.107630655 -0.12060991 -0.025381362
0002b0 b5 4e ba bd 15 ac 13 3d d0 12 8f bd 61 50 8c bc
       -0.090970434 0.036052782 -0.0698601 -0.017128171
0002c0 86 7f 67 3d fa 59 02 bc c7 a8 09 be 2b 16 6c 3e
       0.0565181 -0.007956022 -0.1344329 0.23055331
0002d0 ec bf 3b be c8 7d 04 be 37 5a 2b 3e f7 ee 34 bd
       -0.18334931 -0.12938607 0.16733633 -0.044173207
0002e0 53 59 22 be 0f bc 82 3e ed 38 b0 3d d1 b7 c3 bd
       -0.15854387 0.25534102 0.08604608 -0.095565446
0002f0 e2 14 37 3e 6c 81 27 3d 47 cf a3 bd 1f db 8e be
       0.1787906 0.04089491 -0.079985194 -0.2790155
000300 24 81 d9 3d 0a 87 7f bd 08 dc 3a 3d 33 dd 55 3d
       0.10620335 -0.062384643 0.045619994 0.052212905
000310 d0 1e 13 be 5b 8e c4 bd ac 67 5b 3e ee 7b 5e 3e
       -0.14367223 -0.09597465 0.21426266 0.21726963
000320 76 d6 c8 3d 9d b3 30 bb 9d 99 0e be dd 5f 08 3d
       0.0980653 -0.0026962527 -0.13925786 0.033294547
000330 d7 06 8e 3c a8 b3 24 3e 70 f4 3d be c0 cd 57 3e
       0.017337246 0.16084158 -0.18550277 0.21074581
000340 8e ed 11 3e 0c 71 30 bd a2 86 8f 3e bd 9f ba 3d
       0.14250776 -0.04307656 0.28032404 0.09112499
000350 34 69 23 3e 8d 11 4d 3d 65 20 35 bc a2 ff 1f bd
       0.159581 0.050065566 -0.011055087 -0.03906215
000360 0f b8 84 be 68 53 2d be 25 06 81 bd bb c2 60 3e
       -0.25921676 -0.16926348 -0.063 0.21949284
000370 1a d8 25 be 50 70 e2 3d 27 53 1a 3e 11 41 28 be
       -0.16195717 0.11056578 0.15070783 -0.16431071
000380 8d 4f 2c 3d 39 72 7f 3e 44 02 30 3e fd b9 d1 bd
       0.042068053 0.24945916 0.17188364 -0.102405526
000390 1d 4e 5c 3c 94 fe 6e be 08 51 7b 3d 3b eb e2 3c
       0.013446358 -0.23339301 0.061356574 0.027700057
0003a0 d3 e9 0d be 3a 07 38 be 13 34 32 be 74 cf 16 be
       -0.13858728 -0.17971507 -0.17402677 -0.14727575
0003b0 8b cc 63 3d 1f 8f dd bd 57 91 5b be b0 af 6f be
       0.05561499 -0.10818314 -0.21442162 -0.23406863
0003c0 4a 1b 22 be e7 b1 a7 3e 08 1b 1c be fd 91 a7 3d
       -0.15830722 0.32752916 -0.15244687 0.08182142
0003d0 2b c4 0c 3d 51 1b 0f be 02 8f 71 3e 69 c0 2f bd
       0.034366768 -0.13975264 0.2358971 -0.042908106
0003e0 56 e7 cc 3d 5b b6 63 3e cb 52 b1 3d 8f 62 c4 ba
       0.10005061 0.22237532 0.0865837 -0.0014982986
0003f0 eb 81 ab 3d 51 04 93 3c 4f 58 94 bd d5 ee 49 be
       0.08374389 0.017946394 -0.07243406 -0.19720013

energy_lin.1.weight f4 [300, 300]
000000 0e 3a 27 3d c2 92 03 3e a3 af 42 3e 78 d9 ad b9
       0.04082685 0.12848952 0.19012313 -0.00033159158
000010 97 a8 ef 3d 7a 1f 8a 3d 74 1d 20 3e cc 0e 4e bd
       0.11702078 0.06744285 0.15636235 -0.05030708
000020 49 4b 22 be 14 cd e6 bc 2c ef 1b bc 49 ea 8e 3d
       -0.15849032 -0.02817396 -0.009517472 0.0697828
000030 37 9f 8a bd 2b 5e 6c 3d 52 47 c5 bc f5 7d 55 bd
       -0.06768649 0.057706993 -0.02408186 -0.052122075
000040 ca 16 83 3d ef ef 93 bd e4 4b f8 3d 93 6f 9b 3d
       0.06400831 -0.07223498 0.1212385 0.075896405
000050 49 6d 00 3e 98 59 fb 3d 8a 6c a4 3b 07 b5 e2 bc
       0.12541689 0.12272948 0.0050178217 -0.027674211
000060 0f 1d 62 bd 2f 3b 90 3c d1 eb ab bd 73 46 01 3e
       -0.055203494 0.017606346 -0.08394588 0.1262453
000070 fc 36 b3 bc 96 e0 28 3e 56 fd 37 3a fa 06 f1 3c
       -0.021876805 0.16491923 0.0007018646 0.029422272
000080 08 86 34 3e 7e 06 57 bc df 44 14 bd 3e f5 cb bc
       0.17629254 -0.013124106 -0.036198493 -0.024897214
000090 ed 35 af 3e 19 97 80 3c b8 09 bc 3d c1 10 ee 3d
       0.3422083 0.015697049 0.09181541 0.11624289
0000a0 ad d5 f9 3d 06 1c eb 3d 99 8e c4 3d cc 52 25 3e
       0.121989585 0.114799544 0.09597511 0.16144866
0000b0 58 20 b3 bd 43 1f 7a bc 8b 8f 92 3d cf 04 86 39
       -0.087464035 -0.015266242 0.07156285 0.00025562054
0000c0 2c 8d e3 bd b1 4c 19 3d b9 6e ab 3c e4 78 19 3d
       -0.11110911 0.037426654 0.02092682 0.037468806
0000d0 70 67 0d 3e a4 bf 18 bd 43 9b 96 3e 28 42 10 bd
       0.1380899 -0.037292138 0.2941533 -0.03521934
0000e0 39 2b f1 3c a5 42 02 bd 9d e0 04 3e ee 4e e4 bc
       0.029439555 -0.03180184 0.12976308 -0.027869668
0000f0 e4 f7 2f 3b d2 3b 56 bd c7 78 8b bd f6 1c 11 3e
       0.0026850635 -0.052303143 -0.06810146 0.14171204
000100 47 bf d2 3d 5d 19 12 bd c9 c4 77 3c b4 d4 cc bd
       0.102903895 -0.03566872 0.015122601 -0.100015074
000110 ce dc 21 3d 82 7d c2 3d ee 4c 90 3d 00 cb d5 3d
       0.039517216 0.09496595 0.07045923 0.1043911
000120 01 c3 48 bd cd b4 10 3e db ed eb 3c 00 b1 44 bd
       -0.049014095 0.1413147 0.028799942 -0.048020363
000130 0d 51 9a bd cf 15 05 3e 4c 52 c2 3d c5 bf a0 bd
       -0.075349905 0.129966 0.09488353 -0.07849077
000140 56 fe e1 3c 6c 0a d8 bd 0b fc 8c 3d ff 74 29 be
       0.027587097 -0.10548863 0.06884011 -0.16548537
000150 73 b9 87 bc 20 75 a8 b9 d0 cb ad bd 62 f3 01 3e
       -0.016567921 -0.00032130722 -0.0848614 0.126905
000160 8c 11 0e 3e 44 97 a4 bc 69 03 61 bd ab 56 f7 3d
       0.13873881 -0.02009166 -0.054934893 0.120770775
000170 c5 54 74 3d d5 05 0e 3e 65 b1 70 3d 7b 61 26 3e
       0.059651155 0.13869412 0.058762927 0.16248123
000180 61 21 c9 3d 76 55 2b bc cb 7f 1e bd 32 b8 7c 3d
       0.0982082 -0.010457387 -0.03869609 0.0616991
000190 ce db f3 bd 46 fe e7 bd fb ce b0 bd 88 6f fd 3d
       -0.11907159 -0.11327796 -0.086332284 0.123747885
0001a0 30 78 9c 3c 1f 61 3f 3c 6f db 2e 3e 45 95 9a be
       0.019100279 0.01168087 0.17075895 -0.3019201
0001b0 6f 16 fb 3d a1 8d 89 3d 6c 46 fb 3d 2f e4 ba 3d
       0.12260138 0.06716467 0.12269291 0.09125554
0001c0 b4 2b d1 bd 70 00 00 be b1 cf 00 3d 09 84 a8 bd
       -0.10213414 -0.12500167 0.03144807 -0.08228309
0001d0 92 05 bf bc 83 1a 98 bd b9 d7 9f 3d 9c ad 01 3e
       -0.023318086 -0.07426932 0.07804818 0.12663883
0001e0 db ce 2c 3d bb be a6 3d 4d f8 73 bd a4 d7 19 3d
       0.04218946 0.08141848 -0.05956297 0.037559167
0001f0 61 ee 04 3c 36 1f 12 bd ff 1b be bb b4 24 9e bd
       0.008113475 -0.035674296 -0.0058016772 -0.07721844
000200 f9 8a 0b be 37 5a 5f bd 35 72 aa bb 56 54 d8 bd
       -0.13627233 -0.054529395 -0.005201603 -0.10562961
000210 5d 4e 2b bd 2f ba 16 bd 96 95 67 3c f4 02 24 bc
       -0.04182278 -0.036798652 0.014134785 -0.01001047
000220 f1 99 c5 bd 48 ad c0 3c 5d 82 c4 bd b1 0a 89 bd
       -0.096485026 0.023520127 -0.09595177 -0.06691492
000230 94 fe c7 bd 05 a5 75 3d 03 1c ae 3d dc 2e b2 3c
       -0.09765354 0.059971828 0.085014366 0.02175086
000240 ea 8d d4 3d 63 13 5e 3d 0d 35 3f bd 88 38 dd 3d
       0.103786305 0.054217707 -0.046681453 0.10801798
000250 71 4b d2 3d e9 50 2c bc 38 52 2c 3e 82 93 33 bd
       0.102682956 -0.010517337 0.16828239 -0.043841846
000260 23 4f 44 3e 68 44 ac bc 9d 84 c6 3d ea 1b 98 3d
       0.19170813 -0.021028712 0.09693263 0.07427199
000270 08 e8 03 3d 14 ac 2d 3d 5d 8b ab 3d 62 ba b8 bb
       0.032203704 0.042400435 0.08376191 -0.005637453
000280 17 16 68 bc da 59 03 3e 3f 18 17 3e aa f1 00 3e
       -0.014165423 0.12827244 0.14755343 0.12592188
000290 05 ed c5 3a 70 cd 84 3d 42 8a 3c bc 78 43 fe 3c
       0.0015100545 0.064844966 -0.011507573 0.031038031
0002a0 6d 71 6a bd e5 d4 dd 3c 75 40 a1 bd bb 5b 86 3e
       -0.057237078 0.027079055 -0.07873622 0.2624186
0002b0 f0 7e 9a 3b 78 11 d6 3d c6 96 8a bd 25 77 a1 bd
       0.004714839 0.10452551 -0.06767039 -0.07884053
0002c0 6f 02 10 3e 0a 55 01 3e ca 2d 16 3e 79 88 2d 3e
       0.14063428 0.12630096 0.14665905 0.16946591
0002d0 8f 39 2a be 4c 65 d4 bd 54 34 60 bd a6 d8 f5 bc
       -0.1662352 -0.10370883 -0.054737404 -0.030010533
0002e0 95 d3 0f bc c8 cd 2f be ed 45 14 3e 81 59 c2 bd
       -0.008778472 -0.17168343 0.144798 -0.09489728
0002f0 df 94 ae bd 57 9b c5 3d 18 53 72 3d 61 7a 53 3d
       -0.08524489 0.09648769 0.059161276 0.05163038
000300 e9 47 ec 3d 13 cb 42 3e 75 72 d2 bd b6 4c 9c 3e
       0.11537153 0.19022779 -0.10275737 0.30527276
000310 09 f0 e0 3d 46 f5 e8 bd d8 40 89 bd 26 46 e5 3d
       0.10983283 -0.11374907 -0.06701821 0.111950204
000320 24 d8 95 bd 76 72 07 bd 6b bc f3 bd 87 d0 89 3d
       -0.07316616 -0.033068143 -0.11901172 0.067292266
000330 f8 c9 16 bd ee 0c c1 3d b5 1b 05 3e a9 d2 3f 3d
       -0.036813706 0.09426294 0.1299885 0.04683176
000340 17 c1 67 3d d5 f1 e9 bd 7d 2e 24 be 3a 9f 24 3e
       0.05658063 -0.11423079 -0.16033359 0.16076365
000350 2e e4 72 bd a3 39 b2 bd 5e f0 b4 3d 38 3e f6 3d
       -0.05929964 -0.087023996 0.08834909 0.12023586
000360 bd 94 c5 3d 09 66 38 bd c7 1d 11 3d 71 67 74 3d
       0.0964751 -0.045019183 0.03542879 0.059668962
000370 a8 ce 2c 3e 89 c9 de 3d 03 cc fe bd ae 2f cc bd
       0.16875708 0.108782835 -0.12441256 -0.09970032
000380 c9 fc a8 bb 27 e6 1b be 74 88 bd 3c bb 82 d7 bd
       -0.0051570875 -0.15224515 0.023136355 -0.10522982
000390 38 c7 ea 3c 48 df 8b bb 6b f7 4b bc bd 2a c0 3c
       0.028659448 -0.0042685606 -0.012449126 0.02345788
0003a0 50 31 df 3d 4a d8 bf 3d 2f 93 a9 bc 97 29 c6 3d
       0.108980775 0.09367426 -0.020700065 0.096759014
0003b0 d7 c7 61 bc d3 fb 04 3e d8 0c 7e bb db 4a 00 3d
       -0.013780556 0.12986688 -0.003876498 0.031321388
0003c0 6c b7 56 3c de 5b 3f be a1 cb b5 bd 2d 9b 5e bc
       0.013105255 -0.18687388 -0.0887673 -0.0135868015
0003d0 5e 93 93 bb c2 33 8d 3d 57 0e 06 be 1d ed 0c 3e
       -0.0045036515 0.06894638 -0.13091408 0.13762327
0003e0 ff 4d 49 3e 12 59 a6 bd 0c 7f ac 3d f9 f7 e8 3d
       0.1965866 -0.081224576 0.0842267 0.11375422
0003f0 82 4e 50 bd 35 43 69 bd 34 9d 5c bc b1 c6 9e bd
       -0.05085612 -0.05694886 -0.0134652145 -0.07752741

energy_lin.1.bias f4 [300]
000000 47 1e b0 3c 88 d6 07 ba c0 3c d8 bc be 00 0d 3d
       0.021498812 -0.0005181809 -0.026396155 0.034424536
000010 7d c7 1a bd e3 fb 84 3b 15 48 35 3c 54 04 5f 3d
       -0.037787903 0.0040583475 0.011064549 0.054447487
000020 2b 77 82 bc f6 8e 94 b9 7a e8 9a 3c c7 c8 d4 3a
       -0.015925964 -0.00028335274 0.018909682 0.0016234153
000030 20 b2 ac 3c dd 8b 88 bc 2b b8 61 3c b2 13 a4 bc
       0.02108103 -0.016668255 0.013776819 -0.020028923
000040 27 bd 86 3c c7 c5 2f bc fd f2 ca 3c ad c0 12 3c
       0.016447617 -0.010728306 0.024774069 0.00895707
000050 64 1f 16 3d 00 38 37 bd 8f 58 7d 3d 78 99 e6 3b
       0.03665103 -0.04473114 0.061852034 0.007037338
000060 bc 72 bc bc df db 91 3d b0 7f f7 3c c1 7b aa 3c
       -0.023003928 0.07122015 0.030212253 0.020810964
000070 ba b6 91 3b 04 e3 0f 3c ad 91 65 3c 59 87 92 bc
       0.0044468315 0.008782152 0.014011783 -0.017886804
000080 d0 3d b4 bc 08 51 9d 3d 9f 57 b6 3c 95 d4 d0 3c
       -0.02200213 0.07681471 0.022258578 0.025491992
000090 a7 97 39 bc c1 e6 41 3d 8a 39 05 3d c7 86 61 3b
       -0.011327661 0.047339205 0.032525577 0.003441261
0000a0 64 bd 0f bd 6c 48 7b 3d 09 68 7a 3b dd 19 17 3c
       -0.035092726 0.061348364 0.0038208982 0.009222475
0000b0 a6 0f 44 3d 10 ac 21 3d 50 0b 6f 3d 0b db 84 bc
       0.047866486 0.039470732 0.058360398 -0.01621773
0000c0 3e 9f c6 bc cf 13 31 bd b9 7e b0 3c fc f4 4f 3d
       -0.024245854 -0.04323178 0.021544801 0.050770745
0000d0 d6 25 74 3d 0c 7f b1 39 85 10 03 bc e2 27 6d 3b
       0.059606396 0.00033854728 -0.007999544 0.0036187102
0000e0 72 3a dd 3c e7 31 6d 3d ac 89 41 bd 38 b0 8b bb
       0.027005408 0.05790892 -0.047250435 -0.0042629503
0000f0 58 81 f4 bc 0e 5b af bc e7 a7 cd 3c 64 2c 5e bd
       -0.029846832 -0.021405723 0.025104476 -0.054241553
000100 11 45 8b 3c 83 94 50 3d f1 99 fc 3c cb 2a 30 bd
       0.017000707 0.05092288 0.030835124 -0.04300956
000110 05 94 03 3d 6f bb 98 3c 51 bf 07 3d d9 0c d8 bc
       0.032123584 0.018644063 0.033141438 -0.026373314
000120 6d 00 4a 3d 43 ee 1d bc d7 cf 05 3d 8c 37 17 3d
       0.049316812 -0.009639326 0.032668915 0.036918208
000130 45 0d 8c 3d ae 8e 79 3b 42 75 3a 3d 8c 73 bd 3b
       0.068384685 0.0038079428 0.045521982 0.0057815965
000140 a2 2f 93 3d a3 54 45 bc 46 3f 00 3c aa 53 36 3d
       0.071868196 -0.012044105 0.007827586 0.044513382
000150 fc 38 83 3c 54 0e 72 3d ef 23 52 bc 32 ea 9b bc
       0.016018383 0.059095696 -0.01282595 -0.019032571
000160 de b4 f4 bc 90 2d 1a 3c 16 61 4e 3d 5c 4b 87 3d
       -0.0298714 0.009410277 0.050385557 0.066061705
000170 49 a0 ae bc 25 c8 f7 3b 1e 18 ac bc 87 54 40 3d
       -0.021316664 0.007561701 -0.021007594 0.04695561
000180 ba 66 8d 3d 7c 9d f3 bb 03 d5 07 bc 4f ca 39 bd
       0.06904359 -0.007434545 -0.008290532 -0.045358952
000190 85 23 98 3d 13 d6 f7 bb 1d 51 89 3d fd 56 23 3d
       0.0742865 -0.0075633614 0.06704924 0.03987788
0001a0 11 01 4e 3d 7f 0a 7f bd e2 8d 3c bb 87 48 89 3d
       0.050293986 -0.06226587 -0.0028771092 0.067032866
0001b0 ee 0f 3a bc c7 c6 61 3d 54 28 c8 bc 1b 0e 88 3d
       -0.011356337 0.05512121 -0.024433292 0.066433154
0001c0 6b ea 62 bd e7 57 52 3d 84 d5 ba bc 93 2c 89 3d
       -0.05539934 0.05135336 -0.02280689 0.06697955
0001d0 fa 7d 4c bc ae 8a 01 bd 52 dc 60 3d 6e 44 95 3c
       -0.012481207 -0.031626396 0.054897614 0.018221106
0001e0 d8 5a d7 bc 33 d2 ce 3b bf 8a cf bb e2 46 c4 bc
       -0.026288435 0.006311679 -0.0063336785 -0.02395958
0001f0 e2 73 ec ba 9e be 80 3b 7c 23 a3 bb 47 0a 43 3c
       -0.0018039907 0.0039289733 -0.0049785953 0.011904306
000200 78 19 1c 3d 27 6c b2 bc c7 0d f0 bb d0 ad 4c bb
       0.038110226 -0.021780087 -0.007325861 -0.003123153
000210 7b 78 2f 3d 3f 84 80 39 33 ec 48 bd be fb a9 bb
       0.04283951 0.00024512594 -0.049053382 -0.0051874807
000220 3b e9 a8 3b 47 0f 05 bc 0c 9a ad 3c ce b2 8f 3d
       0.0051547564 -0.008121318 0.02119162 0.07016526
000230 04 db 33 3c 99 80 74 3d 1a 17 4f 3d 98 03 87 3d
       0.01097751 0.059692953 0.05055914 0.06592482
000240 81 80 33 3d ef 82 15 3d 02 a9 c0 bb 6e 12 fb bc
       0.043823723 0.03650182 -0.0058795223 -0.030648436
000250 ca 13 12 3d e5 50 8e 3d 09 c7 b0 bb 13 8b 29 3d
       0.035663404 0.06949023 -0.0053948206 0.041392397
000260 66 a6 1c 3d b7 21 58 bd bd 41 cb 3d ba 62 9d 38
       0.038244627 -0.052766528 0.09924648 7.504733e-05
000270 8b 7b 03 bd ca af 81 3c 60 3a c8 3c 28 d4 2d bd
       -0.03210024 0.015830893 0.024441898 -0.042438656
000280 87 01 92 3d 16 54 c9 ba 4f 24 67 3d 79 3f 40 3d
       0.071291976 -0.0015360143 0.05643111 0.046935532
000290 8d 9d 90 bc fa 8c 84 3d 80 96 4e 3d 53 d3 a5 3c
       -0.017653251 0.06472202 0.050436497 0.020242369
0002a0 db d7 43 3d 07 61 35 bd 5c 63 69 3d 67 d1 d2 3c
       0.047813278 -0.044281986 0.056979522 0.025734616
0002b0 3c 0b 0b bc 3f 05 8f 3d 77 b7 1e 3d 70 7f 84 3d
       -0.008486565 0.069834225 0.038749184 0.06469619
0002c0 a6 99 35 bb d6 24 74 3d c5 2a 3a bb 8e e9 8c bc
       -0.002770999 0.059605442 -0.002840684 -0.017201211
0002d0 fd 10 a1 3d ad 4a 9d 3d 9d 4f 05 3d 9a 99 88 3d
       0.078645684 0.07680259 0.03254663 0.06669922
0002e0 39 3e 21 3d e1 a8 6a 3d 57 3f 32 3d 99 36 90 3d
       0.03936598 0.05728996 0.043517437 0.07041664
0002f0 36 29 8b 3c bb da 9f 3c 8d 75 77 3d 18 76 52 bd
       0.016987424 0.019513479 0.06041484 -0.051382154
000300 3d 61 0f bd b4 9f 51 ba ec 23 12 bd 9f b0 e7 ba
       -0.035004843 -0.0007996515 -0.03567879 -0.0017676539
000310 17 bc bf bc c7 5d 6d 3d c3 e5 6f 3d 16 af 0f bd
       -0.023405118 0.05795076 0.058568727 -0.035079084
000320 50 4e 11 3e 87 b6 e9 3c 27 bd 7a bc 32 68 36 3d
       0.1419003 0.028529419 -0.0153038865 0.044532962
000330 86 79 69 3d 46 87 28 3d 49 8c 77 bc 9d db 45 3d
       0.05700066 0.04114463 -0.01510913 0.048305143
000340 17 aa 46 3d d1 2f 06 bd 42 eb 08 3d f5 44 82 bc
       0.048502054 -0.032760445 0.033427484 -0.015902022
000350 d8 c6 22 bc 15 ae 5e 3d d4 0f ad 3a 7f eb f5 3c
       -0.009935103 0.054365236 0.001320357 0.03001952
000360 11 d8 05 3c 02 a9 c5 3c 7c b6 9a 3c 4c fd 47 3d
       0.00816919 0.02412844 0.018885843 0.048825547
000370 86 f2 2a bc 23 e4 99 bc d6 f1 3c bc 11 f8 b7 3d
       -0.010433799 -0.018785542 -0.011532268 0.08982862
000380 a6 b3 82 3d ae be ed 3c 26 1a 39 3d 96 f0 a4 3d
       0.063819215 0.029021587 0.045190953 0.080537006
000390 b0 c8 29 bd db 99 1e 3d f8 c1 1a bd b9 d4 0d 3c
       -0.041451156 0.038720947 -0.03778264 0.008656674
0003a0 a0 98 b4 3d 95 f0 86 3d ab 15 14 bd d0 9d 19 ba
       0.088181734 0.06588856 -0.036153477 -0.0005860003
0003b0 09 f4 84 3c 2a d8 ea bb 64 36 6d 3d 30 dc 01 3d
       0.016229646 -0.007166882 0.0579132 0.031704128
0003c0 3f a8 da bb 13 60 fd 3b 4c 17 32 3d 83 33 a2 3d
       -0.0066728885 0.0077324 0.04347925 0.07919981
0003d0 8b f1 cd bc dd 37 5f 3d 67 ba d9 3c fe be ba 3c
       -0.02513959 0.054496635 0.026578141 0.02279615
0003e0 ca 8d 75 3d 22 b0 3f 3d 2c 86 c1 3d ba 0b 1b 3d
       0.059949674 0.046798833 0.094494194 0.03785298
0003f0 ec 2f 71 bd c5 60 19 3d c0 9b 7a 3d 30 e1 85 bd
       -0.058883592 0.037445802 0.06118369 -0.06537092
