models/mpnn_A139_B23_E300_L2/81.pt (torch, 742651 bytes, 9 tensors)

atom_lin.weight f4 [300, 139]
000000 9c 04 62 3d 1c bb 93 3c e3 e8 24 9f 92 3c be 9d
       0.055180177 0.018033557 -3.492099e-20 -5.035521e-21
000010 29 fc 14 14 fb de 1d 00 c2 c2 67 3d 39 79 37 bd
       7.52182e-27 2.74322e-39 0.05658222 -0.04479334
000020 ac 61 c5 bc da 84 19 bd 54 b5 7d 9f fd 73 02 a3
       -0.024094425 -0.037480213 -5.3724825e-20 -7.071876e-18
000030 38 e3 9c 3e 1f 48 a5 9e ef 71 35 80 bc 4f 4f be
       0.30642104 -1.7499883e-20 -4.908153e-39 -0.2024526
000040 41 12 9d bd d4 55 2e 3d ad f3 69 9c 30 58 11 a6
       -0.07669497 0.04256232 -7.7408177e-22 -5.0426497e-16
000050 98 78 dc 28 e8 0d dd 9d 2d b0 29 1e bc a5 1d a0
       2.4477206e-14 -5.851259e-21 8.983218e-21 -1.3353254e-19
000060 27 e2 84 a2 07 42 10 be f3 68 1b be 5a 96 73 be
       -3.601812e-18 -0.14087687 -0.15176754 -0.23787823
000070 58 1a 8f 20 4a 09 e5 a4 e6 f6 c8 29 78 2a 7f 98
       2.4242575e-19 -9.9328655e-17 8.924614e-14 -3.2979419e-24
000080 7c f3 5b 9c 70 1e 38 8d 2a 47 0d 98 3c 8a 1e bd
       -7.277572e-22 -5.6736015e-31 -1.8259752e-24 -0.03870605
000090 b9 33 5d 82 84 23 88 a7 52 90 b3 a6 06 d6 15 16
       -1.6251359e-37 -3.778609e-15 -1.2459738e-15 1.2103658e-25
0000a0 1d 13 1b 23 cd f3 2d 20 44 7d 76 1e 1d 9b d5 a0
       8.406614e-18 1.4734337e-19 1.3049036e-20 -3.618625e-19
0000b0 70 cc ff 20 58 54 5a a8 e0 16 3e 26 a7 db c3 29
       4.3333966e-19 -1.211972e-14 6.5950493e-16 8.697843e-14
0000c0 14 71 fa 18 21 5f be a5 5e df 18 9b fc cf 07 17
       6.4737665e-24 -3.3024208e-16 -1.2645319e-22 4.3883366e-25
0000d0 74 ba 16 9b 99 2c 07 bc ea 34 4b 06 79 23 a5 99
       -1.2467955e-22 -0.008250379 3.8218932e-35 -1.7074927e-23
0000e0 b8 a0 4a 19 56 c0 3e 8d 24 86 35 80 52 a8 57 8f
       1.0475612e-23 -5.8779786e-31 -4.915402e-39 -1.0632736e-29
0000f0 0e 17 cc a3 05 06 4f 29 b7 27 09 27 e7 7c 70 97
       -2.2127488e-17 4.5968454e-14 1.9034099e-15 -7.770583e-25
000100 21 bf 4a 8e 8d 5d b0 a7 c3 11 86 a3 6d 14 26 29
       -2.4990448e-30 -4.895124e-15 -1.4535831e-17 3.687712e-14
000110 16 7d 89 99 52 e8 29 28 91 3e 11 16 28 0f 48 06
       -1.421599e-23 9.431761e-15 1.1732749e-25 3.7626954e-35
000120 f9 81 be a8 35 d5 e9 9d 50 0a 84 22 cb 01 51 9f
       -2.1150604e-14 -6.1895037e-21 3.578959e-18 -4.4258955e-20
000130 2f e9 04 03 8d b2 e9 a9 7e 83 70 1a 16 8c 35 80
       3.9058995e-37 -1.0378252e-13 4.9737055e-23 -4.917535e-39
000140 b2 75 35 00 a8 3e 4d 2a cc 30 91 a8 6c 38 41 17
       4.909502e-39 1.8229396e-13 -1.6119396e-14 6.243288e-25
000150 66 18 63 26 07 16 42 1e ac c3 76 29 73 01 25 a0
       7.878951e-16 1.027483e-20 5.479269e-14 -1.3976523e-19
000160 6b be f2 8d 5f 4f 89 a0 f2 6d 35 00 d7 6e 7c 22
       -1.4960243e-30 -2.3261226e-19 4.906722e-39 3.4211047e-18
000170 d4 06 88 17 19 a4 f7 a3 bf 82 24 8e 94 2f c7 9c
       8.790518e-25 -2.6849292e-17 -2.0277513e-30 -1.3181014e-21
000180 c9 d1 3e 96 a2 97 11 a5 69 f8 b0 1b 23 78 3c 12
       -1.5414274e-25 -1.262812e-16 2.927729e-22 5.947042e-28
000190 a3 e2 3d aa 91 45 9d 05 22 39 a1 24 f8 30 19 a3
       -1.6865203e-13 1.4789764e-35 6.9919407e-17 -8.304516e-18
0001a0 df 40 e9 18 ef 0d 2a 0f 8d f3 50 28 e3 32 32 24
       6.029459e-24 8.384331e-30 1.1599131e-14 3.86407e-17
0001b0 ba ef 45 89 d6 c7 b2 a0 0c 6c 35 00 36 10 96 a8
       -2.3825731e-33 -3.0286613e-19 4.906041e-39 -1.6660376e-14
0001c0 f1 7f 81 1e 53 84 1e a9 d4 ef ae 0d af 6d 33 28
       1.3711322e-20 -3.519782e-14 1.0781314e-30 9.96028e-15
0001d0 62 81 35 00 c1 78 35 80 b5 48 fa 07 88 7c 42 bd
       4.913695e-39 -4.9106e-39 3.7658553e-34 -0.047482044
0001e0 15 4e 88 3e 3e 92 56 3e 61 04 20 be b8 21 69 3e
       0.26622072 0.20954224 -0.1562667 0.22766769
0001f0 26 0b 56 1c ac a9 6d 3d 3d b0 08 2a 58 24 f8 1e
       7.082107e-22 0.05802314 1.2140371e-13 2.6273053e-20
000200 b1 eb 0e 3e 94 84 45 3c 21 e8 6d be 3e fe df bd
       0.13957097 0.012055535 -0.23233081 -0.10937165
000210 9d 31 c5 3e 45 4f 20 3d be db 80 a8 92 c5 ef 27
       0.38514414 0.039138097 -1.4306153e-14 6.655003e-15
000220 7d 68 ef 99 99 36 85 91 e4 fb f0 3d a5 b3 ea 3c
       -2.4754223e-23 -2.1017348e-28 0.11766794 0.028650114
000230 ec 36 a8 bd be da 9b 00 8b 8e 35 00 91 d6 c9 28
       -0.082136005 1.4312972e-38 4.918416e-39 2.2408536e-14
000240 14 86 08 97 9a 58 4b 3e 0c 69 30 bc 3f e7 ab bd
       -4.41132e-25 0.19858018 -0.010767233 -0.08393716
000250 f1 fd 4a 3e 28 9d f4 17 34 dc 67 27 cb 41 81 3c
       0.19823433 1.5807802e-24 3.2177062e-15 0.015778443
000260 82 78 83 18 10 6d 35 00 84 37 bf bd cf 4c 98 3d
       3.398439e-24 4.906406e-39 -0.09336761 0.07436525
000270 e7 d1 b0 3d a7 79 35 80 f5 b7 0d 84 e4 6d ce a6
       0.08633786 -4.910922e-39 -1.665894e-36 -1.4323907e-15
000280 31 06 2d 28 a2 8d 39 a7 60 40 ea 96 95 ea 45 1e
       9.604772e-15 -2.5750687e-15 -3.7845365e-25 1.04776036e-20
000290 c8 12 bc bb 12 d8 1e 3e 27 ea cf 3c 43 61 b3 29
       -0.0057395436 0.15512112 0.025380207 7.966069e-14
0002a0 00 79 21 80 c2 b4 31 0e 13 38 56 aa 08 86 06 29
       -3.073978e-39 2.1903966e-30 -1.9026473e-13 2.987023e-14
0002b0 4a 27 76 9e f9 17 23 20 eb af 46 3e f4 ff 98 a9
       -1.3031256e-20 1.3814569e-19 0.19403045 -6.794557e-14
0002c0 06 80 35 00 1f a8 03 14 96 15 ae 29 5c 4d 51 97
       4.913207e-39 6.646966e-27 7.730897e-14 -6.7629183e-25
0002d0 e4 c3 52 93 40 ef fe a6 a9 1b c7 19 57 01 ff 8a
       -2.6602308e-27 -1.7689639e-15 2.058729e-23 -2.4556111e-32
0002e0 67 0c 85 9d 56 d4 44 99 13 6b 35 00 62 38 0c 8a
       -3.521763e-21 -1.01758434e-23 4.905692e-39 -6.751359e-33
0002f0 60 a9 54 01 17 7c cd 20 5e a9 13 21 2c fc b6 a9
       3.905977e-38 3.4810467e-19 5.0029693e-19 -8.1261685e-14
000300 50 33 d0 bd 50 6c 35 00 1f 3a 9d 20 11 e1 06 14
       -0.10166037 4.906137e-39 2.6635296e-19 6.809658e-27
000310 69 13 ab 21 52 87 0e 1a 73 7d 35 80 1e 81 52 9f
       1.1592549e-18 2.9474223e-23 -4.912284e-39 -4.4576033e-20
000320 e9 12 62 18 59 07 83 9c ea 99 0c 96 aa e5 15 15
       2.9219363e-24 -8.670752e-22 -1.1357677e-25 3.0271483e-26
000330 3f 6b 35 00 4b 7c 35 80 da 47 ea 29 9f 96 d2 0d
       4.905754e-39 -4.911869e-39 1.0404152e-13 1.297851e-30
000340 9d 75 e2 8c 0b 88 35 80 ba be 1b 9c d8 cf 0a a0
       -3.48916e-31 -4.916084e-39 -5.1531706e-22 -1.1757824e-19
000350 9e f1 73 08 14 5d 63 9a 48 62 11 05 da 49 c8 1d
       7.340917e-34 -4.7017688e-23 6.835919e-36 5.301592e-21
000360 b5 33 9a 90 61 8a 35 80 af c7 28 1d 89 56 52 a0
       -6.082196e-29 -4.916922e-39 2.2337849e-21 -1.7816324e-19
000370 f2 15 64 91 43 27 b9 a3 ff 69 35 00 19 7a 35 80
       -1.7992791e-28 -2.0074368e-17 4.905306e-39 -4.911082e-39
000380 82 a1 f8 17 f7 29 a0 98 70 53 1c 9b 2d 40 6e 9f
       1.6067395e-24 -4.1401404e-24 -1.2930978e-22 -5.0451545e-20
000390 b3 42 56 90 6b 05 18 21 42 ac 5b 1a 74 79 60 1d
       -4.2255442e-29 5.1506774e-19 4.5427287e-23 2.9708943e-21
0003a0 64 17 7e 28 3f c0 cd 0f ba e8 20 a9 ad 42 f8 98
       1.41049044e-14 2.0288611e-29 -3.5728995e-14 -6.4173823e-24
0003b0 ae 9a dc 9a f2 b3 7a 01 c0 b3 9a 8b ba ba 48 22
       -9.1239766e-23 4.6046853e-38 -5.95891e-32 2.7203907e-18
0003c0 5b 86 df 15 40 12 57 a5 00 77 81 14 7f 69 e3 18
       9.028096e-26 -1.8654461e-16 1.3072608e-26 5.878465e-24
0003d0 c6 12 b2 27 db ea 0c 86 39 d8 f5 87 74 84 35 00
       4.942528e-15 -2.6503618e-35 -3.6990587e-34 4.914797e-39
0003e0 6c 23 ea 15 8e f4 8a 8c 09 53 1b 8f 65 4a 0e 1d
       9.4567733e-26 -2.1409453e-31 -7.658082e-30 1.8832005e-21
0003f0 ec ae 2c 13 2e 29 30 27 8d ab 15 a2 fc ae f5 25
       2.1795695e-27 2.444723e-15 -2.0284084e-18 4.26193e-16

atom_lin.bias f4 [300]
000000 a5 6a 85 3d 9c 44 da 3c c3 5e e4 bb 66 f5 a5 bc
       0.065144815 0.026644044 -0.0069693043 -0.020258617
000010 7d 31 7d bc 97 2a d8 bc 05 f9 a2 3d be a6 b3 3d
       -0.015453693 -0.026387496 0.07957653 0.08772038
000020 d7 0a 94 3d e0 95 e8 3b 76 59 34 3d 5d 32 0f 3d
       0.0722863 0.0070979446 0.04403063 0.03496014
000030 3c f5 7f bd 29 49 8b bb 32 e4 89 3d 54 c5 bc 3d
       -0.062489733 -0.0042506647 0.06732978 0.09217325
000040 7d c1 f4 3d 86 dc 82 3d 57 45 29 3d 12 ae 9e 3d
       0.119509675 0.06389718 0.041325893 0.07748045
000050 ac df e9 3b 20 f1 d3 ba 4e 5b ad 3d c9 00 92 bc
       0.0071372595 -0.0016169883 0.084646806 -0.01782264
000060 32 96 c4 3c d6 37 b5 bc d9 0c ac 3c 65 15 57 3d
       0.0239974 -0.022121351 0.02100222 0.052510638
000070 e2 fe 4d 3d 92 34 a8 bb 64 39 2a 3d 22 5f 20 3c
       0.050291903 -0.00513322 0.04155864 0.009788306
000080 1a ef 0e 3d 88 83 01 3d f4 ec 76 3d 21 72 15 3d
       0.034895994 0.03161958 0.06028457 0.036485795
000090 20 d5 db bc 8e 6c 19 ba d5 21 a7 3d 6a ab 0a 3d
       -0.026835024 -0.0005852663 0.0816075 0.03385488
0000a0 22 8c 65 3d eb 34 a3 3d 74 d1 3f 3d 56 06 cc bc
       0.056041844 0.07969078 0.04683061 -0.024905365
0000b0 84 64 22 3e 1f 3e 87 3c 32 d8 32 3d a1 ad 65 bd
       0.15858656 0.016509114 0.04366321 -0.05607379
0000c0 6a ee 80 3d 4f 25 2c 3d c2 e2 1a 3d fb 39 88 3d
       0.06295474 0.042027768 0.03781391 0.06651684
0000d0 e2 48 33 3b be 1e c6 ba 60 a9 8d 3c 72 78 21 3d
       0.0027356674 -0.0015115363 0.017292678 0.039421506
0000e0 b8 5e b0 bc b8 63 0e bd 20 dc 4d 3d 4d 83 71 bc
       -0.02152954 -0.034763068 0.050258756 -0.014740777
0000f0 2d 12 95 bc 61 c9 53 3c 84 26 cf 3d 9b 10 91 3d
       -0.018197143 0.01292643 0.10114768 0.07083245
000100 4e 5f 01 3e 90 4e b4 3d 96 e8 99 bc c6 a0 0b 3e
       0.12634012 0.08804047 -0.018787663 0.13635549
000110 9b ee 0a 3d 2a d8 48 bd 0b 98 90 3d c2 18 4c bd
       0.03391896 -0.049034275 0.0706025 -0.0498283
000120 9b ca cb 3d 25 99 c6 3c ba b8 6a 3d b4 54 b0 3d
       0.09950753 0.024242947 0.057305075 0.08609906
000130 28 59 71 3d 95 3d a6 3d 62 f0 8b 3c 97 c0 56 bd
       0.058922917 0.081172146 0.017082397 -0.05242976
000140 d8 e6 6c 3d bd 15 20 3d b8 fb 09 be 39 a7 58 3d
       0.057837337 0.03908323 -0.1347493 0.05289385
000150 7f f9 40 3c 30 36 07 bc cd 40 c7 3c 23 6c 07 3d
       0.0117782345 -0.008252665 0.024322892 0.03306211
000160 30 b0 fc 3d a2 a2 86 3d 6c 18 c3 3d 49 ae bc 3c
       0.123382926 0.065739885 0.095261425 0.023032324
000170 a1 fc 5f 3d 8e b9 d7 bd 13 59 ad 3d 7c 88 3d 3d
       0.054684285 -0.105334386 0.08464255 0.04627274
000180 fb 28 01 bd 16 6d 73 3d bb 8e c7 bc c4 74 89 bd
       -0.031533223 0.059430204 -0.024360051 -0.067117244
000190 8e d8 1c bc a1 f7 6a ba c9 15 44 3d cc 72 f6 3d
       -0.009573115 -0.0008963291 0.04787234 0.120336145
0001a0 1d 54 0a bd 0d d2 eb bc d1 46 90 3d ca 64 b3 bd
       -0.033771623 -0.028786683 0.07044757 -0.08759458
0001b0 2e ce 71 3d 22 d0 7b bc 18 70 26 bd 8e 0e 64 3c
       0.05903452 -0.015369447 -0.040634245 0.013919486
0001c0 31 f6 98 3d 47 e8 81 3d 3d a6 c9 bd 17 2a 46 3d
       0.07468832 0.063431315 -0.098461606 0.048379984
0001d0 b8 d5 dc 3d f1 70 9e 3d b2 e4 65 3d 2f 9d c6 3d
       0.10782951 0.077363856 0.056126304 0.09697949
0001e0 29 9e 37 3d a3 eb 8e 3d 82 e2 1e bd e2 0a 08 bc
       0.044828568 0.06978538 -0.038790233 -0.008303376
0001f0 d8 56 8a 3c e4 30 a4 3d 3b 85 96 3b 62 04 a1 3d
       0.016887113 0.08017138 0.004593519 0.07862164
000200 0f 79 be 3c a5 51 0b 3d f3 49 ef 3d 18 c2 80 bb
       0.023251085 0.03401341 0.116840266 -0.003929388
000210 13 19 e7 bc db aa 16 bd 7a ee 1c bc 70 0e 6d bd
       -0.028210199 -0.036784034 -0.009578342 -0.057875097
000220 dc 75 07 bd 26 2f b9 bd ee 83 48 3d c8 d1 f4 3c
       -0.033071384 -0.09042196 0.048953943 0.029885188
000230 6e de dc bc 3c 63 50 3d 19 f0 ed bc 28 8e 51 bd
       -0.026961531 0.050875887 -0.029045152 -0.05116096
000240 0a 37 d4 3d 57 80 e6 3c 45 da 32 3d 2a 0d 96 bd
       0.1036206 0.02813737 0.04366519 -0.073267296
000250 82 f0 59 ba 98 a6 f6 bd ca df c0 3d 6e f4 a5 3d
       -0.00083137315 -0.12043494 0.094176844 0.08103262
000260 df d7 69 bd 89 93 d7 3d 2d 46 ca 3d 31 1d c0 3d
       -0.057090636 0.10526187 0.09876666 0.09380568
000270 31 25 9c bc 29 20 0b 3e ad 8a ae 3d 6d 58 ae bc
       -0.019060703 0.13586487 0.08522544 -0.0212824
000280 65 6f 81 3c 98 69 fe 3b e0 c4 36 bc 75 66 be bd
       0.015800187 0.0077640526 -0.011155337 -0.09296886
000290 a2 55 c5 3d 2f 01 75 3c d5 1a 6a bd 6f 37 a0 3c
       0.09635474 0.0149538955 -0.057154495 0.019557683
0002a0 79 05 33 bd d7 3d 53 3d 6d 42 2a bd 1a 4e c6 3d
       -0.04370639 0.051572647 -0.041567255 0.096828654
0002b0 ae 87 3a 3d f3 86 d0 3d 49 5e 43 bd 6e e8 58 3c
       0.04553955 0.101819895 -0.04769734 0.013239009
0002c0 68 12 84 3d 8b 7b 19 3d fa 0a 83 bd 83 6c c2 bc
       0.06448823 0.037471335 -0.06398578 -0.023733383
0002d0 e5 ce 55 bd 25 f7 89 3c 59 2f d8 3c 68 ff 41 bd
       -0.052199263 0.01684148 0.026389765 -0.047362715
0002e0 95 31 86 3d 69 2a dd 3d be 6c 99 3c 90 60 96 b9
       0.06552426 0.10799105 0.01872861 -0.00028682174
0002f0 a0 4b 86 3d 96 77 1f 3d 46 15 69 3d f5 d0 cb 3d
       0.06557393 0.038932405 0.056905054 0.09951965
000300 1d 1c ba 3d 97 81 d3 3d 44 35 2d bd be 89 a3 bb
       0.090873934 0.10327452 -0.042287126 -0.0049907854
000310 00 20 eb bd 18 c5 d0 3b 98 6c 67 bc d5 1d 15 bc
       -0.11480713 0.0063711517 -0.014125012 -0.009101351
000320 80 83 9c 3d b5 f8 9b bc 7c e7 bc 3d fe 27 42 bd
       0.07642269 -0.019039491 0.0922384 -0.04740142
000330 8d fb b7 bb bf ff 27 3d 9a 6f 74 bd 1f ad 51 3d
       -0.005614704 0.041015383 -0.059676744 0.05119049
000340 dc c1 7c bd 12 c6 c4 3d 24 5b 12 3d 55 da 9b 3c
       -0.061708316 0.096080914 0.03573145 0.019025007
000350 5b 8e 03 bd 70 58 f7 bc 62 26 2e bd 23 6b 3a 3d
       -0.032118183 -0.030193537 -0.042517073 0.04551233
000360 8e ba a8 3d 5e 90 a4 3d 79 54 08 3d 46 dc ed bc
       0.082387075 0.08035348 0.033283684 -0.029035699
000370 00 71 a1 3c c2 55 0c 3d 21 ce cd 3d 0c 15 da 3d
       0.019707203 0.034261473 0.100490816 0.106485456
000380 ab c6 08 3d a5 ca 5e 3e bb 4f 8f 3d 48 41 3a 3d
       0.03339259 0.2175699 0.06997629 0.045472413
000390 a0 45 40 3d fa 59 60 bd 4a e7 e4 3d 32 1e 2f 3b
       0.0469414 -0.05477331 0.111769274 0.0026720879
0003a0 36 4b b4 3d ab c6 df 3d 79 e6 1c 3d 6a 0d 9c 3d
       0.08803408 0.10926565 0.038305733 0.07619746
0003b0 7b fa 0b bc 2b b1 a4 3d c7 7b 34 bd 01 89 ca bb
       -0.008543606 0.080416046 -0.044063356 -0.006180883
0003c0 a3 b3 ca 3d 8a f0 81 bd c6 30 70 3d 0a 0a e9 bd
       0.09897544 -0.06344707 0.058640264 -0.11378868
0003d0 d2 62 43 3b e2 61 25 3d 2c 22 b7 bc 56 a2 fc 3c
       0.002981354 0.04037655 -0.022355162 0.030839127
0003e0 87 cc a3 3d 14 54 b1 3d c8 6a f5 3d 7f 16 04 3d
       0.07997995 0.08658615 0.119832575 0.032248016
0003f0 11 6a 4a 3d e7 c3 54 bd c5 0e 0f bd d5 5d 89 3c
       0.04941756 -0.05194464 -0.034926195 0.016768375

bond_lin.weight f4 [300, 23]
000000 e0 0c a2 a8 8c 40 ee be 17 a0 37 3e e2 ca e0 be
       -1.7991197e-14 -0.4653362 0.17932163 -0.43904787
000010 eb 22 64 26 22 69 e7 26 49 80 ba 20 5f 2e 66 2f
       7.9150713e-16 1.6057341e-15 3.1594518e-19 2.0934852e-10
000020 e5 b1 20 33 a9 36 cc 39 21 7f 36 38 a4 da 9e 3a
       3.7414697e-08 0.00038950637 4.351058e-05 0.0012119603
000030 f4 6f b4 3e b1 46 9c 33 af e4 0b 11 61 c0 b3 26
       0.35241663 7.277175e-08 1.1035635e-28 1.2472764e-15
000040 3a b5 27 3a 70 49 da b9 3e 72 e2 09 9d be e9 9a
       0.00063975493 -0.00041634915 5.4514954e-33 -9.6674494e-23
000050 e8 55 8b b9 d2 55 dc 99 86 c0 e7 1f 3c 14 f9 07
       -0.0002657615 -2.278213e-23 9.815081e-20 3.7477249e-34
000060 34 1b 98 be 19 b8 c9 be 2f 30 cb 3e bc a6 c5 1c
       -0.29708254 -0.39398268 0.396852 1.3079466e-21
000070 fa 23 16 b0 f8 44 03 9c b0 50 7f ba 69 2e 5c 18
       -5.462081e-10 -4.3433404e-22 -0.00097395014 2.8457765e-24
000080 ef d1 96 b0 c4 c3 11 1f fe 94 58 aa a6 1f 02 bf
       -1.0973603e-09 3.0866878e-20 -1.9236346e-13 -0.5082954
000090 53 81 45 05 54 b9 1d b4 e3 23 eb 38 a4 31 f6 19
       9.2866486e-36 -1.4689186e-07 0.00011212358 2.5455854e-23
0000a0 bc 71 16 ba ee 65 fd 8d 28 83 15 21 f2 35 2f 1d
       -0.00057389936 -1.56168675e-30 5.065675e-19 2.3188946e-21
0000b0 ec 3b 76 b6 9b ad 80 b2 0e 89 6a b7 16 e0 c9 3e
       -3.6691736e-06 -1.4980108e-08 -1.3979397e-05 0.39428777
0000c0 3b 9f b2 3d 3d d7 09 3e fa 38 d0 20 a0 74 0d 23
       0.08721777 0.13461013 3.5274275e-19 7.668322e-18
0000d0 1d 7b 12 0d 41 23 94 24 cf ae d6 ac ab 78 d5 b6
       4.5137916e-31 6.424449e-17 -6.1016535e-12 -6.3619423e-06
0000e0 10 9c cc 22 f0 21 4f 32 6a 4c 35 3e f1 71 8c 34
       5.545955e-18 1.2056702e-08 0.17704931 2.6159935e-07
0000f0 56 ab 1b b5 d6 3a 29 96 0d 60 f4 24 8f 43 a5 24
       -5.7991326e-07 -1.3670277e-25 1.0598085e-16 7.167179e-17
000100 e8 2b bb 93 00 a8 27 30 74 70 35 80 c0 67 47 39
       -4.724873e-27 6.099299e-10 -4.907622e-39 0.00019016769
000110 96 94 6c 38 ea d1 09 b1 6a 2d 33 be 84 30 07 3f
       5.6405166e-05 -2.0055446e-09 -0.17497793 0.52808404
000120 33 56 a4 bd 43 b3 c8 30 de e0 83 12 fc c3 40 b9
       -0.08024254 1.4602864e-09 8.322696e-28 -0.00018383557
000130 57 21 22 b3 5e 46 db 38 3b e5 0b 34 f7 10 af 8a
       -3.7748887e-08 0.00010455841 1.3028777e-07 -1.6858268e-32
000140 c7 89 89 2d ac 9b ae 3e ac 59 8f ba 22 04 81 26
       1.5636282e-11 0.34103143 -0.0010936758 8.952293e-16
000150 f5 8f 8d 32 d0 57 50 b7 ec 4c ae ab e7 79 f1 a7
       1.6480024e-08 -1.2418212e-05 -1.2384794e-12 -6.7023104e-15
000160 07 9a 19 2a 71 5f 5b 39 34 bc ed b8 c2 d4 43 3a
       1.3642569e-13 0.00020921022 -0.00011336096 0.0007470363
000170 ce fc 92 b5 85 8a d2 3c 35 87 dc be f1 16 a2 3d
       -1.0951424e-06 0.025700817 -0.43071905 0.07914532
000180 d1 30 60 38 fe 0f ef b7 fe 53 7a b8 a6 83 96 2e
       5.3451226e-05 -2.8498467e-05 -5.968287e-05 6.844596e-11
000190 a0 97 40 b2 9b 71 fa 2c 0a 43 e0 29 06 eb 51 10
       -1.1210346e-08 7.11804e-12 9.959228e-14 4.1399038e-29
0001a0 f8 8b 9b 3e 21 8a 35 00 61 cd 23 b6 75 f3 be b9
       0.30380225 4.916833e-39 -2.440844e-06 -0.00036421014
0001b0 3f 6a df 94 44 0f 90 19 57 f0 8e ad a8 36 da 23
       -2.2559152e-26 1.4895417e-23 -1.6250263e-11 2.3658755e-17
0001c0 f1 bd 0c 30 27 04 6f af d1 3f b7 2b 70 61 e6 9d
       5.1201626e-10 -2.1738399e-10 1.3020645e-12 -6.098124e-21
0001d0 a3 f7 b9 be b9 c0 ca be 68 31 cf be 71 34 55 39
       -0.36321744 -0.3960016 -0.4046738 0.00020332799
0001e0 40 f2 ca a4 ad b0 36 b0 32 b6 d5 27 6c 93 91 38
       -8.801392e-17 -6.6462286e-10 5.9316913e-15 6.941598e-05
0001f0 ac d8 99 33 1e ea a6 97 33 8f 86 a2 23 28 2f 3e
       7.16403e-08 -1.0786598e-24 -3.647239e-18 0.17105155
000200 3c 35 82 3a cb 36 07 0f 6b 34 f2 b9 44 f5 a7 9e
       0.0009934078 6.666567e-30 -0.0004619689 -1.7783252e-20
000210 f7 a5 0c 37 22 6c 9c 21 56 c2 bb a4 51 4c 95 38
       8.383292e-06 1.0599594e-18 -8.142754e-17 7.119089e-05
000220 d6 1d 17 16 e2 de a8 96 bd 82 22 24 3e 6a d9 be
       1.2207097e-25 -2.7282523e-25 3.523889e-17 -0.4246387
000230 8a fb 56 3b 70 3b af be 88 cb b1 b4 92 9e 75 32
       0.0032803738 -0.34225035 -3.3116908e-07 1.4296932e-08
000240 7b ff d4 39 54 74 5a 24 3d c2 15 9f dc 03 88 b5
       0.0004062614 4.736975e-17 -3.1712647e-20 -1.0133913e-06
000250 07 5f 9d 0b e4 94 c6 98 60 48 d0 be 24 5d d6 21
       6.061718e-32 -5.133214e-24 -0.40680218 1.4525858e-18
000260 a1 cb 47 b6 79 8f 17 ba 4b e6 ad b5 f2 09 92 26
       -2.9771838e-06 -0.0005781572 -1.2956529e-06 1.0133481e-15
000270 5b 49 8b 91 43 0f ed 37 21 09 43 25 c3 81 12 33
       -2.1975542e-28 2.8259708e-05 1.6916647e-16 3.411129e-08
000280 46 2f d5 28 52 4d 75 b3 97 6c 1d bd cd 37 ef 3d
       2.3668252e-14 -5.711383e-08 -0.038433637 0.11680565
000290 f4 b7 d9 3e f6 6d e9 37 df de 9e 2e 81 c9 82 99
       0.42523158 2.7826969e-05 7.224598e-11 -1.3523072e-23
0002a0 df dc 90 9c fa 09 df 09 0c a0 c9 b9 1e 94 9c a4
       -9.586214e-22 5.369468e-33 -0.00038456952 -6.7905136e-17
0002b0 32 fb f3 08 39 04 5f be c5 e0 ae 34 76 15 28 9a
       1.4684086e-33 -0.21778955 3.2573567e-07 -3.4758922e-23
0002c0 5b 6f 0e 33 0e f4 b1 38 36 cf 11 27 df 6b 35 80
       3.316323e-08 8.4854764e-05 2.0235122e-15 -4.905978e-39
0002d0 3b 15 1e 10 18 d1 dd b7 11 a0 09 ac c6 c7 d6 9b
       3.117636e-29 -2.644262e-05 -1.9557726e-12 -3.553243e-22
0002e0 86 b9 fb b1 09 c1 c9 be 61 5d fb 3e 8d a8 b9 be
       -7.326153e-09 -0.39405087 0.4909468 -0.36261407
0002f0 0c b6 ee 2a 18 eb 2d 35 c2 9f 0b 33 47 0b c9 a7
       4.2403613e-13 6.478963e-07 3.250876e-08 -5.5800934e-15
000300 2e b2 55 b8 ec 43 36 b6 94 b2 a7 92 1f 82 e6 24
       -5.09491e-05 -2.715965e-06 -1.0583205e-27 9.9967034e-17
000310 2a 2e 77 3d f1 a6 16 32 bf 9a 56 b3 69 4d 9c a2
       0.06034676 8.769107e-09 -4.99665e-08 -4.2365846e-18
000320 27 01 73 b2 26 77 d3 39 83 6e 35 00 fb 01 3e 2f
       -1.4144724e-08 0.0004033383 4.906925e-39 1.7281103e-10
000330 88 58 f5 b9 11 40 61 a8 6b 43 b4 b0 f7 8b ec b4
       -0.00046796002 -1.2503901e-14 -1.3115885e-09 -4.4060263e-07
000340 5e 09 ea 3e 04 86 c0 be 67 56 a7 3e 80 72 33 1c
       0.45710272 -0.37602246 0.32683107 5.937412e-22
000350 9d 84 fc b5 7a 14 ff 0a 26 44 b7 31 58 08 89 9d
       -1.8814059e-06 2.4563309e-32 5.3337486e-09 -3.6272225e-21
000360 49 6e 2d 80 73 cc 90 1c 29 c7 af 98 1d ca 95 be
       -4.17216e-39 9.58197e-22 -4.543754e-24 -0.29255763
000370 48 be 49 ad 65 42 32 a1 3c 67 f0 a0 45 5d 52 9f
       -1.1467778e-11 -6.039662e-19 -4.0725896e-19 -4.454638e-20
000380 0f 5a 9b 88 af 9d e0 b8 43 98 91 3a 00 ff 58 38
       -9.349896e-34 -0.00010710523 0.0011108 5.17359e-05
000390 57 cb c0 b4 8a 59 26 39 d6 09 53 a8 56 97 f5 be
       -3.5910736e-07 0.0001586435 -1.1714986e-14 -0.47967023
0003a0 4e f0 de be 88 0f 58 be 2f 50 4e ba d3 d2 6b 27
       -0.43542713 -0.21099675 -0.00078702247 3.272709e-15
0003b0 44 55 3f b2 5c be 7b b4 fd 61 a1 b4 6a c2 b4 b2
       -1.113705e-08 -2.3445449e-07 -3.0059883e-07 -2.1043167e-08
0003c0 d6 fb b8 2b 6a 91 17 aa 72 a0 a4 3e cd e5 2f 80
       1.3143885e-12 -1.3461945e-13 0.3215366 -4.398705e-39
0003d0 33 d6 35 2b 88 c4 1f 3a a2 76 29 b5 c4 43 c9 39
       6.460138e-13 0.0006094654 -6.313004e-07 0.00038388197
0003e0 b0 2b d5 39 ed d8 3e 32 4d 63 40 86 00 22 64 1a
       0.00040659076 1.1108779e-08 -3.618414e-35 4.717676e-23
0003f0 d2 9d aa b6 6e 45 d5 b6 dc dc c3 3d d0 30 ae be
       -5.0847675e-06 -6.3559773e-06 0.0956361 -0.34021616

bond_lin.bias f4 [300]
000000 10 9c bc 3c 35 d0 bb 3c 1e cb 3a 3e 86 f4 97 3d
       0.023023635 0.02292643 0.18241546 0.07419686
000010 3a 48 a4 3d 34 3d 96 bc a9 12 73 be 5c 12 0b 3e
       0.080215886 -0.01833973 -0.23737587 0.13581222
000020 ca e3 fe bd e0 3a b8 bd 2a e7 28 bd ce bf 47 3d
       -0.12445791 -0.089956045 -0.04123608 0.048766904
000030 f7 1b 08 3e 27 1a 9a 3d 3c 65 34 bd b7 51 b9 3d
       0.13291918 0.075245194 -0.044041857 0.09048789
000040 87 ab 92 be 5f 79 da bd 18 c0 b2 bd e4 21 2a 3e
       -0.2864649 -0.10667681 -0.08728045 0.16614491
000050 99 ca e2 bd ba 6e f8 3d 86 c6 02 be d4 3c 3f be
       -0.11073799 0.121304944 -0.12771043 -0.18675548
000060 c7 04 2e bd 34 bd 2b be cf 16 a8 3d c9 77 82 3c
       -0.042485025 -0.16771394 0.082074754 0.015926259
000070 f1 60 aa bc 7c 42 47 3d 11 1e 29 3e 51 fe 87 be
       -0.020798178 0.04864739 0.16515376 -0.26561216
000080 c6 39 30 3e 4b 07 04 bd da 84 79 3e 20 e1 20 bd
       0.17209539 -0.032233518 0.24367085 -0.039277196
000090 27 74 9c 3e 38 95 36 be d4 3b c3 bd a5 13 37 3e
       0.30557367 -0.1783036 -0.09532896 0.17878588
0000a0 31 f9 53 bd e0 a4 00 3e 35 ee 80 be a1 b6 2a 3c
       -0.05175132 0.12562895 -0.25181738 0.010419519
0000b0 57 a4 09 3e ef 87 bc 3d 9a 95 5e 3e 4e 7e 9c bb
       0.13441597 0.09205615 0.21736756 -0.004775799
0000c0 79 c4 66 3e a8 30 64 3e c6 c9 5e 3e 3b ca 1a 3e
       0.22535886 0.22284186 0.21756658 0.15116207
0000d0 e2 77 0b 3e 84 bb 4e 3e c0 64 4f 3d 0f 69 03 3e
       0.1361995 0.20188719 0.050633192 0.12833045
0000e0 7a 9f 42 be ec 66 56 be 96 16 6a be 3a b9 6a 3c
       -0.19006148 -0.20937699 -0.22860178 0.014326388
0000f0 d6 2e 34 be 82 6b 07 3e aa 1c 2a 3e d5 de 76 bd
       -0.17595991 0.13224605 0.16612497 -0.060271103
000100 c5 0c 09 be 88 c1 52 3e ba db 24 3c bb 1d 26 3e
       -0.13383777 0.20581639 0.0100621525 0.16222279
000110 a0 15 41 3e b8 59 00 3c 3f 17 2a bd a9 a2 58 bc
       0.18855906 0.007833891 -0.041526075 -0.013222375
000120 86 ac 24 3a b3 af 59 3e 05 a6 11 3e b3 17 88 3e
       0.00062818115 0.2125843 0.14223488 0.2658058
000130 41 f9 7e bd e7 bc c4 bd ff 60 d5 ba 17 2f 39 be
       -0.062249426 -0.09606343 -0.0016279517 -0.1808437
000140 c4 91 e3 3d 04 72 56 3c ab b9 7e be 95 4f 8e 3d
       0.11111787 0.013088707 -0.24875514 0.06948773
000150 fb 7e 4e be 01 5c 12 3c a5 93 87 3d 09 6a 4e 3e
       -0.20165627 0.008933068 0.06619958 0.20157637
000160 93 19 69 3e 5f 64 a4 bc bf 7a 4b 3e 68 ff 72 bd
       0.22763662 -0.020067392 0.19871043 -0.059325606
000170 d4 47 1d bd a3 69 57 be 35 e6 37 3e 5b 63 43 3e
       -0.03839858 -0.21036391 0.17958911 0.1908087
000180 3f 74 67 3e 1d ec dc bc 2a e8 74 be dd 9c c2 bd
       0.22602938 -0.026968056 -0.23916689 -0.095025755
000190 78 ec a8 3d 9f 9e 3d 3e 92 a5 88 3e 68 05 11 3e
       0.08248228 0.1851754 0.2668882 0.14162219
0001a0 3b 32 63 be d8 21 2c be 37 94 3c be 21 1c c2 bd
       -0.2218713 -0.16809785 -0.18415914 -0.094780214
0001b0 28 52 9b 3d e9 fc bd 3d fa 08 ea 3d 3c b0 d9 bd
       0.075840294 0.092767544 0.114274934 -0.10629317
0001c0 50 e4 3a bd 8f 61 20 3e f3 ea 58 be dc 00 55 be
       -0.045627892 0.15662216 -0.21183376 -0.20801109
0001d0 db 8f 10 3e cd 72 10 3e 5a 32 35 be 9e 64 2c 3e
       0.14117377 0.14106293 -0.17694989 0.16835257
0001e0 78 fb 2a 3e 12 9d 24 be 14 9f 97 3a f3 f0 56 bc
       0.1669749 -0.16075543 0.0011567795 -0.01311897
0001f0 f3 75 5a be 55 5a 1f 3e c8 7a 3c 3d c9 ef 9c bd
       -0.21334057 0.15561803 0.04601553 -0.07662923
000200 70 59 05 3d ab f4 7a bd e3 42 67 3e 55 69 0c be
       0.032555997 -0.06126849 0.22584109 -0.13712056
000210 7a 9a 90 bd f3 0c 65 be 8b 0b 17 3e 93 cf 0a 3e
       -0.07060714 -0.22368221 0.14750497 0.13555746
000220 35 9a 0d 3e c7 de f8 3d d0 14 55 bd bc 56 5c 3d
       0.13828357 0.121518664 -0.0520218 0.053793654
000230 0f 96 52 be 9a 06 44 3e 01 7b cd bc c6 76 1b 3e
       -0.20565055 0.19143143 -0.025083067 0.15182027
000240 00 91 26 3e 4d 36 13 3e 96 f2 cb 3d 49 40 5b be
       0.1626625 0.14376183 0.09958379 -0.21411242
000250 68 d9 a2 3d 9e 94 b7 bd 27 88 7c 3e 6d 27 4b 3e
       0.07951623 -0.08963893 0.24661313 0.19839258
000260 bf cf 89 3e 95 3b 05 3e 76 11 d8 3d 51 32 43 3d
       0.2691631 0.1301101 0.105502054 0.047655407
000270 a8 fd 8e be 6b 67 8e 3d 06 7c 2b 3e c1 8c 1d 3a
       -0.279279 0.06953319 0.1674653 0.00060100487
000280 c2 51 81 be 5b 3e ae bd dc 81 35 3d bf ff 11 bd
       -0.2525769 -0.08507987 0.044313297 -0.03564429
000290 e5 74 64 bc 14 20 27 be 62 7d 77 be a0 1e 6c 3d
       -0.013943885 -0.1632083 -0.24168923 0.057646394
0002a0 0a 76 01 3e 26 3d 7a 3d e3 cf 3c be f8 20 d8 3d
       0.12642685 0.061093472 -0.18438677 0.10553163
0002b0 d0 70 01 bc ed df 35 3d 2d 63 59 be 53 3f 91 3d
       -0.007900432 0.044403005 -0.21229239 0.07092156
0002c0 ef 48 90 3e c8 0b 05 3e 8a b8 96 3b d8 c1 a4 bd
       0.28180644 0.12992775 0.0045996355 -0.08044785
0002d0 6d 49 9d 39 e2 55 e9 bd b8 e8 37 bd 6e 90 18 3e
       0.0003000008 -0.11393334 -0.044899672 0.14898846
0002e0 9e f7 16 be 82 8d 7c be 49 e4 18 3e b5 b9 7b 3d
       -0.14742896 -0.24663356 0.14930834 0.0614564
0002f0 37 b5 7f be c5 4a d4 3b b7 06 87 3e 48 4e 1a 38
       -0.24971472 0.00647864 0.2637231 3.6789366e-05
000300 84 74 90 be 37 ed 5b bd e2 ab 15 3e f0 17 29 bd
       -0.28213894 -0.053693023 0.1461635 -0.041282594
000310 31 3c 71 be 66 74 84 be 3b ac 87 be 16 11 49 3e
       -0.23558117 -0.25870055 -0.2649859 0.19635424
000320 1c 17 2c 3c e8 fd a5 3d ce fa 12 bd 85 05 1c be
       0.010503557 0.081050694 -0.035883717 -0.1523648
000330 19 1f 82 3d 04 a9 a9 3c 7b 3e 0b bc 83 1f 92 3d
       0.06353588 0.020710476 -0.008498783 0.07134917
000340 3f dd e1 3d f6 83 2c be c7 4f 6a 3d f4 21 65 3d
       0.110285275 -0.16847214 0.057204988 0.055940583
000350 56 96 bb 3d 03 06 16 be f8 67 36 bb df 50 69 3e
       0.09159534 -0.14650731 -0.0027832966 0.22784756
000360 5e c6 9b bd d8 09 2c 3e 91 f4 ec 3d aa 64 30 3e
       -0.07606195 0.1680063 0.11570085 0.172259
000370 c0 7d 04 3d 22 93 0c be 45 8f 7c 3d 6b c0 29 3e
       0.032346487 -0.13728002 0.06166007 0.16577308
000380 4f 96 77 3e 1f c8 18 3e 44 52 ee bb f5 11 f0 3d
       0.24178432 0.1492009 -0.0072729904 0.11722175
000390 2f 29 1d be 34 55 11 be a4 ad 91 bd 69 b0 b0 be
       -0.15347742 -0.14192659 -0.071131974 -0.3450959
0003a0 28 b3 79 3e 51 03 34 be 2c 11 10 bd ec ac 91 bd
       0.24384749 -0.1757939 -0.035172626 -0.0711306
0003b0 2f 25 42 bc ce 25 33 3d bf db ea bd a6 4d be 3d
       -0.011849686 0.043737225 -0.114676945 0.09292154
0003c0 a4 48 bb be c4 19 38 be 6b 86 29 be e7 d3 43 bc
       -0.36578858 -0.17978579 -0.16555183 -0.011952377
0003d0 9d 8c e8 3d b8 30 4d bc 50 da 19 be 38 de 70 3e
       0.11354945 -0.0125238225 -0.15024686 0.2352227
0003e0 3c e6 1c 3c 18 c7 0c be 72 19 e4 bd 7c fb ef bc
       0.0095763765 -0.13747823 -0.11137666 -0.029294722
0003f0 25 64 55 3d f0 f1 43 be 79 a2 de 3d 33 49 88 be
       0.05209746 -0.1913526 0.10870833 -0.26618347

energy_lin.1.weight f4 [300, 300]
000000 a9 20 34 3e d7 35 b6 3c 52 46 a2 3d ee d3 40 3d
       0.17590584 0.02224247 0.07923569 0.047077112
000010 62 a2 b3 3b 6d 66 fc 3d 07 5c f9 3d b9 e1 95 3d
       0.005482004 0.12324224 0.12175756 0.07318444
000020 51 b9 3b bd f2 1a 51 bd eb 11 8b bc 63 75 1b 3d
       -0.04583103 -0.051051088 -0.016976317 0.037953746
000030 d8 1d c2 bd d5 3b f2 3a ec d4 6f 3d 47 ca 59 3d
       -0.094783485 0.0018480966 0.058552667 0.053171422
000040 4b 56 df 3d ad 3f 1b bd 20 e3 cd bd 4a 26 18 3d
       0.10905131 -0.037902523 -0.10053086 0.03714589
000050 b4 83 87 bd 01 8e 67 bd 4b 49 c2 3d c2 ef b0 bc
       -0.06616917 -0.05653191 0.09486636 -0.0215987
000060 89 52 cf bd b4 ec a6 3d 14 e7 b3 3d bc b4 5e bd
       -0.10123164 0.08150616 0.08784309 -0.05437158
000070 6c 3a dd bc 3e fd 8e bd 37 90 ae 3d b3 5c d1 3c
       -0.027005397 -0.06981896 0.085236005 0.025556898
000080 8d 26 b5 3d 7a 6f 2a 3b 0e d9 89 bd d7 f5 6f 3d
       0.088452436 0.0026006387 -0.06730853 0.05858406
000090 1f 62 2d 3c 48 5d 28 3e 97 29 99 3d 7d 9d 2a bd
       0.010582476 0.16441834 0.07478636 -0.0416541
0000a0 79 44 6a bd 85 37 17 3c 44 e7 36 3e 7a c8 8f 39
       -0.057194207 0.0092295455 0.17861658 0.00027424452
0000b0 50 af 93 3e 22 ea d2 3d 45 d0 89 3d 88 27 00 3e
       0.2884469 0.102985635 0.067291774 0.1251508
0000c0 8b 54 17 bd e2 ae 95 bd 20 1c 75 bd f4 9e 04 3e
       -0.03694586 -0.07308747 -0.059841275 0.12951261
0000d0 00 85 f6 bc 0d a1 e3 3d 40 df 2f 3e dc 88 1b bd
       -0.030092716 0.111147024 0.17175007 -0.037972316
0000e0 f5 2e ea 3d c9 dc 41 3e e2 f5 1c 3e a6 ac e1 3c
       0.114347376 0.18931879 0.15328172 0.027548146
0000f0 f7 ce 0e 3e 02 ac 10 3e ca 36 18 3e 43 c7 02 3e
       0.13946138 0.14128116 0.1486465 0.12771325
000100 86 8c db 3d 0c 8b 35 bd e0 30 af bd 04 a7 8f 3e
       0.10720162 -0.04432206 -0.08554244 0.2805711
000110 29 11 74 3c ab bc 12 3e c3 d8 1a 3e e0 70 83 3c
       0.014896669 0.14329784 0.1512175 0.016045034
000120 4a fd 95 3d e3 6d 37 3e 5f 81 e4 bb d3 9f b1 3b
       0.07323702 0.17913012 -0.00697343 0.005420664
000130 c3 2f 22 3e 99 0d c3 3d 59 40 51 3d 72 da 57 bd
       0.15838532 0.09524078 0.051086757 -0.05269856
000140 43 0e e0 3d 02 b9 cf bc d1 17 60 bb c2 7d 08 bc
       0.1094022 -0.025356773 -0.0034193883 -0.008330764
000150 b4 da 24 3c 99 1e 3e 3c 77 82 ce 3d 24 5a a6 3c
       0.0100619085 0.011603975 0.10083478 0.020306654
000160 0c 77 05 3c 40 52 94 3d 8b ae ca 3d 40 fe b4 3d
       0.008146059 0.072422504 0.09896573 0.08837557
000170 20 da 3c bd 43 1c 15 3e 60 8e 76 3c db 58 21 3e
       -0.046106458 0.14561562 0.015048593 0.15756552
000180 26 46 6f 3d 1b d8 b0 3d a4 9c b5 bd e6 a2 96 bd
       0.05841651 0.08634969 -0.088677675 -0.07355289
000190 ff 88 9b 3d 6d 0c 0d 3d 14 99 28 bd bc 0a 1d 3e
       0.07594489 0.03443568 -0.04116161 0.15336126
0001a0 bb 84 aa bd f0 b0 a9 3c c7 d1 d6 3d 9b 1d d8 bd
       -0.083260976 0.020714253 0.104892306 -0.10552522
0001b0 dd fd 8d bd b8 5e fe 3d 1a 3e de bc 7c f8 4d bb
       -0.06933186 0.1242041 -0.027129222 -0.0031428626
0001c0 22 04 e4 bd 2e 7e 31 3d 6a 04 ff bb af 96 7c 3d
       -0.11133601 0.043333225 -0.0077825086 0.06166714
0001d0 19 47 3a 3e 1d 4c 23 3e e9 1f 03 3e 2b 12 68 bd
       0.18191184 0.15947004 0.12805142 -0.05665795
0001e0 6f cb ab bd 9b ef c4 bd 22 11 df ba d5 db ea 3c
       -0.08388411 -0.096160136 -0.0017018656 0.028669277
0001f0 80 aa af bd 7e e4 20 3e 01 0f 87 bd d8 b3 c2 3d
       -0.08577442 0.15712163 -0.06594659 0.09506959
000200 d3 67 34 3e 5e 00 24 3e c1 1a ff 3d cb 4c b4 3d
       0.17617731 0.16015765 0.12456275 0.088037096
000210 b2 a0 1b bc b4 28 52 bd ae 55 d0 bd 88 d8 a2 3d
       -0.009498762 -0.05130835 -0.10172592 0.07951456
000220 8d 51 bb 3d 52 a6 db bc 55 64 c4 bd 30 b1 c5 3d
       0.09146414 -0.026812706 -0.09589449 0.096529365
000230 43 74 19 3d b5 a2 57 3e da 01 f9 3d 2c 21 a5 3d
       0.03746439 0.21058162 0.12158556 0.08062968
000240 ba ef ae bd 1a 3b e9 bd b0 df 53 bd db cc db 3c
       -0.08541818 -0.11388226 -0.051726997 0.026831081
000250 be 43 08 3e e8 96 39 3d 9c 9d 92 bd 49 81 01 3c
       0.13307092 0.04530993 -0.07158968 0.007904359
000260 60 b4 ef 3d c2 da 8b bd 22 a1 ec bd 24 04 cb bd
       0.11704326 -0.06828834 -0.11554171 -0.09912899
000270 84 01 96 bd c7 ab 10 3d 61 1d 8b 3d 17 14 e0 bd
       -0.07324508 0.03532007 0.06792713 -0.10941332
000280 9f 1a 06 3e a1 31 17 3e 58 b8 62 bd d8 22 9b bd
       0.13096093 0.14765026 -0.055351585 -0.07575005
000290 90 e3 a3 bc 92 86 ee bc 5f 77 9a bd 1d d7 a3 bd
       -0.020005971 -0.029116903 -0.075422995 -0.08000014
0002a0 60 c0 27 bd 6c ff b5 3d f0 22 5f 3d 34 82 0e 3e
       -0.040954947 0.088866085 0.05447668 0.13916856
0002b0 51 bc c3 bd ed dc d7 bb 13 b9 71 bd 9c 80 33 3e
       -0.09557403 -0.0065876157 -0.05901439 0.1752953
0002c0 a6 9e 46 3e 0d 2b 53 bd a6 1d 6b bd 8f c3 9f 3d
       0.19396457 -0.05155473 -0.05740132 0.07800972
0002d0 55 ba 61 bc ae de 2b 3d 85 df 01 3e 58 05 93 bd
       -0.013777335 0.04196041 0.12682922 -0.071787536
0002e0 f5 80 75 bd f1 20 8f 3e ea 12 28 3e 67 8a 70 bc
       -0.059937436 0.2795482 0.16413465 -0.014681435
0002f0 cd f9 24 3d 42 b3 8d bc 8a 68 3f 3d 97 de cb 3d
       0.04027729 -0.01729739 0.046730556 0.09954565
000300 a8 99 82 3c ae 95 1f 3e 65 ec 24 bc 96 1e a9 bc
       0.01594241 0.15584442 -0.0100661265 -0.020644467
000310 5c 87 a4 3c 44 0b 41 3d ee d5 25 3e f5 89 58 3d
       0.020084076 0.047129884 0.16194889 0.05286594
000320 e9 0f 44 bd d9 9c b9 3d 8b 57 6a bd cd 32 11 3d
       -0.047866736 0.090631194 -0.057212394 0.035448838
000330 92 cb 27 3d 00 40 b6 bc f7 2d b0 3c d1 8f 03 3e
       0.040965624 -0.022247314 0.021506293 0.1284783
000340 05 f3 86 bb 2c 94 e1 bc 0b 70 5a bd 44 2d 68 bc
       -0.0041183257 -0.027536474 -0.05332951 -0.014170948
000350 3d a9 a1 3c 59 40 a9 3d 75 80 b8 bc bf d2 db 3d
       0.01973402 0.082642265 -0.02252219 0.10733556
000360 17 32 96 3d c6 cc 87 bd ce 82 a4 3d d5 6e 3c 3b
       0.07333773 -0.06630854 0.080327615 0.0028752584
000370 9f 57 00 3e 22 72 14 3c bc 4f f6 3d a2 db 0d 3e
       0.12533425 0.0090604145 0.12026927 0.13853315
000380 47 64 eb 3d 98 d1 48 3e c7 0c 28 3e 3c e1 59 3e
       0.11493736 0.19611204 0.16411124 0.21277326
000390 fe ae ec 3d b7 41 43 bc bc 12 1f 3e 4e 50 99 bc
       0.115568146 -0.011917523 0.1553449 -0.01871505
0003a0 c7 f3 b4 bd e0 49 a5 3c 99 33 b7 3d dd 2a 73 3d
       -0.08835559 0.020176828 0.08945388 0.05936705
0003b0 03 d8 ad bd ec 24 54 bd 21 21 21 bc 24 85 9d bb
       -0.084884666 -0.051793024 -0.009834559 -0.0048071314
0003c0 95 d5 0c 3e ff 22 01 3e 77 ff 0a 3e 9f e9 05 3e
       0.1375335 0.12611006 0.13574015 0.130774
0003d0 80 12 52 3e 8d 8c c7 3d 2b 31 87 bc 92 59 13 3c
       0.2051487 0.09743605 -0.016502937 0.008993523
0003e0 3b 50 02 3e a5 37 0f 3e c2 9a 69 bd fa fd bd bc
       0.12725918 0.1398607 -0.057032354 -0.023192395
0003f0 60 9e c3 bc e0 6d 92 3d 3c 6f f1 bd 8f 8e 79 bd
       -0.02387923 0.07149863 -0.117887944 -0.06092697

energy_lin.1.bias f4 [300]
000000 38 76 24 3d f9 df 45 bc 0a 27 a5 3d b5 2e a9 3d
       0.040151805 -0.012077325 0.08064087 0.08260862
000010 15 ff 0d bd 55 d4 f7 bc 6b e4 28 bc f3 c2 04 3d
       -0.034667093 -0.030252615 -0.010308365 0.03241248
000020 e5 7d bf bc 66 e7 7d 3d 4d fd 04 3d d2 18 51 36
       -0.02337546 0.061988257 0.03246813 3.1157874e-06
000030 d9 0d a7 3d 58 7c e3 3c 8b ca 5a 3d 6e 60 38 3d
       0.08156938 0.027769253 0.053415816 0.045013838
000040 9a 7d ac 3d df ec b6 3c 15 d4 52 3c 7d e4 ed bc
       0.08422394 0.022329746 0.012867947 -0.029039616
000050 4e ce 10 bd 8d 96 b0 3d 05 f2 4b 3d 8d 41 1a 3c
       -0.035352997 0.08622465 0.049791355 0.009415043
000060 c2 d9 a3 3c 4d a8 d4 bb ae cc fc bc 30 80 3b 3d
       0.020001296 -0.0064897896 -0.030859318 0.045776546
000070 31 d4 82 3d 55 cc 19 bc d7 3e 30 3c f5 80 7b 3d
       0.063881285 -0.009387095 0.01075717 0.06140228
000080 b8 e2 33 bc 1d bf c0 3c 20 1b 18 3d f4 b8 d7 3c
       -0.010979347 0.02352863 0.037135243 0.02633331
000090 af 59 d8 3c 1b bd 07 bc 90 79 3d bc 1b f5 46 bd
       0.026409952 -0.008284832 -0.011564627 -0.048573595
0000a0 29 e0 6f bc 40 6d 5f 3c 22 18 2a 3c cf 15 7c 3d
       -0.014640846 0.013636887 0.01038173 0.061544236
0000b0 0d 56 5b bc dc 1f f8 bb 91 7d 5a bc 2e 1a 93 3c
       -0.013387215 -0.0075721573 -0.013335601 0.01795682
0000c0 4d 9d 63 3d 55 1f 28 3c fc 88 a3 3c ec 45 43 bc
       0.055569936 0.010261376 0.01996278 -0.011918526
0000d0 a2 d1 a9 3d 3d bc be bc 21 c7 b3 3c 22 a5 37 3c
       0.082919374 -0.023283118 0.021945538 0.011208804
0000e0 97 44 5a 3d 76 7f 25 3d c8 d4 85 bb 4d b0 a3 bb
       0.05328807 0.04040476 -0.0040842034 -0.004995382
0000f0 68 cc fb 3c 54 2b 66 bc 64 f7 80 3d ab 4b ad 3b
       0.030737117 -0.014048416 0.06297186 0.0052885613
000100 80 7e fe 3c ae 12 46 bd 27 33 7f 3d c3 1a 21 bd
       0.03106618 -0.048357658 0.062304642 -0.039332163
000110 d2 4d 89 3d 33 cf 6f 3d 14 f3 e0 bc e8 5b bf 3d
       0.06704296 0.05854721 -0.027459659 0.093437016
000120 28 96 33 3d d6 f3 3b 3c 55 5c 16 bc 5a a5 81 3d
       0.043844372 0.011471709 -0.009177287 0.063303664
000130 b7 d1 16 3d 2c 73 7b 3d 01 64 3b 3c d7 70 02 3c
       0.036821093 0.061389133 0.011437417 0.007961473
000140 8a 6a 45 3d 12 67 72 b9 29 9f 4b 3c f0 48 7a 3d
       0.048197307 -0.00023117315 0.012428083 0.061104715
000150 d1 0f 79 3d 90 03 10 bc bd 5f 0a bc 21 91 e8 3b
       0.0608061 -0.008789912 -0.008445677 0.007097379
000160 39 ab 3b 3d 3b 2f 36 3d 5a e3 e4 3c cf 8f 9a b9
       0.045817588 0.044478636 0.02794044 -0.00029480315
000170 e1 6f 1f 3d 66 72 1a bc 27 ae f3 3c 4e e6 8e 3d
       0.038925055 -0.009426689 0.029746128 0.06977521
000180 9a cc 3b bd a5 9d c5 bc 20 93 0d 3c 4e e6 48 3d
       -0.04584942 -0.024123022 0.008641034 0.04904776
000190 a6 77 4b bc f9 c1 8d 3d 03 4d 5c bb 73 62 f8 3c
       -0.012418663 0.06921763 -0.0033615238 0.030320382
0001a0 44 67 84 3d 44 12 c2 3c b4 0c 1d bd bb c0 81 3c
       0.06465009 0.02369035 -0.038342193 0.015838971
0001b0 ee 58 59 bc f7 02 05 bb 06 36 0a bd 75 c6 0d bd
       -0.013265831 -0.0020295957 -0.033742927 -0.03461309
0001c0 b9 f7 4e bd 4e 0c 1e bc 02 ba 5a bb 1e 90 85 3d
       -0.050529215 -0.009646488 -0.003337503 0.06521629
0001d0 80 48 5e 3d 8a bd c0 3c aa d2 9e bc aa 6f 7a 3d
       0.05426836 0.02352788 -0.019387562 0.061141647
0001e0 38 d5 46 bb ef 5e 83 3d d0 1b 68 3c bd a2 ca bb
       -0.003033949 0.064145915 0.014166787 -0.0061839507
0001f0 1f 60 e1 bc 9b 5e ff 3c b0 e7 75 bc 34 d7 fa bc
       -0.027511654 0.031173041 -0.015008852 -0.030620195
000200 0d 43 11 3d cb d0 21 3c 44 8a 99 3d 21 42 fa bc
       0.035464335 0.00987644 0.07497075 -0.03054911
000210 40 5d 12 3c ae f6 f2 3c eb 00 2e 3c 96 34 bd 3c
       0.008933365 0.029658642 0.010620336 0.023096364
000220 a6 88 a2 3d 87 ff 50 3b 9e fc a1 3c 33 60 3f bc
       0.0793622 0.0031890587 0.019773778 -0.0116806505
000230 68 9f 06 3d d9 e8 84 3d 95 2b 54 3b 89 5f d1 bc
       0.032866865 0.06489725 0.003237461 -0.02555825
000240 20 c6 04 bd 46 d2 9b 3d 7d de cf bc 6a b0 15 bd
       -0.03241551 0.07608466 -0.025374645 -0.036545195
000250 64 21 cb bc 36 0a df 3c 2f f3 21 3d ab a1 14 bd
       -0.024796195 0.027226549 0.03953856 -0.03628699
000260 29 c6 4d bd fa ce 3c 3c 17 ea 03 bd 25 3f 59 3c
       -0.05023781 0.011523956 -0.032205667 0.013259684
000270 86 81 3e 3d 20 f2 89 3d 07 d4 97 3d a9 ea 87 bd
       0.046510242 0.06735635 0.07413488 -0.06636555
000280 a5 8b 55 3d 2d c0 67 bd f8 41 af 3c 41 a1 de 3c
       0.05213513 -0.056579757 0.021393761 0.027176501
000290 51 55 88 3c 3e 7b e5 bc ab db 35 3c a8 70 a4 bc
       0.016642245 -0.028012868 0.011099736 -0.02007325
0002a0 22 f7 11 3b 9e 58 2d bd 67 c0 94 3d ac 02 7b 3c
       0.0022272547 -0.04232084 0.0726326 0.015320461
0002b0 08 ec e5 3c 27 c7 07 b9 c9 aa 7f 3d a0 01 d4 bc
       0.02806665 -0.00012948793 0.062418733 -0.025879681
0002c0 92 7e 75 bc c5 82 be 3c 8b 4c 78 bd 7e 86 5f 3c
       -0.01498379 0.023255715 -0.060619872 0.013642905
0002d0 b4 17 80 3d 98 24 61 bd a9 00 0d 3d 05 83 9f 3d
       0.06254521 -0.05496654 0.034424458 0.07788662
0002e0 6b 30 77 bc f6 e6 2d 3d 99 63 0a bd 93 48 f5 ba
       -0.015087227 0.04245659 -0.03378639 -0.0018713645
0002f0 7b 41 a8 3c 75 47 c3 3c ea 70 22 bd 9d 1d 25 bd
       0.020539036 0.023837784 -0.039658464 -0.040311445
000300 75 d0 a0 3c 4e 20 09 bd b8 25 fb bc 82 8e 00 3d
       0.01963065 -0.033478074 -0.030657634 0.031385906
000310 b5 cd 19 bd 84 2d ab 3c 92 a2 9f 3c ee 33 ef 3c
       -0.037549693 0.020895727 0.0194867 0.029199567
000320 b6 03 80 3c 6c 78 db 3c 1e 84 18 3d 00 39 0d bd
       0.01562677 0.02679082 0.03723537 -0.034478188
000330 59 b0 0c 3d d2 46 99 bc 4b d4 5b 3d 54 ba 27 3d
       0.034347866 -0.018710528 0.053669255 0.04094918
000340 fb c6 ae 3c de 06 06 3c 3d 84 9c 3b 6e 69 88 3d
       0.021335116 0.008180348 0.004776506 0.06660734
000350 cf e3 bb 3b f5 76 0d 3d 5b 0e c1 3c 02 7f 6f 3b
       0.005733944 0.034537274 0.023566416 0.0036544208
000360 ae ca 06 3d 78 be 53 3d ce 0a aa 3d c3 10 01 3c
       0.032908134 0.051695317 0.08302842 0.007877531
000370 e2 a9 28 bc 18 25 ab bc 72 65 94 3c b4 d1 86 3d
       -0.0102944095 -0.020891711 0.01811478 0.065829664
000380 fd 19 bd 3b 87 35 43 bd 97 93 06 bd 4e eb a0 bb
       0.0057709203 -0.04765847 -0.032855596 -0.004910863
000390 df 3c d7 3c 37 38 b3 bc 9f 62 45 3d 1f 67 0d bc
       0.026274143 -0.021877391 0.048189756 -0.008630543
0003a0 2e 2b ca 3d f9 e9 50 3d aa 6b 4f ba ad 1c d3 bc
       0.09871517 0.051004384 -0.00079124665 -0.02577051
0003b0 3c 93 bd 3c 0e 6c b6 bc a9 4e 9f bc 01 5e 77 bc
       0.023141496 -0.022268321 -0.019446688 -0.015098096
0003c0 49 ab 3e 3d 7a 39 eb 3c ef af 1e bb 55 cd 8d 3c
       0.04655007 0.02871393 -0.0024213751 0.017309824
0003d0 1d 89 0d bd 99 15 c9 3c f4 e7 18 3d 9e 0c c1 3a
       -0.03455459 0.024546431 0.037330583 0.0014728492
0003e0 20 68 2b 3b 25 f7 da 3c 57 8d 68 bc f1 9d 16 3d
       0.0026154593 0.026729176 -0.014193854 0.03677172
0003f0 32 20 73 3d d3 0c 43 3c 9d 05 a3 bc 0b 99 10 3d
       0.059356876 0.011904913 -0.019900138 0.035302203

energy_lin.3.weight f4 [150, 300]
000000 41 0c a9 3d d9 ba 8d bd 71 c0 70 3d f6 c3 25 3d
       0.0825429 -0.06920404 0.058777276 0.040470086
000010 2e 7d e1 3d 0e 33 ea 3d 5b 35 31 bc 87 20 8a 3c
       0.11010204 0.11435519 -0.010815944 0.016861213
000020 30 22 0c 3e 80 4d 03 bc a8 c5 f0 bd b9 a9 77 bc
       0.13684916 -0.008014083 -0.1175645 -0.015116149
000030 ba 6c b4 bc b0 19 43 bd b7 16 ad bc db b4 d7 3d
       -0.022024501 -0.04763192 -0.021128995 0.10532542
000040 fd 9b b2 bd 0f d1 c1 3d 9a be ea 3d 9e 55 5e 3d
       -0.08721159 0.09463703 0.114621356 0.05428087
000050 ad 7d 4d be 12 a1 0e 3e 89 6f 4e bd 58 fa a8 be
       -0.20067473 0.13928631 -0.050399337 -0.33003497
000060 21 ef 7a bd fe c5 22 3b 4c 47 84 bd d0 3a 35 3e
       -0.061263207 0.002483725 -0.06458911 0.17698216
000070 0c 93 40 be c7 fa 5d 3d 64 11 a2 bd b8 f1 87 3d
       -0.18806094 0.054194238 -0.07913473 0.06637901
000080 1c 19 fc 3c 43 13 8f 3e 5b b3 bc bd 5e 4c a4 3d
       0.030773692 0.27944383 -0.09213897 0.080223784
000090 39 eb d7 39 a4 bf cb 3d e2 46 c3 bd f0 d1 99 3d
       0.0004118325 0.09948662 -0.09535004 0.075107455
0000a0 47 06 21 bd 94 f8 07 3d e1 f7 9e bd a9 a9 21 3e
       -0.039312627 0.033196047 -0.07762123 0.15787376
0000b0 b5 a7 0b 3d 25 25 7f bd 29 5f b0 3d 1f 09 d7 3d
       0.034095485 -0.062291283 0.086119 0.104997866
0000c0 04 9b 88 3d f3 5e c7 bd 5d f2 27 3c 62 b8 47 3d
       0.06670192 -0.09734907 0.010250655 0.048759826
0000d0 d6 96 9e ba 8f 9b 06 3d 10 65 ef bd e9 4b 23 3e
       -0.0012099396 0.032863196 -0.11689198 0.15946926
0000e0 29 4a 4d bd c4 1e 98 3c 95 30 31 bd cc 7e 9f bd
       -0.050119553 0.018569358 -0.043259222 -0.077878565
0000f0 70 5f ac 3b f9 c6 e1 bc 62 0d 4f bd d7 d7 6b 3c
       0.0052604005 -0.027560698 -0.050549872 0.014394722
000100 74 54 08 3e d7 c5 a2 be fd c1 f7 3d 82 1b 68 bd
       0.13313466 -0.31791565 0.12097547 -0.05666686
000110 38 6c 84 bc 11 76 d3 3d ff e7 73 bc 90 c3 dc 3d
       -0.016164884 0.10325254 -0.014886855 0.10779488
000120 24 31 ac bd 13 62 04 3e d3 54 b7 3d c5 d7 fe bd
       -0.0840781 0.12928037 0.08951726 -0.124434985
000130 3b 55 0f be 88 29 aa bd 12 e9 6d 3d 0a 52 1e 3d
       -0.13997357 -0.08308703 0.0580836 0.038652457
000140 6a d8 fd bc 92 fa cf 3d b0 4a d6 3d 0a 0f a5 3e
       -0.030986983 0.10155214 0.10463464 0.32238036
000150 78 5f 04 3e b7 12 b5 bd b9 89 e2 3c 54 4e 3e bd
       0.12927043 -0.0884146 0.027653562 -0.04646142
000160 7b bb 4d bd 34 3f a3 bd 13 8e 06 bc 52 fa 9b 3c
       -0.050227623 -0.079710394 -0.008212584 0.01904026
000170 f8 46 3e 3d de 2a c7 bd 83 02 ef 3d 1e 06 9f bd
       0.0464544 -0.09724973 0.11670401 -0.07764839
000180 65 96 8a be 60 1e c5 bd f3 34 1b 3e 43 cf 36 be
       -0.27067867 -0.09624934 0.15156917 -0.17852502
000190 7f e9 06 be b5 cb c9 3e ff 99 57 3e 81 b8 68 bd
       -0.13175009 0.3941323 0.21054839 -0.05681658
0001a0 a7 4a eb bc 1b a1 29 3b 70 36 ae 3d 50 fe b2 3d
       -0.02872212 0.002588338 0.08506477 0.087399125
0001b0 e6 51 16 3f d5 68 34 bd be a3 8f 3d ea 56 b5 3d
       0.5871872 -0.044045288 0.07013653 0.08854468
0001c0 08 49 90 3d 06 f4 97 3d 9a d1 ec 3c 53 10 e8 3d
       0.070451796 0.07419591 0.02890854 0.113312386
0001d0 1f cf eb bd c5 75 99 bc 84 a2 38 3c eb 9d 56 3d
       -0.115141146 -0.018732915 0.0112692155 0.052396696
0001e0 99 bb 09 be 1f 32 58 3e c3 98 fb 3c cb 16 bf 3d
       -0.13450469 0.2111287 0.03071249 0.09330519
0001f0 e9 b3 0e be 55 a3 08 bd 5f 85 aa bd ff 34 9a 3d
       -0.13935818 -0.03335889 -0.0832622 0.075296395
000200 5f 20 07 3d da 8d f9 3d cb 2c da bd 4d 77 80 3b
       0.032989856 0.12185259 -0.10653075 0.0039204718
000210 29 84 52 bd 96 ae 38 3d 19 41 17 bd 16 c8 bd bd
       -0.05139557 0.045088373 -0.036927316 -0.09266679
000220 88 d0 b5 bd f1 89 90 3d 0f 93 00 be e2 2c a7 14
       -0.08877665 0.0705756 -0.12556098 1.6880394e-26
000230 39 c3 a2 bd 14 24 7f bd e2 8e 49 bd 87 dd d8 3d
       -0.07947392 -0.062290266 -0.04920853 0.10589128
000240 42 d6 e4 3d 34 08 54 bd bd 90 1d 3e e7 8e 1e 3d
       0.11173679 -0.051765636 0.15387245 0.0387105
000250 c7 c2 2b bc a6 e5 0a 3f 21 9e f6 3d ee 39 00 be
       -0.01048345 0.54256666 0.120418794 -0.12522098
000260 a6 84 f3 3d 65 75 0e be fa e4 85 bd 75 72 07 be
       0.11890535 -0.1391197 -0.065378144 -0.13227256
000270 f5 30 2a bd be 0e a5 bc 6b ca 01 be 11 7e 65 3c
       -0.041550595 -0.020148631 -0.12674873 0.014007107
000280 32 15 8a 3b 16 0a e0 be ea ee 19 3c 8b fc d7 3d
       0.0042139525 -0.43757695 0.00939534 0.105462156
000290 af 05 9c be 4d f6 35 bd b7 78 c2 bd 6e 4c 1f 3e
       -0.30473086 -0.044424344 -0.09495681 0.155565
0002a0 d3 e3 4c 3d 2f 33 be be 2d 4a d9 3d df 9f da bc
       0.050021958 -0.37148425 0.10609851 -0.02668756
0002b0 f0 ce 0b 3c ef 66 dc 3c 62 33 71 bd 91 1b 8b ba
       0.008533224 0.026904551 -0.058886893 -0.0010613074
0002c0 81 5e 7a 3d eb ae 12 3e 9c 92 cf bd 87 d3 44 3c
       0.061125282 0.14324538 -0.101353854 0.012013323
0002d0 90 4a a4 bd 3c c5 a4 3d b2 43 70 3d 64 7e 78 3e
       -0.08022034 0.08045432 0.05865831 0.24266964
0002e0 c4 85 9f 3d f9 41 b2 3d 38 c9 51 3d 52 ab 7e 3c
       0.07789186 0.087039895 0.051217288 0.015543776
0002f0 fb 95 a7 3d 35 5c f7 3d 01 62 e2 3d 3c 58 f9 bd
       0.081829034 0.12078134 0.11053849 -0.121750325
000300 33 4e 96 bd 08 c8 e3 bd e6 c3 00 3e 3f 2d 0a bd
       -0.07339134 -0.11122137 0.1257473 -0.033734556
000310 b4 ab c9 bd 47 ba d6 bd 6f 38 19 3d 36 57 5d bd
       -0.09847203 -0.10484748 0.037407335 -0.05403825
000320 eb 72 b3 bd e3 f4 4b bc ab 11 76 3c bc 10 ac 3d
       -0.08762153 -0.012448522 0.015018861 0.08401629
000330 5a 9c 93 3d bb dc 95 bd ad 31 d5 3d 64 c7 c2 bd
       0.07207556 -0.073174916 0.104098655 -0.09510687
000340 c2 6a 02 be 35 25 d0 bd 17 a1 d6 3d ab d2 d0 3d
       -0.12736037 -0.10163347 0.10479944 0.10196432
000350 0e 33 f1 bc 36 a4 06 be a9 f8 0a bd e9 e5 aa b9
       -0.02944329 -0.13148579 -0.033928547 -0.00032596223
000360 d5 d7 f1 3d 91 45 d8 3d ab 8b 6b 3e e3 7b 95 bd
       0.11808745 0.10560144 0.23002498 -0.0729902
000370 48 08 07 3c 0f 7b 8d 3d 93 7f 18 bd b1 04 95 3c
       0.0082417205 0.06908237 -0.03723104 0.018190714
000380 61 63 be 3d 72 65 d4 bd 2e a0 21 be c1 de 87 bd
       0.09296299 -0.10370912 -0.1578376 -0.06634284
000390 f3 83 17 3d 11 76 5f 3c eb a7 c6 bd b9 52 99 3c
       0.03699107 0.013638989 -0.096999966 0.018716203
0003a0 44 92 f8 3c 58 00 fd bd 44 03 8b bd 20 95 fc 3d
       0.030343182 -0.12353581 -0.06787732 0.12333131
0003b0 ec 75 d3 bc 70 aa 95 bd 6b 5b 53 bd 18 95 0e 3e
       -0.025813065 -0.07307899 -0.051600855 0.13924062
0003c0 67 b1 3d 3e 8a 72 99 3d 68 3c 29 bb 55 3b a9 bb
       0.18524705 0.0749255 -0.0025823358 -0.0051645436
0003d0 ae 9f af 3c ad 89 ab 3c 68 bb 00 3e ae c7 1a be
       0.021438446 0.020939672 0.1257149 -0.15115234
0003e0 c7 91 f9 bd 89 85 b0 3d 81 af f5 3d 93 ad 38 bc
       -0.12186008 0.0861922 0.11996365 -0.011271852
0003f0 9c 70 b3 3d ea bd c7 bd 43 53 a2 3d 5f c6 42 3d
       0.08761713 -0.0975302 0.07926037 0.047552463
