models/mpnn_A139_B23_E300_L2/82.pt (torch, 742651 bytes, 9 tensors)

atom_lin.weight f4 [300, 139]
0	0xbe72c0c8	-0.23706353
1	0x3cd84f42	0.02640498
2	0xa3b965d2	-2.0100863e-17
3	0xa8262c51	-9.224461e-15
4	0xa4a8e99a	-7.325412e-17
5	0x80357458	-4.909018e-39
6	0x3df4a0c9	0.1194473
7	0x3db61847	0.08891349
8	0x3dde343f	0.10849809
9	0xbe80d1de	-0.25160116
10	0x80357ce1	-4.91208e-39
11	0xa720c59b	-2.2311583e-15
12	0xbe8129a6	-0.25227088
13	0x80356bdd	-4.905975e-39
14	0x97a2d151	-1.0521844e-24
15	0xbd8a3d8d	-0.06750021
16	0x3eab2da6	0.33433264
17	0x3e251ccb	0.16124265
18	0x0035778c	4.910167e-39
19	0x94a1bb47	-1.6330713e-26
20	0x9183a550	-2.0770037e-28
21	0x296ef301	5.3057388e-14
22	0x803569bc	-4.905212e-39
23	0x275dcd72	3.0781283e-15
24	0x25683c1b	2.0143157e-16
25	0xbcb0115b	-0.02149265
26	0x3e3318fd	0.17490001
27	0x3c729168	0.014805175
28	0x81d1c5e7	-7.705845e-38
29	0x2a493b40	1.7872943e-13
30	0x002c9c8a	4.096917e-39
31	0x0ce413e2	3.5140929e-31
32	0x00358bd0	4.917437e-39
33	0x29834bf3	5.830744e-14
34	0x2020903e	1.3600253e-19
35	0x3df265cf	0.11835825
36	0x8794b023	-2.2372089e-34
37	0x1bf24174	4.007784e-22
38	0x29987d2c	6.77187e-14
39	0x80357e42	-4.912574e-39
40	0x28f119f6	2.6767634e-14
41	0x874fcfa6	-1.5633972e-34
42	0x9b8fcc3a	-2.3789344e-22
43	0x208e955e	2.4154579e-19
44	0x23e78242	2.5100237e-17
45	0xa214c607	-2.0162575e-18
46	0x0035884e	4.916178e-39
47	0x8d9e05f6	-9.738937e-31
48	0x2a215a55	1.4331013e-13
49	0x16bb995c	3.0308263e-25
50	0x0f93bfc1	1.456918e-29
51	0x907ee7de	-5.027129e-29
52	0x24537ef8	4.586088e-17
53	0x3e7636ee	0.24044392
54	0x2156607b	7.263371e-19
55	0x1b339334	1.4854097e-22
56	0x8035776d	-4.910123e-39
57	0x00357eb0	4.912728e-39
58	0x97015f66	-4.180256e-25
59	0x1c51808d	6.9318447e-22
60	0xa9eed677	-1.0606527e-13
61	0x1f448386	4.1613408e-20
62	0x0a8cb868	1.3550876e-32
63	0xa9f5cb4c	-1.0915452e-13
64	0xa7e45602	-6.3375962e-15
65	0x264906da	6.974517e-16
66	0x0647871b	3.7527e-35
67	0x00357839	4.910409e-39
68	0x210dc886	4.803805e-19
69	0xa911af5c	-3.2348568e-14
70	0x901f1af3	-3.1377982e-29
71	0x9934c1b8	-9.344903e-24
72	0x107bc411	4.9652066e-29
73	0x12acb3c4	1.0899042e-27
74	0x0ba1d493	6.233479e-32
75	0x1e3d1fac	1.0012126e-20
76	0x803577db	-4.910277e-39
77	0x1b903fc7	2.3864017e-22
78	0x1c453e09	6.526201e-22
79	0x0d0d7214	4.3586296e-31
80	0x230fc1cd	7.7930844e-18
81	0x0228afd1	1.2393148e-37
82	0x80282c53	-3.68932e-39
83	0x17a33f7d	1.0549655e-24
84	0x05f9b01e	2.3480543e-35
85	0x1748e081	6.490685e-25
86	0x1c5aafa3	7.2357155e-22
87	0x8f9f423d	-1.5704125e-29
88	0xa3b6c802	-1.9817186e-17
89	0x16d36e85	3.4158636e-25
90	0x16ea9376	3.78978e-25
91	0xa6d34248	-1.4659032e-15
92	0xa6582d72	-7.5001644e-16
93	0xa84e0538	-1.1436429e-14
94	0x0ca2f835	2.5109436e-31
95	0x855bd6de	-1.03367954e-35
96	0xa85790c6	-1.196629e-14
97	0xa767d82f	-3.2174883e-15
98	0x0357b718	6.3393003e-37
99	0x0408e7ab	1.60931e-36
100	0x80358c02	-4.917507e-39
101	0x8ee94aa7	-5.7510822e-30
102	0x89baf364	-4.5006755e-33
103	0x00184917	2.230272e-39
104	0x1d05df1a	1.7717744e-21
105	0x9e262b33	-8.7969e-21
106	0x263e0ea6	6.5939344e-16
107	0x12136f8b	4.652251e-28
108	0x24e42056	9.893402e-17
109	0xa0131d26	-1.2461029e-19
110	0x847ea43b	-2.9932967e-36
111	0x291814d9	3.3768862e-14
112	0x0396a4f3	8.854078e-37
113	0x9b0ad8cd	-1.1485145e-22
114	0x2a2f80bc	1.5587786e-13
115	0x1cd86589	1.4319927e-21
116	0xa7cb065a	-5.6350705e-15
117	0x1217de4b	4.7921196e-28
118	0x9e8acd78	-1.4696298e-20
119	0xbe3f3b0c	-0.18674868
120	0x3e0675db	0.13130896
121	0xbd466938	-0.04844019
122	0x3de59745	0.11210493
123	0xbd69b346	-0.057055734
124	0xa815232f	-8.278791e-15
125	0x3dfffc64	0.124993116
126	0xa306f4f6	-7.316027e-18
127	0x002ae033	3.937518e-39
128	0xbd26399e	-0.04058229
129	0x3e4a9d91	0.1978667
130	0x3d5b53e0	0.053546786
131	0xbd02417a	-0.031800725
132	0x3dbb36c5	0.09141306
133	0x3e33fb9b	0.17576449
134	0x2857ce1c	1.197959e-14
135	0xa40cfae6	-3.057018e-17
136	0x20a889de	2.855154e-19
137	0x2146cb8d	6.7354407e-19
138	0xbd8bd3d5	-0.06827513
139	0xbbcb0306	-0.006195429
140	0x3dd0e99c	0.102008075
141	0xa3ca5105	-2.1935197e-17
142	0x2811a7d0	8.0855055e-15
143	0x9e614b6d	-1.19269985e-20
144	0x0e8e464b	3.5073392e-30
145	0xbddc3795	-0.10752789
146	0xbdbe39f5	-0.09288398
147	0xbd20a30a	-0.039217986
148	0x3d0d9a43	0.034570944
149	0x226eb13f	3.2348848e-18
150	0xa79215bb	-4.05467e-15
151	0x3ecb9b16	0.3976676
152	0xa7b7605f	-5.089719e-15
153	0x03bad120	1.098011e-36
154	0xbd86b0ba	-0.06576677
155	0xbe062d4d	-0.13103218
156	0x3e533388	0.20625126
157	0x914dd597	-1.6237466e-28
158	0x1ba87f51	2.7875545e-22
159	0x06540cbb	3.988212e-35
160	0x9cca99b2	-1.3406968e-21
161	0x8afcc7cc	-2.4341873e-32
162	0x2082206e	2.2044317e-19
163	0x18a203f0	4.1879994e-24
164	0x3da34b30	0.07973325
165	0x3d76970a	0.060202636
166	0xbd167d36	-0.036740504
167	0x06824d69	4.901431e-35
168	0x2484ef66	5.765143e-17
169	0x802b75a6	-3.99113e-39
170	0x95d27397	-8.5000693e-26
171	0x00356fbb	4.907363e-39
172	0x8cb14530	-2.7312809e-31
173	0x261ffa85	5.5503724e-16
174	0xbe5bbd3a	-0.21458903
175	0x27a641d2	4.614562e-15
176	0xa79448e2	-4.115727e-15
177	0x1fbe16de	8.050596e-20
178	0x8f95adc5	-1.4759468e-29
179	0xa7e4310b	-6.3335885e-15
180	0x972aa501	-5.5138227e-25
181	0x1fe2d41e	9.606564e-20
182	0x270da15c	1.9655154e-15
183	0x2011e94e	1.2359172e-19
184	0x072840d7	1.265797e-34
185	0x1b83b296	2.178754e-22
186	0x90979f42	-5.9804374e-29
187	0x202bc17a	1.454828e-19
188	0x1132159b	1.4048382e-28
189	0x13c741dd	5.029961e-27
190	0x80358304	-4.914281e-39
191	0xa72bf369	-2.386297e-15
192	0x3db62c34	0.0889515
193	0x80358dba	-4.918123e-39
194	0xa69247cd	-1.0150247e-15
195	0xa71892ce	-2.117382e-15
196	0x044567a6	2.3204832e-36
197	0x10a61bd8	6.5518355e-29
198	0x97f19969	-1.5612986e-24
199	0x22285a59	2.2816075e-18
200	0xa5d50d15	-3.6958475e-16
201	0x80356ba1	-4.905891e-39
202	0x9537d5f7	-3.7125344e-26
203	0x890abb39	-1.6699177e-33
204	0x28154302	8.2856915e-15
205	0xa1ed53d8	-1.6081938e-18
206	0x00356d8a	4.906577e-39
207	0x1e224024	8.5894726e-21
208	0x00358c52	4.917619e-39
209	0x941e1273	-7.9806e-27
210	0x0467f46e	2.7266156e-36
211	0x278afb85	3.8575392e-15
212	0x22fd8b1e	6.8723083e-18
213	0xa648463b	-6.948412e-16
214	0xa99572a6	-6.6368176e-14
215	0x1bf97600	4.126985e-22
216	0xa8cdc83a	-2.2846406e-14
217	0x122927a6	5.337587e-28
218	0x8da1ff26	-9.983816e-31
219	0x232415b3	8.895053e-18
220	0xa553076d	-1.8303849e-16
221	0x1eef4d79	2.5337151e-20
222	0x803580a4	-4.913429e-39
223	0x003576dd	4.909921e-39
224	0x80357874	-4.910492e-39
225	0xa6fa66e4	-1.7375123e-15
226	0xa85fb6cb	-1.2418624e-14
227	0x941004ce	-7.27109e-27
228	0x23373a57	9.932804e-18
229	0x159fae29	6.4494365e-26
230	0xaa536a77	-1.8777502e-13
231	0x00357a58	4.91117e-39
232	0x22c494a1	5.3283273e-18
233	0x12853f4e	8.409086e-28
234	0x0ab5a011	1.7489876e-32
235	0x28d3e975	2.3526952e-14
236	0x953b5e60	-3.7838798e-26
237	0x13b6d880	4.6156745e-27
238	0x9c0d7d22	-4.6814717e-22
239	0xa66cbe49	-8.213683e-16
240	0x03640051	6.700354e-37
241	0x9d702710	-3.178393e-21
242	0x8aebaa83	-2.2693816e-32
243	0x1bc69b33	3.2856647e-22
244	0x85cd7ed5	-1.9324698e-35
245	0x0a0258d9	6.275983e-33
246	0x0a9fe757	1.5398163e-32
247	0x130f7d67	1.8110966e-27
248	0xa6bbe7e8	-1.303859e-15
249	0x2488c696	5.9317016e-17
250	0x9a61aa29	-4.6666364e-23
251	0x114dc141	1.62312e-28
252	0x8afa1507	-2.4082034e-32
253	0x9ea21c35	-1.7164083e-20
254	0x003589f3	4.916768e-39
255	0x142ba5db	8.666003e-27

atom_lin.bias f4 [300]
0	0x3d9eb40c	0.07749185
1	0x3e123f37	0.14281927
2	0xbd7514c0	-0.059834242
3	0x3cdb422e	0.026764955
4	0x3d452736	0.048133098
5	0xbc869b9c	-0.016431622
6	0x3dd7c031	0.105347045
7	0x3dbbdb7f	0.09172725
8	0x3da89efa	0.082334474
9	0x3dab8493	0.08374896
10	0x3c9e5954	0.019329704
11	0x3d8ec873	0.069718264
12	0x3d2ee75a	0.042701103
13	0xbcebdbde	-0.028791364
14	0xbd8ddb7e	-0.069266304
15	0x3d669949	0.056298528
16	0x3d6e86f7	0.05823418
17	0x3e320d38	0.17387855
18	0x3dcf8037	0.10131877
19	0x3d29b2c5	0.041430254
20	0xbcaca825	-0.021076271
21	0x3de9dfbe	0.114196286
22	0xbb540ae8	-0.0032355133
23	0xbd1bd411	-0.03804404
24	0x3dd87697	0.10569494
25	0xbcbe9ab9	-0.023267137
26	0x3cf97ff7	0.030456526
27	0x3bc3a079	0.0059700576
28	0xbaa3db14	-0.0012501203
29	0x3c7b097e	0.015322087
30	0x3d38f6e7	0.04515734
31	0x3d67ce2a	0.056593098
32	0x3d894190	0.06701958
33	0x3d87d8fa	0.06633182
34	0x3d93f898	0.0722515
35	0xbd14d4c9	-0.03633574
36	0xbd69ab3a	-0.05704806
37	0x3d6db8c1	0.058037523
38	0xbd629886	-0.05532124
39	0x3da4c3e3	0.08045175
40	0x3b4ca084	0.0031223604
41	0x3cef66d7	0.029223843
42	0x3dc12792	0.094313756
43	0xbcb8046a	-0.022463042
44	0xbd1c3517	-0.038136568
45	0x3c25fb81	0.010130764
46	0x3da67d23	0.08129337
47	0x3c830859	0.015995191
48	0x3db676d9	0.08909387
49	0xbd2e386c	-0.042534277
50	0x3da38ff1	0.07986439
51	0x3d4a6061	0.04940832
52	0xbce5a132	-0.028030965
53	0x3da8eaa4	0.08247879
54	0x3d2eb03f	0.04264855
55	0x3da714f0	0.081582904
56	0x3cc4d7a3	0.024028605
57	0x3db621d3	0.0889317
58	0x3d4075b2	0.046987243
59	0x3da569da	0.0807683
60	0xbc5c3e29	-0.0134425545
61	0xbd0b63c5	-0.034030695
62	0x3d411280	0.047136784
63	0x3dcccaf4	0.09999648
64	0x3dca8f62	0.09890629
65	0x3c1f2733	0.009713936
66	0x3daf70f0	0.08566463
67	0x3d89ffea	0.06738265
68	0xbd835dd5	-0.064143814
69	0x3da93eed	0.08263955
70	0x3cc9e759	0.024646448
71	0x3da35a72	0.079762354
72	0xbcf2cfc8	-0.029640093
73	0x3d362df7	0.04447743
74	0x3d9d89e4	0.07692316
75	0x3dc75101	0.09732247
76	0xbc6f43b3	-0.014603543
77	0xbc067706	-0.008207088
78	0xbbc4550b	-0.005991583
79	0x3d85a2b2	0.06525172
80	0x3cbf5b36	0.023358922
81	0x3db67acf	0.08910143
82	0x3c930eda	0.017951418
83	0x3d96c5e7	0.073619656
84	0xbd7ed44b	-0.062214177
85	0x3d498794	0.049201563
86	0x3d89b418	0.06723803
87	0x3b6d4668	0.0036205295
88	0xbd04db6c	-0.03243582
89	0x3d81ad82	0.06331922
90	0xbbdab0e8	-0.006673921
91	0xbd901e9a	-0.07037087
92	0x3d82d898	0.06388968
93	0x3da1eecb	0.07906874
94	0x3d705043	0.058670294
95	0x3d5f9cb5	0.054592807
96	0xbb35cb35	-0.002773953
97	0x3dd30fa0	0.103057146
98	0x3d2de278	0.042452306
99	0x3d349c73	0.044094514
100	0xbc56fef1	-0.013122306
101	0x3d32c12a	0.043641247
102	0x3dc9396c	0.098254055
103	0xbd4fddab	-0.05074851
104	0x3da2ad5f	0.07943224
105	0x3db21c00	0.08696747
106	0xbd6ad2b8	-0.057329863
107	0x3de8a001	0.11358643
108	0xbd42cec3	-0.047560465
109	0x3da4820d	0.08032618
110	0xbc6ed3c6	-0.014576858
111	0xbc0e1a36	-0.008673241
112	0xbd51b22a	-0.0511953
113	0x3d894f0a	0.06704529
114	0xbc4f0567	-0.012635565
115	0x3d072f60	0.033004165
116	0x3da1a240	0.07892275
117	0xbbee44cf	-0.007271386
118	0x3d0b598f	0.034020957
119	0xbd968b48	-0.073507845
120	0x3d7120e6	0.058869265
121	0x3aca1446	0.0015417419
122	0x3d10dd75	0.035367448
123	0x3da02c83	0.0782099
124	0x3daa13a7	0.0830453
125	0x3dfcb2b0	0.123387694
126	0x3cbfd9fc	0.023419373
127	0x3d055e9a	0.032560922
128	0xbdad8746	-0.08473067
129	0xbc68483c	-0.014177378
130	0xbdea95ef	-0.11454379
131	0x3d932e3d	0.071865536
132	0x3c9a6eb3	0.018851614
133	0x3df57c02	0.11986543
134	0xbd354eb1	-0.0442645
135	0x3dc1a745	0.09455732
136	0x3d88c7d4	0.06678739
137	0x3d5dd270	0.054155767
138	0x3d230b0c	0.039805457
139	0x3de2e5ff	0.110790245
140	0xbde88c3f	-0.11354875
141	0x3d5db397	0.05412635
142	0xbd1d0111	-0.038331095
143	0x3d07579f	0.033042546
144	0xbdc1a687	-0.09455591
145	0x3b924cba	0.004464713
146	0xbd113701	-0.035452846
147	0x3dc983c2	0.09839584
148	0x3dd3235a	0.10309477
149	0x3d92784a	0.071518496
150	0x3daa9850	0.083298326
151	0x3d4c65a0	0.049901605
152	0x3cbca856	0.023029488
153	0x3d8ef72e	0.069807395
154	0x3d962184	0.07330611
155	0x3c123365	0.008923386
156	0x3d94bb3a	0.07262273
157	0xbc76fb27	-0.015074528
158	0xbc84d7e0	-0.016216218
159	0xbe1d4124	-0.1535688
160	0x3d8cc8a1	0.068742044
161	0xbd043001	-0.032272343
162	0x3db648f0	0.089006305
163	0x3d46e3b0	0.048556983
164	0x3daf2308	0.085516036
165	0x3d81206f	0.06305014
166	0xbc22f874	-0.009946931
167	0x3cbc1176	0.022957545
168	0xbc85e7c3	-0.016345864
169	0xbc6c0625	-0.014405762
170	0x3de6ed2d	0.112757064
171	0x3dc8962b	0.09794267
172	0x3c9bbc0f	0.019010572
173	0xb3506d39	-4.852811e-08
174	0x3dc2cadf	0.09511351
175	0x3db82733	0.08991852
176	0xb91ac202	-0.00014758858
177	0x3d16a131	0.036774818
178	0xbca5ead0	-0.020253569
179	0xbc9751e1	-0.01847166
180	0x3c2e9358	0.010655247
181	0x3cfa5035	0.030555824
182	0x3d96cb29	0.073629685
183	0xbc22ec8e	-0.009944094
184	0x3d11886f	0.035530504
185	0x3dec6f6c	0.115446895
186	0xbd5ed5a8	-0.054402977
187	0x3d113b9c	0.03545724
188	0x3dc28a16	0.09498994
189	0xbd216b3b	-0.039408904
190	0x3e4d24e3	0.20033602
191	0xbd0b0b77	-0.03394648
192	0xbd3b5495	-0.04573496
193	0xbd476ca9	-0.04868761
194	0x3d7d45c9	0.06183413
195	0x3cd0643e	0.025438424
196	0x3de521f7	0.11188119
197	0x3cb7c551	0.022432955
198	0xbd5a882d	-0.053352524
199	0xbcd79b26	-0.026319098
200	0xbc40522e	-0.011738343
201	0x3da670d6	0.081269905
202	0x3cddb5f0	0.027064294
203	0x3ca9e039	0.0207368
204	0x3d309210	0.043108046
205	0x3d99f0cf	0.07516634
206	0x3d066906	0.032815002
207	0x3d9eb08d	0.07748518
208	0xbd2e8346	-0.04260566
209	0x3d037568	0.03209439
210	0xbc8c5288	-0.017129198
211	0x3c24da85	0.010061865
212	0x3d13b33e	0.03605961
213	0x3db21a33	0.08696403
214	0xbc892855	-0.016742865
215	0xbb1c9490	-0.002389226
216	0x3d8c8032	0.06860389
217	0xbb9919c9	-0.0046722633
218	0x3dae7650	0.0851866
219	0x3d465361	0.04841936
220	0xbd267423	-0.0406381
221	0xbcd105fc	-0.025515549
222	0x3dc8cd88	0.09804827
223	0xbe1efca9	-0.1552607
224	0xbcb5946d	-0.022165501
225	0x3d7b89a6	0.06141057
226	0x3dac9b6e	0.08428083
227	0xbd60c6ec	-0.054877207
228	0x3db57836	0.08860819
229	0xbc66a3a4	-0.014077101
230	0x3c8ae98b	0.016957065
231	0x3d265d00	0.040616035
232	0x3dc1f057	0.09469669
233	0xbd06078d	-0.032722045
234	0x3b9088ea	0.0044108527
235	0x3caa4cbc	0.020788543
236	0xbac0ad04	-0.00147
237	0x3da015c0	0.078166485
238	0x3c06db75	0.008231034
239	0xb84b2a66	-4.8438458e-05
240	0x3d1f94df	0.038960334
241	0x3da943cc	0.08264884
242	0x3d301cb8	0.04299614
243	0x3dc5cdaa	0.09658368
244	0x3da813b2	0.082068816
245	0x3db3c4d5	0.08777777
246	0x3d5deaa5	0.054178853
247	0x3c1305ca	0.008973548
248	0x3d94426a	0.0723923
249	0x3da47c53	0.080315255
250	0xbdaaeb9a	-0.08345719
251	0x3de5eab0	0.11226404
252	0x3dac279b	0.08405992
253	0x3dae5818	0.08512896
254	0xbdede717	-0.116163425
255	0x3cf02d6d	0.029318536

bond_lin.weight f4 [300, 23]
0	0xb5d5930a	-1.5912531e-06
1	0x3eb7108c	0.35754812
2	0xbe49997a	-0.19687453
3	0x3f004529	0.5010553
4	0x16b4f8ca	2.9237576e-25
5	0x395fb4e1	0.0002133432
6	0xb5d63616	-1.5959984e-06
7	0x30d4cd6c	1.5483415e-09
8	0x82dd2fc2	-3.2500443e-37
9	0x97cddf81	-1.3304235e-24
10	0x9fee5003	-1.0092929e-19
11	0x9802b8ce	-1.6895409e-24
12	0x3eaa5e74	0.33275187
13	0x244680e0	4.3043567e-17
14	0x31a50ac4	4.803356e-09
15	0x272868ac	2.3371426e-15
16	0x8028e6f6	-3.756273e-39
17	0x312a42d0	2.4776234e-09
18	0x01ecbe4b	8.6965765e-38
19	0x2eadebc6	7.909011e-11
20	0x17a2b027	1.0513472e-24
21	0x2e1ef4b4	3.614238e-11
22	0xb3a8a591	-7.853226e-08
23	0xba9a50c7	-0.0011773341
24	0xbf0295ff	-0.51010126
25	0xbef9f557	-0.48819992
26	0x3db33084	0.08749488
27	0x1d162364	1.9870631e-21
28	0x375a7443	1.3020882e-05
29	0x2a30a575	1.5689345e-13
30	0xb76c49be	-1.4083866e-05
31	0xb8cbca08	-9.7174256e-05
32	0xb98abc74	-0.0002646182
33	0xa4ad2d4d	-7.510353e-17
34	0x91491480	-1.5862421e-28
35	0xbeac46c2	-0.33647734
36	0x95a541d7	-6.6746846e-26
37	0x208cdbda	2.3862408e-19
38	0x351e1705	5.8893085e-07
39	0xa86a8a45	-1.3019592e-14
40	0x390c17a2	0.00013360244
41	0xb3a7708b	-7.797015e-08
42	0xb7a4cef2	-1.964669e-05
43	0x304caf35	7.446375e-10
44	0x228a12ab	3.742474e-18
45	0x93378215	-2.3161983e-27
46	0xb0b7e65e	-1.3380477e-09
47	0xbf14bc72	-0.58100045
48	0xbecc6e50	-0.39927912
49	0x3e344975	0.17606147
50	0x00155911	1.960496e-39
51	0x3356a38f	4.9974513e-08
52	0x984ba603	-2.632095e-24
53	0xa5173e56	-1.3118282e-16
54	0x1a0701d4	2.7918822e-23
55	0x98efb83f	-6.1966093e-24
56	0x31d7bd48	6.2788423e-09
57	0x9f912fd3	-6.148901e-20
58	0x3dd12a78	0.102131784
59	0x27618e29	3.1302088e-15
60	0x8c1516c2	-1.1485391e-31
61	0x802f7eec	-4.3618e-39
62	0xad26f437	-9.490234e-12
63	0x819640ab	-5.519409e-38
64	0x3a51e812	0.00080072985
65	0x38b909c2	8.823305e-05
66	0xb0d4624c	-1.5452968e-09
67	0xb7d79c91	-2.5702904e-05
68	0xb78970ba	-1.6384165e-05
69	0x37bfa16b	2.284414e-05
70	0xbe5c46fa	-0.2151145
71	0x3e17c49e	0.14821097
72	0x3ec4608a	0.38354903
73	0x37c35b81	2.3288421e-05
74	0x00357b9c	4.911624e-39
75	0x2e41522c	4.3956103e-11
76	0xb3b0c577	-8.231557e-08
77	0x96eebb25	-3.8569079e-25
78	0x074dfa41	1.5496029e-34
79	0x39ea1f8d	0.00044655465
80	0x2e4c6aea	4.647919e-11
81	0x3d28f5ff	0.041250225
82	0x3801e7c4	3.0971845e-05
83	0x381d1ebd	3.7460344e-05
84	0xa0862a5a	-2.272851e-19
85	0x1715bb25	4.8380706e-25
86	0x394a9818	0.0001932088
87	0x385ea147	5.3079126e-05
88	0x2d8c294d	1.5934499e-11
89	0x30d4c3ad	1.5480645e-09
90	0xb0f3c0c0	-1.773536e-09
91	0x3488ce05	2.5481873e-07
92	0x2a3e23ec	1.6887853e-13
93	0xbeda3f67	-0.42626497
94	0xbeef67da	-0.4675892
95	0xbe89e5c2	-0.26933104
96	0xb558ddb7	-8.078891e-07
97	0x9c1fc375	-5.286131e-22
98	0x3a102ac8	0.0005499539
99	0x92611740	-7.102614e-28
100	0x1a9f8999	6.598316e-23
101	0xa85f385e	-1.2391209e-14
102	0x9253361c	-6.6646555e-28
103	0xa19dca29	-1.0692245e-18
104	0x3e85c18e	0.26124233
105	0xaeb95878	-8.428541e-11
106	0x982ce134	-2.2344177e-24
107	0xb90d35e9	-0.00013466891
108	0x397c29ff	0.00024048238
109	0x980a7dc9	-1.7899587e-24
110	0xba4419bb	-0.0007480641
111	0xad80723f	-1.460265e-11
112	0xb6f018fa	-7.155465e-06
113	0x19e95740	2.4126875e-23
114	0xa52b0a3d	-1.4835355e-16
115	0xa36a3125	-1.2695572e-17
116	0xbde636a1	-0.112408884
117	0x3e64b8b3	0.22336082
118	0xbe751451	-0.23933531
119	0xb0aaa944	-1.2417236e-09
120	0x80356aea	-4.905635e-39
121	0x3470e789	2.2435974e-07
122	0xb6e56bcd	-6.8372815e-06
123	0x39aefe4a	0.00033377326
124	0x321d62c0	9.161056e-09
125	0xb821e654	-3.85999e-05
126	0x8aeb0b25	-2.2633869e-32
127	0x3c822bbc	0.015889995
128	0x3520f75e	5.996461e-07
129	0x39695868	0.00022253545
130	0x3807ac70	3.2347103e-05
131	0x80106497	-1.505453e-39
132	0x384e1bbd	4.914006e-05
133	0x1b07b2b1	1.1224677e-22
134	0x2995db3b	6.6549597e-14
135	0x02a3ba96	2.4057792e-37
136	0x00357dab	4.912362e-39
137	0x00358414	4.914662e-39
138	0x2d2a248a	9.6714945e-12
139	0xbed4d75b	-0.41570553
140	0x3d7be0ea	0.06149379
141	0xbea4e77c	-0.3220786
142	0x261c0d85	5.4141695e-16
143	0xb65ac6f9	-3.2600349e-06
144	0x19efbc87	2.4788166e-23
145	0xba8941e3	-0.0010471906
146	0x9b1ecdc8	-1.3135945e-22
147	0x80356909	-4.904961e-39
148	0xa5124cdf	-1.2689526e-16
149	0xb9a0c898	-0.00030667032
150	0x3e55f5ab	0.20894496
151	0x3928420f	0.00016046337
152	0x02aef46d	2.5707296e-37
153	0x83c39c77	-1.14969925e-36
154	0x81f82996	-9.1160485e-38
155	0xb004e234	-4.8342774e-10
156	0x26419cc7	6.71728e-16
157	0x2866cb65	1.2811669e-14
158	0x80356b62	-4.905803e-39
159	0x38830828	6.248086e-05
160	0x34e2a416	4.221517e-07
161	0xb58eb8a3	-1.0633561e-06
162	0x3d923c95	0.07140461
163	0x3f00d628	0.50326777
164	0x3defe341	0.11713267
165	0x003585a9	4.91523e-39
166	0x80358baa	-4.917383e-39
167	0x2d96e199	1.7153211e-11
168	0xb892b22f	-6.995012e-05
169	0x212d34b9	5.868446e-19
170	0x2d1e4de8	8.998559e-12
171	0xb2b2ffdf	-2.0838284e-08
172	0x8a800da4	-1.2331083e-32
173	0xbd19b0a8	-0.03752199
174	0xb989e101	-0.00026298317
175	0xb8ad30be	-8.258362e-05
176	0xa91ab81e	-3.4354565e-14
177	0x36858859	3.979582e-06
178	0x389129ba	6.921911e-05
179	0xae52d114	-4.793417e-11
180	0x3822424f	3.8685565e-05
181	0x33860b66	6.2419346e-08
182	0xa0c16ae2	-3.27662e-19
183	0x191ecdad	8.2099444e-24
184	0x336cf27f	5.516858e-08
185	0x3ee220b9	0.4416559
186	0x3e659666	0.22420654
187	0xbed0d899	-0.4079025
188	0x92889cf8	-8.621502e-28
189	0xae806341	-5.838397e-11
190	0x00357ca0	4.911988e-39
191	0x35981dfb	1.1333608e-06
192	0x2a48e32f	1.7842389e-13
193	0x30511f5c	7.607832e-10
194	0xb8b8869b	-8.798876e-05
195	0xb6dc1a0d	-6.5595436e-06
196	0xbdbf4cfb	-0.09340855
197	0x90791426	-4.9122113e-29
198	0xb9a0d3f8	-0.00030675507
199	0xaa3b06f5	-1.661135e-13
200	0x2a7a0d5c	2.2209095e-13
201	0xb15020cb	-3.0286624e-09
202	0xb5deb5c6	-1.6593192e-06
203	0x39907629	0.00027553856
204	0x80356de2	-4.9067e-39
205	0xb7b05b10	-2.102324e-05
206	0x003587c2	4.915982e-39
207	0x88d61719	-1.2885087e-33
208	0x3e99a46c	0.30008256
209	0x3eb3b15d	0.35096255
210	0xbf0fa4ca	-0.56110823
211	0xb6fffc98	-7.628998e-06
212	0x9ae00413	-9.265081e-23
213	0x9e450cf8	-1.0431775e-20
214	0x2e0ab516	3.1538404e-11
215	0x37a95d81	2.0189911e-05
216	0x2d6ef903	1.3584025e-11
217	0x1e04fdb7	7.040489e-21
218	0x26bb15d7	1.2981651e-15
219	0x3d0c1e0d	0.034208346
220	0x8c9b0bb7	-2.3888582e-31
221	0xb5bb8621	-1.3971622e-06
222	0x3a896590	0.0010482538
223	0xaf92c447	-2.669671e-10
224	0x374e5f19	1.23006985e-05
225	0x0035700b	4.907475e-39
226	0xb84dff5c	-4.911363e-05
227	0x202ac367	1.4464213e-19
228	0x2b7b73d2	8.9333846e-13
229	0x2ee5bbd5	1.044708e-10
230	0xb76f9cf8	-1.4282057e-05
231	0xbe3283ea	-0.17433134
232	0xbd89787f	-0.06712436
233	0xbe9a3df8	-0.30125403
234	0xb60dd8c0	-2.1136802e-06
235	0xa9956154	-6.633813e-14
236	0x2ef79cb4	1.12600956e-10
237	0xae387051	-4.1936513e-11
238	0x95250bdb	-3.3330837e-26
239	0x35588321	8.065709e-07
240	0x81feb14a	-9.355926e-38
241	0xb9d2fd9b	-0.00040243272
242	0xbf010662	-0.50400364
243	0xb89f2c05	-7.58991e-05
244	0x229697a7	4.081815e-18
245	0xaf2c2e3c	-1.5659735e-10
246	0x2f1ee928	1.445285e-10
247	0xa6e9f6c2	-1.6234507e-15
248	0x803576ea	-4.90994e-39
249	0x26640e37	7.9122655e-16
250	0x8b3297e9	-3.4395838e-32
251	0xb4c39ccc	-3.6435665e-07
252	0x2b4c1a57	7.2511913e-13
253	0x2d8d3a08	1.6055615e-11
254	0xbee22fc9	-0.44177082
255	0x3ec6921e	0.38783354

bond_lin.bias f4 [300]
0	0xbd04852f	-0.032353576
1	0x3d991533	0.074747466
2	0xbd3d3dbe	-0.04620146
3	0x3d75c2a4	0.060000077
4	0x3d8f0cdb	0.06984874
5	0x3d8e5c68	0.06951219
6	0xbd96f157	-0.07370251
7	0x3e065b22	0.13120702
8	0x3d81be5e	0.06335138
9	0x3d99f9e6	0.075183675
10	0xbb8bfa49	-0.0042717797
11	0xbdd8a3e9	-0.105781384
12	0xbe95d991	-0.29267552
13	0xbe4a2e23	-0.19744162
14	0xbdd1b740	-0.1024003
15	0xbe4a6442	-0.19764808
16	0x3dd2e74c	0.10298023
17	0x3e8c7388	0.27431893
18	0x3df15107	0.11783033
19	0x3e2f9839	0.17147912
20	0x3d94ecc1	0.0727172
21	0xbd881017	-0.06643694
22	0x3dd9ef05	0.106412925
23	0xbd17fb52	-0.037104912
24	0x3e02b907	0.12765895
25	0xbe53c805	-0.2068177
26	0x3bb33225	0.005468624
27	0xbe6bc1ec	-0.23023194
28	0x3d0abb9c	0.033870324
29	0x3d8ec764	0.069716245
30	0xbd87dca5	-0.066338815
31	0xbe4827c5	-0.19546421
32	0xbe1fe326	-0.15613994
33	0xbb98881e	-0.0046548983
34	0x3e8cda9a	0.2751053
35	0xbdb0d2f6	-0.086339876
36	0x3d9db05e	0.07699655
37	0xbe884e3d	-0.2662219
38	0x3e7559c9	0.23960032
39	0xbcac02c8	-0.02099742
40	0x3e32ceaa	0.17461649
41	0xbdddba11	-0.10826505
42	0x3e92cf7c	0.28673923
43	0x3e3835c2	0.17989257
44	0xbaaf3fc5	-0.0013370445
45	0x3e47d7e4	0.1951595
46	0xbe46bc22	-0.19407704
47	0x3dd629c7	0.10457187
48	0xbe7c6d93	-0.24651174
49	0x3dfb02c4	0.12256387
50	0x3e334e44	0.17510325
51	0x3e12026c	0.14258736
52	0xbd08a588	-0.033360988
53	0xbd6912e4	-0.05690278
54	0x3b261866	0.0025344132
55	0xbda48f92	-0.08035196
56	0x3e22931c	0.1587643
57	0xbdd0ad88	-0.101893485
58	0xbd8d7ce1	-0.069085844
59	0xbddb53b4	-0.107093245
60	0x3dd398db	0.10331889
61	0xbc399642	-0.011327328
62	0xbd8176a6	-0.063214585
63	0xbdf969bd	-0.12178371
64	0xbe50694b	-0.20352666
65	0x3d808ba0	0.06276631
66	0x3c82b5e6	0.015955877
67	0x3e3be600	0.18349457
68	0x3d7c3d81	0.061582092
69	0xbda36b15	-0.07979409
70	0xbde2f77c	-0.1108236
71	0xbd38b625	-0.04509558
72	0xbe0e4757	-0.13894401
73	0x3e6ab341	0.22919942
74	0xbe815da7	-0.25266764
75	0xbe43444b	-0.1906902
76	0x3e1bb818	0.15206945
77	0xbc7f0496	-0.015565058
78	0x3e4362bb	0.19080631
79	0x3de01061	0.10940624
80	0xbdfdc801	-0.12391663
81	0xbd20cc9c	-0.03925763
82	0x3d5a0c07	0.053234126
83	0x3e0c106f	0.13678144
84	0x3e568be6	0.20951805
85	0x3e021dfb	0.12706749
86	0xbb009033	-0.00196172
87	0x3e3667d0	0.17813039
88	0x3d4f3023	0.050583016
89	0xbe0d7c22	-0.13816884
90	0xbca696d1	-0.020335587
91	0xbe5d9cd8	-0.21641862
92	0x3e121014	0.14263946
93	0x3dcfd4b0	0.10147989
94	0x3d4a9d51	0.049466435
95	0x3c727a30	0.01479964
96	0xbe42082e	-0.18948433
97	0x3d399596	0.045308672
98	0x3e1fdb67	0.15611039
99	0x3debbff3	0.11511221
100	0x3e66034d	0.22462197
101	0x3e807b5e	0.25094122
102	0xbcff8595	-0.031191627
103	0xbe8c28f4	-0.27374995
104	0xbe36d521	-0.1785474
105	0xbe0e7404	-0.13911444
106	0x3e56b8de	0.20968959
107	0xbe8cce18	-0.27500987
108	0x3cd9afce	0.026573088
109	0x3d410518	0.047124
110	0xbe501e77	-0.20324121
111	0xbc5ae13d	-0.013359365
112	0xbd2f5d29	-0.042813454
113	0xbe2a6939	-0.16641702
114	0x3e1a30c5	0.15057667
115	0x3e7d8070	0.24756026
116	0x3dcf8b98	0.10134047
117	0x3e79ef50	0.24407697
118	0x3dc63374	0.09677783
119	0xbe0f41d6	-0.13989958
120	0xbe906346	-0.2820074
121	0xbdc87f18	-0.09789866
122	0x38899ef5	6.562277e-05
123	0x3df7b093	0.12094226
124	0x3dfb8ad8	0.12282342
125	0xbc783b50	-0.01515086
126	0xbddc4ce4	-0.10756853
127	0x3d2b432f	0.04181212
128	0xbe3d307f	-0.18475531
129	0x3e236bf0	0.15959144
130	0xbe972788	-0.29522347
131	0xbe12ce83	-0.1433659
132	0x3e269035	0.16265948
133	0x3d041ceb	0.03225414
134	0xbdb74892	-0.089493886
135	0x3e0f78e2	0.14010957
136	0x3d68923d	0.05678009
137	0xbe2d7a06	-0.1694108
138	0x3d4895cc	0.048970982
139	0xbd838f98	-0.06423873
140	0xbe850ef9	-0.25987986
141	0x3e066a96	0.13126597
142	0xbe2de3f4	-0.16981488
143	0xbdc2d012	-0.095123425
144	0x3da33404	0.079689056
145	0x3e5ba4a8	0.2144953
146	0xbde16ab5	-0.11006681
147	0xbe06d5f8	-0.1316756
148	0x3db7f0fe	0.089815125
149	0xbe315ab9	-0.17319764
150	0xbdb3b42b	-0.08774599
151	0x3df1dff0	0.11810291
152	0x3e0e8d87	0.13921176
153	0xbd7daf9d	-0.061935056
154	0x3e27ace7	0.16374551
155	0x3e01f300	0.12690353
156	0x3db43a1d	0.08800147
157	0x3e3ca557	0.18422447
158	0xbe31bff6	-0.17358384
159	0x3dedb952	0.11607613
160	0xbdc0bd99	-0.09411163
161	0x3de0bc05	0.10973362
162	0xbe0dea3c	-0.13858885
163	0xbe0fd915	-0.14047654
164	0xbe439948	-0.19101441
165	0x3e47e693	0.19521551
166	0xbc24b960	-0.0100539625
167	0x3e094421	0.13404895
168	0xbd8b9e72	-0.068173304
169	0x3e172830	0.14761424
170	0x3dee6916	0.11641137
171	0xbe7dc3ac	-0.24781674
172	0xbdd4791f	-0.103746645
173	0x9de16cb1	-5.966939e-21
174	0xbc53a5d5	-0.012917955
175	0x3e380b48	0.17973053
176	0xbdc2e441	-0.09516192
177	0x3e083909	0.13303007
178	0x3c02afb6	0.007976463
179	0x3dc86ab6	0.097859785
180	0x3e032a13	0.12809019
181	0x3e45bf0b	0.19311158
182	0x3d111c78	0.03542754
183	0x3c4a3ca7	0.012343562
184	0xbe29a22a	-0.16565767
185	0x3e177356	0.14790091
186	0xbddc5278	-0.10757917
187	0xbda27c8d	-0.079339124
188	0xbdf4e2cb	-0.1195732
189	0xbdd465f0	-0.103710055
190	0x3d10a031	0.03530902
191	0x3e050a7d	0.12992282
192	0xbe152fbd	-0.14568992
193	0xbdc0c89e	-0.09413265
194	0xbdea5767	-0.11442452
195	0x3e1ac50f	0.15114234
196	0xbd12b548	-0.035817415
197	0x3e3c0b13	0.183636
198	0xbe326533	-0.17421417
199	0xbd465f2c	-0.048430607
200	0x3d6fde57	0.05856165
201	0xbe025f56	-0.1273168
202	0xbe4d1935	-0.20029147
203	0x3e483f88	0.19555485
204	0x3b0350ff	0.002003729
205	0xbe2a21e6	-0.16614494
206	0x3e6fa9f1	0.23404671
207	0xbcff93f0	-0.031198472
208	0xbd5c6422	-0.05380643
209	0x3dd7122c	0.10501513
210	0x3d2145f7	0.039373364
211	0x3d4d39b0	0.050103843
212	0xbdf82492	-0.1211635
213	0xbe2a9c99	-0.166613
214	0xbdbf3a32	-0.09337272
215	0x3d97e799	0.074172206
216	0x3e38fac4	0.1806441
217	0xbe29bc9a	-0.16575852
218	0x3e4fb33f	0.2028322
219	0xbd82eef6	-0.063932344
220	0xbe5a4069	-0.21313633
221	0xbe122b93	-0.14274435
222	0x3ddf5a37	0.10905879
223	0xbe1e7334	-0.15473634
224	0xbc642f05	-0.013927226
225	0xbc951201	-0.018197061
226	0x3e237a70	0.15964675
227	0xbdcc69a7	-0.09981089
228	0xbdd7954d	-0.10526524
229	0xbd970956	-0.073748276
230	0x3ce54346	0.02798618
231	0x3e58ba2c	0.21164769
232	0xbe5932de	-0.2121081
233	0x3d5075d1	0.05089361
234	0xbd914e44	-0.07095006
235	0xbe19db45	-0.15025051
236	0x3e22a945	0.15884884
237	0xbdcab25f	-0.09897303
238	0x3db07e2f	0.086178176
239	0x2caaf56f	4.858939e-12
240	0xbe22e63a	-0.15908137
241	0x3e68a4d8	0.22719133
242	0xbdac3cf5	-0.08410064
243	0xbe4b4001	-0.19848634
244	0xbe544144	-0.20728022
245	0x3d239603	0.039937984
246	0xbe6430c3	-0.22284226
247	0x3d8c6cf6	0.0685672
248	0xbdedfb18	-0.11620158
249	0xbd3a0c91	-0.04542214
250	0xbda85ba0	-0.08220601
251	0x3b59b8bb	0.003322168
252	0xbe106e3f	-0.14104556
253	0x3e601653	0.21883516
254	0xbe8ddcbf	-0.27707478
255	0xbdf4d012	-0.11953749

energy_lin.1.weight f4 [300, 300]
0	0xbd0892db	-0.033343177
1	0x3cbd2e9e	0.023093518
2	0xbd6fda34	-0.058557704
3	0xbd562077	-0.052277055
4	0x381b8ece	3.7087877e-05
5	0xbc9c7ff1	-0.019103976
6	0x3deda418	0.11603564
7	0x3dc75da6	0.09734659
8	0xbdf14557	-0.11780804
9	0xbd97fc92	-0.07421221
10	0x3e28cd10	0.16484475
11	0x3d3be871	0.04587597
12	0x3d8bb7ac	0.06822142
13	0x3e02c8b1	0.1277187
14	0xbd10f59a	-0.035390474
15	0xbda1f3eb	-0.07907852
16	0x3db35bfb	0.08757778
17	0x3e53e751	0.20693709
18	0xbde838d7	-0.11338966
19	0x3e330b0f	0.17484687
20	0xbd122987	-0.035684135
21	0x3d278f5a	0.040908195
22	0xbd9de6cb	-0.07710036
23	0xbdc11d73	-0.09429445
24	0x3cb84129	0.022492008
25	0xbd2aaa03	-0.041666042
26	0x3d8f8d23	0.070093416
27	0xbd8f3c99	-0.0699398
28	0x3c008ee7	0.007846571
29	0xba6f9895	-0.0009139863
30	0x3d20c629	0.03925148
31	0x3ddd5363	0.108069204
32	0x3c3c691c	0.011499669
33	0xbb9022c2	-0.0043986747
34	0xbe50c0b9	-0.20386018
35	0x3d20a973	0.0392241
36	0xbd2ebb27	-0.04265895
37	0x3d660d5a	0.056165077
38	0x3c71ed3d	0.014766035
39	0xbd134989	-0.0359588
40	0x3e3f088d	0.18655606
41	0xbdf17f77	-0.1179189
42	0x3d4909f8	0.049081773
43	0x3c8fc14c	0.017548226
44	0x3d03c9d8	0.032174915
45	0x3d8a36c6	0.067487285
46	0x3c84eae5	0.016225288
47	0x3da2ad87	0.07943254
48	0x3da974d9	0.0827424
49	0x3d99db04	0.07512477
50	0xbc9a6084	-0.01884485
51	0x3b8c2190	0.004276462
52	0xbd1dafc7	-0.038497712
53	0x3dfe0744	0.124037296
54	0x3da68fe1	0.081329115
55	0x3dd6705b	0.10470649
56	0x3d6b0546	0.057378076
57	0xbd8b1702	-0.06791498
58	0xbe0cf26f	-0.13764356
59	0x3c206b7c	0.009791251
60	0x3cb628a8	0.022236183
61	0xbdb58237	-0.08862727
62	0xbdf4a378	-0.11945242
63	0xbe14c19f	-0.14526986
64	0x393aafd7	0.00017803848
65	0xbdd71d97	-0.10503691
66	0xbdcf214b	-0.10113772
67	0x3e182263	0.14856867
68	0x3e164585	0.14674957
69	0xbbd25ad2	-0.006419518
70	0xbd9e3476	-0.0772485
71	0xbd579683	-0.052633774
72	0x3ced010c	0.028931163
73	0x3c87b894	0.016567506
74	0xbd3d5f80	-0.046233654
75	0x3d528f13	0.051405977
76	0x3e26f55d	0.16304536
77	0x3d8d8f00	0.06912041
78	0x3de0ce01	0.10976792
79	0x3bf0e5ed	0.007351628
80	0xbdabe9d2	-0.08394207
81	0xbce53a9a	-0.027982045
82	0xbd0a3675	-0.03374334
83	0x3e006bd5	0.12541135
84	0x3ded943c	0.11600539
85	0xbce03fe3	-0.027374214
86	0x3e08432d	0.13306876
87	0x3d4ec0a9	0.050476704
88	0xbd3ec0aa	-0.046570458
89	0x3c948223	0.01812846
90	0x3d34103e	0.043960802
91	0xbd106693	-0.035254072
92	0xbd7cef06	-0.061751388
93	0x3de5a4a1	0.11213041
94	0x3d80ec57	0.06295078
95	0xbdc87742	-0.097883716
96	0x3e31c5db	0.17360632
97	0xbca7be08	-0.020476356
98	0x3da5e0ae	0.08099495
99	0x3cdaa005	0.026687631
100	0xbdf59b40	-0.11992502
101	0xbe046d60	-0.12932348
102	0xbd25b8dd	-0.040459502
103	0x3dc13e54	0.09435716
104	0x3d2f7b75	0.042842347
105	0xbde0c708	-0.10975462
106	0xbdc1b1df	-0.09457754
107	0xbcb6c4ff	-0.022310732
108	0x3e026424	0.12733513
109	0xbd7ed0db	-0.0622109
110	0x3d1aa2b7	0.037752833
111	0x3ddda880	0.108231544
112	0xbda3c381	-0.07996274
113	0xbe23cbcf	-0.15995716
114	0x3e20f530	0.15718532
115	0x3c0309fc	0.007997986
116	0xbc8e84e6	-0.017397355
117	0x3d977e8a	0.07397182
118	0xbbcd9955	-0.006274382
119	0x3e205096	0.15655741
120	0x3e2041e4	0.15650135
121	0xbbe72760	-0.0070542544
122	0x3b9eac25	0.0048422986
123	0x3d95143e	0.072792515
124	0x3d8e489d	0.06947444
125	0x3e201473	0.15632801
126	0xbbcc8c75	-0.0062423297
127	0xbd8f6973	-0.07002535
128	0x3d3bfbe1	0.045894507
129	0xbdc5a055	-0.096497215
130	0x3e3496a5	0.17635591
131	0xbce16657	-0.02751462
132	0x3e17406d	0.1477067
133	0xbd9a6334	-0.07538453
134	0x3d8f07ce	0.069839105
135	0xbd8a6d75	-0.067591585
136	0x3e13e561	0.1444297
137	0xbc4c882d	-0.012483639
138	0x3d907885	0.07054237
139	0x3dfe7857	0.12425297
140	0x3e091898	0.13388288
141	0xbdd11717	-0.10209482
142	0xbd24ca92	-0.04023225
143	0x3d9010bd	0.070344426
144	0xbe7185e3	-0.2358623
145	0xb8cccff6	-9.766214e-05
146	0x3daf19a5	0.08549813
147	0x3b6ca7a1	0.0036110657
148	0xbd9c965c	-0.07645866
149	0xbd9f6a1d	-0.077839114
150	0x3dabce3b	0.08388945
151	0x3da0b55d	0.07847092
152	0x3dd59115	0.10428063
153	0xbddfa73b	-0.109205686
154	0x3ddf79b0	0.10911882
155	0x3ddf1024	0.108917505
156	0x3d340a3a	0.043955065
157	0x3dab8818	0.08375567
158	0x3e0dce12	0.13848141
159	0x3dc41e96	0.09576146
160	0xbcf40b10	-0.029790431
161	0x3d8e9ab0	0.06963098
162	0xbd2ecfc2	-0.042678602
163	0x3b986a25	0.0046513253
164	0x3d599bdb	0.05312715
165	0xbdb1670e	-0.08662234
166	0x3e2a61ae	0.16638824
167	0xbd0ac94f	-0.03388339
168	0xbdccad0c	-0.099939436
169	0xbd897669	-0.06712038
170	0x3dda8145	0.106691875
171	0x3e222ccf	0.15837406
172	0x3d59a160	0.053132415
173	0x1efaf477	2.6570888e-20
174	0xbc56a7de	-0.013101546
175	0xbd43d12e	-0.04780691
176	0x3de4a536	0.11164324
177	0x3d6a388a	0.057182826
178	0xbe54ce17	-0.20781742
179	0xbddafea1	-0.10693098
180	0xbd930471	-0.071785815
181	0x3d974711	0.07386602
182	0x3d32f16b	0.043687265
183	0xbe26e3dc	-0.16297859
184	0x3e49ae1e	0.19695327
185	0xbda9da19	-0.08293552
186	0xbb9d192a	-0.0047942596
187	0x3df0bb33	0.117544554
188	0x3dcb447c	0.09925172
189	0x3e00848c	0.12550563
190	0x3e8a9948	0.2707007
191	0xbe00625a	-0.12537518
192	0x3d9fd8e0	0.078050375
193	0x3e203434	0.15644914
194	0x3cb05803	0.021526342
195	0x3e271a53	0.16318636
196	0x3ded6724	0.11591938
197	0x3c89aa73	0.01680491
198	0xbe306673	-0.17226581
199	0x3e3354a2	0.17512754
200	0x3e2ef5fb	0.17086022
201	0x3e0007e1	0.12503006
202	0x3ddab520	0.10679078
203	0xbc5f3303	-0.013623002
204	0x3e0e2467	0.13881074
205	0xbdb5b9fc	-0.08873364
206	0x3d828dbb	0.06374689
207	0xbe650253	-0.22364168
208	0x3e3ed422	0.1863561
209	0x3e0ee1c6	0.13953313
210	0x3c82a138	0.015946016
211	0x3e2da249	0.16956438
212	0x3deb3ee0	0.11486602
213	0xbc007722	-0.0078409035
214	0x3ce82cf4	0.028341748
215	0x3d52856b	0.05139677
216	0x3dc29a09	0.09502036
217	0x3dfc1423	0.12308528
218	0xbda5ca38	-0.08095211
219	0x3d4e2276	0.050325833
220	0x3dc98baa	0.09841092
221	0x3d94ac26	0.07259397
222	0x3dcc12d8	0.09964532
223	0x3d103a2b	0.035211723
224	0xbd08c7c5	-0.03339364
225	0xbd1cd30f	-0.03828722
226	0x3e2195fd	0.15779872
227	0xbde86a3b	-0.11348387
228	0x3c6a246d	0.014290911
229	0xbe59a68a	-0.21254936
230	0x3df8749b	0.12131616
231	0xbe756ccd	-0.23967285
232	0x3ce63a6a	0.028104026
233	0xb7ea2521	-2.7912263e-05
234	0xbdea67a4	-0.11445549
235	0xbe192e04	-0.1495896
236	0xbddcef6e	-0.10787855
237	0x3e0aa0e4	0.13537937
238	0xbdb011a1	-0.085971124
239	0x97ae32b2	-1.1257284e-24
240	0x3cd2ebc2	0.025747184
241	0x3d5d720b	0.054063838
242	0x3e2b4839	0.1672677
243	0xbdd412e4	-0.103551656
244	0x3e175888	0.14779866
245	0x3cc90a73	0.024541115
246	0x3e04f298	0.12983167
247	0x3c3b4075	0.011428942
248	0xbdc83204	-0.09775165
249	0x3dbb63cb	0.091498934
250	0x3d7e864e	0.0621398
251	0xbd8f655a	-0.07001753
252	0xbdd01400	-0.10160065
253	0xbd9cfac5	-0.07665018
254	0xbd7cbd0e	-0.061703734
255	0xbd8585f3	-0.065196894

energy_lin.1.bias f4 [300]
0	0x3b40297a	0.0029321597
1	0x3ce00c01	0.027349474
2	0x3d338e31	0.043836776
3	0xbbdaaf0c	-0.0066736992
4	0x3cfe8696	0.031070035
5	0xbafab5bd	-0.0019127649
6	0x3c6faa28	0.014627971
7	0x3d8f736b	0.07004436
8	0x3d289d6e	0.04116576
9	0x3dad2192	0.08453669
10	0x3d19bfb4	0.037536338
11	0x3d27bbbe	0.04095053
12	0x3d0d5c71	0.034511987
13	0x3d1f329c	0.038866624
14	0xbcbfa433	-0.023393726
15	0x3d45f346	0.048327707
16	0x3ce01c14	0.027357139
17	0x3d65e2d5	0.056124527
18	0xbbeb3920	-0.0071784407
19	0x3d850102	0.06494333
20	0x3d2171fe	0.039415352
21	0xbb40aaef	-0.002939876
22	0x3d3ad47e	0.045612805
23	0x3d870f68	0.065947354
24	0x3d1471f6	0.036241494
25	0x3d2767a4	0.040870324
26	0xbc069e87	-0.008216507
27	0xbceb2107	-0.028702272
28	0x3d2d08c3	0.042244684
29	0xbca4e70f	-0.020129709
30	0x3ab37ba7	0.0013693467
31	0xbc1c3826	-0.009534871
32	0x3c2c2d77	0.010508887
33	0x3be60af4	0.0070203487
34	0x3c42d7b9	0.011892253
35	0xba9ed943	-0.0012119192
36	0x3c852b5e	0.01625603
37	0xbd3744aa	-0.044743218
38	0x3c41ba0b	0.011824141
39	0xbcdc619f	-0.026902018
40	0x3d71e7e8	0.059059054
41	0xa1558ca2	-7.2353333e-19
42	0x3d990470	0.074715495
43	0xbceb148c	-0.028696321
44	0x3dd021cc	0.10162696
45	0x3d57fed6	0.052733265
46	0x3d9c7abf	0.076405995
47	0x3c88c02f	0.016693203
48	0x3d55fb44	0.05224158
49	0xbc68b8f3	-0.014204252
50	0xbc5095bd	-0.012731013
51	0x3c26132e	0.010136409
52	0xbc82e1f8	-0.01597689
53	0x3cc199a3	0.02363283
54	0x3d7cf71d	0.061759103
55	0x3d919124	0.071077615
56	0x3d684f01	0.05671597
57	0xbc75feec	-0.015014391
58	0xbb99738a	-0.004682963
59	0xbcb7cea6	-0.022437405
60	0xbcf67605	-0.030085573
61	0xbd2646b1	-0.04059476
62	0x3bd61ba5	0.006534057
63	0x3d4f69ce	0.050638013
64	0x3acab21f	0.0015464461
65	0x3d60687d	0.054787148
66	0x3d6cd035	0.05781575
67	0x3cdbfd63	0.026854223
68	0x3c079f9b	0.008277799
69	0xbd16b628	-0.03679481
70	0xbb79ff89	-0.0038146696
71	0x3c2e49ce	0.010637714
72	0x3d15c909	0.036568675
73	0x3d106ac9	0.03525809
74	0x3d615cbc	0.05502008
75	0x3d9ae0e7	0.07562428
76	0x3cb0f31a	0.021600295
77	0x3c959d3c	0.018263452
78	0x3d856415	0.0651323
79	0xbaa429d2	-0.001252467
80	0x3c8b422c	0.016999327
81	0xbd3323ec	-0.04373543
82	0x3aa8aac9	0.0012868281
83	0x3d644f90	0.05573994
84	0x3d74bac4	0.059748426
85	0x3d5801a6	0.052735947
86	0x3d17bd7c	0.03704594
87	0xbcc18c51	-0.023626478
88	0x3c98a7fb	0.018634787
89	0xbbae121d	-0.005312218
90	0x3cf4c632	0.029879663
91	0x3d8c204f	0.068421
92	0x3d2bb0fc	0.041916832
93	0xbc4965b6	-0.012292316
94	0x3be0cb5e	0.0068601808
95	0x3d638db4	0.05555506
96	0x3ce64b87	0.028112186
97	0x3d4f3255	0.05058511
98	0xbc694a37	-0.014238886
99	0x3d8a6f99	0.06759567
100	0x3d4c393c	0.04985927
101	0x3c6cd7ee	0.0144557785
102	0xbd295db3	-0.041349124
103	0x3cb94e79	0.022620426
104	0x3d3ee01c	0.046600446
105	0x3da873d2	0.08225216
106	0xbd225e11	-0.03964049
107	0xbcdc5c08	-0.026899353
108	0xbc963590	-0.018336087
109	0x3b6e69fa	0.0036379085
110	0x3baa8dee	0.0052049076
111	0x3cc20bec	0.023687325
112	0x3cac0c74	0.021002032
113	0x3d864115	0.06555382
114	0x3c9abd78	0.018889174
115	0xbd034050	-0.032043755
116	0x3d8bbe0c	0.06823358
117	0x3d51fb9e	0.05126535
118	0x3cf79ad3	0.030225193
119	0xbd516688	-0.051123172
120	0xbd41c841	-0.047310118
121	0x3cfc5ffb	0.030807486
122	0x3cdb126c	0.026742183
123	0xbc2b38ea	-0.010450581
124	0xbbc7137e	-0.0060753217
125	0x3cd61299	0.026131915
126	0x3cde2fcd	0.027122403
127	0x3acbad62	0.0015539343
128	0x3cda81d6	0.026673239
129	0x3c73bfee	0.014877303
130	0xbcd01995	-0.025402823
131	0x3d95e796	0.07319562
132	0xbcda7e7e	-0.026671644
133	0xbd0c3427	-0.034229424
134	0x3d4efd67	0.050534632
135	0x3cd3c48b	0.025850555
136	0x3d31d6be	0.043417685
137	0x3d191bf5	0.037380178
138	0x3c25f589	0.010129341
139	0x3d05c447	0.032657888
140	0x3d3a9858	0.045555443
141	0x3ca218bd	0.019787187
142	0x3cfd3eed	0.030913794
143	0x3d4858eb	0.048912924
144	0xbcb65600	-0.022257805
145	0x3d35bbca	0.044368543
146	0x3d88544a	0.06656702
147	0xbc45deca	-0.012077043
148	0x3cdd8aa7	0.027043654
149	0x3ca10608	0.019656196
150	0x3d9acb74	0.07558337
151	0xbce7a5ee	-0.028277364
152	0x3d8be9e7	0.06831723
153	0x3db8a9f9	0.09016795
154	0x3d81a68f	0.06330597
155	0xbd000959	-0.031258915
156	0x3b0e539f	0.0021717323
157	0x3a1bd1f7	0.0005944068
158	0xbc56cf9f	-0.013111024
159	0xbb0c4c4c	-0.0021407781
160	0x3d230dff	0.03980827
161	0xbc795603	-0.015218261
162	0x3d6c22d2	0.057650395
163	0x3ccb4a09	0.024815576
164	0xbd0626e3	-0.03275193
165	0x3c5e021f	0.01355031
166	0xbc49facb	-0.01232786
167	0xbd17aaa0	-0.037027955
168	0x3ce22857	0.027607126
169	0xbcf42a43	-0.029805308
170	0xbb1141b9	-0.0022164418
171	0x3d090266	0.033449553
172	0x3ce7a837	0.028278453
173	0x3d824399	0.063605495
174	0x3d2ebab3	0.04265852
175	0x3c50da04	0.0127472915
176	0x3c2b011f	0.010437279
177	0x3cfb8036	0.030700784
178	0x3d61268a	0.054968394
179	0x3d1eb094	0.038742617
180	0x3cc77f88	0.024352804
181	0x3dc17888	0.09446818
182	0xbd215515	-0.03938778
183	0x3d6e51f8	0.05818364
184	0xbd2791f1	-0.040910665
185	0x3c70589a	0.014669562
186	0x3bcbb58b	0.00621671
187	0x3d339efc	0.04385279
188	0xba5f9ac5	-0.00085298374
189	0x3c333a02	0.010939123
190	0x3ca91bbd	0.02064311
191	0xbc43b6ed	-0.011945468
192	0xbca8d5b0	-0.020609707
193	0x3d6a4206	0.05719187
194	0xbcc8aeea	-0.024497468
195	0xbb98a512	-0.00465835
196	0x3d4e30ea	0.050339617
197	0xbc5f9e1c	-0.013648536
198	0xbc13f9d1	-0.009031729
199	0x3d32f375	0.04368921
200	0x3d84d6d2	0.06486286
201	0x3dd74e80	0.105130196
202	0x3d51384c	0.05107908
203	0xbce9c192	-0.028534684
204	0xbd65e587	-0.056127097
205	0x3c4f7948	0.012663193
206	0xbd1c0b88	-0.038096935
207	0xbd1f62c8	-0.038912565
208	0x3d519402	0.051166542
209	0xbd31157a	-0.043233372
210	0x3da3c912	0.079973355
211	0x3d81fad1	0.063466676
212	0x3d289d4b	0.04116563
213	0x3c538527	0.012910164
214	0x3c53acc8	0.012919612
215	0x3d27fbb4	0.041011527
216	0x3c08d104	0.008350614
217	0xbc6c1f21	-0.014411719
218	0x3d72594e	0.0591672
219	0x3d040790	0.032233775
220	0x3d8f6b0a	0.07002838
221	0x3d2a6fd9	0.041610572
222	0xbbdc1527	-0.0067163887
223	0x3d1f650e	0.038914733
224	0x3c908769	0.017642694
225	0x3c6ea079	0.014564627
226	0xbd289a01	-0.041162495
227	0x3cad826a	0.02118035
228	0x3c9ddde0	0.019270837
229	0x3b0b07f9	0.002121447
230	0x3d5d47bb	0.054023486
231	0xbcf0fa30	-0.029416174
232	0x3d3718e9	0.04470149
233	0xbc817b1a	-0.01580577
234	0xbcbd352c	-0.023096643
235	0xbb606140	-0.0034237653
236	0xbca91216	-0.020638507
237	0x3d71d646	0.059042238
238	0x3cf0038f	0.029298572
239	0xbca2d329	-0.01987608
240	0x3d2ff261	0.04295576
241	0x3d660584	0.056157604
242	0x3d4d7c06	0.050167106
243	0x3d1b99ec	0.03798859
244	0xbccd43e5	-0.025056789
245	0xbb9c4d4a	-0.0047699558
246	0x3d7ee602	0.06223107
247	0x3d6e46b6	0.058172904
248	0x3c047c70	0.008086309
249	0x3da84864	0.082169324
250	0x3d9d2453	0.07672944
251	0xbc07090b	-0.008241902
252	0x3da13702	0.0787182
253	0x3cc0a776	0.023517352
254	0x3d2d60e9	0.04232875
255	0x3cd9c2bd	0.026582116

energy_lin.3.weight f4 [150, 300]
0	0x3d49fa14	0.04931076
1	0xbd0639e3	-0.03277005
2	0x3db59df2	0.08868016
3	0x3de0ecf8	0.10982698
4	0xbd908179	-0.07055945
5	0x3df5c441	0.12000323
6	0xbd703d66	-0.058652304
7	0x3a19215a	0.00058414566
8	0x3d82dd29	0.06389839
9	0xbdf7ad28	-0.12093574
10	0x3e0bc319	0.13648643
11	0x3e0dc651	0.13845183
12	0xbcc3cd94	-0.023901738
13	0x3e0620d3	0.13098459
14	0xbd1aa6d7	-0.037756767
15	0x3cb6d706	0.022319328
16	0xbbb52e06	-0.005529168
17	0x3c794d51	0.015216188
18	0xbeb58bae	-0.3545813
19	0xbdd7fa3b	-0.105457745
20	0xbd8a119e	-0.067416415
21	0x3a77fd3e	0.0009460038
22	0xbdaaca9d	-0.08339427
23	0xbe0ccbe1	-0.13749649
24	0xbe063ce1	-0.13109161
25	0xbbbdb3b4	-0.0057892445
26	0x3c18efe1	0.009334535
27	0x3d9fd7b4	0.07804814
28	0xbcaba5b4	-0.020953037
29	0x3de2ada3	0.11068275
30	0xbe366826	-0.17813167
31	0x3e07f622	0.13277486
32	0xbe059011	-0.13043238
33	0xb4faffdd	-4.6752294e-07
34	0x3d2c7e8e	0.04211288
35	0x3d6f4f5a	0.058425285
36	0x3e2b4cb7	0.16728483
37	0x3c2a1f3d	0.010383424
38	0xbd042118	-0.032258123
39	0x3da829d7	0.08211105
40	0x3dec3192	0.11532892
41	0x2092684a	2.4802375e-19
42	0xbddedc60	-0.10881877
43	0xbe04c7bc	-0.12966818
44	0x3e39bf25	0.18139322
45	0x3d868083	0.065674804
46	0xbdae0fd4	-0.08499113
47	0x3df0bf81	0.117552765
48	0x3cea2f69	0.02858706
49	0xbdb9b7fa	-0.09068294
50	0x3d1b81df	0.03796565
51	0x3d069f13	0.03286655
52	0xbdb3297e	-0.087481484
53	0x3df7f211	0.121067174
54	0x3de0d9ea	0.10979064
55	0xbd379d73	-0.04482789
56	0x3c6f29ee	0.014597399
57	0xbe243189	-0.16034521
58	0xbd8381e1	-0.06421257
59	0x3e018e40	0.1265192
60	0x3d9308df	0.071794264
61	0xbd3e8291	-0.046511237
62	0xbd441a5e	-0.04787671
63	0x3d58df46	0.052947305
64	0xbe032e57	-0.12810646
65	0x3d335454	0.043781593
66	0xbd5b93a4	-0.053607598
67	0x3d1d8fa0	0.03846705
68	0xbe1a0775	-0.15041907
69	0xbddaa6ac	-0.106763214
70	0x3d1fec33	0.039043617
71	0xbd956c6c	-0.072960705
72	0xbdbc3265	-0.091892995
73	0x3d06aeb1	0.032881442
74	0xbd05d9b7	-0.032678332
75	0xbd0cad8c	-0.034345195
76	0x3dade830	0.08491552
77	0xbd5f0c72	-0.05445523
78	0xbcc1556f	-0.023600308
79	0x3dcb7ef2	0.09936322
80	0xbc97267f	-0.018450974
81	0xbdfc2be3	-0.12313058
82	0x3b714d4f	0.003681976
83	0xbcc8c96f	-0.024510114
84	0x3d9ae031	0.07562292
85	0xbd8107ce	-0.06300317
86	0xbdab2b65	-0.08357886
87	0x3dfedae0	0.12444091
88	0x3db181c6	0.086673304
89	0xbdf87234	-0.121311575
90	0x396d05d3	0.00022604251
91	0x3d12c382	0.035830982
92	0x3d962178	0.073306024
93	0x3db17e14	0.086666256
94	0x3df36d1b	0.118860446
95	0x3d7bada6	0.0614449
96	0x3e41b29d	0.18915792
97	0x3e1b45af	0.15163301
98	0x3d11b03e	0.03556847
99	0xbcaf4b5f	-0.021398244
100	0xbccefaa7	-0.025266005
101	0x3e047ef7	0.12939058
102	0xbd26c6d8	-0.040716976
103	0x3d962fb0	0.073333144
104	0xbda6e4e5	-0.08149127
105	0x3dec270c	0.11530885
106	0xbdafb91a	-0.08580227
107	0x3e1581dc	0.14600319
108	0xbdb40158	-0.08789319
109	0x3dc9b214	0.09848419
110	0xbe3ce41d	-0.18446393
111	0x3cf5ad74	0.029989935
112	0xbbe4f815	-0.0069875815
113	0x3d54cae5	0.051951308
114	0x3d7783d3	0.06042845
115	0x3cb915de	0.022593435
116	0x3d266b01	0.04062939
117	0x3d3ef5fa	0.0466213
118	0x3e26541d	0.16243024
119	0xbe08e0ae	-0.13366958
120	0x3f04d08c	0.5188072
121	0x3d93a7da	0.072097495
122	0x3c58ea72	0.01323949
123	0x3d5ba86a	0.05362741
124	0xbe68fb0f	-0.22752021
125	0x3c8abf4b	0.016936919
126	0xbcf3e8e6	-0.02977414
127	0x3cdf0cda	0.027227808
128	0x3de5ab1e	0.11214279
129	0xbd8b1eff	-0.067930214
130	0x3e3cc3ab	0.18434016
131	0xbe17cbf2	-0.14823893
132	0xbd6ba7cb	-0.057533067
133	0xbdd788cd	-0.105241396
134	0xbe67fd4a	-0.22655216
135	0x3d80f262	0.06296231
136	0x3d9fc695	0.078015484
137	0xbdcaf49d	-0.099099375
138	0x3c9823c2	0.018571738
139	0xbd91b559	-0.071146674
140	0x3cc097af	0.023509828
141	0xbd8c7b1b	-0.06859418
142	0x3dc91551	0.09818519
143	0x3dfb81da	0.122806266
144	0xbdd59eba	-0.10430665
145	0x3e0fa533	0.14027862
146	0x3e3f7a27	0.18698941
147	0x3dc0b9fd	0.094104744
148	0x3dab77d0	0.08372462
149	0x3e2dbd9e	0.16966864
150	0x3dbd752a	0.09250863
151	0x3c55e638	0.013055377
152	0x3e105fa9	0.14098991
153	0x3ce75dfd	0.02824306
154	0x3982bbd7	0.00024935484
155	0xbdfe013a	-0.12402578
156	0x3c590575	0.01324593
157	0xbd88c8f1	-0.066789515
158	0xbdf685de	-0.12037252
159	0x3ccf1567	0.02527876
160	0x3cfb3bab	0.0306681
161	0x3e26d954	0.16293842
162	0xba15f952	-0.00057210505
163	0xbd8bf5ec	-0.06834015
164	0x3df78835	0.12086526
165	0xbd686f3f	-0.056746718
166	0xbd8d9839	-0.069138
167	0x3e10ce5e	0.14141223
168	0x3da87017	0.082245044
169	0xbd242f11	-0.04008395
170	0x3c9da48e	0.019243505
171	0x3d9f9ea4	0.0779393
172	0x3e18993c	0.14902204
173	0x3cc6e503	0.024279123
174	0xbd5b9422	-0.053608067
175	0x3da004d4	0.07813421
176	0xbd206b5e	-0.039164893
177	0xbde29886	-0.11064248
178	0xbdda1680	-0.10648823
179	0x3e37988c	0.17929286
180	0x3dbe7509	0.092996664
181	0xbe46c8e0	-0.19412565
182	0x3e002931	0.12515713
183	0xbddec2ac	-0.108769745
184	0x3e0995ce	0.13436052
185	0x3d69078b	0.05689196
186	0xbc7e0809	-0.015504845
187	0xbd8832c5	-0.066503085
188	0x3c03d0dc	0.008045401
189	0x3cee0fd2	0.029060278
190	0x3c580393	0.013184446
191	0x3e0dec7e	0.13859746
192	0xbe2baaf4	-0.16764432
193	0x3de77115	0.113008656
194	0xbe0d8a3a	-0.1382226
195	0xbd864f38	-0.065580785
196	0x3de6827d	0.112553574
197	0xbd41749d	-0.04723035
198	0x3dab102f	0.08352696
199	0x3d6cc8a5	0.057808537
200	0x3db3d12d	0.087801315
201	0x3e59caee	0.21268818
202	0xbdb64832	-0.08900489
203	0xbd348250	-0.04406959
204	0xbdf318de	-0.118699774
205	0x3d258a20	0.04041493
206	0xbcf2f57e	-0.029658075
207	0x3d6f54c4	0.05843045
208	0x3d143041	0.03617883
209	0x3cba8d6d	0.022772515
210	0xbc31741f	-0.010830908
211	0xbd26b4ea	-0.040699877
212	0xbdaa9a92	-0.08330263
213	0xbd8a2b05	-0.067464866
214	0xbdbba405	-0.091621436
215	0xbd8046f0	-0.0626353
216	0xbe06cd60	-0.13164282
217	0x3d9d8e98	0.07693213
218	0x3d5ef4ec	0.054432794
219	0xbd50780d	-0.05089574
220	0xbcff0a09	-0.031132715
221	0xbd852449	-0.065010615
222	0xbd9ba2ad	-0.07599387
223	0x3db93b79	0.09044547
224	0x3df0d8d0	0.11760104
225	0x3e0f9a4c	0.14023703
226	0xbd51e10c	-0.051240012
227	0xbda957d8	-0.08268708
228	0x3e2358e0	0.15951872
229	0x3c3519a4	0.0110534765
230	0x3ec0cffd	0.37658682
231	0x3d98985a	0.07450934
232	0x3deaa92b	0.114580475
233	0x3e101822	0.14071706
234	0x3f10ce90	0.5656519
235	0x3d3d5efc	0.046233162
236	0xbdb84b09	-0.08998687
237	0xbd91f796	-0.071273014
238	0xbdce9449	-0.10086877
239	0xbe05da45	-0.13071544
240	0x3d9c4079	0.07629485
241	0x3dc60347	0.09668594
242	0xbc70a604	-0.014688019
243	0xbced68be	-0.028980609
244	0x3e0cf2b6	0.13764462
245	0xbe4a4b62	-0.19755319
246	0x3e43a7c9	0.19106974
247	0xbc327bab	-0.010893743
248	0x3bbf5cbd	0.0058399127
249	0x3d9c4076	0.076294824
250	0x3e03f3be	0.12885949
251	0x3d9da85e	0.07698129
252	0x3d843c87	0.06456857
253	0xbe0f7f89	-0.14013495
254	0xbdba77be	-0.0910487
255	0x3e65f26c	0.22455758
