models/mpnn_A139_B23_E300_L2/89.pt (torch, 742651 bytes, 9 tensors)

atom_lin.weight f4 [300, 139]
0	0x3c437003	0.011928561
1	0x3d801ca9	0.062554665
2	0x9a0ae992	-2.8726408e-23
3	0x092d7a8d	2.088174e-33
4	0xa9bfdf63	-8.520855e-14
5	0x1d0afc6e	1.8394651e-21
6	0x3e1abed5	0.15111859
7	0x3d38e0a1	0.045136098
8	0xbdd0c137	-0.10193103
9	0x3dcd769f	0.10032391
10	0x9d941ae6	-3.9203086e-21
11	0xa123a581	-5.544559e-19
12	0x1e980697	1.6096351e-20
13	0xa230fbe3	-2.3985796e-18
14	0xaa04707c	-1.1762981e-13
15	0xbe42477a	-0.18972579
16	0x3df4a791	0.11946023
17	0x3da94e75	0.082669176
18	0x8a291a5c	-8.142012e-33
19	0x1d01af28	1.7163562e-21
20	0x0d8ca985	8.6689765e-31
21	0x94d32f75	-2.1324274e-26
22	0x8027881e	-3.630414e-39
23	0x1c03cc13	4.3608024e-22
24	0x03c0640f	1.1307718e-36
25	0x18841881	3.4145943e-24
26	0xbe0aa0a5	-0.13537844
27	0xbc43221c	-0.011909988
28	0x1ad0dc22	8.638243e-23
29	0x803569c5	-4.905224e-39
30	0x9f88bb40	-5.790802e-20
31	0x9e13f087	-7.831855e-21
32	0x14d2427c	2.1230805e-26
33	0x003573e3	4.908854e-39
34	0x29860fff	5.95357e-14
35	0x3df8d881	0.1215067
36	0x26afaeec	1.2190477e-15
37	0xa2f6e5f7	-6.692192e-18
38	0x9c5d3b65	-7.319953e-22
39	0x80357db6	-4.912378e-39
40	0x1a340199	3.7224418e-23
41	0x1dd56de2	5.6494247e-21
42	0x1091b9bf	5.74786e-29
43	0x950d3ee3	-2.8524332e-26
44	0x87d88c3d	-3.2582492e-34
45	0x258705ea	2.3422774e-16
46	0x159ea43f	6.4074826e-26
47	0x83960378	-8.817004e-37
48	0xa24e3db7	-2.7950878e-18
49	0x29df8692	9.9265336e-14
50	0x22360eb1	2.4673377e-18
51	0x236d047f	1.2848748e-17
52	0xa6a0ff20	-1.1171382e-15
53	0x3e4a328c	0.19745845
54	0x272b3f0f	2.3765201e-15
55	0xa63ef194	-6.624689e-16
56	0x2a129788	1.3019978e-13
57	0x26aa910c	1.1835435e-15
58	0x988c2e98	-3.62362e-24
59	0x997d6fbf	-1.310236e-23
60	0x1fa891c6	7.139193e-20
61	0x13d32504	5.330039e-27
62	0x8c69b8ba	-1.8005256e-31
63	0x294892a0	4.4536098e-14
64	0x9d2451c6	-2.1747495e-21
65	0xa1aa9ae3	-1.1560646e-18
66	0x00356a2f	4.905373e-39
67	0x920db487	-4.471427e-28
68	0x80356afa	-4.905657e-39
69	0x2104c86d	4.49886e-19
70	0xa22f70a0	-2.3776546e-18
71	0x1348923d	2.531565e-27
72	0x9c69a805	-7.7310393e-22
73	0x04c40c55	4.6090704e-36
74	0x98cb9809	-5.2627786e-24
75	0x94507974	-1.0525269e-26
76	0x10ed1294	9.350864e-29
77	0x99106743	-7.465479e-24
78	0x00358510	4.915015e-39
79	0x1a9b55a0	6.424483e-23
80	0xa7d9bef0	-6.0436614e-15
81	0x9c43b2aa	-6.4751006e-22
82	0x247f5772	5.536838e-17
83	0x9d06f861	-1.7863161e-21
84	0x94fc577d	-2.5480005e-26
85	0x80358da7	-4.918097e-39
86	0x9f197ea9	-3.250378e-20
87	0x1f0173da	2.7412643e-20
88	0x2a39f8a2	1.6517563e-13
89	0x0e3c3784	2.3199519e-30
90	0x997eb3fd	-1.31678406e-23
91	0x232a9065	9.246295e-18
92	0x104e44f7	4.0679465e-29
93	0x272296a9	2.256369e-15
94	0x230d6984	7.665969e-18
95	0x281933ac	8.504411e-15
96	0x210aa376	4.697256e-19
97	0x972b1ecd	-5.5291956e-25
98	0x060ba200	2.6262013e-35
99	0x09defde7	5.3683325e-33
100	0x80358415	-4.914663e-39
101	0x9667161d	-1.8667009e-25
102	0x9d47c6e5	-2.6440257e-21
103	0x80356d71	-4.906541e-39
104	0xa61d59c8	-5.4591993e-16
105	0xa7204f87	-2.2247572e-15
106	0x9fb47073	-7.6419e-20
107	0x05162cbc	7.0611825e-36
108	0x248899b2	5.924097e-17
109	0xa5d709b8	-3.730314e-16
110	0x1c9be980	1.0317398e-21
111	0x8a44184b	-9.441626e-33
112	0x0035838d	4.914473e-39
113	0x17f3b5b7	1.5749378e-24
114	0x9ab569f2	-7.503101e-23
115	0x1a16e590	3.1204712e-23
116	0x8b84724e	-5.101654e-32
117	0x29529d46	4.676578e-14
118	0x9dcdf8a8	-5.4520153e-21
119	0xbe136ab7	-0.14396177
120	0x8ed9c504	-5.368435e-30
121	0x3df216e9	0.11820776
122	0x3cba9279	0.022774922
123	0x3cbdc33b	0.023164382
124	0xa7880541	-3.775328e-15
125	0xbe049560	-0.12947607
126	0x99fd3d5f	-2.6184374e-23
127	0x1727355a	5.402795e-25
128	0xbd0ab734	-0.033866122
129	0x3d1d4be5	0.038402457
130	0xbe269a92	-0.16269901
131	0x3e5c463d	0.21511169
132	0x80357dac	-4.912364e-39
133	0x8dd1ee72	-1.2938023e-30
134	0xa8c174fb	-2.1478037e-14
135	0x00356911	4.904972e-39
136	0x003568f8	4.904937e-39
137	0x148c051a	1.41384e-26
138	0xbdd656f2	-0.10465802
139	0xbc5ae888	-0.013361104
140	0x3daae153	0.083437584
141	0x80357c27	-4.911819e-39
142	0x9202ee09	-4.131417e-28
143	0x19356a50	9.37895e-24
144	0x271977eb	2.1298023e-15
145	0xba926a84	-0.001117066
146	0xbd2b0c92	-0.041760035
147	0xbdaa7fa0	-0.08325124
148	0x0d96844e	9.276315e-31
149	0x19ff356f	2.6387964e-23
150	0xa9cae228	-9.009834e-14
151	0xa46af33a	-5.0946683e-17
152	0x080a0240	4.153051e-34
153	0xa2e2de47	-6.149277e-18
154	0x3dc72703	0.09724238
155	0x3e4762f6	0.19471344
156	0x3e36fa44	0.17868906
157	0x8312cbcb	-4.3139487e-37
158	0x28eabe83	2.606184e-14
159	0x278c3ed3	3.892592e-15
160	0x9d1749c0	-2.0022811e-21
161	0x9ccd1fca	-1.3573979e-21
162	0xa8bcbf6f	-2.0955214e-14
163	0x9b2d5480	-1.4337528e-22
164	0x9baf22f4	-2.897391e-22
165	0x3dd8adef	0.1058005
166	0x3dd0f6cb	0.10203322
167	0x02a73be2	2.4572816e-37
168	0x94317414	-8.959109e-27
169	0x257b48ae	2.1795404e-16
170	0x92215a1a	-5.09137e-28
171	0x2976099f	5.4631318e-14
172	0x95660c68	-4.6457917e-26
173	0x8c4f9bd0	-1.5993588e-31
174	0x2234dfa5	2.4512945e-18
175	0xa1180c44	-5.1515837e-19
176	0x826c72ad	-1.7371452e-37
177	0xa133eedd	-6.096369e-19
178	0x10a49560	6.491674e-29
179	0x9b5f4c70	-1.8470826e-22
180	0x8fad11f6	-1.7066035e-29
181	0x803582ae	-4.91416e-39
182	0x98dfd27d	-5.7856688e-24
183	0x98cd0f93	-5.3006984e-24
184	0x26ef1e62	1.6592192e-15
185	0xa458b791	-4.699302e-17
186	0x9fb916fd	-7.838858e-20
187	0x2216415b	2.036339e-18
188	0x00119f09	1.618254e-39
189	0x28010f1a	7.164213e-15
190	0x1f1c5668	3.310576e-20
191	0xa7a7d087	-4.6577897e-15
192	0x1450b905	1.0537805e-26
193	0x252624a6	1.4410622e-16
194	0x111fd51e	1.260856e-28
195	0x0035815a	4.913684e-39
196	0x153c1349	3.798151e-26
197	0x9903ee28	-6.8206365e-24
198	0x288a889c	1.5380323e-14
199	0x80357a6d	-4.9112e-39
200	0x80357eca	-4.912765e-39
201	0xa91ed469	-3.5267284e-14
202	0x9a7192af	-4.9956122e-23
203	0x121ef66a	5.015974e-28
204	0x0d901198	8.878921e-31
205	0x26bdf31e	1.3180407e-15
206	0x18b73422	4.735703e-24
207	0x903f4315	-3.7719786e-29
208	0x22284d89	2.2809292e-18
209	0xa9addfdf	-7.721579e-14
210	0x259647d0	2.6069514e-16
211	0x13458ba9	2.4933754e-27
212	0xa2edfd32	-6.450706e-18
213	0xa5b118f1	-3.0721506e-16
214	0xa033741c	-1.5200307e-19
215	0xa399ba83	-1.6667284e-17
216	0x16080b87	1.098963e-25
217	0x97ee2d4e	-1.5391826e-24
218	0x1ee16d8a	2.3868106e-20
219	0x80e36b7d	-2.0885217e-38
220	0x25b7e9fe	3.1904e-16
221	0x0d21716b	4.9748477e-31
222	0x1f192a61	3.2434065e-20
223	0x03020bb5	3.8217005e-37
224	0xa44ea067	-4.4804996e-17
225	0x9d3d5fa3	-2.5063385e-21
226	0x2a138bbe	1.3104706e-13
227	0x2a3e0e00	1.6880247e-13
228	0xa2e5a678	-6.224683e-18
229	0x0035781b	4.910367e-39
230	0x12cd0bf7	1.2940268e-27
231	0x1b325f18	1.4754541e-22
232	0x8aaa4c61	-1.6399135e-32
233	0x8ec7cde7	-4.9255564e-30
234	0x03f0f18d	1.41613895e-36
235	0x924fde38	-6.559159e-28
236	0x00357243	4.90827e-39
237	0x9ce30a48	-1.5024258e-21
238	0x17ae7390	1.1273659e-24
239	0xa58e4a5c	-2.468346e-16
240	0xa433591e	-3.8889923e-17
241	0x28bc6f73	2.0920526e-14
242	0x9f9bcba8	-6.5981974e-20
243	0x27774982	3.4317985e-15
244	0x9439cf9a	-9.381055e-27
245	0xa4cab4af	-8.7909625e-17
246	0x80356e2a	-4.906801e-39
247	0x9efd7ad0	-2.6838211e-20
248	0xa13bda47	-6.364695e-19
249	0x11e34af9	3.586049e-28
250	0x1b4c3ee1	1.6894802e-22
251	0x80358c67	-4.917648e-39
252	0x1c636bbc	7.5247243e-22
253	0x24431833	4.2304382e-17
254	0x0dcf62a8	1.2781111e-30
255	0x1e3f51df	1.0128386e-20

atom_lin.bias f4 [300]
0	0xbd04462e	-0.03229349
1	0xbdd1839a	-0.10230179
2	0xbd5fe873	-0.05466504
3	0xbcf1f4e0	-0.02953571
4	0x3d22d166	0.03975048
5	0x3c785cd2	0.015158849
6	0x3cdbced9	0.026832031
7	0x3da72d1e	0.08162902
8	0x3ddd281d	0.107986666
9	0x3e104b55	0.14091237
10	0x3d203c8b	0.03912024
11	0xbdd37c8a	-0.10326488
12	0x3c53aacd	0.01291914
13	0x3c06899e	0.008211521
14	0xbc01e760	-0.007928699
15	0x3cc5d1f1	0.02414796
16	0x3da0951a	0.07840939
17	0x3d98f6e4	0.07468966
18	0x3d04d798	0.03243217
19	0xbd71c9c3	-0.059030306
20	0xbd5df39d	-0.054187406
21	0x3c7d1e79	0.01544916
22	0xbcdc4353	-0.026887571
23	0xbd64ad9c	-0.05582963
24	0xbcde266b	-0.027117928
25	0x3dc93fd7	0.098266296
26	0x3bbacfcc	0.005701041
27	0xbbe8c008	-0.00710297
28	0xbcdaaba1	-0.026693167
29	0x3d5b4dd5	0.053541023
30	0x3d4781b5	0.048707683
31	0x3cc8e1f0	0.024521798
32	0xbd4ed1db	-0.050493103
33	0x3dbeabb4	0.093100935
34	0x3c5a3eeb	0.013320665
35	0xbd053a3b	-0.032526236
36	0xbc32f730	-0.010923192
37	0x3d5ca0c1	0.053864244
38	0xbe4e748d	-0.20161648
39	0xbd5df9aa	-0.054193176
40	0xbcef0a48	-0.029179707
41	0x3dd58888	0.10426432
42	0x3d5c8007	0.053833034
43	0xbd0057e2	-0.03133381
44	0x3c86ceec	0.01645609
45	0x3d629a01	0.05532265
46	0xbc26f07b	-0.010189171
47	0x3d1190ae	0.035538368
48	0x3d9fbdb1	0.07799853
49	0xbca639cf	-0.020291237
50	0xbb27ced0	-0.0025605448
51	0x3cc9882a	0.02460106
52	0xbbc0a124	-0.0058785845
53	0xbda2c998	-0.07948607
54	0xbc741b68	-0.014899112
55	0x3d999721	0.07499529
56	0xbb9edb17	-0.004847895
57	0x3ddf6cd8	0.10909432
58	0xbd89aeb1	-0.06722773
59	0x3e039ae6	0.12852058
60	0xbc96227e	-0.018326994
61	0x3d8be85f	0.06831431
62	0xbc22b0e2	-0.009929867
63	0x3daa54a8	0.08316928
64	0xbd819e00	-0.06328964
65	0x3cf4cf93	0.029884135
66	0xbd6920d1	-0.05691606
67	0xbd79e2b8	-0.06100723
68	0x3d932481	0.07184697
69	0xbc578a05	-0.013155465
70	0x3e336267	0.17518006
71	0x3d5a1692	0.05324418
72	0x3d6ddb79	0.058070634
73	0x3d0a5af7	0.033778157
74	0xbd75d7df	-0.060020324
75	0x3b8fcd62	0.004388497
76	0x3da67621	0.08128
77	0x3c2b5393	0.010456937
78	0xbc9e03f3	-0.019288993
79	0x3ddc18d6	0.107469246
80	0xbc4805ae	-0.012208385
81	0x3d28a881	0.041176323
82	0x3df292ed	0.1184443
83	0xbb77c012	-0.0037803692
84	0x3df532ad	0.11972556
85	0x3d6d0377	0.057864632
86	0x3c9542eb	0.018220386
87	0xbdc73300	-0.09726524
88	0xbd38aa0f	-0.045084056
89	0x3db61bdb	0.08892032
90	0xbcc61225	-0.024178574
91	0x3ddd25bc	0.10798213
92	0x3da58069	0.08081133
93	0x3dad8bc1	0.084739216
94	0xbd51e006	-0.051239036
95	0x3d401b18	0.04690084
96	0xbd96809e	-0.073487505
97	0x3d642388	0.055697948
98	0xbd39ffbf	-0.045409914
99	0x3c52168b	0.0128227575
100	0xbcd1f70b	-0.025630495
101	0xbd3a4a2c	-0.045480892
102	0x3cf873f4	0.030328728
103	0xbd8d8be3	-0.06911447
104	0x39a64a20	0.00031717215
105	0xba058e7b	-0.00050947786
106	0x3df28cf9	0.11843295
107	0xbd03b185	-0.032151718
108	0xbb0e1870	-0.0021682046
109	0x3d2b0238	0.041750163
110	0xbc55c283	-0.0130468635
111	0xbdb188e9	-0.08668692
112	0x3dae4cb8	0.08510727
113	0xbda3ab62	-0.07991673
114	0x3d443181	0.047898773
115	0xbd8806c2	-0.06641914
116	0x3dd2f191	0.102999814
117	0x3d483530	0.04887885
118	0xbc0a6827	-0.008447683
119	0xbcc3db66	-0.023908328
120	0x3db52a5c	0.0884597
121	0x3da01328	0.07816154
122	0x3d1b14dc	0.03786169
123	0x3d4f7f05	0.050658245
124	0x3c29c378	0.010361545
125	0xbdd9b098	-0.10629386
126	0x3dd24abe	0.10268162
127	0xbd7330b1	-0.059372608
128	0x3d79c587	0.060979392
129	0x3dad01b7	0.08447593
130	0xbc91dc8c	-0.01780536
131	0x3ccdb580	0.02511096
132	0x3cc7889b	0.02435713
133	0xbd0f888f	-0.03504234
134	0x3d24f24c	0.040270135
135	0xbbb07bc6	-0.0053858487
136	0x3d885bbb	0.06658121
137	0x3dbc21ea	0.09186156
138	0xbba44ce1	-0.0050140475
139	0x3d2c2c7a	0.042034604
140	0xbcc0bc7b	-0.023527374
141	0xbca58d41	-0.020208957
142	0xbdf680fc	-0.120363206
143	0x3c9f2406	0.019426357
144	0xbce95b98	-0.028486058
145	0x3d004bff	0.031322476
146	0xbc4c4f40	-0.012470067
147	0x3d17289d	0.036903966
148	0xbc5e9562	-0.01358542
149	0x3dcadeba	0.09905763
150	0x3deb1ed8	0.11480492
151	0x3d689b3e	0.056788675
152	0xbd7ecd6e	-0.06220763
153	0x3dcbb716	0.0994703
154	0x3d9d3f1c	0.07678053
155	0x3d9c3989	0.076281615
156	0x3dc94edc	0.09829494
157	0xbd3c5037	-0.045974936
158	0xbcc53a5b	-0.024075678
159	0x3cd19a0a	0.025586147
160	0xbd2776df	-0.04088485
161	0x3d8b0dfa	0.06789775
162	0xbc05cfb6	-0.008167198
163	0x3dc7732c	0.09738764
164	0x3c9f9a08	0.019482628
165	0xbcffac17	-0.031209989
166	0x3de7a269	0.11310274
167	0xbd55c780	-0.05219221
168	0xbcb23601	-0.021754267
169	0xbdd57cc7	-0.1042419
170	0x3cb43ff4	0.022003151
171	0x3dbd58b3	0.09245434
172	0xba503dfb	-0.0007943806
173	0x3d9969ff	0.0749092
174	0x39ecf27d	0.00045194096
175	0xbdc9484c	-0.09828243
176	0xbc8c4f3e	-0.01712763
177	0x3ce9fb7e	0.028562304
178	0xbd1a72d2	-0.037707157
179	0x3d886b58	0.06661099
180	0x3d279df9	0.04092214
181	0xbaa798f6	-0.0012786675
182	0x3dacaffd	0.084320046
183	0x3cdf90a3	0.027290648
184	0xbbabbcfb	-0.005241034
185	0x3da526c2	0.08064033
186	0xbcd88616	-0.026431125
187	0xbd8e5b07	-0.06950956
188	0x3d7f9f37	0.0624077
189	0xbd1ce5e7	-0.03830519
190	0x3c52fec8	0.012878127
191	0xbd35ed0f	-0.04441553
192	0xbd139963	-0.036034953
193	0xbd4b6e0d	-0.0496655
194	0xbc1cc6af	-0.009568854
195	0x3dc1c84e	0.09462033
196	0x3d259da1	0.04043353
197	0x3de1bc4e	0.110222444
198	0x3da99082	0.08279516
199	0x3a7897db	0.00094830774
200	0xbde99dac	-0.11407027
201	0x3d7d9ace	0.06191521
202	0x3d118309	0.035525355
203	0xbb9a2c25	-0.0047049695
204	0x3d66c057	0.056335773
205	0xbc3772e6	-0.0111968275
206	0x3d4221b6	0.04739543
207	0x3da4c3ba	0.080451444
208	0x3d6073d0	0.054797947
209	0x3d4d383a	0.05010245
210	0xbca7b3e0	-0.020471513
211	0xbc30a854	-0.01078232
212	0x3d10c28d	0.035341788
213	0xbdbeabb5	-0.09310094
214	0x3da2d2e9	0.07950384
215	0x3c705514	0.014668722
216	0xbca9da63	-0.020734018
217	0xbd01be53	-0.031675648
218	0x3d958a93	0.073018216
219	0x3c2d4d8f	0.010577573
220	0x3d3a0bb3	0.045421313
221	0x9108173c	-1.0735668e-28
222	0xbc7de8ff	-0.015497445
223	0x3df60b89	0.12013919
224	0x3d3b726a	0.04576341
225	0x3d2a63fd	0.041599263
226	0x3c5d1a27	0.013495005
227	0xbc5921e9	-0.013252714
228	0xbb931c20	-0.0044894367
229	0x3dcb0b13	0.099142216
230	0x3cf30dff	0.02966976
231	0x3d2bba4e	0.04192572
232	0x3b1e9b9b	0.0024201635
233	0xbc0cea92	-0.008600848
234	0xbd166c1d	-0.0367242
235	0xbcde93e7	-0.027170135
236	0x3d1dc58c	0.038518474
237	0xbd825995	-0.06364743
238	0x3a92df00	0.0011205375
239	0x3d830170	0.063967586
240	0xbd796d13	-0.060895037
241	0xbc59a1e9	-0.013283231
242	0x3cee075d	0.029056245
243	0x3dc29d38	0.09502643
244	0x3d65c9f4	0.0561008
245	0xbd76f807	-0.06029513
246	0xbd997449	-0.07492883
247	0xbd511b2e	-0.05105131
248	0x3dca4ee6	0.0987833
249	0x3d07ee58	0.033186287
250	0xbc98b16c	-0.018639289
251	0x3c4d0157	0.0125125265
252	0xbd83a2c1	-0.06427527
253	0x3d0869c7	0.033304002
254	0x3d2ecaa3	0.04267372
255	0xbce01fec	-0.027358972

bond_lin.weight f4 [300, 23]
0	0xaf1bbd5e	-1.4164445e-10
1	0xbdcc4157	-0.099734
2	0x3e233b8c	0.15940684
3	0xbde82081	-0.11334325
4	0x3988612d	0.00026012343
5	0x39ae2126	0.00033212564
6	0x208e9561	2.4154586e-19
7	0x902522cd	-3.2567322e-29
8	0x29700725	5.3296902e-14
9	0x8d627e1b	-6.979342e-31
10	0xa380f684	-1.3982191e-17
11	0x381328cb	3.5085523e-05
12	0xbed98fa1	-0.42492393
13	0xba9a85e1	-0.0011789167
14	0xb2182540	-8.856034e-09
15	0x2f876c0c	2.463313e-10
16	0xb1666cde	-3.3531289e-09
17	0x8b88d2be	-5.2702384e-32
18	0xb8acc3d7	-8.238077e-05
19	0x273d08b0	2.6233728e-15
20	0x879f8849	-2.4003762e-34
21	0xb40db9e0	-1.3199269e-07
22	0x069a18c2	5.796474e-35
23	0xa7ff1c5d	-7.080747e-15
24	0xbe81bbd2	-0.25338608
25	0xbf057c72	-0.52143013
26	0xbe762762	-0.24038461
27	0xb46aa392	-2.1852455e-07
28	0xb69f82e4	-4.753807e-06
29	0x8aac305f	-1.6581193e-32
30	0x9a21c522	-3.3453262e-23
31	0x1e1f19d7	8.4227335e-21
32	0xb13ed620	-2.7770355e-09
33	0x05a29788	1.529007e-35
34	0xb43e8d40	-1.7746515e-07
35	0x3bad3e9f	0.005287006
36	0xa29ade44	-4.1977117e-18
37	0x002ac598	3.927974e-39
38	0xb430248a	-1.640457e-07
39	0x248ba1fb	6.0556046e-17
40	0x33a3ff03	7.636665e-08
41	0x96765dd2	-1.9901326e-25
42	0x15e3b52c	9.197041e-26
43	0x33e0be03	1.0465376e-07
44	0xa4f1e186	-1.0489914e-16
45	0x3a8ecb2f	0.0010894294
46	0xaba1e139	-1.150225e-12
47	0xbe595e5e	-0.21227404
48	0x3e3888dc	0.18020958
49	0xbd65986b	-0.05605356
50	0x360ac7f7	2.0679997e-06
51	0xba77b66a	-0.0009449484
52	0x0dd98f8d	1.3408216e-30
53	0x889a6ec3	-9.294578e-34
54	0x8021f68c	-3.119016e-39
55	0xaf8e7308	-2.5911384e-10
56	0x059d5efe	1.4799104e-35
57	0x3a2f090d	0.0006677069
58	0xbd125740	-0.03572774
59	0x803568e8	-4.904915e-39
60	0x3093c318	1.0751107e-09
61	0x152e6ada	3.522331e-26
62	0xa6576225	-7.472612e-16
63	0xb8c0c538	-9.192008e-05
64	0x394f0e56	0.00019746399
65	0xb85fb905	-5.3339656e-05
66	0x3a95c0d8	0.001142527
67	0x1cbe14e7	1.2578548e-21
68	0x28103fb7	8.007422e-15
69	0x322e6809	1.0151788e-08
70	0x3ee1b6a4	0.44084656
71	0xbe22b62b	-0.15889804
72	0xbf019c2b	-0.5062892
73	0x380707ec	3.2193886e-05
74	0x14b4b110	1.8245194e-26
75	0x3588ad20	1.0183176e-06
76	0x8199ff66	-5.65698e-38
77	0xb1fd223a	-7.36716e-09
78	0xba1340b5	-0.0005617247
79	0x32fbd6e8	2.9317974e-08
80	0xb6009c29	-1.9164384e-06
81	0xbd8da11f	-0.06915497
82	0x3a8bba38	0.0010660356
83	0xa191e928	-9.887298e-19
84	0x3a22548a	0.0006192407
85	0x209727d6	2.5606756e-19
86	0x8e29a6c7	-2.0911159e-30
87	0x8035778f	-4.910171e-39
88	0x37162ccf	8.9511295e-06
89	0x362f3a17	2.6110845e-06
90	0xb99c366d	-0.0002979519
91	0xaf0606c3	-1.2189631e-10
92	0x155210fc	4.242256e-26
93	0xbe46310e	-0.1935465
94	0x3e227308	0.15864193
95	0x3edb30f5	0.4281079
96	0x30100cbb	5.2404986e-10
97	0x80357004	-4.907465e-39
98	0xaed380a3	-9.6180196e-11
99	0x38d8b8dc	0.00010334115
100	0xb6a5c8fe	-4.9407818e-06
101	0x38960b03	7.1546085e-05
102	0x2836bd56	1.0144085e-14
103	0xae1f0f32	-3.616591e-11
104	0x3f0496c4	0.5179255
105	0x2f1d70f1	1.4319192e-10
106	0x13283afb	2.123366e-27
107	0x3a4c6750	0.0007797377
108	0x32d53a86	2.4823077e-08
109	0x38bbf9de	8.963396e-05
110	0xb5ccbd9c	-1.5254368e-06
111	0xb9294e79	-0.0001614633
112	0xb43c4d6a	-1.7537027e-07
113	0x33c4aa9a	9.1579935e-08
114	0x97081614	-4.3971837e-25
115	0xb1f18b58	-7.0298647e-09
116	0xbf09580e	-0.53649986
117	0xbdc6cf39	-0.09707493
118	0x3dc955dc	0.098308295
119	0xb905223a	-0.00012696619
120	0x206e80c2	2.0201987e-19
121	0xb6e32b57	-6.7701726e-06
122	0x84d89bfc	-5.0924605e-36
123	0xb9a8d5c4	-0.00032202725
124	0x9048f2de	-3.9630143e-29
125	0x1ecf1945	2.1927429e-20
126	0xb1ade2fc	-5.060768e-09
127	0xbec52f57	-0.3851268
128	0xb86fa2e2	-5.7133737e-05
129	0x34caf97f	3.7806964e-07
130	0xb5cc290a	-1.5211128e-06
131	0xa83ac6f8	-1.0368219e-14
132	0xb643178c	-2.907097e-06
133	0x3a8a5d26	0.0010556325
134	0x20513962	1.7721975e-19
135	0xb3b66304	-8.493046e-08
136	0x925a5bb5	-6.890171e-28
137	0x31e0ee42	6.546345e-09
138	0x36fb0987	7.481492e-06
139	0xbd2782d1	-0.04089624
140	0x3e8ad114	0.2711264
141	0x3e22b854	0.15890628
142	0x224d1834	2.7795494e-18
143	0x0d61455a	6.9416957e-31
144	0x36d99dcc	6.485474e-06
145	0x39fd986b	0.0004836948
146	0x35fdb1e9	1.8901748e-06
147	0xafdb4891	-3.988743e-10
148	0xa5b5d2d7	-3.1541366e-16
149	0x2e87c342	6.173774e-11
150	0x3c433163	0.01191363
151	0xb8d88266	-0.00010323971
152	0x14aaae3a	1.7234334e-26
153	0x1e099fcb	7.285764e-21
154	0xb9427ab8	-0.00018546998
155	0x3a7985f0	0.00095185544
156	0xa7135117	-2.0444307e-15
157	0x22f2042a	6.559864e-18
158	0x2ff67a28	4.4833937e-10
159	0xb72ccc56	-1.0299575e-05
160	0xb3cc21a1	-9.505607e-08
161	0x2f50c162	1.8986193e-10
162	0x3f06bc03	0.52630633
163	0x3eabf227	0.33583185
164	0x3e9a83cb	0.30178675
165	0x1f591424	4.5968197e-20
166	0x32ad908b	2.0205581e-08
167	0x9c654054	-7.5852886e-22
168	0xb20e8ee5	-8.297978e-09
169	0x3390416f	6.717425e-08
170	0x17648829	7.384263e-25
171	0xb9ebf46b	-0.00045004798
172	0x3a2ad796	0.000651711
173	0x3ed76227	0.42067072
174	0xa0ff5a2f	-4.325836e-19
175	0x336ec296	5.5590668e-08
176	0x28ca8675	2.2484817e-14
177	0xa988966b	-6.0657066e-14
178	0x23993190	1.6609284e-17
179	0x8bbc0485	-7.2421766e-32
180	0xae252cb4	-3.755636e-11
181	0xb4d000f4	-3.8743713e-07
182	0x1401353d	6.523335e-27
183	0x9636df83	-1.4772371e-25
184	0xb8151028	-3.5539415e-05
185	0x3e802c26	0.25033683
186	0xbda95fd3	-0.0827023
187	0xbdb23108	-0.08700758
188	0x351144fa	5.4117083e-07
189	0xab85fc42	-9.520234e-13
190	0xb6124dd5	-2.1801e-06
191	0xb2218d6f	-9.403592e-09
192	0xb5ff81d3	-1.9036764e-06
193	0xb3e94cff	-1.08639135e-07
194	0xa5bb91d0	-3.2538135e-16
195	0x30f91e67	1.8125775e-09
196	0xbef00a5b	-0.468829
197	0x3787034d	1.6094791e-05
198	0xb9c1acb6	-0.00036940508
199	0xa593e1f0	-2.5653536e-16
200	0xb49ee275	-2.9594563e-07
201	0x1b986760	2.5213095e-22
202	0xa3c2091f	-2.1037385e-17
203	0xb159bda8	-3.1685463e-09
204	0x2e19e72f	3.4993505e-11
205	0xb261e0f7	-1.3147875e-08
206	0x00357e05	4.912489e-39
207	0x9b0fbd56	-1.188986e-22
208	0xbeada832	-0.33917385
209	0x3eeab12c	0.45838296
210	0x3cfe1050	0.031013638
211	0x3a95fd57	0.0011443299
212	0x3a4017c6	0.0007327761
213	0xb8c282da	-9.275014e-05
214	0x80357ab8	-4.911304e-39
215	0xb725bf41	-9.879296e-06
216	0xb78d34ab	-1.6833035e-05
217	0x39af687e	0.00033456454
218	0xb62828cd	-2.50577e-06
219	0xbe818922	-0.25299937
220	0xb3378947	-4.273286e-08
221	0x34b51562	3.3729435e-07
222	0x0013ea24	1.828868e-39
223	0xb43c2997	-1.7523995e-07
224	0x8f084c5b	-6.720023e-30
225	0x20b63cd2	3.0872247e-19
226	0xb936adc6	-0.00017421608
227	0x1aa73e4f	6.9170246e-23
228	0x9193d5f5	-2.3324372e-28
229	0x1938a3e1	9.545672e-24
230	0xadbd9086	-2.1550994e-11
231	0x3ea17c9d	0.31540385
232	0x3e159f3d	0.14611526
233	0x3ee802e3	0.45314702
234	0xa4ee4003	-1.0332449e-16
235	0x3613f97a	2.2049921e-06
236	0xb4c87728	-3.73396e-07
237	0xa783af56	-3.6549904e-15
238	0x2c22cece	2.3136384e-12
239	0xb4e24c7e	-4.2151436e-07
240	0x2f35add8	1.6523616e-10
241	0x28e57936	2.5476674e-14
242	0xb9b2c44b	-0.00034097055
243	0x3126a613	2.4250582e-09
244	0xab0efe0d	-5.08011e-13
245	0x381cdd92	3.739965e-05
246	0xa717112c	-2.0964768e-15
247	0xb8c67f4d	-9.465087e-05
248	0x0971e8a0	2.91187e-33
249	0x86d74da1	-8.0988077e-35
250	0xaa88c235	-2.429321e-13
251	0xb11451e6	-2.1583388e-09
252	0xa2b1dd2c	-4.821012e-18
253	0xacc8609a	-5.695067e-12
254	0xbe94e649	-0.29081944
255	0xbf0e14cf	-0.555005

bond_lin.bias f4 [300]
0	0xbe46ee36	-0.19426808
1	0x3d66de0f	0.056364115
2	0xbe083be0	-0.1330409
3	0x3e6ce689	0.23134817
4	0xbdaa156b	-0.083048664
5	0x3df0d444	0.117592365
6	0x3e39b893	0.18136816
7	0xbd1d1ab9	-0.038355563
8	0xbe103663	-0.14083247
9	0xbe758a25	-0.23978479
10	0x3e871280	0.26381302
11	0xbdac85f3	-0.08423986
12	0x3e4ee937	0.20206152
13	0xbbdc66b6	-0.0067261113
14	0xbe1be570	-0.15224242
15	0xbe561f00	-0.20910263
16	0x3e60957f	0.21932028
17	0x3dfb2f75	0.12264911
18	0x3dafba23	0.08580425
19	0x3db3351f	0.087503664
20	0xbc45b1d7	-0.012066326
21	0x3cf66d0b	0.030081293
22	0xbe5ea065	-0.21740873
23	0xbd948187	-0.07251268
24	0x3e8909fe	0.26765436
25	0x3dab2007	0.08355718
26	0xbdf12c0c	-0.117759794
27	0xbda90a2d	-0.08253894
28	0x3c83869c	0.016055398
29	0xbc0ec7be	-0.008714614
30	0xbd64f4a5	-0.055897374
31	0x3d429df4	0.047513917
32	0x3d9cd035	0.076569
33	0x3e26bac6	0.16282186
34	0xbe4c2c36	-0.1993874
35	0xbdaa719b	-0.0832245
36	0xbd542f31	-0.051802818
37	0x3e27e3c6	0.16395482
38	0xbe61383f	-0.21994112
39	0xbe3c9dfd	-0.18419643
40	0x3dd24317	0.102667026
41	0x3c513331	0.012768553
42	0x3e0e688b	0.13907067
43	0x3e3f5902	0.18686298
44	0x3ddbcc85	0.107323684
45	0xbd833f71	-0.06408585
46	0xbe05c95f	-0.13065098
47	0xbdbb2a62	-0.09138943
48	0xbe878855	-0.264712
49	0x3d14aade	0.036295764
50	0x3d09ec9e	0.03367292
51	0x3d63b2e3	0.05559052
52	0xbd97776e	-0.07395826
53	0xbc588d49	-0.013217279
54	0x3c38e9f2	0.011286246
55	0x3e07c36d	0.13258143
56	0xbe32ce7b	-0.17461579
57	0x3e47f323	0.19526343
58	0xbe6dc2f8	-0.23218906
59	0x3e41c698	0.18923414
60	0xbd9a5e5c	-0.07537529
61	0x3e3506e3	0.17678408
62	0x3d7217b6	0.059104644
63	0xbdc8435c	-0.09778473
64	0xbe427828	-0.18991148
65	0xbd330f0c	-0.04371552
66	0x3d9ef713	0.077619694
67	0xbd031e26	-0.032011174
68	0xbd877846	-0.06614737
69	0xbd39975e	-0.04531037
70	0x3e5a3c7d	0.21312137
71	0xbe0cbf19	-0.13744773
72	0x3d62fee7	0.055418875
73	0xbe0f1e45	-0.1397639
74	0x3c8367a8	0.016040638
75	0x3d677a71	0.056513254
76	0x3d670b62	0.05640734
77	0x3e1a37e2	0.1506038
78	0xbd4bd276	-0.049761258
79	0xbdacfc9e	-0.084466204
80	0x29fc4705	1.1203368e-13
81	0xbe51bcb9	-0.20482148
82	0x3dd70853	0.104996346
83	0x3e204f8d	0.15655346
84	0xbe3c54a2	-0.1839166
85	0xbe3fb2e0	-0.18720579
86	0xbe371485	-0.17878921
87	0x3e0b1264	0.13581234
88	0xbd63d511	-0.055623118
89	0x3e63c646	0.22243604
90	0x3e30de9b	0.17272417
91	0xbd0a5451	-0.033771817
92	0xbde60d68	-0.11233026
93	0x3ad34a9e	0.001612026
94	0xbe59bc0b	-0.21263139
95	0xbe065cb7	-0.13121305
96	0xbe02e334	-0.12781984
97	0xbce97fa9	-0.028503256
98	0xbddcb717	-0.10777109
99	0x3e031fcb	0.12805097
100	0x3e451513	0.1924632
101	0x3e2e1cf4	0.17003232
102	0x3d831dec	0.064021915
103	0xbe7569ee	-0.2396619
104	0x3d80d9dd	0.06291554
105	0x3d865ce5	0.06560687
106	0x3e6d0407	0.23146068
107	0x3c726e29	0.014796772
108	0x3da96652	0.08271469
109	0x3e66c956	0.22537741
110	0xbe259127	-0.16168652
111	0xbdbf462f	-0.09339558
112	0x3d6d0c87	0.057873275
113	0x3d06dc63	0.03292502
114	0x3b61b832	0.0034442064
115	0xbe0eb461	-0.13935997
116	0xbe303c83	-0.17210583
117	0x3e3bea34	0.1835106
118	0x3d242d3e	0.04008221
119	0xbd1c5ee5	-0.038176436
120	0x3e6f8bc6	0.23393163
121	0x3e5c1549	0.21492495
122	0x3cf02444	0.029314168
123	0xbd871363	-0.065954946
124	0x3e2530af	0.16131853
125	0x3db4f6e0	0.0883615
126	0x3e61d1bd	0.22052665
127	0xbca577e4	-0.02019877
128	0xbe800787	-0.25005743
129	0x3ee30f26	0.44347495
130	0x3e7daa79	0.24772061
131	0xbe6309b7	-0.22171675
132	0xbe566fea	-0.2094113
133	0xbe6c2636	-0.23061451
134	0xbe1b0a2e	-0.15140602
135	0xbe3bb660	-0.1833129
136	0x3d940ce8	0.07229024
137	0x3dc1e3f9	0.094673105
138	0xbdd38942	-0.10328914
139	0x3daac8c9	0.08339078
140	0xbd909552	-0.070597306
141	0xb970a574	-0.0002294982
142	0xbe4ee63c	-0.20205015
143	0xbdeb43a8	-0.11487514
144	0x3e53caf9	0.20682897
145	0x3d883c0f	0.0665208
146	0x3e15235d	0.14564271
147	0x3d006160	0.031342864
148	0x3d9a1471	0.0752343
149	0x3e1e27ce	0.15444872
150	0x3e1ff65f	0.15621327
151	0x3e42ae78	0.19011867
152	0x3cbecd61	0.023291292
153	0xbd37d26e	-0.044878416
154	0xbdd7cea6	-0.10537462
155	0x3e775015	0.24151643
156	0xbd2b22d0	-0.041781247
157	0x3cdf5fc4	0.027267344
158	0xbd4e3ad5	-0.050349075
159	0x3e002eb8	0.12517822
160	0xbded0dce	-0.11574899
161	0xbe066ef9	-0.1312827
162	0xbdd1bd0e	-0.102411374
163	0x3cb7fecf	0.02246037
164	0x3dd223c0	0.10260725
165	0x3dfe32f7	0.124120645
166	0x3e18c089	0.14917196
167	0xbe31625b	-0.17322676
168	0xbe63e2ad	-0.22254439
169	0x3e452c42	0.19255164
170	0x3db03674	0.08604136
171	0xbc37a8a9	-0.011209645
172	0xbdafa567	-0.0857647
173	0xbe54ca25	-0.20780237
174	0x3ba9598e	0.0051681465
175	0x39e1c4fe	0.00043062115
176	0xbe339f31	-0.17541195
177	0x3e1328ba	0.14371005
178	0x3d3d9bda	0.04629121
179	0x3d0dc8b0	0.03461522
180	0x3e50c4b5	0.20387538
181	0xba88b93a	-0.0010431178
182	0x3dcb7359	0.0993411
183	0xbe43821c	-0.19092602
184	0x3cb01a00	0.021496773
185	0x3d50a71a	0.05094061
186	0xbe382948	-0.17984498
187	0xbbe2933e	-0.0069145253
188	0x3e00a451	0.12562682
189	0xbce94199	-0.028473662
190	0x3e676b59	0.22599544
191	0xbe13780f	-0.14401267
192	0x3e111855	0.14169438
193	0x3e095250	0.13410306
194	0xbe8ebb2f	-0.27877185
195	0xbdba7cda	-0.09105845
196	0x3daa2473	0.083077334
197	0x3e402a9b	0.18766253
198	0xbe1b332e	-0.15156242
199	0xbe88dc3e	-0.2673053
200	0x3e29ab71	0.16569306
201	0x3e51c7a0	0.20486307
202	0xbe2ad4ee	-0.16682789
203	0xbe4fc640	-0.2029047
204	0x3cec83c7	0.02887143
205	0x3e51baf1	0.20481469
206	0x3e4ed931	0.2020004
207	0x3d901344	0.070349246
208	0xbe86812f	-0.26270434
209	0xbd0c7ad1	-0.034296814
210	0xbd932bd3	-0.07186093
211	0x3c5239ea	0.012831191
212	0x3d17f238	0.037096232
213	0xbdfd136d	-0.12357221
214	0x3d20188a	0.039085902
215	0x3e26c5d3	0.16286401
216	0x3c9d63b5	0.019212583
217	0x3e66c39e	0.2253556
218	0x3e461daf	0.19347261
219	0x3e2591fc	0.1616897
220	0x3e60417d	0.21899982
221	0x9313276a	-1.8573441e-27
222	0x3ddaf9eb	0.10692199
223	0x3ce7e147	0.028305663
224	0xbe4411d2	-0.19147423
225	0xbe2a56d8	-0.16634691
226	0x3e58a79f	0.21157692
227	0x3e28be00	0.16478729
228	0xbd15db30	-0.036585987
229	0xbd909f3c	-0.070616215
230	0xbe0d7d9f	-0.13817452
231	0xbd87aa9e	-0.066243395
232	0x3e210bbc	0.15727133
233	0x3d82db39	0.0638947
234	0xbe053c94	-0.1301139
235	0xbe00e0a9	-0.12585701
236	0x3ccef815	0.02526478
237	0xbd1c8bad	-0.038219143
238	0x3dd4aff4	0.10385123
239	0x3e2ecc9b	0.17070238
240	0x3e18ebb6	0.14933667
241	0x3e6a9ef4	0.22912198
242	0xbd33938d	-0.043841887
243	0xbd85a04d	-0.065247156
244	0x3dd92397	0.10602491
245	0xbe0b938a	-0.136305
246	0x3e84e19a	0.2595337
247	0x3b072ec6	0.0020627244
248	0x3e4a81e5	0.19776113
249	0xbdb9e53b	-0.09076925
250	0xbde10f59	-0.109892555
251	0xbdd2b8e6	-0.10289173
252	0xbce8091c	-0.028324656
253	0x3e6a42dd	0.22877069
254	0x3b6726b8	0.003527088
255	0xbe7902e5	-0.2431751

energy_lin.1.weight f4 [300, 300]
0	0xbccb1a72	-0.024792884
1	0x3d23978f	0.03993946
2	0xbdeee28d	-0.11664305
3	0xbdac9db4	-0.08428517
4	0x3e0c2f21	0.13689853
5	0x3d577c50	0.052608788
6	0x3e24ffe4	0.1611324
7	0xbe2db551	-0.16963698
8	0x3df316fa	0.11869617
9	0x3defd0e3	0.11709764
10	0xbe0df965	-0.13864668
11	0xbc66a78d	-0.014078033
12	0x3e349b50	0.17637372
13	0x3d281574	0.041036084
14	0x3d0209af	0.031747516
15	0xbdaf2302	-0.08551599
16	0xbd672e9a	-0.056440927
17	0x3d21f5e0	0.039541125
18	0xbd9402ed	-0.072271205
19	0x3d0216e6	0.03176012
20	0x3d869fc4	0.065734416
21	0xbd04ef21	-0.032454614
22	0x3e0cb7d6	0.13742003
23	0x3d5be62d	0.05368631
24	0xbb8e4af6	-0.004342432
25	0xbd12515a	-0.035722114
26	0xbdee480f	-0.11634838
27	0xbdcafd5d	-0.099116065
28	0xbc8f19a2	-0.017468277
29	0x3de7b5da	0.11313982
30	0xbad2657c	-0.0016051973
31	0x3db5f3eb	0.08884414
32	0xbde02a42	-0.1094556
33	0xbda74468	-0.08167344
34	0xbcbe78f4	-0.023251034
35	0x3ddaa268	0.10675508
36	0x3e383ed8	0.17992723
37	0x3d4d8163	0.05017222
38	0x3cc76e5e	0.02434462
39	0x3cb926f5	0.022601584
40	0x3dd23504	0.10264018
41	0x3cfe2979	0.031025635
42	0x3ba1deab	0.004939874
43	0x3d456a42	0.04819704
44	0xbd8489df	-0.06471609
45	0x3d7d2732	0.061804958
46	0x3d811148	0.06302124
47	0x3df9a697	0.121899776
48	0x3e29b0c3	0.16571335
49	0xbd820530	-0.06348646
50	0x3d7b7032	0.061386295
51	0xbdafc69a	-0.08582802
52	0x3e25f5c5	0.16207035
53	0xbdd47862	-0.10374524
54	0x3dfab077	0.12240689
55	0xbdf33395	-0.11875073
56	0x3de96989	0.11397082
57	0x3e15adbf	0.1461706
58	0xbe0bc43b	-0.13649075
59	0xbde30e11	-0.11086667
60	0xbd9dfb68	-0.077139676
61	0xbd0e35d4	-0.034719303
62	0x3d804bfb	0.06264492
63	0x3da02c1d	0.07820914
64	0xbd69648a	-0.056980647
65	0x3d6dd649	0.058065686
66	0xbe018435	-0.12648089
67	0xbdafdde7	-0.085872464
68	0x3dac7611	0.08420957
69	0x3d99acf4	0.07503691
70	0x3ddd131f	0.10794663
71	0x3dc495f5	0.095989145
72	0xbda240b6	-0.07922499
73	0x3d7d4130	0.061829746
74	0x3e10a7f1	0.14126565
75	0x3e1890bd	0.14898963
76	0x3dfa2a54	0.12215105
77	0x3e3d4dd7	0.18486725
78	0xbdb5e848	-0.08882195
79	0x3cff0372	0.031129573
80	0x1cc2e398	1.2896675e-21
81	0x3dae1044	0.08499196
82	0xbc985047	-0.018592967
83	0x3dcdcbf1	0.10048664
84	0x3e0c2f4f	0.13689922
85	0xbbcc429b	-0.006233526
86	0x3da7d1bb	0.081943
87	0xbd1c93a0	-0.038226724
88	0x3d92a6d9	0.0716073
89	0x3e3b3d46	0.18285093
90	0xbdaf8bc4	-0.0857158
91	0x3d89f5ab	0.067363106
92	0x3dd55a86	0.104176566
93	0xbceb0776	-0.028690081
94	0x3e062100	0.13098526
95	0x3e0143c0	0.12623501
96	0x3cb6a0a7	0.022293402
97	0xbd997bf2	-0.07494344
98	0xbd338bb2	-0.043834396
99	0x3ceb8292	0.028748784
100	0x3d1fbb97	0.03899726
101	0x3d7e16a7	0.06203332
102	0x3e097d0d	0.1342661
103	0xbd66f20b	-0.056383174
104	0x3d7b643d	0.06137489
105	0x3e209348	0.15681183
106	0x3e054386	0.1301404
107	0x3e1009d1	0.14066245
108	0x3e6b9069	0.23004307
109	0xbc7d0f91	-0.015445606
110	0xbbfd8b7c	-0.007737575
111	0xbc8cf259	-0.017205404
112	0xbdd31542	-0.10306789
113	0x3c83c475	0.016084889
114	0x3e35719d	0.17719121
115	0x3dc9ca9c	0.09853098
116	0x3e10a99c	0.14127201
117	0x3c933349	0.01796879
118	0xbd095b45	-0.033534307
119	0x3e909e1b	0.28245625
120	0xbd37e798	-0.0448986
121	0xbddcbe24	-0.10778454
122	0xbdb02f80	-0.0860281
123	0xbdaeed84	-0.08541396
124	0xbd743263	-0.059618365
125	0xbde6891e	-0.11256622
126	0xbdd896a0	-0.105756044
127	0xbb7eb0bd	-0.0038862668
128	0x3d5380c0	0.051636457
129	0x3ebd0c61	0.36923507
130	0xbe04667f	-0.12929724
131	0x3de2c6db	0.11073085
132	0x3da44e75	0.08022777
133	0x3e27df2c	0.16393727
134	0xbdca7479	-0.09885497
135	0xbd7a66ad	-0.061133076
136	0x3e06f7df	0.13180493
137	0x3d904a3b	0.07045408
138	0x3e1769a4	0.14786392
139	0x3dc0e506	0.09418683
140	0x3cb453da	0.02201264
141	0xbdd6d43f	-0.104897015
142	0xbda13c8d	-0.07872877
143	0xbd18b853	-0.03728516
144	0xbc8aa480	-0.016924143
145	0x3db71dfb	0.08941265
146	0x3cc8abf8	0.024496064
147	0xb9c5f8a5	-0.00037760023
148	0xbcf26af7	-0.02959202
149	0x3d6ee583	0.05832435
150	0xbcfe7e31	-0.031066032
151	0x3cf738cf	0.030178456
152	0x3d8be395	0.06830517
153	0xbda401b0	-0.08008134
154	0xbe018e55	-0.12651952
155	0xbde47c43	-0.111565135
156	0xbd33c58a	-0.04388956
157	0xbd20476c	-0.039130613
158	0x3dee4b26	0.11635427
159	0x3e0e7de3	0.1391521
160	0xbde50a2b	-0.1118358
161	0xbcfb64bd	-0.030687684
162	0xbdf236ff	-0.11826896
163	0xbdbdd68e	-0.09269439
164	0x3dec103e	0.115265355
165	0xbd8bd167	-0.0682705
166	0x3d9d3d80	0.07677746
167	0xbe2194c7	-0.1577941
168	0x3be65d45	0.0070301616
169	0x3d2c774a	0.04210595
170	0xbda66e7f	-0.08126544
171	0x3ded37cf	0.1158291
172	0x3d78e5d9	0.060766075
173	0x3d08cdd5	0.03339942
174	0xbe1a229b	-0.15052263
175	0x3c504f5b	0.012714232
176	0xbd413d90	-0.04717785
177	0x3d5b2810	0.053505003
178	0xbb4813fb	-0.0030529487
179	0x3df6f2da	0.12058039
180	0xbe4369b1	-0.19083287
181	0xb5ea7a03	-1.7469869e-06
182	0x3e1b51fb	0.15167992
183	0xbd185a80	-0.037195683
184	0x3dc072b3	0.09396877
185	0x3d26c3c4	0.04071404
186	0xbd74f5b2	-0.059804626
187	0x3dd02c86	0.10164742
188	0x3dd2dfa8	0.10296565
189	0x3dca56e5	0.09879855
190	0xbd2495c3	-0.040181886
191	0x3c8b807e	0.017029043
192	0x3d3f0877	0.046638932
193	0xbd23968d	-0.0399385
194	0x3e4f77e4	0.20260578
195	0xbcdf206c	-0.02723714
196	0xbde26b00	-0.11055565
197	0xbd9714d7	-0.07377022
198	0x3d7280d7	0.059204902
199	0xbc116fc6	-0.0088767465
200	0x3d29c125	0.041443963
201	0x3dbd8b95	0.09255139
202	0x3dc9de4c	0.09856853
203	0x3c641e88	0.013923295
204	0xbdca4330	-0.09876096
205	0xbd53d574	-0.051717237
206	0x3e2e4335	0.17017825
207	0xbbf905f0	-0.0075995848
208	0x3db6e040	0.08929491
209	0x3e12a751	0.14321639
210	0x3ce7c763	0.028293317
211	0x3dea29d7	0.114337616
212	0x3d15beda	0.036558963
213	0x3db9b675	0.09068004
214	0xbddedbaf	-0.10881745
215	0xbcc03cc1	-0.02346647
216	0xbe329d92	-0.17442921
217	0x3b6e8d92	0.00364003
218	0x3dc1b17f	0.09457683
219	0xbcf2edbe	-0.02965438
220	0xbd56ddef	-0.052457746
221	0x88917227	-8.753707e-34
222	0x3c8a69fe	0.016896244
223	0x3e360c5f	0.17778157
224	0x3d36ff1b	0.04467688
225	0x3dfe2898	0.124100864
226	0x3d0a4627	0.03375831
227	0x3e3571ba	0.17719164
228	0x3e218b08	0.15775692
229	0xbd444679	-0.04791877
230	0xbddf2e5a	-0.10897513
231	0xbd4ea9fe	-0.050455086
232	0xbca65177	-0.020302517
233	0xbd6c6739	-0.05771563
234	0x3d55e3f4	0.052219346
235	0x3dab9e81	0.083798416
236	0xbd118f02	-0.035536774
237	0x3d9a3a86	0.07530694
238	0x3db7841e	0.08960746
239	0xbdda63a9	-0.1066354
240	0x3dbd551f	0.09244751
241	0x3e0612c0	0.1309309
242	0x3daff157	0.08590954
243	0x3e1ce94d	0.15323372
244	0x3c87dbe5	0.016584346
245	0x3e20c102	0.15698627
246	0xbac73271	-0.0015197528
247	0xbd2a68d6	-0.041603886
248	0x3e235d98	0.15953672
249	0x3c935d45	0.01798881
250	0xbdb42f92	-0.08798136
251	0x3d12b03e	0.03581261
252	0xbc571f8a	-0.013130078
253	0x3d86cd36	0.0658211
254	0x3caf099a	0.021366883
255	0xbd1428d1	-0.036171738

energy_lin.1.bias f4 [300]
0	0x3d8098c3	0.06279137
1	0x3d8b28e3	0.06794908
2	0x3d4d6568	0.050145537
3	0x38f37e88	0.00011610711
4	0xbc4efd61	-0.012633652
5	0x3c83a76b	0.016071042
6	0xbcca8d20	-0.024725497
7	0x3d3f5a78	0.046717137
8	0xbc3b092a	-0.011415759
9	0x3d6b0523	0.057377946
10	0x3d27c230	0.040956676
11	0x3d52710e	0.05137735
12	0xbcffa901	-0.031208517
13	0x3bc6916d	0.0060598166
14	0x3d3f99b6	0.04677745
15	0x3cace456	0.021104973
16	0xbcf131b3	-0.029442644
17	0x3d3878db	0.04503713
18	0xbce0abbc	-0.02742564
19	0xbc767e75	-0.015044798
20	0x3d865dc7	0.06560855
21	0x3d05bdf6	0.032651864
22	0x3c913cdf	0.01772922
23	0xbb988234	-0.0046541933
24	0xb9aef185	-0.00033367812
25	0xbcbe379e	-0.02321988
26	0xbd2286c7	-0.039679315
27	0x3d158227	0.036501076
28	0x3c0fc6bf	0.008775412
29	0x3c28f3db	0.010312046
30	0x3d91c87d	0.07118318
31	0x3d5adb38	0.05343172
32	0x3d8eb55b	0.069681846
33	0xbc15b7b2	-0.009138035
34	0xbcad8209	-0.02118017
35	0x3d4ca435	0.049961288
36	0x3bb41d1f	0.0054966356
37	0x3c393896	0.011304995
38	0x3cfcb37a	0.0308473
39	0xbcdd821a	-0.027039576
40	0x3ca03d09	0.019560354
41	0xbce32660	-0.02772826
42	0xbc099579	-0.008397453
43	0xbd061385	-0.03273346
44	0x3d69b51b	0.05705748
45	0x3d052336	0.032504283
46	0x3d898110	0.0671407
47	0xbc6812ef	-0.01416467
48	0x3d6517c6	0.055930875
49	0xbb327b8e	-0.002723429
50	0xbd01f914	-0.03173168
51	0x3d268d56	0.040662132
52	0xbce5f1ae	-0.028069343
53	0x3ac7658a	0.0015212756
54	0x3d39a60a	0.045324363
55	0x3c38419b	0.01124611
56	0x3b8a264b	0.0042159907
57	0x3d256b5d	0.040385593
58	0xbd3aa321	-0.045565728
59	0x3c46e02c	0.012138408
60	0x3c7eeaa2	0.0155588705
61	0xbca5380a	-0.020168323
62	0xbca52c1a	-0.02016263
63	0x3cc83425	0.024438927
64	0xbcf75a00	-0.030194283
65	0x3d42e2f2	0.047579713
66	0x3d387771	0.045035783
67	0x3d2bca78	0.041941136
68	0x3cee8ed6	0.029120844
69	0x3d5db385	0.05412628
70	0xbd063160	-0.03276193
71	0xbc833935	-0.01601849
72	0x3d790f62	0.060805686
73	0xbc4d6b4d	-0.0125377895
74	0x3c572d8e	0.01313342
75	0x3a009bd8	0.0004906035
76	0x3c3f7bbd	0.011687216
77	0x3ca8127e	0.02051663
78	0x3d065d98	0.0328041
79	0xbd2556df	-0.04036605
80	0x3ca2e674	0.01988528
81	0x3cc1a4d3	0.023638165
82	0x3d30f668	0.04320374
83	0x3dc103f3	0.094245814
84	0x3d374ece	0.04475289
85	0x3a290fd7	0.00064491987
86	0xbd57f3e3	-0.052722823
87	0x3cd15716	0.025554221
88	0xbcc82380	-0.02443099
89	0xbcba7b6a	-0.022763927
90	0x3d13065f	0.035894748
91	0xbcf1673b	-0.02946817
92	0x3a03ae7e	0.0005023255
93	0x3d00cc14	0.031444624
94	0x3daf62f0	0.08563793
95	0x3d6285cf	0.05530339
96	0x3d83b903	0.064317726
97	0x3d194714	0.0374213
98	0x3d776d9c	0.060407266
99	0x3d8619ef	0.06547915
100	0xbc121735	-0.008916666
101	0x3da935bf	0.082622044
102	0x3cbb1a89	0.022839801
103	0x3c375461	0.011189551
104	0x3d8f1a4f	0.0698744
105	0xbd55b750	-0.052176774
106	0x3d64bd62	0.055844672
107	0x3d1bd72a	0.038046993
108	0xbbe567b7	-0.007000889
109	0x3bc0bc15	0.005881796
110	0x3d2bf664	0.041983023
111	0x3d30d12b	0.043168228
112	0x3ca25b89	0.019819038
113	0x3d8a9343	0.06766369
114	0xbce20564	-0.027590461
115	0x3ca24d78	0.01981233
116	0x3d8b2758	0.067946136
117	0xbca57a96	-0.020200055
118	0xbc95bfb7	-0.018279893
119	0xbcaf2fa7	-0.021385027
120	0x3d49864d	0.049200345
121	0xbc8fe9af	-0.017567484
122	0x3c7a36bf	0.015271842
123	0x3c37fd20	0.011229783
124	0x3d61b09b	0.055100065
125	0xbc30068e	-0.01074375
126	0xbcacca9e	-0.02109271
127	0x3d8fce30	0.07021749
128	0xbb3237fd	-0.0027194016
129	0x3d3cd108	0.046097785
130	0x3c427dd7	0.011870823
131	0x3d9377c4	0.07200578
132	0xbb28db85	-0.002576561
133	0xbcb8a166	-0.022537898
134	0xbc747bcd	-0.0149220945
135	0xbd0b29f8	-0.03397557
136	0xbd01eddf	-0.031720992
137	0x3d63c41e	0.055606954
138	0xbd348b1d	-0.04407798
139	0x3cbdb5ea	0.023158032
140	0x3d6bff61	0.057616595
141	0x3d0d0809	0.03443149
142	0x3d232d62	0.039838202
143	0x3d85ab74	0.06526843
144	0x3d1815e6	0.03713026
145	0x3ce6d375	0.028177002
146	0xbbbef353	-0.0058273464
147	0xbc9b9e22	-0.018996302
148	0x3d16f33f	0.03685307
149	0x3d95b098	0.07309073
150	0x3d71ff99	0.059081648
151	0xbd05b49a	-0.03264294
152	0xbcba6088	-0.022751108
153	0x3bb6c4a1	0.005577639
154	0x3d8e5f86	0.069518134
155	0x3d0119b2	0.031518646
156	0xbccbddc9	-0.024886029
157	0x3b7c3a2d	0.0038486824
158	0x3b66cdd6	0.0035217903
159	0x3d89f064	0.06735304
160	0x3cc6dbcf	0.024274735
161	0xbc8ebf5c	-0.017425232
162	0xbc8d1804	-0.017223366
163	0xbc7ae2b6	-0.015312841
164	0x3d504872	0.05085034
165	0xbc9abe62	-0.01888961
166	0x3dbee8c0	0.09321737
167	0x3cf59b3d	0.02998125
168	0x3b137c82	0.0022504632
169	0x3d9dc89c	0.07704279
170	0x3ce54d4d	0.027990961
171	0x8035687e	-4.904766e-39
172	0x3c9ed821	0.019390168
173	0x3b04aa32	0.0020243046
174	0x3c4e2c62	0.012583824
175	0x3d5ae38b	0.053439658
176	0x3d4ad628	0.04952064
177	0xbd22c722	-0.03974069
178	0x3d4c439e	0.049869172
179	0x3dc7d2ec	0.09757027
180	0xba86ca19	-0.0010283618
181	0x3d923359	0.071387
182	0x3d8c0e2f	0.06838643
183	0xbd849a97	-0.06474798
184	0xbc8d315f	-0.017235456
185	0x3d68c5c1	0.056829218
186	0x3d5978e0	0.05309379
187	0x3d7fce9c	0.062452897
188	0xbc76c30a	-0.015061149
189	0x3dd28c91	0.10280717
190	0x3ce261cf	0.02763453
191	0x3cd99ad5	0.026563087
192	0x3d0b5e30	0.03402537
193	0x3d647d4b	0.05578355
194	0xbd7451ed	-0.059648443
195	0x3d45a02f	0.048248466
196	0x3d0d5004	0.034500137
197	0x3d207bc7	0.039180543
198	0x3d00aa92	0.03141267
199	0xbd2ce8ed	-0.042214323
200	0x3c198055	0.009368976
201	0x3d59469f	0.053045865
202	0x3be1d8fd	0.006892322
203	0x3bb2a79e	0.0054521104
204	0x3d4f5dcd	0.050626565
205	0x3d4dbf82	0.050231464
206	0x3c9cd03c	0.019142263
207	0x3d5ebff5	0.054382283
208	0x3b8d7735	0.004317189
209	0xbd109591	-0.035298888
210	0x3d73a961	0.059487704
211	0x3bdcb413	0.0067353337
212	0xbb148699	-0.0022663234
213	0x3d694020	0.05694592
214	0x3c59b3fb	0.01328754
215	0x3cdeb5a0	0.027186215
216	0x3b961ef6	0.0045813276
217	0x3d57a437	0.05264684
218	0x3ba16678	0.0049255453
219	0xbd292018	-0.041290373
220	0xbcdf6081	-0.027267696
221	0x3d6b9a24	0.057520047
222	0x3b43ac3e	0.0029857303
223	0x3cca7ad6	0.024716776
224	0xbbb275ab	-0.005446156
225	0x3ba9ae41	0.0051782434
226	0xbd2b1b00	-0.041773796
227	0x3d888d9f	0.06667637
228	0x3ca1c6ff	0.019748209
229	0xbc8a1a67	-0.016858293
230	0xbcecd3d3	-0.0289096
231	0xbd2f73c5	-0.042835016
232	0x3cbd4073	0.02310202
233	0x3d51cd4f	0.05122119
234	0x3d242762	0.04007662
235	0xb905654e	-0.00012721607
236	0x3cf24088	0.029571787
237	0x3ccde3ee	0.0251331
238	0x3d20e864	0.039284125
239	0x3d927300	0.07150841
240	0xbbbd9ec4	-0.0057867486
241	0x3d5bf23a	0.053697802
242	0xbd2a026a	-0.04150621
243	0x3d6edfe3	0.058318984
244	0x3da51d5d	0.08062241
245	0x3d5434f9	0.05180833
246	0xbb20f8e0	-0.0024562404
247	0x3c9b5973	0.018963551
248	0x3cc1c752	0.023654614
249	0xbd3e1838	-0.046409816
250	0x3d81cd1f	0.06337952
251	0xbd0ffe38	-0.03515455
252	0x3d11add2	0.03556616
253	0x3d07390b	0.033013385
254	0x3d0b606c	0.034027502
255	0xbc905a3b	-0.01762115

energy_lin.3.weight f4 [150, 300]
0	0xbd918312	-0.07105078
1	0xbd890c1f	-0.06691765
2	0x3c9f2b5d	0.019429857
3	0xbd652520	-0.05594361
4	0x3e1d94ec	0.1538884
5	0x3d9c0c69	0.076195545
6	0xbd8c924e	-0.06863843
7	0x3d7e6626	0.062109135
8	0x3d1cce1f	0.03828251
9	0xbdfbc805	-0.1229401
10	0x3c44a4a6	0.012002146
11	0xbde21cd7	-0.11040657
12	0xbd3a56b7	-0.045492854
13	0x3e1d1e20	0.15343523
14	0x3e92a042	0.28637892
15	0xbc0593b7	-0.008152894
16	0x3c34d62e	0.011037393
17	0xbd7bfc6d	-0.06152003
18	0xbdde310b	-0.10849198
19	0xbc96240a	-0.018327732
20	0x3d60dfc2	0.054900892
21	0xbe779509	-0.24177946
22	0x3dadaa27	0.084797196
23	0x3e1bbae7	0.15208016
24	0x934e1450	-2.601087e-27
25	0xbdefcd02	-0.11709024
26	0xbd259e9c	-0.040434465
27	0x3d6d79dc	0.057977542
28	0x3c22d587	0.009938604
29	0xbe4cd56f	-0.20003293
30	0x3e19e4fb	0.15028755
31	0xbe20fc80	-0.15721321
32	0x3d93e9e3	0.07222345
33	0x3db0c1b1	0.08630694
34	0xbd97e270	-0.074162364
35	0xbe0d1c44	-0.13780314
36	0xbdb47883	-0.08812048
37	0xbbf399dc	-0.007434113
38	0x3db0c4d0	0.08631289
39	0xbc5cbc74	-0.013472665
40	0xbdab2dae	-0.08358322
41	0x3dc803c4	0.09766343
42	0x3deea848	0.11653191
43	0x3e0e2260	0.138803
44	0x3e0a883e	0.13528535
45	0x3e07cc9f	0.1326165
46	0xbd7deddc	-0.06199442
47	0x3d64bb3a	0.055842616
48	0x3c9659d9	0.01835339
49	0x3961455b	0.00021483509
50	0x3e9ca228	0.30592465
51	0xbd8d004b	-0.068848215
52	0x3d23213c	0.039826617
53	0xbd51e39a	-0.05124245
54	0x3d1c8282	0.0382104
55	0x3bacb38b	0.0052704266
56	0xbd2aa95f	-0.04166543
57	0x3d5f350f	0.05449396
58	0xbe0c53dd	-0.13703866
59	0xbd1a0c85	-0.037609596
60	0x3e2e8ffe	0.17047116
61	0x3cc251ac	0.023720585
62	0xbc9ef785	-0.019405136
63	0x3d9926e6	0.074781224
64	0x3dba89c3	0.09108307
65	0xbd3f1621	-0.046651963
66	0x3d3bfaa7	0.045893338
67	0x3c8f1e1c	0.017470412
68	0x3e1406c4	0.14455706
69	0xbec37f43	-0.3818303
70	0x3e0a3700	0.13497543
71	0x3dbc9cd0	0.09209597
72	0x3d2b0b8c	0.04175906
73	0x3e0d2579	0.13783826
74	0xbd0c0339	-0.03418276
75	0xbe118989	-0.14212622
76	0x3d6f9cda	0.058499195
77	0xbe040e5c	-0.12896103
78	0x3d1e7bba	0.038692214
79	0xbd122419	-0.035678957
80	0x3e1effe4	0.15527302
81	0xbdeb3f21	-0.1148665
82	0xbd91207d	-0.07086275
83	0x3caddced	0.02122351
84	0x3d94fcb5	0.072747625
85	0x3e13fab6	0.14451107
86	0x3dcb25e9	0.0991934
87	0x3ddffd71	0.10937012
88	0xbdda54a4	-0.10660675
89	0x3dbe162e	0.09281574
90	0xbda6e209	-0.081485815
91	0x3d523788	0.05132249
92	0xbd60dc5a	-0.054897644
93	0xbcdcb7c1	-0.02694309
94	0xbc954424	-0.018220969
95	0xbdbdefcd	-0.09274254
96	0xbe3f8ee9	-0.1870686
97	0xbdeab1f9	-0.11459727
98	0x3b7a3bed	0.0038182691
99	0xbd6696d9	-0.056296203
100	0x3d110f4d	0.035414983
101	0x3d74778d	0.059684325
102	0x3dfef64a	0.1244932
103	0x3c9132d7	0.017724438
104	0x3e303fd5	0.1721185
105	0xbd10463b	-0.035223227
106	0xbd1bb123	-0.038010728
107	0xbdda2d13	-0.106531285
108	0xbdd00006	-0.101562545
109	0x3c266283	0.010155323
110	0x3d311ad8	0.04323849
111	0x3d838bd0	0.064231515
112	0xbd46ee45	-0.048567075
113	0x3d91281a	0.07087727
114	0x3e3abbea	0.18235746
115	0x3db4452f	0.08802258
116	0xbc5c2bf1	-0.013438211
117	0x3afffa6f	0.0019529591
118	0xbdebda8b	-0.11516293
119	0x3e1917bd	0.14950462
120	0x3e0282ca	0.12745205
121	0xbba03ca9	-0.0048900438
122	0xbd50c732	-0.050971217
123	0x3dca9586	0.098918006
124	0x3e049ffc	0.12951654
125	0xbd809645	-0.06278662
126	0xbd87f680	-0.06638813
127	0x3d42f387	0.047595527
128	0x3e0c3485	0.1369191
129	0x3e16cb36	0.14725956
130	0x3dbf828b	0.09351071
131	0x3e015915	0.12631638
132	0x3de0d323	0.10977771
133	0xbc535bba	-0.012900287
134	0x3e1f7e1e	0.15575454
135	0x3d6e06ce	0.05811196
136	0x3df27fe0	0.118407965
137	0x3e031b00	0.12803268
138	0xbdaa644c	-0.08319911
139	0xbd8fa254	-0.070133835
140	0x3d012aca	0.031534947
141	0xbdae8f64	-0.08523443
142	0x3e153428	0.14570677
143	0x3d76c26f	0.06024402
144	0xbd37cbda	-0.044872142
145	0xbdfcd8f2	-0.123460665
146	0xbe56b26b	-0.20966499
147	0x3d9b1cc6	0.075738475
148	0xbe3c18a3	-0.18368773
149	0x3e18398e	0.14865705
150	0xbd9f1f1c	-0.077696055
151	0xbd7b3cf8	-0.06133744
152	0x3d8acfb7	0.067779
153	0xbe0ddd7c	-0.13854021
154	0xbd2565ff	-0.040380474
155	0xbe475e37	-0.19469534
156	0xbdb52936	-0.08845751
157	0xbd9eaa41	-0.07747317
158	0x3d933f2e	0.07189785
159	0xbe8f8cda	-0.2803715
160	0x3c4a44c8	0.0123455
161	0x3cc3bb8b	0.023893138
162	0x3d60420c	0.054750487
163	0xbda93550	-0.08262122
164	0x3e10d214	0.14142638
165	0x3e1d0fd7	0.15338074
166	0xbd946443	-0.07245686
167	0x3d4be13a	0.04977534
168	0xbc96e219	-0.018418359
169	0xbddac799	-0.106826015
170	0xbc14ea11	-0.009089009
171	0x12c370a6	1.2334e-27
172	0x3d321653	0.04347832
173	0x3d66c1e2	0.056337245
174	0xbde84588	-0.11341387
175	0x3e2ee679	0.17080106
176	0x3db9bba8	0.09068996
177	0xbcce762c	-0.025202833
178	0x3da19594	0.07889858
179	0x3e05deee	0.13073322
180	0x3e027557	0.12740074
181	0x3de0b48c	0.109719366
182	0xbd54011e	-0.051758878
183	0x3dba079d	0.09083483
184	0x3e2e62be	0.17029855
185	0x3ce76693	0.028247153
186	0x3a340e11	0.0006868551
187	0xbd9c2b0d	-0.07625399
188	0x3d91135a	0.07083769
189	0xbb94958c	-0.004534429
190	0xbcf73494	-0.030176438
191	0xbe07f8d7	-0.13278519
192	0xbc5636d3	-0.013074595
193	0xbcc5b239	-0.024132835
194	0x3e1cd03d	0.15313812
195	0x3c840346	0.016114842
196	0x3e9641a9	0.2934697
197	0xbde1435f	-0.10999178
198	0x3e2bc5b4	0.16774637
199	0xbd9d8f37	-0.07693332
200	0xbd735830	-0.059410274
201	0xbcfab4e8	-0.030603841
202	0xbc855c2c	-0.016279303
203	0x3dde4b16	0.10854165
204	0x3d86c0c5	0.065797366
205	0x3bd408dd	0.006470783
206	0xbe2acc84	-0.16679579
207	0x3e330d62	0.17485574
208	0x3db97420	0.09055352
209	0x3d5f4175	0.054505784
210	0x3cf4ef24	0.029899187
211	0xbd04e049	-0.032440457
212	0x3e0bc815	0.13650544
213	0x3e262de5	0.16228445
214	0xbd30ecc2	-0.04319454
215	0x3cbdb15b	0.023155859
216	0x3dc5d308	0.09659392
217	0x3d284396	0.04108008
218	0x3c3b348f	0.011426105
219	0x3cdd16ce	0.026988413
220	0xbbc53879	-0.006018695
221	0x3dd83db5	0.10558645
222	0xbccff258	-0.025384113
223	0xbe38f0ac	-0.18060559
224	0x3d433e60	0.047666907
225	0xb9917e5e	-0.00027750706
226	0xbd992b0e	-0.07478915
227	0x3d61f832	0.055168338
228	0x3d2e5c04	0.04256822
229	0xbdb02bbd	-0.086020924
230	0x3e011420	0.12605333
231	0xbd5e77f7	-0.054313626
232	0xbd31f4fe	-0.043446533
233	0xbd6b5333	-0.05745239
234	0x3dc4777e	0.09593104
235	0xbdd3be69	-0.10339052
236	0x3e641b8a	0.2227613
237	0x3d907388	0.07053286
238	0xbcc6e577	-0.02427934
239	0x3c1188fb	0.008882756
240	0xbd6c0784	-0.057624355
241	0xbcef7fad	-0.029235685
242	0xbdd8a0a5	-0.105775155
243	0xbdb0afbb	-0.08627268
244	0x3d848730	0.064710975
245	0x3dde09b6	0.10841696
246	0xbac211e6	-0.001480636
247	0x3dcdb968	0.10045129
248	0x3dd2519b	0.10269471
249	0x3deb8515	0.11499993
250	0xbcbd9b6a	-0.023145396
251	0xbe20aa1c	-0.15689892
252	0xbda53cb7	-0.08068221
253	0x3d14ed05	0.036358852
254	0xbd282fae	-0.041061096
255	0xbc5c386e	-0.013441188
